pointnet/weights_per_bundle_ratio025/CA_best.pth (torch, 359088 bytes, 17 tensors)

t_grid f4 [100]
00000000: 0000 0000 b57e 253c b57e a53c 103e f83c
00000010: b57e 253d 62de 4e3d 103e 783d dece 903d
00000020: b57e a53d 8c2e ba3d 62de ce3d 398e e33d
00000030: 103e f83d f376 063e dece 103e ca26 1b3e
00000040: b57e 253e a0d6 2f3e 8c2e 3a3e 7786 443e
00000050: 62de 4e3e 4e36 593e 398e 633e 24e6 6d3e
00000060: 103e 783e fd4a 813e f376 863e e9a2 8b3e
00000070: dece 903e d4fa 953e ca26 9b3e bf52 a03e
00000080: b57e a53e abaa aa3e a0d6 af3e 9602 b53e
00000090: 8c2e ba3e 815a bf3e 7786 c43e 6db2 c93e
000000a0: 62de ce3e 580a d43e 4e36 d93e 4362 de3e
000000b0: 398e e33e 2fba e83e 24e6 ed3e 1a12 f33e
000000c0: 103e f83e 056a fd3e fd4a 013f f8e0 033f
000000d0: f376 063f ee0c 093f e9a2 0b3f e438 0e3f
000000e0: dece 103f d964 133f d4fa 153f cf90 183f
000000f0: ca26 1b3f c5bc 1d3f bf52 203f bae8 223f
00000100: b57e 253f b014 283f abaa 2a3f a640 2d3f
00000110: a0d6 2f3f 9b6c 323f 9602 353f 9198 373f
00000120: 8c2e 3a3f 86c4 3c3f 815a 3f3f 7cf0 413f
00000130: 7786 443f 721c 473f 6db2 493f 6748 4c3f
00000140: 62de 4e3f 5d74 513f 580a 543f 53a0 563f
00000150: 4e36 593f 48cc 5b3f 4362 5e3f 3ef8 603f
00000160: 398e 633f 3424 663f 2fba 683f 2950 6b3f
00000170: 24e6 6d3f 1f7c 703f 1a12 733f 15a8 753f
00000180: 103e 783f 0ad4 7a3f 056a 7d3f 0000 803f
0.0 0.01010101 0.02020202 0.030303031 0.04040404 0.05050505 0.060606062 0.07070707
0.08080808 0.09090909 0.1010101 0.11111111 0.121212125 0.13131313 0.14141414 0.15151516
0.16161616 0.17171717 0.18181819 0.1919192 0.2020202 0.21212122 0.22222222 0.23232323
0.24242425 0.25252524 0.26262626 0.27272728 0.28282827 0.2929293 0.3030303 0.3131313
0.32323232 0.33333334 0.34343433 0.35353535 0.36363637 0.37373737 0.3838384 0.3939394
0.4040404 0.41414142 0.42424244 0.43434343 0.44444445 0.45454547 0.46464646 0.47474748
0.4848485 0.4949495 0.5050505 0.5151515 0.5252525 0.53535354 0.54545456 0.5555556
0.56565654 0.57575756 0.5858586 0.5959596 0.6060606 0.61616164 0.6262626 0.6363636
0.64646465 0.65656567 0.6666667 0.6767677 0.68686867 0.6969697 0.7070707 0.7171717
0.72727275 0.7373737 0.74747473 0.75757575 0.7676768 0.7777778 0.7878788 0.7979798
0.8080808 0.8181818 0.82828283 0.83838385 0.8484849 0.85858583 0.86868685 0.8787879
0.8888889 0.8989899 0.90909094 0.9191919 0.9292929 0.93939394 0.94949496 0.959596
0.969697 0.97979796 0.989899 1.0

encoder.mlp.0.weight f4 [64, 3]
00000000: 63b6 ffbd f9ed f93c 99c3 10be 2968 993e
00000010: a257 ae3e 9854 68be 6618 a43d 57f5 2f3e
00000020: 6e83 093d 0227 03bf e9d1 1f3e 1d5f d33e
00000030: 869c 553c 458d 143e 0260 a83d 223b 0e3e
00000040: 58a7 a53e 1a45 c23d b2e7 bfbe 4830 d03e
00000050: 9432 59be 068d 8b3e 9dca 5f3e b285 8bbe
00000060: ff1a d23d 5e8e 91bd 6c83 a83e 959f dbbd
00000070: f79b 84bc cb11 303e 17fe d43d dbb1 99be
00000080: 3395 dd3e 8034 953e 66b1 c5bd 4251 c43c
00000090: ff1c 91bd 422c efbe 22a8 e73e 17eb f43e
000000a0: 5444 cabe f793 f73e 0da1 f33e ad04 13be
000000b0: 5872 b7be 11ec 2ebe ffa8 03bf cc7b 433e
000000c0: 7a64 133e bee6 d73e 7a95 443e 8190 e83d
000000d0: 4e8c a73e 147a c93e d2c1 ffbe f7b2 ccbe
000000e0: 16f9 2d3e 57f6 0f3f 09bf a93e 7b58 afbd
000000f0: 6c4f 0b3f 6317 823e 1868 8b3d 1a06 c03e
00000100: 706d 1ebc b4be 0bbf 8536 bfbe 9c9e 49bd
00000110: 6a3a f43e 056e 6bbb 86ba dc3e a9cf 16bf
00000120: ea6d c23c 5c49 a33d 91f8 8c3e 5ed4 babe
00000130: 791e 123f 5cba f6bc 0235 1bbe 56b1 783e
00000140: eb6e 13be 66e4 febb e1ab 4a3b 877c 01bf
00000150: beac 04bf 3da0 0abe e6b4 50bd 4bb4 113f
00000160: d13a b43e 09e7 023f 4861 753e 2d20 cabe
00000170: f633 20be 9577 c73c 1da3 06bf 8597 823e
00000180: ab45 09bc 746d 98be f150 dcbd efcd a9be
00000190: 7dc4 b9be 7893 66bd 2888 aebd 1ab9 d8be
000001a0: 3439 e2be 859a 02bf 4b40 383e 3e2a febc
000001b0: 451b dbbd c905 0a3f 3868 a6bd 463d d9be
000001c0: 2337 a23e 8909 b3be c00e e8bd 3cc5 c53d
000001d0: b8eb 493e 083d 693d 6878 fc3e 5462 893e
000001e0: 1ebe acbd d6d4 84be 2d44 04be f7d5 ba3e
000001f0: 0eeb a13e 0bb5 23be 599c 3b3e 30e6 b9be
00000200: a7f3 8fbd 25fe 39be dde9 e2be fa3a dfbe
00000210: df15 013f cd53 813e a79c 943e 6d78 833e
00000220: f899 5abe 899c febd 991a 79ba c977 0dbf
00000230: 6524 8d3e 062b 2ebe 12e0 f4be a94a 06bf
00000240: 6ee9 5ebe 84b0 a3be ccb7 f3be 90d4 b9bd
00000250: 7099 673e 5daa 53be ef64 c8be 6839 c9bc
00000260: 8f69 00bc be4d f6be 781c 58be e68e a43e
00000270: 760f b43c 0ac2 4dbe 6171 c5be c443 efbe
00000280: 023a 32be dbb6 94be 6c27 01be c1d6 b4be
00000290: d727 e33e 6715 393e 6619 f73d 3e40 903e
000002a0: f6a0 76be de6c 133f 99d5 543e 8b5c 47be
000002b0: 2eb1 5cbc 6d6a 8e3e 200f 9d3e ede7 b8be
000002c0: 2b79 febe 19e2 473e 0f44 343d b33d b53e
000002d0: addc b13e 9e21 f6be a10c 8c3c 3593 b83c
000002e0: 5a0b 973e 02ad 1a3e b22e dbbe 0233 f23e
000002f0: b9d1 623e 5340 d3bd 19eb ca3e 1e41 9c3d
-0.124859594 0.030508982 -0.14137115 0.2996228 0.34051234 -0.2268852 0.08012466 0.17183433
0.033572607 -0.51231396 0.15607418 0.41283503 0.013037806 0.14507015 0.08221437 0.13889745
0.32354236 0.09485836 -0.37481457 0.40661836 -0.212107 0.2725603 0.21854635 -0.2725044
0.10259055 -0.071072325 0.32912767 -0.10723797 -0.016187651 0.17194287 0.10400026 -0.30018505
0.43277892 0.29141617 -0.09652977 0.023964528 -0.07085609 -0.46713454 0.45245463 0.4783561
-0.39505255 0.48355076 0.4758381 -0.14357252 -0.35829425 -0.1708224 -0.5142974 0.19090194
0.14393798 0.4216823 0.19197646 0.11355687 0.3272423 0.3935095 -0.4995256 -0.3998029
0.1698955 0.5623526 0.3315356 -0.08561798 0.54418063 0.25408468 0.06806964 0.37504655
-0.009669647 -0.54587865 -0.37346283 -0.049223527 0.47700816 -0.003592373 0.43111056 -0.58910614
0.023734052 0.079729766 0.2753339 -0.36490148 0.5707775 -0.03011816 -0.1515694 0.24286398
-0.1439778 -0.007778692 0.0030925202 -0.5058064 -0.51826084 -0.13537689 -0.05095377 0.5691573
0.35201123 0.5113378 0.23962891 -0.39477673 -0.15644822 0.024349013 -0.5259264 0.25506225
-0.008378427 -0.29771006 -0.10757626 -0.33164927 -0.3628272 -0.05629298 -0.085220635 -0.4232872
-0.44184268 -0.5101703 0.17993276 -0.031026002 -0.106985606 0.5391508 -0.08125347 -0.4242956
0.3168269 -0.34968212 -0.11330938 0.0965676 0.19718826 0.05694297 0.49310613 0.2683283
-0.084346995 -0.2594363 -0.12916632 0.36491367 0.31624645 -0.15987031 0.1832136 -0.36308432
-0.07028895 -0.18163355 -0.4431905 -0.43599683 0.50424 0.25259247 0.29025766 0.25677815
-0.21347797 -0.124322005 -0.00095025596 -0.552609 0.2756683 -0.170086 -0.47827202 -0.5245767
-0.21768734 -0.31970608 -0.47601163 -0.09073746 0.22617126 -0.20670457 -0.39139506 -0.024563506
-0.007837667 -0.48106188 -0.2110461 0.32140273 0.021980029 -0.20093551 -0.38563064 -0.4673139
-0.1740494 -0.29045758 -0.12612695 -0.35320094 0.44366333 0.1807457 0.12065391 0.28174013
-0.24084839 0.57587993 0.20784606 -0.19468896 -0.013469977 0.2781557 0.30675602 -0.36114445
-0.4970182 0.19519843 0.04401022 0.35398635 0.34738675 -0.48072523 0.017095866 0.022531131
0.29500848 0.1510506 -0.42809063 0.4730454 0.22150315 -0.10315003 0.3963249 0.076296076

encoder.mlp.0.bias f4 [64]
00000000: 95b4 493e 86b1 c0be 511a 113e bc45 18be
00000010: eefd c53e 9e19 de3e 989a fc3e 6972 9f3e
00000020: dac1 a83e 150b 53be c00d 833d 6ae0 b0be
00000030: f631 083e d0e4 7abe dd81 3abe 9ab7 ba3e
00000040: a526 44be 2658 a33e 7239 42bd 9e42 0ebe
00000050: 6d93 25be 1488 88be aaa5 39be ab91 c9be
00000060: e1f6 38bc d4f1 d93e feeb fa3e 4ddd a93e
00000070: 8633 343e 8b1f 713c 23d6 293e 001c 26be
00000080: 3343 70be 8958 693d e34f 0c3e 4aad b43e
00000090: d9fb b4bb 4a63 933e 67ad 8c3e 4e2b 6a3d
000000a0: 4f4a 57bd 472b 093e a1f2 f5ba c388 5bbe
000000b0: f4ba a4bc f4dd a33d 76a9 983e 4445 c53e
000000c0: e107 ffbc 547c 5bbe d754 d9be a030 d53e
000000d0: 84ff 68be c42a 473e 411b 6c3d f0e7 84bb
000000e0: e5cb 05be 5667 203e 9235 a63e 0b09 ac3e
000000f0: 2123 95bd 2529 7b3e a997 373e 63e5 7fbe
0.19697793 -0.3763544 0.14170195 -0.14870352 0.38670295 0.4337892 0.49336696 0.31141976
0.32960397 -0.20609696 0.06399107 -0.34546214 0.13300309 -0.24501348 -0.18213601 0.36468202
-0.19155367 0.3190319 -0.047418065 -0.138926 -0.1616952 -0.2666632 -0.18129602 -0.39368948
-0.011289329 0.42567313 0.49008173 0.33176652 0.1759778 0.014716993 0.16585593 -0.16221619
-0.23463134 0.0569692 0.1370235 0.3528846 -0.0055231866 0.2878669 0.27476045 0.057170205
-0.0525611 0.13395415 -0.0018764326 -0.21438889 -0.020108677 0.080013186 0.29816788 0.38529408
-0.031131687 -0.21434146 -0.4244754 0.4163866 -0.22753721 0.19449908 0.05764318 -0.0040559694
-0.13066061 0.1566442 0.32462746 0.3360065 -0.07282091 0.24527414 0.17928948 -0.24989848

encoder.mlp.2.weight f4 [128, 64]
00000000: 4d23 9a3c d478 54bd f798 f23d 1cbf 56bd
00000010: 8620 183e 8ace 083e 375c 963d 8e78 95bc
00000020: 2ec5 9a3c f55b 6a3c 540a 053d 8794 2fbd
00000030: 0c0e 103c 7f13 67bd 5dd0 4f3c 84f6 8f3a
00000040: 29d4 0b3e 162b 1d3e 84bb 4dbd 9d90 973d
00000050: 82d7 df3c ae69 3c3d 3f5e 303d 3320 1abd
00000060: b489 893d b2e4 b63d 83db d73c aba5 10bb
00000070: cd43 85bd 0ceb 1b3c d57c 61bd 2d41 3c3d
00000080: caa2 5e3b 2e5a 9abd 8296 2ebc a97e 1cbc
00000090: 559e ad3d ca24 16bd 0894 273d a789 1d3e
000000a0: 9916 e5bc 3a0f ebba 6b89 9dbd 6cfb c7bd
000000b0: 97b6 8fbc f97a 333c 9979 263d ccb5 a1bd
000000c0: e930 4cbc 4490 3bbd 75be acbd c9af 60bc
000000d0: 0954 89bd 4c2d 49bd 5dc2 72bb 7d8e 453c
000000e0: 8c3d 073e eb21 713d 8ec1 50bd 1243 aa3d
000000f0: 354b 8dbd a650 073e a192 c13c 14a9 fe3d
00000100: bc37 153d 2393 d73a ec08 9abd 972f a2bd
00000110: 0c01 4f3d 9c37 55bd a437 cb3d dd60 77bc
00000120: 89e0 2dbc 8a01 323c ae0e b1bc 646f 733b
00000130: 192d 5fbb 37df 003e 03bf dc3d 1b42 883d
00000140: 546a d4bd e880 46bd 3c0c 9b3d 2f2e a7bd
00000150: e998 da3c ebaa a43d b236 383c bace e43d
00000160: 95d0 a5bc e697 e43d 1325 9abd 1b56 d13d
00000170: d850 d8bd b16a 6abd ee88 abbd 21ea 3a3d
00000180: 2e6f a7bd c94c 3fbd 24ae e63d 876e bbbd
00000190: cbdd a5bd 9a15 aa3d d5eb 14bb 282f c13d
000001a0: fe45 95bd 0913 92bd 1d8d 223b 67d7 d1bd
000001b0: d275 6fbc c6ab 5e3c adbd 043d 5657 cbbd
000001c0: 6f14 ff3d 5156 eb3c 62e0 b8bc f0d0 11bc
000001d0: 8924 4abd 04c0 903d 2fd3 10be c205 edbd
000001e0: 8060 983d b94b 9ebd 7ea0 9b3d 739e 1b3d
000001f0: 7f3b 12bd 16cc 9d3d 0bde eebd ebf0 95bd
00000200: c06f f43d b9b0 9a3d bdf9 913d 8175 a83c
00000210: 1cbe f4bc 8d69 453d 8527 e7bd 113b 4dbc
00000220: 2a63 ed3c efd1 bebc 07ca aa3b 6b22 b13c
00000230: 3e70 a8bc 54b4 7f3d f4a4 e03c bcbb a5bd
00000240: bc63 a13d 8d79 b53c e11a 49bd ce7b 313c
00000250: 5c8f b33d 0285 503d a7ea ecbd 178f 59bc
00000260: e2a3 803b 18ce a33d 7688 89ba 13e2 d63c
00000270: 3860 e3bd 2ae3 a0bd 1bce fdbd 44da 08be
00000280: 745b 7e3d f2fa 33bc 77c6 75bd 6935 5dbd
00000290: 2c39 e63d 280c aabd 563f 23bd b328 e23d
000002a0: 1511 f53d f882 7c3d ff30 243d 31e6 d13d
000002b0: 8f28 b8bc 2b6b d7bc 72f8 4d3a 21a8 d43d
000002c0: 6658 fd3d d6b3 be3d c970 f2bd ea58 933d
000002d0: 8e67 a8bd 7549 b83d ccd4 c4bd d209 873c
000002e0: 3e87 73bd 3a6b b23c 3667 14bd df22 273c
000002f0: 83b5 e43c 0b4b cf3c 59a8 b93d 0c00 963c
00000300: a108 b93d 5749 893d c0d7 443d 1cdc 263d
00000310: 02d8 8ebd 2787 70bd 8d1b 963d 7ddb fbbd
00000320: 2b5b 34bb e5dc 44bd bb87 8ebd 6fbd 5f3c
00000330: d35f fdbc 3829 b73b 03f1 e83d 2ab3 3b3d
00000340: a2bb 2dbc 18f5 373a 79e9 abbd 5aec 7bbd
00000350: d6f6 17bd a338 103d 8f41 e13c 6afb c93b
00000360: c89a b8bb f7fc 86bb ecda 40bb 6d73 353c
00000370: cfa7 d53d 85e4 bdbd 42c9 483d c526 19be
00000380: 685c b83d dd3b d33b 9299 363c 3c95 ffbc
00000390: 1081 d8bd 61a4 11bd 6b96 5fba 56fc c1bd
000003a0: dac2 ec3c af5f d73c 0d05 f23d 78ce 3a3d
000003b0: 6bb0 c43d a29b 97bd 48ea d3bd 4c1e ce3d
000003c0: 6c57 3f3d 186e 93bc 9570 fe3a 91d4 f43c
000003d0: 0f64 54bd 425f e1bb 9df7 07be ff03 3c3d
000003e0: cdd0 bcbc 5667 6c3d 7454 923d 2c0c 243d
000003f0: 26ee f83d 61ad 46bd 830e 7fbd 5e4c a83d
0.01881566 -0.051873043 0.11845582 -0.05242835 0.14856157 0.13360038 0.07341807 -0.018245962
0.01889285 0.014304151 0.032480553 -0.042866256 0.008792412 -0.056415077 0.012683955 0.0010983502
0.13655151 0.15348467 -0.050227657 0.0740063 0.027324442 0.04599922 0.04305863 -0.037628364
0.06715718 0.08930339 0.026349789 -0.0022071402 -0.065070726 0.009516489 -0.05505069 0.045960594
0.0033971542 -0.07536732 -0.010656001 -0.0095516825 0.08477465 -0.03665618 0.040912658 0.15384541
-0.027964877 -0.0017933615 -0.07692226 -0.09764752 -0.01754312 0.010954612 0.04064331 -0.07896003
-0.012462833 -0.04579188 -0.08434764 -0.013713785 -0.067054816 -0.049115464 -0.003704212 0.012057898
0.13207072 0.058870237 -0.050965838 0.08313574 -0.0689911 0.13214359 0.023629488 0.12434593
0.036430106 0.0016447048 -0.07521233 -0.07919233 0.050538108 -0.052054986 0.09922722 -0.015098778
-0.010612615 0.010864625 -0.021613445 0.0037145251 -0.003405398 0.1258515 0.1077862 0.066532336
-0.10371843 -0.04846278 0.07570693 -0.08163106 0.026684241 0.080404125 0.011243509 0.111722425
-0.020241061 0.11161785 -0.075266026 0.102215014 -0.10562295 -0.057230655 -0.08375727 0.04563344
-0.08175503 -0.046704087 0.112636834 -0.09151941 -0.08098944 0.083049014 -0.0022723575 0.094328225
-0.072887406 -0.07132537 0.0024803348 -0.10246163 -0.014615493 0.013590759 0.03240745 -0.099287674
0.12455069 0.028727682 -0.022567932 -0.008899912 -0.04935125 0.07067874 -0.1414306 -0.11573364
0.07440281 -0.07729287 0.07598971 0.037992906 -0.03570127 0.07704942 -0.11663445 -0.07321342
0.11935377 0.075532384 0.07127712 0.020563843 -0.029875807 0.048196364 -0.112868346 -0.01252629
0.02897795 -0.023293464 0.005212072 0.021622857 -0.020561334 0.062427834 0.027422406 -0.08092448
0.07880351 0.022152686 -0.0490979 0.01083274 0.08767578 0.050908096 -0.11568194 -0.013278744
0.0039257864 0.07998294 -0.0010492939 0.026230847 -0.11102337 -0.07855828 -0.12392827 -0.13364512
0.062098935 -0.010985123 -0.060003724 -0.054006014 0.112413734 -0.083031 -0.039855324 0.11042919
0.11966149 0.06164834 0.04008579 0.10248984 -0.022480277 -0.026296219 0.00078571506 0.103836305
0.12370376 0.09311645 -0.11837918 0.071946934 -0.082228765 0.08998386 -0.096109 0.016484175
-0.05945515 0.021779645 -0.036231242 0.010201185 0.027918583 0.025304338 0.09065313 0.01831057
0.09034849 0.067034416 0.048057318 0.040737256 -0.06974794 -0.05872264 0.07329474 -0.122977234
-0.002752016 -0.048062224 -0.06959482 0.013656004 -0.030929482 0.0055896305 0.11374094 0.04582516
-0.010603817 0.0007017418 -0.08394141 -0.0615047 -0.037100635 0.035210263 0.027497081 0.006164004
-0.0056336857 -0.004119511 -0.0029427363 0.011074883 0.104323976 -0.09272102 0.04902006 -0.14956196
0.09002 0.0064463452 0.011145012 -0.03119909 -0.10571492 -0.035557155 -0.0008529189 -0.094719574
0.028901506 0.026290743 0.118173696 0.04560706 0.096039616 -0.074027315 -0.1034742 0.100643724
0.04671423 -0.017996833 0.0019412214 0.029886516 -0.051853236 -0.0068778107 -0.1327805 0.04590225
-0.023048783 0.057715736 0.071450144 0.04005067 0.12154798 -0.04850519 -0.0622697 0.08217691

encoder.mlp.2.bias f4 [128]
00000000: 1945 0e3e 3ea1 cf3d 3bb9 e0bc 9c86 0bbe
00000010: bd51 af3c 69a1 45bd b626 713d 7ab1 29b8
00000020: 2c83 9f3d 8d98 453c 9dcc 39bd 4e28 89bd
00000030: 4cee e73c 0f32 2c3e 5593 313c b105 623d
00000040: 334d 583d 3cc9 afbd 0e34 b8bc 40db 163e
00000050: 6421 263c 2a30 3d3c c5de 5abd d1cd e2bd
00000060: 0251 14bd e397 e6bc 535c 46bc dd5e 8cbd
00000070: 8911 3a3e a8d9 263e 9f25 32bd 0dfc 243c
00000080: fe52 78bd f5dc f63d 9efb a03c 43ff 14be
00000090: 9d94 073c 606c c83c f1bf 5dbd 1f8a 99bd
000000a0: fbb7 bc3d e0dd f73c 0196 1a3e 14d0 d23b
000000b0: ad2d c9bc 2d35 503d a470 37bc 5797 9dbc
000000c0: 3fd0 af3d e3e6 71bc 40d7 65bb caa7 16bc
000000d0: 9e9c 8fbd 9307 8b3d 1c7c cb3d b721 76bc
000000e0: 1639 80bd a36e 30bd 4677 34bc fb70 bbbd
000000f0: 579c 56bd bcfe 033e bb20 96bd 5425 2ebd
00000100: 9c39 35bd de91 ef3d f672 513d 7d61 9b3d
00000110: b4d9 c2bd 1abc a5bd 39c5 583d c244 a0bd
00000120: 1d09 ec3d d9e3 37be 3b9d 8f3d aaf1 7b3c
00000130: aebc c13d 8afe 843d 536c 9abc 354f 343b
00000140: fb42 c23c a249 bf3c 6ab2 1fbc 547d 543d
00000150: 0d31 773b 3669 43bc 4093 863c 2967 f03d
00000160: 2b2c 76bd ee64 7abc 8c06 2dbd 6347 62bd
00000170: bac6 5c3d 8345 ee3d bd59 7f3d 77b0 863d
00000180: c73b babd f4d4 fd2f b961 bc3c e289 9c3d
00000190: 65c9 eb3d 475d 973d f77d 823c a0dd b4bc
000001a0: c524 ecbc 94d6 473c 2a3d 193d 2538 96bb
000001b0: 70e0 8a3d 5159 ca28 c223 953d a912 1abd
000001c0: 5d79 4e3d 6ac8 983d 2e5d 703c d4ce 5d3d
000001d0: 2ae7 2d3c 7114 b13d 420e 6a3b 377c 3bbe
000001e0: 0144 26bd 84d6 c53d 0699 99bc 1410 b4bb
000001f0: 8cd1 373c 3436 05bc e662 193e 5e7f 773d
0.13893546 0.101381764 -0.027432075 -0.13625568 0.02140128 -0.048249636 0.05887481 -4.0458028e-05
0.07788691 0.012060297 -0.04536115 -0.06697141 0.028311871 0.16815971 0.010838349 0.05518121
0.052807998 -0.08583304 -0.02248576 0.14732075 0.010139797 0.011547128 -0.053435106 -0.110744126
-0.036210068 -0.028148597 -0.012106973 -0.06854031 0.18170752 0.16293967 -0.04349291 0.010069859
-0.060626023 0.12053863 0.01965123 -0.145505 0.008275178 0.02446574 -0.054138128 -0.07497048
0.09214779 0.030257165 0.15096284 0.0064334963 -0.024557913 0.050831962 -0.011196289 -0.019237204
0.08584642 -0.01476452 -0.0035070926 -0.0091952775 -0.07012294 0.06788554 0.09935781 -0.015022687
-0.06260888 -0.04307426 -0.011014765 -0.09152409 -0.05239519 0.12890142 -0.073304616 -0.042516068
-0.044244394 0.11697744 0.051135026 0.07586954 -0.0951418 -0.08092518 0.05292246 -0.078256145
0.11525176 -0.1795801 0.07012411 0.015377441 0.09459816 0.06493862 -0.018850481 0.0027513031
0.02371358 0.02335054 -0.009747127 0.051877335 0.0037718446 -0.01192694 0.016427636 0.11738426
-0.060100716 -0.015282853 -0.04224257 -0.05524386 0.053900458 0.11634352 0.06234144 0.06576627
-0.09093433 4.6171744e-10 0.022995817 0.076434866 0.11513022 0.07390838 0.015929205 -0.022078335
-0.028826127 0.0121971555 0.037411846 -0.0045843297 0.06781089 2.246524e-14 0.07282211 -0.037615452
0.05040871 0.07460101 0.014670653 0.054152325 0.010614196 0.08646477 0.0035714065 -0.18309103
-0.040592197 0.09660056 -0.018749725 -0.0054950807 0.011219393 -0.008130599 0.14979133 0.0604242

encoder.mlp.4.weight f4 [256, 128]
00000000: 049e 9dbc 911d 76ba 5530 6ebd 1b52 de3c
00000010: 296e 49bc f604 21bc c712 2ebc 4e3a c01e
00000020: 7543 67bc 1db1 1d3d 8642 9abd 1e00 e9bc
00000030: ebf7 1a3c 617b 943c c8cf 503b caff 7abc
00000040: c640 afbc 65ee e9bc 5158 60bd 3ade f83c
00000050: 980c 8fbc 97f0 f63c 1973 5d3d 8927 71bc
00000060: 1c43 25bd 6c64 a93c ee47 063c 8d80 483c
00000070: 9786 57bc b6e4 903d ecc5 493d e377 c43b
00000080: 4a49 02bd 3e38 adbc aa52 223c 64e0 023d
00000090: 49ae 893d b855 a7b7 ee30 aebc 7ee6 25bd
000000a0: c52a 093c 085d 92bc 44aa be35 5d0c e681
000000b0: cced 6a19 360b eb3b 9b67 4e3d cdb8 19bd
000000c0: 841f 5d3c 6ea3 cdbc 5c8d 7bbd 071e 03bd
000000d0: e28d 52bb 3c35 59bd 010f 8cbc 27c1 d2bc
000000e0: 6943 82bd b6ff 813b 0776 813d 2543 7e3b
000000f0: 61ac 303d d171 bcbc 3e7d 34bd 6aa0 54bd
00000100: 3346 83bd 49d3 d839 19a7 d53b eb1e 2fbd
00000110: d0ca 02bd 2818 cf3b c517 230a 2eb0 a3bc
00000120: e3d3 edbc 9533 203d 8640 7d3c ea33 333b
00000130: dffd 4d24 2f1d 72bc 68ac 55ba 4659 8eb9
00000140: dd2f 853a 5a7e 17bd 6b59 32bd cdd0 173d
00000150: 90f8 24bc bc3b 1abc 0438 053c c6b6 d03c
00000160: 83ad 39bc eb12 353c 0dea 903c c75d 0abd
00000170: a65f d7bb ae6b de38 e610 f9ba 46d7 babd
00000180: 8cae 45bc 41fe 0400 704c 8639 7121 d83c
00000190: b98a ce3b 349a 44bc 7284 923d c91d d4bc
000001a0: f43a 4cbc 1cc4 3fbb 05c0 45bd ab17 1f3c
000001b0: 466e 5ebc 9fdb 85a5 8b16 6ebb f6a7 883b
000001c0: 29ef 2b3d 47a1 03bb 2a1b d2bc f9f3 82bb
000001d0: 97f6 fabc 72bb a8ba c347 59bd 3df5 dfbc
000001e0: 5011 213d 2cf0 6917 e575 90bc dafd a53b
000001f0: aac5 1ebc e440 e13c 4a8f 643c ca4c 1f3d
00000200: 0d1d b83c b71b 09bd be96 2b3d 11de 8f3d
00000210: 7665 9abd 130d e33c e92f 193d ec80 72b9
00000220: 4ef8 80bd 9f1e 9fbd 9dc3 b83b 7a47 3e3d
00000230: 2ef3 613d 815e b4bc 38b4 983c 2e11 babc
00000240: 5080 05bc 31a8 adbd ac6e 143d ef92 743b
00000250: 44ca d23c 8161 143d f9b7 693b a3c5 ac3c
00000260: c47c 07bc 9de5 7cbd 9fcd b63c 0c9c b43c
00000270: 0190 1a3d abab b7bd f626 48bd 8bef b83d
00000280: 7fc7 503d 1636 a83d 70ae 9a3a e31a 9d3d
00000290: 548c 14bd b1ff 123c 1a63 513d 62cf 7cbd
000002a0: 9888 4dbc 56f3 00bd c203 f43c 9d06 2b3c
000002b0: 575a cb3d 47fb 183c 1cab 12bd 2f44 74bd
000002c0: 0983 a33d a689 783d 4fd0 58bc b518 a93d
000002d0: f2de 943c 6b38 f03c 1b77 f03c 6e4e 29bd
000002e0: 6dec 65ba fb49 19bc 5434 c2bc 5428 2abd
000002f0: 3870 29bd fb9e 903d e187 503d 2b4a 1d3d
00000300: 836c ecbc aabb 933d acc4 783d 6353 b73c
00000310: 725a 243c ab6d 913d a7cb eab9 d211 12bd
00000320: a463 8c3d 27e2 adbc 603e 1c3d 86fb aeba
00000330: e4a6 823c 1e8d 03bd 8c79 c33d 2524 72bd
00000340: 83c7 983d a712 99bc ac03 9dbd a329 7d3d
00000350: a752 173d 5174 33bc 7d7c 9fbc 93bf 7e3d
00000360: 72e8 c93c 0db8 123d 6e79 933c fbda 403d
00000370: d58f e73c 82aa 2c39 d629 20bd a19b 663d
00000380: d8bc 223c b65a 9f27 d9dd e63a 5d8f 9ebd
00000390: f5b3 2b3c 7067 e03c 4d03 113d fa45 953d
000003a0: b1fa febb 30f3 6e3c 9a23 d2bb 3f17 573a
000003b0: 4616 223d 438f 1ca7 e7d9 d7bc a685 8cbd
000003c0: aece 54bb 02c3 15bc fc15 ca39 b90d 2dbc
000003d0: a606 343d c7bb 99bd 68f2 9fbd 7e5f 0fbc
000003e0: 5ce8 d23c 24d2 043d b9bf c5bc 2091 c5bb
000003f0: d4f4 25bb b85c 89bd b60a d13d 2b68 093d
-0.019240387 -0.0009388561 -0.05815156 0.02713876 -0.012294331 -0.009827843 -0.010624594 2.0352905e-20
-0.014115204 0.038498987 -0.075322196 -0.028442439 0.009458522 0.018125238 0.0031862129 -0.015319774
-0.021393191 -0.028556058 -0.054771725 0.030379403 -0.01746206 0.030144019 0.054064844 -0.014718899
-0.040347204 0.020677768 0.00819586 0.01223768 -0.013154647 0.07074873 0.04926102 0.005995737
-0.031808175 -0.021144982 0.009907404 0.031952277 0.067226954 -1.9947867e-05 -0.021263566 -0.040503018
0.008372013 -0.017866626 1.4205657e-06 -8.4506397e-38 1.2145539e-23 0.0071729673 0.050391775 -0.037529755
0.013496283 -0.025102343 -0.061414108 -0.03201106 -0.0032128026 -0.053029284 -0.017096998 -0.025726868
-0.06360514 0.0039672507 0.0632134 0.0038797345 0.043133143 -0.02300349 -0.044064753 -0.051910795
-0.06409874 0.0004135615 0.0065201637 -0.042754095 -0.0319317 0.0063200183 7.852635e-33 -0.01998147
-0.0290317 0.039111692 0.015457278 0.0027344176 4.4667326e-17 -0.014777466 -0.0008150996 -0.00027150864
0.0010161359 -0.036985733 -0.043542307 0.037064362 -0.010069028 -0.009413656 0.008131031 0.025477778
-0.011332872 0.011051874 0.01768973 -0.03378084 -0.0065726815 0.00010605842 -0.0019002229 -0.091230914
-0.012065541 4.58551e-40 0.00025615422 0.026383134 0.006303158 -0.0119996555 0.07154168 -0.025893109
-0.012465227 -0.0029261177 -0.048278827 0.009710233 -0.013576096 -2.3220643e-16 -0.0036329355 0.004170413
0.041976128 -0.0020085142 -0.025647718 -0.003996369 -0.030635161 -0.0012873246 -0.053046953 -0.027338618
0.03932315 7.55895e-25 -0.017634341 0.005065662 -0.0096906815 0.027496763 0.013950178 0.03889159
0.02247479 -0.033473697 0.041891806 0.07024778 -0.075388834 0.027716195 0.037399206 -0.00023126946
-0.0629736 -0.077695124 0.0056385533 0.046454884 0.055163555 -0.02201772 0.018640622 -0.02271327
-0.008148268 -0.084793456 0.036238357 0.0037319025 0.025731213 0.0362258 0.0035662635 0.021090334
-0.008269493 -0.061742414 0.022314845 0.022047065 0.03773499 -0.0896829 -0.04886528 0.09030064
0.050971504 0.08213441 0.0011801254 0.07671144 -0.03626664 0.008972094 0.0511199 -0.061721213
-0.0125447735 -0.031482063 0.029786948 0.010438588 0.0992934 0.009337253 -0.035807714 -0.059635337
0.07983977 0.060678147 -0.013233258 0.082566656 0.018172715 0.029323777 0.029353669 -0.041334562
-0.0008770887 -0.009356017 -0.023706593 -0.041542366 -0.041366786 0.07061573 0.050910834 0.03840081
-0.028860336 0.072135285 0.060734436 0.02237863 0.0100313295 0.07100996 -0.0004478369 -0.035661526
0.068549424 -0.021226002 0.038145423 -0.0013350106 0.01594872 -0.032117 0.095446676 -0.0591165
0.07459929 -0.018685652 -0.07666716 0.061807286 0.036944058 -0.010953025 -0.01946854 0.06219442
0.024646971 0.035820056 0.018002238 0.047083836 0.028266827 0.00016466717 -0.039102398 0.056300763
0.009932719 4.4229714e-15 0.0017613723 -0.07742188 0.010479917 0.027393073 0.03540354 0.072887376
-0.0077813496 0.014584348 -0.0064129354 0.0008205063 0.039572023 -2.1727011e-15 -0.026349021 -0.06861429
-0.0032471824 -0.009140732 0.00038544822 -0.010562354 0.043951653 -0.07506519 -0.07809907 -0.008750794
0.025745563 0.03242697 -0.024139272 -0.006029263 -0.002532293 -0.06707138 0.10207121 0.033546608

encoder.mlp.4.bias f4 [256]
00000000: 4f29 58bc 70b0 223d 20ee 2cbd f1bf 23bc
00000010: 724f aa3d 8929 1bbd 3803 a13d 781a c53d
00000020: 2eef 1bbd cb92 42bd 4df6 03bd 90e2 08bc
00000030: 7186 0bba 1554 b6bc f60f 02bd 04a3 303c
00000040: 9f99 843c 3a25 9e1d 1ff4 34bd f8d9 7d3c
00000050: ed02 613d da21 babc d404 77bc e084 3c3b
00000060: a0ee 6cbb 975c 8cbc b7a2 af3c c0eb 07bd
00000070: 7ce8 80bd acb2 aabc 9fb3 913c 3af2 21bd
00000080: fa8c c93c 0eb5 c13c f065 c93d 2ef4 71bc
00000090: 96b9 3b3d c3af c4aa f8c2 8abd be2f 3b3c
000000a0: 5c58 8b3d 27e6 853c fb02 a2bc ed35 90bc
000000b0: 7764 74bd 0f3a 2a3c c0a9 1dbd 9abf b03d
000000c0: 7b2f 653c 92a5 8bbd fad5 473c bb2f 87bd
000000d0: 5498 43bd cf65 bcbc 862d 37b9 4161 523d
000000e0: 60f4 d33c 76fa 89bb 7b46 673c acef 513d
000000f0: 91df 31bd 5792 263d b18f ab3c 6be2 4cbd
00000100: bb92 493c 02cd cc3c 27ba 6f3d ce7c 943d
00000110: f2f0 f23c 4897 9e3b a983 a23c 9c7e 0c3d
00000120: f922 4e3c db91 ae3d 290b 123d cf4f 393d
00000130: 1000 8e3d a7ec af3d 52f3 853d 3512 45bd
00000140: cd6a ec3c e517 feb8 f207 833c 6a1e 34bd
00000150: 3f44 12bc 989b 3dbd db4d 45bd f5c4 1dbd
00000160: c5f9 4c3d eca6 1c3c 83dd b53d f2fe 35bd
00000170: d74d 0b3d 7add 9ebc 2bbe 7eba 5428 e43c
00000180: f913 c13c 4ae0 4b3b 0a3d 603d 54e3 1ebd
00000190: 7382 08bd 0166 f4bb 986c 063d 5a4d 1a3d
000001a0: 1ad4 77bb 0c76 95bd 596f dabc d963 863d
000001b0: 9e9c f9bc 0117 013d 711c ec10 7bad 10bd
000001c0: 6d8a 1aba 903c 873c e7c5 893d 22fe 113d
000001d0: 8637 573a 637e 0ebd 2505 21bb 83b2 c5bb
000001e0: 3128 d93c a763 6ebc 8d25 23bc 19ce 01bc
000001f0: f038 7fbd 4dc7 db3c c7db e83b fe2e 283d
00000200: e3d3 0fbd 14a7 96bb dc95 b2bb 3509 a33b
00000210: 93bb ab3c 9643 f8bb 0ca3 923c b17f a13d
00000220: 680c a43c 20fb 8e3c ea32 c1bc 8726 c2b3
00000230: 2cc2 fd3d 7b32 7ebd f92a 91bb f338 28bd
00000240: 4a12 cc3c 514e 733d ccc0 453b 0b2d 3dbd
00000250: f722 bebc 68a8 c23c 962f 3d3d 1bc8 62bc
00000260: 6f84 82bc b6af 04bd 83a1 f53c 8bd2 96bd
00000270: 52be 55bd d6f2 4ebc b884 03bc 0123 c1bc
00000280: 3d5c bb3b 5df0 1ebd af2f 27ba 0765 5abd
00000290: 4e01 91bd 24dc a1bc aa60 2c3c a55f f33c
000002a0: 1636 36bd f04f ee3b 501c f33c e571 5ebc
000002b0: be15 063d 1532 b5b9 b818 b4bc 11e8 cc3c
000002c0: b105 853d 27cd b23c 0c57 073b 4e99 293d
000002d0: 29f7 fbbc 7503 adbc cf82 13bc cf08 423d
000002e0: 4ea8 b13d b5bc 7bbd 04a2 133d e0f6 9e3c
000002f0: 1ebe 93b5 2eae a13c ce7f 04bc 24e3 373d
00000300: 362d 01bc f1b6 4abd 06d1 1d3d d145 a73b
00000310: f41a 5cbd 724f 7e3d 15c6 da3c 312d c6bc
00000320: d150 4cbd ec40 4c3c 6676 0d3d 2ac7 7fbb
00000330: a512 5f3c 869d 6e3d 53a6 4e3a ea08 07bd
00000340: 418e dabc f470 8bbd af74 453d def2 3cbd
00000350: 3272 323d 05f0 ed99 2a85 913c 2b9e 28bd
00000360: 57af 3d3d e62d 903c ba0a 623b 7469 0bbd
00000370: a66c de3b a713 85bc 3b82 46bd 4079 bb3c
00000380: 6edf ed3c 0960 0bbd d02d bf3d 4864 24bd
00000390: 82e0 573d fc71 b83c 4c26 b9bd b305 6e3d
000003a0: 54ea bca8 1b8b 1a3d 76a5 6bbd c9fd 523d
000003b0: bc3f b83d f4dd 52bd c908 9c3d 1370 9f3d
000003c0: b3cd 31bd a22a bd3c e90e cfbc 3971 353d
000003d0: 7492 3cbd 1837 debb e087 883d 3a7d 1d3d
000003e0: c03c 5b3d 142d 523d 855c 2abc 5ebb c6bb
000003f0: ff68 fd3a 8ea3 b2bb ea68 b83d 8e19 93bc
-0.0131934425 0.039719045 -0.04221928 -0.009994493 0.08315934 -0.037881408 0.07861942 0.09624189
-0.038069896 -0.047503274 -0.032217313 -0.008354798 -0.00053224625 -0.02225689 -0.031753503 0.010781053
0.016186533 4.1860743e-21 -0.044178125 0.015493862 0.05493443 -0.02272122 -0.015076835 0.0028765723
-0.0036152974 -0.017133994 0.021439893 -0.033183813 -0.06294343 -0.02083715 0.017785845 -0.039537646
0.024603356 0.023645904 0.09833896 -0.01476769 0.045831285 -3.4938553e-13 -0.067754686 0.011424957
0.068039626 0.016345097 -0.019776812 -0.017603839 -0.059666123 0.010389819 -0.038491964 0.08630295
0.013988371 -0.068186894 0.012197012 -0.06600901 -0.047752693 -0.022997765 -0.00017469199 0.05136228
0.025873363 -0.0042107655 0.014115925 0.05125396 -0.0434261 0.040666904 0.02094254 -0.050020617
0.01230305 0.0250001 0.058527138 0.07250367 0.029655907 0.0048398115 0.019838171 0.03430043
0.01258158 0.085239135 0.035655174 0.045242127 0.06933606 0.0859006 0.0654055 -0.048113067
0.02885952 -0.000121161145 0.015995 -0.043974318 -0.008927404 -0.046290964 -0.048169952 -0.03851791
0.050042886 0.009561282 0.08880141 -0.044432588 0.03400978 -0.019392718 -0.0009717668 0.027851261
0.023569094 0.0031109028 0.05474571 -0.038791016 -0.03332753 -0.007458449 0.032818407 0.037671424
-0.0037815631 -0.07297906 -0.026664423 0.06562013 -0.030470189 0.03151608 9.312941e-29 -0.035321694
-0.0005895261 0.01650837 0.067272 0.03564275 0.0008209873 -0.0347885 -0.0024569717 -0.006033243
0.026508423 -0.014550126 -0.009957683 -0.007922673 -0.06231016 0.026828432 0.0071062776 0.04106044
-0.03511418 -0.004597554 -0.0054499935 0.004975463 0.020963466 -0.0075764162 0.017900012 0.07885683
0.020025447 0.01745373 -0.023583848 -9.040837e-08 0.12390551 -0.06205986 -0.0044301716 -0.041069936
0.024911065 0.05940086 0.003017473 -0.046185534 -0.023210032 0.023761943 0.04618796 -0.013841654
-0.01593229 -0.032394134 0.029984241 -0.07364377 -0.052183457 -0.012631139 -0.008027248 -0.023576261
0.005717783 -0.038803447 -0.000637765 -0.053319003 -0.07080327 -0.019758292 0.010521093 0.029708693
-0.044485174 0.007272713 0.029676586 -0.013576959 0.03273558 -0.00034560324 -0.021984443 0.025013002
0.06495226 0.02182634 0.002065125 0.04140597 -0.030757504 -0.021119813 -0.009003355 0.04737168
0.0867468 -0.061459262 0.036043182 0.019404829 -1.1007685e-06 0.019736376 -0.008087112 0.044894353
-0.007884314 -0.049490873 0.03852942 0.0051047583 -0.053736642 0.062087484 0.026705781 -0.02419147
-0.04988176 0.01246665 0.03453674 -0.0039028623 0.013615285 0.058255695 0.00078830606 -0.032967485
-0.02667916 -0.068086535 0.04820698 -0.046130054 0.043565936 -2.4602169e-23 0.017763693 -0.041166466
0.046309795 0.017600011 0.0034491257 -0.034036115 0.0067878542 -0.016244723 -0.04846404 0.022884965
0.029037204 -0.034027133 0.0933491 -0.0401347 0.05270434 0.02251529 -0.09040508 0.058110904
-2.0973816e-14 0.037730318 -0.057530843 0.05151156 0.08996531 -0.051481202 0.07618863 0.07785048
-0.04340906 0.023091618 -0.025275664 0.04429743 -0.046038106 -0.00678147 0.06666541 0.038449503
0.053524733 0.05131252 -0.010398035 -0.0060648164 0.001933366 -0.005451626 0.09004386 -0.017956521

pos_mlp.0.weight f4 [32, 1]
00000000: fbfc b536 7aab 40bf 3b78 193f dd0b 333f
00000010: a4bf 233f 5195 40bf 274f 663f 0d0d 833f
00000020: a5a7 43bf 2f61 8a3f 3597 40bf 2fd7 863f
00000030: df00 97be 207d 72b4 3701 23a4 ae56 bd3e
00000040: 75fc a8be 40f1 893f d767 843f c66a 3934
00000050: 6c4d 393f 6996 8a3f 64ba f9be a036 c8ba
00000060: a1d3 c1be a277 233f f0bb 13bf dc3a 503f
00000070: f8f1 f53e f6f3 a9ba 6d2d 503e 9b8f 03bd
5.423671e-06 -0.7526165 0.5994908 0.69939977 0.63964295 -0.7522784 0.89964527 1.0238358
-0.7642768 1.0810908 -0.75230724 1.0534419 -0.29492852 -2.2583527e-07 -3.534602e-17 0.36980194
-0.3300511 1.0776749 1.034419 1.7268312e-07 0.7238376 1.0827152 -0.48775017 -0.0015275069
-0.37856773 0.6385442 -0.57708645 0.8133981 0.4803617 -0.0012966383 0.20329829 -0.032119375

pos_mlp.0.bias f4 [32]
00000000: f4b9 c9ba 6707 403f 9f0f 393f c100 65bd
00000010: 5618 643f 8400 203f 64f5 d0bd a84a 57be
00000020: a287 763f 3af9 a3bd dea1 b23e b672 8f3e
00000030: 3cf7 453f e8c3 02b9 6f61 1aa5 0120 563f
00000040: 1644 9c3e 0b2d 0bbf 824f 623f c709 4bb9
00000050: 6f80 713c 1d1d 99bb 483c 493f 6106 ceb9
00000060: 5430 883f 477f 703e 2e0f 6c3f 0823 983e
00000070: 1a64 303f 1bb9 55bb ba8f 613f e9a9 5e3f
-0.0015390501 0.75011295 0.7228946 -0.055908922 0.89099634 0.62500787 -0.102030545 -0.21024573
0.9630071 -0.080065206 0.3488912 0.28017205 0.77330375 -0.00012470747 -1.3390383e-16 0.83642584
0.30520695 -0.54365605 0.8840257 -0.00019363231 0.014740094 -0.00467266 0.78607607 -0.00039296134
1.0639749 0.23486052 0.9221066 0.29714227 0.6890274 -0.0032611552 0.88109934 0.8697801

pos_mlp.2.weight f4 [32, 32]
00000000: 768c 7a02 402f 45be 245d 003e b509 a93e
00000010: 189d c53d b911 88be 09cc bd3e e5bd 843e
00000020: a812 9bbe ba2a a33e 2866 86bd 202b 353e
00000030: 933e 373c 5c8a 1e80 cff9 da22 6730 223e
00000040: 412e 3bbe 3f09 293e 51bd 843e f71b 0080
00000050: 5266 8e3e 6103 6e3e 1c1f 99bd 7f5d 218f
00000060: 9dee 4dbd 0631 943e c216 68be b1bc 433e
00000070: 08b4 533b 341c 0080 a922 0e3e 56df 273c
00000080: e6a4 a293 68e5 bebe 94be 243e 1250 b33e
00000090: 904c 633e 5782 81be 7f55 723e 880d 813e
000000a0: 175a 61be fd58 a03e c114 6ebe aab8 a23d
000000b0: dde8 66be be1e 0000 2b87 5ca3 8270 953e
000000c0: 8d6f f4bd 2247 7d3e 98c7 c33e 3121 0080
000000d0: 55e0 943e be0a ed3d 2ed9 38be bc38 628c
000000e0: 6893 c6bd bc3a 9a3d 58c3 87be 056c ae3e
000000f0: abf1 d13d 8726 d49b 9ec1 0b3e 192d d23d
00000100: dc50 b30b 203e 37be 60cb 0f3e f946 653e
00000110: f08d db3d 4873 e2bd 243d 6a3e 049e ad3e
00000120: 9be9 29bd 5ae6 7a3e 3a18 05bd 7d7d ac3e
00000130: 0c34 71be 041c 0000 a3a4 2f23 a093 be3d
00000140: 4058 77be 36a8 823e b78c 193e e631 4193
00000150: 5094 a03d 1b2a 8e3e 8f8a f5bd 2da6 c01c
00000160: 0ef9 56bd 8266 3c3d c120 88be dcc5 743d
00000170: 24fc 893e 0d2b 041c f9a1 e33d 39c0 403d
00000180: c38b 2d15 c0d4 89b4 02ae b5b8 00f0 65b0
00000190: 706c 10b9 d2b8 81b0 b1b5 f130 2fa8 aeae
000001a0: 7361 36b7 67f3 1eb5 c334 07af 4f08 13b8
000001b0: 2264 71b7 1723 0080 7922 0000 1390 bbb8
000001c0: 7cbc d82f 8766 7b2f 2d35 43b9 caac 0001
000001d0: a327 25b3 63ad 4cb6 7014 dab6 fa58 cf16
000001e0: 4741 72b8 122f a3b6 9ba9 84b7 c629 a6b7
000001f0: c272 64b8 35ad 6584 fae3 a7b8 6c09 50b8
00000200: ae1c 0080 c0b0 423e 3e76 21bc da7e a6be
00000210: 0288 873e 6c7a 6f3e f2cf 5abe 8dbc 7cbe
00000220: f31e c93e e450 b1be 1a0d c43e afa3 94be
00000230: 159e 833e 5956 c786 e220 7d23 e215 643d
00000240: a093 843e 7809 25be e9dd 173e 521d 0080
00000250: bd10 9ebe 590f bebe fa2f 993e b868 bb99
00000260: cfbd bf3e 277e 84be d228 193e ae2a 1ebc
00000270: 6516 4b3d c794 9809 47d2 243e bda7 463e
00000280: 6a1c 0000 23d9 c9a1 bebe aaa1 ca5a c6a0
00000290: ebba 8ca2 d347 ce21 049d 15a1 4514 74a1
000002a0: 156a 2421 a2ea b5a1 893a a220 c6e8 fea1
000002b0: de7a 14a2 f45e 370c e31b 0080 b7f7 62a2
000002c0: e052 24a1 b537 b8a0 51a8 6ca2 ca01 7417
000002d0: d3eb 19a1 9f20 d6a1 4407 42a1 5e39 cf8a
000002e0: 281c 67a2 761b a7a1 e6bf 1ea2 4d33 15a2
000002f0: 4660 b1a0 ed74 0d95 ae1d 94a0 75b6 8222
00000300: 14f6 1313 1a47 06a8 d440 96a8 73ba 96a7
00000310: c2ad b4a8 367a 2ea8 8311 a4a7 eafe 96a7
00000320: 000c 4da8 cb9b 56a8 1036 54a7 e574 5da8
00000330: 5fa2 53a8 3fb4 2600 cc10 998e c7c2 98a8
00000340: 5717 47a7 27cc b6a6 e8fb 1ba9 595d d41c
00000350: fa7b bca7 980b 0ea9 2a8f 40a8 0f02 0400
00000360: 2cf5 cea8 a849 cca8 f110 66a8 e874 58a8
00000370: 3967 8aa8 e016 2e04 6c73 3f2a 6233 89a8
00000380: c71b 0080 aa87 33a1 0318 09a2 9a3c 1ba1
00000390: bf14 1a21 1893 bc9e b61c b6a1 ccb9 02a0
000003a0: 9964 11a1 e979 5321 2ac4 e81f 47cd e0a1
000003b0: ed9b 62a1 8905 0000 84e9 089b 7d1a 0fa2
000003c0: 5fd5 80a0 fae3 87a0 e153 01a2 f5bd 6491
000003d0: da50 1322 42f4 c121 480b c020 9e4f 888c
000003e0: 2988 b7a1 597e 9ea1 bf73 7ca1 117a 2da1
000003f0: bf37 bda1 ef1b 0080 87a7 00a2 f57c eaa1
1.840741e-37 -0.19256306 0.1253553 0.33015218 0.09649104 -0.2657602 0.3706973 0.25926128
-0.3028767 0.31868535 -0.065624535 0.17692232 0.011184352 -2.804699e-39 5.9353514e-18 0.15838777
-0.18279363 0.16507433 0.25925687 -1.0032e-41 0.2781244 0.23243476 -0.07476637 -7.9559196e-30
-0.050276387 0.28943652 -0.22664931 0.19114949 0.0032303352 -1.0117e-41 0.1388041 0.0102461185
-4.105715e-27 -0.37284398 0.16088325 0.35022026 0.22197175 -0.25294754 0.23665427 0.25205636
-0.22007023 0.31317893 -0.23250104 0.07945378 -0.22549768 1.1028e-41 -1.1954847e-17 0.291874
-0.11935339 0.24734166 0.38238215 -1.1907e-41 0.29077402 0.115743145 -0.18051597 -1.742748e-31
-0.09696084 0.07530734 -0.26516223 0.34066787 0.10251173 -3.5097356e-22 0.13648078 0.10262508
6.9069956e-32 -0.17894793 0.14042425 0.22390355 0.10720432 -0.110571444 0.22874886 0.3390962
-0.04148255 0.24501935 -0.032493807 0.3368949 -0.2355501 1.005e-41 9.521632e-18 0.09305501
-0.24154758 0.2551896 0.14995085 -2.4384627e-27 0.07840788 0.277665 -0.119893186 1.274845e-21
-0.05248361 0.045996197 -0.2658749 0.059759006 0.2695018 4.373078e-22 0.11114878 0.047058318
3.5047324e-26 -2.5673035e-07 -8.663164e-05 -8.3650775e-10 -0.00013773306 -9.438514e-10 1.7586698e-09 -7.942479e-11
-1.08707345e-05 -5.9213784e-07 -1.2296923e-10 -3.505527e-05 -1.4388033e-05 -1.2588e-41 1.2366e-41 -8.943691e-05
3.9424097e-10 2.2864742e-10 -0.00018616459 2.3633857e-38 -3.8453106e-08 -3.0499293e-06 -6.4992855e-06 3.3498806e-25
-5.775809e-05 -4.8632583e-06 -1.5814605e-05 -1.9808194e-05 -5.4466313e-05 -2.6998353e-36 -8.0056445e-05 -4.959984e-05
-1.0288e-41 0.19012737 -0.009854851 -0.32518655 0.26470953 0.23386544 -0.21368387 -0.24681301
0.39281425 -0.34632027 0.38291246 -0.2903113 0.25706545 -7.4982357e-35 1.3722121e-17 0.05568493
0.2589388 -0.16116893 0.14830746 -1.0518e-41 -0.30872145 -0.37121084 0.29919416 -1.9377642e-23
0.374495 -0.25877497 0.14956978 -0.00965373 0.049581904 3.673258e-33 0.1609584 0.19399925
1.0193e-41 -1.3677765e-18 -1.1570137e-18 -3.3602584e-19 -3.8144983e-18 1.3978115e-18 -5.069097e-19 -8.269724e-19
5.570576e-19 -1.2327144e-18 2.7482603e-19 -1.7273324e-18 -2.0122786e-18 1.4126381e-31 -1.0004e-41 -3.075985e-18
-5.5675045e-19 -3.1207676e-19 -3.207307e-18 7.884291e-25 -5.2150527e-19 -1.4509839e-18 -6.5739373e-19 -1.9954954e-32
-3.1321244e-18 -1.1323629e-18 -2.1514583e-18 -2.0220424e-18 -3.0048675e-19 -2.856696e-26 -2.5091816e-19 3.5429755e-18
1.8675334e-27 -7.453912e-15 -1.668146e-14 -4.183551e-15 -2.005937e-14 -9.685441e-15 -4.553813e-15 -4.190974e-15
-1.1382388e-14 -1.1913169e-14 -2.9450217e-15 -1.2293312e-14 -1.17480615e-14 3.554409e-39 -3.7733587e-30 -1.6959861e-14
-2.762945e-15 -1.2684123e-15 -3.4635408e-14 1.4053113e-21 -5.2314898e-15 -3.154039e-14 -1.0689185e-14 3.6808e-40
-2.297692e-14 -2.2680493e-14 -1.2771238e-14 -1.2015759e-14 -1.5365843e-14 2.0464105e-36 1.7004253e-13 -1.523234e-14
-9.965e-42 -6.082711e-19 -1.8579674e-18 -5.259625e-19 5.2204687e-19 -1.9966111e-20 -1.2340399e-18 -1.1072903e-19
-4.926105e-19 7.165093e-19 9.858035e-20 -1.5233167e-18 -7.6778144e-19 1.986e-42 -1.1325109e-22 -1.9394137e-18
-2.182524e-19 -2.3020752e-19 -1.7527165e-18 -1.8044564e-28 1.9965017e-18 1.3142843e-18 3.253353e-19 -2.1002036e-31
-1.2436604e-18 -1.073994e-18 -8.553411e-19 -5.8776233e-19 -1.2821894e-18 -1.002e-41 -1.7435923e-18 -1.5889533e-18

pos_mlp.2.bias f4 [32]
00000000: 3f61 0c3e 8194 893d 70bb ea3c 45bc 96b8
00000010: 23ab 9a3e e512 4fa2 a930 9ba8 9e7f e9a1
00000020: 1ee4 3f3e 11c8 93bd 204b 2aa9 16d5 3b3e
00000030: 61ea a6bd 1073 a73d b9d1 459e 705f 24ae
00000040: d1ea 27a0 76a5 553c ff1c 153e 0479 453d
00000050: c069 ecbd f165 ecbc e957 703e d156 bda1
00000060: 12ac c03d 7448 aea7 6a07 e1a1 602d 153e
00000070: ff68 203e d05f 843e 0151 1eac 41f0 2b3d
0.13708971 0.06717778 0.02865383 -7.187625e-05 0.30208692 -2.8063734e-18 -1.722956e-14 -1.5822474e-18
0.18739364 -0.07215894 -3.7812743e-14 0.18343005 -0.08150173 0.08176243 -1.0472463e-20 -3.737405e-11
-1.4223144e-19 0.013039937 0.14561842 0.048211113 -0.11543608 -0.028857203 0.23471035 -1.2830118e-18
0.0940782 -4.8373255e-15 -1.5248556e-18 0.1456809 0.15665053 0.2585435 -2.2498117e-12 0.04197717

dec_trunk.0.weight f4 [128, 288]
00000000: a8b9 2fbc ef10 8a3d dee1 07bd f007 ba3d
00000010: d648 443d 0ffe 1f3d c2c8 3d3d e169 e5bb
00000020: 7c13 7c3d 10b1 4e3d 9548 11bc dc23 843d
00000030: fca3 bcbc ffc0 00bd 1b7a 9fbc 1a92 073d
00000040: 84fe 2dbd d6a2 25b8 702a 4c3d e778 f63c
00000050: b32e 3a3d 1158 e33c 2dea ecbc 2282 90bc
00000060: 223d e9bb 5b4c ed3c 2a1b 1fbd 8d50 3b3d
00000070: 11ee 0d3d ce0a 44bc b03d 32bd 306e 93bc
00000080: e116 923d 5aa9 d4bd 84d8 a2bc 1c06 f6ba
00000090: 7de1 84bc c449 6b9f 2acf a5bd 80aa 68bb
000000a0: 9dd0 2c3b 8c12 40b9 1822 543d 402e 2dbd
000000b0: 9e8c 303d 89d8 53bc 4c76 643d ec1d 1d3c
000000c0: 7b22 a1bd 917c a43d 2b27 a73c fad1 353b
000000d0: b9b9 8fbd 12ae 143d f13c 0838 bc6c 4ebc
000000e0: f01d 273d baa1 09bb 617d 28bd 6991 1fbd
000000f0: e29c 543d f25f e9bc c2e4 203d f5d7 0fbd
00000100: a37f d53c 1d86 eebc bd91 41bc db54 b7ba
00000110: 9736 483d 0e39 81bd 356c 8dbd b2dd 94bc
00000120: 3fa1 9dbd e3c6 86bb b333 8abc 0f4b 313c
00000130: 886e 60bd 61d6 91bd d405 aebb 897a 11bd
00000140: 9444 553d f087 5bba 959e 37bc 14b2 37bd
00000150: 3232 32bd 2783 c23c a317 8b3c dfee 3d3d
00000160: b73a 533d b98b 773c 9027 a13d 267e 403c
00000170: e8d1 91bc 5e36 153b 65ac 39bd 7be4 efbb
00000180: 8121 c73c f026 3bbd d69c 89bd 1363 e53c
00000190: 330b 6abd 030b 4b3d d9e6 c8bc d3e0 673c
000001a0: 6114 103c 3c51 d6ba 56c8 d0bc c42f d3bb
000001b0: c853 463d 6eb4 56bd 863a 54ad e7e5 f53d
000001c0: 4132 11bd 4127 673c f8ff 37bc e583 6d3d
000001d0: 453a a4bc f2bc 393d 6f82 bebc 0272 0dbd
000001e0: 1c37 403d 2bcb 1a3c 1c62 a43b dac9 153d
000001f0: 7da0 8c3d 9571 5e3d c019 28bb 8d6e 63bd
00000200: 717e 56bc e207 afbc 8a07 2dbd e4a7 b0bc
00000210: f397 753b 8e2a 163d ed66 cfbc f63e 1c3d
00000220: cd03 2abd 9618 93bc 6935 3f3d f551 ecb9
00000230: aed1 4a3d fca5 b4bc 27eb b2bc f9e6 323d
00000240: 072d d23c a43b 5a3c dd85 d83b 0484 4e3d
00000250: 0059 073c 96be 17bd 2f32 3a3d ad1e 38bd
00000260: e138 873c 98b5 4cbd e8c7 78bc 2e2f 453d
00000270: 9298 663d af5d 4e3d d780 9ebc 04e8 27bd
00000280: f6f8 7dbd 72ed 1a3d 00e9 ae3d fbf5 043d
00000290: 9a39 78bb 676b 243c f7aa d7bb ad4f 263d
000002a0: 6b88 c8bb fead 393d c94f 9c3c 77cc 223d
000002b0: c4b1 a239 b76f 103d 6cb4 54bd 9b77 c03c
000002c0: 9492 53bd 66c2 243b 3a77 b13c 65d1 e1bc
000002d0: 9f7d b13c d6fe 373d d986 d63c b78d 833c
000002e0: b914 533d 0fce aa3b 6fdb ebbc 8dc1 823d
000002f0: 12d1 38ba 45b8 43bc 0804 62bd 98c8 3dbd
00000300: 23d4 d9bc 8ab6 0c3c 9ffb 22bd 6f9d a13c
00000310: e768 3f3d b10c 2bbd 7637 163d 5414 1a3c
00000320: 426a 86bc 8bc0 1f3d a41d 7e3c fbbc d03b
00000330: 0b5f debc 61de b23b 4231 9d3c 3f1f a93c
00000340: aac4 093d c123 dc3b b1ed 193b 8920 543d
00000350: 1cd4 953c 3ca7 c226 2299 333d ad2d 8f3d
00000360: 5cef c6bc e57c 6abd 5c6a 5fbd 560f ebbc
00000370: 1be9 94bc 6565 25bd 1a62 6cbb 4397 c5bb
00000380: 6b9a 253d efa4 4abc 0098 edba b7cf 81bd
00000390: d8f8 83bc 4e80 adbc 5299 c53d a667 a9bd
000003a0: fb5e ed26 7892 d43c dee7 d13c 6537 8bbd
000003b0: e8ff 393d e28a 423c f834 fe3c a01a ebbc
000003c0: 5b57 d23c 0caa 23bd ebda 543d bfa4 05bd
000003d0: 099a 263d e34d 56bb eb68 02bd 67a2 093d
000003e0: 8148 f7bc b663 cb3c 435a bb3d d6b1 98bc
000003f0: c84b a2bc 24ca 2e3c b46f 0dbd a47d 673c
-0.010725416 0.06741511 -0.033174388 0.09083545 0.047921024 0.03906065 0.046334036 -0.007001147
0.06154202 0.05046183 -0.008867403 0.06452152 -0.023027413 -0.031434055 -0.019467404 0.033098318
-0.042479053 -3.949072e-05 0.04984516 0.030086948 0.045454692 0.027751954 -0.028920257 -0.017640177
-0.0071178833 0.028967073 -0.038844265 0.045731116 0.034650866 -0.011965467 -0.04351586 -0.017996877
0.0713327 -0.10383864 -0.019878633 -0.0018770131 -0.016220802 -4.9824203e-20 -0.08096154 -0.0035502017
0.002636946 -0.00018317456 0.051790327 -0.042280436 0.043102853 -0.012930044 0.05577688 0.009589653
-0.07867905 0.08031572 0.020404419 0.0027743564 -0.07017846 0.03629882 3.2481683e-05 -0.0125991665
0.040800035 -0.0021000938 -0.041135196 -0.038957033 0.051907428 -0.028488133 0.03928066 -0.035118062
0.026061838 -0.029116685 -0.011814532 -0.0013987081 0.048880186 -0.063097104 -0.069054045 -0.018172119
-0.07696771 -0.0041130646 -0.016870355 0.010821118 -0.05479291 -0.07120968 -0.0053107534 -0.03551725
0.052067354 -0.0008374443 -0.0112072425 -0.044847563 -0.0435049 0.023744179 0.016979044 0.046370383
0.051569667 0.015108996 0.07868874 0.011748826 -0.017800286 0.0022768 -0.045330424 -0.007320938
0.024307968 -0.04569143 -0.06719367 0.028001344 -0.057139587 0.04957105 -0.02452414 0.014152723
0.008793921 -0.0016351114 -0.025486153 -0.006444903 0.048419744 -0.052418165 -1.20638e-11 0.12006741
-0.035448316 0.01410848 -0.011230461 0.057987113 -0.020047316 0.045346208 -0.023255555 -0.034532554
0.046927556 0.009447853 0.0050165784 0.036569454 0.06866548 0.05430754 -0.0025650114 -0.05552535
-0.013091669 -0.021366064 -0.042243518 -0.021564431 0.0037474602 0.036661677 -0.025317634 0.03814598
-0.04150753 -0.01795606 0.046681795 -0.0004507449 0.049516372 -0.022051804 -0.021840645 0.043677304
0.025656236 0.0133198835 0.0066077546 0.05041887 0.008260965 -0.03704699 0.045458015 -0.04495113
0.016506614 -0.04997787 -0.01518438 0.048140697 0.056297846 0.050382312 -0.019348545 -0.04099275
-0.062005006 0.0378241 0.08540535 0.032461148 -0.003787613 0.010035372 -0.00658166 0.04060333
-0.006119778 0.045331948 0.019081013 0.039745774 0.00031031494 0.03526279 -0.051929876 0.023494532
-0.05165346 0.0025140285 0.021663297 -0.027565667 0.021666346 0.044920765 0.026187347 0.016058786
0.051533435 0.0052125524 -0.028791158 0.06384573 -0.0007050197 -0.011945789 -0.055179626 -0.04633388
-0.026590412 0.008588443 -0.039790746 0.01972839 0.046730902 -0.04176015 0.036673985 0.009404261
-0.01640809 0.039001983 0.015509997 0.0063701845 -0.02714493 0.0054586385 0.019188527 0.020644782
0.03363482 0.0067181294 0.0023487622 0.05178884 0.018289618 1.3506783e-15 0.04384721 0.06991134
-0.024284057 -0.057248015 -0.05454479 -0.028693836 -0.01817756 -0.0403799 -0.0036069215 -0.0060299947
0.040430468 -0.012368425 -0.0018126965 -0.063384466 -0.016109869 -0.021179345 0.09648384 -0.082717225
1.6470923e-15 0.025948748 0.025623258 -0.06797675 0.045410067 0.011873933 0.031031117 -0.02869922
0.02567642 -0.03995709 0.05196659 -0.032627817 0.040674243 -0.0032700233 -0.03183834 0.033602145
-0.03018594 0.02482782 0.091480754 -0.018639486 -0.019811526 0.010668311 -0.034530357 0.014129076

dec_trunk.0.bias f4 [128]
00000000: 8069 a23a cb9b 453d 6a41 b6bb 7cc3 2e3b
00000010: a768 a2bc 9955 010a 04cb 86bc c56a 4e3d
00000020: 2bde 0f3d af3e d29e 0158 0180 15d3 bb26
00000030: 8dce 82b5 b46d 9fad 761c 0000 e118 83a2
00000040: 3c11 de3b a5ad 0ebd 1cff 30bd b381 9a3c
00000050: db31 81bc 16c8 c530 7a43 e03a 41cb b7bb
00000060: b717 9d3d 0881 613c 3d97 3b8c c030 24bc
00000070: 1056 833c 0163 b73b 21b4 58bd e9d9 8736
00000080: 0404 303d bf0a 8c3d 75dc 09bc c34a 8329
00000090: add5 793c a938 1309 3cb0 c2bc d071 dd3b
000000a0: 30aa 863d 056a 313d b660 44bb ed67 c92e
000000b0: 45d5 1bbc 1cc1 323c debd 103c 2e25 143d
000000c0: af49 cbbc 32ce 1937 2939 1e3d 5901 9ebc
000000d0: eb96 113b 867e 1fbc 64e4 803d b2f6 5b3c
000000e0: 36c7 27bc 71ad 9e3c a7ad b0b2 0e99 30b8
000000f0: 3e6b 033d 2759 16bd 4b7c 032c 11e1 7d9f
00000100: 5acd 9e3d 3453 e43c 4377 7913 02c9 1dbd
00000110: d211 253d 5404 853d 7dee 283c 1cd0 c5bc
00000120: 7027 d0bc 139a 8b19 d81a b93b df5f 02b5
00000130: 19ff 753c 21fe cea1 3063 593b 9d0c 6510
00000140: 691a e713 3a38 f0bc fbdf 6ebc b11d 0a00
00000150: 7b41 c8bc 9214 1811 0a38 58a8 95ce 113b
00000160: 2519 413d 1bfa 87b4 0c28 293d 0aac 003d
00000170: f0dc 5ebb 011c 0000 b1f8 2ea4 7d42 53bc
00000180: 3ac3 61ba 5d9d 3abc 1eb9 8411 84d0 df3c
00000190: 71ef 0c3c 83c5 203d bfe7 9e3b 373d 613d
000001a0: 9938 9fbc 12a2 0cbc 8594 043c 851b 0000
000001b0: 2eb8 9a3b 842e 2e2f 5400 263a a61b 0000
000001c0: f7b8 b63b 8f9b 3ebb 3e45 9bbc 456e 843c
000001d0: 7c59 a23c 8446 0d3b f732 473c d0d8 b8bc
000001e0: 27da 3a26 4ec0 bcbc 707f 8f3b 739a beb2
000001f0: 1d7f 21b0 9acd 210f be57 60bc 0eaa b4bc
0.0012391061 0.04824428 -0.005561997 0.002666681 -0.019825293 6.227223e-33 -0.016454227 0.050394792
0.035123985 -2.226054e-20 -1.23405e-40 1.3032945e-15 -9.745869e-07 -1.8124925e-11 1.021e-41 -3.5533963e-18
0.006776957 -0.03483357 -0.04321204 0.018860674 -0.015770843 1.4390504e-09 0.0017109953 -0.0056089466
0.07670539 0.013763674 -1.4451468e-31 -0.0100213885 0.016032249 0.005596519 -0.05290616 4.0486816e-06
0.04297258 0.06837987 -0.008414377 5.830538e-14 0.015248698 1.7721123e-33 -0.023765676 0.0067579523
0.065754294 0.043314 -0.002996487 9.158883e-11 -0.009511297 0.010910299 0.00883433 0.03616827
-0.024815409 9.167519e-06 0.03862873 -0.019287752 0.0022215198 -0.009734755 0.06293562 0.013425516
-0.010240367 0.019369813 -2.0568065e-08 -4.2104213e-05 0.032084696 -0.036706116 1.8685216e-12 -5.3761004e-20
0.077540115 0.027871706 3.1487019e-27 -0.038521774 0.040300198 0.06494966 0.010310766 -0.024147086
-0.02540943 1.4434493e-23 0.005648952 -4.8568285e-07 0.015014433 -1.402637e-18 0.0033170693 4.5172004e-29
5.833864e-27 -0.029323686 -0.014579768 9.29006e-40 -0.024445286 1.1997024e-28 -1.200256e-14 0.0022248377
0.04714312 -2.5327685e-07 0.041297957 0.03141407 -0.00340062 1.0046e-41 -3.7940885e-17 -0.01289427
-0.000861216 -0.011390057 2.0940015e-28 0.027321108 0.008602009 0.03925086 0.0048494036 0.05499002
-0.019436168 -0.008583562 0.00809205 9.872e-42 0.004721663 1.5841733e-10 0.00063324464 9.918e-42
0.0055762487 -0.002908442 -0.018953916 0.016165862 0.01981806 0.0021556923 0.012158147 -0.022564322
6.4827365e-16 -0.023040917 0.0043792054 -2.2189147e-08 -5.87521e-10 7.97751e-30 -0.013692794 -0.022053745
