pointnet/weights_per_bundle_ratio025/CC_1_best.pth (torch, 359646 bytes, 17 tensors)

t_grid f4 [100]
00000000: 0000 0000 b57e 253c b57e a53c 103e f83c
00000010: b57e 253d 62de 4e3d 103e 783d dece 903d
00000020: b57e a53d 8c2e ba3d 62de ce3d 398e e33d
00000030: 103e f83d f376 063e dece 103e ca26 1b3e
00000040: b57e 253e a0d6 2f3e 8c2e 3a3e 7786 443e
00000050: 62de 4e3e 4e36 593e 398e 633e 24e6 6d3e
00000060: 103e 783e fd4a 813e f376 863e e9a2 8b3e
00000070: dece 903e d4fa 953e ca26 9b3e bf52 a03e
00000080: b57e a53e abaa aa3e a0d6 af3e 9602 b53e
00000090: 8c2e ba3e 815a bf3e 7786 c43e 6db2 c93e
000000a0: 62de ce3e 580a d43e 4e36 d93e 4362 de3e
000000b0: 398e e33e 2fba e83e 24e6 ed3e 1a12 f33e
000000c0: 103e f83e 056a fd3e fd4a 013f f8e0 033f
000000d0: f376 063f ee0c 093f e9a2 0b3f e438 0e3f
000000e0: dece 103f d964 133f d4fa 153f cf90 183f
000000f0: ca26 1b3f c5bc 1d3f bf52 203f bae8 223f
00000100: b57e 253f b014 283f abaa 2a3f a640 2d3f
00000110: a0d6 2f3f 9b6c 323f 9602 353f 9198 373f
00000120: 8c2e 3a3f 86c4 3c3f 815a 3f3f 7cf0 413f
00000130: 7786 443f 721c 473f 6db2 493f 6748 4c3f
00000140: 62de 4e3f 5d74 513f 580a 543f 53a0 563f
00000150: 4e36 593f 48cc 5b3f 4362 5e3f 3ef8 603f
00000160: 398e 633f 3424 663f 2fba 683f 2950 6b3f
00000170: 24e6 6d3f 1f7c 703f 1a12 733f 15a8 753f
00000180: 103e 783f 0ad4 7a3f 056a 7d3f 0000 803f
0.0 0.01010101 0.02020202 0.030303031 0.04040404 0.05050505 0.060606062 0.07070707
0.08080808 0.09090909 0.1010101 0.11111111 0.121212125 0.13131313 0.14141414 0.15151516
0.16161616 0.17171717 0.18181819 0.1919192 0.2020202 0.21212122 0.22222222 0.23232323
0.24242425 0.25252524 0.26262626 0.27272728 0.28282827 0.2929293 0.3030303 0.3131313
0.32323232 0.33333334 0.34343433 0.35353535 0.36363637 0.37373737 0.3838384 0.3939394
0.4040404 0.41414142 0.42424244 0.43434343 0.44444445 0.45454547 0.46464646 0.47474748
0.4848485 0.4949495 0.5050505 0.5151515 0.5252525 0.53535354 0.54545456 0.5555556
0.56565654 0.57575756 0.5858586 0.5959596 0.6060606 0.61616164 0.6262626 0.6363636
0.64646465 0.65656567 0.6666667 0.6767677 0.68686867 0.6969697 0.7070707 0.7171717
0.72727275 0.7373737 0.74747473 0.75757575 0.7676768 0.7777778 0.7878788 0.7979798
0.8080808 0.8181818 0.82828283 0.83838385 0.8484849 0.85858583 0.86868685 0.8787879
0.8888889 0.8989899 0.90909094 0.9191919 0.9292929 0.93939394 0.94949496 0.959596
0.969697 0.97979796 0.989899 1.0

encoder.mlp.0.weight f4 [64, 3]
00000000: 2b19 0ebe 384a 973e 9f79 9cbc 8503 b63e
00000010: 6af9 a4bc b4d1 c13e 98e2 d7be 1170 0abe
00000020: 12c7 303e 32ae d93e 38bc 0cbe 15dc 45be
00000030: 5f0a 76be dde9 87be 7324 37bd 78e8 8f3c
00000040: 659a db3d dea0 0e3f c42b ab3d 37c8 d43e
00000050: 8fb7 2dbe 3796 9cbe c710 6dbd d321 803e
00000060: f138 cc3e 66a1 a03e 60de d8be 2432 e23e
00000070: 2a00 9c3e 1638 ef3d 4838 c13e 703b 1ebd
00000080: b17e 10bf 6151 ebbe aa9d ea3e 605c 533e
00000090: ff71 023f 6c0e e83e e35a d6bc bd89 a1be
000000a0: 9e27 09be 3dd7 5a3e 71d6 e1be 8fa3 a4be
000000b0: f8e1 26be 812f ad14 823f 88b4 515f cb32
000000c0: c5ec 3e3d 8b09 db3e 4dea acbe a065 43be
000000d0: de76 083e a099 233f 983d 01bf 1c0c 00bf
000000e0: 3bfe cebc 3dda 983e fefb 20bd 3678 213e
000000f0: ad58 2a3e 475c d63e 89a5 e6be 3b2f 243c
00000100: 1926 1c3d 29f7 4bbe bb13 113f 8d05 163e
00000110: 7f45 003d ebfb f73e db27 b33e fd09 d4be
00000120: 8c85 d6be 1c4b f0be a1d7 50be c867 a13d
00000130: 3166 1e3e 30e4 e7be a3a9 26be 9668 d03d
00000140: 7407 cbbe 2975 abbd c1eb 2fbe 8644 05bf
00000150: f012 02bd 05b1 36be ff71 03bf b023 b3be
00000160: e922 c93e b0a1 86be b248 e83e e8e7 3c3d
00000170: 0e81 573e 07fe 45be 8937 c4be 48e7 8fbe
00000180: d73c 273e 6787 aabd 4ec0 023f a0fc 97be
00000190: 7048 15bd 0427 b6bd 4400 3d92 9a01 23b1
000001a0: 5700 a4a3 22ce c6be 79eb ebbd 8223 3b3e
000001b0: 0ba6 6cbc 7c06 88bc c8a8 493e ce0b 953e
000001c0: c460 e13e 4a47 5d3e 6ca3 10bf 9100 68be
000001d0: 7951 74bd bc82 4c3e b2b7 8e3e 17d4 08bf
000001e0: aada 18be 3d56 22be b7a8 e8bc eb3a ef3e
000001f0: 4da6 83be 35e8 86bd eb19 a2be ca1c 603e
00000200: b2a0 e0be 2840 c6be 200e b03d 7db7 03bf
00000210: 34ce fdbe f852 e83d 7bf9 f7be 451c 0000
00000220: 6ac7 b223 3ba8 992d 903c 06bf a25b f33e
00000230: 7bdc b1be 8b07 923d 1736 433e 134b 8dbe
00000240: be09 9cbe 5b85 0e3f c15c 063f 586e e73e
00000250: 882c 07bf 3f3a 4fbd 2347 95be 0bbd 4d3e
00000260: bd25 b9be f587 ab3e 8b4d 203e dd1e 113f
00000270: 66cb f9be 8687 dbbe 7c77 f4be 9db0 aabd
00000280: 6668 a3be 9757 5ebe 6571 a6be ec94 3ebe
00000290: 31df 123d 470c 683d b68f 243e f957 143f
000002a0: c4a4 b43e 9710 53be 2e7a 00bf f8f2 0fbf
000002b0: 5dc5 62be 8a18 0fbe d618 a23d ff05 e6be
000002c0: fd47 b8be 6b68 fabe 2586 853e 61f1 17bf
000002d0: 60d8 59be 6764 92be 11df d0bd 882a 0f3f
000002e0: 8e5f 033e 02e5 fcbe ab3a b63e 1759 f63d
000002f0: 3762 c43d fd1b 0000 8a22 b4b3 7509 211f
-0.13876788 0.29548812 -0.019100962 0.3554956 -0.020138461 0.37855303 -0.42165065 -0.13519312
0.1726344 0.42515713 -0.13743675 -0.19322236 -0.24027394 -0.2654561 -0.044712495 0.017566904
0.10722808 0.55714214 0.08357957 0.41559002 -0.16964553 -0.30583355 -0.05787733 0.25025806
0.39887193 0.31373137 -0.4235716 0.4417888 0.30468875 0.116806194 0.37738252 -0.038630903
-0.56443316 -0.45960525 0.45823413 0.20640707 0.50955194 0.45323503 -0.026166385 -0.31550398
-0.13394019 0.2137117 -0.44108918 -0.32156035 -0.16297138 1.7487273e-26 -2.5378182e-07 2.3675655e-08
0.04661252 0.42780718 -0.33772507 -0.19081736 0.13326594 0.6390629 -0.5048461 -0.5001848
-0.02526771 0.29854003 -0.03930282 0.15768513 0.1663539 0.41867277 -0.45048168 0.010021026
0.03812227 -0.19918503 0.5667073 0.14650555 0.031316277 0.48434386 0.34991345 -0.4141387
-0.41898763 -0.46932304 -0.20394756 0.07881123 0.1546867 -0.4529128 -0.16275649 0.10176198
-0.39654124 -0.08371956 -0.17179777 -0.52057683 -0.03175634 -0.17840965 -0.5134582 -0.34988165
0.39284447 -0.26295233 0.45367962 0.0461196 0.21045324 -0.19335185 -0.3832362 -0.2810614
0.16331802 -0.08326607 0.51074684 -0.29684925 -0.036446035 -0.088941604 -5.963821e-28 -2.3720532e-09
-1.778106e-17 -0.38829142 -0.11519522 0.18275264 -0.014443885 -0.016604654 0.19693291 0.2911057
0.4401914 0.21609226 -0.5649936 -0.22656466 -0.05964801 0.19971746 0.27874523 -0.53448623
-0.14927164 -0.1585321 -0.028400762 0.46724638 -0.25712815 -0.06587259 -0.316604 0.21885982
-0.438726 -0.38720822 0.08596444 -0.51451856 -0.49571383 0.1134395 -0.48432526 1.0141e-41
1.9383254e-17 1.7468796e-11 -0.5243616 0.47530848 -0.34738526 0.07130345 0.19063602 -0.2759634
-0.30476183 0.55672234 0.5248528 0.45201373 -0.52802324 -0.050592657 -0.29155836 0.20091645
-0.36161605 0.33502164 0.1565458 0.5668772 -0.48787993 -0.42876834 -0.4774741 -0.083344676
-0.31915587 -0.217131 -0.32508388 -0.18611497 0.035857383 0.056652334 0.16070446 0.57946736
0.35281956 -0.20611797 -0.5018643 -0.56230116 -0.221456 -0.13974205 0.07914893 -0.4492645
-0.35992423 -0.4890779 0.26078907 -0.5935269 -0.21273947 -0.28592226 -0.101987965 0.5592427
0.1282942 -0.4939347 0.35591635 0.12028711 0.095890455 1.004e-41 -8.388186e-08 3.41009e-20

encoder.mlp.0.bias f4 [64]
00000000: 16a8 2fbe e4ca 57be bf95 ee3d 9320 45bc
00000010: a63a 2f3d 4a4d 3cbe 9c35 f7bd 2f64 7b3e
00000020: 08a8 9fbe 59f4 d5be 7642 93be 9377 bfbe
00000030: be76 0fbd 7e31 853d b145 bd3d ec5f 2187
00000040: e037 25be 39e4 fbbc 6244 153e 6fae 75be
00000050: 4d8e dcbc 8d25 793e 9b9a 3cbe 7c93 f3bd
00000060: 0dce 083d f248 79be 977b 4dbe c05f b0be
00000070: acd6 22be 9a7a 0fbe 1cc0 793d 29bb c8bc
00000080: c8d0 9a3d 745e 1dbe 5912 65af 3ede dd3d
00000090: 1a81 1f3d 22b7 a9be 69e7 603d d6cc eabe
000000a0: 45d9 f13c 1d15 2cbd 7a72 6b3e d71c fc3c
000000b0: 697e 0abe 518a ffb5 ef5b d8be dd55 a7be
000000c0: e6ae ef3e 8092 153e 5fc5 9fbe 75c1 aebe
000000d0: baba acbd 7196 c13c 4aaf 2b3d 2aab f63e
000000e0: 4fbd e43d 0e86 9c3e 4596 eabd 619a b3be
000000f0: c77c 6dbd 348e 0fbe 284a 493e 014e 0134
-0.17153963 -0.2107349 0.116496556 -0.012031692 0.04278054 -0.18388858 -0.12070772 0.24549936
-0.31182885 -0.41787985 -0.28761643 -0.37395915 -0.03502535 0.065035805 0.09241808 -1.2140483e-34
-0.16134596 -0.030748473 0.14576867 -0.23992322 -0.026923323 0.2433073 -0.18418352 -0.11893365
0.03339963 -0.24344233 -0.20066677 -0.3444805 -0.15902203 -0.14011613 0.060974225 -0.024503307
0.07559353 -0.15368062 -2.0833947e-10 0.10833405 0.03894148 -0.33147532 0.05490819 -0.45859402
0.029522547 -0.042012323 0.22992888 0.03077547 -0.13524784 -1.9039236e-06 -0.4225764 -0.32682696
0.46813124 0.14606667 -0.3120527 -0.3413197 -0.08434053 0.023631306 0.041915216 0.48177463
0.1116892 0.30571026 -0.11454443 -0.3507872 -0.057980325 -0.1401909 0.19657195 1.2042439e-07

encoder.mlp.2.weight f4 [128, 64]
00000000: 866a 743d a279 9fba 14be 893d 4b1e 0000
00000010: 527a cbbc 9184 7bbd f600 303d 3c5a 313d
00000020: c039 ce3d 9c12 3ebd d5f4 75bd ff6d 2dbd
00000030: 7d37 febd a7dd 8f3d b53c 88bd 591c 0000
00000040: 7a56 47bd c09b ba3c 159d 43bd 811b 0000
00000050: 7a96 783d c1b3 9d3d 8482 09be 7c48 e7bd
00000060: d1ce de3c f6a0 553d 4f47 e1bc b0cf 6abd
00000070: 903b c5bd 9fb6 bf3d a698 00bd 9d0e bfbd
00000080: 34ca 3bba 7248 9e3d dfaa 8b04 8ecd 933d
00000090: 2c26 b3bb c82b 82bd 0f22 793c bcd8 f9bd
000000a0: 4a64 81bc 851c 0000 9d4a 38bd 720b a9bd
000000b0: 0e0b 423d d01d 0000 79ba bb3d dbe9 0dbd
000000c0: 7d6d 81bc e71b 0000 ff22 fe3d 2ac0 4e3b
000000d0: 5a34 e2bd b731 eebc 4971 133c 7867 2b3d
000000e0: 9be6 7dbd b955 3abc a368 97bd 185e d13d
000000f0: 73d9 033c bfb5 d9bd 1a60 48bd 8c1c 0000
00000100: e57c 01bd 5994 473b d355 703d 0e9c 10be
00000110: aa59 903d b587 0a3e cc76 e23d 9eb0 fa3c
00000120: 229a ddbc a40f 003e 0f7d eebd 2313 5abd
00000130: 4d5f 90bd 7a4d 113c e081 873d 89d8 0200
00000140: dd68 0a3d 7cee d93d 47b4 253e 9095 093b
00000150: dd77 8dbb c8e9 e2bd 9351 c53d 2642 7fbd
00000160: 24d6 cb3d 1327 b4bd 6e82 acbd e240 6a3d
00000170: 6fca 9c3c 1e1c 41bd e6b4 febd aa02 1f3b
00000180: 00d1 453d 387c ecbc 7722 0080 404c d13d
00000190: 2eac 3e3d bbe1 003d 9e01 e33d b3b2 efbd
000001a0: 6e47 5b3d 3393 c1bc ef80 e43d 49e5 c03d
000001b0: c738 0c3d 6d21 0000 0ddb 8e3d 11b5 f43b
000001c0: eada 1b3e 39df 0c0b 172d a8bd b9a1 0c3d
000001d0: 3e0c 4cbb 24ae b83d 5348 393d ccda 073e
000001e0: 2bea 27bd 19f9 febb c23d ef3d 82d6 cc3d
000001f0: 7922 123d 799d 08bd 4887 c63d 7344 2c81
00000200: d177 9f3d 27f8 5ebd 4382 7ebd 6f81 f9bc
00000210: c661 90bc d505 ab3d a513 d9bc a953 44bd
00000220: e7ad 55bc b304 973c 17b4 2d3d 73cd e93c
00000230: a269 8c3d 8872 91bc 9f48 583d 2365 710b
00000240: e6f5 f23d ef04 0b3d 08aa 82bc e439 e1bd
00000250: d4e7 323c b933 733d 518f 4dbd a61f 71bd
00000260: 643d 293d 1044 01bd e6ec 883d d318 58bd
00000270: 39a6 a03d 0e81 86ba 8133 f5bd bcdd 16bc
00000280: cb0c 11bd 88db ab3b 0a1c 0080 e2c9 6fbd
00000290: bf00 f03c 54e6 b63d 55a7 a9bd edd2 d73c
000002a0: 8339 51bc 4099 933d d596 a3bd a0c1 fb3c
000002b0: 8f7a dfbd 3f1c 0000 c4e0 c3bd cc40 923d
000002c0: 8a76 bf3d 2a63 003d a414 993c 8ee6 9a3d
000002d0: f74a 71bd d11b 3abc 8810 adbc 3a53 a23c
000002e0: eb03 d03d beb7 29bb f608 b63c 7c1d fa3d
000002f0: b3c4 00bd 863e abbb 07ac bbbc 431c 0000
00000300: 6f85 623c 6075 c7bb 13f0 fb3c bea2 06be
00000310: 542d 1f3d 9bec bb3d 118e 2dbd b508 2f3d
00000320: 9b05 bd3d 5017 ad3b fb59 f9bd 5958 b33d
00000330: 3d7c 99bc 665e 8c3d 9893 163c b19d 9903
00000340: 441f 2abd d501 9c3d 034a 6b3d 0b87 1cbe
00000350: 295d 1f3d e030 263c 6926 293d 6cf5 6abc
00000360: 3524 593d dbfa dfbd 9d43 f0bd 3d64 45be
00000370: b253 14be 9720 cd3d ff54 73bd 0a9c ac3c
00000380: fc80 6a3d ac06 da3c 1ee3 c906 2f40 0b3d
00000390: 003d 6e3d a6b6 873d 01c0 263b 00fe ecbd
000003a0: b288 fa3c d675 0bbd 9087 9ebd be98 89bd
000003b0: cbbc a43d 9c75 5683 d03a 863d 5c41 c13c
000003c0: 0149 793d 7d7a d938 a7d1 80bd 438a a7bd
000003d0: 65e0 25bd 3871 98ba 99d1 9e3c 919c 30bd
000003e0: f470 283d 6c60 dabc 3636 06ba 6da8 193d
000003f0: 0666 ee3c e0b4 8a3d 3d05 1bbd e301 3402
0.0596719 -0.0012166987 0.06725708 1.0867e-41 -0.0248386 -0.061405722 0.042969666 0.043298945
0.10069609 -0.046404466 -0.060047943 -0.04234123 -0.12412927 0.07024699 -0.06652204 1.0169e-41
-0.048666455 0.022779346 -0.047757227 9.867e-42 0.06069038 0.07700301 -0.13428694 -0.11293122
0.027198227 0.052155457 -0.027499823 -0.057326972 -0.09630501 0.09361004 -0.031395577 -0.09328959
-0.00071636145 0.077286616 3.2835663e-36 0.07216941 -0.005467197 -0.06356007 0.015205874 -0.12199542
-0.015794892 1.0231e-41 -0.04499303 -0.08254136 0.047373824 1.0695e-41 0.09166426 -0.03464685
-0.015799278 1.001e-41 0.12409019 0.0031547644 -0.110451415 -0.02907644 0.008999177 0.041846722
-0.0619875 -0.011372977 -0.07393005 0.10223025 0.008047449 -0.106303684 -0.048919775 1.024e-41
-0.03161325 0.0030453412 0.0586756 -0.1412203 0.07048352 0.1352833 0.11057815 0.030601796
-0.027051035 0.12505966 -0.11644947 -0.053240906 -0.07049427 0.0088685695 0.066165686 2.61349e-40
0.03379141 0.106411904 0.16182052 0.0020993687 -0.0043172673 -0.110797465 0.096347 -0.062318943
0.099529535 -0.08796515 -0.08423315 0.057190783 0.019139497 -0.047145955 -0.124368474 0.0024263063
0.04829502 -0.028867826 -1.2364e-41 0.10219622 0.046550922 0.031465273 0.11084293 -0.11704006
0.053534918 -0.02362976 0.11157405 0.09418733 0.034233835 1.1991e-41 0.06975374 0.007467874
0.15220228 2.7130953e-32 -0.08211725 0.03433392 -0.0031135227 0.0901759 0.04523499 0.13267058
-0.040994804 -0.0077811596 0.11681701 0.100018516 0.035677407 -0.033353303 0.096937716 -3.164052e-38
0.07786525 -0.054435875 -0.062135946 -0.030457227 -0.017624747 0.08350722 -0.026498625 -0.047931347
-0.01304195 0.018434858 0.042408075 0.028540349 0.06856085 -0.017754808 0.052803632 4.6490998e-32
0.11863308 0.033940252 -0.015950218 -0.1099737 0.01091953 0.0593755 -0.050185505 -0.058868073
0.041318312 -0.03155905 0.0668581 -0.05275805 0.078442045 -0.001026185 -0.11972714 -0.009208139
-0.03541259 0.005244676 -1.0059e-41 -0.05854214 0.02929723 0.0893065 -0.08283869 0.026345694
-0.0127700595 0.072069645 -0.07987753 0.030731976 -0.10912048 1.0133e-41 -0.09564355 0.07141265
0.093487814 0.03134457 0.0186866 0.07563506 -0.058909383 -0.011359171 -0.021126047 0.019815076
0.10156997 -0.0025896872 0.02222107 0.12212655 -0.031437587 -0.0052259592 -0.022909177 1.0138e-41
0.013825758 -0.0060869902 0.030754125 -0.13148019 0.038861588 0.09175988 -0.042371813 0.042732913
0.09229585 0.00528232 -0.121753655 0.08757085 -0.018736 0.068539426 0.0091904625 9.028736e-37
-0.041533723 0.07617537 0.05744363 -0.1528589 0.038907204 0.010143489 0.041296396 -0.01434074
0.053013045 -0.10936519 -0.11731646 -0.19276519 -0.14485052 0.10015982 -0.05940723 0.021070499
0.057251915 0.02661451 7.5941515e-35 0.033996757 0.058163643 0.06626634 0.0025444033 -0.11571884
0.03058276 -0.034047924 -0.077407 -0.067185864 0.08043822 -6.3023957e-37 0.06554186 0.023590736
0.060860638 0.000103701816 -0.06289988 -0.08180668 -0.040497202 -0.0011630422 0.019387053 -0.043118063
0.041123345 -0.026657306 -0.00051197724 0.03751414 0.029101383 0.067727804 -0.037846792 1.3224853e-37

encoder.mlp.2.bias f4 [128]
00000000: 8f8f 2abd 87f0 233d 5f9f 423b 4d26 aa3d
00000010: af55 7c3d d344 c92b f788 9e3d f21c 4fbd
00000020: eeee 512b 4438 6fbc 40b7 a2bb 65f1 433c
00000030: 2e67 253d 2c71 cebd 447c 0e3d 11bd edbd
00000040: 6fa5 f93d 8c67 8c3d 211e 113d 31a8 de3c
00000050: ba30 323d 870e 2e3d 58f6 1ebd e28d 853c
00000060: 2920 c83d 1ea2 85b1 61c7 02bc 7c54 4cbd
00000070: 082b d83c 6d47 db28 7d6e e6b6 5560 0b3d
00000080: 1022 ed3c ddb4 b23d b15a 053d 8c99 063c
00000090: bbbf 1bbd cc05 8cba b561 c0bd cde8 acbd
000000a0: 7f1f fcbb 0171 123d 447a 363d 6edd aea4
000000b0: d453 9d2f 7eb0 cc3d ca9c 443d d374 b5bc
000000c0: 0ad6 9abd 6626 763d a88b 463d 775a fa3d
000000d0: fe74 fa3c 345d 0c3d f3b7 e0bd 4167 123d
000000e0: ff37 763c 672b 8dbc f435 083d 407b c3bd
000000f0: 37a9 d0bc 90b8 2cbd e3b2 b63b d040 4cbd
00000100: df15 873d 6572 38bd 5f49 ce3c 63f7 5e3d
00000110: 95f4 c7bd 19e0 b03d d216 863d f266 d5bc
00000120: 080e 03bd d05c a6bc dd4f 143d 912a a13d
00000130: 2d21 5dbb 407e 4d3c 01e2 e3bd 6ae4 803d
00000140: 04e0 8dbd a7b4 be3c 354b 26bd 0741 91ba
00000150: 513b 11be 650e 8d3c f72c 57bc 60b5 5dbd
00000160: 247a d53c cc1c 8abd e05d 0c11 2590 aebd
00000170: dd73 8622 19ea 9e3d ab97 b533 f6bc 5cbc
00000180: 1a35 093e eae6 3bbc eb67 fabc 5097 3fbd
00000190: e979 523d a2e7 a8bd ae7f aab7 a07d 85bc
000001a0: a8aa 0f3b ec19 983d e7b2 f0b9 0491 9e3d
000001b0: c5f1 3c3d a7a8 1bbd 2bb2 823d c03c 19bc
000001c0: d8b3 cb3c 1c75 e5bb 91cc 02bd b535 03bc
000001d0: f996 8b3d 7204 4aba a787 5c3d a42f 4b3d
000001e0: e8d7 63bd b516 05be d5d4 4a3d ee05 b4bd
000001f0: 142d 273d 47b3 a23c 9030 7bbd fa79 cbbc
-0.041640814 0.040024307 0.0029697043 0.083080865 0.06160515 1.4301012e-12 0.07740968 -0.050564714
7.45833e-13 -0.014600817 -0.0049656928 0.011959408 0.040381603 -0.100801796 0.034786478 -0.11608327
0.12189757 0.068556875 0.035429124 0.02717981 0.0435035 0.042494323 -0.03880915 0.016303007
0.09771759 -3.88924e-09 -0.007982106 -0.049885258 0.026387706 2.434486e-14 -6.8673967e-06 0.034027416
0.028946906 0.08725903 0.032557193 0.008215319 -0.038024645 -0.001068288 -0.09393636 -0.08442841
-0.0076941843 0.0357523 0.044550195 -7.583559e-17 2.8617697e-10 0.09994601 0.04800109 -0.022150433
-0.07560356 0.060095213 0.04847303 0.12224286 0.030573364 0.034268573 -0.109725855 0.035743
0.015027999 -0.01723261 0.03325458 -0.095449924 -0.025471313 -0.0421682 0.005575524 -0.049866498
0.065959685 -0.04503097 0.02518147 0.054435145 -0.09763447 0.08636493 0.065473214 -0.026050065
-0.031995803 -0.020307928 0.036208976 0.07869447 -0.0033741698 0.012542307 -0.11127091 0.062935665
-0.06927493 0.023279501 -0.040599067 -0.0011082002 -0.14182784 0.017218778 -0.013133279 -0.05412805
0.026059218 -0.06743774 1.107298e-28 -0.08523587 3.6443448e-18 0.07759494 8.4560575e-08 -0.013472786
0.13399163 -0.011468628 -0.03056713 -0.046775162 0.051385794 -0.082473055 -2.0325035e-05 -0.016295254
0.0021921787 0.07426819 -0.0004590966 0.07742503 0.046129007 -0.038002636 0.06381639 -0.009352863
0.02486603 -0.007002486 -0.03193337 -0.00800841 0.06815905 -0.0007706351 0.053840306 0.04960598
-0.055625826 -0.12996943 0.04951938 -0.087901935 0.040814474 0.019860877 -0.06132561 -0.024838436

encoder.mlp.4.weight f4 [256, 128]
00000000: 397f 9cbc 4ead 9c3b d450 3e3d ee2f 68bd
00000010: 9fb6 2a3c 20a3 e32c afb1 b43c 6a40 a2bc
00000020: bfed 6236 8d6d e33c 1971 72bd 11c5 db3b
00000030: 97c0 8cbd c7ba 06be d42d dc3d 23af c53c
00000040: 145a 45bd c98c bbbc aaad 46bc 4c1c 0000
00000050: 801c 0080 99a8 853d 1d63 6e3d 7c1c 0000
00000060: b31e 0080 e59c 2eb3 2eb5 473d 4dee 5abd
00000070: e63c 893c 8725 a927 18da 8fb6 91e3 a0bc
00000080: 7d5f 0abc d91e 1fbd 7d89 69bd 83a3 5fba
00000090: a80c 73bc 7e0d 533c 9de0 8abc 938d a3bb
000000a0: f4ba 11bd 4a1d 0080 c7a8 14bd a61c 0000
000000b0: e294 f1b7 60ea 9f3d ac12 f7bc 9bac 48bd
000000c0: c088 433d feeb 30bd d71e e53c f5c6 a6bd
000000d0: 6787 8b3c d42d 8fbc 4fc2 ec3c ed36 b93c
000000e0: b09e aa3d 9270 ffbc 7bbc 0580 5f3d ecbd
000000f0: 4fa3 2a3c 59ff a23c f056 69bb aa65 f63c
00000100: 79ec 73bd 68d5 97bd 29f3 05bc 6e6a 853c
00000110: d5ca 5fbd b2f2 f83c a4a2 e7bd 8bc7 a43d
00000120: e4a6 313c 1c8c dabc c7b5 9bbd 4467 5bbd
00000130: 4860 4e3b 3a1c 0000 602b 1abb f386 b53d
00000140: a11a ff3a 2f7d f8bc 462b 443d dd3b 1dba
00000150: b8dc 43ba b4e1 df3b f223 86bd 621e 89bc
00000160: d304 1a3d 0959 81bd 16c1 a217 3704 c4bc
00000170: 790e 99a2 cf7d 92bd 2575 b633 6c96 ef3c
00000180: 0f1c 0080 fbce dfbc edf4 dcbc 5821 833c
00000190: aeb6 a2bc 28a2 7dbd 50a3 0cbd baa2 d7bd
000001a0: d03e cb3c 78dd 55bd 272d ba39 8837 3bbd
000001b0: da14 1bbd a650 e53c 6b03 4ebc 5d7a 0000
000001c0: 5367 ecbb 2095 413b ac15 343d 4122 a6bb
000001d0: aee6 69bd 0836 cbba b21b 0080 c91b 0080
000001e0: ebe9 acbd b092 cc3c 9bc1 27bb 6def 7bba
000001f0: 882e 7e3c 0ea4 773d 6108 493d 3cbe 803d
00000200: 7abf 04b6 5dc4 8eba ba18 81ba da44 8bb4
00000210: 6a1b 0000 ec1d 0000 1cbc 91bb 0678 be3c
00000220: 861b 0080 8d83 c1bb 91b4 b63b 2aaa 4e3c
00000230: c31c a73c 39e9 94b7 0a62 143c c6de 973c
00000240: 10fa 0bbc f2d8 f7bb 1f3c d43b f7a3 57b6
00000250: c49e e3b9 3ace 06bd 622d 3eba 104f 37b9
00000260: c16e b6b2 d058 0080 bf1b 093c 9bb1 f0b9
00000270: d899 163c fb1b 0080 871b 0080 87cf 57b8
00000280: cdc9 0580 37e0 9d39 e684 22aa 861f 0000
00000290: 03f6 4ebb 82fc 44ba 9695 b8b9 069f 653b
000002a0: c757 0abd 2a5e 2b2c bf9b 1539 b61c 0000
000002b0: b6bb 2d1f 992a 103d a5e1 10bc 2e0f 4ebc
000002c0: c9d5 00bc 8d41 46b9 8e15 2439 ec1c abba
000002d0: ec14 553c ae1b 0000 efed c33b f9ed db3c
000002e0: 5dce a03c 6a86 b43a b04a 90b9 e82c 45ba
000002f0: 0b13 4ebc 6820 87bb b51a d5bb 92ce f9b9
00000300: c5dd 04bc 3685 8fba db1d 0000 1a0a 4bbb
00000310: 7460 22bd 3b20 ae3b 7d16 34ba 1be8 f23c
00000320: c5f5 abbb d6f5 b6ab ce1e 86b9 3b67 323b
00000330: eaea babc 32c8 8a2b 4400 8cbb 7c82 5fba
00000340: 0e58 083b 9318 80ba 3c71 76ba fb1b 0000
00000350: d045 fabb 0bde 15ba 3aab 9338 fb75 373c
00000360: 90be 21ba 39b3 20ba f81d 0000 4b73 f2bb
00000370: 6a59 3c01 9b7c 9dbb fb1b 0000 700c b73b
00000380: c2d3 e0b9 764a 06bc ddf7 a1ba e304 a4bc
00000390: 72eb 34ba 90cc ba3b 40a2 c4bc d77f 10ba
000003a0: 7372 afbb e0b8 17bd eb1b 0080 488e 0600
000003b0: b99c ea3a 8895 e13b 08c5 d33b 0d1c 0080
000003c0: 6fd5 3726 c428 adb9 f98a 0d3a d817 2cb9
000003d0: 2562 a9b2 531c 0080 f335 1fb7 5230 d9b9
000003e0: 03f0 0e3c 93c5 7dbc eb08 ef3a 3f88 3cbc
000003f0: ad0f 9d3a 8702 a2b9 2f43 6c39 f0cf 103c
-0.019103633 0.0047814017 0.046463802 -0.056686334 0.010419517 6.4698386e-12 0.022057382 -0.019806106
3.381501e-06 0.027762199 -0.05918989 0.0067068418 -0.06872671 -0.13157187 0.107509285 0.024131363
-0.04818161 -0.02289428 -0.012126366 1.0151e-41 -1.0224e-41 0.06526298 0.05819999 1.0218e-41
-1.1013e-41 -4.0655227e-08 0.04875677 -0.053449918 0.016752671 4.694761e-15 -4.2871216e-06 -0.019639762
-0.008445618 -0.038847778 -0.057015885 -0.000853114 -0.01483456 0.012881635 -0.016952807 -0.004991242
-0.035578683 -1.0507e-41 -0.03629377 1.0277e-41 -2.8798768e-05 0.07808375 -0.03016027 -0.048992734
0.047737837 -0.04319381 0.027968807 -0.08143417 0.017032338 -0.017477907 0.028901247 0.022609198
0.083310485 -0.031181607 -5.26792e-40 -0.11535143 0.010414912 0.01989715 -0.0035604797 0.030077774
-0.05955169 -0.07413751 -0.00817565 0.016286101 -0.054636795 0.030389164 -0.11310318 0.08045872
0.0108430125 -0.026678137 -0.07603031 -0.05356528 0.0031490494 1.0126e-41 -0.0023524389 0.0886363
0.0019462892 -0.03033313 0.04789283 -0.0005997995 -0.00074715493 0.006832326 -0.06549825 -0.01673812
0.037602257 -0.0631581 1.0517746e-24 -0.023927791 -4.1486057e-18 -0.07152902 8.496344e-08 0.029246531
-1.0066e-41 -0.027320376 -0.026972258 0.01600711 -0.0198625 -0.061922222 -0.034335434 -0.105290845
0.024810225 -0.052213162 0.00035510326 -0.045707256 -0.037861682 0.027992558 -0.012574057 4.3896e-41
-0.0072144656 0.0029538348 0.04396598 -0.0050700014 -0.05710476 -0.0015503773 -9.935e-42 -9.967e-42
-0.08443054 0.02497229 -0.0025597576 -0.00096105674 0.015514024 0.06045919 0.049080256 0.06286284
-1.9780987e-06 -0.0010892261 -0.0009849288 -2.5940864e-07 9.834e-42 1.0734e-41 -0.004447473 0.023250591
-9.874e-42 -0.0059055747 0.0055757244 0.012613812 0.020399457 -1.7751578e-05 0.009056577 0.018538844
-0.008543506 -0.0075637037 0.0064768936 -3.2132937e-06 -0.00043415104 -0.032911517 -0.00072546874 -0.00017481693
-2.1237954e-08 -3.186e-41 0.008368432 -0.00045908694 0.009191953 -1.0038e-41 -9.875e-42 -5.145327e-05
-5.3157e-40 0.00030112427 -1.4434599e-13 1.1308e-41 -0.003157974 -0.0007514433 -0.00035206665 0.0035037412
-0.033775117 2.4352833e-12 0.00014267767 1.03e-41 3.6789446e-20 0.035196874 -0.00884286 -0.012576861
-0.00786347 -0.00018907171 0.00015648289 -0.0013054884 0.013005476 9.93e-42 0.0059792916 0.026846873
0.019629652 0.0013772969 -0.00027521467 -0.0007521645 -0.012577782 -0.004123736 -0.006503428 -0.00047646888
-0.008109515 -0.0010949734 1.071e-41 -0.0030981363 -0.039642766 0.0053139008 -0.0006869806 0.029651692
-0.005247804 -1.3000111e-12 -0.00025581423 0.0027222175 -0.022817094 9.861055e-13 -0.0042724926 -0.00085262186
0.0020804438 -0.0009772949 -0.00094010285 1.0038e-41 -0.007637717 -0.0005716986 7.0414e-05 0.011197562
-0.00061700586 -0.0006130222 1.0751e-41 -0.007398998 3.4594298e-38 -0.004806114 1.0038e-41 0.0055861995
-0.0004288238 -0.008196464 -0.0012357194 -0.020021861 -0.0006901539 0.0057006553 -0.024003148 -0.00055122137
-0.0053542196 -0.037041545 -1.0015e-41 6.02054e-40 0.001789949 0.0068842806 0.006462697 -1.0063e-41
6.3780136e-16 -0.00033027504 0.00053994317 -0.00016412081 -1.971882e-08 -1.0161e-41 -9.4897e-06 -0.00041425467
0.008724215 -0.015489 0.0018236911 -0.011507093 0.0011982821 -0.0003090093 0.00022531742 0.008838639

encoder.mlp.4.bias f4 [256]
00000000: 9943 6ebd e829 4f3a 3b81 29bb 5b88 6e3d
00000010: 1cea 02bd 19e7 853d 7b95 90bb 7a85 c13a
00000020: 92e0 b6bc 42a0 e495 c98c 82bc 0460 4a3d
00000030: 9696 7b3d 7963 e2bb ae74 703d c9f7 32bc
00000040: 71be dd3d c5e5 893d d7c4 39bc 71fb d9b8
00000050: f7a7 b2bc cd8b dabc 56a2 663c 6f2e f6ba
00000060: 51e3 293c 78d3 6ebd 82b4 eabc 08b2 98bc
00000070: 607c 37b6 335d 8dbc 2f81 043d 36da 50bc
00000080: f7c6 1abb 044b 28bc 029b c3bc 3433 d53a
00000090: fb5e fb2b 7017 70bc 102f 03bd bf36 183d
000000a0: 511f 563d 036e 59bd d29f f2bc 3a7c 941f
000000b0: 75df 9a3c 95ae 27bd 3f85 a73c 0a27 debc
000000c0: 977c 6d22 6812 1f3d 4063 1e8c 52c5 033d
000000d0: 1005 aabc 2cfc 883d 4072 07bd bf82 583d
000000e0: 9990 28bc c977 4cbc 5966 debc c1ae 723c
000000f0: e4a3 eb3d be75 9f3b e31c 933d 4436 003d
00000100: 038e 43bd 4238 873c 255a f9bc 4305 9ebb
00000110: 1701 923d 20e1 42bd ca4c 62bd 6a5c 5fbb
00000120: 6a89 14bc 84a5 9a94 8cbb 23a1 6ca1 6d80
00000130: 0512 30a2 7aa4 5cbc 39e9 393a 64a5 babb
00000140: 920a 51bd 52ec aa3c d445 ca3c 6b17 71bc
00000150: 7302 09bd e20f 8dbd 8383 21bd 46c2 9bbb
00000160: e8b1 dbbc 307f 3fbc 717c 18bd 7bcc 043d
00000170: 5843 73bc ac3c b80a cd3d febc 3547 8ebd
00000180: dc2c 76bd bed1 8c9c ab4a 4eb0 1c33 c2b9
00000190: 9d31 dabb 49fa 25bd f161 073d 3ac1 2bbc
000001a0: fb68 42bd 27fb 7f3c 3fba 1e3d 290c ac3c
000001b0: c591 443b 607d 853b e290 fd3c 100b 4db3
000001c0: c623 2f3d 176f 6c3b 115b 52ad 57b6 bfbc
000001d0: e16a 4a1d 0514 01bd 7665 573a 503f db3a
000001e0: 13ee b593 9540 963b 7fad e53c 677a a9bd
000001f0: fed1 9bbc 4336 353c 6fab ed3b fdea 5e3d
00000200: a799 c52f 2c98 343d 1b7e 72bc e7a6 2d3d
00000210: 7f0a c33c e991 c43b 934b 3d3c ae22 87bd
00000220: 24fb 9c3c 0c11 0b3d ecb4 adbd 1932 2b3b
00000230: 8a4e 3e9f c1c4 943b 7dfb 483a 8301 46bd
00000240: c273 10bd 10a6 4ebb 9143 943b b6e5 31bd
00000250: dced bebb e039 ecbc 21d8 b6bc 0fd6 e1bc
00000260: 2098 863c c3e2 ac3c 82fe 9a3c 940f 82ac
00000270: 99de 4dbc 0553 f7bc 3291 7fbd cd8c a304
00000280: ab16 84bc 11eb 8d3c b1e1 d73c 9448 753c
00000290: 1580 dc3d 6067 6ebd 4b74 6cbd 2a07 a8bc
000002a0: 0202 1c3d fa99 113d b8d7 8cba 3aab 3fbd
000002b0: e2da 033d 3163 123c 18f6 e73c f4f5 80bd
000002c0: 6d6d 50bc 7958 a03c 0d0d 511a cc94 613d
000002d0: ff0c 60b7 052a e6bc a570 9d3c c162 cf3c
000002e0: 4ec2 103c 7f54 713d 066c 703c 208b 543c
000002f0: 94d3 903b 57a0 58bc b5cd 14bd bd4c 8a3a
00000300: b684 263d 0699 abbc d553 c0bc 3279 333c
00000310: 4f84 013c c660 aebc 3d65 6dbd 477c d93d
00000320: 25c2 46bd 9af4 b23c 3723 12bc 1a96 9cbc
00000330: c3b9 4d3c f76d 96bd ef7f 4dbc 6925 143d
00000340: b659 2fbd 15ee cdbc 9751 96bc f2af 993d
00000350: ff65 25bd a0a8 9a96 4190 823c e059 18b8
00000360: 8bed 61bd f27b 03bd 6d4d de3b 93de 3c3b
00000370: 521f 0000 6728 8fbb 7c3d 963a ccfc 5dbd
00000380: e2d4 363d 420a e091 45e4 82bd a2d7 773d
00000390: 202e deb9 c37e 48bc a940 9abc f589 05bc
000003a0: 6c1d 11b6 f09e 73bb d5e8 47bb 8152 aabb
000003b0: fd12 f23b bacf a03d da5c 02bd 6114 383a
000003c0: 10c6 46bc 1a22 d13a f1cd f5a7 2753 73bc
000003d0: 3a95 33bd c38b 76bd 4bea 2f3c 6a10 6e3d
000003e0: 4b68 5ebd 2b9a 779a 89dd f4bc e42e 3f3d
000003f0: 5ad7 99bc 1af3 a53b f589 bb3d 1c3e 5cbd
-0.058169935 0.0007902668 -0.002586438 0.058235507 -0.031961545 0.06538219 -0.0044123507 0.001476451
-0.02232388 -9.234131e-26 -0.015936272 0.049407974 0.061422907 -0.0069088307 0.058705024 -0.010923334
0.108273394 0.06733278 -0.011338434 -0.00010394201 -0.021808608 -0.02667799 0.01407679 -0.0018782149
0.010369138 -0.05830714 -0.028650526 -0.01863958 -2.734152e-06 -0.017256355 0.03234976 -0.012747338
-0.0023617127 -0.010271791 -0.023877624 0.001626587 1.7860985e-12 -0.014654025 -0.032027304 0.037161585
0.05227596 -0.05308343 -0.029617224 6.2885954e-20 0.01890538 -0.04093798 0.020449279 -0.027118225
3.2185447e-18 0.038835913 -1.2201744e-31 0.0321706 -0.020754367 0.06688723 -0.03306794 0.052859064
-0.010288381 -0.012479731 -0.027148413 0.014812172 0.11505869 0.004866331 0.07183244 0.03130175
-0.047742855 0.016506318 -0.030438492 -0.0048224046 0.07129114 -0.047577977 -0.055249013 -0.0034082183
-0.009065965 -1.561531e-26 -5.5474764e-19 -1.0067976e-38 -2.3861987e-18 -0.013466949 0.0007091943 -0.0056959856
-0.05103547 0.02086464 0.0246915 -0.014715056 -0.0334496 -0.06887795 -0.03943206 -0.004753384
-0.02681823 -0.011688039 -0.03722805 0.03242157 -0.014847599 1.7741378e-32 -0.031035328 -0.069471754
-0.060101375 -9.31864e-22 -7.5048473e-10 -0.00037040643 -0.0066587464 -0.040521894 0.03305239 -0.0104830805
-0.0474634 0.015623844 0.038751837 0.021001892 0.0029994112 0.0040737838 0.030952875 -4.7740343e-08
0.042758726 0.0036076957 -1.1957339e-11 -0.023402376 2.6789732e-21 -0.031513233 0.0008216718 0.0016727243
-4.5925583e-27 0.0045853355 0.028036831 -0.082752995 -0.01902103 0.0110603 0.0072531025 0.05442332
3.5943268e-10 0.044090435 -0.014800574 0.0423955 0.023808716 0.005998839 0.011553663 -0.065984115
0.019162722 0.033951804 -0.08481774 0.002612239 -4.029903e-20 0.0045400565 0.0007666869 -0.048341285
-0.035266645 -0.0031532086 0.004524656 -0.04343196 -0.005826695 -0.02883619 -0.022319855 -0.027567891
0.01642996 0.021104222 0.018920187 -3.6965517e-12 -0.012565278 -0.030190954 -0.06239433 3.845042e-36
-0.01612409 0.017324002 0.026352735 0.014970917 0.10766617 -0.058204055 -0.057728093 -0.020511229
0.038087852 0.035547234 -0.0010745442 -0.046794154 0.032191165 0.008934782 0.028315589 -0.06296912
-0.012721402 0.019573437 4.323073e-23 0.055073544 -1.3354466e-05 -0.028096208 0.019218752 0.025315644
0.008835388 0.058918472 0.014674192 0.012972623 0.0044197533 -0.013221822 -0.03632899 0.0010551434
0.040653907 -0.02094699 -0.023477474 0.010954188 0.00790508 -0.02128638 -0.057957876 0.10619407
-0.048524994 0.02184515 -0.008919529 -0.019114543 0.012556496 -0.07345193 -0.012542709 0.03616849
-0.042810164 -0.02513794 -0.018349452 0.07504262 -0.040380474 -2.498646e-25 0.015937926 -3.6323327e-05
-0.05515818 -0.032100625 0.006784132 0.0028819188 1.1236e-41 -0.00436883 0.0011462416 -0.054196164
0.044636615 -3.534729e-28 -0.06391195 0.060508378 -0.00042377505 -0.012237254 -0.01882966 -0.008150567
-2.162381e-06 -0.0037173592 -0.003050377 -0.0051978235 0.0073875175 0.07852121 -0.03182683 0.00070220797
-0.012132183 0.0015955598 -6.8224442e-15 -0.014851368 -0.043843485 -0.06019188 0.010737012 0.058121122
-0.05429868 -5.120294e-23 -0.029890792 0.046675578 -0.018779445 0.0050643804 0.091571726 -0.05377017

pos_mlp.0.weight f4 [32, 1]
00000000: 936b 2dba f720 2db2 6523 b9b3 0206 273f
00000010: 8421 0080 a5c5 1cbe c817 f2bd 776a e53e
00000020: 107f e9be c572 52ae af65 b8be 592a 5923
00000030: 7570 46b8 1ca2 cbbe dffe 1fbe 5a08 06bf
00000040: e44a 98b2 9d43 edbe 6e46 58bf 9bd0 0238
00000050: 3416 7fbf a10e 72bf d21f 0080 7a7d 8eb4
00000060: 3b05 a33f 3c94 e93e 06d8 e9b3 fc2b e43e
00000070: 3426 9a3f fed8 313f b84d 8c2d 054c 8bac
-0.0006615456 -1.0077421e-08 -8.621172e-08 0.6524354 -1.2023e-41 -0.1530977 -0.11820942 0.4480779
-0.45604753 -4.7850408e-11 -0.36015078 1.1772561e-17 -4.7311612e-05 -0.39772117 -0.1562457 -0.52356493
-1.7729185e-08 -0.46340647 -0.8448247 3.1188694e-05 -0.99643254 -0.9455357 -1.1415e-41 -2.6540857e-07
1.2735971 0.45620906 -1.08892024e-07 0.44564807 1.2042909 0.6947173 1.5950671e-11 -3.9590575e-12

pos_mlp.0.bias f4 [32]
00000000: 3aee 15a6 1ec2 46b3 ab4f ad2c 1aef 653f
00000010: 4ed9 27ba c94c b53d dea4 523f 6f8c 4d3e
00000020: 42e8 e83e 3814 8cad 5a58 b83e 4c6a e3b7
00000030: 4adb 02b7 43ad ca3e 6d9f 393f d6f9 043f
00000040: 3533 e6b0 e85d e63e 4854 473f 8e8a 5cba
00000050: b5ab 7c3f a25d 433f 8f19 42b9 94d6 81b9
00000060: c32c bc3e e64e f8bc 21cc 46b4 3785 ff3e
00000070: 936f 8b3e 2617 8cbd 5897 86b7 6bab feb7
-5.2017617e-16 -4.6277016e-08 4.9258007e-12 0.89817965 -0.00064029254 0.08852536 0.8228282 0.20073102
0.454897 -1.5925136e-11 0.36004907 -2.7110007e-05 -7.799661e-06 0.39585313 0.7250889 0.5194372
-1.6749256e-09 0.4499352 0.7786298 -0.000841298 0.98699504 0.7631475 -0.00018510803 -0.0002476467
0.367529 -0.03031106 -1.8514449e-07 0.49906322 0.27233562 -0.06840353 -1.604452e-05 -3.0358982e-05

pos_mlp.2.weight f4 [32, 32]
00000000: c5f4 d405 831b 0080 e32e 8e2c 67d1 d5bb
00000010: 1bfb a084 3e76 0e3e e082 7c3d ceb6 43bd
00000020: 1924 393e 1ddf 0f2b 1d1e 463e 5e51 be0e
00000030: 18b7 4d80 aaf4 423e 84cf 8b3d 04f6 4c3e
00000040: 2d1f 0080 4e56 653e 6a71 613e b81b 0000
00000050: 99d5 323e 0f78 623e 5193 0100 a812 ac84
00000060: e373 a8bd d858 42be f410 0fb2 8e05 453c
00000070: 0149 d1bd ec1f 35be 2ee4 be14 f41b 0080
00000080: 7917 7308 ef1e 0080 7610 9008 7c29 5b9f
00000090: 236d 838b 2e58 841c 80c5 de9e bade d79e
000000a0: 9a61 181d 3b09 2603 ace5 e61c 36d6 a812
000000b0: 9d1b 0000 60e2 a41c 790c bc1e e48f 181d
000000c0: e21b 0080 9675 1d1d 4456 611d ee34 e78e
000000d0: 83f7 831d acef e91d 38e4 090a db32 4511
000000e0: 4865 919f 2562 989e 651f 0000 5601 249f
000000f0: 1d61 7b9f 02a3 441f 391c 0080 3597 cc80
00000100: 65f5 af92 161c 0000 e41b 0080 07a2 b33e
00000110: 05d1 0d13 0ae0 3dbd 3dc1 fabc 1bcc c43e
00000120: 6c70 c9be 9efc da2b 00f9 9dbe 751b 0000
00000130: fd1b 0000 cd38 a7be b509 72bd 7699 e9be
00000140: d11c 0080 f082 76be 5980 a7be dc1b 0080
00000150: 81fd 96be 552d 95be 57d1 bc90 781b 0080
00000160: 1331 a93e df17 cd3e 19ef 1fb2 d205 053e
00000170: a100 f23e b411 cb3e 2c1c 0080 6e47 8b99
00000180: 7c1b 0080 a954 0100 b050 c714 2f48 103e
00000190: e6d6 8303 1d15 8bbc 33ff 0bbd b75e 783e
000001a0: b04f 88be 0f05 c82b 6fcc 69be a921 0000
000001b0: 8018 4412 b2ec 8dbe 3acc eb3d 2743 bfbe
000001c0: 2d1c 0000 8821 ebbd 3c8c 67be e1bb c714
000001d0: 01d5 dabe 05fb f4bd e61b 0080 c3be e109
000001e0: 8c8d 7c3e a53a d43e 8a7e 9eb2 de87 553e
000001f0: e234 683e edfa d33e 93ec f08a 8d1b 0080
00000200: 3d5c 058f 931b 0080 0c08 8284 5957 533e
00000210: c0bb f513 2a1c a6bc 1ca6 5dbd f3d5 323e
00000220: 4ac9 acbe 22b8 c52b fe6b 96be 37e5 4916
00000230: a051 9509 0f2b a5be b815 c93d d959 9abe
00000240: c162 2c87 b77d 57be 3cf6 a9be 19b3 860f
00000250: c6af 89be ede3 3bbe e3ad ed13 661b 0000
00000260: e82c 1b3e c693 b33e 5a7c 79b2 29a7 103e
00000270: bcdd 983e ad36 ab3e 801b 0000 fd1b 0080
00000280: 521c 0080 3220 0080 c8f6 112c 0497 c93b
00000290: 13d9 6819 0d03 aa3d 2d00 413d 59ed e4bc
000002a0: 0720 d13d 34ce 93aa a4e1 cc3d b0cd 0297
000002b0: b88f 4013 caf1 d03d a166 503d 26cb d73d
000002c0: 0b8c 878b 7ad1 dd3d a09d e73d 051c 0000
000002d0: 9609 d13d 0cb0 f13d 5e77 0b00 711c 0080
000002e0: bfa7 4ebd f7fc b3bd a118 d8ac 1d69 cf3a
000002f0: 1141 6bbd afd8 c3bd 601c 0000 f01b 0000
00000300: 023d 3a83 b51b 0080 1c87 b62b d1f3 373e
00000310: e520 0000 b66d 983d cbca 863e 9365 c73d
00000320: c6d9 af3e 833f 03ac 8e24 a23e f51b 0080
00000330: 841c 0080 ae54 813e 8141 1d3e db2b ee3e
00000340: a21b 0080 3132 c63e a243 cc3e 4516 170a
00000350: c38b dc3e fe48 393e 0669 1909 2d1c 0000
00000360: 083b 83be b8a5 6abe c359 3d33 7a63 603d
00000370: 6e1e 74be e95e 30be 17b1 c616 8511 0080
00000380: af1b 0080 991c 0000 a7be de2b b63f aebd
00000390: 905c 0b99 405a db3d f9e2 383e 31af 103c
000003a0: 46d5 c13e 5c80 8729 6aee e13e 7501 9014
000003b0: 7721 0080 d587 f23e 68a0 4f3e 30a3 be3e
000003c0: 06f9 7912 dee5 c63e f049 ef3e 443b 6186
000003d0: af88 cb3e bbfa ff3e 7e22 0080 814a 7788
000003e0: 948c 55be f4d9 4dbe 2824 3d32 7c6d acbd
000003f0: 5d73 92bd d0e4 89be 9f1b 0000 28df 2987
2.0026298e-35 -9.87e-42 4.041088e-12 -0.006525207 -3.7846423e-36 0.13912293 0.06164825 -0.047781758
0.18080176 5.111344e-13 0.19347425 4.691697e-30 -7.137015e-39 0.19038644 0.0682669 0.20015723
-1.1184e-41 0.22396204 0.2201592 9.944e-42 0.17464294 0.22116111 1.44683e-40 -4.045414e-36
-0.08225229 -0.18979204 -8.32755e-09 0.01202525 -0.102190025 -0.17687958 1.9275098e-26 -1.0028e-41
7.3152745e-34 -1.1097e-41 8.670555e-34 -4.640937e-20 -5.0623575e-32 8.757821e-22 -2.3586848e-20 -2.2856128e-20
2.0167491e-21 4.879361e-37 1.5279492e-21 1.0655098e-27 9.906e-42 1.0911126e-21 1.9910433e-20 2.0191422e-21
-1.0002e-41 2.0839567e-21 2.98231e-21 -5.6996866e-30 3.4931332e-21 6.19224e-21 6.639233e-33 1.5556231e-28
-6.1577444e-20 -1.6134218e-20 1.1262e-41 -3.4729456e-20 -5.3231648e-20 4.163945e-20 -1.0124e-41 -1.8788684e-38
-1.1104547e-27 1.0075e-41 -1.0005e-41 0.35084555 1.7899757e-27 -0.04635624 -0.030609721 0.3843697
-0.39343584 1.5559947e-12 -0.30854034 9.85e-42 1.004e-41 -0.32660523 -0.05909129 -0.45624894
-1.0337e-41 -0.24073386 -0.3271511 -9.994e-42 -0.29490283 -0.29136148 -7.4475464e-29 -9.854e-42
0.33045253 0.40057275 -9.309383e-09 0.12990502 0.47266105 0.39661944 -1.0106e-41 -1.4401113e-23
-9.86e-42 1.22206e-40 2.012569e-26 0.14090036 7.748826e-37 -0.016977841 -0.034178924 0.24254881
-0.26623297 1.4212259e-12 -0.22831891 1.2075e-41 6.1876894e-28 -0.27719647 0.115135625 -0.3735592
1.0108e-41 -0.11481005 -0.22612089 2.016797e-26 -0.42740634 -0.11961941 -1.0008e-41 5.434617e-33
0.24663371 0.41450992 -1.8451164e-08 0.2085261 0.22676423 0.4140238 -2.3200149e-32 -9.883e-42
-6.575171e-30 -9.892e-42 -3.0570243e-36 0.20638789 6.203183e-27 -0.020277102 -0.054113492 0.17464428
-0.3374732 1.4048799e-12 -0.29379267 1.6308978e-25 3.5947205e-33 -0.32259414 0.09818596 -0.30146673
-1.2968863e-34 -0.2104405 -0.33195674 1.3282406e-29 -0.26891917 -0.18348666 5.9998677e-27 9.829e-42
0.15153849 0.3507368 -1.4521982e-08 0.14126267 0.2985667 0.33440152 9.865e-42 -1.004e-41
-1.016e-41 -1.155e-41 2.074273e-12 0.0061520357 1.2037957e-23 0.08301363 0.04711931 -0.027945207
0.10211187 -2.6255528e-13 0.10003975 -4.226488e-25 2.4304666e-27 0.102023676 0.050879125 0.10536794
-5.221082e-32 0.1083097 0.113093615 1.0052e-41 0.102069065 0.118011564 1.053011e-39 -1.0203e-41
-0.050452944 -0.087884836 -6.1418236e-12 0.0015824173 -0.0574351 -0.095628135 1.0179e-41 1.0022e-41
-5.473052e-37 -9.94e-42 1.2969378e-12 0.17964102 1.18e-41 0.07442801 0.26326594 0.097361706
0.34345835 -1.8651476e-12 0.31668514 -1.0029e-41 -1.023e-41 0.25259918 0.15357019 0.46517834
-9.913e-42 0.38710168 0.3989535 7.274574e-33 0.4307538 0.1809425 1.8466087e-33 1.0108e-41
-0.25630975 -0.22914779 4.408663e-08 0.05478237 -0.23839733 -0.17223705 3.2100385e-25 -6.285e-42
-9.931e-42 1.0259e-41 1.5826965e-12 -0.08508246 -7.2048244e-24 0.10710573 0.18055333 0.008830831
0.37858027 6.017471e-14 0.44127208 1.4540859e-26 -1.2005e-41 0.47369257 0.20276034 0.37233877
7.887749e-28 0.3884725 0.46736097 -4.2361338e-35 0.3975272 0.4999598 -1.2373e-41 -7.441644e-34
-0.20854408 -0.20102674 1.1009469e-08 -0.0841932 -0.0715091 -0.26932383 9.909e-42 -1.2779727e-34

pos_mlp.2.bias f4 [32]
00000000: 88a1 673d ae4d 2c9f 15ea ae3d 6dcb 53bb
00000010: f909 553d 8de3 2a3d bc72 9a3e 1510 8ebb
00000020: eb84 913e ad17 81a6 0728 6d3d fab9 80bd
00000030: c6c7 74ba 5484 273e c530 d13d 4202 243e
00000040: 166c a83d 7f2c af3d 0f90 79a8 883a 89ba
00000050: 7b3f 233e f641 4ea2 0b9d 063e 9e1a a83e
00000060: a038 329f 70c4 ad3e 97a8 0f3e f077 d53d
00000070: 92be 8fa9 a788 723e a758 1a3e ab2e b7b7
0.056550533 -3.6486672e-20 0.08540741 -0.0032317296 0.052011464 0.041720916 0.3016566 -0.004335413
0.2842172 -8.95759e-16 0.0578995 -0.06285472 -0.000933763 0.16359073 0.1021438 0.16016486
0.08223741 0.08553409 -1.3853514e-14 -0.0010469714 0.15942185 -2.7953125e-18 0.13145845 0.32832807
-3.7739805e-20 0.33938932 0.14029156 0.10423267 -6.3835344e-14 0.23684941 0.1507288 -2.1837031e-05

dec_trunk.0.weight f4 [128, 288]
00000000: 6dd5 491e 8e1c 0000 0b1c 0080 c11b 0000
00000010: 9d3a 4814 4662 0100 211c 0080 d9f5 a8a6
00000020: 991c 0080 c51b 0080 c4f9 e18b 8608 14a5
00000030: c721 b0a8 241c 0000 681d 0000 c5c2 468a
00000040: 1f1c 0000 821c 0000 b791 c3ae c820 0080
00000050: f51e 0000 505e 94ac 07ec 351f 93ef 3ca6
00000060: b6a0 cfae cd58 a911 a320 e9a8 f5e6 9fb1
00000070: 4b1c 0080 6f07 dfab 915f 120a 7ad6 5cad
00000080: 09e9 090e 7dcc 2794 4a1c 0080 d4f9 6cb0
00000090: b01b 0000 024d 11b1 eed3 7e20 9a41 a8a7
000000a0: 255b c900 9853 1398 b118 6101 ee1e 0000
000000b0: d5d4 e1ab 4901 0100 7ddf 1da8 1f85 b812
000000c0: ec1b 0080 9230 fea7 261c 0000 927b 9a14
000000d0: 6ff8 98ab 9946 0080 55a6 a0a2 069f 389b
000000e0: 8b62 7b94 a64f 2e0e f5d3 2cab 811b 0000
000000f0: d448 5f86 7b1b 0080 3b30 eb20 1e50 dc92
00000100: 8c1b 0080 3cce a120 301c 0080 7c15 76a4
00000110: 42d6 f002 76c7 128a 67b4 b5a6 a373 b406
00000120: 1256 75ad 601b 0080 c21c 0000 081d 0080
00000130: e31b 0000 ed1b 0080 abb4 0121 831b 0080
00000140: 361c 0000 3b21 110b 761b 0080 a6e3 5cae
00000150: 4c22 0000 8c5c e6a4 e7f2 03af 7d35 07ac
00000160: e413 7da8 981b 0000 9104 7fa6 fd21 0000
00000170: 82d4 88ad 9e1c 0000 a81b 0080 648b deac
00000180: b391 d5ac 561c 0000 7a1c 0000 ec79 889b
00000190: 2d27 08aa d51e 0000 31b4 ecac 2778 8299
000001a0: 9195 1493 de1c 0080 d393 d592 9a2e 340a
000001b0: 4719 08b2 b06d f81f 0854 bf13 c11f 0080
000001c0: 631b 0000 c768 7c1c 641b 0080 f510 0720
000001d0: a01b 0080 c58f 3196 ed1d 0080 5c1d 0000
000001e0: 521c 0000 3190 caa8 82d0 0da9 a21e dfae
000001f0: 01cb fbae 0a21 0080 671d 0080 6a4b 148f
00000200: 181c 0080 c11b 0080 0b1c 0000 60a5 4ab0
00000210: f43f 4087 dca2 3faf 4c6e 6011 7805 feae
00000220: a71b 0000 42b3 6b12 ad40 21b0 c41b 0080
00000230: b91b 0000 44a2 f50e e81b 0080 db02 03a8
00000240: 5c1b 0080 611b 0080 ee22 0080 0325 218e
00000250: 9a5a 2910 0af0 221d e405 1fa4 beef 44a8
00000260: ae1c 0080 c5d7 a490 7a1c 0080 c31d 0000
00000270: 997a a8ab a746 73b1 8363 14b2 0c1c 0080
00000280: bd3d 249a f73c 4d88 3012 0080 d31d 0080
00000290: 37d1 3718 8c1b 0080 52c6 3a0f 56b0 71af
000002a0: 355b e98a b51b 0000 48d1 df9b eac6 3cb0
000002b0: 1a0a 041f 8310 0080 a564 158a 95a7 9eaa
000002c0: c422 0000 e0f7 12b2 cd1c 0080 bd1c 0000
000002d0: cd2b 61a4 8192 ce9f fa58 cf1f f36b 39b0
000002e0: 391c 0080 efee 43a8 aaad db99 db1c 0000
000002f0: 4c7a 2607 711b 0000 aea8 d2ae 6f1c 0080
00000300: 7e34 62a6 f41c 0080 f09d c689 5821 0000
00000310: 2c1e 0000 859f ad96 bf30 83b1 a702 5584
00000320: e738 081f 5a1b 0000 2de5 d51f 7e1b 0000
00000330: 871c 0000 7f57 05af 611c 0080 13f8 8d0a
00000340: 787e 8b1f aa5b e7a6 6921 5db0 d912 5e1f
00000350: a93b c2a9 711c 0000 5a84 35ad 541c 0080
00000360: 2333 32a7 3c36 bd9b 651b 0000 dc1b 0080
00000370: 121c 0000 6117 0080 5d1c 0080 2f50 f6b0
00000380: 7c1b 0080 1e1e 0080 7945 0e99 6c93 5c91
00000390: 491e 0080 62d3 fa17 b31b 0080 ca20 0080
000003a0: b51c 0000 21c1 050a b7ac c41a 7f97 1180
000003b0: be1b 0080 d31c 0080 d877 30ae 5af1 b8ab
000003c0: 98c3 2caa 631b 0080 7f1b 0080 3b1c 0000
000003d0: cadc 07ac 1ef0 e515 b01d 0000 d548 0389
000003e0: 987b db17 2a1c 0080 1372 079b 515d 5200
000003f0: a749 95a7 5d98 6f90 dd22 a50c a9c0 cf8f
1.0684987e-20 1.0243e-41 -1.006e-41 9.956e-42 1.0108979e-26 1.2709e-40 -1.0091e-41 -1.1723979e-15
-1.0259e-41 -9.962e-42 -8.7042653e-32 -1.2839842e-16 -1.9554574e-14 1.0095e-41 1.0549e-41 -9.569985e-33
1.0088e-41 1.0227e-41 -8.8934575e-11 -1.176e-41 1.1105e-41 -4.216884e-12 3.8523478e-20 -6.5550286e-16
-9.441818e-11 2.6718226e-28 -2.588235e-14 -4.653766e-09 -1.015e-41 -1.5847166e-12 7.047618e-33 -1.25531755e-11
1.6998756e-30 -8.4716736e-27 -1.0148e-41 -8.6211327e-10 9.932e-42 -2.114405e-09 2.1584759e-19 -4.6700492e-15
1.8491631e-38 -1.9041509e-24 4.1343688e-38 1.1095e-41 -1.6046284e-12 9.2297e-41 -8.763712e-15 1.1644849e-27
-1.0016e-41 -7.055182e-15 1.0098e-41 1.5598766e-26 -1.0869204e-12 -2.5326e-41 -4.3544198e-18 -1.5271507e-22
-1.2691696e-26 2.1485505e-30 -6.1400825e-13 9.867e-42 -4.1995144e-35 -9.858e-42 3.9842465e-19 -1.3903702e-27
-9.882e-42 2.7410935e-19 -1.0112e-41 -5.3360945e-17 3.5387808e-37 -7.067159e-33 -1.2608296e-15 6.787839e-35
-1.3945749e-11 -9.82e-42 1.0316e-41 -1.0414e-41 1.0004e-41 -1.0018e-41 4.394601e-19 -9.87e-42
1.012e-41 2.7950984e-32 -9.851e-42 -5.02244e-11 1.2303e-41 -9.990338e-17 -1.2000677e-10 -1.9214346e-12
-1.4048634e-14 9.899e-42 -8.8477086e-16 1.2193e-41 -1.5555782e-11 1.0266e-41 -9.921e-42 -6.325095e-12
-6.07e-12 1.0165e-41 1.0215e-41 -2.2578103e-22 -1.2092818e-13 1.106e-41 -6.7275287e-12 -1.3490214e-23
-1.8753968e-27 -1.0356e-41 -1.3478631e-27 8.6754495e-33 -7.921989e-09 1.0521355e-19 4.829804e-27 -1.1391e-41
9.825e-42 8.3515227e-22 -9.826e-42 1.1440555e-19 -9.91e-42 -1.4343312e-25 -1.0735e-41 1.0532e-41
1.016e-41 -2.2489038e-14 -3.148914e-14 -1.01463074e-10 -1.1450219e-10 -1.1852e-41 -1.0548e-41 -7.3114876e-30
-1.0078e-41 -9.956e-42 1.006e-41 -7.3722184e-10 -1.4463269e-34 -1.7429208e-10 1.7704472e-28 -1.1551554e-10
9.92e-42 7.4373877e-28 -5.866337e-10 -9.96e-42 9.945e-42 6.055342e-30 -1.0011e-41 -7.27258e-15
-9.815e-42 -9.822e-42 -1.253e-41 -1.9862603e-30 3.339917e-29 2.1564619e-21 -3.448262e-17 -1.09321714e-14
-1.0288e-41 -6.501904e-29 -1.0215e-41 1.0676e-41 -1.1971146e-12 -3.5401315e-09 -8.63736e-09 -1.0061e-41
-3.3964277e-23 -6.1761607e-34 -6.524e-42 -1.0699e-41 2.3757822e-24 -9.882e-42 9.208703e-30 -2.198147e-10
-2.2471392e-32 9.94e-42 -3.70275e-22 -6.8676675e-10 2.7960443e-20 -5.923e-42 -7.193018e-33 -2.8182721e-13
1.2472e-41 -8.554679e-09 -1.0332e-41 1.031e-41 -4.88262e-17 -8.7486764e-20 8.781511e-20 -6.7456013e-10
-1.0124e-41 -1.0876485e-14 -2.2714212e-23 1.0351e-41 1.2524392e-34 9.844e-42 -9.579658e-11 -1.02e-41
-7.848064e-16 -1.0386e-41 -4.781529e-33 1.1961e-41 1.0824e-41 -2.8050328e-25 -3.8181436e-09 -2.5039248e-36
2.884619e-20 9.812e-42 9.058815e-20 9.862e-42 1.0234e-41 -1.2127364e-10 -1.018e-41 1.3671121e-32
5.9078015e-20 -1.605369e-15 -8.044681e-10 4.702592e-20 -8.62568e-14 1.0203e-41 -1.0318047e-11 -1.0162e-41
-2.4730184e-15 -3.1302475e-22 9.827e-42 -9.994e-42 1.007e-41 -8.387e-42 -1.0175e-41 -1.7921645e-09
-9.86e-42 -1.0804e-41 -7.355258e-24 -1.7400368e-28 -1.0864e-41 1.6209232e-24 -9.937e-42 -1.1762e-41
1.0298e-41 6.4400406e-33 8.1342736e-23 -1.61555e-39 -9.952e-42 -1.034e-41 -4.012421e-11 -1.3140975e-12
-1.5344529e-13 -9.825e-42 -9.864e-42 1.0127e-41 -1.9307216e-12 9.28712e-26 1.065e-41 -1.5802797e-33
1.4183743e-24 -1.0103e-41 -1.1203798e-22 7.563986e-39 -4.143566e-15 -4.7251815e-29 2.5443258e-31 -2.0485986e-29

dec_trunk.0.bias f4 [128]
00000000: cd1b 0080 5b00 06bc 2a37 440e 8ce5 a7bd
00000010: 1c11 3bbd 48a9 18bc d49f edbc 3b5c 0d3c
00000020: 273f 91bc 2a85 3c85 799e c93c dbad 50a5
00000030: 5131 a98f eefd a6ac 7d65 7080 616b 6e3d
00000040: cc30 2fbd 40a7 e58f 15fc 03b7 c04c 2519
00000050: e31d ca3c 73cd b730 588d aa3c a70d 023d
00000060: 0768 8805 f8ab a9bc bce9 53bb da9f ce3c
00000070: b4a7 54bd d726 c2bc c8d2 35bc 514d d53b
00000080: f7db a8bb ce3c 6fbc a47e 34bc 1148 fabc
00000090: 238e 9f3c a3ed 5692 e66b b03c 39a9 818a
000000a0: 4a4e ef3b 5c6c 5f90 fc91 8f3b 55fe 2b3c
000000b0: 33d9 2419 8bf3 27b6 5326 a93b 02ce 30bd
000000c0: d09f 28ba 0846 cfbb 88f0 9482 6053 239b
000000d0: ebdb 1ebd 3d13 1f3c 6ede e83c 191e 0080
000000e0: 9279 673d 1160 a9bc 581b 0000 436b ca3a
000000f0: f08f 950b fc51 70bd 3c5c ac96 2858 6e3d
00000100: f132 5782 a194 823c 5fe6 69b9 db6d 022a
00000110: d131 0a0a 6ec8 d700 36b1 953c 34c4 a73b
00000120: f642 4e3c 5c34 55bd 9fcb 4fbd f51d c1bc
00000130: f444 8c8c e999 2eb0 a161 333c 72c8 f9ab
00000140: e45b 2d3c e6a9 b98b 1545 670a d19d 223d
00000150: 5794 8283 f3c4 d2bc fbc3 6db8 7891 ad1c
00000160: d31d c83c f73d a0bb 5c2f e683 fcf8 8605
00000170: cdab 8aae 6407 17bd d6f2 643c ba2b 8c3c
00000180: 7759 383b 2d7f f308 989b febb 2130 ac1d
00000190: b783 0fbd 2ebe a43c 7bce 4c34 cfd1 72ba
000001a0: 1898 c9bc 961d 5088 3a3d a404 77d6 04bd
000001b0: c24c 0c3d 0a56 283c a021 1c3d fd32 3f0c
000001c0: 176e 81bb 6d89 55bc 3263 dd3c 9da7 be81
000001d0: 4ee5 a1b2 a331 bc0b a8f8 37bc df2c 80bd
000001e0: 48ae 4f8c 0bce 32bd 4d78 04b9 4ff7 123d
000001f0: 79b8 e538 34cc 503c 17a7 723d 8299 01bd
-9.973e-42 -0.008178796 2.4185426e-30 -0.081980795 -0.045670614 -0.009317704 -0.029006876 0.0086279465
-0.017730309 -8.864176e-36 0.024611698 -1.8100029e-16 -1.6683683e-29 -4.7461956e-12 -1.0321983e-38 0.058207873
-0.042771146 -2.2645566e-29 -7.866901e-06 8.5458e-24 0.024672454 1.3373395e-09 0.020819351 0.0317513
1.2827592e-35 -0.020711884 -0.0032335361 0.025222708 -0.051917747 -0.02370016 -0.011097617 0.006509461
-0.005153175 -0.014601899 -0.011016522 -0.030551942 0.019476956 -6.7819403e-28 0.021535825 -1.2485903e-32
0.007303034 -4.4062472e-29 0.0043814164 0.010497649 8.522464e-24 -2.50267e-06 0.0051620393 -0.043165214
-0.00064325053 -0.006325487 -2.1884704e-37 -1.3509984e-22 -0.03878395 0.009709177 0.028426375 -1.0797e-41
0.056512423 -0.02067569 9.809e-42 0.0015443343 5.7609285e-32 -0.058671936 -2.7846307e-25 0.05818954
-1.5810325e-37 0.015940012 -0.00022306431 1.1584433e-13 6.653828e-33 1.9816532e-38 0.018272977 0.005119825
0.012589207 -0.052051887 -0.050731298 -0.023573855 -2.1611915e-31 -6.351955e-10 0.0109485695 -1.7748149e-12
0.01058099 -7.151504e-32 1.1135238e-32 0.039701287 -7.67477e-37 -0.025728678 -5.6687724e-05 1.1485782e-21
0.024428284 -0.0048901993 -1.3529058e-36 1.2692762e-35 -6.3060314e-11 -0.036872283 0.013973912 0.017110694
0.0028129497 1.4654929e-33 -0.007770013 4.5577785e-21 -0.035037722 0.020110216 1.9074098e-07 -0.00092628313
-0.024608657 -6.26275e-34 3.8612442e-36 -0.032431092 0.03425289 0.01027442 0.038118005 1.4729449e-31
-0.0039498913 -0.013033253 0.02702484 -7.003549e-38 -1.8847143e-08 7.248965e-32 -0.011228718 -0.062585585
-1.5999146e-31 -0.04365353 -0.00012633317 0.035880383 0.000109539316 0.012743998 0.05924138 -0.031640537
