pointnet/weights_per_bundle_ratio025/CC_2_best.pth (torch, 359646 bytes, 17 tensors)

t_grid f4 [100]
0	0x00000000	0.0
1	0x3c257eb5	0.01010101
2	0x3ca57eb5	0.02020202
3	0x3cf83e10	0.030303031
4	0x3d257eb5	0.04040404
5	0x3d4ede62	0.05050505
6	0x3d783e10	0.060606062
7	0x3d90cede	0.07070707
8	0x3da57eb5	0.08080808
9	0x3dba2e8c	0.09090909
10	0x3dcede62	0.1010101
11	0x3de38e39	0.11111111
12	0x3df83e10	0.121212125
13	0x3e0676f3	0.13131313
14	0x3e10cede	0.14141414
15	0x3e1b26ca	0.15151516
16	0x3e257eb5	0.16161616
17	0x3e2fd6a0	0.17171717
18	0x3e3a2e8c	0.18181819
19	0x3e448677	0.1919192
20	0x3e4ede62	0.2020202
21	0x3e59364e	0.21212122
22	0x3e638e39	0.22222222
23	0x3e6de624	0.23232323
24	0x3e783e10	0.24242425
25	0x3e814afd	0.25252524
26	0x3e8676f3	0.26262626
27	0x3e8ba2e9	0.27272728
28	0x3e90cede	0.28282827
29	0x3e95fad4	0.2929293
30	0x3e9b26ca	0.3030303
31	0x3ea052bf	0.3131313
32	0x3ea57eb5	0.32323232
33	0x3eaaaaab	0.33333334
34	0x3eafd6a0	0.34343433
35	0x3eb50296	0.35353535
36	0x3eba2e8c	0.36363637
37	0x3ebf5a81	0.37373737
38	0x3ec48677	0.3838384
39	0x3ec9b26d	0.3939394
40	0x3ecede62	0.4040404
41	0x3ed40a58	0.41414142
42	0x3ed9364e	0.42424244
43	0x3ede6243	0.43434343
44	0x3ee38e39	0.44444445
45	0x3ee8ba2f	0.45454547
46	0x3eede624	0.46464646
47	0x3ef3121a	0.47474748
48	0x3ef83e10	0.4848485
49	0x3efd6a05	0.4949495
50	0x3f014afd	0.5050505
51	0x3f03e0f8	0.5151515
52	0x3f0676f3	0.5252525
53	0x3f090cee	0.53535354
54	0x3f0ba2e9	0.54545456
55	0x3f0e38e4	0.5555556
56	0x3f10cede	0.56565654
57	0x3f1364d9	0.57575756
58	0x3f15fad4	0.5858586
59	0x3f1890cf	0.5959596
60	0x3f1b26ca	0.6060606
61	0x3f1dbcc5	0.61616164
62	0x3f2052bf	0.6262626
63	0x3f22e8ba	0.6363636
64	0x3f257eb5	0.64646465
65	0x3f2814b0	0.65656567
66	0x3f2aaaab	0.6666667
67	0x3f2d40a6	0.6767677
68	0x3f2fd6a0	0.68686867
69	0x3f326c9b	0.6969697
70	0x3f350296	0.7070707
71	0x3f379891	0.7171717
72	0x3f3a2e8c	0.72727275
73	0x3f3cc486	0.7373737
74	0x3f3f5a81	0.74747473
75	0x3f41f07c	0.75757575
76	0x3f448677	0.7676768
77	0x3f471c72	0.7777778
78	0x3f49b26d	0.7878788
79	0x3f4c4867	0.7979798
80	0x3f4ede62	0.8080808
81	0x3f51745d	0.8181818
82	0x3f540a58	0.82828283
83	0x3f56a053	0.83838385
84	0x3f59364e	0.8484849
85	0x3f5bcc48	0.85858583
86	0x3f5e6243	0.86868685
87	0x3f60f83e	0.8787879
88	0x3f638e39	0.8888889
89	0x3f662434	0.8989899
90	0x3f68ba2f	0.90909094
91	0x3f6b5029	0.9191919
92	0x3f6de624	0.9292929
93	0x3f707c1f	0.93939394
94	0x3f73121a	0.94949496
95	0x3f75a815	0.959596
96	0x3f783e10	0.969697
97	0x3f7ad40a	0.97979796
98	0x3f7d6a05	0.989899
99	0x3f800000	1.0

encoder.mlp.0.weight f4 [64, 3]
0	0x3e8b878d	0.27251855
1	0xbe4e91dd	-0.2017283
2	0xbe6d855b	-0.23195402
3	0xbf0f9442	-0.560856
4	0xbe6b506f	-0.22979902
5	0x3a23943d	0.0006240046
6	0xbf0198bc	-0.5062368
7	0xbec24706	-0.37944812
8	0x3b6371a5	0.0034705189
9	0xbdc2f6fb	-0.09519764
10	0x3eec177d	0.4611167
11	0xbe8807c7	-0.26568434
12	0x3a436e36	0.00074550824
13	0xbe920f09	-0.28527096
14	0x3f02c084	0.51075006
15	0xbebea04f	-0.3723168
16	0x3ea2eb19	0.3181999
17	0xbe87ce86	-0.26524752
18	0xbd1d63a9	-0.03842512
19	0xbc8a6119	-0.016892003
20	0xbe3bad75	-0.18327887
21	0x3e989df8	0.2980802
22	0x3f09044c	0.5352218
23	0x3ec30332	0.38088375
24	0xbe60a000	-0.21936035
25	0xbda1ed4e	-0.079065904
26	0x3ed775e2	0.42082125
27	0xbed195c0	-0.40934563
28	0xbd0a7667	-0.033804324
29	0x3e6819ba	0.22666064
30	0xbedc54ab	-0.43033347
31	0x3d2dfef3	0.042479467
32	0x3e4d9982	0.2007809
33	0xbea96092	-0.3308149
34	0x3e7a0336	0.24415287
35	0x3eab0f70	0.33410215
36	0x3ec43d24	0.38327897
37	0x3df4ac61	0.11946941
38	0xbed5a216	-0.41725224
39	0xbf0801b3	-0.5312759
40	0x3ed9b462	0.42520434
41	0xbdec554d	-0.11539707
42	0x3f10ecad	0.5661114
43	0xbedebeba	-0.43504888
44	0xbe7fa270	-0.24964309
45	0x3e90ec7d	0.28305426
46	0x3e0d47ca	0.13796917
47	0x3f0db35f	0.55351824
48	0x3d8b7e2b	0.06811174
49	0xbd93ad48	-0.07210785
50	0xbe4c253f	-0.19936083
51	0xbede6f7a	-0.43444425
52	0x3eb4b091	0.3529096
53	0xbddb540c	-0.1070939
54	0xbdda13bb	-0.106482945
55	0xbe41e244	-0.1893397
56	0xbeefa0b1	-0.46802285
57	0x3cb3a68d	0.021930004
58	0x3e0c4842	0.13699439
59	0xbe8e10fd	-0.27747336
60	0x3e437ee3	0.19091372
61	0xbe83b82c	-0.2572645
62	0x3e10654a	0.14101139
63	0xbd9e73b7	-0.077369146
64	0x3e85129c	0.2599076
65	0xbed83d96	-0.42234486
66	0xbecfe82d	-0.40606824
67	0xbe25fc01	-0.16209413
68	0xbee5edf9	-0.4490812
69	0x3eab8248	0.33497834
70	0xbe8c8aac	-0.27449548
71	0xbee4300c	-0.44567907
72	0x3d7d159f	0.061788198
73	0xbd1f7ba4	-0.038936272
74	0x3f03afdf	0.51440233
75	0xbdca1101	-0.098665245
76	0x3edb16a3	0.42790708
77	0xbf0297f1	-0.51013094
78	0xbec7c619	-0.39018324
79	0x3e7ed732	0.24886778
80	0xbf0bdb0f	-0.5463113
81	0xbdccb0ad	-0.09994636
82	0x3ed9d9cd	0.4254898
83	0x3e55f9c8	0.20896065
84	0xbeea818f	-0.4580197
85	0xbeaa4154	-0.33252966
86	0xbebfad64	-0.37436974
87	0xbea01ff2	-0.31274372
88	0xbecb98ec	-0.39765108
89	0x3dbb7093	0.09152331
90	0xbe45dc0d	-0.19322224
91	0x3d32c5c5	0.04364564
92	0x3d7b0273	0.061281633
93	0xbe9f2fd4	-0.31091177
94	0xbdcbc3ed	-0.09949479
95	0xbf04c9d8	-0.5187049
96	0xbea67475	-0.32510725
97	0x3e6a8a98	0.22904432
98	0xbdc621ba	-0.096744016
99	0xbe6269c2	-0.22110656
100	0x3ec941c3	0.39307985
101	0x3d8358f1	0.064134486
102	0x3ee7e19a	0.45289308
103	0x3ed02342	0.406519
104	0x3f0eba77	0.5575327
105	0xbe1c8574	-0.15285283
106	0xbd51b4f5	-0.051197965
107	0x3dc762d7	0.09735649
108	0xbe6065a4	-0.21913773
109	0x3dc50da5	0.09621743
110	0xbdd307a6	-0.10304193
111	0x3e3ef8ae	0.18649551
112	0x3e8634c9	0.26212147
113	0xbe84c2c3	-0.2592984
114	0xbe2b8162	-0.16748574
115	0xbc0c3652	-0.008557873
116	0xbe944d0e	-0.28965038
117	0xbe51bb57	-0.2048162
118	0x3e8ea60b	0.27861056
119	0x3ea0eec3	0.3143216
120	0x3ee4b098	0.4466598
121	0x3e2ce443	0.1688395
122	0x3ecd1936	0.40058297
123	0x3e07412b	0.13208453
124	0x3d8e883d	0.06959579
125	0x3f01561b	0.5052201
126	0xbdfa00aa	-0.12207158
127	0xbd2ad76a	-0.04170934
128	0x3eb71c62	0.35763842
129	0x3e20022f	0.15625833
130	0x3e7762a5	0.24158724
131	0x3e984811	0.29742482
132	0xbe60aedb	-0.21941702
133	0xbd996960	-0.07490802
134	0x3e9d1432	0.3067947
135	0xbedc1044	-0.4298116
136	0xbf1459fa	-0.57949793
137	0x3e3a13b4	0.18171579
138	0x3d865c9d	0.06560633
139	0xbeb50191	-0.35352758
140	0x3ed25cee	0.41086525
141	0xbeb5d0a1	-0.35510734
142	0xbccddfec	-0.025131188
143	0x3cffc854	0.031223454
144	0xbef2041a	-0.47268754
145	0xbe8b521d	-0.27211085
146	0xbf0bd615	-0.5462354
147	0x3dbead9c	0.09310457
148	0xbda04324	-0.07825306
149	0xbe16fe74	-0.14745504
150	0x3f16c6a2	0.5889684
151	0xbe913851	-0.28363279
152	0x3e0a87bb	0.1352834
153	0x3e9699cf	0.29414222
154	0xbf062435	-0.52399
155	0xbe9368a2	-0.28790766
156	0xbc5cfe30	-0.013488337
157	0xbe1cf1a0	-0.15326548
158	0xbd738c54	-0.05946
159	0x3e86b090	0.26306581
160	0x3ec4e624	0.38456833
161	0xbea9523d	-0.33070555
162	0xbe81f22c	-0.25380075
163	0xbe24ada2	-0.1608186
164	0x3dda9462	0.10672833
165	0x3e1e3ddc	0.15453285
166	0x3e9e7d63	0.30955037
167	0x3dada1ef	0.08478152
168	0xbeb6ec8f	-0.35727355
169	0xbddadd44	-0.10686734
170	0xbe9a08aa	-0.30084735
171	0x3e19841f	0.14991806
172	0xbd9d3fba	-0.076781705
173	0x3e31a0ff	0.17346571
174	0xbd808bee	-0.062766895
175	0xbe3b4178	-0.18286693
176	0x3df2b765	0.11851386
177	0x3ed38611	0.41313222
178	0x3d108ed5	0.035292465
179	0xbea86dc1	-0.32896236
180	0x3e1c6d99	0.15276183
181	0x3e32c5d4	0.17458278
182	0xbe463e7f	-0.19359778
183	0xbea388c1	-0.31940272
184	0x3ae90eb4	0.0017780871
185	0x3e904b01	0.28182223
186	0xbda281ad	-0.0793489
187	0xbd0ebd94	-0.034848765
188	0xbeb25610	-0.34831285
189	0xbeeb1329	-0.45913056
190	0xbee8d5a7	-0.45475504
191	0x3ee396a2	0.4445086

encoder.mlp.0.bias f4 [64]
0	0x3d080870	0.03321117
1	0xbe2d24fa	-0.16908637
2	0x3e214eff	0.15752791
3	0x3e3e9bfa	0.18614188
4	0x3e820eca	0.25401908
5	0xbdca4089	-0.0987559
6	0xbe4b53cb	-0.19856183
7	0x3c2e5e03	0.010642531
8	0xbba1d5b7	-0.004938807
9	0x3deb91e1	0.115024336
10	0xbebf53d7	-0.37368652
11	0xbe5f2ec2	-0.2179518
12	0x3e024847	0.12722884
13	0x3e6da802	0.23208621
14	0x3bf3a520	0.007435456
15	0x3c8b18e8	0.01697965
16	0x3ca062ef	0.019578425
17	0x3d44341c	0.047901258
18	0xbe1a77f4	-0.15084821
19	0xbe4119f3	-0.18857555
20	0x3d05862b	0.032598656
21	0x3ea166e8	0.31523824
22	0x3dfbd512	0.12296499
23	0x3d618bcf	0.055064972
24	0xbd8e5aa0	-0.06950879
25	0xbde87dc5	-0.11352114
26	0x3d8e1421	0.06937433
27	0x3e5f66ee	0.21816608
28	0x3d9b1b1b	0.07573529
29	0x3d371769	0.04470006
30	0x3de0eb4e	0.10982381
31	0x3e524c77	0.20536982
32	0xbc9391a5	-0.018013785
33	0x3a7741dc	0.0009432116
34	0x3e85ada8	0.26109052
35	0x3e4d88d3	0.20071726
36	0x3e3fd720	0.18734407
37	0x3e72b8d8	0.23703325
38	0xbd1ac2e5	-0.037783522
39	0xbe0bfd4a	-0.13670841
40	0x3ea869a7	0.32893106
41	0xbe1f5a60	-0.15561819
42	0x3dbbb04a	0.09164484
43	0x3e9aadf9	0.30210856
44	0xbe858309	-0.26076534
45	0x3df360fd	0.118837334
46	0xbdd2be03	-0.10290148
47	0x3d86e13b	0.06585928
48	0xbd8b54f6	-0.068033144
49	0x3c8e18a2	0.01734573
50	0xbd85cfd4	-0.06533781
51	0x3c91c3a2	0.01779348
52	0x3d834c97	0.06411093
53	0x3e89f300	0.26943207
54	0xbddd6baf	-0.10811555
55	0xbe6436e3	-0.22286563
56	0xbc9b77e1	-0.018978061
57	0xbcd01193	-0.025399005
58	0xbe82077f	-0.25396344
59	0xbdfd6a46	-0.12373786
60	0x3d8ad445	0.067787685
61	0xbb193e5c	-0.0023383116
62	0x3db7ecf5	0.08980743
63	0x3dc0b0d8	0.0940873

encoder.mlp.2.weight f4 [128, 64]
0	0x3c801f51	0.015639933
1	0x80001cf9	-1.0393e-41
2	0x074ed8f8	1.5561479e-34
3	0x3a9fc371	0.0012188983
4	0xb6eef746	-7.121739e-06
5	0xbd878aae	-0.06618248
6	0x3929fdb1	0.00016211603
7	0x3d00fa38	0.031488627
8	0xb73c5047	-1.1224364e-05
9	0x360c27af	2.0884725e-06
10	0xbc83c273	-0.016083932
11	0xbc761ca9	-0.015021482
12	0x3dcd0c71	0.10012139
13	0x3b7d7bb4	0.003867847
14	0x3d23f4bb	0.040028315
15	0xbc05f466	-0.008175945
16	0x3d437bac	0.047725365
17	0xbde16c9c	-0.11007044
18	0x3ba2d940	0.004969746
19	0x3bc67793	0.006056735
20	0xbd12407e	-0.035706036
21	0xbdb6aa3d	-0.08919189
22	0xbcd030de	-0.025413927
23	0x3d152dcd	0.036420632
24	0xbdb235e6	-0.087016866
25	0x3e011f6f	0.12609647
26	0xbc210c9c	-0.009829666
27	0xbd6d8517	-0.057988252
28	0xbb2eaf09	-0.0026654622
29	0x8d27f026	-5.1749916e-31
30	0xbd2520c6	-0.04031446
31	0x3d2ca93a	0.042153575
32	0x3bcf652b	0.006329199
33	0x3dc41aff	0.095754616
34	0xbd9f45b4	-0.07776967
35	0x80001c2f	-1.011e-41
36	0xbd77855c	-0.060429916
37	0xbd329f09	-0.0436087
38	0xbca1f5a4	-0.01977045
39	0xbd8ca137	-0.06866687
40	0x3c769bbf	0.015051781
41	0xbcf91dfc	-0.030409805
42	0xbc0d932e	-0.008641047
43	0xbd19f8db	-0.037590843
44	0x16acc3d8	2.7911693e-25
45	0x8b6e386a	-4.5879574e-32
46	0xa49eb8f6	-6.8834913e-17
47	0xbb852ceb	-0.0040641925
48	0xbc634b3c	-0.013872918
49	0x3caed53a	0.021341909
50	0xbdf7ea13	-0.12105193
51	0xbcae1944	-0.021252282
52	0x800021be	-1.2104e-41
53	0x3dc5d1de	0.096591696
54	0x000d2342	1.20651e-39
55	0x3db2623d	0.08710144
56	0xbcee9dc6	-0.029127967
57	0xbd8ce428	-0.06879455
58	0x08da0dbc	1.3123627e-33
59	0x3c26c10c	0.010177862
60	0xbd95681a	-0.072952464
61	0x397881fb	0.00023699545
62	0x3d022beb	0.031780165
63	0x800895eb	-7.88464e-40
64	0x3d8f18d9	0.06987161
65	0x3d80fbc0	0.062980175
66	0xbd97055c	-0.07374069
67	0x3d6f4023	0.058410775
68	0xbc7a816e	-0.0152896475
69	0x3cb238ed	0.02175566
70	0x3c6917f0	0.014226899
71	0x3d9f319f	0.07773136
72	0x3dcf54af	0.10123574
73	0x3da87ceb	0.08226951
74	0xbd1447eb	-0.0362014
75	0x3de43215	0.11142365
76	0x3db8af0c	0.090177625
77	0xbda7f11c	-0.08200285
78	0x3d86c56d	0.06580625
79	0xbdefda40	-0.1171155
80	0x3cdf218b	0.027237674
81	0xbc28e585	-0.010308628
82	0x3d373f4f	0.04473811
83	0xbcc650ef	-0.024208514
84	0xbdba1b14	-0.09087196
85	0x3dc1548f	0.094399564
86	0xbdd7f002	-0.10543825
87	0x3de3a099	0.11114616
88	0x3db8f649	0.0903135
89	0x3d8356e0	0.064130545
90	0xbd78fc7d	-0.060787667
91	0x3db6f45f	0.08933329
92	0x3c81e427	0.015855862
93	0x3de69b3e	0.11260079
94	0xbb9baa3f	-0.0047505195
95	0xbd9e6bfe	-0.077354416
96	0xbde19a4a	-0.110157564
97	0xbbc5c5a9	-0.006035526
98	0xbdc0ff24	-0.09423664
99	0x3d8f2cb7	0.069909506
100	0xbd7d85f9	-0.061895344
101	0x3d971b20	0.073782206
102	0xbd6275ee	-0.055288248
103	0x3de6c7aa	0.11268552
104	0x3c995255	0.018716017
105	0xbd9c8481	-0.076424606
106	0x3d9280dd	0.07153485
107	0xbde0fbf9	-0.1098556
108	0xbd396277	-0.04525992
109	0x3db52ac2	0.08846046
110	0x3caeeb95	0.021352569
111	0xbda73ae7	-0.081655316
112	0xb9667652	-0.00021978587
113	0x3c8ce89c	0.01720076
114	0xbdabd2e5	-0.08389834
115	0xbd63ce37	-0.055616584
116	0x3cf61180	0.030037642
117	0xbd20d340	-0.039263964
118	0x3caa03ed	0.020753825
119	0xbd2a8e21	-0.04163945
120	0xbdfd2214	-0.123600155
121	0xbded44fe	-0.11585425
122	0x3d996ce1	0.0749147
123	0xbd7031dc	-0.0586413
124	0xbda226ef	-0.07917582
125	0xbd4e7fc7	-0.050414827
126	0x3a4d72a0	0.000783721
127	0xbb296cd8	-0.002585223
128	0x3d6683c6	0.056278013
129	0xbc8ad24a	-0.016945977
130	0x3cb56644	0.02214349
131	0x3d810a22	0.06300761
132	0xbcf4ccc9	-0.029882805
133	0xbb592466	-0.0033133267
134	0x3c42c60d	0.011888039
135	0x3c0af24f	0.008480622
136	0xbcbca77a	-0.023029078
137	0xbcc7e4cd	-0.024401093
138	0xbcba779b	-0.02276211
139	0xbcb591ee	-0.022164311
140	0x3dccbd7a	0.09997077
141	0xbd1078a7	-0.035271313
142	0x3dcad7dc	0.09904453
143	0x3daf9a0c	0.08574304
144	0x3ce4b597	0.02791862
145	0xbcb93969	-0.022610383
146	0x3d0f4b66	0.034984015
147	0x3d275ddc	0.040860996
148	0xbc390f3f	-0.011295139
149	0x3cff7f35	0.031188587
150	0xbc4bfc7c	-0.012450334
151	0x3cd02eb3	0.025412893
152	0xbd311c2c	-0.043239757
153	0xbc0aa43a	-0.008462006
154	0x3cb3dec1	0.021956803
155	0x3c54ff96	0.01300039
156	0xbc0a45c3	-0.008439484
157	0x3d99d8d5	0.075120606
158	0xbb482cbd	-0.0030544244
159	0x3d19e062	0.037567504
160	0xbbd57a76	-0.0065148426
161	0x3a77a1d3	0.0009446416
162	0x3c9fb3cb	0.019494912
163	0xbb41c988	-0.0029569585
164	0x3c192a4c	0.009348463
165	0x3b3a7fc3	0.00284575
166	0x3cad150b	0.021128198
167	0xbc02424d	-0.007950378
168	0xbd0712cf	-0.03297692
169	0xbd095681	-0.033529762
170	0xbb359d8f	-0.002771232
171	0xbcee6cab	-0.029104551
172	0xbd2f1f69	-0.042754564
173	0x3d9751ce	0.0738865
174	0xbcba4cd6	-0.022741716
175	0xbcf253cc	-0.029580973
176	0x3c6ed4d3	0.014577108
177	0x3cda1f19	0.026626157
178	0x3d007edc	0.031370983
179	0x3dfa4705	0.12220577
180	0x3d60becf	0.05486947
181	0x3dc458d9	0.09587259
182	0x3c658979	0.014009827
183	0x3c95928e	0.01825836
184	0x3be2eef3	0.0069254576
185	0x3cc19bf8	0.023633942
186	0x3a47feb2	0.00076292
187	0x3d7ef085	0.062241096
188	0x3c41d618	0.011830829
189	0xbbfa58c4	-0.007639976
190	0x3ceb51e1	0.028725566
191	0x3c6b4786	0.014360314
192	0x3cf954ff	0.030436037
193	0xbdbeff48	-0.09326035
194	0xbd8aabdd	-0.067710616
195	0x3db027b6	0.08601324
196	0x3b90a588	0.004414264
197	0xb9ceee69	-0.0003946901
198	0x3c850025	0.01623542
199	0x3dfbdc4c	0.12297878
200	0x3d8d49cb	0.068988405
201	0xbd07df02	-0.03317166
202	0x3d775cb9	0.06039116
203	0xbd8c5834	-0.06852761
204	0x3dd18565	0.10230521
205	0xbd4f33dd	-0.05058657
206	0xbd1decd5	-0.03855594
207	0x3d5f29a8	0.054483086
208	0xbc98bfa6	-0.018646073
209	0xbd5eeac7	-0.05442312
210	0x3cb6a22d	0.022294128
211	0xbd7df4f7	-0.062001195
212	0x3d879117	0.066194706
213	0xbcc49075	-0.023994664
214	0x3cf3bb42	0.029752377
215	0x3d73332f	0.059374984
216	0xbc9b9ccf	-0.01899567
217	0xbcba4bff	-0.022741316
218	0x3d6f92d0	0.05848962
219	0xbd16abed	-0.036785055
220	0x3cabe586	0.020983469
221	0x3d5071ca	0.050889768
222	0xbcc37fb5	-0.023864606
223	0x3cb5899f	0.02216035
224	0x3d90251c	0.07038328
225	0x3de2e7b9	0.11079354
226	0x3cbcaddc	0.023032121
227	0x3d16e334	0.03683777
228	0xbd30c460	-0.043156028
229	0x3da10492	0.078622
230	0x3cf219a8	0.02955325
231	0xbdc9a6a7	-0.098462395
232	0x3d40e7b5	0.047095973
233	0x3da63d00	0.081171036
234	0xbcf292b6	-0.029610973
235	0xbcdaba36	-0.02670012
236	0x3cce1d34	0.02516041
237	0xbd491f0b	-0.04910187
238	0xbdc531b6	-0.09628622
239	0xbdd0466b	-0.10169681
240	0x3bf00bbe	0.0073256185
241	0xbc62aef7	-0.01383566
242	0x3dcfedc5	0.10152773
243	0x3cf5b90c	0.029995464
244	0x3b5be5e7	0.003355378
245	0xbd3016e8	-0.042990595
246	0x3cf13683	0.029444939
247	0x3d172c80	0.036907673
248	0x3d8cb2c6	0.06870036
249	0x3d1cfbe4	0.03832616
250	0x3dcc6cd6	0.09981696
251	0xbda28044	-0.07934621
252	0x3d6bbedb	0.05755506
253	0x3de489da	0.111591056
254	0x3dbd0a46	0.09230475
255	0xbdd155dc	-0.102214545

encoder.mlp.2.bias f4 [128]
0	0x3b9fdc09	0.004878525
1	0x3c87d53a	0.016581167
2	0x3d11c3e5	0.03558721
3	0xbd16a678	-0.03677985
4	0x3cdb0c15	0.02673916
5	0xbd201789	-0.039084945
6	0x3ccaa0c3	0.02473486
7	0xbc3e7d0b	-0.011626492
8	0x3c34f754	0.011045296
9	0xbcdc9ba2	-0.02692968
10	0xbd6d82b3	-0.057985973
11	0x3c788df3	0.015170562
12	0x3d0a5fe0	0.03378284
13	0xbdea573f	-0.11442422
14	0xbc703cbc	-0.014662918
15	0x3c65c320	0.014023572
16	0x3d83d4c5	0.06437067
17	0xbd9acbe8	-0.07558423
18	0xbc9ddd71	-0.01927063
19	0xbca0cdae	-0.019629326
20	0x3d1f63bf	0.038913485
21	0xbb571e43	-0.0032824434
22	0x3be41ad9	0.0069612083
23	0xbdb3914e	-0.08767949
24	0x3d8bba46	0.06822638
25	0xbd2b1ae1	-0.04177368
26	0x152fa74b	3.547294e-26
27	0xbd483eeb	-0.04888813
28	0xbcd05995	-0.025433341
29	0x3d96ad76	0.07357304
30	0xbc04d8e5	-0.008108352
31	0xbd848cea	-0.0647219
32	0xbc3b06a7	-0.01141516
33	0xbb6e521c	-0.003636486
34	0xbdf8cea9	-0.12148792
35	0xbd86e0a7	-0.06585818
36	0x3c0b0cec	0.0084869675
37	0xbd14322c	-0.03618066
38	0x3c5003e8	0.012696244
39	0x3cdf5b4b	0.027265212
40	0x3d72dc33	0.05929203
41	0xbd47b85e	-0.04875981
42	0xbb7c2a39	-0.0038477315
43	0xbe0277a5	-0.12740953
44	0x3dac2cb5	0.08406965
45	0x3d38d3cf	0.04512387
46	0x3d52ab6c	0.051433012
47	0x3c11cde7	0.008899189
48	0x388abbb0	6.615312e-05
49	0xbb24c8ea	-0.0025144168
50	0x3bd75bdd	0.0065722303
51	0xbd01eee5	-0.03172197
52	0xbd80f7d1	-0.06297267
53	0xbcfbaf0a	-0.030723114
54	0xba875d6d	-0.0010327526
55	0x3ca6d209	0.020363824
56	0x3c82e1c6	0.015976798
57	0x3d1f8a5a	0.0389503
58	0xbdd2f7e3	-0.10301187
59	0xbd3c4c4b	-0.045971196
60	0x3d815f1a	0.06316967
61	0xbccbdb4e	-0.024884846
62	0xbcbc0167	-0.022949887
63	0x3d3d9712	0.04628665
64	0x2a491bd2	1.7862038e-13
65	0xbd628c8c	-0.055309817
66	0xbc9c4647	-0.01907648
67	0xbda3c28d	-0.07996092
68	0x3c2e0c73	0.010623085
69	0x2226c242	2.2600034e-18
70	0xbd746f43	-0.05967642
71	0x3d199249	0.037493024
72	0x3ce781e7	0.028260184
73	0xbd39add0	-0.045331776
74	0x3c762294	0.0150228925
75	0x38f2c0ab	0.000115753464
76	0xbd7d321e	-0.061815374
77	0x3dae9445	0.08524374
78	0x3c78500e	0.015155805
79	0x3d862acd	0.06551132
80	0xbcca7ed5	-0.024718681
81	0xac4c6688	-2.904706e-12
82	0xbd0771c9	-0.0330675
83	0xbdc507b9	-0.096206136
84	0x3ce3d0c8	0.027809516
85	0xbd5a631a	-0.053317167
86	0xbd2ff2ed	-0.04295628
87	0xbc7cf274	-0.015438665
88	0xbc54a6fb	-0.012979264
89	0x3ccd751b	0.025080254
90	0xbd5d3c25	-0.054012436
91	0x99c5daff	-2.0457774e-23
92	0xbc4ac721	-0.012376578
93	0xbd26073f	-0.040534254
94	0x3cb01ae6	0.021497201
95	0x3d149abb	0.036280375
96	0x3cc1f195	0.023674766
97	0xbb1cb9fe	-0.002391457
98	0xbbc9d246	-0.0061590998
99	0xbd0a22fe	-0.033724777
100	0xbd7fe3b4	-0.062473014
101	0xbdc229f0	-0.09480655
102	0x3cff80e4	0.03118939
103	0xbc8160c8	-0.01579322
104	0xbd05a73b	-0.032630187
105	0xbd9fdb4e	-0.07805501
106	0x3d1dd946	0.038537286
107	0x38a1a943	7.708606e-05
108	0xbd8d9e3e	-0.06914948
109	0xbc050186	-0.008118039
110	0x3d815cfc	0.063165635
111	0x3b7a99bf	0.0038238612
112	0xbc8efae7	-0.017453624
113	0xb588cbeb	-1.0192138e-06
114	0xbc9737e4	-0.018459268
115	0x3c91a73a	0.017779935
116	0xbd4a347a	-0.04936645
117	0xbbf323d4	-0.0074200425
118	0x3c9b2e37	0.018942935
119	0x3ab3ccd0	0.0013717655
120	0xa56b4307	-2.040571e-16
121	0xbd932c37	-0.07186168
122	0x3d1ea1b9	0.03872845
123	0xbd0345b5	-0.0320489
124	0x3be4d595	0.006983469
125	0xbdce41ae	-0.10071121
126	0xbdee76c6	-0.11643748
127	0x3d40db5d	0.0470842

encoder.mlp.4.weight f4 [256, 128]
0	0xbacbc467	-0.0015546203
1	0x3bdf9736	0.0068234457
2	0xbb3dfa23	-0.0028988204
3	0xbb2a7926	-0.0026012152
4	0x39780af1	0.00023655199
5	0x3d0e67f3	0.034767102
6	0x3d7ffc2b	0.062496345
7	0xbd114c6e	-0.03547328
8	0xbb2374f4	-0.0024941536
9	0x3a582c2b	0.00082463276
10	0x3d002539	0.0312855
11	0xbc994e4c	-0.018714093
12	0xbb1df189	-0.0024100265
13	0xbc4a24ab	-0.012337844
14	0xbc21da63	-0.009878728
15	0x00001bd6	9.986e-42
16	0x3be1a132	0.006885671
17	0xbb682517	-0.0035422498
18	0x3ccb3988	0.024807706
19	0x2533ff6e	1.5612318e-16
20	0xbc40db60	-0.011771053
21	0xbcb0783d	-0.02154171
22	0x3d45a16b	0.048249643
23	0xbcdf710a	-0.02727558
24	0x3d83f4a2	0.064431444
25	0x80843832	-1.2142445e-38
26	0x83d184ea	-1.23144315e-36
27	0x3d1cb8de	0.03826224
28	0x80001c64	-1.0185e-41
29	0xbb309381	-0.0026943388
30	0x3aad40e7	0.0013218195
31	0xbb36e93b	-0.0027910012
32	0xbc92d7af	-0.017925112
33	0x000ac031	9.873e-40
34	0x3d282fff	0.041061398
35	0x3d44303f	0.047897574
36	0xbb95e79c	-0.004574729
37	0x3c4fabfd	0.012675283
38	0xb895120e	-7.1082366e-05
39	0xbb1646fb	-0.0022930491
40	0x3b7cde60	0.0038584694
41	0x00001ba2	9.913e-42
42	0x80001ca3	-1.0273e-41
43	0x3d5a3059	0.053268764
44	0xbb3fa963	-0.002924525
45	0xbbdb3668	-0.0066898353
46	0xbc89a013	-0.016799962
47	0xbca5e81d	-0.020252282
48	0x00001ba9	9.923e-42
49	0xbcbc0ccc	-0.02295532
50	0x3c83c056	0.016082924
51	0x8009c1da	-8.9606e-40
52	0x3a03c0be	0.0005025974
53	0xbc4996ac	-0.012303989
54	0xbc33e57b	-0.010980005
55	0x3d7f2c3c	0.062298045
56	0xbb16606e	-0.002294566
57	0xbd3292a7	-0.04359689
58	0xbc07f642	-0.0082984585
59	0xbb641c39	-0.003480686
60	0x30c0c22d	1.4025027e-09
61	0xbc31d350	-0.0108536035
62	0xbbd00226	-0.0063479124
63	0x04db90d5	5.161966e-36
64	0x1cb4c187	1.1961426e-21
65	0xbd30309f	-0.04301512
66	0xbc9be7be	-0.019031402
67	0xbc1a5e90	-0.0094219595
68	0xbaf96cf6	-0.0019029665
69	0x80066934	-5.88753e-40
70	0x3cb0647d	0.021532292
71	0x3b2aaffd	0.0026044839
72	0xba9f560b	-0.001215638
73	0x00001b82	9.868e-42
74	0x80001bc8	-9.966e-42
75	0xbb177f52	-0.002311666
76	0xbd67d880	-0.056602955
77	0xbaa808da	-0.0012820021
78	0xb9d979e7	-0.0004148029
79	0x3d65818f	0.05603176
80	0xbd153227	-0.036424782
81	0x0000d13c	7.5059e-41
82	0x8019fc73	-2.386449e-39
83	0xbd2ba0ce	-0.041901402
84	0xbd00ff9d	-0.03149377
85	0xbd41d639	-0.04732344
86	0xbd81fcf7	-0.06347077
87	0x00002119	1.1873e-41
88	0xbcc92614	-0.02455429
89	0x80001b81	-9.867e-42
90	0xbda3c4b5	-0.07996503
91	0x00001bd2	9.98e-42
92	0x3c115111	0.008869425
93	0x3d80809f	0.062745325
94	0xbb877ee8	-0.0041350015
95	0x80001bf2	-1.0025e-41
96	0xb70d4d91	-8.422315e-06
97	0xbd45c0d0	-0.048279583
98	0xbd40862a	-0.04700295
99	0x3d4cdcb7	0.050015178
100	0x3cdf654e	0.027269986
101	0xbb27cfcd	-0.0025606037
102	0xbb4082bb	-0.0029374796
103	0x3c9d5046	0.019203316
104	0x3d44e968	0.048074156
105	0x3d95484d	0.07289181
106	0xbb077580	-0.00206694
107	0xba226b9f	-0.00061958464
108	0x3d8bd35d	0.06827424
109	0xba4f9e9f	-0.000792006
110	0xbd81047e	-0.06299685
111	0xbb441015	-0.0029916812
112	0xba36e4d2	-0.0006976846
113	0x0167129e	4.2441356e-38
114	0xbb48e53e	-0.0030654217
115	0xbcc56cf4	-0.024099804
116	0xbc976ac9	-0.018483536
117	0x3cc9c812	0.024631534
118	0xbd0e2a9f	-0.034708615
119	0xbb93d37e	-0.004511296
120	0x93e23a70	-5.7108044e-27
121	0xbcd0ad7e	-0.025473353
122	0xbb8460a9	-0.004039843
123	0xbd423ff5	-0.047424275
124	0xb6b0c9b4	-5.26869e-06
125	0xbd85d7d3	-0.06535306
126	0x395f90b5	0.00021320845
127	0xbcdec674	-0.02719424
128	0x00001b90	9.888e-42
129	0x942c8d49	-8.7116444e-27
130	0x8ede9ed1	-5.488016e-30
131	0xb6193056	-2.2826912e-06
132	0xb52f437a	-6.529077e-07
133	0xade39671	-2.5873722e-11
134	0xb1c992c4	-5.8665552e-09
135	0xae731dcd	-5.527827e-11
136	0x9e22f6ec	-8.627271e-21
137	0xb6427e52	-2.898178e-06
138	0xb30d26dc	-3.2864463e-08
139	0x14b3a006	1.8137499e-26
140	0x0f0a7072	6.8255815e-30
141	0xb5b21464	-1.3267968e-06
142	0xb784a5f2	-1.58129e-05
143	0xb63f73fe	-2.8528734e-06
144	0x000a9072	9.70172e-40
145	0xb67585e9	-3.658579e-06
146	0x1162df08	1.7896983e-28
147	0xb81cb010	-3.735727e-05
148	0x1219e177	4.8556194e-28
149	0xa624c7c4	-5.7169663e-16
150	0x944bbfa3	-1.02866746e-26
151	0xb73fb465	-1.14264885e-05
152	0x903a73e8	-3.6771323e-29
153	0xb6f7732e	-7.3745823e-06
154	0x80001c94	-1.0252e-41
155	0xa2339e80	-2.4342933e-18
156	0xb006b1d6	-4.9001636e-10
157	0x8a5ef0d8	-1.0734209e-32
158	0xb5a1f899	-1.2067786e-06
159	0x25b74a03	3.1795592e-16
160	0xaec07305	-8.751581e-11
161	0x1c17988d	5.0158876e-22
162	0xb66c9c7d	-3.5257829e-06
163	0x112e504c	1.3750923e-28
164	0x9187b3a4	-2.1409957e-28
165	0x94a306db	-1.6461498e-26
166	0x8f71e3cd	-1.192609e-29
167	0x91959d81	-2.3605124e-28
168	0x95dcb1b8	-8.9137683e-26
169	0xb77d1a24	-1.50860615e-05
170	0x1462ac38	1.1444048e-26
171	0xb760b7c9	-1.3394231e-05
172	0x9a9eed25	-6.5730396e-23
173	0x8f70d2e8	-1.1873533e-29
174	0x0fd125db	2.0623573e-29
175	0xaaa241cf	-2.8822645e-13
176	0x1455725c	1.0776305e-26
177	0xb388c0fa	-6.368096e-08
178	0xa299e46a	-4.1712576e-18
179	0xb75e76df	-1.3259908e-05
180	0x10fcee73	9.9763863e-29
181	0xb8883491	-6.4947766e-05
182	0x0ef1d1b3	5.961302e-30
183	0x11917d35	2.295413e-28
184	0x10e64161	9.0819736e-29
185	0xb000c5a7	-4.684701e-10
186	0xb7184856	-9.076748e-06
187	0xb307160d	-3.1452192e-08
188	0xaf9675a9	-2.7368444e-10
189	0xb7c21056	-2.313421e-05
190	0xb7b0823b	-2.1041478e-05
191	0x202bfb22	1.4567356e-19
192	0x00001c0e	1.0064e-41
193	0x116b901e	1.8582641e-28
194	0x9102a771	-1.0306789e-28
195	0xabcd8839	-1.4603935e-12
196	0x00253f82	3.420696e-39
197	0x84374b1b	-2.1546033e-36
198	0xb210e98a	-8.435004e-09
199	0xb7e4746a	-2.7233928e-05
200	0xb5dbdb02	-1.6380511e-06
201	0xb8a2cf5c	-7.763386e-05
202	0x19cd822b	2.1249078e-23
203	0x0ec64c44	4.888421e-30
204	0x0f50f9cc	1.0303301e-29
205	0x113f957f	1.511331e-28
206	0xb6d60cd2	-6.3791895e-06
207	0x1c97d04c	1.0046185e-21
208	0xb56a68d9	-8.7324366e-07
209	0x0000217c	1.2012e-41
210	0xb296d7ec	-1.7560488e-08
211	0xb801fd1e	-3.099173e-05
212	0x2544aa5d	1.7058011e-16
213	0x920ccec7	-4.4431083e-28
214	0x900db27f	-2.7944855e-29
215	0x246d61f8	5.1474166e-17
216	0x91ca9a22	-3.1964972e-28
217	0xb38d295a	-6.573346e-08
218	0xb8327387	-4.25461e-05
219	0x82ab15f8	-2.5138801e-37
220	0x112fc5f2	1.3866062e-28
221	0xb7874f21	-1.6130101e-05
222	0xb34f5565	-4.827361e-08
223	0x802cb191	-4.10446e-39
224	0x109e8c57	6.253624e-29
225	0x12f2be02	1.5319188e-27
226	0xb5de2892	-1.6552096e-06
227	0x919e40da	-2.4967972e-28
228	0x10fc25bd	9.945462e-29
229	0xac35b510	-2.5822157e-12
230	0x9df36a04	-6.443118e-21
231	0xb0b0dbfc	-1.2868209e-09
232	0xa045381a	-1.6705112e-19
233	0xb743373f	-1.1635769e-05
234	0xb21fe4fc	-9.307083e-09
235	0xb51cf4d2	-5.847079e-07
236	0xb4837ba4	-2.4490612e-07
237	0xadc0ff53	-2.194126e-11
238	0x11117f22	1.1477659e-28
239	0x91146fe0	-1.1709616e-28
240	0xb4fd8cbf	-4.7227329e-07
241	0x800078bf	-4.3316e-41
242	0xb0657d02	-8.348736e-10
243	0xb48b7f44	-2.5983366e-07
244	0xb75d52d9	-1.3191916e-05
245	0xa114c2a6	-5.0401966e-19
246	0x1f0fc3c1	3.0443352e-20
247	0xb7f2d530	-2.8947921e-05
248	0x80001ce8	-1.037e-41
249	0xad3cfa11	-1.0742089e-11
250	0xad50763c	-1.1849684e-11
251	0xb7f8dd91	-2.9667079e-05
252	0x104c2bd0	4.0265658e-29
253	0xb5e85dda	-1.7312661e-06
254	0xb13847e1	-2.6816382e-09
255	0x8fb5f6ec	-1.7943089e-29

encoder.mlp.4.bias f4 [256]
0	0x3c410ac4	0.011782352
1	0x155d7083	4.471935e-26
2	0xbd04af61	-0.032393817
3	0x3d1395b8	0.036031455
4	0xbd4a7b11	-0.04943377
5	0x3c29e4d6	0.0103695
6	0xbd08a0c9	-0.03335646
7	0x3c6d490e	0.01448275
8	0xbda74312	-0.081670895
9	0x3c5c8590	0.013459578
10	0xbcd42945	-0.025898585
11	0x3cead918	0.028667971
12	0x3b678aa0	0.003533043
13	0xbd131b52	-0.035914727
14	0xbc8cac13	-0.017171895
15	0xb9d51ee9	-0.00040649556
16	0x3c0ed4f5	0.008717765
17	0xbc215257	-0.0098462915
18	0xbd67750a	-0.0565081
19	0xbd09689e	-0.033547036
20	0xbc39d6d5	-0.011342724
21	0xa561afbc	-1.957518e-16
22	0xbd004d3a	-0.03132365
23	0xbd7f9e09	-0.062406573
24	0x3d4ef927	0.05053058
25	0x3d48436e	0.04889243
26	0xbc94838e	-0.018129136
27	0xbd0d96c2	-0.034567602
28	0xbc882a37	-0.016621692
29	0xbd2b3a03	-0.04180337
30	0xbbdf38e6	-0.0068122027
31	0xbd3def16	-0.04637059
32	0x98c44830	-5.0737703e-24
33	0x3d130cde	0.035900943
34	0xbcc4b3b5	-0.024011472
35	0xbcecf9f3	-0.028927779
36	0xbd1f6365	-0.03891315
37	0xbcf9b707	-0.030482782
38	0xbd024a07	-0.03180888
39	0xbd914ebf	-0.07095098
40	0xbdb0e298	-0.08636969
41	0xbd354837	-0.044258323
42	0x3c4c2bce	0.012461616
43	0x9b2db71f	-1.4369394e-22
44	0xbccbeacf	-0.024892239
45	0xbd48fb77	-0.04906794
46	0x3d72ac6a	0.059246458
47	0xbc927a19	-0.017880486
48	0x3b1ba725	0.002375075
49	0xbcdca37c	-0.026933424
50	0x9f606bfd	-4.752317e-20
51	0xbdae2e74	-0.08504954
52	0xbc53d5e1	-0.012929411
53	0xbd48a79a	-0.048987962
54	0x3d0edc33	0.034877967
55	0xbdae4610	-0.08509457
56	0xbd92fbfa	-0.07176967
57	0xbc9f2745	-0.019427905
58	0x3c1b1dd3	0.00946756
59	0xbca748d5	-0.020420471
60	0xbc91cdba	-0.017798293
61	0x3a9620a9	0.0011453825
62	0xbc2cff7d	-0.01055896
63	0xbd8e7511	-0.069559224
64	0xbd16d95a	-0.036828376
65	0xbbaef944	-0.0053397734
66	0x2663e8a4	7.9071733e-16
67	0xbd98d8a6	-0.074631974
68	0x3cf3ef26	0.02977712
69	0xba44b0fe	-0.00075031805
70	0xbce6b94a	-0.028164525
71	0xbcea831c	-0.028626971
72	0xbd2186d1	-0.03943521
73	0xbd74f6a8	-0.059805542
74	0xbd29948a	-0.041401424
75	0x3cea25d6	0.028582495
76	0xbd78ecc6	-0.06077268
77	0x3b89c060	0.004203841
78	0xbc67305b	-0.01411065
79	0x3bce0574	0.006287271
80	0x3d1f05e7	0.03882399
81	0xbbbee79e	-0.0058259508
82	0xbc6f238f	-0.01459588
83	0x3d0b87e9	0.03406516
84	0xbb253da8	-0.0025213752
85	0xbcb42899	-0.021992015
86	0xbd10ef48	-0.035384446
87	0xbc35cc39	-0.011096054
88	0x3ce7ce4d	0.028296614
89	0x3d11c633	0.035589408
90	0xbd093be6	-0.03350439
91	0x3d275032	0.040847965
92	0xbba49b45	-0.0050233924
93	0xbccd0373	-0.025026059
94	0x3c2be850	0.010492399
95	0xbd08fb0e	-0.03344255
96	0xbd87a3d1	-0.066230424
97	0xbc33cdd8	-0.01097437
98	0xbd791e26	-0.060819767
99	0xbd195b2e	-0.03744047
100	0xbc5ddf77	-0.013542048
101	0x3c7010ec	0.014652472
102	0x3cbb5046	0.022865426
103	0xbd3ba36a	-0.04581014
104	0x3b816ea8	0.003949959
105	0xbcd32832	-0.025776003
106	0xbd4b3ca9	-0.049618397
107	0xbd95d10a	-0.07315262
108	0x3c5d6dbc	0.013514932
109	0x3c515975	0.012777676
110	0xba703b62	-0.0009164122
111	0xa79f76f1	-4.426032e-15
112	0xbaed826f	-0.0018120537
113	0xbc62afde	-0.013835875
114	0x3c50e845	0.01275069
115	0xbd87f9a0	-0.06639409
116	0x3d26dbff	0.04073715
117	0x3c715f23	0.014732155
118	0xbcf40fb7	-0.02979265
119	0xbc55094e	-0.013002707
120	0xbcba1a49	-0.022717612
121	0x3bae5707	0.005320433
122	0xbd69db12	-0.057093687
123	0xbd08b2b2	-0.033373542
124	0xbd2b219f	-0.04178011
125	0xb649518a	-2.9998796e-06
126	0x3a3bb13e	0.0007159895
127	0xbd78ceba	-0.060744025
128	0xbd07daa3	-0.033167493
129	0x3c79b913	0.015241879
130	0x3d583ba5	0.052791256
131	0xbd060b0e	-0.032725386
132	0xbd481985	-0.048852462
133	0x3d00c36d	0.031436373
134	0xbbf77f98	-0.007553052
135	0xbcd5371d	-0.026027257
136	0x3d418a9a	0.04725132
137	0x3b57ff76	0.0032958663
138	0xbbea6b7e	-0.0071539273
139	0x3caecede	0.021338876
140	0xbac7fdfd	-0.001525819
141	0xbd48f427	-0.049060967
142	0x3cc88a13	0.024479901
143	0x3d0dc4a0	0.034611344
144	0xbbbd1c32	-0.0057711834
145	0xbcede575	-0.029040078
146	0x3a63fb4c	0.0008696809
147	0xbd0cfc12	-0.03442008
148	0xbd696b1e	-0.05698692
149	0x3c35d0cc	0.011097144
150	0xbcf7ece0	-0.030264318
151	0x3d01acc7	0.031658914
152	0xbd425304	-0.04744245
153	0x3a2f08e0	0.00066770427
154	0xb4a65178	-3.0979186e-07
155	0xbd3ff3ad	-0.046863247
156	0xbc02c9ff	-0.00798273
157	0xbd9c5069	-0.076325245
158	0xba9415bf	-0.0011297985
159	0xbd1f8be9	-0.038951788
160	0x3d8fe180	0.070254326
161	0xbcc5b341	-0.024133326
162	0xbc7062b3	-0.014671969
163	0x3d82b5af	0.0638231
164	0xbcea2688	-0.028582826
165	0xbd88050c	-0.066415876
166	0x9a656375	-4.743643e-23
167	0x3c3f2ffe	0.011669157
168	0x3d0c7d4f	0.03429919
169	0xbd3a6638	-0.04550764
170	0xbc9e23d5	-0.019304195
171	0xbc514f86	-0.0127753075
172	0xbc9bdee6	-0.019027185
173	0xbb8a1cb2	-0.0042148465
174	0xbd113e73	-0.035459947
175	0xbd87eeca	-0.06637342
176	0x3c6a5029	0.014301338
177	0xbd633058	-0.055466026
178	0xbd0964c1	-0.033543352
179	0x3c5d32b2	0.013500856
180	0xbc7ba6f4	-0.015359629
181	0xbcd8dd1d	-0.026472623
182	0xbd15494c	-0.036446854
183	0xbccc06ce	-0.024905588
184	0x3bb73251	0.005590715
185	0x3c065bc0	0.008200586
186	0xbd8ce57c	-0.06879708
187	0x3c8de4a9	0.017320948
188	0x3d127677	0.035757508
189	0xba912be1	-0.0011075699
190	0xbcfc053b	-0.030764213
191	0xbcbd2c1d	-0.023092324
192	0x3c983bfb	0.018583288
193	0x3c0fb03e	0.008770047
194	0x3d27dc38	0.0409815
195	0xbb80e149	-0.003933106
196	0x3d04ff6b	0.032470148
197	0xbc985df6	-0.018599492
198	0xbc664034	-0.014053393
199	0x3c17ae3c	0.009257849
200	0xbd980653	-0.07423081
201	0xb63dc94a	-2.828036e-06
202	0xbca0363e	-0.019557115
203	0xbcfaca80	-0.030614138
204	0xbd51b5b2	-0.05119867
205	0xbd4dde5e	-0.050260894
206	0xbd7b7a26	-0.061395787
207	0xbd34e1bf	-0.0441606
208	0xbcfead4b	-0.031088492
209	0xbc1c3716	-0.009534618
210	0x3c3a5e2e	0.011374993
211	0x3c3e9660	0.011632532
212	0x3a1e8e1d	0.0006048398
213	0xbc889686	-0.016673338
214	0xbd139051	-0.036026303
215	0x3bfc88d2	0.00770674
216	0x3c273040	0.010204375
217	0xbd6419ca	-0.055688657
218	0xbb7cfc2a	-0.003860245
219	0xbb1913ed	-0.0023357824
220	0xbcfc09d9	-0.030766414
221	0xb6726251	-3.6118038e-06
222	0xbbaaf349	-0.00521699
223	0x3d5937fb	0.053031903
224	0x2181b6d3	8.789773e-19
225	0xbc25914a	-0.01010544
226	0x1d2cae3d	2.285409e-21
227	0x3be76bbe	0.0070624044
228	0xbc49744f	-0.012295797
229	0x80001c5a	-1.017e-41
230	0x3d24a830	0.04019946
231	0xbc69eb41	-0.01427728
232	0xbd5d99cb	-0.054101747
233	0xbd24311f	-0.040085908
234	0xbd822418	-0.063545406
235	0xb9347cd2	-0.00017212637
236	0xbcc2c278	-0.02377437
237	0xb8b256c1	-8.5038606e-05
238	0xbd6d95b7	-0.058004107
239	0xbca32b86	-0.019918215
240	0x3bf1bc24	0.0073771644
241	0xbd2d1c88	-0.042263538
242	0xbc8f39cd	-0.017483616
243	0x3d85ccda	0.06533213
244	0xbad1e318	-0.0016013114
245	0x3cb688d2	0.022282038
246	0x3d0a0e01	0.03370476
247	0xbd6fb44c	-0.058521554
248	0x3cf4f353	0.029901182
249	0xbcb8222e	-0.022477236
250	0xbd950c26	-0.07277708
251	0xbbfde8d0	-0.0077487007
252	0x3d17a76f	0.03702491
253	0xbbff068f	-0.0077827643
254	0x3d086a5a	0.03330455
255	0x3ca3a322	0.019975249

pos_mlp.0.weight f4 [32, 1]
0	0xb18450a3	-3.850873e-09
1	0x3f3065d8	0.689054
2	0x3ed3a2f9	0.41335276
3	0x3f8b60b0	1.0888882
4	0x3f656878	0.8961253
5	0x00001b5d	9.816e-42
6	0x3f50317a	0.81325495
7	0x3f9492bf	1.1607283
8	0x379736e6	1.8026167e-05
9	0xb0a82fad	-1.2237159e-09
10	0xba5ee809	-0.0008503204
11	0xb976b736	-0.0002352864
12	0x35ad7888	1.2924584e-06
13	0xbf860aa9	-1.0472003
14	0xbe6c1c22	-0.23057607
15	0x39b5b5f4	0.00034658576
16	0x3f040abf	0.515789
17	0xbec0fc11	-0.3769231
18	0xb8e4148a	-0.00010875713
19	0x3f8ebbd7	1.1151074
20	0x3f980020	1.1875038
21	0xbead28df	-0.33820245
22	0xbaaf3f58	-0.0013370318
23	0xbf4137b0	-0.754756
24	0xbe875e5c	-0.26439178
25	0xac5cb8b3	-3.136641e-12
26	0x80001eca	-1.1045e-41
27	0xb9f7ab84	-0.000472393
28	0xa1c3a4e1	-1.3257357e-18
29	0x3eda3838	0.42621017
30	0x31c3ef9b	5.702487e-09
31	0xb958bd73	-0.0002066994

pos_mlp.0.bias f4 [32]
0	0xb569e849	-8.7137283e-07
1	0x3f05f7e2	0.52331364
2	0x3e74f93e	0.23923203
3	0xbcd01657	-0.025401277
4	0x3d8d8bb9	0.069114156
5	0xb4281fff	-1.565786e-07
6	0x3d82bef5	0.063840784
7	0xbe98bd67	-0.29832003
8	0xb8185bfd	-3.6325295e-05
9	0xb74461ed	-1.17053105e-05
10	0xb280eb84	-1.5008261e-08
11	0xb752eef1	-1.2572608e-05
12	0xbae28125	-0.001728092
13	0x3f52f942	0.8241159
14	0x3e66b8a6	0.22531375
15	0xbab29b74	-0.0013626651
16	0xbd2228ec	-0.039589807
17	0x3f382664	0.7193358
18	0xb63da954	-2.8261757e-06
19	0x3f25b239	0.6472507
20	0xbe95bc36	-0.29245156
21	0x3f856244	1.0420613
22	0x2c99afd0	4.3680407e-12
23	0x3f1b3f42	0.606434
24	0x3e82195e	0.2540998
25	0xb62acfde	-2.5452969e-06
26	0xb805a108	-3.1859643e-05
27	0xba2ec4a2	-0.0006666874
28	0xa14f418e	-7.022109e-19
29	0x3ec9dd18	0.39426494
30	0xbab3096a	-0.0013659422
31	0xbaf704a2	-0.0018845985

pos_mlp.2.weight f4 [32, 32]
0	0x94a3e62e	-1.6549584e-26
1	0xbccf6a20	-0.025319159
2	0x3dc81d77	0.09771245
3	0xbec76b55	-0.38949075
4	0xbe61a8eb	-0.22037093
5	0x92017b3b	-4.0857116e-28
6	0xbe7e314f	-0.24823497
7	0xbc9e5563	-0.019327825
8	0x1822722e	2.0995655e-24
9	0x1b50dc32	1.7276506e-22
10	0x804c5fbb	-7.01384e-39
11	0x910856cb	-1.0755253e-28
12	0x80001f5d	-1.1251e-41
13	0x3ee7866b	0.4521974
14	0x3e564c89	0.20927633
15	0x8a0542c4	-6.416274e-33
16	0xbec24f0a	-0.37950927
17	0x3e33a9e7	0.17545281
18	0x000022dc	1.2505e-41
19	0x3d6820ae	0.05667179
20	0xbe725da9	-0.23668541
21	0x3e0e8b2f	0.13920282
22	0x2d17c6c8	8.6274946e-12
23	0x3f056f9d	0.52123433
24	0x3eb52681	0.3538094
25	0x8e87ee0b	-3.3509296e-30
26	0x1073f47a	4.8111638e-29
27	0x02bbc41c	2.7589742e-37
28	0x9efac79d	-2.6552338e-20
29	0xba22a5c6	-0.0006204512
30	0x84ba05a5	-4.3733574e-36
31	0x0bc4f968	7.587172e-32
32	0x81683cfb	-4.2655422e-38
33	0x3d802c0c	0.06258401
34	0x3e1f2068	0.15539706
35	0x3e821a83	0.25410852
36	0x3dac13ff	0.084022515
37	0x9b5f253e	-1.8458161e-22
38	0x3e856c8e	0.26059383
39	0x3e85b6c3	0.26116
40	0x829688fb	-2.2119142e-37
41	0x04d045fa	4.896483e-36
42	0x80001c46	-1.0143e-41
43	0x94879d9a	-1.369368e-26
44	0x00001b5b	9.813e-42
45	0xbe68466b	-0.22683112
46	0xbe66c2c5	-0.22535236
47	0x80001c10	-1.0067e-41
48	0x3e321afa	0.17393103
49	0xbe237bb1	-0.15965153
50	0x80001c8a	-1.0238e-41
51	0x3e1af5c6	0.15132818
52	0x3e930c0d	0.28720132
53	0xbdfcafc4	-0.12338212
54	0x88298116	-5.1008327e-34
55	0xbe691309	-0.22761168
56	0xbe68ecf0	-0.22746634
57	0x0af22dd5	2.3320992e-32
58	0x00001bb8	9.944e-42
59	0x90e19ae2	-8.8985487e-29
60	0x9f64e651	-4.847139e-20
61	0x3d9ec813	0.07753005
62	0x00001b61	9.822e-42
63	0x00001cb3	1.0295e-41
64	0x8004e03b	-4.47781e-40
65	0xa3c65b16	-2.150578e-17
66	0xa3ae0b66	-1.8869945e-17
67	0xa35f5e89	-1.2108873e-17
68	0x233f9a20	1.0386768e-17
69	0x00001b9b	9.903e-42
70	0xa329b663	-9.20013e-18
71	0xa37e0745	-1.3770907e-17
72	0x8bb01e20	-6.783806e-32
73	0x00001e79	1.0932e-41
74	0x80001bb7	-9.942e-42
75	0x9b9d8d5b	-2.606482e-22
76	0x969595c3	-2.416676e-25
77	0xa222ac27	-2.204623e-18
78	0xa1f24adf	-1.6418376e-18
79	0x171473f3	4.796773e-25
80	0xa2d77b2a	-5.840627e-18
81	0xa310993d	-7.838705e-18
82	0x14fb0119	2.5344956e-26
83	0xa3f9a292	-2.7065485e-17
84	0xa321407d	-8.741483e-18
85	0xa394e4b7	-1.6143057e-17
86	0x0c1b9f5e	1.1988723e-31
87	0xa23cec7c	-2.5603945e-18
88	0xa19d9f67	-1.0680927e-18
89	0x9221f32a	-5.1102365e-28
90	0x01a9d278	6.2382803e-38
91	0x8bbb2188	-7.208023e-32
92	0x80b19ae7	-1.6310451e-38
93	0xa34ed1a3	-1.1211675e-17
94	0x00001e75	1.0926e-41
95	0x81917fe0	-5.344808e-38
96	0x80004662	-2.5249e-41
97	0x3dd63d32	0.10460891
98	0x3e0b965e	0.1363158
99	0x3e911171	0.2833362
100	0x3dddd23f	0.10831117
101	0x163ef2df	1.5424714e-25
102	0x3e407d80	0.18797874
103	0x3e8a2a06	0.26985186
104	0x80001c4d	-1.0152e-41
105	0x08b8dd28	1.1126091e-33
106	0x00001c6b	1.0194e-41
107	0x80001bc8	-9.966e-42
108	0x886e981a	-7.1799314e-34
109	0xbe757f60	-0.23974371
110	0xbe892fb0	-0.26794195
111	0x12aedbd4	1.1035136e-27
112	0x3e844ee5	0.25841442
113	0xbe8e6383	-0.27810296
114	0x8ed745f8	-5.306897e-30
115	0x3e827058	0.25476336
116	0x3e984504	0.29740155
117	0xbe069e38	-0.13146293
118	0x03d2ef15	1.2397581e-36
119	0xbe9d4af1	-0.30721238
120	0xbe99e3fa	-0.30056745
121	0x80001c07	-1.0054e-41
122	0x18bdc9d4	4.905915e-24
123	0x0d5c5c52	6.790386e-31
124	0x1f4c226d	4.3227157e-20
125	0x3c989738	0.018626794
126	0x0101c0e5	2.3831953e-38
127	0x828dae4e	-2.0818134e-37
128	0x14e91d2a	2.3538491e-26
129	0x3e45b6fa	0.19308081
130	0x3e095274	0.1341036
131	0x3e77b3e3	0.24189715
132	0x3e9eec0c	0.31039464
133	0x80004107	-2.3327e-41
134	0x3e88867f	0.26665112
135	0x3ee197ea	0.44061214
136	0x06e3c46c	8.5676526e-35
137	0x9716bc4c	-4.870528e-25
138	0x864155f2	-3.6362408e-35
139	0x19ad5fdc	1.7926498e-23
140	0x83ca01bd	-1.1872892e-36
141	0xbdc6eda9	-0.09713299
142	0xbe05fe4b	-0.13085286
143	0x04fa1ada	5.8799377e-36
144	0x3e68b4a9	0.22725166
145	0xbe441539	-0.19148721
146	0x8e16f20b	-1.8605467e-30
147	0x3eaabd2a	0.33347446
148	0x3edbc5da	0.42924386
149	0xbe2dc512	-0.16969708
150	0x8d7701a2	-7.6114717e-31
151	0xbe2c6c36	-0.16838154
152	0xbe1e1df8	-0.1544112
153	0x00001c8d	1.0242e-41
154	0x037d4e7e	7.4440122e-37
155	0x970e49ab	-4.5975657e-25
156	0x1f1ababe	3.2765238e-20
157	0x3e4918b3	0.19638328
158	0x972c2499	-5.562239e-25
159	0x9bc7c855	-3.305125e-22
160	0x149a7b6f	1.5598712e-26
161	0x3e067a9f	0.13132714
162	0x3e752d75	0.23943122
163	0x3e179655	0.14803441
164	0x3ea36806	0.319153
165	0x19114cf0	7.511862e-24
166	0x3e54274a	0.20718113
167	0x3e8ff193	0.28113994
168	0x00001b89	9.878e-42
169	0x00001b80	9.865e-42
170	0x00001b92	9.89e-42
171	0x00001bd0	9.977e-42
172	0x92cae12d	-1.2803502e-27
173	0xbeb98811	-0.36236623
174	0xbded3c52	-0.11583771
175	0x808a71dd	-1.2714145e-38
176	0x3e40b4b5	0.18818934
177	0xbe163332	-0.14667967
178	0x8ce544bf	-3.5324412e-31
179	0x3ea88a87	0.32918188
180	0x3e7d18bb	0.24716465
181	0xbc6fabd5	-0.01462837
182	0x80001c08	-1.0056e-41
183	0xbe3f239b	-0.18665926
184	0xbe29e7c2	-0.16592315
185	0x972cc07d	-5.581915e-25
186	0x00001ccf	1.0335e-41
187	0x84e0d27a	-5.285544e-36
188	0x1f451374	4.1732464e-20
189	0x3e40b514	0.18819076
190	0x12a7b561	1.0583895e-27
191	0x00001bf0	1.0022e-41
192	0x00001bac	9.927e-42
193	0xa02310e6	-1.3812228e-19
194	0x9f9eb5a0	-6.7216076e-20
195	0x9e2d5788	-9.176645e-21
196	0x9f3266a6	-3.7777875e-20
197	0x80001c15	-1.0074e-41
198	0x201d230c	1.3310013e-19
199	0x9f7ab763	-5.3091253e-20
200	0x123db025	5.9855e-28
201	0x00001ce7	1.0368e-41
202	0x80001bf2	-1.0025e-41
203	0x8d59df54	-6.713711e-31
204	0x04fb9fb8	5.9156495e-36
205	0x9ec27cf2	-2.0592225e-20
206	0x9d896ec3	-3.6378123e-21
207	0x80001b66	-9.829e-42
208	0x9e927c5f	-1.550979e-20
209	0x1ec3d50d	2.0734544e-20
210	0x08eab6ea	1.4126366e-33
211	0xa053cefd	-1.7940882e-19
212	0x9f7ea305	-5.392144e-20
213	0xa001cfef	-1.0995524e-19
214	0x03065fdb	3.9489097e-37
215	0x1f36d6ce	3.871768e-20
216	0x9fcfb50a	-8.7967414e-20
217	0x14ff8c7a	2.5803828e-26
218	0x90fdb9c6	-1.00077134e-28
219	0x96ee6b70	-3.8518776e-25
220	0x971dbbc6	-5.096644e-25
221	0x9fbef0c9	-8.0866476e-20
222	0x00001ce2	1.0361e-41
223	0x81400a6a	-3.5272302e-38
224	0x80001c09	-1.0057e-41
225	0x3e52dc1d	0.20591779
226	0x3e5c2829	0.21499695
227	0x3ea0e968	0.31428075
228	0x3e23248d	0.15931912
229	0x80001b81	-9.867e-42
230	0x3ea74304	0.32668316
231	0x3e320791	0.17385699
232	0x072e68df	1.3121124e-34
233	0x0d7bafb8	7.755686e-31
234	0x800045d2	-2.5047e-41
235	0x9509b790	-2.7811735e-26
236	0x195bf8b8	1.1372263e-23
237	0xbe4c7f40	-0.19970417
238	0xbe4ce800	-0.20010376
239	0x000022ab	1.2437e-41
240	0x3e462ea6	0.19353732
241	0xbde40c87	-0.11135202
242	0x98724734	-3.1313715e-24
243	0x3e4540e4	0.19263035
244	0x3e571eb4	0.21007806
245	0xbd4dbe6c	-0.05023043
246	0x85a6a036	-1.5669417e-35
247	0xbe487706	-0.19576654
248	0xbe73ca13	-0.23807554
249	0x96ae192b	-2.81271e-25
250	0x80001f97	-1.1332e-41
251	0x80001c25	-1.0096e-41
252	0x1ded594b	6.2825704e-21
253	0x3e4111e3	0.1885448
254	0x00004ad8	2.6849e-41
255	0x00001bfd	1.004e-41

pos_mlp.2.bias f4 [32]
0	0x3eae98a6	0.34100837
1	0xbd7bc797	-0.06146964
2	0xa388164f	-1.4754598e-17
3	0xbdc944d3	-0.0982758
4	0x3dad5af8	0.084646165
5	0x3dd3b67f	0.10337543
6	0x1f145906	3.1413858e-20
7	0x3df94b2c	0.12172541
8	0xbd8eaae4	-0.069661885
9	0x3dd51817	0.104049854
10	0x3e566a4a	0.20938984
11	0x258a14e0	2.395333e-16
12	0xa36eebb5	-1.2951919e-17
13	0xb963eea6	-0.0002173731
14	0x3ea938eb	0.33051237
15	0x3eb93426	0.361726
16	0x9f0d7581	-2.9955108e-20
17	0x3e899e1f	0.2687845
18	0x3e0552b5	0.13019831
19	0x3e7df673	0.24801044
20	0x3e204fb6	0.15655407
21	0x3da0663a	0.07831998
22	0xbd474c69	-0.048656855
23	0x3ea21d1b	0.3166283
24	0x252ffc2d	1.5264271e-16
25	0x3e9cf8ba	0.30658513
26	0x3c2b2581	0.010445953
27	0x3e28c3f0	0.16480994
28	0x3d9b7860	0.07591319
29	0xb9c9be15	-0.0003847933
30	0xbd55e9e3	-0.052225005
31	0x3d9c6f6a	0.07638438

dec_trunk.0.weight f4 [128, 288]
0	0xbcaf44f8	-0.021395192
1	0x800005dd	-2.103e-42
2	0x3cc2f565	0.023798654
3	0x0000231b	1.2593e-41
4	0xbc1d6c18	-0.009608291
5	0x3b4c0c08	0.00311351
6	0xbbbb7a62	-0.0057213763
7	0xbccac86b	-0.02475377
8	0x3cd22803	0.025653845
9	0x3a1e8305	0.0006046745
10	0xbc058ef8	-0.008151762
11	0x3cb0bfe5	0.021575877
12	0x3c87fd9c	0.016600423
13	0xbb90884b	-0.0044107786
14	0xbcaa3e04	-0.020781524
15	0x3c228b4a	0.009920904
16	0x3c4f787c	0.012663003
17	0x3cbff4a4	0.023432083
18	0xbc673ff3	-0.014114368
19	0x3c20bed8	0.009811126
20	0x3c8c3c5d	0.017118627
21	0x80001f97	-1.1332e-41
22	0x3c394897	0.011308811
23	0xbcc6ad04	-0.024252422
24	0x00001b5f	9.819e-42
25	0x00001c5a	1.017e-41
26	0xbcb4a64b	-0.02205195
27	0xb98064c3	-0.00024489136
28	0xbb03a684	-0.0020088265
29	0x3bfb76ac	0.007674059
30	0x3d0dede6	0.034650706
31	0xbc38e6de	-0.011285512
32	0x00002160	1.1973e-41
33	0xbc4fef82	-0.01269138
34	0x3c0aecb7	0.008479289
35	0x3cf1c551	0.029513033
36	0xbd14f97e	-0.036370747
37	0x3c9b8693	0.018985068
38	0x3b9fbd0c	0.004874831
39	0xbc5448ac	-0.012956779
40	0x3bf0157a	0.007326779
41	0x27e47878	6.3413325e-15
42	0x3cdd7ae7	0.027036143
43	0x80001c3c	-1.0129e-41
44	0xbd0fc9ee	-0.035104685
45	0xbd4761e3	-0.048677336
46	0x3b9a352e	0.0047060465
47	0xbc1b8e6b	-0.009494404
48	0xbcbe96b2	-0.023265216
49	0x3aaef59f	0.0013348347
50	0x00001c0f	1.0066e-41
51	0xbc876443	-0.0165273
52	0xbc972dcb	-0.018454453
53	0x3bfcb065	0.0077114576
54	0x3cf5e95e	0.030018505
55	0xbcb1d5f7	-0.021708472
56	0x3d102ca0	0.035198808
57	0xbc66f88a	-0.014097342
58	0xbd160456	-0.03662523
59	0x3c078192	0.008270638
60	0xbc1d8b52	-0.009615736
61	0xb72d8783	-1.0343155e-05
62	0xbc6e7565	-0.014554356
63	0x3b870390	0.0041202977
64	0x00001bc6	9.963e-42
65	0xbc3172fd	-0.010830638
66	0x00001cd4	1.0342e-41
67	0xbd3a0fba	-0.045425154
68	0xbd0950cc	-0.03352432
69	0xbb280070	-0.0025635026
70	0x3cda9c02	0.026685718
71	0xbb9d8815	-0.004807482
72	0x3cc25029	0.023719864
73	0x3ad1061b	0.0015947254
74	0xba5d14ae	-0.00084335625
75	0x3c0b731a	0.008511329
76	0x3cfd2947	0.030903472
77	0xbb3cd941	-0.0028816017
78	0xbce47be2	-0.027891103
79	0xbb3406e9	-0.002746994
80	0x80001cb0	-1.0291e-41
81	0x3d2014de	0.0390824
82	0xbce080a0	-0.027405083
83	0xba8e93b1	-0.0010877756
84	0xbd39f7e6	-0.04540243
85	0x3b3147dd	0.002705089
86	0x3c160b03	0.009157899
87	0xbc0edebc	-0.008720096
88	0xbb416111	-0.002950732
89	0x3bfe30f7	0.007757302
90	0xbc7b4a0b	-0.015337477
91	0x3c911471	0.017709943
92	0x3cf07e1c	0.029357009
93	0x3ce706da	0.02820151
94	0x3c96370b	0.018336793
95	0xbd09ce52	-0.033644028
96	0xbd019bef	-0.03164285
97	0x3c4dc60d	0.012559426
98	0xbbfa6088	-0.007640902
99	0x3d355e59	0.04427943
100	0x3c0ec3a6	0.008713638
101	0x3d005a0e	0.031335883
102	0xbd143fb4	-0.036193565
103	0xbcdf78d1	-0.02727929
104	0xbc712f96	-0.014720818
105	0xbcf6b60c	-0.030116104
106	0xbd3ffd32	-0.046872325
107	0x3d0e4239	0.034731124
108	0xbd441722	-0.047873624
109	0x3d253e3c	0.040342554
110	0xbc5e31bd	-0.013561663
111	0x80001b6f	-9.841e-42
112	0x3ceb9b62	0.028760616
113	0x3c47c9ef	0.012194141
114	0xbcfeae1a	-0.031088877
115	0xbcc3bb94	-0.023893155
116	0xbab86f2e	-0.001407122
117	0xbce7a6b3	-0.02827773
118	0x3d2d29e4	0.04227628
119	0xbbd1c50e	-0.0064016646
120	0xbcde1012	-0.027107272
121	0x3cea788e	0.028621938
122	0x3cd65980	0.026165724
123	0x3cc414b7	0.023935659
124	0xbd45e0f2	-0.048310228
125	0x80001baa	-9.924e-42
126	0xbc02d834	-0.007986117
127	0xbd38cc36	-0.045116626
128	0x3cd76034	0.02629099
129	0xba79f935	-0.0009535731
130	0xbd3e8288	-0.046511203
131	0x3d1cf2b8	0.038317412
132	0xbc834d6c	-0.016028129
133	0xbc6f412a	-0.014602939
134	0xbab1d8d3	-0.0013568647
135	0xbcb5acef	-0.022177188
136	0x00001bb7	9.942e-42
137	0xbce061ad	-0.027390325
138	0xbc573d69	-0.0131372
139	0x3c90d034	0.017677404
140	0xbcc7c00e	-0.024383571
141	0xbca4f58e	-0.02013662
142	0xba748d70	-0.0009328937
143	0x38732790	5.797256e-05
144	0x3d21930e	0.039446883
145	0xbcc2a8fb	-0.023762217
146	0x3a1a0cc4	0.0005876536
147	0xbd2e8a2f	-0.04261225
148	0xbca9c139	-0.020722019
149	0xbcd38d9d	-0.025824362
150	0xbce70518	-0.028200671
151	0x3c88e259	0.016709493
152	0x3d306979	0.043069337
153	0x3d0a2852	0.03372986
154	0x80001b66	-9.829e-42
155	0x3ce12029	0.027481155
156	0x3c4390e8	0.011936404
157	0x3c94a8af	0.01814684
158	0x3bb0ce66	0.0053956984
159	0x39c64263	0.00037814965
160	0x3c84fbac	0.016233288
161	0xbbaa693e	-0.005200534
162	0xbcebc117	-0.028778596
163	0xbc5af92b	-0.01336507
164	0xbd35aff4	-0.044357255
165	0x3ca9d40b	0.020730993
166	0x800020e0	-1.1793e-41
167	0xbcad4c17	-0.021154447
168	0x3a131db9	0.0005612034
169	0xbd1e528e	-0.03865295
170	0x3ca1663b	0.019702068
171	0x3d1d2495	0.038364965
172	0xbd1df4d4	-0.038563564
173	0x3c81af32	0.01583061
174	0x3d0690ff	0.032853123
175	0x39e92282	0.00044466933
176	0xbd2ddbf5	-0.042446095
177	0xbbb194ac	-0.0054193344
178	0xbc8c6de5	-0.017142246
179	0xbcc6ba43	-0.024258738
180	0xbd250e84	-0.040297046
181	0x3ba2cd2d	0.0049683065
182	0xbb5d66ea	-0.0033783265
183	0xbcbe6290	-0.023240358
184	0x3ab95017	0.0014138249
185	0xbd4a5af9	-0.049403165
186	0x3d2a930c	0.04164414
187	0x3a168a6c	0.00057426724
188	0xbd138615	-0.036016542
189	0x3c436293	0.011925357
190	0xb9ccc9cd	-0.00039060265
191	0x3c9c9d0a	0.01911785
192	0x3cf40a0d	0.029789949
193	0xbcaf48e6	-0.021397065
194	0x3bc51676	0.0060146404
195	0x3c9efe1a	0.019408274
196	0x3cc32080	0.023819208
197	0xbcb1efd9	-0.021720814
198	0x3c791c11	0.015204445
199	0x3d11c3f6	0.035587274
200	0xbd3bd10a	-0.045853652
201	0x00001c14	1.0073e-41
202	0x3d01a357	0.031649914
203	0x3d40c035	0.047058303
204	0xbcda812f	-0.026672928
205	0xbcddc837	-0.027073009
206	0xbd144326	-0.03619685
207	0xbcedae1e	-0.02901369
208	0xbc9b7ddf	-0.018980918
209	0x3ca631ab	0.020287355
210	0x3d1c7ded	0.03820603
211	0x3c4c4430	0.012467429
212	0x3cb345a5	0.021883795
213	0xbcbe38ee	-0.023220506
214	0xbc559318	-0.013035558
215	0xb74f9c0b	-1.2374493e-05
216	0x3cf54775	0.0299413
217	0xbb16b7e0	-0.0022997782
218	0x3cf5de8a	0.030013341
219	0x3c93ac3a	0.01802646
220	0x3c729261	0.014805407
221	0x00001b97	9.897e-42
222	0xbd1783a7	-0.036990788
223	0x3d102643	0.03519274
224	0x00001b58	9.809e-42
225	0xbcc03a8d	-0.02346542
226	0x00001c36	1.012e-41
227	0xbd386186	-0.04501488
228	0x38ca585d	9.6485695e-05
229	0x00001d8f	1.0604e-41
230	0x00001c5e	1.0176e-41
231	0x3a9d3c65	0.0011996148
232	0xbced8b3b	-0.028997054
233	0xbd0e25e4	-0.034704104
234	0xbbd9f342	-0.006651313
235	0xbb507ca4	-0.0031812573
236	0x3b9e111f	0.0048238183
237	0x00001cf7	1.039e-41
238	0xbbc62e23	-0.0060479804
239	0x3c9d4468	0.019197658
240	0x3d3880a1	0.045044545
241	0x3b947695	0.0045307376
242	0x00001b87	9.875e-42
243	0xbbde664d	-0.0067870975
244	0x3cd89bf1	0.026441546
245	0x3b1a7a2c	0.0023571355
246	0xbbdc1769	-0.006716658
247	0xbd041bc5	-0.032253046
248	0x3b0fecf3	0.00219613
249	0x3cd086eb	0.025454959
250	0xbd06d667	-0.032919314
251	0xb9e15393	-0.00042977612
252	0x3cd9927a	0.026559103
253	0xbcea6672	-0.028613303
254	0x3ceee205	0.029160509
255	0xbc7c0131	-0.015381143
