pointnet/weights_per_bundle_ratio025/CC_7_best.pth (torch, 359646 bytes, 17 tensors)

t_grid f4 [100]
00000000: 0000 0000 b57e 253c b57e a53c 103e f83c
00000010: b57e 253d 62de 4e3d 103e 783d dece 903d
00000020: b57e a53d 8c2e ba3d 62de ce3d 398e e33d
00000030: 103e f83d f376 063e dece 103e ca26 1b3e
00000040: b57e 253e a0d6 2f3e 8c2e 3a3e 7786 443e
00000050: 62de 4e3e 4e36 593e 398e 633e 24e6 6d3e
00000060: 103e 783e fd4a 813e f376 863e e9a2 8b3e
00000070: dece 903e d4fa 953e ca26 9b3e bf52 a03e
00000080: b57e a53e abaa aa3e a0d6 af3e 9602 b53e
00000090: 8c2e ba3e 815a bf3e 7786 c43e 6db2 c93e
000000a0: 62de ce3e 580a d43e 4e36 d93e 4362 de3e
000000b0: 398e e33e 2fba e83e 24e6 ed3e 1a12 f33e
000000c0: 103e f83e 056a fd3e fd4a 013f f8e0 033f
000000d0: f376 063f ee0c 093f e9a2 0b3f e438 0e3f
000000e0: dece 103f d964 133f d4fa 153f cf90 183f
000000f0: ca26 1b3f c5bc 1d3f bf52 203f bae8 223f
00000100: b57e 253f b014 283f abaa 2a3f a640 2d3f
00000110: a0d6 2f3f 9b6c 323f 9602 353f 9198 373f
00000120: 8c2e 3a3f 86c4 3c3f 815a 3f3f 7cf0 413f
00000130: 7786 443f 721c 473f 6db2 493f 6748 4c3f
00000140: 62de 4e3f 5d74 513f 580a 543f 53a0 563f
00000150: 4e36 593f 48cc 5b3f 4362 5e3f 3ef8 603f
00000160: 398e 633f 3424 663f 2fba 683f 2950 6b3f
00000170: 24e6 6d3f 1f7c 703f 1a12 733f 15a8 753f
00000180: 103e 783f 0ad4 7a3f 056a 7d3f 0000 803f
0.0 0.01010101 0.02020202 0.030303031 0.04040404 0.05050505 0.060606062 0.07070707
0.08080808 0.09090909 0.1010101 0.11111111 0.121212125 0.13131313 0.14141414 0.15151516
0.16161616 0.17171717 0.18181819 0.1919192 0.2020202 0.21212122 0.22222222 0.23232323
0.24242425 0.25252524 0.26262626 0.27272728 0.28282827 0.2929293 0.3030303 0.3131313
0.32323232 0.33333334 0.34343433 0.35353535 0.36363637 0.37373737 0.3838384 0.3939394
0.4040404 0.41414142 0.42424244 0.43434343 0.44444445 0.45454547 0.46464646 0.47474748
0.4848485 0.4949495 0.5050505 0.5151515 0.5252525 0.53535354 0.54545456 0.5555556
0.56565654 0.57575756 0.5858586 0.5959596 0.6060606 0.61616164 0.6262626 0.6363636
0.64646465 0.65656567 0.6666667 0.6767677 0.68686867 0.6969697 0.7070707 0.7171717
0.72727275 0.7373737 0.74747473 0.75757575 0.7676768 0.7777778 0.7878788 0.7979798
0.8080808 0.8181818 0.82828283 0.83838385 0.8484849 0.85858583 0.86868685 0.8787879
0.8888889 0.8989899 0.90909094 0.9191919 0.9292929 0.93939394 0.94949496 0.959596
0.969697 0.97979796 0.989899 1.0

encoder.mlp.0.weight f4 [64, 3]
00000000: 4f3b f0bd 7fa3 58be 9b26 cd3e a584 0c3f
00000010: 669b aa3d c1bf 95be fc9e b63e 002e 0abf
00000020: d8af 1bbf 9058 57bd efad 9ebe cc9c d0be
00000030: f7fb 2eb8 a61c 0b39 0bcf 9530 fc25 71bd
00000040: bd8b bbbe 7e38 563c 0b73 bdbe 0365 9b3d
00000050: 937f 2e3e fae2 00be 3523 21be 8297 02be
00000060: d91b 0080 b859 3c33 3a36 d80e 467a 51bc
00000070: 67ec 93be ae50 123f de28 16be b0f7 89be
00000080: b76b b63e af4c 023e 7f82 963d 25dd e13e
00000090: 19fa 783e 5a35 f6be c405 c6be a6e9 0e3f
000000a0: 73c7 83be 78ef 153f f98d c6be af19 853d
000000b0: b7de 3f3e 9300 e33e 2239 9f3e e370 d33e
000000c0: 848b e6b5 cb2e 7a3a 0a1e 0bb9 1224 a7be
000000d0: b2c3 b5be 3412 e83e 2491 7dac 71bb 9e30
000000e0: 8cf0 3c9b b47a 04bf 5a43 05bf 481c 0f3d
000000f0: 57af b13e b9af 0f3d 31bf 6cbe f349 93be
00000100: 6597 8c3d 0653 0dbf 2af5 9ebe ec1e f8be
00000110: 6ca4 75be 480a 15bf ddad 0f3e 81e1 cc3e
00000120: c0b9 363e 88a1 d1be d85b 59be e5cb b83d
00000130: 576c 07bf 90ef e3bd 261c 0080 d90f 5c36
00000140: fc63 eaa3 0d69 8b3e 22c5 e8be 8cef 4dbc
00000150: 06b8 e13e 3127 273d ac11 173e 6835 273d
00000160: b329 273e 131c 183f c182 3809 ebb9 4f34
00000170: 35e1 a8a6 cbf4 e2be fc7a a83e 8de3 98be
00000180: 9045 263e 1df0 0fbf efa9 d3be 382e 813d
00000190: 3b29 c1be 9cdf 8c3e 0e8f aa2e d4ff f836
000001a0: ab70 0180 5ed7 eabe 022a 013e 668b dbbd
000001b0: 404f e73e bc21 f53e 9aa3 5fbd ad3e 323d
000001c0: dcf0 51bd c4dc 463e ecf1 cfbb 0243 0cbf
000001d0: 9bbe ad3e a73d fdbe 0075 b53e d266 82be
000001e0: 65e8 013f 3655 12be 52c1 703b e1af 1cbe
000001f0: 9af1 b8bb 2bbe 04bf e154 0585 fae7 ed2e
00000200: 8352 20a2 a707 a4bc c22e 993d 80c6 e5b6
00000210: 3deb c7be 841c 823e 4297 473a 0619 073f
00000220: 1d1e b1bd b29e 143f 7392 0f3f 0e1e 9ebe
00000230: 34a0 fa3e f6e1 3ebe 075e 0fbf 97c0 4c3d
00000240: 770f 78be 429b 91be 2548 77be 56bf 0b3f
00000250: 373b 0abf 851f 83be f028 043f 1ab2 263e
00000260: 1fe7 273d 3227 c1be 33d5 52be 0246 a4bd
00000270: 71a3 66bb 1d55 a03b 5574 3cb4 2755 043f
00000280: 54ed aa3e 3a38 ae3e 32b1 acbd 88e9 fcbd
00000290: d1fc a63d a01b 0080 cfeb bc33 df45 3833
000002a0: 59d6 b0be d67e 793e 0203 6ebe a99c 803d
000002b0: 04c5 7dbd 4485 a93e 085e c2be 4393 d6be
000002c0: f6ef 83be 63d6 d1be cc2e dbbe aa76 e13e
000002d0: 3fc4 b43e ca41 823e 48e1 efbd 7eb4 a1bd
000002e0: f902 eebe dd9f 1c3f fc94 cbbe 9e13 ab3d
000002f0: b16d 18bf 0614 f73e 6d66 823e 50b8 44bc
-0.11730062 -0.21156119 0.40068516 0.548899 0.08330421 -0.2924786 0.3566817 -0.5397644
-0.6081519 -0.052574694 -0.30992076 -0.40744627 -4.1719493e-05 0.00013266745 1.0900022e-09 -0.058874115
-0.3663005 0.013074992 -0.37001833 0.07587626 0.17040853 -0.12586585 -0.15736087 -0.12753108
-9.99e-42 4.385376e-08 5.330033e-30 -0.0127855 -0.28891298 0.5715436 -0.14664027 -0.26946783
0.35629055 0.12724565 0.07349109 0.44114032 0.24314155 -0.4808758 -0.38676274 0.5582527
-0.25738105 0.58568525 -0.38780192 0.064990394 0.18737303 0.44336376 0.31098276 0.41297063
-1.717694e-06 0.0009543716 -0.00013267263 -0.32644707 -0.35500866 0.45326388 -3.6034032e-12 1.1549287e-09
-1.562872e-22 -0.5174973 -0.52055895 0.03493908 0.34704086 0.03507969 -0.23119809 -0.28767356
0.06864814 -0.5520481 -0.3104642 -0.48461092 -0.23988503 -0.5821881 0.14031167 0.40015796
0.17844296 -0.4094355 -0.21226442 0.09023265 -0.5289969 -0.11129677 -1.0098e-41 3.279178e-06
-2.5412676e-17 0.27228585 -0.454629 -0.012569319 0.4408571 0.04080886 0.14752835 0.040822417
0.163245 0.5941784 2.2209675e-33 1.9346014e-07 -1.1718384e-15 -0.44327387 0.3290633 -0.29861107
0.16237473 -0.5622576 -0.41340587 0.06307644 -0.3772677 0.2751435 7.7561166e-11 7.4207583e-06
-1.32253e-40 -0.45867437 0.12613681 -0.107199475 0.4517765 0.478773 -0.054599382 0.043516804
-0.051255092 0.19420153 -0.006345978 -0.54789746 0.33934483 -0.494611 0.35440826 -0.2546907
0.5074523 -0.14290318 0.0036736322 -0.15301467 -0.0056440355 -0.51852673 -6.26922e-36 1.08187195e-10
-2.1727725e-18 -0.02002318 0.074796215 -6.8478403e-06 -0.3904666 0.2541238 0.0007613787 0.5277256
-0.08648322 0.5805465 0.5608284 -0.30882305 0.4895035 -0.18640885 -0.5600285 0.049988355
-0.2422465 -0.28438765 -0.24148615 0.5458883 -0.53996605 -0.25609985 0.51624966 0.16278878
0.0409919 -0.37725216 -0.20589142 -0.080211654 -0.0035192634 0.004892959 -1.7551186e-07 0.5169243
0.33384192 0.34027272 -0.08432235 -0.1234923 0.0815369 -9.91e-42 8.7973255e-08 4.2904386e-08
-0.34538534 0.2436479 -0.23243335 0.062798806 -0.061955467 0.33109486 -0.37962365 -0.41909227
-0.25769013 -0.40983877 -0.4280914 0.44035846 0.35305974 0.25440818 -0.11712891 -0.07895754
-0.46486643 0.6118143 -0.39762104 0.08353351 -0.59542376 0.48257464 0.2546877 -0.012006834

encoder.mlp.0.bias f4 [64]
00000000: 0d95 86bd fc57 273d c4be 66be 9561 96be
00000010: 0a15 29b7 433b 0e3e 46cc c73c ed24 2cbe
00000020: bbb1 09b6 b3b8 5fbe 4092 6fbe 58fb dcbd
00000030: 572e a63e 897a d33d db3e 4ebd a863 8bbd
00000040: b081 e136 7f3e 5fbe a31b c214 d8e3 1b3e
00000050: 2214 f4bd dca5 8abb 8856 6bbe d18e 83be
00000060: 5ab1 573e bb8f c33d fc4e 4f08 f875 7cbe
00000070: 8622 13bd 0169 3c3e 68fe 9dad fa3f c0b9
00000080: f5a0 0f3e a896 33be 59d8 e31f 85b6 133d
00000090: 45a6 01bd 2f76 fc3d 7dc8 8b3e 870c 373c
000000a0: 292a bfbd 7ef1 0bbe 53ed 2ca2 4cd9 8b8b
000000b0: 4f8e 093c 405a 333e bc1c 23be bd99 76be
000000c0: 8449 20be 6fc4 883e 4b34 84bc 9449 bebd
000000d0: 43de 1036 a7c4 df3d 0073 2d3e d2ca 05b5
000000e0: 8ea6 893b a56e babe 2fc0 30be f1eb a1bd
000000f0: c6ef 88bc 3467 8fbe cc72 163d 46b1 223c
-0.06571398 0.040855393 -0.22533709 -0.29371324 -1.00780835e-05 0.13889794 0.024389397 -0.16810961
-2.0518044e-06 -0.21847801 -0.23395634 -0.107901275 0.3245723 0.10326106 -0.050352912 -0.06806117
6.72062e-06 -0.21801184 1.9599895e-26 0.15223634 -0.119179025 -0.0042311978 -0.22982228 -0.25694898
0.21063748 0.09548899 6.2384642e-34 -0.24654377 -0.035921596 0.18399431 -1.7961813e-11 -0.0003666876
0.14026244 -0.1753794 9.6496157e-20 0.036062736 -0.031652708 0.12327229 0.27301398 0.01117242
-0.09334213 -0.1366634 -2.3435985e-18 -5.3867804e-32 0.008395745 0.17514896 -0.1592893 -0.24082084
-0.15653044 0.26712367 -0.016138216 -0.09291378 2.1587045e-06 0.1092618 0.169384 -4.9841503e-07
0.004200763 -0.3641254 -0.17260812 -0.079063304 -0.016715895 -0.28008425 0.036730573 0.009929961

encoder.mlp.2.weight f4 [128, 64]
00000000: 932f 35bc 76e7 dcbd 8fd0 e63d 99d5 28bd
00000010: ca99 0080 b26f 973c 09b5 dbbc 4ce7 813d
00000020: 201c 0080 f831 5f3c 5d50 7dbd 8763 d4bc
00000030: e20d d0bc a266 4f3d 11a7 e8bc 8bca 97ad
00000040: ae9d 6620 f9b7 68bc a91b 0080 1c59 873d
00000050: ef06 f4bc 4fe1 533c 3bbf 69bd c9df cdbc
00000060: 80b4 183c 9488 bbbd 2d1c 0000 269c 733d
00000070: 9aa9 e7bd 42ed 1fbb 5d85 a301 8c98 0b3d
00000080: bd6d 053d 7614 75bd beb1 0000 d8a3 11bc
00000090: 196e 1837 78b2 cc3b 80c9 6abd 6e43 073d
000000a0: 7c7f 29bc 07f4 103d 961b 0000 e47a 1f09
000000b0: 021c 6f3c ee2b a9bc f1e2 013b 887f 9abd
000000c0: a629 383d 38a6 d33c af93 ecbd 461c 063d
000000d0: 4f7d 0504 7778 98b7 0d56 0fbc 5a1b 0000
000000e0: fe8b ee3c 604b 3ebc be01 4b3d 832f 88bc
000000f0: 0038 8d3c bfa5 423d 5e0e 8a3b 1fe2 31bd
00000100: b8e4 abbd d805 f23d 2223 06bc 87d4 a2bd
00000110: 48b2 0211 1381 893d 3ce0 d13d ae2b fb3c
00000120: 4421 0080 d503 b93d a445 313d 2aaa cabd
00000130: abb6 c33c 3921 f4bd dcd0 613c f94b 8abd
00000140: d316 6e20 1cbe fcbc df1b 0080 0151 c53d
00000150: 04e7 d43d bfb2 a0bd c80f cbbd 5060 24bd
00000160: 1967 72bd afe2 c13d c81b 0080 bd17 8bbc
00000170: cd58 a23d 34b3 6fbd e16d eb81 51ad 02bc
00000180: 91cd 47bc 5190 cabd fe4c 7808 08be b43d
00000190: a4ce b43d 80b9 71bd c734 ab3d 9ea8 123c
000001a0: 4daf a43d 8b08 a1bd 6ac3 0500 3f4e eda5
000001b0: 3115 b4bd fe41 cc3d 7119 dbbd 2e3e e53c
000001c0: 5bd1 e03d 1447 b33d 4b5c 513d 4e87 1e3c
000001d0: dae3 7512 b638 8dbd c505 df3d 5c1d 0080
000001e0: ec08 a8bd 274a 063c 5b8a 03bb 6515 e1bd
000001f0: 262b 143d 459d 783c 452d 80bd aed0 e2bc
00000200: 663d 10b2 85db ee00 5d8a bab4 786d 4fae
00000210: 5c1b 0000 18c3 15b4 f288 d780 8685 dd19
00000220: 1cdc a50c 177f a2b4 6ddb 2fb3 ea81 b68b
00000230: d685 c0b4 b65b c7b4 6749 0409 a35a 3c07
00000240: 574e 0d81 30fd e8b4 20ab af05 8179 0fb6
00000250: 376f 8201 f3e5 9f84 7db5 04b5 877b 178d
00000260: 4f54 2bb4 b7ab 04b6 8ad5 5484 5da6 35b5
00000270: 3206 6d11 db22 ba86 861b 0080 551b 7d0e
00000280: 3c1f 44b6 bc6d 41b5 5d3f 0b80 7c9d 5500
00000290: 6576 b00e 2dbc 2b98 7850 bdb6 c706 ab04
000002a0: 4990 13ad 7198 1100 104c bd89 871b 0080
000002b0: 4614 cc08 c0c1 e6b0 95ea 11b5 a211 cfb6
000002c0: 9bda 1aae cbd5 f4b5 7b77 8e88 be4a 10ac
000002d0: 6a1b 0000 2519 210f e429 18a4 911f 0000
000002e0: 82d5 ed0e 297a 8821 f716 4db3 7d50 cdb5
000002f0: 54d3 3100 7fbd 2c36 3817 6188 74c0 3280
00000300: a465 aa3d a570 27bc 04f8 ee3d b724 17bd
00000310: 4ed0 b68d 020f 933d 52a3 e4bc 0715 de3d
00000320: 3cfd 018b b97e 86bd 0acc 123d a4fc f13d
00000330: 6c11 05bd 262e 8dbc 602c 913d df92 bbbd
00000340: df12 acac 3739 f83d 919e 0180 a5e1 3f3d
00000350: 15f8 043c e88a b6bd 8315 9f3d 84c4 7e3d
00000360: bc28 2dbc 2e5b 9abd 7f50 0100 7d16 753c
00000370: 7aa9 67bd a8a4 73ba 6c04 0000 49c4 e13c
00000380: 3d9f d5bd f0b7 a43d c31b 0080 32f0 53bd
00000390: 591c 0080 5eb5 0e3e ce66 183d 9cc0 693b
000003a0: 2183 95bd 2325 a93d 1e1f 0000 c94c 8492
000003b0: 0fd0 02bd 6964 593d ce34 c0bd 34f8 89bc
000003c0: 773a b13d 678a 4dbd 69c0 e1bd 63b8 883d
000003d0: 505e 9a07 033b dabd 6fb0 b63d 15ff 2a00
000003e0: adce 1fbd f15b 8c3d 534c 843d fe60 9b3d
000003f0: 4c6c b188 105e e43b e404 04be 135f 34bd
-0.011058706 -0.10786335 0.11270248 -0.041219328 -5.5169e-41 0.018485878 -0.026819723 0.063429445
-1.009e-41 0.013622753 -0.06184422 -0.025926365 -0.025397245 0.050634988 -0.028399976 -1.725666e-11
1.953393e-19 -0.014204019 -9.923e-42 0.06608793 -0.029788462 0.012932136 -0.057067137 -0.025131123
0.009320378 -0.091569096 1.0108e-41 0.059475087 -0.11311646 -0.0024402891 6.006811e-38 0.034081027
0.032575358 -0.059833966 6.3762e-41 -0.008889161 9.08554e-06 0.006246861 -0.05732107 0.03302329
-0.010345336 0.035388973 9.896e-42 1.9196712e-33 0.01459408 -0.02065083 0.0019819106 -0.07543856
0.044961594 0.025836095 -0.11551606 0.032741807 1.5691614e-36 -1.8175908e-05 -0.008748543 9.812e-42
0.029119488 -0.0116146505 0.04956221 -0.016624218 0.017238617 0.04752135 0.0042131385 -0.043428537
-0.08393234 0.11817521 -0.008187087 -0.079506926 1.0310129e-28 0.06714072 0.102478474 0.030660477
-1.1933e-41 0.09033934 0.043279305 -0.098957375 0.023890814 -0.11920399 0.013782706 -0.06752772
2.0166936e-19 -0.03085237 -9.998e-42 0.09634591 0.10395625 -0.07846593 -0.099151194 -0.040130913
-0.059180353 0.094670646 -9.966e-42 -0.016979093 0.07927094 -0.05852051 -8.6483035e-38 -0.007975892
-0.012195007 -0.098908074 7.472029e-34 0.08825308 0.08828476 -0.059014797 0.08359676 0.008951334
0.080412485 -0.078629576 5.29279e-40 -4.1165968e-16 -0.087931044 0.099735245 -0.10698212 0.027983751
0.109774314 0.087537915 0.051113408 0.009675814 7.7589217e-28 -0.068955824 0.10889772 -1.0532e-41
-0.08204827 0.00819639 -0.002007148 -0.10990409 0.036173962 0.015174215 -0.062586345 -0.027687397
-8.395864e-09 2.1935597e-38 -3.4745872e-07 -4.716358e-11 9.815e-42 -1.3947681e-07 -1.9793758e-38 2.2904794e-23
2.5554749e-31 -3.0267321e-07 -4.094493e-08 -7.029932e-32 -3.5860165e-07 -3.7133367e-07 1.5923436e-33 1.4170184e-34
-2.5953816e-38 -4.3397586e-07 1.6519782e-35 -2.1379385e-06 4.7914043e-38 -3.7591895e-36 -4.943793e-07 -4.667916e-31
-1.5956287e-07 -1.9769484e-06 -2.5018533e-36 -6.7669845e-07 1.8697913e-28 -7.001664e-35 -9.874e-42 3.1197818e-30
-2.9224457e-06 -7.205779e-07 -1.032921e-39 7.862512e-39 4.350136e-30 -2.2196236e-24 -5.6420067e-06 4.020813e-36
-8.38802e-12 1.615889e-39 -4.5571624e-33 -9.875e-42 1.228257e-33 -1.678977e-09 -5.435807e-07 -6.1711335e-06
-3.5209707e-11 -1.8241639e-06 -8.574404e-34 -2.050512e-12 9.834e-42 7.9427555e-30 -3.299523e-17 1.1324e-41
5.863061e-30 9.248054e-19 -4.775117e-08 -1.5297115e-06 4.57575e-39 2.5740298e-06 -6.773577e-34 -4.660814e-39
0.08320168 -0.010219728 0.11668399 -0.03690025 -1.12667635e-30 0.07180597 -0.027909908 0.108438544
-2.503501e-32 -0.06567139 0.035839118 0.118157655 -0.032487318 -0.01723392 0.07088542 -0.09158873
-4.890629e-12 0.12120288 -1.48718e-40 0.04684605 0.008115788 -0.08913213 0.07767775 0.06219913
-0.010568794 -0.075369224 1.20712e-40 0.014958975 -0.05655811 -0.000929425 1.586e-42 0.027559416
-0.10430763 0.08042896 -9.959e-42 -0.05174274 -1.0169e-41 0.13936374 0.037207417 0.0035667783
-0.073004015 0.082590364 1.1163e-41 -8.3493e-28 -0.0319367 0.053074274 -0.09385072 -0.016841985
0.086537294 -0.05018082 -0.110230274 0.06675794 2.3226777e-34 -0.10655787 0.08920371 3.948597e-39
-0.03901546 0.06853474 0.0645987 0.07586859 -1.06782605e-33 0.006969221 -0.1289249 -0.044035982

encoder.mlp.2.bias f4 [128]
00000000: 45db 75bc 6480 c0bb d4cb 5588 5b2b 923c
00000010: 0c1a 06bd 9c93 ba3b f902 d4bc 9d4b 1107
00000020: 213b e6ab acd7 2d3d 1151 aabc 0e2d 723b
00000030: 6d2e d83b 4363 13bd 52b8 89bd d235 a128
00000040: 09cf 493c d26e 45b4 8c90 97bc 2597 6a3c
00000050: dd2c 03b1 44ee 6f3c 59f6 92bd 1a4c 95bc
00000060: 30ee 1f3d 9abc 06bc ce97 473c 83f1 51bd
00000070: a8f6 acbc f545 38bc 247f 5fbd 4fba a0bb
00000080: 9a50 6bbd 69b8 bfbc cb92 073d be87 0b24
00000090: 6beb cfbb 0fa0 d53c 68cc b1bc 7156 6a3c
000000a0: 4b39 9632 5a7e 22bd 3e8d 333d bf56 8c3d
000000b0: bda6 423d 1963 1cbd d7ef 09bc f0d4 02b5
000000c0: 5341 5d3c ac17 baba 989d 8a3d 76ca 9f3c
000000d0: a585 17bd 0540 8da9 3433 4c3d 1430 50bc
000000e0: 85b9 3bbc a9f5 10ad 795d 6e23 f9fe 853c
000000f0: 864a 4dbd 612d e0bc aa4e 4ebb 4a50 b4bc
00000100: f643 b83c bf35 033c a126 3e3b 5271 aa3c
00000110: e988 8cbc 188e bbbb e423 74bd e2eb 66b8
00000120: 4b71 23bc c486 5b2c b2f2 1ab9 fdb0 923d
00000130: fdbd 783c f20d 37bc 70ca 20bd dfc9 ef3b
00000140: de29 77b2 e8fe 293d 9214 443c d7d4 85bc
00000150: a060 842c 9d2b 683b 4c71 3b3b 5577 2e3d
00000160: 4ee8 9d3c 3bcf c2b8 cefa b2bc 32c8 f33c
00000170: cfe4 9301 bb84 8a3c a898 c9ba 7795 81bc
00000180: 84a7 3c3d 4c72 5d3d ad96 833c 9c5d 2dbc
00000190: 270f 88bd b19d 7f3c df19 1d3d e44a 50bd
000001a0: 138c 043b af17 8abd ae2e 05bc 37e7 963c
000001b0: 6df5 5abc 0018 8835 fadf 2d3d e3da 1fbc
000001c0: f8e5 6cbd 6dbb 073c 27d9 84bd 20c8 423d
000001d0: a33b ca3c 95f3 1c3d 8877 05b8 9dbb 41bd
000001e0: df58 4b3d 2e19 89bd acd6 d22e 73f3 c7bc
000001f0: 7f4e e9bb 35d9 9cbb 5fd3 0700 a926 433c
-0.015005891 -0.0058746804 -6.4336955e-34 0.01784294 -0.032739684 0.005693866 -0.025880324 1.0930808e-34
-1.6358894e-12 0.04244201 -0.020790609 0.0036953124 0.0065973313 -0.035983335 -0.067246094 1.7897932e-14
0.012317427 -1.8387371e-07 -0.018501543 0.014318262 -1.908851e-09 0.014644209 -0.07175893 -0.018224765
0.039045513 -0.008223677 0.012182189 -0.051255714 -0.021113709 -0.011247148 -0.05456461 -0.004905022
-0.057449915 -0.023403363 0.033098977 3.02558e-17 -0.0063452027 0.026077298 -0.021703914 0.014302836
1.7488352e-08 -0.03967128 0.04383587 0.06852483 0.047522295 -0.038180444 -0.008418999 -4.873864e-07
0.013504344 -0.0014197729 0.0676834 0.01950572 -0.036992688 -6.2727635e-14 0.04985352 -0.012706775
-0.0114578055 -8.24e-12 1.29217995e-17 0.016356932 -0.0501199 -0.027365388 -0.0031479993 -0.022010941
0.022493344 0.00800842 0.0029014724 0.020805988 -0.017155128 -0.005723726 -0.05960454 -5.5055956e-05
-0.009975742 3.1196582e-12 -0.00014776996 0.07162664 0.0151820155 -0.011172758 -0.03925556 0.007317766
-1.4386812e-08 0.041502863 0.011967795 -0.016336842 3.762393e-12 0.0035426386 0.0028601466 0.042594273
0.01927581 -9.2892406e-05 -0.021848109 0.029758547 5.4327596e-38 0.016908994 -0.0015380578 -0.01581834
0.046058193 0.05406408 0.016063059 -0.0105814 -0.06643515 0.015601561 0.03835475 -0.05085267
0.0020225092 -0.067427985 -0.008128805 0.018420799 -0.013364178 1.0139775e-06 0.04244993 -0.0097567765
-0.057836503 0.008284432 -0.06486731 0.047554135 0.02468664 0.038318235 -3.1820993e-05 -0.047298063
0.0496453 -0.06694256 9.587828e-11 -0.024408078 -0.007119953 -0.0047866353 7.18674e-40 0.011911073

encoder.mlp.4.weight f4 [256, 128]
00000000: 7c47 b2bc 6969 f63c c2c5 74aa ded5 963d
00000010: 9594 b13d c8a4 25bd dfe3 62bd d242 c904
00000020: 2ce2 2b2c fbf0 393d b5da a9bb 2437 493d
00000030: 65c6 0a3d 63f9 af3d 8a36 2fbb bf09 27b7
00000040: f9d4 7e3d d2f1 dbb9 edf1 bb3c c855 723d
00000050: 6bb3 4039 371d 0000 9228 f93c e446 1f3d
00000060: 4267 dabc c7de 833d ae2c 313d 5990 d53c
00000070: 3b1f 0000 70cb 903d 46ee 943d 7275 17be
00000080: 3320 833d baf3 113d 3f1d 0000 848c 7436
00000090: b786 ba3d 5a1b 0000 4057 213d 90d0 623d
000000a0: 102f 9f37 9d77 9a3d 4e6f 1103 a3da b8bd
000000b0: 656f 9a3c cbe1 753d 912a a03d 1d2c 83b4
000000c0: a71b 0000 78b1 e9bc 4a54 95bd 9e79 d1bd
000000d0: 9c2e 63bd d102 e7a9 da12 853d c11b 0000
000000e0: 0a5f 68bd 3df3 b4b8 c24a d11f 39c9 883d
000000f0: cad5 32bd c14b 8cbd 830a 00be 3f21 47bc
00000100: 7ea6 943c 3654 8abd fcd4 4b3d 9060 92bd
00000110: 4737 91bc 6d1e e83c 3593 133d fee8 2a3a
00000120: 6d88 debb 2802 abac 19ae 96b9 0ad1 613c
00000130: 0ce6 5d06 ab23 0e3d b293 65bd 8596 a2bc
00000140: fd0d 36b2 c4c1 b7bd 691f 0000 32a9 983d
00000150: 789f 2bb9 d4b9 0180 e48d de3b 3368 84bd
00000160: 141b 87bd 26d4 3339 f55b 6e3d c0b4 be3c
00000170: db0e 05b5 126b 86bc c1cd 3b3a 2079 d4bc
00000180: aaf2 a93a 31d7 c8bc 629e 0c3d dc8d 1a3d
00000190: 56b7 8cbd a99d 0d3d 2af8 6a3d 4954 88bc
000001a0: 2b59 543d 2a2d 863d 1446 8fbd 3527 c5bd
000001b0: d15a 72bc 121c 0080 e14c 1484 b86a c63d
000001c0: 30b1 fcbc 2bc8 c4bd 7c13 053c bdab 4dbc
000001d0: 25a7 83bc b82e 1d35 000c 99ba 43f1 96ba
000001e0: e139 223c 0a7d 8d3d 7f8c aa38 c4e1 be3b
000001f0: 6b61 8b3d c31b 0080 f03c f12c 732e 153d
00000200: 8043 0383 0227 8e3c 3785 d624 f10d 353d
00000210: f8e6 8dbc af3e 41b1 bcd4 24bd 43f8 b386
00000220: 381e 8239 abd5 42bd 1bb4 a53d ff9e 7b3b
00000230: e988 f13a 6c26 a1bc a246 8e3d caf5 9bb9
00000240: e510 4bbd 12d5 2f2e 01fb 773b a99a 653c
00000250: 6a1d 6b3a 91d5 123d 9560 42bd 21a5 513d
00000260: 082e a53c 2d77 893d 679b 3c81 3fea ee3b
00000270: c871 0fbb a9b4 aa3c 0738 09bd 14ec 31bd
00000280: c3c7 39bd 9bc6 4c3c 2eb1 cdbc f22b d3b4
00000290: a09b 713c b9d7 553c da81 8dbd 9231 2ebd
000002a0: ca63 3c3a 2058 f9bc 94ac 0d3d 204f d73a
000002b0: 8e97 94bd d356 ff3b cf2f a23b 80e7 e436
000002c0: d45f 1c3d 5105 b73d 9e5e 1fbb e39f 623b
000002d0: 578e ae3d ed00 812a 6661 863d af83 753b
000002e0: dbe8 3abd 3704 942f 81e0 eda0 c07c 83bc
000002f0: edb6 dd3c c71e 93ba 363d 62bd 13df f4bc
00000300: e502 b9bd c193 b83c 9c5e 59bc e1ed b03b
00000310: 78a6 e93c 34a2 47bd c479 3b3d 671b f5b9
00000320: cf9a da30 f9c4 032d c6bf 8b3a 6d0f 903d
00000330: 430d 35bd a304 90bd 7ebc 26ba 476d 3c3d
00000340: bf5d b3b9 caf6 3cbd 0c6e 893d 6761 7dbd
00000350: e3d5 2139 3bea cd3c 95de fc3c d8e4 6d3d
00000360: 3915 5ebd d821 17ba 8486 943c 2c76 1301
00000370: 647b 0100 5b71 a5bc 0ba9 1aba fca0 5bbd
00000380: 1af2 7b3d bf2d c5bc 9f73 423d fe2f 12bc
00000390: d5a5 8f3d 584a 413b 6821 a4bc 6cfc b2b9
000003a0: 111c 0000 b6b4 bf3b a981 b23d d343 3abc
000003b0: aa26 28bd 3998 1202 9ca5 9e3c 0f1f 203d
000003c0: 35b2 84bb 4404 853d 9b8f 223d 4c40 49bd
000003d0: 795b 8b3d 14c2 903d 1d0e 9a3a b508 523d
000003e0: 3777 50bb 2004 96bb 58ae d0b9 c3ae a8bb
000003f0: 7130 d73c 5d6b 283d 9ad9 0080 6d09 e83c
-0.021762602 0.03007956 -2.1740164e-13 0.07365011 0.08670918 -0.04044035 -0.055393096 4.7316238e-36
2.4426112e-12 0.045395833 -0.0051835426 0.04912485 0.03388061 0.085924886 -0.0026735389 -9.956245e-06
0.062214825 -0.00041951105 0.022942508 0.05916384 0.00018377385 1.048e-41 0.030414853 0.038885966
-0.026660565 0.06438976 0.0432555 0.026069807 1.1203e-41 0.070700526 0.072720096 -0.14790896
0.06402626 0.035632826 1.0492e-41 3.6440624e-06 0.09107726 9.812e-42 0.03938985 0.055374682
1.8976192e-05 0.07542346 4.273944e-37 -0.09026077 0.018851945 0.060029786 0.07820619 -2.4432748e-07
9.92e-42 -0.028527007 -0.072914675 -0.10228275 -0.055464372 -1.0258949e-13 0.06497736 9.956e-42
-0.05673126 -8.6283755e-05 8.863862e-20 0.06679005 -0.043660916 -0.068503864 -0.1250401 -0.012153923
0.018145796 -0.06754343 0.049763665 -0.07147324 -0.017726554 0.02833482 0.03602906 0.0006519704
-0.0067911656 -4.8603517e-12 -0.00028739942 0.013782749 4.1734492e-35 0.034701984 -0.056049056 -0.019847164
-1.0596975e-08 -0.08972505 1.1268e-41 0.074541464 -0.00016367238 -1.58498e-40 0.006791817 -0.06465187
-0.065969616 0.00017149802 0.058193166 0.023279548 -4.956798e-07 -0.016408477 0.00071641436 -0.025936663
0.0012965996 -0.024516674 0.034330733 0.037732944 -0.06870906 0.034574185 0.057365574 -0.016641753
0.05184285 0.06551583 -0.06995788 -0.09626619 -0.01479216 -1.007e-41 -1.7432617e-36 0.09688324
-0.030846208 -0.096084915 0.008122321 -0.012553153 -0.016070912 5.855504e-07 -0.001167655 -0.0011515993
0.009901495 0.06908615 8.132401e-05 0.005825253 0.068056904 -9.959e-42 6.8563974e-12 0.03642125
-3.8574926e-37 0.017352585 9.303338e-17 0.04420275 -0.017322049 -2.8120828e-09 -0.04024194 -6.7697104e-35
0.00024818047 -0.04756705 0.08090993 0.003839433 0.0018427643 -0.019671641 0.06947066 -0.0002974703
-0.04957666 3.9979638e-11 0.003783882 0.014013925 0.00089689216 0.035848204 -0.04745539 0.05118287
0.020163551 0.06712184 -3.4641642e-38 0.007291108 -0.0021887887 0.020838099 -0.033500697 -0.043438032
-0.045356523 0.012498523 -0.0251089 -3.9333787e-07 0.014746577 0.013051921 -0.06909533 -0.042527743
0.00071865006 -0.03043753 0.03458841 0.0016426779 -0.07255469 0.0077923327 0.004949547 6.8218797e-06
0.038177326 0.08936561 -0.002431787 0.0034580163 0.08523243 2.2915646e-13 0.06561546 0.0037462523
-0.045632225 2.6924038e-10 -4.0297926e-19 -0.016050696 0.027064765 -0.0011224382 -0.055234157 -0.029891526
-0.09033755 0.022531392 -0.013267186 0.005399451 0.028521761 -0.048738673 0.04577042 -0.00046750458
1.5905587e-09 7.490225e-12 0.0010662011 0.07034192 -0.0442021 -0.070321344 -0.0006360485 0.046002652
-0.00034211387 -0.046133794 0.06710443 -0.06186047 0.00015433836 0.025136104 0.030867854 0.05807957
-0.05421946 -0.0005765236 0.018130548 2.708442e-38 1.361e-40 -0.020195654 -0.0005899823 -0.053620324
0.061510183 -0.024069665 0.047473546 -0.008922575 0.07014052 0.0029493775 -0.02003546 -0.00034138875
1.0068e-41 0.0058504 0.08716137 -0.01136871 -0.041052498 1.0770072e-37 0.019366078 0.03909212
-0.0040495642 0.06494954 0.039687734 -0.049133584 0.068045564 0.070682675 0.0011753474 0.051277835
-0.0031809339 -0.0045781285 -0.00039802748 -0.0051477863 0.026268216 0.041118015 -7.8061e-41 0.028324807

encoder.mlp.4.bias f4 [256]
00000000: de2e 1abc d0f9 f2bb f7bc f03a 12e4 c1bc
00000010: 2a3b 5bbc 6d0a d03c 382c 9f3c 7f34 29bc
00000020: cf1b 0080 4fbe e73b 3220 261b 6391 2fbc
00000030: e57b 7e3c c2cf 8d3b 647c 349e b702 26bd
00000040: dff4 88bc 7260 263c 25e0 4e3c d81c 0000
00000050: 60cf a21c 4bc0 8e3a c9f9 8f03 5f1a f2bc
00000060: 6c86 cdbc c2a9 4ebc 355b a7bc 50d9 14bc
00000070: d9cb 8d3c e700 a6bb 4843 49ac 5d68 8bb9
00000080: 219a 3dbc e80c 079b fddf 16bc 7959 cbbb
00000090: 59e1 c33c 18c2 7aa1 928c cf3c d5ca b5bc
000000a0: 25dd 0224 6d9c 803a 2056 153b 8a0f 063c
000000b0: 30a0 3b25 faad f93b 3c33 ca06 831a 3bbd
000000c0: 568f 0abd f3a4 aa3a 11d6 62bd 5e3e 8e86
000000d0: 1018 92bb 8df6 5e3c bae9 8dbb 289c 37a1
000000e0: f8a7 d63c bb61 93bb c858 96bc 706b 7dbc
000000f0: ba56 81bc 5302 9fbc ff38 32bb 894a 983c
00000100: 7fe4 b0bc 0d32 143d 0a12 d9ba 877d 56bc
00000110: 8dd8 18bd b7c0 3f3c 013e 78bc 5186 68bc
00000120: 9db7 b02e 9707 0dbd 1d67 7d3a 9e31 f1bc
00000130: 2da3 9dbc 4411 b4bc 976b 1dbd aabd 8bbc
00000140: e08c 1e3d 5560 71bc d3be 31bc e50c cd3b
00000150: a285 503c a410 e4bc 9b66 29bc a576 19bc
00000160: 9a76 0b3c bb43 96bc 9e35 81bc b776 74bd
00000170: f073 1dbd 592f 5b3d 6b40 9710 5702 9abc
00000180: 01d0 2e82 c8f7 aebb c333 3ebd 3302 21bd
00000190: 4efc 7eb7 fbbc 09bd db0e 7198 1f2d 3abb
000001a0: 64db 80bc d77b 81bc 1020 a5ba 3f9f 69ba
000001b0: e32b 5ebc c110 a43c a595 de3c 5318 be3b
000001c0: c865 d53c 4230 18bd 553f b03a f349 713c
000001d0: 53af 1bbd d421 5d3c 7d71 13bd f41d 4c3c
000001e0: 7896 44bc fd47 342f fe55 acbc 4e04 27bc
000001f0: be72 b73c 5c54 943b 63ea 723c a94e 9fbc
00000200: 8403 62bd b6bb 123a 22c2 6a3c 63a4 303c
00000210: da5b 0fbd 25fe 3dbc 98f8 9bbb 26f0 82bc
00000220: e2a1 139e d214 8fba c2b3 1ebd 3245 673c
00000230: 9eec a3bb 9992 5c3c 6c8c 80bd db50 96aa
00000240: 0506 56bc ff0c 153b ee73 0100 8c12 1200
00000250: dd41 76bd 8cdc ea3b 9b32 1036 8d7c 7e3c
00000260: f74f d1ba 6317 06bc 45bc 81bc d37d a13c
00000270: 75d4 883c 6d90 2d3c 6667 90bc 9946 0823
00000280: 4e04 5dbc 84ab b13c b46a 4498 bcb1 d6a4
00000290: 0002 fdbb 1ee4 4e3c c7ab b2ba 05cf 4f3c
000002a0: 9633 a83b 6fa5 d5bc e66b 00bc 05c2 1dbb
000002b0: 87dc d53c c729 093d 314c 35bd f966 87b9
000002c0: bb34 0e94 de0b f53b c392 1c3a 8cb7 85bc
000002d0: e286 a83c a108 1a3a 3651 dcbb d335 693c
000002e0: afd1 c7bb 4f1e 4ea9 6f73 d0bb 8f37 8a82
000002f0: 197f a6bc ccc4 de9b ff29 71bc a411 219a
00000300: 3860 95bc 69b8 373c b381 a9bc 21ef e83b
00000310: ce1e 47bd 0f1c a8bc d070 6bbd 9412 8796
00000320: 9a82 73bd b6d6 303c 0c7a 523d d7a1 1d3c
00000330: 6095 e9bb 4d53 d03c df79 8f3c c12e 8db9
00000340: 3043 2cbb bacf b7ba e30e c23c 3c85 88bd
00000350: 7266 24bc b2b5 d5bc cdf9 1e3b 202f 333d
00000360: 44e5 8e3c eb4c 37b8 931f 993b 6447 96bc
00000370: f7b6 0700 75ed dbbc ab70 df3c c842 9ebc
00000380: 961c b03c 082e 24bc 4c0a e7bb 25c0 9cbb
00000390: a975 53bc 8cda 91ba 2bd2 4abd 42b1 e8bc
000003a0: 4238 a738 6494 47bc d6e5 e7bc c4b9 a4bc
000003b0: 9405 623c b565 1c3a 9b87 af3c bacf 89bd
000003c0: 48ba 043d 5a17 073c 9f0e f8bc 78ba 23ba
000003d0: 1233 fdb7 365f 4cbd a0e9 a5bc 8ebe 33bc
000003e0: 42a9 a6bc 90b0 b1bc 42ae 2b3b e414 9cb7
000003f0: f2fb 4cbd cf3b b1bc 65c2 e33b 7a92 21bd
-0.009410588 -0.007415034 0.0018366863 -0.023668323 -0.013380805 0.025395596 0.019430265 -0.010327457
-9.976e-42 0.007072247 1.3741601e-22 -0.010715815 0.015532468 0.004327745 -9.554844e-21 -0.040529933
-0.016718326 0.01015483 0.012626682 1.0347e-41 1.0773866e-21 0.0010891048 8.4621325e-37 -0.02955359
-0.025088511 -0.012613716 -0.020429233 -0.009085014 0.017309116 -0.0050660255 -2.8601167e-12 -0.00026589903
-0.011572392 -1.1171109e-22 -0.009208676 -0.0062057343 0.023911165 -8.4960176e-19 0.025335584 -0.022191444
2.8376573e-17 0.0009812244 0.002278693 0.008182416 1.6273938e-16 0.0076196166 7.6059237e-35 -0.04567958
-0.033828102 0.0013019129 -0.05537993 -5.3506104e-35 -0.004458435 0.013608587 -0.004330841 -6.2209483e-19
0.02620314 -0.0044977344 -0.018352881 -0.01546751 -0.015788425 -0.019410288 -0.0027194617 0.018590229
-0.02159333 0.036180545 -0.0016561162 -0.0130914515 -0.037315894 0.011703662 -0.015151502 -0.01419218
8.0361696e-11 -0.034431066 0.0009666549 -0.029442605 -0.019242847 -0.02198089 -0.038432684 -0.017058212
0.038708568 -0.01473244 -0.010848719 0.0062576407 0.012727173 -0.027839966 -0.010339404 -0.009366666
0.008512164 -0.018342843 -0.015772637 -0.059683528 -0.038440645 0.05351195 5.965825e-29 -0.018799944
-1.2843195e-37 -0.0053395964 -0.046436083 -0.039308738 -1.5198324e-05 -0.03362749 -3.115602e-24 -0.0028408242
-0.015729614 -0.015806122 -0.0012598056 -0.0008911974 -0.013560268 0.02002752 0.027170965 0.0058012395
0.02604951 -0.037155397 0.0013446609 0.0147271035 -0.038009 0.013496835 -0.035996903 0.012458313
-0.011998765 1.639648e-10 -0.021037098 -0.010193897 0.02239358 0.004526658 0.01482639 -0.019446688
-0.055179134 0.0005597429 0.014328511 0.01078138 -0.034999706 -0.011596237 -0.0047598593 -0.015983652
-7.815592e-21 -0.0010916239 -0.03874565 0.014115619 -0.005002572 0.013462686 -0.06276783 -2.6701457e-13
-0.013062959 0.0022743342 1.33423e-40 1.659692e-39 -0.060121406 0.0071674045 2.1487128e-06 0.015532625
-0.0015969266 -0.008184287 -0.015836844 0.019713318 0.01670287 0.010593516 -0.01762743 7.387524e-18
-0.013489796 0.02168823 -2.5386278e-24 -9.31088e-17 -0.0077211857 0.01262763 -0.0013631516 0.012683635
0.0051331026 -0.026079861 -0.007838225 -0.0024071943 0.026106132 0.033487108 -0.044262115 -0.00025825927
-7.179567e-27 0.0074782213 0.0005972797 -0.016322874 0.02057213 0.00058759196 -0.0067235483 0.014234024
-0.0060979943 -4.5767477e-14 -0.006361417 -2.0309167e-37 -0.020324277 -3.6853996e-22 -0.014719485 -3.330827e-23
-0.018234357 0.0112134 -0.020691728 0.0071085845 -0.048613362 -0.020521192 -0.057480633 -2.182215e-25
-0.059450723 0.010793379 0.051385924 0.009621105 -0.0071284026 0.025430346 0.017514167 -0.0002692845
-0.0026285164 -0.0014023699 0.02368874 -0.066660374 -0.0100341905 -0.026087616 0.002425778 0.043746114
0.017443307 -4.3702235e-05 0.0046729534 -0.018344589 7.08484e-40 -0.026846627 0.027275404 -0.019318953
0.021498006 -0.01002074 -0.007050788 -0.0047836476 -0.01290647 -0.0011127754 -0.049516838 -0.028404836
7.9736594e-05 -0.012181375 -0.028307837 -0.020108111 0.013795275 0.0005966083 0.021426966 -0.06729074
0.032404214 0.008245314 -0.03028041 -0.00062457426 -3.0183732e-05 -0.049895488 -0.020253003 -0.010970725
-0.02034438 -0.021690637 0.0026196395 -1.8606377e-05 -0.05004496 -0.021634964 0.006950664 -0.03944633

pos_mlp.0.weight f4 [32, 1]
00000000: 9b1b 1a3f 5fbb 1a3f 6cab 0226 f638 2c3f
00000010: b6e0 493f 8cd6 cdb6 d609 d02c 948e 2cb0
00000020: 4968 513f 5761 8b3f b3d4 88bf e04d 9c3f
00000030: de95 baa5 8aba 0abf ad7e 142b 409a 4331
00000040: b31b 0000 0dfb dd3e 0705 9533 336c 6a24
00000050: d7be 2530 1ff9 603f 1a88 81bf b636 bca0
00000060: 0233 09bf 238b 40bf a5e5 2dba 5f3a c4be
00000070: 87a2 51bf f0af 41b4 2b77 f235 9639 e4be
0.6019837 0.60442156 4.533513e-16 0.67274415 0.78858507 -6.1344526e-06 5.9128076e-12 -6.277585e-10
0.8179975 1.0889081 -1.0689911 1.2211266 -3.236741e-16 -0.54190886 5.275596e-13 2.8463916e-09
9.937e-42 0.433556 6.939268e-08 5.083231e-17 6.029785e-10 0.8788013 -1.011966 -3.1884643e-19
-0.53593457 -0.75212306 -0.0006633646 -0.38325784 -0.8188862 -1.8038531e-07 1.8065087e-06 -0.44575185

pos_mlp.0.bias f4 [32]
00000000: e8df 003f acb5 6cbd fc5f 5da6 d258 183f
00000010: fb5a 033f c84f af27 d619 56b2 ecb2 24b9
00000020: c7b4 17be 5686 05be 193a 653f 29d4 6cbe
00000030: 2fcc 9dba 49bd 803f ddf4 caad 7b45 f1b9
00000040: cc6f 04a7 8eba 6a3f 177c 63b7 3532 81a4
00000050: 9ef4 aeb6 7afd d4bd 56b0 593f 9977 30a1
00000060: 4752 eb3e 7fec 223f 6ff9 19bb baa1 ea3e
00000070: c534 7a3f ec0d 79ad a026 19b7 8ba3 2d3f
0.50341654 -0.057790443 -7.680486e-16 0.5951053 0.513107 4.8658756e-15 -1.2462314e-08 -0.00015706912
-0.14815055 -0.13039526 0.89541775 -0.23127808 -0.0012039001 1.0057765 -2.3073482e-11 -0.0004601887
-1.8379285e-15 0.9169091 -1.3559146e-05 -5.6029886e-17 -5.2140813e-06 -0.10399909 0.8503469 -5.9789406e-19
0.4596121 0.63642114 -0.0023494621 0.45826513 0.9773677 -1.4157103e-11 -9.128504e-06 0.6782767

pos_mlp.2.weight f4 [32, 32]
00000000: fdfc 473d 5ba9 c3be efe6 fda3 e20b e6bd
00000010: 05e8 46be fa89 eea6 c01c 0080 35af 629c
00000020: 0cfd 78be 1dbf b5be 0b83 733e 7ab1 4ebe
00000030: 717c 9c12 1960 b03e 851b 0000 fc36 1293
00000040: 742e 3605 4bec f53c 1408 e319 0b9e 1523
00000050: 901c 0000 9bfc ccbe cf16 a73e 96ad 549e
00000060: 8d16 ad3e fc16 403e e3ac b59b b86e a73e
00000070: 05da 783e 6165 1d97 c62f 1d95 4d4c ac3e
00000080: b5a6 58bd 322b f2be bb18 21a4 503e 25be
00000090: de84 26be 3e75 c8a6 335c 0e13 0430 5019
000000a0: 2b2a 88be 7a10 90be bec3 ec3e 4d2b bebe
000000b0: 0d23 0d1b 04eb c23e 6a1b 0000 7e1e 0000
000000c0: ef20 0000 d537 1e3e 631b 0000 a892 2223
000000d0: 6d1a 0f9c 1bbc 91be 4c29 a13e 756f 8a9e
000000e0: 6ff0 d23e 4d97 d83e c578 1e0c d245 003e
000000f0: f621 773e e29b f885 341e 0000 07ee ae3e
00000100: 56e5 ecbb e604 37be bbee 77a4 b6a0 563c
00000110: 7c3c 41be cedc d0a6 36f5 879c 756a 4806
00000120: 7467 62be b9f6 afbe 34a5 543e 5014 52be
00000130: b9e4 8010 f98c 683e 931b 0000 1e16 c304
00000140: 3a20 0080 6a0d ef3c a11b 0000 882d 1623
00000150: de5c 7a19 72ab ccbe caf2 b23e 5348 0a1c
00000160: ddf6 9c3e 4e6f c13e 4d57 8785 abc5 b43e
00000170: e4c6 d13e 6c90 0000 4150 951c 0c41 393e
00000180: 6ec6 b53d 0a0a c1be 862f b5a4 09dc 2abd
00000190: 4735 1dbe 6e0a 38a7 811b 0080 fba7 3a18
000001a0: 6e5d 5abe 3100 c9be 4605 cb3e 2a93 c8be
000001b0: 2428 9813 caac bf3e 1164 2d91 8498 2f91
000001c0: 60c4 410d a235 be3d d5eb 6f87 4784 85a2
000001d0: 23d7 ef0b 8d42 c3be b26b a53e ded0 099e
000001e0: badb 283e 51d9 ea3e cd1b 0000 4ac5 1a3e
000001f0: 4f8f cb3e f2e3 3c1b 0422 0000 7743 bf3e
00000200: c15d 8d3e 486c 8e3e e8a5 2c26 a59b 8e3e
00000210: de24 b53e 7c7c 1181 b78d 7115 5f1c 0080
00000220: 5047 943e 578a 863e f36c f0be f21f d93e
00000230: 7c1b 0080 e4d8 79be f8da d59b a43d 3091
00000240: 52cd 8219 96e5 653e 921d 968d 85ae 0223
00000250: afc6 e199 c512 ce3e 5e09 b7be 00be cf9f
00000260: b10e b1be 3ac3 afbe a41b 0080 b67e a0be
00000270: 6ad4 b4be ca1b 0080 641b 0000 319b 86be
00000280: 887e 3d3e d2de b83e 08c7 6b25 3d03 843e
00000290: 71d9 623e 1f06 5f0c c4f3 ef16 bd61 d499
000002a0: 4c22 8e3e 70bd 9a3e 69cd 81be db31 533e
000002b0: a0d3 230e 7499 e5bd 6910 0280 6dfa 0200
000002c0: c6e0 b40d 37fd 8d3d 0e1b 181b 5b79 3da3
000002d0: 2127 7a1c d91c 893e 3fd1 b7be cc86 6120
000002e0: 5471 2fbe 9733 12be baf5 0000 c0b4 0abe
000002f0: 0c70 80be ff3b 8d9c 4bea 9388 6c47 aebe
00000300: 9f4d 40a2 1e24 d1a0 01ff 1581 c8a3 9ea1
00000310: 8ed0 a121 0821 a984 521f 549c f872 1293
00000320: 505e 3ba1 764c a5a2 eda9 bf1f db5c 85a1
00000330: b11c 0000 a501 84a1 ab1b 0000 b01b 0000
00000340: a08d 1515 4311 9d20 bf56 128f 2cbf 570d
00000350: 3bca 0180 efb5 5ca1 41ff 1a20 cf1b 0000
00000360: 547a 79a0 4c48 8020 728d a58d b731 e91f
00000370: e986 821e 022e e110 581b 0080 1abd 6ba1
00000380: 254d 8a3e c6d9 713e a14b 0aa5 30a5 0d3e
00000390: 024d 763e b151 fb8f 421c 0000 5e23 c812
000003a0: 08ad 5c3e d0f8 653e 7fd3 cbbe c7bc 2e3e
000003b0: e51c 0000 8cdd 34bd a51d 0000 7720 0000
000003c0: 3b76 c719 0e9c 8e3e b41c 0000 44c5 19a3
000003d0: e71e 0000 14f1 af3e 96e8 cabe c9f8 19a0
000003e0: ced1 c0be 5a20 55be ef1b 0080 ef27 11be
000003f0: da32 a6be 8d30 e610 101c 0080 7402 d8bd
0.048825253 -0.38215145 -2.7528119e-17 -0.11232735 -0.19424446 -1.6551966e-15 -1.0314e-41 -7.5003577e-22
-0.2431528 -0.3549737 0.23780458 -0.2018489 9.875661e-28 0.34448317 9.872e-42 -1.84549e-27
8.566131e-36 0.0300199 2.3474513e-23 8.110773e-18 1.0246e-41 -0.40036473 0.3263459 -1.1259083e-20
0.33806267 0.18758768 -3.0055664e-22 0.3270166 0.24301918 -5.0857394e-25 -3.1743584e-26 0.33651963
-0.05289336 -0.4729858 -3.4932257e-17 -0.16137052 -0.16261622 -1.3909566e-15 1.7968377e-27 1.0763045e-23
-0.26594672 -0.2813757 0.4624309 -0.3714241 1.1674572e-22 0.38069928 9.834e-42 1.0939e-41
1.1814e-41 0.15450986 9.825e-42 8.813093e-18 -4.7348886e-22 -0.28463826 0.3147682 -1.4657416e-20
0.4119906 0.42302933 1.220822e-31 0.12526634 0.24134049 -2.337907e-35 1.0835e-41 0.34165975
-0.0072294874 -0.17872962 -5.37618e-17 0.01309984 -0.18870729 -1.4492749e-15 -8.996936e-22 3.7694032e-35
-0.22109777 -0.34367922 0.20766145 -0.20515561 5.08395e-29 0.22710027 9.892e-42 4.586459e-36
-1.1561e-41 0.029181201 9.911e-42 8.141158e-18 1.29434515e-23 -0.39974552 0.34950858 4.5753847e-22
0.30657092 0.3778023 -1.2727408e-35 0.3530706 0.40972054 5.1809e-41 9.880738e-22 0.1809122
0.08875738 -0.37702972 -7.8576745e-17 -0.041713748 -0.15352355 -2.5540784e-15 -9.867e-42 2.4124745e-24
-0.21324703 -0.3925796 0.3965246 -0.39174777 3.8409776e-27 0.37436515 -1.3678129e-28 -1.3852063e-28
5.9709094e-31 0.092875734 -1.8049666e-34 -3.6189776e-18 9.2383153e-32 -0.38136712 0.32308728 -7.295912e-21
0.16490069 0.45868924 9.973e-42 0.15114322 0.39757773 1.5624649e-22 1.2203e-41 0.3735616
0.2761059 0.27816987 5.989933e-16 0.27853122 0.3537969 -2.6721607e-38 4.8781356e-26 -1.0178e-41
0.28960657 0.2627742 -0.46958122 0.42407185 -9.86e-42 -0.24399143 -3.53794e-22 -1.3902946e-28
1.3524613e-23 0.22450861 -9.2515825e-31 7.08427e-18 -2.3344702e-23 0.40248695 -0.35749334 -8.798224e-20
-0.3458152 -0.34328634 -9.916e-42 -0.31346673 -0.3531831 -9.969e-42 9.826e-42 -0.26290277
0.18505299 0.36107498 2.0450435e-16 0.2578372 0.2215326 1.7181137e-31 3.876637e-25 -2.1959762e-23
0.2776054 0.30222654 -0.25352028 0.20624487 2.0193195e-30 -0.112109095 -1.89558e-40 2.73507e-40
1.1147469e-30 0.069330625 1.2581887e-22 -1.02714086e-17 8.2768634e-22 0.26779822 -0.3590183 1.9102842e-19
-0.17133075 -0.14277492 8.815e-41 -0.13545513 -0.25085485 -9.346106e-22 -8.902323e-34 -0.34038866
-2.6061944e-18 -3.5429878e-19 -2.7549934e-38 -1.0749849e-18 1.0964988e-18 -3.9762043e-36 -7.0185396e-22 -1.8484475e-27
-6.3482886e-19 -4.4804296e-18 8.1172765e-20 -9.037009e-19 1.0293e-41 -8.945103e-19 9.925e-42 9.932e-42
3.0202033e-26 2.6608257e-19 -7.2150625e-30 6.6482105e-31 -1.64382e-40 -7.4779686e-19 1.3128764e-19 9.976e-42
-2.1131595e-19 2.1731886e-19 -1.0202962e-30 9.8761585e-20 1.3820083e-20 8.881774e-29 -9.809e-42 -7.987137e-19
0.27011982 0.2361823 -1.1995216e-16 0.13832545 0.24052814 -2.4781977e-29 1.0137e-41 1.2630493e-27
0.21550381 0.22458196 -0.39809796 0.170642 1.0365e-41 -0.044156596 1.0634e-41 1.1646e-41
2.062387e-23 0.27853435 1.0297e-41 -8.335919e-18 1.1086e-41 0.34363616 -0.39630574 -1.304192e-19
-0.37660068 -0.20813122 -1.002e-41 -0.1417539 -0.32460672 9.079381e-29 -1.0067e-41 -0.10547343

pos_mlp.2.bias f4 [32]
00000000: 599b 613e ca2d b83c 950c 883e e47d a33e
00000010: 233b 2b3e 5c85 81bd 2ab2 34a2 dd92 343e
00000020: bb74 9c3c 7c9c 053e 51f0 4b3e 4786 4f3e
00000030: c001 1b3e 780f 81bc 7bf7 2d3d d93d bf3d
00000040: 6020 893d 3d30 6e3d db1b f8a9 ed5f 32b0
00000050: 63db 6e22 5c23 3d3d 6649 e03d 7c93 763d
00000060: ec3d ba9d bf12 5e3d add3 f422 d854 0b3e
00000070: 3a63 f7bc 8b78 8cbc 3495 2d3e db8a cd3c
0.22031917 0.022482771 0.265721 0.31931984 0.16721778 -0.063242644 -2.4488868e-18 0.17634149
0.01909863 0.13047975 0.19915892 0.20266066 0.15137386 -0.015754446 0.042472344 0.093379684
0.06695628 0.058151472 -1.10182446e-13 -6.489234e-10 3.2371157e-18 0.0461763 0.109515 0.060199246
-4.9297816e-21 0.054217096 6.6360453e-18 0.13606584 -0.030198682 -0.017147323 0.16951448 0.025090626

dec_trunk.0.weight f4 [128, 288]
00000000: 2e9c 1bbd afce 8eb8 3ad3 4fbc 3511 26bb
00000010: 3af5 e13b 68e8 a33c b1b0 e8bc b61a 16bd
00000020: 4a22 0080 7a1d 6ebc 7c1c 0000 655d e226
00000030: 9cd5 edbb 4078 6b0f af1b 0000 7f28 fc3c
00000040: 0895 d6bc cde0 283d 9b01 2abd 521e 0000
00000050: 8e1b 0080 abd8 303b 141c 0080 8a2c a3ac
00000060: 40fd 93b9 7a36 10bd 7192 31bc e2a4 123c
00000070: c0cd 1f3d 8463 083d 5f1b 0080 37b1 f8b9
00000080: 4001 37b2 bc1d 0000 8710 15bc 33cd 2cbd
00000090: 14fc cb3c a31b 0000 f120 0000 0057 893b
000000a0: 891b 0000 cb0e 53bd ed61 283c c51b 0080
000000b0: 581b 0000 bb66 133c 071d 0080 38f9 39bb
000000c0: fce7 16bc 798a 39bb c66a 5cbd f734 0000
000000d0: 9d1c 1f3d 92ec 39bc 8670 e23a 5d0a 0080
000000e0: 1f8f 68bc 09a6 4d3c 122f 1a3d ec2a 343d
000000f0: 9054 2abd 5095 f43c 0715 c0bc d4ac 683c
00000100: 52e8 e0bc 3e19 e7bc 47ff 3c3d 3420 023d
00000110: 14fd dd3c 31f1 0abd 2f7c 903c 174f a709
00000120: 9e1b 0000 3c6b 2d3d 7870 c53c 83f6 a53c
00000130: c20a b3bb ec03 44bc e50e 22bd fc55 37bd
00000140: d694 5691 6a40 993c 79c2 48bd dceb afbc
00000150: 221c 0000 7546 7a3c 811b 0080 4f33 81bc
00000160: ce12 e23c 1257 27bd e81b 0000 aee7 243d
00000170: b34c 4dbd 033e cabc 051c 0000 5905 59bc
00000180: 7a1d 0000 9e6e f9bb 85b8 b43b d897 0a3d
00000190: cb1e 07bd 75b2 cd3c 3e1c 0080 97bf 16bc
000001a0: 0d5d e2bc 5892 a13c ebd7 4f3d 653d 5931
000001b0: 096a aebc 9f09 21bd 09fe f7bc 0271 e2bc
000001c0: f840 9d3b d22c 1b3c ff2d 3a3b 9256 2bbc
000001d0: bce4 1fbd 4b1d 0080 72c3 0bbb 8c44 1c3d
000001e0: 6d86 363c 771c 0000 3bb4 d7bc 58eb 46bc
000001f0: ae1c 0000 e2e5 93bc b91c 0000 e1c8 04b9
00000200: 398a b1bb ded3 ad3c 766f e0bc 4140 aa3c
00000210: 9339 f0bc 8b4f 283d 4d44 cdbc fd87 a6bc
00000220: c21c 0080 094c eabc aef0 94bc 4a18 52bd
00000230: b80b 0000 b975 1f3c c60c a3bc d01b 0000
00000240: fd90 243d eb4e a63b 4e1c 0080 f31b 0080
00000250: f92d 31bd 89b4 88bc d222 0000 2c95 11bd
00000260: 4154 07bd 3cfd 19bd 95c6 983c fd2b 14bd
00000270: 1e1e 0000 f6a9 dcbc 763c bf3c 351c 0080
00000280: 61ca 32ba 5a35 25bc 111c 0000 c820 0000
00000290: 2a08 ac3c fa95 00bd 77f4 1f3c ff98 8f3a
000002a0: 871c 0000 401e dc3c b45b 31bb 5599 b03b
000002b0: e01b 0000 eaab 81bc 526c 4e3b a522 0000
000002c0: 271c 0000 a11f 85bc b395 d6a7 6d6e 28bd
000002d0: 876b a2bc 2a0e b43c ea1b 0000 f065 f33c
000002e0: 05cc e63c 641a 0000 4248 a53c a91c 0000
000002f0: 6c69 4bbd 9d20 0000 0dde 283d 981b 0080
00000300: f1c0 67bd f21c ba3c 6d22 4dbd cf1b 0080
00000310: 0b14 e7bc 63b2 05bd 7ab3 14bd f61b 0080
00000320: 8750 c63c ca1b 0000 361c 0080 c9e7 2c37
00000330: ab11 663a 6d49 413d c31b 0080 f61e 763c
00000340: 86d7 ffbc bc94 fb3b c9aa 62bd e9f4 aebb
00000350: b69a ae3c 063b 563c 9c1c 0000 e13c afbc
00000360: b5f6 3abd 9a3e c33c fd42 013d 6f1f c2bc
00000370: 681b 0000 d35a 04bd 8e2f afbc da0a 13bd
00000380: 6550 0180 c55d 223d ec0e fb3c 34ef d2bc
00000390: 16a0 023d 9b1c 0000 39b8 223d 9d9a 3f3d
000003a0: c805 1c3c 1935 46bd 4a87 3f3d d205 8c3c
000003b0: 3ccf 51bd 841b 0000 fb5d b5bb fe67 a43b
000003c0: 8538 863a 56cc edbc 08bc 903c 0cbf 9037
000003d0: fb06 0080 8efe 5abd 40bb 303d de2a 5abc
000003e0: 1572 093d 5e12 cf3c d996 f23c f51b 0080
000003f0: 1345 c6bc d1af 0100 0535 1fbb cb7f 17ba
-0.03799074 -6.8095855e-05 -0.012684638 -0.0025339846 0.0068956884 0.02000828 -0.028404566 -0.036646567
-1.23e-41 -0.014533395 1.0218e-41 1.5707215e-15 -0.0072581302 1.1609554e-29 9.931e-42 0.030781029
-0.02619411 0.04123001 -0.041505437 1.0877e-41 -9.885e-42 0.0026984613 -1.0073e-41 -4.6376835e-12
-0.0002822671 -0.035208203 -0.010838137 0.008950444 0.039014578 0.03329803 -9.819e-42 -0.0004743428
-1.0652286e-08 1.0667e-41 -0.009098179 -0.04218788 0.024900474 9.914e-42 1.1817e-41 0.0041912794
9.878e-42 -0.05152778 0.010277254 -9.962e-42 9.809e-42 0.008996661 -1.0413e-41 -0.0028377306
-0.009210583 -0.0028311296 -0.053812765 1.9e-41 0.038845647 -0.011347907 0.0017275966 -3.718e-42
-0.014194279 0.012551793 0.037642546 0.043986246 -0.04158455 0.029856354 -0.023447527 0.014201362
-0.027454529 -0.028210279 0.04614189 0.031768993 0.027098216 -0.033921424 0.01763734 4.0278163e-33
9.907e-42 0.042338595 0.02410148 0.020259148 -0.005463929 -0.011963826 -0.039564986 -0.044759735
-1.6927487e-28 0.018707473 -0.04901359 -0.021474771 1.0092e-41 0.015275587 -9.867e-42 -0.015771536
0.027596857 -0.04085452 1.0011e-41 0.04026001 -0.050121974 -0.024687773 1.0052e-41 -0.013245904
1.0574e-41 -0.0076120635 0.0055151605 0.033836216 -0.03298835 0.025109509 -1.0131e-41 -0.009200952
-0.02763226 0.019723102 0.050743025 3.1612555e-09 -0.021290796 -0.039315816 -0.0302725 -0.027641777
0.0047990046 0.009471135 0.0028408763 -0.010457652 -0.039036497 -1.0508e-41 -0.0021326211 0.03815131
0.011140448 1.0211e-41 -0.026331058 -0.012141071 1.0288e-41 -0.018053953 1.0304e-41 -0.00012663334
-0.0054180888 0.02121919 -0.027396899 0.020782592 -0.029324329 0.041091483 -0.025056982 -0.020328516
-1.0316e-41 -0.02860071 -0.018181171 -0.051292695 4.204e-42 0.009732657 -0.019903552 9.977e-42
0.040177334 0.0050753257 -1.0154e-41 -1.0026e-41 -0.043256734 -0.016687648 1.2491e-41 -0.035542652
-0.033039335 -0.03759502 0.018649379 -0.036174763 1.0804e-41 -0.026936512 0.02334426 -1.0119e-41
-0.0006820318 -0.010083521 1.0068e-41 1.176e-41 0.020999987 -0.03139303 0.009762875 0.001095563
1.0234e-41 0.026869893 -0.0027062716 0.0053893724 1e-41 -0.015829045 0.003149767 1.2428e-41
1.0099e-41 -0.016250433 -5.9559236e-15 -0.041120935 -0.019826664 0.02197941 1.0014e-41 0.029711694
0.028173456 9.467e-42 0.020176057 1.0281e-41 -0.049661085 1.17e-41 0.04122739 -9.899e-42
-0.056580488 0.02271888 -0.05008166 -9.976e-42 -0.0282078 -0.032640826 -0.036303975 -1.003e-41
0.02420832 9.969e-42 -1.012e-41 1.0305966e-05 0.00087764364 0.047189165 -9.959e-42 0.01502203
-0.0312307 0.0076776426 -0.055338655 -0.005339254 0.021314006 0.013075596 1.0263e-41 -0.021391334
-0.045645434 0.023833562 0.031558026 -0.02369663 9.832e-42 -0.03231318 -0.02138498 -0.03589902
-1.20676e-40 0.039640207 0.030646764 -0.025748827 0.03189095 1.0262e-41 0.03972647 0.04677831
0.009522863 -0.04839048 0.04675988 0.01709262 -0.051223025 9.871e-42 -0.005534885 0.0050172796
0.0010240233 -0.029028099 0.017667785 1.72551e-05 -2.504e-42 -0.05346542 0.043147326 -0.013315884
0.033556063 0.025277313 0.029612945 -1.0029e-41 -0.024202859 1.54907e-40 -0.0024293077 -0.00057792355

dec_trunk.0.bias f4 [128]
00000000: 0db6 b63b 3209 c73c a180 583c 1149 a2bc
00000010: 1fd8 6fbc f6c1 a93c 1b17 d9bb 4d68 5cae
00000020: e59b 6bbd d9e0 dc8d 2a85 88b9 5938 fd8d
00000030: ba3e 20bc d890 dbbc 3e6f 14bd 7fb7 0280
00000040: a0ce bb3c 0b4e 0507 dcb0 8b8a 6344 aabb
00000050: 3d29 52bd ee5e a73c b9a1 9d05 9540 32bd
00000060: 9d1b 0000 006c 40b9 a120 0490 4a49 bf16
00000070: eb39 0d3b c18f 1718 0de6 65b8 fc3e 493d
00000080: 1de6 87ba c9b5 2e3d 5ed2 ae93 0cde 1abc
00000090: 271a 82bc 4445 29bd dd40 023d e8df 7f08
000000a0: b738 993c 282c 8588 2ed5 3188 4859 b50a
000000b0: 9856 c63c 456d 5ab3 9661 64bc 19c7 0080
000000c0: ab44 e5bc aa6e 56bd 5e1b 0000 783d b23c
000000d0: 9b5b 01bd c996 7f90 7bf0 3c05 78ab 9c01
000000e0: 3c1c 0000 1dde 03bc 96ac 122b 9c31 11bd
000000f0: 852f d23c e492 f83c b88e 1abd 7c49 19bb
00000100: 8edf 7c3c c207 0080 2224 85bb 2283 803c
00000110: 830b 7f8e 7f59 7b8f 1e59 e03b 5abb 268a
00000120: 4399 840d a3a7 8a16 5076 a4bc d51b 0000
00000130: e7fb f23c b4c1 f8bc d450 663b e513 ef27
00000140: 6e29 8cbc 532d 812f 4db1 7fbb 94b4 d094
00000150: 289c b1bc 8988 ec3b ff54 53bd 002b 3cbb
00000160: 6aac c898 a155 a83c a261 058e 2ad2 a33b
00000170: c00c d990 4aa7 d0b7 4a08 393a 1ea0 1395
00000180: 2bff 1012 77e0 43bc 3894 7f38 6a5a 0000
00000190: a865 bdbc ee3c b4bc 66b5 e43c be3c 843c
000001a0: 08a3 d9bc 1b41 55b2 2f76 943b bc65 033d
000001b0: cd45 36bc b35f 9687 c0b8 fb3c 8239 95b9
000001c0: dac5 b5bb 6e43 b30c f14a c73c d6a3 0d3c
000001d0: 201c 0080 db9b 0ebd c8cd 82bc 9822 0d0c
000001e0: 41b0 033d 121d 0000 a7af 1400 0546 fc3c
000001f0: feb5 fdba 1e27 b23c 20d7 c0bc 70e3 1cbd
0.0055759014 0.024296377 0.013214261 -0.019810231 -0.01463893 0.02072237 -0.006625069 -5.0114846e-11
-0.05752172 -1.3612677e-30 -0.00026039156 -1.5605894e-30 -0.00978058 -0.026802465 -0.0362389 -2.49497e-40
0.022925675 1.0028743e-34 -1.345174e-32 -0.0051961406 -0.05130886 0.020431008 1.4823617e-35 -0.04351862
9.906e-42 -0.0001835078 -2.6057546e-29 3.0903966e-25 0.0021549414 1.958887e-24 -5.4812106e-05 0.049132332
-0.0010368262 0.042653833 -4.4131213e-27 -0.009452354 -0.015881611 -0.041325822 0.03180014 7.699947e-34
0.018703802 -8.015027e-34 -5.351459e-34 1.746325e-32 0.024211213 -5.085646e-08 -0.013939282 -7.1423e-41
-0.027986845 -0.05235163 9.817e-42 0.021757826 -0.031581502 -5.0406043e-29 8.883887e-36 5.7551395e-38
1.0129e-41 -0.008048561 5.210913e-13 -0.0354477 0.025657425 0.03034348 -0.037733763 -0.0023389747
0.015434159 -2.783e-42 -0.0040631453 0.015687529 -3.143672e-30 -1.2392492e-29 0.006846561 -8.027846e-33
8.1720245e-31 2.2400896e-25 -0.020075947 9.984e-42 0.029661132 -0.030365802 0.0035143392 6.6357395e-15
-0.017109599 2.3497168e-10 -0.0039015592 -2.1073858e-26 -0.021680906 0.0072184247 -0.05159473 -0.0028712153
-5.1872882e-24 0.020548644 -1.6440524e-30 0.0049994187 -8.561105e-29 -2.4873432e-05 0.0007058425 -2.9812724e-26
4.5752907e-28 -0.011955372 6.0934777e-05 3.2434e-41 -0.023119763 -0.02200171 0.027918529 0.016142245
-0.026566997 -1.2413035e-08 0.00453069 0.032079443 -0.01112504 -2.2625738e-34 0.030727744 -0.0002846234
-0.0055472674 2.76199e-31 0.024327727 0.008645019 -1.009e-41 -0.034816604 -0.015967265 1.0872655e-31
0.03215051 1.0428e-41 1.899722e-39 0.030795107 -0.0019356606 0.021747168 -0.02354008 -0.03830284
