pointnet/weights_per_bundle_ratio025/CC_best.pth (torch, 359088 bytes, 17 tensors)

t_grid f4 [100]
000000 00 00 00 00 b5 7e 25 3c b5 7e a5 3c 10 3e f8 3c
       0.0 0.01010101 0.02020202 0.030303031
000010 b5 7e 25 3d 62 de 4e 3d 10 3e 78 3d de ce 90 3d
       0.04040404 0.05050505 0.060606062 0.07070707
000020 b5 7e a5 3d 8c 2e ba 3d 62 de ce 3d 39 8e e3 3d
       0.08080808 0.09090909 0.1010101 0.11111111
000030 10 3e f8 3d f3 76 06 3e de ce 10 3e ca 26 1b 3e
       0.121212125 0.13131313 0.14141414 0.15151516
000040 b5 7e 25 3e a0 d6 2f 3e 8c 2e 3a 3e 77 86 44 3e
       0.16161616 0.17171717 0.18181819 0.1919192
000050 62 de 4e 3e 4e 36 59 3e 39 8e 63 3e 24 e6 6d 3e
       0.2020202 0.21212122 0.22222222 0.23232323
000060 10 3e 78 3e fd 4a 81 3e f3 76 86 3e e9 a2 8b 3e
       0.24242425 0.25252524 0.26262626 0.27272728
000070 de ce 90 3e d4 fa 95 3e ca 26 9b 3e bf 52 a0 3e
       0.28282827 0.2929293 0.3030303 0.3131313
000080 b5 7e a5 3e ab aa aa 3e a0 d6 af 3e 96 02 b5 3e
       0.32323232 0.33333334 0.34343433 0.35353535
000090 8c 2e ba 3e 81 5a bf 3e 77 86 c4 3e 6d b2 c9 3e
       0.36363637 0.37373737 0.3838384 0.3939394
0000a0 62 de ce 3e 58 0a d4 3e 4e 36 d9 3e 43 62 de 3e
       0.4040404 0.41414142 0.42424244 0.43434343
0000b0 39 8e e3 3e 2f ba e8 3e 24 e6 ed 3e 1a 12 f3 3e
       0.44444445 0.45454547 0.46464646 0.47474748
0000c0 10 3e f8 3e 05 6a fd 3e fd 4a 01 3f f8 e0 03 3f
       0.4848485 0.4949495 0.5050505 0.5151515
0000d0 f3 76 06 3f ee 0c 09 3f e9 a2 0b 3f e4 38 0e 3f
       0.5252525 0.53535354 0.54545456 0.5555556
0000e0 de ce 10 3f d9 64 13 3f d4 fa 15 3f cf 90 18 3f
       0.56565654 0.57575756 0.5858586 0.5959596
0000f0 ca 26 1b 3f c5 bc 1d 3f bf 52 20 3f ba e8 22 3f
       0.6060606 0.61616164 0.6262626 0.6363636
000100 b5 7e 25 3f b0 14 28 3f ab aa 2a 3f a6 40 2d 3f
       0.64646465 0.65656567 0.6666667 0.6767677
000110 a0 d6 2f 3f 9b 6c 32 3f 96 02 35 3f 91 98 37 3f
       0.68686867 0.6969697 0.7070707 0.7171717
000120 8c 2e 3a 3f 86 c4 3c 3f 81 5a 3f 3f 7c f0 41 3f
       0.72727275 0.7373737 0.74747473 0.75757575
000130 77 86 44 3f 72 1c 47 3f 6d b2 49 3f 67 48 4c 3f
       0.7676768 0.7777778 0.7878788 0.7979798
000140 62 de 4e 3f 5d 74 51 3f 58 0a 54 3f 53 a0 56 3f
       0.8080808 0.8181818 0.82828283 0.83838385
000150 4e 36 59 3f 48 cc 5b 3f 43 62 5e 3f 3e f8 60 3f
       0.8484849 0.85858583 0.86868685 0.8787879
000160 39 8e 63 3f 34 24 66 3f 2f ba 68 3f 29 50 6b 3f
       0.8888889 0.8989899 0.90909094 0.9191919
000170 24 e6 6d 3f 1f 7c 70 3f 1a 12 73 3f 15 a8 75 3f
       0.9292929 0.93939394 0.94949496 0.959596
000180 10 3e 78 3f 0a d4 7a 3f 05 6a 7d 3f 00 00 80 3f
       0.969697 0.97979796 0.989899 1.0

encoder.mlp.0.weight f4 [64, 3]
000000 30 68 86 be a0 ef b3 3d c6 14 9f 3e 9b 7e 67 3e
       -0.26251364 0.08785939 0.31070536 0.2260689
000010 ee 0d 01 3f 26 bc f6 be a3 c5 ac be a6 8a e7 3e
       0.5041188 -0.4819042 -0.33744535 0.45222968
000020 a4 3f 12 bf 0f be f6 3c 8f 71 54 3e cc 38 46 3e
       -0.5712836 0.030119924 0.20746444 0.19357604
000030 69 de 29 bd fd 06 f3 be 13 f1 36 3e 9d 71 51 3e
       -0.041471872 -0.4746627 0.178654 0.20453496
000040 5f eb 14 3f d4 19 24 3d b2 9e df bd 80 fc 0b be
       0.5817165 0.040063694 -0.109189406 -0.1367054
000050 9b e7 f3 be 4a ba 0e 3f 19 a3 57 be 55 25 96 3c
       -0.47637638 0.55753005 -0.2105831 0.018328348
000060 ee 47 b6 3d b0 36 4f be bf df f1 3e 68 60 11 3f
       0.08900438 -0.20235705 0.47241017 0.5678773
000070 8c ca 3d 3e 8b 9c 02 bf c0 16 b9 bd 29 68 2e 3e
       0.18534297 -0.51020116 -0.09037542 0.17031921
000080 4f 6a ad be 77 68 8d bd 66 fd 2e 3e 70 88 00 3f
       -0.3387017 -0.06904691 0.17088851 0.5020819
000090 6c c3 64 be 85 66 0a bf b0 20 1c 3e 45 6b e4 3e
       -0.22340173 -0.5406268 0.15246844 0.4461309
0000a0 7e 26 05 3f 02 0f df 3c b7 74 87 3e e6 ab 8f 3e
       0.5201186 0.027228836 0.26456234 0.28060836
0000b0 a8 8f 0a 3f 5d 0f 9a 3d 02 53 6f be 9a ce a7 3e
       0.5412545 0.075224616 -0.23371509 0.32774812
0000c0 12 98 e8 be b8 f6 eb 3e c0 ba 22 3e a7 02 82 3c
       -0.4542852 0.4608667 0.15891552 0.015870405
0000d0 0f 9f 9c be 80 6f 93 bd fb fd d1 be 1c 40 fd be
       -0.30590102 -0.07199001 -0.41014084 -0.49462974
0000e0 ed a4 9a 3e 95 56 f0 be 10 71 cf be c9 0e f6 3e
       0.30203953 -0.46941057 -0.40515947 0.48058155
0000f0 9b 6a f2 3e b3 a4 3f be 97 60 0c bf ab 5d 14 bf
       0.4734696 -0.18715172 -0.54834884 -0.57955426
000100 e3 e4 db be 02 94 78 3e ab b4 18 bf 80 21 c2 3e
       -0.42948064 0.2427521 -0.5965068 0.37916183
000110 22 48 55 3c f2 3e e3 3b 1f 8e 98 bc 88 22 26 be
       0.013017686 0.006934994 -0.018622456 -0.1622411
000120 f4 83 94 3e 54 de 13 3e 65 a8 19 3e 5d 04 08 be
       0.29006922 0.1444028 0.15005644 -0.13282914
000130 ff 57 a7 3e cd bc 14 3e 3e 82 92 be 1b 6f d0 3d
       0.32684323 0.14525147 -0.28614992 0.10177442
000140 29 a6 a3 be 38 46 36 3a 77 53 d8 3e c4 85 eb bc
       -0.31962708 0.00069532124 0.4225118 -0.028750308
000150 bf 90 0f bf 9c 00 79 be f7 81 c6 bd cd 87 dc 3e
       -0.5608024 -0.24316639 -0.096927576 0.43072358
000160 a6 ff ca bc 70 b5 51 be 24 95 08 3f b0 b7 ff be
       -0.024780106 -0.20479369 0.5335257 -0.4994483
000170 cd 5c af be f5 51 b7 be 12 10 be 3d ca bd c2 3e
       -0.3425049 -0.35804716 0.09280409 0.38035423
000180 73 49 28 bd c1 73 e9 39 de 42 da 3e 63 25 8e be
       -0.04108567 0.00044527467 0.4262914 -0.277629
000190 dc fb 06 bd de 50 e4 3e b8 11 d2 3e 96 ec c0 3e
       -0.032955036 0.44592947 0.41029143 0.376805
0001a0 93 7a be bd 4d c6 d6 3d 2b e2 26 3e 54 dd cf 3e
       -0.09300723 0.104870416 0.16297214 0.40598547
0001b0 7b 75 95 bd cd 10 cd bd 8c 0f 05 3e 5f 3e 32 3e
       -0.07297798 -0.1001297 0.12994212 0.17406605
0001c0 23 49 0b 3f d0 e6 66 be 1e a0 05 bf 80 ff db be
       0.5440847 -0.22548985 -0.52197444 -0.4296837
0001d0 7a 1e 14 bd 05 a4 bf 3d f4 67 93 3d ad e4 e9 be
       -0.036161877 0.09357456 0.07197562 -0.45682278
0001e0 79 e9 b9 be 54 48 c3 3e 50 8f a2 bd 9b 5a b0 bd
       -0.36310938 0.3814112 -0.07937491 -0.086110316
0001f0 6f c8 03 3f 3a c9 0d 3f c4 95 ab be 9c 44 0e bf
       0.5147771 0.5538517 -0.335127 -0.5557344
000200 56 00 a3 be 89 28 04 3f 3f 00 13 bf 43 29 d3 3e
       -0.31836194 0.5162435 -0.5742225 0.41242418
000210 96 89 29 3d 62 fc f5 3d bd a4 bc 3c 86 4a 07 bf
       0.041390978 0.12011029 0.023027772 -0.5284809
000220 18 8e be bd e3 75 66 be 77 2e 66 3e b0 a7 8c be
       -0.09304446 -0.22505908 0.22478662 -0.27471685
000230 5f e4 9e 3e 41 ed 73 3e a4 8d e9 be 5d 59 ed be
       0.31033608 0.23820974 -0.45615876 -0.4635724
000240 9e 90 09 3f 9e e0 3e bd 5b be 16 3e db 37 ee 3b
       0.53736293 -0.04660093 0.14721052 0.007269842
000250 c8 85 6a bc f8 31 c3 3d 3c d7 04 bf 34 b2 dc 3e
       -0.0143141225 0.09531015 -0.5189092 0.43104708
000260 f8 ad b3 3e a8 d6 17 bf 62 e4 00 3f b0 6c 0a bf
       0.35093665 -0.59311914 0.50348485 -0.54072094
000270 86 fd 8b be 87 90 ad be 67 8b a0 3e 3e c0 f9 3e
       -0.2734186 -0.33899328 0.31356356 0.48779482
000280 5b 40 0c bf 5a 21 dd 3e 61 ca 96 be 2b 80 46 be
       -0.547857 0.43189508 -0.29451278 -0.1938483
000290 1a 22 08 3f f4 5e 50 3e 29 2a b4 be fa fc d9 be
       0.53177035 0.20348722 -0.35188416 -0.42575818
0002a0 48 b1 37 3e 30 f5 99 be c3 88 00 3f 33 d6 83 be
       0.17938721 -0.30069876 0.5020868 -0.2574936
0002b0 92 4d b3 3e b5 5f f9 be e2 55 0b bf c4 0e 87 bd
       0.3502012 -0.4870583 -0.5442792 -0.06594613
0002c0 a8 bc 05 3e a1 29 12 bf 66 68 00 bf ab a0 c1 be
       0.13060248 -0.5709477 -0.501593 -0.37817892
0002d0 cb fe 0e 3f 37 d8 0d 3f e6 25 79 3e 66 8b 89 be
       0.55857533 0.5540804 0.24330863 -0.26864165
0002e0 29 dd 7f 3e 59 67 5d 3e 86 2a 08 3f 1c c0 68 3e
       0.2498671 0.21621455 0.53189886 0.22729534
0002f0 e8 5e f0 3e 6d c0 c5 3d 58 c2 97 3e a0 1c 11 3f
       0.46947408 0.09655843 0.2964046 0.56684303

encoder.mlp.0.bias f4 [64]
000000 37 57 d8 bd f2 19 ae 3e e0 88 79 3e 7c 7d 94 be
       -0.1056351 0.3400417 0.2436862 -0.29001987
000010 54 e2 f2 3a 26 56 8e 3d 30 f3 a2 3e 0b 98 55 be
       0.0018530586 0.06950025 0.31826162 -0.20858781
000020 c2 a5 60 be 11 40 7e 3d 96 b6 f8 3c 5f 73 14 bd
       -0.21938232 0.062072817 0.030360501 -0.03624284
000030 66 d0 19 3e a4 e0 64 bd 99 dd 24 be 28 a4 06 be
       0.15020904 -0.055878296 -0.16100158 -0.13148558
000040 b5 59 06 be 7f 6f 1d be 69 76 89 3d e1 a5 ca be
       -0.13120158 -0.15374564 0.06712038 -0.3957968
000050 3c b2 c6 3d 7d 01 ab bd bd 90 38 3e 3f cf 39 be
       0.09701964 -0.08349893 0.18023963 -0.18145464
000060 3a dc 5a be 27 88 b9 bd b4 fd c5 3d 7e 5c e0 3d
       -0.21373072 -0.09059172 0.09667531 0.109551415
000070 f6 a6 16 3e d4 e6 39 be 3f 9f f0 3d 40 ee a5 3e
       0.14712128 -0.1815446 0.11749124 0.32408333
000080 83 c6 87 3d 0a 40 bf be 17 3e 70 3e 7a 0c d2 3d
       0.0662966 -0.37353545 0.23461185 0.10256286
000090 79 c0 d7 bd 31 34 5c be 7b f1 e3 3d 13 27 90 3e
       -0.10534758 -0.21504284 0.11130043 0.2815481
0000a0 19 d9 4b 3e 47 3c 2b be a3 ba 9f be 65 65 3b be
       0.19907035 -0.16722213 -0.3119708 -0.18300398
0000b0 bf 81 03 be 45 88 9b be c4 fd da bd f0 b9 c1 be
       -0.12842463 -0.30377403 -0.10692933 -0.37837172
0000c0 88 e4 5a 3e e8 5a 7a 3e 35 2b 08 be 73 8d a7 be
       0.2137624 0.2444874 -0.13297732 -0.32725105
0000d0 7d ee 83 3e 2f 25 85 3e 7b 77 42 be 7e d4 5f be
       0.2576789 0.2600493 -0.1899089 -0.21858403
0000e0 36 60 b5 be dd f2 68 be 9c 43 1a 3e 47 9f 8f 3e
       -0.35424966 -0.22748895 0.15064853 0.28051206
0000f0 5e 90 41 3c ec ab c4 be 9b 10 de 3d f0 07 5c 3c
       0.011814205 -0.38412416 0.10843011 0.013429627

encoder.mlp.2.weight f4 [128, 64]
000000 3f 3f 57 bd 06 41 81 bd 3e b9 00 bd 2c a0 b8 bb
       -0.05255055 -0.0631123 -0.03142666 -0.0056343284
000010 d1 49 49 3c 19 cf f1 bc f4 ee d7 bc 4d 58 c3 3d
       0.012285666 -0.029517697 -0.026359059 0.095383264
000020 52 38 9e 3d 3a c6 2c 3d 95 c5 b4 3d 18 c2 7e 3c
       0.07725586 0.04218123 0.08826748 0.015549205
000030 12 b3 95 bb 3b 6e 1b 3d be e9 59 bd cb 1d 25 bd
       -0.004568466 0.03794692 -0.05320143 -0.040311616
000040 b5 93 99 3d 23 41 60 bd aa 4f 46 3d 2e e1 e6 3b
       0.07498876 -0.05474962 0.048415817 0.0070458865
000050 a8 4c 8d 3d 40 a2 22 3d f3 54 c8 3d 3f c3 41 3d
       0.06899387 0.039705515 0.09781828 0.04730534
000060 35 b2 61 3d b8 dd b1 3c 87 7f 09 3d fc ad 95 3d
       0.055101592 0.021712169 0.033568885 0.073085755
000070 c2 07 42 bc c5 9c 0d 3e 0c 54 eb 3d 91 5d f2 bd
       -0.01184267 0.13829334 0.1149064 -0.118342526
000080 44 c5 18 3d 79 f6 29 be c8 fd 06 39 d8 5d 23 3d
       0.037297502 -0.16597928 0.00012873777 0.03988442
000090 01 79 1c bd 9e 6e 8b bd 5b 69 df bd 11 22 0b 3d
       -0.038201336 -0.06808208 -0.10908767 0.033968035
0000a0 f9 4b 5b bd 8f f2 b1 bd d7 81 24 3d 34 aa 11 3b
       -0.05353925 -0.086888425 0.040162887 0.0022226693
0000b0 45 29 a9 bd c9 8e 83 3d 12 37 18 bd 03 f5 55 3d
       -0.08259825 0.064237185 -0.037161894 0.052235615
0000c0 40 e2 51 bc 5e 50 8b bd 81 25 57 bd 1b 08 5e bd
       -0.01281029 -0.06802438 -0.052526 -0.05420695
0000d0 45 9c 8f bd 2e 46 a6 bd 79 04 6d bd 99 79 ab bb
       -0.07012228 -0.081188545 -0.057865594 -0.0052330014
0000e0 00 e0 96 3c 3b d7 ce bc bc 2b 3c bd 0c 40 6f 3d
       0.018417358 -0.025249114 -0.045940146 0.05841069
0000f0 ea ad ee 3d 7f b8 35 bd 4f 74 c3 bd b8 49 50 3d
       0.11654265 -0.044365402 -0.095436685 0.050851554
000100 fd ba 9a 3d ff 03 8f 3d 2d 82 10 3e f2 a4 4d bc
       0.075551964 0.06983184 0.14112158 -0.012551533
000110 8e 00 5a 3c 16 12 9b 3c d2 a7 db 3c f9 4e 3b 3c
       0.013305796 0.018929522 0.026813421 0.011432403
000120 a5 f2 11 ba 1a 4f 3e bd 64 43 8f 3d 0b 49 88 bd
       -0.0005567468 -0.046462156 0.069952756 -0.06654557
000130 c1 96 21 3d 78 9b 09 be d6 ab 28 bd 0f 63 75 bc
       0.03945041 -0.13438213 -0.0411795 -0.014977231
000140 7f 64 87 3d 26 05 1d bd 1a ba b8 bd 67 a9 ae bd
       0.06610965 -0.038334988 -0.09019871 -0.08528405
000150 8e 90 05 3d 9b 4a e2 3c d4 bf 89 3d 4e 36 81 bb
       0.03260856 0.027623465 0.067260414 -0.003943241
000160 ba c5 6b bd 4d bb 00 3e 47 75 94 3b 35 f9 1e 3e
       -0.057561614 0.1257145 0.004530582 0.15524752
000170 d9 3e 43 bc a4 2b cc 3b 73 3f 9c 3c d7 e1 d9 3d
       -0.0119168395 0.0062307883 0.019073224 0.10638779
000180 92 e8 57 3d 0b 3c 40 bd af 64 8d bd 7f d5 64 bd
       0.05271203 -0.04693226 -0.069039695 -0.05586767
000190 27 f0 e3 3c 0f c2 7a 3d c3 3a a8 bd 1b 3e ac bd
       0.027824474 0.061220225 -0.08214333 -0.08410283
0001a0 21 e1 a6 bb 26 5f b3 bd 1f c6 e2 3c e5 00 8f 3b
       -0.0050927554 -0.087583825 0.027682362 0.0043641203
0001b0 8f f1 98 3a b0 89 9d 3c 7f 46 6a 3c 7e 5b 20 3b
       0.001166867 0.019230694 0.014299034 0.0024468596
0001c0 7b 80 a4 3c 0f 29 b7 3c 59 3d a4 3d 25 94 34 bd
       0.020080796 0.022358445 0.08019514 -0.044086594
0001d0 d3 9e 21 3d 4a 52 26 3c ae 9a c8 3d b1 f2 51 3d
       0.039458107 0.010151455 0.09795128 0.05125684
0001e0 a9 22 05 3c b5 6a b9 3d f5 91 82 bd c4 68 6e bd
       0.008125939 0.09053556 -0.06375495 -0.05820538
0001f0 83 55 22 be d7 3f 2d bd c9 79 51 bd 72 17 11 be
       -0.15852933 -0.04229721 -0.051141534 -0.141691
000200 92 de 3d 3d ea fc 6d 3d e9 2e 9a 3b ae 4b e2 3c
       0.046354838 0.058102526 0.004705299 0.027623978
000210 b5 b7 8f bc 50 26 06 3c 0c 81 ca 3c 80 a7 86 3d
       -0.017543653 0.008187845 0.024719737 0.06574917
000220 7e 0d 4f 3d e6 31 b0 b9 e1 09 03 3d c7 76 0f bd
       0.050549977 -0.00033606513 0.031991843 -0.035025384
000230 55 14 92 3c 45 e2 9a bd 6e 5a 95 bc 36 b8 b3 3d
       0.01783196 -0.07562689 -0.018231597 0.0877537
000240 1d d4 ae bd 75 c5 10 3c f3 3e c3 bb c8 8c bb bd
       -0.08536551 0.00883614 -0.005958432 -0.09157711
000250 7d 05 d4 3d 21 ed 3e 3d e8 15 8d 3c 5a 36 fc 3c
       0.10352609 0.046612862 0.01722236 0.030787636
000260 55 8b 73 3c bc 9d bd bb b7 5e 8c 3c 94 90 b5 3c
       0.014864762 -0.0057866257 0.017135007 0.022163667
000270 47 70 1a 3d aa f5 0e bd 0c f4 83 bc 11 71 1e 3d
       0.037704732 -0.034902252 -0.016107582 0.038682047
000280 61 c5 cc bd 42 ed ce 3d b6 da 40 bd b1 41 9b 3d
       -0.099985845 0.10103847 -0.04708358 0.07580889
000290 fc 7a a5 3d 37 82 b3 bc 69 49 aa bd c3 bf 73 3d
       0.08080098 -0.021912677 -0.08314783 0.05950905
0002a0 6b 43 68 3d 82 90 1b bd fa 81 b7 bc aa 62 f1 bd
       0.05670492 -0.03797961 -0.022400845 -0.11786397
0002b0 ac 99 e5 bb 49 03 1e bd 77 d0 7a bc 76 e9 b3 bd
       -0.0070068445 -0.03857735 -0.015308491 -0.087847635
0002c0 05 5f c4 3d dc 63 39 39 d6 59 9e bd eb 97 c7 3c
       0.09588436 0.00017680175 -0.077319786 0.024364432
0002d0 11 79 9d bd 60 77 0d bd 38 ea c2 bc 0f 0a 52 bd
       -0.07689107 -0.034537673 -0.023793325 -0.051279124
0002e0 28 55 cc 3d 42 da 2b 3c 2c e4 aa 3c 16 b4 e6 3a
       0.0997718 0.010489048 0.020860754 0.0017601277
0002f0 58 9a 8a 3d 11 6f 6c bb ae 73 3a bd c9 19 31 bd
       0.0676772 -0.0036076943 -0.045520477 -0.04323748
000300 ae 6a 89 3d 3a de 68 3d 27 c9 c5 bc b8 81 9c 3c
       0.06709801 0.056852557 -0.024143768 0.019104823
000310 bc 45 a7 3d 06 ef 11 3d 23 73 ee 3c e0 67 b1 bd
       0.08167598 0.03562834 0.029107636 -0.08662391
000320 d3 54 e5 bd 71 df 05 3e cd 4e 47 3b 3b ad 12 3c
       -0.111978196 0.13073517 0.003041196 0.008952434
000330 f7 8c 95 bd d6 59 ff 3d a4 9d 46 bd c6 ac a8 3d
       -0.073022775 0.12468307 -0.04849018 0.08236079
000340 6f 28 63 3c 46 aa b4 bd b0 93 f2 bd 8d a5 83 3c
       0.013864621 -0.088215396 -0.118445754 0.016070152
000350 12 0c af bc cf 40 25 bc 4b e6 bc 3c b0 0f ff 3c
       -0.02136806 -0.010086252 0.023059031 0.03113541
000360 89 eb fb bb 91 15 a2 3c b7 84 d9 bb fe 32 d9 bc
       -0.00768799 0.019785674 -0.0066381353 -0.026513573
000370 95 5c 15 bc ab 0a ae 3d b7 8d b4 bd 92 ba a0 bd
       -0.009116312 0.084981285 -0.088160925 -0.078480855
000380 23 91 40 bd fa 01 ac 3d 66 5f ed 3d 8e 52 e8 3d
       -0.047013413 0.083988145 0.115904614 0.11343871
000390 03 03 83 3d 7f e8 a3 bc 8d 9a 93 bd 4e 47 26 bd
       0.06397059 -0.020008324 -0.072072126 -0.040595345
0003a0 a7 34 bf bc 11 77 37 bd 6c c7 80 3c be c4 03 3e
       -0.023340536 -0.044791285 0.015720092 0.1286802
0003b0 bc 55 49 3c c7 ef 7f bd 03 15 d0 bd 87 7a c3 bd
       0.012288507 -0.06248453 -0.10160258 -0.095448546
0003c0 b8 36 a1 bd 6b 83 58 bd 02 89 90 bc 1f c1 8a 3d
       -0.07871765 -0.052859705 -0.017643455 0.06775116
0003d0 a2 9a 2f bd 0c 4f cb bc 88 af 52 bc 48 9a 7a 3d
       -0.04287208 -0.024817966 -0.012859233 0.06118229
0003e0 f5 0a cf 3d 29 c3 ba 3c 0a 83 f6 bd 64 fd 1f bd
       0.10109512 0.022798138 -0.120367125 -0.03906001
0003f0 7a af 05 3e 3e 34 24 bd 38 90 82 3d 8b 9a 97 3d
       0.1305522 -0.040088885 0.06375164 0.074025236

encoder.mlp.2.bias f4 [128]
000000 96 47 65 bd e2 07 82 3c b7 13 a4 bc 70 ab 80 bd
       -0.055976473 0.0158729 -0.020028932 -0.06282699
000010 ea 84 1f bd 13 6e 1b bd e6 66 2a bc fd 92 1e bb
       -0.038945116 -0.03794677 -0.010400509 -0.0024196499
000020 39 58 63 bd 06 57 90 3c c9 c2 1a bd 03 2e 5e 3c
       -0.055504058 0.017619621 -0.037783418 0.013560775
000030 2a 2b 36 3d 3c c6 43 bd 5b fd 1a bb ce ec 10 3d
       0.04447476 -0.047796473 -0.0023649547 0.035382085
000040 44 47 cc 3c dc 46 50 3d 8e fa d7 3c 09 7f db 3c
       0.024936326 0.050848827 0.026364591 0.026793974
000050 4b 13 0f bd c4 e6 4b bd 8a bf 2f bd 1d 6d 5b bd
       -0.03493051 -0.049780622 -0.042907275 -0.053570855
000060 08 28 69 bc b3 9d 0e 3d 05 06 86 bd 2a f0 00 3d
       -0.014230736 0.034818362 -0.06544117 0.03147904
000070 4e eb ca 3c 1a 33 1e 3d 50 6e b9 ba 52 08 86 3c
       0.024770405 0.038622953 -0.0014147256 0.01636139
000080 50 72 15 a1 57 6e ad 3b 51 28 bf bc 0c 30 aa 3c
       -5.0634455e-19 0.0052926946 -0.023334654 0.020774864
000090 d0 70 18 3c 5a 8a 14 3d 39 f3 0a 3d 40 6b a8 3c
       0.00930424 0.036264755 0.03392336 0.020558953
0000a0 82 4b 9b bd 64 ec 05 bc 12 b2 99 3c 9c b3 0d 3d
       -0.07582761 -0.008174036 0.018761668 0.034595117
0000b0 a7 12 5c bd de 47 14 bd dc 82 ea bd 6a a2 d3 bc
       -0.053728726 -0.03620135 -0.11450741 -0.025834281
0000c0 64 ab e7 bc a7 a2 12 bd fd 70 fc 3c 2b c5 38 3d
       -0.028279968 -0.03579965 0.030815596 0.04510991
0000d0 37 79 18 3d 2d bc 30 3d 23 8a e7 3c 16 69 af 3d
       0.037224974 0.04314821 0.02826411 0.085649654
0000e0 b2 6e 98 3c 39 bb 47 bd e9 eb 90 3b 13 ad 7d bc
       0.018607471 -0.048762534 0.004422654 -0.015483159
0000f0 a7 c9 2c 3c 4b 11 fd 3c ce 4f c1 bd 7c a8 37 3d
       0.010546125 0.030892035 -0.0943905 0.044838414
000100 22 4a ee bb 98 9d da 3c c4 3f df bc c8 90 84 3c
       -0.007272021 0.026686475 -0.027252086 0.016182318
000110 ff a1 d1 ba a3 e7 02 3d bb e4 22 3d 55 34 46 bd
       -0.0015993713 0.031959187 0.039768916 -0.04838975
000120 28 2e d3 3c 21 11 df bb 12 19 81 bc 01 40 fe 3c
       0.025778845 -0.006807462 -0.015759025 0.031036379
000130 44 65 6a bb 20 98 76 bc 2b e5 5f bd 81 b2 12 3d
       -0.0035765925 -0.015050918 -0.05466191 0.035814766
000140 48 f7 8b bd 0c 3c a7 3c f5 4f d5 bc c0 7c 6f b7
       -0.068342745 0.020414375 -0.026039103 -1.4274556e-05
000150 5e bd 3a ba 2a 16 07 3d 23 4f 6d 3d d6 b5 df bd
       -0.0007123555 0.03298012 0.0579368 -0.10923354
000160 85 aa 12 bd fe d1 32 bc 04 c8 8c bd 38 26 d6 ba
       -0.03580715 -0.010914324 -0.068740875 -0.0016338294
000170 80 23 3e bc ea d2 dc bc 08 e7 58 bd 7c a4 1a bd
       -0.011605144 -0.02695604 -0.052954704 -0.03775452
000180 99 66 87 bb 0a b8 8a 3d 85 26 7b 3c a2 da c0 3b
       -0.0041321036 0.06773384 0.015329008 0.005885438
000190 d3 21 f3 3a 8e 9e 8e bd 41 8e c1 bc 0f 6f 05 3d
       0.0018549509 -0.06963836 -0.023627402 0.032576617
0001a0 58 ea a9 bc a1 12 94 bb 06 55 30 3c dc 58 34 3d
       -0.020741627 -0.0045188223 0.010762459 0.044030055
0001b0 f2 c1 17 bd b6 31 48 bd 56 0a a5 3c 51 e4 83 38
       -0.037050195 -0.048875533 0.02014653 6.289094e-05
0001c0 6f dc 1e 3d 89 32 34 3d 4f fd 27 3d db b5 a1 bc
       0.03878444 0.043993507 0.04101306 -0.019740036
0001d0 5f ec 9b 3c 82 2d bd 3c 05 fc dc b6 3b 1e cb bc
       0.019033609 0.023092989 -6.58585e-06 -0.024794688
0001e0 bb 48 8e bc ba cb fa bb f5 37 93 bd b0 3f 2a 3c
       -0.017368665 -0.0076536806 -0.07188407 0.010391161
0001f0 ec 7a 1f bd 07 6c 6f 3d 0c e6 30 3d 1a 2b ad ba
       -0.038935587 0.058452632 0.04318814 -0.0013211698

encoder.mlp.4.weight f4 [256, 128]
000000 12 d4 d8 3c b2 e8 7d 3a 6a 70 cb b9 c9 b3 5b bd
       0.02646831 0.00096858584 -0.00038802932 -0.053638253
000010 36 4e 43 3d d9 89 40 3d 1a 12 6c 3c 08 40 05 3b
       0.04768201 0.04700646 0.014408613 0.0020332355
000020 64 e5 3f 3d 11 90 5c b8 24 48 41 bb 98 a1 fc bb
       0.046849623 -5.258626e-05 -0.0029492462 -0.007709693
000030 75 f0 eb 3c 97 9c 1c bd a6 71 83 3d 24 ea 86 3c
       0.028801182 -0.038235273 0.06418161 0.016469069
000040 79 be 63 3c f9 a5 21 bc 37 2a 14 3d 74 be 3d 3d
       0.013900393 -0.009866231 0.03617307 0.04632421
000050 5c 95 75 bc f6 3a c4 bd cb 19 fa 3b 8c f3 37 bc
       -0.014989223 -0.095815584 0.0076324693 -0.0112275
000060 93 4d 16 85 27 f8 cf bb 64 c8 23 3d 3d 48 19 3c
       -7.067214e-36 -0.0063467207 0.03998603 0.009355602
000070 d7 17 1c 3c 03 20 c2 bd 22 e4 d3 ba b2 ee 1e bc
       0.009527168 -0.09478762 -0.0016166011 -0.009700464
000080 6f 6f ec 93 7f 11 bd b8 7a 8d 94 3d 44 ef 43 bd
       -5.9684658e-27 -9.015481e-05 0.07253547 -0.047835603
000090 97 db 64 3c 87 04 c0 3b ab 30 12 3c a4 e1 86 bd
       0.01396837 0.0058599147 0.008922736 -0.06586006
0000a0 71 f0 27 3d 40 ad 13 3c f9 c1 4d 04 74 b2 b0 bc
       0.041000787 0.009013474 2.4186702e-36 -0.021569468
0000b0 ba 7d ab 3b 1e d9 92 3d e8 fc c4 ba 25 62 32 bd
       0.0052334936 0.07170318 -0.0015028985 -0.04355063
0000c0 22 6f 6f 3d 76 18 14 3c a0 31 1b 3c 11 1d 16 bd
       0.058455594 0.009039035 0.009472281 -0.036648814
0000d0 ab a7 fe 3b fa 4a 53 bd 5e a8 1e 3d cd 38 9f 3d
       0.0077714524 -0.051585175 0.038734786 0.07774506
0000e0 08 15 95 3b 43 8e 73 3c 49 f3 ac 3d 37 d0 c8 3b
       0.0045496263 0.014865461 0.084448405 0.006128337
0000f0 ea 3d aa 84 43 c8 e0 3c a4 d7 01 bd 46 86 a0 bd
       -4.0023667e-36 0.027439242 -0.03169979 -0.078381106
000100 a7 40 95 bd a3 a4 9f 3d 03 94 32 3d 5d 79 a2 bc
       -0.07287722 0.07795074 0.043598186 -0.019833261
000110 9e a1 9e 3d e2 5c 8c 3c 12 17 de bc d7 15 f9 bc
       0.0774567 0.017134134 -0.02711061 -0.030405922
000120 25 5d 8e 3d 87 e3 32 3c b1 77 86 bc 9b 78 0c 3c
       0.0695136 0.010918505 -0.016414495 0.008573676
000130 bf d0 12 bd 8a 96 5c 3d 92 bf 53 bd 57 91 d5 ba
       -0.035843607 0.053854503 -0.051696368 -0.0016293925
000140 a9 2b 5f 3d 29 93 45 3b eb b1 44 bb 8f f1 90 b7
       0.054484997 0.0030147529 -0.0030013274 -1.7278622e-05
000150 5e 21 d9 b9 0b 1e b8 ba 6e 00 85 bd fc 43 c3 bd
       -0.00041414326 -0.001404704 -0.064942226 -0.09534451
000160 e4 a4 0c 3c 36 3a 98 bd 9d 65 9e bd 35 0d 56 29
       0.008584235 -0.07432978 -0.07734225 4.7529e-14
000170 4a 9c fc 3c a6 5d 01 bd 6d 1a 46 3b 1b 19 1c 3c
       0.030836243 -0.03158345 0.0030228153 0.00952747
000180 68 0e 5e bd 8a 73 61 3c 44 44 9d bd 0a 41 aa 3b
       -0.054212958 0.013760457 -0.07679036 0.0051957415
000190 07 c4 22 bb 01 41 63 bd 8f 25 58 bd 6b 2b 15 bd
       -0.002483608 -0.055481914 -0.052770194 -0.03641836
0001a0 84 ef 3b bd 92 81 99 3d 7d da 8e bc c9 d0 da b9
       -0.045882717 0.07495417 -0.017438168 -0.00041735757
0001b0 e5 b3 7b 3b 2b eb 14 3d e3 c3 2e 3c 3f 3f ec 3c
       0.0038406786 0.036357086 0.01066682 0.028838752
0001c0 16 46 92 3c c8 9b 19 bd 32 1b fb 3c 2b e2 0f 3d
       0.017855685 -0.03750208 0.030652616 0.0351278
0001d0 be 09 58 bd 70 a8 49 bd 4a f6 47 b4 c3 00 cc 3b
       -0.052743666 -0.0492329 -1.8622919e-07 0.0062256767
0001e0 68 2a 04 3c f7 4f 71 bd 53 76 7a bd cb cd 72 3a
       0.008066751 -0.05891415 -0.061148 0.0009262233
0001f0 98 b6 31 bd 9b 11 6c 3d 70 64 f6 3c 54 fe 98 3d
       -0.043387026 0.057633977 0.03007719 0.07470384
000200 a2 78 62 bb c8 52 7c 3d 99 81 59 02 5d 61 b9 84
       -0.0034556766 0.061602384 1.5979835e-37 -4.3582705e-36
000210 85 96 b0 3a fb 01 1d bb ff 02 fa bc 30 7e 91 3c
       0.0013472593 -0.002395748 -0.030519007 0.017760366
000220 5d b2 15 bb 63 c3 8a 0c 1c cc 4a 3d dc 7c 29 83
       -0.0022841909 2.137986e-31 0.04951106 -4.980797e-37
000230 cb 79 7e bb e2 55 2a bc a6 7e 5d bc e1 be c2 3c
       -0.0038829918 -0.010396453 -0.013518965 0.023772659
000240 38 e1 64 3d b0 b6 65 82 23 4a c2 36 64 6f 0e 3d
       0.055878848 -1.6876692e-37 5.790281e-06 0.0347742
000250 ac b8 1a bd 01 34 e9 bb d9 b9 82 3b 31 88 ac 3c
       -0.037773773 -0.007116795 0.00398944 0.021061035
000260 8c 7d 44 3d 41 ee 9b 3c 91 2b 38 3b d6 fc 67 35
       0.047971293 0.019034507 0.002810214 8.642213e-07
000270 8f b1 34 bb 94 e7 8b bb f2 16 aa bb 5f 07 71 bb
       -0.0027571653 -0.0042695496 -0.0051907236 -0.0036778075
000280 6f 1b 72 0a cc e1 6c 3d ee 22 90 bb 84 41 b6 a4
       1.1657036e-32 0.057832524 -0.004398695 -7.9040906e-17
000290 93 23 0b 09 1b 07 cc 3c 1a 04 12 04 f5 89 c6 bc
       1.6748243e-33 0.024905732 1.71641e-36 -0.024235705
0002a0 64 f6 ab bc 68 3d 47 bd 6f d4 b7 0c 00 39 64 bd
       -0.020991512 -0.048642546 2.8323468e-31 -0.055718422
0002b0 e9 7c 98 3b 37 72 28 bd b3 0d b1 bd 06 eb 29 3d
       0.0046535623 -0.04112455 -0.08645191 0.0414839
0002c0 5d 19 a6 bc 20 29 79 bd e6 30 03 3d bd 8e 43 3d
       -0.020275766 -0.060830235 0.032029055 0.047743548
0002d0 0d 0c af bb 50 35 be bb e4 3d 32 3d 42 07 fb 3c
       -0.0053420127 -0.005804695 0.043516055 0.03064311
0002e0 d5 9f e2 3c 68 06 7b bd e1 ee 78 3d 75 6d 5b bd
       0.027664104 -0.061285406 0.060774688 -0.053571183
0002f0 97 2d fe 0f 6b ac 67 bb 83 29 29 bb 1d ba 0c bd
       2.5063894e-29 -0.0035350572 -0.0025812096 -0.03435718
000300 02 8e ae ba 42 04 3b bd 9c 99 56 bb fc c6 03 b9
       -0.0013317468 -0.045658357 -0.0032745367 -0.00012567261
000310 5b e7 61 bb ae 98 da 3c bc 59 aa 3c ff f4 64 bb
       -0.0034470174 0.026684131 0.020794742 -0.0034936068
000320 72 b4 ea bb 84 b1 1f 95 10 d6 da bc 70 9b 82 3d
       -0.007162624 -3.224983e-26 -0.026713401 0.063773036
000330 e3 1a 56 bb 41 52 5d bd 64 40 3a 3d 43 65 0f 3d
       -0.0032669834 -0.05403352 0.045471564 0.03500868
000340 7d b5 82 bb c2 d3 32 bb 74 0d c2 bc 41 6b 45 12
       -0.0039889202 -0.0027286862 -0.023688056 6.229444e-28
000350 2f 01 a0 04 c3 11 da bb eb 8d 64 bc 79 59 72 3b
       3.7616906e-36 -0.0066549494 -0.0139498515 0.00369796
000360 3d cc 43 3d 9f c3 63 bb ad a0 a0 bd 25 bf f0 bc
       0.0478022 -0.003475405 -0.078431465 -0.02938802
000370 80 80 8f bc 1c 36 80 bd a8 06 6d bd ad 74 25 bc
       -0.017517328 -0.062603205 -0.057867676 -0.010098618
000380 2b 62 27 bd 2f 30 2e bd c4 71 a8 bc 8f 2f 6e 91
       -0.040865105 -0.04252642 -0.02056206 -1.8789545e-28
000390 e8 07 fd bb c5 ca 93 b8 51 29 12 21 b1 7f 47 bb
       -0.0077218898 -7.047275e-05 4.9521406e-19 -0.00304411
0003a0 e5 36 14 bb 23 76 42 3d 88 12 ef bc 00 5f 3c 3b
       -0.0022615728 0.047475945 -0.029183641 0.0028743148
0003b0 e5 d4 3f bd 58 ad 6c bb e1 f9 91 bd f2 1c a0 bd
       -0.04683389 -0.0036114063 -0.07127739 -0.07818021
0003c0 f4 1c ab 3c 73 53 36 bb 5e 41 f8 3b 08 e8 ad 3b
       0.02088783 -0.0027820736 0.0075761518 0.0053072013
0003d0 be 02 ca bc 99 ce b1 bb 9d e2 0a 10 ee 49 9f 04
       -0.02465951 -0.0054262397 2.7390278e-29 3.7448614e-36
0003e0 80 7f 14 bb 20 33 7b ba a0 2b 3d bd 05 e3 8c bd
       -0.0022659004 -0.00095825084 -0.046184182 -0.06879238
0003f0 95 e1 9d bc fb 54 ee 3c 2d 06 a4 bd ae 8b 55 bb
       -0.019272605 0.029093256 -0.080089904 -0.0032584476

encoder.mlp.4.bias f4 [256]
000000 78 a7 da bc 58 76 0f 3c 36 42 56 bc 3b 48 61 3b
       -0.026691183 0.008756243 -0.013077309 0.0034375328
000010 77 cd ee bc 2c 7f 14 3d df 48 ae bc bc 6d 02 3c
       -0.029150708 0.036254093 -0.021274982 0.007960733
000020 9d 9d 00 3d 33 7b c9 39 e2 5d c2 3c 2a 6a c4 bc
       0.03140031 0.00038429498 0.023726407 -0.023976404
000030 59 72 d8 bc e5 47 e7 3c 0d 36 2d bc c9 21 d7 3a
       -0.026421713 0.028232524 -0.010571969 0.0016413267
000040 df d7 0d bc da e0 6e bd 24 9e a1 3b 1d be 5a 3c
       -0.008657425 -0.058319904 0.004932182 0.013350991
000050 d4 4e 96 bc eb fc cc 3c 14 e2 11 bb bb d1 5e bd
       -0.018348135 0.025022944 -0.0022259997 -0.054399233
000060 30 de 54 bc 2c 85 4b bd 74 9a 64 3d 86 ca 98 bc
       -0.012992427 -0.04968755 0.05581136 -0.018651258
000070 3e 35 77 b9 70 3a c5 bc ff 72 f5 bc 69 6a 6c bc
       -0.0002357559 -0.024075717 -0.029962061 -0.014429667
000080 35 94 00 b4 cb 5a 00 bd c1 3d 11 bd 24 64 9d 3c
       -1.1974846e-07 -0.031336587 -0.035459284 0.01921279
000090 ff 85 b0 bb 86 c7 3c bd bb d5 af bc e5 ce 02 ab
       -0.0053870673 -0.046088718 -0.02146422 -4.64724e-13
0000a0 7f 88 04 3c f1 3a f9 3b 2b 21 9f bc e8 89 c6 bc
       0.008089184 0.0076059033 -0.019424995 -0.02423568
0000b0 86 4c 0d 3d ad 10 ae 3c 00 f7 22 3b 32 06 39 3d
       0.034496807 0.021248186 0.0024866462 0.045171924
0000c0 7f 37 fa bc 0d d9 c9 3c 97 c7 db bb 2d 0f 19 3b
       -0.03054404 0.02463963 -0.0067071426 0.0023354993
0000d0 d6 f5 14 b3 fb f7 d5 bc 4b fc 47 3d 65 02 0d 3c
       -3.468252e-08 -0.026119223 0.04882459 0.008606528
0000e0 47 d3 54 bd d3 06 51 bd 2b e3 e8 bc d5 10 57 bd
       -0.051959302 -0.0510319 -0.028428635 -0.052506287
0000f0 6a c4 b5 3c a9 00 dc 3c 5f a8 87 bd b3 44 13 bc
       0.022188384 0.026855784 -0.06623911 -0.008988547
000100 46 ab fa bc 4b c8 a0 bb 20 3e a2 bc c9 74 ce bc
       -0.030599248 -0.0049066893 -0.019805014 -0.025202172
000110 db 4b eb bc 5c 42 16 bd 4f c4 f7 3b 1a 0a 02 bd
       -0.028722694 -0.03668438 0.0075612436 -0.031747915
000120 ed 2b c1 3c df e1 bf 3b a4 c3 99 3c 7d 47 80 3c
       0.023580516 0.0058557834 0.018770047 0.015659088
000130 25 f4 5d bd 61 c1 9d bc 68 4e 5f bd ab c4 29 3b
       -0.054187912 -0.01925725 -0.054518133 0.0025904577
000140 e7 b1 d5 bc 45 2f 57 bd 39 21 6a bc 33 8a 8e bc
       -0.026085807 -0.052535314 -0.014290147 -0.017399883
000150 a7 b3 32 bc b5 31 63 3d 03 c3 63 bd 49 98 e9 b6
       -0.01090709 0.055467326 -0.0556059 -6.9616694e-06
000160 b8 7a 08 3d 92 a9 37 bd 1e 9c 75 bc 34 8d a1 bc
       0.03332016 -0.04483945 -0.0149908345 -0.019720651
000170 a5 08 88 3d 1b ff 9b ba ea 04 ba 3c b1 b8 3b bd
       0.06642274 -0.0011901589 0.022707421 -0.045830432
000180 95 04 0b bd c1 94 dd 3c 31 b2 2e bc b4 de f1 bc
       -0.033939917 0.02704847 -0.010662601 -0.029525138
000190 cf 05 93 bc db 2e 2c bd de ae 1a 3d 2a f5 44 3c
       -0.017947106 -0.042036872 0.037764423 0.012021342
0001a0 14 75 b9 3c a1 1d cc 3b b9 d6 85 94 fc 75 9f 3c
       0.022638835 0.006229118 -1.3514261e-26 0.019465439
0001b0 07 47 cc bc f2 a3 1e bd e9 7b cd 3a ad 52 fe bc
       -0.024936212 -0.03873057 0.0015677187 -0.031045282
0001c0 b1 47 99 ba 91 77 0c bc a9 b8 a2 bb 70 ca 95 b9
       -0.0011694339 -0.008573429 -0.004965861 -0.00028570322
0001d0 c7 73 4a bd c5 ab 15 bc 76 2a 84 bd 73 a7 db 3c
       -0.04942682 -0.009135191 -0.06453411 0.026813244
0001e0 f0 fb 1a b4 a6 85 b9 bb 48 86 5a bc 7d 64 73 bd
       -1.4434022e-07 -0.005661684 -0.013337679 -0.059422005
0001f0 ea 6e bd bc 83 4b 66 bb 90 47 84 3c b2 58 2c bd
       -0.023124177 -0.0035140223 0.016147405 -0.042076774
000200 0f 44 ad bc 2b 0a 28 bd da e5 30 3d 8b 6e 14 bd
       -0.021150617 -0.041025322 0.043187954 -0.036238234
000210 a8 89 2b bd a7 bb 46 3c 87 9b 00 3c 6e 70 06 3d
       -0.041879326 0.012129701 0.007849581 0.032822065
000220 60 ba 8d 3c 9a 4e ac bc 0a 7f 30 3d 59 8e 90 bc
       0.017300785 -0.021033574 0.043089904 -0.017646002
000230 25 66 30 bc 15 bd c1 3b 2c c9 f8 3c 54 76 72 b5
       -0.010766541 0.005912433 0.030369364 -9.0324215e-07
000240 49 50 95 3c 77 68 cd bc 4d ec a3 bc 14 10 8a 3c
       0.01822676 -0.025074227 -0.020010138 0.01685337
000250 07 ee 6d bd bd 4b a5 bd 5f cd a9 b6 5e 2d 74 3c
       -0.05808833 -0.080710866 -5.060501e-06 0.0149033945
000260 03 22 ea 3b d0 7b 23 bd a8 6a 60 bd 0b 4a 9b bc
       0.007145168 -0.039913 -0.054789215 -0.018956205
000270 b4 35 f5 3c 9f 13 9c bd 24 dc 72 bc d7 45 83 bd
       0.029932834 -0.0762093 -0.014822993 -0.06409805
000280 a3 d9 39 3c c2 64 b6 bc d5 f3 2b 3c cb 6a 18 bb
       0.011343393 -0.022264842 0.010495146 -0.0023257013
000290 a2 06 1e bd 99 e6 3a bb e1 31 49 2e 0d 5e 5b 3c
       -0.038580544 -0.0028518795 4.574641e-11 0.013389123
0002a0 77 6d 29 3c b4 b5 28 bc bf b2 29 3c dd 1a bb 3c
       0.01034104 -0.010297228 0.010357558 0.022839958
0002b0 31 bd 18 ba 88 97 33 bd 5b f4 7e 3a a8 4f 36 3d
       -0.00058265316 -0.043845683 0.0009725743 0.04450956
0002c0 b8 1e 39 3c 12 04 1a bd e1 76 1c bb 7c 5c 2b bd
       0.011298828 -0.037601538 -0.0023874568 -0.041836247
0002d0 a8 32 a7 ba 14 5b 18 bd ed 3d 89 bc aa 49 ba bb
       -0.0012756186 -0.037196234 -0.016753161 -0.005685051
0002e0 6b f8 97 3c ed 52 24 bd c6 82 75 3b 32 1d 55 bd
       0.018551072 -0.040118147 0.003746198 -0.052029796
0002f0 a7 52 11 bc ec b1 bf bc c8 a1 e1 3c 2f 7e a2 3b
       -0.0088698035 -0.02340027 0.027542964 0.00495889
000300 84 6f b6 3c 9f 54 10 3d 6c 45 3d 3c 50 2d a2 3c
       0.022269972 0.03523695 0.011552196 0.019796997
000310 8a a2 2d 29 fe 87 3a bd f0 fc 9a bc cd c9 f8 b9
       3.8554697e-14 -0.04553985 -0.018919438 -0.000474526
000320 df 08 3f bc e6 aa 0f bd 00 70 88 3c 28 b8 20 3c
       -0.01165983 -0.03507509 0.016654968 0.009809531
000330 be c8 fc bc ef 3b 6b bd 51 31 b7 bc c9 c4 b3 bc
       -0.03085744 -0.057430204 -0.022362383 -0.02194442
000340 d6 49 b0 3c bc 14 85 ad 41 5d 5e bd 34 68 fe 3c
       0.021519583 -1.5129557e-11 -0.054288153 0.031055547
000350 18 d8 c8 bc f2 61 18 bd f4 c1 7d 3c 61 42 20 bd
       -0.024517104 -0.037202783 0.015488137 -0.039125804
000360 ff d4 b5 0b ff 43 a6 3c 11 08 3f bb d9 a6 72 bd
       7.0039145e-32 0.020296095 -0.0029149095 -0.05924115
000370 99 ea 64 bb eb f3 1d bc f1 22 96 3a ec a6 02 bd
       -0.003492987 -0.009640674 0.0011454505 -0.03189747
000380 10 5e 05 bd 54 c8 ae bc b9 46 2b 3d c0 d6 7b 3b
       -0.032560408 -0.021335758 0.041815493 0.0038427562
000390 2a 07 57 bc 4b 08 bb ba eb 99 6a 3c 23 0a 1f 3c
       -0.013124267 -0.0014269439 0.0143189235 0.009707007
0003a0 a7 12 40 bd 13 b2 63 b0 d8 d7 07 3b bf 21 be 3d
       -0.04689279 -8.283518e-10 0.0020728018 0.0928378
0003b0 54 8c 0f 3d 67 cd 8e 3c 31 9f 41 bc e1 9d ad b5
       0.035045937 0.017431928 -0.011817739 -1.2935453e-06
0003c0 18 22 a2 bc e9 7d a3 3c 89 ad 1e 3d ec 33 0a 3b
       -0.019791648 0.0199575 0.038739715 0.0021088077
0003d0 4d 0f a0 bd 71 39 68 bc 5b a6 04 bb 98 a4 9c bb
       -0.078154184 -0.014173851 -0.0020240757 -0.0047803633
0003e0 28 f5 28 bd c1 31 c2 3c ec 17 2c bd 70 ec 2f bc
       -0.041249424 0.023705365 -0.042015 -0.010737523
0003f0 48 c0 79 bd 9e ae b2 bc 6e 69 2f a8 28 d5 0e bc
       -0.06097439 -0.02181178 -9.737313e-15 -0.008717813

pos_mlp.0.weight f4 [32, 1]
000000 8b ee 35 bc 7c 64 fb 3e 6e c8 2b bf b5 8e c4 ba
       -0.011104236 0.491001 -0.67102706 -0.0014996143
000010 d6 62 6b a2 72 23 a3 bc fd 16 19 bf a1 09 01 30
       -3.1900762e-18 -0.019914363 -0.598007 4.694361e-10
000020 6c c7 7e 3f fe 47 ef 12 9e c3 75 3f af f1 82 3f
       0.99523044 1.5100768e-27 0.96001613 1.0230006
000030 6b 45 ce 3b a3 53 e7 be 7e e3 99 21 9d 6a 21 bb
       0.0062948964 -0.45180997 1.04279e-18 -0.0024630197
000040 b5 8b 05 3b 21 f3 42 bf 28 15 2f bf 18 cd a2 b9
       0.0020377461 -0.76152235 -0.68391657 -0.00031051855
000050 91 b3 30 34 e1 f1 95 3f 58 69 6c 3e 20 5f 77 3f
       1.6456603e-07 1.171444 0.2308706 0.96629524
000060 57 71 29 3f 47 e0 89 3d f2 57 56 3f 26 5a 07 bf
       0.6618857 0.06732231 0.83727944 -0.5287193
000070 c5 ba 1d 3f 78 48 63 bf 0a f9 63 b9 7c 7f 36 9c
       0.6161311 -0.88782454 -0.00021741181 -6.038352e-22

pos_mlp.0.bias f4 [32]
000000 41 42 e9 b0 6b 3f 19 be 62 f6 06 3f cc b9 b9 ba
       -1.6971812e-09 -0.14965598 0.527197 -0.0014169752
000010 9e 1c e1 b6 6d 4d 5f b4 a5 ca e9 3e ac 2a f2 bc
       -6.708854e-06 -2.0796661e-07 0.45662418 -0.029561363
000020 0f ea a6 be b1 63 69 a8 fd 41 11 3f 41 0b b0 bd
       -0.32600448 -1.2955715e-14 0.56741315 -0.085958965
000030 2d 16 53 bc 14 d2 be 3e 08 b6 5e bb 3f 5f 03 bd
       -0.012883705 0.37269652 -0.003398301 -0.032073256
000040 a5 4a 90 bb 81 86 55 3f d3 87 14 3f 4f ef 2b bc
       -0.0044034296 0.8340836 0.5801975 -0.010494067
000050 7d be 71 b9 2a 2c a6 3e 3c 32 44 3f af 9d 85 be
       -0.00023054513 0.3245557 0.7663915 -0.26096866
000060 fa ad 4e 3f f0 af 1c 3f 9f 65 5d be d5 6f d1 3e
       0.8073422 0.6120596 -0.21620797 0.40905634
000070 2e 80 bb 3d cf 7f 2c 3f d2 ac 27 bc 49 28 07 b6
       0.09155308 0.6738252 -0.010234075 -2.0140017e-06

pos_mlp.2.weight f4 [32, 32]
000000 f4 72 b9 8d d7 11 ed bd 48 d9 1d 3e b9 3d e5 a2
       -1.1429179e-30 -0.11575668 0.15414917 -6.2135926e-18
000010 c3 01 0f 9f 78 f7 b7 04 a9 77 1d 3e 2b d1 e4 a8
       -3.0282885e-20 4.3250357e-36 0.15377678 -2.5403797e-14
000020 de 3e 2a be 31 dd 33 09 5a 61 5a 3c 0a 4f 19 be
       -0.16625544 2.1650345e-33 0.0133288745 -0.14971557
000030 e7 f3 40 8c 12 6f 1a 3e 2e 54 a0 a9 49 5d 34 84
       -1.4864539e-31 0.15081432 -7.12003e-14 -2.1201733e-36
000040 3e fa e9 a2 c1 5a 1c 3e 79 7f 1c 3e 3e c2 87 24
       -6.341973e-18 0.15268995 0.15283002 5.8875976e-17
000050 76 be 0d 94 b2 fb 95 bd 75 8e d8 3d bf ea 12 be
       -7.1562426e-27 -0.07323398 0.105740465 -0.14347361
000060 b6 90 d1 3d 15 41 d5 3d aa 4e 1b be a3 ff 1a 3e
       0.102326795 0.10412804 -0.15166727 0.1513658
000070 ff be 88 bd 2a 25 1e 3e 36 40 2a 90 8a 15 d0 9a
       -0.066770546 0.15443864 -3.3576055e-29 -8.606158e-23
000080 4e 4d 1b 84 47 cb 6a 3e 18 26 03 be 70 78 0f 87
       -1.8255659e-36 0.22929107 -0.128075 -1.0793518e-34
000090 06 89 74 84 1a c2 49 a5 c3 83 02 be b7 c2 d3 28
       -2.874498e-36 -1.7499735e-16 -0.12745576 2.351015e-14
0000a0 3c 98 7b 3e 44 46 61 05 3c bb b9 3d ef 5d 71 3e
       0.24569792 1.0592355e-35 0.09068915 0.23570989
0000b0 6e 15 7f a5 73 e0 56 be 74 c4 f8 83 eb 43 c1 a1
       -2.2124985e-16 -0.20984058 -1.4621233e-36 -1.3096166e-18
0000c0 74 42 78 13 05 64 83 be 5e 7a 6b be 35 a5 02 25
       3.1334765e-27 -0.25662246 -0.22995898 1.1331677e-16
0000d0 eb 6b 66 a0 89 c0 0e 3e 30 93 30 3d ff 2f 6f 3e
       -1.9517465e-19 0.13940634 0.04310912 0.23358153
0000e0 32 29 42 3e ee 0e 1c bd 17 15 44 3e 6f e1 af bd
       0.18961027 -0.038100176 0.1914867 -0.0858792
0000f0 81 de 7b 3e d8 a8 2f be 13 e8 12 04 cb e7 3a 9e
       0.24596597 -0.17154253 1.726878e-36 -9.894692e-21
000100 e6 3c 68 16 3b 01 eb 2b 2c 88 1e 04 56 73 9d 83
       1.8760027e-25 1.6698096e-12 1.8635338e-36 -9.2541105e-37
000110 3c e9 da 27 a4 c5 67 9b a7 9e 50 8d fd 5e a3 9d
       6.076003e-15 -1.9171733e-22 -6.428592e-31 -4.3243956e-21
000120 e7 9b cc 92 d3 61 90 8f 8c e1 4d 05 35 87 2e 25
       -1.2912643e-27 -1.4237177e-29 9.68048e-36 1.5137904e-16
000130 99 15 c5 17 51 4b 1a 85 43 a3 bc 9e f4 59 1f 0a
       1.2736279e-24 -7.2548786e-36 -1.9972798e-20 7.67249e-33
000140 2c 2e 10 1d 87 33 4e ac aa ff fb 17 60 f7 75 04
       1.9082112e-21 -2.9302964e-12 1.6285034e-24 2.89132e-36
000150 03 65 16 05 ed f8 1e 02 9d d8 0a ac 9a 7d 9f 03
       7.071519e-36 1.1679445e-37 -1.9731224e-12 9.374017e-37
000160 0d 07 94 ab 61 6c c4 1e 12 98 37 a1 68 4f 01 18
       -1.051799e-12 2.0797132e-20 -6.2204075e-19 1.671295e-24
000170 ab e8 6f 2c 61 70 33 9d fb 34 d3 16 1c c2 55 1e
       3.40931e-12 -2.3748551e-21 3.4122324e-25 1.1316267e-20
000180 4c d5 21 03 b0 85 18 be e4 60 37 3e a0 09 dd 97
       4.75585e-37 -0.14894748 0.17908055 -1.428422e-24
000190 0a 4e 9e aa a3 1c e4 ab 65 77 cf 3e 54 5b d4 02
       -2.8120589e-13 -1.6208323e-12 0.40520778 3.120302e-37
0001a0 d8 90 3e be 3d 5c 88 0c db fb dd 3c 58 bf a5 be
       -0.18609941 2.1009632e-31 0.027097633 -0.32372546
0001b0 e2 30 bf 17 f7 45 69 3e eb d9 98 03 39 93 61 84
       1.2355425e-24 0.22780596 8.983789e-37 -2.6516224e-36
0001c0 e6 d1 ce 20 d9 32 98 3e cd 69 46 3e c3 3f 16 14
       3.5036657e-19 0.29726294 0.19376297 7.5856395e-27
0001d0 38 6a 57 ad 25 29 90 be 49 a4 94 3e fa e5 63 be
       -1.224492e-11 -0.2815639 0.2903159 -0.22255698
0001e0 3a 0d 1e 3d 45 d9 0d 3e 45 e2 d6 bd 99 f5 b1 3e
       0.038586833 0.13852413 -0.10492376 0.3475769
0001f0 be 20 77 be 24 35 af 3e f3 46 24 14 b9 37 db 09
       -0.24133584 0.3422023 8.293876e-27 5.2774734e-33
000200 10 c4 88 04 2e 31 ca 01 02 60 fd 9b 71 93 62 a5
       3.21535e-36 7.427365e-38 -4.1917383e-22 -1.965233e-16
000210 2e 62 a8 a1 34 19 6a 25 bb 1b 4d 0d 77 25 c9 8e
       -1.1410111e-18 2.0304804e-16 6.320388e-31 -4.9586403e-30
000220 e6 4d 9c 8b 39 1d a0 02 d8 0f 37 89 02 39 ad 84
       -6.020622e-32 2.352666e-37 -2.2035273e-33 -4.0724458e-36
000230 c8 c4 a6 ac 17 22 64 9e 88 67 a0 87 d8 3d be 99
       -4.739851e-12 -1.2077269e-20 -2.4134975e-34 -1.9670518e-23
000240 68 57 ac 9e 31 3f d5 ab 1f c7 89 a4 bc b4 c6 8f
       -1.8247359e-20 -1.5152099e-12 -5.97516e-17 -1.9593924e-29
000250 7b e8 ae 99 22 c2 f0 85 dc ce de 99 5c 81 bf 8e
       -1.8085076e-23 -2.2640805e-35 -2.3037812e-23 -4.7209704e-30
000260 3a 38 40 84 db 62 ff 1a 95 28 94 1a db 53 ff 0c
       -2.259531e-36 1.0562524e-22 6.127693e-23 3.933944e-31
000270 5c c0 d3 9d b1 29 cf 2b bf 00 87 92 78 6d d5 a3
       -5.605013e-21 1.4719806e-12 -8.519882e-28 -2.3139868e-17
000280 34 f8 c6 18 69 36 0b be a5 a8 c1 3e 5f 21 c0 a1
       5.143242e-24 -0.13594975 0.37823978 -1.3019259e-18
000290 55 6b 78 88 57 ac 8b 04 07 38 bf 3e 18 ae e5 0e
       -7.4755954e-34 3.2837012e-36 0.37347433 5.6620505e-30
0002a0 07 de 16 be 3c c8 f4 85 89 f9 9c bd 62 78 93 be
       -0.14733134 -2.3019204e-35 -0.076647826 -0.28802782
0002b0 71 dd 4d 09 8b a6 93 3e ae b5 69 a8 85 4e b2 a1
       2.4780099e-33 0.28838 -1.2973494e-14 -1.2082533e-18
0002c0 43 6b 3c 02 b8 23 85 3e d1 93 c9 3e 66 c2 7e 04
       1.3842841e-37 0.26003814 0.39370587 2.994682e-36
0002d0 e8 72 a7 ab 77 25 0e bd 10 3f 48 3e 39 24 8b be
       -1.1897957e-12 -0.034703698 0.19555306 -0.27176073
0002e0 6c d5 0a 3e 4b f6 2a 3d e2 42 80 be 8b dd ad 3e
       0.13557976 0.04173879 -0.25051028 0.33958086
0002f0 0d bd f5 bd 12 44 45 3e c9 d4 cb a0 16 0a bf a4
       -0.11998949 0.19264248 -3.4530347e-19 -8.285013e-17
000300 d3 02 19 03 31 77 e5 19 d1 35 3f ab b4 d3 95 a8
       4.49659e-37 2.3726186e-23 -6.7931517e-13 -1.6634135e-14
000310 9e 34 60 9b 9d bd e3 06 bd 36 c4 8a 11 97 1b 89
       -1.8545847e-22 8.566652e-35 -1.8894704e-32 -1.8728477e-33
000320 29 de 57 a1 f2 d7 29 ab d0 9f 76 a1 1f dc 7c 17
       -7.313886e-19 -6.0340545e-13 -8.355955e-19 8.1703423e-25
000330 9b 99 94 19 d9 0f 15 16 68 f6 55 85 42 c7 80 a7
       1.5364882e-23 1.2041125e-25 -1.00604695e-35 -3.5743173e-15
000340 27 03 d9 27 98 12 e9 12 85 09 c1 10 32 30 80 94
       6.0233017e-15 1.4708951e-27 7.6139745e-29 -1.2943707e-26
000350 37 b2 dc a4 a8 2e cb 06 29 b5 de a7 1d 67 f4 a4
       -9.57117e-17 7.642867e-35 -6.181379e-15 -1.0599281e-16
000360 9a 5b 3a 03 3e 54 17 9c a8 0d bd 21 7d e1 5c 9e
       5.476564e-37 -5.007059e-22 1.2810753e-18 -1.1693333e-20
000370 a9 41 c7 99 fb bb 06 27 82 69 22 22 cf e9 34 ab
       -2.0602638e-23 1.869814e-15 2.201095e-18 -6.427332e-13
000380 61 b5 c1 21 a0 14 10 be 56 fc 9a 3e 4a 3e b4 98
       1.3126199e-18 -0.14070368 0.30270642 -4.6591805e-24
000390 e2 04 77 9d e9 c0 bf a1 7d 57 b4 3e e3 b7 b3 9e
       -3.2692702e-21 -1.2993726e-18 0.35222998 -1.9028416e-20
0003a0 12 1f bb bd a4 a0 d3 8d 81 6f 32 be 45 67 a4 be
       -0.091367856 -1.3042552e-30 -0.17425348 -0.32110038
0003b0 89 12 22 a5 4b 0c 8d 3e 7a de b9 04 f8 2a 7a 26
       -1.405754e-16 0.2754844 4.3697603e-36 8.6794407e-16
0003c0 3a f2 fb 15 79 1c b2 3e 9c d5 91 3e 76 fd 4f a5
       1.0176026e-25 0.34787348 0.28483284 -1.8040264e-16
0003d0 e8 f4 8c 15 cf 14 3b be 6a 96 60 3e 19 61 ec bd
       5.6931944e-26 -0.18269657 0.21932378 -0.115419574
0003e0 c4 81 ff 3d 13 fa 66 3e 00 b4 89 be 78 65 ad 3e
       0.12475923 0.22556333 -0.26895142 0.33866477
0003f0 32 ea e3 bd b7 ee b0 3e d4 66 d2 29 94 fb 6d a8
       -0.111286536 0.34557125 9.343711e-14 -1.3210695e-14

pos_mlp.2.bias f4 [32]
000000 79 f2 01 3e bd ea 60 bd f7 21 8b 1e 66 3d 5f 3e
       0.12690152 -0.054911364 1.4731245e-20 0.21800765
000010 69 32 de 82 d6 af 47 3e 6b d5 58 8d 64 d9 4f 3e
       -3.2648902e-37 0.1950067 -6.681703e-31 0.20297772
000020 bb 4b d9 3d 78 2a ec 3d 3e 04 9f 3e ce 86 9a bd
       0.106101476 0.11531538 0.31057924 -0.07545243
000030 e7 eb c0 3b f4 af c9 bd dd 52 f9 3b e5 e4 67 bd
       0.0058874968 -0.098480135 0.007608755 -0.056614775
000040 e3 07 79 3e 42 6e 36 bc 8a 6c 06 28 4f 9d 34 37
       0.24319415 -0.011134686 7.46203e-15 1.0765462e-05
000050 e0 a0 b8 3c 21 78 36 26 1c b3 bf 3e b1 78 0e bc
       0.022537649 6.330674e-16 0.37441337 -0.008695767
000060 60 0e 03 3e a1 c8 c8 04 43 e1 2c 3e a2 19 49 bd
       0.12798452 4.7204023e-36 0.16882806 -0.04909671
000070 04 4b 30 be b0 63 87 3e 5f ea b3 ac fd 2e 1b 3e
       -0.17216116 0.26443243 -5.1135064e-12 0.15154643
