pointnet/weights_per_bundle_ratio025/FPT_left_best.pth (torch, 359738 bytes, 17 tensors)

t_grid f4 [100]
0.0 0.01010101 0.02020202 0.030303031 0.04040404 0.05050505 0.060606062 0.07070707
0.08080808 0.09090909 0.1010101 0.11111111 0.121212125 0.13131313 0.14141414 0.15151516
0.16161616 0.17171717 0.18181819 0.1919192 0.2020202 0.21212122 0.22222222 0.23232323
0.24242425 0.25252524 0.26262626 0.27272728 0.28282827 0.2929293 0.3030303 0.3131313
0.32323232 0.33333334 0.34343433 0.35353535 0.36363637 0.37373737 0.3838384 0.3939394
0.4040404 0.41414142 0.42424244 0.43434343 0.44444445 0.45454547 0.46464646 0.47474748
0.4848485 0.4949495 0.5050505 0.5151515 0.5252525 0.53535354 0.54545456 0.5555556
0.56565654 0.57575756 0.5858586 0.5959596 0.6060606 0.61616164 0.6262626 0.6363636
0.64646465 0.65656567 0.6666667 0.6767677 0.68686867 0.6969697 0.7070707 0.7171717
0.72727275 0.7373737 0.74747473 0.75757575 0.7676768 0.7777778 0.7878788 0.7979798
0.8080808 0.8181818 0.82828283 0.83838385 0.8484849 0.85858583 0.86868685 0.8787879
0.8888889 0.8989899 0.90909094 0.9191919 0.9292929 0.93939394 0.94949496 0.959596
0.969697 0.97979796 0.989899 1.0
00000000: 0000 0000 b57e 253c b57e a53c 103e f83c
00000010: b57e 253d 62de 4e3d 103e 783d dece 903d
00000020: b57e a53d 8c2e ba3d 62de ce3d 398e e33d
00000030: 103e f83d f376 063e dece 103e ca26 1b3e
00000040: b57e 253e a0d6 2f3e 8c2e 3a3e 7786 443e
00000050: 62de 4e3e 4e36 593e 398e 633e 24e6 6d3e
00000060: 103e 783e fd4a 813e f376 863e e9a2 8b3e
00000070: dece 903e d4fa 953e ca26 9b3e bf52 a03e
00000080: b57e a53e abaa aa3e a0d6 af3e 9602 b53e
00000090: 8c2e ba3e 815a bf3e 7786 c43e 6db2 c93e
000000a0: 62de ce3e 580a d43e 4e36 d93e 4362 de3e
000000b0: 398e e33e 2fba e83e 24e6 ed3e 1a12 f33e
000000c0: 103e f83e 056a fd3e fd4a 013f f8e0 033f
000000d0: f376 063f ee0c 093f e9a2 0b3f e438 0e3f
000000e0: dece 103f d964 133f d4fa 153f cf90 183f
000000f0: ca26 1b3f c5bc 1d3f bf52 203f bae8 223f
00000100: b57e 253f b014 283f abaa 2a3f a640 2d3f
00000110: a0d6 2f3f 9b6c 323f 9602 353f 9198 373f
00000120: 8c2e 3a3f 86c4 3c3f 815a 3f3f 7cf0 413f
00000130: 7786 443f 721c 473f 6db2 493f 6748 4c3f
00000140: 62de 4e3f 5d74 513f 580a 543f 53a0 563f
00000150: 4e36 593f 48cc 5b3f 4362 5e3f 3ef8 603f
00000160: 398e 633f 3424 663f 2fba 683f 2950 6b3f
00000170: 24e6 6d3f 1f7c 703f 1a12 733f 15a8 753f
00000180: 103e 783f 0ad4 7a3f 056a 7d3f 0000 803f

encoder.mlp.0.weight f4 [64, 3]
-0.5052123 0.4954264 -0.12753229 0.44794202 0.516215 -0.4987913 -0.23959638 0.262018
-0.30010113 0.34535143 0.043776 0.066117644 -0.05911812 0.174711 -0.43933216 0.012465458
0.12008831 -0.4675565 -0.2058039 0.07011848 -0.0962798 0.42328173 0.2342785 -0.12908421
-0.011665779 0.010284833 0.057087895 0.27677032 0.5673023 -0.16764411 0.19054687 0.5335494
0.45938262 0.3644124 0.14266883 -0.032271013 0.3485079 -0.17453723 0.23452084 -0.22105649
-0.1881127 0.09300998 -0.51859075 -0.19765538 -0.042082652 0.517073 0.17133443 -0.55719024
0.34202325 0.38911024 -0.36258477 0.13748847 -0.4635419 -0.2292803 -0.34339002 -0.18815812
-0.17271908 0.075126484 0.4788141 -0.123591 -0.21381022 0.5483282 -0.31841668 -0.4953485
-0.1087807 0.34190798 -0.49074316 0.23967418 0.25804973 0.45460922 -0.41224864 0.19433692
0.009763808 0.09352296 0.27443838 0.1263927 0.39522293 0.33669335 -0.03831707 -0.23786758
-0.4575358 -0.21779127 -0.22205359 0.40612462 0.090601996 -0.35596538 0.41129008 0.5470939
-0.09215642 0.44450694 -0.003282237 -0.44360957 0.46362323 -0.27791688 0.09704499 -0.13688225
0.3786009 -0.07965684 0.048272256 0.2497018 -0.5290098 -0.08413992 0.43227232 0.020603264
0.27478164 -0.463444 -0.28212494 -0.35278726 0.37742376 -0.29072115 0.05564079 -0.4828519
-0.4072747 0.2967911 -0.09880183 0.39834085 -0.45303333 0.41928762 0.1272414 0.25438556
0.47724834 0.40917808 -0.021478903 0.30613926 -0.11400536 -0.19369768 -0.47788057 -0.4823827
-0.48899245 -0.45440534 -0.17795578 0.011390283 0.080011025 -0.45718896 -0.041573085 0.42152575
0.07621204 -0.48830128 0.07735785 0.08172483 -0.22714497 -0.50239676 -0.481878 -0.08417207
-0.17752016 -0.04412076 -0.5236403 -0.34863386 -0.40678596 -0.1784023 -0.44732806 0.3989942
0.5352713 -0.10744086 -0.2530191 -0.47517446 -0.37021002 -0.36312398 0.063835904 -0.34830195
-0.003987961 -0.018089082 0.442713 0.022461805 0.29251367 0.24406414 -0.537262 -0.09058302
-0.30398867 0.40936702 0.4318595 0.11173208 0.059701104 -0.40383586 0.37965465 0.30154872
0.22183679 0.08791313 -0.07660649 -0.38522947 0.4088645 -0.25793278 -0.36879063 0.4487666
0.116073884 -0.19811703 -0.5667449 -0.30560374 0.25657576 0.27181777 -0.033123065 0.17939377
00000000: 9855 01bf 87a8 fd3e d397 02be a858 e53e
00000010: ab26 043f 9361 ffbe c158 75be 3927 863e
00000020: dba6 99be e7d1 b03e 774e 333d b068 873d
00000030: d825 72bd 71e7 323e 25f0 e0be ec3b 4c3c
00000040: dcf0 f53d 9163 efbe 42be 52be 479a 8f3d
00000050: 582e c5bd 62b8 d83e b4e6 6f3e a72e 04be
00000060: d321 3fbc b781 283c ffd4 693d d7b4 8d3e
00000070: b93a 113f e6aa 2bbe b81e 433e b296 083f
00000080: 3334 eb3e 4394 ba3e c717 123e 9c2e 04bd
00000090: a16f b23e e3b9 32be 3b26 703e a25c 62be
000000a0: 9ea0 40be 047c be3d 5dc2 04bf 2c66 4abe
000000b0: dc5e 2cbd e55e 043f 4b72 2f3e 05a4 0ebf
000000c0: ac1d af3e 7539 c73e b6a4 b9be c7c9 0c3e
000000d0: 5d55 edbe 74c8 6abe d1d0 afbe 86ac 40be
000000e0: 45dd 30be eadb 993d 1f27 f53e 471d fdbd
000000f0: 11f1 5abe 3d5f 0c3f 8307 a3be 529e fdbe
00000100: 6ac8 debd 900e af3e b042 fbbe 266d 753e
00000110: 181f 843e 8ac2 e83e 4112 d3be 4200 473e
00000120: 61f8 1f3c f788 bf3d 3083 8c3e 176d 013e
00000130: a95a ca3e 1263 ac3e 5cf2 1cbd 8f93 73be
00000140: 2242 eabe ad04 5fbe 0462 63be 91ef cf3e
00000150: 8a8d b93d 1841 b6be 9d94 d23e 590e 0c3f
00000160: 81bc bcbd 6a96 e33e cd1a 57bb cb20 e3be
00000170: 0660 ed3e 1f4b 8ebe 86bf c63d dc2a 0cbe
00000180: fad7 c13e 2023 a3bd 21b9 453d d4b1 7f3e
00000190: 306d 07bf 8d51 acbd cc52 dd3e 2dc8 a83c
000001a0: 2eb0 8c3e 8848 edbe ae72 90be 88a0 b4be
000001b0: b03d c13e 67d9 94be 99e7 633d 5d38 f7be
000001c0: 4f86 d0be 01f5 973e 9d58 cabd 55f3 cb3e
000001d0: fcf3 e7be deac d63e 924b 023e d33e 823e
000001e0: e559 f43e ca7f d13e 86f4 afbc 49be 9c3e
000001f0: a47b e9bd af58 46be c3ac f4be defa f6be
00000200: 385d fabe d1a7 e8be 0a3a 36be 4f9e 3a3c
00000210: d2dc a33d ac14 eabe 8a48 2abd 39d2 d73e
00000220: 0f15 9c3d a002 fabe cb6d 9e3d 595f a73d
00000230: b198 68be 139d 00bf b7b8 f6be 6862 acbd
00000240: d8c7 35be f8b7 34bd 4a0d 06bf 2380 b2be
00000250: 4046 d0be 18af 36be 2f08 e5be f848 cc3e
00000260: 8a07 093f f409 dcbd b88b 81be 114a f3be
00000270: 2b8c bdbe 63eb b9be 66bc 823d a254 b2be
00000280: 71ad 82bb 8e2f 94bc 47ab e23e d201 b83c
00000290: 5ac4 953e f3eb 793e 018a 09bf 9783 b9bd
000002a0: 67a4 9bbe 8e98 d13e b01c dd3e cad3 e43d
000002b0: 2589 743d 93c3 cebe 1862 c23e 9864 9a3e
000002c0: 2f29 633e cd0b b43d dde3 9cbd cc3c c5be
000002d0: b056 d13e c40f 84be 20d2 bcbe bcc4 e53e
000002e0: 25b8 ed3d 31df 4abe 3216 11bf 1878 9cbe
000002f0: e65d 833e b32b 8b3e 0dac 07bd 00b3 373e

encoder.mlp.0.bias f4 [64]
0.18213308 0.19121484 -0.047890797 0.2490413 0.034456898 0.1476195 0.04509666 0.14727652
0.17295729 0.03242218 -0.10393693 -0.09412592 0.15984385 0.048342727 0.009068189 0.28112102
0.2538119 0.07037796 0.17695686 -0.039156478 -0.19886574 -0.11310634 -0.3014916 -0.090242244
-0.06697517 0.3231664 0.07597488 0.13119842 -0.19465406 -0.005051417 -0.3400461 0.13628693
0.019592673 0.15808454 0.082575426 -0.18860647 -0.09812397 -0.10480521 0.0805994 0.15704024
-0.08736723 -0.02464107 0.111504704 -0.13933639 -0.33628753 -0.050026547 -0.1581625 -0.093142174
-0.12035242 0.2559924 0.09725507 -0.2785719 0.09494772 -0.21925806 -0.07565886 0.0005486722
0.09206486 0.04261683 -0.11607992 0.011713648 -0.23504014 0.123308085 -0.021359177 0.08849248
00000000: 1881 3a3e d3cd 433e 2429 44bd af04 7f3e
00000010: ad22 0d3d 9129 173e 46b7 383d a8cf 163e
00000020: b71b 313e 1fcd 043d e3dc d4bd 17c5 c0bd
00000030: 1bae 233e 0603 463d be92 143c 18ef 8f3e
00000040: a2f3 813e 5222 903d 2e34 353e 8b62 20bd
00000050: 76a3 4bbe 4ca4 e7bd 1b5d 9abe edd0 b8bd
00000060: 472a 89bd 1176 a53e b898 9b3d e158 063e
00000070: 6553 47be 5b86 a5bb 861a aebe cd8e 0b3e
00000080: d080 a03c eae0 213e 4e1d a93d 0e22 41be
00000090: 38f5 c8bd 1da4 d6bd 4c11 a53d 28cf 203e
000000a0: 97ed b2bd 12dc c9bc 945c e43d 33ae 0ebe
000000b0: e12d acbe a3e8 4cbd 5af5 21be 53c1 bebd
000000c0: 547b f6bd 7011 833e ab2d c73d faa0 8ebe
000000d0: f373 c23d 2f85 60be 08f3 9abd c5d4 0f3a
000000e0: 808c bc3d fc8e 2e3d 4fbb edbd 9aea 3f3c
000000f0: 5dae 70be f388 fc3d 71f9 aebc 8c3b b53d

encoder.mlp.2.weight f4 [128, 64]
0.0029230379 -0.111399576 -0.10224476 -0.046700176 0.08843056 0.113162674 -0.07479702 -0.040727023
0.023382192 0.07580595 0.05711963 -0.038383346 -0.010838656 -0.06304514 0.08423652 -0.03274245
0.059937406 0.09125911 -0.020544661 -0.004029813 0.08032192 0.10944155 -0.05713662 0.069638036
0.0937494 -0.09736535 0.096131675 -0.041408874 -0.03684518 0.028877685 -0.04048742 -0.09168483
-0.014588812 -0.12985057 0.006791442 0.044397175 0.056684956 0.039454643 0.032675356 -0.0574449
-0.041289575 0.021855466 -0.08719255 -0.018169574 -0.015948074 -0.0015197529 0.096099 0.03160732
-0.006224328 0.09183043 0.010519114 0.044573184 -0.080290355 -0.1020484 0.0904298 -0.10057755
0.0533318 -0.09686783 0.029446997 0.045325562 0.11289652 -0.10462944 -0.067296505 0.06626785
-0.060453005 0.11681146 -0.07124373 0.07529349 -0.0685961 0.11008234 0.060316887 0.029074375
0.008551023 0.07541361 -0.094101 -0.01741524 0.112142205 0.0075239935 -0.09342519 0.10447748
0.082536094 -0.06333571 -0.09521945 0.022736458 -0.067463726 -0.04621963 0.11025238 0.055273186
-0.059221454 0.014536682 0.0969984 -0.029698135 0.023925984 -0.049383264 -0.01728949 0.007766178
0.06339702 0.041040815 0.104916744 -0.012686752 0.040276546 -0.05010064 0.0037573855 0.04914201
0.03309602 -0.1045803 -0.110748775 -0.07092554 -0.0044608936 0.046504706 -0.088174336 -0.09231863
0.054333158 0.060615 -0.0465399 -0.002467279 -0.06445093 0.06530555 0.118101135 -0.04582147
0.11424505 0.05970686 0.06861309 0.09645024 -0.034443237 0.123140566 0.0005105484 -0.025239382
0.017556068 0.0065056416 0.030031826 0.013610449 0.044121135 0.06351099 0.025546439 -0.004696673
-0.019089822 0.018349348 -0.023254098 0.005691895 0.0010102072 0.0032379872 0.023600046 0.033670805
0.01707496 -0.047910992 0.021542365 0.01654355 0.010666366 -0.01724732 -0.008789394 -0.059602745
-0.035211775 -0.022266457 -0.0061784107 -0.00020497236 0.016910803 0.0004966738 0.011560071 0.027984126
-0.00781947 -0.06953335 0.0008847671 0.024081433 -0.038779534 0.005769709 0.024546292 0.0023745846
-0.007071369 -0.028361134 0.008727936 0.019566536 -0.05805788 -0.002144237 0.04497522 0.0066148737
0.03969259 0.0051347236 -0.035670225 -0.0053837863 0.007239725 0.020705186 0.0014023054 -0.074869044
-0.018327316 0.056993194 -0.022538021 -0.0019962026 -0.03864767 0.036287647 -0.0031007542 -4.628178e-15
-0.02689318 -0.003773216 0.011519842 -0.02893898 0.009491271 0.10743705 0.097138904 -0.045403466
0.10901693 -0.026451066 0.01679982 -0.04270456 0.01188307 -0.05117003 -0.012719563 0.07430359
-0.09511444 0.013141831 -0.109259196 -0.10117152 0.054123573 0.038101573 0.048566483 -0.029375711
-0.023026783 -0.02715416 -0.11611445 -0.018137654 -0.010735175 0.0681594 0.07461892 0.08427404
0.080348164 -0.07665553 0.10919447 0.10953467 -0.07445672 0.11966103 0.0001738871 -0.069627814
0.025716508 -0.030104473 -0.020434903 0.07431137 0.02312317 0.0597007 -0.0019187799 0.08321305
-0.11763855 -0.008358594 0.0032874153 0.028217368 0.036827236 -0.00440616 -0.09832424 0.049605485
0.082338266 0.021426318 0.108818874 -0.024329603 0.11420711 0.006683734 -0.057354447 -0.09805769
00000000: 7090 3f3b 7625 e4bd b365 d1bd af48 3fbd
00000010: 151b b53d d5c1 e73d 2e2f 99bd 61d1 26bd
00000020: 038c bf3c 2640 9b3d 46f6 693d db37 1dbd
00000030: 9e94 31bc cf1d 81bd 3284 ac3d f21c 06bd
00000040: ed80 753d 0ee6 ba3d 474d a8bc 860c 84bb
00000050: d27f a43d e422 e03d 1708 6abd 639e 8e3d
00000060: afff bf3d 7c67 c7bd afe0 c43d 5a9c 29bd
00000070: f9ea 16bd e590 ec3c 23d6 25bd 42c5 bbbd
00000080: ea05 6fbc 8cf7 04be bf8a de3b d0d9 353d
00000090: 7c2e 683d 319b 213d 98d6 053d 584b 6bbd
000000a0: 421f 29bd 3c0a b33c 0292 b2bd 5cd8 94bc
000000b0: 89a5 82bc 7232 c7ba 8dcf c43d ad76 013d
000000c0: 73f5 cbbb 9811 bc3d 5d58 2c3c 5f92 363d
000000d0: 456f a4bd c0fe d0bd 4233 b93d 9afb cdbd
000000e0: 7272 5a3d a462 c6bd d43a f13c 4ca7 393d
000000f0: 4a36 e73d f647 d6bd c0d2 89bd 70b7 873d
00000100: 929d 77bd d93a ef3d 3ce8 91bd 7933 9a3d
00000110: 1d7c 8cbd da72 e13d d70e 773d 622d ee3c
00000120: 9719 0c3c 7372 9a3d 06b8 c0bd 68aa 8ebc
00000130: d0aa e53d d58b f63b b555 bfbd 4af8 d53d
00000140: af08 a93d 27b6 81bd 6a02 c3bd cf41 ba3c
00000150: 6c2a 8abd cb50 3dbd 00cc e13d 2366 623d
00000160: 3292 72bd 432b 6e3c 19a7 c63d 8149 f3bc
00000170: 6d00 c43c 1b46 4abd b0a2 8dbc 6c7b fe3b
00000180: 4cd6 813d 6a1a 283d 97de d63d 18dc 4fbc
00000190: 05f9 243d 5436 4dbd 783e 763b 2249 493d
000001a0: b18f 073d 322e d6bd 41d0 e2bd 6941 91bd
000001b0: b02c 92bb b87b 3e3d bf94 b4bd 8d11 bdbd
000001c0: 728c 5e3d 6f47 783d 9fa0 3ebd 13b2 21bb
000001d0: d9fe 83bd ebbe 853d 02df f13d 4baf 3bbd
000001e0: 4ff9 e93d 2e8f 743d 0585 8c3d b487 c53d
000001f0: 5a14 0dbd 1f31 fc3d 53d6 053a d2c2 cebc
00000200: bed1 8f3c 472d d53b 4e05 f63c 5cfe 5e3c
00000210: 5db8 343d 0d12 823d c446 d13c 8ce6 99bb
00000220: 4262 9cbc 5f51 963c 617f bebc 1383 ba3b
00000230: ee68 843a 6934 543b e254 c13c 66ea 093d
00000240: c9e0 8b3c 513e 44bd 9d79 b03c 5786 873c
00000250: fbc1 2e3c 404a 8dbc 6401 10bc 0222 74bd
00000260: 393a 10bd 2568 b6bc 4474 cabb d9ed 56b9
00000270: 8688 8a3c 3733 023a 7466 3d3c f73e e53c
00000280: 3c1d 00bc 8067 8ebd b7ef 673a 6d46 c53c
00000290: 4ad7 1ebd d40f bd3b 4e15 c93c eb9e 1b3b
000002a0: f1b6 e7bb 9c55 e8bc 9eff 0e3c 004a a03c
000002b0: 19ce 6dbd 5486 0cbb f037 383d 95c1 d83b
000002c0: b294 223d 2f41 a83b f11a 12bd 796a b0bb
000002d0: 373b ed3b ec9d a93c 90cd b73a f154 99bd
000002e0: 2b23 96bc b271 693d a8a1 b8bc b9d2 02bb
000002f0: 054d 1ebd 5ba2 143d 0636 4bbb 68bf a6a7
00000300: 164f dcbc 0f48 77bb b8bd 3c3c 7111 edbc
00000310: 4781 1b3c f507 dc3d c3f0 c63d fcf8 39bd
00000320: 4544 df3d e8af d8bc c79f 893c faea 2ebd
00000330: 35b1 423c aa97 51bd b765 50bc 7b2c 983d
00000340: 5ccb c2bd d650 573c 49c3 dfbd 0433 cfbd
00000350: aeb0 5d3d 6510 1c3d a6ed 463d 55a5 f0bc
00000360: aaa2 bcbc 6772 debc 6acd edbd 6b95 94bc
00000370: 96e2 2fbc 2897 8b3d ced1 983d de97 ac3d
00000380: 948d a43d 93fd 9cbd 5aa1 df3d b753 e03d
00000390: c47c 98bd d810 f53d 7755 3639 0799 8ebd
000003a0: 6dab d23c a89d f6bc 1967 a7bc 8f30 983d
000003b0: cd6c bd3c b988 743d 927f fbba 9b6b aa3d
000003c0: 7bec f0bd 7cf2 08bc ad71 573b 1c28 e73c
000003d0: 28d8 163d 8d61 90bb 385e c9bd 1f2f 4b3d
000003e0: f7a0 a83d 3f86 af3c 6edc de3d e04e c7bc
000003f0: 6be5 e93d 3903 db3b 7fec 6abd 78d2 c8bd

encoder.mlp.2.bias f4 [128]
0.017487135 -0.021098718 0.0086051375 -0.05486424 0.02282124 0.06357563 0.003141721 -0.03014332
0.033647418 -0.03375269 0.01334514 0.055368457 -0.06410838 0.012979603 -0.0007185992 0.00932678
-0.0123583535 -0.0391515 0.013079708 0.031843293 -0.050694413 -0.0035872317 -0.056962654 -0.0051185265
0.027157195 -0.0480711 -0.02740493 -0.07788932 -0.07668315 0.013916522 0.039519697 0.0052520297
-0.015676407 0.08489647 0.033170175 -4.1089527e-26 -0.016829237 -0.014651075 -0.039753903 -0.0036432578
0.029915921 -0.013780446 0.022474328 -0.07121101 0.007914987 -0.052157592 0.011927842 0.0009848729
-0.070014045 -0.06601408 0.014293998 -0.010149789 -0.034173656 -0.031158857 -0.037057903 -0.010543485
0.028254475 0.013878384 -0.018756187 0.048367705 -0.051281366 0.059211217 0.001900901 0.06825988
-0.00049401796 0.0092019895 0.007318597 -0.010481466 0.01921368 -0.04097954 -0.0006303818 -0.0067093624
-0.028736327 0.064333364 0.0056540733 0.016714621 -0.03758926 -0.016089922 -0.044008207 6.0835234e-13
-0.039576065 -0.0135774305 0.007608159 0.02302399 0.037183844 -0.000880321 0.01740376 0.059348084
0.016998127 0.053073756 -4.275763e-09 -0.017147854 0.04592531 -0.0024411993 0.021879321 -0.02032298
-0.039744563 -1.0719847e-07 0.0010294821 -0.04048075 0.02362842 0.024801008 -0.050146572 -0.012234853
0.028150136 0.0163477 0.037632246 0.056530315 0.020636862 0.025390266 0.028653998 -0.0012062498
0.0064690444 0.04038397 -0.030386519 0.005734206 0.01206528 0.011274453 -0.032564722 0.025552737
-2.1470683e-08 0.01439174 -0.0037296957 -0.03258248 -0.06444168 5.616078e-29 0.051215917 0.027377652
00000000: 2e41 8f3c 38d7 acbc 90fc 0c3c 53b9 60bd
00000010: 9cf3 ba3c f133 823d 55e5 4d3b 20ef f6bc
00000020: e0d1 093d 4340 0abd 93a5 5a3c 09ca 623d
00000030: 414b 83bd 67a8 543c 6060 3cba 5acf 183c
00000040: b17a 4abc 535d 20bd 464c 563c 1d6e 023d
00000050: f2a4 4fbd c317 6bbb ac51 69bd 50b9 a7bb
00000060: c478 de3c 34e6 44bd 4e80 e0bc 7084 9fbd
00000070: 0e0c 9dbd 2002 643c 68df 213d 3819 ac3b
00000080: cf6b 80bc 33de ad3d 73dd 073d 2a77 4b95
00000090: 78dd 89bc 100b 70bc fdd4 22bd b9c3 6ebb
000000a0: 3c12 f53c 61c7 61bc 151c b83c 14d7 91bd
000000b0: ddad 013c 33a3 55bd ff6c 433c da16 813a
000000c0: 8663 8fbd 6432 87bd 5f31 6a3c 4d4b 26bc
000000d0: adf9 0bbd dc40 ffbc 07ca 17bd 95be 2cbc
000000e0: ee75 e73c 2962 633c 93a6 99bc 371d 463d
000000f0: 690c 52bd 7687 723d a727 f93a d6cb 8b3d
00000100: fc80 01ba f1c3 163c d7d0 ef3b 74ba 2bbc
00000110: 0266 9d3c 2ada 27bd 3540 25ba 36da dbbb
00000120: 7268 ebbc 36c1 833d ce45 b93b 1aed 883c
00000130: 32f7 19bd 03cf 83bc f341 34bd 683c 2b2b
00000140: 831a 22bd df73 5ebc dd4d f93b cf9c bc3c
00000150: 164e 183d 58c5 66ba 5592 8e3c fa16 733d
00000160: a83f 8b3c de63 593d 02ea 92b1 a879 8cbc
00000170: 2e1c 3c3d 87fc 1fbb 433c b33c 617c a6bc
00000180: 32cb 22bd fb34 e6b3 b0ef 863a 25cf 25bd
00000190: 6390 c13c 7c2b cb3c 7e66 4dbd b174 48bc
000001a0: 1d9b e63c 9deb 853c 4524 1a3d 558c 673d
000001b0: a30e a93c 3fff cf3c cabb ea3c 071b 9eba
000001c0: 47fa d33b a969 253d 26ed f8bc 02e6 bb3b
000001d0: 74ad 453c 7cb8 383c 9662 05bd f953 d13c
000001e0: 886e b8b2 55cb 6b3c e96d 74bb 3575 05bd
000001f0: 00fa 83bd 6e62 8e10 c8c7 513d 1947 e03c

encoder.mlp.4.weight f4 [256, 128]
0.0033428778 0.025452593 6.3688e-41 -0.0056445636 -0.015202844 -9.923e-42 -2.659308e-05 -0.011850409
0.0007829758 -1.0047e-41 -1.2365e-41 -0.057699237 0.027495341 -0.0011389098 -5.807172e-38 0.07542122
-0.024215264 -0.005353636 -1.9589e-41 -0.004340057 0.026840147 -0.067257464 0.025665905 -0.06395263
0.034639772 0.026208557 -1.5322e-41 -0.047432035 0.034474157 -1.0053e-41 -0.05138535 1.009e-41
-1.1599e-41 -0.042742323 0.032323353 -1.6183518e-27 0.017917726 0.07213821 -0.021503575 -1.082e-41
0.024936417 9.9e-42 0.036471706 6.105882e-39 0.0022401519 0.06845154 0.032975085 -1.006e-41
0.05313204 -0.032969337 0.012523095 -0.06163808 -0.023934748 -0.074702084 -0.060302015 0.035780933
-0.07540449 0.04335557 0.015228998 -0.056941837 0.017141655 -2.9566243e-08 -0.044991758 0.08144497
-1.0189e-41 -0.02632473 0.06598218 -0.012603003 -5.7973137e-36 -0.017111856 0.00017082685 -0.054463368
1.1741e-41 0.048491366 0.072625056 7.642044e-34 -0.011957711 -0.024721503 0.030600542 2.9890278e-14
-0.023820296 0.06777855 0.050511323 -0.057535905 -0.04643058 -0.0002515225 -0.048497774 -0.06501441
8.709674e-38 -0.047057196 -6.7363217e-09 0.07504064 1.2174e-41 0.0046051014 -0.040189654 3.3000834e-36
0.057296835 -9.536781e-09 -0.040118035 0.019381866 -0.024919318 -0.0815318 -0.00034750497 -0.029556056
0.023845704 -0.055554904 0.051237542 0.014502206 1.2152e-41 1.318793e-34 0.0040408373 0.019110506
-0.009618083 0.029867131 -0.031768385 0.06699728 -0.10219085 6.7035785e-08 -0.108817905 -0.04388713
0.00028403965 0.028797468 1.0197e-41 -0.010346034 0.07204358 -3.3495597e-30 0.06886501 0.01689892
-0.047490112 0.063336976 0.036352843 -0.06929254 0.02390529 0.009892575 0.044206653 -9.846e-42
-0.07435225 0.047128282 -0.033789244 0.034135673 -0.054048598 -0.01079222 -0.0058776243 0.017213942
0.0017395169 -0.08010515 -0.014766066 -0.06878682 0.034719743 -0.0034244766 -0.027688807 0.051113844
-0.033861846 -0.037970662 1.1158734e-14 -0.017794184 0.036011655 0.02265447 -0.0076937475 0.015916243
0.009656891 -0.0087494785 -0.0140093155 5.0384244e-28 0.0065745623 -0.045507032 -0.06777867 0.041061617
-0.040286366 0.027117448 0.047829073 0.031410646 -0.025944337 -0.041922577 -0.050059248 0.004543021
0.0057036304 0.046471506 -0.025952628 0.0046869996 0.043229245 0.030092226 -0.033394475 0.029138291
-0.058470506 -0.015376622 0.07783577 -0.022144223 -0.0768086 0.0077965576 -0.033159763 -0.011738211
0.007477986 -0.041874144 0.0505985 -0.020309733 0.08896361 -0.06023471 0.00043206895 0.015830107
0.024288114 0.027321622 0.029209364 0.02576985 -0.019900925 -0.026709592 0.013648974 2.1922485e-13
-0.06255152 0.010818513 -0.015372077 0.01568935 0.017689047 0.06924439 -0.0048122504 0.056369774
-0.040667634 -0.0135350805 3.04422e-11 0.019930528 0.028348196 1.055e-41 -0.035278656 0.0524349
0.029673101 1.265166e-14 -0.044510838 -0.0016542816 0.08174855 0.054769456 -0.009573852 0.020655042
0.05024863 0.045497164 -0.019138344 0.04240162 0.034721125 -0.029454632 -0.0011932134 -0.0003300008
0.026722297 0.034540538 -0.02142468 0.010849735 -0.027478324 0.01697624 -0.019693123 0.03113727
-4.0467847e-09 -0.025775492 0.019251378 0.038965065 0.039397575 3.9239273e-29 -0.069991596 -0.06388576
00000000: 2f14 5b3b f581 d03c 89b1 0000 08f6 b8bb
00000010: 5915 79bc a91b 0080 3414 dfb7 3828 42bc
00000020: 9e40 4d3a 021c 0080 7822 0080 0956 6cbd
00000030: e93d e13c 7947 95ba 1516 9e81 7176 9a3d
00000040: 175f c6bc 8e6d afbb 9b36 0080 0937 8ebb
00000050: dedf db3c 48be 89bd 4e41 d23c 99f9 82bd
00000060: 6fe2 0d3d 54b3 d63c b62a 0080 1848 42bd
00000070: c634 0d3d 061c 0080 7279 52bd 201c 0000
00000080: 5520 0080 9312 2fbd 7e65 043d 1338 0093
00000090: 32c8 923c 33bd 933d 4428 b0bc 291e 0080
000000a0: 7547 cc3c 991b 0000 5b63 153d b77c 4200
000000b0: 83cf 123b 5230 8c3d e210 073d 0b1c 0080
000000c0: fba0 593d db0a 07bd ab2d 4d3c 3678 7cbd
000000d0: ce12 c4bc 68fd 98bd 3fff 76bd 078f 123d
000000e0: ab6d 9abd 9c95 313d 0c83 793c d83b 69bd
000000f0: a86c 8c3c dbf8 fdb2 4749 38bd 9fcc a63d
00000100: 671c 0080 f6a6 d7bc aa21 873d d37c 4ebc
00000110: 2897 f684 2a2e 8cbc fc1f 3339 fb14 5fbd
00000120: bb20 0000 e29e 463d 72bc 943d 52f3 7d08
00000130: 46ea 43bc c084 cabc fdad fa3c 259d 0629
00000140: c822 c3bc 7bcf 8a3d f6e4 4e3d c5aa 6bbd
00000150: fe2d 3ebd c7de 83b9 9aa5 46bd 4626 85bd
00000160: 9219 ed01 0cbf 40bd 5075 e7b1 e8ae 993d
00000170: f021 0000 64e6 963b e89d 24bd ba5e 8c04
00000180: 16b0 6a3d 35d7 23b2 cf52 24bd b8c6 9e3c
00000190: 9923 ccbc 25fa a6bd 5431 b6b9 8b1f f2bc
000001a0: 1158 c33c 8a8d 63bd 75de 513d a99a 6d3c
000001b0: e021 0000 334c 2f07 0069 843b a38d 9c3c
000001c0: 2a95 1dbc eaab f43c 911f 02bd df35 893d
000001d0: 7049 d1bd 50f5 8f33 ecdb debd fec2 33bd
000001e0: 28eb 9439 abe8 eb3c 6d1c 0000 6982 29bc
000001f0: 968b 933d d1df 878e 1909 8d3d 9b6f 8a3c
00000200: fe84 42bd d1b6 813d b8e6 143d 3fe9 8dbd
00000210: 07d5 c33c 7814 223c 0912 353d 721b 0080
00000220: fe45 98bd 9609 413d 9766 0abd d9d1 0b3d
00000230: 1062 5dbd dad1 30bc 1699 c0bb 4104 8d3c
00000240: 8000 e43a 2b0e a4bd 5fed 71bc 1be0 8cbd
00000250: 4a36 0e3d 2f6d 60bb a3d3 e2bc c05c 513d
00000260: b8b2 0abd 2087 1bbd 9404 4928 1cc5 91bc
00000270: f580 133d de95 b93c d51b fcbb c862 823c
00000280: f037 1e3c f959 0fbc 5487 65bc 8eac 1f12
00000290: 6d6f d73b 9565 3abd 8bcf 8abd 3a30 283d
000002a0: 5103 25bd 6925 de3c 6be8 433d 73a8 003d
000002b0: 3889 d4bc 02b7 2bbd ed0a 4dbd 9fdd 943b
000002c0: 85e5 ba3b e858 3e3d 9b9a d4bc 6795 993b
000002d0: 2611 313d f983 f63c a5c8 08bd 6db3 ee3c
000002e0: c57e 6fbd 3aee 7bbc 5c68 9f3d cd67 b5bc
000002f0: d44d 9dbd 447a ff3b 88d2 07bd a051 40bc
00000300: e509 f53b 3984 2bbd 5f40 4f3d 9960 a6bc
00000310: 8e32 b63d acb8 76bd 5087 e239 24ae 813c
00000320: def7 c63c 98d1 df3c 7a48 ef3c 4b1b d33c
00000330: 4407 a3bc 13ce dabc f29f 5f3c 43d3 762a
00000340: 031b 80bd 2240 313c 2adb 7bbc f486 803c
00000350: 9fe8 903c 01d0 8d3d 15b0 9dbb fee3 663d
00000360: 1b93 26bd 3ec2 5dbc dfe2 052e 5945 a33c
00000370: 7a3a e83c 691d 0000 5a80 10bd fac5 563d
00000380: 0115 f33c 7ce9 6328 ff50 36bd 7bd4 d8ba
00000390: c96b a73d f055 603d a5db 1cbc c334 a93c
000003a0: 82d1 4d3d 3c5b 3a3d 04c8 9cbc 52ad 2d3d
000003b0: bd37 0e3d d74a f1bc 9965 9cba f503 adb9
000003c0: b8e8 da3c 617a 0d3d cf82 afbc 16c3 313c
000003d0: 391a e1bc c111 8b3c 7953 a1bc 9713 ff3c
000003e0: e50b 8bb1 2027 d3bc 11b5 9d3c d599 1f3d
000003f0: 5a5f 213d 7df7 4610 c157 8fbd 8ad6 82bd

encoder.mlp.4.bias f4 [256]
-0.052313242 -0.0046909093 -0.009686248 -0.009355892 0.00059276825 -0.028420854 0.010899082 -0.003312386
-0.00032434924 -0.019928351 0.010939543 -0.0003087667 -0.02333362 -0.020597005 0.0013965672 0.027438177
-0.058732305 -0.019207183 0.029058699 0.009869661 -0.010301332 0.029675657 0.051558815 -0.028759288
0.05680609 0.0076404093 0.007820574 0.08134295 0.013853901 0.009153392 0.040451244 -0.025000457
-0.006614473 -0.009767914 0.03181183 -0.006514482 -0.0641349 -0.050354946 -0.025385855 0.032637466
-0.023632599 0.040574554 -0.0060766716 -0.0025250854 0.008145033 -1.921443e-37 0.018951295 0.040536888
0.052363496 -0.04049051 0.0025098096 0.00028252916 0.00046574368 -0.03790432 -0.018230712 -0.02184361
0.05803733 -0.041913748 -0.051557932 0.01838867 0.0028713741 -0.036399323 -0.013230222 0.018455718
-0.043920647 -0.011188434 0.010024031 0.0021392654 -0.02559646 2.0628844e-20 0.019582804 4.0567793e-05
0.0027522272 -0.0002585772 -0.0035804561 -0.004686239 0.0069530825 0.014295287 -0.05366128 -0.01936745
-0.012609693 -0.033204064 0.03927187 0.029354107 -0.011882839 -0.004747165 0.029659068 0.022509996
0.024209969 -0.004283696 -0.020812899 -0.059280746 0.0047985967 -0.008558614 -0.022154808 0.0022194327
0.0045014676 0.025098344 0.04850164 9.271306e-29 0.013136203 0.0032224797 -0.025729265 0.01860233
0.001918858 -0.010968098 -0.009483567 0.0004693468 -0.053503033 -0.054907333 0.011506224 -0.0063815885
-0.04042014 -0.063649066 0.004843093 -0.048572592 -0.015261406 0.0027070658 -0.024805134 -0.016194943
-0.060271055 -0.048396386 0.0015441013 -0.05491293 -0.00018892101 -0.02439703 0.009057778 0.024349669
0.019049674 0.008406617 -0.052990623 0.00082781067 -8.1627906e-11 -0.009688717 -0.027573803 -0.0129206525
-0.0063135657 -0.026741913 7.0027034e-33 0.00902544 0.0030325314 0.001434531 -0.017649787 0.011900798
-0.023266617 -0.047214318 0.00041360047 -0.0033976212 0.019919036 0.038836773 -0.04635929 -0.0033998864
-0.022458829 -0.012998966 0.009730052 -0.00773686 -0.00056806975 -0.017866096 -0.034876343 -0.013516886
5.3009593e-16 0.023796864 -5.130405e-19 -0.031365093 0.03662344 -0.00090133754 -0.04644918 -0.006649966
0.004085031 -0.0446887 0.025785504 0.021448767 0.008907112 -0.009444498 -0.020080904 0.02906324
-0.00050921674 -0.011232258 -0.00028050164 0.020728942 0.01651656 -0.012056547 -0.018537724 0.029912217
-0.0049665803 -0.030580133 0.05304686 0.023196936 -0.045595866 0.021996828 0.014657198 -0.0010430667
0.011271275 -0.009579595 -0.04070868 0.0011421808 -0.058435258 -0.020133018 0.004051955 0.016464116
0.008220545 4.0752645e-18 0.012133103 -0.0050506913 -0.010405539 -0.00015191706 -0.016573414 -0.01144586
0.054795068 0.0034474235 -0.030195389 -0.03518831 -0.052003123 0.026038084 -0.005438117 -0.0006382588
-0.03593472 -0.018538201 -0.051524017 -0.036940105 -0.009423947 0.026965942 -0.034945197 -0.011333182
1.6108624e-22 0.013341493 -0.016598135 0.015793374 -0.06189771 0.01799243 -0.04550918 -0.0004935731
-0.041002568 -0.012050114 -0.03810058 0.061237693 0.0016959655 0.001240596 -0.011864551 -4.697413e-38
-0.02601902 -0.04366461 -0.050605822 -2.7735312e-34 0.009897659 -0.016769987 0.010674523 -0.061624397
-0.009357944 -1.6500409e-06 0.0017271827 -0.032119133 0.0022564237 -0.04407079 -0.012474757 0.0027380309
00000000: 6946 56bd 33b6 99bb 12b3 1ebc 7549 19bc
00000010: 0164 1b3a dad2 e8bc 1092 323c 9e14 59bb
00000020: 6b0d aab9 c840 a3bc c53b 333c f7e1 a1b9
00000030: 2626 bfbc 0dbb a8bc 050d b73a 07c6 e03c
00000040: 4991 70bd 6258 9dbc 820c ee3c 5cb4 213c
00000050: ebc6 28bc 5d1a f33c 562f 533d 9998 ebbc
00000060: 81ad 683d 665c fa3b dd21 003c 2297 a63d
00000070: 79fb 623c 1cf8 153c 34b0 253d c2cd ccbc
00000080: 39be d8bb 9a09 20bc 1f4d 023d 7077 d5bb
00000090: 2959 83bd fd40 4ebd fff5 cfbc ddae 053d
000000a0: 2799 c1bc 8131 263d d11e c7bb e77b 25bb
000000b0: bf72 053c 42c4 8282 bf3f 9b3c 020a 263d
000000c0: 1b7b 563d 61d9 25bd 9e7b 243b 6c20 9439
000000d0: 0f2f f439 8f41 1bbd 9358 95bc 5ff1 b2bc
000000e0: 8db8 6d3d c0ad 2bbd 692e 53bd d6a3 963c
000000f0: aa2d 3c3b 7517 15bd 93c3 58bc 7230 973c
00000100: 23e6 33bd b24f 37bc d53b 243c eb32 0c3b
00000110: abaf d1bc 7cd5 c21e 1e6c a03c 5627 2a38
00000120: b65e 343b a591 87b9 16a6 6abb 068f 99bb
00000130: afd6 e33b c836 6a3c eecb 5bbd 7da8 9ebc
00000140: e398 4ebc fc00 08bd 8adb 203d 0678 f03c
00000150: 3db0 42bc 1b8e 9bbb 93f7 f23c e266 b83c
00000160: fc53 c63c 3f5e 8cbb d07f aabc 5ed0 72bd
00000170: 8c3d 9d3b 6e39 0cbc 007e b5bc e773 113b
00000180: 0c81 933b 0b9b cd3c a8a9 463d 370e eb10
00000190: 3b39 573c 3d30 533b 2ec6 d2bc ea63 983c
000001a0: 3182 fb3a 8ab3 33bc f760 1bbc a912 f639
000001b0: ff25 5bbd 83e6 60bd 9a84 3c3c a51c d1bb
000001c0: 978f 25bd 715a 82bd cfb2 9e3b 0ef4 46bd
000001d0: fa0a 7abc 0769 313b 2334 cbbc 42ab 84bc
000001e0: c8de 76bd 4a3b 46bd 7163 ca3a 61ec 60bd
000001f0: 1919 46b9 48dc c7bc 1367 143c f578 c73c
00000200: 100e 9c3c e8bb 093c b20c 59bd 6f01 593a
00000210: 6d80 b3ae 6dbd 1ebc 75e2 e1bc 25b1 53bc
00000220: 07e2 cebb db11 dbbc c270 110a 70df 133c
00000230: 6fbd 463b df06 bc3a 4996 90bc 91fb 423c
00000240: a299 bebc cd63 41bd 84d8 d839 a0aa 5ebb
00000250: 3f2d a33c 4f13 1f3d 3de3 3dbd a1d0 5ebb
00000260: 94fb b7bc 9df9 54bc cc6a 1f3c 7c85 fdbb
00000270: 84ea 14ba eb5b 92bc 7fda 0ebd ee75 5dbc
00000280: 2dca 1826 a4f1 c23c 3f6c 17a1 af78 00bd
00000290: 7602 163d bd47 6cba 7f41 3ebd f5e7 d9bb
000002a0: b9db 853b 800b 37bd 1f3c d33c 53b5 af3c
000002b0: 23ef 113c 19bd 1abc b580 a4bc 0816 ee3c
000002c0: f57c 05ba 8107 38bc 4b10 93b9 becf a93c
000002d0: bd4d 873c d388 45bc 6ddc 97bc 770a f53c
000002e0: b2be a2bb 3083 fabc aa47 593d 8007 be3c
000002f0: bbc2 3abd b132 b43c bf24 703c 83b7 88ba
00000300: 27ab 383c bcf3 1cbc 25be 26bd 3ab5 953a
00000310: cf59 6fbd 00ee a4bc 43c6 843b c1df 863c
00000320: 77af 063c c959 9622 ecc9 463c 4580 a5bb
00000330: fe7b 2abc ed4b 1fb9 f8c4 87bc 6b87 3bbc
00000340: cb70 603d 2bee 613b 525c f7bc 9e21 10bd
00000350: 3a01 55bd d24d d53c 3b32 b2bb d350 27ba
00000360: 4930 13bd 6ddd 97bc d90a 53bd 824e 17bd
00000370: e666 1abc aee7 dc3c b222 0fbd d0ae 39bc
00000380: c7bd 421b 4796 5a3c d0f8 87bc 1b61 813c
00000390: 7488 7dbd dc64 933c d567 3abd 2163 01ba
000003a0: 4ff2 27bd d76d 45bc 5b0f 1cbd 60d4 7a3d
000003b0: 294b de3a 7e9b a23a 8963 42bc 62c0 7f81
000003c0: d725 d5bc a9d9 32bd 0d48 4fbd 3055 b887
000003d0: ca29 223c 3661 89bc 32e4 2e3c dd69 7cbd
000003e0: 1052 19bc f976 ddb5 a262 e23a 5a8f 03bd
000003f0: 82e0 133b 9383 34bd ec62 4cbc 8970 333b

pos_mlp.0.weight f4 [32, 1]
-0.338279 -0.13669708 -7.257193e-06 -1.1649e-41 0.73343563 -0.54247737 0.80183816 -0.19053774
0.87147045 -0.0006652567 -0.5001383 8.405536e-07 -0.6262841 0.1358924 -5.120715e-05 0.5926162
0.8222583 0.35442388 -0.5487311 -1.1006533e-24 -5.4863558e-05 -1.0387168 -0.00028780545 -1.2255832e-07
0.70412713 -0.40350533 -0.26718885 -1.4060067e-10 -0.68911695 1.1221582 0.6513603 -2.5420355e-10
00000000: e832 adbe 52fa 0bbe d082 f3b6 7920 0080
00000010: 70c2 3b3f ccdf 0abf 4445 4d3f 531c 43be
00000020: b018 5f3f 9f64 2eba 1009 00bf 67a2 6135
00000030: 2854 20bf 6127 0b3e 42c7 56b8 b2b5 173f
00000040: 857f 523f 0c77 b53e a479 0cbf 5f51 aa97
00000050: 4c1d 66b8 acf4 84bf 98e4 96b9 9398 03b4
00000060: ad41 343f 4098 cebe facc 88be 9297 1aaf
00000070: f869 30bf e1a2 8f3f 8cbf 263f f8bf 8baf

pos_mlp.0.bias f4 [32]
0.33385405 0.13527633 -5.1629735e-07 -0.00018330028 0.12781411 0.34104684 0.36010677 0.14089723
-0.50787985 -1.9087707e-09 0.49097618 -0.0007961004 0.61594737 0.6227016 -1.8879555e-05 -0.23492244
-0.051150404 0.009677716 0.45224255 -0.002815902 -0.00069489575 1.0064547 -0.002316707 -0.00017048544
1.0673589 0.39806297 0.26445612 -1.0827853e-10 0.8691041 0.23176171 -0.003711977 -0.00012071122
00000000: ebee aa3e e185 0a3e af97 0ab5 4b34 40b9
00000010: b4e1 023e b19d ae3e ea5f b83e 5d47 103e
00000020: 6a04 02bf 732b 03b1 3b61 fb3e 65b1 50ba
00000030: baae 1d3f 5f69 1f3f 895f 9eb7 828f 70be
00000040: 1683 51bd 488f 1e3c 568c e73e ff8a 38bb
00000050: aa29 36ba 82d3 803f e5d3 17bb 56c4 32b9
00000060: 379f 883f e9ce cb3e cb66 873e 651b eeae
00000070: 9b7d 5e3f f152 6d3e a444 73bb 5826 fdb8

pos_mlp.2.weight f4 [32, 32]
-1.7349101e-16 -6.982921e-17 3.950239e-20 2.5177037e-31 -4.3253796e-16 1.2852083e-16 -6.7785416e-16 -5.4944003e-17
-3.94438e-17 -6.6421216e-30 -2.516098e-16 2.1357624e-28 -3.1619864e-16 -6.304951e-16 1.03564e-30 -7.599753e-17
3.9528892e-16 -9.4651445e-17 -1.9949196e-16 1.0246e-41 5.7794756e-38 4.3567267e-16 -2.4024349e-28 -5.9819504e-36
1.7385928e-15 3.314581e-16 -1.356996e-16 -1.1252056e-19 -5.073985e-16 -6.5192245e-16 -2.7119782e-16 1.019e-41
-0.036780957 -0.035021182 -2.010522e-08 1.5955766e-21 0.35771102 -0.24066196 0.23137237 0.11329372
0.081309944 5.0169684e-20 -0.119244345 1.0137e-41 -0.17762166 0.34529054 1.0389e-41 0.30451608
0.35225925 0.19850463 -0.090378925 3.26473e-27 -2.1715073e-30 -0.13183624 -2.2123494e-30 -1.3794237e-35
0.17523284 -0.06525053 -0.23778275 1.4221113e-34 -0.29228798 0.21178696 0.22880268 -1.688658e-38
-0.14903949 -0.07179432 2.1009193e-08 1.0088e-41 0.27116367 -0.10383199 0.26293588 0.11036176
0.09871059 1.0546e-41 -0.16261448 2.649969e-23 -0.27260613 0.11869225 1.028e-41 0.28580028
0.060307503 0.15577506 -0.012894796 1.0710154e-30 2.2024e-41 -0.19152269 1.0068e-41 -1.1765e-41
0.18924005 -0.19022459 -0.10200056 1.0469e-41 0.032536395 0.2779744 0.11579054 1.4128918e-21
-0.2561317 -0.10440306 5.4982e-08 1.4652571e-21 0.3142534 -0.1720169 0.07685321 0.05788672
0.086351536 -9.871e-42 -0.011182515 1.1272196e-36 -0.12740809 0.20117775 1.7084513e-30 0.09334883
0.30245018 0.05825165 -0.09522675 -1.3482357e-21 -1.7582873e-35 -0.20542137 1.5100555e-21 -1.0224232e-34
0.21095088 -0.019092163 -0.19400771 6.1978612e-24 -0.13022898 0.17479405 0.10398711 -5.481396e-20
0.30134898 0.045800585 -3.7072944e-08 9.911e-42 -0.13999178 0.14536051 -0.036591124 0.09640525
-0.11124788 -6.078476e-33 0.32685146 -8.577e-42 0.31336635 0.062265385 -1.9222815e-29 -0.090597145
-0.027581956 -0.07599409 0.29528114 7.6590876e-24 1.0377e-41 0.027418135 -1.7103e-41 3.7894122e-31
0.17493609 0.28880867 0.24160646 -1.1903e-41 0.18581943 -0.20968652 -0.10175027 2.1301641e-38
0.32342878 0.17007802 8.059543e-08 -1.0835711e-23 0.027598426 0.20295052 0.10801329 0.09563962
-0.27058616 1.8698366e-38 0.34445 1.0141e-41 0.05472999 0.25449347 -3.5025197e-25 -0.1400628
-0.19508488 -0.2225246 0.2656337 -7.3231955e-25 9.924e-42 0.19201404 -1.0456885e-31 -5.391187e-21
0.17504527 0.23809043 0.16453052 -9.86e-42 0.34063083 -0.21935625 -0.18344583 -6.9405982e-31
-0.16240585 -0.10237872 1.0088054e-07 -2.3261488e-21 0.11791807 -0.096768275 0.30444184 0.03649657
0.1730258 2.4821308e-23 -0.07551317 1.249e-41 -0.11785622 -0.067633495 3.0991465e-32 0.12243261
0.16262697 0.086753845 -0.20300777 1.2533e-41 8.4280205e-20 -0.028125828 -4.184542e-26 -1.1778574e-34
0.24315998 -0.21425343 -0.1634484 -1.017e-41 -0.14767292 0.19608283 0.14370519 5.2652953e-27
-0.05755489 -0.014019419 2.2840759e-08 1.0038e-41 0.3360307 -0.079201266 0.24769267 0.118548885
0.15136935 3.2098326e-22 -0.17987756 -1.0183e-41 -0.20800015 0.23454642 1.1085439e-21 0.15574725
0.15939437 0.06026489 -0.05754481 3.3946886e-21 -2.3267605e-30 -0.26747036 3.8120745e-26 3.4068184e-29
0.14514507 -0.2320247 -0.12009968 3.4890933e-23 -0.09631872 0.2851881 0.30894798 8.93724e-21
00000000: 8205 48a5 e403 a1a4 768b 3a1f 8768 a30c
00000010: 5657 f9a5 a72c 1425 cf60 43a6 6e62 7da4
00000020: 05e7 35a4 deb7 068f 0d0b 91a5 ba5e 8711
00000030: af46 b6a5 54ba 35a6 cd0a a80d 063d afa4
00000040: 59de e325 5a40 daa4 a2ff 65a5 901c 0000
00000050: 1155 9d01 f025 fb25 bc45 9891 ac71 fe84
00000060: c18e fa26 9512 bf25 7473 1ca5 41d7 04a0
00000070: 673f 12a6 63e7 3ba6 bc55 9ca5 681c 0000
00000080: a1a7 16bd 5f72 0fbd d9b3 acb2 e11d f11c
00000090: e625 b73e 1770 76be e1ec 6c3e 8a06 e83d
000000a0: d485 a63d 6deb 6c1f 6136 f4bd 421c 0000
000000b0: 74e2 35be ecc9 b03e f61c 0000 88e9 9b3e
000000c0: 535b b43e cc44 4b3e 9618 b9bd 4c54 8113
000000d0: 712c 308e 1400 07be b37c 338e 7caf 9285
000000e0: 3d70 333e 12a2 85bd 527d 73be f107 3d07
000000f0: c5a6 95be aede 583e 404b 6a3e eae0 b780
00000100: cf9d 18be e708 93bd b477 b432 1f1c 0000
00000110: f7d5 8a3e dea5 d4bd 889f 863e 5905 e23d
00000120: c728 ca3d 661d 0000 6984 26be 0725 001a
00000130: 0893 8bbe ec14 f33d a81c 0000 6a54 923e
00000140: 0005 773d 7f83 1f3e b244 53bc 3dc8 ad0d
00000150: 653d 0000 861e 44be 111c 0000 cc20 0080
00000160: 25c8 413e 3cca 42be abe5 d0bd 2f1d 0000
00000170: e244 053d a952 8e3e 9723 ed3d 9b82 d51c
00000180: b223 83be 46d1 d5bd 5925 6c33 636c dd1c
00000190: d2e5 a03e 3325 30be 3765 9d3d a01a 6d3d
000001a0: 13d9 b03d 841b 0080 de36 37bc 57c9 bf03
000001b0: 4477 02be 8a01 4e3e 259b 0a0e ac2d bf3d
000001c0: c0da 9a3e 4899 6e3d 3e06 c3bd 58bd cb9c
000001d0: 22f9 ba85 fb59 52be 7131 e41c 42e7 0787
000001e0: 8203 583e 2b67 9cbc f5a9 46be a5c4 ef18
000001f0: bf5a 05be 36fd 323e 32f7 d43d 016d 819f
00000200: 6a4a 9a3e 6599 3b3d 223a 1fb3 a11b 0000
00000210: 015a 0fbe 63d9 143e 93e0 15bd 1e70 c53d
00000220: eed5 e3bd 727d fc89 1359 a73e e917 0080
00000230: 8e71 a03e fd09 7f3d 48f1 c28f ff8a b9bd
00000240: 8ef3 e1bc caa2 9bbd 172f 973e f725 1419
00000250: ed1c 0000 ff9b e03c ad2f 0080 69f2 f50c
00000260: 7222 333e bbde 933e af67 773e 2e21 0080
00000270: 7347 3e3e 10b8 56be 7262 d0bd 4ff4 e700
00000280: 7598 a53e ef28 2e3e ce13 ad33 d897 5199
00000290: 1816 e23c 43d2 4f3e 1236 dd3d b5de c33d
000002a0: 458a 8abe 709b cb00 c05b b03e 451c 0000
000002b0: 8e2c 603d f84c 823e a4cb d896 9f6c 0fbe
000002c0: 55c4 47be 7ddd 63be 2401 883e 55a4 6297
000002d0: aa1b 0000 549f 443e f6bc 078c 5cac cb9d
000002e0: 113f 333e facd 733e b07a 283e 7c1b 0080
000002f0: 2a67 ae3e ed9e 60be 39d9 3bbe 3c3c 618d
00000300: b84d 26be efab d1bd aaa3 d833 43c2 2f9d
00000310: 077f f13d 722e c6bd cddf 9b3e 6d7d 153d
00000320: ad2d 313e 950e f019 a6a6 9abd d122 0000
00000330: 9a5e f1bd 6e83 8abd b9ea 200b f3bd fa3d
00000340: af87 263e 00ac b13d 45e1 4fbe f022 0000
00000350: 4200 c71f 2368 e6bc 5f35 4f95 6990 1c87
00000360: eefe 783e 4065 5bbe 045f 27be 5a1c 0080
00000370: 9237 17be f0c9 483e 7427 133e 7094 d013
00000380: adbe 6bbd b5b1 65bc 5c33 c432 fb1b 0000
00000390: 370c ac3e 4634 a2bd 26a3 7d3e c2c9 f23d
000003a0: 9100 1b3e c105 c21b d331 38be 631c 0080
000003b0: fefd 54be f02c 703e b784 a71c 357c 1f3e
000003c0: 4738 233e 51d8 763d 1bb4 6bbd 6a3f 801d
000003d0: edc4 3c8e e0f1 88be c9c3 3c15 08bf 2c10
000003e0: e9a0 143e e297 6dbe d2f6 f5bd e2b8 281a
000003f0: c042 c5bd 2d04 923e 6e2e 9e3e d7d1 281e

pos_mlp.2.bias f4 [32]
-7.644515e-16 0.18591635 0.12928182 0.1970474 0.2400755 0.080594756 0.1945532 0.25151107
-8.896916e-19 -0.0049249935 0.3275569 0.2241657 0.08634274 -6.067075e-05 1.2946729e-16 -6.2479916e-15
0.1642416 0.18610229 0.2594429 -1.04699625e-16 0.15209433 0.080569476 0.061171003 0.20180224
0.1994244 0.29012138 1.5230285e-20 -9.504437e-21 0.30633965 0.033349093 0.0875252 0.14940391
00000000: 9156 5ca6 db60 3e3e 7462 043e cbc6 493e
00000010: 5ad6 753e dd0e a53d f438 473e 0fc6 803e
00000020: 994b 83a1 d761 a1bb 8ab5 a73e b18b 653e
00000030: 76d4 b03d b978 7eb8 0044 1525 8d1b e1a7
00000040: f32e 283e 9991 3e3e b3d5 843e c06b f1a4
00000050: 9ebe 1b3e 9c01 a53d 728e 7a3d 3fa5 4e3e
00000060: e935 4c3e ca8a 943e 92d8 8f1e a388 339e
00000070: 8dd8 9c3e 0f99 083d 6940 b33d 57fd 183e

dec_trunk.0.weight f4 [128, 288]
-4.0986231e-22 -4.8538872e-29 1.0832306e-20 -7.7507427e-16 -1.9949012e-13 -1.2820205e-28 1.420534e-39 -2.3317037e-29
-1.0435e-41 -1.000961e-29 2.0357157e-28 -1.0820841e-30 1.1698674e-28 1.5419998e-17 6.070372e-17 -1.7054187e-31
1.9323159e-25 -5.36634e-29 4.870971e-29 6.08346e-29 -1.9633169e-16 1.0011e-41 -4.4176405e-09 -2.6637607e-28
1.997289e-39 4.3336668e-29 5.2575983e-23 1.8803761e-31 -1.0115691e-26 -3.49004e-29 -3.588337e-29 5.537961e-29
-9.959e-42 4.326834e-17 -1.6161738e-30 3.0061147e-31 -1.1900311e-16 -1.0544598e-12 -3.9380287e-30 4.0725053e-30
4.9390236e-29 -4.6388306e-30 -2.15229e-10 -7.538225e-29 -1.075395e-37 1.0385e-41 1.0501e-41 -7.299022e-11
-4.4137594e-30 -2.16024e-40 -2.8072022e-14 -1.8009588e-28 -1.157e-41 -4.971169e-15 -7.6435836e-22 -5.6143037e-29
-5.286237e-32 1.5011416e-27 -2.817189e-29 -6.987637e-24 -9.979e-42 -2.0105044e-28 8.363758e-28 -1.5602631e-14
-8.456652e-24 -1.9376803e-12 -9.47298e-13 -2.8500198e-13 -1.6688731e-35 -3.9938e-41 -2.784246e-29 -1.008e-41
4.2209746e-29 9.2e-43 -5.372946e-30 -4.707832e-13 -2.005329e-28 -4.9072475e-29 -6.370351e-22 3.28978e-21
1.7495193e-20 -1.2227715e-28 1.4130695e-28 3.541884e-17 6.4784053e-23 -6.626398e-30 8.0478813e-23 -5.8634824e-24
1.2428e-28 -1.3665401e-28 -3.1497255e-15 5.6515023e-28 8.262472e-37 -8.2606384e-22 -2.1577685e-25 -1.9406246e-31
-9.855e-42 -8.468663e-22 -9.949429e-26 9.963e-42 -1.8580959e-26 -2.2477025e-28 -6.1183042e-24 -5.3231e-41
-6.70452e-10 1.3908472e-29 -1.2777412e-28 9.2908257e-29 1.8305458e-25 -5.994336e-32 -9.848e-42 6.4623935e-29
-1.7757799e-28 -2.3453745e-10 1.0568881e-17 -2.4421347e-16 -7.401136e-30 -1.9195612e-25 -1.0357475e-28 -8.458653e-31
8.511638e-29 -1.0209873e-07 6.9678755e-29 2.0337332e-21 2.907549e-39 -4.044552e-28 -4.670441e-19 -5.507236e-10
-3.3885528e-15 1.5529722e-28 -1.43199e-15 -4.4923692e-13 -1.0459e-41 -9.966e-42 -5.2295604e-19 1.533591e-17
-7.949545e-24 6.244748e-31 -9.977e-42 1.4332079e-30 7.789854e-29 1.00532e-40 -1.7304588e-28 -6.681786e-24
3.2011272e-23 -7.037736e-27 -5.967276e-36 -3.3868318e-11 -1.3555929e-26 -3.698001e-10 4.4027815e-29 2.1148059e-29
-6.9578137e-15 -2.438795e-29 -1.6138078e-27 -5.773986e-29 1.0543e-41 9.5807425e-29 5.0379852e-24 2.8076525e-27
1.0047e-41 -2.1636333e-30 -1.0073e-41 1.2290217e-17 -3.696054e-29 -1.1511244e-14 1.4021668e-23 2.5031364e-30
-1.2738612e-26 9.10884e-28 4.4490992e-29 -7.3438616e-29 5.8341248e-30 1.5641237e-20 -1.343504e-26 3.1603256e-29
-1.6985e-41 6.189267e-17 8.190814e-28 -2.7200813e-22 -1.0033e-41 -1.0351e-41 1.5447192e-28 7.00646e-18
4.809166e-25 1.1782033e-28 -5.055021e-30 -6.9526853e-29 7.556448e-29 1.1754e-41 -6.2667267e-22 -5.0096763e-29
-3.1639615e-28 1.6829533e-28 -4.6195476e-29 -1.690422e-28 4.1439335e-29 -1.5109147e-13 5.4737244e-17 1.5407712e-28
-3.0185052e-15 3.157e-41 7.460287e-29 -4.071789e-29 -6.2094375e-19 1.0588e-41 -1.6732756e-12 9.6687967e-29
9.692121e-25 1.2055e-41 7.402762e-30 4.799701e-23 -9.61613e-26 -1.0588e-41 -1.0165e-41 3.6829566e-28
-5.70436e-28 -3.6355464e-29 1.8678018e-28 -9.524329e-11 -1.5975318e-28 4.319558e-28 -5.2402393e-29 2.2327956e-28
-9.861e-42 7.1465645e-29 -1.7959251e-28 -5.6654763e-19 -4.3376365e-13 5.1965087e-29 -8.0373607e-29 1.0133e-41
-3.0144282e-10 1.1954973e-24 -4.0118817e-10 -2.391692e-27 -1.1711326e-29 1.2465113e-29 8.063863e-31 9.871e-42
-3.2001767e-29 4.199625e-19 2.6968326e-17 2.48997e-40 1.4910772e-29 -2.544885e-28 1.0731e-41 1.05523495e-20
5.0579163e-29 1.2277e-41 7.174487e-29 1.9634323e-28 8.0986335e-29 -8.145648e-11 -9.277293e-29 2.9532433e-27
00000000: 1fbf f79b 0f1f 7690 d19d 4c1e 6366 5fa6
00000010: 1d9b 60aa f283 2291 df77 0f00 7d76 ec8f
00000020: 171d 0080 de04 4b8f 6007 8111 0494 af8d
00000030: 5e4c 1411 7139 8e23 27f9 8b24 4260 5d8c
00000040: 8935 6f16 8a0d 8890 d2fc 7610 ea3b 9a10
00000050: e35a 62a5 e81b 0000 fac9 97b1 fdd5 a891
00000060: a1bf 1500 36be 5b10 ea3d 7e1a 3716 740c
00000070: a65c 4894 4ff7 3090 47f3 3590 6c67 8c10
00000080: c31b 0080 3d8a 4724 9e1e 038e a61b c30c
00000090: 8533 09a5 eb66 94ab d4be 9f8e 5033 a50e
000000a0: 3170 7a10 5f2c bc8e 94a5 6caf e11d bf90
000000b0: 0c60 1282 f31c 0000 461d 0000 d781 a0ae
000000c0: 190b b38e 305a 0280 add9 fca8 744c 6491
000000d0: 4120 0080 f11a b3a7 5d03 679c ea56 8e90
000000e0: 123d 898b 8add ed12 34d9 0e90 1a29 0799
000000f0: d11b 0080 99dc 7e91 6f87 8412 3889 8ca8
00000100: 5093 2399 255a 08ac 0252 85ab 1d71 a0aa
00000110: 0c77 b185 556f 0080 942d 0d90 191c 0080
00000120: 6207 5610 9102 0000 dcf3 d98e 8183 04ab
00000130: a634 7e91 b7d3 7890 3488 409c 9a91 781d
00000140: c83c a51e 3401 1b91 ba20 3311 3057 2324
00000150: 63a3 9c1a 3a66 068f f995 c21a 1ed5 e298
00000160: 2a8b 1d11 c33a 2d91 2ef6 62a7 6f1a 3312
00000170: 2494 8c03 98a9 799c 358f 8596 50e8 7b8c
00000180: 791b 0080 1bf3 7f9c 0056 f695 c61b 0000
00000190: 5404 b894 0f77 8e91 c0b0 ec98 6394 0080
000001a0: de4a 38b0 750c 8d0f 13f9 2191 e88c eb10
000001b0: 509c 6216 329f 9b8b 741b 0080 55d7 a310
000001c0: 5a1b 6191 36f0 80af 21f6 4223 8cc7 8ca5
000001d0: e51c 168f 53a1 6d96 ee4b 0391 df3f 898d
000001e0: b0cb d710 5f41 dbb3 19a8 b010 1faa 191d
000001f0: 10a9 1f00 4e2d 0092 dbd8 09a1 ba61 17b0
00000200: c42b 74a7 d4dc 4411 1b5f cea6 dde5 fcaa
00000210: 281d 0080 c81b 0080 7159 1aa1 e572 8d23
00000220: 3dc4 1999 56a7 4a0d d01b 0080 218d e80d
00000230: 0b7f c510 3e18 0100 995c 5b91 9a3e 0199
00000240: 09cc 1a1a 9065 0b94 e2d1 fd84 56f4 14ae
00000250: 5d40 8694 bd4c cbaf 5f3f 5f10 8077 d60f
00000260: 81ae faa7 bd52 f78f d2b7 ff92 5063 9290
00000270: 641d 0000 93e6 f210 cae5 c218 f571 5e13
00000280: 021c 0000 e888 2f8e 141c 0080 e9b6 6223
00000290: 8669 3b90 3e5e 4fa8 f89b 8719 1c14 4b0e
000002a0: 7050 7c94 d855 9012 9c98 6110 6330 ba90
000002b0: 04a9 ec0e 31ba 931e df0d 8594 5f3f 2010
000002c0: 592f 0080 fcb6 8e24 e4c9 8112 386b a49b
000002d0: f81b 0080 db1c 0080 01d1 4311 123f 0123
000002e0: 23d6 1417 e25a 1511 570e cd8e 8245 b090
000002f0: 2794 bf10 c420 0000 7366 3d9c 5105 7e90
00000300: 368a c891 f556 5511 283d 6a90 5549 5691
00000310: 551f 5210 271d 2aaa 556e 7c24 e250 4311
00000320: 9881 59a7 0158 0000 0824 bd10 d876 4e90
00000330: 2f45 37a1 841d 0000 1b7e ebab 1422 f510
00000340: 72fa 9517 9b21 0000 5625 160f 6c19 681a
00000350: 7715 ee95 841d 0080 561c 0080 636f e911
00000360: 44c7 3492 1758 3890 a2c5 6c11 3571 d1ae
00000370: df82 4a91 6be4 0812 19db 8490 2e85 8d11
00000380: 7d1b 0080 db2f b510 1aa9 6391 2137 27a1
00000390: ee2f f4aa 45bf 8310 74c5 cb90 3f1c 0000
000003a0: 4eb8 a5af 87fe b817 378e dcaf 477d 3d93
000003b0: ae88 6d8f 91d2 7c0f fad7 820d 841b 0000
000003c0: ab44 2290 f0e6 f720 29bd f823 1ab6 0200
000003d0: 9436 970f 1f4d a191 ea1d 0000 0854 471e
000003e0: c13b 8010 3922 0000 15e5 b510 05e5 7811
000003f0: 2353 cd10 ec1f b3ae 1335 eb90 e4fa 6913

dec_trunk.0.bias f4 [128]
-9.9963727e-29 0.03703667 -0.0122597115 6.0772896e-30 0.004037881 -0.035410322 -0.024685157 4.033041e-24
0.055910114 0.024750758 0.010967899 -0.030197205 -0.015297852 -0.015260907 -4.199583e-27 -0.03212045
0.0050263763 -3.5022958e-32 0.00068325025 -0.030143423 6.4026286e-32 -0.04068682 9.847e-42 0.0017939846
7.822086e-33 -0.010413816 0.08142688 0.020933643 8.751521e-31 0.03876599 -6.575894e-30 -0.014602922
-0.024894096 0.027536284 -0.03261149 3.9337693e-34 0.027624302 -0.004829642 -0.016858933 0.042125702
1.496319e-24 -4.246184e-32 -0.034037586 -7.022333e-10 1.1730087e-15 -0.017207114 -0.020070393 -0.023797609
-0.010321389 0.013221463 -0.026134085 -0.029018512 -0.0057488363 -1.7514989e-31 -5.176399e-33 0.021977622
-0.003467385 0.027509358 -0.029673712 -0.0017799822 0.013384601 0.0041909358 -0.023371609 0.001059002
-2.8468729e-31 -2.5794354e-11 0.058092948 -0.028657857 0.045111127 -3.6366657e-22 0.012182204 -2.4060204e-35
0.0029649232 -2.16557e-40 -0.0065619545 0.027116584 -0.031759225 1.7586689e-20 -0.0041247923 -0.047704294
0.0039443136 -1.0133e-41 -0.034847837 -0.010455883 0.004160159 4.4488766e-05 -1.3541838e-33 -9.610472e-17
5.1416004e-29 1.6177681e-15 -1.9986594e-27 0.006734987 6.048493e-27 0.016522728 5.623816e-20 0.023131214
-0.00026190805 0.02509917 0.015962 0.015743937 1.8992158e-12 -0.0353085 -1.6496326e-32 -0.030462768
9.057472e-23 0.022722317 -0.0033848735 0.020708147 3.2317194e-31 7.479719e-26 -5.8209314e-30 -0.0066173016
-0.0018764212 -0.0069523584 0.011680889 0.05724673 0.018276652 5.1578183e-33 0.027583685 -1.3916238e-16
-2.0329146e-30 -0.0062835533 8.29167e-31 1.1829303e-06 0.027528258 -3.0680656e-08 0.030514602 -0.012987706
00000000: 2b70 fd90 c3b3 173d f5dc 48bc 2f86 f60e
00000010: 3350 843b 6a0a 11bd 8738 cabc 4e05 9c18
00000020: 0102 653d 1ac2 ca3c b4b2 333c 2160 f7bc
00000030: d8a3 7abc e208 7abc d55c a693 bc90 03bd
00000040: 4db4 a43b 7fd9 358b 261c 333a 57ef f6bc
00000050: c438 a60b 39a7 26bd 731b 0000 2224 eb3a
00000060: 5875 220a b69e 2abc 23c3 a63d 087d ab3c
00000070: 6500 8e0d 16c9 1e3d fe5f 058f 1841 6fbc
00000080: b4ee cbbc c693 e13c a093 05bd cfb8 0208
00000090: 5c4c e23c f941 9ebb bf1b 8abc 008c 2c3d
000000a0: 4d8b e717 7779 5c8b ff6a 0bbd 4707 41b0
000000b0: 620c a926 eff5 8cbc aa6a a4bc 34f3 c2bc
000000c0: 0b1b 29bc d69e 583c 2617 d6bc 3bb8 edbc
000000d0: bc60 bcbb 895b 638c ea04 d789 6a0a b43c
000000e0: 113d 63bb 4e5b e13c 4916 f3bc 4b4e e9ba
000000f0: 164b 5b3c 1e54 893b d175 bfbc 36ce 8a3a
00000100: cac5 b88c b9e3 e2ad dff2 6d3d e2c3 eabc
00000110: 72c6 383d add2 db9b de97 473c 1bda ff85
00000120: 284f 423b ac5b 0280 aa05 d7bb 9923 de3c
00000130: f615 02bd 011a a61e 4429 87bb 9465 43bd
00000140: 4d3f 813b 3f1c 0080 9bbc 0ebd 274f 2bbc
00000150: f151 883b 7399 3a38 9c00 e188 379a dda4
00000160: e55a 8210 1c25 e926 a159 1e93 2ab1 dc3b
00000170: 029b ef13 ac5a 873c e2c9 841f ac7d bd3c
00000180: b450 89b9 c69c cd3c bdc2 823c 6ef9 803c
00000190: 3ba5 052c a59f 10bd c24e ab8a 0e8d f9bc
000001a0: 09ff da1a 2724 ba3c c1d4 5dbb 22a4 a93c
000001b0: 26c0 d10c 5a30 b915 0220 ec8e f3d5 d8bb
000001c0: 3ff2 f5ba 9cd0 e3bb 3361 3f3c 8c7b 6a3d
000001d0: ebb8 953c 553f d609 2ef7 e13c 7c71 20a5
000001e0: fced 248e 44e6 cdbb 408a 860d 2dc5 9e35
000001f0: f182 e13c bdc5 03b3 c2f9 f93c 63ca 54bc
