pointnet/weights_per_bundle_ratio025/ILF_right_best.pth (torch, 359761 bytes, 17 tensors)

t_grid f4 [100]
0.0 0.01010101 0.02020202 0.030303031 0.04040404 0.05050505 0.060606062 0.07070707
0.08080808 0.09090909 0.1010101 0.11111111 0.121212125 0.13131313 0.14141414 0.15151516
0.16161616 0.17171717 0.18181819 0.1919192 0.2020202 0.21212122 0.22222222 0.23232323
0.24242425 0.25252524 0.26262626 0.27272728 0.28282827 0.2929293 0.3030303 0.3131313
0.32323232 0.33333334 0.34343433 0.35353535 0.36363637 0.37373737 0.3838384 0.3939394
0.4040404 0.41414142 0.42424244 0.43434343 0.44444445 0.45454547 0.46464646 0.47474748
0.4848485 0.4949495 0.5050505 0.5151515 0.5252525 0.53535354 0.54545456 0.5555556
0.56565654 0.57575756 0.5858586 0.5959596 0.6060606 0.61616164 0.6262626 0.6363636
0.64646465 0.65656567 0.6666667 0.6767677 0.68686867 0.6969697 0.7070707 0.7171717
0.72727275 0.7373737 0.74747473 0.75757575 0.7676768 0.7777778 0.7878788 0.7979798
0.8080808 0.8181818 0.82828283 0.83838385 0.8484849 0.85858583 0.86868685 0.8787879
0.8888889 0.8989899 0.90909094 0.9191919 0.9292929 0.93939394 0.94949496 0.959596
0.969697 0.97979796 0.989899 1.0
00000000: 0000 0000 b57e 253c b57e a53c 103e f83c
00000010: b57e 253d 62de 4e3d 103e 783d dece 903d
00000020: b57e a53d 8c2e ba3d 62de ce3d 398e e33d
00000030: 103e f83d f376 063e dece 103e ca26 1b3e
00000040: b57e 253e a0d6 2f3e 8c2e 3a3e 7786 443e
00000050: 62de 4e3e 4e36 593e 398e 633e 24e6 6d3e
00000060: 103e 783e fd4a 813e f376 863e e9a2 8b3e
00000070: dece 903e d4fa 953e ca26 9b3e bf52 a03e
00000080: b57e a53e abaa aa3e a0d6 af3e 9602 b53e
00000090: 8c2e ba3e 815a bf3e 7786 c43e 6db2 c93e
000000a0: 62de ce3e 580a d43e 4e36 d93e 4362 de3e
000000b0: 398e e33e 2fba e83e 24e6 ed3e 1a12 f33e
000000c0: 103e f83e 056a fd3e fd4a 013f f8e0 033f
000000d0: f376 063f ee0c 093f e9a2 0b3f e438 0e3f
000000e0: dece 103f d964 133f d4fa 153f cf90 183f
000000f0: ca26 1b3f c5bc 1d3f bf52 203f bae8 223f
00000100: b57e 253f b014 283f abaa 2a3f a640 2d3f
00000110: a0d6 2f3f 9b6c 323f 9602 353f 9198 373f
00000120: 8c2e 3a3f 86c4 3c3f 815a 3f3f 7cf0 413f
00000130: 7786 443f 721c 473f 6db2 493f 6748 4c3f
00000140: 62de 4e3f 5d74 513f 580a 543f 53a0 563f
00000150: 4e36 593f 48cc 5b3f 4362 5e3f 3ef8 603f
00000160: 398e 633f 3424 663f 2fba 683f 2950 6b3f
00000170: 24e6 6d3f 1f7c 703f 1a12 733f 15a8 753f
00000180: 103e 783f 0ad4 7a3f 056a 7d3f 0000 803f

encoder.mlp.0.weight f4 [64, 3]
-0.016457612 -0.4798751 -0.08708386 0.14572766 -0.18838443 0.3541561 -0.0026900505 0.44828668
0.18920775 0.18359904 0.074176505 -0.16346496 0.071706995 -0.2939252 -0.24633093 0.06858122
-0.45674798 0.33971402 -0.12284234 -0.32542384 0.22228608 -0.229721 -0.022075614 -0.2146366
0.34138846 -0.44919127 -0.49679747 0.20899956 0.48165217 -0.05227894 0.55266696 0.15027179
-0.21227582 0.19748683 0.21175233 0.09776735 0.090420336 -0.36362723 -0.29158244 -0.045616265
-0.39614064 -0.1499038 0.40368316 -0.00282501 -0.04802567 0.120355405 0.31311873 -0.25523067
0.24133877 -0.12445215 -0.20313324 -0.43429843 0.20044543 -0.4799095 0.2047727 0.5131046
-0.34564036 -0.03837924 0.32931784 0.07944666 -0.510775 -0.26953062 -0.13234457 0.24365196
0.43389723 -0.54783666 0.07895538 0.13751592 -0.21240857 -0.0009577089 0.001479588 0.002195693
0.14185376 0.23298901 -0.54798186 0.59128726 0.30188668 -0.21628578 0.13791484 0.28819424
0.17295478 -0.3225256 -0.52134675 -0.41134936 0.14370473 0.5504087 -0.006823615 -7.086069e-05
8.0534795e-05 -1.4374103e-05 0.42010665 0.039236616 0.21842594 0.010488755 0.0528403 0.043590747
-0.20285524 -0.08771731 0.26888993 -0.273925 -0.19149804 -0.52573186 -0.058906168 0.020606963
-0.50699437 0.54543316 -0.08246815 0.33378825 -0.34822956 -0.5050278 -0.2219198 -1.9894483e-36
8.6626045e-12 6.2186332e-12 -0.17816351 -0.011091285 0.23654696 -0.1724424 -0.008388616 0.10101198
0.01359381 -0.021627408 -0.36943954 0.11467161 -0.2804437 -0.24744749 0.45675159 0.285468
0.15441969 -0.05571453 -0.44566694 -0.23991466 0.08128359 0.045064654 0.23064034 0.57037336
0.0037230328 -0.4264254 -6.6197185e-06 7.910128e-06 4.7644488e-07 0.4111826 -0.27428573 -0.08645414
-0.3858691 -0.3066038 -0.3999969 0.4023678 0.49681666 -0.0093140025 0.4276206 0.35840228
0.17909001 -0.07341739 0.023261242 -0.34591076 0.4762085 0.14143969 0.2864849 -0.3690413
-0.34469324 0.45916307 -0.3293253 0.49997997 -0.24436794 0.46296382 0.08881943 0.46946707
0.03769024 -0.33237085 -0.25869468 -0.0037607749 0.00016983727 0.28401017 0.07397613 0.42550817
0.35056198 0.14523809 0.124769315 0.28506845 0.36291954 -0.33096182 0.23483013 -0.38822293
-0.41335323 -0.032314967 -0.46179637 -0.45640957 -0.002031118 -0.28447402 -0.3356143 0.3874074
00000000: 1dd2 86bc 30b2 f5be 0659 b2bd a239 153e
00000010: d9e7 40be f353 b53e 8f4b 30bb d585 e53e
00000020: adbf 413e 6301 3c3e dae9 973d 5c63 27be
00000030: 1edb 923d 5d7d 96be 2d3e 7cbe 5074 8c3d
00000040: dfda e9be ffee ad3e c494 fbbd f49d a6be
00000050: f69e 633e fb3b 6bbe ebd7 b4bc b2c9 5bbe
00000060: 78ca ae3e 66fc e5be 3d5c febe fb03 563e
00000070: 1d9b f63e 7122 56bd 957b 0d3f d9e0 193e
00000080: d55e 59be fd39 4a3e 9ad5 583e 403a c83d
00000090: 4c2e b93d 592d babe 4b4a 95be 1fd8 3abd
000000a0: f2d2 cabe 6280 19be 8faf ce3e ce23 39bb
000000b0: 91b6 44bd e57c f63d 1951 a03e 98ad 82be
000000c0: 8321 773e c5e0 febd 2902 50be 5d5c debe
000000d0: 9141 4d3e b3b6 f5be efaf 513e d35a 033f
000000e0: c6f7 b0be 8d33 1dbd 599c a83e eeb4 a23d
000000f0: 27c2 02bf ebff 89be 5685 07be e67f 793e
00000100: c727 de3e 063f 0cbf 5cb3 a13d f9d0 0c3e
00000110: a281 59be c20e 7bba bcee c13a 9ee5 0f3b
00000120: 1d42 113e ac94 6e3e 8a48 0cbf 9a5e 173f
00000130: e490 9a3e 057a 5dbe 8c39 0d3e 328e 933e
00000140: 0f1b 313e 1322 a5be fb76 05bf 629c d2be
00000150: 5527 133e 96e7 0c3f a298 dfbb 0b9b 94b8
00000160: cae4 a838 4d28 71b7 3818 d73e 93b6 203d
00000170: 0dab 5f3e 07d9 2b3c 126f 583d 368c 323d
00000180: 49b9 4fbe 22a5 b3bd f1ab 893e e63f 8cbe
00000190: 1018 44be 5d96 06bf 9847 71bd efcf a83c
000001a0: 62ca 01bf 82a1 0b3f 10e5 a8bd 4be6 aa3e
000001b0: 254b b2be 8049 01bf f23e 63be 593e 2984
000001c0: e764 182d 78cc da2c 7f70 36be 39b8 35bc
000001d0: 5e39 723e be94 30be 6870 09bc 5edf ce3d
000001e0: 92b8 5e3c f62b b1bc 2e27 bdbe f3d8 ea3d
000001f0: 5196 8fbe e062 7dbe 58db e93e dd28 923e
00000200: 3220 1e3e eb34 64bd 752e e4be 30ac 75be
00000210: 0378 a63d b795 383d fb2c 6c3e fd03 123f
00000220: 20fe 733b 6e54 dabe f31e deb6 beb5 0437
00000230: 16ca ff34 8786 d23e 2e6f 8cbe de0e b1bd
00000240: a290 c5be 2cfb 9cbe 65cc ccbe 2703 ce3e
00000250: c15e fe3e c299 18bc 16f1 da3e 8180 b73e
00000260: 5f63 373e db5b 96bd 5c8e be3c 371b b1be
00000270: 9ad1 f33e 91d5 103e 26ae 923e fbf2 bcbe
00000280: a27b b0be 6c17 eb3e 539d a8be 60fd ff3e
00000290: 973b 7abe 9809 ed3e f6e6 b53d fd5d f03e
000002a0: 1561 1a3d 832c aabe a173 84be 5577 76bb
000002b0: 5816 3239 c869 913e cc80 973d 35dc d93e
000002c0: dc7c b33e 4bb9 143e 0e87 ff3d 7ef4 913e
000002d0: 97d0 b93e d473 a9be 4f77 703e 28c5 c6be
000002e0: 09a3 d3be b35c 04bd 9370 ecbe 84ae e9be
000002f0: 811c 05bb 94a6 91be a3d5 abbe 435a c63e

encoder.mlp.0.bias f4 [64]
-0.18754368 0.0021140836 -0.08706426 0.11005279 -0.19814454 0.15355493 -0.26286376 0.0022895578
-0.23418492 0.023710065 -0.025659075 -0.091351226 0.05855172 0.03363281 0.38520128 0.0790438
0.22308755 0.009025243 0.07120481 0.021540241 0.10458142 0.09914036 0.059747197 -1.7777293e-06
-0.31441343 -0.21707396 0.018334981 -0.038808607 0.15624873 -8.0062165e-08 -0.12751953 -0.00021204108
-0.08078739 -0.1638677 -0.18000817 0.11309613 -0.1445525 -1.8918984e-10 0.018707303 -0.008498312
-0.14097211 0.27250606 -0.2668139 0.05342708 0.107214935 0.33771345 -9.0705676e-08 0.07365833
-0.050997764 0.25121036 -0.015813408 -0.004227891 0.003924965 0.1980571 -0.021319656 -0.0376358
-0.24337333 1.769626e-05 0.022155944 0.10799151 0.046357475 -0.15642507 -0.18233535 0.071061
00000000: 730b 40be 708c 0a3b bf4e b2bd 5b63 e13d
00000010: 67e6 4abe 813d 1d3e 1496 86be 680c 163b
00000020: 2cce 6fbe 9c3b c23c fb32 d2bc 5a16 bbbd
00000030: eed3 6f3d 8fc2 093d 1a39 c53e b7e1 a13d
00000040: 1071 643e 9dde 133c d4d3 913d 2975 b03c
00000050: c92e d63d 1a0a cb3d 7ab9 743d 509a eeb5
00000060: ccfa a0be a348 5ebe 3e33 963c c6f5 1ebd
00000070: abff 1f3e a4ee abb3 7b94 02be 5857 5eb9
00000080: dc73 a5bd efcc 27be 1054 38be f29e e73d
00000090: 9205 14be 3504 50af 0f40 993c 813c 0bbc
000000a0: fe5a 10be ea85 8b3e d59b 88be 5bd6 5a3d
000000b0: 8193 db3d c7e8 ac3e f9c9 c2b3 2eda 963d
000000c0: 08e3 50bd a59e 803e 1f8b 81bc 1f8a 8abb
000000d0: fe9c 803b 7bcf 4a3e 8fa6 aebc ff27 1abd
000000e0: dc36 79be 6e72 9437 6280 b53c a72a dd3d
000000f0: 56e1 3d3d e52d 20be 1eb6 3abe 6e88 913d

encoder.mlp.2.weight f4 [128, 64]
-0.057808105 0.0007522791 0.086146496 0.11584328 -0.08851513 -0.068001255 -0.014599267 -0.005987111
-0.05295913 0.12430604 0.058843747 0.088259846 -0.048447516 0.019840917 0.11184093 0.032032423
-0.05610271 0.012960045 0.10673535 0.074316844 1.0569e-41 -0.0068898 0.07013962 -3.4016223e-31
0.08402266 0.020109015 -0.05206982 0.021004777 0.034296136 -5.0793983e-07 0.08430068 0.02199247
1.2047e-41 0.011021597 0.015118918 0.005277837 -0.00275951 -2.4285e-41 1.0438e-41 9.92e-42
0.09118893 -0.032236658 0.05190717 -0.06819238 0.035145823 -0.06845844 -7.922106e-08 -0.043430306
-0.038068764 0.08389264 0.0454133 0.075902656 0.09138483 1.4111071e-12 0.0006439674 0.12384736
-0.055312134 -0.00018379353 0.09520996 0.04420826 -0.086239815 4.9251086e-11 1.9062224e-12 9.376569e-08
-0.021422952 0.0005784888 -0.0024916646 0.06379932 -0.015925262 -0.0015039265 -0.03743185 0.0138023645
0.03936349 -0.04190487 0.0129306335 -0.00093525846 -0.024963444 -0.023649758 0.019979734 -0.02053915
0.021337464 0.023893762 0.026672645 1.3143726e-05 -0.019750653 -0.023241678 -0.028655628 1.177e-41
-0.050171837 -0.024879204 -0.027538778 -0.018501198 -0.037772898 6.9980503e-31 -0.00081513537 -0.0029663017
-0.025565067 0.05336635 -0.0015334068 0.0020584594 -0.002855824 2.46537e-40 -3.3657247e-37 7.51599e-34
-0.0387301 -0.0068408484 -0.05087 -0.04352725 0.0014675228 0.04538764 3.626012e-11 0.0070043304
0.035581052 -0.009722465 -0.030872757 0.017458165 0.0070566447 -0.054330226 -0.0013049332 0.008727871
0.039386757 -0.039561853 -0.018371947 0.019258972 0.047345567 -0.012183488 0.0011279453 -0.023229053
-0.046139147 -0.022745484 0.0026611933 0.0928303 0.06674112 -0.112240344 0.012935635 0.024792338
-0.07449382 0.06113964 0.028790697 0.016930856 0.05170666 0.039767306 0.07108486 -0.065099806
0.11722782 0.018906532 -0.0070891776 0.009732112 0.00030810788 -0.08949461 0.08934902 1.412858e-37
-0.022194086 -0.008864876 -0.048898224 0.03958153 0.085714154 8.942346e-07 -0.042623658 -0.0073058386
1.0201e-41 0.055889368 0.073659785 -0.013477663 -0.041437875 2.63794e-40 9.967e-42 1.0175e-41
0.00029768184 0.08126883 -0.103710055 -0.050668504 -0.032178488 0.04976824 2.3488456e-08 -0.024033204
-0.01188223 0.030640438 0.004467247 0.121728696 0.008186031 9.094095e-06 0.021557977 -0.11180433
-0.052250136 -2.949747e-39 -0.0218063 -0.05956438 -0.014913678 -0.012625571 -0.017353386 -0.0034412318
-0.045258135 -0.070807494 0.03430429 0.004248078 0.0069843503 -0.0020296106 -0.085807934 -0.013342392
0.038497508 -0.024374198 -0.029815078 -0.070076674 0.0098357685 0.09951815 0.06286201 -0.059647612
0.10417134 -0.0421977 0.06477199 0.02021395 0.022761686 0.054414034 -0.079379134 3.5841e-41
-0.020532822 0.037824027 0.0059187654 0.03324943 -0.0030339716 7.9298434e-07 0.03206548 -0.0016930298
-6.1585926e-34 -0.013037007 -0.025820836 -0.07205091 0.067517705 1.105582e-39 -1.0758e-41 1.0294e-41
0.034137093 -0.1057423 -0.04602687 -0.080956966 -0.005595488 -0.0010730599 -2.6835782e-08 0.043368984
-0.06956505 0.05991984 -0.116440915 -0.11141347 0.07205485 -0.031314317 0.02146398 -0.10250401
-0.043353174 0.0034026667 0.021592107 0.014190015 0.07903219 -0.022087771 -0.008372752 -0.02840084
00000000: 31c8 6cbd 9934 453a 936d b03d 3e3f ed3d
00000010: 6c47 b5bd 3e44 8bbd c431 6fbc 872f c4bb
00000020: aceb 58bd 2a94 fe3d 2406 713d 94c1 b43d
00000030: e770 46bd 6b89 a23c dc0c e53d 6e34 033d
00000040: f5cb 65bd 5e56 543c 1098 da3d 6e33 983d
00000050: 761d 0000 d5c3 e1bb 5ca5 8f3d 25c7 dc8c
00000060: 1314 ac3d a9bb a43c 2a47 55bd 3612 ac3c
00000070: 1b7a 0c3d 5c59 08b5 d6a5 ac3d 8d29 b43c
00000080: 9521 0000 ee93 343c 57b5 773c b5f1 ac3b
00000090: e5d8 34bb b243 0080 191d 0000 a71b 0000
000000a0: 43c1 ba3d 960a 04bd 9d9c 543d 72a8 8bbd
000000b0: 11f5 0f3d f033 8cbd 3d20 aab3 fae3 31bd
000000c0: feed 1bbd e8cf ab3d 4c03 3a3d da72 9b3d
000000d0: f827 bb3d 7e98 c62b eccf 283a afa3 fd3d
000000e0: fa8e 62bd b3b8 40b9 71fd c23d b813 353d
000000f0: 809e b0bd cb9b 582e 7323 062c 3c5c c933
00000100: 307f afbc baa5 173a 324b 23bb 38a9 823d
00000110: b275 82bc 661f c5ba 2452 19bd 5023 623c
00000120: 9c3b 213d 71a4 2bbd 02db 533c 222c 75ba
00000130: 2380 ccbc 23bd c1bc 8aac a33c b841 a8bc
00000140: e8cb ae3c dabc c33c 9780 da3c e083 5c37
00000150: 1fcc a1bc 5565 bebc 35bf eabc cf20 0000
00000160: fc80 4dbd 79cf cbbc 0199 e1bc d38f 97bc
00000170: c1b7 1abd 8719 630d cfae 55ba 4966 42bb
00000180: d56d d1bc ac96 5a3d 98fc c8ba 38e7 063b
00000190: c728 3bbb 3faf 0200 320f e582 f9c2 7908
000001a0: 74a3 1ebd 3229 e0bb 105d 50bd a149 32bd
000001b0: e559 c03a 64e8 393d 4479 1f2e 9584 e53b
000001c0: 70bd 113d f94a 1fbc dde8 fcbc 6d04 8f3c
000001d0: 6d3b e73b 5f89 5ebd 4b0a abba 58ff 0e3c
000001e0: 0254 213d 9c0b 22bd c480 96bc fec4 9d3c
000001f0: 6ded 413d 419d 47bc 90d7 933a db4a bebc
00000200: 67fc 3cbd bd54 babc 6a67 2e3b d01d be3d
00000210: 91af 883d 44de e5bd fcef 533c 4d19 cb3c
00000220: 3790 98bd 8f6d 7a3d 78da eb3c 94b2 8a3c
00000230: 5dca 533d 0be3 223d f094 913d 0c53 85bd
00000240: 2415 f03d dfe1 9a3c 554c e8bb 7073 1f3c
00000250: 8a89 a139 f348 b7bd 9efc b63d eb4e 4002
00000260: 5fd0 b5bc fc3d 11bc 8149 48bd 3e20 223d
00000270: e78a af3d 550b 7035 2596 2ebd d165 efbb
00000280: 701c 0000 40ec 643d f1da 963d 6ad1 5cbc
00000290: c3ba 29bd 5adf 0200 c91b 0000 5d1c 0000
000002a0: 2e12 9c39 4670 a63d f065 d4bd c789 4fbd
000002b0: 97cd 03bd c8d9 4b3d a9c3 c932 48e1 c4bc
000002c0: afad 42bc a801 fb3c fc61 923b e54c f93d
000002d0: b41e 063c d792 1837 5b9a b03c abf9 e4bd
000002e0: 3d04 56bd b21e 2080 20a3 b2bc c8f9 73bd
000002f0: 8058 74bc 7cdb 4ebc b028 8ebc 4a86 61bb
00000300: 9860 39bd 8503 91bd a882 0c3d 7633 8b3b
00000310: fadc e43b 3703 05bb 12bc afbd 0c9a 5abc
00000320: 90af 1d3d 66ac c7bc c03e f4bc 5c84 8fbd
00000330: 3426 213c 2cd0 cb3d ccbd 803d 0e51 74bd
00000340: c957 d53d 7fd7 2cbd 2da7 843d ba97 a53c
00000350: b776 ba3c 40e1 5e3d 8791 a2bd e963 0000
00000360: 7334 a8bc 5eed 1a3d 34f2 c13b 8e30 083d
00000370: 99d5 46bb 78dd 5435 1857 033d a7e8 ddba
00000380: 83a7 4c88 2c99 55bc 3886 d3bc 6d8f 93bd
00000390: b946 8a3d ea09 0c00 fd1d 0080 b21c 0000
000003a0: 56d3 0b3d 6b8f d8bd ac86 3cbd c4cc a5bd
000003b0: 5b5a b7bb eaa5 8cba 8284 e6b2 ada3 313d
000003c0: 1f78 8ebd 826e 753d 9378 eebd bf2c e4bd
000003d0: 7e91 933d 7143 00bd 3bd5 af3c 9fed d1bd
000003e0: 1993 31bd 46ff 5e3b eee1 b03c 3d7d 683c
000003f0: a1db a13d 6af1 b4bc de2d 09bc e1a8 e8bc

encoder.mlp.2.bias f4 [128]
0.050963245 0.0009814508 -0.021141404 0.014697135 0.004194424 -1.2225191e-13 1.6206006e-13 0.00779749
0.0061876317 0.04128089 -0.07060432 -0.04585973 -0.053123157 -0.02324688 1.5988643e-06 0.029147852
0.015361508 0.0039819824 0.057315566 0.018985294 -0.0025660326 0.024812324 -0.012312715 0.011357957
-2.474968e-06 -0.0005409177 0.0049359393 -0.0019612843 0.0297042 0.01707515 0.043270234 -0.015357718
-0.00048548807 0.0017542891 0.019678267 -0.019155834 0.0070227003 0.022041153 0.028263524 -0.07497584
-0.0014441959 -0.0547082 -6.5599515e-06 0.07446968 0.04921268 -0.0074107978 -0.053960025 -0.00015029378
5.068321e-28 -0.0045531774 0.0062818485 0.06743502 0.001003376 0.030653618 -0.004493653 -0.0063869683
0.0117597515 0.0010711879 0.003972784 -0.053934947 2.142851e-10 0.009745861 0.0047853556 0.024041992
0.011790546 0.030466476 -0.07122689 0.011828345 0.011478299 -0.016542366 -0.009963493 -0.054293815
-0.061170135 0.037352487 0.0022090154 -0.050347686 -0.007264864 3.5007925e-12 0.015832841 -0.021119026
-0.025608664 -0.03162087 0.004699852 -0.034311734 -0.00046904734 0.00011830091 -0.026755013 0.007339987
-0.05217193 0.00606112 -0.054546688 -2.4961676e-20 0.013544183 -4.2534833e-08 5.8463307e-08 0.013385167
0.016262261 -0.0681118 0.053291254 0.001960554 -0.026392678 0.035176896 0.029968102 -0.03840095
-0.01271168 0.03514616 -0.028159345 -0.0006479774 0.0040567117 -0.010580197 0.009466308 -0.071201414
-0.01374896 0.070784986 0.010125391 0.021716567 -0.06859209 -0.023969261 0.041144226 0.0063612866
-0.008526848 -0.022907453 0.015292558 0.0008180663 0.045886952 1.0627861e-09 0.001466727 -0.00045499558
00000000: d6be 503d 06a4 803a bd30 adbc 41cc 703c
00000010: 6171 893b b7a4 09aa a276 362a 1682 ff3b
00000020: 9ec1 ca3b 2716 293d ff98 90bd 6ad7 3bbd
00000030: ab97 59bd 3e70 bebc 8f98 d635 7ac7 ee3c
00000040: d6ae 7b3c 4a7b 823b bac3 6a3d 0c87 9b3c
00000050: e22a 28bb 3743 cb3c 45bb 49bc b916 3a3c
00000060: a017 26b6 5fcc 0dba a9bd a13b e488 00bb
00000070: 3956 f33c 2fe1 8b3c 213c 313d f09e 7bbc
00000080: 1b89 feb9 2df0 e53a 5134 a13c b2ec 9cbc
00000090: ae1e e63b a68f b43c e888 e73c ef8c 99bd
000000a0: 2c4b bdba b515 60bd 8e1d dcb6 8f83 983d
000000b0: 3c93 493d 47d6 f2bb 3005 5dbd 2e98 1db9
000000c0: 1b9f 2012 d232 95bb f7d7 cd3b 5f1b 8a3d
000000d0: b683 833a 4c1d fb3c 7e3f 93bb c649 d1bb
000000e0: f9ab 403c 1a67 8c3a 212e 823b e4ea 5cbd
000000f0: e59b 6b2f 1bad 1f3c 79ce 9c3b b6f3 c43c
00000100: 222d 413c d594 f93c 67df 91bd adcb 413c
00000110: 7a0f 3c3c db83 87bc eb3d 23bc 3163 5ebd
00000120: 898d 7abd ecfe 183d 21c5 103b 6039 4ebd
00000130: 190e eebb ac58 762c e0b3 813c cf01 adbc
00000140: 43c9 d1bc e384 01bd 3701 9a3b 768a 0cbd
00000150: 78ea f5b9 5118 f838 542d dbbc 4684 f03b
00000160: 3cb2 55bd 5c9c c63b 596c 5fbd a1c1 eb9e
00000170: 6ce8 5d3c 8baf 36b3 1619 7b33 764d 5b3c
00000180: 6f38 853c 337e 8bbd ee47 5a3d a37c 003b
00000190: 7535 d8bc a615 103d aa7f f53c 514a 1dbd
000001a0: a644 50bc 6bf5 0f3d 6dae e6bc 07dd 29ba
000001b0: 2aee 843b 9058 2dbc 9318 1b3c 0cd2 91bd
000001c0: 5143 61bc b8f7 903d f8e4 253c f1e6 b13c
000001d0: 027a 8cbd 2f5b c4bc d986 283d 5772 d03b
000001e0: 31b4 0bbc 69a8 bbbc a38d 7a3c 8073 563a
000001f0: f5f3 3b3d 7611 9230 313f c03a 798c eeb9

encoder.mlp.4.weight f4 [256, 128]
0.089814566 -0.0035963976 0.0093126455 -0.025146797 0.001152886 0.00043310528 -6.133243e-20 0.004156367
-0.0041330256 -0.04833456 -0.025915096 0.005320742 0.03547546 -0.011848072 2.426864e-06 0.026432322
-0.016925141 -0.0013986442 -0.0072852913 -0.009470706 0.08139199 0.08413361 0.0843745 -0.0075977845
0.0002583089 -0.0082258005 -0.005045689 0.00041162714 -0.042765986 -0.06044354 0.021687124 0.009436936
-0.0006642741 0.00064924965 -0.017302742 -0.0434784 -0.010823132 -0.0010241757 -0.027598549 -0.035468254
0.028494395 0.0051118536 4.044984e-18 0.09056287 -0.03512014 -0.00049566734 0.04845083 -0.005321283
6.8363003e-17 -0.04594434 0.009715291 0.059326984 0.03914252 -0.06596658 -0.051001888 0.018953588
-0.037121713 0.03324977 -2.4250276e-15 0.02704581 -4.3636663e-09 0.021732392 0.013974779 0.07482519
-0.07082523 0.027663464 0.05611121 0.08376646 -0.041469216 -0.0058396426 0.06576978 0.041592572
0.044418536 -0.052313503 -0.00035398512 -0.008325803 0.060469206 1.9735554e-12 0.002762452 -0.012530554
0.026202038 -0.0076719285 -0.026137521 0.06934802 -4.83311e-37 0.0043191337 -0.0031175248 -0.015878083
0.0703899 0.05078838 -0.03470565 -9.142131e-06 -0.017232211 -5.2427476e-12 1.2001663e-06 0.008280807
0.034596246 -0.038069185 -0.07440888 -0.026149293 0.043249454 0.021722274 0.07484135 0.04013043
0.051117647 -0.017811073 -0.016886093 0.03213728 0.06403979 0.039873675 -0.009552915 0.0692059
-0.048479103 0.054192796 -0.04799125 0.0651179 -0.047689453 -0.020468468 0.016246522 0.043025654
-0.008156829 0.02019188 0.0049799327 -0.008012246 -0.003254431 -1.2248258e-08 -1.0150797e-19 0.00053818664
-2.5227236e-14 1.1497097e-27 1.2795823e-26 1.6788133e-26 8.829691e-11 -9.93e-42 1.1784e-41 -6.2694925e-27
1.7467075e-26 -0.00017875161 -0.0006577866 -0.0006282763 -0.00015870214 1.1926225e-08 1.1053e-41 -0.0007277664
-6.5865565e-26 -2.1041263e-12 -0.0008444064 -1.3090393e-05 -0.00022674465 -0.0001685931 -7.817785e-05 3.532313e-09
-9.916e-42 5.0432676e-09 -8.5865126e-05 1.0208443e-08 1.5746136e-22 7.9182785e-11 -6.2167893e-10 -0.0001346663
1.800241e-38 4.948282e-27 -0.00013629241 3.9897074e-25 6.7645596e-09 -0.00059387216 3.1110654e-30 -0.0006716034
2.0829496e-09 -0.0006664592 7.0497393e-37 -0.0003370635 -0.0006139155 -0.00011823373 -0.00057308446 1.0127e-41
-1.0092e-41 -1.6016679e-27 4.649132e-28 -0.0004741138 7.687355e-27 -0.00014267808 -9.13111e-05 -0.0005205972
1.2765877e-23 1.0047774e-26 1.2179109e-33 -0.0004213651 -2.325338e-13 -0.00062566984 -1.475546e-26 -0.0003869822
1.1713905e-08 -6.0578506e-13 -0.00043388395 -0.00022896007 3.6047338e-26 -0.0005469954 -0.00078116776 -2.3346752e-12
-3.6774945e-05 -0.0007044206 -2.0880357e-28 -0.00077306584 8.3980714e-27 6.28863e-39 -0.00058950525 -5.1573026e-09
1.8150108e-10 -4.5457213e-07 9.568369e-28 -0.000748574 -1.30402e-40 -1.0344e-41 6.6960804e-10 1.2820144e-27
-0.00078369747 -0.00023074086 -0.00041034858 -9.925e-42 9.491456e-17 1.5081857e-38 -2.2939194e-38 -2.6361781e-36
-1.2677794e-26 -0.0004917573 -0.000775195 -1.885792e-26 9.6201396e-17 -3.3701494e-25 -8.998973e-12 -2.8943213e-25
2.5226417e-09 -0.0007117865 -0.00043575666 -0.00049220916 -0.00016095139 5.954993e-10 -2.1311102e-11 -0.0005884736
5.3609185e-22 -0.00029800815 -1.2965585e-26 4.6975654e-09 -0.00070553547 -0.00083195546 -0.00067954935 -0.00039163043
-8.624516e-05 -2.9741405e-25 2.6039608e-09 -0.0004509377 -0.00075139664 9.857e-42 3.7286e-41 1.0157e-41
00000000: b3f0 b73d 8ab1 6bbb 1194 183c a800 cebc
00000010: 6f1c 973a 6812 e339 2ed1 909f 2232 883b
00000020: 556e 87bb 76fa 45bd e54b d4bc 9e59 ae3b
00000030: b74e 113d 6a1e 42bc 35dd 2236 9988 d83c
00000040: 98a6 8abc b652 b7ba 74b9 eebb 052b 1bbc
00000050: d8b0 a63d 3e4e ac3d 8acc ac3d d6f6 f8bb
00000060: a26d 8739 82c5 06bc 4f56 a5bb a9cf d739
00000070: 632b 2fbd a593 77bd 32a9 b13c 619d 1a3c
00000080: ae22 2eba 6832 2a3a 7bbe 8dbc 6816 32bd
00000090: 8153 31bc a23d 86ba 5a16 e2bc 2947 11bd
000000a0: 146d e93c 5681 a73b cb3b 9522 0779 b93d
000000b0: 23da 0fbd acef 01ba 6174 463d 285e aebb
000000c0: 65a2 9d24 2230 3cbd e22c 1f3c da00 733d
000000d0: e853 203d 7c19 87bd 5be7 50bd 8e44 9b3c
000000e0: f00c 18bd e930 083d ddbd 2ea7 2d8f dd3c
000000f0: 37ef 95b1 2108 b23c 79f6 643c f33d 993d
00000100: d10c 91bd 7d9e e23c ded4 653d c08d ab3d
00000110: a0db 29bd 795a bfbb 4eb2 863d f95c 2a3d
00000120: 36f0 353d af46 56bd 1497 b9b9 f368 08bc
00000130: 8fae 773d 6ae0 0a2c 410a 353b f44c 4dbc
00000140: a8a5 d63c cd64 fbbb 5b1e d6bc 5606 8e3d
00000150: 5376 2483 8587 8d3b 634f 4cbb c112 82bc
00000160: 9428 903d 7a07 503d 8327 0ebd 2761 19b7
00000170: 912a 8dbc 7976 b8ac 6615 a135 39ac 073c
00000180: cbb4 0d3d 6fee 1bbd af63 98bd 0b37 d6bc
00000190: 5726 313d e9f2 b13c 6c46 993d ce5f 243d
000001a0: bd60 513d 87e8 91bc b454 8abc 61a2 033d
000001b0: 4b27 833d 9452 233d d483 1cbc d3bb 8d3d
000001c0: 0692 46bd 44f9 5d3d 7992 44bd 895c 853d
000001d0: 0456 43bd 7dad a7bc 6d17 853c ab3b 303d
000001e0: 38a4 05bc 7169 a53c b42e a33b cc45 03bc
000001f0: 4b48 55bb 696c 52b2 cead ef9f 1815 0d3a
00000200: 0c3a e3a8 c42d b612 8872 7d14 f942 a614
00000210: be2a c22e ae1b 0080 d920 0000 355c f893
00000220: 4cfc ac14 456f 3bb9 506f 2cba e9b2 24ba
00000230: 4869 26b9 18e4 4c32 d01e 0000 94c7 3eba
00000240: 4313 a395 9210 14ac 275b 5dba cf9e 5bb7
00000250: 4ec2 6db9 5ec8 30b9 6af3 a3b8 1cbd 7231
00000260: a41b 0080 0d49 ad31 7d12 b4b8 3561 2f32
00000270: ee5b 3e1b f21f ae2e c4e2 2ab0 3635 0db9
00000280: 6507 c400 8b05 c413 b7e9 0eb9 70f3 f616
00000290: b26d e831 16ae 1bba 4d66 7c0e 8b0e 30ba
000002a0: a323 0f31 52b5 2eba e4e3 6f03 e6b7 b0b9
000002b0: 2cef 20ba 40f4 f7b8 0c3b 16ba 3b1c 0000
000002c0: 221c 0080 5ecb fd92 3d56 1312 7a92 f8b9
000002d0: 8543 1814 db9b 15b9 467e bfb8 b078 08ba
000002e0: 90ed 7619 4404 4714 335c ca08 abea dcb9
000002f0: a7e7 82aa fe03 24ba 8921 9294 dfe3 cab9
00000300: 4d3e 4932 6a83 2aab eb7a e3b9 0015 70b9
00000310: 6e7f 3215 3d64 0fba 48c7 4cba c549 24ac
00000320: cc3e 1ab8 dea8 38ba 5158 8491 92a7 4aba
00000330: 4857 2614 247a 4400 0789 1aba 1d34 b1b1
00000340: 0390 472f eb0b f4b4 ea9d 9712 f33b 44ba
00000350: 826b 0180 d61c 0080 7a0f 3830 af24 cb12
00000360: 0c71 4dba 07f3 71b9 0e24 d7b9 ab1b 0080
00000370: abdb da24 153a a400 24c9 f980 e042 6084
00000380: 0d1c 7b94 46e9 00ba 7536 4bba 82c2 ba94
00000390: 48d3 dd24 269a d096 c54f 1ead 5a26 b396
000003a0: c85a 2d31 2f97 3aba 4576 e4b9 9907 01ba
000003b0: 0fc5 28b9 8ab0 2330 5674 bbad cb43 1aba
000003c0: 1906 221c fa3d 9cb9 aa67 8094 3968 a131
000003d0: aff3 38ba 9617 5aba c923 32ba bf53 cdb9
000003e0: 85de b4b8 2317 b896 5df1 3231 d56b ecb9
000003f0: 60f9 44ba 7a1b 0000 f067 0000 501c 0000

encoder.mlp.4.bias f4 [256]
0.0018133088 -6.920724e-07 -0.012323236 0.051958736 0.021262867 9.4581156e-20 -0.028924892 -0.010949879
-2.85453e-40 -0.01802593 0.0016754225 -0.029130131 0.020314414 0.039528847 0.014959618 1.9701925e-16
-0.031005079 0.011884713 -2.3590916e-08 -2.9919473e-05 -0.012017105 -0.00063124794 0.03362207 0.025524963
0.004473341 -2.0395948e-05 -0.005002061 -0.029504763 0.008949019 -3.820688e-11 -0.035872858 0.001899109
0.00081250316 0.041515067 -0.026147883 -0.00011278893 -0.049483012 -2.2837541e-07 5.8109214e-05 -0.017058935
-0.023772698 -0.027607528 0.018540347 -0.008489391 0.03826259 -0.012649639 0.016197968 -9.066037e-07
-5.5934606e-37 -0.01522235 -0.018155582 -0.010264079 -0.01522517 0.0041356017 -0.004552984 -0.004769468
-1.7398663e-06 -0.018120002 0.0029045062 -6.0408585e-22 -6.54748e-09 -0.022756 -0.026367513 0.0058968347
3.2720409e-19 -0.0027249386 0.0085110115 -3.8152568e-05 -0.010679609 0.028709631 0.0011001657 -0.026265435
-0.015445934 -0.039357144 0.0023416176 -0.0019381254 0.008423582 -0.024425773 0.012423352 -0.0023925588
-0.001205066 6.505179e-24 0.01316219 -0.008178384 0.020305416 0.015071436 3.5675644e-06 0.035208035
-0.043978035 -0.009538717 -0.00044419852 3.1790772e-05 -0.033910904 0.01123151 7.809537e-08 -0.014917229
0.026102683 0.0015478662 -0.006358349 0.05586505 -0.03223935 -0.0140079055 -0.062090226 -0.0036040992
-0.017628526 -0.0007779113 0.022522878 -0.0011778022 0.04338836 -0.020422066 0.009538437 -0.0426805
0.0053348783 -0.014130071 0.0015499792 -0.021456795 -0.024955908 0.027598191 -0.0153686935 0.005808171
-0.0091702035 0.0028809079 -0.006399053 0.01536223 -0.016495848 8.704968e-05 -0.01105576 0.0013767108
-0.04159564 -0.016103197 -0.0004919751 0.0061012884 -0.0317726 -0.039217763 -0.052136607 -0.00027746905
-0.017314874 -0.04051431 0.00019750661 0.0032215568 0.03497105 -0.016278807 0.02166989 -7.871985e-37
-0.016226394 0.007200832 0.01724271 -0.046831194 0.0017521719 -0.008530587 -0.009727218 -0.009110688
0.0581186 -0.0231494 -0.009023899 0.006297768 -0.012765767 1.0095295e-25 0.008970622 0.022199342
0.025585743 -0.026806962 -0.026318623 -0.025820298 0.01142135 -0.014190582 0.0030839862 -0.00624556
-2.5988088e-24 -0.04299195 -0.0029909723 0.014008733 -0.013672254 -0.010880439 -0.0587864 -0.0072511765
-0.007180745 -0.0021789619 -0.01717012 -0.00034127702 0.008662606 0.006910266 -0.013538405 -0.015314394
-0.017510366 -0.017926201 -0.007601051 4.5625683e-24 0.023221655 -0.034025636 0.018287124 0.00056149723
-0.024774915 -0.018835196 0.027797643 -0.0088589145 0.0036398594 0.0039247232 0.052452076 -3.346914e-22
-0.012742177 6.789365e-23 -0.009235609 0.050567817 0.0022250428 -0.01645627 4.8196423e-30 -0.0035973487
0.008727949 -1.7152818e-24 -0.006790644 -0.023029123 0.021466728 -0.057734963 0.0011796437 0.0008406376
0.017933693 -0.051825836 -0.014765404 0.024895236 0.050431896 -0.021888727 -0.0006400134 0.00530572
0.018423505 0.026396563 -0.046726566 -0.008778589 0.00011646612 0.015722528 -0.06465093 0.0095824525
-0.031910837 0.051707696 -0.027448496 -0.01708277 6.997453e-24 -0.018668007 0.0268591 0.0031512533
-0.020140382 -0.011969404 -0.014172395 -4.2143687e-14 -0.02164541 0.010362011 0.016868055 -0.03380554
-0.035706386 -0.0114262905 0.0043035485 0.0008670946 -0.03362243 0.02009413 -3.082595e-27 -0.018943796
00000000: 8cac ed3a dac6 39b5 66e7 49bc afd2 543d
00000010: 772f ae3c cd52 df1f e5f3 ecbc 1f67 33bc
00000020: ba1b 0380 1dab 93bc da99 db3a 50a2 eebc
00000030: 6a6a a63c 00e9 213d 3019 753c d225 6325
00000040: 5dfe fdbc 19b8 423c f9a4 cab2 94fb fab7
00000050: 64e3 44bc 557a 25ba 4cb7 093d ba19 d13c
00000060: 1b95 923b f717 abb7 54e8 a3bb f9b3 f1bc
00000070: e89e 123c 1f09 28ae 6bef 12bd 86eb f83a
00000080: 2afe 543a b40b 2a3d 1634 d6bc 1989 ecb8
00000090: b3ae 4abd 5b37 75b4 4bba 7338 2ebf 8bbc
000000a0: f6be c2bc 2f29 e2bc ede1 973c 1617 0bbc
000000b0: 3cb9 1c3d 6e40 4fbc 9ab1 843c 555d 73b5
000000c0: ea55 3e83 2a67 79bc 04bb 94bc ab2a 28bc
000000d0: fe72 79bc f183 873b 3331 95bb 3349 9cbb
000000e0: 5a85 e9b5 6670 94bc 8759 3e3b e192 369c
000000f0: 3ef8 e0b1 ca6a babc af00 d8bc 3c3a c13b
00000100: af25 c120 e294 32bb c571 0b3c 0206 20b8
00000110: 87f9 2ebc 7630 eb3c 6f33 903a 9c2a d7bc
00000120: f110 7dbc f534 21bd d375 193b b208 feba
00000130: 1003 0a3c 8f18 c8bc 518b 4b3c 7acc 1cbb
00000140: 4ef3 9dba 2ca8 fb18 3aa6 573c a1fe 05bc
00000150: 8b57 a63c 2fee 763c 4a6a 6f36 4d36 103d
00000160: 5022 34bd 4748 1cbc 51e3 e8b9 1557 0538
00000170: 29e6 0abd 5e04 383c 62b5 a733 6567 74bc
00000180: 4bd5 d53c c5e1 ca3a b359 d0bb c0d2 643d
00000190: 690d 04bd 6a81 65bc 5252 7ebd c032 6cbb
000001a0: b369 90bc beec 4bba e681 b83c 7c60 9aba
000001b0: feb7 313d 2d4c a7bc 1b47 1c3c bfd1 2ebd
000001c0: 34d0 ae3b d081 67bc ac28 cb3a 29c6 afbc
000001d0: 5570 ccbc 9a15 e23c f9cc 7bbc 7852 be3b
000001e0: 9f3e 16bc 9dcd 3c3b 26af d1bb ddb1 7b3c
000001f0: 4d22 87bc 718e b638 3823 35bc c072 b43a
00000200: 3160 2abd daea 83bc e4f7 00ba 51ed c73b
00000210: fc23 02bd cea2 20bd 328d 55bd 4479 91b9
00000220: ecd7 8dbc 55f2 25bd c719 4f39 c120 533b
00000230: ce3d 0f3d 225b 85bc 0e85 b13c 55ef 8583
00000240: 37ed 84bc f5f4 eb3b 9540 8d3c 11d2 3fbd
00000250: 22a9 e53a e0c3 0bbc e95e 1fbc ff44 15bc
00000260: c50d 6e3d cfa3 bdbc fad8 13bc 825d ce3b
00000270: 8227 51bc 89f2 f915 84f9 123c 65db b53c
00000280: 3199 d13c 469a dbbc 279a d7bc 1785 d3bc
00000290: 9d20 3b3c 9d7f 68bc b41c 4a3b 8ea7 ccbb
000002a0: b612 4998 5418 30bd 3004 44bb e384 653c
000002b0: 9701 60bc de43 32bc 02ca 70bd 479b edbb
000002c0: 744c ebbb eacc 0ebb 5aa8 8cbc 6ded b2b9
000002d0: 9aed 0d3c 836f e23b 30d0 5dbc 39e9 7abc
000002e0: e671 8fbc f8d9 92bc 3d12 f9bb 7d81 b018
000002f0: 573b be3c 775e 0bbd e1ce 953c 7131 133a
00000300: c3f4 cabc 454c 9abc e2b7 e33c fb24 11bc
00000310: b58a 6e3b f79a 803b fdd7 563d fc4e ca9b
00000320: 90c4 50bc 2228 a41a f450 17bc 3320 4f3d
00000330: 06d2 113b 4dcf 86bc 0782 c30e 7fc1 6bbb
00000340: acff 0e3c a8b6 0498 0d84 debb 92a7 bcbc
00000350: feda af3c 7f7b 6cbd 469e 9a3a 3c5e 5c3a
00000360: aee9 923c 5447 54bd 98ea 71bc 18f1 cb3c
00000370: ad91 4e3d fd4f b3bc 92c6 27ba 9bdb ad3b
00000380: e4ec 963c 9b3d d83c 5b64 3fbd 12d4 0fbc
00000390: 463f f438 88cc 803c b567 84bd b8ff 1c3c
000003a0: f0b4 02bd 73cb 533d abdb e0bc 2af1 8bbc
000003b0: b559 0719 a6ed 98bc 9e07 dc3c 4285 4e3b
000003c0: 71fd a4bc 521b 44bc 5533 68bc 5dcc 3da9
000003d0: b751 b1bc 6dc5 293c e02e 8a3c ae77 0abd
000003e0: dc40 12bd 5635 3bbc c804 8d3b bc4d 633a
000003f0: acb7 09bd 729c a43c 743a 7493 0530 9bbc

pos_mlp.0.weight f4 [32, 1]
0.6574474 -0.3381642 0.4908751 -6.235708e-05 1.1678003e-15 -0.0006194792 -6.621191e-07 -1.507652e-07
-0.00034207565 0.435286 -0.5215106 0.88115746 -0.45765746 -9.21332e-08 0.64834833 4.2015867e-07
1.1065724 -0.80294687 1.0011009 0.31813782 -0.425064 0.88351613 -1.302495e-23 1.5938725e-05
0.96060646 4.706961e-28 7.603105e-06 -0.84836954 6.4898506e-07 -8.871917e-06 -1.0999245e-10 -0.0011187679
00000000: 794e 283f dc23 adbe fb53 fb3e b4c5 82b8
00000010: 3a4c a826 8c64 22ba 7abc 31b5 06e2 21b4
00000020: 9e58 b3b9 cedd de3e b881 05bf 8993 613f
00000030: 1452 eabe c3da c5b3 28fa 253f 2b92 e134
00000040: 2aa4 8d3f ed8d 4dbf 1324 803f f6e2 a23e
00000050: fda1 d9be 1d2e 623f 6ef0 7b99 27b4 8537
00000060: 4eea 753f 682b 1512 2d1e ff36 bf2e 59bf
00000070: ea35 2e35 98d8 14b7 3fe0 f1ae 9fa3 92ba

pos_mlp.0.bias f4 [32]
0.3857375 0.31463006 0.9274162 -1.7322918e-06 -2.097596e-14 -4.983918e-06 -8.622238e-12 -5.8148016e-05
4.623084e-18 -0.012906221 0.89206547 0.9156168 0.42073134 -6.653673e-05 -0.024064709 -0.00023891171
-0.021500887 0.7555291 0.11161954 0.73801154 0.957325 0.6696301 -2.9441635e-08 -0.00038265967
0.2583666 -8.8860077e-07 -0.00073668995 0.74695945 -0.00040347822 -0.00014718917 -3.3915033e-08 -3.5213041e-12
00000000: 637f c53e 3117 a13e 266b 6d3f 1881 e8b5
00000010: 45ef bca8 883b a7b6 1caf 17ad f5e3 73b8
00000020: cb8f aa22 9d74 53bc 675e 643f dd65 6a3f
00000030: 196a d73e a389 8bb8 5a23 c5bc 6084 7ab9
00000040: a122 b0bc 5b6a 413f c998 e43d 53ee 3c3f
00000050: 4013 753f e16c 2b3f d7e6 fcb2 b69f c8b9
00000060: a148 843e 2e88 6eb5 6d1e 41ba bc38 3f3f
00000070: ee89 d3b9 cb56 1ab9 f9a9 11b3 2dca 77ac

pos_mlp.2.weight f4 [32, 32]
-0.02279319 0.123557895 0.12634817 -3.4525e-40 6.4888e-24 -3.7115703e-36 -1.2423994e-34 -1.0476e-41
6.7544736e-19 -0.0766739 0.14915687 0.111721665 0.13099931 6.300136e-26 -0.05639541 9.38123e-40
-0.08623723 0.10342346 -0.06014382 -0.035779905 0.095278 -0.102164656 1.0423e-41 -4.0324247e-25
-0.0418238 -9.319513e-28 1.3709446e-26 0.1354064 -1.626259e-39 -6.9982424e-33 3.697257e-29 8.735882e-26
0.08513103 -0.25283384 0.28058267 1.2224e-41 1.6508971e-33 -3.4855748e-29 9.846e-42 -5.2935926e-37
-1.3055667e-18 0.26808012 -0.2212004 0.15040632 -0.2807296 9.885e-42 0.35329732 -9.879e-42
0.2109543 -0.23281197 0.36483213 0.22667466 -0.2232689 0.28026703 -9.854e-42 -3.1162734e-33
0.36961585 -9.889e-42 -1.63571e-39 -0.21320195 -1.0238e-41 -9.815e-42 -1.0137e-41 -9.414353e-29
-9.8502905e-21 -4.744466e-23 -1.4851744e-21 4.0802645e-25 9.962e-42 -2.2860094e-30 -2.0100324e-24 -9.879e-42
9.819e-42 1.0364399e-21 -1.0517776e-21 -4.1458696e-21 4.748959e-22 1.0194e-41 -1.5845373e-21 -1.467078e-39
1.6102448e-21 -5.4033924e-23 -1.2743903e-21 -7.1884814e-21 -1.2842358e-22 -2.3612812e-21 -1.0023e-41 6.0290623e-29
5.2034394e-21 9.099869e-36 3.3072233e-37 -4.335977e-22 -9.903e-42 -2.3106702e-25 5.7865813e-38 -1.0073e-41
0.29782763 -0.18387525 0.19217786 -1.5712482e-26 -1.32119e-40 1.0124e-41 6.6464936e-37 9.914e-42
-1.7653327e-18 0.23611873 -0.14308694 0.32059976 -0.2952306 -1.765472e-39 0.31730595 1.0162e-41
0.12833606 -0.3284143 0.3698325 -0.04471591 -0.034979787 0.18749031 -1.7037319e-38 -1.0835e-41
0.32806504 1.9212869e-26 -5.817654e-34 -0.24329475 -9.91e-42 -1.824e-41 -7.188602e-39 -9.967e-42
7.354423e-14 6.1097613e-15 -6.372217e-13 -9.942e-42 -9.981e-42 -1.0068e-41 9.916e-42 -4.9494688e-30
4.4348786e-33 -1.3662004e-13 -2.5554594e-13 -8.909837e-13 -1.3277849e-13 6.726019e-37 -2.559128e-13 -1.5061257e-26
-6.2558005e-13 -1.0073198e-13 -5.6406686e-13 -6.783256e-13 -1.6355553e-13 -1.6717856e-12 1.5021208e-25 1.0427e-41
-1.04436045e-13 -9.823e-42 -1.0063e-41 2.756435e-13 -7.225958e-39 -1.8511413e-26 1.0308249e-28 5.845594e-35
-0.12957223 0.26064777 0.11183775 -1.028e-41 -2.0134967e-29 -9.865e-42 5.851631e-32 -1.2004e-41
1.3860562e-18 -0.28861395 0.30609897 -0.1021745 0.31441835 9.636946e-26 -0.24125224 1.015e-41
-0.19492657 0.38712558 -0.2187663 0.23928276 0.2553379 0.102578096 -2.6260657e-25 -2.8741114e-25
-0.06672966 2.1209713e-35 -1.3825833e-23 0.43014002 -2.4398075e-38 -1.007e-41 -1.012e-41 9.927e-42
-4.6384136e-11 -1.4441893e-12 -1.1653509e-11 1.2196795e-34 -3.0183359e-27 -1.25056e-40 -1.0154e-41 -1.01e-41
4.3941386e-30 -3.6580877e-12 -6.819188e-12 -3.915172e-11 -1.8811747e-12 -9.994e-42 -5.0449727e-12 -8.545392e-28
-7.232323e-12 -2.2815272e-12 -1.296371e-11 -8.323909e-12 -7.868498e-12 -7.741755e-11 -1.0584e-41 9.991e-42
-1.1827855e-11 -1.0098e-41 9.401884e-35 -2.8537214e-12 -3.2422393e-26 3.1359122e-25 -9.829e-42 1.216e-41
-0.164906 0.21846376 0.22920534 -9.966e-42 1.0157e-41 6.8979566e-33 -1.1004e-41 9.935e-42
1.8510859e-18 -0.30117646 0.3882057 0.1101508 0.17623603 -5.6592234e-37 -0.18914491 -1.14485e-40
-0.29864803 0.37778208 -0.28284398 0.21744888 0.3641396 -0.10542499 -9.907e-42 7.165115e-39
-0.22720481 1.0049466e-35 -1.7265672e-33 0.17526725 1.0018e-41 -7.043169e-36 -5.338052e-28 5.628482e-32
00000000: c9b8 babc ec0b fd3d 6a61 013e 6bc2 0380
00000010: f605 fb18 6cdf 9d84 a924 2587 341d 0080
00000020: 5c5b 4721 3507 9dbd 94bc 183e 54ce e43d
00000030: af24 063e dbfb 9b15 e0fe 66bd 1b37 0a00
00000040: 259d b0bd aecf d33d 5e59 76bd f38d 12bd
00000050: 1d21 c33d b43b d1bd 0e1d 0000 5298 f996
00000060: 6f4f 2bbd 70ac 9392 93c5 8714 faa7 0a3e
00000070: 59b5 1180 0a59 118a 2479 3b10 3b4a d815
00000080: 2d59 ae3d 7073 81be 88a8 8f3e 1322 0000
00000090: b326 0909 59bd 3090 721b 0000 b221 3483
000000a0: eaaa c0a1 cc41 893e 5c82 62be 1d04 1a3e
000000b0: cabb 8fbe 8e1b 0000 63e3 b43e 8a1b 0080
000000c0: 6704 583e 4366 6ebe 47cb ba3e 671d 683e
000000d0: 9aa0 64be 297f 8f3e 781b 0080 e771 8189
000000e0: 4a3e bd3e 911b 0080 b2cf 1180 9d51 5abe
000000f0: 8a1c 0080 5c1b 0080 421c 0080 a5ae ee90
00000100: 1511 3a9e a56d 659a e76e e09c 5f8e fc16
00000110: c51b 0000 8f76 398e cb84 1b98 8a1b 0080
00000120: 5f1b 0000 549f 9c1c adf0 9e9c 64a0 9c9d
00000130: 4a87 0f1c 6b1c 0000 d172 ef9c 9ef9 0f80
00000140: 5455 f31c 61a5 829a 9694 c09c 5dc9 079e
00000150: 2c41 1b9b d269 329d f11b 0080 dada 9810
00000160: 9494 c41d 6688 4105 f513 e102 ff0b 039c
00000170: 9b1b 0080 0806 8f96 9686 9d01 141c 0080
00000180: dd7c 983e cb49 3cbe 46ca 443e e09b 9b94
00000190: 4b70 0180 391c 0000 202b 6203 a31b 0000
000001a0: 3142 02a2 1cc9 713e 6285 12be a725 a43e
000001b0: 7728 97be 6b39 1380 ed75 a23e 541c 0000
000001c0: 876a 033e eb25 a8be af5a bd3e 0828 37bd
000001d0: f746 0fbd 76fd 3f3e 1d85 b980 341e 0080
000001e0: 24f8 a73e 6946 be14 2053 4188 4222 79be
000001f0: a01b 0080 d832 0080 e646 4e80 c91b 0080
00000200: 5d9b a529 9a20 dc27 aa5c 33ab b71b 0080
00000210: d31b 0080 111c 0080 a41b 0000 39c6 c88e
00000220: b837 b809 0cd2 19aa 0ddc 8faa 24ca 7aab
00000230: cb7e 15aa e4df 6403 ec10 90aa d328 9594
00000240: cb15 30ab 08d4 e2a9 4dc5 1eab 83ee 3eab
00000250: ac25 38aa 6d48 ebab 1cf4 3916 111d 0000
00000260: 482b eba9 621b 0080 0d1c 0080 6a2c 9b2a
00000270: 08af 4e80 0254 b794 2eac 0211 0d67 9b06
00000280: 95ae 04be a073 853e 310b e53d a81c 0080
00000290: 5d31 cc8f 801b 0080 c2ea 970b 7621 0080
000002a0: b98b cc21 35c5 93be 01b9 9c3e dd40 d1bd
000002b0: 71fb a03e 6799 ee15 d40a 77be 4b1c 0000
000002c0: d59a 47be 5335 c63e 4604 60be 8a06 753e
000002d0: a6bb 823e 7714 d23d ac8b a296 1de6 b196
000002e0: 8fa9 88bd 558a e105 1bb7 8599 503b dc3e
000002f0: f4d5 0481 121c 0080 361c 0080 ac1b 0000
00000300: e5ff 4bae 6740 cbab bd02 4dad 8b1f 2207
00000310: 2023 6f93 9b5c 0180 4e1c 0080 281c 0080
00000320: 583f b20e 20b5 80ac c9ed efac eb30 2cae
00000330: 3b60 04ac dc1b 0080 1381 b1ac 3a68 8792
00000340: f976 feac 578c 20ac 5c0f 64ad 8e6f 12ad
00000350: 916c 0aad 353e aaae 811d 0080 da1b 0000
00000360: ec13 50ad 261c 0080 e8f1 f906 13d0 48ac
00000370: 448c 2095 831a c216 661b 0080 e621 0000
00000380: 1edd 28be f7b4 5f3e ceb4 6a3e c81b 0080
00000390: 501c 0000 d443 0f0a ad1e 0080 b21b 0000
000003a0: 0696 0822 cd33 9abe e6c2 c63e be96 e13d
000003b0: 3877 343e ca92 4083 34af 41be 233f 0180
000003c0: 65e8 98be a76c c13e edd0 90be ebaa 5e3e
000003d0: 8170 ba3e 0fe9 d7bd 9e1b 0080 6d05 4e00
000003e0: 61a8 68be 7fba 5505 0670 0f89 4279 333e
000003f0: ed1b 0000 a9ca 1585 6c2b 2992 ae1f 920b

pos_mlp.2.bias f4 [32]
0.001778304 0.05365691 4.640585e-21 0.028282626 -5.378509e-13 0.27573913 -1.15894e-11 0.3523728
-4.6109712e-06 0.3072319 0.3809967 -0.08168225 -2.4562812e-18 0.04937016 0.00035916496 -4.9864528e-05
1.4156735e-17 0.15756732 0.1088864 0.039927453 -0.13492686 0.07317783 0.010478251 0.17498241
-1.567071e-05 0.2681194 -0.10599323 -1.4160634e-08 0.0115936855 -1.4576264e-07 -3.421646e-17 -0.058075797
00000000: fb15 e93a 59c7 5b3d fc50 af1d f7b0 e73c
00000010: 3e64 17ab ae2d 8d3e 04e2 4bad 356a b43e
00000020: f1b7 9ab6 804d 9d3e 0012 c33e 0649 a7bd
00000030: d73d 35a2 5d38 4a3d 4e4e bc39 a125 51b8
00000040: a592 8223 5459 213e d5ff de3d f88a 233d
00000050: 442a 0abe 42de 953d f8ac 2b3c 972e 333e
00000060: 9874 83b7 f246 893e fb12 d9bd 2147 73b2
00000070: 71f3 3d3c ee82 1cb4 aacb 1da4 e3e0 6dbd

dec_trunk.0.weight f4 [128, 288]
0.005719597 -0.0006855635 0.00954623 0.0021447362 0.0036972684 -0.00038901376 0.009874614 0.006185389
-2.7582113e-05 0.006577287 0.00419103 0.0023308047 0.0021475747 0.0008945664 0.0108069545 0.00024101601
0.0007232591 0.005000507 -2.0394584e-05 2.7921366e-13 -0.0023691447 -0.0038022536 -0.007064497 0.0013763248
0.008520854 -5.852625e-05 -0.0026369405 0.00022937708 0.0028810224 0.00019421044 0.006657278 0.0042681596
4.1497206e-09 0.0030766646 0.016616354 -4.018661e-06 0.0027701787 -0.00066537154 -0.012341436 0.0044215997
-0.0056551117 0.0057243477 0.0018991842 0.008114024 0.00033268865 -1.0102e-41 3.1686597e-13 0.00036829448
-8.919249e-13 0.0028343718 -0.0027536552 0.008658444 -0.0023486456 0.0017285228 -0.0036288935 0.0038150055
0.00063434883 0.071635656 0.00082667754 -5.9075624e-08 0.0007778557 0.0015423708 0.010842369 -0.0014660187
-2.0756939e-20 3.6528122e-06 0.00018400431 -0.00046319902 0.0062127053 -0.00072784995 0.0020712477 -0.0013348676
0.0048111966 0.00017826278 0.010461277 0.0075043775 0.0013555441 -0.003033881 0.00015502264 0.0012107907
0.010222539 3.2611784e-24 -7.551278e-07 0.0088115195 -0.0013870852 -0.0022497878 -0.0005027212 -0.0004718433
-0.0009776748 0.0024128759 0.00011615495 0.00060737936 0.006669329 0.012976942 3.3225653e-05 0.014709764
-0.0024948227 0.011947938 0.007675208 9.77968e-05 0.0013563388 0.0028422528 -0.0017885006 0.0037808528
0.00950393 0.00083556457 0.003207022 0.013441 0.0051361425 -0.010668067 0.00038395694 0.01772124
0.0051276637 -0.00011767237 0.0014488412 0.014236474 0.00932347 0.0061184154 0.009196224 0.0041257846
-0.000694438 0.00084806076 -0.001938055 -0.00029111878 0.026211489 -0.011292274 -0.0006779476 -0.0044400087
-0.015444967 0.0009889182 -0.0146893 -0.007908424 0.007151785 0.010060325 0.030610595 0.0051996033
-0.0037178325 0.00590724 -0.0017284902 0.0102222385 0.0046383734 0.02416492 -0.00086602796 6.5705124e-13
0.0070234765 0.001539606 0.009309972 -0.013774036 0.005372821 -0.0043456894 -0.0061253393 0.0060381
0.003180475 0.00060140673 0.00048105652 0.0006980481 -0.00068129913 -1.2401e-41 0.0072861277 -0.00073113234
-0.0016165915 0.0063801305 0.020393752 0.008078564 0.003999737 9.959e-42 3.2398937e-05 0.002912049
-9.443025e-08 0.014036887 0.0065047876 0.033724267 0.0044152983 0.0014815961 0.020925395 -0.00060260156
-5.7248966e-05 0.022979822 0.006187259 -0.0044302563 0.0071323467 0.0018486297 0.0016765485 0.022636589
-0.001316764 -0.0054284525 0.0022336196 -3.6514544e-10 0.0030015574 -0.0012555955 0.0014377573 4.661241e-06
0.0070706024 0.008053108 0.003890263 0.008418678 -3.6512643e-34 0.00013029591 0.0024263943 -1.1555913e-17
0.051073942 1.7427868e-05 -0.011652909 0.0022437163 0.0060461094 0.009518878 -2.1045886e-07 0.008160952
0.00019308836 -4.6667265e-05 0.0015858005 0.0012884856 0.0023733445 0.017528042 0.011577833 -0.013687642
0.01864235 -0.021493945 0.0052908487 -0.007739652 0.005901141 -9.949e-42 -0.0044616912 1.1648e-41
-0.008742951 -0.0012640862 0.003967059 0.00290138 0.0004022022 -0.0019893858 0.019254122 -0.00014866247
0.0030588617 0.036762923 0.0041813976 -0.00010566169 1.4435827e-12 0.0028608202 0.0044996133 -0.0011045977
0.00486096 0.006074939 0.003090041 0.00031863898 0.00032861572 0.0071348534 0.0011611423 0.006348884
0.0027704625 0.0056172214 -0.004519957 0.011779627 -0.0008258588 -0.0058002695 2.006624e-05 -6.473567e-06
00000000: 756b bb3b 63b7 33ba ca67 1c3c b48e 0c3b
00000010: df4d 723b 8bf4 cbb9 22c9 213c ceae ca3b
00000020: 2360 e7b7 4886 d73b e854 893b 6ac0 183b
00000030: 53be 0c3b 5681 6a3a a70f 313c 3eb9 7c39
00000040: 1999 3d3a 4bdb a33b 0915 abb7 ee2e 9d2a
00000050: a743 1bbb 3b2f 79bb 4c7d e7bb cc65 b43a
00000060: 0d9b 0b3c 157a 75b8 85d0 2cbb f184 7039
00000070: 89cf 3c3b f8a4 4b39 4c25 da3b ebdb 8b3b
00000080: 5495 8e31 dea1 493b 051f 883c 09d8 86b6
00000090: e38b 353b 546c 2eba bc33 4abc 11e3 903b
000000a0: 844e b9bb 4f93 bb3b 0cee f83a aff0 043c
000000b0: b76c ae39 291c 0080 3361 b22a a617 c139
000000c0: f60d 7bab dec0 393b ab76 34bb 25dc 0d3c
000000d0: bceb 19bb 9a8f e23a bbd2 6dbb 2c05 7a3b
000000e0: 6e4a 263a b7b5 923d 64b5 583a 56ba 7db3
000000f0: 03e9 4b3a 6029 ca3a 31a4 313c 6d27 c0ba
00000100: 330b c49e d622 7536 48f1 4039 85d9 f2b9
00000110: f393 cb3b 2fcd 3eba c5bd 073b b9f6 aeba
00000120: 3ea7 9d3b 0dec 3a39 c765 2b3c 48e7 f53b
00000130: 83ac b13a 14d4 46bb 938d 2239 65b3 9e3a
00000140: 707c 273c 4b52 7c18 fdb3 4ab5 315e 103c
00000150: dbce b5ba 2d71 13bb 0cc9 03ba bc61 f7b9
00000160: 5325 80ba 5721 1e3b 3798 f338 8a38 1f3a
00000170: 638a da3b 3d9d 543c c65b 0b38 3901 713c
00000180: 2e80 23bb 49c1 433c 5080 fb3b 4218 cd38
00000190: 2ec7 b13a 1745 3a3b 1f6c eaba 2fc8 773b
000001a0: 5fb6 1b3c ca09 5b3a e72c 523b a437 5c3c
000001b0: 164d a83b 1ec9 2ebc d44d c939 222c 913c
000001c0: f605 a83b dfc6 f6b8 0be7 bd3a 1a40 693c
000001d0: 78c1 183c fd7c c83b c2ab 163c 9731 873b
000001e0: f20a 36ba 6550 5e3a 5606 feba 4da1 98b9
000001f0: 7ab9 d63c 3b03 39bc 4bb8 31ba 7e7d 91bb
00000200: e30c 7dbc 979e 813a 64ab 70bc 5692 01bc
00000210: 8559 ea3b 10d4 243c 12c3 fa3c 6f61 aa3b
00000220: e1a6 73bb 8591 c13b 828e e2ba 2d7b 273c
00000230: 7ffd 973b 83f5 c53c 2706 63ba 88f1 382b
00000240: 3125 e63b 9bcc c93a da88 183c 7fac 61bc
00000250: 7d0e b03b 4966 8ebb 12b7 c8bb 41db c53b
00000260: 846f 503b b9a7 1d3a 5036 fc39 37fd 363a
00000270: 3699 32ba 9222 0080 78c0 ee3b 76a9 3fba
00000280: cfe3 d3ba 6a10 d13b cc10 a73c f45b 043c
00000290: 3a10 833b c31b 0000 18e4 0738 13d8 3e3b
000002a0: 94c9 cab3 f9fa 653c 1d26 d53b 7522 0a3d
000002b0: 35ae 903b 1e32 c23a bc6b ab3c e8f7 1dba
000002c0: 9c1e 70b8 2e40 bc3c 7ebe ca3b af2b 91bb
000002d0: 76b6 e93b b84d f23a a2bf db3a 5e70 b93c
000002e0: 4597 acba 29e1 b1bb eb61 123b a7bd c8af
000002f0: c7b5 443b cb92 a4ba 2173 bc3a c167 9c36
00000300: 83b0 e73b 2ff1 033c c8f3 7e3b 7fee 093c
00000310: 0bab f287 0ba0 0839 2404 1f3b 422b 55a3
00000320: e932 513d 1032 9237 d8eb 3ebc 500b 133b
00000330: 711e c63b 11f5 1b3c 7efa 61b4 83b5 053c
00000340: c377 4a39 98bc 43b8 a3da cf3a 67e2 a83a
00000350: 1d8a 1b3b f896 8f3c f4b0 3d3c 2242 60bc
00000360: d7b7 983c 1214 b0bc db5e ad3b e89c fdbb
00000370: 5c5e c13b bc1b 0080 6133 92bb 7820 0000
00000380: 983e 0fbc b2af a5ba 1afe 813b 1425 3e3b
00000390: aade d239 5b60 02bb d2ba 9d3c 47e2 1bb9
000003a0: 2f77 483b b894 163d 1b04 893b b096 ddb8
000003b0: 8c2a cb2b 997c 3b3b 7e71 933b 26c8 90ba
000003c0: b048 9f3b 4810 c73b 4982 4a3b 000f a739
000003d0: 0e4a ac39 7dcb e93b 7831 983a 4d0a d03b
000003e0: a690 353b ab10 b83b 261c 94bb 56ff 403c
000003f0: 727e 58ba 3010 bebb ec53 a837 8437 d9b6

dec_trunk.0.bias f4 [128]
0.004122634 -9.816e-42 3.3332825e-26 -2.7286074e-35 0.012251266 -0.03609676 0.03993464 -8.1437433e-17
0.041600652 -1.8830254e-32 0.04289312 0.029349118 1.7396855e-05 -0.031175451 -0.020615835 -0.007336983
-4.7552964e-31 -1.5310291e-30 -0.012721233 0.001813759 -0.016515099 -1.018e-41 0.012429196 1.281589e-19
2.227014e-39 1.2779364e-11 -0.023168478 1.005e-41 0.022866419 -7.228643e-15 -0.043698058 -0.007869996
-0.019533226 0.060420148 0.0030036396 8.090447e-34 0.0024557484 -0.03909089 0.006498758 -2.0068752e-07
0.0066426126 0.0066106734 0.012637212 -0.014671482 0.017624127 1.6413437e-29 -1.2568537e-36 0.009024118
0.01055142 -1.226054e-06 1.3722405e-36 0.013772197 -0.011340904 -1.7090425e-24 0.03099991 0.041856755
-0.011273682 0.03671933 0.0123760365 0.052482262 -7.2675116e-06 0.04200206 -6.970944e-11 -0.0006285912
2.7149886e-38 0.018431911 0.008084735 -0.018024791 3.1116496e-32 0.0001342886 1.0213e-41 0.04363932
-0.027755508 0.046518352 -1.886695e-09 1.0384962e-07 -0.017324211 0.01469438 -0.029425247 -0.023542706
7.038354e-33 -2.8460074e-13 0.04104026 0.015417241 -6.616259e-35 -0.001963898 -0.01822263 2.0549164e-27
-0.015542224 0.011131924 1.0228139e-32 3.2465496e-17 -0.005993487 -0.0020599966 0.013996684 -2.1351313e-36
0.017813351 -1.0613495e-30 -1.08848314e-26 1.3142642e-33 7.160552e-30 9.983831e-22 7.2995955e-37 1.0327075e-20
-0.023671847 -1.15425115e-33 0.021271147 4.5400542e-15 0.0116230445 -0.0013340567 -0.0015328224 0.009457361
0.00929889 -2.2541717e-15 -0.028455982 0.0015517034 0.026550097 0.025087355 4.552931e-31 -2.6431865e-36
-5.9803383e-13 -0.041424364 -4.3231434e-37 -6.3171596e-05 -0.016505513 -0.008190044 -0.0021096685 0.015709786
00000000: 2917 873b 5d1b 0080 600e 2515 e113 1186
00000010: 89b9 483c 32da 13bd 8192 233d 2dc8 bba4
00000020: 7265 2a3d 678b c38a b2b0 2f3d 906d f03c
00000030: 76ef 9137 a963 ffbc 8ae2 a8bc 136b f0bb
00000040: 7551 1a8d 766c f88d b86c 50bc a7bb ed3a
00000050: ac4a 87bc 611c 0080 d4a3 4b3c a74d 1720
00000060: 0240 1800 24d1 602d d2cb bdbc 041c 0000
00000070: 5b52 bb3c 3b38 02a8 bcfc 32bd 28f1 00bc
00000080: 2504 a0bc 1e7b 773d b6d8 443b f56c 8608
00000090: 9ff0 203b c51d 20bd 89f3 d43b 917c 57b4
000000a0: 46aa d93b 599e d83b 4f0c 4f3c a860 70bc
000000b0: 7960 903c b873 a60f b3d7 d583 e5d9 133c
000000c0: dddf 2c3c e58e a4b5 8179 e903 c8a4 613c
000000d0: 33cf 39bc 133b 0498 86f3 fd3c fd71 2b3d
000000e0: 40b5 38bc 0267 163d dcc4 4a3c a4f7 563d
000000f0: 73db f3b6 5a0a 2c3d ed4a 99ae 0bc8 24ba
00000100: 6bd1 1301 85fe 963c d675 043c baa8 93bc
00000110: eb90 210b d2cf 0c39 781c 0000 25bf 323d
00000120: 855f e3bc 078a 3e3d 17a7 01b1 ef03 df33
00000130: 81eb 8dbc b2c0 703c 370d f1bc a2dc c0bc
00000140: 4f2e 120a 4a37 a0aa d519 283d 9898 7c3c
00000150: ede3 af86 beb4 00bb a047 95bc a8ce 2213
00000160: d0a4 7ebc ac62 363c 1d6e 540a 7eb8 1524
00000170: 0365 c4bb 0201 07bb 5952 653c 0ba3 3584
00000180: 4eed 913c bc36 ac8d a798 5794 9e5e da08
00000190: b63b 110f 13df 961c 7264 7803 ac12 431e
000001a0: 76eb c1bc 6ac8 bf88 d440 ae3c 9c92 a327
000001b0: 956e 3e3c 84db aeba fce8 c8ba 0cf3 1a3c
000001c0: 5f5a 183c 216e 22a7 851c e9bc 8762 cb3a
000001d0: 977f d93c ff83 cd3c 45c0 130d 81db 6084
000001e0: e154 28ab 98ac 29bd e41b 1383 fe7a 84b8
000001f0: 9236 87bc 892f 06bc 5d42 0abb cfb1 803c
