pointnet/weights_per_bundle_ratio025/MCP_best.pth (torch, 359623 bytes, 17 tensors)

t_grid f4 [100]
0	0x00000000	0.0
1	0x3c257eb5	0.01010101
2	0x3ca57eb5	0.02020202
3	0x3cf83e10	0.030303031
4	0x3d257eb5	0.04040404
5	0x3d4ede62	0.05050505
6	0x3d783e10	0.060606062
7	0x3d90cede	0.07070707
8	0x3da57eb5	0.08080808
9	0x3dba2e8c	0.09090909
10	0x3dcede62	0.1010101
11	0x3de38e39	0.11111111
12	0x3df83e10	0.121212125
13	0x3e0676f3	0.13131313
14	0x3e10cede	0.14141414
15	0x3e1b26ca	0.15151516
16	0x3e257eb5	0.16161616
17	0x3e2fd6a0	0.17171717
18	0x3e3a2e8c	0.18181819
19	0x3e448677	0.1919192
20	0x3e4ede62	0.2020202
21	0x3e59364e	0.21212122
22	0x3e638e39	0.22222222
23	0x3e6de624	0.23232323
24	0x3e783e10	0.24242425
25	0x3e814afd	0.25252524
26	0x3e8676f3	0.26262626
27	0x3e8ba2e9	0.27272728
28	0x3e90cede	0.28282827
29	0x3e95fad4	0.2929293
30	0x3e9b26ca	0.3030303
31	0x3ea052bf	0.3131313
32	0x3ea57eb5	0.32323232
33	0x3eaaaaab	0.33333334
34	0x3eafd6a0	0.34343433
35	0x3eb50296	0.35353535
36	0x3eba2e8c	0.36363637
37	0x3ebf5a81	0.37373737
38	0x3ec48677	0.3838384
39	0x3ec9b26d	0.3939394
40	0x3ecede62	0.4040404
41	0x3ed40a58	0.41414142
42	0x3ed9364e	0.42424244
43	0x3ede6243	0.43434343
44	0x3ee38e39	0.44444445
45	0x3ee8ba2f	0.45454547
46	0x3eede624	0.46464646
47	0x3ef3121a	0.47474748
48	0x3ef83e10	0.4848485
49	0x3efd6a05	0.4949495
50	0x3f014afd	0.5050505
51	0x3f03e0f8	0.5151515
52	0x3f0676f3	0.5252525
53	0x3f090cee	0.53535354
54	0x3f0ba2e9	0.54545456
55	0x3f0e38e4	0.5555556
56	0x3f10cede	0.56565654
57	0x3f1364d9	0.57575756
58	0x3f15fad4	0.5858586
59	0x3f1890cf	0.5959596
60	0x3f1b26ca	0.6060606
61	0x3f1dbcc5	0.61616164
62	0x3f2052bf	0.6262626
63	0x3f22e8ba	0.6363636
64	0x3f257eb5	0.64646465
65	0x3f2814b0	0.65656567
66	0x3f2aaaab	0.6666667
67	0x3f2d40a6	0.6767677
68	0x3f2fd6a0	0.68686867
69	0x3f326c9b	0.6969697
70	0x3f350296	0.7070707
71	0x3f379891	0.7171717
72	0x3f3a2e8c	0.72727275
73	0x3f3cc486	0.7373737
74	0x3f3f5a81	0.74747473
75	0x3f41f07c	0.75757575
76	0x3f448677	0.7676768
77	0x3f471c72	0.7777778
78	0x3f49b26d	0.7878788
79	0x3f4c4867	0.7979798
80	0x3f4ede62	0.8080808
81	0x3f51745d	0.8181818
82	0x3f540a58	0.82828283
83	0x3f56a053	0.83838385
84	0x3f59364e	0.8484849
85	0x3f5bcc48	0.85858583
86	0x3f5e6243	0.86868685
87	0x3f60f83e	0.8787879
88	0x3f638e39	0.8888889
89	0x3f662434	0.8989899
90	0x3f68ba2f	0.90909094
91	0x3f6b5029	0.9191919
92	0x3f6de624	0.9292929
93	0x3f707c1f	0.93939394
94	0x3f73121a	0.94949496
95	0x3f75a815	0.959596
96	0x3f783e10	0.969697
97	0x3f7ad40a	0.97979796
98	0x3f7d6a05	0.989899
99	0x3f800000	1.0

encoder.mlp.0.weight f4 [64, 3]
0	0xbf0d56d5	-0.5521062
1	0x3e80757e	0.2508964
2	0x3e91e172	0.28492314
3	0xbd5a8c60	-0.05335653
4	0xbf0a7514	-0.540849
5	0x3f034210	0.5127268
6	0x3ed63508	0.41837335
7	0x3e2146b7	0.15749632
8	0xbec2c18e	-0.38038296
9	0x3e74dc57	0.23912178
10	0xbe4b2157	-0.19836937
11	0x3e2e9734	0.17049867
12	0x80937172	-1.3540514e-38
13	0x2e6f1a8a	5.436588e-11
14	0x33723240	5.6390718e-08
15	0xbe4e8db7	-0.20171247
16	0xbeb5086c	-0.35357988
17	0xbdcbc4a8	-0.099496186
18	0xbedf0a03	-0.43562326
19	0x3f0120c4	0.5044062
20	0xbf002d07	-0.50068706
21	0x3ed4e4c4	0.41580784
22	0x3e0680f2	0.13135126
23	0xbec82e34	-0.3909775
24	0x3de14be6	0.110008046
25	0xbe8832a5	-0.2660114
26	0x3d6acd85	0.057324905
27	0x3e3a6a7b	0.18204682
28	0xbe44bccc	-0.19212645
29	0x3e0ec7ca	0.13943401
30	0xbf04498e	-0.51674736
31	0x3dd4cd02	0.10390665
32	0xbe511aeb	-0.20420425
33	0xbed3d176	-0.41370744
34	0xbe7bb3ce	-0.24580309
35	0x3e63cedc	0.2224688
36	0x3f0084ce	0.50202644
37	0xbee7ccaa	-0.45273334
38	0x3e540d60	0.20708227
39	0xbe3427d6	-0.17593321
40	0xbe413902	-0.18869403
41	0xbee34d33	-0.44394836
42	0xb11fc849	-2.3251394e-09
43	0xa37bf8d8	-1.3659432e-17
44	0x351de5d8	5.8821524e-07
45	0xbe2b41a4	-0.16724259
46	0x3d5ea9a5	0.054361004
47	0x3ca73eae	0.02041563
48	0xbdacd5fe	-0.08439253
49	0xbf0feff0	-0.5622549
50	0xbe49c5d4	-0.19704372
51	0x30d31ee7	1.5361054e-09
52	0x30bae1e4	1.3597483e-09
53	0x31306d86	2.5673628e-09
54	0xbea8df14	-0.32982695
55	0xbe8528f3	-0.26007804
56	0xbe7b5889	-0.24545492
57	0xbe6231f2	-0.22089365
58	0xbe4760f9	-0.19470586
59	0x3ec0b740	0.3763981
60	0x3ed078e5	0.40717235
61	0xbe822190	-0.2541623
62	0xbef196fa	-0.47185498
63	0xbeb00373	-0.34377632
64	0xbdee7563	-0.116434835
65	0xbe2cdf70	-0.1688211
66	0xbf1011c5	-0.56277114
67	0xbeae95f3	-0.34098777
68	0x3eb82b3b	0.35970482
69	0x3e374828	0.17898619
70	0xbe4d3a53	-0.2004178
71	0xbdb086bd	-0.08619449
72	0x3ec65f74	0.387447
73	0xbe0a3d37	-0.13499914
74	0xbe3f3679	-0.18673123
75	0x3ccb5c38	0.024824247
76	0x3f0afbd2	0.542905
77	0xbed423f3	-0.41433677
78	0x3eca74d4	0.39542258
79	0x3e199a5c	0.1500029
80	0x3d3939a5	0.04522099
81	0x121d9add	4.973135e-28
82	0x323a2c14	1.0836647e-08
83	0x09b9bacb	4.471279e-33
84	0x3f09228c	0.5356834
85	0xbecb0de4	-0.39659035
86	0x3c1cb2c2	0.009564104
87	0x088e1180	8.550428e-34
88	0x36568137	3.1963698e-06
89	0x00001c34	1.0117e-41
90	0x3f03e9b9	0.5152851
91	0xbee8af21	-0.45446113
92	0xbdbe5b47	-0.092947535
93	0x3ec72ce8	0.38901448
94	0xbec0fa58	-0.37690997
95	0xbec69374	-0.38784373
96	0xbe89c674	-0.2690922
97	0x3bbeb9c5	0.0058204853
98	0xbe73f3ed	-0.23823519
99	0xbea1ba3d	-0.315874
100	0x3eb21064	0.3477813
101	0xbe492ac9	-0.19645227
102	0x3ed5fc1c	0.41793907
103	0xbf0ca11b	-0.5493333
104	0x3c64b182	0.013958337
105	0xbec433c9	-0.3832076
106	0x3e9d5fca	0.30737144
107	0xbe1ac6c6	-0.15114889
108	0x3edb4972	0.42829472
109	0xbe9ebd07	-0.3100359
110	0x3e86c20d	0.26319924
111	0x3ed95c21	0.424531
112	0xbed1efeb	-0.41003355
113	0xbea39e61	-0.3195677
114	0x1c1f2a56	5.2663405e-22
115	0x80001b80	-9.865e-42
116	0x3481db5f	2.4187736e-07
117	0xbeb0c24f	-0.34523246
118	0xbedd9c62	-0.43283373
119	0x3e2bb3f1	0.16767861
120	0xbbb9eb00	-0.005673766
121	0xbdc6d73f	-0.09709024
122	0xbe7aad91	-0.24480273
123	0x3e8c5694	0.27409804
124	0xbefd3ab2	-0.49458843
125	0xbeb572dd	-0.35439196
126	0x3ea4308c	0.32068288
127	0x3ee4f8a0	0.44720936
128	0xbef86661	-0.4851561
129	0x3ea5c003	0.32373056
130	0xbe91d478	-0.28482413
131	0xbd5eb242	-0.05436922
132	0x80001dea	-1.0731e-41
133	0x28cffe82	2.3091992e-14
134	0x3566349b	8.575823e-07
135	0x3e891a4a	0.2677787
136	0xbe0ceb3d	-0.13761611
137	0x3e19c20d	0.15015431
138	0x3f068d03	0.52558917
139	0x3e7d64e7	0.24745522
140	0xbe32dd3a	-0.17467204
141	0x3e96b367	0.29433748
142	0x3e9b5972	0.3034168
143	0xbec10b02	-0.3770371
144	0xbe617879	-0.22018613
145	0xbe32ab27	-0.17448102
146	0xbe958a70	-0.29207182
147	0xbedb0344	-0.4277593
148	0x3f00b31e	0.5027331
149	0xbef1d94c	-0.47236097
150	0xbe0cfcd3	-0.1376832
151	0xbf0e0e4d	-0.5549057
152	0x3f0a69c5	0.5406764
153	0x3ea5f9a9	0.32417038
154	0x3ed2f58b	0.4120296
155	0xbeb1503f	-0.34631535
156	0x3ecf1d5a	0.4045208
157	0xbe7db790	-0.24777055
158	0x3c56e70d	0.01311661
159	0x3ec0759d	0.37589732
160	0x3eb83b66	0.35982817
161	0xbebe1527	-0.37125513
162	0xbe72d16a	-0.23712698
163	0xbdf5d7e5	-0.12004069
164	0xbe4ffbe8	-0.20310938
165	0x3ef88ca5	0.48544803
166	0x3d47b651	0.048757855
167	0x3e75f2d0	0.24018407
168	0xbe742540	-0.23842335
169	0x3e82a5de	0.25517172
170	0xbef1368e	-0.47111934
171	0xa5a259a0	-2.8163253e-16
172	0x36068919	2.0047357e-06
173	0x33f83836	1.15586246e-07
174	0xbf162ab6	-0.5865892
175	0x3e19680b	0.14981095
176	0x3e7aa844	0.2447825
177	0xbee23a47	-0.44185087
178	0xbe90ecc8	-0.2830565
179	0x3dbdb9be	0.09263943
180	0x3e19de6f	0.15026258
181	0xbe2e7831	-0.17038037
182	0x3e5500a6	0.20801029
183	0xbe9ad412	-0.30239922
184	0x3e2684d0	0.16261601
185	0xbe1d8539	-0.15382852
186	0x3ef9757b	0.48722443
187	0x3d424c3d	0.047435988
188	0x3d868cbd	0.065698124
189	0x3ef713d4	0.48257315
190	0x3e77789d	0.24167104
191	0xbed8cf2c	-0.4234556

encoder.mlp.0.bias f4 [64]
0	0xbc11b8ab	-0.008894126
1	0x3e7a8720	0.24465609
2	0xbe7c2ff4	-0.24627668
3	0xbd4054f6	-0.046956025
4	0xb3cfe6b7	-9.6811554e-08
5	0xbe5be639	-0.21474542
6	0xbe62e35f	-0.22157048
7	0x3eac2690	0.3362317
8	0xbdc43e2e	-0.09582172
9	0x3e60bd78	0.21947277
10	0xbd580bf9	-0.052745793
11	0x3e82f835	0.25579992
12	0xbe7d7dcb	-0.24755017
13	0xbe1cea5c	-0.15323776
14	0x29dc10b8	9.772863e-14
15	0xbc589f59	-0.013221585
16	0xbbf1ec12	-0.007382878
17	0x33813255	6.016186e-08
18	0xbe25fa3c	-0.16208738
19	0xbd29b4d1	-0.041432206
20	0x3e54dcdc	0.20787376
21	0x3d4bba42	0.049738176
22	0xbe00494c	-0.1252796
23	0x3cf02bdc	0.029317789
24	0x3e5cf091	0.21576144
25	0x3e948883	0.290104
26	0x3db6b8c8	0.08921963
27	0xb52c8d27	-6.4280397e-07
28	0xbe0adf9a	-0.1356186
29	0x00001c02	1.0047e-41
30	0xbc94ed25	-0.018179486
31	0x3d292ab8	0.041300505
32	0x3e94ea56	0.29085034
33	0x3dd19259	0.10232992
34	0x3e94db22	0.29073435
35	0x3e0683b1	0.13136174
36	0xbe7c7d3c	-0.24657148
37	0x3d99261f	0.07477974
38	0x1f701c65	5.0845464e-20
39	0xbe8539dd	-0.2602071
40	0x3e0d87e9	0.13821377
41	0x3dcaa756	0.09895198
42	0x3dab4b28	0.08363944
43	0x3e027025	0.12738092
44	0x3593f9d9	1.1025069e-06
45	0x3b1f74e4	0.0024331147
46	0x3e1caba4	0.1529985
47	0x3e362601	0.17787935
48	0xbebf4e8f	-0.37364623
49	0x3d663e31	0.056211654
50	0xbe8e1131	-0.2774749
51	0x3dc1188f	0.09428512
52	0x3c546e06	0.012965685
53	0x3e9be5d9	0.30448797
54	0xbea2dc12	-0.31808525
55	0x3dfc4854	0.12318483
56	0x3e5471f2	0.20746592
57	0x14ae46cf	1.7597439e-26
58	0x3dca886f	0.09889304
59	0x3da1f35a	0.07907744
60	0xbce9d612	-0.02854446
61	0x3e5d3881	0.21603586
62	0x3e04487e	0.12918279
63	0xbdb6e5e5	-0.08930568

encoder.mlp.2.weight f4 [128, 64]
0	0xbc426710	-0.011865392
1	0x3d0c2780	0.034217358
2	0x3a87f247	0.0010371887
3	0xbe0a3da5	-0.13500078
4	0x800031d5	-1.7876e-41
5	0xbde721ef	-0.11285769
6	0x3dc41ad8	0.095754325
7	0xbcf5bfc5	-0.02999867
8	0xbdd31a87	-0.10307794
9	0x3bd6383a	0.0065374644
10	0xba6058c7	-0.0008558151
11	0xbd12645d	-0.035740245
12	0x3c5987b6	0.013276985
13	0xbdb379c5	-0.0876346
14	0x8089ba2c	-1.2648249e-38
15	0xbb419a35	-0.0029541377
16	0x3d355eb5	0.044279773
17	0x2b7bfc12	8.952293e-13
18	0xbda6fd24	-0.081537515
19	0xbd39e7b2	-0.045386977
20	0x3d85f30c	0.06540498
21	0x3d97a4cb	0.07404479
22	0x3d6f671c	0.058447942
23	0xbdd6baa0	-0.10484815
24	0x3c56d36d	0.013111931
25	0x3d0ae75c	0.033912048
26	0xbc029877	-0.007970921
27	0x00001bee	1.0019e-41
28	0x3d47b6c8	0.0487583
29	0x80017340	-1.3318e-40
30	0xbd367e4e	-0.044554047
31	0x3da561a1	0.08075262
32	0xbd30000e	-0.042968802
33	0x3cc58b8e	0.024114396
34	0xbcb1fcbe	-0.021726962
35	0xba7904ca	-0.000949931
36	0x3d2fa456	0.042881332
37	0x3c8e2dc6	0.01735581
38	0x00002178	1.2006e-41
39	0x3d496153	0.04916508
40	0x3d9673a5	0.07346276
41	0x3db32d76	0.08748905
42	0xbdc0593e	-0.093920216
43	0x3d42b113	0.047532152
44	0x00001c35	1.0119e-41
45	0xbd7c50bf	-0.061600443
46	0xbe04df13	-0.12975721
47	0xbda2f608	-0.07957083
48	0x3cfb63bd	0.030687207
49	0x3d5d7c7a	0.05407379
50	0xbddb70a6	-0.10714845
51	0x3c3ca4e7	0.011513925
52	0x3d7a6cf5	0.061139066
53	0x3dbf5baf	0.09343659
54	0xba6691b8	-0.00087955175
55	0xbd5d845d	-0.05408131
56	0xbd85c3ac	-0.06531462
57	0x80001e5a	-1.0888e-41
58	0xbb7e07f8	-0.0038762074
59	0xbdc9883e	-0.09840439
60	0xbba8e3d5	-0.005154113
61	0x3d3aa97d	0.045571793
62	0xbdb1e7c2	-0.086867824
63	0x3dd03d40	0.101679325
64	0x3ba24f98	0.004953336
65	0xbcb653c7	-0.022256745
66	0x3d66bb5c	0.056331024
67	0xbde1daae	-0.11028038
68	0x00001ba9	9.923e-42
69	0xbc813453	-0.01577202
70	0x3ce65daa	0.028120834
71	0x3e09ec3a	0.1346902
72	0x3dcd55bd	0.10026119
73	0xbdba4f14	-0.09097114
74	0xbcf636d9	-0.03005545
75	0xbd9a3a86	-0.07530694
76	0x3c95ba9b	0.018277457
77	0xbd4277e4	-0.047477618
78	0x803cf102	-5.596587e-39
79	0x39d556f5	0.00040691314
80	0x3d1108c9	0.03540877
81	0xac1af3df	-2.2020092e-12
82	0x3d58ba65	0.052912135
83	0xbb326ee8	-0.002722675
84	0x3c5f0ae3	0.013613435
85	0xbd5667dd	-0.052345145
86	0xbcd990e2	-0.026558343
87	0xbdaf7e0f	-0.08568966
88	0x3dad6faf	0.084685676
89	0xbcfb9ba2	-0.03071386
90	0xbdc40128	-0.09570533
91	0x0892c99d	8.834454e-34
92	0x3d8afd01	0.06786538
93	0x066006aa	4.2134614e-35
94	0xbc6baa1b	-0.014383818
95	0xbda5e138	-0.08099598
96	0x3ba69b7b	0.0050844527
97	0x3d146223	0.036226403
98	0x3d177be7	0.036983397
99	0x3bf1a0a6	0.007373887
100	0x3c980b24	0.01856
101	0xbc82a20d	-0.015946412
102	0x80001c55	-1.0164e-41
103	0xbd816fe4	-0.063201696
104	0x3d86499f	0.06557011
105	0xbd8a57e8	-0.06755048
106	0x3e247d99	0.16063537
107	0x3d8583bb	0.06519266
108	0x800023ac	-1.2797e-41
109	0xbcf82494	-0.03029088
110	0x3dbfeafd	0.09370992
111	0x3e081376	0.13288674
112	0x3dce4a3f	0.10072755
113	0x3e172062	0.14758447
114	0x3d5ebaa3	0.05437721
115	0x3dfccbe3	0.12343576
116	0xbd69beac	-0.057066604
117	0x3dcc645b	0.09980079
118	0x3df88cc9	0.12136228
119	0xbdaa0946	-0.0830255
120	0xbceee765	-0.029163072
121	0x80001bd9	-9.99e-42
122	0xbad5b3e7	-0.0016304225
123	0xbde89301	-0.11356164
124	0xbde6bda2	-0.11266638
125	0x3cc99352	0.02460638
126	0x3bc8668c	0.00611574
127	0xbdbdb216	-0.09262483
128	0x09f63f0f	5.9281646e-33
129	0x3c2913f8	0.010319702
130	0x3afef0aa	0.0019450386
131	0x3d3a966a	0.045553602
132	0x80001511	-7.557e-42
133	0xbc7e68c7	-0.015527911
134	0xbcc609bc	-0.024174564
135	0x3cb4232b	0.021989426
136	0x3c17b3a8	0.009259142
137	0x3cbeb491	0.02327946
138	0xbbcac3d0	-0.0061878935
139	0xbc2a7c6f	-0.010405644
140	0x3ca812be	0.02051675
141	0xbceec12d	-0.029144848
142	0x81282d07	-3.0889032e-38
143	0x80002188	-1.2029e-41
144	0xba9d966a	-0.0012022976
145	0xaad659b4	-3.807628e-13
146	0xbccdeca2	-0.02513725
147	0x3c339520	0.010960847
148	0x3c277f4d	0.010223222
149	0xbd606a59	-0.05478892
150	0xbc52bb5b	-0.012862052
151	0x3cdd9af3	0.027051425
152	0x3c436df5	0.011928071
153	0xbcc40e10	-0.023932487
154	0x3d7d441c	0.061832532
155	0x8c49841f	-1.5524235e-31
156	0x3c819658	0.01581876
157	0x048bb2df	3.284301e-36
158	0x3c45a1a7	0.012062467
159	0xb98c6418	-0.00026777457
160	0xbd55adbc	-0.05216764
161	0x3689e8ff	4.1100425e-06
162	0x3c2e6cf6	0.0106460955
163	0xa88d6337	-1.5697172e-14
164	0x3d22e078	0.03976485
165	0x3bce8300	0.0063022375
166	0x00001cc7	1.0323e-41
167	0xbc9d088d	-0.019169116
168	0xbbf77d05	-0.0075527453
169	0xbc5ea7a9	-0.013589778
170	0x3c2b5799	0.010457897
171	0x3c499326	0.012303149
172	0x81e199c7	-8.2872606e-38
173	0x3d1ed122	0.038773663
174	0x3d2364f8	0.039891213
175	0x3b23660f	0.0024932658
176	0xbca7c251	-0.0204784
177	0xbcadfdde	-0.021239217
178	0x3cc71091	0.024299892
179	0x3cc03deb	0.023467025
180	0xb99a3a24	-0.00029416487
181	0x3c93171f	0.017955361
182	0xbd0a436b	-0.0337557
183	0x3da8236c	0.08209881
184	0xbd1efeff	-0.038817402
185	0x8000050c	-1.81e-42
186	0x87294c8d	-1.2736643e-34
187	0xbce34092	-0.02774075
188	0x3d36aa73	0.044596147
189	0xb986574d	-0.00025623516
190	0x3d491477	0.049091782
191	0x3c06bc92	0.00822367
192	0x3db8e123	0.090273164
193	0xbdced507	-0.100992255
194	0xbd28238e	-0.041049533
195	0xbd062750	-0.032752335
196	0x80007610	-4.2353e-41
197	0xbd5436ce	-0.05181008
198	0x3c5a058c	0.013306987
199	0xbda1fd6a	-0.07909663
200	0x3c776cd0	0.0151016265
201	0xbaace16c	-0.001318974
202	0x3da56bd2	0.08077206
203	0xbd1de34e	-0.038546853
204	0x3c37c365	0.011216019
205	0x3e05107d	0.12994571
206	0x0d03b8b9	4.0589843e-31
207	0x3b9cbd05	0.004783275
208	0x3ceb8156	0.028748196
209	0xab59a043	-7.7316295e-13
210	0x3d62f032	0.05540485
211	0x3b7ef69b	0.0038904313
212	0xbdc47790	-0.09593117
213	0x3c994755	0.018710772
214	0x3d0cae02	0.034345634
215	0x3dbf127c	0.093296975
216	0xbc7f7edf	-0.015594213
217	0x3c92efd3	0.017936623
218	0xbc05f5c5	-0.008176272
219	0x80001c18	-1.0078e-41
220	0xbd1213cd	-0.035663415
221	0x00001d7f	1.0581e-41
222	0xbd4ec65f	-0.05048215
223	0xbd8b8a59	-0.06813497
224	0x3da64172	0.081179515
225	0x3d8446fc	0.06458852
226	0xbde70f9a	-0.11282273
227	0x3dbc4225	0.091923036
228	0xbd9873cb	-0.07443961
229	0x3df19c57	0.117973976
230	0x00001ff7	1.1467e-41
231	0xbdccec2e	-0.10005985
232	0x3da98460	0.08277202
233	0x3c8ef3ec	0.017450295
234	0x3db1c641	0.08680392
235	0x3c961e66	0.018325042
236	0x86ebecfa	-8.874538e-35
237	0xbd3d0123	-0.046143662
238	0x3d28f1a9	0.04124609
239	0x3a6c966a	0.0009025099
240	0x3d9c6312	0.07636084
241	0xbb3eb10a	-0.0029097223
242	0xbd463ad1	-0.048395935
243	0x3d7637e4	0.060111895
244	0xbd048ab3	-0.032358836
245	0x3da7daf7	0.08196061
246	0x3bd900d4	0.006622413
247	0x38acd480	8.24118e-05
248	0x3cd8b32b	0.026452621
249	0x0579107d	1.1710952e-35
250	0xbd297264	-0.041368857
251	0x3d9280f8	0.07153505
252	0xbcdca592	-0.026934419
253	0x3caaf31c	0.020867877
254	0xbb49bc1e	-0.0030782293
255	0xbd6dbcd5	-0.058041412

encoder.mlp.2.bias f4 [128]
0	0x3bac6d69	0.005262066
1	0xbbb7cfb0	-0.005609475
2	0x3b8a3690	0.00421793
3	0x3d271ede	0.04080092
4	0x3d5ac857	0.053413715
5	0xbb297502	-0.0025857096
6	0xbd1b9993	-0.037988257
7	0x3bd49cc8	0.0064884163
8	0x3c546b46	0.012965029
9	0x3baacc39	0.0052123335
10	0x3ced5240	0.028969884
11	0xaaea0cd2	-4.1575646e-13
12	0x3c47111a	0.012150073
13	0x3cf191dd	0.029488498
14	0x31a96716	4.930267e-09
15	0xbd23f435	-0.040027816
16	0xbca2e1a4	-0.019882984
17	0xbc8861d2	-0.016648207
18	0xb6b625de	-5.428431e-06
19	0xbc9e6942	-0.0193373
20	0x3c8171b0	0.01580128
21	0xbc8079df	-0.015683113
22	0x3d4f8af9	0.050669644
23	0xa6b384aa	-1.2456579e-15
24	0x3ced1af2	0.028943513
25	0x3d28b026	0.041183613
26	0x829c36b7	-2.2953545e-37
27	0x3cfb8554	0.030703224
28	0x3bc73dae	0.006080351
29	0x3d0b62c2	0.03402973
30	0x0805281f	4.0070394e-34
31	0x91b4cbc8	-2.8524582e-28
32	0xa4114b19	-3.1505473e-17
33	0x3ba5d76d	0.005061081
34	0xbda2b33d	-0.07944343
35	0x3bc65fd0	0.006053902
36	0x3cc18aa0	0.023625672
37	0xac9b503c	-4.4142728e-12
38	0x3d0e5bba	0.034755446
39	0xa8321cb4	-9.887209e-15
40	0x3dc42720	0.09577775
41	0x3bed06fd	0.007233499
42	0x3d942a2e	0.07234608
43	0x3d7114f8	0.058857888
44	0x3c8c30ef	0.017113177
45	0x3b82389e	0.0039740345
46	0x3d11e003	0.035614025
47	0x3ccccb1a	0.02499919
48	0x3ca084ce	0.019594576
49	0xbd315bdf	-0.043300506
50	0x3c834aaf	0.016026823
51	0xb9c75352	-0.00038018316
52	0xbc74c9eb	-0.014940719
53	0x800609ad	-5.54484e-40
54	0xbc8bdea2	-0.017073933
55	0x3ca3150d	0.019907499
56	0x3cb04637	0.021517856
57	0x3c8313df	0.016000686
58	0x3ba57129	0.00504889
59	0x3c16f056	0.009212574
60	0xac856ff3	-3.792516e-12
61	0x3cf3bf65	0.02975435
62	0xbd07a7bd	-0.033118952
63	0xbc9107c8	-0.017703906
64	0x3c5072d9	0.012722694
65	0x35381718	6.857895e-07
66	0x3bd3e726	0.006466764
67	0xb2c0ee3c	-2.2460078e-08
68	0x3d3f56e5	0.04671373
69	0xba148905	-0.00056661695
70	0xbd647820	-0.055778623
71	0xb8dfa860	-0.00010664831
72	0x3d13650c	0.035985038
73	0xbcc27448	-0.023737088
74	0x3bbe04aa	0.005798896
75	0x3da1d368	0.07901651
76	0x3c14cc97	0.009081981
77	0x3c432644	0.011910979
78	0x3ce19c85	0.027540455
79	0xbd6eb1cd	-0.058275033
80	0xbd1bf445	-0.03807475
81	0x3c00fd3f	0.007872879
82	0x3caf7de9	0.021422343
83	0xab73b997	-8.65885e-13
84	0x292ead2c	3.8785964e-14
85	0x3ba30713	0.0049752085
86	0x3c4ecbfe	0.012621878
87	0xbcbd5267	-0.023110582
88	0xbd8e3db4	-0.06945363
89	0x3c75d1d4	0.01500364
90	0x3c2d2a08	0.010569103
91	0xbd5b53b3	-0.05354662
92	0x3ccfe3aa	0.025377113
93	0x2233e042	2.4377745e-18
94	0x3b73b806	0.0037188544
95	0xbd5f20ff	-0.054474827
96	0x3a45e0f9	0.0007548477
97	0xbd570e4b	-0.052503865
98	0x3d0574c1	0.03258205
99	0xb1b9b67a	-5.404954e-09
100	0xbd983049	-0.07431085
101	0x3d8d5f4c	0.06902942
102	0xba1ae2f5	-0.0005908453
103	0xbc1df45c	-0.009640779
104	0x3cc22e11	0.023703607
105	0xa9643e79	-5.0680356e-14
106	0x0b9fc96f	6.1547656e-32
107	0xbc4baa1c	-0.012430694
108	0x3d8a827c	0.06763169
109	0x39ed5222	0.00045265356
110	0x3c415d1f	0.011801987
111	0xbd65ec74	-0.056133702
112	0xbd0bdb35	-0.0341446
113	0x3c9f0cd9	0.019415306
114	0x0000242f	1.298e-41
115	0xbce9b196	-0.028527062
116	0xbcae5653	-0.021281397
117	0xa93a0077	-4.13007e-14
118	0x3bc69515	0.0060602524
119	0x3d17e49f	0.037083264
120	0xbd2d74c0	-0.04234767
121	0x3d8802ce	0.0664116
122	0x3cba55b0	0.022745937
123	0x3ca1d7a7	0.019756151
124	0xbbb93a40	-0.005652696
125	0xafd8f3f9	-3.9463524e-10
126	0x280a6f87	7.6847225e-15
127	0x3d013a37	0.03154966

encoder.mlp.4.weight f4 [256, 128]
0	0xbb07fa44	-0.0020748535
1	0xbc9e374c	-0.019313477
2	0x00001d4d	1.0511e-41
3	0x3cda0c4f	0.026617197
4	0xbcb0b59c	-0.021570973
5	0xbc10017e	-0.008789418
6	0x33bbdc55	8.747944e-08
7	0xbba17ffa	-0.004928586
8	0x3dc4d4c2	0.09610893
9	0x3d1844fa	0.037175156
10	0x3cacb10c	0.021080516
11	0xa8c4416e	-2.1788747e-14
12	0xbd296812	-0.041359015
13	0x3da253fe	0.079261765
14	0x2f31d88a	1.6174986e-10
15	0x3b9af1ca	0.0047285305
16	0xbbb7d74e	-0.005610383
17	0x3c2d233b	0.010567482
18	0xb3d285a7	-9.803198e-08
19	0xbd7fed9e	-0.06248247
20	0x3aed34de	0.0018097421
21	0x3d2014c4	0.039082304
22	0xbc8ed52e	-0.017435636
23	0x27be9b70	5.290412e-15
24	0x3d00c798	0.031440347
25	0x3ca057f8	0.019573197
26	0x80001c50	-1.0157e-41
27	0xbda684bf	-0.08130788
28	0x00001ef5	1.1105e-41
29	0x3d031e2a	0.03201119
30	0x80001cce	-1.0333e-41
31	0x800afa62	-1.008175e-39
32	0x266da32a	8.244702e-16
33	0xbce9ba46	-0.028531205
34	0x3d56a466	0.052402876
35	0x3cb8451a	0.022493888
36	0x3d6039f2	0.05474276
37	0x25f30377	4.2156128e-16
38	0xbc1e6f11	-0.009670035
39	0x00001ca9	1.0281e-41
40	0xbd2f22fe	-0.04275798
41	0x3d88d3ee	0.066810474
42	0x3c87cc57	0.016576929
43	0xbd4ec2c8	-0.050478727
44	0xbd6078ab	-0.054802578
45	0x3d1d061e	0.038335912
46	0x3d875b12	0.06609167
47	0xbd59bd65	-0.053159136
48	0xbce234af	-0.027613012
49	0xba5b45ee	-0.00083646073
50	0x3c35d92b	0.01109914
51	0xba0aa11e	-0.00052882906
52	0x3da72b20	0.08162522
53	0x80001b71	-9.844e-42
54	0x3d499de6	0.04922285
55	0x3d063ae0	0.03277099
56	0x3dac47a0	0.08412099
57	0x3cd3e4ca	0.025865931
58	0x3d39bdb1	0.04534692
59	0x3d0a2745	0.033728857
60	0x2c501e0f	2.9575264e-12
61	0x3d49bd32	0.049252696
62	0x3c78d1d2	0.015186744
63	0xbcbdd680	-0.02317357
64	0x3cc85c01	0.024457933
65	0x3469664a	2.1737029e-07
66	0x80001bb5	-9.94e-42
67	0x234630e1	1.0743952e-17
68	0x3baa153c	0.0051905196
69	0xbd9334a8	-0.07187778
70	0x3cba9fdf	0.02278131
71	0x80001d03	-1.0407e-41
72	0xbce3d12b	-0.0278097
73	0xbdc41c7e	-0.09575747
74	0x3ab5dc0e	0.0013874786
75	0x3ca637f5	0.020290354
76	0xbd5ca554	-0.053868607
77	0x3d11ae4c	0.035566613
78	0x00001b70	9.843e-42
79	0xbc8edd56	-0.017439526
80	0xbbfa25f2	-0.007633918
81	0x80001c8f	-1.0245e-41
82	0x3d58d0af	0.05293339
83	0xabe9ef97	-1.6622145e-12
84	0x282504b3	9.160359e-15
85	0x3bb0e184	0.0053979773
86	0xbd36d17f	-0.044633385
87	0x3c55ac34	0.013041545
88	0xbd4829d6	-0.048868023
89	0x3b52d182	0.0032168333
90	0x3cff3654	0.031153835
91	0xbbd5a080	-0.006519377
92	0x3d11e7d6	0.035621487
93	0x229dab4b	4.27363e-18
94	0x3cd84914	0.026402034
95	0x3d6de35e	0.058078162
96	0x3b788681	0.0037921967
97	0xbd0ae492	-0.033909388
98	0x3b1b8efb	0.0023736346
99	0x2974e609	5.4378407e-14
100	0xbcbb12b5	-0.022836069
101	0x3d176e1c	0.036970243
102	0x3d3d8446	0.046268724
103	0xbd674503	-0.0564623
104	0x3d95428f	0.07288086
105	0xa7b004fb	-4.8855213e-15
106	0x00001c31	1.0113e-41
107	0xbcec868b	-0.028872749
108	0xbd5248e6	-0.051339053
109	0x3babb13a	0.005239633
110	0x3d2a7cd0	0.041622937
111	0xbd690e5c	-0.05689846
112	0xbcb7039d	-0.02234059
113	0x3d3f26ee	0.046667986
114	0x00001bdb	9.993e-42
115	0x3bede861	0.0072603677
116	0x3bb93fb8	0.005653348
117	0x26ddba64	1.5385477e-15
118	0x3c9a4291	0.01883057
119	0xbcc28351	-0.023744257
120	0xba394c46	-0.00070685556
121	0x3d8e4cec	0.069482654
122	0x3cf3ff0b	0.0297847
123	0x3ce835b4	0.02834592
124	0x3d275ba1	0.04085887
125	0xaf10e1a5	-1.3176889e-10
126	0x266f78c2	8.308344e-16
127	0x3d2c9fc9	0.04214457
128	0xbd2a2307	-0.04153731
129	0xbcf64bb7	-0.0300654
130	0x3ca76b17	0.020436807
131	0xb806fb69	-3.2182234e-05
132	0xbd5701c1	-0.052491907
133	0xbda05cbd	-0.078301884
134	0x3bffe4db	0.007809264
135	0x3ca29b10	0.01984933
136	0x3b0237cd	0.0019869686
137	0x8000212d	-1.1901e-41
138	0x00001e21	1.0808e-41
139	0x2b37f159	6.53496e-13
140	0x3b725723	0.0036978207
141	0xbd4f6178	-0.050630063
142	0xb129ba13	-2.4698508e-09
143	0x3d206a43	0.03916384
144	0x3d9b2e14	0.07577148
145	0x3c7a192b	0.01526479
146	0x38245f80	3.918959e-05
147	0x3d8e77b3	0.069564246
148	0x3cd73a81	0.026273014
149	0x80001c94	-1.0252e-41
150	0xbd677ede	-0.056517474
151	0xb7d35076	-2.5190628e-05
152	0x3c8be6e0	0.017077863
153	0xba037d4f	-0.0005015926
154	0x80001ec5	-1.1038e-41
155	0xbd07f03e	-0.033188097
156	0x3cc4e8f1	0.024036856
157	0xbd45f589	-0.048329864
158	0x80001b75	-9.85e-42
159	0x80006ced	-3.9075e-41
160	0x2f552fb5	1.9389186e-10
161	0x3d46b00a	0.048507728
162	0x3c045ecb	0.008079241
163	0x80001b5d	-9.816e-42
164	0x3cd5ed17	0.02611403
165	0x39e2937a	0.00043215958
166	0x3d6b25b6	0.05740901
167	0x2a67e5f5	2.0596704e-13
168	0x3da2ce6e	0.079495296
169	0x3ce67076	0.028129797
170	0x3caa45a3	0.020785159
171	0xbd93f819	-0.07225055
172	0xbd006da3	-0.031354558
173	0xbc7c89c0	-0.0154137015
174	0x80001c27	-1.0099e-41
175	0x39628f12	0.00021606337
176	0x3d0f7c7a	0.03503082
177	0x3aa813c6	0.0012823276
178	0x3d92966f	0.07157599
179	0xba3379a2	-0.0006846433
180	0xbc7fd702	-0.015615227
181	0x003ff0c1	5.872002e-39
182	0xbcd9f997	-0.026608272
183	0x3d795daa	0.06088034
184	0x3c9489b6	0.018132072
185	0xbb41f09e	-0.0029592882
186	0x80001d9b	-1.062e-41
187	0x00001ba3	9.914e-42
188	0x2baa11ec	1.2084201e-12
189	0x80001e4f	-1.0873e-41
190	0xbd533ae1	-0.051569823
191	0x3d7964c3	0.06088711
192	0x3c57304a	0.013134072
193	0xb9f23785	-0.00046199202
194	0x3d01d0a8	0.03169313
195	0xba153134	-0.0005691231
196	0x80105ed1	-1.503382e-39
197	0xbd93ff76	-0.0722646
198	0xbd3b9989	-0.04580072
199	0x3c789fe5	0.015174841
200	0xba5d5b71	-0.0008444107
201	0xbd5f27c6	-0.05448129
202	0x2a4d1382	1.8214426e-13
203	0xbb453d2d	-0.0030096278
204	0xbd53b5cf	-0.051687058
205	0x3ce4d4e2	0.027933542
206	0x3d44383b	0.047905188
207	0xbb9ac416	-0.0047230823
208	0xbd45f6a2	-0.04833091
209	0x3bff0ddf	0.007783636
210	0xba868f1a	-0.0010266036
211	0xb654b131	-3.16936e-06
212	0xb9850365	-0.00025370266
213	0xbb963a2f	-0.0045845727
214	0x3d08e10a	0.03341774
215	0x80001d2f	-1.0469e-41
216	0xbd850465	-0.06494979
217	0xbd0d95ab	-0.034566563
218	0x3c41bba4	0.011824522
219	0xbda97b89	-0.082755156
220	0x3c77fef4	0.015136469
221	0x34be1a65	3.5409462e-07
222	0x3b302c5a	0.0026881904
223	0xbce4d085	-0.027931461
224	0x000021ca	1.2121e-41
225	0xbd187734	-0.037223056
226	0x3d155fd9	0.03646836
227	0x393da274	0.00018084963
228	0xbd70dcaf	-0.05880421
229	0xbd94f074	-0.07272425
230	0x3a0842f8	0.00051979674
231	0x3cb630b7	0.022240026
232	0xbd8ef59a	-0.069804385
233	0x3a1e0657	0.00060281664
234	0x82366458	-1.3400045e-37
235	0x00001bc1	9.956e-42
236	0xbd2d4af8	-0.042307824
237	0xbc2af08d	-0.010433328
238	0x8028ac0a	-3.735136e-39
239	0x3d5bc3aa	0.053653397
240	0xbd85111e	-0.064974055
241	0xbe066fa1	-0.1312852
242	0x00001f9c	1.134e-41
243	0x3beb75db	0.0071856803
244	0xbd234c5e	-0.03986775
245	0xa9c38386	-8.682555e-14
246	0xbcf60786	-0.030032884
247	0xba1b885d	-0.00059331005
248	0xbd6d2663	-0.057897937
249	0xbd323c0c	-0.043514296
250	0x00001c72	1.0204e-41
251	0x00001bfa	1.0036e-41
252	0xbcb0d11b	-0.021584084
253	0xb48ce527	-2.6243762e-07
254	0xb1b0b6eb	-5.1430695e-09
255	0xbb3fb184	-0.0029250095

encoder.mlp.4.bias f4 [256]
0	0x3b701544	0.003663377
1	0xbcc1506f	-0.023597924
2	0xbae59bb8	-0.0017517721
3	0xb97edff0	-0.00024306751
4	0xbc416945	-0.011804883
5	0x3b0a7c52	0.002113123
6	0x23079515	7.349934e-18
7	0x3cf357dc	0.02970498
8	0x3d9b6b60	0.075888395
9	0xbd4ccd31	-0.050000373
10	0xbcdc6b61	-0.026906671
11	0xbca5db6a	-0.020246226
12	0xbc71d0a5	-0.014759217
13	0xbd00d321	-0.03145135
14	0xbd023833	-0.031791877
15	0x3cc91897	0.024547858
16	0xbd07ed3e	-0.033185236
17	0x3d30705b	0.0430759
18	0x3d11ac6b	0.03556482
19	0xbc646c9b	-0.013941909
20	0xbc7608fa	-0.015016789
21	0xbccc96c3	-0.024974233
22	0x3c3005a9	0.010743537
23	0x3d254498	0.04034862
24	0xbd1c3571	-0.038136903
25	0x3af4312d	0.0018630378
26	0xbc8da573	-0.017290806
27	0xbd39a4a9	-0.045323048
28	0x3cccc991	0.024998458
29	0xbd110fce	-0.035415463
30	0x3cd7e1cd	0.026352787
31	0xbc04882b	-0.008089106
32	0xbcc099ba	-0.023510803
33	0xbc0ad963	-0.008474681
34	0x15f98793	1.007842e-25
35	0xba2065a3	-0.00061186607
36	0xbc39bb20	-0.011336118
37	0xbca5bea1	-0.0202325
38	0xbd80fd51	-0.06298316
39	0x3ce019cc	0.02735605
40	0x966a3ca4	-1.8921504e-25
41	0xba4d7f67	-0.0007839114
42	0x3ce86523	0.028368538
43	0x3b03d131	0.0020113701
44	0x3c2f0c96	0.010684153
45	0x1b80c534	2.1303263e-22
46	0xbcf566e2	-0.029956285
47	0xb62d1598	-2.5791578e-06
48	0x3d5d6aa9	0.054056797
49	0xbc2f50b8	-0.010700397
50	0xbc9a6b50	-0.018849999
51	0x3cb7db93	0.022443568
52	0xbd051f45	-0.032500524
53	0xba991217	-0.0011678365
54	0xbc7a4257	-0.015274606
55	0x00001bf1	1.0023e-41
56	0x3cd3b884	0.02584482
57	0x38078763	3.2312597e-05
58	0x3d0e7463	0.034778964
59	0xbd5777e9	-0.05260459
60	0xbc842f27	-0.016135765
61	0xbcd7438e	-0.02627733
62	0x3b4fd785	0.0031714153
63	0xbd12e998	-0.035867304
64	0x3d341a71	0.04397053
65	0x3d404338	0.046939105
66	0xbbd30e26	-0.0064408956
67	0x3ba2364a	0.0049503194
68	0xbc228dbe	-0.009921489
69	0xb91e9b52	-0.00015125916
70	0xbc442f67	-0.011974192
71	0x3d6b3210	0.05742079
72	0x3c84f045	0.01622785
73	0xbc314422	-0.010819467
74	0x3c731ba0	0.014838129
75	0x38cefa9a	9.869524e-05
76	0xbd04b414	-0.0323983
77	0x1439fef8	9.390397e-27
78	0xbd06a0d8	-0.032868236
79	0x232e78b3	9.458118e-18
80	0xb499f372	-2.86756e-07
81	0xbca2e40e	-0.019884136
82	0x3d372598	0.044713587
83	0x1918e581	7.904564e-24
84	0x3b138017	0.0022506767
85	0x3c85f69f	0.01635295
86	0xbd234170	-0.039857328
87	0x3c164f1b	0.009174134
88	0xbc0985e5	-0.008393739
89	0x3c922bf9	0.017843233
90	0xbd156723	-0.036475312
91	0x3c4e2021	0.012580902
92	0x80001c46	-1.0143e-41
93	0x3cf6df86	0.030135881
94	0xbd0627b2	-0.0327527
95	0xb554afc0	-7.9231904e-07
96	0xa6e126a7	-1.5622988e-15
97	0xbce58b61	-0.028020563
98	0xbcb69d4c	-0.022291802
99	0x3cca92e7	0.024728252
100	0x146167e3	1.1380085e-26
101	0x3b9333d5	0.004492263
102	0xbb995352	-0.004679122
103	0x9f4c6fc2	-4.3291124e-20
104	0x3cbfd126	0.02341516
105	0xbb4438ce	-0.0029941085
106	0xbc63a38f	-0.013893976
107	0x2a15ba79	1.3298554e-13
108	0xbcfa3220	-0.03054148
109	0x3c7b9b14	0.015356798
110	0x3b940b58	0.004517954
111	0x3b4d5bbe	0.00313352
112	0x07a35b8a	2.4579316e-34
113	0xbc9db9ac	-0.019253574
114	0xbcf98910	-0.030460864
115	0xbca7f719	-0.020503568
116	0xbcaad49d	-0.020853335
117	0x3d0c3863	0.034233462
118	0x3c4a162e	0.01233439
119	0xbceae6c2	-0.028674487
120	0x3c17415e	0.009231893
121	0xbd60f400	-0.054920197
122	0xb96a3b6e	-0.00022338118
123	0x38c356b4	9.314474e-05
124	0x3c26e9f1	0.010187612
125	0x3d108254	0.03528054
126	0xbcb9778e	-0.022640016
127	0x3d289115	0.041153986
128	0x2c6e0bc4	3.3828365e-12
129	0x3d031331	0.032000724
130	0xbca52e3f	-0.020163653
131	0x3a34d329	0.00068979204
132	0x00001c81	1.0225e-41
133	0x967189a8	-1.9511262e-25
134	0xbd379eca	-0.044829167
135	0x3a828a4b	0.0009959427
136	0x3d23db4c	0.04000406
137	0x0000dac8	7.8484e-41
138	0x3d8d14c0	0.068887234
139	0x3cc32710	0.023822337
140	0xbbab6e38	-0.005231645
141	0xba64874f	-0.00087176723
142	0x000287cb	2.32384e-40
143	0xbc824986	-0.0159042
144	0x3beb9545	0.007189425
145	0x8001b035	-1.55047e-40
146	0xbd1a9d30	-0.037747562
147	0x92467e0f	-6.2633163e-28
148	0xbbee1fa9	-0.007266958
149	0x3d04a913	0.032387804
150	0x3bcad9ae	0.0061905
151	0x2c2447cd	2.334566e-12
152	0xbb92ae86	-0.004476371
153	0xbc1e59db	-0.009664978
154	0x3cc4c219	0.024018334
155	0x9a453201	-4.0779038e-23
156	0xa2435d9d	-2.6476986e-18
157	0xbd1aee25	-0.03782477
158	0xbb95b8ce	-0.0045691496
159	0xbd6868a9	-0.056740437
160	0x3c059961	0.008154244
161	0x3c3c1151	0.011478738
162	0xbc98881a	-0.018619586
163	0xbc2afdeb	-0.010436515
164	0x3d0a94cb	0.033833306
165	0x3c0294d0	0.00797005
166	0xbc5da6b3	-0.013528514
167	0xbc744db9	-0.014911109
168	0xbb86e068	-0.004116107
169	0x3c69b34b	0.014263938
170	0x3c01199f	0.007879644
171	0xbac04546	-0.0014669083
172	0x3ca6ba09	0.02035238
173	0x9fd7f78b	-9.146557e-20
174	0xbce0be3f	-0.027434466
175	0x3bf2f8bf	0.0074149068
176	0xbc6aa099	-0.014320516
177	0x3ab6802c	0.0013923696
178	0x1f0d9617	2.9982063e-20
179	0x1a32032f	3.681211e-23
180	0xbd2bbaec	-0.04192631
181	0xbcadfdae	-0.021239128
182	0x3b134fff	0.0022478101
183	0xbaa79d5f	-0.0012787989
184	0xbc65e51b	-0.014031674
185	0xbd028e5e	-0.031874053
186	0x3c95acf9	0.018270956
187	0xbd046f90	-0.032332957
188	0xbc1bb066	-0.009502506
189	0xbcfd10bd	-0.03089177
190	0x3c8819ce	0.016613867
191	0xbc17f9cf	-0.009275868
192	0xbbefc28e	-0.007316894
193	0xbcab8775	-0.020938614
194	0x3cb97bb4	0.022641994
195	0xbcfa6dfb	-0.03057002
196	0xbc955a7f	-0.018231628
197	0xbb76e745	-0.0037674468
198	0xbcb7e167	-0.022446347
199	0xbc8573f6	-0.016290646
200	0x3bb9473e	0.0056542447
201	0x1ffc7ab1	1.0692913e-19
202	0xbd05e815	-0.032692034
203	0x3cc771ef	0.02434632
204	0xbbe26cca	-0.0069099413
205	0x00001c97	1.0256e-41
206	0xbd1acca6	-0.037792824
207	0xbd02207c	-0.03176926
208	0xbc3203d9	-0.010865175
209	0xbc96b8d7	-0.018398685
210	0xbcbd3496	-0.023096364
211	0x81a4a550	-6.04813e-38
212	0xbc91b286	-0.017785322
213	0x251c99b2	1.3582917e-16
214	0x1d483483	2.6496928e-21
215	0xbc520961	-0.012819619
216	0x38e854ef	0.00011078442
217	0xbbb9957e	-0.005663573
218	0x2e98b335	6.943993e-11
219	0xa3b64ba9	-1.9764523e-17
220	0x3d513b3c	0.05108188
221	0x3cfeb4ec	0.03109213
222	0x3d869c10	0.06572735
223	0x80001bb2	-9.935e-42
224	0x15049b6b	2.677979e-26
225	0xbcb12a1e	-0.021626528
226	0x27aba8db	4.7645108e-15
227	0x3cb003e9	0.02148624
228	0xb9af5ee4	-0.000334493
229	0xbb08ec69	-0.0020892865
230	0x9d173fc7	-2.0017656e-21
231	0xbcb0f6ae	-0.021602001
232	0xbd17bbb0	-0.037044227
233	0x3b213741	0.0024599584
234	0xbafdd5fb	-0.0019366139
235	0xbca87b5c	-0.020566635
236	0xb99bbba3	-0.00029703704
237	0xbce692b2	-0.028146122
238	0xbc876724	-0.016528673
239	0xad172965	-8.592548e-12
240	0x3bfac41c	0.0076527726
241	0x3d46f06f	0.04856914
242	0xbca5d863	-0.020244783
243	0x3d3e166b	0.0464081
244	0xbcf8dc83	-0.030378586
245	0x982112bf	-2.0818227e-24
246	0x3d219c6f	0.039455827
247	0x3c280019	0.0102539295
248	0xbbef6195	-0.007305334
249	0x3d1dcaa4	0.03852333
250	0xbd1e5784	-0.03865768
251	0xbcddbb63	-0.027066892
252	0x3a1b059f	0.00059136184
253	0x3d03a4b2	0.032139488
254	0xbce0b2aa	-0.027428944
255	0x39e348e7	0.0004335113

pos_mlp.0.weight f4 [32, 1]
0	0xbab193df	-0.0013548097
1	0x1ef245a1	2.5651544e-20
2	0x3f866f06	1.0502632
3	0x3f4c2921	0.7975026
4	0xbf8ae277	-1.0850362
5	0x01c7771a	7.327196e-38
6	0xac775ec5	-3.5153419e-12
7	0xbec83638	-0.39103866
8	0x3f816dea	1.0111668
9	0xbebfbe47	-0.37449858
10	0xb2be58fe	-2.215938e-08
11	0x238df7e7	1.5392241e-17
12	0x3e6a675a	0.22890988
13	0x3f576e00	0.8415222
14	0x8001769e	-1.34387e-40
15	0x3f433a98	0.7626128
16	0xbf06d287	-0.5266499
17	0x3f1928e8	0.59828043
18	0xb988e9dd	-0.00026114183
19	0x3edfc7ee	0.43707222
20	0xbee692ca	-0.45033866
21	0x990d0fad	-7.292695e-24
22	0x3efb2905	0.49054733
23	0xb5a661d7	-1.2396439e-06
24	0x37a9d59c	2.024584e-05
25	0x3f2d768d	0.6775902
26	0x00001e57	1.0884e-41
27	0x3ec2f96a	0.38080913
28	0xb79cde1c	-1.8700077e-05
29	0xbf255d32	-0.6459533
30	0x3f5e3a11	0.8680735
31	0x3ec9a62a	0.39384586

pos_mlp.0.bias f4 [32]
0	0xb91d7c7c	-0.00015019061
1	0xafa1a57b	-2.940331e-10
2	0x3e64689c	0.2230553
3	0xbdff0176	-0.124514505
4	0x3f6ce642	0.92538846
5	0xb01f6f60	-5.8002136e-10
6	0xb7c67c06	-2.3661192e-05
7	0x3eb9e623	0.36308393
8	0xbe4f57c1	-0.20248319
9	0x3eafdc86	0.34347934
10	0xb7a01492	-1.9083065e-05
11	0xb7856b40	-1.5904778e-05
12	0x3ea674e7	0.32511064
13	0xbda6833d	-0.081305005
14	0xb43bb9b1	-1.7483286e-07
15	0x3d463321	0.048388604
16	0x3f722db3	0.9460098
17	0x3ef2d90b	0.47431216
18	0xba73e61b	-0.0009304003
19	0xbcc45f33	-0.023971176
20	0x3f76d95f	0.9642543
21	0xad1fee1f	-9.090977e-12
22	0x3f832c6e	1.0247934
23	0xb67b55e9	-3.745192e-06
24	0xb885f7cc	-6.38809e-05
25	0xbc4fd801	-0.012685777
26	0xab485157	-7.1167155e-13
27	0x3eb6b24a	0.356829
28	0xb43cfa0e	-1.7599834e-07
29	0x3f22649b	0.6343476
30	0x3e7a02ba	0.24415103
31	0x3ef002db	0.4687718

pos_mlp.2.weight f4 [32, 32]
0	0x9865a5a0	-2.9681176e-24
1	0x87f02259	-3.6131374e-34
2	0x3e136aac	0.14396161
3	0x3e9b7931	0.303659
4	0xbead4676	-0.3384282
5	0x94a86526	-1.7003561e-26
6	0x0ecdc5dc	5.0726933e-30
7	0xbe8041dd	-0.2505025
8	0x3e909e0a	0.28245574
9	0xbe61956c	-0.22029656
10	0x90a42f5b	-6.4759557e-29
11	0x0d34b4b9	5.568432e-31
12	0x3db2d505	0.087320365
13	0x3ea99587	0.33121893
14	0x9172060c	-1.9092297e-28
15	0x3eac592f	0.33661792
16	0xbe36dbc9	-0.17857279
17	0x3e7d5807	0.24740611
18	0x0ab534ff	1.7449601e-32
19	0x3e4e5557	0.20149742
20	0xbda88211	-0.08227933
21	0x00001b75	9.85e-42
22	0x3e666b68	0.2250191
23	0x845ba829	-2.5820542e-36
24	0x90a784fb	-6.6074774e-29
25	0x3de50be0	0.111839056
26	0x94c6166c	-2.0001735e-26
27	0x3e5940e0	0.21216154
28	0x0686802f	5.0593547e-35
29	0xbe71c5fa	-0.23610678
30	0x3eb0420a	0.34425384
31	0x3e9359aa	0.28779346
32	0x96eacb7b	-3.7933153e-25
33	0x000003e1	1.391e-42
34	0x2d00307c	7.286723e-12
35	0xacd98de3	-6.1832635e-12
36	0x2d6751d7	1.3149002e-11
37	0x00558ca3	7.856468e-39
38	0x84aa06f4	-3.9973193e-36
39	0x29170433	3.3532378e-14
40	0xad1beaf1	-8.862897e-12
41	0xac18da71	-2.1721759e-12
42	0x07239029	1.2305122e-34
43	0x00001d94	1.061e-41
44	0xad10f020	-8.238771e-12
45	0x2cf4b303	6.9547714e-12
46	0x05b8fbad	1.7395728e-35
47	0xacc0afc3	-5.4764817e-12
48	0x2afa9e7b	4.451889e-13
49	0xad92a7d1	-1.6672804e-11
50	0x0b923e5d	5.633099e-32
51	0xac9bf234	-4.432255e-12
52	0xad68a02d	-1.3223239e-11
53	0x85ef6efc	-2.2516221e-35
54	0xacac3e64	-4.8954608e-12
55	0x00001c77	1.0211e-41
56	0x80007009	-4.019e-41
57	0xad01994f	-7.366842e-12
58	0x00001c7b	1.0217e-41
59	0xacc5d943	-5.6231977e-12
60	0x167fea09	2.0672584e-25
61	0x2c213b43	2.2912373e-12
62	0x2d499426	1.1458423e-11
63	0xad7a2f23	-1.4221321e-11
64	0x0881d710	7.814466e-34
65	0x987babcb	-3.2527723e-24
66	0xbec1a853	-0.37823734
67	0xbe93fa84	-0.28902066
68	0x3edd3b4c	0.43209302
69	0x196a8e95	1.2126311e-23
70	0x0000011b	3.97e-43
71	0x3ec383a2	0.38186365
72	0xbe95fd2d	-0.2929472
73	0x3e942e83	0.28941736
74	0x143c546e	9.508225e-27
75	0x1701814b	4.184534e-25
76	0x3e86cbe4	0.2632743
77	0xbea312b6	-0.31850213
78	0x8da351bb	-1.00653265e-30
79	0xbe8caff2	-0.27477986
80	0x3e80b3ba	0.2513712
81	0x3d75d2a6	0.060015343
82	0x80001f78	-1.1289e-41
83	0xbea0f595	-0.31437364
84	0x3ea59465	0.3233978
85	0x00001e42	1.0854e-41
86	0x3e5ad0d5	0.21368726
87	0x00001c3e	1.0131e-41
88	0x9699ba22	-2.483595e-25
89	0xbe9ef727	-0.31047937
90	0x00001d0f	1.0424e-41
91	0x3db524e4	0.08844927
92	0x00001bff	1.0043e-41
93	0x3e8a6f00	0.2703781
94	0xbe9867fc	-0.29766834
95	0x3e2b86e1	0.16750671
96	0x80001bd2	-9.98e-42
97	0x80001b68	-9.832e-42
98	0x3e7b57e9	0.24545254
99	0x3e98e7c0	0.2986431
100	0xbe6f9f2a	-0.2340056
101	0x16db4a87	3.5428392e-25
102	0x80001bb5	-9.94e-42
103	0xbe79e42e	-0.2440345
104	0x3e81c74a	0.25347358
105	0xbe5c46ce	-0.21511385
106	0x8d149fb4	-4.5798257e-31
107	0x802f70cd	-4.356734e-39
108	0x3e14993a	0.14511576
109	0x3e87c7e8	0.26519704
110	0x1286c13f	8.504228e-28
111	0x3eb27b84	0.3485986
112	0xbe3d7901	-0.1850319
113	0x3e95f905	0.2929155
114	0x0fe3b5fa	2.2454023e-29
115	0x3e844097	0.25830528
116	0xbe33c74b	-0.17556493
117	0x00001c22	1.0092e-41
118	0x3e287fa3	0.1645494
119	0x80001bdf	-9.998e-42
120	0x19809bbb	1.3297789e-23
121	0x3e83f1de	0.25770468
122	0x00001df9	1.0752e-41
123	0x3e8e85c6	0.27836436
124	0x00003305	1.8302e-41
125	0xbe59456e	-0.21217892
126	0x3e7ad6c6	0.24495992
127	0x3e543130	0.20721889
128	0x00001f2f	1.1187e-41
129	0x10bb9b5f	7.399788e-29
130	0x3e731915	0.23740037
131	0x3ebbc03e	0.36670107
132	0xbe8cc519	-0.27494124
133	0x99907877	-1.4937906e-23
134	0x800032ea	-1.8265e-41
135	0xbe856249	-0.26051548
136	0x3e4ca710	0.19985604
137	0xbe67fed8	-0.22655809
138	0x80001bfb	-1.0038e-41
139	0x8b96e22a	-5.811819e-32
140	0x3e63a8ce	0.22232363
141	0x3ea47b03	0.321251
142	0x80001b9d	-9.906e-42
143	0x3eb4448a	0.3520854
144	0xbe4b7785	-0.19869812
145	0x3e418bd2	0.18900993
146	0x80001c5d	-1.0175e-41
147	0x3e9dca29	0.30818298
148	0xbe57c561	-0.21071388
149	0x80001bcd	-9.973e-42
150	0x3e8a4eb9	0.27013186
151	0x8aa83c71	-1.6200547e-32
152	0x929cea7a	-9.902787e-28
153	0x3eb94200	0.36183167
154	0x1400f866	6.5113365e-27
155	0x3e90045c	0.28128326
156	0x00001c5b	1.0172e-41
157	0xbe7878a1	-0.24264766
158	0x3e68f459	0.22749461
159	0x3e9f7b9d	0.31148997
160	0x0b24a8ac	3.1712146e-32
161	0x893d9490	-2.2819901e-33
162	0x3ed6b400	0.41934204
163	0x3e4fafab	0.20281856
164	0xbe971d0e	-0.29514354
165	0x827a2424	-1.8377471e-37
166	0x00546eba	7.753903e-39
167	0xbe821ab8	-0.2541101
168	0x3e812ca2	0.25229365
169	0xbe67d6e4	-0.22640568
170	0x80001bb8	-9.944e-42
171	0x18df4aba	5.7719603e-24
172	0x3dab1b8c	0.083548635
173	0x3ea7b525	0.3275539
174	0x8b4994e6	-3.882321e-32
175	0x3e914157	0.28370163
176	0xbea51faa	-0.3225072
177	0x3ebfda73	0.3747135
178	0x04bcfe6e	4.4432244e-36
179	0x3e74d668	0.23909914
180	0xbe19fea6	-0.15038547
181	0x127b6844	7.933015e-28
182	0x3de25d88	0.11052996
183	0x945cb6d1	-1.1143216e-26
184	0x8bc9b1cb	-7.7689897e-32
185	0x3e8f5d5c	0.28000915
186	0x16c2d689	3.147778e-25
187	0x3e5d4955	0.21610005
188	0x0013cdb4	1.818667e-39
189	0xbdc820ff	-0.097719185
190	0x3e822932	0.25422055
191	0x3e90805e	0.28222936
192	0x000018d3	8.905e-42
193	0x99906cea	-1.4933241e-23
194	0x3e6f494b	0.23367803
195	0x3eaffc08	0.34371972
196	0xbe8c1244	-0.27357686
197	0x06b71f07	6.888254e-35
198	0x80001b7f	-9.864e-42
199	0xbe84f44e	-0.2596764
200	0x3e712069	0.2354752
201	0xbe77c425	-0.24195917
202	0x8537332b	-8.614017e-36
203	0x15661a11	4.6468693e-26
204	0x3e746ddc	0.23870033
205	0x3eb72770	0.35772276
206	0x10b655fe	7.1918834e-29
207	0x3e9f521e	0.31117338
208	0xbe32b6a0	-0.17452478
209	0x3e60583d	0.2190866
210	0x80001c0b	-1.006e-41
211	0x3e86b487	0.26309606
212	0xbe742093	-0.23840551
213	0x023cbd73	1.3866428e-37
214	0x3e8bc71c	0.27300346
215	0x00085c9f	7.6791e-40
216	0x001a2875	2.402236e-39
217	0x3ec13e4d	0.37742844
218	0x8891eb4b	-8.782187e-34
219	0x3e8902de	0.2676
220	0x00001d0f	1.0424e-41
221	0xbe9f7a43	-0.31147966
222	0x3e3baddc	0.18328041
223	0x3eaa130f	0.33217666
224	0x841c5240	-1.837548e-36
225	0x80001c44	-1.014e-41
226	0x3eb73cf7	0.357887
227	0x3eb8d565	0.36100307
228	0xbe8f970f	-0.28044936
229	0x84e7b9ca	-5.447846e-36
230	0x089e7f03	9.539139e-34
231	0xbe787f47	-0.24267302
232	0x3e9bd762	0.30437762
233	0xbe53d75f	-0.20687626
234	0x95bec4cc	-7.705088e-26
235	0x00001bab	9.925e-42
236	0x3e48bc34	0.19603044
237	0x3eac3937	0.336374
238	0x96249625	-1.3295192e-25
239	0x3e0697a7	0.13143788
240	0xbe6db346	-0.23212919
241	0x3e3551f5	0.17707045
242	0x170a4930	4.468258e-25
243	0x3e529daf	0.20567964
244	0xbcb7cfe1	-0.022437992
245	0x00001b99	9.9e-42
246	0x3e936c06	0.28793353
247	0x82d2c935	-3.0972214e-37
248	0x88840ee8	-7.9479655e-34
249	0x3e7ad58f	0.24495529
250	0x00034df1	3.03467e-40
251	0x3e2a2e85	0.16619308
252	0x049c1c7b	3.670158e-36
253	0xbe8b4e83	-0.27208337
254	0x3ecc2603	0.3987275
255	0x3ea0f5d7	0.3143756

pos_mlp.2.bias f4 [32]
0	0x3df651d9	0.1202733
1	0xac92c4d6	-4.1714228e-12
2	0x3eaf8601	0.34281924
3	0x3d0c3576	0.03423067
4	0x3bf12993	0.0073596924
5	0x3e17889d	0.14798208
6	0x3d1f3ffa	0.038879372
7	0xbd9b4852	-0.075821534
8	0xa40bf4c4	-3.0348145e-17
9	0x24ef208f	1.03704884e-16
10	0x3e8746fd	0.26421347
11	0xaa80d3be	-2.2884293e-13
12	0xa99a88b3	-6.8626874e-14
13	0x3d3ad4f3	0.04561324
14	0xbc810149	-0.015747683
15	0xa0096673	-1.1638249e-19
16	0x3e76d413	0.24104337
17	0x3e68e078	0.22741878
18	0x1f3f0376	4.0448686e-20
19	0x3e720267	0.23633729
20	0xa9618b73	-5.008099e-14
21	0xb75fd63a	-1.3341714e-05
22	0x3e052b44	0.13004786
23	0x36924b9f	4.3599425e-06
24	0xbc642794	-0.013925452
25	0x3d7f19c7	0.062280443
26	0x3dd237fc	0.102645844
27	0x3d722b7c	0.0591235
28	0x9c8daad4	-9.374755e-22
29	0x3d87f9fb	0.06639477
30	0x3d89a9e0	0.06721854
31	0x3d8245af	0.06360947

dec_trunk.0.weight f4 [128, 288]
0	0x00001c71	1.0203e-41
1	0x00001d7c	1.0577e-41
2	0x1b6ac680	1.9420165e-22
3	0x80001c28	-1.01e-41
4	0xb23a917d	-1.0859705e-08
5	0xb74b2feb	-1.21109e-05
6	0x80001d71	-1.0562e-41
7	0x00001be6	1.0008e-41
8	0xb0f1cb02	-1.7592756e-09
9	0xb31cd777	-3.6517545e-08
10	0x8d926412	-9.022036e-31
11	0xb1da1fc7	-6.3482477e-09
12	0x1bb26205	2.9510973e-22
13	0xb2afa248	-2.0446478e-08
14	0xb5539db4	-7.8833114e-07
15	0xa61e7f87	-5.4990094e-16
16	0x94ec9fc2	-2.3892924e-26
17	0xb4260dc1	-1.5464958e-07
18	0x00001b5f	9.819e-42
19	0x80001b80	-9.865e-42
20	0x0bec5116	9.10259e-32
21	0x00001bd0	9.977e-42
22	0xaec9be0b	-9.17418e-11
23	0x80001b74	-9.848e-42
24	0xb2ba5741	-2.1692928e-08
25	0x00001b62	9.823e-42
26	0x318a896b	4.031951e-09
27	0xb00b7da6	-5.074646e-10
28	0x876f6924	-1.801126e-34
29	0xb5862e0d	-9.99718e-07
30	0x00001c0f	1.0066e-41
31	0xab0aeeef	-4.9359036e-13
32	0xb3cffff9	-9.68575e-08
33	0xb5b25628	-1.3287108e-06
34	0x00001c64	1.0185e-41
35	0x80001bee	-1.0019e-41
36	0xb0b83f64	-1.3405779e-09
37	0x80001bb2	-9.935e-42
38	0xae3be411	-4.272144e-11
39	0x30e084a5	1.6335845e-09
40	0x80001c0f	-1.0066e-41
41	0x80001bf7	-1.0032e-41
42	0x80001bb2	-9.935e-42
43	0x00001c3f	1.0133e-41
44	0xb4a26a59	-3.025223e-07
45	0x00002279	1.2366e-41
46	0xb514513a	-5.5252497e-07
47	0x00001c5c	1.0173e-41
48	0x00001c3c	1.0129e-41
49	0x0ad8098e	2.0803637e-32
50	0x2b9bd6fe	1.1073085e-12
51	0x80001c1f	-1.0088e-41
52	0x872b2040	-1.2874088e-34
53	0xb0bc5141	-1.3701894e-09
54	0xb03388dc	-6.531431e-10
55	0x00001ba5	9.917e-42
56	0x80001bb9	-9.945e-42
57	0x00001bfd	1.004e-41
58	0x2112843d	4.964174e-19
59	0xb3803322	-5.9697655e-08
60	0x80001b9e	-9.907e-42
61	0x80001bd8	-9.988e-42
62	0x80001bf6	-1.003e-41
63	0xb6045d02	-1.972367e-06
64	0x33797407	5.8080357e-08
65	0xb177ee8e	-3.6078833e-09
66	0xb14cd3c3	-2.980628e-09
67	0xb2324ee1	-1.0378899e-08
68	0xb1047f9f	-1.9281072e-09
69	0x80001c98	-1.0258e-41
70	0x02d120a7	3.0728531e-37
71	0x909a014e	-6.07443e-29
72	0x00001e0e	1.0782e-41
73	0xa7a281da	-4.5104818e-15
74	0x00001bbf	9.953e-42
75	0x00001b69	9.833e-42
76	0xb5e62cf8	-1.7149423e-06
77	0x80001c2a	-1.0103e-41
78	0x00001c01	1.0046e-41
79	0x80001c23	-1.0094e-41
80	0x80001b6f	-9.841e-42
81	0xa98b37c3	-6.182513e-14
82	0x01d60c6e	7.862902e-38
83	0x00001b61	9.822e-42
84	0x89626626	-2.725179e-33
85	0x9bb7add1	-3.0387137e-22
86	0xb41fdca1	-1.4888293e-07
87	0xa44823ea	-4.3398507e-17
88	0x24b604b3	7.893788e-17
89	0xb2bebb16	-2.2203988e-08
90	0x800000c1	-2.7e-43
91	0x29f4bd88	1.0868655e-13
92	0x80001b73	-9.847e-42
93	0x3606ef71	2.010693e-06
94	0x0f1664c6	7.414979e-30
95	0x000020d9	1.1784e-41
96	0x00001d6c	1.0555e-41
97	0x3575ff46	9.1641084e-07
98	0xb62494b1	-2.4524454e-06
99	0x80001cae	-1.0288e-41
100	0x80001c05	-1.0052e-41
101	0x00001d85	1.059e-41
102	0x36d00154	6.1990377e-06
103	0x00001c3b	1.0127e-41
104	0x80001bd4	-9.983e-42
105	0x80001cae	-1.0288e-41
106	0xb4878588	-2.5242866e-07
107	0x80001c24	-1.0095e-41
108	0xae33d144	-4.0885753e-11
109	0x20030ff9	1.1101417e-19
110	0x95141d1e	-2.991133e-26
111	0xb66f71ea	-3.5680082e-06
112	0x80001b63	-9.825e-42
113	0xb114fe7c	-2.1681492e-09
114	0xa91574a1	-3.3185806e-14
115	0xb4d3e878	-3.9470956e-07
116	0xb0015af1	-4.705916e-10
117	0x80001bd1	-9.979e-42
118	0xb11b7597	-2.262231e-09
119	0xb711dcbd	-8.694068e-06
120	0xb3b9c2ba	-8.6501544e-08
121	0xb42e592c	-1.6237453e-07
122	0x80001c54	-1.0162e-41
123	0xb124d4f3	-2.3986189e-09
124	0x80001ca2	-1.0272e-41
125	0x80001c57	-1.0166e-41
126	0xb0a3a056	-1.1905381e-09
127	0x00003296	1.8147e-41
128	0x00001bc1	9.956e-42
129	0x9199af72	-2.424727e-28
130	0x80001c2e	-1.0109e-41
131	0xae6391ca	-5.174331e-11
132	0x80001b5f	-9.819e-42
133	0x80001b68	-9.832e-42
134	0xb28c5628	-1.6337324e-08
135	0x8000222a	-1.2256e-41
136	0xb3760286	-5.7278633e-08
137	0x80001d9e	-1.0625e-41
138	0x00001baa	9.924e-42
139	0x9b11458c	-1.2016591e-22
140	0x3611f75f	2.1750673e-06
141	0x80001bf2	-1.0025e-41
142	0x00001cf5	1.0388e-41
143	0xaf950236	-2.7104513e-10
144	0x3126bdab	2.4263993e-09
145	0x80001e86	-1.095e-41
146	0xae6b928d	-5.3562977e-11
147	0x80001c09	-1.0057e-41
148	0xabddde1f	-1.5764645e-12
149	0x08b540df	1.0908792e-33
150	0x80001c42	-1.0137e-41
151	0x00001c5c	1.0173e-41
152	0x2b8f213f	1.0169989e-12
153	0x00001ce5	1.0365e-41
154	0xa8cf5d17	-2.3021988e-14
155	0x00001c13	1.0071e-41
156	0x80001bd6	-9.986e-42
157	0x9d7ba795	-3.3306211e-21
158	0x18846a7f	3.4228734e-24
159	0xb62f5996	-2.6129178e-06
160	0x2c412723	2.7448675e-12
161	0x32c82b39	2.330272e-08
162	0xb1958383	-4.351422e-09
163	0x00001b9d	9.906e-42
164	0xb585ba5a	-9.963508e-07
165	0x370ad418	8.274823e-06
166	0xb4864751	-2.5011335e-07
167	0x804e9304	-7.215908e-39
168	0x80001b62	-9.823e-42
169	0xabca0e0f	-1.4356865e-12
170	0x00001be0	1e-41
171	0x80001bb9	-9.945e-42
172	0xaf272881	-1.5202951e-10
173	0x80001c6a	-1.0193e-41
174	0xb4252b5f	-1.5382601e-07
175	0x1d64a12a	3.0258869e-21
176	0xa3e7cf17	-2.5132776e-17
177	0x00001cbd	1.031e-41
178	0x80001f5a	-1.1247e-41
179	0x00001c00	1.0045e-41
180	0xb10d2d02	-2.0543784e-09
181	0xadc5feb5	-2.250942e-11
182	0x00001b98	9.899e-42
183	0x80001e91	-1.0965e-41
184	0x8a639bdb	-1.09589656e-32
185	0xa8437ce3	-1.0851755e-14
186	0x00001ba2	9.913e-42
187	0xb2e5c9d2	-2.6750886e-08
188	0xb37c39ba	-5.8725824e-08
189	0xb71efbdc	-9.4761745e-06
190	0x00001c08	1.0056e-41
191	0x12d8488a	1.3649399e-27
192	0x13361065	2.2979713e-27
193	0xb296c263	-1.7550695e-08
194	0xb08ac658	-1.0097194e-09
195	0xb83061ed	-4.205287e-05
196	0xa6135427	-5.111492e-16
197	0x00001be7	1.001e-41
198	0x0f26f882	8.232293e-30
199	0x358cf24d	1.0501332e-06
200	0xa8a47f1e	-1.8262786e-14
201	0x00001b78	9.854e-42
202	0xb36197be	-5.2524904e-08
203	0x8ba8deba	-6.504637e-32
204	0x80001bb0	-9.932e-42
205	0x00001b85	9.872e-42
206	0x317a54d8	3.6428016e-09
207	0x0342355e	5.707274e-37
208	0xb29e021e	-1.8394584e-08
209	0x2a8305e0	2.327435e-13
210	0x2871dd70	1.3426204e-14
211	0x80001c04	-1.005e-41
212	0x9c216733	-5.3403813e-22
213	0x00001bff	1.0043e-41
214	0x80001b70	-9.843e-42
215	0x1d7c2ade	3.3374084e-21
216	0x00001b6c	9.837e-42
217	0xaec401ab	-8.9133444e-11
218	0x80001be8	-1.0011e-41
219	0x00001dc7	1.0682e-41
220	0xb3d8a410	-1.00881266e-07
221	0xb517d48c	-5.656118e-07
222	0xb17e18f7	-3.6976056e-09
223	0x00001b94	9.893e-42
224	0x00001bc2	9.958e-42
225	0xa91eeb0d	-3.528692e-14
226	0x80001b84	-9.871e-42
227	0x13baf8f4	4.7198488e-27
228	0x800021a8	-1.2074e-41
229	0x363f4155	2.8499246e-06
230	0x00001cee	1.0378e-41
231	0xb0065112	-4.8864124e-10
232	0xb034446b	-6.5580846e-10
233	0x231ab0df	8.385811e-18
234	0xb3f1ee9e	-1.1265841e-07
235	0x80001bc6	-9.963e-42
236	0x80001cd1	-1.0337e-41
237	0x328ac0af	1.6152937e-08
238	0xb285e7dd	-1.5588677e-08
239	0x80002111	-1.1862e-41
240	0x00001c06	1.0053e-41
241	0x369b01c3	4.619565e-06
242	0x80001bcc	-9.972e-42
243	0xb3be8af2	-8.8728385e-08
244	0x9d4c57fc	-2.7044662e-21
245	0x80001e77	-1.0929e-41
246	0xb641a24a	-2.8853706e-06
247	0xb7054470	-7.943352e-06
248	0x80001c4a	-1.0148e-41
249	0x25a22dd8	2.8133585e-16
250	0xb059dca2	-7.925768e-10
251	0x2dd402cd	2.4102853e-11
252	0xb10165e9	-1.88299e-09
253	0x13b6f312	4.6182945e-27
254	0xae72edc9	-5.5235625e-11
255	0x80001bd4	-9.983e-42
