pointnet/weights_per_bundle_ratio025/OR_left_best.pth (torch, 359715 bytes, 17 tensors)

t_grid f4 [100]
00000000: 0000 0000 b57e 253c b57e a53c 103e f83c
00000010: b57e 253d 62de 4e3d 103e 783d dece 903d
00000020: b57e a53d 8c2e ba3d 62de ce3d 398e e33d
00000030: 103e f83d f376 063e dece 103e ca26 1b3e
00000040: b57e 253e a0d6 2f3e 8c2e 3a3e 7786 443e
00000050: 62de 4e3e 4e36 593e 398e 633e 24e6 6d3e
00000060: 103e 783e fd4a 813e f376 863e e9a2 8b3e
00000070: dece 903e d4fa 953e ca26 9b3e bf52 a03e
00000080: b57e a53e abaa aa3e a0d6 af3e 9602 b53e
00000090: 8c2e ba3e 815a bf3e 7786 c43e 6db2 c93e
000000a0: 62de ce3e 580a d43e 4e36 d93e 4362 de3e
000000b0: 398e e33e 2fba e83e 24e6 ed3e 1a12 f33e
000000c0: 103e f83e 056a fd3e fd4a 013f f8e0 033f
000000d0: f376 063f ee0c 093f e9a2 0b3f e438 0e3f
000000e0: dece 103f d964 133f d4fa 153f cf90 183f
000000f0: ca26 1b3f c5bc 1d3f bf52 203f bae8 223f
00000100: b57e 253f b014 283f abaa 2a3f a640 2d3f
00000110: a0d6 2f3f 9b6c 323f 9602 353f 9198 373f
00000120: 8c2e 3a3f 86c4 3c3f 815a 3f3f 7cf0 413f
00000130: 7786 443f 721c 473f 6db2 493f 6748 4c3f
00000140: 62de 4e3f 5d74 513f 580a 543f 53a0 563f
00000150: 4e36 593f 48cc 5b3f 4362 5e3f 3ef8 603f
00000160: 398e 633f 3424 663f 2fba 683f 2950 6b3f
00000170: 24e6 6d3f 1f7c 703f 1a12 733f 15a8 753f
00000180: 103e 783f 0ad4 7a3f 056a 7d3f 0000 803f
0.0 0.01010101 0.02020202 0.030303031 0.04040404 0.05050505 0.060606062 0.07070707
0.08080808 0.09090909 0.1010101 0.11111111 0.121212125 0.13131313 0.14141414 0.15151516
0.16161616 0.17171717 0.18181819 0.1919192 0.2020202 0.21212122 0.22222222 0.23232323
0.24242425 0.25252524 0.26262626 0.27272728 0.28282827 0.2929293 0.3030303 0.3131313
0.32323232 0.33333334 0.34343433 0.35353535 0.36363637 0.37373737 0.3838384 0.3939394
0.4040404 0.41414142 0.42424244 0.43434343 0.44444445 0.45454547 0.46464646 0.47474748
0.4848485 0.4949495 0.5050505 0.5151515 0.5252525 0.53535354 0.54545456 0.5555556
0.56565654 0.57575756 0.5858586 0.5959596 0.6060606 0.61616164 0.6262626 0.6363636
0.64646465 0.65656567 0.6666667 0.6767677 0.68686867 0.6969697 0.7070707 0.7171717
0.72727275 0.7373737 0.74747473 0.75757575 0.7676768 0.7777778 0.7878788 0.7979798
0.8080808 0.8181818 0.82828283 0.83838385 0.8484849 0.85858583 0.86868685 0.8787879
0.8888889 0.8989899 0.90909094 0.9191919 0.9292929 0.93939394 0.94949496 0.959596
0.969697 0.97979796 0.989899 1.0

encoder.mlp.0.weight f4 [64, 3]
00000000: f7fb ebbe 2afc 273e fc71 3fbe b58e de3e
00000010: c8fc 69be 05a7 eebd 64d4 97bd 80e9 063e
00000020: d826 f53e 23db f73d 219e 9a3d 45e1 1c3a
00000030: f85b cb3e 8726 cbbe 4703 e8be b9a8 713b
00000040: ecb6 283c c1ee 4bbb a9f4 bebe da7a 093f
00000050: 9ac0 763e de40 44bc 1cc2 8bbe 941b afbe
00000060: 535a 053f bbf6 c0bd aba1 0f3e 29a5 a23c
00000070: 19cc 18b9 3ac4 8cbb 8446 1b3d f5a5 07bf
00000080: 5b68 4cbe 5e67 80be 1374 84bc 8652 24be
00000090: 0240 fe3d bc37 043e ccb8 54b6 cb48 37bd
000000a0: 5bf9 1c3e 6e03 a9be ad26 bbbe e7c6 0b3e
000000b0: c231 dd3c 4099 86bd 8730 8e3d 6fda 053f
000000c0: d61e ccbe 147f 243e a86a bd3e e031 2abe
000000d0: 96a2 c4bd 79a0 e23e 2f15 0ebb 96b0 0b3e
000000e0: 5310 11bb 056f c73e 0ee5 9abe 5874 42be
000000f0: 480c 8cbe 7f65 24bc 1a7d 1ebe 8040 d03e
00000100: 9b89 713d 20a0 d43e 2d03 01be df91 fabe
00000110: 7cdd b0be 6f80 42bd 4ca0 92be f93a 40bd
00000120: f39c 11bf 23d6 063f 8e32 11bf fa3a 15bf
00000130: 0ccc 2ebd f78d 963e 28da dd3c 6456 863d
00000140: e4a6 2c3b 0e20 ba3e 3f82 a6be 83ca 943e
00000150: b279 00bf 64dd febe 73da 8b3e fbd8 87be
00000160: 5425 a8bd fc27 c5bc a8cb 15bf 09e2 0abe
00000170: 66af 03bf 49d7 dd3e 1f91 57be 22df 9bbe
00000180: c018 a03e d0da 10be 7b10 0dbf dfb3 cabd
00000190: 0c2d 91bd f1c0 143e 7704 403e 3df1 843d
000001a0: 3838 4d3e 475e 8d3e dcfb 4abe 9121 19be
000001b0: 9bfa e2be 4837 933e a9bd 38bc a691 333e
000001c0: c96d 383d 1c64 de3e f67e d3be a379 20bd
000001d0: 540f 263e c668 163e bb5e aabe bba7 a4bd
000001e0: 0e12 c1be c1ca 6c3d 8acf 0a3f 2dbc c93e
000001f0: 4347 11be a73f cb3e b7af a6be abb1 bcbe
00000200: e728 adbe 6d86 dcbc 99d1 963d c2bd 3e3d
00000210: e304 d33d 9fcf 01bf e4e7 81be ce12 5bbe
00000220: dc86 b5be 6fdf 963d 8905 243c 2ed2 943d
00000230: 6fda 0cbb d414 10bf 6ae5 3bbe 627a 8cbe
00000240: 8486 a1bc c6ff 9a3d 5caf 0dbf ebce 123e
00000250: 69c0 1bbe fe32 8d3e a02e f5bd 9fef 6dbe
00000260: d560 18bf ffdb af3e 69df 11be 2b53 0c3e
00000270: 8738 c0bd 01a1 5e3c 7999 e4be 8515 ecbd
00000280: b72f 00be de1b cebe 8029 2fbe 1b9e 54be
00000290: 526a da3d 3297 ef3d 9d82 133c be96 b338
000002a0: 6546 ea3e f41f 8fbe 55bd b8be 0574 4dbe
000002b0: b592 04bf a6bc 043f c05e 57bc 65b8 893c
000002c0: ad06 7dbd 6162 153c 6672 283c a667 0abd
000002d0: 5774 41be 92a0 c23b da82 57be b5e7 ce3e
000002e0: db8e 07be 133c 45be ffca e3be 7373 b83e
000002f0: dc85 233e e461 99be 340d c13d 53f2 83bd
-0.4609067 0.16404787 -0.18695825 0.43468252 -0.22850335 -0.1165295 -0.07413557 0.1317501
0.47881198 0.12102344 0.07549692 0.00059844955 0.39718604 -0.39677832 -0.45315 0.0036874248
0.010297518 -0.003111765 -0.37296036 0.5370308 0.24096909 -0.011978356 -0.2729653 -0.34200728
0.5209095 -0.0942206 0.14026515 0.019854145 -0.00014571882 -0.004295853 0.037909046 -0.52987605
-0.19961683 -0.25078863 -0.01616863 -0.16047105 0.12414552 0.12911886 -3.1698028e-06 -0.044747155
0.15329497 -0.3301043 -0.36552945 0.13650094 0.027001265 -0.06572199 0.069428496 0.5228643
-0.39867276 0.16064101 0.36995435 -0.16620588 -0.09601323 0.44263056 -0.0021680107 0.13641581
-0.0022134974 0.3895189 -0.3025288 -0.18989694 -0.2735312 -0.010033964 -0.1547741 0.4067421
0.05896912 0.41528416 -0.12598868 -0.48939416 -0.3454398 -0.047485765 -0.28637922 -0.04693124
-0.5688011 0.52670497 -0.56717765 -0.58293116 -0.042675063 0.29405186 0.027081564 0.065594465
0.0026344592 0.3635258 -0.32521245 0.29060754 -0.5018569 -0.49778283 0.273151 -0.2653273
-0.08210245 -0.024066918 -0.5851388 -0.13562788 -0.5143951 0.43328312 -0.21051453 -0.30443674
0.31268883 -0.1414597 -0.5510327 -0.09897589 -0.0708867 0.14526726 0.18751703 0.06491325
0.20040977 0.2761099 -0.19822639 -0.14954211 -0.44331822 0.28753114 -0.011275687 0.17536029
0.045026574 0.43435752 -0.413078 -0.0391785 0.16216785 0.14688405 -0.332754 -0.080398045
-0.37709087 0.05781055 0.5422293 0.3940138 -0.1418734 0.39697 -0.32555935 -0.368543
-0.3382027 -0.026919568 0.07364196 0.046567686 0.103036664 -0.5070743 -0.2537223 -0.21393892
-0.35454452 0.07366835 0.010011085 0.07266651 -0.0021492501 -0.5628178 -0.18349233 -0.2743712
-0.019717462 0.07568316 -0.553457 0.14336745 -0.15210117 0.27577966 -0.11971784 -0.2323594
-0.59522754 0.3434753 -0.1424538 0.13703601 -0.09385782 0.013588191 -0.4464834 -0.11527542
-0.12518202 -0.40255636 -0.17105675 -0.20763437 0.1066481 0.1169876 0.009003309 8.563463e-05
0.45756832 -0.27954066 -0.3608195 -0.20063789 -0.5178636 0.51850355 -0.013145149 0.016811559
-0.061773945 0.009117694 0.010281181 -0.033790253 -0.18892036 0.0059395516 -0.2104601 0.40411153
-0.13238089 -0.19261198 -0.4449081 0.3602558 0.15969032 -0.29957497 0.094263464 -0.06442704

encoder.mlp.0.bias f4 [64]
00000000: 1db8 ec3d 32c8 96be 1e74 0a3d ccca 6c30
00000010: d664 b43e c609 babb fb52 7f3e 455e 86bd
00000020: 4ccf 7cbd 4f7f 59bc 5e3e f13e 3ca4 2dbd
00000030: c848 5c3a 272a 123e a71b a8be 247a d1be
00000040: 4f97 f2be ab98 13be b6be 89bd 58af ebbe
00000050: 3c46 b3be a377 95be 3076 2e3e 7b0c 8dbe
00000060: d4fe f13c 5825 8dbd f7b0 5fbb b18e e33e
00000070: 1e6f d33e 8092 b83c 200d 73be 5a43 d43e
00000080: b1f7 95be 226f b53e d1b7 003e 1f05 59be
00000090: 11c2 9abd 0761 e23d 90c4 913e 3949 38be
000000a0: b2ce 45be 1c08 673e 6e2b b23e dc55 bd3c
000000b0: 1302 44be 3ec2 7bbc 292c 7e34 f01c a33e
000000c0: b4d6 883e 0e91 f8be de3a 35be 378b 9cbe
000000d0: 83b3 92be de35 f03e 2b53 14be 6d80 8a3b
000000e0: 9d3d c3bd 11cb 4fbd 142a 77bd 7f02 f43d
000000f0: 63d3 c2be 36c0 e1bd d07f 23be 20cd 863e
0.11558554 -0.29449612 0.033802144 8.614449e-10 0.35233182 -0.0056774346 0.24933998 -0.06560949
-0.06172113 -0.013274982 0.47117895 -0.042392954 0.0008403179 0.14273892 -0.32833597 -0.40913498
-0.47381064 -0.14413707 -0.06725828 -0.46032214 -0.35014522 -0.29192838 0.17037272 -0.27548584
0.029540457 -0.068918884 -0.003413258 0.44444802 0.41295713 0.022530794 -0.23735476 0.41457635
-0.29290536 0.3543635 0.1257012 -0.2119336 -0.075565465 0.11053663 0.28470278 -0.17996682
-0.19317129 0.22561687 0.3479876 0.02311223 -0.19141416 -0.015366135 2.3671659e-07 0.31858015
0.26726305 -0.48548168 -0.17698237 -0.30574962 -0.28652582 0.46916097 -0.14484851 0.0042267353
-0.09533236 -0.05073077 -0.060342863 0.119145386 -0.380519 -0.110229895 -0.15966725 0.26328373

encoder.mlp.2.weight f4 [128, 64]
00000000: 7d26 c8bd 175f 2bbc e6d0 88bd 5c33 99b4
00000010: 106a 473c 99c1 c236 6f57 48bd 2390 a73d
00000020: 6a8c f5bd 9a64 5338 e94c 4ebd b511 453d
00000030: dd29 38b9 1a99 873c c5b8 9bbd 1813 133d
00000040: 1111 283d c2f0 8a3d 732f afb7 2fa6 fbbb
00000050: 4ff0 3a3c 0276 983c 5a51 e93d 9182 31bd
00000060: 8217 ff3d 7f99 72bd ca90 39a7 6794 8cbd
00000070: 4265 923d 2310 c9bd 745f ba3d c9af e03b
00000080: fd80 99bd 7ee7 9b3b 7db3 85b1 92a9 a4bd
00000090: 6826 a4bd b46d 83bd 16ad c13d 8b5e 923d
000000a0: 8597 6abd 6bb2 be3d f15d 923d a0cb 2a39
000000b0: b8f5 4e3d 6d98 26bd 57ee cfb8 c10f a1bd
000000c0: e356 3b3d 2f7f 9e3c 2831 013e 6646 b8bd
000000d0: 9d24 d2bd 4ef8 973d 91bc 28bd 4e64 0938
000000e0: 2d12 2f3c 94c0 b7bd d9ef 213c f56a 9eb7
000000f0: 1b3f b63d 7e06 a53d 99a6 f8bd d24e cdbd
00000100: bc1d 923b bf6b 043d 65a9 e1bc 7ecd d7a7
00000110: 225f b3bd 4f09 14ae ff44 b7bc e992 60bd
00000120: 8711 57bc d7e7 4535 4ad3 9abd c078 813d
00000130: b31b de27 b61c 173d f3bf 2c3d a6b5 923d
00000140: 6ed5 563d b338 c7bd 5438 edab ae53 a33c
00000150: 2940 d33d 1ea3 97bc 28fd 893d 9b7d f53c
00000160: fb32 e53c fd5c 373d 1273 be38 8cfb 613d
00000170: 23df 213d 73f5 89bc bcc9 37bc c1dc 983c
00000180: f4d8 28bd 787f 3cbd 9341 10bc 8b0e 9fbc
00000190: 55e1 313d 3c92 01bb 552c 033e fb83 5bbd
000001a0: b341 99bd c0e4 94bd d0bf 00bd c8ee b43b
000001b0: b71b 44bd 0439 5bbc 7c1b 7236 87b7 f13d
000001c0: 5a90 b0bd dadd 62bd 9d01 b93d 8cf8 32bc
000001d0: 9056 663d e8e7 8bbc e529 553d 0ce7 f134
000001e0: 93e4 82bc 3883 5a3c fa49 363c 63d3 2338
000001f0: 7039 4ebd 56d7 64bd da77 87bd 7ae1 31bd
00000200: f711 e1bd 2ee3 ea3d 2517 df3d 5dc9 3137
00000210: d1a9 ca3d 3617 1e28 eec0 cf3d c365 ebbd
00000220: 3ee1 033d c9c0 0fb9 67d2 e6bd 4319 e13d
00000230: 91f0 9c38 fbbb 1d3b a53a b8bc ffbe 613d
00000240: 15ec dc3d 8730 3f3d 4e79 9638 0d98 ac3d
00000250: f41c 843d 78dc 993d aca4 f83d e1e6 11bc
00000260: 0f90 a3bb 392e 043e 0c4f a127 2976 df3d
00000270: 8206 8cbd 1e39 03bd 3762 ca3d d214 98bc
00000280: 097a f63d 68ad b5bd 2b2d 3f3d 00ea dcbd
00000290: 7437 b6bc 6518 333d 06ba d5bd 9d6f 143d
000002a0: cf4a 7f3d 4766 143d 8549 dfbd 473b f43a
000002b0: 9ba0 f33d 4e36 cb3d 28d2 98b2 bb96 1bbd
000002c0: e15d 14bd 5571 b93d f5f2 c23d 685e d2bd
000002d0: 05c1 cebc 1a57 34bd b226 883d 59f0 69aa
000002e0: 4f11 373d 0840 bcbd 6596 c739 88fb 5d37
000002f0: dd90 32bd 067e 8ebd a517 1a3e f103 f73c
00000300: b2d9 a03d f441 8dbb 7386 cabc 5de5 bda7
00000310: b8c7 9fbd 5a2d 2d34 5e3b 943d 9948 cfbd
00000320: 602a a9bc 3a6e c8b5 5192 b6bd ac42 083d
00000330: 102a 9bb7 ff33 dd3c 8221 073d 2439 8a3d
00000340: 0a0d 0e3e 0ed3 6a3d 6796 0927 25a1 973c
00000350: 34a6 91bd fc9b a93d 9bf9 9dbd 9c51 bfbd
00000360: 2a4d 573c 6188 963d f6b3 c638 7f5c fdbc
00000370: 4efc f6bc d91f 61bd a163 fdbc cf4d 8abc
00000380: c032 89bb 4459 963c 3cd1 573d af4f a4bc
00000390: 76ee 7ebd 9971 db3d 46b2 083e f7ce e53b
000003a0: 52c1 08bd cd3c d93d d9a8 883d 49be 123b
000003b0: ab1d e8bb 4e06 7f3b 15f5 82a9 4d7f f73d
000003c0: fdd8 7b3d 0f8b e0bb d415 44bd 4204 6c3b
000003d0: 7c95 45bd 470e aabd de76 e33c b35c a725
000003e0: 3974 c1bc 6f69 9f3d 0a85 8b3b 3eaa 3ab6
000003f0: 82ba 9a3d 5d1d 58bc ef2e c33d 172f f63d
-0.09772966 -0.010459683 -0.06680469 -2.853584e-07 0.012171283 5.8041883e-06 -0.04891151 0.08181789
-0.119896725 5.0400013e-05 -0.050366316 0.04811259 -0.00017563203 0.016552497 -0.07603601 0.03590688
0.0410319 0.06784202 -2.0883721e-05 -0.0076797227 0.011409833 0.018610958 0.1139247 -0.04333741
0.12455656 -0.059228417 -2.5752398e-15 -0.06864243 0.0714822 -0.09817531 0.091002375 0.0068568927
-0.07495306 0.0047578206 -3.891215e-09 -0.080401555 -0.08015138 -0.064174086 0.09456842 0.07146939
-0.057273407 0.09311374 0.07146824 0.0001628832 0.050527304 -0.04067271 -9.9149234e-05 -0.07864333
0.04573716 0.019347755 0.12616408 -0.089978024 -0.1026089 0.07420407 -0.041195456 3.275676e-05
0.010685486 -0.08972278 0.009883844 -1.8884873e-05 0.08898755 0.08057879 -0.12141151 -0.100247994
0.004459111 0.032329317 -0.027546594 -5.9897283e-15 -0.087583795 -3.365957e-11 -0.022371767 -0.054827604
-0.013126737 7.372559e-07 -0.075598314 0.06321859 6.164741e-15 0.036892615 0.042175245 0.07163553
0.052449636 -0.097276114 -1.6855497e-12 0.019937363 0.10314972 -0.018510398 0.06737739 0.02996712
0.027978411 0.044766415 9.0813395e-05 0.055171534 0.03951944 -0.016840672 -0.011217531 0.018659951
-0.041222528 -0.04602 -0.008804697 -0.019416114 0.043427784 -0.0019771 0.1280988 -0.053592663
-0.07483234 -0.07270193 -0.031432927 0.005521629 -0.047877993 -0.013380293 3.6076808e-06 0.11802583
-0.08621283 -0.055387355 0.09033511 -0.010923516 0.056234896 -0.017078355 0.052041907 4.5057857e-07
-0.015978133 0.013336949 0.011126036 3.9059098e-05 -0.050347745 -0.055869423 -0.06614657 -0.04342792
-0.10989755 0.11469112 0.10893086 1.0596906e-05 0.09895671 8.775795e-15 0.1014422 -0.11494019
0.03219723 -0.00013709361 -0.112706 0.109911464 7.483469e-05 0.0024068344 -0.022488901 0.05511379
0.107872166 0.04667714 7.175152e-05 0.08427439 0.06450835 0.07512754 0.12140784 -0.0089051435
-0.0049915384 0.12908258 4.477218e-15 0.10911209 -0.06837179 -0.032036893 0.09882014 -0.018564615
0.12034995 -0.08870965 0.046673935 -0.107868195 -0.022243239 0.043724436 -0.10435872 0.036239255
0.062327202 0.03623035 -0.109026946 0.0018633389 0.118958674 0.09922467 -1.7790697e-08 -0.037985545
-0.036222342 0.090548195 0.095189966 -0.10271913 -0.025238523 -0.04402838 0.066480055 -2.0777945e-13
0.04469424 -0.091919005 0.0003806829 1.3231191e-05 -0.043595184 -0.06957631 0.15048082 0.030153247
0.07854022 -0.0043108407 -0.024722314 -5.2706714e-15 -0.07801765 1.612838e-07 0.07237886 -0.10121269
-0.020650089 -1.4933241e-06 -0.089146264 0.03326671 -1.8497027e-05 0.027002333 0.03299094 0.0674918
0.13872162 0.057330184 1.9094103e-15 0.018509457 -0.07111779 0.08281705 -0.07713624 -0.09341738
0.013140956 0.07350231 9.474896e-05 -0.030927895 -0.030149605 -0.054962013 -0.030931296 -0.016882805
-0.004186958 0.018353112 0.052689776 -0.020057527 -0.062239133 0.107150264 0.13349256 0.0070131975
-0.03338749 0.106073 0.0667283 0.002239125 -0.007083615 0.003891367 -5.815675e-14 0.120848276
0.061486233 -0.0068525146 -0.04787238 0.003601328 -0.048238263 -0.083035044 0.027766641 2.9032697e-16
-0.02361499 0.07783782 0.004257803 -2.7815254e-06 0.07555105 -0.0131905945 0.09530436 0.120207004

encoder.mlp.2.bias f4 [128]
00000000: f451 83bd fee5 adbc 0ead 7a3d 3b17 203c
00000010: a56b 083c 8fa0 533b f682 a6b6 e678 7d3c
00000020: 5d02 28bd c812 81b4 287f 1a3d 750f 91bd
00000030: 93a1 283d afe6 87bd ef57 d1b6 ab00 b33d
00000040: 1540 e7b5 8026 2eba da46 d533 166c cbbc
00000050: a644 7e35 08b4 90bd ca64 693d acbe 19bd
00000060: 8a92 853d 8dcb 0fbd 31ea 8abd 7f70 f136
00000070: 166c bb3c 1391 31bd b6c9 803d a812 dc37
00000080: fdad a0bd e8c4 b23c b5dc 10bd 7248 18bd
00000090: f8f3 8d3c e125 213d 9a34 ae3d a359 233d
000000a0: f80e 76bc b9d6 a73d e570 1bbc bf6a 4e3c
000000b0: 526a 3f3d bded d93c a2de 8934 7fca f0b6
000000c0: 2bd3 693d 2196 0bbc d984 443d ba23 bc39
000000d0: c8f0 393d ae30 92bd 9373 fdbb 170f 07bc
000000e0: 1330 70bd d008 293d a674 fb3c e6f9 09bc
000000f0: 5782 563d a634 8a3c 097d 1038 8dc9 1b3c
00000100: fd62 7433 7280 58ba 5bc3 bb3d 4d9f f23c
00000110: b733 9d3d e8be f430 cad1 5abc b421 68bd
00000120: 5d49 1b3c 0e84 5b3a 6da0 9d3d 587a 0a3b
00000130: 7b66 65bd 9aba babc 67a2 77bd 94e9 93b1
00000140: 62d0 48bd 3eac a7bd 640e 6c3c 3553 e7bb
00000150: 0f77 bc3d a732 c83c dac6 f932 cd87 863d
00000160: bd32 77bd 670e 863c 3a43 85bd da31 ddb1
00000170: d376 8c3d e4f2 4fbd 7c8b 983d c512 493c
00000180: 6bb5 b4bd 0692 9ebc 9c42 70bd 49f9 3c3c
00000190: c8f3 8d3b 1782 54bc 0828 bc3d 3607 503d
000001a0: 7da2 be3b 06a7 9a3d af68 b1bc af86 293d
000001b0: c7d0 c43b 9a8d 223d 41d5 4ebd 943c e83c
000001c0: a915 9d3c 414d 83b3 dbb2 bebd b0de a5b5
000001d0: a48d a43d 2aa5 d937 a249 14bd 5ed5 31bc
000001e0: be3f b53d fd25 723c 0431 3b3c 4be5 2fbc
000001f0: f3cf f5bc 5660 953d 6d6d bc3d 99ad 7737
-0.06412116 -0.021227833 0.061200194 0.009771164 0.008326446 0.0032291745 -4.9624314e-06 0.015470719
-0.04101788 -2.4041788e-07 0.037718922 -0.07083026 0.041169714 -0.06635796 -6.238922e-06 0.08740362
-1.7229492e-06 -0.000664331 9.931473e-08 -0.024831813 9.472227e-07 -0.07065588 0.056980886 -0.037535354
0.06522091 -0.03510623 -0.0678295 7.195456e-06 0.022878688 -0.043351244 0.06288473 2.6234731e-05
-0.07845686 0.021822408 -0.035366733 -0.037178464 0.017328247 0.039342765 0.08506127 0.039880406
-0.015018217 0.08195252 -0.009487365 0.012598692 0.046732254 0.02660262 2.5680225e-07 -7.176131e-06
0.05708615 -0.00851968 0.047978256 0.00035884773 0.045395643 -0.07138191 -0.007734725 -0.008243344
-0.058639597 0.04126817 0.03069527 -0.008421397 0.052370396 0.016870808 3.4448723e-05 0.009508503
5.6900706e-08 -0.0008258886 0.091681205 0.029616976 0.076758794 1.7807595e-09 -0.013355682 -0.056672767
0.00947794 0.00083738647 0.076966144 0.0021130051 -0.056005936 -0.022794057 -0.060457613 -4.304818e-09
-0.049026854 -0.081871495 0.014407728 -0.0070594796 0.09202396 0.024438215 2.9077842e-08 0.06568871
-0.060351122 0.01636429 -0.06506963 -6.437614e-09 0.068586014 -0.050768748 0.074484795 0.012272541
-0.08823665 -0.019356739 -0.058657274 0.011534044 0.0043320395 -0.012970469 0.09187323 0.050788127
0.00581771 0.075513884 -0.021656362 0.04138821 0.0060063335 0.039685823 -0.050496344 0.028349198
0.019175367 -6.114215e-08 -0.09311458 -1.2358269e-06 0.08034828 2.5945326e-05 -0.036203034 -0.010854093
0.088500485 0.014779565 0.01142526 -0.01073582 -0.030006384 0.07293765 0.09200559 1.4762766e-05

encoder.mlp.4.weight f4 [256, 128]
00000000: be68 31bd 445a 4c3d 615e 56bd bed9 cc32
00000010: f8cb 0fbd d293 ec3c d212 e92d 7c71 233d
00000020: 6f26 d43c 4f6f 38b3 ffe5 21bd b6ad 70bd
00000030: c977 f3bc 7d51 653c 9cff bfa9 e32b 00bd
00000040: 3cf2 e3ab 42cd e2b9 596a 85ab ba81 67bd
00000050: fde1 58a7 4c9b 183d 417e 9a3d f81c 863d
00000060: daa8 73bd 405d 93a7 d363 6528 4d36 27a7
00000070: 8a1e 8a3d 27fd aa37 322e 24b5 d093 612b
00000080: 861f 1ebd 4827 8b3d 6e9e ec27 c6b4 98bd
00000090: a695 65b5 2ce3 8cbd b2bf c43a 1f5b f2bc
000000a0: dae6 0eb4 c461 c2bc 04e6 003d a60b be3d
000000b0: 5040 103d 4929 583b 7a65 cda7 e974 8337
000000c0: 0806 5bbc 788d b6bb 3de3 cdbc 8fbc 3d28
000000d0: 7783 c43d e6b5 f93c 1485 81aa c0f1 1abd
000000e0: a74d f6a8 79e1 b53d 22fb 333d 8084 1828
000000f0: b64b 4337 b637 b9bd b5eb d92b b510 70bb
00000100: dda9 cba8 c41e bbbc 289d 663c 91be 3c3b
00000110: 8a9f d53d 0854 03a9 4388 af3b 85e1 beb4
00000120: 2564 aa3c 55c2 e232 a339 593d 930e efb3
00000130: e2d8 f53c b5c7 9b27 4608 fe2a 12b3 35ad
00000140: f75a 7035 79d5 8b3c 6d7e 3bbd eb3f cbbb
00000150: 95a4 0b3b cab7 e4bc 2215 fd28 d6fd 213d
00000160: cf37 d23d 3e76 5f3d d07d 99bc 57d9 71a8
00000170: 0c95 b13c 6745 ba3d 2be8 4ebd f574 7abd
00000180: 8a77 893d 0987 18a8 9bc6 99bd b3ae a93c
00000190: 73f6 9e3d 9323 3a3d 39cb 1dbd 9c60 b1af
000001a0: 4be7 613b a9b9 b93d a2dd b42d 0ecf d33c
000001b0: 56ed 3d3c 8c8a 4abd 88c4 5026 0cf6 8bbd
000001c0: acbe 663d de5c 8c27 d3da 4b36 287d 8229
000001d0: 8cb3 7d3c 6db6 2bb4 0f21 1b27 7887 be3d
000001e0: 53ea bbbc cb60 7f3d 545f 1935 fb45 22bd
000001f0: af70 30bd b73f ba3d 7138 d33d 47ee 14a6
00000200: b5de 5c3d 5b6f 743c 2f7d 643d d3f6 4327
00000210: a214 523d 549a 07bc fed4 5635 563f 113d
00000220: bfbe e43c 87b8 69aa e164 883d dc6e e93c
00000230: 78d0 063d bd91 8dbd 5211 97b4 e7a1 b03c
00000240: 43fe 40b2 9b90 913c 1a68 16b6 d611 1b3c
00000250: 7320 ab24 5064 e6bc 8540 cabd 521d 623d
00000260: 1f7c a3bc 48ad 8029 bddf 2824 ded7 1caa
00000270: 0119 28bd 1b5b 8db5 93a0 66b5 fd26 78ab
00000280: 95ad 833c 8f55 863d 5039 d32b e1de ff3c
00000290: a676 62b6 656f 813d d142 dd3c c60d 8e3d
000002a0: 9aea f8a7 8d51 0b3d bfa3 5e3c 9fc5 903d
000002b0: 454b 9f3b e7d8 1dbd a002 65b1 cabb c635
000002c0: da3b bd3c 85ae 713c ee92 63bb f064 29ae
000002d0: dc23 913d 1fcc 42bd aafc 18b6 d940 13bd
000002e0: 5be9 3bb6 cf0c 693b e1a2 923d 1b45 6528
000002f0: 697d 183a f6b9 2ebd 2f24 242e 62b6 7ebd
00000300: 5842 05b5 2a2d c4bd 7290 90bd 6349 73bb
00000310: 7d6f 8abb eee3 14a7 e10e c2bd 319e 5927
00000320: a04e c83c 82b1 9b35 2423 26bc a522 43a8
00000330: 6a77 7a3d dc75 08aa b973 a7a7 ffe9 8d29
00000340: ba91 85a8 8ec0 56bc c696 1a3d 626a 353d
00000350: 4e65 0a3d c5c3 413b 8c1b 9534 81b2 983d
00000360: 8e35 8dbc b71b 4a3c abfe 9dbd cde8 8eb2
00000370: 03f1 743c 9654 a93b 948e e6bc e807 a0bc
00000380: 1465 f03a 5dcc 343a caf8 613c cfa9 82bd
00000390: 8891 24bd 68f4 dbbc 1bd2 013d 63e3 2d2e
000003a0: 66db a8bd ffe1 c13c 4219 e9ab 2474 87bb
000003b0: 711b 913c 39a9 1a3d 2de5 8dbb 2f28 03be
000003c0: a728 ed3b 94d8 8327 68d6 6631 3d1a 76ad
000003d0: 9a88 4fbc c13e 18a8 1395 3131 9897 103d
000003e0: 75e3 fe3c cdd3 90bd 5140 7d25 2021 27bc
000003f0: 734d a33c 110a b23d b976 5c3c 9a0b 6caa
-0.04331278 0.04989077 -0.0523361 2.3847743e-08 -0.03510663 0.02887908 2.6497391e-11 0.03990315
0.025897233 -4.2942073e-08 -0.039525982 -0.058759414 -0.029720204 0.013996479 -8.526445e-14 -0.031291854
-1.6196554e-12 -0.00043259008 -9.479736e-13 -0.0565202 -3.009853e-15 0.037257478 0.07543612 0.06548494
-0.0594872 -4.09018e-15 1.27336996e-14 -2.3205342e-15 0.06744106 2.0383462e-05 -6.1161984e-07 8.014119e-13
-0.03860428 0.06794602 6.567493e-15 -0.07456355 -8.5526915e-07 -0.06879267 0.0015010743 -0.029584466
-1.3308764e-07 -0.023728259 0.03146936 0.092795655 0.035217583 0.0032983592 -5.700895e-15 1.5670857e-05
-0.013368137 -0.0055710636 -0.02513277 1.0532495e-14 0.095953874 0.030482244 -2.3007345e-13 -0.037828207
-2.7345163e-14 0.08880896 0.04394067 8.466426e-15 1.1640534e-05 -0.09043829 1.5484199e-12 -0.0036631052
-2.2611194e-14 -0.022841819 0.014075555 0.002880011 0.1043082 -2.916073e-14 0.00535682 -3.5554345e-07
0.020799706 2.6398235e-08 0.053033482 -1.1131956e-07 0.030010644 4.3237665e-15 4.5125205e-13 -1.032842e-11
8.953934e-07 0.017069565 -0.045774866 -0.006202688 0.0021307815 -0.027919669 2.8097807e-14 0.039548717
0.10264551 0.054556124 -0.01873675 -1.34253155e-14 0.021677516 0.09095269 -0.05051438 -0.061146695
0.067122534 -8.466976e-15 -0.07508584 0.020713186 0.0776185 0.045444082 -0.038523886 -3.2264758e-10
0.0034470137 0.09068615 2.0562056e-11 0.025855567 0.01159223 -0.049448535 7.2430846e-16 -0.06834039
0.056334183 3.8958493e-15 3.037673e-06 5.794871e-14 0.015484702 -1.5991982e-07 2.1528492e-15 0.09303182
-0.022938883 0.06234817 5.713566e-07 -0.03961752 -0.043076213 0.09094184 0.103135 -5.167074e-16
0.053923327 0.014919127 0.055783447 2.719549e-15 0.05128921 -0.008276541 8.0031157e-07 0.035460792
0.027922986 -2.0758578e-13 0.06659866 0.028495245 0.032913655 -0.06912563 -2.8138544e-07 0.021561576
-1.1233683e-08 0.017769149 -2.2412337e-06 0.009464702 7.42144e-17 -0.028124005 -0.098755874 0.055203743
-0.019956646 5.7144014e-14 3.6618707e-17 -1.3930477e-13 -0.04103947 -1.0531834e-06 -8.5915343e-07 -8.8161406e-13
0.016073981 0.06559288 1.5008359e-12 0.031234207 -3.3745687e-06 0.06320075 0.0270094 0.06936221
-6.9088183e-15 0.03401332 0.013588845 0.07068943 0.0048612677 -0.038536932 -3.3325378e-09 1.4806803e-06
0.023099829 0.014751081 -0.0034725028 -3.85158e-11 0.07086918 -0.047557946 -2.2796835e-06 -0.035950515
-2.8001002e-06 0.0035560613 0.07159973 1.27270385e-14 0.00058170274 -0.042657815 3.732142e-11 -0.062185653
-4.9642904e-07 -0.09578927 -0.07058801 -0.00371226 -0.004224716 -2.0662687e-15 -0.09475494 3.0200555e-15
0.024451554 1.1600061e-06 -0.010140214 -1.0832187e-14 0.06114904 -1.2120117e-13 -4.647728e-15 6.30225e-14
-1.4829165e-14 -0.013107432 0.037741445 0.044290908 0.033788018 0.002956615 2.7773456e-07 0.07455922
-0.01723745 0.012335709 -0.0771459 -1.6636841e-08 0.01495004 0.005167554 -0.028144158 -0.01953502
0.001834067 0.00068969076 0.013792226 -0.06380045 -0.040177852 -0.02684994 0.031694513 3.9537606e-11
-0.08244972 0.023667334 -1.6562656e-12 -0.004133718 0.01771328 0.03775904 -0.0043302984 -0.12808298
0.007237512 3.659462e-15 3.359128e-09 -1.3989307e-11 -0.012666846 -8.4513026e-15 2.5841629e-09 0.03530082
0.03111432 -0.07071648 2.1966043e-16 -0.010200769 0.019934392 0.08693326 0.01345604 -2.0965036e-13

encoder.mlp.4.bias f4 [256]
00000000: 41e3 ac3d bf36 903c 0a76 70bd 937f 413d
00000010: 5456 033d 2658 17bc dc95 7427 4457 72b4
00000020: 4ef7 b83c cfb7 41bd 3585 71bd 2091 063c
00000030: b8ee 2bbd 884e f13c 11db edbc e6f7 2b3d
00000040: 5716 313d 82a6 813d 9843 073d cc6d eb3b
00000050: aa66 353c bd60 f6b2 7307 333d ee38 5dbd
00000060: 1521 abbc f7b0 d03c 022f 8f3d 0423 8e3b
00000070: ae6c 78bd 1a7d 4abc b97e 56bc 09a1 623d
00000080: 49b0 56bd 6ba7 6f3c b283 e13a eb1b cf38
00000090: f36e 07a8 9399 8b3d d44a 073d 6c00 47b6
000000a0: 7b31 7ebd ef03 a0bc 4df6 6abc 7c42 143a
000000b0: 72c9 d03c a837 183d 2a71 403d 2a05 0d3d
000000c0: 9958 4836 e292 27bd 076e 7f3d e2a7 34bd
000000d0: c112 8ea7 cfc3 8fbd 0985 1e3d 19de 8eb6
000000e0: cfee 9cbc 601e 33bd 2c76 6c3c 1ffc f9bb
000000f0: 53c5 dabc 003e b2bc 5ae6 6cbd 698b ba3c
00000100: 9dea 643c c294 19bc 2e46 a33d d7c9 0f36
00000110: 4f4e 193c d738 e5bc 69af 30bd 8bad 9eb1
00000120: 3a89 61bd 0e09 0a3c 0095 0ebc 02af 8eb3
00000130: 28b8 66bd 082f 2bb5 1df0 19bd 5d66 a6bc
00000140: 81bc 403c 06e8 563d 063d 5b27 1635 023a
00000150: 16dc 93bd e1c6 f53c 695a 7abd 5f9a e8bb
00000160: 1186 9f3c cdd5 dabc 3381 23bd 9203 94bc
00000170: ab99 af3c fa5d e63c 17c1 f73b adcf 983c
00000180: 462c 0b3c a188 fabc a37e 043d 115b 2fbd
00000190: 97fb fb3c afde 7fbd 2cb4 7bb2 4773 82bc
000001a0: e0cc eda7 ff3b 3bbd 2eed 4bbd ef83 5ebc
000001b0: ccdc 1a3d 0f80 1434 c313 0b3d e582 44bd
000001c0: ec3c 01bd 7003 0ebd d317 1931 f32d 493b
000001d0: 52c3 113d 673b 723c 2fbc db3c fef0 3dbd
000001e0: 0a02 db3b fd2c cdba 42b4 f1bb 0c35 45bd
000001f0: 1309 2eb9 dffc 4ebd f086 6d3c 7c78 683d
00000200: 24df 2ebd 16a8 4cbc 8c1a 953d 0da8 e8bc
00000210: f72e 7029 a38d 153d da43 02bd ea39 962e
00000220: e801 8c3b 24ca 8627 dd35 372c 0cc0 593b
00000230: c6df c33c 1e39 cfba 3518 e8bc 8f3d 803d
00000240: 4b32 5d3d 770f 653d a127 03bc 79df e3bc
00000250: b330 ae2f e02a d53c 662f 843d 873a 7fbd
00000260: d13f 69bd 4936 7bbd b389 0abd 31b3 37bd
00000270: 016f 7b3d 1c95 223d c2c8 a33c e2db 263d
00000280: 157d c1bc 3bbc 34bd 7d73 58bc fded 5d3d
00000290: e083 653c 4b82 c82e 6285 47bd 5b2d 023a
000002a0: eb40 563d 5f98 abb2 fa3e c5bc c7b7 a638
000002b0: e5e0 673d 6c05 193c 3074 28b2 750f 583b
000002c0: cdc9 8bbc a001 d43b 5c87 b33c 8d3b 5cbb
000002d0: bda0 d0bc d1c4 43bc 64f1 3dbc af5f 28bb
000002e0: 1ec4 c83b 87e0 323d 0e90 27bc c24f c03c
000002f0: 0191 bfae 3d71 bf3c 3e55 5fb6 0f5f c0bc
00000300: 8c84 cc3c 4b1a 44bd bdcf 27bd db21 732d
00000310: ac03 f63c 3aed 383c fd7e 573c e63b 8627
00000320: e118 d13c 348c 403d 53aa d03c 21d5 653c
00000330: ec32 c02d 3441 ce3b 0657 38bd 405a aabc
00000340: 7a6b 9e3d 0324 933c 13a5 83bc 0fe3 10bd
00000350: 0c19 053c 0d06 cc2c bc0e 253c 02ff 7cbd
00000360: 6639 4bbd 4b52 33bb 49be 3634 20b0 763d
00000370: d969 903d fb51 91bc d79f 833b 3fc8 e8b5
00000380: 2d3a fab3 ef3c 46b0 3298 6d3d 3f41 93bb
00000390: ec97 68bc 0be6 1e3d d3c7 5eb2 e1bd 28bd
000003a0: f098 84bd 7683 87bd fbb4 65bd 5b15 943c
000003b0: bead 63bc c7c6 fa3b 560c c3bc ecbb 613d
000003c0: e8cf cdbb 5372 b5b0 a82b e233 f032 443d
000003d0: 8c60 70b0 0c47 e53c 7451 65bd 69d6 c23c
000003e0: b772 76bd 3bf2 2abd 7bf0 e4ab e76c d9bc
000003f0: 921f 52bc 5070 f53b dc7a 7abc 04dd 023d
0.08441783 0.01760423 -0.05870632 0.047240805 0.03206475 -0.009237325 3.3943041e-15 -2.2569753e-07
0.022578862 -0.047294434 -0.058964927 0.008213311 -0.041975707 0.029456392 -0.029035123 0.04198446
0.043234196 0.06330587 0.033023447 0.0071847197 0.01107184 -2.868216e-08 0.043708276 -0.05400937
-0.020889798 0.025475008 0.06991388 0.0043376703 -0.06065052 -0.012358928 -0.0130917365 0.055329356
-0.052414212 0.014627318 0.0017205386 9.875729e-05 -7.518064e-15 0.06816401 0.033030346 -2.9653556e-06
-0.062058907 -0.019533126 -0.014340949 0.0005655659 0.025486682 0.037162453 0.04698292 0.034428753
2.9853893e-06 -0.040911563 0.06236079 -0.044105418 -3.943325e-15 -0.070197694 0.03870109 -4.2577853e-06
-0.019156842 -0.04373014 0.014432471 -0.007628932 -0.02670542 -0.02175808 -0.057836868 0.022771554
0.013971952 -0.0093738455 0.0797237 2.1426147e-06 0.009357049 -0.027981205 -0.043136034 -4.6181348e-09
-0.05506251 0.00842501 -0.008702517 -6.644224e-08 -0.05632797 -6.3770904e-07 -0.037582505 -0.020312482
0.011763693 0.05246737 3.0425436e-15 0.0004967017 -0.072197124 0.03000206 -0.061121378 -0.0070984806
0.019473108 -0.026713276 -0.039918136 -0.018068109 0.02143558 0.028120983 0.00756086 0.018653715
0.008494442 -0.030582728 0.032347333 -0.042811457 0.030759616 -0.062468227 -1.4651089e-08 -0.01592411
-6.600284e-15 -0.045711514 -0.04978674 -0.01358126 0.037808225 1.3830162e-07 0.033954393 -0.047976393
-0.03155224 -0.034671247 2.2277973e-09 0.0030697554 0.035586663 0.01478467 0.026823131 -0.046372406
0.0066835927 -0.0015653666 -0.0073762247 -0.048146293 -0.00016597314 -0.050534125 0.014497504 0.056755528
-0.042693272 -0.012491247 0.07280454 -0.028400445 5.333144e-14 0.03651203 -0.03180299 6.831498e-11
0.004272688 3.7411633e-15 2.6035764e-12 0.003322604 0.023910414 -0.0015809869 -0.028331855 0.06261741
0.05400304 0.05592295 -0.008005054 -0.027816521 3.1685018e-10 0.026021421 0.06454353 -0.062311675
-0.056945626 -0.061331067 -0.033822726 -0.044848625 0.06138516 0.039692983 0.01999319 0.04073704
-0.023619214 -0.044124823 -0.013211128 0.05418204 0.014008492 9.118092e-11 -0.04871119 0.0004965865
0.052308004 -1.997631e-08 -0.024077881 7.949728e-05 0.05661096 0.009339672 -9.805305e-09 0.0032968197
-0.017064 0.0064699203 0.02191513 -0.003360483 -0.025467271 -0.01194878 -0.011593197 -0.0025691797
0.0061268946 0.043671157 -0.010227216 0.023475531 -8.711432e-11 0.023369426 -3.3279207e-06 -0.023482827
0.024965547 -0.047876637 -0.0409696 1.3820468e-11 0.030031048 0.011287028 0.013152835 3.7257413e-15
0.025524558 0.047008708 0.025471842 0.014027865 2.1850487e-11 0.006294394 -0.045004867 -0.020794988
0.07735343 0.017961508 -0.016069924 -0.03537279 0.008123647 5.7987005e-12 0.010074314 -0.061766632
-0.049615286 -0.0027362283 1.7019296e-07 0.06022656 0.07051439 -0.017739287 0.004016857 -1.7343626e-06
-1.1652114e-07 -7.211857e-10 0.058006473 -0.004493862 -0.014196377 0.038793605 -1.29675355e-08 -0.041196708
-0.06474483 -0.06616871 -0.0560808 0.01807659 -0.013896404 0.0076530906 -0.023809593 0.055110857
-0.006280888 -1.3201976e-09 1.0531886e-07 0.04790014 -8.744869e-10 0.02798798 -0.055985883 0.02378388
-0.060167994 -0.041734915 -1.6267121e-12 -0.026541186 -0.01282491 0.0074901953 -0.015288081 0.03194906

pos_mlp.0.weight f4 [32, 1]
00000000: a101 00be efb3 aebe 178b 75be 05ab 833f
00000010: 13f4 773e 13b5 96bd f8b0 193f e764 123f
00000020: 0264 a43e 381d 0f3f 6e3e aabd af1e 003d
00000030: 1e14 95be 38c8 0e3f 1903 043f 09cf 4fbf
00000040: 98ad fe3e 3e05 813f 73e4 79bd e4b7 0e3f
00000050: 3326 e0be 4840 5b3f 0019 833f 6192 2239
00000060: f5a3 35be 23ea 883f 8875 88a9 c358 483e
00000070: 9e07 883f 3082 28bf f0c3 833e 35f7 02be
-0.12500621 -0.34121653 -0.2397884 1.0286566 0.242142 -0.07358756 0.6003566 0.57185215
0.3210755 0.5590396 -0.08312689 0.031279262 -0.2911691 0.5577426 0.51567227 -0.81175286
0.49741817 1.0079725 -0.06100888 0.55749345 -0.43779144 0.8564496 1.0242004 0.00015504054
-0.17738326 1.0696453 -6.060002e-14 0.1956511 1.0627325 -0.6582365 0.25735426 -0.12789614

pos_mlp.0.bias f4 [32]
00000000: 675a eeae 7bdc e8be a224 c5bd f727 473e
00000010: f29e 81be 96d1 10bd 0a2d 8a3f 0e3a b63e
00000020: e078 1f3f 58f1 09bd ce76 383f 23ca ddbe
00000030: 42ac f23e 9b6d febb 65b6 913c 2176 593f
00000040: 9ca8 833f 0f9a 82be 76b1 463f e47c 9d3e
00000050: 760d 2cbe 12b8 3bbe 8654 72be 742c 4dbc
00000060: e874 1e3e 4a2b 8fbe a071 fdb9 c933 d23e
00000070: 991f d13e dc0a 083f 9ea4 16bc 9a95 f3be
-1.08390456e-10 -0.45480713 -0.09626128 0.19448839 -0.25316578 -0.035356127 1.0794995 0.35591167
0.62293816 -0.03367743 0.7205628 -0.4331828 0.47397047 -0.007764531 0.017787168 0.84945875
1.028583 -0.25508162 0.77614534 0.30759346 -0.1680201 -0.18331936 -0.23665056 -0.0125228055
0.15474284 -0.27962714 -0.00048340578 0.41055134 0.4084442 0.5314157 -0.009194521 -0.47575074

pos_mlp.2.weight f4 [32, 32]
00000000: fc01 9c34 23b8 d1ba 3f8d 4624 4fcd 4f34
00000010: 23f6 82b7 27a9 a835 8d30 ba27 d68d 25b2
00000020: 27c4 fab3 1db3 adb7 1315 893a 724a c139
00000030: 48b2 96ba 3482 a837 a4c8 b7b6 42ae 1eba
00000040: 09b8 ecb5 28cd 84b9 6e98 d0b8 1a10 19b4
00000050: bb59 90a7 6964 40ba a7bf 1fba 980f dc34
00000060: 2012 6325 d961 513a b08b ec35 8416 83ba
00000070: 2e7d 0f37 45ac ee28 35b2 b639 74d9 31b7
00000080: 0e1f c6b9 2af6 c1b6 4bf0 8737 04da c53b
00000090: f506 9d39 3830 b334 a2fb 2c39 bbdb 043b
000000a0: 49a7 2ab9 23d2 003c 6aa7 68bb 9b07 eca7
000000b0: a98b fdbb b761 f93b 4e69 db3b 2472 67bc
000000c0: 6915 6db9 22a1 523c 8227 87bb 3588 413b
000000d0: f8b8 6aba 5c8b 443c 1de3 573c 3b4e cd3a
000000e0: 193f 34bc 42ee 6c3c 361c 0b3b 2e68 96b9
000000f0: 9419 8c3b a0b4 97bc fa1a da3b 014b ffb9
00000100: be24 97a6 40ed 43b6 6ac8 aeb7 f665 0dbd
00000110: 66bd 6136 7dbe 463a 140b 893c e750 14bd
00000120: 2e12 493d 78df 25bd d1f8 403d 0345 f428
00000130: 7ae7 163d d0a6 1ebd dab7 16bd c848 523d
00000140: 0879 ff3c bddc 21bd f537 3e3d ddf8 a5bc
00000150: b5bc 71b8 cc31 15bd 6af4 24bd 4c3a 2735
00000160: 7c89 bf3c 7bd9 28bd 9906 f2b9 365b dc3c
00000170: b19a cfbc 73c0 843d e84a 22bd 63fa e033
00000180: b39c 4d39 c0f9 f5ab f980 f537 221c 983e
00000190: e1de 80ba d737 06b8 07b9 fd3d 7d1e ec3d
000001a0: ac11 653e fd05 4a3e d0ae ddbc 67c0 c7b9
000001b0: b327 a9be 79c1 283d e4fe ab3e 8e96 abbe
000001c0: b66c 973e f512 af3e 3d68 b83d 27bc 553d
000001d0: 9648 89b9 a2b2 a03e f7e4 963e 7b9a 9eb9
000001e0: 504c 5dbe a514 be3e 268a 0e38 b880 1f3e
000001f0: aabb 9c3e d0e5 e6bd 247f 8b3e 1412 4cb9
00000200: 0780 fa35 8cc5 52a7 731e 66ba 764b 61b2
00000210: 058b 9ead 17e6 a526 e5c5 08b9 99de 05b9
00000220: 1cfd 2bb9 77a3 5e3a 7edd fbba 1f57 9c38
00000230: 97fe 65b4 9f46 e830 448e 4d34 8d6c a4b5
00000240: df29 67b9 996e ad2d d2b3 4534 68f5 74ba
00000250: 11e7 7638 d2d2 6f37 b725 aa24 9444 8f38
00000260: dd2b efa7 1928 e7b7 b32c 2e2d 87a8 493a
00000270: 5dfc e332 302b 112b 3855 8d27 3ab8 ecb7
00000280: 5125 6c26 050d b5b7 ffb0 a5aa 084f 63be
00000290: d872 043a 49c0 81b6 c9e5 7b3e b04a 3cbe
000002a0: cd9f 1b3e 3253 0abe f33c dc3c f5c9 653a
000002b0: df9d 853d 8f92 c7bd 4d1c 47bd 5385 8a3e
000002c0: 57a6 123e 5b50 50be 8f16 a33e abc7 a1bd
000002d0: eeed 182e 376d 82be 5bfd 80be 401d 21ba
000002e0: 338d 423e 7da5 5fbe 4afd 223a 783e 863e
000002f0: 49ee 95be b055 cb3d e1f3 3ebe 806e a0b6
00000300: 5964 8133 3596 af32 22f7 aaba e5e4 ca3a
00000310: 0eae f53a 68dd ff3a 4770 29ba b454 dab4
00000320: 7f34 6339 b3d4 0539 a336 9f38 279d 713a
00000330: fee2 3eb7 b83f 98b8 9054 32b9 10b5 0635
00000340: 7745 d739 1521 97ba 731c 44b9 4327 2937
00000350: 2098 8a33 34b2 2b35 41dc 85ba 4777 9f3a
00000360: 2aff f8ba 4f95 e2a5 c2ce bd28 86fe 1e28
00000370: 1bce c7b4 42c9 a123 73b3 e430 dc77 3c30
00000380: 7042 19ae 16a5 3528 033e 9737 05f6 44be
00000390: 15a2 00a9 a773 e3ab b01f 783e ec55 a5bc
000003a0: b31f 413d 800b 8abe 24a8 703e 71c0 dcab
000003b0: ebb2 4c3e 566b a3be 5eea 11be b3fa 363e
000003c0: 4bb6 2ebd e790 61be a5e6 393e 6dd3 443c
000003d0: db45 b5a6 8008 b0be e09b 8bbe 738e 3ab9
000003e0: b27e 383e 7924 8dbe 96a7 85ba daf0 3a3e
000003f0: eb89 243d a754 9e3e 2233 75be 1898 0eba
2.9058708e-07 -0.0016000312 4.3054046e-17 1.9353068e-07 -1.5611824e-05 1.2566205e-06 5.167801e-15 -9.636514e-09
-1.1677212e-07 -2.0706613e-05 0.0010458551 0.00036867295 -0.0011497224 2.0087791e-05 -5.4771826e-06 -0.0006053188
-1.7636931e-06 -0.00025329855 -9.946605e-05 -1.4255093e-07 -4.0065315e-15 -0.0007339181 -0.0006093927 4.098954e-07
1.9695252e-16 0.0007987298 1.7624025e-06 -0.0010001217 8.55261e-06 2.6498018e-14 0.0003484652 -1.0600652e-05
-0.0003778864 -5.7805055e-06 1.620515e-05 0.0060379524 0.00029950557 3.3376432e-07 0.00016496939 0.002027257
-0.00016274782 0.0078626005 -0.0035500177 -6.5511404e-15 -0.007737596 0.0076105255 0.006695903 -0.014126334
-0.00022610057 0.0128558 -0.0041245827 0.0029530649 -0.0008953954 0.0119961165 0.013176707 0.0015663573
-0.011001372 0.014461102 0.0021226532 -0.0002868785 0.00427551 -0.018518746 0.006656048 -0.00048693272
-1.0487689e-15 -2.9195362e-06 -2.0835741e-05 -0.034521066 3.3637857e-06 0.00075814856 0.016728915 -0.036209967
0.049089603 -0.04049632 0.04711229 2.7119371e-14 0.036841847 -0.038733304 -0.03679643 0.05133894
0.031185642 -0.039517153 0.046440084 -0.020260269 -5.7634625e-05 -0.036424443 -0.040272154 6.229718e-07
0.023380987 -0.04122303 -0.00046162753 0.026898962 -0.025342317 0.06482019 -0.039622217 1.0476358e-07
0.00019608698 -1.7477617e-12 2.9266334e-05 0.29708964 -0.0009832048 -3.2000095e-05 0.12388807 0.11529253
0.22370023 0.19728847 -0.027060896 -0.0003809959 -0.330381 0.041200135 0.33592904 -0.33513302
0.29575127 0.3419415 0.09004257 0.05218139 -0.00026184757 0.31386286 0.2947156 -0.00030251205
-0.21611142 0.37125126 3.39841e-05 0.15576446 0.30611926 -0.11274302 0.27245438 -0.0001946169
1.8663712e-06 -2.9250445e-15 -0.0008778341 -1.31138815e-08 -1.8024257e-11 1.1511541e-15 -0.00013043692 -0.00012766792
-0.00016402121 0.0008492986 -0.001921579 7.454887e-05 -2.1419906e-07 1.6900293e-09 1.9143869e-07 -1.2250545e-06
-0.00022045475 1.9716938e-11 1.8412473e-07 -0.000934443 5.8866168e-05 1.42945955e-05 7.378964e-17 6.831545e-05
-6.6383382e-15 -2.7556018e-05 9.90068e-12 0.0007692654 2.654104e-08 5.1574283e-13 3.9227756e-15 -2.821918e-05
8.192952e-16 -2.1582944e-05 -2.9432704e-13 -0.22198117 0.00050525134 -3.8668845e-06 0.24599375 -0.18387866
0.15197678 -0.13508299 0.026884532 0.00087657507 0.06524252 -0.09744751 -0.048610974 0.27054843
0.14321266 -0.20343153 0.31853148 -0.07899412 3.4772123e-11 -0.2547395 -0.25193295 -0.0006146021
0.18999176 -0.21840473 0.00062175526 0.26219535 -0.2928336 0.09928453 -0.1864772 -4.7812355e-06
6.025284e-08 2.0440988e-08 -0.0013043622 0.0015479593 0.0018743889 0.001952094 -0.0006463569 -4.0667294e-07
0.00021667963 0.00012763105 7.591888e-05 0.0009216838 -1.1377733e-05 -7.259793e-05 -0.00017006905 5.018237e-07
0.0004105975 -0.0011530245 -0.00018702615 1.0082326e-05 6.453797e-08 6.3961784e-07 -0.0010212736 0.0012166285
-0.0018996943 -3.9305926e-16 2.1072882e-14 8.825953e-15 -3.72166e-07 1.7540891e-17 1.6640186e-09 6.856433e-10
-3.484718e-11 1.0083316e-14 1.802948e-05 -0.19234474 -2.8562293e-14 -1.616142e-12 0.24230838 -0.020182572
0.04714937 -0.269619 0.2350164 -1.5685353e-12 0.19990127 -0.31917828 -0.1424956 0.17869072
-0.042654317 -0.22027932 0.1815439 0.012013298 -1.2578332e-15 -0.34381485 -0.2726736 -0.00017791409
0.1801708 -0.2756689 -0.0010197039 0.1825594 0.04017059 0.3092396 -0.23945287 -0.0005439534

pos_mlp.2.bias f4 [32]
00000000: e32f f4ba 24d7 32bb a8a3 373d 881e ee3b
00000010: 1c89 1bb9 e07e 9b3e c499 01ba 6357 9e3e
00000020: 788f 5f3e 7b9b 8e3e dafc 9bbb bfff 10b6
00000030: 9db5 3da7 0e75 503e 431a 883e f65e 283e
00000040: 9bf3 7aba a087 4cbd e290 66ba 8f59 ba3d
00000050: 8863 d3ac 683e da3c dc99 3e3d c5bd 353e
00000060: 0d53 dcbd e398 76bc 8e63 81bc ca84 1b3e
00000070: 2105 c93d 8828 6a3e c734 47bd d8ba 67ba
-0.0018629994 -0.0027288878 0.04483381 0.007266823 -0.00014833029 0.30370235 -0.00049438723 0.30926046
0.21832073 0.27852997 -0.004760367 -2.1606536e-06 -2.6327472e-15 0.20357153 0.26582536 0.16442475
-0.0009573043 -0.04993403 -0.0008795393 0.09099113 -6.008031e-12 0.026641086 0.04653345 0.17748173
-0.10758028 -0.0150510995 -0.015794542 0.15187374 0.098154314 0.22867024 -0.048634317 -0.00088397926

dec_trunk.0.weight f4 [128, 288]
00000000: b703 fabc b3d6 77bd 2c10 873c cb1a 3fbd
00000010: 5c84 4d3d 9cc1 4c3c 0584 20ac bee2 4fa7
00000020: 5879 db3c d9a4 8b3b f1f3 483a 3296 bb3b
00000030: 19e9 923b 2b54 8d3c 6954 11bd bf1a 093d
00000040: 51bb 0b3c 6f5c c0bb 5436 0abd 81d7 343d
00000050: 4903 bb2b fa75 2ea8 bf7d 7fbc 5724 413d
00000060: e783 0abc 7ea4 0c3d 34d8 453d 8959 af3c
00000070: 28ae d0bb 291d 8327 c052 b43b cd84 11bc
00000080: efeb b3bc 50ee 85bc d058 1d3d 4a4d 9528
00000090: 45b4 b72b 3709 71bd a4ad 0dbd fad6 5628
000000a0: b9b2 ad3c 2d1b 8c3b e042 173c dcb8 84bc
000000b0: 0c61 13bd 9689 4ebd f19c 56bd 0cbc 023d
000000c0: 040a 44a8 a483 6c2a cc68 b53b 327c c23c
000000d0: fc7d 6ba8 dda7 b4bc bbc3 04bd 10ed ef2f
000000e0: b2cc 953b c4a1 17bd c513 58b9 ed58 803c
000000f0: d0d3 3d3d 0894 1e3c 67c8 3dbd 63fc e6ac
00000100: 9b25 1a3d b6ef 393d a194 7f3b 9de3 3faa
00000110: 8c74 5cac 2f1d b33c 4168 123d 3f9d 8027
00000120: 9ff3 febb 6dca 8b3c 3964 1d3d b321 1725
00000130: a7be 3ebd 9b60 20a8 5c39 3ebd 0d5a b1bc
00000140: 008d 0e3d edc8 2c3d 1fe6 3eaf 06f5 a339
00000150: 328e 5fbd 2847 39bb b9ae 353b c3b6 91a6
00000160: 59f0 03bd d0b9 dbbc b56a b13b e1d1 62bc
00000170: 7dbe 123d 5926 8cbc 20bb d1bc ba47 073c
00000180: d653 32bd 2b19 6abc 31cf 4c3d 8ce3 043d
00000190: 4557 f5bc 2f39 d1bc cc01 eda7 da52 7bbc
000001a0: 2e74 08a8 8b94 173d baa4 e03c db9d 1c3c
000001b0: 38c1 26bc 4e4c e228 a518 ebb9 3fbe 11bb
000001c0: d2f1 29bd 395a 7abb cb3d 42a7 beb8 162e
000001d0: a6bb b43c 4b7c 56bd 1509 003d 6914 103d
000001e0: 028c 9a3c 75b4 8926 406f 27bc ded7 b7bc
000001f0: f4a1 e33a ae51 423c 12f2 273d 7476 0dbd
00000200: 5b0a 163c 57e3 ccbc f8c2 b03c 2071 123d
00000210: 2936 9c25 e21f f1bc bbd8 113c 5e6d 1125
00000220: 2ab8 f1ba e51e a3a8 09b6 c3ad 5be9 603c
00000230: 0efc 45bd f615 4cbd 0d40 42bc 128a 793c
00000240: 7bc6 84bb 8f26 44bd f2c2 59af 2073 31bc
00000250: bb5c 22a9 2735 2c3d b060 173d 3ba2 f7bb
00000260: 200e 3f3d d39c 60bd 6a5b d33c b949 36bd
00000270: 56ff 1abd 30e1 f33b 8009 e5bc 0b6d 443d
00000280: b4ae f63c b3bc 103d f1c0 7d3c 6f27 f03c
00000290: 3780 4dbd b408 59a4 901e 0e3c 1dca 45a8
000002a0: 2358 5a3d 30ee 272a 35aa 7a3c 3633 c834
000002b0: bdfe 20a8 bacb 6d2b a07f 58a8 7075 87a7
000002c0: 5a8f e63a d0d8 04bd ced3 61bd 85f6 b93c
000002d0: 17fd bd3c e157 d83c 4e6e 052b cde4 a6bb
000002e0: c6ed 5fbd db54 7235 db08 93ad de7c 49bd
000002f0: 479a 49a8 c7f7 edbc e2c0 54aa 97d6 26bd
00000300: ee5c 74bd 58a7 c9bb 0eef 40bd cd3b 6428
00000310: d733 3f3d 2047 3929 8306 00bd 538f b92d
00000320: ecee 81bd 6cf4 923b f325 423c 9706 04bc
00000330: 6a0b 2e2e 4b83 0bbc 4aaf 12bd db95 abbb
00000340: edc4 28bd f502 57bd 472a 0a3c 90f9 a339
00000350: 9f84 1cbc c431 74a8 69e7 55bc de7b 013d
00000360: 4fbe 4c3c 68a7 8fa7 87f4 8028 f7db d33c
00000370: 38ff 933c 9890 77bd c5d7 26bc e74e 0228
00000380: b362 16a8 8fb1 b2a6 9ff5 9c3c c4aa 3abc
00000390: 0a74 76bd 2642 25bc 8566 0aa6 8669 cbbb
000003a0: f1c6 75bd 4025 c93c 9365 28bc b220 23bd
000003b0: 09cc 2c3c 064e 18bc e700 64bd d4e7 983c
000003c0: 9585 71b9 f5ee aba6 13e2 8ea3 c19b 393d
000003d0: 6684 f4a7 88ed d63c 2670 37bd d876 fbba
000003e0: 4760 2a3d 04a2 77bc 023e b8ac e72b 253c
000003f0: 37fe 142e 4232 1f3d 0533 cfbc 1aec 50bb
-0.03051935 -0.060507488 0.016487204 -0.04665641 0.050175056 0.012497332 -2.2810653e-12 -2.8849938e-15
0.02679126 0.0042615947 0.00076657446 0.005724692 0.004483354 0.017252048 -0.03548089 0.033472773
0.008528546 -0.005870394 -0.033743218 0.044150833 1.3288061e-12 -9.684522e-15 -0.015593945 0.047153797
-0.0084542995 0.03433656 0.04830189 0.021404998 -0.0063684173 3.639142e-15 0.0055030286 -0.00888176
-0.021963088 -0.016348988 0.038414776 1.6575842e-14 1.3052967e-12 -0.05884668 -0.034589425 1.1926002e-14
0.021203386 0.0042757005 0.009232253 -0.01620143 -0.035981223 -0.05042418 -0.052395765 0.031917617
-1.08823574e-14 2.1006683e-13 0.0055361744 0.023740862 -1.3072439e-14 -0.0220527 -0.032413226 4.364229e-10
0.0045715207 -0.037019506 -0.0002060673 0.015667403 0.04634458 0.009678848 -0.046333697 -6.5650137e-12
0.03763352 0.04539462 0.0038998502 -1.7043177e-13 -3.1328577e-12 0.021864502 0.035743956 3.5697623e-15
-0.0077805067 0.017064298 0.038425658 1.310858e-16 -0.04656854 -8.902732e-15 -0.04644142 -0.021649385
0.034802437 0.042183805 -1.7362155e-10 0.0003127234 -0.054578967 -0.0028271172 0.002772255 -1.0110934e-15
-0.032211635 -0.026822 0.005414332 -0.013843984 0.035826195 -0.01710813 -0.025601923 0.008256847
-0.043536983 -0.014288227 0.05000228 0.032443568 -0.02994884 -0.025539963 -6.5782662e-15 -0.015339578
-7.574709e-15 0.037006896 0.027422298 0.00955912 -0.010177903 2.5124132e-14 -0.00044841054 -0.002223864
-0.041490383 -0.003820075 -2.6956406e-15 3.4270135e-11 0.022062134 -0.05236463 0.03125866 0.035175715
0.018865589 9.555198e-16 -0.010219395 -0.0224418 0.0017366991 0.011860294 0.04100234 -0.034536794
0.009157742 -0.025010748 0.021577343 0.035752416 2.7098387e-16 -0.029434148 0.00890177 1.26138e-16
-0.0018441726 -1.8110034e-14 -2.2249773e-11 0.013727511 -0.04833608 -0.04982563 -0.011856091 0.015230672
-0.004051981 -0.047888335 -1.9805294e-10 -0.010830671 -3.6051657e-14 0.042042878 0.036957443 -0.007557181
0.04664433 -0.05483706 0.025800426 -0.0445039 -0.037841164 0.007442616 -0.027958632 0.047955554
0.030112602 0.035336208 0.015487895 0.029315678 -0.050171103 -4.7061746e-17 0.008674279 -1.0979523e-14
0.05330671 1.4915217e-13 0.01529937 3.7290164e-07 -8.937022e-15 8.448204e-13 -1.2018083e-14 -3.7597353e-15
0.001759033 -0.03243333 -0.055133633 0.022700557 0.023191972 0.026409091 4.740417e-13 -0.005093193
-0.054670118 9.0275506e-07 -1.6715898e-11 -0.04919135 -1.1191195e-14 -0.029048814 -1.8896302e-13 -0.040731993
-0.059658937 -0.006153982 -0.04710298 1.266951e-14 0.046680298 4.1139943e-14 -0.03125621 2.1095714e-11
-0.06344399 0.0044847038 0.011849868 -0.008058212 3.9573157e-11 -0.008515189 -0.0358117 -0.00523637
-0.041203428 -0.052493054 0.008432931 0.0003127572 -0.009553104 -1.3555512e-14 -0.013055661 0.03161227
0.012496545 -3.9871975e-15 1.4316902e-14 0.025861723 0.018066034 -0.06044063 -0.010183279 7.233559e-15
-8.348075e-15 -1.2399359e-15 0.01916009 -0.011393253 -0.060169257 -0.010086572 -4.801731e-16 -0.0062076477
-0.06000418 0.024553895 -0.010278123 -0.039826103 0.010546693 -0.009295946 -0.055664923 0.018665232
-0.00023033314 -1.1930278e-15 -1.5491417e-17 0.045314554 -6.786715e-15 0.02623631 -0.044784687 -0.0019185198
0.041595723 -0.015114311 -5.236479e-12 0.010081268 3.3877092e-11 0.03886629 -0.025292883 -0.0031879009

dec_trunk.0.bias f4 [128]
00000000: 1eb0 133d 35c9 083d 200f 7d3c 14a2 b7ae
00000010: c219 2b3d 66ba 653d 3350 3aba 0cd5 8130
00000020: d8e3 9ebc abe8 1cbd 646f 51b0 237e c6ad
00000030: c86f bfab 0e4a 463c 26dd 653d 1cc4 c53c
00000040: 398d 2b3a 0e06 9cbc b386 a726 d779 a63c
00000050: bf2b fcb9 01d5 2828 d1cb 933c 97f4 6eb5
00000060: 5521 97a7 ea83 84b3 cb22 3c3d da00 53a6
00000070: 7fbb c13c 9a5d 743d 62ba 60bd 243e 06bd
00000080: cbf0 c530 59ba c13c d2c5 2d3c 3729 fdaf
00000090: 3510 58bb 9258 b3bb be60 063d eb07 3e3d
000000a0: 657b b534 2f85 5a3d 7abb 473d 28ab 56bd
000000b0: 8bcb 24b1 1d9e d63b a21a e0bc 3fa3 3a3d
000000c0: c524 f4bb 8625 46bd 8bad 0c3b e687 6731
000000d0: d4b5 63b7 35bf 3bb4 3079 413d a5c0 58bd
000000e0: 421c 75ad 52da a1b1 b644 223b 2dc9 10bd
000000f0: 638d 2cbb 407b 98b9 5bb8 5fbd a9a1 f6b5
00000100: d482 63bd e3b7 47b5 ff79 efb2 de6a 043d
00000110: c01a d3b3 a998 8cab 5ad9 4abc 42dc 30bd
00000120: ad37 24bb 6b17 8bb6 9212 0d3c acf0 ebbc
00000130: b615 9d3a 76b2 8fbc cb0a 37bd 1d90 96bc
00000140: 99bf b2bb af9f ffa8 43b3 c73c 2feb b63c
00000150: 04f4 943b 526c b3a7 d752 82b8 e910 49a7
00000160: 34d3 7e28 cae8 5abd e6ce 243c 6f47 adbc
00000170: c848 f03c eee3 db27 dc02 20bd cd02 a1bc
00000180: 15a6 cbbb 8888 d131 3a02 313d b35c 6abd
00000190: 5f1d 2d3d 7b7c 8126 841e 0bb7 b6da 6bac
000001a0: ae4c 1ebd 388d 873b ca3b b4ae 6b00 f1bc
000001b0: b089 753d c593 ab3c 1724 b5bc f27c a3bc
000001c0: 7ab5 b6ac 130a 7a28 d79c aa3c 0bea 13bd
000001d0: dbfc 7cbc 7210 b4bc 3343 d426 d18f 583c
000001e0: c98f 5a3d 8c90 cc3b f129 b43c 9e6d 433c
000001f0: 70ad 75ac 7c7e 7c3d 1cd8 f4b9 40f7 59bd
0.03605663 0.03339501 0.015445501 -8.3506674e-11 0.04177261 0.056085967 -0.00071072875 9.446537e-10
-0.019395754 -0.038307827 -7.619205e-10 -2.256601e-11 -1.3602392e-12 0.012102617 0.056119107 0.024141364
0.0006544176 -0.019045856 1.1624463e-15 0.02032177 -0.0004809778 9.372061e-15 0.018041523 -8.9017834e-07
-4.1947058e-15 -6.170724e-08 0.04593162 -7.3206485e-16 0.023648975 0.059659578 -0.05486525 -0.032774106
1.4402074e-09 0.023648428 0.010606246 -4.6049717e-10 -0.0032968645 -0.005473205 0.032807104 0.04639427
3.3803659e-07 0.05334967 0.048762776 -0.05240932 -2.3980842e-09 0.0065496103 -0.02735645 0.04556584
-0.0074506723 -0.04837563 0.0021465744 3.3692173e-09 -1.35725895e-05 -1.7485293e-07 0.047234714 -0.052918095
-1.3932912e-11 -4.710537e-09 0.0024760193 -0.035348106 -0.002632939 -0.00029083528 -0.054619174 -1.8375478e-06
-0.05554469 -7.440087e-07 -2.787874e-08 0.03232848 -9.830319e-08 -9.98997e-13 -0.012380922 -0.043178804
-0.00250576 -4.145249e-06 0.008610385 -0.028801285 0.001198462 -0.017541151 -0.044688027 -0.018379265
-0.005454969 -2.8379939e-14 0.02437747 0.022328941 0.0045456905 -4.979992e-15 -6.214313e-05 -2.790352e-15
1.414563e-14 -0.05344466 0.010059094 -0.021152226 0.02933158 6.1031832e-15 -0.039065227 -0.019654656
-0.006214867 6.0982224e-09 0.043215014 -0.05721731 0.04226434 8.984914e-16 -8.292151e-06 -3.3516918e-12
-0.038647346 0.0041367076 -8.196073e-11 -0.029419145 0.059945762 0.020944485 -0.022111936 -0.01995704
-5.192899e-12 1.3879972e-14 0.02082674 -0.036111873 -0.015441145 -0.021980498 1.4728669e-15 0.013217882
0.05335978 0.0062428173 0.021992655 0.01192799 -3.4912871e-12 0.061644062 -0.0004670032 -0.05321431
