pointnet/weights_per_bundle_ratio025/POPT_right_best.pth (torch, 359784 bytes, 17 tensors)

t_grid f4 [100]
00000000: 0000 0000 b57e 253c b57e a53c 103e f83c
00000010: b57e 253d 62de 4e3d 103e 783d dece 903d
00000020: b57e a53d 8c2e ba3d 62de ce3d 398e e33d
00000030: 103e f83d f376 063e dece 103e ca26 1b3e
00000040: b57e 253e a0d6 2f3e 8c2e 3a3e 7786 443e
00000050: 62de 4e3e 4e36 593e 398e 633e 24e6 6d3e
00000060: 103e 783e fd4a 813e f376 863e e9a2 8b3e
00000070: dece 903e d4fa 953e ca26 9b3e bf52 a03e
00000080: b57e a53e abaa aa3e a0d6 af3e 9602 b53e
00000090: 8c2e ba3e 815a bf3e 7786 c43e 6db2 c93e
000000a0: 62de ce3e 580a d43e 4e36 d93e 4362 de3e
000000b0: 398e e33e 2fba e83e 24e6 ed3e 1a12 f33e
000000c0: 103e f83e 056a fd3e fd4a 013f f8e0 033f
000000d0: f376 063f ee0c 093f e9a2 0b3f e438 0e3f
000000e0: dece 103f d964 133f d4fa 153f cf90 183f
000000f0: ca26 1b3f c5bc 1d3f bf52 203f bae8 223f
00000100: b57e 253f b014 283f abaa 2a3f a640 2d3f
00000110: a0d6 2f3f 9b6c 323f 9602 353f 9198 373f
00000120: 8c2e 3a3f 86c4 3c3f 815a 3f3f 7cf0 413f
00000130: 7786 443f 721c 473f 6db2 493f 6748 4c3f
00000140: 62de 4e3f 5d74 513f 580a 543f 53a0 563f
00000150: 4e36 593f 48cc 5b3f 4362 5e3f 3ef8 603f
00000160: 398e 633f 3424 663f 2fba 683f 2950 6b3f
00000170: 24e6 6d3f 1f7c 703f 1a12 733f 15a8 753f
00000180: 103e 783f 0ad4 7a3f 056a 7d3f 0000 803f
0.0 0.01010101 0.02020202 0.030303031 0.04040404 0.05050505 0.060606062 0.07070707
0.08080808 0.09090909 0.1010101 0.11111111 0.121212125 0.13131313 0.14141414 0.15151516
0.16161616 0.17171717 0.18181819 0.1919192 0.2020202 0.21212122 0.22222222 0.23232323
0.24242425 0.25252524 0.26262626 0.27272728 0.28282827 0.2929293 0.3030303 0.3131313
0.32323232 0.33333334 0.34343433 0.35353535 0.36363637 0.37373737 0.3838384 0.3939394
0.4040404 0.41414142 0.42424244 0.43434343 0.44444445 0.45454547 0.46464646 0.47474748
0.4848485 0.4949495 0.5050505 0.5151515 0.5252525 0.53535354 0.54545456 0.5555556
0.56565654 0.57575756 0.5858586 0.5959596 0.6060606 0.61616164 0.6262626 0.6363636
0.64646465 0.65656567 0.6666667 0.6767677 0.68686867 0.6969697 0.7070707 0.7171717
0.72727275 0.7373737 0.74747473 0.75757575 0.7676768 0.7777778 0.7878788 0.7979798
0.8080808 0.8181818 0.82828283 0.83838385 0.8484849 0.85858583 0.86868685 0.8787879
0.8888889 0.8989899 0.90909094 0.9191919 0.9292929 0.93939394 0.94949496 0.959596
0.969697 0.97979796 0.989899 1.0

encoder.mlp.0.weight f4 [64, 3]
00000000: 2f58 bebc 52e5 ccbd 96c1 883e f097 d3bd
00000010: 4795 eabe 53f5 173e f5bf 083f 3ddb e03e
00000020: 1bd1 7bbe 8590 36be ae22 c03e 2a74 78be
00000030: b8af eeb9 791a a937 afac 45b3 f6a7 ebbe
00000040: 0843 7fbd f912 f4be 5ea4 393e 66c4 0cbf
00000050: ba46 0a3f b0ae b43e 4284 3dbd c5c9 babc
00000060: d916 e43e 053a 9d3e 0b53 98be 8def 223e
00000070: d939 2f3e f4d9 f53e 872d cebe 519d abbe
00000080: a863 7c3d 126d e83e e0b2 30bc 8257 90bd
00000090: d871 d73e 3bd5 e33e eeb4 8b3e 6184 843e
000000a0: 0ec3 d13e c306 8b3e 1e41 01bd 4abd fbbe
000000b0: dbed adbe 5e1c 79b9 58f7 173a 507f 26b9
000000c0: 1c8b 163e a004 05bf 95e5 cabc dbb6 033f
000000d0: 6a3c 363e eb4e 043d 834a c5be 5557 723e
000000e0: 8294 fbbe a40f 063e 472d 883e abe3 23be
000000f0: 9685 3dbe 5099 b8be 49e9 9d3e dbb7 88be
00000100: b79a 04bf 7778 963d 6903 683e 4075 7c3e
00000110: 565b 12bf ef2b 353e b3da 02ba faa9 c33e
00000120: fe65 213c e793 6dbd 511c 86be 2cb3 633e
00000130: b6c5 ed3e 0d8c 8ebe b299 8d3e b3e9 b73e
00000140: fa94 57bd 1fb2 c93e 004f 2d3e cb9c d43d
00000150: dc26 8ebd b2cd 843e 7341 f4be 6ad1 6bbe
00000160: fded e3bd 72b0 c8be aace abbe 5ba3 8d3e
00000170: b0ab 8e3e 7214 09be e175 993e 8ad1 87be
00000180: d459 afbe 6a8a 013f 800d d33e d3ff 043f
00000190: 038d b8be 87c7 19be 1b94 903e 02e8 583e
000001a0: 346f 233e db55 37be 129d a2be f076 8fbe
000001b0: 46b5 2dbe 75e5 2b3b 207d cb3e 2941 5c3e
000001c0: 4b11 08bf 42bb 9ebe c931 033f 32bd 593e
000001d0: de95 ec3d 2924 253c cbb6 9f3d 208c d13c
000001e0: 23cc 80be a4ce 873d af5d fbbd 0b4f a53e
000001f0: d4a8 dcbe c4c5 013f 0fe7 45b9 c3a0 0338
00000200: 81ce 6118 3aa2 013e e8e9 9d3c 1cb8 8fbe
00000210: 52f0 0cbf bda7 07bf 0d9f be3d c25c 3fbe
00000220: bf6f d93e d610 fcbe 07a9 21be ed12 5f3d
00000230: cec1 5f3d 0123 f53e 1eec 0b3f e8a0 0a3f
00000240: 8530 3dbe 12f2 ca3e d3af b6be 029a 9c3e
00000250: 31ef fc3e 56ad c53c 8142 cbbd 5ffe 23be
00000260: f17f 97be 68a7 b6be f33d 22bc cd58 c13e
00000270: 881d 143f 5ed7 a4be b4f7 93bd a99d 05bf
00000280: 9943 4bbe c0b1 c93e d7eb ad3e 0b71 49be
00000290: 4b8a 1d3e 799e 4d3e fb6f f8be 326f 0b3e
000002a0: f192 9e3e dc34 04be 8a18 07bf 7774 3abe
000002b0: 64a0 bc3e ab42 0b3f 468b e93e 50d8 813e
000002c0: 5610 3bbe 2d97 373e 885e 9e3d 6dc4 cabe
000002d0: 89f8 163e 13ac 3fbe 644b ecbd e127 73b5
000002e0: cb25 c537 b095 10b4 3a30 aa3e 713a acbe
000002f0: ba6e 3b3e e45a cdbe 6087 7c3d 370d 0ebe
-0.023235409 -0.10004677 0.26710194 -0.10331714 -0.45817015 0.14839678 0.53417903 0.43917266
-0.24591486 -0.17828567 0.37526459 -0.24263063 -0.00045525818 2.0158697e-05 -4.602469e-08 -0.46026582
-0.062319785 -0.47670725 0.18129107 -0.5498718 0.5401417 0.35289526 -0.04626871 -0.02280129
0.4454868 0.30708328 -0.29750857 0.15911694 0.17111911 0.48017848 -0.4026911 -0.3351846
0.061618477 0.45395714 -0.010784835 -0.07047941 0.42079043 0.4449862 0.27286476 0.25882247
0.40969127 0.27153596 -0.03155624 -0.49167854 -0.33970532 -0.00023757058 0.000579705 -0.00015878421
0.14701504 -0.5196018 -0.024767676 0.5145089 0.17796484 0.032301825 -0.3853341 0.23666127
-0.4913674 0.13091904 0.26597044 -0.16004817 -0.1850799 -0.36054468 0.30842045 -0.2670277
-0.51798576 0.073471956 0.22657551 0.24654102 -0.5717062 0.1769254 -0.0004991695 0.3821562
0.009850977 -0.05800238 -0.2619348 0.22236317 0.46439904 -0.27841225 0.27656323 0.35920486
-0.05263231 0.39393708 0.16924667 0.103814684 -0.069410056 0.25938183 -0.47706184 -0.23029104
-0.11129377 -0.39197117 -0.3355611 0.27663693 0.27865362 -0.13386706 0.29972747 -0.26527053
-0.3424822 0.5060183 0.41221237 0.51952857 -0.36045083 -0.1501752 0.28237996 0.21182254
0.1596039 -0.17903845 -0.3176046 -0.2802043 -0.16963682 0.0026229296 0.397439 0.21509232
-0.53151387 -0.3100224 0.5124784 0.21263579 0.115520224 0.010079422 0.07798537 0.025579512
-0.25155744 0.066312104 -0.12273728 0.32286867 -0.43097556 0.5069239 -0.0001887346 3.1382555e-05
2.9184826e-24 0.12659541 0.019276574 -0.28070152 -0.550542 -0.52990323 0.0930768 -0.18687728
0.42468068 -0.49231595 -0.15787135 0.05446141 0.054628186 0.47878268 0.5465716 0.54151773
-0.1847554 0.3963781 -0.35681018 0.3058625 0.4940124 0.024130505 -0.09924794 -0.16015004
-0.295898 -0.35674596 -0.009902465 0.37763062 0.5785756 -0.32195562 -0.0722498 -0.52193695
-0.19850005 0.39393425 0.33968994 -0.19672029 0.15384786 0.20079984 -0.48522934 0.13616636
0.30971482 -0.12910789 -0.5277182 -0.1820849 0.36841118 0.543986 0.4561407 0.25360346
-0.1826795 0.17928763 0.07732874 -0.39602986 0.14743246 -0.18717985 -0.11537817 -9.0582586e-07
2.3501829e-05 -1.3465501e-07 0.3323992 -0.33638337 0.18303958 -0.40108407 0.06165254 -0.13872229

encoder.mlp.0.bias f4 [64]
00000000: 9214 913d 275d 8abe 5790 e8bd aee6 7bbd
00000010: e07d c8b1 4225 82bd 6703 82bd 1a23 d43d
00000020: 17da 26be 8e20 aebd caf5 2dbe 5ac2 de3d
00000030: 2097 2c3e 852b 523d 18a2 39bd 0f7d c0b7
00000040: bb10 99be 6194 b23d edcf e93d 26cd ac3d
00000050: ed94 023d fe70 343c dd07 cc3e 07f8 2bbd
00000060: 73a0 af3e efe1 553e 8d94 3d3e d230 a4bd
00000070: f250 34be 7411 ca3d d915 2fbd 27e4 c13c
00000080: 8e41 f1bc 23c7 543d f6a4 ec3d 3056 5abd
00000090: d414 a3bd 4391 d63d 5a4a 49bd 9ffa b93b
000000a0: b865 dd3c cbd8 cfbe ba9b 4d34 c916 a43e
000000b0: c2d8 4b3c 8384 fa3d ccaa 323c 4720 3b3e
000000c0: 462e a8bd a636 a73d 7088 9fbe d63b b9bb
000000d0: 5bde adbd 9075 5ebe 6508 7b3e efe2 5fbd
000000e0: 06f9 4a3e 24ab 8fbc 5d5e 20be e3a3 cc3d
000000f0: 41b4 9ebd b0b5 54b2 1761 b33e 5a59 973d
0.070840016 -0.27024195 -0.11355656 -0.06149929 -5.8350764e-09 -0.063547626 -0.06348305 0.103582576
-0.16294132 -0.08502303 -0.16988292 0.10876913 0.16854525 0.051311035 -0.0453206 -2.2946419e-05
-0.29895577 0.08719707 0.11416612 0.084375665 0.031880308 0.011013268 0.3984975 -0.041984584
0.343021 0.20886968 0.18513699 -0.08017124 -0.17609003 0.0986661 -0.042745445 0.023668362
-0.029450204 0.051947724 0.11554901 -0.05330485 -0.07962957 0.10476925 -0.049143173 0.0056756283
0.027026042 -0.40595087 1.9148766e-07 0.32048634 0.012441816 0.12232306 0.010904979 0.18274032
-0.08211951 0.0816472 -0.3115878 -0.005652885 -0.084896766 -0.21724534 0.24514921 -0.05465978
0.19821557 -0.01753766 -0.15660997 0.099921964 -0.077492245 -1.2381335e-08 0.3503501 0.07390089

encoder.mlp.2.weight f4 [128, 64]
00000000: 6d13 dbbd 2b55 253d 22db 833b 345f 82bd
00000010: bc2c 3235 5f4a 823d ab4a 6a3d cc83 023e
00000020: 3c0d b1bd 1a27 9bbd 0ae9 acbd db25 fc3d
00000030: 55f9 f43c a3df 833d 7563 3fbd 4fbc 30b7
00000040: 58d6 e93d d996 cb3d ecf0 863d b8f1 a0bd
00000050: b0a2 34bd 4c04 553b e0f7 893d 3c0a 9fbd
00000060: 2476 f03c 38cb b7bd c53a babd 6c80 91bc
00000070: c260 9c3b 8511 9bbd ac6b cdbb 1e05 83bd
00000080: c821 97bc e134 1e3c 8e71 89bd 4295 c73c
00000090: b632 0c3d 8d53 07bc 0c70 9dbc 3272 0fbc
000000a0: 4724 81bd 20a5 153d 18a2 cc08 5d29 893a
000000b0: 7304 ba3d 5f72 32bd 5386 7ab8 bd41 d6bd
000000c0: b980 9dbd 85b0 9dbd 943e 52bd 863e 86bd
000000d0: ac82 f83d d059 73bd 0598 81bd c870 d9bb
000000e0: 9447 68bd f6b9 8ebd 4d56 df3d 1663 8ebd
000000f0: 5007 3f3d f516 5e30 f802 363d 833a adbb
00000100: b1db 4d3d f274 bebd 1208 cfbd 038d 17bd
00000110: e2d0 2334 2dbf dbbd 1f91 c6bc a0d7 9d3d
00000120: d945 82bd 93eb 973d fe2e aabc 7ff2 333d
00000130: f2f9 d43b 2c8c abbd a03f c03d 1c46 fd36
00000140: cbf2 f4bc d377 d5bd 6913 a1bd 0bf3 09bc
00000150: 3771 b93d f60e 28bd 9a62 893d 85fe de3d
00000160: 91ba 383d ae71 76bd 6ba9 873d d191 8e3d
00000170: 24c8 d6bc be73 e8bd cc50 8abd f0a3 20bd
00000180: 1b9e b4bd b3d8 5a3d e37b 84bd 81ad 943d
00000190: 4456 0d3c 7b92 853b 678c 16bd 1337 8ebc
000001a0: 4bdc 25bd c7cf 293d a3e1 1a1d a03d c4bd
000001b0: b088 3c3c 20ab 5c3d c483 9bbc 440e 55bd
000001c0: 0d78 97bd dcd3 5f3d 8a5d c63d b04e 99bc
000001d0: a42f b8ba cd08 c73c 4248 003d 4c15 003d
000001e0: 39ee a8bd f32f dbbd d333 b23d fe03 df3d
000001f0: 25bb c03d 595f f731 a9ce 8fbc 1ef9 1c3d
00000200: 6a17 cebd 0f3e a2bd f99a 893c d182 84bb
00000210: 02b2 0735 b6cd 673d 7946 933c a74b 84bd
00000220: 3ef1 9bb9 5f55 d53b 3ed3 733c d711 ba3b
00000230: 867e 003e 721d 8f3d fd08 e13d b01f 3e36
00000240: a85d 66bc 0c90 4abc ce82 a8bd 6ba5 4abd
00000250: 074b c8bd 2f19 72bd a77e dd3d e427 843d
00000260: d2e5 9ebd 4a12 58bc be4e 07bc bcdd 85bd
00000270: 4c85 ef3c d2c6 cbbd 596b 2b3d f779 f6bc
00000280: de53 3e3d fe43 6f3d 804f b0bd 9050 e83c
00000290: c3fd 603c c908 f0bb e4a9 b43c 4265 723c
000002a0: ff07 3a3c bc97 793c 1623 001e 6d65 2a3c
000002b0: 16fb 88bc b029 04bd 10c5 88ba 19ce d83d
000002c0: 25df d1bd eb93 a3bb 83f9 cabd b52f f73c
000002d0: 301a 033d 4e20 673d 8260 b03c fb37 b0bd
000002e0: c23c 34bd 2014 3cbd 109d de3d 04f2 ea3d
000002f0: d4f8 c13d 8301 7933 e100 983d 4376 66bd
00000300: 7542 f6bb ea91 52bc c2ab 4d3c 2f3e f53c
00000310: 7d98 26b5 05c4 323d 8383 3e3d ad0f e8bd
00000320: 0f58 04be 6aee 06bc 60b7 e83d aaa1 ba3d
00000330: 212c 19bd 71a4 05be 63d5 033e 8467 f335
00000340: b77c 8c3d 7904 b03c 6f7e 7f3d 144b 2b3d
00000350: a1d0 783d 646b 6cbd c2df cd3d 9ddf a13d
00000360: 2db3 a2bc 2a26 e4bb d9f1 923d cfc2 c63d
00000370: 2919 233b 6e84 423d 657c 6cbc 5b4b 42bc
00000380: ecf5 d8bb b00b d83c 69ba d0bd 813c 7abd
00000390: 958a 30bd b068 783c 72b4 aabd d83d 0cbd
000003a0: 8e37 4e3d 42a3 71bd 6f7d bb0c 7d61 28bd
000003b0: 40b6 adbc c5d5 4c3d 0c66 7dbc 5a07 4cbd
000003c0: 17d4 b13c 3b62 cf3c 91e6 c33c 6c43 a33d
000003d0: 56c9 d93d 0a55 b2bd 1728 a53d e3e8 c93d
000003e0: 974b a63d 25d6 ee3c 2659 cbbd cb5b 723d
000003f0: a79e bcbc 478b 8fb1 48ca 4fbc 33c6 ba3d
-0.106970645 0.040364426 0.0040239254 -0.06365815 6.6375264e-07 0.063618414 0.057200115 0.12745589
-0.086451024 -0.075758174 -0.08442886 0.12311908 0.029904047 0.0643914 -0.04672571 -1.05342615e-05
0.11417836 0.09940881 0.06588921 -0.07858604 -0.044100463 0.0032503782 0.067367315 -0.07765624
0.029353209 -0.08974308 -0.09093241 -0.017761432 0.0047722766 -0.07571701 -0.006268939 -0.063974604
-0.018448725 0.009656162 -0.06711112 0.024363164 0.03422805 -0.008259666 -0.019218467 -0.008755254
-0.063057475 0.03653443 1.2315911e-33 0.0010464598 0.0908288 -0.043566104 -5.9729744e-05 -0.10461757
-0.076905675 -0.07699684 -0.05132921 -0.06554894 0.12134299 -0.059411824 -0.063278235 -0.006635759
-0.056708887 -0.06969063 0.109051324 -0.06952493 0.046637833 8.0795753e-10 0.044436425 -0.005286516
0.050258342 -0.09299649 -0.10108961 -0.036999714 1.5256549e-07 -0.10729823 -0.024239121 0.07707143
-0.06360979 0.07417979 -0.02077436 0.043932434 0.0064995224 -0.08376345 0.093871355 7.5481494e-06
-0.029900929 -0.10423245 -0.0786503 -0.008419762 0.09054797 -0.041029893 0.0670826 0.108883895
0.0450998 -0.060167007 0.06624111 0.06961406 -0.026218481 -0.11350201 -0.06753692 -0.039218843
-0.08819219 0.053429317 -0.06468942 0.07259656 0.008626524 0.0040762997 -0.03675499 -0.017360246
-0.04049329 0.041457918 2.0498382e-21 -0.095820665 0.011507198 0.053874135 -0.01898373 -0.052015558
-0.07395945 0.054645404 0.0968581 -0.018714279 -0.0014052284 0.024296189 0.03131891 0.03127031
-0.08248562 -0.10702505 0.08701291 0.10889433 0.09410695 7.199486e-09 -0.017554598 0.038323514
-0.1006306 -0.07921993 0.01679753 -0.004043915 5.0550454e-07 0.056592666 0.01797794 -0.06459742
-0.00029743643 0.006510421 0.014881907 0.005678396 0.12548265 0.06988038 0.109880425 2.833065e-06
-0.014060415 -0.012363445 -0.08228074 -0.04947416 -0.09779935 -0.05910605 0.10815173 0.06452921
-0.077586785 -0.013187954 -0.00825852 -0.06536433 0.029238366 -0.09950031 0.04185042 -0.030087454
0.0464667 0.05841445 -0.086089134 0.028358728 0.0137323765 -0.007325266 0.022053666 0.01479465
0.0113544455 0.01523393 6.783519e-21 0.010400158 -0.01672129 -0.03226632 -0.0010434706 0.10586185
-0.102476396 -0.0049919984 -0.09910872 0.030174116 0.032007396 0.056427293 0.021530394 -0.086044274
-0.044003256 -0.04591763 0.10869801 0.11471942 0.09471288 5.7976205e-08 0.07422043 -0.056265127
-0.0075152465 -0.012852171 0.012553157 0.029936878 -6.206172e-07 0.04364397 0.046512138 -0.11331115
-0.12924217 -0.008235553 0.11363101 0.09112866 -0.0373956 -0.1305101 0.1287437 1.8135038e-06
0.06859725 0.021486508 0.062376436 0.041819647 0.06074584 -0.057719603 0.10052444 0.07903979
-0.019860828 -0.0069625573 0.07175035 0.097051255 0.0024886823 0.047489576 -0.014433955 -0.011858786
-0.006621113 0.02637276 -0.10191805 -0.061092857 -0.043100912 0.015161678 -0.083351985 -0.034238666
0.05034595 -0.058993585 2.8887405e-31 -0.041108597 -0.021205068 0.050008554 -0.015466224 -0.0498117
0.021707578 0.025315395 0.023913654 0.07971844 0.10634105 -0.08707626 0.08064287 0.09858873
0.08119886 0.029154846 -0.09929113 0.05916957 -0.02302487 -4.1776818e-09 -0.012682505 0.09119835

encoder.mlp.2.bias f4 [128]
00000000: aa53 90bd ea54 89bd 099f 0fbc 7507 44bd
00000010: ba5b 58bd 5279 a33c 6aee 963c 2500 46bd
00000020: 71e4 543d d6db 863d e6be 0ebd d2bc fdbc
00000030: 9703 d2bc b782 07b0 688d 10bd fa65 0c3d
00000040: b345 b83d 902f e2bc 37e3 58bd dedb 9e3b
00000050: 7627 2caa d1e5 0f3c c148 10bc d850 41bd
00000060: ba14 b03d 1def e03c 859d 20ab 1269 b4bd
00000070: 9d27 ba3c 011d 8e3c 406d 183d 11df a1bd
00000080: 338c 5fbb fbbb c1a2 b641 c224 f0a9 153c
00000090: f54b 23bc 319b a43c adca 12bd bd15 9c3c
000000a0: e9dc 553d 5a8b 483d f2fe 632e b75b 013c
000000b0: 85ed 4fbd 61af 883b aa02 0ebd 90d8 b93c
000000c0: 59d6 4dbd 7e62 9dbc 2f42 adbc 9fd7 53bd
000000d0: f329 55af fa80 24bc 0efd bb3c a4c6 b53c
000000e0: a4c4 353c 0a3e 8abb 69e9 04bd 0dd5 47bd
000000f0: 01bc 973c 2340 aaac 3a08 703d b3b0 45bb
00000100: 8d6c f8a5 1b9f 6b3d d965 86bc 2c18 4a3c
00000110: 208b fcbc d222 e33b 2bb9 f03c 04f4 8e3c
00000120: 4d6c c8bb 267d 70bd 60bd ad3d 2392 fe3b
00000130: 5a10 823d 7f6e 8bbd e7b9 633c d47a 67bd
00000140: 39fd 56bc 3e1f 1fbc 09fe c93c 32b8 ab3b
00000150: a458 6d3d ea72 503d f08d 263d 5342 02bd
00000160: fc35 85bc 5dab 30ac 1f52 aab7 26e9 37bd
00000170: 0674 a6bc 47ec c731 d6a3 513c 187f 0a3c
00000180: f300 21bc 272c 55b5 21a9 baaf 0be9 b3bb
00000190: 80d1 e73c eee2 1d3d 7c72 bfbc a411 c0bd
000001a0: 448c 2e3d fa37 953c f667 083c 41af 19bc
000001b0: 26a8 c9bc 7314 1bbd d01b ad3d 9b35 023d
000001c0: a633 b6bb f350 edbc c211 16bc 4801 2fbc
000001d0: 4be3 b23c 7aa3 c1b0 f3aa 0b3c 3f90 7d3c
000001e0: 71fa abbd 91ae 2b3c 480f 21bd e5d3 c1bc
000001f0: 7dcd 013d 5687 153d 897a 64bd 9c8d 0dbd
-0.07047208 -0.06705649 -0.008765944 -0.047858674 -0.052821852 0.019955311 0.018424232 -0.04833998
0.05197567 0.06584899 -0.034850024 -0.030973826 -0.025636477 -4.929847e-10 -0.035291106 0.03427694
0.08997669 -0.02761057 -0.052951064 0.0048479876 -1.529036e-13 0.00878282 -0.008806408 -0.04719624
0.08597703 0.027457768 -5.706202e-13 -0.08809103 0.022723967 0.017347815 0.037213564 -0.07903875
-0.0034110665 -5.2511787e-18 8.424541e-17 0.009134755 -0.00996684 0.020093532 -0.035837818 0.019053334
0.05221263 0.04896102 5.184026e-11 0.007895402 -0.050763626 0.0041712974 -0.03467051 0.022686273
-0.050253246 -0.019212004 -0.021149723 -0.051719304 -1.938714e-10 -0.010040516 0.022947814 0.022189446
0.011094246 -0.0042188214 -0.03244916 -0.048787165 0.018522264 -4.838811e-12 0.058601595 -0.0030165135
-4.30947e-16 0.05752478 -0.016405987 0.012334865 -0.030828059 0.006931641 0.02938517 0.01745034
-0.006116426 -0.0587131 0.08483386 0.0077688857 0.06350775 -0.06808185 0.013899303 -0.056513622
-0.013121896 -0.009712039 0.024657266 0.0052404637 0.057945862 0.05089084 0.040662706 -0.031801533
-0.016261093 -2.510623e-12 -2.030382e-05 -0.044900082 -0.020318996 5.818524e-09 0.012795409 0.008453153
-0.0098268865 -7.9412933e-07 -3.3953376e-10 -0.0054904274 0.02829814 0.038546495 -0.02337002 -0.09378365
0.042614236 0.018215168 0.0083255675 -0.009380163 -0.024616312 -0.0378613 0.084525704 0.031789403
-0.005560356 -0.028969264 -0.009159507 -0.010681458 0.021836897 -1.4089061e-09 0.008524644 0.0154762855
-0.08397377 0.010478632 -0.039321214 -0.02366061 0.03169011 0.03650602 -0.05578092 -0.034558877

encoder.mlp.4.weight f4 [256, 128]
00000000: e4cf 973c e310 8d3c 5c37 c73c e739 5cbd
00000010: 3885 ab3a 7f48 0cba ef07 b93a 7202 42bd
00000020: 1f12 20bd 6289 2bbc 5343 d33a 08f6 a83a
00000030: 0a25 003d abf1 028c 3b7b 5f3c f7d3 b3bd
00000040: 04e2 8614 8ee7 9d37 48e3 22bd f785 573d
00000050: f85f 6e28 24b7 8fbb 0ca1 b53a 45a1 2abd
00000060: c105 0b3d 3a50 1a3d 0f51 2112 0dc1 16bd
00000070: 5a5d cf3c dde1 78bd 006b 00bb 6a19 58bd
00000080: b061 b439 9ee6 e322 bee8 47a2 4b20 683a
00000090: bddd ca3c 8dcc 033d e843 833d bab6 82bd
000000a0: c58b afbd 6f14 63ba 97ec 4793 976f 3c85
000000b0: beb9 a9bc 1fe2 160d 35ed 26bd 27da bf3a
000000c0: 5c86 4439 9873 993a 8c60 a43a b830 0a3d
000000d0: be01 d6b1 6c1b 933b 9524 1abd 4e02 9c3c
000000e0: 604c da3c 6ced 743d 8807 883d e3d3 98bd
000000f0: b7e5 a2bd cc3e 1727 09b0 a73a 6acc 87bd
00000100: 1bf8 8b24 1be7 54ba d5e8 953a 8001 a03a
00000110: 9aeb b93a ba17 033a 4d9e 9c3a c97b a43a
00000120: 09b1 813d 0d78 6b3d 1693 2395 d8de 87bc
00000130: 6ecb 803a c8cd f83b cc95 ba3c f715 36bc
00000140: c925 79bd 6a48 703a ec8e f4bb 51bb 0b0a
00000150: 12fc 6dbc 73a9 cb3a 59eb 85bb ef46 4bbd
00000160: 6892 3abd 5348 b229 bd8c cc37 aa78 863d
00000170: b06d 353d d4e1 8886 254c 9c3a 6a6a 2093
00000180: c4a1 873d 92d3 5237 83e5 c316 2349 0ebb
00000190: 1da4 033c c8b5 a13a 07f9 023b c360 833d
000001a0: 3fbd 46bb f7cc 3a0b 978d 8bbd 7d24 b98b
000001b0: b6b8 9bb9 f0b9 65bd 1715 89bd 6e1d 93bb
000001c0: 4473 0b3b e384 ad3c d081 7d3d 49f4 17bc
000001d0: 21ac b13a 8998 53b1 3aa0 523d d4d4 563b
000001e0: 509d 9d3a e01f ee38 5bb2 f4bc dd7a a13a
000001f0: 21dd 373a c54d 793d 842d 0c3b d6d4 fabc
00000200: fd32 e3ba 15be e3bc 1ccf a112 efb1 86bd
00000210: d879 00bd 6653 8a3c 668b 5a3c 0978 8ebd
00000220: 422a db17 628d 1b3d df43 8abc f6d6 0d3d
00000230: 5d49 8ebc 8258 a319 cdac 6e3b 95c1 5fbd
00000240: edec 790d 2c66 57bd 1692 4c3d 6dca 2486
00000250: e7bb 0f8a afce ec3c e970 043d 0983 0abd
00000260: 5da7 0a0d 7b86 130f 3ef8 9c06 601d 173d
00000270: 19e5 ee3c 8c10 ba0e 0ad3 f43a cfd1 91bc
00000280: 2c76 b612 a9ca 7119 b5e8 9913 4bd3 113d
00000290: 479d 4f3d 6637 07bc 89b2 a53c 8042 7c3c
000002a0: 02b9 bc09 c537 6916 e548 2112 b156 0088
000002b0: def2 0cbc 531a 90bb 46f9 903d d35f b73b
000002c0: 3a77 583b e23f 9018 df4f 8806 5bf5 b3bc
000002d0: b7d8 8704 1fda ce07 e0d0 933b 3656 4988
000002e0: 2af9 d590 c410 9c0d ec68 b13c e103 8e87
000002f0: 4b35 d60a 590e 0918 dbc1 ee3c f6e7 b009
00000300: b4e6 8510 0112 5e96 d272 938a 7eba 633d
00000310: 3ace d5bc 9b71 d80c 9eeb d899 6111 0b3d
00000320: 8582 80bb fb75 b8bc 69ec 0291 3151 0f87
00000330: c2e6 b985 d64d 06bd 5eb5 f487 ac6a 4b3d
00000340: ea80 ec86 174c 9381 16ec 3f87 630d 6186
00000350: b3f4 928a d37d 5b3d ebf8 2e8f 4cf5 1d86
00000360: ff0e 29bd ba15 e206 3cfa 8796 2c85 bd36
00000370: 4b69 e406 7d0d 1288 4398 6c18 908e 7310
00000380: 646f 0cbd 482b b905 5469 7190 7b34 013d
00000390: 8d10 a406 7f05 8cb1 9193 0eba aaed 8fbd
000003a0: f886 e5ba aac7 3e0b ab14 713d a0d5 8b96
000003b0: dc59 91bd 3a46 223d 2450 9d3b 37df c385
000003c0: 9e49 2292 30ae d93c efb7 4ebd deb4 2218
000003d0: e04f bb0c f4d6 b089 05ec 9a8e 713a 9a04
000003e0: d196 803d 4e44 3207 7650 05bd 1b88 9607
000003f0: 82c8 e711 db6d d48a 6536 c08d e95a 8ebd
0.018531747 0.017219966 0.02431839 -0.053766157 0.0013085967 -0.0005351379 0.0014116744 -0.047365613
-0.03907978 -0.010469766 0.0016118087 0.0012890706 0.031285323 -1.008756e-31 0.01364022 -0.087806635
1.361969e-26 1.8823685e-05 -0.039767534 0.052617993 1.3232464e-14 -0.0043858457 0.00138572 -0.041657705
0.033941034 0.037674166 5.0902555e-28 -0.0368052 0.025313068 -0.060762275 -0.0019595027 -0.05275861
0.00034405058 6.177265e-18 -2.7092742e-18 0.00088549097 0.024763936 0.032177497 0.064094365 -0.063825086
-0.08571581 -0.00086624076 -2.5233979e-27 -8.860213e-36 -0.020718452 4.64945e-31 -0.040753562 0.0014637158
0.0001874207 0.0011707423 0.001254098 0.033737868 -6.228418e-09 0.004489353 -0.037632544 0.019044068
0.026647747 0.059796736 0.066420615 -0.07462289 -0.07953971 2.0989502e-15 0.0012793551 -0.06630786
6.070195e-17 -0.00081215956 0.0011437187 0.0012207478 0.0014184595 0.0005000789 0.0011949033 0.0012549098
0.06332595 0.057487536 -3.3033618e-26 -0.016585752 0.0009826252 0.0075928904 0.022776507 -0.011113635
-0.06082705 0.0009166064 -0.0074633267 6.727837e-33 -0.01452543 0.0015538171 -0.0040868935 -0.049628194
-0.04554978 7.917334e-14 2.4384231e-05 0.065659836 0.04429406 -5.148934e-35 0.0011924548 -2.0247305e-27
0.06622651 1.25662355e-05 3.1648791e-25 -0.0021711073 0.008034733 0.00123375 0.0019984858 0.0641494
-0.0030325202 3.5976495e-32 -0.068141155 -7.131431e-32 -0.00029701524 -0.056085527 -0.06693476 -0.0044895923
0.002127842 0.02118153 0.061891377 -0.009274551 0.0013555327 -3.0791247e-09 0.051422335 0.0032780664
0.0012025032 0.000113546615 -0.029870203 0.0012319941 0.0007013847 0.060865182 0.0021389434 -0.030619066
-0.0017333921 -0.0278006 1.0211585e-27 -0.06576907 -0.0313662 0.01688547 0.013338899 -0.06956489
1.4163211e-24 0.03797663 -0.016878067 0.03462883 -0.017368967 1.6889553e-23 0.0036418915 -0.054627974
7.701424e-31 -0.052587673 0.049944006 -3.099369e-35 -6.92054e-33 0.028907148 0.032334242 -0.03381637
4.272599e-31 7.2735596e-30 5.9045437e-35 0.03689325 0.029161977 4.5868474e-30 0.0018678617 -0.01780024
1.1514946e-27 1.2500335e-23 3.8852097e-27 0.035601895 0.0506871 -0.008252954 0.020226734 0.015396714
4.5433334e-33 1.8839188e-25 5.089249e-28 -3.8620504e-34 -0.008602826 -0.0043976693 0.07078795 0.00559614
0.003303005 3.7287633e-24 5.1274874e-35 -0.02196758 3.193737e-36 3.1123635e-34 0.004510984 -6.058758e-34
-8.4397584e-29 9.618278e-31 0.021656476 -2.1368065e-34 2.0627497e-32 1.7714079e-24 0.029145172 4.2588594e-33
5.2814705e-29 -1.7938698e-25 -1.4198776e-32 0.055597775 -0.026099313 3.3348443e-31 -2.2429042e-23 0.03395212
-0.003921809 -0.022517195 -1.0328041e-28 -1.0781984e-34 -1.7482083e-35 -0.032789074 -3.6819638e-34 0.049662277
-8.8962756e-35 -5.4108455e-38 -1.4438622e-34 -4.2327632e-35 -1.4151334e-32 0.053586792 -8.626802e-30 -2.9708634e-35
-0.041274067 8.5043676e-35 -2.1968346e-25 5.648142e-06 8.591878e-35 -4.395113e-34 3.0579158e-24 4.8033126e-29
-0.034285918 1.7413215e-35 -4.761001e-29 0.03154419 6.171426e-35 -4.075161e-09 -0.0005438859 -0.07027753
-0.0017511537 3.674288e-32 0.0588576 -2.2591477e-25 -0.070972174 0.039617755 0.0048008133 -1.8419708e-35
-5.1208927e-28 0.026572317 -0.05046838 2.1029324e-24 2.8859985e-31 -4.25726e-33 -3.819121e-30 3.6258896e-36
0.06278766 1.3411305e-34 -0.032547437 2.2649487e-34 3.6568946e-28 -2.045618e-32 -1.1846009e-30 -0.069509335

encoder.mlp.4.bias f4 [256]
00000000: 1abf 473c 81ba 9f3a 6156 3cbd 28d0 b73c
00000010: 2406 363c c30c 6d3b 495a ae3c 33d3 33bd
00000020: e10a ce3b a7d5 84b7 3985 98bc 93d8 45bd
00000030: 0284 17bd 871b 1b3d 5cb0 ccbc 262a 163d
00000040: 1a0f 28bb b683 1b3d 5eff 163b 7f12 993c
00000050: 1289 3bbc 0af0 e3bc 758e 6f3d e9b3 383d
00000060: 23b8 133d 72c9 eabc a429 ba3c e0b6 823c
00000070: b880 c7b9 9181 8b3c 33ae 9c3c 5f8b b9ba
00000080: 2cd5 8c3d c4d1 333d 8f70 3e3c cbe0 91bb
00000090: a8ff 05b8 7387 f43c e4ff f9bc f72c 443c
000000a0: 02c3 7f32 d9b7 9d3d f699 dc39 52e8 0f3d
000000b0: c127 493c 6c81 c2bc d286 7abb 6108 c83c
000000c0: 2553 253d 2428 91bc bcbe 483c b03a 2dbd
000000d0: 54fb 533c 7968 62bd f70d 11bd da15 0cbd
000000e0: edb4 093a 3cd9 f3bb 6121 9a2c 0256 8f3c
000000f0: 45d7 85bc eace 943d 0d0f 093d 4b14 d6bc
00000100: 805f c0bc 1312 56bb aa79 b7bc 61b8 38bc
00000110: e980 eabc aeed ef3b 7aae a5bc 1add 4abd
00000120: d447 e73c f815 9a26 6389 73bc f4b5 bebc
00000130: 17de 8f3c 297d 47ad bd43 d1bc b1a8 a33c
00000140: c7f9 29bd 020c 783a 43fa 0d3c e63d 013d
00000150: 3c6d 0dbd 4427 02bd 451c 0ebc dfa2 8b3c
00000160: 290e a1bd c084 90bc b216 7932 6bda 383d
00000170: 843e 19bb dce3 d73b aae8 043d 394c 6d3d
00000180: 1078 063c 45d7 173d ddb0 b5ba 5190 dbbc
00000190: 0d07 f33c 6d64 3bbd 7b70 2e3d 568d 6cbc
000001a0: 864a 333d b414 6abd 1e77 35bd eeac 993b
000001b0: ae50 af3c 2a68 e53c 2c17 40bc 1bce a03b
000001c0: 6d07 e5bb ba4d 4d3d 493d c7bc 159c 063d
000001d0: 97b9 cd1c 4d95 b73b 1c50 b299 d79d 03bd
000001e0: d489 933c 85b3 4fbc 784e e53c 71cd 6cb6
000001f0: d781 293c e338 6f3b 510f 67bc 0190 d23c
00000200: 8c53 2c3d b430 673d 528a e8bb 58c1 b43c
00000210: a11c 413d 3048 0d3d bb0a 93b5 af65 cbbb
00000220: f595 bb3d 712f 29bb 1961 6dbc 0154 08bd
00000230: deae bb3c 7b31 4abd e5fc 0a3c d0a2 75bd
00000240: b493 263c 5f54 a73c 86f5 ff3b 526f 033c
00000250: f200 37bd 456b 11bd 897d 90bb 84a7 8fbc
00000260: 8619 6a3c 0988 513d 68b8 af3a 8515 bdbc
00000270: 8bc7 0238 de6b 7e3c c8ce c7bc 96e9 c0bc
00000280: 35c3 a2bb 67c0 a03c e59a 913b ccd7 d7b5
00000290: f9af 34bd 7b17 dc3c 73a7 883c 85e5 c63a
000002a0: 59d4 fbbc 9f9e 79bc 090b ac3c b546 c63c
000002b0: d7bb 5f3c dda7 ab3c 3b29 323d 0ed7 be3c
000002c0: b9fa 903c fe48 33bb 3eb6 38bb a962 e33c
000002d0: 871a 0e3d d8ee bd3c b5da b33c e201 9bbc
000002e0: 2c9d 2f3c c2b3 97bb a780 e0bc 1b93 da8f
000002f0: 2e37 2c3d 863b 613c def9 e63c 85a2 29bd
00000300: a1c1 5e3c ea1a 64bc ef0b 123d 8e87 94bc
00000310: 314d 163d d56e 313c cf61 73bc 9c63 d53b
00000320: 4914 39bc 60f0 e23c a839 bcbb 9d1a 7cbd
00000330: 4a53 5a3c 0ccd 053d 6a99 043d a92a 6c3b
00000340: 19c9 933c b157 90bd dffc 073c b529 d23c
00000350: 793d ef3b 3c17 6828 3da3 9a3a 4eca 423d
00000360: 5cea 523d 6f8c 913c 62cb 2cbd 7c61 dcb9
00000370: 8575 70bd b015 2f3d cbc4 58bb b5c5 63ba
00000380: e1f7 783d 0591 0d3d 1963 ff30 c959 0abd
00000390: 2d4c 853d 7b13 793c 7a28 54ba 0e1d 963d
000003a0: 4c8e 103d 4210 913c d777 3b3d 99a7 7939
000003b0: ab3a 7ebb 27a7 eb3c ba81 af3b efb7 e43b
000003c0: 19ad febc 12f0 943c bb26 883b de48 cd3c
000003d0: def1 9a3c 2306 693c 23fb 80bc cbb7 f13c
000003e0: 344b a23c f4f7 103d f890 d5bc c03c 483d
000003f0: b8e3 703b e690 603d 02f3 233d 0f96 373d
0.012191558 0.001218632 -0.045980815 0.022438124 0.0111098625 0.0036170937 0.021283286 -0.043902587
0.006287918 -1.5835116e-05 -0.018618213 -0.048302244 -0.036991127 0.03786805 -0.024986438 0.03666129
-0.0025643767 0.037967406 0.0023040394 0.018685577 -0.011446254 -0.02782442 0.058485467 0.04509345
0.03606428 -0.02866051 0.022724934 0.015956342 -0.0003805214 0.017029556 0.019126033 -0.0014155916
0.06876597 0.04390122 0.011623516 -0.0044518462 -3.194777e-05 0.029849743 -0.030517526 0.011973611
1.4887293e-08 0.07701082 0.0004207638 0.035133667 0.0122775445 -0.023743354 -0.0038227332 0.024418058
0.040362496 -0.017719336 0.012252506 -0.042292297 0.012938339 -0.055275414 -0.03541371 -0.034200527
0.00052530953 -0.007441668 4.380649e-12 0.017497066 -0.016338 0.07266028 0.03346162 -0.026132723
-0.023483038 -0.0032664582 -0.022396881 -0.011274428 -0.028625922 0.007322035 -0.020224798 -0.049527265
0.028232493 1.0691851e-15 -0.0148642985 -0.023280121 0.017561955 -1.13396315e-11 -0.025544995 0.0199779
-0.04149797 0.00094622385 0.008665624 0.03155317 -0.034528002 -0.031775728 -0.008673732 0.017045436
-0.07864029 -0.017641425 1.4498868e-08 0.045130175 -0.002338321 0.0065884423 0.03244845 0.05793402
0.008207336 0.03707053 -0.0013861913 -0.026802214 0.029666448 -0.04575007 0.04258774 -0.014437994
0.043772243 -0.05714865 -0.044303052 0.0046898043 0.021400776 0.02800377 -0.011724275 0.004907382
-0.0069894106 0.050122954 -0.024321215 0.032863695 1.3613736e-21 0.005602515 -1.8437125e-23 -0.03213295
0.018010058 -0.012677078 0.027991518 -3.5286323e-06 0.010345898 0.0036502413 -0.014102773 0.025703432
0.042071864 0.05644293 -0.007096567 0.02206485 0.047146443 0.03449267 -1.0955476e-06 -0.00620719
0.091594614 -0.002581563 -0.014488482 -0.033283237 0.022910532 -0.049363595 0.008483146 -0.059969723
0.010167051 0.020425973 0.007811251 0.008022146 -0.044678636 -0.03550269 -0.004409496 -0.017535932
0.014288312 0.051155124 0.0013406398 -0.02308155 3.1180254e-05 0.015528647 -0.024390593 -0.023548882
-0.004967118 0.019622995 0.0044435137 -1.6081553e-06 -0.044113133 0.026866665 0.016681409 0.0015174603
-0.030740904 -0.015235572 0.021001356 0.024203638 0.013655624 0.020954067 0.04349635 0.023295905
0.017697679 -0.002735674 -0.0028184797 0.027757006 0.034693267 0.023185179 0.021954874 -0.018921796
0.010718625 -0.004629583 -0.027405096 -2.1553123e-29 0.04204481 0.013747102 0.028195318 -0.041414756
0.013595969 -0.013922432 0.035655912 -0.018131044 0.03669471 0.010829647 -0.014854862 0.0065121185
-0.01129634 0.02770251 -0.005744178 -0.061548818 0.013325522 0.03266625 0.03237287 0.003603617
0.018040227 -0.07047976 0.008300035 0.025654653 0.0073010293 1.2883625e-14 0.0011797916 0.047556214
0.051493034 0.01776716 -0.04218615 -0.000420343 -0.058705825 0.042745292 -0.0033076282 -0.00086888234
0.06078327 0.03456213 1.8581857e-09 -0.033777032 0.0650867 0.015202398 -0.00080931897 0.073297605
0.035291955 0.017707948 0.045768585 0.00023808925 -0.0038792293 0.028766228 0.005356041 0.0069799344
-0.031088399 0.01818088 0.0041550077 0.02505916 0.01891416 0.0142226545 -0.015744751 0.029506585
0.01981125 0.035392717 -0.026070103 0.04888606 0.0036756825 0.054825686 0.040026672 0.04482084

pos_mlp.0.weight f4 [32, 1]
00000000: c7a5 0fb6 10a9 4c3f ee81 61bf 9098 a3ae
00000010: 5dd1 313f ec5e 6623 8262 02bb a4b2 d5bb
00000020: 69c6 8abe cd99 613a 822b 86ae bbb4 2f31
00000030: 4836 58be 83c6 02bf 63ff 0a37 6a4c 0731
00000040: ae5b 9d2a 65a3 063f 6779 3e3f 7903 bcbb
00000050: 130d 733f 6f4a 7a3f 16c3 933f 2d05 08bf
00000060: 49cc 913f 856d 893f 0ab8 203f 15c3 083c
00000070: 6b1a 1b3f ec2f 5b3f e8fe 3214 55c8 103b
-2.1405156e-06 0.7994547 -0.8808888 -7.4394824e-11 0.6946009 1.24884255e-17 -0.001989514 -0.0065215398
-0.271045 0.0008605987 -6.101343e-11 2.5568585e-09 -0.21114457 -0.51084155 8.284903e-06 1.9688522e-09
2.7952418e-13 0.5259307 0.74403995 -0.0057377187 0.94941825 0.97769827 1.154391 -0.531329
1.1390468 1.0736548 0.6278082 0.008347292 0.60587186 0.8562 9.036975e-27 0.0022092063

pos_mlp.0.bias f4 [32]
00000000: c7cf 4ab1 cdc4 073f c169 443f a8bc 85b9
00000010: 1b92 cf3e 653b 53b9 e614 c8bb 7737 64bc
00000020: 0cfc 873e 6b55 06bc f41d ccae a97d d9bb
00000030: 2a76 ba3e e181 e13e fdd6 a9bb 1967 c2bc
00000040: 7211 d0b9 831b a23e 751d c53d c0e3 d5bc
00000050: b983 6f3f 6bd5 1a3f 2bbd 613e 77b5 e23e
00000060: 909c e53c 8bac 27bf b17c 08bd cd76 4dbc
00000070: fef7 f4bc 58c0 e5be 03c6 2ab9 449c a0bc
-2.9512977e-09 0.5303467 0.7672387 -0.00025508297 0.40541157 -0.00020144654 -0.006106007 -0.0139292395
0.26559484 -0.008199076 -9.282167e-11 -0.0066372943 0.36418277 0.44044402 -0.0051830993 -0.023730801
-0.0003968585 0.31661615 0.09624759 -0.026109576 0.9356037 0.604819 0.22044818 0.44279072
0.028028756 -0.65497655 -0.03332204 -0.012540531 -0.029903408 -0.4487331 -0.00016286228 -0.019605763

pos_mlp.2.weight f4 [32, 32]
00000000: 741e 3b1a db8a 82af cc56 460c 7ced 661a
00000010: 51ec 929a ddad 0008 6241 4b2d 32ea bc06
00000020: 366b 6028 3cb1 9229 83ae 5c04 8776 0406
00000030: f43e 6b87 d770 f521 633d 391b 5e5d 632e
00000040: 7670 da8a f2f0 6aae 2f4f 3aa5 8332 d19f
00000050: 43be 7311 0045 70b1 1ef5 8fb0 7c6e 3915
00000060: 82af 0987 b0db 5387 99d7 d50c d1a1 0f95
00000070: 7a4f 622d 1b5e 9419 7381 cda2 ed03 6187
00000080: 43cd e6a5 bdb6 663e 147e 41be 6c2d 8c20
00000090: 6307 c83d 8db4 a1aa 1e78 6187 a51d 4009
000000a0: a743 bdbd 307f b62e d68f a126 3b81 e910
000000b0: 09a6 e2bd 4211 58be 8208 c305 6f8e fe0b
000000c0: 8c62 2e1f d760 4a3e d71d 703e 06aa f806
000000d0: 3c2d 903e b264 9c3e 5eec a83e 3083 afbe
000000e0: 2207 b53e d723 413e 7028 5c3e dd60 fb8a
000000f0: 5df4 923e fc94 ea3d 1a6c 7786 078a f1aa
00000100: 1fb8 f585 27e0 ef3d c723 c8be 8b9f 5c09
00000110: 4ea7 9c3e ebd0 192d 1e5e d51f dfe1 621c
00000120: e48d 3dbe 2989 fa2c 8901 0ea5 b12d 282b
00000130: 7693 3dbe a161 1fbe 467a f52d 1c5a 19ae
00000140: 0ff4 9204 2e49 1a3e 1a37 783e 4960 dc86
00000150: aeb3 7d3e ea6c 293e 5738 723e 3bcc bfbe
00000160: 4004 3c3e 1276 593e 891a 8c3e 5ad3 dc29
00000170: a76b bf3e fda5 303e bcb8 e589 5f51 d406
00000180: 6c7d 1cae 13f8 6c3e b632 d4bd 663c 4012
00000190: 6e06 ac3e 6859 2829 7a5c 432b bf77 aa2b
000001a0: a2ad a7be 6d4e 2595 7b98 c7a4 14d9 ee90
000001b0: 1fc5 55be 4d46 1fbe d1f5 23a2 295b d0a1
000001c0: e0a8 7c86 c4ed 5c3e a7fe ab3e bc9e ad24
000001d0: 3d96 933e eaae ca3d b397 4c3e 10b0 59be
000001e0: 34b8 123e 24fc 553e 8a81 c73e 0815 ee1e
000001f0: 401e b53e 2b62 453e e0e0 a20b ba8a 58ae
00000200: 3b0a 2e1f 3d5c 1bbd 9529 983e e7ff 4c25
00000210: c66f d0bb a927 3d0b 9865 c293 2ff5 c02e
00000220: b9c8 e23d 4842 631a 5bcd 1425 4ffb c9a8
00000230: 9944 a33e 9643 9b3e b8d8 5706 8465 f328
00000240: c58c 9685 2296 963d 2140 04be 8630 20ab
00000250: 6c0b 773e bfe4 e3bd 9620 6dbe d175 863e
00000260: ab0f 26be 56ca b5bd 73a9 93be 4e56 e4a5
00000270: 8b24 6abe 60a6 75bd b52b e89e 58e9 c320
00000280: eb15 910d 05b4 8d3c f767 9dbe b39b d704
00000290: 6249 873e a62d 9c2b c5df a221 c496 a60d
000002a0: 29a7 5ebe 7d2a 681e df0b 01a6 3fa0 7c8a
000002b0: 1e8b 4ebe 486f 39be 0d9c 2808 a605 398c
000002c0: df45 fdab 7e8e fb3d 5b51 b23e e972 3a1c
000002d0: d1a1 8b3e ac2f 853d 901e eb3d dbe2 32be
000002e0: 7736 9a3e 9a05 4f3e ed3b fe3d b41c 8d85
000002f0: 2a83 443e 9bd4 0c3e 114f 17a4 ffc4 f22a
00000300: d9c5 f10b d76b 6a3e 87fe 9bbe 0064 0625
00000310: 5d2c 6e3e 1ce3 a82e 9a00 1f19 4f3d 3608
00000320: f4c6 abbe 8650 5e1e e844 9fa5 aa8d 769a
00000330: 8ac0 d6bd b1b0 aebe 22c5 e00b 84fb 7887
00000340: 60c6 c59d 1983 033e 6f99 9b3e 9a21 0ba1
00000350: 69fe 883e be05 b03d 7191 db3d 24ae 53be
00000360: aa0a 8a3e 23f0 263e f2a1 c23e fe29 e60b
00000370: de73 833e c9d6 623e 8383 b821 cd36 2a93
00000380: 751c 9307 a878 713e 3b94 ffbd ce39 a8a4
00000390: e015 a33e b866 2e95 3379 5707 808c 9e8d
000003a0: 2578 18be 84c4 781a 91e2 12a5 4223 c52e
000003b0: 4eb1 6bbe 126b f5bd 04e7 d4a1 b332 9a0e
000003c0: 2da9 b3ad 5c4f 393d 88d1 453e 47e3 3a88
000003d0: 3b3f 933e b842 b43e 2f91 973e 30c1 c1be
000003e0: f88c 7d3e 9c31 4f3e a151 523e bc86 b4a0
000003f0: e5c2 563e 2bc9 3e3e 9e54 b004 129c a80a
3.8695293e-23 -2.3745525e-10 1.5279485e-31 4.7754724e-23 -6.0765974e-23 3.8722974e-34 1.1553732e-11 7.106186e-35
1.24577455e-14 6.514448e-14 2.5941008e-36 2.491352e-35 -1.7697935e-34 1.6631714e-18 1.5322676e-22 5.169675e-11
-2.103494e-32 -5.3419442e-11 -1.6159757e-16 -8.859851e-20 1.9227949e-28 -3.4963819e-09 -1.0474286e-09 3.744761e-26
-1.0358312e-34 -1.5938436e-34 3.2947604e-31 -2.900627e-26 1.286426e-11 1.534085e-23 -5.570242e-18 -1.6928272e-34
-4.003773e-16 0.22530647 -0.18895751 2.374698e-19 0.09767034 -2.8724627e-13 -1.6962418e-34 2.3125098e-33
-0.09241419 8.298995e-11 1.1210606e-15 9.2101407e-29 -0.11066825 -0.21100333 1.8340837e-35 9.805155e-32
3.692745e-20 0.19763504 0.23448883 9.353706e-35 0.2815951 0.30545574 0.32992834 -0.34279776
0.35357004 0.18861328 0.214998 -2.4206857e-32 0.2870206 0.11454198 -4.6534957e-35 -4.2905976e-13
-2.3107325e-35 0.117126755 -0.39089796 2.6556553e-33 0.30596393 8.743432e-12 9.036471e-20 7.506906e-22
-0.18511158 7.120655e-12 -1.2317057e-16 5.9749e-13 -0.18513283 -0.15564586 2.7907576e-11 -3.4868206e-11
3.4548567e-36 0.15066978 0.2423977 -8.289628e-35 0.24775574 0.16545454 0.23654304 -0.37460503
0.18360996 0.21236446 0.27363995 9.806626e-14 0.3738682 0.1725082 -5.5303468e-33 7.98651e-35
-3.558169e-11 0.23141508 -0.10361235 6.0658964e-28 0.33598655 3.738104e-14 6.9406254e-13 1.2112463e-12
-0.3274966 -3.3383352e-26 -8.6560805e-17 -9.420891e-29 -0.20875977 -0.15554161 -2.2220753e-18 -1.4118758e-18
-4.7520002e-35 0.21575075 0.33592722 7.52957e-17 0.2882556 0.098966435 0.19979744 -0.21258569
0.1432808 0.20896965 0.38966018 2.5207929e-20 0.3537464 0.1927573 6.2738484e-32 -4.9235928e-11
3.6854396e-20 -0.037929762 0.29719225 1.7780883e-16 -0.0063609807 3.6429913e-32 -4.9072664e-27 8.7747025e-11
0.11073441 4.699604e-23 1.2906531e-16 -2.242447e-14 0.31888273 0.30325 4.0596225e-35 2.7022445e-14
-1.4157643e-35 0.07352854 -0.12915088 -5.691076e-13 0.24125451 -0.11127614 -0.23156962 0.26261762
-0.16216914 -0.08876483 -0.28840217 -3.9610178e-16 -0.22865503 -0.05997312 -2.4582032e-20 3.31887e-19
8.9415915e-31 0.017297754 -0.3074338 5.0689244e-36 0.26423174 1.1097137e-12 1.1036778e-18 1.0266835e-30
-0.21743454 1.2290764e-20 -4.4771954e-16 -1.21634976e-32 -0.20170256 -0.18108857 5.07391e-34 -1.4253581e-31
-1.7996124e-12 0.122830376 0.34827694 6.1690755e-22 0.27271894 0.06503233 0.11480439 -0.17469351
0.30119678 0.2021698 0.12413774 -1.327012e-35 0.1919066 0.13752978 -3.2809877e-17 4.312453e-13
9.312751e-32 0.228927 -0.30467626 1.1656529e-16 0.23259111 7.680098e-11 8.220229e-24 5.48407e-34
-0.33550227 1.1769234e-20 -2.7628796e-16 -5.0986043e-23 -0.10485943 -0.3411918 8.6578274e-32 -1.873136e-34
-5.235058e-21 0.12842979 0.30390498 -4.7139503e-19 0.267566 0.08594845 0.107211 -0.20671898
0.2696126 0.16302542 0.3801418 8.865596e-32 0.25674337 0.22152247 1.2503136e-18 -2.1484035e-27
2.2134827e-34 0.23581183 -0.124794446 -7.295631e-17 0.31852627 -3.522005e-26 1.621042e-34 -9.771326e-31
-0.14889582 5.1443942e-23 -1.2740245e-16 8.964786e-11 -0.23016855 -0.11983313 -1.4426828e-18 3.8012753e-30
-2.0425073e-11 0.0452417 0.19318211 -5.62395e-34 0.2875918 0.35207152 0.29602954 -0.37842703
0.24760807 0.20233768 0.20538951 -3.0582346e-19 0.20972784 0.18631427 4.145511e-36 1.6236519e-32

pos_mlp.2.bias f4 [32]
00000000: b372 ae2c 11e2 043d e42f 323d 665a f4bc
00000010: 35d6 4d3e c2ad bc3d 88cc 4b3d 74a6 193b
00000020: ac36 8d3d cf69 d43c d753 d13d b45b d225
00000030: 207c 2d3d b12a abbd e723 31be e918 f33d
00000040: af3d 203e ad19 513d c5c7 4e3e 0b53 be3d
00000050: 56e5 e53d 475d d93d 74a9 9387 d7c5 ed3c
00000060: f2b9 4186 3cd5 5c3e 91d6 ecbb fa25 9d3d
00000070: 0378 d927 f0d7 8e86 1e49 b086 8d4a 2e3d
4.9581116e-12 0.032442156 0.043502703 -0.029828262 0.20101245 0.09212829 0.049755603 0.002344516
0.068951935 0.02592936 0.10221069 3.6491333e-16 0.042354703 -0.08357752 -0.17298852 0.118699856
0.1564853 0.051049877 0.20193394 0.09293183 0.11225383 0.10613494 -2.2217697e-34 0.029025001
-3.6435877e-35 0.21565717 -0.0072277267 0.07673259 6.0359716e-15 -5.3731755e-35 -6.631128e-35 0.042551566

dec_trunk.0.weight f4 [128, 288]
00000000: 1495 d53c 4f83 b4bc c67d a33c e6fc 35bc
00000010: a8b2 763c 3bd9 953c 65f8 a83c aec0 483b
00000020: 9a28 933c c505 a087 fcd8 1dbd 7c12 2dbd
00000030: bff3 f0bc 7bd2 a4bc 3506 173c 87d2 593c
00000040: 8549 993b 2630 34bb f6bb d7bb c625 63bc
00000050: b4ee 663c 4aeb c23a 951a b03c 5df3 b53c
00000060: 4d60 9fbb d42e c23c 4170 473c 3bb7 0007
00000070: 77ca 3c8b c4b0 9e3c 25dd 133d c665 cd3c
00000080: d6fc 90bb de2d 0d3d 2bca fc3c de54 6abc
00000090: b1c7 d83a ea4f ff3c 23f8 3f3d 7436 97bc
000000a0: b834 2786 01f3 3c3d 35c9 80bc ead1 1c3d
000000b0: 5ebf b73a d6eb 59bd 8266 313c 3e14 0d87
000000c0: 7194 423c f597 cabb bb44 043d b8be 6cbd
000000d0: 2697 e6bc 00c4 473c 7d99 e2bc 99af 363d
000000e0: ee8f 14bd 1604 3e3d 4a1d 2188 5391 223d
000000f0: 5d9b 963c 0325 40bd 6b64 313d c643 0fbd
00000100: 3f02 05bc e4b2 2aba 7611 73bc 67eb f5bc
00000110: c7cd f9bc 43d8 073d f3d9 043d 820d fc3b
00000120: aab5 173d e654 1607 afd3 83bb 2ded a53c
00000130: a579 272f 6633 580e 292b 12bd a363 00bd
00000140: 8cf0 c13c 70ef 9b3c 9c4c e73b 1202 dc3c
00000150: ccf9 ae3c d5d3 2ebd c57e 203d a11f 1e3d
00000160: 66d2 f33c 0340 163c 6dcc 300a e896 9eab
00000170: 1e03 a13c 7e2c a03c df40 8c3c 8e91 a6b9
00000180: 6282 8b3c ea74 bfb6 a1d9 f83c ba0d 22bd
00000190: 9c41 3b86 0913 643c c373 2e3d 1ce9 77bd
000001a0: a36d a9bc c05c bbbc 8bac c13b eb8b d1bc
000001b0: a37d 32bd 5602 343d 770d 0dbd c56d ba3b
000001c0: f4ea 8a3c ff72 05ba becb 2b3d 9f47 028c
000001d0: e987 000c 18e1 12bd e89e b005 cbfb d13c
000001e0: 7203 013d 40a8 8fbc fc03 b0bc 9ce9 990d
000001f0: 2adc 37bd 7130 c63b f3ad 813c a920 ff3b
00000200: b54a ddbc 79e5 55bd 9b59 29bd 6a6a 24ba
00000210: 3c6c 1ebc 49f2 01bd a0cc c907 0d1c 0b3d
00000220: 29ac 0b3d 1546 16bd d1c8 38bc ba7d 61bb
00000230: 4472 5d3c f9ee 453d 3de2 47bd 4795 15bd
00000240: 418f d3bc 7510 43bc 3f50 f0bc 3757 333c
00000250: 3e07 bfbc dc8a cdbc 8e28 353d 66fb 90ba
00000260: e406 553b 5c5e f1bc 84a9 fdbc 1ae4 b53c
00000270: 2b25 8a8a 818d 18bd 21c2 93bc 6757 a1bc
00000280: 14e5 67bd 06aa c4bb 685b 523d 6410 ad8c
00000290: 0a4d 40bd e804 663c 36e6 838c 146f 3d8b
000002a0: c188 54bd cfd9 09bd 51af 72bd 5191 6cbc
000002b0: 31d1 bcba f9fe c93c 6a4d 293d 2a4a 9e86
000002c0: 1376 5dbb a8ba bbbc 4838 d03c 1f7d b5bc
000002d0: 4805 98bc d514 ffbc b552 e3bc 2f55 1ebd
000002e0: a992 eb3b fc86 44bd aa11 80bd cad5 8207
000002f0: 282b 40bd b2ee 01bc b009 eb3c db0c 28bd
00000300: 8872 7abd 97aa eabc 2ff6 0786 d65e a4ba
00000310: 1f36 e03c f2e1 e13c f1b7 973c fad2 abbc
00000320: 366e 833c 9ce4 f2bc f00c 813c 0db9 11bc
00000330: c709 10bd 828f 86bc 611f c23c 5725 abbc
00000340: 1046 49bb b686 d7bb 30f8 293d b308 003d
00000350: 160e 8335 40b1 f205 75ca 19bd ed68 123d
00000360: d4bd 20bd 95ab 02bd 4bc2 f8bc 1c37 8108
00000370: 90fd 4c3c fed6 aebc a692 423d 193d 433d
00000380: 9fff 5e3c 4919 0c3c 9b6f 3907 b822 df3c
00000390: cf13 c43c 8ad5 113d 7f72 2987 1658 9db9
000003a0: af0f 3ebd 1a31 9abc fb28 f4ba 134a 6f3b
000003b0: 5dd9 2c3d 2d56 743c 54ec 2abd 00cb b23b
000003c0: f788 a03c 52de 5c3c b561 e33c 0188 7a3c
000003d0: 94e9 12bd 6f67 04bc 4a44 473b f8a2 4887
000003e0: 1962 b9bc 8ba6 b23c ebb6 6c3c 7007 2abd
000003f0: 54c2 6bbd 7447 7d84 5c76 fa3c 27e8 edbc
0.026072063 -0.022035269 0.019957434 -0.011107659 0.015057243 0.01829206 0.020626256 0.0030632424
0.017963696 -2.4077515e-34 -0.03853701 -0.042253956 -0.029413102 -0.020119896 0.009217788 0.013294823
0.0046779537 -0.002749452 -0.006583686 -0.013863986 0.014094997 0.0014871147 0.02149705 0.022210771
-0.004863775 0.02370397 0.0121727595 9.683496e-35 -3.63598e-32 0.019371398 0.03609957 0.025072943
-0.0044246716 0.03446757 0.03085812 -0.0143024605 0.0016539005 0.031166036 0.0468675 -0.018458582
-3.144794e-35 0.046130184 -0.015720943 0.038286127 0.0014018824 -0.053203426 0.010827662 -1.061361e-34
0.0118762115 -0.0061826655 0.03229211 -0.05779907 -0.028148245 0.012192726 -0.02766108 0.044601057
-0.036270075 0.046390615 -4.8483604e-34 0.039689373 0.01838463 -0.046910297 0.043308657 -0.034976743
-0.008118211 -0.0006511642 -0.014835706 -0.030019475 -0.03049363 0.033165228 0.032434415 0.00769204
0.037038483 1.1309695e-34 -0.0040230374 0.020254696 1.5231778e-10 2.6648803e-30 -0.035685692 -0.03134502
0.023674272 0.019035071 0.007058693 0.026856456 0.021359347 -0.042682488 0.039183397 0.038604382
0.029763412 0.009170535 8.51254e-33 -1.126846e-12 0.019654807 0.019552466 0.017120777 -0.00031770434
0.017029945 -5.705854e-06 0.030377211 -0.039563872 -3.5218993e-35 0.013920554 0.042590868 -0.060525045
-0.020682162 -0.022871375 0.0059104613 -0.025579413 -0.043576848 0.04394754 -0.03443667 0.005689355
0.016957738 -0.0005090683 0.04194235 -1.0036388e-31 9.90166e-32 -0.035859197 1.6609333e-35 0.02563276
0.031497426 -0.017536283 -0.021486275 9.485592e-31 -0.0448877 0.006048255 0.015830016 0.007785876
-0.027013162 -0.052220795 -0.04134522 -0.00062719604 -0.00966936 -0.0317252 3.0363386e-34 0.0339623
0.03409973 -0.03668793 -0.011278347 -0.0034407214 0.013516013 0.048323605 -0.048799742 -0.036519315
-0.025825145 -0.011905779 -0.02933514 0.010946087 -0.023318883 -0.025090627 0.04422813 -0.0011061251
0.0032505328 -0.02946394 -0.03096462 0.022203494 -1.3302898e-32 -0.037244324 -0.018036904 -0.019694997
-0.05661495 -0.0060017137 0.051356703 -2.6664735e-31 -0.04694847 0.014039256 -2.03223e-31 -3.6483642e-32
-0.05188823 -0.033654984 -0.059249226 -0.014438943 -0.0014405606 0.024657713 0.041333593 -5.954197e-35
-0.0033792302 -0.022916153 0.025417462 -0.022154389 -0.018557206 -0.031137863 -0.027749399 -0.038655456
0.007189114 -0.047980294 -0.06253369 1.968588e-34 -0.046916157 -0.007930445 0.028691143 -0.041027885
-0.06114438 -0.028645797 -2.5571545e-35 -0.001254047 0.027369557 0.02757356 0.018520327 -0.020974625
0.016043764 -0.029650025 0.01575324 -0.008894217 -0.035165574 -0.016425852 0.023696603 -0.020891828
-0.0030711927 -0.006577338 0.041496456 0.031258296 9.76436e-07 2.2822682e-35 -0.037546594 0.035744596
-0.039243534 -0.031901915 -0.030366084 7.776861e-34 0.012511626 -0.02134275 0.047503136 0.04766569
0.0136107495 0.00855095 1.3950651e-34 0.027238235 0.023935227 0.035604037 -1.2747794e-34 -0.00030011003
-0.046401676 -0.018822242 -0.0018627936 0.0036512658 0.04219948 0.014913124 -0.041729286 0.0054563284
0.01959656 0.01348074 0.027756551 0.015291215 -0.03586729 -0.008081301 0.0030405694 -1.509422e-34
-0.022629784 0.02180793 0.014447908 -0.041511 -0.057558373 -2.9772817e-36 0.030574016 -0.029041363

dec_trunk.0.bias f4 [128]
00000000: 2e60 d9bc a63d b33c 993d c9bc 0e38 341b
00000010: 6375 31bd 7881 e83c 675c 9c19 89ea 1b3d
00000020: f765 7e3c 4ae8 963a d1c4 62bd f03e 453d
00000030: d0a3 249a 07b6 09bd 8be2 cf3b 6a61 9224
00000040: bdee 453a 21c4 e70d 6adc a8bb 255a 79bd
00000050: 82b1 c4a1 6327 97bc 5e5d b4bb 47ba 61b3
00000060: 64b4 1dbd b40a b83c 3bd5 8abd 4383 37bd
00000070: d5b1 34bd fef2 96a3 16c7 b23c 21e8 773c
00000080: 61b0 d3a2 c8af a38f e211 30bc 8246 a0bc
00000090: 673b 1a3d 0429 3539 baa5 3fbd 9768 433c
000000a0: 4610 a93b 8115 0829 ac4c 0f3d 7984 7019
000000b0: fdc4 183c 3396 6c1d 10b2 c7bc 2cd7 a9bc
000000c0: 1c99 86bd d4e4 11bd e6cf 0b25 9d44 1325
000000d0: 1fc6 aebc fb7d 08bd 4292 6d3c 6244 f1bc
000000e0: 567a f9aa a401 253d ea4a c2a1 8eb8 0091
000000f0: 6286 c7bb 1378 9cb7 04a3 1a3b 8e67 d7af
00000100: 1b75 e51d 56a6 fabc ba17 883d 9497 e4b5
00000110: 8492 9f9f 14fa 9d26 b321 043d 834b 1d95
00000120: 273f cab7 46b4 c9bc e86d c6aa f360 77bc
00000130: 23b3 63bd 9964 953b 5cb3 c62d a701 0f39
00000140: b453 253d 0abe 753d 3997 d53b 8dac bcbc
00000150: 1166 9c3c 8ec9 e2a0 9e79 a61e e1c7 98bc
00000160: 2a91 5839 f162 a637 6e1a 0f3d 01f6 ce3c
00000170: e47f 96bc d976 773c 95b6 463c 0e90 57bc
00000180: 5f0c 61bc 6a9a 361e 43af cbaa 0c00 869c
00000190: c103 c93c f424 f6bc 3e5a 773c 5b79 aebb
000001a0: 3f74 03bb d801 5ebd f8f6 273d 1b14 58bd
000001b0: 1a1f 2d3c 8dbc 61a3 a6fb 80b9 f116 c33a
000001c0: 5cde 271f bab7 cfaf 62e7 ed9e 83f3 5eb9
000001d0: 40d7 1cbd 23e2 1b3d 6237 be1e 2f9a f73c
000001e0: d987 ac3b bfeb 7abc 28c7 2d1f e44b 32ba
000001f0: 843b 79bd ce67 f8bb 4bf6 10bd bc3a 7e22
-0.02653512 0.021879982 -0.024565505 1.4907363e-22 -0.04332484 0.028382048 1.6167343e-23 0.038065467
0.01552724 0.0011513319 -0.05536348 0.048155725 -3.4046732e-23 -0.03362086 0.0063441447 6.348243e-17
0.00075505284 1.428369e-30 -0.0051532285 -0.060876984 -1.3328463e-18 -0.018451398 -0.0055042943 -5.2556313e-08
-0.038502112 0.022466041 -0.06778952 -0.044802915 -0.044114906 -1.6365944e-17 0.021823447 0.015131027
-5.7378413e-18 -1.614075e-29 -0.010746451 -0.01956487 0.037654307 0.00017276785 -0.04678891 0.011926792
0.0051594106 3.0216718e-14 0.03498523 1.2434462e-23 0.009324309 3.1311991e-21 -0.024376899 -0.020732485
-0.06572172 -0.035618618 1.2126767e-16 1.2773465e-16 -0.021334706 -0.03332327 0.014500203 -0.029451553
-4.4316173e-13 0.040284768 -1.3165781e-18 -1.015429e-28 -0.0060890177 -1.8652563e-05 0.00235957 -3.9181852e-10
6.073688e-21 -0.030596893 0.066451505 -1.7031439e-06 -6.758151e-20 1.0961847e-15 0.0322587 -3.1765466e-26
-2.4109684e-05 -0.024622094 -3.5248128e-13 -0.015098798 -0.05559076 0.0045591113 2.2589645e-11 0.00013638158
0.04036303 0.05999569 0.0065182713 -0.023031497 0.019091638 -3.8419267e-19 1.7626233e-20 -0.018649997
0.00020653443 1.9834815e-05 0.034937315 0.025263788 -0.01837153 0.015104019 0.012128492 -0.013156904
-0.01373586 9.666932e-21 -3.6181656e-13 -8.867388e-22 0.024537923 -0.030046917 0.015097199 -0.0053245253
-0.0020058302 -0.054200977 0.041007012 -0.05275355 0.010566497 -1.2237202e-17 -0.00024601555 0.0014884156
3.5547557e-20 -3.7783626e-10 -2.5189049e-20 -0.00021262285 -0.038291216 0.038057458 2.0139938e-20 0.030224888
0.0052652177 -0.015314995 3.6798913e-20 -0.000680147 -0.060847774 -0.007580734 -0.035391133 3.4454513e-18
