pointnet/weights_per_bundle_ratio025/POPT_left_best.pth (torch, 359761 bytes, 17 tensors)

t_grid f4 [100]
0	0x00000000	0.0
1	0x3c257eb5	0.01010101
2	0x3ca57eb5	0.02020202
3	0x3cf83e10	0.030303031
4	0x3d257eb5	0.04040404
5	0x3d4ede62	0.05050505
6	0x3d783e10	0.060606062
7	0x3d90cede	0.07070707
8	0x3da57eb5	0.08080808
9	0x3dba2e8c	0.09090909
10	0x3dcede62	0.1010101
11	0x3de38e39	0.11111111
12	0x3df83e10	0.121212125
13	0x3e0676f3	0.13131313
14	0x3e10cede	0.14141414
15	0x3e1b26ca	0.15151516
16	0x3e257eb5	0.16161616
17	0x3e2fd6a0	0.17171717
18	0x3e3a2e8c	0.18181819
19	0x3e448677	0.1919192
20	0x3e4ede62	0.2020202
21	0x3e59364e	0.21212122
22	0x3e638e39	0.22222222
23	0x3e6de624	0.23232323
24	0x3e783e10	0.24242425
25	0x3e814afd	0.25252524
26	0x3e8676f3	0.26262626
27	0x3e8ba2e9	0.27272728
28	0x3e90cede	0.28282827
29	0x3e95fad4	0.2929293
30	0x3e9b26ca	0.3030303
31	0x3ea052bf	0.3131313
32	0x3ea57eb5	0.32323232
33	0x3eaaaaab	0.33333334
34	0x3eafd6a0	0.34343433
35	0x3eb50296	0.35353535
36	0x3eba2e8c	0.36363637
37	0x3ebf5a81	0.37373737
38	0x3ec48677	0.3838384
39	0x3ec9b26d	0.3939394
40	0x3ecede62	0.4040404
41	0x3ed40a58	0.41414142
42	0x3ed9364e	0.42424244
43	0x3ede6243	0.43434343
44	0x3ee38e39	0.44444445
45	0x3ee8ba2f	0.45454547
46	0x3eede624	0.46464646
47	0x3ef3121a	0.47474748
48	0x3ef83e10	0.4848485
49	0x3efd6a05	0.4949495
50	0x3f014afd	0.5050505
51	0x3f03e0f8	0.5151515
52	0x3f0676f3	0.5252525
53	0x3f090cee	0.53535354
54	0x3f0ba2e9	0.54545456
55	0x3f0e38e4	0.5555556
56	0x3f10cede	0.56565654
57	0x3f1364d9	0.57575756
58	0x3f15fad4	0.5858586
59	0x3f1890cf	0.5959596
60	0x3f1b26ca	0.6060606
61	0x3f1dbcc5	0.61616164
62	0x3f2052bf	0.6262626
63	0x3f22e8ba	0.6363636
64	0x3f257eb5	0.64646465
65	0x3f2814b0	0.65656567
66	0x3f2aaaab	0.6666667
67	0x3f2d40a6	0.6767677
68	0x3f2fd6a0	0.68686867
69	0x3f326c9b	0.6969697
70	0x3f350296	0.7070707
71	0x3f379891	0.7171717
72	0x3f3a2e8c	0.72727275
73	0x3f3cc486	0.7373737
74	0x3f3f5a81	0.74747473
75	0x3f41f07c	0.75757575
76	0x3f448677	0.7676768
77	0x3f471c72	0.7777778
78	0x3f49b26d	0.7878788
79	0x3f4c4867	0.7979798
80	0x3f4ede62	0.8080808
81	0x3f51745d	0.8181818
82	0x3f540a58	0.82828283
83	0x3f56a053	0.83838385
84	0x3f59364e	0.8484849
85	0x3f5bcc48	0.85858583
86	0x3f5e6243	0.86868685
87	0x3f60f83e	0.8787879
88	0x3f638e39	0.8888889
89	0x3f662434	0.8989899
90	0x3f68ba2f	0.90909094
91	0x3f6b5029	0.9191919
92	0x3f6de624	0.9292929
93	0x3f707c1f	0.93939394
94	0x3f73121a	0.94949496
95	0x3f75a815	0.959596
96	0x3f783e10	0.969697
97	0x3f7ad40a	0.97979796
98	0x3f7d6a05	0.989899
99	0x3f800000	1.0

encoder.mlp.0.weight f4 [64, 3]
0	0xbdc17111	-0.09445394
1	0xbe360b3a	-0.1777772
2	0xbec42d00	-0.38315582
3	0xbe2e15a8	-0.17000449
4	0x3ec55ba9	0.38546494
5	0xbecfe00f	-0.4060063
6	0x3ecbbeff	0.39794156
7	0xbf0eeddf	-0.5583171
8	0xbeb236fd	-0.34807578
9	0x3ed020de	0.40650076
10	0xbe97a225	-0.29615894
11	0xbedd9787	-0.4327967
12	0xbe92529d	-0.28578654
13	0xbee4ef01	-0.44713596
14	0xbe115845	-0.14193828
15	0x3e8d3488	0.2757914
16	0xbdc08b34	-0.09401551
17	0xbe36263e	-0.17788026
18	0xbeed3660	-0.46330547
19	0xbbde19ce	-0.0067779785
20	0x3f0e7d60	0.5566006
21	0xbbc531cf	-0.0060179005
22	0x3cdcc2ab	0.026948294
23	0xbac29021	-0.0014843979
24	0x3e8bffae	0.27343506
25	0xbe847a52	-0.25874573
26	0xbdef3857	-0.11680668
27	0xbe7aa0ad	-0.24475355
28	0x3e9c3c66	0.3051483
29	0xbdf85de5	-0.12127284
30	0x3e6b9af7	0.23008333
31	0x3edff73c	0.43743312
32	0xbed9cced	-0.42539158
33	0xbeb82b8b	-0.3597072
34	0x3eef8c5d	0.46786776
35	0x3eec2c87	0.46127722
36	0xbd75fbf0	-0.06005472
37	0xbf111244	-0.56668496
38	0xbca9f043	-0.020744449
39	0xbeb6ef56	-0.35729474
40	0x3ee5e89c	0.4490403
41	0x3ebb3894	0.36566603
42	0xbf0f978f	-0.56090635
43	0x3e364f29	0.17803635
44	0xbf00ee7c	-0.503639
45	0x3edf47a7	0.43609354
46	0xbe45ac9c	-0.19304127
47	0xbebd35e7	-0.36955187
48	0x3e59fff6	0.21289048
49	0x3ea9da28	0.33174253
50	0x3e8c69f4	0.27424586
51	0x3d50cfc8	0.050979406
52	0xbc7b62eb	-0.015343408
53	0xbdea6515	-0.11445061
54	0xbee7a982	-0.45246512
55	0xbe9a9889	-0.301945
56	0x3eac9d46	0.3371374
57	0xbeb47227	-0.3524334
58	0xbcf29c32	-0.029615495
59	0x3e8f6600	0.28007507
60	0x3e9460b7	0.28980038
61	0xbe3f0c70	-0.18657088
62	0xbec1bdf7	-0.37840244
63	0x3e6eac02	0.23307803
64	0xbbf4a88a	-0.0074663805
65	0xbe111142	-0.1416674
66	0x3d5293d7	0.051410522
67	0xbf0638c6	-0.5243038
68	0x3dce3d0b	0.10070237
69	0x3e73d0fd	0.23810191
70	0x3e26c193	0.1628478
71	0x3eec039c	0.46096504
72	0x3e71b156	0.23602805
73	0xbe39503d	-0.18097015
74	0xbec1a301	-0.37819675
75	0x3ea6a888	0.32550454
76	0xbe60e127	-0.21960889
77	0x3dc0954b	0.094034754
78	0xbe6e7500	-0.2328682
79	0x3ede78c3	0.4345151
80	0x3eec9d30	0.46213675
81	0x3e89d879	0.26922968
82	0xbe354eae	-0.17705795
83	0x3ead6059	0.3386257
84	0xbb3dcb17	-0.0028960162
85	0xbcf7de18	-0.03025727
86	0xbe33854b	-0.17531316
87	0x3e584ec7	0.21123801
88	0x3ee5796e	0.44819206
89	0xbf0155aa	-0.5052134
90	0x3a564d77	0.00081749953
91	0x3924e472	0.00015725361
92	0x254e2f20	1.7883618e-16
93	0xbe7d1c28	-0.24717772
94	0x3ed3e4df	0.41385552
95	0xbe039414	-0.12849456
96	0x3e95e2b6	0.2927453
97	0xbe25538d	-0.16145153
98	0xbed33523	-0.41251478
99	0xbe6d9c97	-0.23204266
100	0xbeca6eb3	-0.39537582
101	0xbe85f4e0	-0.26163387
102	0x3ec56232	0.3855148
103	0xbed4280c	-0.41436803
104	0xbea6f764	-0.3261062
105	0xbec66fba	-0.38757116
106	0xbe003715	-0.12521012
107	0xbe806212	-0.25074822
108	0x3ed1b4f3	0.40958366
109	0x3eada9a1	0.3391848
110	0x3e8fdfae	0.28100342
111	0xbe8128f8	-0.2522657
112	0xbdb2fc25	-0.08739499
113	0x3e962ee3	0.29332647
114	0xbe357414	-0.17720062
115	0x3e825a76	0.2545964
116	0xbf02d181	-0.5110093
117	0x3d73b997	0.059503164
118	0xbce011d6	-0.027352255
119	0xbea6ed64	-0.3260299
120	0x3e8961c5	0.26832405
121	0xbe163085	-0.14666946
122	0xbeadc2da	-0.33937722
123	0xbc5d88f5	-0.013521423
124	0x3d7f1b46	0.06228187
125	0xbb9e0983	-0.004822911
126	0xbefbcf65	-0.49181667
127	0x3e62a35b	0.22132628
128	0x3d37b5f6	0.044851266
129	0x3e95baed	0.29244176
130	0x3f036363	0.5132353
131	0x3ef7b477	0.4837987
132	0xbe03cee0	-0.12871885
133	0xbe9d2aef	-0.30696818
134	0x3ee5d13a	0.4488619
135	0xbd8504bb	-0.06495043
136	0xbf103b1d	-0.563402
137	0xbc81aa0a	-0.015828151
138	0xbd94a0f3	-0.07257261
139	0x3d06e41a	0.03293238
140	0x3db2d73c	0.08732459
141	0xbed61b12	-0.41817528
142	0x3e971533	0.2950836
143	0xbd9051fc	-0.07046887
144	0x3eb11894	0.34589064
145	0xbe06f3f9	-0.13179006
146	0xbdb9adf6	-0.090663835
147	0x3ed39e81	0.41331866
148	0xbeb21f8a	-0.34789687
149	0xbd80c417	-0.06287401
150	0xbc54a814	-0.012979526
151	0x3e638a61	0.22220756
152	0x3ee346b6	0.44389886
153	0xbeab1140	-0.33411598
154	0xbf02226a	-0.5083376
155	0x3d9e8fde	0.07742284
156	0x3ed1aaec	0.40950716
157	0xbc16ac42	-0.009196343
158	0x3f070dd0	0.5275545
159	0x3ef0cf67	0.47033235
160	0x3ec0c6a9	0.37651566
161	0x3ed2717f	0.41102216
162	0xbeed56f7	-0.4635541
163	0xbd163755	-0.036673862
164	0xbe41c5ed	-0.18923159
165	0x3d7b9c5b	0.06142841
166	0xbf090961	-0.53529936
167	0x3e1bcfa5	0.15215929
168	0x39e61ea4	0.00043891848
169	0x38103534	3.4381825e-05
170	0x3520c50d	5.989139e-07
171	0xbea0fb54	-0.31441748
172	0xbeb7be77	-0.358875
173	0x3db4a776	0.08821003
174	0xbe136150	-0.1439259
175	0xbe816683	-0.25273523
176	0xbe9b990c	-0.30390203
177	0x3f060903	0.523575
178	0xbea4cc90	-0.3218732
179	0x3ed943e5	0.42434612
180	0x3e4170a0	0.1889062
181	0x3ee73036	0.4515397
182	0x3e961368	0.2931168
183	0x3e3321a5	0.17493303
184	0x3eca4c83	0.395115
185	0x3ec3d073	0.38244972
186	0x3eaf849c	0.3428086
187	0x3c7bb294	0.015362401
188	0x3da50dd0	0.08059275
189	0x3e32e453	0.17469911
190	0x3ec4de26	0.38450736
191	0xbf0bb734	-0.5457642

encoder.mlp.0.bias f4 [64]
0	0x3ea69c38	0.3254106
1	0xbe3f6523	-0.18690924
2	0xbe248f01	-0.16070177
3	0x3e0dca82	0.13846782
4	0xbd719311	-0.058978144
5	0x3e827fee	0.25488228
6	0x3ca0afb9	0.019615041
7	0x3b0725b6	0.0020621843
8	0x3dd02e1f	0.10165047
9	0x3cde6e39	0.027152168
10	0x3ca919f0	0.02064225
11	0xbe286951	-0.16446425
12	0x3c007ab1	0.007841752
13	0x3c5c0ee4	0.013431285
14	0xbe3953b7	-0.18098341
15	0x3dc54bdc	0.0963361
16	0x3d5791d0	0.052629292
17	0x3d632400	0.055454254
18	0xbd9b753b	-0.07590719
19	0x3e03f690	0.12887025
20	0xbc76396b	-0.015028338
21	0x3d5a8961	0.05335367
22	0x3e6345aa	0.22194543
23	0x3d81125e	0.063023314
24	0xbc23f946	-0.010008162
25	0xbea577d7	-0.32317993
26	0x3ba7c828	0.005120296
27	0x3dd177c1	0.10227919
28	0xbce8f0c9	-0.028435128
29	0x3d868002	0.06567384
30	0x2376bb54	1.3375355e-17
31	0xbda1a379	-0.07892508
32	0x3dccba36	0.099964544
33	0x3dbad7ed	0.09123216
34	0x3c86bdd3	0.016447937
35	0x3bf92503	0.007603289
36	0x3a18e95d	0.00058331137
37	0x3de4dfd4	0.11175504
38	0xbe71dcf6	-0.23619446
39	0x3b8f5965	0.0043746703
40	0xbd2d59d2	-0.042321987
41	0x3b843cdc	0.0040355753
42	0x3aafbf03	0.0013408366
43	0xbd4f6780	-0.050635815
44	0x3da0f565	0.07859305
45	0xbdefe62e	-0.11713825
46	0xbe4a4961	-0.19754554
47	0xbe5ca1f2	-0.21546152
48	0xbdc12ece	-0.094327554
49	0xbdd5d42e	-0.10440861
50	0x3e0742f8	0.1320914
51	0xbdc5d469	-0.09659655
52	0x3d3469f6	0.044046365
53	0x3e1e837f	0.1547985
54	0xbd55e3fb	-0.052219372
55	0x3e31c0ed	0.17358752
56	0x37ad404b	2.0653146e-05
57	0xbdae1b28	-0.085012734
58	0x3d7abb87	0.061213996
59	0x3e8a5b8b	0.27022967
60	0xbc22cbbb	-0.009936268
61	0x3d92a15a	0.071596816
62	0x3d796d6f	0.06089538
63	0x3d2f7ddc	0.04284464

encoder.mlp.2.weight f4 [128, 64]
0	0xa2942218	-4.015158e-18
1	0xa1c7b02e	-1.3531399e-18
2	0xa28f44d5	-3.8833106e-18
3	0x21c46fe1	1.3311091e-18
4	0xa6a2f55c	-1.1307513e-15
5	0xa228dfc9	-2.2886716e-18
6	0xa7e80607	-6.439947e-15
7	0xa047a212	-1.690958e-19
8	0xa24f4f7f	-2.8095816e-18
9	0xa5c85ea7	-3.4758608e-16
10	0x21c3fdeb	1.3280926e-18
11	0xa80da51f	-7.862877e-15
12	0xa6e3954f	-1.5791759e-15
13	0xa5931082	-2.551162e-16
14	0xa6152349	-5.174258e-16
15	0x21e386df	1.5417818e-18
16	0xa65b8104	-7.6155737e-16
17	0xa0d03091	-3.526871e-19
18	0xa5e73509	-4.010805e-16
19	0xa68212a7	-9.025618e-16
20	0x21ed4c47	1.6079935e-18
21	0x20089047	1.1567385e-19
22	0x2739cc24	2.5784572e-15
23	0xa74fa979	-2.8818892e-15
24	0x2317c29c	8.2269365e-18
25	0x265a1d07	7.5673283e-16
26	0x27af23b1	4.8610954e-15
27	0xa717a5d0	-2.1045347e-15
28	0xa2b925e7	-5.018448e-18
29	0x26334dce	6.2208545e-16
30	0x10181926	2.9996088e-29
31	0xa49de8b9	-6.8482144e-17
32	0xa38ba9d8	-1.5142342e-17
33	0xa57cadf2	-2.1916451e-16
34	0x2443e293	4.24758e-17
35	0x2596e539	2.617618e-16
36	0x24dcb001	9.5707953e-17
37	0xa6e589a6	-1.5927377e-15
38	0xa283abb5	-3.5689423e-18
39	0xa524ee6d	-1.4305514e-16
40	0x21ffd7c3	1.7336584e-18
41	0xa3f146f4	-2.6159322e-17
42	0x270d033b	1.9569432e-15
43	0xa6465af6	-6.8818325e-16
44	0xa7b47e2e	-5.009684e-15
45	0xa6ee002e	-1.6514616e-15
46	0xa6752b9d	-8.5060557e-16
47	0xa6513851	-7.2587764e-16
48	0x21e831ce	1.5734115e-18
49	0xa2ab9e4a	-4.651724e-18
50	0xa70e8dd3	-1.9783342e-15
51	0xa77207c1	-3.358845e-15
52	0xa7546d51	-2.948017e-15
53	0xa68bc7f4	-9.69926e-16
54	0x269eeb08	1.1027158e-15
55	0xa65c1bd0	-7.6365526e-16
56	0x9772ec24	-7.849247e-25
57	0xa753df96	-2.9403338e-15
58	0xa1d0c6d5	-1.4147259e-18
59	0xa74e9ede	-2.8674365e-15
60	0xa60821db	-4.723036e-16
61	0xa6c36aae	-1.3559759e-15
62	0xa412a408	-3.1797643e-17
63	0x9fa11b30	-6.823113e-20
64	0xbd2fbeb4	-0.042906478
65	0x22dfe84d	6.069023e-18
66	0x3d548e01	0.051893238
67	0xbd673cf9	-0.056454632
68	0xbc231f02	-0.009956123
69	0xbbc0b94b	-0.0058814636
70	0xbd7f0721	-0.062262658
71	0xa24d851a	-2.7853144e-18
72	0xbd1f9f36	-0.038970195
73	0xbbd20549	-0.0064093214
74	0x9630df8e	-1.4287708e-25
75	0x3d6b8789	0.057502303
76	0xbdc5d8ab	-0.09660467
77	0xbd956c67	-0.07296067
78	0xbc8ec089	-0.017425792
79	0xbe0a69ae	-0.13516876
80	0x3c7ef5ab	0.0155615015
81	0xb747ffa3	-1.1920844e-05
82	0x3ce87698	0.028376862
83	0x3da888d2	0.082292214
84	0xbd2fb11f	-0.042893525
85	0xa1d73ebc	-1.4585572e-18
86	0x3ce47ed2	0.027892504
87	0xbce22b22	-0.027608458
88	0xbd21cc16	-0.039501272
89	0x3db06c34	0.08614388
90	0xbd03fab6	-0.03222152
91	0xbd9185a4	-0.07105568
92	0xbcb7f976	-0.02245782
93	0x071eba48	1.1941342e-34
94	0x970dd583	-4.5829047e-25
95	0xb9158d51	-0.00014262392
96	0xbdcc7b21	-0.099844225
97	0x3ceeaf1a	0.02913623
98	0xbd05e8e0	-0.03269279
99	0xbd97310a	-0.073824
100	0x3d0f9540	0.035054445
101	0xbda35cc8	-0.07976681
102	0x9a423762	-4.0162998e-23
103	0xb8239a6a	-3.9006038e-05
104	0xbdce0125	-0.10058812
105	0x12746b9f	7.7125478e-28
106	0xbd2476b7	-0.040152278
107	0x3d8f3bc2	0.0699382
108	0x3dd7363a	0.1050839
109	0x3cbb005e	0.022827324
110	0x3da478b1	0.080308326
111	0xbc942f01	-0.01808882
112	0xbda382d5	-0.079839386
113	0xbdb2d3c1	-0.08731795
114	0xbc8031f6	-0.015648823
115	0xbd35d22d	-0.044389892
116	0xbc947684	-0.018122919
117	0x3d93a495	0.07209126
118	0x3b4f0924	0.0031591142
119	0x3dbdf226	0.09274702
120	0xb1259073	-2.409277e-09
121	0x3d959109	0.07303054
122	0xbda316eb	-0.07963356
123	0x3da08869	0.07838518
124	0xbc95d6b6	-0.018290859
125	0xbcd5e6a3	-0.026110953
126	0x3d14acb3	0.03629751
127	0x9a91f0bb	-6.0359515e-23
128	0xbd0c6105	-0.034272213
129	0x3b944f7c	0.004526077
130	0x09457718	2.376901e-33
131	0xa235b5b9	-2.4626277e-18
132	0xbcdb91cf	-0.026802925
133	0x8838ab71	-5.5572014e-34
134	0x3c235893	0.009969848
135	0x3c724f47	0.014789409
136	0x11825bc4	2.0566938e-28
137	0x3ddbc915	0.10731713
138	0x128ddf30	8.953371e-28
139	0x3b1f45fe	0.0024303193
140	0xbddeeac5	-0.108846225
141	0x3d4adda8	0.049527794
142	0xbd8061c8	-0.0626865
143	0x989d070a	-4.0590656e-24
144	0xb9f4fe13	-0.00046728607
145	0x88f1b36c	-1.4546842e-33
146	0xbdc17637	-0.09446376
147	0x3ce2c611	0.027682336
148	0xa2416d77	-2.6214328e-18
149	0x14d76276	2.1748288e-26
150	0xbdea70e2	-0.11447312
151	0xbd2f26f1	-0.042761747
152	0x1e6f1d49	1.2658611e-20
153	0x8c9e26df	-2.436715e-31
154	0xbbab3aee	-0.005225531
155	0x3c0aeeda	0.008479798
156	0x3807aa0f	3.2344888e-05
157	0x8d0c1df3	-4.317688e-31
158	0x9b29a9d6	-1.4034229e-22
159	0x3de4cdea	0.111720875
160	0x078f4724	2.1558061e-34
161	0xbd7854c2	-0.060627706
162	0x94e8833c	-2.3477776e-26
163	0xbd5d4fcd	-0.054031182
164	0x0b38d703	3.5598868e-32
165	0x3d0f224f	0.03494483
166	0xbd0d08e7	-0.034432318
167	0x250355e3	1.1391538e-16
168	0x87dbe903	-3.308841e-34
169	0x3cfb9273	0.03070948
170	0xbc14a169	-0.009071686
171	0xbc17e5f6	-0.009271136
172	0x3c9ef752	0.01940504
173	0xbdb675b2	-0.08909167
174	0x3ba575e8	0.005049456
175	0x3dba566f	0.09098517
176	0xa52b1010	-1.4837328e-16
177	0x15384c45	3.721867e-26
178	0x3c038ff0	0.008029923
179	0x3dd05273	0.10171976
180	0x3c7fd66c	0.015615087
181	0x1ee4d78d	2.4229589e-20
182	0x3da0f759	0.07859678
183	0xbd9525c1	-0.072825916
184	0x18a34bc6	4.2211024e-24
185	0x3a812a7d	0.0009854581
186	0xbd43b998	-0.047784418
187	0xbb4dbc61	-0.00313928
188	0xbbda30d1	-0.0066586514
189	0x3bf01254	0.0073264036
190	0xa04d9c9a	-1.741599e-19
191	0xa6073367	-4.6907197e-16
192	0xbdbfd25a	-0.09366293
193	0xbc51b5f4	-0.012799729
194	0x3e002522	0.12514165
195	0x3ddf60ed	0.10907159
196	0xbc963b66	-0.01833887
197	0xbc23df5d	-0.010001984
198	0x3cbe1354	0.023202576
199	0x958b18e3	-5.618092e-26
200	0x3dec5bd0	0.11540949
201	0xbc64e967	-0.013971663
202	0x3ccaadbf	0.024741052
203	0xbcd36728	-0.025806025
204	0x3d7a98f0	0.06118101
205	0xbcb6b335	-0.02230225
206	0x3d6a849c	0.057255372
207	0x3d0fbbd5	0.03509124
208	0x3c4cbf0a	0.012496719
209	0xbdda828d	-0.10669432
210	0x3d5ecc86	0.054394267
211	0xbd41753a	-0.047230937
212	0x3ccb6019	0.024826096
213	0xbc9e250f	-0.01930478
214	0x3dba816e	0.09106718
215	0xbd8ca8e1	-0.068681486
216	0xbd3ac906	-0.045601867
217	0x3da89b76	0.08232777
218	0x3d0692d8	0.032854885
219	0x3dcd41ac	0.100222915
220	0xbdb5eb16	-0.0888273
221	0x3d531023	0.05152906
222	0x901762d0	-2.9855622e-29
223	0xbc35c41a	-0.011094118
224	0x3dd39227	0.10330611
225	0xbdaa3ebb	-0.08312746
226	0xbccee823	-0.025257176
227	0xbdf9a3b0	-0.12189424
228	0xbcb3c4bb	-0.021944394
229	0x3ca83243	0.02053178
230	0x3daa0bec	0.08303055
231	0x3c87513a	0.016518224
232	0x3cb46054	0.02201859
233	0x881a41b7	-4.6419937e-34
234	0xbdcb3e31	-0.099239714
235	0xbd05a833	-0.03263111
236	0xbb31c28b	-0.0027124013
237	0xbc206d49	-0.009791681
238	0x3a642665	0.0008703231
239	0xbd127322	-0.03575433
240	0xbd1292e9	-0.035784636
241	0xbb82f059	-0.003995937
242	0x3d9b16b2	0.07572688
243	0xbd76da63	-0.060266864
244	0xbccf6a63	-0.025319284
245	0x3bac2ab2	0.005254113
246	0xbde0a4c9	-0.1096893
247	0xbdde1ce1	-0.10845352
248	0xb2c8ec77	-2.3390596e-08
249	0xbc430733	-0.011903572
250	0x3da8c3c8	0.08240467
251	0xbc6ed0d2	-0.014576154
252	0xbcae4000	-0.021270752
253	0x3db501c7	0.088382296
254	0x3c2a29ab	0.010385911
255	0xbda59b75	-0.08086292

encoder.mlp.2.bias f4 [128]
0	0x25297811	1.4699093e-16
1	0x3c9be308	0.019029155
2	0xbb4ea715	-0.0031532694
3	0x3cdcb6c3	0.026942616
4	0xbad96136	-0.0016584757
5	0xbd2622f9	-0.040560696
6	0x3cd52ea0	0.02602321
7	0xbccdcd3b	-0.025122276
8	0xbd4885ec	-0.048955843
9	0xbd60ceef	-0.054884847
10	0xbd4144f3	-0.047184896
11	0x3b1dff78	0.002410857
12	0x3d015f7d	0.031585205
13	0x3c187cdd	0.0093071135
14	0xa8893cd9	-1.5236444e-14
15	0x3c94ffe0	0.018188417
16	0x3bb0e985	0.0053989314
17	0x3c1acd89	0.009448417
18	0x3d161a41	0.03664613
19	0x3bc8ce69	0.0061281216
20	0xbcddf4a5	-0.027094195
21	0xbba6cf22	-0.00509061
22	0xbca277cc	-0.019832514
23	0x3bde6d29	0.0067879152
24	0x3d2eba47	0.042658117
25	0x3c05602c	0.008140605
26	0xbd8ba82f	-0.06819188
27	0x3a8a952a	0.0010573019
28	0xba473bf4	-0.0007600181
29	0x3c973212	0.018456493
30	0xbc134210	-0.0089879185
31	0xbc8ab91d	-0.016933972
32	0x3d7cf47f	0.061756607
33	0x3c94954b	0.018137595
34	0xbd2221a1	-0.039582852
35	0x3d09b6d5	0.033621628
36	0xbce5d49e	-0.028055485
37	0xbd033526	-0.03203311
38	0x37b65fc7	2.174069e-05
39	0xbbe017d4	-0.006838778
40	0x3c3d271c	0.011544969
41	0x3cfbd0ac	0.030739151
42	0xbd1ae94e	-0.037820153
43	0xbc5e4f46	-0.013568705
44	0x3d03760b	0.032094996
45	0xb80305f1	-3.1238367e-05
46	0x3c33bec0	0.010970771
47	0xbc956e69	-0.018241124
48	0x3d6af1a4	0.057359353
49	0x3cea0b3c	0.02856981
50	0xa55f1798	-1.935016e-16
51	0xa69b43a0	-1.0773615e-15
52	0xbd507a83	-0.050898086
53	0x3b19e6d8	0.002348354
54	0x3c3a62cc	0.011376094
55	0xba79e56d	-0.00095327833
56	0x3d0ce616	0.034399115
57	0xbd0f4365	-0.03497638
58	0xbc61768b	-0.013761173
59	0xbd8abf2d	-0.06774745
60	0x3d5ba369	0.053622637
61	0xbca7ac61	-0.020467939
62	0x3cd4ec11	0.025991471
63	0x3c940908	0.018070713
64	0xbcc4e56a	-0.024035174
65	0xbd2fbeec	-0.042906687
66	0x3c9eb442	0.019373063
67	0xbd6220bc	-0.055207
68	0xaad21d6a	-3.7323904e-13
69	0x3ce853c8	0.028360263
70	0xbce5d42e	-0.028055277
71	0xbc314adf	-0.010821073
72	0x3c8da526	0.017290663
73	0x3c133925	0.008985792
74	0x3bc4d3f1	0.0060067107
75	0x3c63c281	0.013901354
76	0x3c2a4a24	0.010393653
77	0x3ce285eb	0.027651748
78	0xbb59042e	-0.0033114064
79	0x3b82c148	0.003990326
80	0xbc306059	-0.010765159
81	0xbca0bb3e	-0.019620534
82	0xbc78e2e9	-0.015190818
83	0xbd0a7b05	-0.033808727
84	0x3cc22978	0.023701414
85	0xbd23c37e	-0.039981358
86	0xba31d547	-0.0006783795
87	0x3c718c80	0.0147429705
88	0xbd0e3a93	-0.03472383
89	0x3d730fde	0.059341304
90	0xbd1c9d74	-0.038236097
91	0x3b54a9ab	0.0032449763
92	0x3b91fea2	0.0044554034
93	0x3c1a13bb	0.009404118
94	0xbd8d4615	-0.06898133
95	0x3c88a32b	0.016679367
96	0xbd735978	-0.059411496
97	0xbd35a6bb	-0.04434846
98	0x3b6ce0c6	0.0036144718
99	0x3c2a46b3	0.010392833
100	0xb9419003	-0.00018459563
101	0x3b171877	0.0023055354
102	0xbd14acc2	-0.036297567
103	0x3c915424	0.017740317
104	0xbc011756	-0.007879099
105	0xbd3bcb16	-0.045847975
106	0x3dac6af2	0.08418836
107	0xbc1ce957	-0.009577117
108	0x3d34d7cf	0.044151124
109	0x3cc9327e	0.02456021
110	0x3c4dea40	0.012568057
111	0xbcc7d6a1	-0.024394335
112	0xbdbf5690	-0.09342682
113	0x3d627468	0.055286795
114	0xbbf7c0d9	-0.007560831
115	0x3a75953a	0.0009368245
116	0xbd28e47a	-0.041233517
117	0x3c900dd3	0.017584717
118	0xbcf41f08	-0.029799953
119	0xbd484432	-0.04889316
120	0xbb39ec68	-0.002836967
121	0x3d220fb0	0.039565742
122	0x3d37c5c1	0.044866327
123	0x3c017052	0.007900314
124	0x3c8b0798	0.016971394
125	0xbc6c03a4	-0.014405165
126	0x3d5d011f	0.053956147
127	0xbd3e316c	-0.04643385

encoder.mlp.4.weight f4 [256, 128]
0	0x0d8064d5	7.9128835e-31
1	0xbd3cf25b	-0.046129566
2	0x17a7e245	1.0849241e-24
3	0xbd8a5896	-0.06755178
4	0x8861b1a8	-6.791731e-34
5	0x8a8c4a10	-1.3509369e-32
6	0xbd2bfa46	-0.041986726
7	0x3d5ffdce	0.054685406
8	0x3b60ef3f	0.003432229
9	0x3cde5df9	0.027144419
10	0xbd5a56b2	-0.053305335
11	0xbc97852f	-0.018496124
12	0xbd0f5031	-0.034988586
13	0x16fb59ca	4.0607902e-25
14	0x29f0e5b6	1.06979895e-13
15	0x2bcc3415	1.4509527e-12
16	0xb58df626	-1.0576957e-06
17	0xbd73f46a	-0.059559263
18	0x3db6688d	0.0890666
19	0xbcdfff25	-0.027343342
20	0xbc925ac8	-0.017865553
21	0x3d859905	0.06523327
22	0x3b0794c1	0.002068803
23	0xb61a66a8	-2.3007542e-06
24	0xbd47049a	-0.048588373
25	0xbd1eb03a	-0.03874228
26	0x3db9ef7e	0.09078883
27	0xba92bd17	-0.0011195269
28	0xb9206d7f	-0.0001529958
29	0x3c1d7bf3	0.009612071
30	0x3b63f67d	0.003478437
31	0xbc233b52	-0.0099628735
32	0x3db24343	0.087042354
33	0x8c77c96e	-1.9088803e-31
34	0xbd672c4a	-0.05643872
35	0xbd93f940	-0.07225275
36	0x3d57e062	0.052704223
37	0x3aa39b02	0.0012482109
38	0x08f6bdf3	1.4850243e-33
39	0x3c116cc2	0.008876028
40	0xbc4d2102	-0.012520077
41	0x3d339caa	0.04385058
42	0xbd54c328	-0.051943928
43	0xbc188a2f	-0.009310289
44	0x3d4292dc	0.047503337
45	0xbc04f3e3	-0.008114788
46	0x1a9fe27f	6.612678e-23
47	0xbd2be4d4	-0.041966274
48	0x3d7d477c	0.06183575
49	0x3bcf6c38	0.0063300394
50	0xa30ddd3e	-7.690475e-18
51	0x2779f32c	3.4687515e-15
52	0x3d72f746	0.05931785
53	0xbab4cd14	-0.0013794028
54	0x083790bc	5.5239694e-34
55	0x871730a6	-1.1374274e-34
56	0x8d08dde0	-4.217531e-31
57	0xbc2a4cc3	-0.010394278
58	0x3da62c28	0.08113891
59	0xbd249324	-0.040179387
60	0x3ca8818a	0.020569582
61	0x3d816768	0.06318551
62	0x3bca31a7	0.00617047
63	0x38739b4b	5.8080343e-05
64	0x3d93cc2e	0.072166786
65	0xbad38a46	-0.0016139231
66	0xbc1a1a53	-0.00940569
67	0xbd995925	-0.07487706
68	0x2c503dd3	2.9592897e-12
69	0x08bfb65b	1.1538266e-33
70	0xba6ee0ef	-0.0009112497
71	0xbac92f44	-0.0015349169
72	0xbd87ea74	-0.06636515
73	0x8799b6fa	-2.3128425e-34
74	0x3d6d773e	0.057975046
75	0xba7116c9	-0.00091968157
76	0xbc5bad49	-0.013408014
77	0x3b7fe906	0.0039048805
78	0x32d6410f	2.4942464e-08
79	0x3be46848	0.006970439
80	0xbc3cb402	-0.011517527
81	0x3cab66b6	0.020923
82	0x3d68afec	0.056808397
83	0x3d0ec3e5	0.03485479
84	0x3d92e5eb	0.071727596
85	0x3d4652a2	0.04841865
86	0xb9e50f49	-0.00043689672
87	0x3daa441e	0.083137736
88	0xbcc342ed	-0.023835624
89	0x3d96c918	0.07362574
90	0x3c8ab308	0.016931072
91	0x3bde7366	0.006788659
92	0x38b25558	8.503598e-05
93	0x3cb682b2	0.022279117
94	0xbd3cc370	-0.04608482
95	0x0e36f41f	2.2550772e-30
96	0xbd6cede6	-0.057844065
97	0x3d5648ba	0.05231545
98	0x3bb9050c	0.0056463536
99	0xbcb75625	-0.022379944
100	0x39d41b92	0.00040456332
101	0x3d5c206a	0.05374185
102	0x3d01b664	0.031668082
103	0x3b1c488a	0.0023846948
104	0xbd6964f2	-0.056981035
105	0x3d5995a1	0.053121213
106	0x3c8cafa8	0.017173603
107	0x3d658d19	0.056042764
108	0x3db3c248	0.087772906
109	0x877cd153	-1.9019888e-34
110	0x9704c8c0	-4.290488e-25
111	0xbc6dfb56	-0.014525255
112	0xbccf541c	-0.025308661
113	0xb97edceb	-0.00024305626
114	0xbd09c3ff	-0.033634182
115	0x3cc9a118	0.024612948
116	0x0d4de5ba	6.3447025e-31
117	0xbce1471e	-0.027499732
118	0x3cec3268	0.02883263
119	0xbbc924c9	-0.0061384183
120	0x06e54b9c	8.6251324e-35
121	0x954bd27c	-4.1161566e-26
122	0x3d6dd4e7	0.058064368
123	0xbd31d88c	-0.043419406
124	0x0975877c	2.9554507e-33
125	0xbcb15d62	-0.021650974
126	0x3d1c7027	0.038192894
127	0x1498d8a7	1.5433532e-26
128	0x208bafe6	2.3663916e-19
129	0x39f92569	0.00047520854
130	0x3d4214c3	0.04738308
131	0xbb2aa4d8	-0.0026038196
132	0xb9d40392	-0.0004043845
133	0x3a6e832e	0.0009098527
134	0xbcad7dbe	-0.021178123
135	0x3cafd559	0.021464037
136	0xbd1f4ac7	-0.038889673
137	0x3b9024bf	0.0043989117
138	0xbd27470b	-0.040839236
139	0xbc0b0f04	-0.008487467
140	0x3d56e3e0	0.052463412
141	0x3c8f469a	0.01748972
142	0xa74fba11	-2.8827888e-15
143	0x3cabc999	0.020970153
144	0x3ca96614	0.020678557
145	0x3caac03d	0.02084362
146	0xbc59d489	-0.013295301
147	0x3ca873e7	0.020563079
148	0xbce89d41	-0.028395297
149	0xbae1a3c4	-0.0017214944
150	0x3cdef412	0.027215991
151	0x3d1c3731	0.038138572
152	0xbd0a01e3	-0.033693206
153	0xbd1affba	-0.037841536
154	0xbbd347dd	-0.0064477758
155	0xbaad8f36	-0.0013241533
156	0x362980c3	2.5257912e-06
157	0x8bfbf7d9	-9.70546e-32
158	0xbd127997	-0.03576049
159	0xbccffbee	-0.025388684
160	0x3d3558ed	0.04427426
161	0x3d295295	0.041338522
162	0xbcf39095	-0.029732028
163	0x3c0bb548	0.008527108
164	0xbb077e15	-0.0020674516
165	0x3c9b5ac3	0.018964177
166	0x37858cdc	1.5920428e-05
167	0xbc34deb1	-0.011039422
168	0x08a4478c	9.887212e-34
169	0x3c3606b4	0.011109997
170	0xbb37b374	-0.0028030546
171	0x3c5fbd33	0.013655948
172	0xbaf013cc	-0.0018316447
173	0x3829f96b	4.052503e-05
174	0x3c2a1c97	0.010382793
175	0x3b783d58	0.003787836
176	0xbcdf2b09	-0.0272422
177	0xba9de522	-0.0012046436
178	0x078ca073	2.1159162e-34
179	0x2614bcd3	5.160372e-16
180	0xbc5ec806	-0.013597494
181	0x3bb89d36	0.0056339754
182	0x3d110c18	0.035411924
183	0x3cdf563a	0.027262796
184	0x3b6fc5d7	0.0036586428
185	0x3b0cf776	0.0021509803
186	0xba8d4c73	-0.001078023
187	0xbc9a835c	-0.018861465
188	0xbcb9db19	-0.022687482
189	0x3b7b907d	0.0038385682
190	0x3aec49e1	0.0018027389
191	0x3b9e2137	0.004825737
192	0xbce5483d	-0.027988547
193	0xbcef740d	-0.029230142
194	0xbcce83c3	-0.025209313
195	0xbb216ffe	-0.0024633403
196	0x2890eb3c	1.6089228e-14
197	0x3cdaae3e	0.026694413
198	0x88e21003	-1.3605645e-33
199	0xbcb98abc	-0.022649162
200	0xbaffe35a	-0.0019522712
201	0x3d63da58	0.05562815
202	0xbd1cc1f5	-0.03827091
203	0x3d4a16cc	0.049338147
204	0x3cec62d4	0.028855719
205	0x3cc24250	0.02371326
206	0x3d4e9078	0.050430745
207	0x3be1dd8e	0.0068928665
208	0x3ca57a3e	0.020199891
209	0xbcce4121	-0.02517754
210	0x16a51186	2.6668247e-25
211	0x3cbc8e15	0.023016969
212	0x39c2710f	0.000370868
213	0x3cc6cb46	0.02426685
214	0x39f1b876	0.00046104536
215	0x2b8926bb	9.745185e-13
216	0xbc3e886d	-0.011629206
217	0xbd343da2	-0.04400409
218	0x3bd6c1a0	0.0065538436
219	0x3b2fe0d2	0.0026836884
220	0x3cf1fd1f	0.029539643
221	0x3ac3dd67	0.0014943302
222	0x3c919fbb	0.01777636
223	0x3d5ccac6	0.053904317
224	0xbb2bf800	-0.0026240349
225	0x3c1db1db	0.009624924
226	0x3b387a58	0.0028149094
227	0xbc493de7	-0.012282825
228	0x39198be3	0.00014643329
229	0xbba90022	-0.0051574865
230	0x3b217f6e	0.0024642604
231	0xbc6b4e4f	-0.014361932
232	0xbcf6f435	-0.030145744
233	0x3c9a3076	0.018821936
234	0xbb8c18ba	-0.0042754086
235	0x3c14f977	0.00909268
236	0xbb7a5702	-0.0038198833
237	0xbbc972fe	-0.0061477413
238	0x3cd8b7af	0.026454775
239	0xbd039423	-0.032123696
240	0xbd9aa297	-0.07550543
241	0xbce35bfc	-0.027753823
242	0xbd214c11	-0.039379183
243	0x3d09fd4b	0.033688825
244	0x3cc383ba	0.023866523
245	0x3bd6d875	0.0065565654
246	0xbb843c9f	-0.004035547
247	0xbbb64340	-0.005562216
248	0xbc5c0bb8	-0.013430528
249	0x3d05e95f	0.032693263
250	0xbc4eb09e	-0.012615351
251	0xbce49e39	-0.027907478
252	0x3d93510f	0.07193195
253	0xba8c80e6	-0.0010719567
254	0xbc8452f3	-0.016152835
255	0x3d5d6d1e	0.05405914

encoder.mlp.4.bias f4 [256]
0	0xbd350ea0	-0.0442034
1	0x3c0231ff	0.00794649
2	0x3d026b1a	0.03184042
3	0x3cc43c3b	0.023954501
4	0xbc3a41d4	-0.011368234
5	0xbc7213f7	-0.014775268
6	0xbb3e0a6e	-0.0028997916
7	0x3cdf5a89	0.02726485
8	0xbc72ad82	-0.014811875
9	0x3b932758	0.004490774
10	0x2caa9a95	4.8488527e-12
11	0x3bf898b7	0.0075865644
12	0xbc40e63b	-0.011773641
13	0x3cb2f3da	0.021844793
14	0x3cb6d39e	0.022317704
15	0xbc7d42b7	-0.015457801
16	0xbd00ac91	-0.031414572
17	0xb3454a25	-4.593507e-08
18	0xbcb62fe4	-0.022239633
19	0x3cb7cca3	0.022436446
20	0xb91cf700	-0.00014969334
21	0x3d18532f	0.037188705
22	0xb52faca6	-6.5443817e-07
23	0x3cfef2b8	0.031121597
24	0xbbb944b6	-0.005653943
25	0x3c47dc10	0.012198463
26	0x3c989abc	0.01862847
27	0xbd168858	-0.03675112
28	0xbc98451a	-0.018587638
29	0xb9fa0612	-0.0004768824
30	0x3c1fb3f8	0.009747498
31	0xaad17de1	-3.7213204e-13
32	0x3b392150	0.0028248616
33	0x3ca7cf9c	0.020484738
34	0xbc932af2	-0.017964814
35	0xbbde4224	-0.006782787
36	0x3b682e80	0.0035428107
37	0x3a956ffc	0.0011401172
38	0xbc60757a	-0.013699884
39	0x2b17bc14	5.390699e-13
40	0xbc884f01	-0.016639234
41	0xbd2908e8	-0.04126826
42	0x124a4b26	6.383259e-28
43	0x3ced43c0	0.02896297
44	0x3d3cb929	0.04607502
45	0x3c2656ad	0.010152501
46	0xbb2e3a42	-0.0026585017
47	0xbb1b30c3	-0.0023680187
48	0xbc269a53	-0.01016863
49	0x3c067ed6	0.008208951
50	0x3d242d49	0.04008225
51	0xbd4ef312	-0.05052478
52	0x3c2b8988	0.010469802
53	0xba1265ce	-0.0005584628
54	0xbd66abed	-0.056316305
55	0x3c16676f	0.009179934
56	0xbb8ec066	-0.004356432
57	0xb1681867	-3.3774314e-09
58	0x3b82d9e7	0.003993261
59	0xbd1e5ecc	-0.038664624
60	0xbc487315	-0.012234469
61	0x3ccc73af	0.024957506
62	0x3c091efb	0.008369203
63	0xba04cfc8	-0.0005066362
64	0xbbb4f3aa	-0.005522211
65	0x3b8e594a	0.00434414
66	0xbcdf9775	-0.0272939
67	0x3be963b2	0.0071224803
68	0x3bf1509f	0.007364347
69	0xbbdd418e	-0.0067521995
70	0xa91ac0ff	-3.4362267e-14
71	0x3cd3a678	0.025836214
72	0xbc869544	-0.016428597
73	0xbd06a9b9	-0.032876704
74	0x3d601e80	0.054716587
75	0x3d90c0bf	0.070680134
76	0xb5160f6b	-5.590179e-07
77	0x3d0bef48	0.034163743
78	0x3aa3f9b6	0.0012510333
79	0x3cdfe39d	0.027330214
80	0x3c168107	0.009186036
81	0x3d2de006	0.042449974
82	0xbc9e6c9f	-0.019338904
83	0x3ceff999	0.029293822
84	0xbcbc96a0	-0.023021042
85	0x222e8de3	2.3656511e-18
86	0x3cad77b8	0.02117525
87	0x3d344958	0.04401526
88	0xbc1d352b	-0.009595196
89	0xbd2da1f3	-0.042390775
90	0xbc267e0d	-0.010161889
91	0x3ccce292	0.02501038
92	0x3ccf98ac	0.025341354
93	0x3cc194f0	0.02363059
94	0xbd1d9e7f	-0.03848123
95	0x3c20fa6a	0.009825328
96	0xbcade5e5	-0.021227786
97	0xbcbd2417	-0.023088498
98	0xbc9151a8	-0.017739132
99	0x3ce08be8	0.027410462
100	0x0e9f3e40	3.925647e-30
101	0xbd359e78	-0.04434058
102	0xb7572b40	-1.2825069e-05
103	0xbc877b98	-0.016538426
104	0xbd0b5067	-0.034012225
105	0x3c93fb28	0.018064097
106	0xbc9961ae	-0.018723335
107	0xbb99c10e	-0.0046922034
108	0x3d36b1af	0.044603046
109	0x3ba7a985	0.005116644
110	0x3bb549aa	0.005532463
111	0x3cad6944	0.021168359
112	0xbb5866c9	-0.003302025
113	0x3cd6ceb9	0.02622162
114	0x3b68099f	0.0035406125
115	0x32f434a0	2.842927e-08
116	0x3b7ea404	0.0038855085
117	0xbc130226	-0.00897268
118	0xbc9efedf	-0.019408641
119	0xbcf34b5e	-0.029699024
120	0xbc566b7e	-0.013087152
121	0x3c8132d9	0.015771316
122	0xbb803aa7	-0.003913242
123	0xbb1764cc	-0.002310085
124	0xbd04bfa2	-0.032409318
125	0xbc5375f6	-0.012906542
126	0xbc962c08	-0.018331543
127	0xbd0089fc	-0.031381592
128	0x3cdfa176	0.02729867
129	0x3bbee921	0.005826131
130	0xbc2ba411	-0.010476128
131	0x3ad1412f	0.0015964861
132	0x3d567aec	0.05236332
133	0xbd3f3af9	-0.0466871
134	0x3d5b13f3	0.053485822
135	0xb14af795	-2.9535603e-09
136	0x3c9e313f	0.019310592
137	0xbb42b7ae	-0.0029711532
138	0xbd474666	-0.04865112
139	0xbd042467	-0.03226128
140	0x3bd3f954	0.006468931
141	0xbd366daa	-0.044538178
142	0xbca69e72	-0.020339224
143	0x3cb7c86c	0.022434436
144	0xbc997c4a	-0.018736023
145	0x3cfdd032	0.030983064
146	0xbce22667	-0.027606202
147	0x3d6cec6b	0.057842653
148	0xbd4a5f7d	-0.04940747
149	0xbd27babe	-0.040949576
150	0xbbf3fd30	-0.007445954
151	0x3bb0ff7c	0.00540155
152	0x3cb4d452	0.022073898
153	0x3d5e8085	0.054321785
154	0xbd28cdcf	-0.0412119
155	0x3a7ce5ea	0.0009647297
156	0x3d4a3698	0.04936847
157	0x3cf64ba0	0.030065358
158	0xbc3354f8	-0.010945551
159	0xbcbe4919	-0.023228215
160	0xbd097584	-0.033559337
161	0xbcf70c34	-0.030157186
162	0xbc7239bb	-0.014784272
163	0xbbbb4e8f	-0.005716152
164	0x3d8eb120	0.06967378
165	0xb3cbb363	-9.4855544e-08
166	0xbc938eb9	-0.018012391
167	0x3c0276ac	0.007962864
168	0x3cafdfa3	0.021468943
169	0xbc8e82c9	-0.017396348
170	0xbc6364b1	-0.013878987
171	0xbd644d8e	-0.055738024
172	0xbcc8ec03	-0.024526602
173	0xbc529e39	-0.012855106
174	0x34000fb5	1.1926643e-07
175	0x1445f2ec	9.993866e-27
176	0x3c338367	0.010956622
177	0xbc9225eb	-0.017840346
178	0x382c8216	4.1129148e-05
179	0x3c55dd0c	0.01305319
180	0x3c04b6da	0.008100236
181	0x3c31b747	0.010846919
182	0x3c99fc72	0.018797133
183	0x2d6f9268	1.3618086e-11
184	0x3b8929ec	0.0041859057
185	0xbd079977	-0.03310534
186	0xbcd626d9	-0.02614157
187	0x3d461fba	0.0483701
188	0xbc763b94	-0.015028853
189	0x39f537e5	0.00046771686
190	0xbc951a2b	-0.018200954
191	0x3cfdbe4e	0.030974533
192	0x3910cebd	0.00013809926
193	0xbd1859f0	-0.037195146
194	0xbb30e7a3	-0.0026993535
195	0x3cca313b	0.024681678
196	0x34f9912a	4.6485485e-07
197	0x3c89a896	0.01680402
198	0xbd39fbf7	-0.045406308
199	0xbc449b69	-0.011999943
200	0xbcbe6e5f	-0.023245988
201	0x3ca7880c	0.020450614
202	0x3c91422e	0.017731752
203	0x3d1c5960	0.038171172
204	0xbd6bfa3b	-0.057611685
205	0xbcdd402e	-0.027008142
206	0xbcac9e31	-0.021071525
207	0x3cb2068d	0.02173164
208	0x3ce9322d	0.028466308
209	0xbd0c361b	-0.034231286
210	0xbc300aae	-0.010744734
211	0xba25c3f4	-0.000632345
212	0xbc35a6ed	-0.0110871615
213	0xbcc9c2c2	-0.024629
214	0xbc85c054	-0.01632706
215	0x3c77af84	0.01511753
216	0x3d2af01c	0.041732892
217	0xbbd3db0e	-0.0064653223
218	0x347c6d7f	2.3509163e-07
219	0x375d0437	1.3173608e-05
220	0x3cc89b12	0.024488006
221	0x3ca3d201	0.019997599
222	0xbd5cc1d8	-0.0538958
223	0xbd0d3b0c	-0.03448014
224	0x3a400d6f	0.00073262205
225	0xbc99de9d	-0.018782908
226	0xbc3c7368	-0.011502124
227	0x28e29836	2.5157051e-14
228	0xbc61cd3f	-0.013781845
229	0x3caf8d60	0.021429718
230	0x3cadcf5d	0.021217043
231	0x3c476bd1	0.0121717015
232	0xbbd1cae9	-0.0064023626
233	0xbd0a6c40	-0.03379464
234	0x3d14c035	0.036316115
235	0x3cb19b4a	0.021680493
236	0xbd0c6fab	-0.034286182
237	0xbd20b27b	-0.039232712
238	0x3bd6d8d5	0.00655661
239	0xbcd23bd2	-0.02566329
240	0x3cab3a34	0.020901777
241	0xbaf9d104	-0.0019059484
242	0x3c28b8e9	0.010297992
243	0x3ce700ba	0.028198589
244	0xb6f3aafe	-7.2618705e-06
245	0xbd157537	-0.036488738
246	0xbcf2f837	-0.029659374
247	0x3ce00434	0.027345754
248	0xb8dfca62	-0.000106711654
249	0xbd54f684	-0.051992908
250	0xbb25920b	-0.002526405
251	0x3d11ae4a	0.035566606
252	0xbd02e397	-0.031955328
253	0x3c25fbc8	0.01013083
254	0xbaab5609	-0.0013071905
255	0xb8dc5015	-0.00010505334

pos_mlp.0.weight f4 [32, 1]
0	0x3f2ee2b7	0.6831469
1	0x30b3d6f8	1.3085062e-09
2	0xbc032509	-0.008004435
3	0x9c6293e9	-7.4968297e-22
4	0xbae13c32	-0.0017184077
5	0xbf7ef75d	-0.99596196
6	0x3edd7307	0.4325182
7	0xbd25ce75	-0.040480096
8	0x88c09b77	-1.1592129e-33
9	0x3f85c2cf	1.0450076
10	0xae574e79	-4.8955038e-11
11	0xbebc7258	-0.36805987
12	0x34a2ca7d	3.032218e-07
13	0xb012dee7	-5.3431254e-10
14	0xbdab4e21	-0.08364511
15	0xbd448e1d	-0.047987092
16	0x3f3ec434	0.7451813
17	0x3e8429dd	0.2581319
18	0x8b32e06e	-3.4450395e-32
19	0xbef6cc8f	-0.4820294
20	0xbf1ad1e1	-0.604765
21	0x3e9caabc	0.3059901
22	0x3f563706	0.8367771
23	0x3f48ab3e	0.78386295
24	0x88acc0fd	-1.0397245e-33
25	0x3a4e179e	0.00078617956
26	0x3418a748	1.421696e-07
27	0x3f7b36b9	0.98130375
28	0x3f7d56ce	0.9896058
29	0xbf0729e5	-0.527983
30	0x34c6a4e7	3.7000356e-07
31	0x3f5ade5b	0.8549554

pos_mlp.0.bias f4 [32]
0	0x3f6aefa4	0.9177191
1	0xb554a19b	-7.921132e-07
2	0xbc299a59	-0.010351741
3	0xb88cf8e5	-6.7220804e-05
4	0xbbaa3553	-0.005194345
5	0x3f876490	1.0577564
6	0x3f68f932	0.9100524
7	0xbabc9be7	-0.0014389724
8	0xbc9df441	-0.019281508
9	0xbde6aa25	-0.11262921
10	0xadd96979	-2.4716883e-11
11	0x3efcca55	0.49373117
12	0xbb000394	-0.0019533383
13	0xb0db5096	-1.5957251e-09
14	0x3f58abc3	0.8463709
15	0xbc2855ae	-0.010274334
16	0xbd929d1a	-0.07158871
17	0x3f27fddf	0.6562175
18	0xb6d969c3	-6.4794162e-06
19	0x3f0134d0	0.5047121
20	0x3ebeb4a6	0.372472
21	0x3ed6277a	0.41826993
22	0xbec73880	-0.38910294
23	0x3e150b59	0.1455511
24	0xbcc6df02	-0.02427626
25	0xbbf0042b	-0.0073247156
26	0xba1f5968	-0.0006078691
27	0x3e462b7a	0.19352522
28	0x3e97b08a	0.29626876
29	0x3f044f42	0.5168344
30	0xbb91b161	-0.004446194
31	0xbd4bb0c4	-0.049729124

pos_mlp.2.weight f4 [32, 32]
0	0x3dddf593	0.10837855
1	0xb3b79fda	-8.5506784e-08
2	0x098f4116	3.4487204e-33
3	0xaed81dac	-9.8278136e-11
4	0x9bd7f26e	-3.5725433e-22
5	0x3e599730	0.2124908
6	0x3e3af917	0.18259083
7	0x91792ef3	-1.9657104e-28
8	0xa25cc067	-2.9917417e-18
9	0xbe8b29a6	-0.27180213
10	0xac618178	-3.2046293e-12
11	0x3ec04240	0.37550545
12	0x23d1d1ba	2.2748648e-17
13	0x2df66493	2.8011626e-11
14	0x3eaa90b4	0.33313525
15	0x091fd908	1.9240976e-33
16	0xbe9b0908	-0.30280328
17	0x3e033dc4	0.1281653
18	0xaed2d012	-9.586655e-11
19	0x3ea26290	0.31715822
20	0x3e3dfe8e	0.18554136
21	0x3e3013a7	0.17194997
22	0xbe5007d5	-0.20315488
23	0xbdb6b212	-0.08920683
24	0x2e826b3b	5.9307635e-11
25	0x1cd63175	1.4174116e-21
26	0x127ceaf6	7.980679e-28
27	0xbe156f86	-0.14593324
28	0xbe74adab	-0.23894374
29	0x3e8be5f7	0.27323887
30	0xa5e36456	-3.9446213e-16
31	0xbe509aa4	-0.2037149
32	0xafa9f38e	-3.0913977e-10
33	0x088de717	8.540458e-34
34	0x86da1e77	-8.204725e-35
35	0x8503544c	-6.175073e-36
36	0x958c94fa	-5.6780593e-26
37	0x874c6be5	-1.5378962e-34
38	0x260c30c2	4.8638336e-16
39	0x87c03983	-2.8922752e-34
40	0x06f1b19d	9.0915104e-35
41	0x24b98fce	8.0474575e-17
42	0x1a3f2db3	3.953479e-23
43	0xa9307fd6	-3.919073e-14
44	0x09df6090	5.3776104e-33
45	0x884d714f	-6.1823137e-34
46	0x17741a6d	7.8874006e-25
47	0x0873896f	7.3286705e-34
48	0xaeda6de3	-9.933012e-11
49	0x9411ae2b	-7.354978e-27
50	0x2d8eafa2	1.6221528e-11
51	0xa80f2aad	-7.9473485e-15
52	0x87cb28f9	-3.0568127e-34
53	0xaf414fda	-1.7581617e-10
54	0x2fbca8f8	3.431706e-10
55	0xa715729e	-2.0740038e-15
56	0x1a9c992c	6.476755e-23
57	0x879d1c12	-2.3639233e-34
58	0x083bdb0e	5.6530763e-34
59	0x922e7504	-5.504895e-28
60	0x8d94c082	-9.167549e-31
61	0x2c7fa9f9	3.6332033e-12
62	0xa60470a7	-4.594937e-16
63	0x089baae1	9.368897e-34
64	0x3ddf6456	0.109078094
65	0xb2fde160	-2.9555565e-08
66	0x154b7a13	4.1091823e-26
67	0x939677c6	-3.798343e-27
68	0xa61454d2	-5.146277e-16
69	0x3ebec3bc	0.37258708
70	0x3e1543b6	0.14576611
71	0x0960b123	2.7046309e-33
72	0xad0da18d	-8.0507935e-12
73	0xbe469e27	-0.19396268
74	0xad0531ad	-7.571205e-12
75	0x3dce0576	0.10059635
76	0x260ff739	4.994814e-16
77	0x2e026554	2.9648575e-11
78	0x3dca1668	0.09867555
79	0xa69de659	-1.0956499e-15
80	0xbebde589	-0.37089184
81	0x3e9d6208	0.30738854
82	0xa41c0f2c	-3.383996e-17
83	0x3e994c8a	0.29941207
84	0x3e208870	0.15677047
85	0x3d4ded8f	0.05027538
86	0xbe585bbe	-0.21128747
87	0xbe01a6fa	-0.12661353
88	0x23eabb15	2.5449563e-17
89	0x0934a967	2.1746364e-33
90	0x061e448c	2.9766857e-35
91	0xbcc9ccf7	-0.024633868
92	0xbc467e4b	-0.0121150715
93	0x3e82ef87	0.2557337
94	0x08a8f2d8	1.01682245e-33
95	0xbea37a86	-0.31929415
96	0x3e37584f	0.17904781
97	0x33c7ebec	9.3095736e-08
98	0xa8435220	-1.08424825e-14
99	0xa251887b	-2.8397034e-18
100	0x08e766f5	1.3927012e-33
101	0xbe995dfa	-0.2995451
102	0x3eb6d5c5	0.35709968
103	0x94108bab	-7.297687e-27
104	0x080b5f16	4.1940564e-34
105	0x3ea5094f	0.32233664
106	0x2cd0cf92	5.9347605e-12
107	0xbe5a1aef	-0.21299337
108	0x18c75a68	5.153158e-24
109	0xae25bf10	-3.7686354e-11
110	0x3bc6c01d	0.006065382
111	0x08e61e29	1.3849712e-33
112	0x3e814ddd	0.25254717
113	0x3e242a9d	0.1603188
114	0x2de1046e	2.5581506e-11
115	0xbe05c71b	-0.13064234
116	0xbdd15429	-0.102211304
117	0x3e8589c8	0.2608168
118	0x3e980309	0.29689816
119	0x3ecbbf16	0.39794225
120	0xac45a72f	-2.808819e-12
121	0x9e448a3a	-1.0404738e-20
122	0x9a227585	-3.3595746e-23
123	0x3de6d587	0.11271196
124	0x3e5d2acc	0.21598357
125	0xbe96340b	-0.2933658
126	0x222a14df	2.3050345e-18
127	0x3ec6439a	0.3872345
128	0x9ffbe5bd	-1.06682705e-19
129	0xa0cace8e	-3.4356817e-19
130	0xac8947a3	-3.9017275e-12
131	0x892d89d2	-2.088892e-33
132	0xa5052b72	-1.1550631e-16
133	0x1cc32a0a	1.2914884e-21
134	0x911908a3	-1.2072233e-28
135	0xab569e4a	-7.6247743e-13
136	0x104cb3c9	4.0370408e-29
137	0x22623a2c	3.0659507e-18
138	0x8d80cb8c	-7.937611e-31
139	0x88a7ecc7	-1.0106613e-33
140	0x1cfc19ae	1.6682599e-21
141	0x21747d54	8.2836286e-19
142	0x8853042f	-6.350042e-34
143	0xa2626847	-3.0683915e-18
144	0x931b9f6f	-1.9642357e-27
145	0xafcb4a90	-3.6978465e-10
146	0x2f56bd93	1.9530537e-10
147	0x0d100462	4.43787e-31
148	0xa0d99b99	-3.6864196e-19
149	0x20eb4762	3.9857786e-19
150	0x2e38fe6b	4.2062725e-11
151	0xa9978384	-6.7285614e-14
152	0x1ad3dae9	8.762122e-23
153	0x1e79f78f	1.3233144e-20
154	0x9f26a09f	-3.528473e-20
155	0x0a61c474	1.0870305e-32
156	0x85d3fc26	-1.993497e-35
157	0x950266e7	-2.6334467e-26
158	0x1d4faf79	2.748694e-21
159	0x0ffa7696	2.4697581e-29
160	0x3e26ec73	0.16301136
161	0x316d371e	3.451937e-09
162	0x8a154ac4	-7.188151e-33
163	0xaee3f749	-1.03666915e-10
164	0x898b0f43	-3.3477385e-33
165	0xbe8ee5f3	-0.27909812
166	0x3e752dad	0.23943205
167	0x87824bc7	-1.9604764e-34
168	0x2e57d6f2	4.907625e-11
169	0x3eb42dc2	0.3519116
170	0x2ca2431e	4.6117684e-12
171	0xbeb209e5	-0.34773174
172	0x1561ce79	4.5601266e-26
173	0xad3b275e	-1.0638461e-11
174	0x3d37dd59	0.044888828
175	0x072e93a8	1.3133697e-34
176	0x3e90e2df	0.2829809
177	0x3e73336a	0.23750082
178	0x905e7055	-4.3868318e-29
179	0xbdccf321	-0.10007311
180	0xbe5eff8d	-0.21777172
181	0x3dd6cb0a	0.104879454
182	0x3e85134c	0.25991285
183	0x3e24372e	0.16036674
184	0x2f0a7c56	1.25952e-10
185	0x0acfa8e1	1.99969e-32
186	0x1f31956c	3.7604807e-20
187	0x3e044c57	0.12919746
188	0x3e824870	0.2544589
189	0xbe95f76f	-0.2929034
190	0x2b1337b7	5.230221e-13
191	0x3eb23856	0.34808606
192	0x083fe154	5.7741844e-34
193	0x0f223e16	7.999174e-30
194	0x8fcc2101	-2.0128666e-29
195	0xa191344e	-9.839427e-19
196	0x8e5cf1f0	-2.7233582e-30
197	0x15120ada	2.9493026e-26
198	0x9cdeec84	-1.4751866e-21
199	0x2b6df550	8.4539754e-13
200	0x11f2f586	3.8332183e-28
201	0x27c5959b	5.4840687e-15
202	0x2cb6e14f	5.1977654e-12
203	0x2ac468e3	3.4889374e-13
204	0x23f4f5ed	2.6558687e-17
205	0x9edebf6d	-2.3584336e-20
206	0xad88c74e	-1.5549919e-11
207	0xa3df0da7	-2.418349e-17
208	0x08fc2c22	1.5177074e-33
209	0x088ba091	8.403507e-34
210	0x07ef4842	3.6003193e-34
211	0x08904072	8.681836e-34
212	0x096cac58	2.8488502e-33
213	0x8681b68f	-4.879265e-35
214	0x28caa804	2.249937e-14
215	0x8b37258b	-3.5272762e-32
216	0x9cc345d7	-1.2922071e-21
217	0x0f7e7e8b	1.2547538e-29
218	0x9b5832c6	-1.7883507e-22
219	0x260d7832	4.9082097e-16
220	0x07a3c9da	2.4644152e-34
221	0x08743403	7.348722e-34
222	0x2231b7fb	2.4085372e-18
223	0x88aaab01	-1.0271706e-33
224	0x3c6d870e	0.014497532
225	0x2f830b22	2.3836672e-10
226	0x97230db4	-5.2685436e-25
227	0x9297758a	-9.558415e-28
228	0x87bf8d98	-2.8821707e-34
229	0x3d5f0320	0.05444634
230	0x3c931efb	0.017959109
231	0x06c0ea5d	7.256674e-35
232	0x2fd85284	3.9348802e-10
233	0xbcd9d693	-0.026591575
234	0xab8d37e1	-1.0034162e-12
235	0x3d2b65bd	0.041845072
236	0x0b55ca55	4.1174526e-32
237	0x2c3421af	2.5598237e-12
238	0x3cc60c99	0.024175929
239	0x090abaed	1.6699038e-33
240	0xbcc27d72	-0.023741458
241	0x3c9c8719	0.019107388
242	0x092b0903	2.0587614e-33
243	0x3d4e2cf5	0.050335843
244	0x3c162502	0.009164097
245	0x3cb2b3df	0.021814285
246	0xbdd9ed75	-0.106409945
247	0xbc7bf2c1	-0.015377701
248	0x24a8bb8d	7.317611e-17
249	0x87817614	-1.9479163e-34
250	0x1820eb19	2.079821e-24
251	0xbc04f336	-0.008114627
252	0xbba687bb	-0.0050820983
253	0x3d6d213c	0.057893023
254	0xa603feb1	-4.5794926e-16
255	0xbcc381ab	-0.023865541

pos_mlp.2.bias f4 [32]
0	0x3e8caf47	0.27477476
1	0x2db90995	2.103632e-11
2	0x3dfdb7b9	0.12388558
3	0xbd9d7d6b	-0.07689937
4	0x0964481a	2.7478404e-33
5	0x3d2e3177	0.042527642
6	0x0746fb8f	1.4969791e-34
7	0x3cd86534	0.026415445
8	0x2a93a4b9	2.6226745e-13
9	0xacdae53a	-6.221382e-12
10	0xbd408034	-0.046997264
11	0x3d936ff7	0.0719909
12	0x24cc68ad	8.8648225e-17
13	0x3ea12d04	0.31479657
14	0x3de14837	0.11000102
15	0x2ec5e674	8.9994595e-11
16	0x3eaaf09c	0.33386695
17	0x16634b71	1.8360719e-25
18	0x3dddeb46	0.108358905
19	0xbc2abb90	-0.010420695
20	0x3d4608a2	0.048348077
21	0x3df154d7	0.1178376
22	0x87541ce7	-1.5957601e-34
23	0x3e0beab6	0.13663754
24	0x3eb4ccca	0.35312492
25	0xabaa9606	-1.2120866e-12
26	0x0799cfcf	2.314302e-34
27	0x3e4f5af2	0.20249537
28	0xabba1977	-1.3223163e-12
29	0x3e07a2bf	0.13245676
30	0xad85b585	-1.520096e-11
31	0xaf0fe5ac	-1.308737e-10
