pointnet/weights_per_bundle_ratio025/SCP_left_best.pth (torch, 359738 bytes, 17 tensors)

t_grid f4 [100]
0	0x00000000	0.0
1	0x3c257eb5	0.01010101
2	0x3ca57eb5	0.02020202
3	0x3cf83e10	0.030303031
4	0x3d257eb5	0.04040404
5	0x3d4ede62	0.05050505
6	0x3d783e10	0.060606062
7	0x3d90cede	0.07070707
8	0x3da57eb5	0.08080808
9	0x3dba2e8c	0.09090909
10	0x3dcede62	0.1010101
11	0x3de38e39	0.11111111
12	0x3df83e10	0.121212125
13	0x3e0676f3	0.13131313
14	0x3e10cede	0.14141414
15	0x3e1b26ca	0.15151516
16	0x3e257eb5	0.16161616
17	0x3e2fd6a0	0.17171717
18	0x3e3a2e8c	0.18181819
19	0x3e448677	0.1919192
20	0x3e4ede62	0.2020202
21	0x3e59364e	0.21212122
22	0x3e638e39	0.22222222
23	0x3e6de624	0.23232323
24	0x3e783e10	0.24242425
25	0x3e814afd	0.25252524
26	0x3e8676f3	0.26262626
27	0x3e8ba2e9	0.27272728
28	0x3e90cede	0.28282827
29	0x3e95fad4	0.2929293
30	0x3e9b26ca	0.3030303
31	0x3ea052bf	0.3131313
32	0x3ea57eb5	0.32323232
33	0x3eaaaaab	0.33333334
34	0x3eafd6a0	0.34343433
35	0x3eb50296	0.35353535
36	0x3eba2e8c	0.36363637
37	0x3ebf5a81	0.37373737
38	0x3ec48677	0.3838384
39	0x3ec9b26d	0.3939394
40	0x3ecede62	0.4040404
41	0x3ed40a58	0.41414142
42	0x3ed9364e	0.42424244
43	0x3ede6243	0.43434343
44	0x3ee38e39	0.44444445
45	0x3ee8ba2f	0.45454547
46	0x3eede624	0.46464646
47	0x3ef3121a	0.47474748
48	0x3ef83e10	0.4848485
49	0x3efd6a05	0.4949495
50	0x3f014afd	0.5050505
51	0x3f03e0f8	0.5151515
52	0x3f0676f3	0.5252525
53	0x3f090cee	0.53535354
54	0x3f0ba2e9	0.54545456
55	0x3f0e38e4	0.5555556
56	0x3f10cede	0.56565654
57	0x3f1364d9	0.57575756
58	0x3f15fad4	0.5858586
59	0x3f1890cf	0.5959596
60	0x3f1b26ca	0.6060606
61	0x3f1dbcc5	0.61616164
62	0x3f2052bf	0.6262626
63	0x3f22e8ba	0.6363636
64	0x3f257eb5	0.64646465
65	0x3f2814b0	0.65656567
66	0x3f2aaaab	0.6666667
67	0x3f2d40a6	0.6767677
68	0x3f2fd6a0	0.68686867
69	0x3f326c9b	0.6969697
70	0x3f350296	0.7070707
71	0x3f379891	0.7171717
72	0x3f3a2e8c	0.72727275
73	0x3f3cc486	0.7373737
74	0x3f3f5a81	0.74747473
75	0x3f41f07c	0.75757575
76	0x3f448677	0.7676768
77	0x3f471c72	0.7777778
78	0x3f49b26d	0.7878788
79	0x3f4c4867	0.7979798
80	0x3f4ede62	0.8080808
81	0x3f51745d	0.8181818
82	0x3f540a58	0.82828283
83	0x3f56a053	0.83838385
84	0x3f59364e	0.8484849
85	0x3f5bcc48	0.85858583
86	0x3f5e6243	0.86868685
87	0x3f60f83e	0.8787879
88	0x3f638e39	0.8888889
89	0x3f662434	0.8989899
90	0x3f68ba2f	0.90909094
91	0x3f6b5029	0.9191919
92	0x3f6de624	0.9292929
93	0x3f707c1f	0.93939394
94	0x3f73121a	0.94949496
95	0x3f75a815	0.959596
96	0x3f783e10	0.969697
97	0x3f7ad40a	0.97979796
98	0x3f7d6a05	0.989899
99	0x3f800000	1.0

encoder.mlp.0.weight f4 [64, 3]
0	0xbea500e9	-0.32227257
1	0xbef470d1	-0.47742322
2	0xbd8da0ab	-0.069154106
3	0xbb4b341f	-0.0031006408
4	0x3c455ae5	0.012045597
5	0xbbde6846	-0.0067873327
6	0xbe707c0f	-0.23484825
7	0xbe4e2582	-0.20131496
8	0xbf092b95	-0.53582126
9	0xbedf4c4d	-0.436129
10	0xbeaf3853	-0.3422266
11	0xbec6fed5	-0.38866296
12	0x3ed25584	0.41080868
13	0xbe5f51b0	-0.21808505
14	0xbe32e528	-0.17470229
15	0xbdf48c0a	-0.11940773
16	0x3e17d23a	0.14826289
17	0xbe864af9	-0.26229075
18	0x3e5e0df5	0.21685012
19	0xbeaf3232	-0.34217983
20	0xbf00bed6	-0.5029119
21	0xbea1cb4b	-0.31600413
22	0x3ee1d041	0.44104198
23	0x3e663ac2	0.22483352
24	0xbe438b4b	-0.19096105
25	0xbefdfad3	-0.49605426
26	0xbebc989d	-0.36835185
27	0x3e3eba9b	0.18625872
28	0x3e84564a	0.25847083
29	0xbed183ed	-0.40920964
30	0x30ef5ca8	1.7415873e-09
31	0x32b414b4	2.0964173e-08
32	0xb0bea965	-1.3872464e-09
33	0xbdaca2e3	-0.08429506
34	0x3e93a0c4	0.28833592
35	0xbe99bb0e	-0.30025524
36	0x3e7a7690	0.2445929
37	0x3bae2afb	0.0053151823
38	0xbed45f5d	-0.41479006
39	0xbd9e97b7	-0.07743781
40	0xbc824fb1	-0.01590714
41	0xbeacc4e3	-0.33743963
42	0xbdb92ef5	-0.090421595
43	0xbe07a0d0	-0.13244939
44	0xbf09bfab	-0.5380809
45	0xbcd35bfb	-0.025800696
46	0x3ce69d5f	0.028151212
47	0xbc2b416b	-0.010452609
48	0xbf111cd3	-0.5668461
49	0x3f00386f	0.5008611
50	0xbe21a32f	-0.15784906
51	0xbeab42db	-0.33449444
52	0x3f08973b	0.5335576
53	0xbedeba7d	-0.43501654
54	0x3efd6611	0.49491933
55	0xbe983ba7	-0.2973301
56	0xbecb8ee3	-0.3975745
57	0xbd0ffbd8	-0.035152286
58	0x3db62834	0.08894387
59	0xbc97e569	-0.018542008
60	0x3e5059da	0.20346776
61	0xbf052cc9	-0.5202146
62	0x3efe674c	0.49688184
63	0xbd8ba940	-0.06819391
64	0x3c30981d	0.010778454
65	0xbec4443c	-0.3833331
66	0x3ec253b9	0.379545
67	0xbbd1cb4a	-0.006402408
68	0xbecee7e0	-0.40411282
69	0xbebdcc22	-0.37069803
70	0xbd9f21f0	-0.07770145
71	0x3edfc34c	0.43703687
72	0x3ede39d2	0.43403488
73	0xbe990e0a	-0.29893523
74	0xbf0b29c2	-0.5436059
75	0xbd0ee446	-0.034885667
76	0x3da236ea	0.0792063
77	0xbe82fdff	-0.2558441
78	0xbe2f9d29	-0.17149796
79	0xbedcf74c	-0.43157423
80	0xbecd98d9	-0.40155676
81	0xbc3684bb	-0.011140044
82	0x3e7a61c3	0.24451356
83	0xbe836f14	-0.25670683
84	0xbeae2ac9	-0.34017017
85	0x3e754890	0.23953462
86	0x3d1064e0	0.035252452
87	0xbe00aec4	-0.12566668
88	0x3d4694f6	0.048481904
89	0xbeae2948	-0.3401587
90	0xbee660c1	-0.44995692
91	0xbf0d64b3	-0.5523178
92	0xbedde5b9	-0.43339327
93	0xbdbbccf6	-0.091699526
94	0xbf033621	-0.5125447
95	0x3e84e69d	0.25957194
96	0x3e900daf	0.2813544
97	0xbeb49715	-0.35271516
98	0xbe9f733a	-0.31142598
99	0x35946475	1.1056096e-06
100	0x34b64800	3.395253e-07
101	0x32c7b220	2.3247651e-08
102	0x3dd571c3	0.10422089
103	0xbd4f4f8a	-0.050612964
104	0xbe405f7f	-0.18786429
105	0xbe8923cf	-0.26785132
106	0x3e9f961f	0.3116922
107	0x3ef47003	0.47741708
108	0xbc84f3bc	-0.016229503
109	0xbed60244	-0.41798604
110	0xbe405521	-0.18782474
111	0xbd91d8d7	-0.07121437
112	0x3e2e97bb	0.17050068
113	0x3e9d3a8c	0.3070873
114	0x3f01c486	0.50690496
115	0xbeb8513c	-0.35999477
116	0x3b2dd867	0.002652669
117	0x3e82db0d	0.25557747
118	0xbd3c4d93	-0.045972418
119	0x3ec5c17c	0.3862418
120	0xbf0d2602	-0.5513612
121	0x3eb912ec	0.3614725
122	0x3ed026fa	0.40654737
123	0x3f030321	0.5117665
124	0x3c76168c	0.015020024
125	0xbea07989	-0.31342724
126	0x3e575249	0.21027483
127	0xbf0c1ec3	-0.5473444
128	0x3ed94b57	0.42440292
129	0x3ec97159	0.3934429
130	0xbe8c1d2c	-0.27366006
131	0xbe959203	-0.2921296
132	0x3e376022	0.17907766
133	0x3e39867c	0.18117708
134	0x3f098598	0.5371947
135	0x383d51a7	4.5137156e-05
136	0x34d3ec12	3.9473576e-07
137	0x358ea6de	1.0628389e-06
138	0xbece4351	-0.40285733
139	0xbdcaff6c	-0.09911999
140	0x3ebcd7e6	0.36883467
141	0xbec737a4	-0.38909638
142	0x3e1354a8	0.14387763
143	0xbf003f39	-0.5009647
144	0xbe1f3f96	-0.155516
145	0x3e960f0b	0.29308352
146	0x3d0ba159	0.03408942
147	0x3ea550f2	0.3228832
148	0x3e7b5b1b	0.24546473
149	0xbedfb52a	-0.43692905
150	0xbe7c807a	-0.24658385
151	0xbe845666	-0.25847167
152	0x3e803141	0.25037578
153	0xbbbadd36	-0.00570264
154	0xbda04990	-0.07826531
155	0xbdb6b493	-0.089211605
156	0x3d43939b	0.04774819
157	0xbef8f85c	-0.48626983
158	0x3e8e2e8d	0.2776989
159	0x3d6bf27c	0.057604298
160	0x3d02c6c5	0.031927843
161	0xbef4a95c	-0.4778546
162	0x3eb8e55e	0.36112493
163	0xbe09a209	-0.13440718
164	0xbf0b50f1	-0.5442038
165	0xbb4a7c42	-0.0030896817
166	0xbe5f7c0b	-0.21824662
167	0x3ea66cfd	0.32505026
168	0xbec88460	-0.39163494
169	0x3e0cc90d	0.1374857
170	0x3e184c1f	0.14872788
171	0xbd598d45	-0.05311324
172	0xbdb56c75	-0.08858577
173	0x3e213bc9	0.15745462
174	0xbdec83c7	-0.11548572
175	0x3d99d89a	0.075120166
176	0xbebf9912	-0.3742147
177	0xbe24f0ef	-0.16107534
178	0xbde25ddf	-0.11053061
179	0xbee79861	-0.45233443
180	0xbddd6a86	-0.10811333
181	0x3ec0e32e	0.37673324
182	0x3eb51788	0.35369515
183	0x3e4c4e7d	0.19951816
184	0xbf02c334	-0.51079106
185	0xbe8ed105	-0.27893844
186	0xbd0cbd4b	-0.03436021
187	0x3db4928e	0.088170156
188	0xbc95dae1	-0.018292846
189	0x3eb3a689	0.35087994
190	0xbef99ed6	-0.48753995
191	0xbe92892b	-0.28620276

encoder.mlp.0.bias f4 [64]
0	0x3a82849f	0.0009957737
1	0x3a36bd1a	0.00069709274
2	0x3eac1527	0.33609888
3	0x3dd0a477	0.10187619
4	0xbc08c1cd	-0.008346987
5	0x3ddd13f3	0.10794821
6	0xbe53d601	-0.20687105
7	0xbe26bb7a	-0.16282454
8	0xbe9d52c8	-0.3072722
9	0x3acc5f1c	0.001559231
10	0xaf04ce9f	-1.2078737e-10
11	0xbc267025	-0.010158573
12	0x3e9a2d38	0.30112624
13	0xbceeac0a	-0.029134769
14	0x3e13ce68	0.14434206
15	0x3c35b9c8	0.011091657
16	0x3e4edc23	0.20201163
17	0x3dea7874	0.11448756
18	0xbd812faa	-0.06307919
19	0x3ca5b088	0.020225778
20	0xbcd54ba5	-0.026037047
21	0xbc318f33	-0.010837364
22	0x3dd6ea72	0.10493936
23	0x3e57e353	0.21082811
24	0x3e8896bf	0.2667751
25	0x3e0584bd	0.13038917
26	0xbe5be477	-0.21473871
27	0x3df3c51e	0.119028315
28	0xbd49e760	-0.049292922
29	0x3d2b6ff7	0.041854825
30	0xbdff4d6e	-0.124659404
31	0x3e1c868e	0.15285704
32	0x3de9febf	0.11425542
33	0xb1a00ae5	-4.6578514e-09
34	0xbe7d0590	-0.24709153
35	0x3db7d44a	0.08976038
36	0x3e494213	0.19654112
37	0xbd97eb7c	-0.07417962
38	0xbd5510d1	-0.05201799
39	0x3c8af78b	0.01696374
40	0x3e9bec7e	0.30453867
41	0x3dcb046f	0.09912955
42	0x3def7c3f	0.1169362
43	0xbe871d35	-0.2638947
44	0x3d4b300c	0.049606368
45	0xb141ed53	-2.82201e-09
46	0xbeb0b1eb	-0.3451074
47	0x3e14139d	0.14460607
48	0xbd37dd70	-0.044888914
49	0x3d6b44f3	0.057438802
50	0x3d4d82ee	0.050173692
51	0x3d2ba3b7	0.041904178
52	0xbe9fd172	-0.31214482
53	0x3e524966	0.20535812
54	0x3d9430a2	0.072358385
55	0xbea4dec3	-0.32201204
56	0xbdb92e0d	-0.090419866
57	0xbdee225c	-0.11627647
58	0xbe072d74	-0.13200933
59	0xbe8acf34	-0.27111208
60	0xbe847d5b	-0.2587689
61	0xbdd65960	-0.10466266
62	0x3cd73b0d	0.026273275
63	0x3dd11a82	0.10210134

encoder.mlp.2.weight f4 [128, 64]
0	0x3d232862	0.039833434
1	0xb80ad180	-3.3096876e-05
2	0x3d324844	0.04352595
3	0xbcb90a92	-0.022588048
4	0x3d8e17d1	0.06938136
5	0x3ddc5f26	0.107603356
6	0x3dd7c957	0.105364494
7	0x3c40d6b3	0.011769938
8	0x3d8ace44	0.06777623
9	0x3d015784	0.031577602
10	0x2bc3eed3	1.392187e-12
11	0xbcaa59b3	-0.020794725
12	0x3d093c6b	0.033504885
13	0x3da41a90	0.08012879
14	0xbd09d1b5	-0.033647258
15	0x3b128e1a	0.002236253
16	0x3cb046bb	0.021518102
17	0xbdae8121	-0.08520723
18	0x3dee6d3d	0.11641929
19	0xb928f40a	-0.0001611264
20	0xbd147676	-0.036245786
21	0xbc2a9e2d	-0.010413689
22	0x3dc75a31	0.097339995
23	0xbe02ae3f	-0.12761782
24	0x3d879ff4	0.066223055
25	0xbd0f1491	-0.034931723
26	0xbdad1e33	-0.08453026
27	0xbc41fa98	-0.011839531
28	0xbd314a47	-0.043283727
29	0xbcf00ced	-0.029303038
30	0xbda4063d	-0.08009002
31	0xbcf3faf9	-0.029782759
32	0x3c67675b	0.014123763
33	0xadc01f97	-2.1841902e-11
34	0xbdd86c00	-0.10567474
35	0x3cbca99e	0.023030099
36	0xbc92880d	-0.01788714
37	0xbd219820	-0.03945172
38	0x3b3b9258	0.0028621163
39	0x3bb32970	0.005467586
40	0xbcc5a2ab	-0.024125418
41	0x3da0e40e	0.07855998
42	0x3cc60aa6	0.024175
43	0x3ca5b170	0.02022621
44	0xbc811db3	-0.015761232
45	0x32294333	9.852374e-09
46	0x3de148e3	0.1100023
47	0xbcadc4a8	-0.021211937
48	0xb5f27ba5	-1.806639e-06
49	0xbcf796b6	-0.030223232
50	0x3d20c056	0.039245926
51	0xbbc5b812	-0.006033906
52	0x3d8d835b	0.0690982
53	0x3c507f11	0.0127256075
54	0xbcf468f6	-0.029835206
55	0x3db74750	0.08949149
56	0xbdd595c2	-0.10428955
57	0xbd414896	-0.047188364
58	0xbbd60089	-0.0065308255
59	0xbd6b2c62	-0.057415374
60	0xbbef5fc0	-0.0073051155
61	0x3dec0547	0.11524444
62	0xb946979b	-0.00018939229
63	0xbd7ba38d	-0.06143527
64	0x3da05f2e	0.07830654
65	0x3b26cefc	0.0025452962
66	0x3d1e789b	0.038689237
67	0x3ddd8040	0.10815477
68	0xbd7fc5a4	-0.062444344
69	0x3cbcae85	0.023032436
70	0xbd9627de	-0.07331823
71	0xbd717a45	-0.058954496
72	0xbbb78021	-0.005599991
73	0xbcec1bb7	-0.02882181
74	0x302184e5	5.8760313e-10
75	0x3da138cf	0.078721635
76	0x3d33a35b	0.04385696
77	0x3d8170eb	0.063203655
78	0xbc915dc0	-0.017744899
79	0x3be387fe	0.0069437018
80	0x3dd97cd1	0.1061951
81	0x3ddd3324	0.1080077
82	0xbd511ebc	-0.0510547
83	0x3b9b2a06	0.004735234
84	0x3de8e6d4	0.11372152
85	0xbc90c823	-0.017673558
86	0x3d950240	0.0727582
87	0x3d95e0a0	0.073182344
88	0xbdfc0926	-0.123064324
89	0x3d9bc10f	0.076051824
90	0x3db82e0d	0.089931585
91	0x3c9a03eb	0.018800696
92	0xbc8a1ece	-0.016860392
93	0x3d7506c5	0.05982091
94	0xbd9fc5d1	-0.07801402
95	0xbdf2b0a4	-0.11850098
96	0xbd915f76	-0.07098286
97	0xabaf29eb	-1.2446132e-12
98	0x3d9d5867	0.07682877
99	0xbc8005a0	-0.015627682
100	0x3dd9a042	0.1062627
101	0xbcf36c4e	-0.02971473
102	0xbd9d4c1d	-0.07680533
103	0x3c4d34c9	0.012524792
104	0xbda93e1f	-0.08263802
105	0x3d138b7d	0.0360217
106	0xbcaca57d	-0.021075005
107	0x3c998699	0.018740939
108	0xbcc71c2d	-0.024305427
109	0x15ad2e4a	6.9947175e-26
110	0xbc9cdf83	-0.019149547
111	0xbdb5e1d8	-0.08880967
112	0xbca00271	-0.019532414
113	0xbcbbc25d	-0.022919828
114	0xbdebe130	-0.115175605
115	0x3d4e09be	0.05030226
116	0x3d447ffb	0.047973614
117	0xbc99c5c9	-0.01877107
118	0xbd9e835a	-0.07739897
119	0x3d268fc1	0.04066444
120	0xbce5d358	-0.028054878
121	0xbd00cb08	-0.031443626
122	0xbd2d27be	-0.04227423
123	0xbc18d3a7	-0.009327806
124	0xbd1232cb	-0.03569297
125	0x3d7f3b33	0.062312316
126	0x3b9c18ba	0.00476369
127	0xbd95ec3a	-0.07320447
128	0xbca97c1f	-0.020689068
129	0xbae31f08	-0.0017327974
130	0xbdbe56cb	-0.09293898
131	0x3d258ee6	0.04041948
132	0xbd487cda	-0.048947193
133	0x3d3f3447	0.046680715
134	0x3daacb64	0.08339575
135	0xbdaeae4c	-0.08529338
136	0xbc3a2caa	-0.011363188
137	0xbd858c91	-0.065209515
138	0xb03742f2	-6.6670147e-10
139	0xbc91720f	-0.017754583
140	0x3c2b56a4	0.010457668
141	0x3d714d01	0.058911327
142	0x3c8acfea	0.016944844
143	0xbc23791c	-0.009977605
144	0xbd41dc8e	-0.047329478
145	0xbbc06c9a	-0.0058723213
146	0x3d8df136	0.06930773
147	0xbcb9d497	-0.022684379
148	0xbd9c7a68	-0.07640535
149	0x3d587b4a	0.052851953
150	0xbd9a34e4	-0.07529619
151	0x3dfc8518	0.12330073
152	0xbc9f0415	-0.019411126
153	0x3c6fe464	0.014641855
154	0xbd872812	-0.0659944
155	0x3d0271f2	0.031846948
156	0x3b5acc44	0.0033385912
157	0xbd16c10d	-0.0368052
158	0x3d92cac8	0.07167584
159	0x3d8d20bc	0.06891009
160	0x3d0b508c	0.034012362
161	0xae7b0473	-5.7074744e-11
162	0xbd96039f	-0.073249094
163	0x3d864910	0.06556904
164	0x3c62527e	0.013813613
165	0xbdb89e0d	-0.09014521
166	0xbe1882a2	-0.14893582
167	0xbbc8a2c1	-0.0061229174
168	0x3dc83481	0.09775639
169	0x3d83c6a9	0.06434376
170	0x3dc2d29a	0.09512825
171	0xbda70b10	-0.08156407
172	0xbd946c23	-0.07247188
173	0x32952ff8	1.7367697e-08
174	0x3d97c9cc	0.074115366
175	0x3d968696	0.07349889
176	0xbceec6a5	-0.029147455
177	0xba9ab295	-0.0011802489
178	0x3d97f5a6	0.074199006
179	0xbce3fa48	-0.027829304
180	0xbd399488	-0.045307666
181	0x3d8a1e89	0.06744105
182	0x3dd448c4	0.103654414
183	0x3ccb3b0d	0.024808431
184	0xbd9564f1	-0.07294644
185	0xbda9b410	-0.08286297
186	0x3cc10e8a	0.023566503
187	0xbd38909c	-0.045059785
188	0xbd01bc4b	-0.03167371
189	0xbcfd9dc9	-0.030959027
190	0xbcb9be70	-0.022673815
191	0x3d18237d	0.03714322
192	0x3d8e6b8f	0.06954109
193	0xb9a3d401	-0.00031247738
194	0xbd37e73c	-0.044898257
195	0x3dcfe864	0.10151747
196	0x3deffea2	0.11718489
197	0x3ce003bd	0.027345533
198	0xbc5667e2	-0.013086291
199	0xbab83418	-0.0014053611
200	0xbddfb074	-0.10922328
201	0x3c30117e	0.010746358
202	0xadd88b39	-2.4618184e-11
203	0x3db8674a	0.09004076
204	0x3e00324d	0.12519188
205	0xbd5a814d	-0.053345967
206	0x3c95f120	0.018303454
207	0xba20d15b	-0.0006134712
208	0xbc0b42cb	-0.008499811
209	0x3d7052df	0.058672782
210	0xbd98ba72	-0.074574366
211	0xba91c601	-0.0011121632
212	0xbd80e719	-0.062940784
213	0xbce0f82f	-0.027462093
214	0xbd5d8876	-0.054085217
215	0xbd587265	-0.05284347
216	0x3d271300	0.040789604
217	0xbd08276b	-0.033240717
218	0xbb8722fb	-0.004124043
219	0x3da8cfe5	0.08242778
220	0xbba31106	-0.0049763946
221	0xbd6e1484	-0.058125034
222	0xbcf7bbf1	-0.030240985
223	0xbe07acb3	-0.13249473
224	0x3d68a78b	0.056800406
225	0x2cb7d609	5.2249355e-12
226	0xbd8ca2a3	-0.06866958
227	0xb91680f5	-0.00014353155
228	0xbd4a6272	-0.04941029
229	0x80001ff0	-1.1457e-41
230	0x3d1b4f6e	0.037917547
231	0xb8ac5f3d	-8.2193386e-05
232	0xbb419dc6	-0.0029543503
233	0x3d5c481f	0.053779718
234	0xbc2d70fb	-0.010586019
235	0xbc5a4517	-0.013322136
236	0x9384f3cd	-3.356189e-27
237	0xb38f370b	-6.668969e-08
238	0xbd701fc9	-0.058624063
239	0xbdefe353	-0.117132805
240	0xbafe3e67	-0.001939726
241	0x3dc6070d	0.096693136
242	0xbd98b2e2	-0.07455994
243	0xbda73504	-0.08164409
244	0x3db37b4f	0.087637536
245	0xbccf601b	-0.025314381
246	0x3cebdd13	0.02879194
247	0x3d089453	0.033344578
248	0xbcd4dff6	-0.0259857
249	0x3ac1813d	0.0014763247
250	0x3d9a4df9	0.07534403
251	0x3de25270	0.1105088
252	0x00001d0e	1.0423e-41
253	0x3d99bf06	0.07507138
254	0xba8f5632	-0.0010935722
255	0x3d45691c	0.048195943

encoder.mlp.2.bias f4 [128]
0	0xbbca0ead	-0.0061663003
1	0x3d17b3fe	0.03703689
2	0xbdaadc79	-0.08342833
3	0x3d6de699	0.058081243
4	0xbca6c347	-0.020356787
5	0xbd4cf0bb	-0.050034266
6	0x2a0df595	1.2608519e-13
7	0xbd2e1fb8	-0.042510718
8	0x3d56d734	0.052451327
9	0xbbf80832	-0.0075693363
10	0x3d98db73	0.074637316
11	0x3d01061f	0.03149998
12	0x3d482973	0.048867654
13	0x3d2ab1ec	0.041673586
14	0x3ca03d3e	0.019560453
15	0x3cbbcca3	0.022924727
16	0xbd044c1a	-0.03229914
17	0x3caa01e9	0.020752864
18	0x3ced2d6f	0.028952328
19	0xb4d63a14	-3.9902864e-07
20	0xbd37ca05	-0.044870395
21	0x3d4a6805	0.049415607
22	0x3c9f339a	0.019433785
23	0x3da3c587	0.0799666
24	0x3d81c4ae	0.06336342
25	0x3d3a4325	0.04547419
26	0xbb95c790	-0.004570909
27	0x23ba705c	2.0213746e-17
28	0xbc8fa644	-0.017535336
29	0xb82f4682	-4.1788917e-05
30	0xbd1be4e1	-0.038060073
31	0x3ce5b74c	0.028041504
32	0x3d13eb08	0.036112815
33	0x85eb7488	-2.21421e-35
34	0x3c842353	0.016130125
35	0xbce6f113	-0.028191125
36	0x3da78026	0.08178739
37	0x2b6eb8c4	8.4811e-13
38	0x3d333d1e	0.043759458
39	0xbc345171	-0.011005745
40	0xbd0b2190	-0.033967555
41	0xbcf3fc93	-0.029783523
42	0xad1af940	-8.809231e-12
43	0x3d06157b	0.03273533
44	0x3ddc96a5	0.10770921
45	0x3c93430c	0.017976306
46	0xaa86b25a	-2.3926938e-13
47	0x3cac83c1	0.021058919
48	0xbd15a05e	-0.03652989
49	0x3bed3b4c	0.0072397348
50	0x3d148127	0.03625598
51	0xbcf762af	-0.030198423
52	0xbd55405a	-0.052063324
53	0x3d805a5d	0.062672354
54	0xbd56492f	-0.052315887
55	0x3b934db5	0.0044953474
56	0x3c996043	0.018722659
57	0x3d0b23ef	0.033969816
58	0x3c6640c5	0.014053528
59	0x3acbfbd2	0.0015562719
60	0x3d9974e6	0.07493
61	0xb2897096	-1.6000097e-08
62	0x25efd4e9	4.1604165e-16
63	0xbc906e0d	-0.017630601
64	0xbd69571a	-0.056967832
65	0xbcf8789a	-0.030330945
66	0xb1e00593	-6.5198917e-09
67	0xbbd65f86	-0.006542149
68	0x36e995f7	6.9613993e-06
69	0xbdb94422	-0.090461984
70	0x3ccfe3f4	0.025377251
71	0xbcfccc05	-0.030859003
72	0xbd632a13	-0.055460047
73	0xb6177076	-2.2566214e-06
74	0xbd316864	-0.043312445
75	0x3d2c40e2	0.042054065
76	0x3b9fa815	0.004872332
77	0xbd59ce61	-0.053175334
78	0x3d159f70	0.036529005
79	0xbc4bad66	-0.012431478
80	0x3d10860d	0.03528409
81	0xbd2897d1	-0.04116041
82	0xb808df30	-3.2632786e-05
83	0x3d9ab340	0.075537205
84	0x3d281eac	0.041044876
85	0xb95c9465	-0.00021036116
86	0x3b167858	0.0022959914
87	0x3cc61a1e	0.024182376
88	0x3cf95d59	0.03044002
89	0x3d5ac8d8	0.053414196
90	0x3cf14da2	0.029455964
91	0xbc77fc2e	-0.015135808
92	0x3d3a60fb	0.045502644
93	0xbd10c62a	-0.035345234
94	0xbd831f2b	-0.06402429
95	0x3c84c651	0.016207846
96	0xbcd8bbe2	-0.026456777
97	0x3d2f2267	0.042757418
98	0x3ad5a03b	0.0016298363
99	0xbbb5c7ef	-0.0055475156
100	0x3ccb712d	0.02483424
101	0x3d176b1a	0.036967374
102	0x3dc21286	0.09476189
103	0x3b69468b	0.0035595025
104	0xbd7298cc	-0.05922775
105	0x3d992ac6	0.074788615
106	0x3d975c2d	0.07390628
107	0x3d699b85	0.05703308
108	0xbc42c7e8	-0.011888482
109	0x3c149382	0.009068372
110	0xbc605e52	-0.013694363
111	0xbd624157	-0.055238094
112	0x3ca41bbd	0.020032758
113	0x3da71912	0.08159079
114	0x3d8609bf	0.06544828
115	0xba112378	-0.0005536596
116	0x3c084306	0.008316761
117	0x3ddcac2a	0.10775025
118	0x3d4198a3	0.047264706
119	0x3c831595	0.016001502
120	0x3ccb34a7	0.02480538
121	0x3d0520b7	0.032501902
122	0xbd011c25	-0.03152098
123	0x3d1aaece	0.037764363
124	0x3c7d2f83	0.015453222
125	0x3d1649b1	0.03669137
126	0xbd637213	-0.05552871
127	0xbd0cef52	-0.03440792

encoder.mlp.4.weight f4 [256, 128]
0	0xbc7571b5	-0.014980723
1	0x3d8eab92	0.06966318
2	0x3cb16c7c	0.021658175
3	0xbbeb21c4	-0.007175656
4	0x39aedd7c	0.00033352885
5	0xbc96ba27	-0.018399311
6	0x23c4f660	2.1354706e-17
7	0x3da74ee2	0.081693426
8	0x3ce2a5cb	0.027666947
9	0x3a9b646d	0.0011855491
10	0xbb41d9d9	-0.002957931
11	0x3ba59a9d	0.0050538317
12	0x3c1386e7	0.009004331
13	0xbcb61e5e	-0.022231277
14	0x8000223a	-1.2278e-41
15	0x3c575dab	0.013144891
16	0x3d6b5e1f	0.057462808
17	0xb7eafbda	-2.8012251e-05
18	0x3c1a33f4	0.009411801
19	0xb4d9ccd8	-4.0568443e-07
20	0x3d585a70	0.052820623
21	0x3d021f81	0.031768326
22	0x3c56d247	0.013111657
23	0xbd44e98b	-0.048074286
24	0x3c414f5b	0.011798705
25	0x3cf41feb	0.029800376
26	0x3c0e0256	0.008667549
27	0x00001747	8.35e-42
28	0xbc5d84a1	-0.013520391
29	0xba26ccd7	-0.0006362921
30	0xbc0850d1	-0.008320049
31	0xbe13ef8a	-0.14446846
32	0x3d1f0925	0.03882708
33	0xb24fb59c	-1.2090279e-08
34	0xb93a0b5b	-0.00017742573
35	0x3c95e140	0.018295884
36	0x3ba5a87a	0.0050554844
37	0x06c6a113	7.4716e-35
38	0xbcf4058c	-0.029787801
39	0x398f3105	0.00027311608
40	0xbc23cb29	-0.009997168
41	0xbb2ecdf2	-0.0026673046
42	0x336399a2	5.2992284e-08
43	0xbd56f23a	-0.0524771
44	0xbd64f26c	-0.055895254
45	0xbd011119	-0.031510446
46	0xab1b0458	-5.507309e-13
47	0xbd80dce1	-0.06292129
48	0x3a5f4e56	0.0008518448
49	0xba73f6be	-0.0009306482
50	0x3cab045a	0.020876098
51	0xb9a4ace6	-0.00031409337
52	0x3dab6e0a	0.08370598
53	0xbd2e0b87	-0.042491462
54	0xbc98aedb	-0.018638065
55	0xbd70434d	-0.058657933
56	0xbca809f0	-0.020512551
57	0x3bd7c9c9	0.006585334
58	0x3da02fff	0.078216545
59	0xbb3ced93	-0.0028828129
60	0x3c967742	0.018367413
61	0x39209a6a	0.00015316313
62	0x29ffb969	1.13564384e-13
63	0xbaa8299c	-0.0012829783
64	0x3da98fe8	0.08279401
65	0xbdba0b1e	-0.09084152
66	0x349b09c5	2.8878108e-07
67	0xbcda986d	-0.02668401
68	0xb783b3c8	-1.5700134e-05
69	0x3cc6d471	0.024271222
70	0x3b404e0a	0.002934339
71	0x3dbfbca3	0.093621515
72	0x3da4ff94	0.0805656
73	0x37189047	9.093498e-06
74	0x3d359cac	0.044338867
75	0x3cc99ff1	0.024612399
76	0xbc44ab5a	-0.012003744
77	0x3cb41382	0.021981958
78	0xbcae4c7a	-0.021276701
79	0x3d5d43bc	0.054019675
80	0xbc6c7e4f	-0.014434411
81	0xbc5d7b57	-0.013518176
82	0xba0aec88	-0.0005299528
83	0xbcb43ada	-0.022000719
84	0x3b8bfa59	0.004271787
85	0xba509f7a	-0.0007958334
86	0xbb06ad8a	-0.0020550215
87	0x3c89443a	0.016756166
88	0xbd9ec120	-0.077516794
89	0x3a5ba5c1	0.0008378886
90	0xbcc43d92	-0.02395514
91	0x3c010b7c	0.007876273
92	0x3af2024d	0.001846382
93	0x3c2b1310	0.010441557
94	0x3c827494	0.01592473
95	0xbb884a56	-0.004159252
96	0x3698cbc5	4.553675e-06
97	0xbc0ec32a	-0.008713523
98	0x3ca722c8	0.020402327
99	0x3d9d096b	0.07667812
100	0xbb40ee32	-0.002943885
101	0xab805470	-9.118383e-13
102	0xbc30eadc	-0.010798182
103	0x3d2ea040	0.042633295
104	0x3c884376	0.01663373
105	0xbd231ed9	-0.03982434
106	0xbd93d31b	-0.072179995
107	0xbccd88fc	-0.025089733
108	0xbdbe38de	-0.0928819
109	0xbc2f4f36	-0.010700038
110	0x3d7b8f2d	0.06141584
111	0xbc665a71	-0.014059649
112	0x3d1d5d29	0.038418923
113	0x3ac0904d	0.0014691442
114	0x3d439d2f	0.047757324
115	0xba4e8f18	-0.0007879599
116	0xbb7434f2	-0.0037263003
117	0xbdc671b4	-0.09689656
118	0xbd86a1c6	-0.065738246
119	0xb9e421f4	-0.00043512846
120	0xbd9220e5	-0.071351804
121	0xbc4806a6	-0.012208616
122	0xbc06d8b6	-0.008230379
123	0xbcf5f33f	-0.030023215
124	0xb9bb21ee	-0.000356927
125	0xbc381b9b	-0.01123705
126	0x3cf90a77	0.030400498
127	0xbc998dc9	-0.018744366
128	0xbca0e7f3	-0.019641852
129	0xbc80c26a	-0.015717704
130	0xbd26d9c3	-0.040735018
131	0xbc3d7a0e	-0.011564745
132	0xbabd2473	-0.0014430418
133	0x3ce09a12	0.027417216
134	0xa1ae0b7a	-1.1793736e-18
135	0xbd4a4157	-0.04937872
136	0xbd018501	-0.031620983
137	0x3d0b8299	0.034060095
138	0xbb728137	-0.0037003288
139	0x3d21e67b	0.039526444
140	0x3c986d8d	0.018606925
141	0x3c297012	0.010341661
142	0xbca80d56	-0.020514172
143	0xba62dd92	-0.00086542324
144	0x3cb11929	0.021618443
145	0x3cdbfd6d	0.026854241
146	0x3c8e43c6	0.017366301
147	0xb33a8e12	-4.3435712e-08
148	0xbc192905	-0.009348159
149	0xbd6cec67	-0.05784264
150	0xbc9bc702	-0.019015793
151	0x3d0ed522	0.034871228
152	0xbc6d21f8	-0.014473431
153	0x3bf5c674	0.007500464
154	0x39020660	0.00012400141
155	0xa3027bc0	-7.073519e-18
156	0xbc634a52	-0.0138727
157	0xb91837d5	-0.00014516649
158	0xbd12b930	-0.03582114
159	0xbbdd7c81	-0.006759227
160	0x3b009bd4	0.001962413
161	0x82350ac6	-1.3300872e-37
162	0x3a9791d1	0.0011563842
163	0x3cec44f0	0.028841466
164	0x3d399289	0.045305762
165	0x000a0b87	9.2249e-40
166	0xbcb62795	-0.022235671
167	0x3d63a2cb	0.055575173
168	0xbd1ebb16	-0.038752638
169	0x3cf6de5a	0.030135322
170	0xad0ae7b4	-7.89584e-12
171	0x3c86bedd	0.016448433
172	0xbb486abc	-0.0030581197
173	0x3c517740	0.012784779
174	0x2866ed46	1.2819015e-14
175	0x3cd60c56	0.02612893
176	0x3cadd2df	0.021218715
177	0x3c959fb1	0.018264623
178	0x3ca7b107	0.020470155
179	0xb9596d79	-0.00020735514
180	0x3c7ce045	0.015434329
181	0x3c34fcb2	0.011046575
182	0xbd4536a6	-0.04814782
183	0xbcb0181b	-0.02149587
184	0x3c9a8e73	0.018866753
185	0x3cf48f98	0.029853627
186	0xbc874f1d	-0.016517216
187	0x00001b5f	9.819e-42
188	0xbcadffb7	-0.021240098
189	0x33db9414	1.02249174e-07
190	0xa49fd702	-6.9319496e-17
191	0x37e10123	2.682262e-05
192	0xbb701e0f	-0.003663901
193	0x3aa2dfea	0.0012426351
194	0x35f919d5	1.8559464e-06
195	0xbc6e1d5a	-0.014533365
196	0xb628881b	-2.5113175e-06
197	0xbbf6ed5f	-0.007535621
198	0xbabede42	-0.0014562088
199	0x3c1102bf	0.008850752
200	0x3cc63634	0.024195768
201	0xb6c26f2a	-5.7945917e-06
202	0x3cf7c235	0.030243972
203	0xbc3c9c55	-0.011511882
204	0xbc0e6820	-0.0086918175
205	0xbb8ebf3e	-0.004356294
206	0x3c159b2e	0.009131236
207	0x3bdc4473	0.006722027
208	0x3cc62a75	0.024190167
209	0xbd1e009d	-0.038574804
210	0xb8ee3818	-0.00011359173
211	0x3d8b936c	0.06815228
212	0x3d16dbfa	0.03683088
213	0xb9a8b77b	-0.0003218016
214	0xbcf1236e	-0.02943584
215	0x3c9d5e10	0.019209892
216	0x3aa7565c	0.0012766826
217	0x3d007175	0.0313582
218	0xbc95ff49	-0.018310206
219	0x00a2c05d	1.4946357e-38
220	0x06411601	3.6315431e-35
221	0x3ad5e052	0.0016317463
222	0xbd90cfe3	-0.07070901
223	0x3bc6dc7a	0.0060687633
224	0xbc53ad49	-0.012919732
225	0xbc13f5b7	-0.009030751
226	0xbb091f1e	-0.0020923088
227	0x3cf8b0c7	0.030357732
228	0x3a4b41b3	0.00077536254
229	0x3ce408fe	0.027836319
230	0xbd59a523	-0.053136002
231	0x3bab85ba	0.0052344473
232	0xbb9b9fc7	-0.0047492716
233	0xbd248482	-0.04016543
234	0x3d8d7dd8	0.069087684
235	0xbdae9c12	-0.08525862
236	0xbcde8412	-0.027162585
237	0xbb792a51	-0.0038019607
238	0x3ac53922	0.0015046934
239	0xbc80d128	-0.015724733
240	0x3d05f02a	0.03269974
241	0x3d8a95c9	0.067668505
242	0xbda2e3c8	-0.07953602
243	0xba229ba1	-0.0006203
244	0x3ca7f729	0.020503597
245	0xbb1012be	-0.0021983827
246	0xbcdecb8f	-0.027196674
247	0x3c584fe7	0.013202644
248	0x3d226aa6	0.03965249
249	0xbbda0382	-0.00665325
250	0xbc63b05a	-0.013897026
251	0xbc0c11fe	-0.008549212
252	0xbcc73308	-0.024316326
253	0x3cc8aeda	0.024497438
254	0xb9d9e997	-0.00041563503
255	0xbc1ae559	-0.009454095

encoder.mlp.4.bias f4 [256]
0	0xbd2cf3be	-0.04222464
1	0x3ae71e03	0.0017632846
2	0x3c24d2fd	0.010060069
3	0x3c79868e	0.015229834
4	0x3c5d2a15	0.013498803
5	0x3d85e4b9	0.06537766
6	0xbd4d8dc1	-0.050184015
7	0xb69b6332	-4.630908e-06
8	0x3d957e28	0.07299453
9	0x3d2c4286	0.04205563
10	0xbc0c838a	-0.008576283
11	0x3c927f99	0.017883109
12	0xbd5a1245	-0.05324008
13	0xb7020efe	-7.7520945e-06
14	0xb15a091d	-3.1728355e-09
15	0x3d8987af	0.06715333
16	0xbd0b1d8d	-0.03396373
17	0xbc04a926	-0.008096969
18	0xbc394270	-0.011307344
19	0x102bf42b	3.3911904e-29
20	0x3d295cc1	0.041348223
21	0x3c0772d8	0.008267127
22	0x3c55d16d	0.013050419
23	0xbd521abf	-0.05129504
24	0xbbaa46f1	-0.005196445
25	0xbc191243	-0.009342733
26	0x3cd2e547	0.025744094
27	0x3c949624	0.018137999
28	0xbcd79220	-0.026314795
29	0xaeb26f25	-8.114246e-11
30	0x3cee9f99	0.029128836
31	0x3d4a430c	0.049380347
32	0x3cb1ebad	0.021718824
33	0x240ffd33	3.122265e-17
34	0xbd554446	-0.052067064
35	0x2ab3caf1	3.1937606e-13
36	0xbd30ef78	-0.043197125
37	0xa195cf01	-1.0151426e-18
38	0xbb2485f4	-0.0025104256
39	0x3d08b1f4	0.033372834
40	0x3d83299a	0.06404419
41	0x3c2a97a4	0.0104121305
42	0xbac2f6d2	-0.0014874584
43	0x3d06edf2	0.032941766
44	0xbd0e9888	-0.034813434
45	0x3d6f131b	0.05836783
46	0xbd1a9a65	-0.0377449
47	0x3d07f2e8	0.033190638
48	0xbd44d9f1	-0.048059408
49	0x3d85c8f1	0.06532467
50	0x3d8139e7	0.06309872
51	0x3aa80dc0	0.0012821481
52	0xbd6863c1	-0.056735758
53	0xbc152dde	-0.009105174
54	0x2a660215	2.0428826e-13
55	0xbd483201	-0.048875812
56	0x3c5df8d9	0.013548099
57	0x3d2f762f	0.042837318
58	0xbcc04444	-0.023470052
59	0xbbe335e1	-0.006933913
60	0x9a12d489	-3.0363777e-23
61	0xbc506c7c	-0.012721177
62	0xa7b9c4c7	-5.156116e-15
63	0xbc24ae48	-0.0100513175
64	0x3b130104	0.0022431025
65	0x3c5de751	0.01354392
66	0xbd33d9ef	-0.04390901
67	0xbc2ecad1	-0.010668472
68	0xba24c350	-0.00062852073
69	0xbc8df61e	-0.017329272
70	0xbb8e6ac3	-0.004346223
71	0x3d71cb94	0.059032038
72	0xb93a0048	-0.00017738447
73	0x3cf37340	0.029718041
74	0xbb00d5db	-0.0019658718
75	0x3c15e07a	0.009147758
76	0xb195635f	-4.347768e-09
77	0xb08da643	-1.0306355e-09
78	0xbd130a96	-0.035898767
79	0x3b898d58	0.0041977577
80	0x3cfb3167	0.030663205
81	0xbcb349ce	-0.021885779
82	0xbcceecd6	-0.025259417
83	0xbc8d89e9	-0.017277675
84	0x3bdb270d	0.006688005
85	0xbd204869	-0.039131556
86	0x3cc401b6	0.023926597
87	0x3bf48b21	0.0074628745
88	0xb8b55aff	-8.647702e-05
89	0xb9f3ff78	-0.0004653891
90	0x3d363606	0.044485115
91	0xbd803377	-0.06259816
92	0x3c1c34c2	0.009534063
93	0x3da96b41	0.0827241
94	0x3c83d566	0.016092967
95	0xbd5b5658	-0.05354914
96	0x3a906b14	0.001101824
97	0x3d036667	0.03208008
98	0xbbe8605b	-0.0070915646
99	0x171c4013	5.048719e-25
100	0xbc99ec96	-0.01878957
101	0xbd1051a5	-0.035234112
102	0x3d0fc3fa	0.035099007
103	0x3d70b54e	0.058766656
104	0x3d0b7aba	0.034052588
105	0xbb1c6b28	-0.002386758
106	0x3cf5bc80	0.02999711
107	0x3d213969	0.03936139
108	0x3c6a5af0	0.014303908
109	0x3bf569ed	0.007489434
110	0x3c9bb3db	0.01900666
111	0x3c81531c	0.0157867
112	0x3bf07274	0.0073378626
113	0x3b89b2f6	0.004202242
114	0xbc9a25c7	-0.018816842
115	0xbd11002a	-0.035400547
116	0x3baff0a8	0.0053692646
117	0xbbece016	-0.0072288616
118	0x1fb8751f	7.812079e-20
119	0x3c7df051	0.01549919
120	0xbd14bf8c	-0.036315486
121	0xbd3349b8	-0.043771476
122	0x3cfd9ccd	0.030958558
123	0x3ba874e3	0.005140887
124	0xbc17a204	-0.009254936
125	0x3c41914f	0.011814429
126	0x3be341c5	0.0069353306
127	0x3be91f22	0.007114307
128	0xbcbd366d	-0.023097241
129	0xbd1a31a5	-0.037645
130	0x3c403e34	0.01173358
131	0xb978ad9d	-0.00023715799
132	0xbc539a92	-0.01291527
133	0x3d0432ba	0.03227494
134	0xbba81eae	-0.0051306104
135	0x3d5203e9	0.05127326
136	0x3c3c0524	0.011475835
137	0xbd59c9a5	-0.05317082
138	0xb6f5b138	-7.3222e-06
139	0x3b808bfb	0.003922937
140	0xbc04d210	-0.008106723
141	0xbc82ae08	-0.015952125
142	0xbcfe4105	-0.031036863
143	0xbc9b4f5c	-0.01895874
144	0xbd5350d4	-0.051590756
145	0x3d467ba4	0.048457757
146	0x3b33b4ad	0.0027420924
147	0xbc8d8c71	-0.017278882
148	0xbc72c0f8	-0.014816515
149	0x3ba17ef6	0.004928465
150	0xbcfa2bfd	-0.030538553
151	0x3ccd5c3f	0.0250684
152	0x3cc16e07	0.023612035
153	0x3d482873	0.0488667
154	0x9825621d	-2.1375285e-24
155	0x3d17ec8a	0.037090816
156	0xbc972a9b	-0.018452933
157	0xbc15e514	-0.009148855
158	0xbd12f961	-0.035882358
159	0xbb4127f7	-0.0029473284
160	0x3cb15c81	0.021650555
161	0x3a126a65	0.0005585312
162	0x3ab4fb39	0.001380778
163	0xba94f133	-0.0011363387
164	0xbcc13bae	-0.023588028
165	0x132f2b6e	2.2109518e-27
166	0x3b8f12f5	0.0043662735
167	0xbc45e840	-0.0120792985
168	0xbc952158	-0.018204376
169	0x3c5a0fcd	0.013309431
170	0xbada2a63	-0.0016644712
171	0x3d06d431	0.032917205
172	0xbd12b721	-0.035819177
173	0x3c8a7557	0.016901655
174	0x3acf2f37	0.0015806918
175	0xbc9e5ed4	-0.019332327
176	0xbcca336d	-0.024682725
177	0x3c1772e5	0.009243702
178	0xbb27cef6	-0.0025605536
179	0x3c91f545	0.017817149
180	0xbc018aed	-0.007906658
181	0x3ceb0e27	0.028693272
182	0xbc6a737c	-0.01430976
183	0x3aef364d	0.0018250436
184	0xbb48d2f8	-0.0030643325
185	0xbd20d100	-0.039261818
186	0x26ee6ac7	1.654351e-15
187	0x17351dc3	5.852182e-25
188	0xbce8a633	-0.028399562
189	0x3d7d0960	0.06177652
190	0xbc6a8f89	-0.014316448
191	0xb501007b	-4.8056944e-07
192	0x3d1b703d	0.037948836
193	0x3c583fff	0.013198852
194	0x3d458ed0	0.0482319
195	0x3ca32527	0.019915177
196	0xbd36b85d	-0.044609416
197	0x3d24ba40	0.040216684
198	0xb1999634	-4.469962e-09
199	0xbd2c02f9	-0.041995022
200	0x3c86527f	0.01639676
201	0x3b2a8690	0.0026020147
202	0x3a5918fc	0.0008281616
203	0xbd47b25b	-0.048754077
204	0xbad00816	-0.001587155
205	0xbcb6cb2d	-0.022313679
206	0xb967131c	-0.00022036996
207	0x3d4a2404	0.049350753
208	0xabda4a1c	-1.5510401e-12
209	0x3d095c24	0.033535138
210	0x3cd833db	0.026391914
211	0xbd38ae1c	-0.04508792
212	0xbbce050b	-0.0062872223
213	0x3cf77db3	0.030211305
214	0x3b8bf630	0.004271291
215	0xbb24a887	-0.0025124864
216	0xbbf78123	-0.007553236
217	0xbbc443bc	-0.00598952
218	0x3ce59c00	0.028028488
219	0xbc926d29	-0.017874317
220	0x3c01a4bf	0.007912814
221	0x2cc4a601	5.589085e-12
222	0x39b7bc80	0.00035044923
223	0xbbb82337	-0.0056194323
224	0x3d5ed560	0.05440271
225	0x3c9eb50c	0.01937344
226	0x3c687517	0.014188073
227	0xbce3b409	-0.027795808
228	0x3cc333b3	0.023828363
229	0xbcff8a6a	-0.03119393
230	0x0124946c	3.022853e-38
231	0x3d6f7733	0.058463287
232	0xbc97d995	-0.018536368
233	0x3c013a53	0.007887441
234	0xbd1ffbba	-0.039058425
235	0xbcb8c48b	-0.022554656
236	0xbcc40f2f	-0.023933021
237	0x3b910f41	0.0044268672
238	0xbccf3a20	-0.02529627
239	0xb98d74d8	-0.0002698067
240	0xbd4505fc	-0.04810141
241	0xbc7c1ff5	-0.0153884785
242	0xbd233b21	-0.03985131
243	0x3d204a57	0.039133396
244	0x3d6e7ff5	0.058227498
245	0x3ca4a3c0	0.020097613
246	0x3c5c4edc	0.013446536
247	0xbb3760f1	-0.0027981366
248	0xbcbcd980	-0.02305293
249	0xbd425d4a	-0.04745225
250	0x3cfb7f61	0.030700387
251	0x3c54a789	0.012979397
252	0x3cb3e74a	0.021960873
253	0x3c76927f	0.015049576
254	0x3ca1be29	0.019743996
255	0xbd013e1d	-0.031553376

pos_mlp.0.weight f4 [32, 1]
0	0xbed6ffca	-0.41992027
1	0xba1fde4a	-0.00060984923
2	0x3e8523f1	0.26003984
3	0xb6215728	-2.40416e-06
4	0xbd2debfe	-0.042461388
5	0x39046297	0.00012625229
6	0x35509191	7.7697865e-07
7	0x3b134d9f	0.0022476686
8	0x2b143fd7	5.266876e-13
9	0x3f84ffc1	1.039055
10	0xba350139	-0.0006904784
11	0xbea493c9	-0.32144
12	0xb4b935b4	-3.449801e-07
13	0x3f91c23b	1.13874
14	0x08a0d0df	9.678755e-34
15	0x3f1f3f1a	0.6220566
16	0x3f75e5ae	0.9605359
17	0x3f8afd8e	1.0858629
18	0x3ea8dda4	0.32981598
19	0x3f05f52e	0.5232724
20	0xb83f4bc8	-4.5608525e-05
21	0xbf2deadb	-0.67936486
22	0x3ee418bc	0.4455012
23	0x0589863f	1.2932732e-35
24	0xbf0d6e98	-0.5524688
25	0x37c56807	2.3532672e-05
26	0x3f1f82f9	0.62309223
27	0x3ef5a30b	0.47975954
28	0xbf119cef	-0.56880087
29	0x3f54c7a2	0.83117115
30	0xbea7d770	-0.32781553
31	0xb69838fd	-4.5365873e-06

pos_mlp.0.bias f4 [32]
0	0x3eb48ea8	0.35265088
1	0xbadbdfe9	-0.0016775104
2	0x3f8f1cba	1.1180642
3	0xb46fdd8d	-2.2339209e-07
4	0x3c3380f0	0.010956034
5	0xbb9d3914	-0.004798064
6	0xbbf13ce9	-0.0073619974
7	0xbb18cdb1	-0.002331596
8	0xbad5bb22	-0.001630638
9	0xbe83a867	-0.25714418
10	0xba1b9aa4	-0.0005935824
11	0x3f461fba	0.7739216
12	0xbbd09b72	-0.006366187
13	0xbf02bb5b	-0.5106713
14	0xba270cc0	-0.00063724443
15	0x3eaa5f3e	0.3327579
16	0xbe79c560	-0.24391699
17	0x3eabc4bf	0.33548543
18	0x3f902365	1.1260802
19	0x3e530563	0.20607524
20	0xa9bcfd06	-8.39277e-14
21	0x3f29c242	0.6631204
22	0xbce44642	-0.027865533
23	0xbb453fb3	-0.0030097782
24	0x3f0640f4	0.5244286
25	0xb932c71a	-0.00017049574
26	0x3e9c9e66	0.30589598
27	0xbca9c52a	-0.020723898
28	0x3ef20a29	0.47273377
29	0xbd5fbce3	-0.054623496
30	0x3ef00477	0.46878406
31	0xbbb0cb73	-0.005395347

pos_mlp.2.weight f4 [32, 32]
0	0xbe2ebc84	-0.170641
1	0xa0452f54	-1.6702209e-19
2	0x3e4a8070	0.19775558
3	0x8bf812f6	-9.5554654e-32
4	0xbc0d7396	-0.008633515
5	0x95f33aa7	-9.8239455e-26
6	0x229b16d0	4.2036988e-18
7	0x0000218c	1.2034e-41
8	0x80001cc8	-1.0325e-41
9	0x3ea43e60	0.32078838
10	0x00001d77	1.057e-41
11	0xbe8131d4	-0.25233328
12	0x895f6899	-2.689183e-33
13	0x3e62c420	0.22145128
14	0x8d1b2d3d	-4.7817516e-31
15	0x3e3c50e2	0.1839023
16	0x3e5c5c19	0.21519507
17	0x3e1229db	0.14273779
18	0x3dd292fd	0.10281942
19	0x3e72f1af	0.23725007
20	0x205227b1	1.7800825e-19
21	0xbe77e82c	-0.2420966
22	0x3df826fe	0.12116812
23	0x8aa1f531	-1.5595967e-32
24	0xbe91be86	-0.2846567
25	0x97910341	-9.371227e-25
26	0x3d454e59	0.04817042
27	0x3e3eb8c1	0.18625166
28	0xbe0479da	-0.12937108
29	0x3e40097c	0.18753618
30	0xbe13b5df	-0.14424847
31	0x869514b2	-5.607798e-35
32	0xbdd54895	-0.104142345
33	0x00001bc9	9.967e-42
34	0x3e4dd5d6	0.20101103
35	0xa185ab83	-9.057829e-19
36	0xbc8ac5ef	-0.016940085
37	0x105844f0	4.2651596e-29
38	0x89590539	-2.612288e-33
39	0x80000296	-9.28e-43
40	0x80001ca6	-1.0277e-41
41	0x3e7f12a1	0.2490945
42	0x00001bdb	9.993e-42
43	0xbe00ade9	-0.12566341
44	0x000046b2	2.536e-41
45	0x3e772b7d	0.24137683
46	0x15ba433f	7.52309e-26
47	0x3e9b6814	0.30352843
48	0x3e1b69da	0.15177098
49	0x3de2ad91	0.110682614
50	0x3e37dc31	0.1795509
51	0x3e8f57a5	0.27996555
52	0x973e23af	-6.143735e-25
53	0xbe809082	-0.2511025
54	0x3ddc7ce5	0.10766009
55	0x1ef6ae0b	2.6118246e-20
56	0xbe983ebb	-0.2973536
57	0xa36dcf33	-1.2891672e-17
58	0x39942201	0.00028254095
59	0x3e8361ca	0.25660545
60	0xbe0fe5c6	-0.14052495
61	0x3e0f6929	0.14004959
62	0xbd37a921	-0.04483903
63	0x000020a7	1.1713e-41
64	0xbd8ce47e	-0.06879519
65	0x1f295d35	3.586424e-20
66	0x3debe702	0.115186706
67	0x19249d5b	8.510379e-24
68	0xbc01bf9d	-0.007919219
69	0x15f940d1	1.0067256e-25
70	0x0c53baff	1.6311121e-31
71	0x9f830eda	-5.550523e-20
72	0x9c5fe385	-7.4078573e-22
73	0x3e8c3639	0.2738512
74	0x8713282d	-1.1070857e-34
75	0xbe0413b8	-0.12898147
76	0x1567e217	4.6828432e-26
77	0x3deaaac4	0.11458352
78	0x8e88f9c3	-3.37671e-30
79	0x3ea9007d	0.33008185
80	0x3e9c8898	0.30572963
81	0x3e4fd322	0.20295385
82	0x3d5abf5d	0.053405154
83	0x3e757305	0.23969658
84	0x1205c275	4.2207087e-28
85	0xbe836f31	-0.2567077
86	0x3e4f1d81	0.20226099
87	0x0a44d238	9.4765945e-33
88	0xbdb112f0	-0.0864619
89	0x0d492b08	6.1989704e-31
90	0x3e488195	0.19580682
91	0x3e851369	0.2599137
92	0xbe77cd90	-0.2419951
93	0x3db0971d	0.086225726
94	0xbe18a0d2	-0.14905098
95	0x09303038	2.1207902e-33
96	0xbd92ec08	-0.07173926
97	0x895aef65	-2.6353358e-33
98	0x3e2cab81	0.16862299
99	0x80001be3	-1.0004e-41
100	0xbc93403c	-0.017974965
101	0x148a5a7a	1.3970126e-26
102	0x15cbe830	8.2357374e-26
103	0x9a9cdb3d	-6.4874286e-23
104	0x000022dd	1.2507e-41
105	0x3dba55b1	0.090983756
106	0x0000204c	1.1586e-41
107	0xbe90864f	-0.2822747
108	0x9cd6562b	-1.4183606e-21
109	0x3e78fbe7	0.24314843
110	0x8953e52f	-2.5505963e-33
111	0x3ea472c4	0.3211881
112	0x3e42be2a	0.19017854
113	0x3e190952	0.14944962
114	0x3e89d2eb	0.2691873
115	0x3e4a7745	0.1977206
116	0x1cb7a9e9	1.2153845e-21
117	0xbe9cb4b3	-0.30606613
118	0x3e916a29	0.28401306
119	0x8e89cf32	-3.397263e-30
120	0xbe16e152	-0.1473439
121	0x95c5579d	-7.9705896e-26
122	0xbbac199a	-0.0052520754
123	0x3e6103f3	0.21974163
124	0xbd50514b	-0.050858777
125	0x3eaa2b35	0.3323609
126	0xbc986cd5	-0.018606583
127	0xa313a0fd	-8.0029766e-18
128	0xb980d96d	-0.00024576057
129	0x021edc7b	1.1671282e-37
130	0xba6d42f6	-0.00090508105
131	0x22431894	2.644044e-18
132	0xb6964436	-4.478289e-06
133	0x8d14dd83	-4.5872656e-31
134	0x80001fe3	-1.1439e-41
135	0x80af5584	-1.6101889e-38
136	0x090702f6	1.6251426e-33
137	0xba1d4e61	-0.0006000754
138	0x122d10e6	5.4610004e-28
139	0xba534a27	-0.0008060061
140	0x101175a3	2.8686832e-29
141	0xb99f2a56	-0.00030358386
142	0x0000216a	1.1987e-41
143	0xba52e552	-0.00080450356
144	0xba0ccd3e	-0.00053711596
145	0xba6a1fa4	-0.00089311064
146	0xba642839	-0.00087035034
147	0xba465ef2	-0.00075672485
148	0x80001e94	-1.097e-41
149	0xba1f76da	-0.0006083079
150	0xb9e19691	-0.00043027525
151	0x0063e589	9.174056e-39
152	0xb9fba651	-0.00047998366
153	0x1a0303b0	2.7093144e-23
154	0xba50993b	-0.00079574034
155	0xb9f58a5b	-0.00046833124
156	0xb9cf503b	-0.00039541893
157	0xba2fbcb1	-0.00067038374
158	0xba148dd6	-0.0005666887
159	0x00005934	3.2e-41
160	0x330bee6e	3.258031e-08
161	0x00001c60	1.0179e-41
162	0xb7562c11	-1.2765654e-05
163	0x80001f1f	-1.1164e-41
164	0xae793b4e	-5.666872e-11
165	0x1d49fe77	2.6733684e-21
166	0x96b5857a	-2.9326363e-25
167	0x1e3c1848	9.957658e-21
168	0x9410c832	-7.309624e-27
169	0xb18a1983	-4.019229e-09
170	0x068741b1	5.087788e-35
171	0x335cb0a5	5.13834e-08
172	0x9b569d44	-1.775248e-22
173	0x31518a9e	3.0492298e-09
174	0x1b36fa65	1.5135594e-22
175	0xb3d14529	-9.744901e-08
176	0x331320f9	3.4256093e-08
177	0x342d8d47	1.6163277e-07
178	0xb77f749b	-1.5226334e-05
179	0x32338f5f	1.045177e-08
180	0x0a99eaf4	1.4821744e-32
181	0x32bd7633	2.2056247e-08
182	0xb26a8e53	-1.3652953e-08
183	0x800021ec	-1.2169e-41
184	0x30303c44	6.411407e-10
185	0x107b7b2f	4.959592e-29
186	0xb3aa04d8	-7.917123e-08
187	0xb1420876	-2.8235525e-09
188	0xb29c3c41	-1.818819e-08
189	0xb292a577	-1.7071882e-08
190	0x30c1d2de	1.410253e-09
191	0x8c198b79	-1.1828662e-31
192	0xbe595d05	-0.2122689
193	0x074235fa	1.46108e-34
194	0x3e5c20d7	0.21496902
195	0x89b25214	-4.2929127e-33
196	0xbc7f74a5	-0.015591775
197	0x95ddab32	-8.953129e-26
198	0x00a8bac0	1.5495357e-38
199	0x8de421f3	-1.4059758e-30
200	0x1fbb4c82	7.932415e-20
201	0x3e90d284	0.2828561
202	0x802818d3	-3.682325e-39
203	0xbe0f496f	-0.13992856
204	0x00002147	1.1938e-41
205	0x3e2c696d	0.16837092
206	0x149d657f	1.5892982e-26
207	0x3bc2fe7e	0.005950748
208	0x3e439f10	0.19103646
209	0x3e968fec	0.2940668
210	0x3e709323	0.23493628
211	0x3d0a1a38	0.03371641
212	0x1a957aac	6.182314e-23
213	0xbd911aeb	-0.07085212
214	0x3dca20bc	0.09869525
215	0x0b8b8f55	5.3756515e-32
216	0xbe5888c0	-0.21145916
217	0x00011302	9.8654e-41
218	0x3dac66ab	0.0841802
219	0x3e57fd48	0.21092713
220	0xbdc1e1b2	-0.09466876
221	0x3e47541e	0.19465682
222	0xbd60dc28	-0.054897457
223	0x9d1d7e94	-2.0844216e-21
224	0x3ea0ee3b	0.31431755
225	0x80001da6	-1.0636e-41
226	0x3e7ff5f8	0.24996173
227	0x0e85f090	3.3018685e-30
228	0x3ca48d67	0.020086957
229	0x80b359ae	-1.6470725e-38
230	0x21414b49	6.5490583e-19
231	0x0000ec8b	8.4856e-41
232	0x00001ce6	1.0367e-41
233	0xbe9ff29f	-0.31239793
234	0x22bbb26c	5.0875363e-18
235	0x3ebc1cfd	0.36740866
236	0x160667a2	1.0857135e-25
237	0xbe13ae3e	-0.14421937
238	0x893b659a	-2.2557079e-33
239	0xbd54309a	-0.051804163
240	0xbea142cc	-0.31496274
241	0xbe925c8a	-0.28586227
242	0x3e5b8c2a	0.21440187
243	0xbbbdb9fd	-0.005789994
244	0x9231a47d	-5.60541e-28
245	0x3ec33ec6	0.3813383
246	0xbe921747	-0.28533384
247	0x1b3beccc	1.5544791e-22
248	0x3e342337	0.17591558
249	0x991c3f0c	-8.077743e-24
250	0x3e04a3c4	0.12953097
251	0xbe4626db	-0.1935076
252	0x3eb4e5b6	0.35331506
253	0xbe9beb50	-0.30452967
254	0x3e6d0198	0.23145139
255	0x939e4c05	-3.995977e-27

pos_mlp.2.bias f4 [32]
0	0x3e31bfec	0.17358369
1	0xbd49a4a6	-0.049229287
2	0x3d012d87	0.03153756
3	0xbd8df2cc	-0.069310755
4	0xba658419	-0.0008755341
5	0xb65260eb	-3.1348852e-06
6	0xbe254ef4	-0.161434
7	0x3ebeb085	0.3724405
8	0x3e844129	0.25830963
9	0xbd813bdf	-0.06310248
10	0x3d188452	0.037235565
11	0x3e4f0ec0	0.2022047
12	0x3eac068c	0.33598745
13	0x3e13e5fb	0.144432
14	0x3e8ae786	0.27129763
15	0x3c8e6a09	0.017384546
16	0x3ca0f053	0.019645846
17	0xa33ac86e	-1.0125523e-17
18	0x3ebea23b	0.37233147
19	0x3ea2b050	0.3177514
20	0xa3719662	-1.3096481e-17
21	0x3e766977	0.24063669
22	0x3db13347	0.086523585
23	0xbc1bec86	-0.009516841
24	0xab3b1a71	-6.647244e-13
25	0x23546b40	1.1515254e-17
26	0x3df5833d	0.11987922
27	0xb9594fd7	-0.00020724475
28	0x3dc860a1	0.097840555
29	0x3eb3ac8c	0.3509258
30	0x3cb232c6	0.021752726
31	0xa41d2c73	-3.4081598e-17
