pointnet/weights_per_bundle_ratio025/SLF_II_right_best.pth (torch, 359830 bytes, 17 tensors)

t_grid f4 [100]
0	0x00000000	0.0
1	0x3c257eb5	0.01010101
2	0x3ca57eb5	0.02020202
3	0x3cf83e10	0.030303031
4	0x3d257eb5	0.04040404
5	0x3d4ede62	0.05050505
6	0x3d783e10	0.060606062
7	0x3d90cede	0.07070707
8	0x3da57eb5	0.08080808
9	0x3dba2e8c	0.09090909
10	0x3dcede62	0.1010101
11	0x3de38e39	0.11111111
12	0x3df83e10	0.121212125
13	0x3e0676f3	0.13131313
14	0x3e10cede	0.14141414
15	0x3e1b26ca	0.15151516
16	0x3e257eb5	0.16161616
17	0x3e2fd6a0	0.17171717
18	0x3e3a2e8c	0.18181819
19	0x3e448677	0.1919192
20	0x3e4ede62	0.2020202
21	0x3e59364e	0.21212122
22	0x3e638e39	0.22222222
23	0x3e6de624	0.23232323
24	0x3e783e10	0.24242425
25	0x3e814afd	0.25252524
26	0x3e8676f3	0.26262626
27	0x3e8ba2e9	0.27272728
28	0x3e90cede	0.28282827
29	0x3e95fad4	0.2929293
30	0x3e9b26ca	0.3030303
31	0x3ea052bf	0.3131313
32	0x3ea57eb5	0.32323232
33	0x3eaaaaab	0.33333334
34	0x3eafd6a0	0.34343433
35	0x3eb50296	0.35353535
36	0x3eba2e8c	0.36363637
37	0x3ebf5a81	0.37373737
38	0x3ec48677	0.3838384
39	0x3ec9b26d	0.3939394
40	0x3ecede62	0.4040404
41	0x3ed40a58	0.41414142
42	0x3ed9364e	0.42424244
43	0x3ede6243	0.43434343
44	0x3ee38e39	0.44444445
45	0x3ee8ba2f	0.45454547
46	0x3eede624	0.46464646
47	0x3ef3121a	0.47474748
48	0x3ef83e10	0.4848485
49	0x3efd6a05	0.4949495
50	0x3f014afd	0.5050505
51	0x3f03e0f8	0.5151515
52	0x3f0676f3	0.5252525
53	0x3f090cee	0.53535354
54	0x3f0ba2e9	0.54545456
55	0x3f0e38e4	0.5555556
56	0x3f10cede	0.56565654
57	0x3f1364d9	0.57575756
58	0x3f15fad4	0.5858586
59	0x3f1890cf	0.5959596
60	0x3f1b26ca	0.6060606
61	0x3f1dbcc5	0.61616164
62	0x3f2052bf	0.6262626
63	0x3f22e8ba	0.6363636
64	0x3f257eb5	0.64646465
65	0x3f2814b0	0.65656567
66	0x3f2aaaab	0.6666667
67	0x3f2d40a6	0.6767677
68	0x3f2fd6a0	0.68686867
69	0x3f326c9b	0.6969697
70	0x3f350296	0.7070707
71	0x3f379891	0.7171717
72	0x3f3a2e8c	0.72727275
73	0x3f3cc486	0.7373737
74	0x3f3f5a81	0.74747473
75	0x3f41f07c	0.75757575
76	0x3f448677	0.7676768
77	0x3f471c72	0.7777778
78	0x3f49b26d	0.7878788
79	0x3f4c4867	0.7979798
80	0x3f4ede62	0.8080808
81	0x3f51745d	0.8181818
82	0x3f540a58	0.82828283
83	0x3f56a053	0.83838385
84	0x3f59364e	0.8484849
85	0x3f5bcc48	0.85858583
86	0x3f5e6243	0.86868685
87	0x3f60f83e	0.8787879
88	0x3f638e39	0.8888889
89	0x3f662434	0.8989899
90	0x3f68ba2f	0.90909094
91	0x3f6b5029	0.9191919
92	0x3f6de624	0.9292929
93	0x3f707c1f	0.93939394
94	0x3f73121a	0.94949496
95	0x3f75a815	0.959596
96	0x3f783e10	0.969697
97	0x3f7ad40a	0.97979796
98	0x3f7d6a05	0.989899
99	0x3f800000	1.0

encoder.mlp.0.weight f4 [64, 3]
0	0xbd0d85bf	-0.03455138
1	0xbe0a5691	-0.13509585
2	0x3d2ff7ee	0.042961054
3	0x3eb57e27	0.3544781
4	0xbf035bd3	-0.5131199
5	0x3c8fec67	0.01756878
6	0xbe887f13	-0.2665945
7	0xbe7eaf2e	-0.24871513
8	0x3f00bd8b	0.5028922
9	0xbea599e1	-0.32343963
10	0x3917f7fb	0.00014492862
11	0x3dc6e124	0.09710911
12	0xbe89d9bd	-0.26923934
13	0xbe3d38e9	-0.18478741
14	0xbd8692d0	-0.06570971
15	0x3e96185e	0.29315466
16	0xbd942c05	-0.072349586
17	0x3ebcf324	0.36904252
18	0xbefb08a9	-0.49030045
19	0xbe0d67c3	-0.13809113
20	0x3e06ffbe	0.13183495
21	0xbeb5be9d	-0.3549699
22	0x3e9fdee8	0.3122475
23	0xbe6c77ff	-0.2309265
24	0xbeabfebe	-0.3359279
25	0x3ecfa978	0.40558982
26	0xbe1f3ff4	-0.1555174
27	0xbed8f1e6	-0.42372054
28	0x3ea38c7f	0.31943128
29	0x3eabd7f4	0.33563197
30	0xbd4991cf	-0.04921132
31	0xbdb507f5	-0.08839408
32	0x3f16f0ce	0.5896119
33	0x3dbc1a63	0.0918472
34	0xbe508988	-0.20364964
35	0x3e4d011b	0.20019953
36	0xbd6d1502	-0.057881363
37	0x3cdcfca5	0.026975939
38	0xbe212916	-0.1573833
39	0xbe266a2e	-0.16251442
40	0xbf07fe96	-0.5312284
41	0x3d7028a8	0.058632523
42	0x3dd6044d	0.10450039
43	0xbf0a5425	-0.54034644
44	0xbb553605	-0.003253342
45	0x3e63df26	0.22253093
46	0x3ed67169	0.418834
47	0x3e54f5d7	0.20796905
48	0x3e892fcc	0.2679428
49	0x3cc87104	0.024467953
50	0x3e9b8602	0.30375677
51	0xbe129b5d	-0.14317079
52	0x3e2d2190	0.16907334
53	0x3e92176d	0.28533497
54	0x3e3d127f	0.18464087
55	0xbc8d211a	-0.017227698
56	0xbeac4f43	-0.33654222
57	0xbcd1d566	-0.025614452
58	0x3ea294ff	0.317543
59	0x3e6c8709	0.23098387
60	0xbe1f1225	-0.15534265
61	0x3f05aafc	0.52214026
62	0x3e7b11fc	0.24518579
63	0xbe6cb376	-0.23115334
64	0x3e411c0e	0.18858358
65	0x3e2d946e	0.16951153
66	0x3e84d593	0.25944194
67	0x3e9e049a	0.30862886
68	0xbe8c5ac0	-0.27412987
69	0x3ede1d1b	0.4338158
70	0xbea72fb7	-0.3265359
71	0xbee7023c	-0.45118892
72	0xbec36539	-0.38163164
73	0x3f0a27cb	0.5396697
74	0xbe42e524	-0.19032723
75	0x3efdcbbd	0.49569502
76	0xbcf77d6f	-0.030211179
77	0x3e3a4463	0.1819015
78	0xbd146a96	-0.03623446
79	0x337dfede	5.9137953e-08
80	0xbd1166ce	-0.035498433
81	0x3f005881	0.50135046
82	0xbdb7cacc	-0.08974227
83	0xbeb73655	-0.3578364
84	0x3f12a393	0.57280844
85	0x3d36cca2	0.044628747
86	0x3e5fbbb5	0.21848948
87	0x3e85525f	0.26039407
88	0x3c442450	0.011971548
89	0x3e8b8109	0.27246884
90	0x3c15652a	0.009118358
91	0xbdf49411	-0.11942304
92	0xbe412998	-0.18863523
93	0xbeded35f	-0.43520638
94	0xbea8cf35	-0.32970586
95	0x3d0b3943	0.033990156
96	0x3e81c16d	0.25342885
97	0x3f0a786b	0.54089993
98	0xbed5a142	-0.41724592
99	0x3f171432	0.5901519
100	0xbe99f3e8	-0.30068898
101	0xbee56bdc	-0.44808853
102	0xbe31bb32	-0.17356566
103	0x3e8b160e	0.27165264
104	0x3e7c24e8	0.24623454
105	0xbee8f76e	-0.45501274
106	0x3ef599b2	0.47968823
107	0xbedb1fd3	-0.42797717
108	0xbe09b860	-0.1344924
109	0xbe14a659	-0.14516582
110	0xbb7c3a2a	-0.0038486817
111	0x3f133227	0.574984
112	0x3eaebf04	0.34130108
113	0xbd0d44a0	-0.034489274
114	0xbda170fd	-0.07882879
115	0x3cc6ed65	0.02428312
116	0x3e1bc99a	0.15213624
117	0x3e8bbc03	0.2729188
118	0x3cea2ce3	0.028585857
119	0xbedc9b49	-0.43087223
120	0x3f052fde	0.52026165
121	0xbe6ec2e0	-0.23316526
122	0x3edad61d	0.4274148
123	0xbd05a58f	-0.032628592
124	0xbeec41b1	-0.4614387
125	0x3e473d0e	0.19456884
126	0x3ed94c9b	0.42441258
127	0xbd3e3e16	-0.04644593
128	0x3d9fe0a0	0.07806516
129	0x3e31b9b3	0.17355995
130	0x3ec06c38	0.37582564
131	0x3dc10a47	0.094257884
132	0x3db6f49a	0.08933373
133	0x3dd9cf1b	0.10635205
134	0xbef59815	-0.47967592
135	0x3e8b94f2	0.27262074
136	0x3abaddd0	0.0014256779
137	0xbda474c2	-0.08030082
138	0x3ec9ecb0	0.3943839
139	0xbaf4b95a	-0.0018670962
140	0x3ecdc221	0.4018717
141	0xbecfbf3a	-0.40575582
142	0x3ef8b587	0.48575994
143	0x3ec5b095	0.38611284
144	0x3dd2a8f2	0.1028613
145	0xbf079c93	-0.5297329
146	0x3edb8440	0.42874336
147	0xbd031633	-0.032003593
148	0x30d45bc1	1.5451108e-09
149	0xb5e4f424	-1.7058378e-06
150	0xbf04b4a0	-0.5183811
151	0xbf1091fb	-0.5647275
152	0xbe3a8ae4	-0.18217045
153	0x3ecfab71	0.40560487
154	0x3eb54cdf	0.3541021
155	0x3e742dfe	0.2384567
156	0xbeca2d09	-0.39487484
157	0x3ea5130e	0.322411
158	0xbe87685f	-0.26446816
159	0x3f10bf7b	0.56542176
160	0x3ecb7e0a	0.39744598
161	0x3e87ffcf	0.26562354
162	0xbe2aeb7b	-0.16691391
163	0x3d413699	0.04717121
164	0xbecb5b79	-0.39718226
165	0xbe4f5b9d	-0.20249791
166	0xbec1f7b5	-0.37884298
167	0x3e9ce5de	0.30644125
168	0xbe8bc9b9	-0.2730234
169	0x3e62a50d	0.22133274
170	0x3e1296e3	0.14315371
171	0xbea69e4b	-0.32542643
172	0xbe952588	-0.29130197
173	0x3e876eb0	0.26451635
174	0xbe46eb6e	-0.19425747
175	0xbe5296a7	-0.20565282
176	0xbea669da	-0.32502633
177	0x3f0a4bd9	0.54021984
178	0x3ef0bc1f	0.47018525
179	0x3c797182	0.015224816
180	0xbe4f67c2	-0.20254424
181	0x3cdabe5e	0.026702102
182	0x3d72d5fd	0.059286106
183	0xbd698817	-0.05701455
184	0xb9f4f2cf	-0.00046720213
185	0xbd1f6778	-0.038917035
186	0x3e397a03	0.1811295
187	0xbe89161a	-0.26774675
188	0x3eb5a3df	0.35476586
189	0xbc64e1ac	-0.01396982
190	0xbe90f56c	-0.28312242
191	0x3edd4d47	0.4322302

encoder.mlp.0.bias f4 [64]
0	0xbe499a24	-0.19687706
1	0x3dcfbc81	0.10143376
2	0xbe2e986b	-0.1705033
3	0xbd19b55c	-0.037526473
4	0xbe71e090	-0.2362082
5	0x3e97ed3f	0.29673192
6	0x3d00ffff	0.031494137
7	0xbe5ddc3e	-0.21666047
8	0x3e252452	0.16127136
9	0xbe97a262	-0.29616076
10	0x3eb2ca2c	0.3491987
11	0xbeb4a905	-0.35285202
12	0xbc165e1e	-0.009177713
13	0x3e0f391e	0.13986632
14	0x3d06a727	0.032874253
15	0xbe1470e2	-0.14496186
16	0xbe8fe9ed	-0.2810816
17	0xbe8fad56	-0.28061932
18	0x3d60073d	0.054694403
19	0x3ed2e984	0.41193783
20	0x3e6ce521	0.2313428
21	0x3e87c7ec	0.26519716
22	0xbe8fad7d	-0.2806205
23	0xbe01ab30	-0.12662959
24	0x3e11bc53	0.14231996
25	0xbcda6a3c	-0.026661985
26	0x3b67b805	0.0035357487
27	0xbe2fbf07	-0.17162715
28	0xbe47b9b7	-0.19504438
29	0x3e764469	0.24049534
30	0xbea04783	-0.3130456
31	0x3e4169b9	0.18887986
32	0x3e6f101a	0.23345986
33	0xbd8e6dce	-0.06954537
34	0x3ea6a5b8	0.32548308
35	0xbe2aeabc	-0.16691107
36	0x3d9e2af9	0.0772304
37	0xbd1b4303	-0.037905704
38	0x3cd75c67	0.026289178
39	0xbe9585ba	-0.29203588
40	0xbe3e2881	-0.18570139
41	0x3e800edf	0.25011346
42	0xbe9e4079	-0.30908564
43	0xbe13efb9	-0.14446916
44	0x3dac16c2	0.08402778
45	0xbe89ab8b	-0.2688869
46	0xbe8d1807	-0.27557394
47	0xbe8d1fc1	-0.2756329
48	0x3ef33e09	0.47508267
49	0x3baad55e	0.0052134236
50	0xbe1cb4d0	-0.1530335
51	0x3e2fcfd9	0.17169131
52	0x3e2596e8	0.16170847
53	0xbdae1058	-0.08499211
54	0x3d825c25	0.063652314
55	0x3e992a60	0.29915142
56	0xbc8937af	-0.016750185
57	0xbebf3128	-0.3734219
58	0x3c0f8660	0.008760065
59	0xbe80483b	-0.25055107
60	0x3e5fefd8	0.21868837
61	0xb616dba6	-2.2479594e-06
62	0x3eb7d56d	0.35905018
63	0xbe744e1a	-0.23857918

encoder.mlp.2.weight f4 [128, 64]
0	0xbd36aab1	-0.044596378
1	0x3d92e0b4	0.07171765
2	0xbd629ad5	-0.05532344
3	0x3d6b135c	0.05739151
4	0xbd53da68	-0.05172196
5	0x3db8c0de	0.090211615
6	0xbc055fc6	-0.00814051
7	0x3c8623dc	0.016374521
8	0x3d32ffc1	0.043700937
9	0x3d42abb6	0.047527038
10	0x3cc07d1c	0.023497157
11	0x3c22d1b5	0.009937693
12	0x1ad523e6	8.815273e-23
13	0x3dd0c3ef	0.10193621
14	0xbd3f0407	-0.0466347
15	0xbdba741a	-0.09104176
16	0x3dcaca0b	0.09901818
17	0xbc61e7bc	-0.01378816
18	0x3d1071dd	0.03526484
19	0x3d2da8cc	0.042397305
20	0xbdc8b788	-0.09800631
21	0x3dab4820	0.08363366
22	0xbda7f6fd	-0.08201406
23	0x3b07289e	0.0020623575
24	0xbc417813	-0.011808413
25	0x3e0322c8	0.12806237
26	0xb4081ea9	-1.2677141e-07
27	0xbc1b0468	-0.0094615
28	0xbc9b61d5	-0.018967548
29	0xbdbe74a3	-0.092995904
30	0xbd3b9fa0	-0.045806527
31	0x3ac1cb19	0.0014785259
32	0xba93e911	-0.0011284669
33	0xbbc9cf9b	-0.0061587817
34	0x3a2e46e1	0.0006648135
35	0x3c91009d	0.017700488
36	0x3bfd1405	0.007723334
37	0xbcb49ff1	-0.022048922
38	0xbc99730d	-0.018731618
39	0xbdcbf727	-0.0995925
40	0xbcd76a8c	-0.026295923
41	0xbcb026f1	-0.021502944
42	0xbdd8d573	-0.10587587
43	0x3d8a3200	0.06747818
44	0x3acd3e1f	0.0015658772
45	0xbdd40f0d	-0.10354433
46	0xbd802b57	-0.062582664
47	0x3d7ab7b6	0.061210357
48	0x3dd9c143	0.10632565
49	0xa53b9508	-1.6270158e-16
50	0xbdda5dab	-0.10662397
51	0x3dd4dc29	0.10393555
52	0x3c6e200b	0.014534007
53	0xbba8abee	-0.0051474487
54	0xa7145158	-2.0583222e-15
55	0x3df418e1	0.11918808
56	0xbd83017f	-0.0639677
57	0x3dff25b3	0.124583624
58	0xbd205a36	-0.03914853
59	0xbcf68ffa	-0.03009795
60	0x3d42498f	0.047433432
61	0x1c3c8e46	6.2387866e-22
62	0x3e07cee0	0.1326251
63	0x3da679a6	0.08128671
64	0x3d495008	0.04914859
65	0xbc1e1efd	-0.009650943
66	0xbd2561e5	-0.040376563
67	0xb9a3538e	-0.00031152036
68	0x3cc97c38	0.024595365
69	0xbdb2905b	-0.0871894
70	0xbd00185f	-0.031273242
71	0xbcb6f7f3	-0.022335028
72	0x3d03d482	0.032185085
73	0xbc9e62d1	-0.019334229
74	0xbdbe22ce	-0.09283982
75	0x3d7a2fbf	0.06108069
76	0x3ca106a6	0.01965649
77	0x3bcebc1a	0.0063090445
78	0x3d9f49e5	0.07777766
79	0x3d50e825	0.05100264
80	0xbd7164de	-0.058934085
81	0xbd61ea7f	-0.055155274
82	0xbd588a72	-0.052866407
83	0x3d37b070	0.044846
84	0xbbeb75a8	-0.0071856566
85	0x3d5d486a	0.054024138
86	0xbd861d8b	-0.065486036
87	0xbd08eb3d	-0.033427466
88	0x3d8e44ad	0.069466926
89	0x3bb50a2f	0.0055248956
90	0x232baf78	9.3070855e-18
91	0x3e0cf837	0.13766561
92	0x3d6adb65	0.057338137
93	0xbd57e796	-0.052711092
94	0x3ccae1f1	0.02476594
95	0x3b40c854	0.002941628
96	0x3cc0f529	0.023554401
97	0x3b319b22	0.0027100523
98	0xbca7f590	-0.020502836
99	0x3dc4b0f4	0.09604064
100	0x3ac539ec	0.0015047169
101	0x3dcb6c3d	0.09932754
102	0xbc0fe199	-0.008781814
103	0x3e1e4e3a	0.15459529
104	0x3d8980b9	0.06714005
105	0x3d66aabd	0.056315172
106	0x3c06705b	0.008205499
107	0x3c9b05a4	0.018923588
108	0xbbba0b8c	-0.005677646
109	0x3c4d9ca4	0.012549553
110	0xbde05fc2	-0.10955764
111	0x3d8fdbc9	0.070243426
112	0x3caedc5e	0.021345314
113	0x9a99149f	-6.331263e-23
114	0x3d8cd68a	0.068768576
115	0xbd83a710	-0.06428349
116	0x3d754dc4	0.059888616
117	0x3dc0e809	0.09419257
118	0x3d145069	0.036209498
119	0xbd6da4fc	-0.05801867
120	0xbc21cd4d	-0.009875608
121	0xbc907e0b	-0.017638227
122	0x3d080f08	0.03321746
123	0xbd1de26a	-0.038546003
124	0x384320e7	4.6522266e-05
125	0xb396630c	-7.002936e-08
126	0xbbfac303	-0.0076526417
127	0x3cbad83b	0.022808185
128	0xbd9ad160	-0.07559466
129	0x3dc1bf5a	0.094603255
130	0x3da37876	0.079819605
131	0x3c85df29	0.016341763
132	0xbd51f5c9	-0.05125979
133	0x3dd285c8	0.10279423
134	0xbe003eda	-0.12523976
135	0x3dd5c2dd	0.10437558
136	0x3e026f78	0.12737834
137	0xbc3acdf1	-0.011401639
138	0x3d1d1917	0.038354006
139	0x3d1d9ef4	0.038481668
140	0x3cd2eada	0.025746752
141	0xbdf703ff	-0.12061309
142	0xbd190c2f	-0.037365135
143	0x3dbff5a3	0.09373023
144	0x3c9dae1a	0.019248057
145	0xbde1e67d	-0.1103029
146	0xbdeae54e	-0.11469518
147	0xbb5d99ba	-0.0033813552
148	0x393724ff	0.00017466022
149	0xbd91a5d8	-0.0711171
150	0x3db7d4d4	0.089761406
151	0x3d3e49a2	0.04645694
152	0x3db2fca1	0.087395914
153	0xbd03eb8d	-0.03220706
154	0xb34a41c4	-4.7091604e-08
155	0x3b82db73	0.0039934455
156	0x3db977a6	0.09056024
157	0xbca481b8	-0.020081386
158	0xbd585b86	-0.05282166
159	0xbdfe5721	-0.12418962
160	0x3d9c6d67	0.07638054
161	0xbd118507	-0.035527255
162	0x3d275525	0.040852685
163	0xbcb08c79	-0.021551358
164	0xbda97cde	-0.0827577
165	0xbdaa8d65	-0.0832775
166	0x3d65b2ae	0.056078605
167	0x3dc505d8	0.09620255
168	0x3cf3dff5	0.029769877
169	0xbd958735	-0.07301179
170	0xbc93062f	-0.017947285
171	0xbd19717b	-0.03746174
172	0x3dbd63b2	0.09247531
173	0xbd24eaff	-0.040263172
174	0xbdc92c76	-0.098229334
175	0xbce4e60b	-0.027941724
176	0x3dce0ec5	0.10061411
177	0x210d0989	4.778528e-19
178	0x3c1e056c	0.009644847
179	0x3daa71a9	0.0832246
180	0x3e021b08	0.12705624
181	0xbd2c551d	-0.042073358
182	0x3d70cce2	0.05878914
183	0x3d76bb94	0.060237482
184	0x3d824df3	0.06362524
185	0x3d877d06	0.06615643
186	0xbd0435f0	-0.032278
187	0xbdcca97e	-0.099932656
188	0xbdbd10d9	-0.09231729
189	0xb092aacd	-1.0671443e-09
190	0x3ca37fe1	0.019958438
191	0x3d652148	0.055939943
192	0xbb12b93e	-0.0022388245
193	0x3d6c8bdd	0.05775057
194	0x3d871499	0.065957256
195	0xbda62d2e	-0.08114086
196	0x3d48ff76	0.04907175
197	0x3d2e3e86	0.042540096
198	0x3dca8cd4	0.09890142
199	0xba9b49b1	-0.0011847523
200	0xbbf47071	-0.007459693
201	0x3d2434bc	0.040089354
202	0xbc69d462	-0.014271827
203	0xbd331d19	-0.04372892
204	0xbc999bd7	-0.018751068
205	0xbe02374f	-0.12716411
206	0xbbf6f3cd	-0.0075363875
207	0x3def79a8	0.11693126
208	0x3df1b295	0.1180164
209	0x3db9c70e	0.0907117
210	0xbc1d3095	-0.009594102
211	0x3d9b1958	0.07573193
212	0xbd84ec79	-0.06490416
213	0xbd0a5445	-0.033771772
214	0xbdf1371a	-0.11778088
215	0xbdaa1b66	-0.08306007
216	0xbc5e21e6	-0.013557887
217	0x3dc382bd	0.09546421
218	0x1e2b7d1f	9.078539e-21
219	0x3db86877	0.090043
220	0x3d7f5938	0.062340945
221	0xbd98950d	-0.07450304
222	0x3d127883	0.03575946
223	0xbdfcee2d	-0.12350116
224	0xbda0d3e1	-0.07852913
225	0x3c2a7b7c	0.0104054175
226	0xbdbd215b	-0.09234878
227	0x3d867287	0.06564813
228	0x3d106223	0.03524984
229	0xbd29fa0f	-0.04149824
230	0x3cf68ad1	0.03009549
231	0x3ddad59c	0.10685274
232	0x3d0a5119	0.033768747
233	0xbd61a79d	-0.05509149
234	0xbd50c43d	-0.050968397
235	0x3c68c522	0.014207156
236	0xbd7efd9a	-0.062253572
237	0x3e043161	0.12909462
238	0xbd42c012	-0.047546454
239	0xbdb5335e	-0.08847688
240	0x3dec933e	0.11551522
241	0x9b3b7c3a	-1.5508417e-22
242	0xbd408160	-0.04699838
243	0x3db8b04b	0.09018
244	0x3d153949	0.036431585
245	0xbdc8cba6	-0.09804468
246	0xbc8ddc8e	-0.017317083
247	0x3c848fef	0.016181914
248	0x3da634ea	0.08115561
249	0xbd8d072a	-0.06886132
250	0x3d938f5b	0.07205077
251	0x3d909567	0.07059746
252	0x3d028ca1	0.031872395
253	0x2ba0b6f4	1.1419463e-12
254	0xbcbb9885	-0.022899875
255	0x3dc38da7	0.095485024

encoder.mlp.2.bias f4 [128]
0	0xbd9793dd	-0.074012496
1	0x3bdb872c	0.0066994634
2	0xbc4d5c4c	-0.012534212
3	0x3d24db1e	0.04024803
4	0xbd559cd0	-0.0521515
5	0xbb6453c7	-0.0034839974
6	0xbc8d8614	-0.017275847
7	0x3d882284	0.06647208
8	0xbc3feb6c	-0.011713844
9	0xbd5d6b07	-0.054057147
10	0xbcc04f48	-0.023475304
11	0x3d5bf6ea	0.053702272
12	0x3b3ec08c	0.0029106466
13	0x3d0f6b91	0.035014693
14	0x3dae3c33	0.08507576
15	0xbdc15b2c	-0.09441218
16	0x3b4b07e1	0.0030980038
17	0x3acdd9e6	0.0015705198
18	0xbd290ae8	-0.041270167
19	0x3c67d605	0.014150147
20	0xbc8d9011	-0.01728061
21	0x3d002a44	0.031290308
22	0xbc13e37a	-0.009026403
23	0xba31c185	-0.0006780851
24	0x3c02b9b2	0.0079788435
25	0x3b97170a	0.0046109008
26	0xbbae3b24	-0.0053171087
27	0x3ccd4ebd	0.02506196
28	0x3bf2ff90	0.0074157193
29	0xbd003f6c	-0.031310484
30	0xbd641a47	-0.055689123
31	0xbccb0da4	-0.024786778
32	0x3d065ccd	0.032803345
33	0xbd6d1684	-0.0578828
34	0x3d95fb07	0.0732327
35	0x3cd7f3ad	0.02636131
36	0xbbd36a80	-0.006451905
37	0xbc140ca8	-0.009036221
38	0xbd2b71ba	-0.041856505
39	0x1e9a6b99	1.6349886e-20
40	0xbb6e84ad	-0.0036395
41	0xbd77f2f0	-0.060534418
42	0xbd0194bb	-0.03163598
43	0x3c1a6fd3	0.009426075
44	0xbd5eddd9	-0.05441079
45	0x3bfed6c6	0.007777068
46	0x3dbba0c4	0.09161523
47	0xbce7c83a	-0.028293718
48	0xbd3ef8b1	-0.04662389
49	0xbcf459b0	-0.029827923
50	0xbd518aeb	-0.051157873
51	0xbd915fdb	-0.07098361
52	0xb02088e3	-5.840219e-10
53	0xbc5bc907	-0.013414628
54	0xbcfaf771	-0.030635567
55	0xbd065a67	-0.03280106
56	0x3b42b860	0.0029711947
57	0xbd67b9f7	-0.056573834
58	0xbcc00da7	-0.02344401
59	0x34140158	1.3784063e-07
60	0xbc397144	-0.011318509
61	0xbd4b47cd	-0.04962902
62	0xbd8a91d3	-0.06766095
63	0x3c759fc5	0.014991705
64	0xbd17f259	-0.037096355
65	0xbda842b9	-0.08215851
66	0xbd9a1847	-0.07524162
67	0x33f98922	1.16199104e-07
68	0xbd09285b	-0.03348575
69	0xbd503b33	-0.050837707
70	0xbca8c54a	-0.020601887
71	0x3da2c5fc	0.07947919
72	0x3d629cfc	0.055325493
73	0xbd89c8f6	-0.067277834
74	0x3d5a4048	0.05328396
75	0xbc7dd9f2	-0.015493857
76	0xbd62ead4	-0.05539973
77	0x3d85b7b1	0.06529177
78	0x29bf1b41	8.486832e-14
79	0xbd173d60	-0.036923766
80	0x3cd9f7c3	0.0266074
81	0x3d6804f9	0.056645367
82	0x3bea80b3	0.0071564554
83	0xb409ee8f	-1.2845906e-07
84	0xbd8ef661	-0.06980587
85	0xbd075a98	-0.03304538
86	0xbda326f2	-0.079664126
87	0xbdbed6bc	-0.09318301
88	0x1e5edd83	1.179839e-20
89	0x3a09a023	0.00052499975
90	0xbd14d855	-0.036339123
91	0x3d4be35e	0.04977738
92	0x3b7b647b	0.0038359452
93	0xbd20668d	-0.0391603
94	0x3daec9d6	0.08534591
95	0x3d26ab8b	0.04069094
96	0xbccfce24	-0.02536685
97	0x3c94b5a1	0.018153014
98	0xbc5ad4a7	-0.013356364
99	0x3dab3eba	0.083615735
100	0xbbe586ee	-0.0070046103
101	0xbd996958	-0.07490796
102	0x3c3163d1	0.010827021
103	0x3d3d6c98	0.04624614
104	0x3cc1451b	0.023592522
105	0xbc957b4d	-0.018247271
106	0x3d397fc9	0.04528788
107	0xbb65df2f	-0.0035075655
108	0x3d0a75d4	0.033803776
109	0xbbe0d53f	-0.0068613584
110	0xbd64ad8d	-0.055829573
111	0x3d3666bd	0.044531573
112	0x3444e6f7	1.8337947e-07
113	0xbd802229	-0.062565155
114	0x3d2c63d7	0.042087402
115	0xbd804e4d	-0.06264935
116	0x3d9e6332	0.07733764
117	0x3c9995c4	0.018748172
118	0x3dc177a5	0.094466485
119	0x3d90648c	0.07050428
120	0xbcb32caa	-0.021871883
121	0xbdaf36bd	-0.085553624
122	0x3c3a7fb2	0.011382984
123	0x3bc633ac	0.0060486402
124	0x3c5493d3	0.012974697
125	0x3d5fe1b0	0.05465859
126	0xbdb71df1	-0.08941258
127	0xbc8ae833	-0.016956424

encoder.mlp.4.weight f4 [256, 128]
0	0x2fe82548	4.2227044e-10
1	0x9d61c5d5	-2.9880779e-21
2	0xae71be98	-5.4966337e-11
3	0xa715c025	-2.0782066e-15
4	0x9cad013a	-1.1448497e-21
5	0x29c8f26b	8.923837e-14
6	0x1ba1d6b7	2.6773972e-22
7	0xad141763	-8.418019e-12
8	0x9bcecc02	-3.4211678e-22
9	0x1e265c30	8.807031e-21
10	0x9da91fa2	-4.4766635e-21
11	0x1bc12334	3.195192e-22
12	0x27296c34	2.3512118e-15
13	0x1ec2bb50	2.061802e-20
14	0xa0290182	-1.4315356e-19
15	0xa1ddcae9	-1.5029252e-18
16	0x2cabd12a	4.883334e-12
17	0x1e01083c	6.830906e-21
18	0x2929cb1e	3.7701714e-14
19	0x27150283	2.0679265e-15
20	0x9da61da4	-4.397048e-21
21	0x2999c95b	6.8294945e-14
22	0x9f212283	-3.4121624e-20
23	0x9e2c128a	-9.109438e-21
24	0x1d98b80c	4.0424365e-21
25	0x2ef8470b	1.1290354e-10
26	0xa5af0520	-3.0361134e-16
27	0xa3f2ea61	-2.6336956e-17
28	0x1b043fe2	1.0939426e-22
29	0x9e840245	-1.3976982e-20
30	0x1e858188	1.4135496e-20
31	0xa4b9d0eb	-8.058488e-17
32	0x9c2f1371	-5.792777e-22
33	0xad532a44	-1.2003346e-11
34	0x9c9b7e5a	-1.0289701e-21
35	0xb02659d0	-6.051808e-10
36	0x9b920d38	-2.4162216e-22
37	0xa8d3779f	-2.3477583e-14
38	0x1b01f7d1	1.0750704e-22
39	0x9de1c992	-5.9765423e-21
40	0x9ce3935a	-1.5059689e-21
41	0x1ebbde6b	1.9891385e-20
42	0x1b147f51	1.2283411e-22
43	0x9cbb9c96	-1.2415098e-21
44	0x1da245c8	4.2953195e-21
45	0xa7717344	-3.3507954e-15
46	0x9e359e70	-9.614824e-21
47	0x1fe1934f	9.553491e-20
48	0x1da6271d	4.3980276e-21
49	0x9c517b38	-6.9311556e-22
50	0xa1b54f79	-1.2286073e-18
51	0x238161d7	1.4027645e-17
52	0xa882903e	-1.4495454e-14
53	0xa5318468	-1.5397164e-16
54	0x9f723bb6	-5.1294885e-20
55	0x1d5d9f78	2.933155e-21
56	0xa644ba34	-6.825351e-16
57	0x1a030685	2.709543e-23
58	0x2a2554d2	1.4684372e-13
59	0x9cb2c0f9	-1.1828934e-21
60	0xaf0167be	-1.1769338e-10
61	0x9c88a3dc	-9.042082e-22
62	0xa6176179	-5.252075e-16
63	0x29326259	3.9609243e-14
64	0x1d89e449	3.649964e-21
65	0x9c22c31f	-5.385349e-22
66	0x2360f2e6	1.21945e-17
67	0xadeac2ba	-2.6689196e-11
68	0xaefdeca7	-1.1547146e-10
69	0xac041440	-1.876957e-12
70	0x1c490961	6.6517443e-22
71	0x9cce40b5	-1.3648663e-21
72	0xafc00991	-3.4931394e-10
73	0xa1fdffad	-1.7211624e-18
74	0x9b1326ac	-1.217205e-22
75	0x1dd3c1e2	5.6051705e-21
76	0x9c21733c	-5.341937e-22
77	0x9f0489d1	-2.8066086e-20
78	0x9d96ecca	-3.9949504e-21
79	0x1e81cef4	1.3744e-20
80	0x1d1e3de7	2.0943129e-21
81	0x1e4ae859	1.0741839e-20
82	0xa3800f53	-1.3884278e-17
83	0x9c8c6cbe	-9.292532e-22
84	0x2a6d8641	2.1096407e-13
85	0x9f5403ea	-4.4895984e-20
86	0x9ebda491	-2.0079216e-20
87	0x1dcd7028	5.4379015e-21
88	0xa910ced8	-3.215383e-14
89	0x1c849770	8.774173e-22
90	0x237b4532	1.362139e-17
91	0x1bf395a9	4.0297693e-22
92	0x9cfea70d	-1.6851492e-21
93	0x25bc22cb	3.2636378e-16
94	0x2540261c	1.6666257e-16
95	0x9e00aefc	-6.8124495e-21
96	0x9eb86075	-1.9521651e-20
97	0x1be63122	3.808206e-22
98	0x9f33f110	-3.8104127e-20
99	0x276ee8c6	3.3155322e-15
100	0x9a67b855	-4.7918583e-23
101	0x2a5f3779	1.9825625e-13
102	0xae57f746	-4.9104963e-11
103	0x9d0f6148	-1.8976186e-21
104	0x9d4c9a46	-2.7078933e-21
105	0x1c3ad85b	6.182187e-22
106	0x2a11228b	1.2890572e-13
107	0x300788ab	4.930693e-10
108	0x9d96ad02	-3.9883555e-21
109	0x1d154af3	1.9758734e-21
110	0xa784672e	-3.6749227e-15
111	0xa14b79d3	-6.894031e-19
112	0x1edd1808	2.3409224e-20
113	0xa1888041	-9.249667e-19
114	0x9c2a00db	-5.6249387e-22
115	0xa7118a3a	-2.0197725e-15
116	0xb007c02a	-4.9385795e-10
117	0x9f098589	-2.9121336e-20
118	0x9d0de047	-1.8777143e-21
119	0xac8f0968	-4.0653488e-12
120	0x9c173550	-5.0030614e-22
121	0x208e22f7	2.4078873e-19
122	0x1de2b6cf	6.001072e-21
123	0x9d291a1c	-2.2380462e-21
124	0x22c693ee	5.3824634e-18
125	0x1d213881	2.1337384e-21
126	0x1e4cfedc	1.0852374e-20
127	0x2cdb954a	6.2409288e-12
128	0xb98deb19	-0.00027068777
129	0xb548d1d1	-7.481113e-07
130	0xb7eb6fd5	-2.8066259e-05
131	0xb770c9ef	-1.4352131e-05
132	0x9d84a922	-3.511499e-21
133	0x1fe55f5f	9.714305e-20
134	0xb70a2fb3	-8.236547e-06
135	0xa850ec96	-1.1597621e-14
136	0xaaf7605d	-4.394288e-13
137	0x9d390655	-2.448782e-21
138	0xb411e186	-1.3586222e-07
139	0xb58075ea	-9.571061e-07
140	0x9f0b66d0	-2.951944e-20
141	0xaa3ad909	-1.6595418e-13
142	0xb6c5bb04	-5.892829e-06
143	0x26cba6a2	1.4131121e-15
144	0x1e1770cd	8.0172e-21
145	0x9c0ecd49	-4.7249184e-22
146	0xb5989266	-1.136749e-06
147	0xb8d526a8	-0.00010163832
148	0x1d893ec8	3.6328512e-21
149	0xad7df74c	-1.4436296e-11
150	0xb839259a	-4.4142456e-05
151	0x1b912797	2.4013822e-22
152	0xb7dc87bb	-2.6289248e-05
153	0x29ba3d4d	8.270693e-14
154	0x2da58332	1.881659e-11
155	0xb9939e38	-0.00028155907
156	0xb397a6d5	-7.061832e-08
157	0xb954347b	-0.00020237446
158	0xb8252ba9	-3.9379727e-05
159	0xb49bfe72	-2.9056133e-07
160	0x9c285105	-5.569125e-22
161	0xac669332	-3.2766676e-12
162	0xba07c879	-0.0005179714
163	0xb952a057	-0.00020086892
164	0x1df49c5e	6.4747942e-21
165	0x9ff79370	-1.04852484e-19
166	0xb83a5613	-4.442602e-05
167	0xa5310041	-1.5352389e-16
168	0x9b8591c2	-2.2097198e-22
169	0xb9bad28e	-0.0003563356
170	0xb797730e	-1.805418e-05
171	0xa9262129	-3.6888166e-14
172	0xb7c71f5b	-2.373725e-05
173	0x2a404e08	1.7080098e-13
174	0xa901ebd9	-2.884832e-14
175	0xb147714f	-2.902272e-09
176	0xa6de24c0	-1.5414306e-15
177	0xb949dc48	-0.00019250915
178	0xb7d48ffa	-2.5339414e-05
179	0xb9b058aa	-0.00033635396
180	0x253fe9d3	1.6645832e-16
181	0xb6d0ca2f	-6.2224203e-06
182	0xb9490173	-0.00019169394
183	0x25b2910f	3.0976373e-16
184	0xa82b1e0f	-9.498925e-15
185	0xb77d8fb7	-1.5113436e-05
186	0x1e72442b	1.282547e-20
187	0xae45f52d	-4.5010374e-11
188	0x22e372b7	6.1649932e-18
189	0xb9b70d48	-0.00034914375
190	0x1cfbde87	1.6667309e-21
191	0x1c797724	8.2541175e-22
192	0xa8614809	-1.2505629e-14
193	0xb78de8ec	-1.6916973e-05
194	0xa72bd28a	-2.384515e-15
195	0x9a8d14d1	-5.8349864e-23
196	0x2e8f5447	6.517858e-11
197	0x2db1c3c4	2.0209508e-11
198	0x2f1b6769	1.4133907e-10
199	0x2964f952	5.084242e-14
200	0xaa5164d7	-1.8597915e-13
201	0xa9483b77	-4.44605e-14
202	0xb9487148	-0.00019115687
203	0x9df2b9a5	-6.424882e-21
204	0xb8a0b786	-7.6635784e-05
205	0xb9807730	-0.00024502864
206	0x2542e525	1.6904455e-16
207	0xb9af98a6	-0.00033492333
208	0x2ea65f6a	7.565755e-11
209	0xb904995e	-0.00012645635
210	0x1f227dea	3.4408988e-20
211	0x2e8c0090	6.366563e-11
212	0xb9ee2854	-0.00045424944
213	0xb677692a	-3.6867082e-06
214	0xa352a313	-1.1418655e-17
215	0xb1be7990	-5.543548e-09
216	0xaa82573b	-2.3153167e-13
217	0xa83b7b54	-1.0407328e-14
218	0xb652f042	-3.1432287e-06
219	0x1cdc454f	1.4576295e-21
220	0x2aabbeb6	3.0508034e-13
221	0x9bed4b2d	-3.9256942e-22
222	0xb8bec7d9	-9.0971305e-05
223	0x1e813a66	1.368256e-20
224	0xb5889b6e	-1.0178026e-06
225	0x27889559	3.7909506e-15
226	0xa95510ff	-4.7310243e-14
227	0x2a43d55b	1.7393502e-13
228	0x9d98386c	-4.0292404e-21
229	0xb4d046e0	-3.8794587e-07
230	0x9c8a1358	-9.137074e-22
231	0xb78b92dc	-1.6638478e-05
232	0xb8059b0a	-3.1854062e-05
233	0xb006ab13	-4.8992027e-10
234	0xb67ad435	-3.7376424e-06
235	0xaea1b9ab	-7.3544136e-11
236	0xb970090a	-0.00022891551
237	0xb9460483	-0.00018884432
238	0xb19a70e9	-4.4948263e-09
239	0xb9bf035e	-0.00036432868
240	0x1c557670	7.0628865e-22
241	0xb3fd233d	-1.17876404e-07
242	0xb80b9525	-3.3279084e-05
243	0xaf64d1d7	-2.0811029e-10
244	0xb6f20db9	-7.2137595e-06
245	0xb7fd0f82	-3.0167172e-05
246	0xb73a87f2	-1.1118116e-05
247	0xb914b4a1	-0.0001418167
248	0xb91c5721	-0.00014909777
249	0x9dd083bb	-5.5193348e-21
250	0xb7c180de	-2.3067401e-05
251	0xb01b0dd9	-5.640835e-10
252	0x9c9d06be	-1.0391131e-21
253	0xb9b5f09e	-0.00034702284
254	0xb92cd74d	-0.00016483404
255	0xae3ed744	-4.3392193e-11

encoder.mlp.4.bias f4 [256]
0	0xaf8adc24	-2.5258473e-10
1	0xa98829e2	-6.046879e-14
2	0xbd3fe622	-0.04685033
3	0x3d697ce5	0.057003874
4	0xbd3be8c8	-0.045876294
5	0xbc9079dc	-0.017636232
6	0x3b05e328	0.0020429585
7	0xbbf06d75	-0.007337267
8	0xbc675e25	-0.014121567
9	0xbd96b434	-0.0735859
10	0x3d525e65	0.051359553
11	0xbca8529f	-0.02054721
12	0xbd1c2a87	-0.038126495
13	0x3c9396b4	0.018016197
14	0x3d27a7ef	0.04093164
15	0x3c71a06d	0.014747721
16	0x3cfb9664	0.03071136
17	0x3cafe95e	0.021473583
18	0xbb817ce7	-0.003951657
19	0xaa9c51c6	-2.7767908e-13
20	0xa794568a	-4.1172078e-15
21	0x3d0c0f56	0.034194313
22	0x3d4a6c9c	0.049419984
23	0xbd0646df	-0.03278243
24	0x3d40e98d	0.04709773
25	0x3c8e7331	0.017388912
26	0x3d5c1096	0.053726755
27	0xbca45311	-0.02005914
28	0x3c6c7dce	0.014434291
29	0x3cbcf30a	0.023065109
30	0xbca0b63d	-0.019618148
31	0x3d0e1f86	0.03469803
32	0xbcdbf8b8	-0.026851997
33	0x3c133383	0.008984449
34	0xbcb66d98	-0.022269055
35	0x3d105ace	0.035242848
36	0x3cd51a07	0.026013387
37	0x3ca9cc60	0.020727336
38	0x3c5b6238	0.013390116
39	0x1e5d65f1	1.17207236e-20
40	0x3d4ba39b	0.049716573
41	0x3c6a0352	0.014283018
42	0x3ced6aa8	0.028981522
43	0xbd5237d2	-0.051322766
44	0x3d894ea3	0.06704452
45	0x3ce1a151	0.027542742
46	0x2e4b56cc	4.6233947e-11
47	0xbccc979a	-0.024974633
48	0xbd2d2e47	-0.04228046
49	0xbd11485e	-0.035469405
50	0xbc8bb168	-0.017052367
51	0xbce10327	-0.027467323
52	0xbd10169a	-0.035177805
53	0x3ccffba9	0.025388556
54	0xbd130681	-0.035894874
55	0x3b3f4814	0.002918725
56	0x3cf584ad	0.029970491
57	0x3b26af65	0.0025434133
58	0x3d45a16a	0.04824964
59	0x3d6551dc	0.05598627
60	0x3b77f088	0.0037832577
61	0x3c0c62ee	0.008568509
62	0xbd64b24c	-0.0558341
63	0xbd47f78a	-0.048820056
64	0x3c81535e	0.015786823
65	0x3d64a0f4	0.05581756
66	0x3d42dcaa	0.047573723
67	0x399e6f1f	0.000302189
68	0x3b5c2706	0.0033592596
69	0x3cb93ab1	0.022610994
70	0x3d36641c	0.044529065
71	0x3d5ff92f	0.054681
72	0x3d216c45	0.039409894
73	0x3d86e700	0.065870285
74	0x3d439613	0.047750544
75	0x3ca5ba9e	0.020230588
76	0x3c670530	0.014100358
77	0xbb4c3579	-0.0031159802
78	0x3d7558ed	0.05989926
79	0x3bb1092c	0.0054027047
80	0xbc6a5d30	-0.014304444
81	0x3d4de3c8	0.050266057
82	0xbd1a3228	-0.03764549
83	0x2828ac36	9.363216e-15
84	0xad12b91f	-8.340244e-12
85	0xbcc7f90d	-0.024410749
86	0x3d052559	0.03250632
87	0xbc149776	-0.009069314
88	0xbb9456c1	-0.0045269434
89	0xbce86b5f	-0.028371511
90	0xbd29b2aa	-0.041430153
91	0x3d2cd162	0.04219187
92	0x3d573860	0.052543998
93	0x3bb8537c	0.0056251865
94	0xbd4be033	-0.04977436
95	0x2373395f	1.3185205e-17
96	0x3b929319	0.004473102
97	0xbc03f738	-0.008054547
98	0x3d760a27	0.060068276
99	0xbd5c8c3f	-0.053844687
100	0x3d72b5bc	0.059255347
101	0xbd346b74	-0.044047788
102	0xbd44f776	-0.04808756
103	0xb0ceec30	-1.5055601e-09
104	0xbc5ed61b	-0.013600851
105	0x3d487c50	0.04894668
106	0x358c2fbe	1.0444708e-06
107	0xbd313f74	-0.043273404
108	0xbaf98094	-0.0019035512
109	0xbd81c1e5	-0.063358106
110	0x3d11c9af	0.03559273
111	0xbc2a845e	-0.010407535
112	0xab3aeab7	-6.6406207e-13
113	0x3cb6bfdf	0.022308288
114	0xbd6ce1da	-0.057832576
115	0xbb3c4271	-0.0028726126
116	0x3d330d3e	0.0437138
117	0xbd92872d	-0.07154689
118	0xa930ec3b	-3.9284748e-14
119	0x3c71623f	0.014732896
120	0x3c60c311	0.013718382
121	0xbd2ba64e	-0.041906647
122	0xbb7e17e1	-0.0038771557
123	0xbcad4a79	-0.021153675
124	0xa5b72a64	-3.1774165e-16
125	0xbd7d4e1e	-0.061842076
126	0xbcf6e14a	-0.030136723
127	0x3cfdd1ab	0.030983767
128	0xbbd3cb9b	-0.0064634806
129	0x3d2444f4	0.04010482
130	0xbc8717e4	-0.016490884
131	0xa50b8935	-1.2102816e-16
132	0xbc918858	-0.01776521
133	0xbcef7af8	-0.02923344
134	0x3b2351fa	0.0024920688
135	0x3ccd6b32	0.025075529
136	0x3bd2f7b0	0.006438218
137	0x3b4cc83d	0.003124728
138	0xbca065eb	-0.019579848
139	0xbd04706f	-0.032333788
140	0x38df1a44	0.00010638361
141	0xbd7e5687	-0.062094238
142	0xbd74c47d	-0.0597577
143	0xabbfeaf4	-1.3636579e-12
144	0xbc0b0455	-0.00848492
145	0xbba6406d	-0.005073598
146	0x38015f9c	3.084504e-05
147	0xbca2c5b9	-0.019869672
148	0xbd39a8aa	-0.045326866
149	0x3cd600cf	0.026123432
150	0xbcd61c5f	-0.026136575
151	0x3d12291e	0.035683744
152	0x3cb533a6	0.022119354
153	0xaa897738	-2.4418813e-13
154	0x3c11d39b	0.008900548
155	0xa9329ee7	-3.9661765e-14
156	0x3d15c5dc	0.036565647
157	0x9b9851dc	-2.519919e-22
158	0x3ba01929	0.004885812
159	0xbc80c3a0	-0.015718281
160	0x3d439c64	0.047756568
161	0xacf91d0e	-7.0802314e-12
162	0xbc7349a8	-0.014849104
163	0xbd43b71a	-0.04778204
164	0x3c966cf2	0.018362496
165	0x3d393958	0.045220703
166	0xa1481d6f	-6.780159e-19
167	0xbd50628a	-0.050875224
168	0x3cad65c4	0.02116669
169	0x253fff87	1.6653185e-16
170	0xbc887b8a	-0.01666047
171	0xbd0c0165	-0.034181017
172	0xbc0f0aeb	-0.00873063
173	0x3d14a078	0.036285847
174	0x2a5e4c44	1.9744021e-13
175	0xbbc9a452	-0.0061536217
176	0x3b0f6cb9	0.0021884872
177	0x3c8d4a15	0.01724724
178	0xbc31b516	-0.010846397
179	0x3bf71b18	0.0075410716
180	0x3c26ac64	0.010172937
181	0x3d36df29	0.044646416
182	0x9e0500ed	-7.041153e-21
183	0xbc1ef69a	-0.009702349
184	0xbd7a413c	-0.06109737
185	0x2a514146	1.8585575e-13
186	0x3d7c4378	0.06158778
187	0x3cd8ad91	0.02644995
188	0xbcf9953d	-0.03046667
189	0xbd318818	-0.04334268
190	0x1e08fc49	7.251951e-21
191	0xbd0f39d5	-0.034967262
192	0x3d1dd205	0.03853037
193	0xbd33fe7d	-0.04394387
194	0x3b8561fb	0.004070518
195	0x3d41bcd3	0.047299217
196	0xbd8216ea	-0.06352027
197	0xbd618b61	-0.055064563
198	0xbd2d54ce	-0.042317204
199	0xba100f2a	-0.00054954237
200	0xbd2ceab3	-0.042216014
201	0xbd74ae89	-0.059736762
202	0xbd60e1ce	-0.054902844
203	0xaf800ead	-2.3293492e-10
204	0x3d0975c8	0.03355959
205	0x3bd9c7cf	0.0066461335
206	0xbb8b4410	-0.004250057
207	0x3d8ab519	0.06772823
208	0x2b4683b4	7.0526506e-13
209	0xbc9f6437	-0.019456966
210	0x3d34ec5a	0.044170715
211	0x3d453b09	0.048152003
212	0xbd6b6afa	-0.057475068
213	0xbc932608	-0.01796247
214	0xbce796f0	-0.028270215
215	0x3cd96ef1	0.026542159
216	0x3d9b6fe5	0.075897016
217	0x3d849ff2	0.0647582
218	0xbcc71eb5	-0.024306634
219	0xbcc02846	-0.023456704
220	0x3d5114ba	0.051045157
221	0x3d8f8d43	0.070093654
222	0x3cc7a312	0.02436975
223	0xbc1dcae5	-0.009630893
224	0xbd49beef	-0.049254354
225	0x3d6a0700	0.057135582
226	0x3da144b6	0.07874434
227	0xbcf08f39	-0.029365169
228	0xbd2179bb	-0.03942273
229	0x3cadccb5	0.021215776
230	0xaba3d69a	-1.164141e-12
231	0xbd3111a4	-0.043229714
232	0xbd59c766	-0.053168677
233	0xbd8af4a9	-0.067849465
234	0x3d559455	0.052143414
235	0xbd1dc954	-0.03852208
236	0xaf181ad2	-1.3833848e-10
237	0x3cff2511	0.031145604
238	0x3d0baf34	0.034102634
239	0x3c4f3137	0.012646011
240	0x3cf14d3a	0.02945577
241	0xbcb48626	-0.022036623
242	0xbb3b6e7a	-0.0028599785
243	0x3ad1a53b	0.0015994677
244	0xbb034122	-0.0020027836
245	0x2520267c	1.3890827e-16
246	0x2c10779d	2.053003e-12
247	0x3d8df7a8	0.06932002
248	0xbbdb0804	-0.006684305
249	0xbd5b5751	-0.05355007
250	0xbd585279	-0.052813027
251	0x3d3c19d0	0.045923054
252	0x3d4e97be	0.05043768
253	0x3c5614a4	0.013066445
254	0xbd768a0c	-0.060190246
255	0xbd67b54d	-0.056569386

pos_mlp.0.weight f4 [32, 1]
0	0x3f703a40	0.9383888
1	0x3c23ae7c	0.009990331
2	0x35a084f9	1.1959629e-06
3	0xb9ad8ee8	-0.00033103605
4	0xbcea8408	-0.02862741
5	0xbf0639bd	-0.5243185
6	0x3f2f0b22	0.6837636
7	0x3f240222	0.64065754
8	0xbed98299	-0.4248245
9	0x3f4cc799	0.7999206
10	0xbd621ad8	-0.05520138
11	0x3f7b8d15	0.9826215
12	0xbf6d7021	-0.9274922
13	0xbf606c72	-0.87665474
14	0x3e310d38	0.17290199
15	0x35bb68d5	1.3963096e-06
16	0x345bbb2c	2.0464057e-07
17	0x3f333455	0.7000173
18	0xbdcd6438	-0.10028881
19	0xba3738da	-0.00069893675
20	0x3f40ebc0	0.75359726
21	0xbf641e3a	-0.8910862
22	0xbe4dafec	-0.2008664
23	0xbf3e23dd	-0.74273473
24	0x3edba160	0.42896557
25	0xbf47966b	-0.77963895
26	0xbef43547	-0.47696897
27	0xbc4e0242	-0.0125737805
28	0x3f3988f3	0.7247459
29	0xbe81691a	-0.252755
30	0x3f680ac0	0.90641403
31	0xbf1ceb4b	-0.6129653

pos_mlp.0.bias f4 [32]
0	0x3f00c3c1	0.50298697
1	0xbcdd6b33	-0.027028656
2	0xbd00361d	-0.031301606
3	0xb7d9b513	-2.5952735e-05
4	0xbe60b63a	-0.21944514
5	0x3eef3de2	0.467269
6	0x3f33118b	0.69948643
7	0x3f21b01f	0.63159364
8	0x3e55ea63	0.20890193
9	0xbd415543	-0.047200453
10	0xbe3813d1	-0.1797631
11	0x3f0d63cd	0.5523041
12	0x3f5a3cb2	0.85248864
13	0x3f558456	0.83405054
14	0x3f750b76	0.95720613
15	0xbd9f9d64	-0.07793692
16	0xbd9bb8a5	-0.076035775
17	0xbda6b07f	-0.08139133
18	0xba33b337	-0.0006855013
19	0xb49e06dd	-2.9434787e-07
20	0x3f75cd5f	0.96016496
21	0x3f49bcea	0.78803885
22	0xb8bf1ae0	-9.1125956e-05
23	0x3f15f0df	0.58570665
24	0x3f29ee04	0.6637881
25	0x3f25fcf8	0.64839125
26	0x3f723ebd	0.9462698
27	0xbe25f794	-0.16207725
28	0xbd596f47	-0.053084638
29	0xbdd64e76	-0.10464184
30	0xbf09793f	-0.5370063
31	0x3f7d4d1d	0.9894579

pos_mlp.2.weight f4 [32, 32]
0	0xbe1c9f7f	-0.15295218
1	0x3008a213	4.9706833e-10
2	0xb4842747	-2.4615494e-07
3	0x37803759	1.5284562e-05
4	0x38671b55	5.5100147e-05
5	0x3e6f5948	0.23373902
6	0xbd9703a6	-0.07373743
7	0x3d0d2fe9	0.03446952
8	0x3e3ac921	0.18240787
9	0xbe5fa6c4	-0.2184096
10	0xb3eb0770	-1.0944393e-07
11	0xbe42305c	-0.1896376
12	0x3eb83e06	0.3598482
13	0x3eb30c03	0.34970102
14	0x3e974233	0.29542693
15	0x1e861a7c	1.4198756e-20
16	0x1c198fbb	5.080922e-22
17	0xbe49fc02	-0.1972504
18	0xb620e7b8	-2.3976736e-06
19	0xb026d5fe	-6.069455e-10
20	0x3df9932c	0.12186274
21	0x3e8a8691	0.2705579
22	0xb6bcbb91	-5.624672e-06
23	0x3e0914c1	0.13386823
24	0x3dc0e1fd	0.09418104
25	0x3e671408	0.22566235
26	0x3e07caec	0.13261002
27	0x3887cc22	6.475324e-05
28	0xbe393b7b	-0.18089096
29	0x33161964	3.494769e-08
30	0xbdf609de	-0.12013601
31	0x3e5bf8b3	0.2148159
32	0xb10669f1	-1.9559787e-09
33	0x1dc10ac6	5.1097814e-21
34	0x34281e3c	1.5657218e-07
35	0xa696289b	-1.0419347e-15
36	0x359b9cba	1.1594013e-06
37	0xa74ac4cb	-2.8139813e-15
38	0xb82d407f	-4.130648e-05
39	0xb68f7051	-4.2748075e-06
40	0xb787e1e9	-1.6198452e-05
41	0x383c13df	4.48412e-05
42	0x1bb2e4fd	2.959561e-22
43	0x9cd3db63	-1.4019519e-21
44	0xb83c74b0	-4.4931367e-05
45	0x1ec332e7	2.066748e-20
46	0xb8894822	-6.546105e-05
47	0xae3798a7	-4.1744965e-11
48	0xb249ccca	-1.17463035e-08
49	0x9e2d3ad6	-9.170711e-21
50	0xb87ecb86	-6.0747865e-05
51	0xb83432a4	-4.2962507e-05
52	0xb2a86ab0	-1.960629e-08
53	0x1d76f3db	3.26839e-21
54	0x9d8839f4	-3.6058822e-21
55	0x1c8ef82a	9.460921e-22
56	0xb65afae8	-3.2630578e-06
57	0x1dec518d	6.2553e-21
58	0x2a7e6d0c	2.2597565e-13
59	0x1a1acae0	3.2010335e-23
60	0x37031fd7	7.815622e-06
61	0x9bd82061	-3.5755127e-22
62	0x9d60cbad	-2.9751451e-21
63	0x36ca1808	6.0228667e-06
64	0xbd9e3e5f	-0.0772674
65	0x36d9c6d6	6.4902515e-06
66	0x209298d8	2.4834506e-19
67	0x2a197192	1.3628532e-13
68	0x3459b511	2.0275571e-07
69	0x3e34cfb7	0.17657362
70	0xbcb993ec	-0.022653542
71	0xbcba2658	-0.022723362
72	0x3e068769	0.13137592
73	0xbde1f5ae	-0.11033188
74	0xb7d3c605	-2.524537e-05
75	0xbdb89277	-0.09012311
76	0x3e0ad17c	0.13556474
77	0x3df77114	0.12082115
78	0x3d8fa179	0.0701322
79	0xb104fe52	-1.9353092e-09
80	0xaa806c35	-2.281245e-13
81	0xbe0b2203	-0.13587193
82	0x1cbaaab1	1.235257e-21
83	0xb8027e33	-3.1111947e-05
84	0x3d1869f7	0.03721043
85	0x3e186d01	0.14885332
86	0x2e67ce3b	5.270649e-11
87	0x3e29bb2e	0.1657531
88	0x3d5ddea9	0.054167423
89	0x3e097bf6	0.13426194
90	0x3e33344a	0.17500415
91	0x36e9bd45	6.965975e-06
92	0xbe06336f	-0.13105558
93	0x1d2a6d46	2.2555806e-21
94	0xbdd83ac1	-0.105580814
95	0x3e04770b	0.12936036
96	0xbd5c9fd9	-0.05386338
97	0xadbd10ee	-2.149433e-11
98	0x2ce9f563	6.6495017e-12
99	0x2380efea	1.3979395e-17
100	0x26d6911b	1.4888564e-15
101	0x3da4b5d2	0.08042492
102	0xbc1e3e20	-0.009658366
103	0xbc60bc17	-0.013716719
104	0x3d8fde43	0.07024815
105	0xbdb0fac2	-0.08641578
106	0xb80a2f1c	-3.2945638e-05
107	0xbd548a7f	-0.051889893
108	0x3daa1556	0.08304851
109	0x3d9f8d28	0.07790595
110	0x3d810b36	0.063009664
111	0xb3b87e28	-8.5911154e-08
112	0x3732305f	1.0620889e-05
113	0xbdba3595	-0.09092251
114	0x3290367b	1.6788581e-08
115	0x3116d4e8	2.1948896e-09
116	0xbb320ca9	-0.002716819
117	0x3da03c04	0.07823947
118	0x9d8c2794	-3.7098614e-21
119	0x3db224b4	0.08698407
120	0x3c98c6b1	0.018649431
121	0x3d99f409	0.07517249
122	0x3d8e7a69	0.06956942
123	0xb6d0f687	-6.2275826e-06
124	0xbdb19dd6	-0.08672683
125	0x9cd3d2cc	-1.4017298e-21
126	0xbd8805fa	-0.06641765
127	0x3d921d64	0.07134512
128	0x9cfd3319	-1.6755344e-21
129	0x9dc98682	-5.3343335e-21
130	0x1e861cf8	1.4199783e-20
131	0x9cf3af0e	-1.6125642e-21
132	0x1d92e107	3.887855e-21
133	0xb5191039	-5.702055e-07
134	0xb4b50dfb	-3.372405e-07
135	0x9d4fc03a	-2.74956e-21
136	0x1e00555e	6.793917e-21
137	0x1cc11ad9	1.2778609e-21
138	0x1d25acae	2.1926841e-21
139	0x3346ebc9	4.6314913e-08
140	0xb404af64	-1.2357265e-07
141	0xb33453bd	-4.1985675e-08
142	0xaba0334c	-1.1382922e-12
143	0xb73a2468	-1.109494e-05
144	0x3776ccef	1.4710457e-05
145	0x327b3350	1.462179e-08
146	0xb80dcaa5	-3.3805747e-05
147	0x1e2093da	8.5009045e-21
148	0xaa359eef	-1.613117e-13
149	0xb80916c0	-3.2684533e-05
150	0xb83e9e37	-4.544688e-05
151	0x270b33d0	1.9318213e-15
152	0xa7473ffc	-2.7651484e-15
153	0x9d430c0b	-2.5814261e-21
154	0xb82703f3	-3.981958e-05
155	0x1c2c1c7b	5.6946836e-22
156	0xaf8de952	-2.5813535e-10
157	0xb11f2d36	-2.3163245e-09
158	0x33dd9e87	1.03199504e-07
159	0x9f11e7eb	-3.0896782e-20
160	0x3e079916	0.13241991
161	0xb8534652	-5.037181e-05
162	0x38825b61	6.215904e-05
163	0xb146eb8a	-2.894668e-09
164	0xa1d2a400	-1.4273564e-18
165	0xbe3569fd	-0.17716213
166	0x3e0939dd	0.1340098
167	0x3e17e083	0.14831738
168	0xbdf691c5	-0.12039522
169	0x3e2d1a8b	0.16904657
170	0x1edbf45d	2.3288593e-20
171	0x3e2c4646	0.16823682
172	0xbe4da307	-0.20081721
173	0xbe41f67c	-0.18941683
174	0x3d8efd98	0.06981963
175	0x32ca8a78	2.3578863e-08
176	0xb66a1314	-3.4879822e-06
177	0x3e28d3c7	0.16487037
178	0x2965ff78	5.10698e-14
179	0x1d5e2bd7	2.940412e-21
180	0x3e6e2c79	0.23259152
181	0xbe1f342f	-0.1554725
182	0x1d716baa	3.1951745e-21
183	0xbe21104c	-0.15728873
184	0x3e1e040d	0.15431233
185	0xbe218934	-0.15774995
186	0xbdd7f33f	-0.105444424
187	0x340d6248	1.3167403e-07
188	0x3e3e1483	0.18562512
189	0x9e4f6168	-1.0978632e-20
190	0x3e1916d9	0.14950122
191	0xbda71fd9	-0.08160371
192	0x3ea2a054	0.31762946
193	0x9e5184b7	-1.1091813e-20
194	0x9dbda606	-5.0199548e-21
195	0xa768c521	-3.2303332e-15
196	0x34ae9192	3.2515942e-07
197	0xbe2a4ed7	-0.16631638
198	0x3e92c072	0.2866245
199	0x3e3d1def	0.1846845
200	0xbe3d5e33	-0.18492965
201	0x3eb77bad	0.35836545
202	0x9d933cf7	-3.8973612e-21
203	0x3e97499a	0.2954834
204	0xbe586fa0	-0.21136332
205	0xbe876508	-0.26444268
206	0x3e23ba2e	0.1598899
207	0xa0d2f194	-3.5735247e-19
208	0xb860f593	-5.363447e-05
209	0x3e343fe2	0.17602494
210	0xb61963fb	-2.2856973e-06
211	0xb299bb06	-1.7896593e-08
212	0x3eb1db6e	0.34737724
213	0xbe6b278e	-0.22964308
214	0x31ce9b67	6.0130563e-09
215	0xbe25e211	-0.16199519
216	0x3e098e1c	0.13433117
217	0xbe2dd63c	-0.16976255
218	0xbe8e7823	-0.27826032
219	0x2e327e66	4.058478e-11
220	0x3e67bcfc	0.22630686
221	0x36351296	2.698192e-06
222	0x3e4a46d4	0.19753581
223	0xbe5ddc35	-0.21666034
224	0x3ec50a8f	0.38484618
225	0x22904ba0	3.911135e-18
226	0x1ba907b5	2.7963685e-22
227	0x2381b76a	1.4063887e-17
228	0x9e3c61f6	-9.972895e-21
229	0xbe30a36e	-0.17249843
230	0x3e63a10e	0.22229406
231	0x3e81c2a4	0.25343812
232	0xbe0740bb	-0.13208286
233	0x3e01ac7a	0.12663451
234	0xb8801c8b	-6.108832e-05
235	0x3e845f90	0.25854158
236	0xbe22a9a7	-0.1588503
237	0xbe7b1178	-0.24518383
238	0x3e57f771	0.21090485
239	0x1c940455	9.794938e-22
240	0x22a3da01	4.441206e-18
241	0x3ea0cbc5	0.31405464
242	0xb3067bfc	-3.131207e-08
243	0xb2cc6325	-2.3793811e-08
244	0x3d9ea97a	0.07747169
245	0xbe95393d	-0.29145232
246	0x315dcabe	3.2274978e-09
247	0xbe3f51a0	-0.18683481
248	0x3e567d0e	0.20946142
249	0xbde9e34a	-0.11420305
250	0xbe24bff7	-0.16088854
251	0x30904a3e	1.049848e-09
252	0x3e928151	0.28614286
253	0x1d1fe135	2.1159904e-21
254	0x3e31fd4e	0.17381784
255	0xbe55c6bf	-0.20876597

pos_mlp.2.bias f4 [32]
0	0x3db8eba9	0.090293236
1	0x3349246e	4.6832092e-08
2	0x3dcdfc20	0.10057855
3	0x3d31f3d6	0.04344543
4	0x1e31da23	9.4154116e-21
5	0x3db663bd	0.08905742
6	0x3daefbaf	0.085440986
7	0xbc45fd04	-0.012084249
8	0x3d401a79	0.046900246
9	0xbbdd52bf	-0.006754249
10	0x3db10aaa	0.08644612
11	0x3d22fb27	0.0397903
12	0x3e1dca4d	0.15409203
13	0x3c2e0c28	0.010623015
14	0x3d94015b	0.07226821
15	0xb86af7ad	-5.6020614e-05
16	0x3e02898c	0.12747782
17	0xb5226e76	-6.0510445e-07
18	0x3d2eb264	0.042650595
19	0x3d4bc03f	0.049743887
20	0xb826bb1b	-3.975174e-05
21	0x3d8d6563	0.069041036
22	0x3d2cd08c	0.042191073
23	0x3dc9e476	0.098580286
24	0x3e3cb08c	0.18426722
25	0x3b850b8b	0.004060214
26	0x26ba8e97	1.2944992e-15
27	0xb158f0dd	-3.1569052e-09
28	0x3e110825	0.14163263
29	0x3dbb476d	0.09144483
30	0x3e73a315	0.2379268
31	0xb3fd12d1	-1.1784653e-07
