pointnet/weights_per_bundle_ratio025/SLF_I_right_best.pth (torch, 359807 bytes, 17 tensors)

t_grid f4 [100]
0.0 0.01010101 0.02020202 0.030303031 0.04040404 0.05050505 0.060606062 0.07070707
0.08080808 0.09090909 0.1010101 0.11111111 0.121212125 0.13131313 0.14141414 0.15151516
0.16161616 0.17171717 0.18181819 0.1919192 0.2020202 0.21212122 0.22222222 0.23232323
0.24242425 0.25252524 0.26262626 0.27272728 0.28282827 0.2929293 0.3030303 0.3131313
0.32323232 0.33333334 0.34343433 0.35353535 0.36363637 0.37373737 0.3838384 0.3939394
0.4040404 0.41414142 0.42424244 0.43434343 0.44444445 0.45454547 0.46464646 0.47474748
0.4848485 0.4949495 0.5050505 0.5151515 0.5252525 0.53535354 0.54545456 0.5555556
0.56565654 0.57575756 0.5858586 0.5959596 0.6060606 0.61616164 0.6262626 0.6363636
0.64646465 0.65656567 0.6666667 0.6767677 0.68686867 0.6969697 0.7070707 0.7171717
0.72727275 0.7373737 0.74747473 0.75757575 0.7676768 0.7777778 0.7878788 0.7979798
0.8080808 0.8181818 0.82828283 0.83838385 0.8484849 0.85858583 0.86868685 0.8787879
0.8888889 0.8989899 0.90909094 0.9191919 0.9292929 0.93939394 0.94949496 0.959596
0.969697 0.97979796 0.989899 1.0
00000000: 0000 0000 b57e 253c b57e a53c 103e f83c
00000010: b57e 253d 62de 4e3d 103e 783d dece 903d
00000020: b57e a53d 8c2e ba3d 62de ce3d 398e e33d
00000030: 103e f83d f376 063e dece 103e ca26 1b3e
00000040: b57e 253e a0d6 2f3e 8c2e 3a3e 7786 443e
00000050: 62de 4e3e 4e36 593e 398e 633e 24e6 6d3e
00000060: 103e 783e fd4a 813e f376 863e e9a2 8b3e
00000070: dece 903e d4fa 953e ca26 9b3e bf52 a03e
00000080: b57e a53e abaa aa3e a0d6 af3e 9602 b53e
00000090: 8c2e ba3e 815a bf3e 7786 c43e 6db2 c93e
000000a0: 62de ce3e 580a d43e 4e36 d93e 4362 de3e
000000b0: 398e e33e 2fba e83e 24e6 ed3e 1a12 f33e
000000c0: 103e f83e 056a fd3e fd4a 013f f8e0 033f
000000d0: f376 063f ee0c 093f e9a2 0b3f e438 0e3f
000000e0: dece 103f d964 133f d4fa 153f cf90 183f
000000f0: ca26 1b3f c5bc 1d3f bf52 203f bae8 223f
00000100: b57e 253f b014 283f abaa 2a3f a640 2d3f
00000110: a0d6 2f3f 9b6c 323f 9602 353f 9198 373f
00000120: 8c2e 3a3f 86c4 3c3f 815a 3f3f 7cf0 413f
00000130: 7786 443f 721c 473f 6db2 493f 6748 4c3f
00000140: 62de 4e3f 5d74 513f 580a 543f 53a0 563f
00000150: 4e36 593f 48cc 5b3f 4362 5e3f 3ef8 603f
00000160: 398e 633f 3424 663f 2fba 683f 2950 6b3f
00000170: 24e6 6d3f 1f7c 703f 1a12 733f 15a8 753f
00000180: 103e 783f 0ad4 7a3f 056a 7d3f 0000 803f

encoder.mlp.0.weight f4 [64, 3]
-0.11322485 -0.260272 0.45741236 0.271809 -0.36781934 -0.33423513 0.19635776 -0.070474386
-0.27678677 -0.19979315 0.23181091 0.38730216 -0.37065002 0.16013396 0.5167724 0.46783218
0.03772889 -0.4550673 -0.039324656 0.19826683 -0.103448465 -0.25414404 -0.30810118 -0.3924408
-0.40101117 0.268307 0.34222212 0.18994631 0.122087866 0.24441044 0.33909613 -0.15983225
0.3066987 -0.47906306 0.39172027 -0.21589106 0.5518963 0.34428152 0.4424992 0.19680099
0.44141874 -0.46975225 -0.1722405 0.17585643 -0.32659918 0.3196192 0.5063025 -0.09037008
-0.35441583 -0.4288476 -0.15387073 0.18731138 0.25066352 0.0046757106 -0.43117407 -0.13482073
0.07400347 0.5344172 0.50406396 0.023457315 0.2058639 -0.48712465 -0.18601483 -0.15435149
-0.42881274 -0.50046986 -0.044899 0.2917797 0.30411398 -0.33023572 0.2659672 0.4883141
-0.07647921 0.32682756 0.056569573 0.5923729 -0.22615047 0.092504345 -0.4002091 -0.13561513
0.31872842 -0.17192373 -0.49442053 -0.45754388 -0.25282413 -0.13337135 -0.1286007 0.44085926
0.05778486 -0.0026034904 -0.028504 -0.31330475 -0.49106348 -0.39433128 0.08568165 0.5035476
0.45109123 -0.4123078 -0.09918712 -0.30296826 -0.22664529 -0.13713935 -0.556229 -0.2583785
0.5668972 0.008270084 -0.43262646 0.54549384 -0.066191345 -0.52797323 0.4422455 -0.4283482
0.3322202 -0.39988038 0.12033384 -0.07530452 0.39143524 -0.0019566088 -0.00014105451 -0.0013280311
-0.032943685 -0.003872019 -0.3153084 -0.44931534 -0.47209775 -0.47867662 0.27455932 -0.34255856
-0.021788226 0.20287947 -0.241831 0.4863764 0.024974538 -0.22508919 -0.122463435 0.5700921
0.068596706 -0.4552017 -0.18016727 -0.5673157 0.116723366 -0.19636156 -0.34934306 -0.45160854
0.22016843 0.15462577 0.33531296 0.3984981 0.29751086 0.37540036 0.040523153 -0.43369135
-0.2933875 -0.34602994 -0.5473304 0.35152063 0.48836923 -0.53436095 0.5316233 0.28958768
0.2968622 -0.13760713 0.1771876 0.11754079 0.2247008 -0.11384142 0.14306086 -0.31847447
0.51729256 -0.44510356 0.013912047 -0.5426765 -0.2883149 0.10609294 0.4170294 -0.1349242
0.28961498 0.09836365 0.57017165 0.23398001 0.14629683 0.29425618 -0.01771821 -0.44219244
-0.37624896 -0.25915623 0.13759062 0.35254142 -0.31716156 -0.40735656 0.28124166 0.4436548
00000000: 6ee2 e7bd 5f42 85be f431 ea3e 8d2a 8b3e
00000010: d152 bcbe de20 abbe 0212 493e e054 90bd
00000020: ffb6 8dbe 9396 4cbe d75f 6d3e 784c c63e
00000030: d7c5 bdbe 28fa 233e 324b 043f b387 ef3e
00000040: 9c89 1a3d 95fe e8be e412 21bd 7606 4b3e
00000050: cadc d3bd 2b1f 82be 70bf 9dbe 00ee c8be
00000060: 5651 cdbe 895f 893e bd37 af3e 4981 423e
00000070: 3409 fa3d bb46 7a3e 029e ad3e 11ab 23be
00000080: 9d07 9d3e c147 f5be 8f8f c83e 8c12 5dbe
00000090: 1349 0d3f ab45 b03e 418f e23e 3386 493e
000000a0: a301 e23e 5e83 f0be d05f 30be b513 343e
000000b0: 0238 a7be 21a5 a33e 0a9d 013f f313 b9bd
000000c0: fe75 b5be ea91 dbbe 4a90 1dbe 8ece 3f3e
000000d0: f856 803e b436 993b d9c2 dcbe 720e 0abe
000000e0: 228f 973d 91cf 083f 560a 013f 8e29 c03c
000000f0: fccd 523e 6768 f9be ac7a 3ebe 510e 1ebe
00000100: 588d dbbe cb1e 00bf 04e8 37bd 2664 953e
00000110: d4b4 9b3e a814 a9be da2c 883e 4e04 fa3e
00000120: 22a1 9cbd f155 a73e 7fb5 673d c0a5 173f
00000130: fd93 67be eb72 bd3d 35e8 ccbe b1de 0abe
00000140: 5f30 a33e c60c 30be b024 fdbe 3143 eabe
00000150: 2a72 81be 8092 08be e7af 03be 4eb8 e13e
00000160: d1af 6c3d 529f 2abb 3881 e9bc 7b69 a0be
00000170: ac6c fbbe cae5 c9be dc79 af3d 7fe8 003f
00000180: 6ef5 e63e 021a d3be 9e22 cbbd a81e 9bbe
00000190: b415 68be 426e 0cbe 0665 0ebf 304a 84be
000001a0: 2d20 113f 3f7f 073c 3781 ddbe 7ca5 0b3f
000001b0: 548f 87bd 4129 07bf 016e e23e 7550 dbbe
000001c0: c418 aa3e 1fbd ccbe 9771 f63d 4239 9abd
000001d0: 336a c83e 733a 00bb 08e8 13b9 5411 aeba
000001e0: f5ef 06bd b3c1 7dbb 1a70 a1be a90c e6be
000001f0: ccb6 f1be 1a15 f5be 0a93 8c3e d663 afbe
00000200: 397d b2bc a3bf 4f3e 8ca2 77be 5406 f93e
00000210: 6797 cc3c c87d 66be 1cce fabd 8ef1 113f
00000220: 6e7c 8c3d 3210 e9be c57d 38be 9a3b 11bf
00000230: a90c ef3d 0113 49be 18dd b2be 3c39 e7be
00000240: d573 613e 3856 1e3e 24ae ab3e f107 cc3e
00000250: 5853 983e 7a34 c03e 9bfb 253d cb0c debe
00000260: e336 96be d62a b1be d81d 0cbf 83fa b33e
00000270: 880b fa3e e1cb 08bf 7718 083f d644 943e
00000280: 53fe 973e e2e8 0cbe ab70 353e 3ab9 f03d
00000290: f717 663e b125 e9bd 8c7e 123e 160f a3be
000002a0: 496d 043f 9de4 e3be 5bef 633c d9ec 0abf
000002b0: 039e 93be 4147 d93d e184 d53e 9229 0abe
000002c0: 6a48 943e e272 c93d c5f6 113f 7598 6f3e
000002d0: d6ce 153e bfa8 963e c825 91bc 0c67 e2be
000002e0: b4a3 c0be 20b0 84be 8ee4 0c3e 4f80 b43e
000002f0: 0063 a2be 0a91 d0be e8fe 8f3e b926 e33e

encoder.mlp.0.bias f4 [64]
0.20449407 0.15291886 0.0020144898 0.07118024 -0.370877 0.06851724 -0.018979272 -0.0027699796
0.19610432 -0.2840649 -0.307554 0.021557586 -0.13531344 0.14044516 0.0046848147 0.11184303
0.32887822 0.080435 -0.005569624 0.08768322 0.09149924 0.0018368481 -0.009473468 -0.34343907
0.026804142 -0.30778295 0.27806082 -0.06686302 -0.007933582 0.11003939 0.0076668244 0.23596705
-0.054801088 -0.021969654 0.09865165 0.26072776 0.31770703 -0.010880094 -0.25493357 -0.00046169787
0.0020464344 0.056801446 0.24020828 0.25054133 0.0743749 0.12232906 -0.1379234 -0.0065263966
-0.2676035 0.3364891 0.17838402 -0.20813482 -0.27004668 0.0067386725 -0.07419683 -0.0084137805
0.287027 0.13971762 -0.17815581 -0.057927165 0.035316017 -0.023143593 0.015383638 -0.18464918
00000000: e566 513e c396 1c3e 8805 043b f2c6 913d
00000010: 97e3 bdbe c452 8c3d 6b7a 9bbc 8c88 35bb
00000020: 92cf 483e f470 91be b877 9dbe 8999 b03c
00000030: 9b8f 0abe dbd0 0f3e 1383 993b f50d e53d
00000040: ba62 a83e 1bbb a43d 6481 b6bb 4393 b33d
00000050: f463 bb3d 65c2 f03a 9b36 1bbc 3fd7 afbe
00000060: 5c94 db3c ba95 9dbe fd5d 8e3e 7bef 88bd
00000070: dbfb 01bc 555c e13d fc39 fb3b 59a1 713e
00000080: 1b77 60bd b4f9 b3bc e009 ca3d 1c7e 853e
00000090: 7faa a23e 6c42 32bc a786 82be 0a10 f2b9
000000a0: 791d 063b a2a8 683d 29f9 753e f446 803e
000000b0: de51 983d a987 fa3d cb3b 0dbe 62db d5bb
000000c0: 5303 89be 4d48 ac3e 4daa 363e 4b21 55be
000000d0: 8f43 8abe 15d0 dc3b 82f4 97bd f4d9 09bc
000000e0: 34f5 923e 2312 0f3e 7a6e 36be 0945 6dbd
000000f0: 87a7 103d a297 bdbc a80b 7c3c ad14 3dbe

encoder.mlp.2.weight f4 [128, 64]
-0.03927226 0.08625148 0.021101803 0.08070276 0.09788521 -0.07132163 0.08843459 -0.053591337
0.07709874 -0.06902977 -0.06795903 -0.005123734 0.020711826 0.05401861 0.0030597786 -0.07585716
-0.11284964 -0.020507708 -0.032858193 -0.092348725 -0.079241596 -0.074268274 0.075589135 0.08938214
-0.06775128 -0.0021830148 -0.0085144155 0.0036392575 0.016274197 0.05072207 -0.0022801335 0.109044105
0.057815142 0.03958734 -0.0132846935 0.08959083 -0.08664532 -0.023006538 -0.03345194 -0.00028121503
-0.020511732 -0.10216585 -0.0025009403 0.043566167 -0.07928154 0.067421906 0.091807336 -0.0010122872
0.0023431473 0.020451795 -0.052549023 -0.050831668 0.036735993 -0.060526393 0.008587536 0.02660473
0.02147561 0.07846239 0.060518757 0.09685595 0.054243293 0.029191872 0.009518179 0.096646555
0.077023976 0.005823808 0.059296887 -0.015422765 -0.088229455 0.054436363 0.019282738 0.022477651
0.06065149 -0.092545085 0.08188452 0.10751648 0.06280438 0.028784307 0.11918185 0.0578643
0.07553391 0.048384108 0.08092297 0.032716535 0.0890289 -0.0766829 -0.122256786 0.007329796
0.047828447 0.053957637 0.0938612 0.046284273 0.014357761 0.110131845 -0.040733512 -0.051036995
0.074208535 -0.025232803 0.009988242 -0.10417037 0.09340698 0.021080358 0.029640928 0.00034798446
0.046514016 0.009077037 -0.078901835 0.031645145 -0.048790656 0.122907594 0.0025976351 0.02049781
0.0678207 0.060402777 -0.049846664 0.07814257 -0.12436402 -0.055553377 0.021716366 0.103574194
-0.12955175 0.04928469 -0.03293749 -0.005166991 -0.071265794 -0.08961426 0.08814624 -0.07518439
0.09814758 0.08811582 -0.017574657 0.0726006 -0.04860629 0.061265353 -0.031275056 -0.015963687
-0.0919573 0.08996096 0.03575156 -0.014922083 0.0093181 0.049405087 -0.00990594 0.021209298
-0.009386678 -0.10229289 -0.07246385 -0.12884182 0.08164024 0.02216396 0.0063423896 0.012914912
0.029890846 -0.041121602 0.093048096 0.06163729 -0.07018273 0.119808465 -0.053454775 -0.0661716
0.09275855 0.027431868 0.09679211 -0.013309087 0.10051442 -0.04391161 0.05287968 -0.00033425627
-0.042142402 -0.08886977 -0.07380112 0.056352213 -0.09300985 0.07186438 -0.11728811 0.0005167005
-0.06431335 0.071793936 -0.10566284 -0.02461136 -0.028448312 -0.021193303 0.104800604 -0.0069213933
-0.009130141 -0.11640295 -0.0071858736 0.06987984 -0.09451138 0.068394914 0.032460243 -0.11290044
0.09959075 0.026610365 -0.08951455 -0.106616564 -0.009275178 0.045894276 -0.07663873 0.08574082
0.024415879 0.024870332 0.06768842 -0.038932882 -0.01214216 0.102520525 0.03091538 -0.048620224
-0.106711954 0.027878582 -0.097614594 0.10232988 -0.008197931 -0.055245813 0.009303365 -0.06973963
0.08230712 0.08680491 -0.03103117 -0.086706616 0.017836336 -0.10900939 0.0058696917 -0.065309376
-0.11134651 -0.07959079 -0.0434321 0.05068064 0.07727017 -0.00024869016 0.1149493 -8.817963e-05
0.0041416637 -0.062427673 0.106101975 -0.12080068 0.07158003 -0.040691026 0.057656884 0.010808391
-0.06333233 0.06602802 -0.08663434 0.03512292 -0.04524585 -0.09614816 0.00302684 0.074810766
0.09907047 0.008502526 0.117687054 0.11426855 0.036183346 -0.041345555 0.078914 0.04343415
00000000: f3db 20bd 9ea4 b03d b0dd ac3c 7d47 a53d
00000010: 0a78 c83d 1311 92bd 321d b53d 9782 5bbd
00000020: f2e5 9d3d 7b5f 8dbd 1b2e 8bbd ffe4 a7bb
00000030: d9ab a93c 9e42 5d3d 9186 483b 005b 9bbd
00000040: b61d e7bd c8ff a7bc 5096 06bd 5421 bdbd
00000050: 6b49 a2bd f719 98bd 7ace 9a3d fc0d b73d
00000060: 2fc1 8abd e910 0fbb 0c80 0bbc 9c80 6e3b
00000070: 7751 853c f2c1 4f3d 4b6e 15bb 8452 df3d
00000080: 92cf 6c3d 5626 223d 0ba8 59bc 667b b73d
00000090: 1a73 b1bd 3578 bcbc e704 09bd 0b70 93b9
000000a0: 3808 a8bc 543c d1bd d1e6 23bb 7072 323d
000000b0: 5c5e a2bd 7f14 8a3d 7c05 bc3d b9ae 84ba
000000c0: 7d8f 193b 868a a73c a53d 57bd de34 50bd
000000d0: 7b78 163d 86ea 77bd bdb2 0c3c 2af2 d93c
000000e0: 9eed af3c e4b0 a03d 84e2 773d 6a5c c63d
000000f0: 372e 5e3d cb23 ef3c 23f2 1b3c a1ee c53d
00000100: bfbe 9d3d a4d5 be3b 4be1 723d c4af 7cbc
00000110: a5b1 b4bd aaf8 5e3d d5f6 9d3c 0d23 b83c
00000120: b26d 783d 4788 bdbd 12b3 a73d 9a31 dc3d
00000130: 959f 803d 11cd eb3c 9d15 f43d 1e03 6d3d
00000140: 86b1 9a3d 6a2e 463d f1ba a53d c601 063d
00000150: c954 b63d ed0b 9dbd c461 fabd c92e f03b
00000160: c3e7 433d af02 5d3d 4d3a c03d 9494 3d3d
00000170: d03c 6b3c ce8c e13d 2fd8 26bd 2b0c 51bd
00000180: a5fa 973d 06b5 cebc b9a5 233c 4657 d5bd
00000190: 294c bf3d b7b0 ac3c 88d1 f23c af71 b639
000001a0: 7b85 3e3d dab7 143c 4997 a1bd 579e 013d
000001b0: b6d8 47bd fab6 fb3d 163d 2a3b 06eb a73c
000001c0: 94e5 8a3d e768 773d 042c 4cbd 3609 a03d
000001d0: 90b2 febd f08b 63bd 85e6 b13c b51e d43d
000001e0: 37a9 04be bede 493d 76e9 06bd dd4f a9bb
000001f0: cdf3 91bd ae87 b7bd 0486 b43d 46fa 99bd
00000200: 9901 c93d 1176 b43d baf8 8fbc a0af 943d
00000210: 6417 47bd 61f1 7a3d 461a 00bd 47c6 82bc
00000220: 1c54 bcbd 743d b83d 3a70 123d c17b 74bc
00000230: f2aa 183c fd5c 4a3d 864c 22bc 1fbf ad3c
00000240: 95ca 19bc ef7e d1bd ed67 94bd 1cef 03be
00000250: 0033 a73d 3191 b53c d2d3 cf3b 1199 533c
00000260: a6dd f43c 206f 28bd 0090 be3d 6277 7c3d
00000270: f7bb 8fbd 245e f53d 65f3 5abd fa84 87bd
00000280: 32f8 bd3d ccb8 e03c f13a c63d 5b0e 5abc
00000290: 81da cd3d a9dc 33bd 5d98 583d 1e3f afb9
000002a0: 839d 2cbd 5b01 b6bd 0b25 97bd 94d1 663d
000002b0: f37b bebd a22d 933d c034 f0bd 2f73 073a
000002c0: b8b6 83bd b308 933d c265 d8bd c39d c9bc
000002d0: 6f0c e9bc 949d adbc b3a1 d63d dbcc e2bb
000002e0: 9696 15bc ab64 eebd 7a77 ebbb 291d 8f3d
000002f0: 2f8f c1bd a212 8c3d 08f5 043d 5938 e7bd
00000300: 3cf6 cb3d fbfd d93c 6853 b7bd c959 dabd
00000310: ebf6 17bc a3fb 3b3d c4f4 9cbd e298 af3d
00000320: cf03 c83c debc cb3c 3aa0 8a3d 1678 1fbd
00000330: e9ef 46bc 48f6 d13d 4042 fd3c 0026 47bd
00000340: cc8b dabd a061 e43c 29ea c7bd 5492 d13d
00000350: 9d50 06bc 6f49 62bd 246d 183c a7d3 8ebd
00000360: a390 a83d c6c6 b13d 1535 febc 3d93 b1bd
00000370: 821d 923c 5140 dfbd 8b56 c03b ecc0 85bd
00000380: a409 e4bd 7f00 a3bd dce5 31bd 8196 4f3d
00000390: d33f 9e3d a162 82b9 8a6a eb3d 14ed b8b8
000003a0: cbb6 873b 29b4 7fbd fe4b d93d 5966 f7bd
000003b0: 8d98 923d a2ab 26bd a029 6c3d ad15 313c
000003c0: 61b4 81bd b339 873d 586d b1bd 0ddd 0f3d
000003d0: b653 39bd 54e9 c4bd f35d 463b 6336 993d
000003e0: 75e5 ca3d 2e4e 0b3c e905 f13d a105 ea3d
000003f0: fd34 143d f559 29bd aa9d a13d 02e8 313d

encoder.mlp.2.bias f4 [128]
0.029284023 -0.057175808 -0.042677056 -0.07454692 -0.02411561 -0.05198056 -0.0510441 0.013206474
-0.04984699 -0.07659035 -0.027944257 -0.04305301 0.009635377 0.03912005 6.775853e-05 -0.03931678
0.023283778 -0.026621945 -0.013163763 0.02256043 -0.038958028 0.018102776 -0.04198069 -0.016282916
-1.0772601e-12 -0.017967526 -0.07639439 0.0063608484 -0.005241944 -0.014224653 0.009860467 0.011993633
-0.056176707 0.00065436604 -5.139821e-18 -0.021784188 0.016377103 -0.05124059 -0.05847683 0.04390504
0.06332845 -0.014532156 1.7261155e-16 -0.01479855 0.003536335 -0.029964756 -0.012007195 -0.01773184
0.0080707 -0.03070657 -0.0027103233 0.034961585 -0.0010452669 0.0035718433 -0.011664828 0.023947734
-0.018859698 -0.04649884 -0.016414419 -0.038169898 0.020691857 -0.009920109 0.0037788088 -1.7525831e-10
-0.01623136 0.0009778361 -0.007117161 -0.005277358 -0.070108436 0.006382413 0.005051044 -4.1035907e-12
-0.02932893 0.010607536 -0.024851773 0.0042361272 -0.02822765 -0.011059525 -0.001773585 0.0049891765
0.00034863243 0.034936868 -0.034781903 0.006808469 0.00586573 0.016545808 -0.009787595 0.048629418
-0.021543939 -0.070067085 -0.03886883 -1.4855314e-08 -0.04015758 -0.025213607 0.00954127 -0.028928367
-0.042025447 -0.08299266 -0.016436042 -0.053055193 -0.0151343085 -5.800984e-14 -0.06309299 0.021464983
0.0152159985 -0.0021015794 0.033040192 0.01583774 0.039979037 0.050397016 0.009654255 0.0013524606
0.013542522 0.02944416 -0.03301067 0.012038236 0.02082192 -0.027995642 -0.03705912 -0.054796036
0.012679741 0.0064889104 -2.4787849e-13 -0.005787994 0.02246919 0.033841286 -0.07559093 0.011566014
00000000: 0ce5 ef3c 2e31 6abd 23ce 2ebd 0eac 98bd
00000010: 1a8e c5bc 91e9 54bd 9e13 51bd f75f 583c
00000020: 5b2c 4cbd 67db 9cbd 5beb e4bc 5a58 30bd
00000030: b3dd 1d3c 583c 203d 9519 8e38 a20a 21bd
00000040: 9fbd be3c 4416 dabc d3ac 57bc a7d0 b83c
00000050: 7492 1fbd 464c 943c f2f3 2bbd c063 85bc
00000060: 639c 97ab a230 93bc a974 9cbd aa6e d03b
00000070: 9dc4 abbb 850e 69bc cc8d 213c f180 443c
00000080: 8c19 66bd c389 2b3a 3da0 bda2 c174 b2bc
00000090: 4629 863c a7e1 51bd 6785 6fbd c5d5 333d
000000a0: 59b2 813d 4818 6ebc f001 4725 9e75 72bc
000000b0: dbc1 673b a678 f5bc d3b9 44bc 5d42 91bc
000000c0: f83a 043c 588c fbbc ae9f 31bb e133 0f3d
000000d0: 5601 89ba 9615 6a3b d61d 3fbc 0a2e c43c
000000e0: a77f 9abc 9175 3ebd 8877 86bc 0a58 1cbd
000000f0: f881 a93c f487 22bc e4a5 773b d4b2 40af
00000100: a1f7 84bc bc2a 803a 1337 e9bb b0ed acbb
00000110: 0395 8fbd 9023 d13b 3a83 a53b dc61 90ac
00000120: 3943 f0bc 3bcb 2d3c f295 cbbc 36cf 8a3b
00000130: ac3d e7bc 0333 35bc a377 e8ba 3f7c a33b
00000140: a7c8 b639 f619 0f3d 7877 0ebd 9419 df3b
00000150: 4f35 c03b 138b 873c 265c 20bc a42f 473d
00000160: ea7c b0bc 557f 8fbd ec34 1fbd 5d36 7fb2
00000170: 467c 24bd c48c cebc fd52 1c3c 2ffb ecbc
00000180: e022 2cbd 0ef8 a9bd e1a4 86bc 6750 59bd
00000190: e4f5 77bc 65a0 82a9 e636 81bd 55d7 af3c
000001a0: 864c 793c a7ba 09bb 2755 073d 26be 813c
000001b0: 0fc1 233d 1a6d 4e3d e12c 1e3c 0c45 b13a
000001c0: 74e1 5d3c e134 f13c 3236 07bd 053c 453c
000001d0: bb92 aa3c 1e57 e5bc 4ecb 17bd cf71 60bd
000001e0: b0be 4f3c eda0 d43b 0e8b 8baa 36a9 bdbb
000001f0: 4f11 b83c 299d 0a3d 6bcf 9abd 617f 3d3c

encoder.mlp.4.weight f4 [256, 128]
-0.02001318 -0.080918446 0.029335875 -0.018942397 -0.008333561 -0.03891812 -0.06649421 -0.00015923336
0.0458687 -0.002343099 -0.008953836 -0.036061622 -0.018032173 -1.1905e-41 -2.4252833e-38 0.011439958
0.0013251788 -1.0357e-41 -0.00011367539 0.015525714 0.047985744 -0.012016254 -0.080083005 0.002666198
1.0162e-41 1.0208e-41 -0.03177388 1.0026e-41 1.0073e-41 -0.08590989 9.909e-42 0.028166115
-0.0037924806 -8.9551425e-38 -1.0683e-41 -0.018909426 5.8721e-41 -0.031187873 0.02877175 -0.016777646
0.014228714 0.04366314 -2.8041636e-31 -0.009559292 -1.0168e-41 1.494518e-39 0.04629794 -0.047559675
-0.069040276 1.0272e-41 -0.0041958494 -0.00441214 -0.03665873 0.005018562 -9.981e-42 -1.5239528e-05
1.0989e-41 0.0027808722 0.04848676 2.269233e-25 5.3320197e-19 -1.0015e-41 0.03227832 9.97e-42
-0.001036932 -7.486859e-39 -0.01875723 -0.01565666 0.03961793 -0.05493694 3.272775e-39 4.1452045e-33
-0.032148406 -1.1444e-41 -0.048601262 6.81636e-40 -0.03027785 -0.03464334 -9.88e-42 0.007676985
2.872844e-07 0.028432915 -0.004439376 -9.861e-42 -1.0059e-41 -0.01948403 -1.0113e-41 -0.021590177
-1.008e-41 -0.03479549 0.032725956 -1.0476e-41 0.0028815607 -0.004972706 3.4668e-41 0.0411418
0.0033141328 0.00442164 -0.029899204 -0.031384144 -0.027114114 3.6988345e-22 0.032098163 4.522185e-39
-0.0020059638 0.0582707 0.009149135 0.0036087988 0.011446954 -0.025028626 -0.0034751487 -1.9495e-40
2.2908436e-38 0.04865099 0.03447559 -0.07724121 6.372323e-25 0.0042627784 -4.263787e-05 3.3313766e-37
1.0166e-41 -1.013e-41 -9.895e-42 -0.005843042 7.792171e-05 0.012710973 0.0030561176 -0.009344048
0.013492482 -0.05354175 -0.029028503 0.004323707 0.014901293 -9.981e-42 -0.032069847 -0.15128887
-0.14774938 0.008716311 -0.024258764 -0.00013199136 1.1674e-41 -0.057874218 -1.9457672e-38 2.1412e-40
-0.043168884 -0.07284828 0.040956117 -0.10026538 -0.12273457 0.015257133 0.04218796 -0.10951332
-0.0003921418 -1.0005e-41 -0.13589384 1.0325e-41 0.010665249 0.046111796 -1.1983e-41 -0.0012382313
-0.11156476 0.0026213198 -4.074927e-18 -9.906e-42 0.025907297 0.029293058 1.0183e-41 0.0016432486
0.010048955 -0.008159075 7.907404e-07 -0.025134103 0.020348169 0.0032787554 -0.010383141 -1.641801e-07
-0.015528033 0.039466344 0.0053460337 0.060692042 -0.03793138 0.0076863603 1.013e-41 0.008984228
0.0095108915 0.018257257 -0.04495361 0.0052732104 -0.026194088 -9.781337e-06 -3.659914e-39 -6.60833e-05
0.035418414 3.081e-41 0.056271907 -0.062251747 -0.019562762 -0.05841291 0.010549107 5.535991e-06
-0.015190689 -1.0108e-41 0.011928837 0.020791134 -0.012198224 0.0060317647 -0.010501799 -0.015256785
-1.0059e-41 -0.14774874 -1.1466304e-06 -9.914e-42 0.017663637 0.047151487 -0.0022636848 5.2605e-41
1.0208e-41 -0.12867759 0.0287444 0.0007942308 -0.0015824768 -1.0204e-41 -1.038e-41 -1.097e-41
-0.0076125804 -0.07187098 -0.0167775 -0.05608694 1.0258e-41 1.8807299e-07 -0.049261395 0.022390882
0.036738727 -0.011352636 0.032711547 0.007388242 -0.15071191 -0.09625828 -1.007e-41 0.0075229877
-0.005312247 0.00039702762 0.0133442255 0.003566627 -3.0648e-41 -0.043076053 0.008839173 -0.026414808
1.0982e-41 -1.0046e-41 1.4510196e-13 -0.017205587 0.024080168 -0.011434175 0.03998735 -9.878e-42
00000000: aef2 a3bc 92b8 a5bd ca51 f03c 162d 9bbc
00000010: 7d89 08bc 9b68 1fbd 1e2e 88bd e1f7 26b9
00000020: d1e0 3b3d ae8e 19bb 1cb3 12bc 5ab5 13bd
00000030: 35b8 93bc 3021 0080 840b 0481 a96e 3b3c
00000040: 9fb1 ad3a df1c 0080 0365 eeb8 905f 7e3c
00000050: b38c 443d d2df 44bc 8f02 a4bd 61bb 2e3b
00000060: 541c 0000 751c 0000 5425 02bd f31b 0000
00000070: 141c 0000 86f1 afbd 9f1b 0000 a0bc e63c
00000080: 448b 78bb 3cc8 f381 c81d 0080 f1e7 9abc
00000090: b1a3 0000 b67d ffbc bcb2 eb3c 4671 89bc
000000a0: 8d1f 693c 1fd8 323d 2900 b68c 949e 1cbc
000000b0: 581c 0080 1c46 1000 e9a2 3d3d efcd 42bd
000000c0: fd64 8dbd a21c 0000 567d 89bb b793 90bb
000000d0: 7727 16bd c072 a43b d31b 0080 46ad 7fb7
000000e0: a21e 0000 4b3f 363b 0e9a 463d 6f75 8c16
000000f0: 9a5f 1d21 eb1b 0080 4636 043d cb1b 0000
00000100: aae9 87ba 5186 5180 c3a8 99bc 6542 80bc
00000110: 6946 223d 8f05 61bd 2aa3 2300 602f ac09
00000120: 0cae 03bd e71f 0080 1e12 47bd 206c 0700
00000130: 4109 f8bc 2de6 0dbd 8b1b 0080 388f fb3b
00000140: 113c 9a34 25ec e83c 2f78 91bb 7d1b 0080
00000150: 0a1c 0080 f99c 9fbc 311c 0080 e2dd b0bc
00000160: 191c 0080 b785 0ebd a70b 063d 341d 0080
00000170: 91d8 3c3b 15f2 a2bb a460 0000 4e84 283d
00000180: ec31 593b 68e3 903b 2def f4bc a98c 00bd
00000190: 6b1e debc b194 df1b 5d79 033d 033e 3100
000001a0: 7d76 03bb 42ad 6e3d 41e6 153c 9981 6c3b
000001b0: 018c 3b3c d508 cdbc 52bf 63bb 711f 0280
000001c0: 6673 f900 4346 473d 4736 0d3d a430 9ebd
000001d0: bf36 4517 c7ae 8b3b 10d6 32b8 c4b8 e202
000001e0: 571c 0000 3d1c 0080 951b 0080 fd76 bfbb
000001f0: e669 a338 af41 503c 2549 483b c717 19bc
00000200: 920f 5d3c 984e 5bbd 2fcd edbc e2ad 8d3b
00000210: 8e24 743c d31b 0080 ac5b 03bd 78eb 1abe
00000220: 9d4b 17be dcce 0e3c 51ba c6bc 2967 0ab9
00000230: 8b20 0000 840d 6dbd 13e0 d380 e154 0200
00000240: dbd1 30bd 7b31 95bd 9ac1 273d f057 cdbd
00000250: 435c fbbd 0ef9 793c 48cd 2c3d 8548 e0bd
00000260: 6298 cdb9 e41b 0080 c127 0bbe c81c 0000
00000270: 4cbd 2e3c b9df 3c3d 6721 0080 264c a2ba
00000280: 117c e4bd 73ca 2b3b 9956 96a2 9d1b 0080
00000290: 8a3b d43c fff7 ef3c 631c 0000 4662 d73a
000002a0: 5fa4 243c a4ad 05bc 4443 5435 09e6 cdbc
000002b0: 34b1 a63c 63e0 563b 0d1e 2abc 7b49 30b4
000002c0: 4a69 7ebc 76a7 213d c82d af3b 3898 783d
000002d0: ef5d 1bbd dddd fb3b 3d1c 0000 9532 133c
000002e0: 92d3 1b3c 3e90 953c 4721 38bd e5ca ac3b
000002f0: fc94 d6bc 861a 24b7 5ada 2780 3496 8ab8
00000300: e612 113d e355 0000 5f7d 663d b0fb 7ebd
00000310: 1642 a0bc 6042 6fbd 29d6 2c3c cdc1 b936
00000320: 5ee2 78bc 2d1c 0080 2b71 433c 2b52 aa3c
00000330: 0fdb 47bc 1ca6 c53b bd0f 2cbc 98f7 79bc
00000340: 0a1c 0080 724b 17be ece5 99b5 a31b 0080
00000350: 55b3 903c eb21 413d 545a 14bb a492 0000
00000360: 751c 0000 0fc4 03be 6079 eb3c ed33 503a
00000370: 1c6b cfba 721c 0080 ef1c 0080 941e 0080
00000380: f472 f9bb 1831 93bd f870 89bc 6bbb 65bd
00000390: 981c 0000 1cf1 4934 51c6 49bd 156d b73c
000003a0: 597b 163d 6800 3abc 8bfc 053d 1119 f23b
000003b0: 3954 1abe 1023 c5bd 121c 0080 6583 f63b
000003c0: 5c12 aebb 2528 d039 bda1 5a3c 12be 693b
000003d0: 6f55 0080 8470 30bd 2ed2 103c de63 d8bc
000003e0: 9d1e 0000 011c 0080 cb5e 232a bbf2 8cbc
000003f0: c643 c53c 6856 3bbc c7c9 233d 891b 0080

encoder.mlp.4.bias f4 [256]
-0.0058600106 0.022915458 -0.032469504 -0.000106059415 -0.0027309149 -0.023213264 -0.039666 0.013344673
-0.0359265 -0.053700738 -0.015399815 3.0754825e-06 -0.011729571 -0.008957726 -0.03719106 -0.008065735
-0.042770278 -0.00017819925 -0.03231153 0.022028586 -0.00092460634 -0.025805254 -0.049792618 -0.03970686
0.0143723935 -0.043446753 -0.0040621776 -2.0185521e-17 -3.062422e-20 -0.018976007 -0.019574981 -0.031541206
-0.024251947 0.011526381 0.01953084 -0.04009223 9.846872e-19 -0.037989963 0.023597639 -0.009754597
0.014189426 0.020958228 -0.02772195 -0.044618554 0.00032940542 -0.015108421 0.00988205 -0.037084546
2.3635526e-20 -0.0013155516 -0.036433917 -0.022293406 -0.029080141 -0.021101058 -0.0086730365 0.00017135279
-0.007546668 -5.0297745e-28 0.01470334 -0.052492853 -0.034519725 -0.002014844 0.013503532 -0.0117217405
0.02132433 0.017397122 0.004192182 -0.02411103 8.808219e-28 0.0037997873 -0.006154799 0.003251551
-0.0004531021 -0.00053159904 0.022573773 0.011997298 -0.0038656914 -0.014542398 -0.011612227 -0.0020906324
-0.03130305 -0.020880774 -0.008218904 0.0011121824 0.020711564 -0.012791117 0.010335616 0.024383567
0.046227492 -0.027760182 0.009964304 0.007055168 0.00972259 1.1208055e-17 0.009671887 5.770841e-20
-0.010264381 -0.0068624313 -0.04272792 -0.011324917 -0.004712994 0.014252327 -0.008438861 7.0024057e-06
-0.011461821 0.0028259319 -0.009436542 -0.0016106033 -0.020790348 -0.028054712 -0.013819485 0.0024628716
-0.044316176 0.010062653 -0.011987045 -0.023532515 -0.02275341 -0.0057613645 -0.006852349 0.00053568376
-0.004086535 0.019933317 -0.040066164 0.013124811 -0.003804107 -0.037592433 -0.03766516 0.007274404
0.01664486 0.005745414 -0.047722403 -8.6502985e-11 -0.035862986 0.04219758 -0.012068771 0.014904262
-0.015375763 -0.00051015045 -0.0079338085 0.049393725 0.004816254 0.03657042 -0.04101978 0.03157246
-0.050621457 -0.0028360395 -0.029461212 0.013497208 -0.03066335 1.0041964e-20 -0.017907757 -0.04823858
-0.026251964 -0.003283254 5.8764237e-23 0.02684671 -0.00071126194 -0.00075407565 0.017436488 2.208591e-24
0.018203149 -0.036819045 -0.030029459 -0.03364879 -0.0032528327 2.6476918e-22 0.00592092 -0.05029534
0.0010798202 -0.019587025 0.001790743 -0.05756583 -0.053197235 -0.022096047 0.0030124437 -0.03825595
-0.0016597157 0.019925648 0.025309784 -0.012836597 -0.021605993 -0.03413282 0.011576468 -0.025339916
0.038109545 -0.050214935 -0.03281231 -0.043215677 -0.0002069498 0.0037293423 0.020132568 -0.026414584
2.5956264e-17 -0.015238853 -0.018148322 0.025062399 0.0015640389 1.0213e-41 -0.029385487 -0.009152607
-0.039461255 -0.054874837 0.00773207 -0.011884367 -0.014907998 -0.018597864 -0.014391397 -0.013126636
0.003165787 0.00037776591 -0.019688243 -0.010363053 -0.042814955 -5.2468187e-21 -0.028420871 -0.055401698
-5.30555e-40 -0.013922181 -0.039189026 2.4211211e-17 -0.02298817 -0.050932925 0.009372252 0.015860675
-0.037799917 -3.3482002e-26 0.017596092 -0.022858873 0.011882253 0.022864282 0.017033977 0.010184546
-0.038041707 -0.034287117 0.005076175 0.017325519 0.009928148 -1.6180285e-28 -0.023132157 0.00933689
0.012299901 0.008674367 0.02068126 -0.030996291 -0.009244883 -0.02738465 -0.03595733 -0.054630224
0.020868763 -0.050740123 0.06063422 -0.01630176 -0.006445315 -7.3101005e-09 7.3466763e-20 -0.006437623
00000000: 5505 c0bb 33b9 bb3c befe 04bd 376c deb8
00000010: 26f9 32bb be29 bebc d178 22bd 9ea3 5a3c
00000020: aa27 13bd 4ef5 5bbd 814f 7cbc 6364 4e36
00000030: 632d 40bc 6dc3 12bc a755 18bd 2526 04bc
00000040: e32f 2fbd ffda 3ab9 1859 04bd 4b75 b43c
00000050: 4861 72ba 8a65 d3bc 58f3 4bbd a9a3 22bd
00000060: 307a 6b3c 39f5 31bd 041c 85bb b72d baa3
00000070: 699e 109f 9273 9bbc b65b a0bc 5a31 01bd
00000080: 05ac c6bc 25d9 3c3c 24ff 9f3c c037 24bd
00000090: 6e50 9121 5d9b 1bbd d64f c13c bfd1 1fbc
000000a0: c47a 683c 97b0 ab3c 2519 e3bc f2c1 36bd
000000b0: 0cb4 ac39 5089 77bc 52e8 213c f7e5 17bd
000000c0: 323b df1e 966e acba bb3b 15bd a9a0 b6bc
000000d0: 7a39 eebc 20dc acbc 5a19 0ebc 2aad 3339
000000e0: 0a4a f7bb 6166 1f92 47e6 703c bf02 57bd
000000f0: 8e64 0dbd 790b 04bb eb3d 5d3c 8b0c 40bc
00000100: 5cb0 ae3c 6984 8e3c 925e 893b 7f84 c5bc
00000110: 6292 8b12 da05 793b 32ae c9bb f917 553b
00000120: 568e edb9 025b 0bba a2ec b83c 5190 443c
00000130: 8a57 7dbb 3d43 6ebc 3641 3ebc fe02 09bb
00000140: a137 00bd 280e abbc 95a8 06bc a6c6 913a
00000150: 4cab a93c d591 51bc b756 293c 0cc0 c73c
00000160: 0a59 3d3d 5269 e3bc 5241 233c 0a2f e73b
00000170: 804b 1f3c 8bc0 4e23 d676 1e3c 9842 881f
00000180: ef2b 28bc 3fde e0bb 7903 2fbd 258c 39bc
00000190: 766f 9abb 9882 693c 2643 0abc 35f6 ea36
000001a0: 5dca 3bbc 4533 393b ba9b 1abc e11a d3ba
000001b0: 8550 aabc ffd2 e5bc 1f6b 62bc 2168 213b
000001c0: e184 35bd d3dd 243c 5065 44bc 43c7 c0bc
000001d0: 5c65 babc d4c9 bcbb ab89 e0bb 216d 0c3a
000001e0: 57e8 85bb 324b a33c 6b1c 24bd 7309 573c
000001f0: 534e 79bb 86fa 19bd c846 1abd 205e ee3b
00000200: cd5a 883c 0744 bc3b 9178 43bd da38 beae
00000210: 11e5 12bd 5fd7 2c3d 18bc 45bc 0131 743c
00000220: a0ea 7bbc 9ebb 05ba cefc 01bc 1351 4a3d
00000230: abd1 9d3b ddca 153d 5b04 28bd 2052 013d
00000240: 7258 4fbd d9dc 39bb a458 f1bc 6523 5d3c
00000250: b531 fbbc f5af 3d1e 4ab3 92bc d195 45bd
00000260: 5c0e d7bc dd2b 57bb 4d15 8e1a a2ed db3c
00000270: fb73 3aba 29ad 45ba f7d6 8e3c a7e1 2a18
00000280: c51e 953c 91cf 16bd 5700 f6bc 50d3 09bd
00000290: 7a2d 55bb 0c0b a01b 4704 c23b 7d02 4ebd
000002a0: c188 8d3a f874 a0bc 5db7 ea3a 26ca 6bbd
000002b0: 58e5 59bd c502 b5bc 6b6c 453b 45b2 1cbd
000002c0: d18a d9ba 1d3b a33c 7756 cf3c 9750 52bc
000002d0: 0dff b0bc dbce 0bbd 3aab 3d3c a895 cfbc
000002e0: c118 1c3d 2dae 4dbd 3366 06bd ec02 31bd
000002f0: aa00 59b9 fb67 743b 0eed a43c 6663 d8bc
00000300: 7f67 ef23 62ac 79bc caab 94bc a94f cd3c
00000310: 7000 cd3a 781c 0000 d5b9 f0bc d1f4 15bc
00000320: 20a2 21bd 70c4 60bd 4e5d fd3b a6b6 42bc
00000330: ad40 74bc 8c5a 98bc e5c9 6bbc 1a11 57bc
00000340: 1879 4f3b e20e c639 3d49 a1bc cbc9 29bc
00000350: bc5e 2fbd 1e38 c69d e3d2 e8bc e4ec 62bd
00000360: f9c6 0580 dc19 64bc ac84 20bd 1b4f df23
00000370: b051 bcbc 0b9f 50bd 138e 193c 3fee 813c
00000380: 16d4 1abd 7bcb 2595 ae25 903c 8842 bbbc
00000390: c8ad 423c e04d bb3c d78a 8b3c 15dd 263c
000003a0: 9fd1 1bbd a670 0cbd 0b56 a63b 3fee 8d3c
000003b0: aca9 223c 071c 4d91 a67f bdbc c1f9 183c
000003c0: 8685 493c ef1e 0e3c bf6b a93c efeb fdbc
000003d0: da77 17bc c655 e0bc fe47 13bd f1c3 5fbd
000003e0: f8f4 aa3c e0d4 4fbd 965b 783d 458b 85bc
000003f0: 3933 d3bb 532c fbb1 ef77 ad1f b2f2 d2bb

pos_mlp.0.weight f4 [32, 1]
-0.5418062 7.696017e-07 0.6242963 0.77099836 -7.5367083e-13 -0.0005605353 -6.524577e-28 0.75998974
0.911317 0.60266566 -0.24722691 0.9803768 -1.0641343e-12 0.94977653 -1.9090898e-14 0.20977038
-0.7517819 0.42588946 -4.0979184e-08 0.83357745 -1.7818207e-06 1.0154e-41 0.83288777 -1.0129e-41
0.59330857 0.6600265 1.8818e-41 1.0479976 -0.57751405 1.5544225e-24 -1.1256457e-11 -0.41487896
00000000: d0b3 0abf a096 4e35 e2d1 1f3f 2660 453f
00000010: b523 54ab e3f0 12ba a8c5 4e92 b08e 423f
00000020: 124c 693f 4c48 1a3f 0d29 7dbe f9f9 7a3f
00000030: 7bc3 95ab 8e24 733f 9df4 aba8 0cce 563e
00000040: c774 40bf 2f0e da3e 1701 30b3 5565 553f
00000050: e526 efb5 4e1c 0000 2238 553f 3c1c 0080
00000060: 12e3 173f 7ff7 283f 7534 0000 c924 863f
00000070: f6d7 13bf 0589 f017 9306 46ad 046b d4be

pos_mlp.0.bias f4 [32]
0.51106274 -2.5406347e-05 0.69275177 0.8483768 -1.8937908e-05 -5.0801962e-05 -2.2603407e-08 0.8396958
-0.13133585 0.41346258 0.33736852 0.02289594 -4.5494744e-08 0.41928247 -8.677027e-05 0.38293642
1.0451268 -0.055585746 2.3765108e-16 0.47506773 -3.0460065e-05 -5.480381e-13 -0.2285551 -7.2099575e-09
-0.07194926 0.2785716 -0.0010438567 -0.185391 0.50917834 -1.5056483e-05 -0.00021087493 0.3950888
00000000: 02d5 023f b71f d5b7 2e58 313f 392f 593f
00000010: d9dc 9eb7 3114 55b8 6b29 c2b2 4ef6 563f
00000020: e87c 06be 5eb1 d33e 91bb ac3e 4490 bb3c
00000030: 0066 43b3 31ac d63e 6ff8 b5b8 3e10 c43e
00000040: b7c6 853f e1ad 63bd 1cff 8825 143c f33e
00000050: 7e84 ffb7 4f42 1aab 590a 6abe 75bb f7b1
00000060: 225a 93bd f0a0 8e3e 05d2 88ba 23d7 3dbe
00000070: 8359 023f 1a9b 7cb7 4f1e 5db9 1449 ca3e

pos_mlp.2.weight f4 [32, 32]
0.306949 -9.372695e-26 0.17538467 0.07307755 1.0029e-41 4.1847382e-29 2.2702188e-33 0.04541793
-0.28961116 0.0021313145 0.07865217 -0.15645398 -3.1617995e-33 0.023836223 -9.285427e-32 0.04010441
0.2755211 -0.23066124 -2.5923838e-16 -0.01865199 -9.94e-42 8.932345e-28 -0.2417157 -2.1792648e-32
-0.30487332 0.03976959 -9.928e-42 -0.17127842 0.19771913 -3.461119e-36 -1.8196314e-26 0.3218214
-0.20752408 2.5229964e-32 0.19451167 0.2947901 -2.3483244e-26 4.596195e-28 -4.6653387e-32 0.18093021
0.3409675 0.170678 -0.2527613 0.23893462 1.0007e-41 0.22641829 4.9241265e-29 0.11427209
-0.08096331 0.17235379 8.0965146e-17 0.05036802 1.0794e-41 1.1974e-41 0.15169382 1.0166e-41
0.2749857 0.28672624 9.979e-42 0.16162345 -0.17531754 -5.4253e-39 -4.6024354e-33 -0.18597545
0.2319128 1.0279e-41 0.06049406 0.10268518 1.5605001e-31 6.4316076e-34 -9.848e-42 0.14929709
-0.2690959 -0.056451917 0.3054199 -0.28264117 3.8098515e-26 -0.08383977 -1.0328e-41 0.18516017
0.31950846 -0.159061 -9.533245e-17 0.06766028 5.4672336e-28 1.0084e-41 -0.13139832 -6.4653324e-37
-0.27193308 -0.038780835 -1.6385e-41 -0.15641901 0.18607952 7.6715513e-29 1.4202806e-31 0.15160225
-0.27985898 1.1071758e-23 0.16672654 0.13406794 -1.0538e-41 6.283531e-28 2.513936e-37 0.1185869
0.36039117 0.20141228 -0.25885364 0.28753352 9.213593e-30 0.06559533 -9.900564e-38 0.19656356
-0.1736716 0.19604641 2.770607e-16 0.33237836 -1.0056e-41 1.0124e-41 0.3326519 -9.911e-42
0.31568095 0.28445116 4.5099863e-30 0.21314527 -0.2321455 -2.679216e-34 -1.127329e-34 -0.3180208
-0.3380692 -2.263543e-39 0.33385143 0.2925177 1.021156e-39 5.6164473e-36 1.8584367e-26 0.17542912
0.15798517 0.14028884 -0.21639882 0.3399735 2.77415e-40 0.19472557 -7.7635174e-25 0.21410978
-0.3561703 0.164488 5.962142e-17 0.17834976 1.311901e-39 1.8593831e-35 0.20965797 -1.0082e-41
0.25396264 0.2514677 1.4445759e-38 0.23539495 -0.09165471 4.40868e-31 -8.476276e-34 -0.09842647
0.20820838 1.0988e-41 0.09498338 0.1022269 9.952e-42 -1.0002e-41 -3.0896738e-25 -0.05316722
-0.027792979 -0.15882197 0.09621971 -0.105195455 9.855e-42 0.009301812 -9.927e-42 0.09741092
0.20406033 -0.13181113 7.9233886e-18 0.031136822 -3.9984482e-27 -1.0458e-41 -0.07534687 1.2821332e-38
-0.03484524 -0.12319519 -8.896999e-24 -0.16058652 0.15024444 1.8170508e-26 4.710207e-39 0.14081974
-0.35475752 -1.0252e-41 0.032602865 0.1394972 -3.5806e-41 -1.002e-41 9.555262e-24 0.11572654
0.11569372 0.25223616 -0.25988376 0.3149709 -4.3274715e-25 0.34405825 6.1284634e-37 0.058782753
-0.08117401 0.31225088 6.940695e-17 0.06393619 -1.9913849e-35 5.3251596e-29 0.3005734 9.976e-42
0.3063221 0.25587645 -1.289866e-39 0.2323686 -0.1116015 3.25815e-36 -8.976606e-35 -0.119338036
-2.4670792e-18 -1.1831e-41 -1.02890804e-17 -1.4745782e-17 1.0042e-41 -3.48e-43 -2.4863227e-31 -1.3480682e-17
1.704311e-17 -1.7980337e-17 -1.5028411e-18 -6.538849e-18 -8.091662e-35 -9.009041e-18 9.988e-42 -5.8182147e-18
2.7020707e-18 -1.9066315e-18 1.8606186e-26 1.1810422e-17 -9.878e-42 1.2636213e-29 -2.691554e-18 2.8114e-41
-2.8448743e-18 -6.96363e-18 -1.1988e-41 7.320269e-18 -7.763445e-19 3.1461256e-30 -9.871e-42 1.2299228e-18
00000000: 6b28 9d3e 830e e895 0a98 333e afa9 953d
00000010: f51b 0000 0231 5410 379a 3c09 2708 3a3d
00000020: ea47 94be 86ad 0b3b 6414 a13d 7935 20be
00000030: 0556 8389 2f44 c33c 3f10 f18b 8644 243d
00000040: 1a11 8d3e 7632 6cbe d570 95a5 0fcc 98bc
00000050: b51b 0080 e589 8d12 5284 77be cc4e e28a
00000060: 5b18 9cbe 70e5 223d ad1b 0080 9c63 2fbe
00000070: e276 4a3e 4038 9384 2335 b494 c6c5 a43e
00000080: 3181 54be 6000 030b 112e 473e baee 963e
00000090: 1991 e894 c4a8 1112 fd3c 728b c545 393e
000000a0: 4b93 ae3e 37c6 2e3e ee69 81be 47ab 743e
000000b0: e51b 0000 32da 673e d1ae 7910 7c07 ea3d
000000c0: 18d0 a5bd 837d 303e 63b1 ba24 b24e 4e3d
000000d0: 171e 0000 6121 0000 a055 1b3e 571c 0000
000000e0: edca 8c3e c8cd 923e d11b 0000 9e80 253e
000000f0: 7186 33be 8713 3b80 7d2d bf89 5970 3ebe
00000100: 8d7a 6d3e a71c 0000 9fc8 773d 9c4c d23d
00000110: 8390 4a0c 11ba 5508 741b 0080 56e1 183e
00000120: f0c6 89be 203a 67bd ff5f 9c3e 58b6 90be
00000130: 9ba7 3c15 2fb4 abbd ca1c 0080 a19a 3d3e
00000140: 9d96 a33e e3e0 22be 59d2 dba4 7991 8a3d
00000150: 7843 2d12 1c1c 0000 488d 06be fd00 5c83
00000160: d03a 8bbe a7d8 1ebd ad2d 0080 4e2c 20be
00000170: a18b 3e3e 377f c210 eb5c 380c 9f3d 1b3e
00000180: ad49 8fbe b128 5619 5dba 2a3e 1b49 093e
00000190: 601d 0080 0f22 4712 f116 ab02 b0dd f23d
000001a0: 3185 b83e 053f 4e3e 7788 84be 9837 933e
000001b0: b6df 3a0f d856 863d 6ec2 0682 f547 493e
000001c0: f8d6 31be 64c0 483e f1b6 9f25 7f2d aa3e
000001d0: 081c 0080 391c 0000 5a51 aa3e a11b 0080
000001e0: efa0 a13e 95a3 913e 60f2 b60e c142 5a3e
000001f0: 8db7 6dbe 8010 b287 05d9 1587 9fd3 a2be
00000200: 6817 adbe d6a5 1880 93ee aa3e e1c4 953e
00000210: 911e 0b00 b2e5 ee04 f80c b814 b1a3 333e
00000220: ddc6 213e e1a7 0f3e a797 5dbe 0211 ae3e
00000230: 5205 0300 2466 473e ec44 7097 983f 5b3e
00000240: f45b b6be 8b6f 283e 467a 8924 52a1 363e
00000250: 0c49 0e00 39b9 c505 94b0 563e 1b1c 0080
00000260: 6407 823e 60c0 803e e64c 9d00 600b 713e
00000270: 77b5 bbbd e111 0f0d 17d6 8c88 d193 c9bd
00000280: 9434 553e a11e 0000 a586 c23d 565c d13d
00000290: be1b 0000 e21b 0080 d63d bf96 dfc5 59bd
000002a0: 1aae e3bc 3aa2 22be d70e c53d b770 d7bd
000002b0: 791b 0000 a166 183c ac1b 0080 607f c73d
000002c0: 31f5 503e 7ff9 06be 2529 1223 a612 ff3c
000002d0: 1565 9e93 271d 0080 764f 9abd a89c 8b00
000002e0: e2b9 0ebd c34d fcbd ce17 2c99 cb70 24be
000002f0: aed9 193e b6f3 b314 244a 3300 0d33 103e
00000300: c7a2 b5be 941c 0080 958a 053d 5bd8 0e3e
00000310: d063 0080 ef1b 0080 5ed3 3819 0902 ed3d
00000320: d4f0 ec3d 1925 813e 7c0f 85be de43 a13e
00000330: c3ed 0597 6728 b03e 728a 5003 2fc6 703d
00000340: 8f3e a6bd 59df 9f3e a20a a024 faf0 823d
00000350: a7c2 d385 4302 8710 c2e4 993e cf1b 0000
00000360: 40d6 9c3e 3d02 833e 9f0b 0e80 09f2 6d3e
00000370: 548f e4bd 1d96 8a04 9da3 ee86 8067 f4bd
00000380: cf09 36a2 fb20 0080 cfcc 3da3 7e01 88a3
00000390: fe1b 0000 f800 0080 1f5f a18c b9ac 78a3
000003a0: e831 9d23 dfd6 a5a3 bbc7 dda1 af3d f1a2
000003b0: ff1c d786 fe2f 26a3 d81b 0000 7ca7 d6a2
000003c0: ac60 4722 40af 0ca2 4944 b814 24dd 5923
000003d0: 891b 0080 7c25 800f 059a 46a2 5f4e 0000
000003e0: 28ea 51a2 d074 00a3 6b21 0080 fe08 0723
000003f0: ef22 65a1 793e 7f0e 841b 0080 2b81 b521

pos_mlp.2.bias f4 [32]
0.23828316 -0.07246688 0.13570175 0.060411118 -0.027563099 0.017058117 0.056965034 -1.0488637e-17
0.19835468 -0.17754695 0.24558222 -0.0021876618 0.28152606 -0.13669902 0.06834049 0.037513684
0.22027105 0.02335753 0.05357253 -1.0247422e-17 -0.021531044 0.13640268 -2.932933e-11 -0.013020439
-4.762217e-10 -4.1502748e-19 0.13325319 0.29539084 -0.0001219553 -0.009109179 0.29238632 0.11860226
00000000: 8000 743e 8469 94bd 66f5 0a3e a671 773d
00000010: 02cc e1bc 77bd 8b3c 2b54 693d 307b 41a3
00000020: 7d1d 4b3e dece 35be e879 7b3e e05e 0fbb
00000030: 2f24 903e d4fa 0bbe 19f6 8b3d f3a7 193d
00000040: bc8e 613e 4a58 bf3c df6e 5b3d 1508 3da3
00000050: df61 b0bc 25ad 0b3e e4fd 00ae ae53 55bc
00000060: 1fe7 02b0 2efd f4a0 8673 083e 783d 973e
00000070: 41c2 ffb8 aa3e 15bc a9b3 953e bee5 f23d

dec_trunk.0.weight f4 [128, 288]
-0.039544985 -0.057064023 0.05964766 -0.024872154 0.06677503 0.067311056 -0.002580414 0.050530944
0.06386747 0.002961289 0.0081322305 6.3510684e-06 0.014394608 -0.012856171 -0.040128056 0.004396995
0.060799032 0.019044347 0.054803785 -0.009577518 0.035049003 0.032688927 -0.0010945017 -0.013679595
-0.012813118 0.035420038 -0.013983291 2.7239568e-16 -1.0102232e-19 0.036188915 -0.0045812037 0.008293006
-0.0009775849 0.001740171 0.016326424 -0.013714745 0.00013108831 0.011683119 -0.08263741 -0.03294042
0.06494381 -0.025464093 0.052900944 0.0230184 4.833037e-06 -0.025731845 -0.006709565 0.025012597
4.006897e-31 -0.03345947 0.05146358 0.0306583 0.027100408 -0.024345702 0.03382424 0.026111716
0.037948404 -7.7627495e-27 -0.006858935 0.051014688 -0.03888431 -0.016228952 -0.039433084 0.021518953
-0.05492742 0.04562322 0.017300423 -0.0043901885 8.226886e-13 0.06138735 -0.03606313 0.03223254
0.028205847 0.03359117 -0.03324238 -0.04283513 -0.010828798 -0.020458393 0.042121835 0.07321968
0.044660963 -0.047896747 0.0269375 -0.017049208 -0.05226174 -0.048466675 -0.054789238 0.03904179
-0.09169749 0.046748336 0.009943145 -0.049050752 0.025285376 2.4617693e-05 0.0012007947 2.177399e-06
0.04310095 -0.042441968 -0.0012616519 0.054424442 0.046342444 -0.0008343396 0.05326294 -2.9964864e-05
-0.04740872 -0.007381431 0.027281936 0.07983018 -0.033624623 0.0076754526 0.023097387 0.009412247
0.021654941 0.037204433 -0.0018685122 0.007924217 -0.012746198 0.01325213 0.021650437 -0.021647995
0.017946446 0.08465246 0.028255371 0.029444162 0.01255196 0.045290742 -0.039441716 0.036159225
0.014925285 0.0342554 0.07011384 -6.605269e-05 0.033871446 -0.05201847 -0.008959757 0.081054285
0.057037808 0.03282254 0.024388004 -0.01331704 0.019107822 -0.06887634 -0.041063562 0.020155553
-0.019013006 -0.018433921 -0.029315664 0.027628202 0.0059318575 1.3033608e-05 0.06055369 -0.01111542
0.06889761 0.028544767 -1.677089e-20 -0.029701253 -0.00666561 0.0026338734 0.020373639 -6.6397088e-06
0.013680574 0.011904139 -0.017720371 0.05158703 0.035397932 1.645438e-05 0.039329555 0.055130024
-0.0047747595 0.0130918 0.037147257 0.05200032 -0.034487404 -0.024090517 0.04269658 0.034993213
0.03821618 -0.014777889 0.00094487076 0.032817982 -0.05381629 -0.0075840964 -0.038482428 0.041351452
-0.04855956 0.019506607 0.039026495 -0.048878595 0.06719182 -0.005062916 -0.014868392 -0.02118493
-0.0001839722 -0.069028504 -0.028097732 -0.06390517 -0.0049107256 3.272911e-30 -0.0067013283 -0.003761673
-0.04356819 0.024098737 0.059774265 0.0025093611 -0.00924786 -0.013251209 -0.01991731 -0.024293743
0.014976861 0.009281352 0.012652377 -0.005383326 -0.012191823 -7.2160645e-20 0.062235277 -0.008315897
-3.444036e-21 -0.032577246 0.06484866 -0.0001365435 -0.016840152 0.0118565755 -0.03896733 -0.040603142
0.010779224 -8.0986e-06 -0.037304573 -0.021335747 0.037999056 0.01076081 0.06472121 0.04798669
0.016597353 0.0048847897 -0.027119175 0.057732753 0.0480117 -1.746678e-06 0.0013963701 0.057010345
0.034216393 0.05837599 -0.0022533396 0.0045894785 0.0352851 0.039368138 0.033570427 -0.052652042
0.0013341231 0.030501474 -0.017022751 0.050502855 -0.04525534 7.7558654e-10 5.366766e-20 -0.016104637
00000000: ecf9 21bd f7bb 69bd 1b51 743d b0c0 cbbc
00000010: 59c1 883d 61da 893d 2a1c 29bb 89f9 4e3d
00000020: f3cc 823d 2f12 423b 0c3d 053c 431b d536
00000030: 5dd7 6b3c b0a2 52bc 515d 24bd ab14 903b
00000040: 6808 793d e402 9c3c ef79 603d 06eb 1cbc
00000050: 8b8f 0f3d d3e4 053d 6275 8fba 6120 60bc
00000060: 1dee 51bc 9a14 113d 2c1a 65bc 8206 9d25
00000070: 3f88 ee9f d43a 143d ec1d 96bb 63df 073c
00000080: 4e22 80ba 7316 e43a febe 853c cfb3 60bc
00000090: c074 0939 8e6a 3f3c cd3d a9bd 89ec 06bd
000000a0: 4301 853d 139a d0bc a9ae 583d 1591 bc3c
000000b0: 792b a236 97cb d2bc e9db dbbb 38e7 cc3c
000000c0: ff07 020d cc0c 09bd 7acb 523d 1d27 fb3c
000000d0: ad01 de3c a370 c7bc 498b 0a3d 3de8 d53c
000000e0: c96f 1b3d d1c1 1994 ebc0 e0bb c7f4 503d
000000f0: 2745 1fbd 94f2 84bc 9684 21bd 8448 b03c
00000100: 93fb 60bd 6adf 3a3d 9eb9 8d3c 92db 8fbb
00000110: f690 672b 4d71 7b3d efb6 13bd 4506 043d
00000120: f30f e73c e596 093d 2929 08bd e473 2fbd
00000130: 456b 31bc 5c98 a7bc f287 2c3d 33f4 953d
00000140: 6aee 363d 612f 44bd 08ac dc3c c8aa 8bbc
00000150: 6810 56bd fe84 46bd ae6a 60bd 49ea 1f3d
00000160: e5cb bbbd 2f7b 3f3d 93e8 223c 71e9 48bd
00000170: 4723 cf3c 1882 ce37 fc63 9d3a 6e1f 1236
00000180: 9f8a 303d a1d7 2dbd 035e a5ba 2aec 5e3d
00000190: 93d1 3d3d 95b7 5aba 3e2a 5a3d 0e5d fbb7
000001a0: a52f 42bd eedf f1bb 5e7e df3c 017e a33d
000001b0: f9b9 09bd 5d82 fb3b bb36 bd3c d335 1a3c
000001c0: b465 b13c ad63 183d dee8 f4ba 93d4 013c
000001d0: 6ed5 50bc 761f 593c 425c b13c 2357 b1bc
000001e0: 6d04 933c 455e ad3d cf77 e73c e234 f13c
000001f0: bca6 4d3c c982 393d a38d 21bd b21b 143d
00000200: 2f89 743c 644f 0c3d d897 8f3d c585 8ab8
00000210: c9bc 0a3d 5211 55bd f2cb 12bc caff a53d
00000220: 7aa0 693d ed70 063d 5ac9 c73c b72f 5abc
00000230: 0288 9c3c 0a0f 8dbd 4432 28bd 421d a53c
00000240: 2ac1 9bbc bc02 97bc 6727 f0bc 8a54 e23c
00000250: 0760 c23b ecaa 5a37 2507 783d 731d 36bc
00000260: 311a 8d3d b7d6 e93c 8665 9e9e 0b50 f3bc
00000270: 306b dabb 109d 2c3b 9ee6 a63c aaca deb6
00000280: 7c24 603c 9409 433c 502a 91bc ec4c 533d
00000290: 6cfd 103d 8307 8a37 0718 213d 05d0 613d
000002a0: 9675 9cbb fd7e 563c b927 183d 4afe 543d
000002b0: aa42 0dbd 7a59 c5bc 9ce2 2e3d 0b55 0f3d
000002c0: 9288 1c3d f51e 72bc 34b1 773a 266c 063d
000002d0: 786e 5cbd 0384 f8bb c09f 1dbd 2460 293d
000002e0: 64e6 46bd 52cc 9f3c 3fda 1f3d ec34 48bd
000002f0: dd9b 893d d1e6 a5bb 8e9a 73bc 058c adbc
00000300: a9e8 40b9 d15e 8dbd 372d e6bc b7e0 82bd
00000310: 27ea a0bb dac3 840e d196 dbbb 6786 76bb
00000320: 8f74 32bd b76a c53c dcd5 743d 1874 243b
00000330: 5684 17bc 991b 59bc a029 a3bc ac03 c7bc
00000340: 8261 753c d010 183c ea4b 4f3c 9d66 b0bb
00000350: 36c0 47bc 6f62 aa9f 6bea 7e3d 663f 08bc
00000360: ac1c 829d b86f 05bd 60cf 843d 1e2d 0fb9
00000370: 5cf4 89bc 1542 423c 359c 1fbd 7b4f 26bd
00000380: 589b 303c 39df 07b7 aecc 18bd 4ec8 aebc
00000390: e6a4 1b3d 1c4e 303c 8e8c 843d b18d 443d
000003a0: 2cf7 873c 9610 a03b 0829 debc 2e79 6c3d
000003b0: eba7 443d 666f eab5 6806 b73a ae83 693d
000003c0: 7d26 0c3d a91b 6f3d c4ac 13bb 5663 963b
000003d0: 1c87 103d 7c40 213d 2581 093d aba9 57bd
000003e0: bedd ae3a 3ade f93c 4c73 8bbc 15dc 4e3d
000003f0: aa5d 39bd 0d31 5530 3870 7d1f dfed 83bc

dec_trunk.0.bias f4 [128]
0.037103694 2.9160144e-28 -0.008375527 -6.966032e-07 -0.021049993 0.014222274 -0.0015989454 -0.008335073
0.03707697 -0.00096024544 5.4043974e-37 -1.9317594e-35 -0.03747279 0.0060561337 4.7096e-41 0.03855438
-0.023074696 -0.016443832 8.511873e-32 0.028778099 -1.2121501e-21 7.749538e-39 -0.0015216114 -0.0003173539
-0.02250657 5.646367e-36 0.0014304902 -6.68406e-35 -0.008734337 -0.038823128 -0.00028268024 0.015865501
0.010204316 -0.000357229 -1.0064e-41 -0.027818967 0.031832393 -1.9318056e-21 -1.0587874e-05 0.005514828
2.1413696e-35 -2.632978e-05 -0.029419556 -0.00014418022 -0.03418525 0.031025575 1.7080392e-34 5.0729914e-36
-1.0314e-41 -0.018682057 0.029785205 -1.17161035e-05 -0.0041186735 0.025031105 -0.048187103 0.046243552
0.0009258645 3.796219e-38 -0.032470692 -0.025172733 6.876242e-06 0.026656171 -0.01589252 -6.272348e-34
-0.049172677 -0.0031304632 -2.063933e-17 -3.584083e-37 0.03390522 -7.6694924e-29 -0.0159134 -0.03526064
-0.033059396 -0.023580734 -2.3437986e-32 5.1147625e-30 9.843336e-37 0.020769242 -0.024311565 -0.0077284756
-1.3787198e-29 -0.01735607 1.0137e-41 0.009325077 -0.031610858 -0.007339524 0.0043132864 -0.047702394
0.04276788 -6.608141e-35 2.4861888e-12 -2.0345252e-20 0.0004270812 0.026868243 0.015189317 9.839e-42
-0.0409803 -0.01240005 0.0059126825 -0.008472217 0.0027742868 0.026538458 -3.2568625e-37 -0.012798536
-1.8834215e-34 -3.545496e-37 0.007865589 1.086614e-15 0.04538474 6.046494e-36 -0.00016436895 -0.012872975
0.020060714 -0.0006739841 -0.03607293 -1.3298786e-10 -1.4413558e-37 2.6765832e-36 0.03705289 -0.007202827
2.0559167e-33 -0.026611999 1.5463816e-34 9.871e-42 1.5963898e-30 -0.026141264 0.025225861 1.4221177e-33
00000000: 0bfa 173d 0ad3 b811 8239 09bc 35fe 3ab5
00000010: 0971 acbc 8a04 693c b493 d1ba d48f 08bc
00000020: 05de 173d fbb8 7bba f1e6 3703 7e6b cd85
00000030: 117d 19bd 8872 c63b 4983 0000 33eb 1d3d
00000040: 2507 bdbc 37b5 86bc 19fb dc0b 0cc0 eb3c
00000050: c92c b79c 8f62 5400 ce70 c7ba 8562 a6b9
00000060: b35f b8bc 7e2b f004 497f bb3a 5bb1 b186
00000070: 771a 0fbc 0005 1fbd b334 94b9 5ef8 813c
00000080: 0130 273c 774a bbb9 0e1c 0080 9ae4 e3bc
00000090: af62 023d 8ef6 119d 93a2 31b7 bbb5 b43b
000000a0: a0b5 e305 c6de dcb7 4801 f1bc 152f 17b9
000000b0: d505 0cbd 5929 fe3c 9009 6307 fcc7 d704
000000c0: c01c 0080 1d0b 99bc 1a00 f43c 4890 44b7
000000d0: f0f5 86bb 080e cd3c d75f 45bd e169 3d3d
000000e0: b7b5 723a 92af 4e01 fdff 04bd 0c37 cebc
000000f0: 78ba e636 0b5e da3c 0831 82bc 3c6f 5088
00000100: 4a69 49bd 7528 4dbb 3d5d bea3 88eb f382
00000110: 33e0 0a3d da71 c290 d25c 82bc 766d 10bd
00000120: 4a69 07bd 622c c1bc db64 f38a bb7a cf0e
00000130: c679 a703 4224 aa3c 0c29 c7bc 273f fdbb
00000140: 9dd1 8b8f 512e 8ebc 421c 0000 35c8 183c
00000150: 637a 01bd 6480 f0bb 7856 8d3b 9663 43bd
00000160: 5f2d 2f3d adac af86 32f3 2e2c cd27 c09e
00000170: dee9 df39 ca1a dc3c 9ddc 783c 6d1b 0000
00000180: f6da 27bd 9429 4bbc 2dbf c13b 0ecf 0abc
00000190: cfd0 353b 2e67 d93c 8ca6 dd82 f3b0 51bc
000001a0: 8359 7a87 414b f182 acde 003c fb98 9c26
000001b0: 59e5 393d 3f98 0005 745a 2cb9 2ce9 52bc
000001c0: 5e56 a43c 4fae 30ba 35c1 13bd c138 12af
000001d0: eb2f 4482 d2b2 6304 c5c4 173d b105 ecbb
000001e0: 83cc 2a09 6801 dabc a48c 4d07 841b 0000
000001f0: b883 010e 3426 d6bc 77a6 ce3c 324a ec08
