pointnet/weights_per_bundle_ratio025/SLF_III_left_best.pth (torch, 359830 bytes, 17 tensors)

t_grid f4 [100]
0.0 0.01010101 0.02020202 0.030303031 0.04040404 0.05050505 0.060606062 0.07070707
0.08080808 0.09090909 0.1010101 0.11111111 0.121212125 0.13131313 0.14141414 0.15151516
0.16161616 0.17171717 0.18181819 0.1919192 0.2020202 0.21212122 0.22222222 0.23232323
0.24242425 0.25252524 0.26262626 0.27272728 0.28282827 0.2929293 0.3030303 0.3131313
0.32323232 0.33333334 0.34343433 0.35353535 0.36363637 0.37373737 0.3838384 0.3939394
0.4040404 0.41414142 0.42424244 0.43434343 0.44444445 0.45454547 0.46464646 0.47474748
0.4848485 0.4949495 0.5050505 0.5151515 0.5252525 0.53535354 0.54545456 0.5555556
0.56565654 0.57575756 0.5858586 0.5959596 0.6060606 0.61616164 0.6262626 0.6363636
0.64646465 0.65656567 0.6666667 0.6767677 0.68686867 0.6969697 0.7070707 0.7171717
0.72727275 0.7373737 0.74747473 0.75757575 0.7676768 0.7777778 0.7878788 0.7979798
0.8080808 0.8181818 0.82828283 0.83838385 0.8484849 0.85858583 0.86868685 0.8787879
0.8888889 0.8989899 0.90909094 0.9191919 0.9292929 0.93939394 0.94949496 0.959596
0.969697 0.97979796 0.989899 1.0
00000000: 0000 0000 b57e 253c b57e a53c 103e f83c
00000010: b57e 253d 62de 4e3d 103e 783d dece 903d
00000020: b57e a53d 8c2e ba3d 62de ce3d 398e e33d
00000030: 103e f83d f376 063e dece 103e ca26 1b3e
00000040: b57e 253e a0d6 2f3e 8c2e 3a3e 7786 443e
00000050: 62de 4e3e 4e36 593e 398e 633e 24e6 6d3e
00000060: 103e 783e fd4a 813e f376 863e e9a2 8b3e
00000070: dece 903e d4fa 953e ca26 9b3e bf52 a03e
00000080: b57e a53e abaa aa3e a0d6 af3e 9602 b53e
00000090: 8c2e ba3e 815a bf3e 7786 c43e 6db2 c93e
000000a0: 62de ce3e 580a d43e 4e36 d93e 4362 de3e
000000b0: 398e e33e 2fba e83e 24e6 ed3e 1a12 f33e
000000c0: 103e f83e 056a fd3e fd4a 013f f8e0 033f
000000d0: f376 063f ee0c 093f e9a2 0b3f e438 0e3f
000000e0: dece 103f d964 133f d4fa 153f cf90 183f
000000f0: ca26 1b3f c5bc 1d3f bf52 203f bae8 223f
00000100: b57e 253f b014 283f abaa 2a3f a640 2d3f
00000110: a0d6 2f3f 9b6c 323f 9602 353f 9198 373f
00000120: 8c2e 3a3f 86c4 3c3f 815a 3f3f 7cf0 413f
00000130: 7786 443f 721c 473f 6db2 493f 6748 4c3f
00000140: 62de 4e3f 5d74 513f 580a 543f 53a0 563f
00000150: 4e36 593f 48cc 5b3f 4362 5e3f 3ef8 603f
00000160: 398e 633f 3424 663f 2fba 683f 2950 6b3f
00000170: 24e6 6d3f 1f7c 703f 1a12 733f 15a8 753f
00000180: 103e 783f 0ad4 7a3f 056a 7d3f 0000 803f

encoder.mlp.0.weight f4 [64, 3]
4.9513595e-08 -2.991586e-14 -1.4244885e-09 -0.2631192 0.26854265 0.20893109 0.3684232 0.3695819
-0.3583502 -0.56020224 0.07701788 -0.10589555 -0.49561086 -0.34039718 0.5253497 0.20433587
0.0755799 -0.4126313 0.17839018 0.085034065 -0.29873228 0.123884186 -0.41316512 0.17095566
0.23302056 0.042917404 0.29650387 -0.40272033 0.14849629 0.03754355 -0.45901355 -0.2664699
0.0124767795 -0.30361977 -0.16452405 -0.3439901 -0.15812652 -0.5518722 0.4720444 -0.34563258
-0.422225 -0.19175449 -0.0064991256 0.2229506 0.5806148 -0.3230729 -0.11452387 0.4258983
-0.19548503 -0.24416418 0.19307654 -0.47288457 -0.28039855 -0.11859595 -0.02293479 -0.049267333
-0.12938856 0.15556477 0.5351613 -0.29747334 -0.2904786 -0.488447 0.25922328 -9.2129354e-05
0.19092943 0.1991954 0.034319654 0.3635883 -0.52495843 1.337362e-09 9.590893e-15 -9.466226e-24
0.11550458 0.0508062 0.18213858 0.4138406 -0.58041006 0.4256641 -0.3311866 -0.4485167
-0.05796896 0.119648404 0.3904658 -0.36836678 0.08376568 0.035390418 0.31924662 3.3522358e-06
4.964322e-07 -3.69948e-33 0.16068433 -0.4970109 -0.2689862 0.29329768 0.017756961 0.3920005
-0.18082294 0.364177 0.2510128 -0.4346172 -0.20916745 -0.5302055 -0.28097385 0.0553044
0.31780347 -0.046671685 0.2615739 0.44632095 -0.20788911 -0.35271105 0.123663664 -0.30092096
-0.14998667 -0.062994555 -0.5589167 -0.4448854 -0.116308376 1.0145874e-06 -1.2246928e-36 -4.766202e-09
-0.56655765 -0.117853455 -0.014082266 -0.28408828 -0.19907418 -0.16921408 -0.0031128922 0.27404466
-0.5103622 -0.38396102 -0.0060167275 0.4212762 0.09486052 -0.15577601 0.17444707 -0.4966344
-0.3490012 -0.39608467 -0.3986308 0.48313302 0.46153086 0.20975304 0.3054364 -0.24296741
-0.14352188 0.5381775 -0.09373666 -0.4149964 -0.27521244 -0.26947513 -0.40789202 -0.53515404
0.023620732 0.023197554 -0.057654537 0.17813316 -0.0493057 0.09694088 0.3554357 0.33909562
0.23779309 -0.10422046 4.0255566e-10 1.099532e-22 -1.0176e-41 0.011924212 -0.41865575 -0.26999897
-0.17971165 -0.25453737 -0.045849416 0.0042461297 -0.5124021 -0.032633696 0.17770502 -0.40764138
-0.22508663 0.36164692 0.40239826 0.23748018 0.439893 -0.22317427 0.5212003 -0.44743332
0.12521401 0.056998 -0.18520425 -0.4845441 -0.25576642 0.29686138 -0.13131376 0.4927553
00000000: c6a8 5433 a3ba 06a9 bcc7 c3b0 8fb7 86be
00000010: 6c7e 893e 08f2 553e f7a1 bc3e d739 bd3e
00000020: ad79 b7be 6a69 0fbf 8dbb 9d3d c4df d8bd
00000030: b5c0 fdbe 8a48 aebe 517d 063f 6c3d 513e
00000040: a2c9 9a3d 6944 d3be eaab 363e 5726 ae3d
00000050: 70f3 98be feb6 fd3d 618a d3be 000f 2f3e
00000060: f19c 6e3e 29ca 2f3d 5bcf 973e 5c31 cebe
00000070: 690f 183e 44c7 193d d303 ebbe be6e 88be
00000080: 686b 4c3c 0d74 9bbe fe78 28be 781f b0be
00000090: ebeb 21be 7f47 0dbf ceaf f13e c1f6 b0be
000000a0: e02d d8be 4a5b 44be 9ef6 d4bb 294d 643e
000000b0: 2ca3 143f d069 a5be 7e8b eabd 580f da3e
000000c0: 3a2d 48be 2d06 7abe dbb5 453e ed1d f2be
000000d0: 6690 8fbe 6fe2 f2bd bee1 bbbc 8bcc 49bd
000000e0: 6f7e 04be 5f4c 1f3e 5500 093f 6d4e 98be
000000f0: 9cb9 94be ba15 fabe eab8 843e 9235 c1b8
00000100: 0183 433e e1f9 4b3e c492 0c3d 3f28 ba3e
00000110: ad63 06bf 3ece b730 30c6 2c28 7b1a 3799
00000120: aa8d ec3d 291a 503d 8982 3a3e eae2 d33e
00000130: c195 14bf a5f0 d93e 4a91 a9be fba3 e5be
00000140: dc70 6dbd 390a f53d 22eb c73e 929a bcbe
00000150: 578d ab3d 8bf5 103d 4b74 a33e f9f6 6036
00000160: 9042 0535 9eab 9989 6f8a 243e 3678 febe
00000170: 8fb8 89be 1d2b 963e 0c77 913c 4ab4 c83e
00000180: a629 39be 6875 ba3e c084 803e 2586 debe
00000190: fe2f 56be 8cbb 07bf cedb 8fbe de86 623d
000001a0: 23b7 a23e cf2a 3fbd 04ed 853e 2e84 e43e
000001b0: e2e0 54be 8b96 b4be 6043 fd3d 5012 9abe
000001c0: 1b96 19be 4a03 81bd 2a15 0fbf 05c8 e3be
000001d0: 1633 eebd f52c 8835 e55e d083 f5c3 a3b1
000001e0: ec09 11bf 275d f1bd 4eb9 66bc 0574 91be
000001f0: 1ada 4bbe 7546 2dbe aa01 4cbb 954f 8c3e
00000200: 19a7 02bf 8a96 c4be f827 c5bb 84b1 d73e
00000210: 3b46 c23d bf83 1fbe 41a2 323e dd46 febe
00000220: 49b0 b2be 9ccb cabe 5619 ccbe 365d f73e
00000230: c64d ec3e 80c9 563e 2962 9c3e 73cc 78be
00000240: 66f7 12be 00c6 093f 02f9 bfbd 687a d4be
00000250: a5e8 8cbe a5f8 89be 39d7 d0be dbff 08bf
00000260: 4480 c13c cc08 be3c 2a27 6cbd 8a68 363e
00000270: c6f4 49bd f188 c63d abfb b53e f19d ad3e
00000280: 0880 733e 8971 d5bd ac4e dd2f deec 041b
00000290: 5e1c 0080 c55d 433c 0c5a d6be 4e3d 8abe
000002a0: 5506 38be b952 82be 99cc 3bbd 1e23 8b3b
000002b0: c92c 03bf e9aa 05bd 4ef8 353e 5fb6 d0be
000002c0: 1c7d 66be c929 b93e 2507 ce3e 012e 733e
000002d0: a839 e13e cc87 64be 626d 053f fb15 e5be
000002e0: 1a38 003e bc76 693d 2fa6 3dbe 2a16 f8be
000002f0: d1f3 82be 37fe 973e 1d77 06be 6c4a fc3e

encoder.mlp.0.bias f4 [64]
-6.1201104e-15 -0.15179141 0.01327262 0.006712582 -0.18246327 0.007662261 0.00044236347 0.010135265
0.078513704 -0.21952392 0.09375971 -0.1818192 -0.06418768 -0.13154624 -0.34842637 0.045897186
-0.18429112 -0.21947034 0.01902125 -0.22672161 0.26633888 0.24648657 -0.0010177309 -1.1334194e-17
0.03820381 -0.12193747 -0.27550918 -0.21776393 0.09622611 -2.9015197e-08 -0.0057521192 -0.030951655
-0.0028822906 -0.03645128 -0.20902283 -0.19854006 0.18635856 0.10113055 0.31105465 -8.353238e-11
-0.26296696 -0.10468769 -0.07080242 0.3918011 -0.02727362 -0.2202845 -0.38125837 -0.036001425
0.19541943 -0.21997821 0.077899985 -0.10603711 0.23910965 -0.005830278 -4.1816115e-06 -0.26744023
0.22832263 -0.15567516 0.11140584 0.01966093 -0.13583302 -0.28906178 -0.078778796 -0.14511076
00000000: 0e80 dca7 356f 1bbe 6775 593c 38f5 db3b
00000010: a7d7 3abe b413 fb3b 05ed e739 620e 263c
00000020: cbcb a03d e1ca 60be 1705 c03d d02e 3abe
00000030: d574 83bd 0fb4 06be f164 b2be b0fe 3b3d
00000040: d0b6 3cbe d5bc 60be 74d2 9b3c b629 68be
00000050: 925d 883e fa66 7c3e 6265 85ba 3814 51a3
00000060: 997b 1c3d 5aba f9bd 8a0f 8dbe 82fd 5ebe
00000070: 3212 c53d 183d f9b2 467c bcbb 538e fdbc
00000080: d0e4 3cbb f04d 15bd 150a 56be 164e 4bbe
00000090: c7d4 3e3e 891d cf3d 8e42 9f3e 8db0 b7ae
000000a0: 9ba3 86be 8066 d6bd dc00 91bd 279a c83e
000000b0: ed6c dfbc 4392 61be 4c34 c3be 3b76 13bd
000000c0: 081c 483e f841 61be 078a 9f3d fc29 d9bd
000000d0: 29d9 743e eb0b bfbb c54f 8cb6 eded 88be
000000e0: 68cd 693e 4f69 1fbe bf28 e43d f50f a13c
000000f0: d017 0bbe e8ff 93be c756 a1bd ea97 14be

encoder.mlp.2.weight f4 [128, 64]
1.0105e-41 0.09877212 0.031930067 -0.07849872 0.08429933 0.025032274 0.020986427 0.055119116
-0.031102812 -0.04685594 -0.038621865 0.0377132 0.011232866 -0.07321985 0.0828527 0.095053
0.02355007 0.06851561 -0.0071027903 -0.09351944 0.0697524 0.005350947 0.0012574084 9.853e-42
-0.031758 0.09270496 0.006330844 0.08481947 0.07541392 -1.0155e-41 -0.03515779 -0.022235425
0.03482371 0.07002481 -0.09526097 0.052764166 -0.0066867624 -0.059534904 0.08391264 -5.937214e-31
0.05911491 0.02905292 0.04302356 -0.06543168 0.039059605 0.08576044 -0.04520907 0.09035758
-0.08039519 -0.012062161 -0.114279546 0.02717663 0.026382772 0.007462351 1.0363e-41 0.020979483
-0.07437732 -0.11324751 0.047125828 -0.031272728 0.05303401 0.06378263 -0.05963982 0.070212975
-9.830786e-38 0.017551143 0.02582362 0.0034137804 -0.08372358 -0.00017108287 -0.0024592814 -0.050277807
-0.07016886 0.095754646 -0.06335059 0.03191405 -0.012498656 -0.086540796 -0.058703948 0.093475096
0.00017364579 0.07788925 0.025856255 0.041874345 -0.024347678 -0.094431534 0.039620094 -1.0242e-41
-0.06142071 -0.056176107 -0.052892808 0.0073366654 -0.07537671 -9.903e-42 0.021241466 -0.113396525
-0.064623065 0.11287833 0.004500963 0.0061049913 -0.097729474 -0.06842684 0.0332073 -1.0747e-41
0.10804378 -0.063501716 0.092748605 0.05003452 -0.027904777 0.0899772 0.0666548 0.037652995
0.037582815 -0.07446227 -0.056208033 0.036343485 0.08551609 -0.032003626 8.077e-42 0.019542221
0.11701552 -0.035438817 -0.040179685 -0.015877932 -0.103074834 0.058514792 0.08900993 -0.14056796
9.99e-42 -0.100934915 0.020593874 0.10721147 -0.008506421 0.02117317 0.013074658 0.03463472
-0.08281667 -0.07283686 0.108139664 -0.06572313 -0.101320855 0.06511875 0.024624635 0.11322326
0.074404314 -0.050158326 0.009501775 -0.041093964 -0.02194337 0.016824324 -0.057299297 -6.8435665e-34
-0.06642246 0.045503873 0.12903818 -0.082874335 -0.10811432 1.1006e-41 0.09447095 -0.1394058
-0.049120348 0.030223792 -0.0986739 0.08221936 0.09116754 0.057554364 0.03331745 1.0064e-41
-0.05324676 0.042806823 0.043508787 -0.08704864 0.012853554 -0.106933415 0.12289934 0.027201235
0.11306751 -0.09198752 0.07998437 -0.116964206 -0.089665726 0.03222201 1.0113e-41 0.109496884
0.05723683 0.022594158 0.1319316 0.029393712 0.055868443 -0.027068349 0.031192778 -0.13767996
-1.0201e-41 0.08908526 -0.016469643 0.08503516 0.11092964 2.4880159e-27 -2.3223525e-30 0.06723877
0.031933818 0.07198765 -0.07122335 -0.119827196 0.020117583 -0.067736045 0.055271056 -0.025579346
-0.11764605 0.0778747 -0.0039381487 -0.016336104 -0.01770705 0.06664905 0.01553225 9.92e-42
0.03244203 -0.11447261 0.012453252 -0.08652443 0.086764336 -5.37806e-40 -0.017227441 0.017286811
-0.080431834 -0.0066978517 0.030169595 0.06477897 -0.09578829 0.035635576 0.10615633 4.252428e-36
-0.0694789 -0.04001501 0.0019796488 0.031375196 -0.10578007 -0.13447893 -0.04320793 -0.056186233
-0.066350296 0.08030662 0.047000248 0.0060757156 0.06592451 0.0035773853 -1.2368e-41 0.022893166
-0.11631395 -0.09542168 0.044808593 0.0021877966 -0.08663201 0.03786244 -0.09321413 -0.09183524
00000000: 2b1c 0000 0a49 ca3d 1ac9 023d f0c3 a0bd
00000010: 21a5 ac3d 7c10 cd3c baeb ab3c 95c4 613d
00000020: 53cb febc 04ec 3fbd f631 1ebd 2879 1a3d
00000030: 0e0a 383c 4af4 95bd adae a93d 26ab c23d
00000040: 14ec c03c ea51 8c3d 86be e8bb 1f87 bfbd
00000050: 59da 8e3d ff56 af3b a0cf a43a 771b 0000
00000060: ad14 02bd 19dc bd3d f872 cf3b d5b5 ad3d
00000070: 9d72 9a3d 4f1c 0080 9d01 10bd 1127 b6bc
00000080: 4ea3 0e3d 2b69 8f3d 2f18 c3bd 3d1f 583d
00000090: a11c dbbb dfda 73bd 64da ab3d 72ac 408d
000000a0: 7a22 723d 6400 ee3c 7939 303d 0b01 86bd
000000b0: f7fc 1f3d 2ba3 af3d 252d 39bd 650d b93d
000000c0: 3ca6 a4bd 5fa0 45bc 650b eabd 86a1 de3c
000000d0: af20 d83c bd86 f43b e31c 0000 2add ab3c
000000e0: 2353 98bd 4fee e7bd 0307 413d d517 00bd
000000f0: 313a 593d 78a0 823d e248 74bd d2cb 8f3d
00000100: 4acf 0582 6ac7 8f3c 0e8c d33c bbb9 5f3b
00000110: 4577 abbd b564 33b9 e52b 21bb 1af0 4dbd
00000120: b1b4 8fbd 031b c43d f4bd 81bd 4fb8 023d
00000130: 2ac7 4cbc 4d3c b1bd 8d73 70bd df6f bf3d
00000140: b014 3639 6684 9f3d 7fd0 d33c 6f84 2b3d
00000150: c874 c7bc 5265 c1bd ae48 223d 8d1c 0080
00000160: 4894 7bbd eb18 66bd 21a6 58bd 6968 f03b
00000170: 1b5f 9abd 9b1b 0080 9502 ae3c 703c e8bd
00000180: 1959 84bd c12c e73d d07c 933b 610c c83b
00000190: 6426 c8bd 5f23 8cbd 6104 083d f51d 0080
000001a0: 0f46 dd3d 300d 82bd fbf2 bd3d fff0 4c3d
000001b0: 8f98 e4bc f745 b83d 5082 883d 073a 1a3d
000001c0: 70f0 193d ad7f 98bd 653a 66bd e8dc 143d
000001d0: 0f23 af3d 3c16 03bd 8416 0000 0217 a03c
000001e0: d5a5 ef3d 4b28 11bd 7493 24bd 7012 82bc
000001f0: e618 d3bd 35ad 6f3d d74a b63d 0cf1 0fbe
00000200: d91b 0000 f7b6 cebd 7cb4 a83c b091 db3d
00000210: 845e 0bbc 5b73 ad3c 1737 563c 23dd 0d3d
00000220: c99b a9bd 7e2b 95bd 5478 dd3d d999 86bd
00000230: 4f81 cfbd fb5c 853d 9ab9 c93c 99e1 e73d
00000240: 4a61 983d d172 4dbd 55ad 1b3c 2552 28bd
00000250: 95c2 b3bc 2ad3 893c abb2 6abd a06a 6388
00000260: 8008 88bd 4562 3a3d 9622 043e 05ba a9bd
00000270: 0a6b ddbd ae1e 0000 fc79 c13d 65c0 0ebe
00000280: 6b32 49bd e397 f73c 8b15 cabd a062 a83d
00000290: 0cb6 ba3d 20be 6b3d e177 083d 0e1c 0000
000002a0: 4619 5abd 3556 2f3d 4536 323d 8f46 b2bd
000002b0: b797 523c e8ff dabd a6b2 fb3d 20d5 de3c
000002c0: f08f e73d f463 bcbd d8ce a33d ee8a efbd
000002d0: aaa2 b7bd 3afb 033d 311c 0000 e73f e03d
000002e0: 2b71 6a3d 6217 b93c 1419 073e 15cb f03c
000002f0: 4fd6 643d 71be ddbc ff87 ff3c fafb 0cbe
00000300: 701c 0080 5572 b63d 58eb 86bc ea26 ae3d
00000310: 142f e33d f51e 4513 6069 3c8e 7bb4 893d
00000320: 09cd 023d 436e 933d 8cdd 91bd f667 f5bd
00000330: a1cd a43c 32b9 8abd e763 623d c78b d1bc
00000340: 6af0 f0bd c57c 9f3d 960b 81bb 4bd3 85bc
00000350: 600e 91bc 4c7f 883d fa7a 7e3c a71b 0000
00000360: efe1 043d 9e70 eabd ba08 4c3c b833 b1bd
00000370: 80b1 b13d 2fdb 0580 9020 8dbc 129d 8d3c
00000380: 72b9 a4bd a779 dbbb 3a26 f73c d6aa 843d
00000390: a72c c4bd 9cf6 113d 7d68 d93d d7e0 b404
000003a0: f44a 8ebd c7e6 23bd ffbc 013b 4783 003d
000003b0: 39a3 d8bd d8b4 09be ccfa 30bd 8923 66bd
000003c0: aae2 87bd cc77 a43d 5583 403d cc16 c73b
000003d0: 6e03 873d 9172 6a3b 7a22 0080 738a bb3c
000003e0: 0236 eebd 716c c3bd 3789 373d 2361 0f3b
000003f0: 206c b1bd a515 1b3d 0de7 bebd 1d14 bcbd

encoder.mlp.2.bias f4 [128]
-0.057528116 -0.012417428 -0.037837062 -0.02618106 5.977e-42 0.009989986 -0.029910559 0.007206848
0.015638478 -0.0067739026 -0.0063250177 0.02974794 -0.033990327 0.099384196 0.027434874 -0.038984455
0.0035853297 -0.039795525 0.0010854756 -2.6959452e-17 -0.015328239 -0.06982275 -0.026031602 0.003405502
-2.3615842e-06 0.00010894805 1.9456361e-19 0.008346444 -0.05415013 0.047551047 -0.0140479095 -1.221238e-12
-0.020969363 -0.019993205 0.038250115 0.0028347715 5.481692e-39 0.018598657 0.012065241 0.02975873
-0.061786715 2.1011316e-19 -0.012313858 -0.001416227 0.0076330774 -0.07843828 -0.0338118 0.0070485617
3.400355e-38 -0.09319357 -0.029752117 0.03503006 0.0078231115 -0.04047086 0.032004427 -0.014131953
-0.049354166 -0.048769612 -0.017207816 0.033748172 0.033047155 -5.5217544e-05 -0.013080588 -0.04739891
0.003143 8.0099597e-16 0.008497852 0.030348253 0.0073323883 -0.031050336 -0.026426397 -0.023251655
0.008354054 -0.012504494 -0.017338375 -0.018942898 0.042820778 -0.049469355 0.03699142 -0.016258156
0.0037567066 7.128364e-08 -0.053920537 -0.00018076593 -0.040574197 -0.035567127 0.052520584 -8.224517e-19
-0.025220372 -0.012010057 0.0089262165 0.0054531125 -0.019315314 -7.2039397e-06 -0.017900767 -1.3934591e-08
0.012923544 -0.05613411 -4.2296175e-05 -0.00024754586 0.039199814 -0.06698822 1.1968e-41 0.0048664724
-0.013810378 0.025430495 -0.017652087 -0.07737522 0.045824204 0.00042045506 -0.009308446 -0.04198366
9.20459e-09 0.01786002 -0.08278367 0.04248743 1.2178705e-16 -0.023266537 -0.05662168 0.04760809
-0.00017400563 7.647417e-10 0.025674628 -0.041768815 -0.07742485 0.013798229 0.010805512 -0.0056469985
00000000: 9aa2 6bbd 7872 4bbc 09fb 1abd aa79 d6bc
00000010: a910 0000 0aad 233c fd06 f5bc 6c27 ec3b
00000020: 441c 803c 9df7 ddbb 1842 cfbb f4b1 f33c
00000030: 7139 0bbd f189 cb3d 1abf e03c 2aae 1fbd
00000040: daf7 6a3b a200 23bd 8446 8e3a 35a8 f8a3
00000050: 4b23 7bbc 3bff 8ebd 3a40 d5bc d82e 5f3b
00000060: b57b 1eb6 0a7b e438 3eb3 6520 86bf 083c
00000070: 87cc 5dbd e3c4 423d 3429 66bc bcdf abab
00000080: f1c7 abbc cac8 a3bc 27ac 1c3d 93c7 393b
00000090: bab0 3b00 365c 983c 4aad 453c 95c8 f33c
000000a0: 1114 7dbd ce0e 7820 10c0 49bc b1a0 b9ba
000000b0: e51e fa3b 40a4 a0bd 3e7e 0abd 9ff7 e63b
000000c0: 0822 3901 45dc bebd b6ba f3bc ae7b 0f3d
000000d0: 822c 003c c6c4 25bd 1317 033d b589 67bc
000000e0: 9827 4abd a5c2 47bd 68f7 8cbc 863b 0a3d
000000f0: 745c 073d 6399 67b8 f64f 56bc 5c25 42bd
00000100: cafa 4d3b 12df 6626 933a 0b3c e69c f83c
00000110: 8844 f03b 465d febc 2c7c d8bc 417a bebc
00000120: 71df 083c a6df 4cbc 3509 8ebc 232e 9bbc
00000130: d764 2f3d 61a0 4abd 5184 173d d32f 85bc
00000140: 1433 763b 9814 9933 c8db 5cbd fc8b 3db9
00000150: 2131 26bd d6ae 11bd d31f 573d b2be 72a1
00000160: f49a cebc d5c5 44bc 443f 123c 06b0 b23b
00000170: 263b 9ebc 5fb9 f1b6 a1a4 92bc fb64 6fb2
00000180: 46bd 533c e1ec 65bd 2c67 31b8 0bc9 81b9
00000190: fc8f 203d 1f31 89bd 5d21 0000 ee76 9f3b
000001a0: ec44 62bc 9d53 d03c 1c9b 90bc e676 9ebd
000001b0: 29b2 3b3d 8670 dc39 7482 18bc 0ff7 2bbd
000001c0: 3722 1e32 2d4f 923c 7c8a a9bd 4d07 2e3d
000001d0: 3169 0c25 7799 bebc 22ec 67bd b300 433d
000001e0: 4875 36b9 ea35 5230 9953 d23c c715 2bbd
000001f0: eb90 9ebd f811 623c 9a09 313c 750a b9bb

encoder.mlp.4.weight f4 [256, 128]
-5.2016165e-22 4.8851267e-25 -1.0942041e-22 -5.2299157e-28 -1.0088e-41 -7.510709e-36 8.0496684e-24 -8.669591e-32
-2.8495454e-23 2.043435e-27 4.115615e-23 7.003368e-23 -3.1899773e-13 -1.3680098e-28 -1.5828937e-29 -7.635496e-23
6.218453e-34 1.155619e-23 -7.74686e-29 -3.63306e-40 9.253018e-29 -7.165603e-23 5.8578716e-23 -1.703645e-33
-6.56056e-40 2.8949046e-23 -1.0085e-41 1.7380739e-23 4.5832114e-27 2.3661814e-24 1.6289296e-23 9.944e-42
2.3723532e-24 2.2761923e-28 -9.923607e-25 6.3153305e-24 5.9324e-41 2.9675568e-23 -1.453968e-27 2.4869681e-23
-2.1461103e-24 7.3706435e-34 -1.199752e-23 1.1224135e-34 1.4809483e-23 -2.6951312e-20 -1.2950111e-24 -4.6025133e-23
-1.0154e-41 1.3321569e-22 5.5040707e-24 2.6195782e-20 1.0936125e-30 1.0366767e-22 8.2065724e-23 -3.754064e-29
1.3012141e-21 -2.666113e-27 4.217189e-23 1.1046395e-23 7.526122e-25 1.0395e-41 2.1711552e-23 -1.6194093e-26
1.22776296e-29 1.2425e-41 -1.1565691e-32 2.0308075e-29 -1.0646318e-22 1.1184288e-22 4.9872684e-25 -2.6556602e-24
1.5861447e-28 -5.4173136e-23 1.9804153e-20 1.769921e-23 1.0302756e-27 -9.852107e-20 5.7134927e-29 2.0259391e-31
-8.8684214e-30 3.757774e-38 6.538371e-23 -3.2498046e-29 6.659417e-24 1.6267139e-23 -6.8730776e-29 -9.935e-42
9.6186704e-30 -3.8599755e-28 7.684922e-32 1.111808e-15 3.5848575e-23 -9.907e-42 2.5381666e-23 9.916e-42
-3.4119205e-13 -5.8275566e-23 1.0108e-41 2.0587773e-15 -8.223322e-12 -1.1064405e-19 -9.948e-42 6.532957e-23
-2.226146e-22 -3.7203426e-29 6.549767e-23 2.6744836e-22 -6.1142804e-23 -1.2093e-41 -8.117552e-29 -7.1176793e-26
9.903e-42 4.2368327e-24 3.195132e-23 1.8221663e-29 -1.0605e-41 -6.5618365e-23 8.900876e-23 -3.3448374e-23
4.0632986e-33 -1.15102e-37 2.424969e-30 -3.6426525e-11 -5.3448644e-25 8.270124e-28 1.0346e-41 8.27603e-23
0.073682934 0.056969423 -0.009124523 -0.0335108 1.4891558e-08 9.93e-42 0.035733774 -5.6803e-41
0.017657358 0.0069444524 -0.05869239 0.067641884 -0.039817564 1.1823e-41 1.0075e-41 0.06321685
0.0018313534 0.031047702 -9.867e-42 -6.1123917e-37 1.29479e-39 -0.008577926 0.048927147 0.005989588
0.000174464 -0.04650892 9.040105e-20 0.04146264 -0.001871153 -0.011149595 -0.030016959 2.9476516e-06
-0.02670422 -0.051202428 0.03403378 0.03471783 -5.4213e-41 -0.05297166 0.00924729 -0.017665677
0.00042190246 -8.830255e-27 0.05002044 0.0076889084 -2.6301273e-13 0.017877437 0.0058245487 0.00843229
-1.94837e-40 -0.0056666424 -0.0140207345 0.07640266 0.03067005 -0.032325875 -0.030177487 -0.030594556
-0.016544454 -0.024662174 -0.00874396 0.0049102632 0.06672608 0.0004976122 0.004725389 -0.039081503
4.484082e-14 5.642974e-15 -1.51385e-40 1.119e-41 -0.008777798 0.069111906 0.0084442645 0.04565093
1.128e-41 -0.03396364 0.086293094 -0.03809628 -0.01952738 -0.018759217 1.8991e-40 1.079e-41
0.0012095274 4.169275e-08 -0.046815213 1.01e-41 0.035336737 0.020166526 6.517e-42 5.758748e-19
-9.931e-42 -0.030301338 9.862e-42 -0.053707656 -0.06892754 -0.0002882792 -0.0063120294 -1.576051e-17
-0.0027799855 0.029854793 -0.00029511884 0.04816402 -0.012021367 -0.025169428 -1.065e-41 0.06999342
-0.017657151 9.847e-42 -0.06675399 0.00032107276 -0.049329206 0.00860396 1.0594e-41 0.02353843
-8.805466e-10 -0.061779983 -0.012911614 5.91695e-37 9.918158e-17 -0.014273778 0.041347764 0.037947502
0.0065568257 -9.0588684e-24 1.0127e-41 0.09294544 0.010336505 0.0030789545 -1.058e-41 0.025044592
00000000: 8f35 1d9c f62f 1717 fa47 049b 1ebe 2592
00000010: 1f1c 0080 30bc 1f85 07b4 1b19 5113 e18b
00000020: aacb 099a c9e5 2113 d904 471a c054 a91a
00000030: 6b94 b3aa 756a 2d91 4586 a08f 6e9d b89a
00000040: bfa4 4e08 7b87 5f19 ff67 c490 c0f4 0380
00000050: 8597 ea10 ef40 ad9a 78a2 8d1a 8688 0d89
00000060: d124 0780 2ffd 0b1a 1d1c 0080 a018 a819
00000070: 498f b513 0d13 3718 588a 9d19 b81b 0000
00000080: 4c8d 3718 5545 9011 758f 9997 0150 f418
00000090: 5fa5 0000 9380 0f1a f363 e692 5986 f019
000000a0: 180c 2698 80ee 7408 d710 6899 c131 1507
000000b0: 813a 8f19 468c fe9e ad64 c897 5b90 5e9a
000000c0: 4e1c 0080 420c 211b aded d418 8469 f71e
000000d0: e372 b10d 2ea7 fa1a 396c c61a 895a 3e90
000000e0: 48a2 c41c 323b 5393 45ee 4b1a 19ab 5519
000000f0: 15ec 6817 fa1c 0000 33fb d119 e760 a094
00000100: 1905 790f a322 0000 c335 708a c7f2 cd0f
00000110: c2b4 009b b235 071b 3659 1a17 c578 4d98
00000120: 5711 4911 8cfb 829a 810b bb1e 1f2d ab19
00000130: f240 a312 55a0 e89f b0da 9010 b07d 830c
00000140: 7adf 338f ba97 4c01 8e16 9e1a e0c8 2490
00000150: d6cf 0019 7c53 9d19 d340 ae90 b21b 0080
00000160: fe16 430f afa7 f491 1183 c70b 7a3a a026
00000170: 635a 2d1a 9e1b 0080 f679 f519 a41b 0000
00000180: f512 c0aa d4e6 8c9a 2d1c 0000 bd59 1427
00000190: 8daa 10ad 1da0 02a0 bb1b 0080 0cf5 9d1a
000001a0: f18f 869b cfa4 3c90 185d 9e1a a1a9 a11b
000001b0: 90d5 939a b621 0080 edcd cd90 a739 b095
000001c0: 9b1b 0000 8fe7 a318 d181 1a1a 24ca b80f
000001d0: 901d 0080 cda7 9e9a c135 d71a 15bf 219a
000001e0: 67c8 a809 31ab 1c82 a3bc 440e 9f34 20ae
000001f0: 616a 2597 9c0b 8312 d71c 0000 251a c81a
00000200: 14e7 963d c558 693d 067f 15bc 9f42 09bd
00000210: c4d5 7f32 ae1b 0000 945d 123d 589e 0080
00000220: 2aa6 903c 4a8e e33b 6e67 70bd d487 8a3d
00000230: be17 23bd f520 0000 161c 0000 d677 813d
00000240: 060a f03a c057 fe3c 811b 0080 71fe 4f83
00000250: 5919 0e00 6e8a 0cbc d567 483d 4e44 c43b
00000260: 53f0 3639 2380 3ebd 1574 d51f bbd4 293d
00000270: 7a41 f5ba caac 36bc 20e6 f5bc 45d0 4536
00000280: cfc2 dabc a3b9 51bd 0167 0b3d 4934 0e3d
00000290: 2097 0080 d0f8 58bd f281 173c 9cb7 90bc
000002a0: ca32 dd39 b6e6 2e94 3ce2 4c3d 3df3 fb3b
000002b0: 2110 94aa b473 923c dbdb be3b 9627 0a3c
000002c0: 201f 0280 3eaf b9bb 39b7 65bc ff78 9c3d
000002d0: c23f fb3c 2368 04bd c736 f7bc 6fa1 fabc
000002e0: 3c88 87bc 5408 cabc d442 0fbc 46e6 a03b
000002f0: afa7 883d 3172 023a 70d7 9a3b ed13 20bd
00000300: f2f1 4929 404f cb27 00a6 0180 311f 0000
00000310: c1d0 0fbc 8b8a 8d3d d059 0a3c 78fc 3a3d
00000320: 721f 0000 751d 0bbd 6fba b03d d80a 1cbd
00000330: e2f7 9fbc eeac 99bc 6411 0200 141e 0000
00000340: 0189 9e3a aa11 3333 4fc1 3fbd 281c 0000
00000350: 41bd 103d 4534 a53c 2b12 0000 dff7 2921
00000360: af1b 0080 833a f8bc 7e1b 0000 8ffc 5bbd
00000370: e229 8dbd 2e24 97b9 24d5 cebb 745d 91a3
00000380: 6b30 36bb 0a92 f43c 2eba 9ab9 a347 453d
00000390: 45f5 44bc 1e30 cebc b01d 0080 b658 8f3d
000003a0: bba5 90bc 731b 0000 51b6 88bd a855 a839
000003b0: 6c0d 4abd a0f7 0c3c 881d 0000 aad3 c03c
000003c0: f50a 72b0 020d 7dbd 3c8b 53bc e757 4903
000003d0: 79b2 e424 90dc 69bc 465c 293d d76e 1b3d
000003e0: a4da d63b 5839 2f99 3b1c 0000 2e5a be3d
000003f0: 725a 293c 49c8 493b 7e1d 0080 512a cd3c

encoder.mlp.4.bias f4 [256]
9.646945e-24 -0.02978795 0.013421733 -0.043997347 -3.005537e-08 -0.003404839 -0.024433019 -7.334941e-25
-2.4922108e-11 0.033247888 3.20471e-05 0.021167526 -7.977893e-13 4.2486568e-07 -0.03290564 0.017317915
-0.0009769076 0.030637087 -0.03426524 -0.004206345 0.00013882406 -1.9488005e-25 0.027602896 -0.009948709
-0.0021953532 0.014950733 -0.017290743 -0.020105286 -0.05332141 0.00079363777 5.0182145e-26 -0.0134351645
-8.071585e-07 -0.006542721 2.4601788e-26 -0.040681932 0.033731487 -0.030865423 -0.010150737 4.6768278e-36
0.021516142 -0.0027740886 -0.0028410011 0.021953717 -0.017447641 -0.04780415 -0.0067893043 0.0020318462
0.071554035 0.023267347 -0.051700722 -0.004163712 -0.0170082 -0.014392276 -0.03589115 -0.020507623
-9.225311e-12 0.020358976 -0.00090321386 -0.008352747 6.556968e-28 -0.042442784 0.00029091164 -0.042021383
0.032962136 -8.662102e-24 -0.0064863893 -0.047682095 -2.1142082e-24 -0.0106141055 -0.007235189 -0.0073332945
-0.046244886 -0.0046312655 -0.0069519277 -0.01798984 -0.03488089 0.0038228612 -0.048301216 -0.036028504
-1.1354056e-07 -0.031156648 2.2174509e-05 0.00871056 -0.009075491 1.0602e-41 -0.009723593 0.0013786902
-0.0093908645 0.0013265766 -1.2166775e-09 -2.9822666e-06 -0.008897809 -0.04474521 0.022625145 0.020642018
-0.043392755 -0.031569343 0.0055175098 0.050936725 0.0077477186 -0.0057328255 -0.016802214 3.7488e-41
-1.2226738e-08 -0.01946774 -0.002007587 0.04152532 -0.029677399 -0.023684321 0.047652274 -2.4916e-41
1.9352628e-23 -0.044592816 -5.7886723e-07 -0.05186566 -0.03888547 -0.020872615 -3.0060184e-07 0.0075023277
0.0009998186 0.025044786 0.008106284 -0.05021939 -2.7339586e-06 0.002848525 -0.044604164 -0.031816047
-0.021620803 -0.019313626 7.879356e-08 -0.022389282 0.015561246 0.031509653 -0.021780493 3.1025205e-36
0.0054527028 -0.008027612 -0.0024057324 0.008015279 -0.027648535 -0.024981165 -8.587945e-22 0.023501046
-0.0152725475 -1.1411674e-17 -0.02739863 -0.003942874 0.011996738 -0.0097383205 -0.00022611255 -0.021955404
0.029600158 -0.0162191 -1.0176e-41 -4.9567934e-21 -0.056266584 0.008280267 -5.873137e-17 -0.005941146
0.026622007 0.0031393855 -1.4553943e-26 6.949233e-19 -0.011320293 -0.058600057 0.015899051 -8.278435e-25
-1.4120197e-24 -3.7137683e-22 -0.021065202 -0.040479846 -8.925827e-25 0.035153832 -1.2222777e-18 -0.023150805
-0.026568042 -0.0084232045 0.010899218 0.032366242 2.0858837e-24 1.412256e-22 -0.04488217 -0.026621398
-0.002696613 -0.0015652863 -0.018698247 -0.010952502 -0.00207787 -0.0039246455 0.024329057 0.005770003
-0.003319309 -2.2447113e-23 -0.023145381 -0.00097237556 0.0031722486 0.0005990747 -0.021504719 -0.030516317
-0.019053292 0.02358805 1.2431107e-36 -0.00081125513 -0.035736404 0.015212353 0.0155373085 0.026589582
0.005358045 0.005751789 -0.017862706 0.0025895769 0.009765127 0.0021666647 -0.006913557 0.021757452
-0.03823553 -0.03189485 -0.0033942848 -0.04217944 0.024484016 -0.011610976 -0.020706901 -0.04316495
0.0048896926 0.02734494 -0.01013753 0.011484369 -0.0069063897 0.004320464 -0.0032195663 -0.01921256
-1.1048735e-38 0.04366572 0.05489045 -0.0007763515 -0.01473482 0.013092867 -0.058353115 -0.013781185
-0.0018591416 -0.025383124 0.009977073 -0.005351029 -1.9071017e-27 -0.021352675 -0.021387525 6.7450804e-07
0.004489926 9.43311e-12 -0.020465797 1.3502e-41 -0.03865336 -0.019766498 -0.015140379 2.860625e-15
00000000: 5c99 3a19 dc05 f4bc d4e6 5b3c 9036 34bd
00000010: 3b16 01b3 b823 5fbb c127 c8bc 6401 6397
00000020: 9937 dbad f02e 083d 506a 0638 8567 ad3c
00000030: c78e 60ab 1819 e434 10c8 06bd 4dde 8d3c
00000040: 940b 80ba a1fa fa3c b559 0cbd 61d5 89bb
00000050: 4d91 1139 f43f 7196 781f e23c e9ff 22bc
00000060: eadf 0fbb ebf3 743c 51a5 8dbc d7b3 a4bc
00000070: 8d67 5abd 210c 503a 6d7d 7815 2a1f 5cbc
00000080: 82ab 58b5 5264 d6bb f1a4 f314 19a2 26bd
00000090: 072a 0a3d 7cd9 fcbc 474f 26bc 25ee c604
000000a0: 9f42 b03c 7ccd 35bb 1730 3abb 48d8 b33c
000000b0: 5bee 8ebc 49ce 43bd d078 debb b928 053b
000000c0: ec8a 923d 2a9b be3c 23c4 53bd bf6f 88bb
000000d0: c854 8bbc 95cd 6bbc 9902 13bd 9aff a7bc
000000e0: 1b4b 22ad dec7 a63c a8c5 6cba f6d9 08bc
000000f0: 72cc 4f12 7cd8 2dbd 8085 9839 9d1e 2cbd
00000100: 4e03 073d a78c 2799 c78b d4bb 4d4e 43bd
00000110: 3594 2398 c9e6 2dbc 2a15 edbb 224c f0bb
00000120: 476b 3dbd dfc1 97bb ffcc e3bb 6e5f 93bc
00000130: 44df 0ebd f888 7a3b 7fd7 45bd a092 13bd
00000140: 95d3 f3b3 3a3c ffbc 6503 ba37 bdb6 0e3c
00000150: 5eb1 14bc 8e1d 0000 b44f 1fbc 2bb5 b43a
00000160: 24dc 19bc 86e0 ad3a 0938 a7b0 f322 48b6
00000170: 1ec8 11bc c146 37bd 5e58 b93c 7319 a93c
00000180: 9abc 31bd db4e 01bd 3acc b43b 07a3 503d
00000190: 93e0 fd3b 6dda bbbb cca4 89bc 8068 0000
000001a0: c30d 52b2 cf7a 9fbc b991 03bb 7416 2a3d
000001b0: 041e f3bc 9f05 c2bc 082f 433d 7545 0080
000001c0: c92a bb19 f5a6 36bd 7463 1bb5 1671 54bd
000001d0: 5f46 1fbd 0cfd aabc 6762 a1b4 16d6 f53b
000001e0: 580c 833a b92a cd3c 38d0 043c d9b2 4dbd
000001f0: 0d79 37b6 52ae 3a3b dbb2 36bd 8b51 02bd
00000200: 1c1e b1bc 9c37 9ebc 3835 a933 ba69 b7bc
00000210: 99f4 7e3c 4410 013d 016d b2bc 75f7 8304
00000220: 96ac b23b 3f86 03bc 7ea9 1dbb 8452 033c
00000230: 2e7f e2bc 4da5 ccbc 01c7 819c 4485 c03c
00000240: b539 7abc 1b82 52a3 1773 e0bc 3933 81bb
00000250: f78d 443c 7a8d 1fbc a018 6db9 d2db b3bc
00000260: 087c f23c ebdd 84bc 5e1c 0080 2a43 bb9d
00000270: ca77 66bd f5a9 073c e26c 87a4 f2ad c2bb
00000280: 6516 da3c 26be 4d3b a122 9094 ec1a 4d21
00000290: c078 39bc 9d06 70bd ba3e 823c 421a 8097
000002a0: dd7f da97 c87b e09b ee90 acbc 32ce 25bd
000002b0: d81e 8a97 77fd 0f3d 5960 b4a1 c2a6 bdbc
000002c0: 39a5 d9bc 7b01 0abc a292 323c 7792 043d
000002d0: 2f63 2118 35bb 2a1b 5ed6 37bd 1e15 dabc
000002e0: a9b9 30bb 4b2a cdba 112d 99bc 1f72 33bc
000002f0: e02c 08bb 509a 80bb bb4d c73c 4b12 bd3b
00000300: c488 59bb 5c18 d999 629b bdbc 05e7 7eba
00000310: 80e5 4f3b 390b 1d3a aa2a b0bc 5bfd f9bc
00000320: a615 9cbc ba3b c13c 1b81 d303 69aa 54ba
00000330: 5660 12bd 3c3d 793c 3290 7e3c 65d2 d93c
00000340: 8a92 af3b 8179 bc3b cf54 92bc e4b5 293b
00000350: e9fd 1f3c 9afe 0d3b 1f8b e2bb af3c b23c
00000360: dc9c 1cbd 2da4 02bd a672 5ebb 59c4 2cbd
00000370: b492 c83c f73b 3ebc 85a1 a9bc bbcd 30bd
00000380: b739 a03b 7f02 e03c e217 26bc ef28 3c3c
00000390: ff4e e2bb ae92 8d3b 5cff 52bb a963 9dbc
000003a0: 614f 7880 d3da 323d cfd4 603d 1184 4bba
000003b0: 516a 71bc 7783 563c ad03 6fbd 7bca 61bc
000003c0: 71ae f3ba 45f0 cfbc e176 233c af57 afbb
000003d0: 9e18 1793 ceeb aebc e434 afbc d70f 3535
000003e0: 3b20 933b f3f2 252d e3a7 a7bc a325 0000
000003f0: fc52 1ebd 5aed a1bc 5a0f 78bc 3821 4e27

pos_mlp.0.weight f4 [32, 1]
-6.146855e-08 0.71940416 -0.00060194323 -0.24797218 -0.9693341 5.1159357e-09 -2.1533485e-11 0.8445761
1.3557906e-08 -0.00025871306 -0.5020631 0.5951362 -1.4952548e-13 -0.8300893 -5.565285e-07 1.0793197
0.6410061 -0.8619459 -0.21146372 -1.8223156e-05 -1.0286188e-11 0.099592805 1.035085 -0.22616823
0.6027644 -0.68241674 0.8989557 0.28064424 0.7545314 -0.81166977 -3.27759e-05 -0.3795815
00000000: b100 84b3 df2a 383f bacb 1dba 6bec 7dbe
00000010: 4826 78bf 3fc8 af31 1969 bdad 2436 583f
00000020: 4dec 6832 e1a3 87b9 3587 00bf d95a 183f
00000030: c959 28aa bb80 54bf 5964 15b5 2627 8a3f
00000040: fa18 243f 7da8 5cbf f289 58be eedd 98b7
00000050: dff4 34ad 50f7 cb3d aa7d 843f a598 67be
00000060: c54e 1a3f ddb2 2ebf f621 663f 9ab0 8f3e
00000070: f828 413f 97c9 4fbf db78 09b8 8258 c2be

pos_mlp.0.bias f4 [32]
-1.7159516e-06 0.38514274 -2.373558e-07 0.24450243 0.9320218 -1.2880321e-06 -0.00011070657 0.6224323
-1.7502642e-05 -3.3473924e-07 0.48443094 -0.175877 -0.0014812747 1.0267718 -6.4305877e-06 -0.15309697
0.69583607 0.7702761 0.8223814 -1.989597e-05 -2.5006395e-11 0.5487754 -0.054231975 0.2240058
0.16179459 0.651483 -0.2863188 -0.017002048 -0.025367368 0.9025461 1.4748992e-23 0.3749094
00000000: a64f e6b5 6e31 c53e dedb 7eb4 d85e 7a3e
00000010: fb98 6e3f 72e0 acb5 232b e8b8 b957 1f3f
00000020: a3d2 92b7 36b6 b3b4 5507 f83e 1a19 34be
00000030: 5527 c2ba 426d 833f 54c6 d7b6 74c5 1cbe
00000040: 5022 323f d130 453f 9687 523f 45e6 a6b7
00000050: 65f5 dbad 8b7c 0c3f 5922 5ebd c761 653e
00000060: 7bad 253e 97c7 263f 6198 92be e147 8bbc
00000070: 3acf cfbc 430d 673f bca4 8e19 20f4 bf3e

pos_mlp.2.weight f4 [32, 32]
5.712611e-31 -1.9189358e-22 9.879e-42 -3.4696233e-23 -3.085341e-22 6.2238936e-33 7.932575e-39 -7.8421443e-22
3.180753e-29 -1.0931312e-34 1.2925344e-21 -9.582852e-23 1.0308265e-33 -4.938886e-22 9.098905e-34 -2.0874052e-22
-2.2268342e-22 1.7808807e-24 -3.865599e-22 -3.6667544e-25 2.487567e-35 -1.0965728e-22 -2.365874e-22 -6.540097e-23
-2.1767916e-22 -1.0458102e-22 -1.5677132e-22 2.453745e-22 3.1799735e-22 -1.6829142e-22 -1.022555e-27 -6.9259634e-23
1.1249037e-26 -0.007568306 1.0227e-41 0.22145818 0.15466134 -5.23567e-40 -8.8399196e-35 0.08601075
-9.967e-42 -1.0265e-41 0.2210729 -0.15027565 -4.6692996e-31 0.19673477 1.5018122e-23 -0.096234374
-0.027396021 0.25760755 0.07363384 -4.2986953e-06 9.054094e-12 0.19919959 -0.05407835 0.16323538
-0.11189279 0.26607734 -0.16611572 -0.12992619 -0.2252032 0.2988126 4.3745366e-24 0.30779043
-2.8318446e-27 -1.1723175e-14 7.429356e-33 7.317709e-15 4.7526557e-15 -7.697426e-36 -3.3766423e-31 -3.0329875e-14
9.958e-42 1.036e-41 -3.1115518e-15 -3.9428427e-15 1.1049545e-25 -1.0915698e-14 9.823e-42 -1.6247672e-14
-5.1378867e-14 -5.565164e-15 -4.16286e-14 -1.94336e-40 3.7669967e-25 -1.7927878e-14 -1.2869342e-14 -1.9814741e-15
-2.7441924e-14 -6.9131753e-16 -8.997073e-15 -2.8222786e-15 -5.307879e-15 -4.8291826e-15 -2.3210804e-38 -1.5412934e-15
-1.0433e-41 0.22346747 -1.0054e-41 -0.21644592 -0.10908969 -9.827e-42 -7.576704e-33 0.08614166
5.84765e-31 -1.1582e-41 -0.23745926 0.10770931 5.11121e-32 -0.07314339 -2.983789e-32 0.32457677
0.25404504 -0.21103136 0.10795599 4.2047063e-06 3.6610268e-12 0.18512829 0.31902546 -0.19631898
0.3281453 -0.16158584 0.21891047 0.12196602 0.3011478 -0.17521775 -9.861e-42 -0.21149725
-9.91e-42 0.09704206 -1.6042718e-25 0.24661036 0.3170662 1.019e-41 -2.6476264e-27 0.09139745
1.2080776e-35 8.880078e-33 0.14294638 -0.15382212 -3.730804e-24 0.1653825 4.302982e-25 -0.07939568
-0.020817343 0.13663182 0.18720362 4.5439797e-06 -2.185981e-12 0.06675164 -0.05406004 0.15523608
-0.16584721 0.32873622 -0.2720578 -0.20175791 -0.18387975 0.27787328 7.9132026e-24 0.24692291
-1.0074e-41 -7.160522e-19 6.520347e-27 -1.3904772e-19 -5.6658077e-19 -2.0976315e-26 4.185112e-32 -1.1589973e-18
5.0076875e-25 -8.267951e-27 -3.093786e-19 -1.6608282e-19 -9.963e-42 1.7113624e-18 1.0281e-41 -4.4695857e-19
-7.8062295e-20 -2.088539e-19 -8.738945e-19 -9.848e-42 -4.475711e-33 -5.183566e-19 -5.6793854e-19 -1.3487677e-19
-5.919245e-19 -4.3241244e-19 -2.3283152e-19 -1.493426e-19 -4.3204636e-19 -2.69352e-19 5.522676e-31 4.684366e-19
3.6578453e-38 -4.167775e-21 -1.7716545e-26 -1.3269601e-21 -4.767921e-21 -9.2600174e-38 -5.65275e-40 -4.4422087e-21
1.0339e-41 1.0047e-41 -2.779014e-21 1.8279607e-22 -8.1533976e-35 -1.0678164e-20 9.953e-42 1.8356755e-21
-3.4410164e-21 -2.3270891e-20 -7.288342e-21 -1.2848168e-30 2.2348428e-26 1.3999983e-21 3.4290928e-22 -1.2784495e-21
1.8355451e-20 -4.138162e-21 -3.753538e-21 9.054324e-23 4.0617416e-22 -4.693311e-21 9.099515e-34 -3.5423804e-21
3.5888492e-25 0.21693642 -1.0091e-41 -0.20967916 -0.3283261 1.0231e-41 -1.8e-42 0.121886164
-1.8446644e-28 1.1178367e-27 -0.22950706 0.101332985 -1.0179e-41 -0.24400373 -4.696884e-30 0.16424935
0.2776169 -0.14555418 0.027071195 2.8528173e-06 5.008919e-12 0.12135831 0.15563408 -0.14550804
0.3166008 -0.26891613 0.3022583 0.28102496 0.1378471 -0.2231683 1.0563e-41 -0.1701551
00000000: 8462 390d 30fc 679b 8a1b 0000 dbc7 279a
00000010: 577f ba9b e543 010a cb60 5600 a703 6d9c
00000020: 8948 2110 544d 1187 8152 c31c fbb2 e79a
00000030: 8346 ab08 c844 159c 762e 9708 105a 7c9b
00000040: 979a 869b fac9 0918 3fa9 e99b 0bf6 e296
00000050: 0243 0406 4991 049b 2002 8f9b 3d21 9e9a
00000060: 3894 839b 84dc fc9a 6086 3d9b dd51 941b
00000070: b537 c01b ac73 4b9b c207 a292 a375 a79a
00000080: 65cf 5e14 8dff f7bb 821c 0000 efc5 623e
00000090: 8b5f 1e3e 7eb3 0580 6001 eb86 6726 b03d
000000a0: c91b 0080 9d1c 0080 ef60 623e dce1 19be
000000b0: 0687 178d d774 493e 123f 9119 8716 c5bd
000000c0: 9f6d e0bc 23e5 833e 57cd 963d 833d 90b6
000000d0: 0448 1f2d fafa 4b3e 4381 5dbd 2d27 273e
000000e0: 0c28 e5bd 4a3b 883e 3d1a 2abe 5f0b 05be
000000f0: ab9b 66be f7fd 983e 503b a918 b596 9d3e
00000100: a25c 6093 9a2f 53a8 3b4d 1a0a fad2 0328
00000110: 833b ab27 c6b4 2385 1828 db8c f797 08a9
00000120: c21b 0000 e11c 0000 0036 60a7 4e0e 8ea7
00000130: 68c9 0816 c6a3 44a8 621b 0000 9558 92a8
00000140: cd63 67a9 9481 c8a7 827a 3ba9 bb1d 0280
00000150: 722a e916 df7a a1a8 5dd5 67a8 bfc7 0ea7
00000160: c52c f7a8 3b42 47a6 ad13 22a8 da5d 4ba7
00000170: 8b3c bfa7 59fd ada7 47be fc80 b11f dea6
00000180: 151d 0080 a8d4 643e 071c 0080 00a4 5dbe
00000190: 6a6a dfbd 651b 0080 ab5c 1d8a 0a6b b03d
000001a0: 60c4 3d0d 4920 0080 8528 73be b396 dc3d
000001b0: d1b1 840b 34cc 95bd 5ced 1a8b ed2e a63e
000001c0: 3112 823e 9b18 58be 0818 dd3d 2716 8d36
000001d0: 99cf 802c 4592 3d3e 4e57 a33e d807 49be
000001e0: a902 a83e c276 25be 112a 603e 52c9 f93d
000001f0: 0b30 9a3e 486c 33be 7d1b 0080 bc92 58be
00000200: a01b 0080 fdbd c63d 6799 4696 6d87 7c3e
00000210: 8056 a23e 681c 0000 3ec4 5193 962e bb3d
00000220: 0077 8005 986e 380a 8960 123e 8c83 1dbe
00000230: 1854 9098 085a 293e bc2b 0517 349a a2bd
00000240: 2289 aabc 36e9 0b3e 4eb2 3f3e 7d78 9836
00000250: 22d3 19ac 15b5 883d 0f6e 5dbd 35f6 1e3e
00000260: dad3 29be 1d50 a83e 294b 8bbe a099 4ebe
00000270: f94a 3cbe 6845 8e3e 4810 1919 5cd9 7c3e
00000280: 151c 0080 6057 53a1 1626 0114 9828 24a0
00000290: a239 27a1 47bd cf94 ae4d 590b ae09 aba1
000002a0: fdfa 1a17 7ec3 2394 f99f b6a0 7413 44a0
000002b0: c61b 0080 728d fc21 a91c 0000 3ceb 03a1
000002c0: c351 b89f 3892 76a0 cdf6 80a1 741b 0080
000002d0: ece9 b989 ebfd 18a1 39a0 27a1 013c 1fa0
000002e0: 8db4 2ea1 5240 ffa0 8170 89a0 0850 30a0
000002f0: 0009 ffa0 53ff 9ea0 9938 330d 1242 0a21
00000300: ec26 4701 3f74 9d9d c774 af94 4886 c89c
00000310: 8120 b49d e714 fc81 c227 0680 68d2 a79d
00000320: d21c 0000 021c 0000 f3f9 519d a5fc 5c1b
00000330: 26c1 d886 6fb4 499e bf1b 0000 21b3 0a1d
00000340: 78ff 819d 90c9 db9e 42ac 099e 3479 d08d
00000350: ff53 dd14 d08f d31c a446 cf1b 9f31 c19c
00000360: c25c ad1e d955 9c9d fecd 8d9d 8deb da1a
00000370: 6884 f51b eb4e b19d 0e31 9708 cdd3 859d
00000380: 9623 de16 9524 5e3e 211c 0080 22b6 56be
00000390: 5c1a a8be 851c 0000 0505 0080 749f f93d
000003a0: c8d6 6991 d820 b112 e603 6bbe ab87 cf3d
000003b0: 601c 0080 1ddc 79be 3b87 be8e fb30 283e
000003c0: cd23 8e3e 280c 15be 69c4 dd3c 0773 3f36
000003d0: 553c b02c b58a f83d 8a5e 1f3e 0f00 15be
000003e0: 8019 a23e 60af 89be 9ac1 9a3e 81e2 8f3e
000003f0: ca27 0d3e 3b86 64be 721d 0000 233d 2ebe

pos_mlp.2.bias f4 [32]
-3.958566e-22 0.2552736 -2.7679058e-14 -0.008860972 0.23354317 -1.0502269e-18 -1.0606573e-20 0.32138628
-2.164879e-15 0.29291677 0.114897214 -1.0471386e-21 0.1528933 0.2960241 0.2913201 0.052070983
0.10184128 0.052949958 0.28109503 -2.2803395e-08 0.28915688 0.037304662 0.34653488 0.19821867
0.124097556 0.27123275 0.16623512 0.08386534 0.15465453 -3.701983e-20 0.07267123 -1.0653696e-19
00000000: d847 ef9b 39b3 823e 904f f9a8 9c2d 11bc
00000010: f125 6f3e 73fc 9aa1 3d5a 489e be8c a43e
00000020: f8fe 1ba7 30f9 953e 3b4f eb3d 363d 9e9c
00000030: 1090 1c3e 7990 973e e827 953e 6248 553d
00000040: 2992 d03d 0ee2 583d b0eb 8f3e 32e1 c3b2
00000050: 5f0c 943e c6cc 183d 056d b13e d6f9 4a3e
00000060: dc26 fe3d 05df 8a3e 8a39 2a3e 97c1 ab3d
00000070: c25d 1e3e 3ad2 2e9f a7d4 943d a48d fb9f

dec_trunk.0.weight f4 [128, 288]
-1.1041e-41 -0.00039617447 0.04075803 0.02339295 -9.84e-42 -0.02390956 -0.024710948 1.1314e-41
1.0839e-41 0.02591637 1.0126e-41 0.0025612083 1.0102e-41 1.0152e-41 -0.009515844 1.0152e-41
0.017986232 0.034142945 0.04323263 -0.0036211049 2.7156442e-24 1.1639e-41 -0.01527756 -0.034537755
-0.033250056 0.003858829 -0.037351448 -0.0059272684 0.011269992 -0.0351713 1.0075e-41 -0.054505847
-1.012e-41 -0.017650206 -1.0846e-41 0.0031613882 -0.044607833 -0.03207888 0.009373602 -9.843e-42
0.033985984 -0.009128238 -0.021432102 -0.02954849 -0.0047959145 -0.032053594 1.6779724e-34 0.006138165
-1.0197e-41 0.0072929855 0.016505484 0.019976404 -0.00022127325 0.02366129 0.031537753 -0.027332278
-2.7877992e-11 0.039533496 -0.024168987 0.01177951 1.0028e-41 -0.03292943 0.0041348087 -0.017103096
-0.025878489 9.981e-42 -0.009768057 0.021167232 -1.0001e-41 0.0023196577 0.016786285 4.912226e-12
0.0007464796 0.031677593 0.032555744 0.021269605 -0.0044426513 0.010465459 -0.0054985993 -0.013044762
-1.2407e-41 0.009823615 -1.9726558e-07 0.009023424 0.00231658 -1.1761e-41 0.006465394 -0.018937478
2.2731594e-05 0.01458444 -9.87e-42 -1.0454e-41 -9.813e-42 -0.01523688 1.0756e-41 -0.0147248395
0.027859237 -0.030492121 -0.01375295 -0.018670041 -1.1373e-41 -0.009058635 -0.014678898 -1.0384e-41
-1.0485e-41 -0.013694711 -0.044977546 -0.022223057 0.024990516 -0.00971348 0.021192975 -2.6237e-41
1.0085e-41 -0.015335305 -1.2543e-41 0.011193632 0.0018799882 0.028794734 -1.01e-41 -0.0377414
0.010607444 0.010017818 0.01802723 0.037630577 -1.0094e-41 -0.019327559 -0.05167799 -0.021179764
-0.023261439 0.036797516 1.0078e-41 0.0011782723 0.038196985 -0.048080835 -0.00086019345 -1.0597e-41
-0.0080733495 0.025033608 -0.015550062 -0.020940142 -0.014189016 -0.04538865 1.0002e-41 0.013779378
-0.036836285 -1.0046e-41 -0.0035323508 0.0041514905 -2.049038e-30 -0.045826267 -1.2085e-41 0.020894349
-0.018125659 0.04404175 1.0038e-41 1.1617e-41 -0.007833912 -0.014629381 -9.988e-42 0.0022168627
-0.009215853 9.43006e-39 -1.0052e-41 -1.0419e-41 0.020918058 -0.022159364 0.0051287645 1.1153e-41
1.0688e-41 -9.851e-42 0.008160338 0.041086182 -9.988e-42 -0.0330295 1.0636e-41 0.03650585
0.0133054545 -0.03522746 -0.009108268 -0.055829752 -9.942e-42 1.1845e-41 0.031130869 0.004720987
-0.034361783 -0.009642171 0.022892466 -0.024739085 3.4623933e-09 0.013671048 0.040459216 -0.007905593
-0.034242213 1.0534e-41 -0.047146488 0.023927893 -0.0012510064 -4.3665223e-05 -0.0462318 0.016940793
-0.046809573 0.008435554 -1.0972e-41 -0.020453643 0.007203537 -0.060596943 1.0127e-41 0.02364455
0.024679245 -0.028198004 0.021060215 0.010971747 0.01617023 0.018814929 0.0331573 0.016586589
0.015770866 -0.04236054 0.0034207646 -0.038238693 0.038597196 -0.029928014 -0.016760878 -0.024863608
0.013684908 0.011699721 0.008488175 -0.006124178 0.022582622 0.021296913 -0.039978366 -0.034662407
1.0039e-41 9.902e-42 -9.834e-42 0.0053641913 -0.0043796506 -1.0117e-41 -0.022350362 -1.9643031e-23
0.003051167 -0.0069031646 1.0068e-41 -0.025747767 -1.0001e-41 -0.02835781 -0.03759943 -2.6145477e-09
0.037919242 -9.85e-42 0.0035268576 1.005e-41 0.010997646 -0.0011999625 -0.019942747 1.247e-41
00000000: c71e 0080 a3b5 cfb9 e4f1 263d 92a2 bf3c
00000010: 6e1b 0080 fbdd c3bc 9d6e cabc 8a1f 0000
00000020: 371e 0000 914e d43c 3a1c 0000 f2d9 273b
00000030: 291c 0000 4d1c 0000 58e8 1bbc 4d1c 0000
00000040: dd57 933c 79d9 0b3d b314 313d 0f50 6dbb
00000050: e01c 5218 7220 0000 bb4e 7abc 7677 0dbd
00000060: 3631 08bd 68e4 7c3b d5fd 18bd 8839 c2bb
00000070: c6a5 383c c80f 10bd 161c 0000 8641 5fbd
00000080: 361c 0080 2a97 90bc 3c1e 0080 4b2f 4f3b
00000090: b4b6 36bd 2565 03bd bd93 193c 701b 0080
000000a0: e334 0b3d 9b8e 15bc 6092 afbc ad0f f2bc
000000b0: 0c27 9dbb a14a 03bd 710a 5f07 a922 c93b
000000c0: 6d1c 0080 fff9 ee3b 8236 873c 8ea5 a33c
000000d0: 9605 68b9 52d5 c13c bb2d 013d f1e7 dfbc
000000e0: a837 f5ad e0ed 213d 0afe c5bc d9fe 403c
000000f0: f41b 0000 03e1 06bd 4a7d 873b cb1b 8cbc
00000100: 20ff d3bc d31b 0000 330a 20bc e766 ad3c
00000110: e11b 0080 6605 183b 6483 893c 66d5 ac2c
00000120: 66af 433a 5dc0 013d 2c59 053d 983d ae3c
00000130: a993 91bb 5177 2b3c 982d b4bb b3b9 55bc
00000140: 9622 0080 3af3 203c f3cf 53b4 fcd6 133c
00000150: c3d1 173b c920 0080 a8db d33b c522 9bbc
00000160: baaf be37 93f3 6e3c 831b 0080 241d 0080
00000170: 5b1b 0080 1ba4 79bc fc1d 0000 7440 71bc
00000180: 0e39 e43c 9dca f9bc 0e54 61bc eaf1 98bc
00000190: b41f 0080 ab6a 14bc c37f 70bc f21c 0080
000001a0: 3a1d 0080 c85f 60bc 603a 38bd 210d b6bc
000001b0: e9b8 cc3c 4a25 1fbc e49c ad3c 2349 0080
000001c0: 1d1c 0000 ee40 7bbc f722 0080 7f65 373c
000001d0: f069 f63a efe2 eb3c 281c 0080 ba96 1abd
000001e0: d8ca 2d3c c621 243c d7ad 933c 8522 1a3d
000001f0: 231c 0080 d454 9ebc 4dac 53bd 2f81 adbc
00000200: c68e bebc feb8 163d 181c 0000 4270 9a3a
00000210: 7174 1c3d 69f0 44bd 9b7e 61ba 8a1d 0080
00000220: 1546 04bc 4813 cd3c b0c5 7ebc a98a abbc
00000230: 0c79 68bc 73e9 39bd e21b 0000 e6c2 613c
00000240: a5e1 16bd 011c 0080 037f 67bb 3a09 883b
00000250: db3c 268e 53b4 3bbd b021 0080 a02a ab3c
00000260: 437c 94bc 1f65 343d fb1b 0000 6220 0000
00000270: cf59 00bc 12b0 6fbc d81b 0080 c948 113b
00000280: 17fe 16bc 2caf 6600 051c 0080 0b1d 0080
00000290: 595c ab3c 8e87 b5bc 320f a83b 171f 0000
000002a0: cb1d 0000 761b 0080 f0b2 053c fc49 283d
000002b0: d81b 0080 f149 07bd a61d 0000 2887 153d
000002c0: 1fff 593c ab4a 10bd d83a 15bc bdad 64bd
000002d0: b71b 0080 0521 0000 2a06 ff3c 82b2 9a3b
000002e0: f1be 0cbd 32fa 1dbc fb88 bb3c 9fa9 cabc
000002f0: 11ef 6d31 88fc 5f3c 90b8 253d 7686 01bc
00000300: 9041 0cbd 5d1d 0000 ad1c 41bd 6e04 c43c
00000310: cff8 a3ba 2d25 37b8 8e5d 3dbd 6bc7 8a3c
00000320: 65bb 3fbd 4735 0a3c 961e 0080 668e a7bc
00000330: a60b ec3b 8034 78bd 3b1c 0000 37b2 c13c
00000340: 212c ca3c 80ff e6bc 7986 ac3c d8c2 333c
00000350: 6e77 843c c421 9a3c f3cf 073d 99e0 873c
00000360: e731 813c 3f82 2dbd e82e 603b 2da0 1cbd
00000370: 1818 1e3d 982b f5bc 1c4e 89bc c4ae cbbc
00000380: aa36 603c 30b0 3f3c fd11 0b3c 54ad c8bb
00000390: 31ff b83c dd76 ae3c 5bc0 23bd 2bfa 0dbd
000003a0: fc1b 0000 9a1b 0000 6a1b 0080 19c6 af3b
000003b0: 2c83 8fbb 341c 0080 1b18 b7bc caf9 bd99
000003c0: 16f6 473b f133 e2bb 111c 0000 fbec d2bc
000003d0: e11b 0080 a34e e8bc dc01 1abd 9cab 33b1
000003e0: 3551 1b3d 751b 0080 da22 673b 041c 0000
000003f0: 782f 343c 0f48 9dba f95e a3bc c322 0000

dec_trunk.0.bias f4 [128]
0.002669818 0.00035467846 -4.482683e-18 -0.030762693 -1.1315685e-13 0.02375803 -0.007742848 0.026277218
0.0461073 -4.63515e-34 0.03402248 -0.00030252413 -0.02140814 -5.4336984e-09 -0.039612956 -0.05421061
-0.010802178 -0.026936812 -4.277189e-28 0.024422383 -0.036978982 2.6639812e-31 0.030386858 0.024482587
-2.599862e-37 0.00056819565 -1.3103912e-06 1.9748162e-15 0.019090561 0.008507599 -0.020939186 2.5327073e-37
-0.01824535 0.0021897494 -0.03209012 0.025486497 0.0141944215 -0.011263887 0.028434908 -0.036953893
-2.6988204e-26 3.1390786e-17 0.0037507224 2.016e-42 0.004692731 0.024284735 0.0042725476 1.4496491e-14
-0.031610314 0.0024042903 -0.020677757 -0.037215278 -9.76422e-12 -0.022012163 0.0025356016 0.018193277
0.014211132 -0.043804456 -0.001277227 7.582219e-37 0.0030000387 1.8075207e-37 -0.03628528 0.028270796
-2.36389e-40 1.1835833e-05 -0.029785616 0.022804426 0.021947755 -1.629718e-25 9.437621e-33 0.037295103
-3.524287e-39 -0.0070679747 -0.006625622 -0.027625136 0.025436329 0.038629632 -7.099993e-30 -3.6353118e-34
-0.015881034 -5.677242e-05 0.016021244 -0.0064194542 -0.0035887859 0.003508754 0.040904373 -3.7492558e-11
3.2924532e-30 -0.011218965 0.0069600563 0.043188572 -0.02551734 1.44588685e-05 0.024150815 0.021929905
0.005153635 0.013421416 0.01158046 -0.04112769 -0.017338848 0.0059012705 -0.027626297 2.2406208e-34
0.0174509 -1.0004e-41 -0.027191179 6.431801e-17 0.04190908 2.244248e-31 -0.018331464 -1.7107003e-34
0.0017497373 -0.046115845 0.034310427 0.027690941 -0.039230224 0.0036295722 0.023360081 0.007795632
-2.9931406e-24 -0.0029510665 0.010974151 -0.040548306 1.54157e-40 -0.038337473 -0.04410343 -0.025846716
00000000: 1df8 2e3b 23f4 b939 be61 a5a2 0b02 fcbc
00000010: 7cce fea9 33a0 c23c b7b7 fdbb 5243 d73c
00000020: 02db 3c3d 7f07 1a88 285b 0b3d 1a9c 9eb9
00000030: 2060 afbc 51b3 bab1 3241 22bd f20b 5ebd
00000040: 9efb 30bc 97aa dcbc ae8c 0792 7311 c83c
00000050: 4677 17bd fbe6 ac0c dced f83c b58f c83c
00000060: fcef b082 f7f2 143a b3e0 afb5 ee4c 0e27
00000070: cf63 9c3c 7563 0b3c a888 abbc fc5d ac02
00000080: 4677 95bc e681 0f3b ee70 03bd 0fc9 d03c
00000090: b88f 683c 2b8c 38bc 53f0 e83c f75c 17bd
000000a0: 9da3 0595 b3c3 1024 aece 753b 9f05 0000
000000b0: 7bc5 993b c8f0 c63c ba00 8c3b a292 8228
000000c0: d179 01bd 4c91 1d3b 6664 a9bc 0c6f 18bd
000000d0: 23c6 2bad da52 b4bc 562c 263b 110a 953c
000000e0: cfd5 683c 4d6c 33bd a068 a7ba 3901 8103
000000f0: 4c9c 443b e706 7602 e09f 14bd 2898 e73c
00000100: f592 0280 8492 4637 f700 f4bc 59d0 ba3c
00000110: c7cb b33c d3bf 4996 0003 440a c0c2 183d
00000120: 4760 2680 789a e7bb bf1b d9bb 1c4e e2bc
00000130: d95f d03c 1b3a 1e3d 4501 108f a09b f187
00000140: f118 82bc ec1e 6eb8 fc3e 833c 495a d2bb
00000150: d631 6bbb 20f3 653b 588b 273d dee4 24ae
00000160: ca8e 850e c0cf 37bc 2f11 e43b 80e6 303d
00000170: be09 d1bc 5e94 7237 eed7 c53c 58a6 b33c
00000180: d3df a83b 80e5 5b3c f8bb 3d3c 8275 28bd
00000190: 330a 8ebc 725f c13b 8b50 e2bc 30ea 9407
000001a0: 31f5 8e3c e31b 0080 09c0 debc a74e 9424
000001b0: dba8 2b3d f7a8 910c de2b 96bc 1d64 6387
000001c0: 7157 e53a f8e3 3cbd 1789 0c3d 1dd8 e23c
000001d0: dfaf 20bd 1ede 6d3b a45d bf3c 8072 ff3b
000001e0: 4295 6798 ae66 41bb edcc 333c fb15 26bd
000001f0: baad 0100 c107 1dbd cca5 34bd 7ebc d3bc
