pointnet/weights_per_bundle_ratio025/SLF_I_left_best.pth (torch, 359784 bytes, 17 tensors)

t_grid f4 [100]
0.0 0.01010101 0.02020202 0.030303031 0.04040404 0.05050505 0.060606062 0.07070707
0.08080808 0.09090909 0.1010101 0.11111111 0.121212125 0.13131313 0.14141414 0.15151516
0.16161616 0.17171717 0.18181819 0.1919192 0.2020202 0.21212122 0.22222222 0.23232323
0.24242425 0.25252524 0.26262626 0.27272728 0.28282827 0.2929293 0.3030303 0.3131313
0.32323232 0.33333334 0.34343433 0.35353535 0.36363637 0.37373737 0.3838384 0.3939394
0.4040404 0.41414142 0.42424244 0.43434343 0.44444445 0.45454547 0.46464646 0.47474748
0.4848485 0.4949495 0.5050505 0.5151515 0.5252525 0.53535354 0.54545456 0.5555556
0.56565654 0.57575756 0.5858586 0.5959596 0.6060606 0.61616164 0.6262626 0.6363636
0.64646465 0.65656567 0.6666667 0.6767677 0.68686867 0.6969697 0.7070707 0.7171717
0.72727275 0.7373737 0.74747473 0.75757575 0.7676768 0.7777778 0.7878788 0.7979798
0.8080808 0.8181818 0.82828283 0.83838385 0.8484849 0.85858583 0.86868685 0.8787879
0.8888889 0.8989899 0.90909094 0.9191919 0.9292929 0.93939394 0.94949496 0.959596
0.969697 0.97979796 0.989899 1.0
00000000: 0000 0000 b57e 253c b57e a53c 103e f83c
00000010: b57e 253d 62de 4e3d 103e 783d dece 903d
00000020: b57e a53d 8c2e ba3d 62de ce3d 398e e33d
00000030: 103e f83d f376 063e dece 103e ca26 1b3e
00000040: b57e 253e a0d6 2f3e 8c2e 3a3e 7786 443e
00000050: 62de 4e3e 4e36 593e 398e 633e 24e6 6d3e
00000060: 103e 783e fd4a 813e f376 863e e9a2 8b3e
00000070: dece 903e d4fa 953e ca26 9b3e bf52 a03e
00000080: b57e a53e abaa aa3e a0d6 af3e 9602 b53e
00000090: 8c2e ba3e 815a bf3e 7786 c43e 6db2 c93e
000000a0: 62de ce3e 580a d43e 4e36 d93e 4362 de3e
000000b0: 398e e33e 2fba e83e 24e6 ed3e 1a12 f33e
000000c0: 103e f83e 056a fd3e fd4a 013f f8e0 033f
000000d0: f376 063f ee0c 093f e9a2 0b3f e438 0e3f
000000e0: dece 103f d964 133f d4fa 153f cf90 183f
000000f0: ca26 1b3f c5bc 1d3f bf52 203f bae8 223f
00000100: b57e 253f b014 283f abaa 2a3f a640 2d3f
00000110: a0d6 2f3f 9b6c 323f 9602 353f 9198 373f
00000120: 8c2e 3a3f 86c4 3c3f 815a 3f3f 7cf0 413f
00000130: 7786 443f 721c 473f 6db2 493f 6748 4c3f
00000140: 62de 4e3f 5d74 513f 580a 543f 53a0 563f
00000150: 4e36 593f 48cc 5b3f 4362 5e3f 3ef8 603f
00000160: 398e 633f 3424 663f 2fba 683f 2950 6b3f
00000170: 24e6 6d3f 1f7c 703f 1a12 733f 15a8 753f
00000180: 103e 783f 0ad4 7a3f 056a 7d3f 0000 803f

encoder.mlp.0.weight f4 [64, 3]
-0.41152173 -0.17894857 -0.44901383 -0.39049572 -0.32941255 0.45764822 -0.020713158 0.33671308
0.3582541 -0.24545488 0.11037284 0.13674214 0.15612106 0.24414764 -0.072511405 -0.3063509
0.43102437 0.5337589 0.017706215 2.0878737e-15 -0.0026692608 -0.35562927 0.122924104 0.31948635
0.13067622 -0.37625176 -0.13101992 -0.33211678 0.5760213 -0.17102766 -1.4442936e-13 5.9417822e-12
-0.014046001 0.12306705 0.058507927 0.33852547 -0.04149385 -0.4937367 -0.100848086 -0.54685044
-0.26063624 0.00739678 -0.3309564 0.2573584 -0.5128188 -2.192348e-16 2.4105873e-09 -0.11601589
-0.21332724 0.445917 0.35722682 -0.48737678 0.52483934 -0.3958207 -0.44439182 -0.24888904
-0.11550977 0.011238097 0.25676993 0.095153816 0.045891017 0.23439808 0.29895955 0.15479861
0.15470487 0.0916783 -0.46805495 -0.2632954 -0.37397635 -0.44574904 0.0837755 -0.5161252
0.46094424 0.08079546 0.23864304 -0.39404202 -0.31151453 0.11573186 0.07345878 -0.28529096
0.054736592 0.1553599 -0.29069412 0.26258117 0.29860273 0.2270874 0.4545173 -0.07989583
-0.11202552 0.06751707 -0.5078589 0.3204753 -0.522533 0.23248148 0.45412898 0.28280854
0.42506337 0.50441253 0.3428625 -0.11566945 -0.4602331 0.30098236 -0.5837346 -0.41948277
0.24374756 -0.42508522 0.52870405 0.046654038 0.059581667 7.567224e-18 -0.00091913785 0.14461564
0.3992263 -0.15864252 -0.27812532 -0.15872227 0.30662212 -0.4424221 -0.3027547 -0.19800636
0.3261875 -0.25524798 0.4004619 0.113491565 -0.18201327 0.4283272 0.58618945 0.051914264
0.31157774 0.055357613 0.0581158 0.018258005 -0.33713883 -0.35062712 0.17768916 0.00030588452
0.00019814509 -0.002448652 0.35633603 0.5722451 0.15207706 -0.378878 -0.3801236 -0.22541627
-0.18868981 0.44230238 -0.41020367 -0.018885488 -0.19451387 -0.20519099 0.043253098 0.008982515
-0.0054213856 -0.5339862 0.23159914 0.036404204 0.4909674 0.057967205 0.48325107 -0.0864023
0.13747229 0.15316676 0.41226032 -0.06024509 0.28501496 0.33448136 -0.33787596 -0.04397661
-0.32743034 -0.06218441 0.27828944 -0.16372217 0.4473275 -0.38715833 0.55475247 0.28650388
0.4223851 -0.5099273 -0.38534462 0.06046531 0.09678123 -0.21400575 -0.31237537 -0.083985515
-0.27635598 -0.100611806 0.44096556 -0.32907784 0.2874241 0.03747908 -0.13428733 -0.08581617
00000000: fab2 d2be 4b3e 37be 24e5 e5be 0eef c7be
00000010: c3a8 a8be de50 ea3e a4ae a9bc a865 ac3e
00000020: 156d b73e 8658 7bbe 280b e23d 2206 0c3e
00000030: 33de 1f3e d701 7a3e dc80 94bd 06da 9cbe
00000040: 3aaf dc3e 6ca4 083f a00c 913c 7972 1627
00000050: c4ee 2ebb 0a15 b6be a2bf fb3d b793 a33e
00000060: fdcf 053e 12a4 c0be 162a 06be 360b aabe
00000070: 2276 133f e021 2fbe ee9c 22aa d10e d12c
00000080: 3321 66bc 940a fc3d 02a6 6f3d 3653 ad3e
00000090: 75f5 29bd 0fcb fcbe 7189 cebd 64fe 0bbf
000000a0: 1d72 85be b060 f23b 1e73 a9be 7bc4 833e
000000b0: 1848 03bf b1c2 7ca5 80a7 2531 bd99 edbd
000000c0: 7572 5abe 3c4f e43e 6fe6 b63e 7389 f9be
000000d0: df5b 063f 03a9 cabe 5387 e3be c5dc 7ebe
000000e0: 6390 ecbd ff1f 383c 5977 833e 01e0 c23d
000000f0: 38f8 3b3d 0d06 703e 3a11 993e 8783 1e3e
00000100: f46a 1e3e d5c1 bb3d e6a4 efbe a8ce 86be
00000110: d479 bfbe 3839 e4be 7d92 ab3d c820 04bf
00000120: e200 ec3e 1778 a53d d75e 743e e0bf c9be
00000130: d57e 9fbe d304 ed3d 8f71 963d a811 92be
00000140: 7a33 603d aa16 1f3e dcd5 94be 0a71 863e
00000150: 75e2 983e 9989 683e 7eb6 e83e 6da0 a3bd
00000160: a36d e5bd 6446 8a3d 0a03 02bf 5715 a43e
00000170: b9c4 05bf a00f 6e3e 9883 e83e 48cc 903e
00000180: e8a1 d93e 2e21 013f ac8b af3e 1be4 ecbd
00000190: aca3 ebbe 5c1a 9a3e a16f 15bf 72c6 d6be
000001a0: f698 793e c5a4 d9be 2659 073f 4e18 3f3d
000001b0: e80b 743d 3497 0b23 4cf2 70ba 1f16 143e
000001c0: 6467 cc3e 2f73 22be 7166 8ebe 1788 22be
000001d0: 93fd 9c3e 2685 e2be aa02 9bbe 2ec2 4abe
000001e0: 0c02 a73e ddaf 82be 5809 cd3e 446e e83d
000001f0: b061 3abe b44d db3e 8310 163f 0da4 543d
00000200: 1e87 9f3e aabe 623d d50a 6e3d d091 953c
00000210: 769d acbe 6685 b3be 26f4 353e 205f a039
00000220: 2bc5 4f39 9079 20bb ad71 b63e a87e 123f
00000230: 17ba 1b3e 4cfc c1be 8f9f c2be 86d3 66be
00000240: e737 41be 7575 e23e 3706 d2be bdb5 9abc
00000250: a52e 47be 961d 52be 292a 313d 662b 133c
00000260: e1a5 b1bb 52b3 08bf 5328 6d3e 931c 153d
00000270: 1460 fb3e 056f 6d3d af6c f73e b0f3 b0bd
00000280: 89c5 0c3e bfd7 1c3e c913 d33e 8ec3 76bd
00000290: 7bed 913e 2441 ab3e 14fe acbe d120 34bd
000002a0: f3a4 a7be 14b5 7ebd f47b 8e3e c9a6 27be
000002b0: 1c08 e53e 9e39 c6be 4204 0e3f a3b0 923e
000002c0: dc42 d83e 988a 02bf e44b c5be 79aa 773d
000002d0: 3d35 c63d 5324 5bbe aaef 9fbe 9900 acbd
000002e0: 887e 8dbe 900d cebd 3dc6 e13e e47c a8be
000002f0: 4029 933e aa83 193d 9e82 09be 63c0 afbd

encoder.mlp.0.bias f4 [64]
-0.03808487 -0.2735242 -0.02825503 0.24735756 0.011740795 0.19308873 -0.030865693 -0.0031730763
0.32148007 -0.3882503 0.058940094 0.027824428 -0.24741934 0.07388171 -0.004006135 -0.035856273
-0.23761328 0.16486731 -0.26189187 0.067748696 -0.05105775 0.07743877 0.10125544 0.1567329
0.2485474 -0.1672699 -0.39449674 -0.051476467 0.28529283 -0.12532061 0.1982079 -0.03501191
0.29082605 -0.46557617 -0.26332805 -0.19046272 -0.011126656 -0.22999397 0.40084463 0.30645132
-0.04221863 -0.4668755 0.24544483 0.2902176 -0.22886568 0.05922015 -0.013802933 0.2917289
-0.07334349 -0.13569486 0.121312425 0.3946552 -0.000925185 -0.43237895 0.46229228 -0.24864633
0.13043097 -0.07152403 0.42927375 -0.08896092 -0.24041286 0.36720517 -0.109136745 0.1909636
00000000: e1fe 1bbd 5d0b 8cbe 1877 e7bc 4d4b 7d3e
00000010: 775c 403c 0db9 453e 0dda fcbc 63f3 4fbb
00000020: 0999 a43e bec8 c6be 2b6b 713d 0ef0 e33c
00000030: 7f5b 7dbe 4b4f 973d e545 83bb 07de 12bd
00000040: e550 73be fad2 283e b116 86be d4bf 8a3d
00000050: ee21 51bd 3898 9e3d 035f cf3d 977e 203e
00000060: 3683 7e3e cd48 2bbe 7afb c9be fdd8 52bd
00000070: e711 923e 0c54 00be 03f7 4a3e a668 0fbd
00000080: 27e7 943e 0060 eebe efd2 86be a908 43be
00000090: 944c 36bc 8a83 6bbe 823b cd3e 30e7 9c3e
000000a0: 71ed 2cbd 4e0a efbe e455 7b3e 6797 943e
000000b0: c45b 6abe d490 723d b225 62bc 7e5d 953e
000000c0: 1d35 96bd 98f3 0abe a672 f83d 3f10 ca3e
000000d0: 1d88 72ba c660 ddbe 93b1 ec3e 259d 7ebe
000000e0: b28f 053e 317b 92bd c5c9 db3e 2531 b6bd
000000f0: ca2e 76be 5102 bc3e 1683 dfbd f68b 433e

encoder.mlp.2.weight f4 [128, 64]
0.015164122 0.0999401 0.10324572 0.13130765 0.02200188 0.1053732 1.0819372e-05 0.062000077
0.035729617 0.12174637 -1.864446e-07 -0.016978087 -0.062335882 -0.097793855 0.044181928 -3.118801e-09
-0.055121828 0.032360543 -0.11259825 0.008191511 0.0310337 0.030076226 -0.0040719616 0.03787847
0.13487323 -0.067798354 0.11543903 -0.06139909 0.013834022 -0.05352971 0.106955245 -0.013598104
-0.053758785 -0.058688212 -0.038753886 0.037369363 -1.0087185e-16 0.032849535 0.11555829 -0.102281205
-0.005729001 0.12493995 0.12848634 0.050041277 -0.04972672 1.2185778e-05 0.057595477 0.03826405
-0.049651038 -0.014965569 -1.8203917e-05 0.13184571 0.08043519 -0.07430037 -0.0006623832 0.029421216
-0.05957001 0.1231131 0.049577925 -0.10243325 -9.082969e-05 0.007786026 0.058132175 -0.015701748
0.023628043 -0.03395114 -0.0017194154 0.11426517 -0.016626973 -0.045674752 1.1907578e-05 -0.012572203
-0.051399004 -0.06211747 3.2783148e-16 -0.009785692 0.04367971 0.043286387 0.023836957 1.3177194e-16
0.059777286 -0.026159307 0.044240262 0.07507377 -0.017986948 0.03594391 -0.0042504473 0.023996834
0.11900321 0.13212818 0.046179425 -0.024796432 0.007545589 0.032998804 0.009436297 -0.07152457
0.0092251105 0.02976181 0.113055676 -0.044350646 3.912093e-17 -0.03958448 0.07055463 -0.012180919
-0.056304436 0.12615004 -0.0016615015 0.012953677 0.06622867 9.803433e-05 0.083488815 -0.05806488
0.00021515241 -0.07923744 -2.3930215e-05 -0.063788846 0.044620633 -0.08644346 -0.057022177 -0.020434154
0.028377578 0.011926663 0.049647957 0.12708627 -0.05567858 0.115838 -0.0037942205 -0.015031972
-0.11275598 -0.009043142 -0.068210214 -0.056228995 -0.022575745 0.023635905 -2.4270639e-09 -0.049820546
0.08296427 -0.10536287 -6.4955395e-11 0.087419756 0.07065518 -0.03282971 0.0058494033 -6.491103e-17
-0.09351376 0.06412438 -0.01762354 -0.099245176 0.008116719 0.100730866 0.065682605 -0.051041245
0.1400861 0.110467024 -0.028762251 -0.015281937 0.063908905 0.056374855 0.015880803 0.108776845
0.09605665 0.11229892 0.09399268 0.09232371 -6.9750205e-17 0.02872564 0.019879904 -0.104927465
0.033540267 0.07396664 0.109980896 0.0645801 -0.051561423 2.2123475e-05 -0.011442233 -0.076239906
-0.03981618 0.100661546 -1.9840843e-05 0.057208963 0.13196224 -0.05936409 -0.03375288 0.042034272
0.047215577 -0.049002923 0.056474954 -0.10115109 0.006635468 -0.06731901 0.021680335 -0.0018036284
-0.019266786 -0.00328429 -0.08510088 0.07207931 -0.04011552 0.06378503 -7.1423094e-16 0.11750228
-0.092630856 -0.14011821 1.3201744e-16 0.11123118 0.007445561 0.123712115 0.07573361 1.0527059e-16
0.054231726 -0.09711709 0.12386056 -0.022248762 0.051688585 -0.07551771 0.102390245 -0.10886808
0.08348554 0.106299244 -0.092266105 0.11283502 0.025052628 0.10273271 0.005567902 0.029351547
-0.04898473 0.12739661 0.060390595 -0.040378034 2.686208e-17 -0.03623364 0.00877327 -0.0059991684
0.111444704 -0.10323463 -0.054554477 -0.05674854 -0.077738054 -3.4511628e-05 -0.11190203 -0.07362319
0.006987961 0.1116333 -1.3985494e-05 -0.06950107 0.10995082 -0.030654259 0.018518781 -0.07755905
0.13959695 0.023820432 0.12611625 -0.025704915 0.0039534755 0.05903506 0.115272775 -0.025228107
00000000: f072 783c 65ad cc3d 7e72 d33d 8375 063e
00000010: 493d b43c e7cd d73d d984 3537 cbf3 7d3d
00000020: 3859 123d 2956 f93d 8031 48b4 a115 8bbc
00000030: e953 7fbd 2548 c8bd 1cf8 343d 8752 56b1
00000040: 6dc7 61bd 7d8c 043d e999 e6bd b035 063c
00000050: 633a fe3c 6b62 f63c 176e 85bb 7426 1b3d
00000060: 351c 0a3e ddd9 8abd 4c6b ec3d 9d7d 7bbd
00000070: 18a8 623c f841 5bbd 5a0b db3d 95ca 5ebc
00000080: 2c32 5cbd 0d63 70bd 65bc 1ebd 9e10 193d
00000090: 3b98 e8a4 3c8d 063d d3a9 ec3d cf78 d1bd
000000a0: 58ba bbbb 84e0 ff3d ec91 033e 15f8 4c3d
000000b0: 3fae 4bbd 8571 4c37 3ce9 6b3d c4ba 1c3d
000000c0: e35e 4bbd 2532 75bc 9db4 98b7 9002 073e
000000d0: 34bb a43d cb2a 98bd c9a3 2dba c304 f13c
000000e0: afff 73bd b922 fc3d 3912 4b3d 86c8 d1bd
000000f0: d27b beb8 ec21 ff3b 011c 6e3d f4a0 80bc
00000100: 998f c13c 5a10 0bbd 025e e1ba dc03 ea3d
00000110: 4a35 88bc 7315 3bbd a8c6 4737 a4fb 4dbc
00000120: c387 52bd e36e 7ebd 63fb bc25 2b54 20bc
00000130: 7fe9 323d 114d 313d b945 c33c 36ec 1725
00000140: 07d9 743d 0b4c d6bc 4735 353d 47c0 993d
00000150: 5d59 93bc ec39 133d 5647 8bbb 0295 c43c
00000160: f4b7 f33d 9c4c 073e a326 3d3d e321 cbbc
00000170: fd40 f73b c129 073d b39a 1a3c 797b 92bd
00000180: eb24 173c 0acf f33c bc89 e73d 06a9 35bd
00000190: d869 3424 5623 22bd f27e 903d 7a92 47bc
000001a0: 7b9f 66bd 7a2d 013e bdc6 d9ba a93b 543c
000001b0: e6a2 873d c897 cd38 2ffc aa3d 71d5 6dbd
000001c0: 899a 6139 3d47 a2bd bfbd c8b7 baa3 82bd
000001d0: 20c4 363d 4509 b1bd 1690 69bd 8765 a7bc
000001e0: 1878 e83c 0d68 433c a85b 4b3d e722 023e
000001f0: 390f 64bd 793c ed3d 75a8 78bb a948 76bc
00000200: 9bec e6bd b029 14bc ccb1 8bbd 6050 66bd
00000210: c5f0 b8bc 16a0 c13c 5cc9 26b1 a110 4cbd
00000220: 2ce9 a93d 7dc8 d7bd a3d6 8eae 2109 b33d
00000230: aab3 903d 7278 06bd 5aac bf3b b6ac 95a4
00000240: 2484 bfbd a553 833d 3e5f 90bc 0e41 cbbd
00000250: fdfb 043c fc4b ce3d 9a84 863d a010 51bd
00000260: bb72 0f3e 893c e23d d09e ebbc 1761 7abc
00000270: ace2 823d 52e9 663d 7518 823c 65c6 de3d
00000280: 59b9 c43d fafc e53d 3c7f c03d 3714 bd3d
00000290: 41d5 a0a4 0952 eb3c 2edb a23c 36e4 d6bd
000002a0: 8561 093d d27b 973d aa3d e13d 9242 843d
000002b0: 1232 53bd cd95 b937 3478 3bbc ab23 9cbd
000002c0: 4a16 23bd a427 ce3d e36f a6b7 f253 6a3d
000002d0: 1c21 073e c327 73bd 7640 0abd 212c 2c3d
000002e0: 1f65 413d 4ab7 48bd 4852 673d 4d28 cfbd
000002f0: 576e d93b 8dde 89bd f59a b13c ba67 ecba
00000300: 61d5 9dbc 3e3d 57bb 5f49 aebd 519e 933d
00000310: 2c50 24bd baa1 823d f1dc 4da6 09a5 f03d
00000320: 3fb5 bdbd 267b 0fbe ac34 1825 2ccd e33d
00000330: e4f9 f33b c75c fd3d 391a 9b3d cabc f224
00000340: 1622 5e3d 53e5 c6bd 9baa fd3d 0943 b6bc
00000350: 69b7 533d 07a9 9abd fab1 d13d 3af6 debd
00000360: 77fa aa3d 6bb3 d93d 03f6 bcbd 0c16 e73d
00000370: 2b3b cd3c 8765 d23d f272 b63b a872 f03c
00000380: 36a4 48bd 4274 023e 215c 773d 7063 25bd
00000390: 4bc2 f723 ba69 14bd c3bd 0f3c ac94 c4bb
000003a0: 1f3d e43d ad6c d3bd 8474 5fbd 2871 68bd
000003b0: 2135 9fbd 94c0 10b8 e42c e5bd c1c7 96bd
000003c0: 44fb e43b 00a0 e43d 3da3 6ab7 9456 8ebd
000003d0: e52d e13d a41e fbbc b3b4 973c 47d7 9ebd
000003e0: 81f2 0e3e 1123 c33c 9e24 013e 1d93 d2bc
000003f0: 288c 813b bfce 713d 2214 ec3d 2dab cebc

encoder.mlp.2.bias f4 [128]
-0.00487671 0.014953307 0.09178237 0.056390814 -0.025746455 -0.03272547 0.0808451 -0.05093549
-0.00216772 -0.04111497 0.059493896 -0.04122958 0.046909492 -0.00265697 0.03250517 0.018265363
0.0024845079 0.0043639834 -0.036910776 0.09745979 -0.042426914 4.1347263e-05 -0.054484826 0.043606978
0.08387935 0.053955432 -0.018331468 -5.3570086e-17 -0.023011995 0.018583154 0.0023772873 -0.0020591523
-0.00037365328 -0.08144898 1.125794e-05 0.042361073 -2.045296e-09 -0.033900023 -4.9978513e-07 0.0093457
0.0043531167 -0.09302456 0.01978544 1.2316301e-16 0.083701506 -0.017531056 -0.029734625 0.04376072
-0.0086546475 0.0021570558 0.04438163 0.04942254 0.0846261 0.05580803 -0.002812982 -0.048033882
0.0061315256 4.0393763e-13 0.056069795 0.03984042 0.08118986 -0.06351803 -0.030957943 0.05979567
-0.047238883 -0.02964443 0.018874496 -0.096424945 0.050402783 0.06479831 0.02344528 -5.635598e-09
3.873841e-08 0.04506031 -0.027449442 -0.08343685 -0.051434427 0.061898597 0.09174152 0.027949326
-0.04634688 0.0031510377 0.008099821 0.035974767 -0.0603882 -0.0030750083 0.089269765 0.07588823
-0.053607203 0.019196939 0.0789986 0.0026858626 0.037044566 -0.03889099 -0.07663206 0.005170457
0.011591779 -0.037777547 0.028778704 0.11323073 -0.0045711184 -0.092412025 -0.031935733 0.002944308
4.907509e-09 -0.05709536 -0.057534628 -0.011764242 -0.017164743 1.0198359e-17 -0.049028732 -0.09658765
-1.9357674e-06 0.0732084 -0.039548967 -0.08866952 6.991199e-18 0.022237869 -0.059193864 0.09919686
-2.4556198e-07 0.0030661344 0.079660624 -0.028399821 -0.02769002 0.09767813 -0.10904477 -0.009702817
00000000: cfcc 9fbb b7fe 743c 65f8 bb3d 0efa 663d
00000010: 3bea d2bc 240b 06bd 1e92 a53d bba1 50bd
00000020: 4f10 0ebb 2c68 28bd dfaf 733d 59e0 28bd
00000030: 2b24 403d 8f20 2ebb 2424 053d 3ea1 953c
00000040: 20d3 223b bfff 8e3b c12f 17bd 0099 c73d
00000050: d8c7 2dbd 496c 2d38 7b2b 5fbd 3b9d 323d
00000060: f0c8 ab3d 5f00 5d3d e02b 96bc 650c 77a4
00000070: a783 bcbc b33b 983c 43cc 1b3b d8f2 06bb
00000080: e5e6 c3b9 b9ce a6bd 7ce0 3c37 ce82 2d3d
00000090: 3a8d 0cb1 c0da 0abd f928 06b5 b51e 193c
000000a0: 97a4 8e3b a983 bebd 1315 a23c 4eff 0d25
000000b0: b26b ab3d 4a9d 8fbc 0796 f3bc 713e 333d
000000c0: 39cc 0dbc 645d 0d3b 83c9 353d 4a6f 4a3d
000000d0: 7350 ad3d f696 643d 025a 38bb 2dbf 44bd
000000e0: f7ea c83b 8c65 e32a 71a9 653d b52f 233d
000000f0: df46 a63d be15 82bd 839b fdbc 4eec 743d
00000100: 8f7d 41bd e0d8 f2bc b09e 9a3c 717a c5bd
00000110: 2673 4e3d fab4 843d 5110 c03c 3fa3 c1b1
00000120: 5561 2633 2991 383d a7dd e0bc f0e0 aabd
00000130: e8ac 52bd 6289 7d3d fae2 bb3d fcf5 e43c
00000140: 3ad6 3dbd a481 4e3b 1db5 043c 475a 133d
00000150: 9e59 77bd 1486 49bb 11d3 b63d 4a6b 9b3d
00000160: 3a93 5bbd e642 9d3c 05ca a13d 4c05 303b
00000170: 0bbc 173d 294c 1fbd 45f1 9cbd f06c a93b
00000180: 72eb 3d3c a1bc 1abd 51c1 eb3c 83e5 e73d
00000190: 52c9 95bb 8442 bdbd 0bcf 02bd 4bf5 403b
000001a0: e89e a831 d3dc 69bd 6ea9 6bbd cfbe 40bc
000001b0: 139d 8cbc 6420 3c23 5ad2 48bd bfcf c5bd
000001c0: 3be8 01b6 49ee 953d 19fe 21bd 5e98 b5bd
000001d0: 01f7 0023 312c b63c 4475 72bd b927 cb3d
000001e0: c8d5 83b4 33f1 483b 1c25 a33d bea6 e8bc
000001f0: 2ed6 e2bc 790b c83d dd52 dfbd 90f8 1ebc

encoder.mlp.4.weight f4 [256, 128]
0.08133326 -0.06964686 -0.08167537 -0.06440384 0.07798952 0.049536426 0.05086663 0.025123585
-0.06342007 -0.0062382664 -0.038975436 -0.04219807 -0.034636285 -0.03437469 0.02642271 -5.3650166e-12
-1.8682636e-07 0.0014380927 -0.004791452 0.073839925 0.017461091 1.0319868e-09 -0.086771086 -0.027272832
-0.008830079 -0.013829635 -0.056159068 1.0075065e-15 -0.09259249 -0.074222095 0.016235232 -0.0014667931
-8.1051266e-17 0.035882905 1.4316356e-17 0.046237975 -2.120074e-09 -0.002803871 2.3041655e-07 -0.028906692
0.06680612 -0.16190365 0.02906174 7.721949e-08 -2.0364256e-07 0.022748448 -0.06778414 0.10252724
0.0410609 0.01630766 -0.03676788 0.044646304 0.03402855 -0.0749717 0.041649446 -0.014762055
-7.316965e-17 -6.2875936e-09 0.032217123 -0.022256212 -0.013674217 0.018442981 0.05357648 0.04642323
0.028143233 -0.0802363 -6.4455602e-12 -0.108437724 -0.031375404 0.07456021 -0.0031807392 -3.208174e-15
2.655854e-08 -0.05078731 0.012013697 -0.036151126 -0.08996069 -0.012078786 -0.03387664 0.0863345
-3.902707e-07 0.0042372956 -0.02989179 -0.0173892 -0.047526605 -0.027776156 0.060894538 0.0016586845
-0.0012872752 -1.1601308e-07 -0.024405327 0.026665727 0.059098564 0.07838958 -0.0741586 -9.427445e-18
-0.06992603 0.05904274 -0.0011737671 -0.047575846 -0.045593068 0.014033222 0.029784417 0.00795813
1.5646271e-16 0.02853634 0.05235215 -0.0461424 -0.0903992 -5.983401e-17 0.0050335596 -0.046577625
-6.3405196e-06 0.035548314 -0.0005260548 -0.011878984 1.2673827e-16 -0.038775474 -0.017638173 -0.017690254
-2.2626954e-13 0.038799 -0.072527595 0.025869897 1.1168693e-14 -0.022780009 -0.01962148 -0.052413575
0.0051677767 0.0015480925 0.023816084 0.022361094 0.028377539 -0.034281347 0.03636596 0.059383627
-0.008682674 -0.055973906 -0.0317708 0.028562292 -0.0058010877 0.033530533 0.04649138 -0.00087624096
-0.00058222056 -0.000796726 0.0016709759 -0.05846778 -0.032066762 -5.985175e-17 0.07094961 -0.057480555
-0.02731256 0.0056914464 -0.029052343 7.840098e-15 0.0104123065 -0.05653044 -0.0228424 4.4180167e-12
-0.00034666024 0.063628726 9.753483e-18 -0.0255415 -2.3830977e-07 0.012688474 -2.5554747e-10 0.013885331
-0.0049815034 -0.0022926289 -0.018298587 3.258297e-08 -0.0007576288 0.051608313 -0.029432127 -0.029242894
-0.029842056 -0.00050826947 -0.05787777 0.010476021 -0.02432962 0.07531555 -0.022406604 0.03671219
-6.976201e-11 -3.6352987e-09 0.0215453 -0.05394846 -0.056604356 -0.067131765 -0.040347032 0.04992797
-0.008279527 -0.07641868 -0.00026313422 -0.044780727 0.00011708596 -1.4391209e-15 -0.012188049 -4.3729682e-07
-1.8105657e-16 0.026955152 0.025696257 -0.062985495 -0.01602496 0.038154952 -0.028691834 -0.056547157
-0.000864957 -0.002925611 -1.57356e-16 -0.07886879 -0.00026176355 0.06677358 0.048463732 -0.010355859
0.046770506 5.571704e-13 6.8573513e-07 -0.0053436873 0.041186523 -0.020762993 0.06296536 -0.0009197275
-0.041894097 -0.009423651 -0.0030788009 0.004345126 0.075378954 0.08515616 -0.0021925624 -0.0049388586
-2.4168027e-12 -0.04183528 -0.053533576 -0.03896745 0.014885158 2.1392677e-17 -0.005429596 -0.013605101
6.5583063e-09 0.006838367 -0.0006251848 0.006254552 -2.7092696e-16 0.010228724 -0.058143556 0.07024579
1.6982885e-12 0.027644414 -0.022423996 -3.709465e-18 -0.009626974 0.08008791 -0.023647834 -0.011407981
00000000: 0d92 a63d 03a3 8ebd 6b45 a7bd 29e6 83bd
00000010: f8b8 9f3d b5e6 4a3d 8759 503d facf cd3c
00000020: 62e2 81bd 5f6a ccbb b5a4 1fbd e2d7 2cbd
00000030: c7de 0dbd 7acc 0cbd 7074 d83c c6c3 bcac
00000040: 709a 48b4 627e bc3a 9d01 9dbb 6339 973d
00000050: 900a 8f3c cfd5 8d30 0ab5 b1bd 466b dfbc
00000060: 09ac 10bc b295 62bc 0d07 66bd 6e32 9126
00000070: 22a1 bdbd c101 98bd c0ff 843c 6941 c0ba
00000080: 39e4 baa4 f4f9 123d 8a0b 8423 0864 3d3d
00000090: bcb0 11b1 26c1 37bb 6b68 7734 bacd ecbc
000000a0: a6d1 883d 12ca 25be e312 ee3c ddd3 a533
000000b0: d7a8 5ab4 f45a ba3c 69d2 8abd cdf9 d13d
000000c0: 792f 283d a497 853c eb99 16bd 0bdf 363d
000000d0: 8561 0b3d c38a 99bd 9c98 2a3d 8cdc 71bc
000000e0: bdb7 a8a4 420a d8b1 1af6 033d a952 b6bc
000000f0: d309 60bc bc15 973c 0373 5b3d 4926 3e3d
00000100: a38c e63c ee52 a4bd 72c8 e2ac 9914 debd
00000110: 7f83 00bd 06b3 983d f373 50bb 5d2c 67a7
00000120: d922 e432 5b06 50bd 19d5 443c 3413 14bd
00000130: 4f3d b8bd 1ae6 45bc 3bc2 0abd 24d0 b03d
00000140: 6686 d1b4 03d9 8a3b a1df f4bc cc73 8ebc
00000150: 42ab 42bd d28a e3bc 8d6c 793d 3768 d93a
00000160: cab9 a8ba dd22 f9b3 aeed c7bc 1572 da3c
00000170: 5611 723d b78a a03d 77e0 97bd dae7 2da3
00000180: 6135 8fbd cdd6 713d 17d9 99ba e4de 42bd
00000190: ccbf 3abd 99eb 653c 73fe f33c d162 023c
000001a0: a463 3425 0bc5 e93c 356f 563d d0ff 3cbd
000001b0: 3723 b9bd c4f7 89a4 8ff0 a43b 2ec8 3ebd
000001c0: a6c0 d4b6 1c9b 113d f1e6 09ba 12a0 42bc
000001d0: 891e 1225 08d3 1ebd ee7d 90bc 27eb 90bc
000001e0: c1c1 7eaa b3eb 1e3d 5989 94bd 1bed d33c
000001f0: 8132 4928 249d babc 3abd a0bc 9eaf 56bd
00000200: 7456 a93b 5de9 ca3a f319 c33c 9d2e b73c
00000210: 0378 e83c 996a 0cbd 79f4 143d 3f3c 733d
00000220: c641 0ebc e544 65bd 1922 02bd 78fb e93c
00000230: 0d17 bebb 5057 093d bf6d 3e3d 89b3 65ba
00000240: 29a0 18ba 60db 50ba a604 db3a e97b 6fbd
00000250: 7058 03bd 3d02 8aa4 074e 913d bb70 6bbd
00000260: 97be dfbc 507f ba3b 2eff edbc 123c 0d28
00000270: 6198 2a3c 768c 67bd fc1f bbbc f571 9b2c
00000280: f3bf b5b9 c74f 823d 85eb 3323 683c d1bc
00000290: 17e2 7fb4 51e3 4f3c 1c7d 8caf 4d7f 633c
000002a0: e13b a3bb ee3f 16bb ebe6 95bc 5bf1 0b33
000002b0: 9c9b 46ba 3d63 533d a51b f1bc cb8e efbc
000002c0: 5477 f4bc 633d 05ba 3e11 6dbd 9ea3 2b3c
000002d0: e94e c7bc 0a3f 9a3d 0e8e b7bc 855f 163d
000002e0: 8568 99ae dad0 79b1 c57f b03c 0ff9 5cbd
000002f0: f8d9 67bd 617c 89bd ee42 25bd 4581 4c3d
00000300: daa6 07bc 6681 9cbd 47f5 89b9 ff6b 37bd
00000310: 0c8c f538 3166 cfa6 62b0 47bc 9ec5 eab4
00000320: 78be 50a5 0dd1 dc3c f580 d23c 8afe 80bd
00000330: c746 83bc 5e48 1c3d 230b ebbc fe9d 67bd
00000340: 48be 62ba 9cbb 3fbb 4b6b 35a5 f685 a1bd
00000350: 4f3d 89b9 96c0 883d e881 463d 9fab 29bc
00000360: 6e92 3f3d 5cd4 1c2b 5c13 3835 191a afbb
00000370: 33b3 283d 2717 aabc fcf3 803d de19 71ba
00000380: 2599 2bbd a865 1abc b5c5 49bb 8f61 8e3b
00000390: 4860 9a3d 5a66 ae3d 18b1 0fbb 26d6 a1bb
000003a0: 3f11 2aac 785b 2bbd 0646 5bbd 559c 1fbd
000003b0: e1e0 733c 0850 c523 c1ea b1bb eee7 5ebc
000003c0: 7957 e131 6114 e03b 71e3 23ba fcf2 cc3b
000003d0: c32d 9ca5 6196 273c f027 6ebd 06dd 8f3d
000003e0: 4b03 ef2b 8a76 e23c 87b2 b7bc e8da 88a2
000003f0: 75ba 1dbc 2105 a43d 1ab9 c1bc 8ae8 3abc

encoder.mlp.4.bias f4 [256]
-0.00087895046 -0.0036609943 0.062414676 0.009873992 -0.0576804 -0.034780245 0.05267353 -0.04842301
0.032011952 -0.00084483693 -0.026137615 0.008957677 0.021215037 -6.06784e-09 -0.049826518 4.2769353e-09
-0.027398052 -0.037441712 0.045694225 0.034226246 0.0017048751 0.039458673 -0.052009817 0.01399954
0.015159207 0.049884137 -0.054970156 7.315824e-18 -0.013586894 0.020205945 0.024171496 0.042238925
1.529595e-16 0.062465712 0.06882394 -0.0049882284 0.00078449893 -0.0147541 -0.03631257 0.007890234
-0.058108978 0.053690482 -0.016140321 -0.0011566116 2.5302963e-10 -0.0006596019 0.045217667 0.023653729
-0.055835675 -9.671226e-09 -6.557486e-08 0.061186187 0.046947785 0.03745504 -0.038439263 -0.049154777
0.011126138 0.066728234 -0.04481321 0.027335174 -0.04080276 -0.025639312 -0.027314257 0.047842246
0.010981295 -0.014691707 -0.047791153 -0.018397817 0.029451743 0.04532474 0.064589925 0.040649306
0.042868953 0.01130754 0.026006736 0.0074040974 -0.022664784 -0.020027189 -0.024711281 0.038705457
0.067417115 -0.018061982 -0.024241313 -9.828875e-08 -0.05952516 -0.050597664 -0.065307364 -0.012739285
0.010822367 0.047599383 -0.05664929 0.032562196 -0.058927 0.040640373 -0.0016935329 -3.366954e-08
-0.024380438 -0.0051652174 -0.0123970555 -0.031638045 -0.066138305 0.013798969 -0.018815905 -0.04833242
-2.7016338e-09 0.03038155 -0.067731425 -0.01808427 0.03224524 -0.04546697 -4.808726e-07 0.027870523
-0.015556405 0.026443332 -1.00906e-06 -0.02204581 0.022399746 -3.9336548e-10 -0.034156956 -0.03592249
-0.04156468 -2.262531e-08 -0.008206464 -0.013833685 -0.047941756 0.024603615 0.0057331244 -0.008881203
-0.016993247 9.230473e-17 -0.050094426 0.00037621078 -1.1332705e-17 -0.006885347 0.0010023891 1.7306116e-10
-0.014795977 0.059025533 0.030297497 0.023927845 -0.04034415 -0.024872316 0.022402417 0.004305439
0.036810484 6.598805e-17 0.07389351 0.01779909 -0.055913344 0.023830974 0.011740888 0.020476721
-0.006763828 -0.023119273 0.04077105 0.061068933 0.057918344 0.047320325 3.6989175e-05 -0.008544729
1.3718498e-16 -0.0059284247 0.023793686 0.013868032 -0.019538803 -0.02830287 -0.051271364 0.058436386
0.048415333 -0.045733377 0.038559668 -0.013900624 0.041126173 -3.8975587e-11 -0.057218894 0.021844104
-0.031522494 0.030871313 0.054425687 -0.020622533 0.046807542 -5.2452656e-08 -0.058144122 -0.04504671
-0.030223804 0.030749662 -0.023277747 -1.6014415e-16 0.005957466 0.00060891354 0.03918403 -0.046149243
0.0038486007 -1.3766525e-12 0.016747782 -0.02032193 -0.057456955 0.03578082 0.011583247 -0.052329633
0.04540821 -0.06538699 -0.04911041 0.074858956 -0.014822404 -0.020873569 0.048551783 0.029243158
-0.022302581 0.031292137 -0.030167582 -3.4938652e-09 -0.045635402 0.019085916 0.014093437 0.050654825
-0.015582671 0.03708628 0.044277366 -0.016425006 0.035356432 0.036929604 -0.0111307325 -0.048949827
-0.04469821 -0.019069053 -0.04201371 -0.0068238694 -0.040254906 -0.020451663 0.042785455 0.037121914
0.034003586 0.05359209 5.2195426e-09 -0.010223896 -0.0019632175 1.1127173e-11 1.12546205e-11 0.022096734
0.057863038 -0.058499523 0.052712437 -0.009384254 0.045553446 0.060310706 -0.010517141 -0.04330511
-0.069838695 0.039339688 -0.015547419 0.045299523 1.6493294e-10 -7.069235e-17 0.009888502 0.04280875
00000000: 5e69 66ba 4bed 6fbb 88a6 7f3d 86c6 213c
00000010: 4842 6cbd bb75 0ebd 33c0 573d 3557 46bd
00000020: f71e 033d 0c78 5dba 8d1e d6bc 38c3 123c
00000030: 28cb ad3c 497d d0b1 e416 4cbd 52f4 9231
00000040: e171 e0bc 7b5c 19bd de29 3b3d d230 0c3d
00000050: 1e76 df3a 6b9f 213d 3f08 55bd 545e 653c
00000060: 535e 783c 4f53 4c3d 6328 61bd 01f4 0623
00000070: 909b 5ebc f086 a53c 4d03 c63c b902 2d3d
00000080: ad59 3025 0cdc 7f3d 91f3 8c3d 4b74 a3bb
00000090: d5a6 4d3a 2ebb 71bc 7dbc 14bd 0a46 013c
000000a0: ae03 6ebd 8dea 5b3d b538 84bc 7299 97ba
000000b0: c11a 8b2f 22e9 2cba 2936 393d 77c5 c13c
000000c0: f3b3 64bd 8026 26b2 29d2 8cb3 5e9e 7a3d
000000d0: 524c 403d 756a 193d 7d72 1dbd 8556 49bd
000000e0: 684a 363c d0a8 883d 0e8e 37bd 04ee df3c
000000f0: cb20 27bd 8909 d2bc 26c2 dfbc 3bf6 433d
00000100: e4ea 333c 7cb5 70bc a8c0 43bd 05b7 96bc
00000110: c844 f13c 6fa6 393d b947 843d e37f 263d
00000120: 5b97 2f3d 4343 393c 140c d53c 129e f23b
00000130: 7fab b9bc 0f10 a4bc 506f cabc 9d89 1e3d
00000140: fc11 8a3d b9f6 93bc b895 c6bc d012 d3b3
00000150: a7d0 73bd 7f3f 4fbd debf 85bd 6fb8 50bc
00000160: 4c50 313c 92f7 423d 1609 68bd f05f 053d
00000170: 705d 71bd 8576 263d 89f9 ddba 0d9c 10b3
00000180: 7cb9 c7bc fc40 a9bb 051d 4bbc e596 01bd
00000190: 8573 87bd 1215 623c d023 9abc 37f8 45bd
000001a0: a5a7 39b1 bae2 f83c c6b6 8abd 7725 94bc
000001b0: 9613 043d 933b 3abd 5015 01b5 b950 e43c
000001c0: 4be0 7ebc b09f d83c 0a6f 87b5 6a99 b4bc
000001d0: ac7f b73c 4541 d8af 2ae8 0bbd 7623 13bd
000001e0: ba3f 2abd 9559 c2b2 6874 06bc aea6 62bc
000001f0: 935e 44bd 858d c93c efdc bb3b 7782 11bc
00000200: 6c35 8bbc 18d7 d424 d02f 4dbd 283e c539
00000210: 300d 51a3 7a9e e1bb 9962 833a 6348 3e2f
00000220: d36a 72bc c2c4 713d 7532 f83c 5404 c43c
00000230: e83f 25bd 07c1 cbbc 4685 b73c a414 8d3b
00000240: 97c6 163d 7828 9824 7b55 973d 66cf 913c
00000250: 6405 65bd 2d39 c33c da5c 403c ccbe a73c
00000260: 1aa3 ddbb a164 bdbc 8bff 263d 6b23 7a3d
00000270: c93b 6d3d f5d2 413d d324 1b38 31ff 0bbc
00000280: dc29 1e25 3b43 c2bb faea c23c be36 633c
00000290: d70f a0bc 6cdb e7bc ec01 52bd fe5a 6f3d
000002a0: 284f 463d ec52 3bbd bef0 1d3d 71bf 63bc
000002b0: eb73 283d 9c6a 2bae 5c5e 6abd 68f2 b23c
000002c0: bb1d 01bd d6e5 fc3c 78ed 5e3d 96f0 a8bc
000002d0: 44b9 3f3d 4e48 61b3 8828 6ebd e682 38bd
000002e0: e997 f7bc b7e6 fb3c f9b0 bebc 36a2 38a5
000002f0: d936 c33b 7f9f 1f3a 6f7f 203d fd06 3dbd
00000300: ce38 7c3b 22bf c1ab a532 893c 2d7a a6bc
00000310: fc57 6bbd e98e 123d a9c7 3d3c 9957 56bd
00000320: f6fd 393d 9de9 85bd ff27 49bd a74f 993d
00000330: abd9 72bc 0cff aabc 3cde 463d 598f ef3c
00000340: e7b3 b6bc 2f2c 003d 0122 f7bc ba18 70b1
00000350: 30ec 3abd 115a 9c3c 29e8 663c 6f7b 4f3d
00000360: 764e 7fbc c8e7 173d 2f5c 353d bc8d 86bc
00000370: e8d1 103d 7f43 173d ad5d 36bc 9d7f 48bd
00000380: 7815 37bd b436 9cbc 9116 2cbd c49a dfbb
00000390: 54e2 24bd 3f8a a7bc cd3f 2f3d 260d 183d
000003a0: 5847 0b3d 6183 5b3d 9557 b331 2182 27bc
000003b0: 53a9 00bb 55c0 432d 4efe 452d 3604 b53c
000003c0: cb01 6d3d 329d 6fbd ffe8 573d 6ac0 19bc
000003d0: 4096 3a3d 5c08 773d 1650 2cbc b360 31bd
000003e0: 9707 8fbd a722 213d 9aba 7ebc fe8b 393d
000003f0: 7f58 352f 6601 a3a4 6203 223c 3a58 2f3d

pos_mlp.0.weight f4 [32, 1]
0.8054689 -0.15815458 0.99453574 -0.015128938 -0.011134861 0.0049547264 0.671227 0.5125471
-0.9241469 -0.090091616 0.0005763458 1.4613638e-09 -9.733959e-15 0.058361262 -0.046117924 -0.36770326
1.418669e-11 0.60582596 -0.32381237 -0.13168074 -0.546117 0.59044474 -0.0018703302 6.2030715e-08
6.719016e-05 1.0393249 0.41097233 -0.33271503 0.25991982 -0.19590248 -0.5089264 -0.0035769527
00000000: 3633 4e3f 46f3 21be e599 7e3f 5ddf 77bc
00000010: fe6e 36bc 425b a23b 88d5 2b3f 4936 033f
00000020: e494 6cbf f481 b8bd e915 173a 2bd9 c830
00000030: f659 2fa8 380c 6f3d 26e6 3cbd 9a43 bcbe
00000040: 2c93 792d 6917 1b3f bcca a5be 51d7 06be
00000050: 53ce 0bbf 6327 173f de25 f5ba bf35 8533
00000060: 71e8 8c38 9908 853f f76a d23e a059 aabe
00000070: 3614 853e a99a 48be 0049 02bf 4f6b 6abb

pos_mlp.0.bias f4 [32]
0.3744066 0.08736356 0.4104956 -0.3576322 -0.0019466901 -0.04317621 0.16036521 -0.014847288
0.8545645 -0.00078155583 -0.079287864 -2.2773459e-06 -0.0014069487 -0.17631902 -0.32949814 0.9394706
-0.022448277 0.3838254 -5.9015864e-10 -0.09438483 0.5338556 -0.038517497 -0.37348533 -0.38500914
-0.0014755301 -0.13384803 0.5149476 -0.15137504 -0.37197444 -0.17618333 0.97679096 -0.107857406
00000000: 39b2 bf3e abeb b23d 7b2c d23e 911b b7be
00000010: 1528 ffba 8ad9 30bd c736 243e 0a42 73bc
00000020: bdc4 5a3f 53e1 4cba ad61 a2bd 81d4 18b6
00000030: 5d69 b8ba f98c 34be fbb3 a8be 2581 703f
00000040: 73e5 b7bc c384 c43e b938 22b0 d54c c1bd
00000050: c3aa 083f 86c4 1dbd 7839 bfbe eb1f c5be
00000060: 9366 c1ba 750f 09be 9bd3 033f 0f02 1bbe
00000070: 6f73 bebe 6769 34be f90e 7a3f 58e4 dcbd

pos_mlp.2.weight f4 [32, 32]
0.0127723 0.07661403 -0.09709954 -1.1724178e-05 0.0007407089 8.779897e-05 -0.07225069 -0.16955619
0.241016 3.630782e-16 0.0008820012 3.370756e-05 -1.7736715e-20 -8.4395384e-07 -3.3555727e-09 0.132201
-9.8742416e-17 -0.0008527981 1.5210286e-13 -0.00032310942 0.23450737 -0.2764844 -2.6561132e-16 -0.00034263814
-4.6220973e-16 -0.25284654 0.1329175 8.819118e-16 3.0147796e-05 -7.757091e-05 0.33185118 1.8474786e-16
0.355197 -0.077120684 0.06662814 -0.00012797504 -3.5162227e-17 -0.00044098016 0.31553203 0.33699676
-0.16463754 7.042951e-17 6.5932945e-17 -0.00071266777 -1.4173558e-05 -7.7334616e-14 6.4841013e-09 -0.0035772184
3.7640854e-12 0.12691262 4.734173e-05 8.129291e-11 -0.34306017 0.31574208 -2.9073601e-15 0.00047665084
-1.5145885e-17 0.22912969 0.06371403 -8.0665125e-17 -0.00073587685 7.620986e-05 -0.033665996 0.00032086042
0.21297373 -0.057769924 0.14040238 -2.547521e-17 8.789402e-17 1.849423e-14 0.3183335 0.29486424
-0.33263105 3.5032025e-17 -1.7613977e-17 -2.8048546e-17 -5.1663352e-12 -2.717271e-05 -9.853419e-07 -0.05538958
7.905564e-16 0.24850331 -3.259602e-16 -1.2322545e-07 -0.12079464 0.1188192 1.0095671e-15 6.639979e-05
-9.854895e-16 0.25547042 0.18747383 -7.0146726e-08 1.8052518e-07 -6.1594976e-05 -0.16791523 2.1160466e-16
0.050559547 -0.042854413 0.052078623 4.3670325e-06 1.9268741e-06 8.601773e-13 0.052941147 0.054227978
-0.0533294 -3.9672627e-06 -2.1137916e-17 9.593575e-18 2.0907262e-05 0.00013870647 -3.291826e-08 -0.04151841
-0.000149879 0.052349575 -0.0006354125 9.661394e-06 -0.051442236 0.055086702 -7.458865e-07 5.355225e-05
3.0570194e-15 0.053666975 0.051204275 2.1437017e-05 8.4764014e-07 -1.3859081e-05 -0.0466277 1.926103e-14
0.16134375 -0.058324024 0.34482446 -2.5153469e-17 5.0270606e-05 -2.0716477e-07 0.35683918 0.24242589
-0.2583581 2.4518167e-07 0.00035648665 -6.17687e-17 9.2210336e-17 -8.9180896e-05 3.3941441e-16 -0.02404801
1.2488225e-15 0.17029256 -0.0006249759 -4.1502765e-10 -0.26407063 0.20339924 5.4525364e-16 -3.8185077e-05
5.2164746e-16 0.19396804 0.32007137 1.490456e-16 -3.006878e-15 -9.772261e-09 -0.19327544 -0.00011508655
-0.04337394 0.06902827 -0.05960819 1.02372296e-16 -1.0940415e-16 0.0001396422 -0.085312515 -0.103381865
0.10841215 -1.6492483e-16 3.156341e-10 -4.518379e-08 0.0006027091 6.5933197e-19 -4.691416e-13 0.10802936
-2.7486683e-15 0.019348782 -8.877057e-07 -2.3597062e-07 0.1169455 -0.10528807 -8.41164e-09 2.462928e-08
-0.00014668427 -0.10740475 0.08554087 6.73938e-05 2.1775094e-08 0.0002395871 0.1004051 0.00015279811
0.36771414 -0.07384786 0.2681977 2.930966e-06 -2.764575e-16 -5.005236e-18 0.22642533 0.14167492
-0.28885734 7.953939e-15 -0.0001085662 2.7178382e-15 0.0003178646 -0.00031982255 2.5293373e-17 -0.020897912
0.00010932359 0.18979007 -1.6379896e-19 2.738739e-06 -0.22611615 0.18310225 -0.00043067886 -7.168264e-06
0.00062482664 0.34805542 0.2329834 3.0691755e-08 -0.0002238097 -0.00018491395 -0.13311966 -7.2492602e-12
2.9262925e-12 7.541161e-17 -0.00045281806 -0.00015017763 -6.9903736e-11 1.651024e-06 2.581624e-05 -3.3400557e-17
1.4135499e-05 -0.0007479242 -0.00035094045 4.8175818e-05 -0.00034069165 -1.4930675e-10 2.9830668e-05 6.223427e-18
-3.0302883e-06 -3.296368e-15 1.5718465e-14 8.6646547e-16 -4.297065e-05 -1.9977324e-16 -4.033566e-06 0.00015914245
-4.741799e-17 2.39219e-07 0.0001266668 1.1135569e-16 -2.0399825e-06 0.0006740153 -1.0006473e-09 1.6987055e-05
00000000: e942 513c d1e7 9c3d 20dc c6bd f6b2 44b7
00000010: 222c 423a b720 b838 2bf8 93bd 23a0 2dbe
00000020: e6cc 763e e34c d125 1936 673a 3861 0d38
00000030: bf84 a79e 118c 62b5 dc97 66b1 b35f 073e
00000040: 3caf e3a4 508e 5fba aa40 2b2a 0367 a9b9
00000050: b322 703e 5d8f 8dbe 501d 99a5 1da4 b3b9
00000060: 0f39 05a6 1a75 81be 861b 083e 9b31 7e26
00000070: e6e5 fc37 91ad a2b8 66e8 a93e f2ff 5425
00000080: 62dc b53e 73f1 9dbd 5674 883d 0a31 06b9
00000090: 3b28 22a4 5b33 e7b9 6a8d a13e d78a ac3e
000000a0: be96 28be 3f66 a224 f107 9824 53d2 3aba
000000b0: f8ca 6db7 5f24 aea9 c2ca de31 c46f 6abb
000000c0: de6f 842c 62f5 013e cc90 4638 d7c3 b22e
000000d0: 95a5 afbe f2a8 a13e 547f 51a7 fee6 f939
000000e0: 36b2 8ba3 f9a0 6a3e 807c 823d 4900 baa4
000000f0: dce7 40ba dbd2 9f38 5be5 09bd 2839 a839
00000100: c915 5a3e 28a0 6cbd a4c5 0f3e a4f7 eaa3
00000110: 79ab ca24 ca94 a628 9cfc a23e 72f8 963e
00000120: 9e4e aabe 848e 2124 d475 a2a3 e159 01a4
00000130: 36c6 b5ac f3f0 e3b7 1740 84b5 2fe0 62bd
00000140: c4dc 6326 a777 7e3e 3ce7 bba5 f44f 04b4
00000150: 2e63 f7bd 7b57 f33d 747e 9126 1e40 8b38
00000160: 2506 8ea6 05cd 823e 24f9 3f3e 92a3 96b3
00000170: 62d6 4134 8d2c 81b8 f8f1 2bbe acf6 7325
00000180: 8717 4f3d 1c88 2fbd 6550 553d 8688 9236
00000190: 724f 0136 4f1e 722b d1d8 583d 281e 5e3d
000001a0: ee6f 5abd 871e 85b6 7ef6 c2a3 61f8 3023
000001b0: 0162 af37 bc71 1139 0262 0db3 350f 2abd
000001c0: d628 1db9 826c 563d d091 26ba 5f17 2237
000001d0: 18b5 52bd 98a2 613d ee38 48b5 4a9d 6038
000001e0: 0e48 5c27 e7d1 5b3d 93bb 513d a5d3 b337
000001f0: 6389 6335 4d84 68b7 b0fc 3ebd e97c ad28
00000200: 4c37 253e 2ce5 6ebd d58c b03e f3ff e7a3
00000210: a7d9 5238 0571 5eb4 a0b3 b63e 7e3e 783e
00000220: 8347 84be 83a1 8334 d4e6 ba39 ce6d 8ea4
00000230: 609f d424 a106 bbb8 baa8 c325 5500 c5bc
00000240: 6bf9 b326 2c61 2e3e 6cd5 23ba f329 e4af
00000250: 4434 87be e447 503e 9e28 1d26 ea28 20b8
00000260: ca5a 1626 8f9f 463e 65e0 a33e 7fd6 2b25
00000270: 1cab 58a7 dce2 27b2 ffe9 45be 9f5a f1b8
00000280: dfa8 31bd b25e 8d3d b827 74bd f00d ec24
00000290: d044 fca4 eb6c 1239 54b8 aebd dfb9 d3bd
000002a0: 3007 de3d 3825 3ea5 8d85 ad2f 1a10 42b3
000002b0: 1fff 1d3a b799 4221 370d 04ab 7f3e dd3d
000002c0: fb0f 46a7 5681 9e3c ac4a 6eb5 1c5f 7db4
000002d0: 1f81 ef3d 46a1 d7bd c982 10b2 5c90 d332
000002e0: 42cf 19b9 06f7 dbbd 0d30 af3d c555 8d38
000002f0: f00b bb32 ac39 7b39 30a1 cd3d 6e38 2039
00000300: 0745 bc3e 8c3d 97bd 3551 893e 9db1 4436
00000310: ed5d 9fa5 1ea9 b8a2 0bdc 673e 3b13 113e
00000320: 1ce5 93be 1249 0f28 09ae e3b8 44d7 4327
00000330: 10a7 a639 dbad a7b9 4a4a e923 1932 abbc
00000340: a844 e538 5458 423e 3361 41a0 2ecb 3736
00000350: fe8a 67be 287f 3b3e bdcc e1b9 eb86 f0b6
00000360: 68cb 233a 5234 b23e 3393 6e3e f1d1 0333
00000370: 75ae 6ab9 76e5 41b9 8550 08be 880f ffac
00000380: 66eb 4d2c 28e3 ad24 3668 edb9 0079 1db9
00000390: 4eb8 99ae c198 dd35 f48f d837 6b08 1aa4
000003a0: 8227 6d37 5810 44ba 6efe b7b9 6410 4a38
000003b0: dc9e b2b9 1d2a 24af df3c fa37 9b9a e522
000003c0: f55b 4bb6 4287 6da7 5094 8d28 debd 7926
000003d0: 623b 34b8 a752 66a5 1158 87b6 7adf 2639
000003e0: 48ad 5aa4 026e 8034 dcd1 0439 6662 0025
000003f0: a2e6 08b6 67b0 303a 2687 89b0 6c7f 8e37

pos_mlp.2.bias f4 [32]
0.104330264 0.07327241 0.08543103 0.04149945 -0.026375664 0.10300058 0.108291775 -1.8123628e-06
-0.042604 0.20399573 0.03878139 0.07742098 3.6084474e-16 0.0013587507 0.03761703 0.30852923
0.16065839 -0.060997996 -0.00056308997 0.093526214 0.07604291 0.31730896 0.19458415 -2.704429e-05
-1.4440778e-05 0.046073426 -4.576965e-08 0.07669305 0.054155298 -0.0008529728 0.100905105 0.18983215
00000000: 1bab d53d d80f 963d 77f6 ae3d 54fb 293d
00000010: c711 d8bc f8f1 d23d 14c8 dd3d 5040 f3b5
00000020: 8881 2ebd 42e4 503e 3cd9 1e3d e48e 9e3d
00000030: 4903 d025 1c18 b23a 5114 1a3d 8bf7 9d3e
00000040: a283 243e 09d9 79bd 549c 13ba ac8a bf3d
00000050: 63bc 9b3d 5276 a23e 1141 473e 2cdd e2b7
00000060: ab46 72b7 7db7 3c3d 4394 44b3 3f11 9d3d
00000070: f2d1 5d3d 099a 5fba 56a7 ce3d 5c63 423e

dec_trunk.0.weight f4 [128, 288]
0.0033037341 0.02540836 0.015957184 0.031555634 0.03913515 0.0025464464 -0.026315212 -0.06089939
0.05780078 -0.0063372524 -0.0428013 -0.018806702 -0.015131311 7.7898056e-07 -0.0050918977 4.0136674e-05
0.001022178 -0.027242327 0.029391572 -0.0050099464 -0.0013464328 -0.054746587 0.027850205 -0.039265998
0.0053336015 -0.020376468 0.046323217 1.6258227e-17 -0.058128677 2.6643088e-06 -0.04664927 -0.020213397
-1.848008e-17 -0.024327368 0.051681653 -0.03953866 0.019005759 -0.0018377894 -0.03801085 -0.036218278
-0.020983208 0.016367512 0.030621322 -0.029789777 -1.4545427e-09 -0.010605576 -0.025145829 -0.026935335
-0.054854468 -7.6290835e-11 6.349721e-08 -0.024345998 -0.050205454 0.00777117 0.021873396 0.047785453
0.019841943 0.05372325 -0.047704484 -0.029384421 -0.02443477 -0.037300058 0.019043505 -0.02304377
-0.043211024 -0.021150634 0.028964339 0.06037938 0.035641022 -0.042247582 -0.0049547846 -0.02644026
-0.023341514 0.018047128 0.010876423 0.027612297 0.023050053 -0.060955904 -0.045255076 -0.0143115
-0.009729347 -0.028654216 -0.013950751 -7.3457046e-17 -0.015514197 0.022596635 -0.032035355 0.060522757
-0.044674616 0.0423534 0.052781243 0.0385741 0.065480314 -0.014956609 -0.023242056 -3.0905575e-08
0.040485058 -0.0023462998 -0.053539 0.019845976 -0.015287278 0.04452617 0.004423088 -0.052726462
3.3303593e-09 -0.027289202 0.00024069205 0.047068466 0.008425557 -0.026533868 -8.783679e-06 0.0035029333
0.014829846 -0.0004206767 -1.5681915e-05 -0.045863442 0.0494234 2.1722732e-05 0.061469924 0.011662762
0.02637118 1.8182341e-07 0.058523655 0.004397545 0.058297828 0.014153196 -0.040181976 0.051045105
0.055174135 -2.627072e-16 -0.051201403 0.047939703 6.2401883e-17 0.05421989 2.5895858e-06 6.854094e-10
0.005334649 0.022996144 0.026299236 -0.0441083 0.02337374 -0.034813296 -0.011352778 -0.047019374
-0.032976538 -9.636336e-18 -0.0014947475 0.026661007 0.045971185 0.049414176 -0.02002042 -0.025459155
0.049524117 0.031961806 0.0012859483 -0.032431595 0.038750537 -0.0022546023 9.227364e-05 0.02572656
-8.723446e-17 0.04538737 0.055192117 0.013415898 -0.037186183 -0.037049696 -0.017464016 -5.9095437e-05
0.025038851 -0.023554036 -0.044953354 0.060338207 -0.044897392 -8.763275e-12 0.052210547 0.001604818
0.0029112422 0.003099372 -0.019521922 0.0057442538 0.011195035 4.0620227e-05 0.029671192 -0.047597792
-0.03796061 -0.02488812 -0.023640024 3.4221957e-16 0.019918643 -0.029477207 -0.021438114 -0.0037708941
0.01834418 3.2434966e-06 0.027017428 0.003161884 -0.036975775 0.0021446832 0.0032762545 -0.0035891975
0.049960643 0.0071738684 0.011909629 -0.016273033 -0.0013381268 -0.02774673 -0.049115334 0.021941682
-0.018597977 0.029723674 0.018339636 0.00033625079 0.032439455 -0.02898258 0.023643551 0.039593983
-0.029890673 -0.03774663 0.05489717 -0.0417108 0.014730945 0.024971044 -0.016017128 0.019239014
-0.02972314 -0.05643481 0.042203635 -0.020060675 -0.04760622 0.058461722 0.060865846 -0.027353818
0.048567094 0.014487032 9.5911784e-14 0.014068015 -0.0049053314 1.8665227e-11 1.0017608e-15 -0.0062209354
-0.04737297 0.060355812 -0.053852167 -0.0405204 0.060554042 -0.028834704 -0.041591696 0.0021943816
-0.0107839145 0.014122008 0.02272625 0.04345077 -3.3799523e-09 -1.2187547e-12 -0.016789706 0.026088482
00000000: 7683 583b 3125 d03c a4b8 823c 7b40 013d
00000010: 2e4c 203d 48e2 263b 0093 d7bc a471 79bd
00000020: 83c0 6c3d baa8 cfbb 6a50 2fbd 8310 9abc
00000030: 51e9 77bc 231b 5135 efd9 a6bb 6d58 2838
00000040: 9afa 853a 4d2b dfbc 98c6 f03c 7a2a a4bb
00000050: ca7a b0ba f53d 60bd 1d26 e43c 62d5 20bd
00000060: 7ec5 ae3b 8dec a6bc 6abd 3d3d a7f4 9523
00000070: 5618 6ebd 7acc 3236 4e13 3fbd 9196 a5bc
00000080: db72 aaa3 304a c7bc 24b0 533d 4af3 21bd
00000090: f7b1 9b3c fbe1 f0ba 44b1 1bbd 9e59 14bd
000000a0: fae4 abbc 2915 863c 91d9 fa3c b109 f4bc
000000b0: 2ce9 c7b0 03c3 2dbc a0fe cdbc 7ea7 dcbc
000000c0: 14af 60bd ecc3 a7ae f65b 8833 4271 c7bc
000000d0: 3ca4 4dbd 4da5 fe3b d62f b33c aeba 433d
000000e0: 928b a23c e90c 5c3d c765 43bd 99b7 f0bc
000000f0: 6d2b c8bc f2c7 18bd 2001 9c3c 4ac6 bcbc
00000100: 0bfe 30bd 1844 adbc 9f46 ed3c 5e50 773d
00000110: 52fc 113d cd0b 2dbd bf5b a2bb 3e99 d8bc
00000120: b436 bfbc 92d7 933c 0633 323c 2f33 e23c
00000130: 77d3 bc3c e6ac 79bd 635d 39bd c87a 6abc
00000140: d767 1fbc 3fbc eabc b191 64bc 6361 a9a4
00000150: 422f 7ebc 941c b93c 8137 03bd b6e6 773d
00000160: bbfc 36bd c27a 2d3d 2531 583d e0ff 1d3d
00000170: 8b1a 863d 910c 75bc 2066 bebc 0abd 04b3
00000180: a9d3 253d 61c4 19bb b64b 5bbd 0794 a23c
00000190: 7e77 7abc 1361 363d 8def 903b b4f7 57bd
000001a0: 4ddc 6431 9b8d dfbc 4862 7c39 ddca 403d
000001b0: 590b 0a3c 8e5d d9bc 9d5d 13b7 7891 653b
000001c0: e2f8 723c 458e dcb9 a88c 83b7 4edb 3bbd
000001d0: 3170 4a3d 3639 b637 e3c7 7b3d 2b15 3f3c
000001e0: 5f08 d83c 3d3b 4334 80b6 6f3d 4819 903b
000001f0: b4c9 6e3d cee2 673c db95 24bd ac14 513d
00000200: 46fe 613d bd70 97a5 90b8 51bd 6c5c 443d
00000210: 92e3 8f24 ad15 5e3d bfc8 2d36 6667 3c30
00000220: 47ce ae3b 6962 bc3c 7f71 d73c e8aa 34bd
00000230: 497a bf3c 6398 0ebd 0101 3abc 6397 40bd
00000240: 6812 07bd 4fc2 31a3 67eb c3ba 2f68 da3c
00000250: 484c 3c3d 8566 4a3d dd01 a4bc b88f d0bc
00000260: cdd9 4a3d 62ea 023d 448d a83a fed6 04bd
00000270: e2b8 1e3d f3c1 13bb 0983 c138 82c0 d23c
00000280: 2326 c9a4 1be8 393d 2111 623d 5bce 5b3c
00000290: 8a50 18bd 6cc1 17bd b210 8fbc 3edd 77b8
000002a0: 471e cd3c 65f4 c0bc 0221 38bd 3225 773d
000002b0: 54e6 37bd 482a 1aad bada 553d c258 d23a
000002c0: 8aca 3e3b d51e 4b3b 70ec 9fbc 4b3a bc3b
000002d0: 616b 373c a35f 2a38 0011 f33c e7f5 42bd
000002e0: 967c 1bbd 2ce2 cbbc b9a8 c1bc b246 c525
000002f0: 6c2c a33c 2f7a f1bc fc9e afbc 1b21 77bb
00000300: 8946 963c d9aa 5936 a753 dd3c 9c37 4f3b
00000310: e973 17bd d08d 0c3b 6eb6 563b be38 6bbb
00000320: 88a3 4c3d c512 eb3b 9b20 433c 064f 85bc
00000330: 1664 afba 1c4d e3bc 292d 49bd 0bbf b33c
00000340: c95a 98bc 107f f33c 013d 963c d14a b039
00000350: 3cdf 043d e06c edbc 1fb0 c13c 4d2d 223d
00000360: 49dd f4bc 369c 1abd dbdb 603d f2d8 2abd
00000370: 105a 713c 1390 cc3c 5a36 83bc 239b 9d3c
00000380: f17d f3bc 3028 67bd b8dd 2c3d 4956 a4bc
00000390: bdfe 42bd 8f75 6f3d 774e 793d 1d15 e0bc
000003a0: 4aee 463d 045b 6d3c 61f9 d729 887d 663c
000003b0: e7bc a0bb 5b2e a42d 735e 9026 fdd8 cbbb
000003c0: 290a 42bd a837 773d 1794 5cbd b8f8 25bd
000003d0: 8407 783d c236 ecbc 0e5c 2abd 9dcf 0f3b
000003e0: 04af 30bc ff5f 673c 672c ba3c 6ff9 313d
000003f0: c044 68b1 4486 abab 918a 89bc 83b7 d53c

dec_trunk.0.bias f4 [128]
0.006923073 3.5589834e-05 0.031096242 0.050129227 0.017443027 2.8497445e-06 0.047296893 -3.4818037e-09
0.010695352 6.4831125e-05 -5.243061e-10 -0.051480886 0.013036975 0.04166432 -3.82811e-06 -1.4976601e-08
0.040042553 0.036402714 -0.041514397 0.007477348 -9.233828e-06 -0.0087417625 0.029342998 -6.129168e-06
0.03462297 0.020976549 -0.050617367 0.017864209 -1.2128649e-07 0.04012348 0.04384349 -2.503051e-06
-0.04779361 1.0209986e-07 -0.022362659 1.5755161e-06 0.044903632 0.0010956964 0.020933473 -1.5301542e-09
0.0015276183 -0.0039039275 -4.286677e-08 0.030528212 -5.7353784e-08 0.023376709 -2.7478536e-05 0.014280656
-0.018046843 -5.4037834e-08 0.025391812 0.0064598043 -0.034453444 -1.090664e-17 -0.00018565082 0.038125552
0.016581846 -0.028437285 -0.0013523033 0.016866911 0.016031204 0.017684627 0.011328628 -8.963376e-08
-0.0045511257 -4.5943616e-06 -0.047373977 -3.3019536e-05 -0.03633795 0.02086176 -0.00013353427 -0.016697083
0.006999789 0.004942175 -2.0697262e-09 -4.3321527e-12 -5.146991e-05 1.3257206e-08 0.020282105 0.047530025
0.0048921253 1.322474e-05 0.012117439 0.031984754 -3.9757624e-06 -1.915821e-09 0.038237248 -1.7741842e-06
-0.012237744 0.041281004 -0.018556384 -1.0425017e-08 -9.977392e-10 -1.1613758e-09 0.019989885 -3.921613e-09
-0.04170143 0.055044666 -2.9932531e-05 -0.013382778 -8.44331e-09 0.048841923 0.04633373 3.6095183e-12
0.041379772 -4.3122523e-05 -0.025986029 -4.7519497e-05 -4.2552525e-08 1.644463e-09 -3.405345e-08 -0.03788639
-0.003561238 -0.020832656 0.024585925 0.0011311171 0.05107907 -0.041484825 0.0025973557 -2.2831002e-09
3.7061826e-10 -7.1405236e-07 -7.0802205e-05 0.03314079 -0.020859238 0.0045964285 -0.009567036 -2.0425097e-09
00000000: f2da e23b 4b46 1538 8cbd fe3c 4e54 4d3d
00000010: aee4 8e3c 3d3e 3f36 63ba 413d 8a44 6fb1
00000020: 8f3b 2f3c f2f5 8738 c31e 10b0 9fdd 52bd
00000030: 0999 553c 35a8 2a3d 3773 80b6 e5a5 80b2
00000040: a903 243d 031b 153d 000b 2abd 8b04 f53b
00000050: fdea 1ab7 9c39 0fbc ba60 f03c 27a9 cdb6
00000060: d1d0 0d3d 03d7 ab3c 2854 4fbd f657 923c
00000070: fa3a 02b4 8558 243d 3b95 333d 17fa 27b6
00000080: 3bc3 43bd fe41 db33 e531 b7bc 5276 d335
00000090: dfec 373d 789d 8f3a ad7c ab3c 844d d2b0
000000a0: 5d3a c83a 09d9 7fbb 831c 38b3 4d16 fa3c
000000b0: 2755 76b3 8380 bf3c b581 e6b7 6af9 693c
000000c0: f9d6 93bc 3a17 68b3 7d02 d03c c4ac d33b
000000d0: 0e1f 0dbd 2731 49a3 43ab 42b9 8a29 1c3d
000000e0: a7d6 873c 4ff5 e8bc c53f b1ba 7a2c 8a3c
000000f0: df53 833c 5adf 903c b69b 393c ae7c c0b3
00000100: 9c21 95bb 4429 9ab6 370b 42bd 757e 0ab8
00000110: 1ad7 14bd 48e6 aa3c 5505 0cb9 52c8 88bc
00000120: 7c5e e53b f8f1 a13b 023b 0eb1 906c 98ac
00000130: 65e1 57b8 cfc1 6332 a826 a63c d8ae 423d
00000140: 1f4e a03b d3df 5d37 3988 463c 7202 033d
00000150: 8a67 85b6 7ba7 03b1 a99e 1c3d 8120 eeb5
00000160: d280 48bc 4516 293d 8f03 98bc b619 33b2
00000170: d420 89b0 479e 9fb0 d4c1 a33c dfbe 86b1
00000180: 1ecf 2abd 8476 613d 9f17 fbb7 7043 5bbc
00000190: 120e 11b2 780e 483d 70c8 3d3d 4dff 7d2c
000001a0: d67d 293d 75de 34b8 a7e0 d4bc ac4f 47b8
000001b0: ffc2 36b3 6603 e230 2a42 12b3 c22e 1bbd
000001c0: a963 69bb 3fa9 aabc 6c68 c93c fe41 943a
000001d0: 4938 513d feeb 29bd 6638 2a3b b9e4 1cb1
000001e0: e2bf cb2f 4ead 3fb5 a57b 94b8 a3be 073d
000001f0: fee0 aabc a39d 963b 0fbf 1cbc 365c 0cb1
