pointnet/weights_per_bundle_ratio025/SLF_III_right_best.pth (torch, 359853 bytes, 17 tensors)

t_grid f4 [100]
0.0 0.01010101 0.02020202 0.030303031 0.04040404 0.05050505 0.060606062 0.07070707
0.08080808 0.09090909 0.1010101 0.11111111 0.121212125 0.13131313 0.14141414 0.15151516
0.16161616 0.17171717 0.18181819 0.1919192 0.2020202 0.21212122 0.22222222 0.23232323
0.24242425 0.25252524 0.26262626 0.27272728 0.28282827 0.2929293 0.3030303 0.3131313
0.32323232 0.33333334 0.34343433 0.35353535 0.36363637 0.37373737 0.3838384 0.3939394
0.4040404 0.41414142 0.42424244 0.43434343 0.44444445 0.45454547 0.46464646 0.47474748
0.4848485 0.4949495 0.5050505 0.5151515 0.5252525 0.53535354 0.54545456 0.5555556
0.56565654 0.57575756 0.5858586 0.5959596 0.6060606 0.61616164 0.6262626 0.6363636
0.64646465 0.65656567 0.6666667 0.6767677 0.68686867 0.6969697 0.7070707 0.7171717
0.72727275 0.7373737 0.74747473 0.75757575 0.7676768 0.7777778 0.7878788 0.7979798
0.8080808 0.8181818 0.82828283 0.83838385 0.8484849 0.85858583 0.86868685 0.8787879
0.8888889 0.8989899 0.90909094 0.9191919 0.9292929 0.93939394 0.94949496 0.959596
0.969697 0.97979796 0.989899 1.0
00000000: 0000 0000 b57e 253c b57e a53c 103e f83c
00000010: b57e 253d 62de 4e3d 103e 783d dece 903d
00000020: b57e a53d 8c2e ba3d 62de ce3d 398e e33d
00000030: 103e f83d f376 063e dece 103e ca26 1b3e
00000040: b57e 253e a0d6 2f3e 8c2e 3a3e 7786 443e
00000050: 62de 4e3e 4e36 593e 398e 633e 24e6 6d3e
00000060: 103e 783e fd4a 813e f376 863e e9a2 8b3e
00000070: dece 903e d4fa 953e ca26 9b3e bf52 a03e
00000080: b57e a53e abaa aa3e a0d6 af3e 9602 b53e
00000090: 8c2e ba3e 815a bf3e 7786 c43e 6db2 c93e
000000a0: 62de ce3e 580a d43e 4e36 d93e 4362 de3e
000000b0: 398e e33e 2fba e83e 24e6 ed3e 1a12 f33e
000000c0: 103e f83e 056a fd3e fd4a 013f f8e0 033f
000000d0: f376 063f ee0c 093f e9a2 0b3f e438 0e3f
000000e0: dece 103f d964 133f d4fa 153f cf90 183f
000000f0: ca26 1b3f c5bc 1d3f bf52 203f bae8 223f
00000100: b57e 253f b014 283f abaa 2a3f a640 2d3f
00000110: a0d6 2f3f 9b6c 323f 9602 353f 9198 373f
00000120: 8c2e 3a3f 86c4 3c3f 815a 3f3f 7cf0 413f
00000130: 7786 443f 721c 473f 6db2 493f 6748 4c3f
00000140: 62de 4e3f 5d74 513f 580a 543f 53a0 563f
00000150: 4e36 593f 48cc 5b3f 4362 5e3f 3ef8 603f
00000160: 398e 633f 3424 663f 2fba 683f 2950 6b3f
00000170: 24e6 6d3f 1f7c 703f 1a12 733f 15a8 753f
00000180: 103e 783f 0ad4 7a3f 056a 7d3f 0000 803f

encoder.mlp.0.weight f4 [64, 3]
-0.15934283 0.13831237 -0.24810277 0.54260474 -0.19720583 -0.37543726 -0.003923704 -9.7592e-07
-4.13529e-06 0.30213517 -0.0908689 -0.4570994 -0.0013612295 -4.3957016e-07 -0.0012070447 0.46225554
0.23869252 0.19699177 -0.4687723 0.38149428 -0.52613264 -0.4704914 -0.035503 0.48392054
-0.00019822028 -8.9605184e-10 -0.00023286387 0.2710529 0.16650069 -0.31654477 0.15734659 0.27930534
0.5181375 -0.13005288 0.040046018 -0.44275802 -0.40431476 -0.46196926 0.41861036 0.041949574
-0.3589365 -0.22236072 0.19352126 -0.2296269 0.08241359 -0.0021560425 -4.7621243e-06 -2.6611087e-18
-0.15062538 -0.08057558 0.09313991 -0.1405194 0.17969294 0.56899107 -0.031107325 -0.41205573
0.4838463 -0.00010231975 -5.5222197e-05 -0.00011155964 0.24808383 -0.15249267 0.38268927 0.03369315
-0.23604675 0.034548804 -0.37594247 0.2011203 -0.5163057 0.31885487 0.3210907 -0.28173998
-0.10807749 0.08547964 0.013914654 0.2801114 -0.04388844 -0.019444834 -0.349702 -0.32486296
0.25099254 -3.6499973e-06 -7.47252e-14 -8.301799e-10 0.50630695 0.2277687 0.15875307 0.26992005
-0.22762519 0.3494759 0.22490692 -0.24636193 -0.28929803 0.3546576 -0.56839436 0.3606191
0.054009985 -0.15326224 0.37818533 -0.014255085 -0.022241803 -0.2588448 -0.516126 0.3535901
0.495327 0.055237196 -0.17622462 -0.36157104 -0.42938995 0.33905134 -0.12818626 0.08182462
0.34394732 -0.3407671 0.55295044 0.10039821 0.014023092 0.4332027 0.3662435 -0.3335647
-0.5311118 0.12493437 0.57875824 -0.35681233 0.5197748 0.5126891 -0.38709712 -0.20866841
0.43286788 -0.37204066 0.19399516 0.5111449 0.06777375 -0.49739158 0.3013319 -0.53934497
0.5235029 0.3111502 0.18900178 0.5297751 -0.24605437 0.17252387 -0.120756105 -0.36807263
-1.7504334e-06 -6.2568837e-22 3.990321e-27 0.1341955 0.14684395 0.39104384 0.49141666 -0.37353265
-0.28903985 -0.26225722 -0.2748763 -0.029764004 0.4069565 -0.054091804 0.059028395 -0.0034506998
6.1739526e-32 -0.00012537476 0.19931228 -0.31814584 0.015672017 0.44319072 0.060688835 0.16025457
0.21969214 -0.33783212 -0.35104167 0.058715273 -0.088434935 0.079899 -0.3775889 0.25340024
-0.36739132 0.5301601 0.3851122 -0.113948256 -0.45141983 0.29650298 -0.4730551 0.13789532
-0.16496365 -0.48410657 -0.14959991 -0.44876343 -0.36041418 -0.08258898 -0.47184682 0.020264884
00000000: c42a 23be c2a1 0d3e a70e 7ebe 25e8 0a3f
00000010: 53f0 49be 5039 c0be 6a92 80bb 5bfc 82b5
00000020: dfc1 8ab6 76b1 9a3e 7919 babd ef08 eabe
00000030: 486b b2ba 10fe ebb4 b335 9eba c2ac ec3e
00000040: d06b 743e 36b8 493e ec02 f0be 3853 c33e
00000050: a1b0 06bf 40e4 f0be 986b 11bd 6fc4 f73e
00000060: 5ad9 4fb9 0b4e 76b0 eb2c 74b9 72c7 8a3e
00000070: 287f 2a3e 2812 a2be 771f 213e 1c01 8f3e
00000080: a9a4 043f 952c 05be 4b07 243d 2eb1 e2be
00000090: 5802 cfbe 3c87 ecbe 1954 d63e 51d3 2b3d
000000a0: 86c6 b7be 87b2 63be 702a 463e 5023 6bbe
000000b0: 75c8 a83d 644c 0dbb 56ca 9fb6 ec5a 44a2
000000c0: 8a3d 1abe cf04 a5bd 23c0 be3d 51e4 0fbe
000000d0: 6d01 383e 66a9 113f cad4 febc f8f8 d2be
000000e0: b4ba f73e 7f94 d6b8 629e 67b8 20f5 e9b8
000000f0: b009 7e3e 0a27 1cbe d9ef c33e d401 0a3d
00000100: 3db6 71be 0c83 0d3d 887b c0be 7bf2 4d3e
00000110: 9c2c 04bf f240 a33e 0066 a43e 3940 90be
00000120: bb57 ddbd f30f af3d 4afa 633c c36a 8f3e
00000130: 5dc4 33bd c64a 9fbc 240c b3be 7054 a6be
00000140: 1882 803e 7af2 74b6 2544 a8a9 b832 64b0
00000150: 559d 013f 333c 693e 2a90 223e f632 8a3e
00000160: 9416 69be 81ee b23e 004e 663e 4d46 7cbe
00000170: df1e 94be ae95 b53e 4b82 11bf 11a3 b83e
00000180: 9339 5d3d c7f0 1cbe 82a1 c13e 298e 69bc
00000190: 7134 b6bc 4e87 84be d520 04bf c309 b53e
000001a0: 809b fd3e 6640 623d 3a74 34be d71f b9be
000001b0: 00d9 dbbe 2398 ad3e 4243 03be ab93 a73d
000001c0: dd19 b03e 0679 aebe 298e 0d3f 949d cd3d
000001d0: 1cc1 653c bfcc dd3e 4584 bb3e fec8 aabe
000001e0: f1f6 07bf 97dd ff3d 8029 143f 1bb0 b6be
000001f0: f60f 053f 983f 033f 9831 c6be 2cad 55be
00000200: dca0 dd3e 1d7c bebe aba6 463e 64da 023f
00000210: f7cc 8a3d 1caa febe 2d48 9a3e 8312 0abf
00000220: 4904 063f 144f 9f3e af89 413e 579f 073f
00000230: adf5 7bbe 19aa 303e fa4e f7bd 0474 bcbe
00000240: 6ff0 eab5 4b1a 3d9c aa12 9e13 8c6a 093e
00000250: 435e 163e e636 c83e f79a fb3e ac3f bfbe
00000260: 08fd 93be 9446 86be 96bc 8cbe a4d3 f3bc
00000270: 9a5c d03e 5e8f 5dbd c2c7 713d 2325 62bb
00000280: f448 a00b 0877 03b9 8518 4c3e 03e4 a2be
00000290: 9a62 803c e5e9 e23e db94 783d c619 243e
000002a0: faf6 603e 55f8 acbe bcbb b3be 6d7f 703d
000002b0: 601d b5bd 16a2 a33d 5553 c1be adbd 813e
000002c0: b71a bcbe 93b8 073f 6d2d c53e b45d e9bd
000002d0: 8020 e7be 3dcf 973e 4734 f2be 6e34 0d3e
000002e0: 3bec 28be d1dc f7be b830 19be 52c4 e5be
000002f0: 3588 b8be 6924 a9bd e895 f1be 8b02 a63c

encoder.mlp.0.bias f4 [64]
0.18683988 0.3444168 0.0022153452 0.07683021 4.6784718e-20 0.15244149 0.27904046 0.19842835
-2.042647e-07 0.27449253 -0.06467178 0.006971547 0.033791278 -0.15986994 -0.11638207 2.6742503e-08
0.08866598 0.23688874 0.26100734 0.0026217795 -0.065783866 0.24383447 -0.13797155 -0.1945497
-0.033367794 0.32634485 -0.24516098 6.771867e-05 -0.17898443 0.29802215 0.31447756 -0.36873144
-0.2080843 0.1755405 -0.005816195 0.03032961 0.03602417 0.002494646 -0.41656342 0.33069608
-0.07359941 -0.36564758 0.1416226 -0.06563961 -0.34769097 -0.15085015 0.043644644 0.05882782
-7.053039e-10 0.30462345 0.39125946 -0.019909987 0.26573688 -0.0038717862 0.03890344 0.058719207
0.19931851 0.1891187 0.13646749 -0.08414121 -0.06710236 0.060619403 -0.0176469 0.06722473
00000000: f452 3f3e 6657 b03e 532f 113b 2859 9d3d
00000010: 41ef 5c1f 9f19 1c3e 64de 8e3e cd30 4b3e
00000020: da53 5bb4 498a 8c3e a372 84bd 9371 e43b
00000030: b968 0a3d f2b4 23be b959 eebd 63b7 e532
00000040: 8296 b53d f692 723e c1a2 853e 29d2 2b3b
00000050: b1b9 86bd beaf 793e 6a48 0dbe 0938 47be
00000060: abac 08bd ac16 a73e 7b0b 7bbe 2f04 8e38
00000070: b247 37be 5c96 983e 3403 a13e 5eca bcbe
00000080: 0d14 55be e4c0 333e c895 bebb cd75 f83c
00000090: 158e 133d 377d 233b cd47 d5be ff50 a93e
000000a0: 4abb 96bd 2936 bbbe 8405 113e 0f6e 86bd
000000b0: 8d04 b2be 7678 1abe bac4 323d 71f5 703d
000000c0: 5adf 41b0 9bf7 9b3e 2953 c83e 451a a3bc
000000d0: aa0e 883e cbbd 7dbb 3759 1f3d 8d83 703d
000000e0: 271a 4c3e 55a8 413e 22be 0b3e 3a52 acbd
000000f0: f66c 89bd 0d4c 783d 3b90 90bc 1fad 893d

encoder.mlp.2.weight f4 [128, 64]
-0.03882004 0.083140574 6.106105e-32 0.06994717 1.7399428e-31 -0.045060586 -0.054461222 -0.001645864
4.999749e-20 0.06587162 -0.015108882 -0.0023346744 -0.013525118 -0.049723636 -0.109821565 -6.7047053e-25
1.4791647e-11 -0.048360158 -0.055714995 5.6860978e-11 -0.10408431 0.021726083 0.046410825 0.020499326
0.007902943 0.11298935 0.00074596814 2.5547891e-33 0.023366103 -0.066704825 0.010066403 -0.020369524
-0.039844777 0.010143853 0.026071422 0.045200177 0.019965764 0.018810652 0.015111468 -0.07095246
0.013827933 0.048207037 -0.00022147395 0.028912539 -0.032140933 -0.04096456 0.11423981 -0.039761927
-2.767342e-21 0.034753636 -0.021503124 5.3267263e-14 -0.08026979 3.7840823e-21 0.049567416 0.00409114
-0.006728671 -0.017918717 0.008127187 0.1372399 0.036929354 0.05045882 0.014521981 0.017005961
0.061414726 -0.109201826 -3.295969e-27 0.033842847 6.9627146e-33 0.055560417 0.027918583 0.053162035
-9.926145e-34 0.03418026 0.09841179 0.030702354 0.06768415 0.006483295 0.09420375 2.1117683e-33
0.03308075 0.10739172 -0.013181751 -6.2352186e-08 -0.043150496 0.012331981 0.046598323 -0.090462856
0.023064917 0.08269626 0.06857614 4.8339415e-29 -0.016026681 -0.080921195 -0.10066601 0.032508183
-0.07829092 -0.028855288 0.07582767 -0.04299513 0.061357334 -0.034079928 -0.09998988 0.11307106
0.094315566 0.12660569 -0.00031427795 0.1029839 0.07268536 -0.008951776 0.09324539 -0.0068474123
-8.5781136e-15 -0.10413579 -0.005748039 0.004803907 0.0733585 -5.634151e-32 -0.12964246 0.09286097
-0.044687286 -0.00050977984 0.019809943 -0.0023930173 -0.027213676 0.05406222 -0.00013586356 -0.09104825
-0.0073105325 0.062515095 8.379838e-30 0.0044500893 -5.4070645e-16 -0.008463408 -0.0046557696 -0.009783648
-4.1423683e-31 0.004484788 0.040634494 -0.0040839454 -0.000867097 -0.002489053 -0.025257997 -1.3975824e-16
-7.458178e-05 0.075913034 0.03664095 -1.3948592e-12 -0.029859582 -0.10421838 0.0002880994 0.0062766857
-0.0020934 0.052605998 -0.015512473 1.0739741e-24 -0.045313776 0.06826314 0.005058447 -0.1134867
-0.06265695 -0.00061025476 0.0028235284 0.0035574231 -0.0021690659 0.0033935052 -0.064635076 -0.036841184
0.0001988743 -0.02335415 0.03363198 -0.015473321 0.09104413 0.004817133 0.0023341984 0.004902147
-2.016006e-18 0.078060254 0.08448701 6.2329845e-27 -0.07126515 2.4616112e-34 -0.06837848 0.018742915
0.039270006 0.0071605886 0.0004278708 0.031845693 0.0003908578 0.004405151 -8.1223925e-19 -0.06272991
0.08105763 -0.096343175 1.1152744e-30 0.07556341 6.722509e-32 0.020069221 0.005127188 0.015873112
5.913823e-24 -0.0045228614 -0.031522624 0.055659514 -0.08068382 -0.069210835 0.02064332 5.7247007e-22
0.006469281 0.12121219 0.054905757 -9.16989e-08 0.08884677 0.015147951 0.04171993 0.062313046
0.017513001 0.05832531 0.022720832 4.5307934e-32 -0.090023115 0.03218607 -0.011307467 0.06937582
0.049635246 0.09251949 0.092532575 0.0408379 0.054498907 0.096965164 -0.09763629 -0.0014810914
0.10824451 0.06537089 -0.025373314 0.076106004 -0.09426527 0.03366854 0.023918433 0.06697924
-1.1879622e-28 -0.062044516 0.027303899 0.008382989 -0.025917701 -1.3328912e-18 0.039422583 0.0049613286
0.027068418 -0.044661034 0.060687024 0.006730885 -0.004777734 0.13012703 0.040304128 -0.08064443
00000000: c301 1fbd 9b45 aa3d 0786 9e0b 7640 8f3d
00000010: 84db 610c 7391 38bd bb12 5fbd 08ba d7ba
00000020: 421b 6c1f b3e7 863d 3f8b 77bc 5601 19bb
00000030: 7598 5dbc 03ab 4bbd 21ea e0bd 2680 4f97
00000040: d41b 822d 4d15 46bd 6835 64bd c513 7a2e
00000050: 282a d5bd e6fa b13c 4719 3e3d 34ee a73c
00000060: 587b 013c f666 e73d 138d 433a 5b3e 5409
00000070: 456a bf3c 8a9c 88bd 8eed 243c fddd a6bc
00000080: 4734 23bd 6732 263c bc93 d53c d223 393d
00000090: 3e8f a33c cc18 9a3c 1796 773c 864f 91bd
000000a0: 8e8e 623c be74 453d 763b 68b9 fdd9 ec3c
000000b0: 36a6 03bd 74ca 27bd 90f6 e93d 67dd 22bd
000000c0: 2e18 519d d459 0e3d 5227 b0bc f9e4 6f29
000000d0: 7d64 a4bd 66f5 8e1d 3407 4b3d f80e 863b
000000e0: 2f7c dcbb 46ca 92bc e527 053c 9e88 0c3e
000000f0: 3c43 173d e8ad 4e3d 9aed 6d3c 1650 8b3c
00000100: 028e 7b3d 35a5 dfbd 1991 8293 cc9e 0a3d
00000110: 249c 100a 5293 633d 83b5 e43c 6fc0 593d
00000120: 27ed a488 9a00 0c3d 1f8c c93d 8183 fb3c
00000130: fd9d 8a3d d271 d43b e5ed c03d 5870 2f09
00000140: ae7f 073d 31f0 db3d 45f8 57bc 7ae6 85b3
00000150: 93be 30bd 140c 4a3c e2dd 3e3d 9744 b9bd
00000160: a3f2 bc3c a85c a93d a671 8c3d 261c 7510
00000170: 634a 83bc 03ba a5bd fb29 cebd 4d27 053d
00000180: fd56 a0bd ed61 ecbc 8a4b 9b3d a91b 30bd
00000190: d451 7b3d 6597 0bbd 7fc7 ccbd cd91 e73d
000001a0: 8528 c13d eca4 013e acc5 a4b9 39e9 d23d
000001b0: 10dc 943d 78aa 12bc 70f7 be3d 4260 e0bb
000001c0: 9187 1aa8 2545 d5bd 0c5a bcbb 186a 9d3b
000001d0: fb3c 963d 5b45 928b fec0 04be e42d be3d
000001e0: 040a 37bd bfa2 05ba 7648 a23c 2bd4 1cbb
000001f0: 37ef debc 5970 5d3d 9976 0eb9 8177 babd
00000200: 318d efbb ea07 803d 9bf6 290f 0ed2 913b
00000210: 18d9 1ba6 1baa 0abc 6d8f 98bb 984b 20bc
00000220: 736d 068d 21f5 923b 5b70 263d 9ed2 85bb
00000230: e54d 63ba 611f 23bb dce9 cebc 5a21 21a5
00000240: ca68 9cb8 4b78 9b3d d214 163d 194f c4ab
00000250: 159c f4bc 7270 d5bd 0c0c 9739 a8ac cd3b
00000260: 6d31 09bb 6379 573d 0728 7ebc 7f30 a617
00000270: f09a 39bd 8ccd 8b3d 54c1 a53b b76b e8bd
00000280: 4952 80bd 81f9 1fba f20a 393b a823 693b
00000290: e326 0ebb 9265 5e3b 655f 84bd c8e6 16bd
000002a0: ea88 5039 3451 bfbc b0c1 093d d083 7dbc
000002b0: 5875 ba3d 0ad9 9d3b 5af9 183b 31a2 a03b
000002c0: 47c1 14a2 0ede 9f3d 8707 ad3d f9e9 f613
000002d0: 77f3 91bd 259a a307 040a 8cbd be8a 993c
000002e0: 96d9 203d 5fa3 ea3b d953 e039 a170 023d
000002f0: 0cec cc39 1659 903b 10bb 6fa1 8a78 80bd
00000300: 8b01 a63d 924f c5bd b0f6 b40d fdc0 9a3d
00000310: bc86 ae0b 3568 a43c f801 a83b 5408 823c
00000320: abc7 e418 8334 94bb de1d 01bd 3bfb 633d
00000330: 8f3d a5bd 69be 8dbd 2e1c a93c ba04 2d1c
00000340: 43fc d33b 193e f83d dce4 603d 01ec c4b3
00000350: 4cf5 b53d 1d2f 783c 84e2 2a3d f73b 7f3d
00000360: 6d77 8f3c 85e6 6e3d 0a21 ba3c 9340 6b0b
00000370: 0a5e b8bd 8ad5 033d f442 39bc e914 8e3d
00000380: 544e 4b3d dc7a bd3d b881 bd3d a445 273d
00000390: 3f3a 5f3d ac95 c63d 89f5 c7bd 2e21 c2ba
000003a0: 4caf dd3d 2ce1 853d b2db cfbc 77dd 9b3d
000003b0: 260e c1bd 06e8 093d 97f0 c33c 692c 893d
000003c0: 9497 1691 6422 7ebd 6dac df3c ce58 093c
000003d0: 5c51 d4bc 35b3 c4a1 9379 213d a492 a23b
000003e0: 96be dd3c 7dee 36bd f592 783d c18e dc3b
000003f0: 8a8e 9cbb 0540 053e f115 253d e828 a5bd

encoder.mlp.2.bias f4 [128]
-0.018491423 -0.05435375 0.0022536172 0.029025383 -0.04844967 0.020414669 -0.0270944 0.05719723
0.036135707 -0.0009796034 -0.062454678 -0.04024211 0.02213278 0.00810333 0.0035851842 0.07143475
-0.044623528 -0.006423898 -1.3863284e-15 0.06095676 -0.034274623 0.015894353 -0.058891047 0.023825476
0.011011155 0.0001258459 -0.0026377805 0.0173948 0.011596855 -0.060564987 -0.020096479 0.021997778
-0.07339407 -0.04023162 -0.02145524 0.05810451 -0.017864104 0.052405443 -0.065026924 0.046857387
0.015151373 -5.5271233e-15 -0.0030107722 0.031154452 0.009289314 -0.037948668 0.0701309 -0.03795055
0.002238497 0.00305757 -0.064595826 -0.020625014 -0.08691404 -0.07425706 0.053479716 -0.015713422
-0.027952494 0.007768332 -0.026237834 0.016578255 -0.010641528 0.017663008 -0.05710788 -0.016868811
-6.258429e-18 -1.5653778e-12 0.0381453 -0.049548276 0.04167535 0.088319905 -0.01922981 0.03961731
-0.08054488 -6.29214e-13 0.01939238 0.067804426 -0.046285678 -0.014822038 -0.008995382 0.04359095
-0.01661237 -0.04665976 0.018476268 0.058248702 0.010456444 -0.054060154 -0.04521513 0.018587865
-0.02971977 0.009099901 -0.052194297 -2.0611202e-09 -1.32962396e-14 0.018726146 0.0025522797 -0.039169952
0.011792924 0.05454663 0.04028863 -0.004673071 0.0045775957 -0.026046231 0.0021556057 -0.031597935
-0.019843874 0.054092817 0.014619376 0.003073924 0.0392487 3.111422e-15 -0.0510778 0.0006515341
1.1071216e-05 0.031826377 -0.008980174 -0.018227417 -0.0730536 0.04788635 -0.009008276 0.002283976
-0.0015827202 -0.022755954 -0.026185248 0.0163048 -0.074603595 0.024468625 -0.012358241 -0.022525014
00000000: 537b 97bc 0aa2 5ebd 6cb1 133b a4c6 ed3c
00000010: 2973 46bd aa3c a73c 13f5 ddbc a547 6a3d
00000020: 0903 143d 0966 80ba 7ad0 7fbd e9d4 24bd
00000030: ce4f b53c d4c3 043c 69f5 6a3b 624c 923d
00000040: 29c7 36bd 907f d2bb 7eca c7a6 ccad 793d
00000050: 8c63 0cbd e034 823c bd37 71bd a52d c33c
00000060: 2268 343c 80f5 0339 9dde 2cbb 8a7f 8e3c
00000070: bc00 3e3c fe12 78bd 5fa1 a4bc af34 b43c
00000080: a14f 96bd e9c9 24bd e6c2 afbc fffe 6d3d
00000090: be57 92bc 17a7 563d d62c 85bd 88ed 3f3d
000000a0: 773d 783c b722 c7a7 6050 45bb 9f37 ff3c
000000b0: 3532 183c 1070 1bbd caa0 8f3d 0972 1bbd
000000c0: bfb3 123b 8361 483b d14a 84bd caf5 a8bc
000000d0: fdff b1bd 1614 98bd 8c0d 5b3d 6fb9 80bc
000000e0: a1fc e4bc 7e8d fe3b baf0 d6bc 1fcf 873c
000000f0: ce59 2ebc 03b2 903c f4e9 69bd 7630 8abc
00000100: 31e5 e6a2 ae4e dcab 3f3e 1c3d 22f3 4abd
00000110: c6b3 2a3d 11e1 b43d d687 9dbc c345 223d
00000120: b7f4 a4bd a61b 31ab c5dc 9e3c 0cdd 8a3d
00000130: 0d96 3dbd 22d8 72bc 5e61 13bc 6d8c 323d
00000140: aa16 88bc 4e1e 3fbd 8b5b 973c 3196 6e3d
00000150: 8151 2b3c 2e6e 5dbd 8033 39bd 9445 983c
00000160: e076 f3bc c017 153c b0c9 55bd 9ca3 0db1
00000170: 1586 6fa8 9367 993c 2644 273b ac70 20bd
00000180: 1c37 413c 496c 5f3d b105 253d 9020 99bb
00000190: a8ff 953b e85e d5bc 1045 0d3b d66c 01bd
000001a0: 9f8f a2bc 6e90 5d3d 1b86 6f3c e373 493b
000001b0: 3fc3 203d 9b33 6027 f536 51bd b7cb 2a3a
000001c0: 83be 3937 605c 023d 9421 13bc aa51 95bc
000001d0: 209d 95bd 7a24 443d 7397 13bc c2ae 153b
000001e0: 4773 cfba b26a babc 7282 d6bc a591 853c
000001f0: c5c9 98bd 6d72 c83c 387a 4abc 6186 b8bc

encoder.mlp.4.weight f4 [256, 128]
-1.5205391e-12 1.2833175e-10 -4.1428788e-32 -1.1287822e-08 -0.00035358313 -0.00010817244 -0.0005011606 -0.00041483983
-0.00043648886 2.9183222e-11 -0.0006092827 3.2583696e-08 -0.0003229304 -0.0003178699 -3.182427e-11 -0.00035288415
-4.7123517e-32 9.161202e-11 -2.655562e-33 -0.00036176204 -0.00030653478 -0.0003863605 -5.0754294e-05 -0.0006429029
-2.0697255e-08 -2.6764543e-30 3.6593324e-08 2.884051e-09 -0.0005675655 -0.0005464259 -0.0005149239 1.6576563e-11
-0.00065944775 -0.00050484005 -0.00056449417 -0.0005868489 -0.00020052379 -3.9789474e-12 -0.00054019457 -0.0006447945
-2.6252007e-32 -8.0741254e-33 5.953622e-32 -5.3004335e-08 -0.00018124214 -1.2817317e-06 -0.00020074825 -4.065483e-08
1.3904813e-11 -0.0004711069 7.603714e-09 -0.00024952152 -0.0006389633 -0.00057486835 -0.0002944937 -0.00033286525
-0.00061123405 -9.2570774e-32 -0.0007468569 -3.2928168e-12 -0.0005112152 1.5067712e-10 -0.00062665873 -0.0004650669
-8.2831354e-23 4.1876542e-32 -2.049985e-05 1.0564109e-08 -1.12003545e-05 -0.0007006011 -0.00027429144 -0.00030931478
-0.000514206 5.201868e-29 3.1280672e-10 -0.00059154764 -0.0005264055 -0.00021447527 -0.00062899065 -0.00038412953
-0.0007086727 -0.00051143335 -0.0004560935 -0.00060310896 5.1518867e-12 7.3317054e-18 -0.0002685843 -0.00022280916
-0.00041090132 -6.573259e-10 -0.00013087917 -1.8643569e-22 -2.7038286e-32 -3.0326543e-11 3.2983582e-08 -0.00048549214
-2.3806716e-12 -0.0005973294 -0.00014371531 -9.129179e-12 -0.00039799596 -0.00044440568 -0.0006426025 -0.0004528784
3.9894484e-08 -0.00059684814 -0.00058464415 2.111715e-11 4.2027413e-11 1.5706617e-31 -4.9358573e-11 -1.0883352e-24
-0.00037366437 -0.0005650477 -2.9322735e-05 -4.217214e-05 -0.0002694766 -2.5877722e-09 -0.00025642506 -4.4388215e-23
-3.490473e-09 -0.00064568757 -0.00046636251 9.080317e-09 -0.00061834545 -0.0006631948 -0.00016267979 -0.0003182915
0.011996015 0.038092636 -3.42704e-25 -0.0012362626 -0.018057005 -0.007121072 -0.06720017 1.4342498e-32
3.7589133e-29 2.3437534e-09 0.04258646 0.011634167 -0.05086608 -7.646413e-33 1.4342938e-23 0.027887166
0.013421085 2.3857054e-26 1.6624258e-31 -0.003034735 0.014190673 0.024398541 -0.00032314405 -0.0816569
-3.2219403e-29 2.0319882e-32 0.05114023 -0.03160658 -0.008790428 0.04842076 0.013801748 -0.049208622
-0.004529382 0.053297997 0.0092040785 -0.06936262 -0.07107616 4.591458e-31 0.065880485 0.013466423
0.03425419 3.7878857e-32 -0.009909053 -0.070418715 0.00046459344 -0.0005724652 0.058514867 -0.018781306
-0.05764877 0.015869986 0.005113023 -0.05846537 -0.011722567 -0.0011307962 0.023237105 0.023516962
-0.08703173 0.014045337 -0.067320034 4.671876e-30 -0.056577154 0.015201283 -0.013783952 0.052698787
4.6471614e-30 -1.6125842e-26 -0.00054657966 0.052347206 -0.0145818805 0.042175006 -0.024383556 0.069309585
0.039948236 -1.5503348e-30 0.06891035 -0.0006947241 -0.025846716 7.3318847e-29 -0.024130644 -0.022190258
0.041349884 -0.013019757 -0.045095276 0.014588304 -3.951614e-32 0.047903962 -0.035728984 -0.00084414665
0.020654118 0.013026266 -0.06332072 3.1488866e-22 -5.472311e-32 5.2736125e-24 -0.046636514 -0.050437354
-4.079368e-33 0.04409634 0.03935928 -1.6589018e-10 0.07177884 -0.04655128 -0.073531024 -9.1998954e-27
0.025689656 0.003938558 0.052554388 -8.7226524e-32 -3.5957435e-33 -2.1618966e-31 -6.9282474e-24 -3.2603785e-32
0.00092852645 0.030140344 0.021281453 -0.0026004647 -0.07760258 -0.009061067 -0.004286579 0.006315988
9.1613914e-27 -0.014859227 0.066800445 0.0045140637 -0.04805398 -0.02655514 0.059000798 8.388225e-34
00000000: 32ff d5ab 2d1a 0d2f 4e1c 578b 5eec 41b2
00000010: 2061 b9b9 a3da e2b8 5260 03ba dc7e d9b9
00000020: 8bd8 e4b9 6359 002e 45b8 1fba 27f2 0b33
00000030: fc4e a9b9 c7a7 a6b9 f1f6 0bae 4f03 b9b9
00000040: e6ad 748b fb74 c92e 8f9d 5c89 e1aa bdb9
00000050: 67b6 a0b9 6e90 cab9 02e1 54b8 7c88 28ba
00000060: bfc9 b1b2 c823 598e c92a 1d33 c330 4631
00000070: adc8 14ba 053e 0fba f5fb 06ba 1acf 912d
00000080: cade 2cba 3e57 04ba 90fa 13ba c3d6 19ba
00000090: b243 52b9 2cff 8bac d89b 0dba 6d07 29ba
000000a0: e74e 088b 6ab1 278a 9b90 9a0b e2a6 63b3
000000b0: d10b 3eb9 f707 acb5 f37f 52b9 759c 2eb3
000000c0: b69d 742d e6fe f6b9 7da1 0232 36d2 82b9
000000d0: 1a80 27ba c3b2 16ba 4666 9ab9 6b84 aeb9
000000e0: 393b 20ba d553 f08b b8c8 43ba 1db6 67ac
000000f0: 1203 06ba d7ab 252f 5b46 24ba 39d4 f3b9
00000100: 2046 c89a 796f 590b 18f7 abb7 717d 3532
00000110: 28e9 3bb7 8ba8 37ba c6ce 8fb9 872b a2b9
00000120: c8cb 06ba 0ee2 8310 a2f7 ab2f 1712 1bba
00000130: 7afe 09ba c4e4 60b9 d9e2 24ba fe64 c9b9
00000140: 38c6 39ba b611 06ba d51f efb9 f519 1eba
00000150: 1244 b52c 003f 0723 c6d0 8cb9 e1a1 69b9
00000160: 3e6e d7b9 33af 34b0 9c3c 09b9 0d63 619b
00000170: 0c64 0c8b a760 05ae d5a9 0d33 a789 feb9
00000180: 5e86 27ac 1996 1cba 49b2 16b9 2b9a 20ad
00000190: 1daa d0b9 1fff e8b9 5374 28ba 4f70 edb9
000001a0: 7358 2b33 cd75 1cba ce42 19ba 98bf b92d
000001b0: a9d6 382e 30e2 4b0c d014 59ae 6669 a897
000001c0: 62e8 c3b9 b61f 14ba 18fa f5b7 fee1 30b8
000001d0: 8948 8db9 92d4 31b1 ca70 86b9 f3a5 569a
000001e0: 0ddd 6fb1 5c43 29ba 1e82 f4b9 a8ff 1b32
000001f0: 7618 22ba 40da 2dba 0695 2ab9 5de0 a6b9
00000200: ef8a 443c 0607 1c3d 9e1f d496 170a a2ba
00000210: 49ec 93bc e257 e9bb 3ea0 89bd e6f0 940a
00000220: 7c99 3e10 bf0f 2131 246f 2e3d 3c9d 3e3c
00000230: f358 50bd 4ecf 1e8a 65b7 8a19 a073 e43c
00000240: 1ce4 5b3c d144 ec14 93cb 570c 68e2 46bb
00000250: ff7f 683c 73df c73c a96b a9b9 bc3b a7bd
00000260: 2d5f 2390 8303 d30a 6b78 513d e775 01bd
00000270: ba05 10bc d954 463d ba20 623c fb8e 49bd
00000280: 366b 94bb 004f 5a3d b4cc 163c fd0d 8ebd
00000290: 6190 91bd 5700 150d 59ec 863d 46a2 5c3c
000002a0: 1f4e 0c3d a3ad 440b 9559 22bc b037 90bd
000002b0: ad94 f339 7d11 16ba 49ad 6f3d 41db 99bc
000002c0: 1e21 6cbd c601 823c 258b a73b 6279 6fbd
000002d0: 0210 40bc 3937 94ba be5b be3c a5a6 c03c
000002e0: b13d b2bd 6a1e 663c 16df 89bd 8983 bd0e
000002f0: 72bd 67bd cd0e 793c 16d6 61bc afda 573d
00000300: e282 bc0e deb3 9f94 5748 0fba 066a 563d
00000310: d7e8 6ebc b3bf 2c3d 06c0 c7bc 2ff2 8d3d
00000320: c3a0 233d 638e fb8d df20 8d3d 251e 36ba
00000330: 7ebc d3bc a7e2 b910 a1ad c5bc 58c8 b5bc
00000340: 7f5e 293d d250 55bc d3b5 38bd c803 6f3c
00000350: f62d 4d8b f236 443d 8e58 12bd b949 5dba
00000360: d332 a93c 1f6c 553c 4bae 81bd a956 be1b
00000370: bf11 8e8b 5403 cc18 ee05 3fbd 6697 4ebd
00000380: 4873 a989 5d9e 343d 3237 213d ef65 36af
00000390: c900 933d 8eac 3ebd 6f97 96bd 0339 3694
000003a0: 1d73 d23c 050f 813b 4543 573d f873 e28b
000003b0: 815c 9589 ab50 8c8c 0503 0699 dd49 298b
000003c0: 5b68 733a e2e8 f63c 7156 ae3c 8f6c 2abb
000003d0: 1aee 9ebd df74 14bc 6e76 8cbb 59f6 ce3b
000003e0: c675 3514 1e74 73bc acce 883d b6ea 933b
000003f0: 40d4 44bd 2a8a d9bc d2aa 713d 905f 8b08

encoder.mlp.4.bias f4 [256]
-6.236285e-07 -0.017555604 -0.041613292 -0.015190497 -7.3370803e-09 -0.043739907 0.033446193 -7.736983e-05
-0.024856035 -0.06436355 0.026557675 -0.051202927 -0.003539716 -0.0003443671 -5.5406228e-11 4.7797555e-10
0.0032285503 -0.025945766 0.02183488 0.028314777 -0.013847738 -0.012336184 -7.512871e-09 -0.05064959
-0.036253203 0.030635882 0.040973518 0.018532902 0.018550316 1.4375525e-09 0.012819624 -0.059471734
-0.015625361 -0.0017858498 0.003833874 -0.059747357 0.0076571787 -0.0028996908 0.05803172 -0.0051386687
-4.5225886e-26 0.0050414214 -0.041587126 -0.005960788 -0.00072042627 -0.0028695548 0.019195154 -0.014627457
-0.03167596 -0.02216438 0.025312021 -0.04676522 -0.027310228 -0.03484535 0.033957068 -0.06930808
-0.016497014 -0.04019593 -0.025467936 0.018638594 8.237731e-15 0.015214589 -0.057435755 5.240142e-30
-0.015693683 0.022379976 5.6059403e-27 -0.027290873 -0.035705704 0.016739028 0.023321947 -0.00058004254
0.0328692 -0.0074121444 0.0018031502 5.93907e-22 3.878172e-06 -0.014695674 -0.030482668 -0.008472095
-0.02109459 0.003748102 0.046471138 0.021003282 -3.3238453e-07 -0.044588257 -0.010464798 -0.004258175
-0.0065635853 0.04583619 -0.04968195 -0.020979252 -0.031923093 0.040457264 -0.0021681387 -0.0011258882
2.5518964e-23 -0.0002746039 -0.015555865 -0.055774216 -0.024251213 -0.02598498 -0.0409707 0.030158093
0.032457978 -0.013416862 -0.0031207397 -6.275783e-08 -0.019904118 -0.0027581418 0.0145795345 0.010071007
-2.696679e-06 0.008442756 0.0053116027 9.574526e-06 -0.06426863 0.015888419 0.04930915 -0.015351088
-0.04688389 -0.036211323 -0.008670785 -0.058623273 -0.02695652 0.023151813 -0.016527358 -6.573851e-07
0.020569561 -0.065441966 0.019516155 0.0024527113 -6.7413043e-06 2.3085905e-26 -0.0209192 -3.4295904e-06
0.012209117 -0.024461048 -0.00029082547 -0.036187854 0.029970994 2.6849606e-18 0.0013879947 0.047668673
-0.031704422 -0.022703025 0.033615857 0.038906906 -4.5770725e-25 0.024899647 0.011683284 0.009074135
-0.012174449 -1.6926659e-05 -2.3004987e-21 -0.013778491 0.029754682 0.011112831 0.0060314243 -0.022888955
0.009926781 -0.010082422 -5.712777e-10 -0.011878507 -0.020327426 -0.0060043875 -0.055949155 0.040350325
-3.361929e-29 0.009492243 -0.024656184 -0.0006487801 0.04023136 -0.009050138 8.8519414e-08 -0.033055663
0.035120957 0.050247453 -0.03383508 -0.0059005185 -0.019473465 0.020111486 -0.0021704372 0.031680487
0.04923548 -3.0627277e-28 0.008231893 0.034989722 -0.026513476 -0.028812088 5.1011366e-08 0.0068213684
0.005090297 0.040492956 -0.016492357 -0.00026471887 -0.03613648 0.042949 0.017406808 0.0041311276
-0.023755176 -0.034576494 -0.028060293 -4.0451414e-07 0.024892716 -0.034369387 -0.0018933504 -0.030819507
0.030289998 0.0101169245 8.118439e-27 0.01342426 0.0025157048 -0.06832648 -0.015443389 -0.03139366
0.020045696 0.018922418 -0.03732782 -0.01658006 0.023693785 0.037347276 -0.0072606336 0.05800135
-0.06860268 0.004386504 5.421497e-05 -7.914354e-08 -0.022861643 -0.0315438 0.05115637 0.017135713
0.011063621 -0.0062168944 -3.4125247e-09 -0.023932593 -0.02048548 -0.022602579 -0.020307655 -0.0148704
-0.007331519 0.012739678 0.0066254935 -0.015821211 -0.028785707 0.015716992 -0.03048477 -0.032626197
-0.034412228 -0.016980255 0.04412399 0.012444063 -0.025552906 -0.042009104 0.036620956 -2.9634512e-07
00000000: 6d67 27b5 c5d0 8fbc b372 2abd 90e1 78bc
00000010: a419 fcb1 9e28 33bd e0fe 083d 9c41 a2b8
00000020: e29e cbbc 09d1 83bd 7b8f d93c 29ba 51bd
00000030: 94fa 67bb 2b8c b4b9 dead 73ae 8a62 0330
00000040: 1696 533b 378c d4bc 10df b23c 64f4 e73c
00000050: 9fe1 62bc b51d 4abc f511 01b2 f275 4fbd
00000060: 3d7e 14bd 1af8 fa3c d9d3 273d 50d2 973c
00000070: d5f6 973c 6293 c530 6609 523c a298 73bd
00000080: c200 80bc 2d13 eaba bb41 7b3b a5b9 74bd
00000090: 12e9 fa3b bd08 3ebb abb2 6d3d 4762 a8bb
000000a0: 9ff2 5f95 8232 a53b 4357 2abd b752 c3bb
000000b0: fdda 3cba 240f 3cbb 283f 9d3c 00a8 6fbc
000000c0: a7be 01bd 1392 b5bc 285b cf3c e38c 3fbd
000000d0: b3b9 dfbc ffb9 0ebd 9116 0b3d 65f1 8dbd
000000e0: bf24 87bc 7da4 24bd 22a2 d0bc f7af 983c
000000f0: d465 1428 9d46 793c c141 6bbd bf90 d40e
00000100: 0a90 80bc 3656 b73c fd12 de13 1c91 dfbc
00000110: 2540 12bd 4920 893c ab0d bf3c ff0d 18ba
00000120: dba1 063d 93e1 f2bb ae57 ec3a 547f 331c
00000130: 3e21 8236 20c6 70bc cab6 f9bc 8bce 0abc
00000140: 90ce acbc b8a2 753b 8558 3e3d 130f ac3c
00000150: 9572 b2b4 2da2 36bd 8b74 2bbc 2988 8bbb
00000160: 5813 d7bb bbbe 3b3d 4d7f 4bbd aedc abbc
00000170: cac1 02bd 84b6 253d 5517 0ebb 8a92 93ba
00000180: e5cd f619 b6f8 8fb9 07de 7ebc 8173 64bd
00000190: 7baa c6bc 74de d4bc e5d0 27bd 1b0e f73c
000001a0: a8f2 043d 66d2 5bbc 5385 4cbb 7bc5 86b3
000001b0: f60d a3bc f1c1 34bb 00df 6e3c dd00 253c
000001c0: 98f8 34b6 7c53 0a3c f40c ae3b 47a2 2037
000001d0: 469f 83bd 6e28 823c 64f8 493d 2183 7bbc
000001e0: 5209 40bd 5352 14bd e90f 0ebc f51e 70bd
000001f0: ebd3 dcbc dfa8 bd3c 6264 87bc 2977 30b5
00000200: 7f81 a83c 7006 86bd 58e0 9f3c abbd 203b
00000210: 5d33 e2b6 b9a1 e414 be5e abbc ea27 66b6
00000220: c008 483c 8962 c8bc ef79 98b9 b739 14bd
00000230: bb85 f53c 791d 4622 60ed b53a 3a40 433d
00000240: 7fdc 01bd b2fb b9bc c8b0 093d d95c 1f3d
00000250: 4ea7 0d97 58fa cb3c 3f6b 3f3c aeab 143c
00000260: 5777 47bc b9fd 8db7 1ed2 2d9d 2ebf 61bc
00000270: 17c0 f33c 9712 363c 41a3 c53b 9e81 bbbc
00000280: f0a3 223c be30 25bc 1808 1db0 129e 42bc
00000290: b485 a6bc 74c0 c4bb f12a 65bd 6246 253d
000002a0: 5578 2a90 5a85 1b3c c4fb c9bc e512 2aba
000002b0: a3c9 243d 0847 14bc 1018 be33 6065 07bd
000002c0: feda 0f3d 46d0 4d3d a796 0abd 2359 c1bb
000002d0: d186 9fbc d8c0 a43c e53d 0ebb 66c3 013d
000002e0: 25ab 493d 991f c291 10df 063c 6251 0f3d
000002f0: ca32 d9bc 5407 ecbc 9717 5b33 c985 df3b
00000300: 82cc a63b f1db 253d fb1a 87bc f7c9 8ab9
00000310: d803 14bd 4aeb 2f3d b998 8e3c 695e 873b
00000320: 379a c2bc 15a0 0dbd b3de e5bc 002c d9b4
00000330: cfeb cb3c eac6 0cbd 4c2a f8ba 3179 fcbc
00000340: bb22 f83c 75c1 253c 60cd 2014 6df1 5b3c
00000350: 86de 243b c1ee 8bbd 4506 7dbc a396 00bd
00000360: df36 a43c 3003 9b3c 0ee5 18bd e8d2 87bc
00000370: 7819 c23c 75f9 183d 9cea edbb d392 6d3d
00000380: 907f 8cbd aabc 8f3b e164 6338 9ff5 a9b3
00000390: 5748 bbbc 1234 01bd 5889 513d 3260 8c3c
000003a0: 3144 353c 17b7 cbbb c581 6ab1 490e c4bc
000003b0: 2ad1 a7bc 0b29 b9bc 3d5c a6bc faa2 73bc
000003c0: 3d3d f0bb 15ba 503c ab1a d93b 7c9b 81bc
000003d0: 01d0 ebbc ecc0 803c 32bb f9bc 0ca3 05bd
000003e0: d6f3 0cbd 2d1a 8bbc 5bbb 343d 2fe2 4b3c
000003f0: 5454 d1bc bd11 2cbd dbff 153d 5d19 9fb4

pos_mlp.0.weight f4 [32, 1]
2.5114488e-14 4.8283773e-17 1.6090049e-09 0.5727556 -6.92645e-05 0.7559272 -0.41433543 0.2621472
1.0999868 -0.13554771 -0.62572074 -0.71632385 -0.3008609 -0.03779928 0.54393035 2.5180057e-07
-0.15534616 0.958358 -0.03251141 6.4226413e-28 1.0745125 0.9809772 -1.5140476e-17 0.007015523
-0.22831972 -0.96299326 0.9177902 0.6723971 -5.5774044e-06 -0.45013037 0.30082417 -0.68611
00000000: 1136 e228 6bab 5e24 d423 dd30 1ca0 123f
00000010: 1842 91b8 7284 413f c623 d4be 2838 863e
00000020: 5ecc 8c3f 05cd 0abe 3c2f 20bf 0061 37bf
00000030: 710a 9abe 6bd3 1abd 053f 0b3f 352f 8734
00000040: 1013 1fbe f356 753f af2a 05bd a88a 4b12
00000050: a089 893f 5221 7b3f 70a5 8ba3 79e2 e53b
00000060: a5cc 69be ba86 76bf 4cf4 6a3f 3722 2c3f
00000070: 8a25 bbb6 7d77 e6be a005 9a3e e8a4 2fbf

pos_mlp.0.bias f4 [32]
-1.7075186e-10 -2.2937847e-06 -0.017621703 0.13919225 -2.7005738e-15 0.93876576 0.5871284 -0.03983772
0.2729487 0.78687084 0.738561 0.96864265 0.26118737 -0.00056943094 0.72354317 -0.056687843
1.0598959 -0.46496618 -4.675857e-10 -0.005463942 -0.11126465 -0.18949053 -0.027796542 -0.013923388
0.8834144 0.73611575 0.5279971 0.022320013 -0.0010232384 0.7491183 0.009574429 0.58932835
00000000: 60be 3baf ecee 19b6 645b 90bc 6a88 0e3e
00000010: cb98 42a7 f452 703f 0c4e 163f e12c 23bd
00000020: efbf 8b3e 5e70 493f 5512 3d3f f7f8 773f
00000030: 5aba 853e dd45 15ba 203a 393f 8331 68bd
00000040: abaa 873f 0c10 eebe 6b87 00b0 de0a b3bb
00000050: b9de e3bd ce09 42be 93b5 e3bc ec1e 64bc
00000060: 7227 623f 1572 3c3f d12a 073f 76d8 b63c
00000070: 2f1e 86ba 38c6 3f3f 11de 1c3c 39de 163f

pos_mlp.2.weight f4 [32, 32]
-7.693681e-13 -3.679844e-11 -8.7797617e-16 -0.0065224776 -8.22454e-34 0.11080656 0.22952116 -0.19775726
-0.28172442 0.16325548 0.3048639 0.15801808 0.22842816 -1.8290218e-30 0.04338088 2.8552965e-33
0.2911097 -0.12919599 4.163225e-25 1.7726313e-28 -0.24406911 -0.25153562 -9.2978715e-11 -3.341908e-24
0.32253492 0.32385784 -0.21854028 -0.10410431 -1.069782e-18 0.3561547 -0.17399359 0.108484246
-1.0803869e-10 1.5938582e-18 -8.6922353e-32 0.14354359 2.211185e-18 0.07806129 -0.306208 0.18372363
0.3062579 0.221179 -0.31007802 -0.27057457 -0.19691747 -2.9841823e-32 0.28856668 1.5427547e-09
-0.014299811 0.28586262 1.5772172e-29 8.0507134e-32 0.24229375 0.3370076 -5.2787464e-16 -1.2035658e-16
0.12682411 -0.2609063 0.36312938 0.15132646 -4.9022897e-33 -0.11830163 0.2490466 -0.31990966
-1.523887e-14 9.444919e-28 -9.292469e-33 0.019892652 2.563402e-32 0.17445736 -0.3266748 0.11102053
0.32676145 0.07982359 -0.35486853 -0.06336107 -0.22997768 -7.8780063e-28 0.10942047 -2.239839e-29
0.06033248 0.18103409 2.2151291e-24 -6.8079625e-32 0.13870095 0.31756267 1.575786e-33 3.310988e-29
-0.063570805 -0.30478382 0.31721738 0.24889389 5.6856594e-23 -0.04717386 0.06521996 -0.241681
3.5161913e-32 1.7743883e-16 5.0600725e-30 4.300539e-12 -1.4026727e-29 -1.3566147e-09 -4.7792542e-12 -7.5330405e-13
2.2038497e-12 1.8157264e-12 9.436416e-12 1.1246485e-11 2.2308742e-13 2.0460196e-32 -8.965388e-10 5.2929083e-18
-8.751629e-11 5.91916e-13 -1.2036722e-09 1.7215948e-22 7.279162e-12 1.0842191e-12 -1.6675078e-33 3.7028e-32
2.4972689e-12 1.6382014e-10 1.953573e-09 -7.2544764e-13 2.7258697e-21 9.477642e-12 -7.171046e-13 -3.182647e-11
1.1060626e-08 1.9868313e-10 3.925335e-18 -0.11872487 3.3856735e-16 0.11387503 0.2706333 -0.14699042
-0.27674106 0.056965835 0.20641795 0.08173142 0.2594168 2.4651406e-20 0.02533672 1.4682837e-32
0.13232245 -0.13335751 -1.2499659e-14 -1.05659204e-17 -0.29065904 -0.23168093 6.231446e-16 -6.504695e-14
0.24851322 0.16758557 0.051686022 -0.21907742 1.4182424e-24 0.17097911 -0.1690136 0.11762391
-2.0478494e-30 3.3970635e-11 -3.777948e-12 4.835029e-29 -2.1152025e-32 1.8056204e-22 -1.4230564e-24 5.2546797e-14
7.636336e-20 -1.0027818e-29 -5.528567e-15 -1.0017991e-31 -2.514751e-12 -2.166984e-10 -1.01804646e-19 -1.3860925e-14
-6.2749055e-12 -8.101e-31 1.263746e-16 -5.6418864e-10 -8.434054e-33 -2.1678828e-32 5.5861057e-31 2.0511097e-09
-1.15227224e-32 -3.1621033e-31 -1.3396931e-11 1.0455442e-19 -1.4405872e-16 -9.569161e-10 -2.0906904e-14 -4.872949e-19
-2.7740764e-32 -1.2391214e-31 2.0701856e-10 -8.62063e-33 4.066504e-30 -3.1997189e-13 -9.1205696e-11 -5.257735e-33
1.1042834e-31 -1.4445659e-32 -2.2907995e-10 -5.3455053e-14 1.4155578e-29 9.927259e-10 3.4454567e-27 3.1329583e-21
3.2106574e-32 -7.6760105e-20 1.8078666e-22 5.6876436e-23 1.7440176e-20 5.3476585e-33 -2.519901e-32 -1.06389935e-19
6.032038e-13 2.8767407e-14 -4.3934666e-32 -1.316086e-32 3.4484023e-32 -2.5107058e-28 -1.3057396e-09 3.1152666e-23
1.0890492e-14 2.9977983e-23 -1.1477326e-25 -0.22574668 -1.4730636e-09 0.15559009 0.104811236 -0.17592822
-0.19077645 0.22458935 0.18633518 0.3210556 0.19004735 3.3439085e-21 -0.105776064 1.7371134e-32
0.19933574 -0.15054628 -1.9352861e-12 -6.7674834e-35 -0.22503766 -0.2781207 -1.708343e-09 1.1990319e-06
0.23248255 0.33542013 0.0036621268 -0.31014073 1.6238947e-30 0.3632015 -0.24862765 0.13475324
00000000: d08e 58ab 5cd7 21ae 350f 7da6 82ba d5bb
00000010: 53a7 8888 8dee e23d 9807 6b3e e180 4abe
00000020: 2f3e 90be 722c 273e 1f17 9c3e 7ecf 213e
00000030: 12e9 693e 4c63 148e 26b0 313d 7135 6d09
00000040: 550c 953e f44b 04be 77d8 0017 2db5 6011
00000050: 41ed 79be 47c9 80be 5d76 ccae a748 8198
00000060: 4c23 a53e b2d0 a53e 06c9 5fbe a434 d5bd
00000070: 39df 9da1 e959 b63e 602b 32be fd2c de3d
00000080: 6094 edae 4336 eb21 d0a9 e18b 17fd 123e
00000090: 1b28 2322 99de 9f3d 4cc7 9cbe 0c22 3c3e
000000a0: d6cd 9c3e bf7c 623e 8cc2 9ebe c088 8abe
000000b0: bca4 49be 96f2 1a8b 03bf 933e db08 d430
000000c0: c149 6abc 965c 923e e6f2 9f0f 2b02 d10b
000000d0: da1b 783e 438c ac3e 4626 18a6 fec2 0aa5
000000e0: 2ede 013e 8395 85be 18ec b93e 53f5 1a3e
000000f0: 16a2 cb89 2048 f2bd 1206 7f3e 33cb a3be
00000100: 7142 89a8 25a9 9512 3dff 408a eaf5 a23c
00000110: 7519 050b f3a4 323e eb41 a7be bb5e e33d
00000120: 474d a73e 8d7a a33d 54b1 b5be 73c3 81bd
00000130: 457f 6bbe fba9 7992 d717 e03d 8c25 e38f
00000140: 311f 773d 0061 393e 2763 2b18 acbe b08b
00000150: 9f07 0e3e 9397 a23e 43e9 0209 15e3 2710
00000160: 6931 82bd a00c 9cbe 516a a23e 0ade 7e3e
00000170: 8778 891a 6139 41bd 0b92 853d 397b 77be
00000180: 3392 360b b392 4c25 cc42 cd0e d04f 972c
00000190: 773f 8e8f a373 bab0 b227 a8ac 4709 54ab
000001a0: 0715 1b2c 708a ff2b d701 262d aad9 452d
000001b0: 922c 7b2a 8878 d40a 4f70 76b0 1b46 c322
000001c0: 4b73 c0ae 0b9c 262b 736e a5b0 c720 501b
000001d0: 6e0e 002d 1c97 982b f887 0a89 a742 400b
000001e0: ccba 2f2c 451f 342f 9f3f 0631 0332 4cab
000001f0: fdf5 4d1d 81bb 262d d5d8 49ab 6bf9 0bae
00000200: 2605 3e32 5474 5a2f bed1 9022 0626 f3bd
00000210: b92b c325 5037 e93d 7390 8a3e a884 16be
00000220: 01b1 8dbe 0255 693d 3a5f 533e cd62 a73d
00000230: 47d2 843e 71d3 e81e f48e cf3c ad79 980a
00000240: 897f 073e df8e 08be 812c 61a8 26e8 42a3
00000250: 43d1 94be c43d 6dbe f59b 3326 0479 92a9
00000260: 407a 7e3e 8d9b 2b3e b9b4 533d d555 60be
00000270: 5f76 db17 2615 2f3e e711 2dbe cee4 f03d
00000280: 2b24 268e 8967 152e bbec 84ac 442a 7510
00000290: baa7 db8a 3f49 5a1b 1235 dc97 55a6 6c29
000002a0: d24e b41f 6863 4b8f 0830 c7a7 7c0a 028c
000002b0: baf5 30ac 2d43 6eaf 2261 f09f 3cb2 79a8
000002c0: 53c7 dcac 3d72 838d 33b3 1125 3f15 1bb0
000002d0: 1f2b 2f8a 3620 e18a 8d47 350d 81f3 0c31
000002e0: 4d51 6f8a 743b cd8c 6aae 6bad 45df f61f
000002f0: a116 26a5 7e84 83b0 0a50 bca8 f6d2 0fa1
00000300: cd09 108b dfd8 208c 8b9e 632f 220b 338a
00000310: fef4 a40e cf20 b4aa 3e90 c8ae d465 da89
00000320: 1c58 0f0c 2603 968a 46e0 7baf 7bbd 70a9
00000330: fb8d 8f0f 7070 8830 157d 8813 3ab8 6c1d
00000340: f5b4 260b a33e b59f c38e 5a1b cf84 891a
00000350: c2b7 a41e 0f22 de09 3bd7 028b c534 fb9f
00000360: 6ac9 292b 908e 0129 301f 648b 91ab 888a
00000370: 210d 330b 8822 9f91 a175 b3b0 22a5 161a
00000380: 882f 4428 f2f6 101a 1915 0e96 232a 67be
00000390: d174 cab0 0253 1f3e 46a7 d63d 8726 34be
000003a0: e75a 43be c0fa 653e a6ce 3e3e 6661 a43e
000003b0: c69b 423e 99a8 7c1d 1fa1 d8bd 6564 b40a
000003c0: ab1e 4c3e ce28 1abe 042f 08ac 1be9 b386
000003d0: 4670 66be d665 8ebe faca eab0 6cee a035
000003e0: e80f 6e3e 30bc ab3e 4b00 703b c4ca 9ebe
000003f0: f9be 030e 8cf5 b93e 3f98 7ebe c1fc 093e

pos_mlp.2.bias f4 [32]
0.10402941 -0.01362169 0.08101748 -9.2981655e-12 0.31283638 1.9156865e-14 9.558912e-33 0.18977565
0.29830346 0.040166333 0.054082066 -1.3080227e-18 -0.073397964 -1.4654627e-20 0.29992953 0.16927645
0.118318126 0.10911762 -0.044728003 0.022717442 0.14261772 0.36454856 -1.9204237e-11 0.13025394
0.059885543 6.7295713e-12 0.040998578 -0.018711874 0.2359932 0.17824833 0.21474326 0.03581045
00000000: 5f0d d53d 822d 5fbc 7eec a53d 3793 23ad
00000010: 172c a03e b98c ac28 e587 460a 8c54 423e
00000020: 3bbb 983e 7485 243d 2885 5d3d b307 c1a1
00000030: ac51 96bd b768 8a9e 5d90 993e ce56 2d3e
00000040: c650 f23d 0f79 df3d b634 37bd ee19 ba3c
00000050: 610a 123e 1ca6 ba3e 19ec a8ad 4a61 053e
00000060: 8b4a 753d 97c6 ec2c 20ee 273d a549 99bc
00000070: 34a8 713e bb86 363e a8e5 5b3e faad 123d

dec_trunk.0.weight f4 [128, 288]
2.477227e-34 -6.2752652e-28 -7.1854855e-14 5.2277137e-15 9.8486813e-32 8.1130205e-14 -1.1000253e-07 -6.62012e-33
-1.0979479e-30 1.6336669e-14 -2.8937922e-08 -9.213805e-09 -1.2303776e-14 -1.3134265e-31 -1.679341e-32 3.1792802e-33
4.684973e-15 -4.3139383e-33 -7.467408e-06 -1.2759574e-06 5.338327e-12 -3.551325e-13 2.398506e-31 1.9825718e-13
8.343286e-14 1.09543396e-13 -4.0103302e-08 -1.3305505e-14 -1.9276759e-14 3.3538817e-32 4.95176e-14 3.870236e-12
-6.8797306e-32 5.2527234e-14 2.3612446e-14 1.3569621e-16 -1.9426985e-13 -2.7892731e-06 -1.458366e-09 2.549915e-14
1.2489076e-32 8.773172e-14 -2.1112143e-33 -3.9579834e-15 8.075425e-12 -2.179105e-22 -6.172891e-16 1.8782527e-13
6.126475e-14 -5.4737763e-13 1.5646004e-23 2.924967e-12 1.0334161e-13 -3.1179435e-13 -2.272103e-05 1.663901e-14
-1.8179041e-14 -1.7326308e-32 -6.366076e-20 -2.6410586e-07 1.7796526e-31 -1.6584312e-06 1.6227732e-14 -1.6120187e-32
-1.567617e-06 -4.047243e-32 2.8450264e-33 -8.687202e-15 3.330758e-14 -2.2413539e-14 8.75552e-12 -1.1130504e-28
4.613634e-32 -1.4563786e-28 -6.142276e-06 -7.966014e-32 4.5689307e-35 6.731182e-31 1.7450466e-30 1.9070179e-32
1.4527601e-14 -5.615237e-06 -2.9807315e-10 1.3182237e-31 2.3871138e-31 -3.83621e-15 7.144228e-14 7.03062e-12
2.7294597e-14 4.6359037e-20 -1.9107988e-15 -2.6747628e-07 -1.2620771e-08 1.9866839e-33 -2.3908774e-08 1.6975202e-28
8.180191e-31 1.19933074e-29 -3.7166475e-33 -7.3547136e-07 -3.304064e-08 3.1687862e-31 -5.8521325e-13 -3.6053754e-14
5.4022267e-14 -2.6776553e-08 -5.03571e-32 -5.6749945e-29 1.3332482e-31 -3.6875075e-22 6.1614664e-28 -3.2975333e-08
-1.4008457e-33 -2.2270226e-14 -4.742593e-29 4.7019887e-30 -1.1535629e-13 -1.28713395e-08 -9.3644615e-14 1.8289532e-28
-1.4949662e-14 9.8114144e-14 -4.1674275e-14 8.604124e-12 -1.1604964e-13 -3.4127283e-13 7.895921e-15 2.744899e-33
-4.394038e-06 -2.7515686e-14 -2.5645862e-14 4.2370987e-17 3.169459e-33 -4.6895498e-32 -1.7551363e-10 5.9074937e-34
-6.7207214e-32 -1.9025574e-08 3.032422e-32 -1.0691726e-13 -1.1844445e-15 6.762451e-33 -1.267909e-07 -5.8169498e-08
-3.3148958e-13 1.2038389e-14 1.3573145e-32 7.649966e-31 2.1954684e-32 -2.6005958e-13 -3.0393694e-15 -8.5601776e-08
-1.9584306e-32 6.3022065e-33 -3.7829442e-32 3.895999e-12 5.4656364e-15 -2.2172023e-07 -5.1944675e-14 -1.7361568e-08
6.162311e-12 -6.725245e-13 3.576896e-32 -1.7700215e-06 -1.622274e-06 -9.836525e-10 3.1520332e-15 6.027708e-14
-9.413382e-33 -1.1691635e-13 -5.0500914e-14 8.501101e-32 1.1053066e-32 -5.9400363e-06 -2.3336289e-32 -8.195231e-14
-3.242846e-09 -1.2861693e-06 -4.561789e-08 6.1346415e-14 -1.6389237e-31 -1.951762e-06 -4.061851e-29 -3.696176e-15
-8.3452113e-07 2.0596782e-31 4.9332427e-18 4.578586e-33 -5.840437e-08 -2.4789017e-08 -3.0585065e-31 -2.914346e-14
-3.8386162e-08 -7.236625e-13 -3.9170663e-14 5.5943415e-33 5.8588014e-13 7.916278e-15 -2.0562348e-10 -1.954636e-07
1.3345776e-31 -3.3060025e-14 8.2476265e-35 -3.2432176e-33 1.1317341e-13 -3.6237045e-11 -2.2910974e-14 2.0804185e-13
-3.8474366e-09 1.7999443e-14 4.57849e-29 -4.1375017e-13 3.8983123e-14 7.6132465e-15 -5.895236e-15 -2.124217e-32
-1.4995668e-14 -3.1426677e-07 4.7217167e-14 6.989312e-12 -8.087056e-08 -4.1602966e-06 -1.3295098e-29 -9.059171e-12
-2.646245e-14 1.4405829e-15 1.7833278e-32 5.8077995e-33 8.7479295e-12 2.0034689e-14 -1.6467979e-07 1.4381242e-14
-1.168133e-13 4.434721e-14 -7.680407e-30 5.5095597e-14 5.3604793e-15 1.6131043e-32 -7.3779405e-13 -1.0042058e-08
1.464895e-14 3.943566e-33 -2.0151406e-31 3.4410354e-14 -2.4239088e-14 3.4302805e-14 -5.1429806e-33 -8.049678e-08
1.6274794e-14 -3.092282e-14 -1.186013e-09 -2.750917e-26 5.850615e-31 -1.470321e-14 6.3509976e-31 -9.144561e-32
00000000: d5a3 a407 00df 4692 81cd a1a9 2659 bc27
00000010: b7af ff0b 61b0 b629 883a ecb3 987e 098a
00000020: f926 b28d cb25 9328 2a93 f8b2 be4a 1eb2
00000030: 27a5 5da8 157e 2a8c 8b64 ae8a e80f 8409
00000040: 40cb a827 a931 b389 8c90 fab6 9041 abb5
00000050: 60d3 bb2c fdeb c7aa 04ac 9b0c be37 5f2a
00000060: c5df bb29 78ab f629 0c3e 2cb3 d0b0 6fa8
00000070: 2ea1 ada8 bc24 2e0b e801 5f29 fd2b 882c
00000080: a79b b28b c78f 6c29 98ae d428 7472 1c25
00000090: 79ba 5aaa 592f 3bb6 b16f c8b0 09ad e528
000000a0: a9b1 810a e58d c529 9064 2f89 f499 8ea7
000000b0: 7b10 0e2d 04b8 839b e5eb 31a6 f378 532a
000000c0: b9f4 8929 b712 1aab a151 9719 85d3 4d2c
000000d0: 62b4 e829 4d86 afaa 0a99 beb7 f2de 9528
000000e0: 04be a3a8 3aed b38a 9150 969f 6fca 8db4
000000f0: 1a03 670c 4397 deb5 9a2a 9228 cf66 a78a
00000100: e966 d2b5 1625 528b 055b 6c09 a67e 1ca8
00000110: 0601 1629 1ae2 c9a8 5b07 1a2d 8d18 0d91
00000120: b78d 6f0b 309e 3891 c019 ceb6 3ecf ce8b
00000130: 10ed 7206 7970 5a0d 3393 0d0e 3b09 c60a
00000140: 5eda 8228 856a bcb6 11de a3af 7f1d 2b0c
00000150: bbee 9a0c cb36 8aa7 acdf a029 325e f72c
00000160: 0ed9 f528 a3ec 5a1f 04b0 09a7 a999 8fb4
00000170: bdd2 58b2 180c 2509 f35f cdb2 ae2f 5711
00000180: 2fbb 840d d040 730f 2d62 9a89 356d 45b5
00000190: 91e8 0db3 7eaa cd0c 0fb9 24ab 265f 22a9
000001a0: 6f4b 7329 4302 e6b2 09bc 828b d2e0 8f90
000001b0: c510 2d0c 6ae5 de9b c143 4312 c3a0 0db3
000001c0: 63c1 e888 a597 c8a8 607a 7090 3ebc be0e
000001d0: 30e1 01aa c020 5db2 72de d2a9 edd8 6711
000001e0: 93a7 86a8 f4ee dc29 2baf 3ba9 885d 172d
000001f0: 08a9 02aa 991e c0aa 823d 0e28 8c09 6409
00000200: 8070 93b6 dad6 f7a8 55ff e6a8 d566 4324
00000210: 78a7 8309 cf7e 738b b2fa 40af 664f 4408
00000220: db7a ae8b ae6d a3b2 cd73 1d0b 9bc1 f0a9
00000230: 4ab2 aaa6 5b73 0c0a 0424 08b4 0ad6 79b3
00000240: af9c baaa 45dd 5828 9cf3 8c0a 6e41 780d
00000250: 90fd e30a 8966 92aa 7802 5ba7 13d4 b7b3
00000260: 0460 cb8a 47e4 020a f46b 448b 0a14 892c
00000270: 99eb c427 fe11 6eb4 22f0 69a9 7e22 95b2
00000280: 2ad1 d82c 7f4c 3dab 1ab9 390b 7a91 edb5
00000290: e9bc d9b5 3231 87b0 c020 6327 5fbb 8729
000002a0: 2082 438a d8a2 03aa 976f 63a9 82b3 dc0b
000002b0: 2e90 650a 8650 c7b6 7f56 f28a 4a8a b8a9
000002c0: c0d8 5eb1 71a0 acb5 67ed 43b3 cd23 8a29
000002d0: 95be 548c 04fb 02b6 d7f5 4d90 352b 85a7
000002e0: db03 60b5 46ae 850c 2901 b622 e12f be09
000002f0: 49d8 7ab3 a0ef d4b2 2882 c68c 1f40 03a9
00000300: 08de 24b3 61b1 4bab b368 30a9 3e61 e809
00000310: 1de9 242b 639b 0e28 dd15 62af a0e0 51b4
00000320: f33c 2d0c 9de3 14a9 7042 db06 ceb7 8689
00000330: 07d8 fe29 495f 1fae 1c5d cea8 fb3b 6a2a
00000340: 6932 84b1 e41f a228 3328 6810 afeb e8aa
00000350: 7b90 2f29 e725 0928 f465 d4a7 6097 dc8a
00000360: a811 87a8 7fb8 a8b4 b0a5 5429 20ea f52c
00000370: 0fab adb3 ad98 8bb6 0cd4 868f e15e 1fad
00000380: 415a eea8 219c cf26 fc30 b90a 1e3f f109
00000390: 2ce5 192d d974 b428 d6d2 30b4 e388 8128
000003a0: 2485 03aa dab8 4729 f4c6 1b8f e620 7829
000003b0: b221 c127 ab83 a70a aaab 4fab 7085 2cb2
000003c0: 2ef2 8328 30cf a309 44ca 828c 70f8 1a29
000003d0: 8853 daa8 717c 1a29 8da1 d589 93dd acb3
000003e0: 1f97 9228 9643 0ba9 1f01 a3b0 0438 0895
000003f0: 02dd 3d0d 4b6f 84a8 061a 4e0d 0868 ed8b
