pointnet/weights_per_bundle_ratio025/ST_FO_left_best.pth (torch, 359784 bytes, 17 tensors)

t_grid f4 [100]
0	0x00000000	0.0
1	0x3c257eb5	0.01010101
2	0x3ca57eb5	0.02020202
3	0x3cf83e10	0.030303031
4	0x3d257eb5	0.04040404
5	0x3d4ede62	0.05050505
6	0x3d783e10	0.060606062
7	0x3d90cede	0.07070707
8	0x3da57eb5	0.08080808
9	0x3dba2e8c	0.09090909
10	0x3dcede62	0.1010101
11	0x3de38e39	0.11111111
12	0x3df83e10	0.121212125
13	0x3e0676f3	0.13131313
14	0x3e10cede	0.14141414
15	0x3e1b26ca	0.15151516
16	0x3e257eb5	0.16161616
17	0x3e2fd6a0	0.17171717
18	0x3e3a2e8c	0.18181819
19	0x3e448677	0.1919192
20	0x3e4ede62	0.2020202
21	0x3e59364e	0.21212122
22	0x3e638e39	0.22222222
23	0x3e6de624	0.23232323
24	0x3e783e10	0.24242425
25	0x3e814afd	0.25252524
26	0x3e8676f3	0.26262626
27	0x3e8ba2e9	0.27272728
28	0x3e90cede	0.28282827
29	0x3e95fad4	0.2929293
30	0x3e9b26ca	0.3030303
31	0x3ea052bf	0.3131313
32	0x3ea57eb5	0.32323232
33	0x3eaaaaab	0.33333334
34	0x3eafd6a0	0.34343433
35	0x3eb50296	0.35353535
36	0x3eba2e8c	0.36363637
37	0x3ebf5a81	0.37373737
38	0x3ec48677	0.3838384
39	0x3ec9b26d	0.3939394
40	0x3ecede62	0.4040404
41	0x3ed40a58	0.41414142
42	0x3ed9364e	0.42424244
43	0x3ede6243	0.43434343
44	0x3ee38e39	0.44444445
45	0x3ee8ba2f	0.45454547
46	0x3eede624	0.46464646
47	0x3ef3121a	0.47474748
48	0x3ef83e10	0.4848485
49	0x3efd6a05	0.4949495
50	0x3f014afd	0.5050505
51	0x3f03e0f8	0.5151515
52	0x3f0676f3	0.5252525
53	0x3f090cee	0.53535354
54	0x3f0ba2e9	0.54545456
55	0x3f0e38e4	0.5555556
56	0x3f10cede	0.56565654
57	0x3f1364d9	0.57575756
58	0x3f15fad4	0.5858586
59	0x3f1890cf	0.5959596
60	0x3f1b26ca	0.6060606
61	0x3f1dbcc5	0.61616164
62	0x3f2052bf	0.6262626
63	0x3f22e8ba	0.6363636
64	0x3f257eb5	0.64646465
65	0x3f2814b0	0.65656567
66	0x3f2aaaab	0.6666667
67	0x3f2d40a6	0.6767677
68	0x3f2fd6a0	0.68686867
69	0x3f326c9b	0.6969697
70	0x3f350296	0.7070707
71	0x3f379891	0.7171717
72	0x3f3a2e8c	0.72727275
73	0x3f3cc486	0.7373737
74	0x3f3f5a81	0.74747473
75	0x3f41f07c	0.75757575
76	0x3f448677	0.7676768
77	0x3f471c72	0.7777778
78	0x3f49b26d	0.7878788
79	0x3f4c4867	0.7979798
80	0x3f4ede62	0.8080808
81	0x3f51745d	0.8181818
82	0x3f540a58	0.82828283
83	0x3f56a053	0.83838385
84	0x3f59364e	0.8484849
85	0x3f5bcc48	0.85858583
86	0x3f5e6243	0.86868685
87	0x3f60f83e	0.8787879
88	0x3f638e39	0.8888889
89	0x3f662434	0.8989899
90	0x3f68ba2f	0.90909094
91	0x3f6b5029	0.9191919
92	0x3f6de624	0.9292929
93	0x3f707c1f	0.93939394
94	0x3f73121a	0.94949496
95	0x3f75a815	0.959596
96	0x3f783e10	0.969697
97	0x3f7ad40a	0.97979796
98	0x3f7d6a05	0.989899
99	0x3f800000	1.0

encoder.mlp.0.weight f4 [64, 3]
0	0x2d908500	1.6429968e-11
1	0xaca1fc8e	-4.6039344e-12
2	0x1149ddc9	1.5924447e-28
3	0x3ee31d37	0.44358227
4	0xbac75ac2	-0.0015209543
5	0xbe8509a7	-0.25983927
6	0x2f4f0469	1.8828107e-10
7	0xb0c1f00a	-1.4110821e-09
8	0x92849d73	-8.369185e-28
9	0xbe012d6b	-0.12614982
10	0xbede71f0	-0.43446302
11	0xbd2807f4	-0.04102321
12	0xbd9955ff	-0.074871056
13	0x3e0be22e	0.136605
14	0x3ddfca5e	0.1092727
15	0xbe8ef6c7	-0.2792265
16	0x3f0c8858	0.54895544
17	0xbeaa333a	-0.33242208
18	0xbe857fb0	-0.2607398
19	0x3f0b444b	0.5440108
20	0xbef0a3e6	-0.47000045
21	0x37838d38	1.5682177e-05
22	0xb6d87cea	-6.4518435e-06
23	0x340f2e1e	1.333469e-07
24	0x3233a5d1	1.0456874e-08
25	0xb2b8df08	-2.1521842e-08
26	0xb1b944a1	-5.392011e-09
27	0xbd708bc0	-0.058727026
28	0x3ebb9cb1	0.36642984
29	0xbefc8f91	-0.49328282
30	0x34f6300b	4.5856027e-07
31	0xb49b1a36	-2.889007e-07
32	0xb47d222c	-2.3574893e-07
33	0xbe214756	-0.15749869
34	0xbef72eba	-0.48277837
35	0xbf136532	-0.57576287
36	0xbf11c741	-0.5694466
37	0xbcb4e367	-0.02208109
38	0x3bed9504	0.00725043
39	0xbdcefb3c	-0.10106513
40	0xbea078d8	-0.31342196
41	0xbe5a624b	-0.21326558
42	0xbea306ad	-0.3184103
43	0xbc3ec1b0	-0.011642858
44	0x3e6911bc	0.22760671
45	0x3e81ce1c	0.2535256
46	0xbeb42270	-0.35182524
47	0x3f18c9a7	0.596827
48	0x3ea612be	0.32436174
49	0x3e8d2a41	0.275713
50	0x3eb59731	0.35466912
51	0x3ec03fe3	0.37548742
52	0x3e733191	0.23749377
53	0x3e146e7a	0.14495268
54	0xbe8395a2	-0.25700098
55	0x3e39150d	0.18074436
56	0x3d935c8c	0.07195386
57	0xbea9fd5e	-0.33201116
58	0xbe8d46d6	-0.27593106
59	0xbe15e6bb	-0.14638798
60	0xbe777a3e	-0.24167725
61	0x3ebbc5ff	0.36674497
62	0xbeb15b69	-0.34640053
63	0xbe86ce0f	-0.26329085
64	0xbec788f1	-0.38971666
65	0x3f01a4c6	0.5064205
66	0x3e8dcba9	0.27694443
67	0xbe895f6d	-0.26830617
68	0x3f142061	0.57861906
69	0xbea3cc5b	-0.31991848
70	0xbed3bc38	-0.41354537
71	0xbf148c10	-0.5802622
72	0xbb16e779	-0.0023026152
73	0xbe29d654	-0.16585666
74	0x3caf8420	0.021425307
75	0xbe9343fc	-0.28762805
76	0x3efb8365	0.49123684
77	0x3e9dabb3	0.3079506
78	0xbe642f54	-0.22283679
79	0x3ec1b9ab	0.37836966
80	0xbecf8e88	-0.4053843
81	0x3ee6e6cd	0.45097962
82	0x3e8f1a48	0.27949739
83	0xbf1356ac	-0.57554126
84	0x3ddde04e	0.10833798
85	0x3e9f3847	0.31097624
86	0x3e58a6f1	0.21157433
87	0x3dbe86ff	0.09303092
88	0x3d444832	0.047920413
89	0xbeacd412	-0.33755547
90	0x3f05b462	0.5222837
91	0x3e1c9356	0.15290579
92	0x3e902906	0.28156298
93	0x3f0cc73d	0.54991513
94	0x3ef250a9	0.47327164
95	0xbe0ce98d	-0.13760968
96	0xbed575b0	-0.4169135
97	0x3e5e6d3d	0.21721359
98	0x3e7df38c	0.24799937
99	0xbf09fd1e	-0.5390185
100	0x3e868a6f	0.2627749
101	0x3c93038b	0.017946025
102	0x3ef4a495	0.47781816
103	0x3ead995e	0.33906072
104	0x3ed07cc3	0.40720186
105	0x3ec16e28	0.37779355
106	0x3edcdf6f	0.43139216
107	0xbee8d9e8	-0.4547875
108	0x36e8e9fc	6.941378e-06
109	0xb4c2d65e	-3.6291289e-07
110	0x00002317	1.2588e-41
111	0x3e828f9a	0.25500184
112	0x3d854e1d	0.065090396
113	0xbda5751d	-0.08078978
114	0xbef43c26	-0.4770214
115	0xbe888530	-0.26664114
116	0x3dd43adf	0.10362791
117	0xbdcd368e	-0.10020171
118	0xbd54c905	-0.05194952
119	0x3ecacca4	0.39609253
120	0xbe5d4ecf	-0.21612094
121	0xbe87c45b	-0.26516995
122	0x3dbb5f10	0.09148991
123	0xbae58a91	-0.001751261
124	0xbe0802da	-0.13282338
125	0x3c8b3dd5	0.016997257
126	0xbe9e24b5	-0.3088738
127	0xbee5fe20	-0.44920444
128	0xbe3d090d	-0.18460484
129	0x3dafde81	0.08587361
130	0x3eb47a60	0.35249615
131	0x3ebb7f37	0.36620495
132	0x3e06b868	0.13156283
133	0x3e950055	0.29101816
134	0x3e34d31c	0.17658657
135	0x3ef3dccc	0.47629392
136	0x3d86e59a	0.06586762
137	0xbea44738	-0.32085586
138	0x3eb8360f	0.35978743
139	0x3eb8f402	0.36123663
140	0x3f07d735	0.53062755
141	0x3e1bc9d8	0.15213716
142	0xbee594d8	-0.4484012
143	0x3f0ad85e	0.542364
144	0x3eadf0e8	0.3397286
145	0xbe3c197b	-0.18369095
146	0xbf0c2650	-0.5474596
147	0xbdcdf04e	-0.100556
148	0x3e1fa31c	0.15589565
149	0x3e1677ca	0.14694133
150	0x3ee96662	0.45585924
151	0x3e92a9ab	0.2864507
152	0x3d375298	0.044756502
153	0xbe2d657d	-0.16933246
154	0x3eb7639c	0.35818183
155	0x3ef040c4	0.46924412
156	0xbe1072fe	-0.14106366
157	0xbe3d1c06	-0.18467721
158	0x3d53f50c	0.051747367
159	0xbeaca115	-0.33716646
160	0x3eb4c3e4	0.35305703
161	0x3f06f561	0.5271817
162	0xbd81c4e7	-0.06336384
163	0x3eb2a92c	0.34894693
164	0x3f13f8fa	0.57801783
165	0x36772df7	3.6832623e-06
166	0x9982ba10	-1.3516835e-23
167	0x980110b3	-1.668129e-24
168	0xb6c96b61	-6.0027673e-06
169	0x3ec15ad0	0.37764597
170	0xbe3c3621	-0.18380024
171	0x3f04b9d5	0.5184606
172	0x3ed5ff36	0.41796273
173	0xbf0bb1c1	-0.54568106
174	0xbeb7cfa7	-0.35900614
175	0xbecbaef7	-0.39781925
176	0x3da597ba	0.0808558
177	0x3e96e4cb	0.2947143
178	0xbdc34d06	-0.095361754
179	0x3f0d75ab	0.5525767
180	0x3e4d7a58	0.20066202
181	0x3eaa4791	0.33257726
182	0xbe03dcee	-0.12877247
183	0xbec0301e	-0.3753671
184	0x3e1ac756	0.15115103
185	0x3e0ccfbf	0.13751124
186	0xbd5bc819	-0.053657625
187	0xbef1725c	-0.47157562
188	0x3deb9f69	0.115050144
189	0xbec288ec	-0.37995088
190	0x3ee73cf3	0.45163688
191	0xbeed8fb1	-0.4639869

encoder.mlp.0.bias f4 [64]
0	0xa3840315	-1.4312774e-17
1	0xbe2579ee	-0.16159794
2	0xb7d46249	-2.5318137e-05
3	0x3d729d2e	0.05923193
4	0xbe5daa89	-0.21647085
5	0x3e095a02	0.13413242
6	0x3edd68ee	0.43244117
7	0xb6204198	-2.3880038e-06
8	0x1beb787e	3.8955355e-22
9	0xbdeca338	-0.11554569
10	0x35cd345f	1.5288932e-06
11	0x3cc91c45	0.024549613
12	0x3e51a7ec	0.20474213
13	0x3df86441	0.12128497
14	0x3eac75be	0.3368358
15	0xbca0cd78	-0.019629225
16	0xbe104f61	-0.1409278
17	0x3ea14472	0.31497532
18	0xb837c9f8	-4.3818698e-05
19	0x3e98f1f4	0.29872096
20	0x3eaa1b52	0.3322397
21	0xbec70ab5	-0.38875356
22	0x3eba046f	0.36331508
23	0xbdffc021	-0.124878176
24	0x3c3ca950	0.011514977
25	0x3ec00122	0.37500864
26	0x3e849b8d	0.25899926
27	0x3db9a031	0.09063757
28	0x3e2a2bcb	0.16618268
29	0x3e8cb814	0.2748419
30	0xbdb5e59a	-0.08881684
31	0xbdaa52d5	-0.0831658
32	0xbe992e7f	-0.29918286
33	0x3df0c805	0.11756901
34	0xbeae2b96	-0.34017628
35	0xbeb80a32	-0.35945278
36	0xb61d9afb	-2.3485034e-06
37	0x3cd9397a	0.026516665
38	0x3ecf89f8	0.4053495
39	0x3e6427c5	0.22280796
40	0x3e73ec2f	0.23820566
41	0x3bd2a789	0.006428663
42	0xbe4a8111	-0.19775797
43	0xbde7ab44	-0.11311963
44	0x3e8868f0	0.2664256
45	0x3e0471b1	0.12933995
46	0xbe114fc7	-0.14190589
47	0xbdf22672	-0.11823739
48	0xbda1d556	-0.07902019
49	0xbe8f5046	-0.2799093
50	0x3e82b905	0.25531784
51	0xbe04285d	-0.12906022
52	0x3e11867f	0.14211462
53	0xbdf18da7	-0.11794596
54	0xbe70a694	-0.23501045
55	0x9c8e7a35	-9.428362e-22
56	0x3e81dc0c	0.25363195
57	0xbdd11c58	-0.10210484
58	0xbe20cb0f	-0.1570246
59	0x3dc60ab2	0.09670009
60	0x3e10484d	0.1409008
61	0x3eb103a8	0.34573102
62	0xbdeca57f	-0.115550034
63	0x3d9d51ba	0.07681604

encoder.mlp.2.weight f4 [128, 64]
0	0x00001be5	1.0007e-41
1	0xb7c53e84	-2.3513341e-05
2	0x00002096	1.169e-41
3	0xb59da7ca	-1.1746245e-06
4	0xbaa7f7f0	-0.001281498
5	0xbadd5db7	-0.0016888891
6	0xbad8182f	-0.00164867
7	0x8365c9b9	-6.752862e-37
8	0x00001bf1	1.0023e-41
9	0xbac7f364	-0.0015255031
10	0x063d5d7f	3.561564e-35
11	0xb9fd1929	-0.00048274666
12	0xbab2db80	-0.0013645738
13	0xb779bfa9	-1.4886181e-05
14	0xba9a6dbb	-0.001178197
15	0xb8dc5145	-0.00010505555
16	0xba83ca77	-0.0010054846
17	0xba86240b	-0.001023413
18	0xbab7c52c	-0.0014020554
19	0xba6795d9	-0.000883428
20	0xbacedc82	-0.0015782269
21	0xba2429cf	-0.00062623335
22	0xb900dd35	-0.00012289437
23	0xba6be1b9	-0.0008998174
24	0xadf18d90	-2.7461394e-11
25	0xbac72d76	-0.0015196044
26	0xbad21d81	-0.0016030521
27	0xbaca21da	-0.0015421466
28	0xbabc6c2e	-0.0014375502
29	0xba964164	-0.001146358
30	0xb7304165	-1.0505643e-05
31	0xbac56a5a	-0.0015061602
32	0xbabd2475	-0.0014430421
33	0xbac4d714	-0.0015017712
34	0xba8a5def	-0.0010556559
35	0xbac54591	-0.001505064
36	0x800021c9	-1.212e-41
37	0xb9812d86	-0.00024638715
38	0xba8fcc8d	-0.0010970995
39	0xba28f818	-0.000644566
40	0xb9ca6acb	-0.0003860801
41	0xae0b647f	-3.16942e-11
42	0xb9fecdd5	-0.00048600012
43	0xbac0f7a9	-0.0014722246
44	0xbab9b880	-0.0014169365
45	0xba2e19eb	-0.00066414353
46	0xba9eed8a	-0.0012125236
47	0xb90451b4	-0.00012618938
48	0xb753253d	-1.258525e-05
49	0xbab03f34	-0.001344657
50	0xbaa28874	-0.0012400285
51	0xbac1ce63	-0.001478624
52	0xb916dc1c	-0.00014387112
53	0xbabc8345	-0.0014382383
54	0xbab91990	-0.0014121998
55	0x14181f1e	7.680176e-27
56	0xbacb1f82	-0.0015497061
57	0xbaced88d	-0.001578109
58	0xba241a6d	-0.0006260041
59	0xb8e6550c	-0.00010983096
60	0xbac796a6	-0.0015227392
61	0xbab3cbae	-0.0013717317
62	0xb36cb99e	-5.511685e-08
63	0xbade6d60	-0.0016969852
64	0x802dd9a6	-4.210675e-39
65	0x3d79cd17	0.060986605
66	0x8c0fddee	-1.1083104e-31
67	0xbd5d4bd0	-0.05402738
68	0x3dec5eb8	0.11541504
69	0xbc1057d3	-0.008810001
70	0x3dd10cc0	0.1020751
71	0x00001756	8.371e-42
72	0x80001b91	-9.889e-42
73	0x3c2aca0c	0.010424148
74	0xb304a632	-3.08848e-08
75	0xbd46c9c8	-0.048532277
76	0x3d07d60d	0.03316312
77	0x3d0ae541	0.03391004
78	0x3ca64079	0.020294415
79	0xbd96b291	-0.073582776
80	0xbdb7f1c0	-0.08981657
81	0x3c4f4c7e	0.0126525145
82	0x3bf3af7e	0.007436692
83	0x3d917d80	0.07104015
84	0x3dca5333	0.0987915
85	0xbd44152a	-0.047871746
86	0x3d2329ca	0.039834775
87	0x3dd2dc88	0.10295969
88	0x3c8ac4a9	0.016939478
89	0xbd3ad21b	-0.04561053
90	0xbd9cbfec	-0.07653794
91	0x3dd71fa3	0.10504081
92	0x3d865488	0.06559092
93	0x3bad92ea	0.0052970545
94	0xbd2d2fbd	-0.042281855
95	0xbdf5dec8	-0.12005383
96	0x3d812e65	0.06307677
97	0xbcec7a93	-0.028867042
98	0x3c57979b	0.013158704
99	0xbde99d84	-0.11406997
100	0x00060bc0	5.55228e-40
101	0x3c1162ed	0.008873683
102	0x3dc9b14a	0.09848268
103	0xbba20f8d	-0.0049457015
104	0x3d83611a	0.06415005
105	0x3c4b93da	0.012425387
106	0xbdd83681	-0.10557271
107	0xbdebb556	-0.115091965
108	0x3d6c5723	0.057700288
109	0xbda86307	-0.08222013
110	0xbe05dc9f	-0.13072442
111	0xbdc0ffd2	-0.09423794
112	0x3d21a85d	0.039467204
113	0x3c88bdf4	0.01669214
114	0xbdfeef84	-0.12448028
115	0x3dbcb45c	0.09214088
116	0xbdaa406f	-0.08313071
117	0x3d5bb364	0.053637877
118	0xbdc4cd02	-0.09609415
119	0x180e232b	1.8370825e-24
120	0x3d7119a0	0.05886233
121	0x3da922a1	0.08258558
122	0x3d38dd46	0.045132898
123	0xbdc31a04	-0.095264465
124	0xbd965112	-0.07339682
125	0xbb84760a	-0.0040423917
126	0x3c07e128	0.0082934275
127	0x3daaf077	0.08346646
128	0x10f1fe7f	9.544985e-29
129	0x3c14f2ea	0.009091118
130	0x9367c749	-2.9254554e-27
131	0xbd021dca	-0.03176669
132	0x3d9c0b89	0.07619388
133	0xbc96913a	-0.018379796
134	0x3d7ae0ae	0.061249427
135	0x98887943	-3.527762e-24
136	0x80001b7e	-9.862e-42
137	0x3d88b77e	0.06675623
138	0x32114237	8.455166e-09
139	0x3b399983	0.002832026
140	0xbb421b7d	-0.0029618435
141	0xbb516c93	-0.0031955584
142	0xbcb592a5	-0.022164652
143	0x3d7f6cb5	0.06235953
144	0x3cb14cf7	0.021643145
145	0x3cea7d7d	0.02862429
146	0xbd532dc3	-0.051557314
147	0x3d214f12	0.039382048
148	0xbd3517e7	-0.04421225
149	0x3d75585f	0.05989873
150	0x3e10a9f9	0.1412734
151	0x3d199fb0	0.037505805
152	0xbc1f2d5b	-0.009715403
153	0xbd9a3c20	-0.07530999
154	0xbbf56c44	-0.007489713
155	0x3d8c2f59	0.06844968
156	0x3d934f78	0.07192892
157	0x3df94111	0.121706136
158	0x3e0360d1	0.12829901
159	0x3cdccc9e	0.026953038
160	0xbd233199	-0.039842222
161	0xbdc146c8	-0.094373286
162	0xbdc50274	-0.096196085
163	0x3d06d223	0.032915246
164	0x0dbbfd75	1.1585782e-30
165	0xbd8a7c6a	-0.06762011
166	0x3da9acc5	0.08284906
167	0x3dce653a	0.10077901
168	0xbc516641	-0.012780727
169	0xbbc560db	-0.006023509
170	0x3b067f6b	0.0020522724
171	0x3dc5f636	0.09666102
172	0x3ddf36f0	0.1089915
173	0x3df76432	0.120796576
174	0xbd13d456	-0.03609117
175	0x3e15b8ae	0.14621231
176	0x3d3e3c1a	0.046444036
177	0x3d01f25f	0.031725284
178	0x3d9b0e6c	0.0757111
179	0x3d787998	0.060662836
180	0x3db4f913	0.0883657
181	0xbd36c4d3	-0.0446213
182	0x3dfcd00b	0.123443685
183	0x194b1889	1.0499809e-23
184	0xbdc7a325	-0.09747914
185	0x3d720348	0.05908516
186	0xbcf91ffe	-0.030410763
187	0x3d8cd36d	0.06876264
188	0xbc9a5938	-0.018841371
189	0xbd8f02f5	-0.06982986
190	0x3d27a02d	0.04092424
191	0xbdda4fa5	-0.10659722
192	0x13727d8a	3.060659e-27
193	0x3cf6cac4	0.030125983
194	0x8df42af8	-1.5048005e-30
195	0x3dc4b22a	0.096042946
196	0x3db06557	0.08613079
197	0x3cf9284c	0.030414723
198	0xbdd7cede	-0.10537504
199	0x07bd39b1	2.8471467e-34
200	0x03c69806	1.1672297e-36
201	0x3df86db7	0.121303014
202	0xb294c92b	-1.7320948e-08
203	0x3d80db41	0.06291819
204	0x3e091742	0.13387778
205	0x3d1ae40e	0.037815146
206	0x3dcac133	0.09900131
207	0x3d437e5a	0.04772792
208	0xbcbe5b02	-0.023236755
209	0xbdf8b76e	-0.121443614
210	0x3cc87b34	0.02447281
211	0x3d608f7e	0.054824345
212	0x3c5f7b0c	0.0136401765
213	0x3d6272f4	0.05528541
214	0xbbabed6b	-0.0052468083
215	0xbcf3200c	-0.029678367
216	0x3c2ad608	0.010427006
217	0xbc0f03c9	-0.00872893
218	0x3dd706dd	0.10499356
219	0x3d7ee5ff	0.06223106
220	0x3d3787de	0.044807307
221	0xbd8a7455	-0.0676047
222	0xbd2889b2	-0.04114694
223	0x3afe67f0	0.0019409638
224	0x3db8c806	0.090225264
225	0x3dc3cf74	0.09561053
226	0xbc8d7745	-0.017268786
227	0xbcf3221f	-0.029679356
228	0x00001bb9	9.945e-42
229	0xbda90bb1	-0.08254183
230	0xbd3979e7	-0.04528227
231	0x3c0df996	0.008665463
232	0xbd4550f2	-0.0481729
233	0x3bed8235	0.007248188
234	0x3b6cd4d5	0.00361376
235	0x3ddc65af	0.10761582
236	0xbce825e6	-0.028338384
237	0xb96a7248	-0.00022358552
238	0x3a91c149	0.0011120226
239	0x3dbbb1db	0.091647826
240	0xbdf1618a	-0.11786182
241	0xbd03f6e3	-0.03221787
242	0xbe0d13d4	-0.13777095
243	0xbd879615	-0.06620423
244	0xbd040413	-0.032230448
245	0x3d823054	0.06356874
246	0xbcea15ae	-0.02857479
247	0x09138980	1.7759134e-33
248	0x3c5573bb	0.013028081
249	0xbde4db09	-0.1117459
250	0x3de32e90	0.110928655
251	0xbd2a92fd	-0.041644085
252	0x37c67303	2.3656996e-05
253	0x3d729122	0.05922044
254	0x3d3a754a	0.04552201
255	0xbcb7ac2b	-0.022420963

encoder.mlp.2.bias f4 [128]
0	0xb9e94c16	-0.00044497912
1	0x3d829383	0.06375792
2	0xbd6cca20	-0.05780995
3	0xbda21755	-0.079146065
4	0x3d5b3181	0.053514007
5	0xbdab7e1f	-0.08373665
6	0x3d20c326	0.039248608
7	0xbdc8f6ff	-0.09812736
8	0xbc9b2635	-0.018939117
9	0xb7d3f8e3	-2.5269057e-05
10	0x3c916867	0.017749978
11	0x3a007241	0.00048998377
12	0x3d012bfc	0.031536087
13	0xbd2269f0	-0.03965181
14	0x3db9c0af	0.090699546
15	0xb9eea0a5	-0.00045514587
16	0xbd959b51	-0.07305015
17	0x8df26432	-1.4938523e-30
18	0x3ca87467	0.020563317
19	0x3c40c4aa	0.011765638
20	0xbdbbcdcf	-0.09170114
21	0x3d8b987c	0.068161935
22	0xbca7bf43	-0.020476943
23	0xbdac168e	-0.084027395
24	0xbcfc118c	-0.030770086
25	0x3cae020b	0.021241209
26	0x3d7f9e75	0.062406976
27	0xbd4c9e25	-0.049955506
28	0x3caa1bb4	0.020765163
29	0x3cb59881	0.022167446
30	0x3cbd9339	0.02314149
31	0xbd53e446	-0.05173137
32	0xbd87daeb	-0.06633552
33	0x3b1f3f06	0.002429904
34	0xbc269304	-0.010166887
35	0xbd70393a	-0.058648326
36	0xbc0c843d	-0.00857645
37	0x3b699767	0.0035643221
38	0xbcae38aa	-0.021267254
39	0x3ce29c6b	0.027662477
40	0xbd430992	-0.04761655
41	0xba376994	-0.00069966284
42	0xbdcdec58	-0.100548446
43	0xba2c4b41	-0.0006572493
44	0x3d011df4	0.031522706
45	0xbd4ab568	-0.04948941
46	0xbd80b12a	-0.06283791
47	0xb90026d9	-0.00012221503
48	0x3d585f5b	0.052825313
49	0xa9943198	-6.5811235e-14
50	0x3cdbcd4d	0.026831293
51	0xbdd59ba2	-0.10430075
52	0x3d59b05c	0.053146705
53	0xbdabfe88	-0.08398157
54	0x3d4a1cff	0.04934406
55	0x3cbec928	0.023289278
56	0x3d7cb32e	0.061694317
57	0x3c7fae68	0.0156055465
58	0xbd10075f	-0.03516328
59	0x3d58587e	0.052818768
60	0x3d09fd89	0.033689056
61	0xbd827712	-0.06370367
62	0x3b9fb244	0.004873546
63	0xbb99be14	-0.0046918485
64	0xbd9b9f29	-0.07598717
65	0xbd8edcdf	-0.069757216
66	0xbd9d228f	-0.07672607
67	0xbd157872	-0.03649182
68	0xbd3f9231	-0.04677028
69	0x3d0874a4	0.033314362
70	0xb6a246a7	-4.8362012e-06
71	0xbdca7e02	-0.09887315
72	0x3cb3c9f2	0.021946881
73	0xb9d887f1	-0.00041300015
74	0x2da7b2ac	1.9065048e-11
75	0x3be9f088	0.0071392693
76	0xbda7747c	-0.081765145
77	0x3ae62d46	0.00175611
78	0x3d35ec4d	0.044414807
79	0x3d1fe65e	0.039038055
80	0x3c077e4e	0.0082698595
81	0xbd372580	-0.044713497
82	0xbda8e6de	-0.082471594
83	0x2a6931f0	2.0711883e-13
84	0xb3d1db3f	-9.7722015e-08
85	0xbc80d1a0	-0.015724957
86	0x3c983d8a	0.018584032
87	0x39b955b0	0.00035349792
88	0x3d474368	0.048648268
89	0x3c9e0e3e	0.0192939
90	0xbbe13feb	-0.0068740747
91	0x3db6c03d	0.08923385
92	0x3c28c5d1	0.010301069
93	0xbcea27f1	-0.028583499
94	0xbd3f46dd	-0.04669844
95	0xb6879b35	-4.041382e-06
96	0xbd8c94b1	-0.06864298
97	0x3d5a2dfc	0.05326651
98	0x3bfbe9a7	0.0076877656
99	0xbd2d4c92	-0.04230935
100	0x3beda13d	0.007251887
101	0x3c5b173b	0.013372238
102	0x3d136c3d	0.035991896
103	0xbdf6f6b4	-0.12058774
104	0xbd97e702	-0.07417108
105	0x3cb50fa1	0.022102179
106	0x3c93dd3e	0.018049832
107	0xbc7df269	-0.01549969
108	0x3b0dbef0	0.00216287
109	0xb079b52c	-9.0843133e-10
110	0xbc861622	-0.016367976
111	0xbc1b45d3	-0.009477097
112	0xbdbdb42e	-0.09262882
113	0x3c8915fb	0.016734114
114	0xbc9cf4df	-0.019159732
115	0xbce415b5	-0.027842382
116	0x3c4df86f	0.012571438
117	0xbceec6cc	-0.029147528
118	0x2bcd9c9e	1.4609596e-12
119	0xbc22fc19	-0.0099478
120	0x3b085c99	0.0020807146
121	0x3d0143a7	0.03155866
122	0x3cf9e803	0.03050614
123	0x3c4355f0	0.011922345
124	0x3ce90115	0.028442899
125	0x3d17b220	0.037035108
126	0x3d887311	0.06662572
127	0xbdc01646	-0.09379248

encoder.mlp.4.weight f4 [256, 128]
0	0xb7044d02	-7.885743e-06
1	0xbb5ff20d	-0.0034171373
2	0x3be5fec4	0.007018896
3	0x3d4cd155	0.050004322
4	0x3cdc4289	0.026887195
5	0x3c8f4b58	0.017491981
6	0x3b98dafe	0.004664778
7	0xbc825669	-0.015910344
8	0xbae69540	-0.0017592087
9	0x00001db7	1.066e-41
10	0x3cd1be6e	0.0256035
11	0x8042e2ee	-6.14255e-39
12	0xbc2a48f6	-0.010393372
13	0x3c205be1	0.009787531
14	0x3d472216	0.04861649
15	0x37cfa29e	2.4752047e-05
16	0xbd879ecd	-0.06622086
17	0x8786d184	-2.0285221e-34
18	0xbbd5d436	-0.0065255417
19	0xbd149322	-0.03627313
20	0x3ba4bc1e	0.005027308
21	0xbd85c104	-0.065309554
22	0x3b3fe344	0.0029279748
23	0x3d8e4169	0.0694607
24	0x3d16fae7	0.036860373
25	0xbc80fdcb	-0.015746018
26	0x3d7c70ef	0.06163114
27	0x3c20f2e9	0.009823539
28	0x3ca6a539	0.020342456
29	0xbca0ba3a	-0.01962005
30	0xbc5b6d80	-0.013392806
31	0xbd2cb002	-0.04216004
32	0x3b4aa685	0.0030922007
33	0xbd250f86	-0.040298007
34	0x3c94fdd7	0.018187447
35	0xbc62b5fe	-0.013837336
36	0x0006d6e7	6.28105e-40
37	0x3afee976	0.0019448239
38	0xbc86430b	-0.01638939
39	0xbc103ae9	-0.008803108
40	0x3d14ff10	0.03637606
41	0x396fdf5f	0.00022876028
42	0x3c3647b6	0.011125496
43	0x3d5c4c6f	0.05378383
44	0x80012ca2	-1.07847e-40
45	0x38d458ee	0.00010125512
46	0xbbab7918	-0.0052329414
47	0xb8ce86d9	-9.847963e-05
48	0xaf86f512	-2.454859e-10
49	0x250206a2	1.127795e-16
50	0x3b86149d	0.0040918128
51	0xbd60c4e2	-0.054875262
52	0xbd8e3389	-0.06943423
53	0x3c1c017d	0.009521839
54	0x00001be9	1.0012e-41
55	0x3c9726ca	0.018451113
56	0xbd8af09f	-0.06784176
57	0xbcead27d	-0.028664822
58	0xbb578647	-0.0032886432
59	0xbb68597d	-0.003545373
60	0x3d48323e	0.04887604
61	0xbcd8e7c8	-0.02647771
62	0x3c8ee1c9	0.017441647
63	0x3c7b502e	0.015338941
64	0x3cb3422c	0.02188214
65	0xbcc500f1	-0.0240483
66	0xbcbd063d	-0.023074264
67	0x3d50b915	0.050957758
68	0x8041beb7	-6.037723e-39
69	0xba0581ed	-0.0005092908
70	0x2f9833b6	2.7685382e-10
71	0xbd2655b4	-0.040609077
72	0x80001bb3	-9.937e-42
73	0x3caef481	0.021356823
74	0x80001c24	-1.0095e-41
75	0x3b184762	0.0023235907
76	0x3c571aa3	0.013128909
77	0x000bb24e	1.074154e-39
78	0xbd1abbcc	-0.037776753
79	0x3d738045	0.0594485
80	0x00001cbb	1.0307e-41
81	0xbb30f9ca	-0.0027004355
82	0x3d303503	0.043019306
83	0xa50a2e5a	-1.1985297e-16
84	0xac23658f	-2.322007e-12
85	0x80001bac	-9.927e-42
86	0x3cb4be3b	0.022063365
87	0xbc7b3076	-0.015331378
88	0x3ccdce89	0.025122898
89	0x3d884c57	0.06655186
90	0x3b92ac07	0.0044760737
91	0xbd8a667d	-0.06757829
92	0x828b6771	-2.0483587e-37
93	0xbd8132a1	-0.06308485
94	0x3c8b4abc	0.01700341
95	0x354f1198	7.713911e-07
96	0xbb5d95e7	-0.0033811273
97	0x3b9cb98d	0.0047828616
98	0xbce5f1e5	-0.028069446
99	0x3a400eb1	0.0007326408
100	0xbca4153a	-0.020029653
101	0xbd499e7a	-0.0492234
102	0x3ce477dd	0.027889187
103	0xbd759269	-0.05995408
104	0xbd5ea6fe	-0.054358475
105	0xb770eccb	-1.4360247e-05
106	0xb9d0e28b	-0.0003984164
107	0x00001c2f	1.011e-41
108	0x09e142cd	5.42296e-33
109	0xac43ffca	-2.7853158e-12
110	0xbcb8940a	-0.022531528
111	0xbc11d149	-0.008899995
112	0x3ae9d151	0.001783887
113	0x00001b5a	9.812e-42
114	0x8736f8ed	-1.3765311e-34
115	0x3c1325ae	0.0089811515
116	0xbba24f21	-0.0049532806
117	0xbd21bb47	-0.039485242
118	0xaa54d49e	-1.8903149e-13
119	0xbbf8da96	-0.007594417
120	0x39b8e206	0.00035263615
121	0xbcf7b71d	-0.030238682
122	0xbc0fbb81	-0.008772732
123	0xbc7b321d	-0.015331772
124	0xb928b0ce	-0.00016087593
125	0x3bdcd5b1	0.006739341
126	0xbcfc29d1	-0.030781658
127	0xbd3443a9	-0.04400984
128	0xb90a5b84	-0.00013194798
129	0x3d4712f9	0.048602078
130	0x3d48e624	0.049047604
131	0xbd3cac9a	-0.046063043
132	0xbd840e93	-0.06448092
133	0x3d8af003	0.0678406
134	0xbc12b449	-0.008954116
135	0xbd61fe02	-0.05517388
136	0x3d825353	0.06363549
137	0x00001b6f	9.841e-42
138	0x3cd915a1	0.026499571
139	0x00002291	1.24e-41
140	0x3d9cc579	0.076548524
141	0xbd04c141	-0.032410864
142	0xbd7e0ca3	-0.06202377
143	0x3965b440	0.0002190629
144	0x3ceb998c	0.02875974
145	0x800b9798	-1.064572e-39
146	0xbc729e23	-0.014808211
147	0xbcfd1d8b	-0.030897876
148	0xbc827d93	-0.01592902
149	0xbdacd1be	-0.08438443
150	0xbd128a00	-0.03577614
151	0x3ca2be38	0.019866094
152	0x3d865238	0.06558651
153	0xbd29c09a	-0.041443445
154	0xbc3efc3e	-0.011656819
155	0x3d24d9aa	0.040246643
156	0xbd89d4e5	-0.067300595
157	0x3d9e172e	0.07719265
158	0xbc681a9b	-0.0141664995
159	0xbcd5d15b	-0.026100805
160	0xbc3c79e3	-0.011503669
161	0xbd5bddb6	-0.053678237
162	0x3aee77f1	0.0018193704
163	0xbda73287	-0.08163934
164	0x80001c0d	-1.0063e-41
165	0xbd923d03	-0.07140543
166	0xbcd067a3	-0.025440043
167	0xbc376610	-0.011193767
168	0x3be98ea5	0.0071276003
169	0x39b71e22	0.0003492693
170	0xbdab2dda	-0.08358355
171	0x3c86c5b4	0.016451694
172	0x0000e83c	8.331e-41
173	0xbc61e9ed	-0.013788682
174	0x3d45155b	0.04811607
175	0xb9d3b616	-0.0004038072
176	0xbaab8704	-0.0013086502
177	0x33e5349f	1.0673215e-07
178	0xbd43fc02	-0.047847755
179	0xbc875d7a	-0.016524065
180	0xbb59a638	-0.0033210646
181	0xbc06b95f	-0.008222907
182	0xbb8d1b33	-0.004306221
183	0x3af7a27c	0.0018893029
184	0x3db1c2fd	0.08679769
185	0xbd7f1a47	-0.06228092
186	0x3d8638e8	0.06553823
187	0xbc24d313	-0.01006009
188	0x3d9fe536	0.078073904
189	0xbd64dce6	-0.055874728
190	0x3b787ee4	0.003791743
191	0xbc8a27fa	-0.016864765
192	0x3991d88b	0.00027817892
193	0xbc896871	-0.016773434
194	0xbd359749	-0.04433373
195	0x3cbd5c46	0.023115288
196	0x80001bab	-9.925e-42
197	0xbda23d95	-0.07921902
198	0x37445b38	1.1703749e-05
199	0x3c99a611	0.018755944
200	0x80001d2f	-1.0469e-41
201	0xbc3392cc	-0.010960292
202	0x0041cb9f	6.042353e-39
203	0xbc10f741	-0.008848012
204	0x3d14e607	0.036352184
205	0x80001c73	-1.0206e-41
206	0xbd6659d1	-0.056238
207	0xbd1664c0	-0.036717176
208	0x8000152c	-7.595e-42
209	0xbba6c439	-0.0050893095
210	0x3b1c9047	0.0023889707
211	0x26375eb4	6.3619226e-16
212	0xb5e20fb2	-1.684288e-06
213	0x024d408d	1.5079547e-37
214	0x3d8ffa9f	0.07030224
215	0xba08a8e5	-0.00052131555
216	0x3dc6dda7	0.097102456
217	0xbc8e006a	-0.017334182
218	0x3d91600d	0.07098398
219	0x3d993da5	0.07482461
220	0x32d29c31	2.4518245e-08
221	0xbcc04519	-0.023470448
222	0x3c23cde5	0.00999782
223	0x38e63366	0.00010976828
224	0xbc8b88d2	-0.017033014
225	0x3d253a53	0.040338825
226	0xbd1732ce	-0.036913686
227	0xbd46a50d	-0.04849725
228	0x3d2820ec	0.04104702
229	0xbd837ebb	-0.06420656
230	0xbcb0be7b	-0.021575203
231	0xbd2c2a2c	-0.042032406
232	0xbd50d561	-0.050984744
233	0xbb899557	-0.004198711
234	0xbc333598	-0.010938071
235	0x848529a2	-3.1306383e-36
236	0xbc41bee6	-0.011825299
237	0xb5698feb	-8.700869e-07
238	0xbc3cec90	-0.01153101
239	0x3c1755b7	0.009236745
240	0x3d48dfb6	0.049041472
241	0x80001c07	-1.0054e-41
242	0xbb4ba173	-0.0031071573
243	0x3d0a7715	0.03380497
244	0x3c4f5d8e	0.0126565825
245	0xbd836c68	-0.06417161
246	0x2b00cb34	4.5756736e-13
247	0x3b569267	0.0032741071
248	0x3b19b924	0.00234563
249	0xbd1c7a66	-0.038202666
250	0xbc991ada	-0.018689562
251	0xbc816484	-0.015795
252	0xbc0eca12	-0.0087151695
253	0xbd3f2cfe	-0.046673767
254	0xbd5cbba6	-0.053889893
255	0xbcf92f50	-0.030418068

encoder.mlp.4.bias f4 [256]
0	0xbcfa09be	-0.030522224
1	0xbd26ad5c	-0.040692672
2	0xbcf5dad1	-0.030011566
3	0xba420e2c	-0.00074026245
4	0x3b1ec018	0.0024223384
5	0xbd5295e7	-0.05141249
6	0xbacc726b	-0.0015598064
7	0xbd9529e8	-0.072833836
8	0xbd7d2a5f	-0.061807986
9	0x3c0f94f8	0.008763544
10	0x23650080	1.2414221e-17
11	0x3c112a7a	0.008860225
12	0x3d1da4f9	0.03848741
13	0x3cd2f5f1	0.02575204
14	0xb412cbe2	-1.3671482e-07
15	0xb8acbeb3	-8.2371196e-05
16	0xbd4e99c1	-0.0504396
17	0xbd28f64f	-0.041250523
18	0x3cc94da5	0.024573157
19	0x3c43990c	0.011938345
20	0x3cdab524	0.026697703
21	0x3c42dd0e	0.011893524
22	0xbd7a04fb	-0.061039906
23	0xbd8dd402	-0.06925203
24	0x3c463b7e	0.012099145
25	0xbcc00769	-0.023441033
26	0xab9ad4d3	-1.1001429e-12
27	0x0019469f	2.321221e-39
28	0x3b7998af	0.0038085391
29	0x399cd735	0.0002991498
30	0xbc7ca34a	-0.0154197905
31	0x3c5fc8bb	0.013658698
32	0x3c9b3c1e	0.018949565
33	0x3cfad3c8	0.030618563
34	0xbd86b4ed	-0.065774776
35	0xbccd97b5	-0.025096754
36	0x01c439a1	7.208172e-38
37	0x3b0364f3	0.0020049184
38	0xbc5a2e01	-0.013316632
39	0xbd2ac1eb	-0.04168884
40	0x3c785e4c	0.015159201
41	0x3c55957b	0.013036127
42	0xbad4a8c3	-0.0016224611
43	0xb53912f3	-6.8945445e-07
44	0xbb61ad76	-0.0034435666
45	0xbcf72d42	-0.030172948
46	0x37af62e5	2.0907677e-05
47	0xbcd82467	-0.026384545
48	0x3cfffa17	0.031247182
49	0xbd1164df	-0.03549659
50	0xbaa99da5	-0.0012940658
51	0xbd122246	-0.035677217
52	0x3d1845eb	0.037176054
53	0x3b67e532	0.0035384414
54	0xbc23814d	-0.009979558
55	0xbcf34d5b	-0.029699972
56	0x295af648	4.861934e-14
57	0xb70b53be	-8.304543e-06
58	0xbd1e4a92	-0.038645335
59	0xaea98fe0	-7.7107876e-11
60	0x3d5ff48c	0.054676577
61	0xbcb4a0a3	-0.022049254
62	0x3c76da52	0.0150667
63	0x3ca47e0d	0.020079637
64	0xbd4d69de	-0.05014979
65	0x3dbf21b8	0.09332603
66	0x3bd1f728	0.006407637
67	0x3cc975a8	0.024592236
68	0x3d35ca91	0.044382636
69	0x3cd2ac6a	0.025716979
70	0xbd40fb20	-0.04711449
71	0xbd355b54	-0.04427655
72	0xbcca4736	-0.02469216
73	0x3bc3de0f	0.005977399
74	0xbae5c094	-0.0017528706
75	0x3a00f5a2	0.00049194146
76	0x3d4cc3aa	0.049991287
77	0x3d114b10	0.035471976
78	0x1df3a023	6.448714e-21
79	0xbd196dd6	-0.037458263
80	0x3c8eed79	0.01744722
81	0xbd831cda	-0.064019874
82	0x3cbe3ca1	0.02322227
83	0xbc9065d6	-0.017626684
84	0xbd217fd6	-0.039428554
85	0x26e33ae8	1.5767256e-15
86	0x3a892bdf	0.0010465345
87	0xbd5d1a84	-0.053980365
88	0x3d28c561	0.04120386
89	0xbcdf92b4	-0.027291633
90	0x3c1edc92	0.009696143
91	0xbd4e1880	-0.050316334
92	0xbd5c2b00	-0.053751945
93	0xbcfe0b3b	-0.031011214
94	0xbd860a7f	-0.06544971
95	0x06c0e138	7.25533e-35
96	0xbd9fc3a5	-0.07800988
97	0xaf00524b	-1.1670769e-10
98	0x3ca1e0f0	0.019760579
99	0x3bf8d53c	0.007593779
100	0xbcb13333	-0.021630859
101	0x3cdd4ee0	0.02701515
102	0xbc1ed908	-0.009695299
103	0xbc852cd3	-0.016256725
104	0xb4a11448	-3.0003343e-07
105	0xbcce59c3	-0.025189286
106	0xb9d519d4	-0.0004064577
107	0x3beb6137	0.00718322
108	0xbd06a7ad	-0.03287475
109	0x3ba358d4	0.0049849544
110	0xbd3b3a0f	-0.045709666
111	0xbd80aa6c	-0.062825054
112	0xbd07d7d8	-0.03316483
113	0x3b7033df	0.0036652011
114	0xbce1ab4b	-0.0275475
115	0x949fae51	-1.6123653e-26
116	0x3c2abe86	0.010421401
117	0x3ad8b2d8	0.0016532792
118	0x3d40acab	0.04703967
119	0xbd673619	-0.056448076
120	0x3b5cde5f	0.003370188
121	0xbd85ca88	-0.065327704
122	0xbb9678b1	-0.0045920243
123	0x3cf78316	0.030213874
124	0xb673a9c3	-3.6308636e-06
125	0x3b117eb7	0.0022200772
126	0x3d130910	0.035897315
127	0x3ca7302a	0.020408709
128	0xbc2b17b4	-0.010442663
129	0x3d32ae42	0.043623216
130	0xbc9a96a7	-0.018870665
131	0xbd492482	-0.049107082
132	0x3c1ec2ce	0.00969
133	0xbd0ac4eb	-0.0338792
134	0xbd202e11	-0.039106432
135	0xbd95c774	-0.07313433
136	0xbca439f0	-0.020047158
137	0x3b51a410	0.0031988658
138	0x3b9c30c1	0.004766554
139	0x3ce00a1d	0.027348572
140	0xbc529d37	-0.012854866
141	0xbc9795f1	-0.018504115
142	0x3c0edd2b	0.008719723
143	0x3d11ef54	0.03562863
144	0x3c98ab6c	0.018636428
145	0xbd460301	-0.04834271
146	0x3d49da35	0.049280364
147	0x3ac4c78e	0.0015013085
148	0x3cd7b752	0.026332531
149	0xbcd6339f	-0.026147662
150	0xbd3e2b92	-0.04642827
151	0x3cc1f160	0.023674667
152	0x3cc3ecb3	0.023916578
153	0xbd5e42e0	-0.054262996
154	0xbd220d7f	-0.039563652
155	0xbc8a6ce8	-0.016897634
156	0xb9d4bca4	-0.0004057634
157	0xbc99213e	-0.018692609
158	0xbd93c396	-0.072150394
159	0xbcc04da2	-0.023474518
160	0xad939cc8	-1.678159e-11
161	0xbd460146	-0.04834106
162	0x3c6761c6	0.014122432
163	0xbd0ff1d6	-0.035142742
164	0xbce4612e	-0.02787837
165	0xbcd45693	-0.025920188
166	0xbb8be2dc	-0.004268987
167	0x1efa0d1c	2.6475202e-20
168	0xbd60f264	-0.05491866
169	0xbbec6ecb	-0.007215356
170	0x3a05ab44	0.0005099068
171	0xbd26cdab	-0.040723484
172	0x02c1fa9b	2.8502642e-37
173	0x3cd9aaa2	0.026570622
174	0x3d0d3714	0.034476355
175	0x3d890061	0.066895254
176	0xbd9f4e5b	-0.07778617
177	0x1510d71f	2.925027e-26
178	0xbca324d0	-0.019915015
179	0x3d53cab7	0.051706996
180	0xbbd59c7c	-0.0065188985
181	0xbcaa3d29	-0.020781117
182	0x3d231e89	0.039824042
183	0x3c8f7c2a	0.01751526
184	0xb9808b0e	-0.00024517666
185	0x3d11b377	0.03557154
186	0xbcabc820	-0.02096945
187	0xbc51c7ae	-0.012803955
188	0x3d3f5697	0.046713438
189	0xb1926610	-4.2607624e-09
190	0x3cf648ce	0.030064013
191	0x3d135cdf	0.03597724
192	0xba5b46aa	-0.0008364717
193	0x3d090ace	0.03345757
194	0x39cc1325	0.00038924176
195	0xbd475f05	-0.048674602
196	0x3c8f644b	0.017503878
197	0x3cc833f8	0.024438843
198	0xbcb9e5ab	-0.022692522
199	0x3cc92c91	0.024557384
200	0xbbe05f1b	-0.006847275
201	0xbb209d93	-0.0024507984
202	0x9aad8dc3	-7.178015e-23
203	0xbb206539	-0.0024474396
204	0x3d07e054	0.03317292
205	0x3c966b46	0.018361699
206	0x3c8f47f9	0.017490374
207	0xbd2670d9	-0.040634964
208	0x32cb913b	2.3698354e-08
209	0x3d608f90	0.054824412
210	0x3b6ebfd9	0.0036430268
211	0x3ced00f9	0.028931128
212	0x3d60db2f	0.05489653
213	0x3d223525	0.039601464
214	0xb3db605b	-1.0215509e-07
215	0xbd73c25b	-0.059511524
216	0xb60a8d57	-2.0645873e-06
217	0xab39e314	-6.6040337e-13
218	0xbcd5a555	-0.026079813
219	0xbcaca421	-0.021074357
220	0xbd5a7f71	-0.053344194
221	0xbd50f2e4	-0.05101289
222	0xa26578c8	-3.1099228e-18
223	0x3cf19d65	0.029493997
224	0xbc557ac9	-0.013029763
225	0xbd850720	-0.064954996
226	0xbcdca767	-0.026935292
227	0x3d6f641f	0.058445092
228	0x3d75da54	0.060022667
229	0xbc479950	-0.012182549
230	0xbd1c768a	-0.038198985
231	0x3b2b4751	0.0026135037
232	0xbcf2aafd	-0.02962255
233	0x20442a59	1.6615857e-19
234	0xbc43e14f	-0.011955573
235	0xbc726a0a	-0.0147957895
236	0x9d594588	-2.8755658e-21
237	0x3d021084	0.03175403
238	0xbc5938f6	-0.013258209
239	0x3cfd7654	0.030940212
240	0xbcf41924	-0.029797144
241	0x3be76201	0.0070612435
242	0xbc792b4c	-0.015208077
243	0x3c5dbdbd	0.013534007
244	0xbd5194f2	-0.051167436
245	0xbd3e660e	-0.046484046
246	0xbdac1f01	-0.08404351
247	0x3d3a5f23	0.045500886
248	0x3bfeb3cc	0.0077728983
249	0x3c6e45ad	0.014542979
250	0xbc28828b	-0.01028503
251	0xbcc4d94c	-0.024029396
252	0xbb5f1d88	-0.0034044702
253	0xbcc7ba05	-0.024380693
254	0xbd817820	-0.0632174
255	0x3c935e85	0.017989406

pos_mlp.0.weight f4 [32, 1]
0	0x3750367f	1.24104545e-05
1	0xb9aa8d47	-0.00032530187
2	0x3f53cf17	0.8273787
3	0x3f224575	0.63387233
4	0x3f812895	1.009051
5	0x3eccab9b	0.39974675
6	0xbea0053b	-0.3125399
7	0xbefb4477	-0.49075672
8	0x3ecda71d	0.4016656
9	0x3efae469	0.49002388
10	0x3f79e2e5	0.9761184
11	0x34e22b11	4.2127115e-07
12	0x3e18a20a	0.14905563
13	0xb4a6c366	-3.106208e-07
14	0x26baeb3d	1.2970104e-15
15	0x19c841c3	2.0706076e-23
16	0x3f3634b3	0.7117416
17	0x3ec8eb1d	0.39241877
18	0x3ee97419	0.45596388
19	0x3f1ae0c2	0.60499203
20	0xbe55dd61	-0.2088523
21	0xbf198b16	-0.59977853
22	0xbd400037	-0.046875205
23	0xbef5dd5f	-0.48020455
24	0x394a86c3	0.00019314424
25	0xbf46b8ea	-0.77625906
26	0x3f80f235	1.0073916
27	0xbeecb74f	-0.46233603
28	0x3f74675d	0.9547022
29	0x38ff3f30	0.00012171117
30	0xb0984f41	-1.1081981e-09
31	0xb7feffd6	-3.0398292e-05

pos_mlp.0.bias f4 [32]
0	0xb95585e4	-0.00020363141
1	0xba549a8c	-0.00081101875
2	0x3f338707	0.7012791
3	0x3f87785d	1.0583607
4	0xbddb8568	-0.107188046
5	0x3f608310	0.87699986
6	0x3f331529	0.6995416
7	0x3f81a49f	1.0128363
8	0x3f3ecdf2	0.74533
9	0x3e835923	0.25653943
10	0xbdde63b8	-0.108588636
11	0xb7990244	-1.8240076e-05
12	0x3f48a658	0.7837882
13	0xba010761	-0.0004922059
14	0xb978b020	-0.00023716735
15	0xb1794a84	-3.6276626e-09
16	0xbe5038e6	-0.20334205
17	0x3f14917a	0.5803448
18	0x3f25c81a	0.64758456
19	0x3f01446d	0.50495034
20	0x3e6d6a83	0.23185162
21	0x3f4ba557	0.79549164
22	0x3c5f7312	0.013638275
23	0x3f02c30c	0.5107887
24	0xbb482ebc	-0.0030545434
25	0x3f34d80b	0.70642155
26	0x3e09cf60	0.13458014
27	0x3ee52992	0.44758278
28	0xbeb67164	-0.35633385
29	0xb9ecd4ef	-0.00045172076
30	0xa628394f	-5.8364376e-16
31	0xb31aba60	-3.6025426e-08

pos_mlp.2.weight f4 [32, 32]
0	0x00001c12	1.007e-41
1	0x00001b77	9.853e-42
2	0x3e5b9051	0.21441771
3	0x3bb300ce	0.0054627424
4	0x3e9ab81b	0.30218586
5	0x3d84f839	0.06492657
6	0xbd4dbc90	-0.050228655
7	0xbe4852c7	-0.19562827
8	0x3d583cc3	0.052792322
9	0x3dbb4087	0.09143167
10	0x3eb2772d	0.3485655
11	0x8e1543b4	-1.8398266e-30
12	0x3e5a5b3f	0.2132387
13	0x962613c7	-1.3415614e-25
14	0x9d75c192	-3.2525554e-21
15	0x0000690f	3.7688e-41
16	0x3da0b285	0.0784655
17	0x3e46e26d	0.19422312
18	0x3e7a2c2f	0.24430917
19	0x3e7ebd1c	0.24876827
20	0xbd778005	-0.060424823
21	0xbe8ab2e7	-0.27089617
22	0x3c0482d8	0.008087836
23	0xbdacc1f1	-0.08435429
24	0x800020e3	-1.1798e-41
25	0xbdc0bc0b	-0.09410866
26	0x3ea1d159	0.31605032
27	0xbd982b0d	-0.07430086
28	0x3e8cea96	0.27522725
29	0x00001e47	1.0861e-41
30	0x80063f3c	-5.73697e-40
31	0x910f6ebd	-1.1314835e-28
32	0x80001d49	-1.0506e-41
33	0x1ce0e04b	1.4881055e-21
34	0xbca64ce6	-0.02030034
35	0x3cf46e6f	0.029837815
36	0xbe0b9335	-0.13630374
37	0x3dceb7bd	0.10093639
38	0x3dbdf204	0.092746764
39	0x3e3205af	0.1738498
40	0x3d43a2c9	0.047762666
41	0xbd254914	-0.040352896
42	0xbdec845f	-0.11548685
43	0x12f1560e	1.5230452e-27
44	0x3d6fa73b	0.058509093
45	0x161ece10	1.282816e-25
46	0x00001eec	1.1093e-41
47	0x80001c87	-1.0234e-41
48	0xbe14b2d7	-0.14521347
49	0x3d3fdd68	0.04684201
50	0x3ccba976	0.024861079
51	0xbc9effca	-0.01940908
52	0x3ded2970	0.11580169
53	0x3e03bc95	0.12864907
54	0xbbe2c522	-0.0069204727
55	0x3ddbe672	0.10737313
56	0x8e21c71b	-1.9940648e-30
57	0x3e0298ea	0.12753645
58	0xbdc83e2a	-0.09777482
59	0x3dde5200	0.10855484
60	0xbe3ba267	-0.1832367
61	0x8993d39f	-3.558797e-33
62	0x0000192d	9.031e-42
63	0x886f108c	-7.1940897e-34
64	0x00001bc7	9.965e-42
65	0x12c4f218	1.242902e-27
66	0x3df2c69a	0.118542865
67	0x3e34d2c7	0.1765853
68	0x3cf4f33e	0.029901143
69	0x3e3c0e4b	0.18364827
70	0xbcd55ad7	-0.026044292
71	0xbe6e2cb3	-0.23259239
72	0x3d8cb557	0.06870525
73	0x3e88d191	0.26722386
74	0x3eab3ef0	0.33446455
75	0x1b0c0ef9	1.1585367e-22
76	0xbcc5c5b1	-0.024142118
77	0x1c976585	1.0018584e-21
78	0x00001e0b	1.0777e-41
79	0x1c8ecf81	9.45041e-22
80	0x3d6fd258	0.05855021
81	0xbc83e55b	-0.016100576
82	0x3cfd9ba2	0.030958
83	0x3dc5230b	0.096258245
84	0xbe81d6be	-0.25359148
85	0xbe0a2278	-0.13489711
86	0x3c0e83af	0.008698388
87	0xbe83c66b	-0.25737318
88	0x9c34429c	-5.9643095e-22
89	0xbe21df83	-0.15807919
90	0x3e8cf991	0.27534154
91	0xbe141b07	-0.14463435
92	0x3e9769ae	0.29572815
93	0x9fb2ba87	-7.5694516e-20
94	0x00001b85	9.872e-42
95	0x00001b6d	9.839e-42
96	0x1c85a17c	8.842944e-22
97	0x00001c3e	1.0131e-41
98	0xbdc20cf6	-0.09475128
99	0xbda708b2	-0.081559554
100	0xbdd51dc9	-0.10406072
101	0x3e35922d	0.17731543
102	0x3e99715d	0.29969302
103	0x3eaf528a	0.3424266
104	0x3e4a5b78	0.19761455
105	0xbd3b4a16	-0.04572495
106	0xbe579524	-0.21052986
107	0x80001c65	-1.0186e-41
108	0x3c6a935f	0.014317363
109	0x00001b67	9.83e-42
110	0x80001cf9	-1.0393e-41
111	0x8fc22deb	-1.9147564e-29
112	0xbe6ee02a	-0.233277
113	0x3e128fb8	0.14312637
114	0x3e1f38a1	0.15548946
115	0xbe0100b3	-0.12597923
116	0x3e5c3f00	0.21508408
117	0x3e874e9b	0.2642716
118	0xbc351847	-0.011053151
119	0x3e009423	0.1255651
120	0x01b35852	6.588095e-38
121	0x3e57e91f	0.21085022
122	0xbe9069b3	-0.28205642
123	0x3e883178	0.26600242
124	0xbe0b9104	-0.13629538
125	0x9c7926b0	-8.243719e-22
126	0x19349dde	9.337663e-24
127	0x00001b7d	9.861e-42
128	0x17a4cea6	1.0650417e-24
129	0x00001c45	1.0141e-41
130	0x3e260ff8	0.16217029
131	0xbd9f9b5e	-0.07793306
132	0x3e75fd4c	0.24022406
133	0x3e49bd45	0.19701107
134	0xbdbe4e55	-0.092922844
135	0x3d13019f	0.035890218
136	0x3e3e18dd	0.18564172
137	0x3e227035	0.15863116
138	0x3d23e44f	0.040012654
139	0x049e044b	3.7149564e-36
140	0xbd8dabe9	-0.06917555
141	0x02b39243	2.6385636e-37
142	0x990717f1	-6.984171e-24
143	0x00001a36	9.403e-42
144	0x3dbbfc45	0.09178976
145	0x3de99f14	0.11407295
146	0x3dfd13ee	0.12357317
147	0xbc3db84a	-0.0115795825
148	0xbda20141	-0.079103954
149	0x3a756fdb	0.0009362676
150	0x3b386edf	0.0028142256
151	0xbc86b06a	-0.016441543
152	0x00001bf3	1.0026e-41
153	0xbe5613d0	-0.20905995
154	0x3e83cd5b	0.2574261
155	0xbe051747	-0.12997161
156	0x3e66a65e	0.22524402
157	0x00001fab	1.136e-41
158	0x80001c84	-1.023e-41
159	0x19f5be14	2.5409178e-23
160	0x9798a2a9	-9.863831e-25
161	0x0c5b7059	1.6904955e-31
162	0xba6e7dbe	-0.00090977165
163	0xbab4ea56	-0.0013802748
164	0xb55e051d	-8.2708885e-07
165	0x3aa5c9b0	0.0012648609
166	0x37a5374e	1.9695286e-05
167	0xb73561aa	-1.081118e-05
168	0xb70a07de	-8.227273e-06
169	0xb58bfd7c	-1.0430081e-06
170	0x3799d04d	1.8336019e-05
171	0x80001bb3	-9.937e-42
172	0xb802f82c	-3.1225543e-05
173	0x89b4559f	-4.341394e-33
174	0x00001cd7	1.0346e-41
175	0x9ce3e1d2	-1.5079973e-21
176	0x995f5a82	-1.1547108e-23
177	0xb6d1b0d4	-6.249271e-06
178	0xb6dbe2fa	-6.553132e-06
179	0x39a45165	0.0003134116
180	0x2cb5527c	5.153487e-12
181	0x36320de3	2.653215e-06
182	0x12ebfe39	1.4893256e-27
183	0x0fd9dd7a	2.1483162e-29
184	0x1a06337e	2.7752146e-23
185	0x00003c1d	2.1565e-41
186	0x3a483af6	0.00076381804
187	0x80001c0c	-1.0061e-41
188	0x17290d80	5.4623885e-25
189	0x1c245d12	5.438334e-22
190	0x05b17f55	1.6691774e-35
191	0x132229a4	2.0467805e-27
192	0x95762628	-4.9709404e-26
193	0x969faae3	-2.579568e-25
194	0xbcdf7321	-0.027276577
195	0x3e19ac6f	0.15007184
196	0xbe81bb53	-0.2533823
197	0xbd7df392	-0.061999865
198	0x3ded20b8	0.11578506
199	0x3da5b340	0.0809083
200	0xbd4818b8	-0.0488517
201	0xbdb0f033	-0.08639564
202	0xbd701547	-0.05861404
203	0x00001d3e	1.049e-41
204	0x3e51e06d	0.20495768
205	0x16bc7bdf	3.0451212e-25
206	0x80001bf0	-1.0022e-41
207	0x00001bcb	9.97e-42
208	0xbdd05b7c	-0.10173699
209	0xbcd500f7	-0.026001437
210	0xbbb92c7e	-0.005651056
211	0x3d9dfc09	0.077140875
212	0x3e3149e8	0.17313349
213	0x3e49d079	0.19708432
214	0xbbca88c6	-0.0061808554
215	0x3e95668c	0.291798
216	0x9c9de5be	-1.0448775e-21
217	0x3e3e68da	0.18594685
218	0xbe0076cd	-0.12545319
219	0x3e7b8ed9	0.24566211
220	0xbe97d8b6	-0.29657525
221	0x9aa75507	-6.920695e-23
222	0x9f7305f0	-5.1462163e-20
223	0x80001de7	-1.0727e-41
224	0x0000ada6	6.2293e-41
225	0x0000330d	1.8314e-41
226	0x3d395ef1	0.04525656
227	0xbd207a75	-0.039179284
228	0xbe20dcdc	-0.15709251
229	0x3de30dfd	0.110866524
230	0x3e9d5d33	0.30735168
231	0x3dedaec9	0.11605603
232	0xbc972061	-0.018448057
233	0xbe34a976	-0.17642769
234	0xbe49fac6	-0.19724569
235	0x973044c0	-5.695544e-25
236	0x3e178a32	0.14798811
237	0x00001b74	9.848e-42
238	0x956da13e	-4.7988966e-26
239	0x9ae63989	-9.5218724e-23
240	0xbe56531c	-0.20930141
241	0xbdff2d26	-0.12459783
242	0x3e0c6246	0.13709363
243	0xbe2103b5	-0.1572407
244	0x3e05b119	0.13055839
245	0x3eaf4dc1	0.3423901
246	0xbbd4e9b2	-0.006497585
247	0x3ea9939e	0.33120435
248	0x1b3f3d84	1.5819026e-22
249	0x3e9dee24	0.3084575
250	0x3c8889c9	0.016667264
251	0x3dbd0594	0.092295796
252	0xbe0cdae9	-0.13755383
253	0x80001ba3	-9.914e-42
254	0x93697690	-2.946719e-27
255	0x99905cae	-1.4926684e-23

pos_mlp.2.bias f4 [32]
0	0xbd42ff2c	-0.047606632
1	0x3d89d0d6	0.067292854
2	0x3e1a8d41	0.15092947
3	0x3dce88ef	0.10084712
4	0xbc59f130	-0.0133021325
5	0xb9219de5	-0.00015412977
6	0x3e70fd91	0.23534228
7	0x3e5fd18a	0.21857277
8	0xa031cba4	-1.5059862e-19
9	0x3e855912	0.26044518
10	0x222e9741	2.366147e-18
11	0x3e0377b4	0.12838632
12	0x3bc6cfc6	0.006067249
13	0x3e6c1a51	0.23056914
14	0xa7f2ce44	-6.7392127e-15
15	0x3d695dd3	0.056974243
16	0x3dfa34d0	0.122171044
17	0x3d91038b	0.07080754
18	0x9e042cdc	-6.9972985e-21
19	0x3e02221a	0.12708321
20	0x3d2289f9	0.039682362
21	0x3e3a16c6	0.1817275
22	0x3bd607dd	0.006531699
23	0xa5ae546e	-3.02414e-16
24	0x3ea2848b	0.31741747
25	0xbd5ccfdf	-0.05390918
26	0x3d504a67	0.050852206
27	0x3e0ee328	0.1395384
28	0x3d508fdf	0.050918456
29	0x3d9b64fd	0.07587621
30	0xaaf0a107	-4.27443e-13
31	0x3e881cd8	0.26584506

dec_trunk.0.weight f4 [128, 288]
0	0xba8cc515	-0.0010739887
1	0xbafa4519	-0.0019094079
2	0xbba0e4e1	-0.004910097
3	0x388b3943	6.638702e-05
4	0x3c3dbe29	0.011580982
5	0xbc7979ee	-0.015226824
6	0x3cd5624b	0.026047846
7	0xbd411e00	-0.04714775
8	0xbc917eac	-0.017760597
9	0x3d098458	0.03357348
10	0x80001da8	-1.0639e-41
11	0x3d16b579	0.03679416
12	0xbbf5600a	-0.0074882554
13	0x3d287425	0.04112639
14	0x800012de	-6.768e-42
15	0x80001bd7	-9.987e-42
16	0x3cf96f41	0.030448558
17	0xbbb6b6e5	-0.005576002
18	0x3c5c217b	0.013435717
19	0x8c9b22f7	-2.3902575e-31
20	0xbbe97bae	-0.0071253395
21	0xbd217816	-0.039421163
22	0xbcc21632	-0.023692224
23	0xbc78f813	-0.015195864
24	0x80001c60	-1.0179e-41
25	0x3d0814c8	0.033222944
26	0x80001c01	-1.0046e-41
27	0x80048352	-4.14451e-40
28	0x00001ddf	1.0716e-41
29	0x3bff39f7	0.0077888924
30	0x3ca1f01a	0.01976781
31	0xba065bbb	-0.0005125363
32	0x3d0d8856	0.03455385
33	0x3cd26cce	0.025686648
34	0xbb21acbe	-0.0024669613
35	0xac215941	-2.2929022e-12
36	0x00001b84	9.871e-42
37	0x0000bd02	6.7803e-41
38	0x3d3299ae	0.04360359
39	0x3d0a91e7	0.03383055
40	0x3d003dab	0.03130881
41	0x3ceb110f	0.028694658
42	0xbb66d6a0	-0.0035223141
43	0x0000202b	1.154e-41
44	0x3c431aff	0.011908292
45	0xbcd2d727	-0.025737358
46	0xbcbd9887	-0.02314402
47	0x3d1f0cda	0.038830616
48	0x3b0059ff	0.0019584892
49	0x3c8bec7c	0.017080538
50	0xbced76e9	-0.028987365
51	0xbaafa2f9	-0.001340001
52	0xbcf5f52e	-0.030024137
53	0x80001cf9	-1.0393e-41
54	0xbc2898bb	-0.01029032
55	0x3c8e2446	0.01735128
56	0x00021207	1.90138e-40
57	0x392f2156	0.00016701719
58	0xbc5a3dcd	-0.0133203985
59	0x80001c6b	-1.0194e-41
60	0xbcb9d402	-0.022684101
61	0xbbb3a9ba	-0.0054828795
62	0x20c152d8	3.2750293e-19
63	0x3bda7958	0.0066672973
64	0xbc921aa4	-0.017834969
65	0x300189d8	4.7125814e-10
66	0x3b9cda86	0.004786792
67	0xbc04f0c6	-0.0081140455
68	0xb3938cf8	-6.870863e-08
69	0xbc8e3827	-0.01736076
70	0xbd25cc34	-0.040477946
71	0xbcb60f8a	-0.022224206
72	0xbaeb8c2b	-0.001797085
73	0xbbd40e4c	-0.006471431
74	0x297e5fb9	5.6482356e-14
75	0xbc89eee0	-0.016837537
76	0xbbf2c6a9	-0.007408936
77	0xb794e21c	-1.7748265e-05
78	0x00001f8e	1.132e-41
79	0xb53b2dac	-6.972939e-07
80	0x3c5f04dc	0.013611998
81	0xbc36480b	-0.011125575
82	0x3cf926f4	0.030414082
83	0xba42591a	-0.000741379
84	0x3c101d25	0.008796011
85	0x80001bcd	-9.973e-42
86	0xbca9c9a3	-0.02072603
87	0x3cf8eea8	0.030387238
88	0xb5362b61	-6.786341e-07
89	0x387ca896	6.023849e-05
90	0xbc8b8228	-0.017029837
91	0xbcb7f145	-0.022453913
92	0x3cbf1eb7	0.023330076
93	0xbc24b745	-0.0100534605
94	0xbcd02596	-0.025408547
95	0x80001c0d	-1.0063e-41
96	0xbbca5930	-0.0061751828
97	0x00001bd4	9.983e-42
98	0x2b907d0c	1.0266523e-12
99	0x80001c4a	-1.0148e-41
100	0xbcbd81e5	-0.023133228
101	0x00001e20	1.0807e-41
102	0x000060f5	3.4782e-41
103	0xac9e64fc	-4.5018416e-12
104	0x80001c84	-1.023e-41
105	0xbd24c2df	-0.040224906
106	0xbc28273b	-0.0102632595
107	0x38eaac41	0.00011190074
108	0xbba1d072	-0.0049381787
109	0xbd53e639	-0.05173323
110	0xbcd54e32	-0.026038263
111	0x3d351b11	0.044215266
112	0x3a33dcd6	0.0006861215
113	0x3ce242a9	0.027619677
114	0x3af0d700	0.0018374622
115	0x80026af2	-2.22036e-40
116	0x3cc55665	0.024089048
117	0x3d2dd1bc	0.042436346
118	0x80001c42	-1.0137e-41
119	0xbcf7f651	-0.03026882
120	0x3c8ee495	0.01744298
121	0xbca9362e	-0.020655718
122	0xbc4db46a	-0.012555221
123	0xbc14294c	-0.009043049
124	0x80003576	-1.9178e-41
125	0x3ce37744	0.027766831
126	0x80001d9b	-1.062e-41
127	0xbbe31c81	-0.006930888
128	0xbc209f7c	-0.009803649
129	0xb20312cd	-7.629478e-09
130	0xbc9617c7	-0.018321885
131	0xbbaeb20c	-0.0053312834
132	0x80001b8f	-9.886e-42
133	0xbd390b4d	-0.045176793
134	0xbc9dbe1f	-0.019255696
135	0xbc90fb22	-0.017697874
136	0xab87b099	-9.641343e-13
137	0xbce44f52	-0.027869854
138	0x3d2917cc	0.04128246
139	0x3ce36ab1	0.027760835
140	0xbd1bae6d	-0.038008142
141	0x3b181a34	0.0023208978
142	0x3c5c4a49	0.013445445
143	0x3a0dea46	0.00054136326
144	0xbceef2bb	-0.029168477
145	0x3cd08635	0.02545462
146	0xbcf21214	-0.029549636
147	0xbc81c1fa	-0.015839566
148	0xbccfa5d3	-0.025347626
149	0xbc754d5a	-0.014972055
150	0x3cfc220d	0.030777955
151	0xbccd1594	-0.025034703
152	0xbc445467	-0.011983014
153	0x3cf9d8cb	0.030498883
154	0xbcf4bcde	-0.029875215
155	0x3ca75046	0.02042402
156	0x80196207	-2.331053e-39
157	0xbc1e89f6	-0.009676447
158	0xbcb791bf	-0.022408364
159	0xba5121b1	-0.00079777377
160	0x00001c42	1.0137e-41
161	0xbc764e54	-0.015033323
162	0xbd03bd08	-0.032162696
163	0xbd24317d	-0.04008626
164	0xb96b5fe5	-0.0002244707
165	0xbce1d96d	-0.027569497
166	0x3cbdbed1	0.023162277
167	0x00001c42	1.0137e-41
168	0xbcd4f993	-0.025997913
169	0x3bb4412f	0.0055009346
170	0x00001bdf	9.998e-42
171	0x80001bf5	-1.0029e-41
172	0x00001c81	1.0225e-41
173	0x3cf2f664	0.029658504
174	0x3d31f517	0.043446627
175	0x3cc983c9	0.024598973
176	0xbc9e7e15	-0.01934723
177	0x80001ee7	-1.1086e-41
178	0x3ca2ad12	0.019857917
179	0xbc94b153	-0.018150961
180	0x3b2ecdb4	0.0026672902
181	0xbd085307	-0.033282306
182	0xbb0239be	-0.0019870843
183	0x80001b63	-9.825e-42
184	0x3a885328	0.0010400759
185	0x3d1ef767	0.03881016
186	0xbc8c3cf7	-0.017118914
187	0x8214d163	-1.0933414e-37
188	0xbd1cb1b2	-0.0382554
189	0x80001bbd	-9.95e-42
190	0xbc1ed1f3	-0.0096936105
191	0x3bf25d64	0.007396387
192	0x3ba6eb1f	0.0050939466
193	0xbc3b162e	-0.011418862
194	0x00001cc8	1.0325e-41
195	0x3c04c56d	0.008103711
196	0x3c560179	0.013061875
197	0xbae8f294	-0.0017772489
198	0xb9bb0469	-0.00035670705
199	0xbd17aaed	-0.037028242
200	0x3bad64ca	0.005291556
201	0x370cdfec	8.396786e-06
202	0x800021fd	-1.2193e-41
203	0x3ca278d1	0.019833
204	0x3ca7a35b	0.020463636
205	0x3d499f22	0.049224027
206	0xbd2720ea	-0.040802874
207	0x3c05ed82	0.008174302
208	0x00001b6e	9.84e-42
209	0x271584ab	2.0749823e-15
210	0xbce6c923	-0.028172081
211	0xbce03d30	-0.027372926
212	0x358140e6	9.630137e-07
213	0x3c177aae	0.009245558
214	0x80001c36	-1.012e-41
215	0xbb7fa722	-0.003900953
216	0x80001c6b	-1.0194e-41
217	0x80001eb0	-1.1009e-41
218	0x3c86de37	0.016463382
219	0x3cce3326	0.025170874
220	0x3ae79664	0.0017668721
221	0xbcb920b7	-0.022598607
222	0x00001c6b	1.0194e-41
223	0x3a111bbb	0.0005535443
224	0xbc7f98f6	-0.015600434
225	0xbb91afd7	-0.0044460106
226	0x3a9671e0	0.0011478029
227	0x0b2366f5	3.1470114e-32
228	0x3c83e3e4	0.016099878
229	0x3b9ddd05	0.0048176073
230	0x3b55c08b	0.0032615985
231	0x80001b5e	-9.817e-42
232	0x3cfe60a2	0.031051937
233	0x80001b6a	-9.834e-42
234	0x3cd0f947	0.02550949
235	0xbd052020	-0.03250134
236	0x800020c4	-1.1754e-41
237	0x3d1c75b9	0.038198207
238	0x80001bbb	-9.948e-42
239	0xbcbb843a	-0.022890199
240	0xbb65e3b2	-0.0035078344
241	0x3c3a4e84	0.011371259
242	0x3c178b37	0.0092495
243	0xbbbd1c1b	-0.0057711727
244	0x3c18d2e0	0.00932762
245	0x3d2b4236	0.04181119
246	0xbc648360	-0.013947338
247	0x3bee4b5b	0.0072721667
248	0x00001cbe	1.0311e-41
249	0xbcde7957	-0.027157469
250	0x3d10ce5a	0.035353042
251	0xbb4049b4	-0.0029340805
252	0xbccfedd6	-0.025381964
253	0xbcb1e872	-0.021717284
254	0xa6a89d7c	-1.1700028e-15
255	0xbbb16f5c	-0.0054148864
