pointnet/weights_per_bundle_ratio025/ST_OCC_left_best.pth (torch, 359807 bytes, 17 tensors)

t_grid f4 [100]
000000 00 00 00 00 b5 7e 25 3c b5 7e a5 3c 10 3e f8 3c
       0.0 0.01010101 0.02020202 0.030303031
000010 b5 7e 25 3d 62 de 4e 3d 10 3e 78 3d de ce 90 3d
       0.04040404 0.05050505 0.060606062 0.07070707
000020 b5 7e a5 3d 8c 2e ba 3d 62 de ce 3d 39 8e e3 3d
       0.08080808 0.09090909 0.1010101 0.11111111
000030 10 3e f8 3d f3 76 06 3e de ce 10 3e ca 26 1b 3e
       0.121212125 0.13131313 0.14141414 0.15151516
000040 b5 7e 25 3e a0 d6 2f 3e 8c 2e 3a 3e 77 86 44 3e
       0.16161616 0.17171717 0.18181819 0.1919192
000050 62 de 4e 3e 4e 36 59 3e 39 8e 63 3e 24 e6 6d 3e
       0.2020202 0.21212122 0.22222222 0.23232323
000060 10 3e 78 3e fd 4a 81 3e f3 76 86 3e e9 a2 8b 3e
       0.24242425 0.25252524 0.26262626 0.27272728
000070 de ce 90 3e d4 fa 95 3e ca 26 9b 3e bf 52 a0 3e
       0.28282827 0.2929293 0.3030303 0.3131313
000080 b5 7e a5 3e ab aa aa 3e a0 d6 af 3e 96 02 b5 3e
       0.32323232 0.33333334 0.34343433 0.35353535
000090 8c 2e ba 3e 81 5a bf 3e 77 86 c4 3e 6d b2 c9 3e
       0.36363637 0.37373737 0.3838384 0.3939394
0000a0 62 de ce 3e 58 0a d4 3e 4e 36 d9 3e 43 62 de 3e
       0.4040404 0.41414142 0.42424244 0.43434343
0000b0 39 8e e3 3e 2f ba e8 3e 24 e6 ed 3e 1a 12 f3 3e
       0.44444445 0.45454547 0.46464646 0.47474748
0000c0 10 3e f8 3e 05 6a fd 3e fd 4a 01 3f f8 e0 03 3f
       0.4848485 0.4949495 0.5050505 0.5151515
0000d0 f3 76 06 3f ee 0c 09 3f e9 a2 0b 3f e4 38 0e 3f
       0.5252525 0.53535354 0.54545456 0.5555556
0000e0 de ce 10 3f d9 64 13 3f d4 fa 15 3f cf 90 18 3f
       0.56565654 0.57575756 0.5858586 0.5959596
0000f0 ca 26 1b 3f c5 bc 1d 3f bf 52 20 3f ba e8 22 3f
       0.6060606 0.61616164 0.6262626 0.6363636
000100 b5 7e 25 3f b0 14 28 3f ab aa 2a 3f a6 40 2d 3f
       0.64646465 0.65656567 0.6666667 0.6767677
000110 a0 d6 2f 3f 9b 6c 32 3f 96 02 35 3f 91 98 37 3f
       0.68686867 0.6969697 0.7070707 0.7171717
000120 8c 2e 3a 3f 86 c4 3c 3f 81 5a 3f 3f 7c f0 41 3f
       0.72727275 0.7373737 0.74747473 0.75757575
000130 77 86 44 3f 72 1c 47 3f 6d b2 49 3f 67 48 4c 3f
       0.7676768 0.7777778 0.7878788 0.7979798
000140 62 de 4e 3f 5d 74 51 3f 58 0a 54 3f 53 a0 56 3f
       0.8080808 0.8181818 0.82828283 0.83838385
000150 4e 36 59 3f 48 cc 5b 3f 43 62 5e 3f 3e f8 60 3f
       0.8484849 0.85858583 0.86868685 0.8787879
000160 39 8e 63 3f 34 24 66 3f 2f ba 68 3f 29 50 6b 3f
       0.8888889 0.8989899 0.90909094 0.9191919
000170 24 e6 6d 3f 1f 7c 70 3f 1a 12 73 3f 15 a8 75 3f
       0.9292929 0.93939394 0.94949496 0.959596
000180 10 3e 78 3f 0a d4 7a 3f 05 6a 7d 3f 00 00 80 3f
       0.969697 0.97979796 0.989899 1.0

encoder.mlp.0.weight f4 [64, 3]
000000 53 a1 20 3e 84 f6 df 3e 99 ab 47 be e5 d7 7c 36
       0.1568654 0.43742764 -0.19499053 3.7676593e-06
000010 75 1a de 36 8d fa ca b2 ad cf a0 3d 1a cf c4 3e
       6.6191956e-06 -2.3629832e-08 0.07852111 0.38439256
000020 70 2f c7 3c b9 d7 db 3d 39 d1 8f 3e 15 96 2d bd
       0.024314612 0.10734505 0.28089312 -0.042379458
000030 1c 27 f3 bd 25 b5 f0 be 8d 4c 04 3f 5d f5 d4 be
       -0.11872694 -0.47013202 0.5167931 -0.41593447
000040 d2 de fe be d0 61 6a 3d 4b 6a 5e be d1 7c 1a 3e
       -0.49779373 0.057222188 -0.21720235 0.15086676
000050 ee 40 12 be f5 77 88 be 70 59 04 bf 56 33 69 bb
       -0.14282581 -0.2665402 -0.5169897 -0.0035583577
000060 dc 00 5e be 67 94 7b 3e 7d 23 19 3f f6 5c 7f 3c
       -0.21680015 0.2456833 0.59819776 0.015586128
000070 3b bf a4 3d 36 39 d4 3a 64 ba 8d bd 1e 58 ab 3d
       0.08044287 0.0016191367 -0.06920317 0.083664164
000080 75 4e 1a bf 5b e3 42 be 47 9a 47 be ee b7 0e 3e
       -0.60275966 -0.19032042 -0.19492446 0.13937351
000090 9d ac fc be 1b 7b 19 be b6 59 2b bd 64 33 cc be
       -0.49350443 -0.14988367 -0.041833602 -0.39882958
0000a0 a6 55 6c 3e fb d0 59 3e 17 94 92 3e bb 02 b0 be
       0.23079547 0.21271126 0.2862861 -0.34377083
0000b0 94 2d 09 bf d0 fb 04 bf 78 47 ef be 0f 6c b8 be
       -0.5358517 -0.51946735 -0.46734214 -0.36019942
0000c0 3e e8 03 bf 8f 2d 9c 3e ca 45 57 be c9 5c c9 3e
       -0.5152625 0.30503508 -0.21022716 0.39328602
0000d0 db bc a9 be 6e 49 bc 3e 14 59 e0 1e f1 3d 11 9b
       -0.33151898 0.36774772 2.3753764e-20 -1.2014133e-22
0000e0 db 1c 00 00 1e 7d 82 3e c9 61 45 bc f9 7d 55 3e
       1.0351e-41 0.25486082 -0.01204724 0.20848836
0000f0 41 21 42 3e 67 67 bf bc bf 41 f6 bd 03 e8 7e bb
       0.18957998 -0.023364736 -0.12024259 -0.0038895614
000100 3f f3 7f be ab 43 13 bf 94 b0 d2 3e 54 b5 90 be
       -0.24995135 -0.5752513 0.41150343 -0.28263342
000110 47 ad ea bc 44 74 af be d8 2a ca bc 96 f9 b9 be
       -0.028647078 -0.3426839 -0.024678633 -0.3632323
000120 00 aa b5 be d9 26 df be d2 df 08 3f 5d 5a 13 bf
       -0.35481262 -0.43584326 0.5346652 -0.5755976
000130 39 fc ae 3e 12 f6 fb be 34 aa e7 be 1b e3 e0 3e
       0.34176806 -0.49211174 -0.45247042 0.43923268
000140 1c 9f 79 3e 6b 94 8c 3e 7a 0a bf be 6f 08 d1 3e
       0.24377102 0.27456984 -0.3731268 0.40826747
000150 5d d2 09 3e bd 29 c0 bc f1 01 c4 bd 32 1f 8a 3e
       0.13459153 -0.023457402 -0.09570683 0.26976925
000160 c1 5a 08 bf 7d e1 bd be ff fc c5 be 4a 7b d8 3e
       -0.5326348 -0.37086096 -0.38669583 0.42281562
000170 8c 4d a6 3e 59 e8 a9 3d 93 8d a8 3d 22 f5 6e be
       0.3248104 0.0829627 0.08230128 -0.23335698
000180 20 21 d2 3c 3e f0 c2 3c f2 6e 9d 3d d1 63 b8 be
       0.02565056 0.023796197 0.07687177 -0.36013654
000190 fe 62 fc be 2d e2 4c be eb d3 8b be 64 f5 be be
       -0.49294275 -0.20008154 -0.27310118 -0.37296593
0001a0 9f f7 cd be 97 1a 0b bc d5 a6 fe bb b9 95 00 3c
       -0.40227982 -0.008490226 -0.007771353 0.007848197
0001b0 01 2a fb bd 38 78 a6 3e 26 4d 0a 3f 3e 8b 3e be
       -0.12263871 0.32513595 0.5402397 -0.18607804
0001c0 eb 48 a2 3c 3d d4 d3 be 77 2d a7 3e 78 69 0b be
       0.01981016 -0.41372862 0.32651874 -0.13614452
0001d0 b2 97 dd 3e 3e c0 6b 3e 0e 0e 4d be 5b 57 d3 3e
       0.43279797 0.23022553 -0.20024893 0.41277584
0001e0 b1 0b 91 3e bb ef ae bd 3c a6 1f be 9f d2 6a 3e
       0.28329232 -0.08541819 -0.15590757 0.22931908
0001f0 6b 33 61 be bd 30 da be cc 4d c0 bd e8 a1 db bd
       -0.2199227 -0.4261531 -0.093898386 -0.107242405
000200 15 01 c2 3e 57 dd 08 bf 71 d7 c6 3e a6 ce c9 3e
       0.3789145 -0.5346274 0.38836244 0.39415473
000210 c4 51 c2 be f2 df dc bd b1 3b f6 be 6e 33 4d 3e
       -0.37953007 -0.10784902 -0.48092416 0.2003915
000220 c0 bd 3a b9 af df 3a be a2 fd 11 3e 2f a3 ea be
       -0.0001780903 -0.18249391 0.1425691 -0.45827624
000230 a5 a2 cc 3e 3a 83 bc be 29 69 09 be b4 c5 01 3f
       0.39967838 -0.36818868 -0.13419022 0.50692296
000240 dd ba a5 be 09 fb c7 bd f2 5d 38 be a4 96 33 be
       -0.32369128 -0.09764678 -0.18004587 -0.17537934
000250 e9 41 05 be 40 e0 8c be fa d0 98 3b d2 29 78 39
       -0.13013424 -0.2751484 0.004663584 0.00023666702
000260 1a d8 73 b6 7c e5 b9 3e 93 42 26 bd c4 12 cc 3d
       -3.633561e-06 0.36307895 -0.040590834 0.09964517
000270 bc b6 a9 3d a0 f8 81 3e e2 1e 65 bc e8 45 dc 3d
       0.08286807 0.25384998 -0.013984414 0.10755521
000280 34 cb 0d 3b 1b 1b 14 bf 58 78 bf be ef ae 57 3e
       0.002163601 -0.5785386 -0.37396502 0.21062826
000290 66 d3 96 3e 8a c0 4f 3c 67 26 e0 3e 34 29 70 be
       0.2945816 0.012680182 0.437793 -0.23453218
0002a0 53 95 d2 be 9e 26 6d 3e 8d d3 ce 3d 44 bf 40 3e
       -0.4112955 0.23159263 0.10098944 0.18822962
0002b0 e3 63 04 be 53 30 38 be da a3 32 3e 03 0b c7 be
       -0.12928729 -0.17987184 0.17445317 -0.3887559
0002c0 ac 4f a7 be 3b 7d 00 3f d1 3d 23 be 8c 07 db 3e
       -0.32677972 0.50191087 -0.1594155 0.42779195
0002d0 f0 4f be 1e 1c aa d1 8e b6 b8 98 96 5f 07 20 bc
       2.0150094e-20 -5.1686287e-30 -2.4673493e-25 -0.009767382
0002e0 8e 9f 98 3e aa 96 cb 3e d0 bf db be 36 dc a4 3e
       0.2980923 0.39763385 -0.4291978 0.32199258
0002f0 c5 46 6b 3e 3f 39 b4 3d 99 b5 a9 3e ce a9 0c bf
       0.22976215 0.08799981 0.3314636 -0.549466

encoder.mlp.0.bias f4 [64]
000000 81 cc 86 3d c9 bb 65 b2 a8 17 26 be 82 b1 7c 3c
       0.06581975 -1.3372252e-08 -0.16219962 0.015423181
000010 60 2e 91 be bd aa 66 bd 78 6a 74 bc 8a 9b 6b 3e
       -0.28355694 -0.056315172 -0.014917962 0.23008552
000020 79 cc 8e bd f6 e3 8f 3c 5b 1c e8 3d 42 34 ba be
       -0.06972594 0.017564755 0.113335334 -0.36367995
000030 73 24 f1 bd a2 e3 65 be a9 9b 8d 3d 93 07 9e 3d
       -0.1177453 -0.22450116 0.069144554 0.077162884
000040 36 12 38 bb b1 06 66 3d a0 60 54 b4 a4 43 1b 3d
       -0.0028087026 0.056158725 -1.977919e-07 0.037906304
000050 f5 6b f6 bc f7 21 56 3e 14 ca 02 3e 05 46 44 be
       -0.030080775 0.20911394 0.12772399 -0.19167335
000060 8d af 2d be b6 c3 3f be 9d d9 6a 3d 79 00 77 3d
       -0.16961499 -0.18727002 0.05733644 0.060303185
000070 7f c2 89 bc 23 46 92 3e fd 78 68 be af b9 14 be
       -0.016816376 0.28569135 -0.22702403 -0.14523958
000080 e1 7f 8d 3b 7b 95 af 3d 7d cd 3b be 7a 26 b4 bc
       0.004318223 0.08573433 -0.18340106 -0.021991003
000090 61 8a 80 3c aa c1 ca bd 42 31 38 be 41 74 7b bc
       0.015690984 -0.0990022 -0.1798754 -0.015347541
0000a0 c5 e0 c3 bd 47 16 46 be 99 98 49 3d ad 3e 32 3e
       -0.09564356 -0.19344436 0.049217794 0.17406721
0000b0 9d 10 3d be 45 7b a2 bb 6a 45 d8 bd 4d 61 35 3e
       -0.18463369 -0.0049585425 -0.10560115 0.17712899
0000c0 7d bf fb 3d 8a 48 63 3e b0 fc b7 b5 4a e8 82 3d
       0.12292383 0.2219564 -1.3708104e-06 0.06391962
0000d0 ff 7a 2e be 23 3d 89 3d a5 df 9b be f3 09 4b 3c
       -0.17039107 0.06701114 -0.30444065 0.012392509
0000e0 ec c4 89 bc 0f 2c 2b bd 62 c1 ad 3e 67 fd b8 3c
       -0.016817532 -0.041790064 0.33936602 0.02258177
0000f0 63 be 05 b4 d5 24 63 3c 60 d6 3f 3e 22 fa e5 3d
       -1.2455853e-07 0.013863762 0.18734121 0.1122935

encoder.mlp.2.weight f4 [128, 64]
000000 25 24 f3 3b a1 19 58 af bc 8c d9 3a d2 c1 83 3b
       0.0074200802 -1.9654191e-10 0.0016597728 0.004020908
000010 b2 1b 23 3c d8 6d 06 3e a3 d8 03 bd 2f 16 e3 bd
       0.009955334 0.1312784 -0.032189023 -0.110882156
000020 b0 4a 9f 3c 7f be 8a bb 35 7e e2 bd d1 b6 01 3e
       0.019444793 -0.0042341347 -0.11059228 0.12667395
000030 bb e4 22 3d 8f 09 80 3d d2 68 16 bb fa e1 78 3d
       0.039768916 0.06251823 -0.0022950661 0.060762383
000040 df 85 8d 3d 31 ee 22 be c3 20 00 80 38 ab 43 8d
       0.069102995 -0.15911175 -1.1753e-41 -6.029511e-31
000050 29 65 e6 b7 ab 86 ba bd 9f 21 15 be e6 6d ec 3d
       -2.7465243e-05 -0.09107717 -0.14563607 0.11544399
000060 40 f0 70 bb 58 7b 05 3e e3 5b 5b bd 85 40 b3 bd
       -0.0036764294 0.13035333 -0.053554427 -0.087525405
000070 65 d3 01 bc 83 5a cf bd e2 c9 da 3d bf e5 08 3d
       -0.007923936 -0.101246856 0.10683037 0.033422228
000080 94 e6 37 bb cb aa 73 3d 14 83 b0 bc 28 34 08 3d
       -0.002806102 0.059489053 -0.021546878 0.033252865
000090 5e 61 0d bc 4b fc b7 3d 0f c1 e3 bd 58 e2 c9 bc
       -0.008629171 0.08983668 -0.111208074 -0.024644062
0000a0 70 a0 48 bd 26 f0 88 3d 03 49 43 bc 08 45 8f 3d
       -0.04898113 0.0668643 -0.011919263 0.069955885
0000b0 58 90 c2 3d 09 53 41 8c 81 ee c7 bd fc 0d a3 bc
       0.09500188 -1.4893167e-31 -0.09762288 -0.01990413
0000c0 42 a2 9d 3d 9c 67 de 3d 01 4b 6f 13 a4 69 8f 86
       0.07696964 0.10859606 3.020302e-27 -5.3945846e-35
0000d0 1e 1f 98 3b d4 fd e3 bd 18 9b fa 3d 54 55 1d b9
       0.0046423813 -0.11132398 0.12236613 -0.00015004474
0000e0 33 c7 2d 3b f5 9b ae bd 1b 67 8f bd e2 6b 34 3d
       0.0026516437 -0.0852584 -0.07002088 0.044048198
0000f0 a3 1d 00 00 ee a0 2d bc 36 f5 ec 3d 7e 7a c3 3a
       1.0632e-41 -0.010597451 0.11570208 0.0014913825
000100 9a 48 57 3d 6c 5d 2b 30 32 92 50 3d 7b c1 37 3d
       0.052559473 6.23422e-10 0.050920673 0.04486225
000110 56 2e 48 bc 88 7c a2 bc 51 a9 17 3c 76 1d 08 bd
       -0.012218079 -0.019834772 0.009256677 -0.03323122
000120 39 e8 8f 3c e7 91 ef 3b 52 0c 49 3c 17 ec fa bc
       0.017566787 0.007311094 0.012271004 -0.030630155
000130 31 c9 62 3b b3 93 71 3c 30 8f af 3c da eb a8 bc
       0.0034604783 0.014744687 0.021430582 -0.020620275
000140 1d 2b 9d bb 04 0a 9e 0d fa 44 38 8c 5b 1d 00 00
       -0.0047963993 9.739913e-31 -1.4195601e-31 1.0531e-41
000150 bb 5b 03 00 7b 39 ee 3b fd 1d 00 00 b3 00 f1 bb
       3.08413e-40 0.007270036 1.0758e-41 -0.0073548197
000160 f0 82 ce bc 53 d7 30 3d b5 d4 1a 3d a8 5a 54 87
       -0.02520892 0.0431741 0.03780051 -1.5975749e-34
000170 73 d7 86 06 01 b7 d5 bb 3f 0b cf 3c 51 ad 0a 3d
       5.072177e-35 -0.00652206 0.025273917 0.033856694
000180 16 3d 00 00 77 5e 72 bc 48 58 9f bc a4 c7 54 39
       2.1914e-41 -0.01479303 -0.019451275 0.00020292267
000190 44 ef fe 3b 58 2b 93 3b c9 1d 00 00 08 2d 08 91
       0.0077799875 0.004491251 1.0685e-41 -1.0742385e-28
0001a0 60 02 15 00 18 6b d2 3c 26 29 98 3c e0 39 51 3d
       1.929397e-39 0.025685832 0.018574309 0.051080585
0001b0 b4 5b e1 3a e2 1c 00 00 ef 65 1b ba ec ae e1 bc
       0.0017193467 1.0361e-41 -0.000592797 -0.02754923
0001c0 31 0d a4 3c 9c 1d ef ba b7 1d 00 00 a7 ee 6e 81
       0.020025821 -0.0018243077 1.066e-41 -4.388492e-38
0001d0 da 82 17 3d f6 c8 dd 3c 73 83 66 3c 79 80 28 3d
       0.036990024 0.027073365 0.014069426 0.041138146
0001e0 94 73 aa 3c a5 5a 37 b2 c6 67 2e 3c 6d 28 e4 08
       0.020807065 -1.0672612e-08 0.010644859 1.3731755e-33
0001f0 02 02 36 87 fd 2e be 3c 0c 2d 5e 3b 8c ec 31 3d
       -1.3692748e-34 0.023215765 0.0033901362 0.04343848
000200 ed 8f 09 89 58 53 8a 83 8a 1b 00 00 ee 30 a2 0f
       -1.6558449e-33 -8.130046e-37 9.879e-42 1.599328e-29
000210 cb 1e 91 3d 53 31 d0 3d 73 59 a3 39 05 42 8c bd
       0.070859514 0.10165658 0.00031156428 -0.0684853
000220 1f 2a c6 3c cb e3 0d 80 a5 5e 8e 3c b7 c9 e8 bd
       0.024190007 -1.275578e-39 0.017379114 -0.11366599
000230 ba 04 d9 bd 57 a0 20 3d ab 3e 84 3d f3 39 5d 3d
       -0.10596605 0.039215412 0.064572655 0.054010343
000240 e0 26 b0 bd 9a 95 57 bd 56 1c 00 00 d6 82 92 bd
       -0.08601165 -0.052632906 1.0165e-41 -0.07153861
000250 63 9b 1d bd b0 5d ff bd 94 ab c4 3d 38 b4 f4 bb
       -0.038478266 -0.12469041 0.096030384 -0.007467773
000260 b7 dc e4 bd 5d 9f d1 bd 97 9f 15 bc be 56 73 3c
       -0.111749105 -0.10235474 -0.009132287 0.014852224
000270 53 c2 10 bd 02 18 86 3d ff a4 64 bc 1f 08 ac ba
       -0.035341572 0.06547548 -0.013955354 -0.0013124979
000280 d5 b6 4a bc 33 70 a2 bc 74 cb be 3d f6 c2 2b 3d
       -0.012372692 -0.019828891 0.09316149 0.041933976
000290 7d e3 07 3c 62 cc 9c bc 9d c0 1b bd 38 fa 4a bd
       0.0082939835 -0.019140426 -0.038025487 -0.049555033
0002a0 67 92 26 3d 4b 00 01 be 6d 74 e0 3d 90 ee 03 3d
       0.040666964 -0.12597768 0.109597065 0.032209933
0002b0 a7 a7 72 3c 5d 68 26 bd 09 07 96 3d 90 1f c5 3c
       0.014810479 -0.040626872 0.073255606 0.024062902
0002c0 6f dd 54 3d 88 bf c6 3d 8f 09 03 b2 51 a8 f5 bb
       0.051968988 0.097045004 -7.627377e-09 -0.0074968715
0002d0 6b 1b 00 80 db f1 57 bd 02 88 8a 3d 52 7d d2 b8
       -9.836e-42 -0.052720886 0.06764223 -0.00010036923
0002e0 05 9d 80 3d 3d 47 2a 3d c7 84 b5 bd 80 bc 6e 3d
       0.06279949 0.041571844 -0.08863216 0.058285236
0002f0 72 06 03 88 ad 26 82 b8 02 79 9b bc 39 96 93 3c
       -3.9428955e-34 -6.206087e-05 -0.0189786 0.018015968
000300 72 7b 96 9f f6 68 00 00 72 52 0f a1 1a 9e e8 a1
       -6.3731694e-20 3.7653e-41 -4.85594e-19 -1.5762781e-18
000310 a9 31 ab b6 ce c1 6e b7 5d d5 24 25 84 a0 42 b7
       -5.1019783e-06 -1.4231029e-05 1.4297023e-16 -1.1600674e-05
000320 49 e8 92 25 cb 58 cf a1 9b 08 df 25 d8 63 cd b1
       2.5484365e-16 -1.4050369e-18 3.8690165e-16 -5.977636e-09
000330 3f 3f d8 b3 9c 64 92 25 f8 2b d1 b0 cd 7d 6b b7
       -1.0069788e-07 2.5395138e-16 -1.5219248e-09 -1.4036382e-05
000340 06 81 35 a5 f8 68 9d af 90 77 0e 80 22 74 1f 25
       -1.5742962e-16 -2.8632718e-10 -1.328588e-39 1.3830399e-16
000350 e5 31 e0 a4 1e 2a 32 b1 5f 86 fd 27 da eb 9a a7
       -9.722904e-17 -2.592635e-09 7.036729e-15 -4.2999297e-15
000360 30 11 0c b7 3b 65 8e a5 48 60 a0 a3 79 86 6f b3
       -8.348652e-06 -2.470167e-16 -1.7388011e-17 -5.5768826e-08
000370 b6 3b de 24 d0 92 eb b5 13 e8 5a a5 19 b6 a3 a3
       9.637831e-17 -1.7551592e-06 -1.8987116e-16 -1.7749617e-17
000380 3c 56 76 22 9f 1d 48 b7 0d fe 1b b6 57 f8 b2 a5
       3.3384869e-18 -1.1927826e-05 -2.3244677e-06 -3.104636e-16
000390 5a d6 4b 24 2c 00 82 a6 8d 24 83 26 cd fe 9e a7
       4.420017e-17 -9.020609e-16 9.099858e-16 -4.4130065e-15
0003a0 da 68 7c a6 aa 2f e2 a6 55 17 6d 28 93 c5 05 a6
       -8.7572164e-16 -1.569482e-15 1.3161202e-14 -4.641141e-16
0003b0 db de d7 af 5d e3 ad a4 fd 7c cd b5 97 f1 93 b2
       -3.926662e-10 -7.541196e-17 -1.5310067e-06 -1.7222915e-08
0003c0 03 ac 71 ae 85 ac b0 2b 71 21 00 80 b0 7e 0e 25
       -5.4949833e-11 1.2553436e-12 -1.1997e-41 1.235946e-16
0003d0 0f ec 3c 22 5d 1f 42 a6 5f f1 bc a5 b0 ff 5e 24
       2.560372e-18 -6.7349776e-16 -3.277636e-16 4.8355152e-17
0003e0 8c 3a 47 a3 2b a0 2b 26 fc cd 0b b4 09 41 1b 26
       -1.0800209e-17 5.954461e-16 -1.302032e-07 5.3864567e-16
0003f0 36 1c 00 00 da 1d dc 22 fb 8f 85 25 66 e7 4d 25
       1.012e-41 5.9662726e-18 2.3169387e-16 1.7859316e-16

encoder.mlp.2.bias f4 [128]
000000 dd c5 f3 bb ad 0d 93 3c b8 b8 97 bb f0 7a bb 23
       -0.0074393586 0.017950857 -0.0046301745 2.0326647e-17
000010 67 0a 6d ab fd 2b c6 3c 89 57 c2 bd a9 4f d4 bb
       -8.421375e-13 0.024190897 -0.09489352 -0.006479223
000020 4c 4c d0 bc c5 a9 53 3d d1 a7 0d 3d 01 49 9c 3c
       -0.025427006 0.051675577 0.03458387 0.01907778
000030 87 2c 73 3d b8 fa b5 ba 18 8a 03 bd c6 22 2c bc
       0.059368636 -0.0013883924 -0.03211412 -0.0105063375
000040 8a 5b c0 3c f9 eb c7 3d 02 48 9c 3c 36 15 89 33
       0.02348115 0.09761805 0.019077305 6.383418e-08
000050 58 90 b3 bc 70 e6 8d 3b 3e 4c 35 bd 43 a2 f4 3b
       -0.021919414 0.004330449 -0.044262163 0.007465632
000060 14 c4 33 ba 49 b6 f3 b3 64 da 8b bb 30 89 69 a3
       -0.0006857526 -1.1348727e-07 -0.0042679776 -1.2660006e-17
000070 62 c8 36 bc 54 ba b7 3c ba f8 d8 3c ae 25 00 3d
       -0.011156173 0.022427715 0.02648579 0.031285934
000080 1f a9 f7 bc c6 c4 07 bc 88 d4 8a 3b 98 5e 1d 3c
       -0.03023201 -0.008286661 0.0042367615 0.009605072
000090 5c bf 12 3d 89 ee 6c bc e6 2d 73 bc f1 3e ca 3c
       0.035827026 -0.014461168 -0.014842486 0.024688216
0000a0 d4 c2 25 bd 01 eb 3b 3d e4 8f b5 bc e5 89 17 bc
       -0.040469006 0.045878414 -0.022163339 -0.009249185
0000b0 e6 4b 49 a8 77 b7 88 29 5a d3 9e bd 95 fb 72 bc
       -1.1174199e-14 6.071439e-14 -0.07755156 -0.01483049
0000c0 0d ea 7c 3c bb 91 4e bc 14 ed 07 b9 fa fc 8a ac
       0.015436661 -0.012607987 -0.00012962922 -3.950282e-12
0000d0 14 67 a7 bb a8 06 c3 b4 3d 5f 4e 3c 8d 92 e8 32
       -0.0051087234 -3.6326423e-07 0.012595949 2.7074998e-08
0000e0 a2 69 73 3d 2a ce 9a bc c0 2f 6b 3d 93 07 5a 3d
       0.05942691 -0.018897135 0.057418585 0.05322988
0000f0 25 37 ba ac 2f 9f b4 bb 14 cc 3e bd 2d 13 71 bc
       -5.2925602e-12 -0.00551214 -0.046581343 -0.0147140445
000100 8e dc cd 3c 02 0a 86 3d cf 07 4c bd b1 ab 67 bb
       0.025129583 0.065448776 -0.049812134 -0.0035350139
000110 7a e6 94 bb f7 2d 7d 3c 91 4a 0b 3d 17 1a a2 3c
       -0.0045440765 0.015452853 0.03400666 0.019787831
000120 61 e3 21 bd 97 8b 30 3c e6 4b ee 3c 18 0a d0 bc
       -0.039523486 0.010775468 0.029088926 -0.025395438
000130 98 61 39 3d 3c 64 9b 3d f2 f3 99 b9 5c 5d 24 bd
       0.04525909 0.075874776 -0.00029364188 -0.040128097
000140 b3 20 e8 3c e7 bf 83 3c 16 ea 36 3b ad 68 95 3c
       0.028335905 0.016082717 0.0027910522 0.01823839
000150 9c 38 8e aa 30 15 81 3b 10 42 5f b8 66 10 89 3d
       -2.5263548e-13 0.0039392933 -5.322887e-05 0.06692581
000160 dc f9 aa bc cf 05 dc 3b c7 8d 5b bc 23 07 aa 3d
       -0.020871095 0.0067145596 -0.013400502 0.083021425
000170 5a 9d 9c bc b9 f4 47 bd f2 85 7e 3c 23 ac 28 3d
       -0.019118 -0.04881737 0.015534865 0.041179787
000180 c3 0c 4e 3c 44 5d c7 3c 08 eb 65 bc 6a 8d 58 3c
       0.012576285 0.024336465 -0.014033087 0.0132173095
000190 80 50 1c 3d 04 87 c8 ba 86 f2 c1 bc de 2b 63 3d
       0.03816271 -0.0015299027 -0.023675214 0.055461757
0001a0 61 e0 4e 3c 86 1a c4 bc ee 5b 2c bd a6 26 6c bd
       0.012626738 -0.023938429 -0.04207986 -0.057654046
0001b0 53 be 4b bd eb 91 f2 bd cc 0f a3 bd 75 00 ba bc
       -0.049742054 -0.11844238 -0.079619974 -0.022705296
0001c0 b1 80 02 3d ab a7 61 3d 5c 0a 2f bd 33 b7 21 ae
       0.03186101 0.05509154 -0.04273449 -3.6769875e-11
0001d0 61 f1 ba bc 84 1c 37 b8 a6 a9 94 bd 3e 22 67 3d
       -0.022820177 -4.3657157e-05 -0.0725892 0.05642914
0001e0 fb e9 fd bb 01 05 98 3d fc c7 7d bb b9 1c fc bc
       -0.00774884 0.074228294 -0.0038723936 -0.030775415
0001f0 da a2 10 3d 5f 91 81 3d 72 c0 6a bc c3 9a 55 3b
       0.035311557 0.063265555 -0.014328109 0.0032593466

encoder.mlp.4.weight f4 [256, 128]
000000 22 68 58 3a b7 28 a0 3b 4a 3a dc 3c 20 8c 0f a6
       0.0008255263 0.004887666 0.026883263 -4.9802996e-16
000010 ab 34 1b aa 4b 6a 3f 3d 64 8f bb 3c ba 9b d7 bc
       -1.3785038e-13 0.04673223 0.022895522 -0.026319373
000020 7d c0 48 3d cd 3a a1 bc ee 66 11 bd c5 e2 52 bb
       0.049011696 -0.019681359 -0.035498552 -0.0032178622
000030 e5 0e 35 bd 82 6f a8 bd 15 7c a8 3c a1 80 3d 3c
       -0.044203658 -0.082243934 0.02056698 0.011566312
000040 15 9f 5c bd c3 a7 1b bd 4b e9 00 3c ed bc 33 b1
       -0.05386265 -0.038001787 0.007868121 -2.615532e-09
000050 ad 2f 78 00 ed 9d 80 3c de d7 6d bd 64 13 1f bd
       1.1037362e-38 0.015700305 -0.058067195 -0.03883685
000060 9b 4b b5 b9 49 58 2f b1 f7 aa 09 bd 7a af bc a2
       -0.0003457934 -2.5516036e-09 -0.03361031 -5.1143295e-18
000070 ea 2a 62 3d c1 e6 3b bd 8a 84 d8 bc bd 7c 46 bc
       0.055216707 -0.04587436 -0.026430387 -0.012114701
000080 88 92 4a bc 68 1b 00 00 38 e7 e2 bd 6d 26 4e 3d
       -0.012364037 9.832e-42 -0.11079258 0.050329614
000090 dd e6 2e bd b7 24 80 39 4d e6 d2 3c 56 8d 23 bd
       -0.042700637 0.00024441417 0.025744582 -0.03992971
0000a0 23 c9 92 39 20 b4 c0 3a 54 2b ab 3c 47 f6 7d 3d
       0.0002799715 0.0014702119 0.020894684 0.062002447
0000b0 e7 e4 9e a6 af c1 26 aa 92 20 cd bd 30 a7 ad 3b
       -1.1025496e-15 -1.4810959e-13 -0.10015978 0.0052994713
0000c0 45 4c 22 bb 88 3a 94 bd 71 aa f6 18 db 4c fb ab
       -0.0024764698 -0.072377264 6.376161e-24 -1.7855954e-12
0000d0 61 a5 eb bc 2d 97 21 2f ba 24 89 bc 83 1e ff 30
       -0.028765382 1.4696573e-10 -0.016741145 1.8562364e-09
0000e0 ed 9e 21 3d d9 f9 41 3d c4 cf 5f bc 5b 85 87 bd
       0.039458204 0.047357414 -0.013660375 -0.066172324
0000f0 3d 71 5d 2c ec a9 43 bd bd 4d 34 81 32 56 b0 bb
       3.1468849e-12 -0.047769472 -3.3116553e-38 -0.005381369
000100 4f 64 a2 bc 31 78 9b bd 79 cc 5a 3d 30 1f 00 00
       -0.019823221 -0.07591284 0.053417657 1.1188e-41
000110 61 f1 8d 3d 5e 4a 81 bc 52 74 55 bd bd f3 0c 3d
       0.06930805 -0.015782531 -0.052112885 0.034412134
000120 c9 f0 26 3d f8 7e 29 3c 80 ba 7a 3d 7c a0 b0 bd
       0.040756974 0.010345213 0.061213017 -0.0862436
000130 e7 56 37 bd 0c f3 70 bb 0d 1c 00 80 5a b9 55 38
       -0.04476061 -0.003676596 -1.0063e-41 5.095578e-05
000140 60 5c 54 bc 8e 7b 81 bd 82 e7 a1 bd 0a 7c d4 3c
       -0.012961477 -0.06322394 -0.07905485 0.025938053
000150 f6 be ea a6 44 b7 d9 3b c2 1a b9 ac 1c b7 6b bd
       -1.6288772e-15 0.0066441614 -5.260987e-12 -0.057547674
000160 7f 3d c9 3c 92 3b da 3c 13 19 fb 3b c5 4b 8a bd
       0.024565456 0.026639733 0.007662901 -0.06752733
000170 08 94 7a bd f3 21 b1 3b 8b 95 67 3d 3a b5 0c bd
       -0.06117633 0.0054056584 0.0565391 -0.03435252
000180 f5 df 78 3d 63 e5 09 39 5f 5d 87 bd b5 44 48 bb
       0.060760457 0.00013150791 -0.06609606 -0.003055853
000190 23 e9 1b bd 3c 4d 02 3d eb e4 8f 3c 7e 07 87 3d
       -0.038064133 0.031811938 0.017565211 0.06593226
0001a0 58 85 37 bd 35 f7 36 3d 15 8c ac bd 08 52 01 bd
       -0.0448049 0.04466935 -0.08425156 -0.03157237
0001b0 a0 44 37 3d 20 b6 44 3d 6e 16 4f bd e5 94 93 bc
       0.04474318 0.04802525 -0.0505585 -0.018015334
0001c0 d8 c5 b3 bc 0e c5 08 bd 87 fc 5d bd 92 11 35 ae
       -0.021944925 -0.03339105 -0.054195907 -4.117024e-11
0001d0 09 90 4d 3d 47 ef a0 b0 36 e7 42 3c 33 a1 0b b7
       0.05018619 -1.1709539e-09 0.011895945 -8.322578e-06
0001e0 36 93 0f bd 3c 22 d9 bc c2 c8 4e bd b1 49 14 3d
       -0.0350525 -0.026505582 -0.050484426 0.03620309
0001f0 77 a4 c2 bb ab 77 fc 3c d2 7b 03 3d 86 3c 8a 3c
       -0.005940016 0.03081878 0.032100506 0.016874563
000200 dc 95 46 3d c2 d1 9e 3b a4 f9 d7 bc a6 a2 3c b7
       0.04848276 0.0048467824 -0.026364155 -1.1243543e-05
000210 ed a2 9e b6 6a 20 93 3d 6a 41 1f 3d 87 3b 9b 3a
       -4.727734e-06 0.07183917 0.038880743 0.0011843302
000220 c8 64 bc ba d8 34 3a bb a0 35 b5 3c cd 30 8e bc
       -0.0014373297 -0.0028412845 0.022120297 -0.017357254
000230 80 93 9a bd 70 d3 8d bd 6c 93 31 3d e1 7e de 3c
       -0.07547665 -0.06925094 0.043353483 0.02716011
000240 4a 03 91 bd 95 e4 39 3c de 00 73 3b 29 bd cb b4
       -0.070807055 0.011346002 0.0037079374 -3.794933e-07
000250 42 43 3b 3d de 67 b2 3b 6d 89 9b bd 8c ab ab 3d
       0.04571844 0.005444511 -0.07594571 0.08382329
000260 55 ed f8 39 1b ec bf b3 e8 0a 01 bd 6b 33 9e a4
       0.00047479072 -8.937078e-08 -0.03150454 -6.860868e-17
000270 99 68 12 3d 80 a9 8a 3d 52 05 44 bc 23 84 33 3d
       0.035744283 0.06770611 -0.011964159 0.043827187
000280 a8 1c f9 3c 8a 70 95 bc 79 9c 86 bb 39 67 b0 3d
       0.030409172 -0.01824214 -0.0041080085 0.08613438
000290 9b 8a 23 3a d5 4b ef 3a 62 08 9f bd b8 72 d9 bc
       0.00062386104 0.0018256853 -0.07765271 -0.02654396
0002a0 c7 c7 9f bd 05 2b dc bc 34 34 90 3d 03 17 27 bc
       -0.078017764 -0.026875982 0.07041207 -0.0101983575
0002b0 18 bd 13 38 fd b7 73 b6 75 9f 9d 3c 07 aa 76 3d
       3.522364e-05 -3.6316917e-06 0.019241074 0.060220744
0002c0 5a a5 1a 3c 9b 4f 06 bd e2 cf fe 07 81 7b b1 36
       0.009438837 -0.03279076 3.8339855e-34 5.289389e-06
0002d0 2b cf 87 bd 5c 1d 82 b9 a3 0a b2 3c 96 8d 88 39
       -0.06631311 -0.00024817407 0.021733588 0.0002604543
0002e0 84 4b 20 bb cf ea d0 3c 70 ec 77 3d 93 07 aa 3d
       -0.0024459073 0.02550259 0.06052822 0.08302226
0002f0 75 26 0b b9 50 e9 a8 bd 59 52 96 3d 69 c6 83 bd
       -0.000132704 -0.08247626 0.07339925 -0.06434328
000300 13 d2 8d 3c 3f 26 a3 bd f6 cd 54 bd 9a 94 24 3c
       0.017312085 -0.07966279 -0.051954232 0.010045195
000310 04 3c 9c bc 2b b2 34 3b 50 ae 2c ba a2 9d b0 3a
       -0.019071586 0.0027572017 -0.0006587254 0.0013474713
000320 ef 4a 3a bb e6 ef 3d ba 21 1a 44 3d d0 67 26 bd
       -0.0028426012 -0.00072455255 0.04787648 -0.040626347
000330 79 63 9b bb 05 dc 09 bd d7 e7 d5 b9 5e a6 3c bc
       -0.0047420827 -0.033657093 -0.0004079926 -0.011514274
000340 36 bd b2 3c dc b8 93 bd 03 c1 42 3c c6 57 9e 3c
       0.021818738 -0.072129935 0.011886838 0.019328963
000350 ab 25 36 29 22 71 fe 3a 44 58 a8 39 af ad 4b 3d
       4.044479e-14 0.0019412378 0.0003210922 0.049726184
000360 91 8a 88 3d ff e7 06 3d 83 fc 7d bd dd 10 5b bd
       0.066670544 0.032936092 -0.062008392 -0.05348288
000370 3c d8 e3 3c 43 7f 22 3d e9 3a 26 3c 0f f5 50 3d
       0.02781307 0.039672147 0.010145881 0.051014956
000380 66 1e a1 3d e0 73 e8 3b 03 52 0c bd 5a 1b 00 00
       0.07867126 0.0070938915 -0.0342579 9.812e-42
000390 53 9a 56 bd d4 4c 1f 3b d3 fe 91 3d 84 3f 7c bd
       -0.05239327 0.0024307268 0.07128682 -0.06158401
0003a0 6b c5 aa 3c b3 e4 d5 bb 39 e7 97 3d bd 80 80 bd
       0.02084609 -0.006527507 0.07417149 -0.06274555
0003b0 a1 4e a1 3c fa b6 a8 bd 94 d2 7f bd 0b 47 9d 3d
       0.019690813 -0.08238025 -0.062456682 0.07679566
0003c0 3b 16 2f 3d 95 92 24 bd c6 68 80 3d 76 6e 48 b0
       0.04274581 -0.040178854 0.06269984 -7.291655e-10
0003d0 e9 38 e3 bb b6 e4 d7 b9 7a ba 6e bb ca ab 8a bd
       -0.0069342745 -0.00041178399 -0.0036427067 -0.067710474
0003e0 c6 23 87 3b 00 a3 39 bc 02 08 e0 3b 8f 29 1d 3d
       0.0041241376 -0.011330366 0.006836892 0.03836971
0003f0 1e ab 40 bd d5 2e b8 bb 83 91 19 3d d9 45 6e 3d
       -0.04703819 -0.005620817 0.037492286 0.05817208

encoder.mlp.4.bias f4 [256]
000000 e2 7f 83 bc d3 73 57 bd e4 d5 69 3c a7 22 e1 bc
       -0.01605219 -0.052600693 0.014272187 -0.027482344
000010 0c c7 b4 bb d3 2f ca bb 88 c6 28 bc 2e 77 0b 3d
       -0.0055168923 -0.006170252 -0.01030124 0.034049205
000020 2c c0 21 3d 82 3f a1 bc 60 0a 18 3a ec ae f9 bc
       0.03948991 -0.019683603 0.0005799886 -0.030478917
000030 c0 24 72 bd cd f2 39 bc d8 7c ab bc f9 6b b4 3b
       -0.05911708 -0.011349392 -0.020933554 0.0055060354
000040 4c 2e 2f 01 7f d8 2d 38 01 e5 ce 0f df 29 1e ab
       3.217564e-38 4.1448042e-05 2.0401377e-29 -5.6190984e-13
000050 1e 7b 6e bd cf 1b 56 3c 85 e5 90 a1 46 c2 69 bc
       -0.058222882 0.0130681535 -9.818573e-19 -0.01426751
000060 7b ed 28 3d d8 62 d1 ba d6 a3 04 bb 26 f1 c3 bc
       0.041242104 -0.0015974892 -0.0020239255 -0.0239187
000070 bb 9a d6 bc 78 a6 6d bd bb 4c 6c 3c da eb a6 3c
       -0.026196828 -0.058020085 0.014422591 0.020376135
000080 1d 96 7b bb 1d 3c 59 bb 5e 28 69 bc 0c 6a 0a 80
       -0.0038389035 -0.0033147403 -0.014230816 -9.56397e-40
000090 ec 78 5a 3d 73 90 8f 3a 5a 50 fb bb 04 87 ab ba
       0.053337976 0.0010953083 -0.0076694908 -0.0013086502
0000a0 5e 94 09 bc 61 a1 a8 bd 07 9e c3 1c 95 03 08 bd
       -0.00839719 -0.082339056 1.2944867e-21 -0.03320654
0000b0 47 1e 69 ba 9d 8c 18 bd 0a df 13 3d 6f e1 78 3d
       -0.00088927563 -0.037243474 0.03610138 0.060761865
0000c0 38 b0 0a ba 9e d7 6d 3d cd 41 89 bd e9 11 09 06
       -0.0005290541 0.058066957 -0.06702004 2.5779994e-35
0000d0 b0 f8 2f 3d 53 f4 d9 bc 68 bc 17 3c 6e eb 13 3a
       0.042961776 -0.02660576 0.009261228 0.0005642687
0000e0 f9 1c a3 3c 67 57 b8 3a 9f d2 a0 bb f1 e5 78 3d
       0.019911276 0.0014064134 -0.0049079205 0.060766164
0000f0 df 56 c8 bb b9 47 98 bb 25 a3 5a 3b 9c 4f b1 3b
       -0.0061138715 -0.004647222 0.0033361402 0.0054111015
000100 d6 25 05 86 7b ce a0 bb 06 3c 21 bd da e9 91 bb
       -2.5042317e-35 -0.004907427 -0.039363883 -0.004452926
000110 1d 4a a4 bc 75 dd 36 3c 6d bb 34 bc 7a c1 62 bc
       -0.020054871 0.011161198 -0.011031014 -0.013840074
000120 5b d4 bb bc fb b3 ba 3b 7e 1d f5 3c a6 4b f1 3c
       -0.022928407 0.005697725 0.02992129 0.029455017
000130 bb 8c 18 3c 56 8c d2 3c 25 8b 13 bd 1f 25 d8 3c
       0.0093108965 0.025701683 -0.03602137 0.026384888
000140 c1 ae 87 3b 2d 3c 54 bc b3 c1 00 bd 11 8e 5e bc
       0.0041407053 -0.0129538 -0.031434726 -0.013583676
000150 e8 91 40 bc 9f 9b 06 bb e6 7f 06 bc bc a3 1e 3d
       -0.011753537 -0.0020539535 -0.008209204 0.038730368
000160 c5 dc 08 8f 15 ab cb bb b8 a1 9a 3d 11 f1 20 3b
       -6.747836e-30 -0.006215463 0.07550377 0.002455775
000170 fc 5d 21 3c a7 95 cc 3c e3 fa 7c 3c 6d 71 19 bd
       0.009849068 0.024973704 0.015440675 -0.037461687
000180 38 28 10 3d f4 69 fb a5 5b 81 87 bd 38 14 f6 aa
       0.035194606 -4.3613356e-16 -0.066164695 -4.3712408e-13
000190 b3 de c3 b9 b6 74 97 3a 28 ae cc 3b 5d 4b 30 3d
       -0.00037359222 0.0011555168 0.006246347 0.043040622
0001a0 1f 98 64 bd 75 10 80 3c 7c bc f7 3c ca ff bf bd
       -0.055809136 0.015632847 0.030241244 -0.0937496
0001b0 df 47 fe 3c 24 f7 7f bc f3 e9 3e 3c 35 ed 40 bb
       0.03104013 -0.015622888 0.0116524575 -0.0029438261
0001c0 18 1e 30 bd fc e9 68 b1 23 db b3 ba 41 e8 5f 9c
       -0.04299745 -3.3893448e-09 -0.0013721924 -7.408469e-22
0001d0 42 59 ab 1e a4 73 a4 bc 85 88 06 3d 2c 92 0e 3d
       1.8142245e-20 -0.020074673 0.03284504 0.03480737
0001e0 01 3a ce bc 3b 23 ff 3c d6 1c 00 80 cf c2 3a bc
       -0.025174143 0.031144729 -1.0344e-41 -0.011398985
0001f0 10 a5 ff bc 1b 1d 00 00 5c ea 8a 39 39 9a e7 bb
       -0.031206638 1.0441e-41 0.00026496022 -0.0070679453
000200 f9 fe 27 3c 72 73 93 bc d1 26 e7 ba 66 a5 2c 3c
       0.010253661 -0.017999385 -0.001763547 0.010537481
000210 59 e8 c0 bb 26 fe 46 bd 48 3c 47 3b 28 2e c1 3c
       -0.005887073 -0.04858222 0.003040092 0.02358158
000220 49 ef b9 af 88 a8 35 ba b0 5d 05 3d 8f dd e1 bc
       -3.3821326e-10 -0.0006929715 0.03256005 -0.027571468
000230 63 09 68 3a d2 59 cf bc 82 d1 5e 20 e2 d7 d6 3b
       0.00088514964 -0.025311384 1.8873452e-19 0.006556497
000240 b4 c4 3c 3c 11 6c 1e 3d f3 b5 21 bd 7e f4 ad 3a
       0.011521507 0.03867728 -0.03948016 0.0013271717
000250 6d 91 0e a7 8d 43 45 bc 5d de 40 bc 80 ab 52 bd
       -1.9785294e-15 -0.012040031 -0.011771766 -0.051433086
000260 70 63 42 bd 3d 6c c5 bc 68 2f 73 3b ec 49 79 26
       -0.047458112 -0.024099464 0.0037107114 8.648941e-16
000270 64 19 f5 3b 22 df 29 3c da b6 74 bd 54 d2 fe 3c
       0.0074798334 0.01036814 -0.059744693 0.031106152
000280 0a 21 5c ba 07 4b 69 3c ce da c2 bc 22 4c 5f bd
       -0.0008397257 0.014239079 -0.023785975 -0.054515965
000290 27 aa e4 3b ea a7 de 3c fc d2 6a aa 4e be 7c bc
       0.0069782916 0.027179677 -2.0856575e-13 -0.015426232
0002a0 d4 56 ab bb ab e6 2c bc e7 50 9d 3b 81 2a 6e b6
       -0.0052288566 -0.010553042 0.004800904 -3.5489504e-06
0002b0 fb 95 ec 3c 70 14 70 3c 44 63 c8 bb fa 5c 8a b0
       0.02888011 0.01465331 -0.006115349 -1.0067247e-09
0002c0 59 87 7c bd c1 1c 8e bc 2e 48 eb 3a 9a f0 9e 26
       -0.061652515 -0.017347695 0.0017950588 1.1028668e-15
0002d0 e1 04 d7 00 8e 54 3d bd d9 10 1b ba 19 93 c9 3c
       1.9746382e-38 -0.046223216 -0.0005915291 0.024606274
0002e0 de 5b 69 bd 27 81 29 ba e1 ce 83 bd 86 60 9e 3c
       -0.056972377 -0.00064660836 -0.064359434 0.019333135
0002f0 f0 c8 da bc fd 24 0a bd c8 d9 7f bc f2 59 47 bc
       -0.026707143 -0.03372668 -0.015615888 -0.012167441
000300 4e a5 30 bd a0 f2 d4 bb 4c ec ea ba f4 ab 22 bc
       -0.043126397 -0.0064986497 -0.0017923205 -0.009928692
000310 1e 13 7b bc e4 93 ba bc 63 db ae bb 38 ed 0c 3c
       -0.015324382 -0.022775598 -0.0053362115 0.008601479
000320 13 e9 a4 3b 8d a3 97 b9 13 09 c0 bb 51 5c 0b b9
       0.0050326674 -0.0002892282 -0.0058604567 -0.00013290464
000330 6b 9a 3b b1 a6 66 e3 3b 58 9b 66 bc 6f 04 d5 01
       -2.7299858e-09 0.006939727 -0.014075123 7.8250205e-38
000340 eb ae 97 bb c1 33 2e bc 43 c1 91 ba a3 f0 88 3b
       -0.004629006 -0.010632456 -0.0011120219 0.0041790768
000350 99 8a 4d bc 96 f6 1d bd 84 eb 0d 3c fe 6d 08 bd
       -0.012545251 -0.03856524 0.008662108 -0.03330802
000360 ed 85 60 bd 8b 25 1f ae 91 10 aa bc 87 58 12 bc
       -0.05481522 -3.618576e-11 -0.020759853 -0.008932239
000370 f3 1a 59 00 5c 2b 77 3c bb 9e 5a 3b 66 66 8e a1
       8.183027e-39 0.015086021 0.003335877 -9.649399e-19
000380 b2 a1 8d 8b 5a 7f 20 bd 14 e2 9c 3c 55 87 a2 3c
       -5.4554516e-32 -0.039183952 0.019150771 0.019839922
000390 7c 54 ac 29 11 8c 3f bc d9 ce a2 3c 2a 28 0d 3d
       7.65299e-14 -0.011691109 0.019874023 0.03446213
0003a0 d6 5d 26 bc 6c 38 72 bc e4 35 67 3c cb 77 98 bd
       -0.010154208 -0.01478396 0.01411197 -0.07444724
0003b0 1e a5 58 bc 62 4c 5f 05 95 89 3f 91 2a 30 a0 3c
       -0.013222961 1.0499439e-35 -1.5109639e-28 0.019554216
0003c0 97 e6 80 3a db 70 e0 bb f7 9e 44 3c b7 e7 51 1f
       0.0009834346 -0.006849391 0.012000791 4.444914e-20
0003d0 be 90 3e 3c 82 ae 7e 3b 5f 11 4d 3c b6 8b bb b2
       0.011631189 0.003886134 0.012516349 -2.1833198e-08
0003e0 8a 8a 2b bc da b1 83 bb fa cb 81 3d 6b 63 26 3d
       -0.010470042 -0.0040190043 0.063377336 0.040622156
0003f0 ae 38 9c bc 2c be 82 bc 1d b3 ee ba 7d 3d 97 3c
       -0.019069996 -0.015959822 -0.0018211339 0.018461937

pos_mlp.0.weight f4 [32, 1]
000000 f6 9f 70 bf 73 b9 86 3f ca 83 2b 3f 21 ab b4 3e
       -0.9399408 1.0525345 0.6699797 0.3528681
000010 eb 47 15 be 2e c9 28 1d 92 f8 11 3e 83 7e 0f 3f
       -0.14578216 2.2338622e-21 0.14254978 0.56052417
000020 f4 d5 16 b3 67 82 84 3f a1 37 28 38 20 07 4a 3e
       -3.5119186e-08 1.0352296 4.010613e-05 0.1972928
000030 3b 07 59 bf c6 05 8c 3f 7c d5 58 3e 96 bb c9 37
       -0.8477666 1.0939262 0.21175188 2.4048419e-05
000040 d1 69 f6 3e ce 0c d4 3e 67 c7 86 ba 75 57 6b b8
       0.48127607 0.4141602 -0.0010282815 -5.6109817e-05
000050 a4 b6 dd be cc 5c c2 3e 49 3c 08 bf a9 b6 32 bf
       -0.43303406 0.37961423 -0.5321699 -0.6980997
000060 91 42 6d be 3a 0e 8c 3f 4b 79 d4 30 7e 78 84 3f
       -0.23169924 1.0941842 1.5459504e-09 1.0349271
000070 65 55 79 3f 6e b3 40 bf a0 fe 69 b8 2d fa 59 b9
       0.97395927 -0.7527379 -5.5788667e-05 -0.0002078793

pos_mlp.0.bias f4 [32]
000000 7a f6 3e 3f eb a5 b7 3e ea 88 37 3e e2 ca 48 3f
       0.74594843 0.35868773 0.17923322 0.78434575
000010 59 d2 4e 3f f3 5d 90 9f 27 e9 85 3f b7 0c 00 3d
       0.80789715 -6.11418e-20 1.0461777 0.031262126
000020 00 01 e5 ba 25 a1 19 3f 30 53 4f b8 93 80 65 3f
       -0.0017471611 0.6001151 -4.943012e-05 0.89649314
000030 4d 08 4c 3f b0 88 06 3f 8f 8b e3 3e 47 01 d4 b9
       0.79700166 0.5255232 0.44442412 -0.00040436743
000040 c7 c0 23 3f 3e 8c 7d bc 6a 0f 93 a7 d8 f9 ae 2a
       0.6396603 -0.015475331 -4.081741e-15 3.1081973e-13
000050 8f c8 f5 3e ec 5b 6a 3f aa cc e4 3e 00 2a 91 3e
       0.48004577 0.9154651 0.44687396 0.28352356
000060 11 72 01 3f 9a 4a 1d bd 30 f5 65 b2 df 04 45 3f
       0.50564677 -0.038401224 -1.33853035e-08 0.7696056
000070 05 a5 14 bd 9e 93 27 3f 04 4c 6f b9 38 16 7f b9
       -0.036290187 0.6545962 -0.00022821134 -0.00024326972

pos_mlp.2.weight f4 [32, 32]
000000 f9 67 51 a5 00 bc 8c a6 7b 24 69 a7 3f 4d dc a5
       -1.8163088e-16 -9.765409e-16 -3.2355022e-15 -3.821626e-16
000010 a0 df 57 a6 29 0b d2 87 82 bc 88 a6 a2 1d c5 a5
       -7.489618e-16 -3.1603848e-34 -9.487991e-16 -3.4194132e-16
000020 59 b6 a8 10 dc 04 a6 a6 6c 83 5d 84 18 d9 96 a6
       6.654527e-29 -1.1519881e-15 -2.6038771e-36 -1.0467184e-15
000030 7e 21 8e a5 f5 34 30 26 4c 48 04 a6 95 61 4c 8c
       -2.4655769e-16 6.1134037e-16 -4.589468e-16 -1.5744953e-31
000040 09 d1 6d a6 5a 27 83 a5 1b cc 88 87 ad ff 4b 1b
       -8.250919e-16 -2.2751543e-16 -2.0582968e-34 1.687438e-22
000050 36 43 42 a5 9f f5 92 a6 5f b5 ca 25 ef 83 91 a3
       -1.684959e-16 -1.0197361e-15 3.5164316e-16 -1.5776808e-17
000060 f6 e3 ce a5 5f ea 01 26 6e 7a eb 94 7a d6 94 a6
       -3.5889776e-16 4.50735e-16 -2.3777226e-26 -1.0327697e-15
000070 31 8d 17 a6 6e d3 8b 25 ae 1f 2b 9c b3 1d 00 00
       -5.258e-16 2.4255927e-16 -5.66201e-22 1.0654e-41
000080 44 07 26 9f e9 b4 8e 1f 5c b4 82 9f 6c 19 f9 1f
       -3.5157877e-20 6.043863e-20 -5.535552e-20 1.0549766e-19
000090 50 d3 2a 20 e4 97 62 85 60 5f 08 a0 92 22 ef 9f
       1.4469478e-19 -1.0654367e-35 -1.1551205e-19 -1.0127763e-19
0000a0 45 4e 1f 8c bd 2e 7f 20 98 1c 00 80 70 48 cb 9f
       -1.2272468e-31 2.1614805e-19 -1.0258e-41 -8.609368e-20
0000b0 77 c0 cc 9d 76 6d 2c a0 62 b9 67 a0 67 1c 00 80
       -5.4197354e-21 -1.4605184e-19 -1.9627799e-19 -1.0189e-41
0000c0 88 f0 20 1e 91 6a ba 1d dd 21 00 80 5c 84 92 85
       8.52007e-21 4.9343977e-21 -1.2148e-41 -1.3778395e-35
0000d0 4c fa a0 9e d9 71 c4 9f d5 eb e0 9d c4 63 91 9b
       -1.704418e-20 -8.3197574e-20 -5.953615e-21 -2.405271e-22
0000e0 df 2c 86 9e 29 03 4f 1d dd 1b 00 80 63 3f 04 20
       -1.420636e-20 2.7397856e-21 -9.995e-42 1.1201808e-19
0000f0 ca b3 19 a0 95 56 5b 1e 71 02 62 97 30 c7 05 80
       -1.3019091e-19 1.1611668e-20 -7.302762e-25 -5.30632e-40
000100 a3 78 9c 9f d8 26 9f 21 9c d7 ca a1 82 82 94 a1
       -6.6268147e-20 1.0784541e-18 -1.3745124e-18 -1.0063415e-18
000110 b6 3f 1a a1 dd 20 22 87 9d 2e ee 20 36 71 1d a0
       -5.226155e-19 -1.2197183e-34 4.0349614e-19 -1.3335876e-19
000120 ed 1b 00 80 0b 32 5c a2 94 1b 00 80 0b e2 83 20
       -1.0018e-41 -2.9842052e-18 -9.893e-42 2.2341846e-19
000130 df ae 12 a1 32 b7 d4 a1 f5 5f db 20 45 9c 9d 1c
       -4.9698164e-19 -1.441417e-18 3.7163542e-19 1.0429783e-21
000140 7b 5d 9c a0 d0 c0 82 a0 66 b3 03 08 26 2d 11 09
       -2.6489288e-19 -2.215045e-19 3.963226e-34 1.7474969e-33
000150 a6 72 87 a0 b1 7c a8 a1 0c cc 17 20 72 f2 15 9f
       -2.2945758e-19 -1.1417128e-18 1.2857711e-19 -3.1752523e-20
000160 5c 50 43 a0 38 74 83 9f f3 58 23 9c 8f 65 c9 a1
       -1.6543731e-19 -5.5672926e-20 -5.404714e-22 -1.3647172e-18
000170 f8 8e c4 a0 06 d8 9f 20 7d 1b 00 80 8b 9d ef 07
       -3.32983e-19 2.70786e-19 -9.861e-42 3.6053319e-34
000180 aa 3b a0 be 1c 6e 33 3e 61 f3 b6 3e ad 67 6e 3e
       -0.3129552 0.17522472 0.35732558 0.23281737
000190 57 25 00 bd e0 f9 36 9e 81 37 47 3c 73 31 68 3e
       -0.03128561 -9.686673e-21 0.012159229 0.22675113
0001a0 e8 5e 02 95 89 10 b5 3e c8 1d 00 00 6b 9c a5 3d
       -2.632816e-26 0.35364178 1.0683e-41 0.08086475
0001b0 1b 22 bf be 70 cf 90 3e 1e 69 94 3d fc 5e a7 0c
       -0.37330708 0.28283262 0.07246612 2.578759e-31
0001c0 82 98 7a 3e 1d 5e 6f 3e d7 63 ba 02 fe 52 8e a9
       0.2447224 0.23375745 2.738755e-37 -6.3204636e-14
0001d0 99 e5 80 be f6 45 3e 3e 4d df 55 be 10 e3 9c be
       -0.2517517 0.18581375 -0.20885964 -0.30641985
0001e0 c3 cc 8c be 22 81 21 3e 3f b0 a4 8b b8 f5 29 3e
       -0.2749997 0.15771917 -6.343569e-32 0.1659764
0001f0 e2 db e7 3d d7 21 a1 be 94 1b 00 00 36 09 83 05
       0.11321236 -0.3147113 9.893e-42 1.2322564e-35
000200 a3 9e d1 3e b3 3c eb bd 8b 9e 3a be 2c cc ab 3d
       0.40941343 -0.11486187 -0.18224542 0.08388552
000210 6d 0c 8b 3e 67 ae 94 9d 9f e5 a6 3e fe f1 7a be
       0.27157918 -3.93556e-21 0.32597062 -0.24506375
000220 e8 1b 00 00 ae 1d 35 be 53 1f 00 00 b5 dd 6b 3e
       1.0011e-41 -0.17687103 1.1237e-41 0.23033793
000230 f0 7c 14 3e 83 93 97 be 73 18 9b 3e 46 cd 02 80
       0.14500785 -0.2960473 0.3029209 -2.57309e-40
000240 d0 30 43 3e cc c9 4c be 2e 1c 00 80 f2 3e 91 29
       0.19061589 -0.19998854 -1.0109e-41 6.450213e-14
000250 aa de a9 3e d8 39 2d 3e 45 62 41 3e e3 ad 7d 3e
       0.33177692 0.16916597 0.18885143 0.24773364
000260 82 b5 6a 3e 80 3a ad be 9c 37 8b 8a bb 39 76 bd
       0.22920802 -0.33833694 -1.3406131e-32 -0.06011365
000270 37 1f 85 be 93 ec 87 3e 16 14 9d 1b 5b b1 4e 98
       -0.26000378 0.2654768 2.5986451e-22 -2.6714418e-24
000280 47 40 93 9d b3 e2 cb 9e e2 76 e8 9e 20 23 24 1f
       -3.8977037e-21 -2.1587222e-20 -2.4613124e-20 3.4757406e-20
000290 ae 4c 81 9f 63 ee 82 8f 9a f9 fd 9e ec a9 15 9e
       -5.476048e-20 -1.2910813e-29 -2.689065e-20 -7.923133e-21
0002a0 ca 93 f7 0b 20 22 8a 1f 58 8e 30 0b f7 da e7 9e
       9.536331e-32 5.850173e-20 3.4003455e-32 -2.4548638e-20
0002b0 90 b9 07 9e 14 71 f4 9e 99 2d 74 9e 25 6b ab 1b
       -7.185214e-21 -2.5881273e-20 -1.2926682e-20 2.8358817e-22
0002c0 6a f4 d2 9e 47 40 bc 1d 50 1c 00 80 bc 79 aa 1b
       -2.2335702e-20 4.9829647e-21 -1.0157e-41 2.820281e-22
0002d0 68 d5 c4 9d 82 29 08 9f aa 33 7c 9d 31 11 dd 19
       -5.2101425e-21 -2.8833455e-20 -3.3378632e-21 2.2857808e-23
0002e0 d2 7c 28 9e 21 db 7d 9e d3 5c 98 92 bd 6e 16 9f
       -8.919658e-21 -1.3439023e-20 -9.615432e-28 -3.1855336e-20
0002f0 7b b6 c6 1e 1b e6 c2 9d 89 41 2a 13 d7 1c 00 00
       2.1039538e-20 -5.1589296e-21 2.1489328e-27 1.0346e-41
000300 2d 83 8c be be 02 86 3d 64 15 35 3e 75 5e 24 3e
       -0.2744383 0.06543492 0.17683941 0.16051657
000310 fa 65 fa bc 67 b6 59 1f 3f 8b 16 3e 40 b1 83 3e
       -0.030566204 4.6102417e-20 0.14701556 0.2572117
000320 31 03 82 81 53 ce 24 3e db f6 42 17 04 b6 ff 3d
       -4.775904e-38 0.16094331 6.2996356e-25 0.124858886
000330 cd 04 82 be 74 27 93 3e 15 b8 07 3d 29 0a 57 8f
       -0.25394288 0.28741038 0.03313454 -1.0602275e-29
000340 c3 45 82 3e 72 d4 29 3e 66 1c 00 00 de 1d 6d a9
       0.2544385 0.16584948 1.0187e-41 -5.2650477e-14
000350 fa 9e 80 be 0f 69 9a 3d 11 78 6d be ca 2b 72 be
       -0.2512129 0.075395696 -0.23190333 -0.23649517
000360 85 bd 85 be 45 03 39 3e 19 1c 00 00 c5 23 9a 3e
       -0.26121154 0.18067653 1.008e-41 0.30105415
000370 49 b7 0c 3e 9a 40 3e be 62 99 8a 1c f2 cc 27 0c
       0.13741793 -0.18579331 9.171722e-22 1.2926886e-31
000380 51 42 34 3e c6 4e 43 be 42 cf 34 bd b9 b2 4d bd
       0.17603423 -0.19073018 -0.04414297 -0.05021927
000390 58 8b 1c 3d 25 0e e2 1d ad 68 4c 3e 73 2e 05 be
       0.038218826 5.9836327e-21 0.19961806 -0.13006
0003a0 d3 2c 1a 96 85 52 b9 3d 08 1c 00 00 49 08 92 3d
       -1.2454165e-25 0.090489425 1.0056e-41 0.071304865
0003b0 f5 57 76 3e b1 cf 3b be f3 15 9b 3d f6 39 00 80
       0.2405699 -0.18340947 0.07572546 -2.0792e-41
0003c0 88 fb e2 3c 0b bf 7c bd 0d 1f 00 00 e2 75 0d 29
       0.02770783 -0.06170563 1.1139e-41 3.1410536e-14
0003d0 8e d8 18 3e 8e c0 04 3e cc 82 0e 3e c4 c8 0b 3e
       0.14926359 0.12964079 0.13917083 0.13650805
0003e0 df 70 50 3d 9f 6e 32 ba c0 1b cb 12 a1 4d b3 3d
       0.050888892 -0.0006806645 1.2817942e-27 0.08755041
0003f0 29 eb 63 be e8 26 f0 3d eb 1b 00 80 d7 82 7e 17
       -0.22257675 0.11726171 -1.0015e-41 8.223697e-25

pos_mlp.2.bias f4 [32]
000000 15 52 31 26 50 3b 40 1f 78 50 0e 22 50 50 a7 bc
       6.1520453e-16 4.0706644e-20 1.9287188e-18 -0.020424038
000010 9d 45 5c 3e f1 bc d5 9e 14 0a 45 be 46 eb 43 bc
       0.2151093 -2.2630397e-20 -0.19242126 -0.011957949
000020 58 4b 1b bd f0 17 d0 3d bf 02 4f bd 8c 8e 33 3c
       -0.03791365 0.10160816 -0.05053973 0.010959279
000030 fb dc 33 be 57 7c 6f 3e 3e d0 ef 3d 70 ad 46 3e
       -0.17564766 0.23387276 0.11709641 0.19402099
000040 e0 a6 c1 a7 fb 3c e1 bd 99 8b bd af 03 89 ba bc
       -5.3749187e-15 -0.10997959 -3.447809e-10 -0.02277041
000050 68 d1 f9 3d 93 53 0d 9d 28 be 21 3e 60 ef 4c 9d
       0.12198144 -1.8704401e-21 0.15795195 -2.712293e-21
000060 35 d3 fb 3d 93 34 ce bc f6 47 2f b7 a4 cf 9a 28
       0.12296144 -0.025171554 -1.0447568e-05 1.7187484e-14
000070 00 83 46 3e 6a 8d f0 3d 0a c3 65 a0 3b dc 75 3c
       0.1938591 0.117457226 -1.9461588e-19 0.01500612
