pointnet/weights_per_bundle_ratio025/ST_POSTC_right_best.pth (torch, 359876 bytes, 17 tensors)

t_grid f4 [100]
000000 00 00 00 00 b5 7e 25 3c b5 7e a5 3c 10 3e f8 3c
       0.0 0.01010101 0.02020202 0.030303031
000010 b5 7e 25 3d 62 de 4e 3d 10 3e 78 3d de ce 90 3d
       0.04040404 0.05050505 0.060606062 0.07070707
000020 b5 7e a5 3d 8c 2e ba 3d 62 de ce 3d 39 8e e3 3d
       0.08080808 0.09090909 0.1010101 0.11111111
000030 10 3e f8 3d f3 76 06 3e de ce 10 3e ca 26 1b 3e
       0.121212125 0.13131313 0.14141414 0.15151516
000040 b5 7e 25 3e a0 d6 2f 3e 8c 2e 3a 3e 77 86 44 3e
       0.16161616 0.17171717 0.18181819 0.1919192
000050 62 de 4e 3e 4e 36 59 3e 39 8e 63 3e 24 e6 6d 3e
       0.2020202 0.21212122 0.22222222 0.23232323
000060 10 3e 78 3e fd 4a 81 3e f3 76 86 3e e9 a2 8b 3e
       0.24242425 0.25252524 0.26262626 0.27272728
000070 de ce 90 3e d4 fa 95 3e ca 26 9b 3e bf 52 a0 3e
       0.28282827 0.2929293 0.3030303 0.3131313
000080 b5 7e a5 3e ab aa aa 3e a0 d6 af 3e 96 02 b5 3e
       0.32323232 0.33333334 0.34343433 0.35353535
000090 8c 2e ba 3e 81 5a bf 3e 77 86 c4 3e 6d b2 c9 3e
       0.36363637 0.37373737 0.3838384 0.3939394
0000a0 62 de ce 3e 58 0a d4 3e 4e 36 d9 3e 43 62 de 3e
       0.4040404 0.41414142 0.42424244 0.43434343
0000b0 39 8e e3 3e 2f ba e8 3e 24 e6 ed 3e 1a 12 f3 3e
       0.44444445 0.45454547 0.46464646 0.47474748
0000c0 10 3e f8 3e 05 6a fd 3e fd 4a 01 3f f8 e0 03 3f
       0.4848485 0.4949495 0.5050505 0.5151515
0000d0 f3 76 06 3f ee 0c 09 3f e9 a2 0b 3f e4 38 0e 3f
       0.5252525 0.53535354 0.54545456 0.5555556
0000e0 de ce 10 3f d9 64 13 3f d4 fa 15 3f cf 90 18 3f
       0.56565654 0.57575756 0.5858586 0.5959596
0000f0 ca 26 1b 3f c5 bc 1d 3f bf 52 20 3f ba e8 22 3f
       0.6060606 0.61616164 0.6262626 0.6363636
000100 b5 7e 25 3f b0 14 28 3f ab aa 2a 3f a6 40 2d 3f
       0.64646465 0.65656567 0.6666667 0.6767677
000110 a0 d6 2f 3f 9b 6c 32 3f 96 02 35 3f 91 98 37 3f
       0.68686867 0.6969697 0.7070707 0.7171717
000120 8c 2e 3a 3f 86 c4 3c 3f 81 5a 3f 3f 7c f0 41 3f
       0.72727275 0.7373737 0.74747473 0.75757575
000130 77 86 44 3f 72 1c 47 3f 6d b2 49 3f 67 48 4c 3f
       0.7676768 0.7777778 0.7878788 0.7979798
000140 62 de 4e 3f 5d 74 51 3f 58 0a 54 3f 53 a0 56 3f
       0.8080808 0.8181818 0.82828283 0.83838385
000150 4e 36 59 3f 48 cc 5b 3f 43 62 5e 3f 3e f8 60 3f
       0.8484849 0.85858583 0.86868685 0.8787879
000160 39 8e 63 3f 34 24 66 3f 2f ba 68 3f 29 50 6b 3f
       0.8888889 0.8989899 0.90909094 0.9191919
000170 24 e6 6d 3f 1f 7c 70 3f 1a 12 73 3f 15 a8 75 3f
       0.9292929 0.93939394 0.94949496 0.959596
000180 10 3e 78 3f 0a d4 7a 3f 05 6a 7d 3f 00 00 80 3f
       0.969697 0.97979796 0.989899 1.0

encoder.mlp.0.weight f4 [64, 3]
000000 f5 d6 5e 3e f3 83 99 3e 99 8e 13 3f 8b 6b d8 3e
       0.21761687 0.29983482 0.5763946 0.4226955
000010 de 0b d3 bc 58 27 eb be fc 33 0f 3f 8b 60 1c be
       -0.025762495 -0.45928454 0.55938697 -0.15271203
000020 39 ac ba bd 96 19 44 be 4e fd 10 bf 80 89 bb be
       -0.0911488 -0.19150385 -0.5663651 -0.36628342
000030 69 10 29 be a4 0b ac be 3f b8 d8 3e e7 47 d6 bc
       -0.16510166 -0.3360263 0.4232807 -0.026157333
000040 e4 c4 93 3d 40 92 05 bc 2a 5d 45 3e 9f 8d 16 bf
       0.07215288 -0.0081525445 0.1927382 -0.58809847
000050 aa 68 78 be 46 e4 99 3e b5 67 38 be 93 8f 8e be
       -0.24258676 0.3005697 -0.18008311 -0.27843913
000060 ac b1 0d 3e 8c 7e fb be c1 6f ae 3e 25 e2 c1 3e
       0.13837308 -0.49119985 0.34069636 0.37867847
000070 8a 96 da 3e 13 24 ee be 97 73 17 be 11 52 de 3d
       0.42692977 -0.46511897 -0.14790188 0.10855497
000080 74 0a d6 3d 51 ac 01 be 25 e9 93 3e b8 78 15 3d
       0.104512125 -0.1266339 0.28888813 0.03649208
000090 8f 18 e1 3d 43 f0 bd 3e bc 96 d0 3c 5d 4b 03 3f
       0.10991012 0.37097368 0.0254625 0.5128687
0000a0 30 ce 15 3f ae bd 0a bf 39 5f fe be 50 34 93 be
       0.5851774 -0.5419568 -0.49682024 -0.2875085
0000b0 37 5d 28 3e f4 dc 0c be c1 3a eb 3e f6 74 83 3c
       0.16441809 -0.13756162 0.45943263 0.016046982
0000c0 0d 25 00 be 38 30 f4 be 4f 66 09 bf 5b f4 d6 bd
       -0.12514134 -0.47693038 -0.53671736 -0.10495826
0000d0 d0 9f f9 3e 52 67 b1 be 83 de 02 3f e3 0a f0 3e
       0.4875474 -0.3464914 0.51120776 0.46883306
0000e0 26 eb aa 3e 82 33 bb 3d 50 96 0d 3f 07 49 a9 be
       0.3338253 0.09140684 0.55307484 -0.33063528
0000f0 db d2 e8 bc 17 72 6c 3d 54 4f d1 bd df 58 11 bc
       -0.028420856 0.057725992 -0.10220209 -0.008871286
000100 21 40 47 bb 67 8a ac bc 6f aa 04 bf 11 99 70 be
       -0.0030403214 -0.02106209 -0.5182256 -0.2349589
000110 24 dd 06 3f 6a 52 e6 bd 4f 92 0a bf 1a 4b f1 be
       0.52681184 -0.11246188 -0.541295 -0.4712761
000120 82 04 ba bc 60 42 86 bc 8e 1c 2f bc 4b 70 c0 be
       -0.022707228 -0.016389072 -0.01068796 -0.37585673
000130 85 8e 18 3e 9d 80 52 3e 07 ee 28 be 74 18 70 3d
       0.14898117 0.20556875 -0.1649705 0.05861707
000140 51 5e 0e 3f 15 21 ee 3e ea d0 99 be 65 a6 eb 3e
       0.55612665 0.46509615 -0.300422 0.46025386
000150 0c b2 f1 3c e0 eb 2a 3e d3 ec 65 bd f4 6c ad be
       0.029503845 0.16691542 -0.056134056 -0.33872187
000160 4d cc 4f 3e 1a 1a 58 3e b6 59 9d bc 3d 97 46 3e
       0.20292778 0.21103707 -0.019207817 0.1939363
000170 0d 64 ae 3e 08 ea 11 3f 32 b3 dd be 4e 59 24 be
       0.34060708 0.5699773 -0.43300778 -0.16049692
000180 c4 78 d4 be 86 16 77 be a8 1e 36 bd cf 91 6d 3d
       -0.41498387 -0.24129686 -0.04446283 0.058000382
000190 cb 91 b0 3e e8 3e 98 bd 6e e0 73 3e 66 30 41 3e
       0.3448623 -0.074338734 0.23816082 0.18866119
0001a0 ca 86 cf be d6 9b c5 be 75 6d 09 bf 58 c6 54 3d
       -0.40532523 -0.38595456 -0.53682643 0.051946968
0001b0 43 2f 0f be 3d 4c 80 be cf b8 d7 be c7 12 d1 be
       -0.13982873 -0.25058165 -0.42133185 -0.40834638
0001c0 07 d0 12 3f 89 c3 08 3f b4 b7 3e bd 70 5f 9d 3d
       0.57348675 0.5342336 -0.04656191 0.07684219
0001d0 97 62 69 bd 38 48 a9 3e 6d 5b e1 bd f0 a6 86 bd
       -0.05697879 0.3306291 -0.11003766 -0.065748096
0001e0 e4 2d 83 3d b5 2f db 3e e4 dd 3e 3e 19 17 43 3e
       0.06405237 0.42809835 0.18639332 0.1905178
0001f0 0c 07 d1 3e b0 f9 fb be c4 3d b3 be ac 7e e6 be
       0.4082569 -0.49213934 -0.3500806 -0.45018518
000200 e4 f8 60 3e e6 bf 1a bf 6b 51 d5 be fe d2 b2 bd
       0.21969944 -0.60449064 -0.4166368 -0.0873165
000210 0d 90 be 3e 0b 1c ba be e1 3d 01 3e 8a 51 88 be
       0.37219277 -0.3634952 0.12621261 -0.2662471
000220 4e 7a df be 69 a1 b7 be d5 5c 7c be fe 80 36 be
       -0.43648 -0.35865334 -0.24644788 -0.17822644
000230 bd 6e 5b 3e 2c b8 08 3f 7d 93 be 3d a7 ed f1 be
       0.21428962 0.53406024 0.09305475 -0.47251627
000240 ec 6c 66 3e 6a 79 16 3e 9c 12 d7 bd be e8 a6 be
       0.22502488 0.14694753 -0.10501596 -0.32599443
000250 f7 d6 06 be 35 a7 0c 3a 06 d5 05 bf 33 b4 18 3d
       -0.1316794 0.0005365492 -0.5227817 0.037281226
000260 07 90 02 3f e6 1f 4e 3d b3 8f fe 3d 17 b6 f1 be
       0.5100102 0.05032339 0.12429752 -0.47209236
000270 7e 54 13 bd be d1 ca ba cf 5d 4a 3b 27 37 10 be
       -0.03596925 -0.0015473885 0.0030878668 -0.14083539
000280 87 48 b7 3e f1 61 f9 3b 1f e6 0c 3f 85 a6 b4 be
       0.3579752 0.0076105525 0.55038637 -0.35283294
000290 70 1a d6 be df 0e 61 be a7 e4 fe bc 83 5d 0d 3d
       -0.41817045 -0.21978329 -0.03111489 0.034513008
0002a0 03 75 c0 3e 99 51 ff bd d6 fe df be 8b 7a 22 3e
       0.37589273 -0.124667354 -0.43749112 0.15867059
0002b0 ba 30 e1 3e 88 77 b8 3c e7 73 4a 3e d8 26 c2 bd
       0.43982488 0.022517934 0.19770776 -0.09480065
0002c0 6e 07 a7 3e 7f 9c 81 3d fb 10 79 3e 21 4f 8d 3e
       0.32622856 0.063286774 0.24322884 0.27599433
0002d0 b7 44 9a 3b 6a e2 09 be 2d ef 78 3e 9f 86 ba 3c
       0.0047078985 -0.13465276 0.24309988 0.02276927
0002e0 27 12 b3 3d 6b 80 86 be ba de a1 3e 9e 4b 08 be
       0.08743697 -0.2626985 0.3161524 -0.13310096
0002f0 06 d3 98 3e a9 9d fa ba 78 2d 84 be 59 5c 73 be
       0.29848498 -0.0019120473 -0.2581594 -0.23765697

encoder.mlp.0.bias f4 [64]
000000 cc 07 c1 be 96 f1 21 be d8 c9 64 bd 9e 57 9b 3e
       -0.3770126 -0.15814814 -0.055856556 0.30340284
000010 a6 d1 c6 be 15 da 2b 3c 43 31 01 3e cd 09 d5 be
       -0.38831824 0.0104890065 0.12616448 -0.4160904
000020 7e d4 05 3e 79 9f 28 bd 27 39 d5 bb 1e da 2b 3d
       0.1306934 -0.04116771 -0.006507057 0.04195606
000030 a9 35 c1 3e ae 4d 70 be be d6 9d be 80 04 04 3e
       0.37736252 -0.23467132 -0.30827898 0.12892342
000040 19 73 5b 3e df 90 85 bd 5e a1 5b 3b af b4 73 be
       0.21430625 -0.065217726 0.003351293 -0.23799394
000050 ed ad 5e 3c 43 36 05 bd 7c 38 2c bd a5 3c 22 3e
       0.013591272 -0.03252245 -0.042046055 0.15843447
000060 aa 11 83 b7 2d 89 5a 3e fe e2 8b bd e8 68 3c be
       -1.5624642e-05 0.21341391 -0.06830405 -0.18399394
000070 84 6b 2a be cb 3c 2c 3e 1f 46 58 3e e8 e2 21 be
       -0.16642576 0.16820066 0.21120499 -0.15809214
000080 a5 59 ac 3e a5 84 b3 be 97 00 c8 be 28 2a a0 3b
       0.33662143 -0.35062137 -0.3906295 0.004887838
000090 75 b6 0e be 16 a5 cb be db 13 86 39 76 f2 84 bc
       -0.1393679 -0.39774388 0.00025573265 -0.016228896
0000a0 8e a6 d3 be 72 5c e0 be 19 b7 e7 bc c1 8f be be
       -0.4133801 -0.4382053 -0.02828555 -0.3721905
0000b0 66 86 41 be 1f 15 6a 3e 7e 56 8c be f7 a4 c9 3d
       -0.18898925 0.2285962 -0.27409738 0.09845918
0000c0 3b 19 8c bd be 30 3f 3d 78 8e 38 be 99 a0 48 be
       -0.0684075 0.046677344 -0.18023098 -0.19592513
0000d0 46 89 eb 3c 42 64 52 3d 10 a3 98 3e ba 63 12 3d
       0.02875198 0.051365145 0.29811907 0.035739638
0000e0 e7 90 82 be 4f 5b bc be ff 52 b8 3e 72 7d c4 be
       -0.25501177 -0.36788413 0.3600082 -0.38376957
0000f0 51 7c 40 be 52 02 11 3e 2c 8e de bd f1 87 a4 bd
       -0.18797423 0.14161041 -0.10866961 -0.08033741

encoder.mlp.2.weight f4 [128, 64]
000000 7f 64 d0 3b 2c 85 33 bd 29 5a 9a 3d 55 31 b0 bb
       0.0063596363 -0.043828174 0.07536728 -0.0053769746
000010 99 1b e2 3a e6 40 c0 bb 36 89 8b bd 13 bd eb ba
       0.0017250656 -0.0058671115 -0.0681328 -0.0017985426
000020 00 07 bc bc bf da 34 3d 1a 4a 38 ae 39 fa c1 bc
       -0.022952557 0.044153925 -4.190257e-11 -0.023678886
000030 f5 b8 a6 3b c4 f6 28 bd 14 76 4c a6 55 a9 c7 bc
       0.0050879666 -0.04125096 -7.0936744e-16 -0.024372736
000040 f5 30 62 bc 34 39 a3 bc 30 b2 76 bc 86 1d fe 35
       -0.013805618 -0.019924738 -0.015057132 1.8933067e-06
000050 0c ff 40 3b 47 bc 9a b4 e8 49 ad 39 6e ee d6 3c
       0.0029448895 -2.8821725e-07 0.00033052196 0.026236739
000060 94 5b 88 99 99 27 a3 2f ea c1 d7 bb 8c 73 22 bd
       -1.4099059e-23 2.9677663e-10 -0.0065843957 -0.039660975
000070 71 fe 39 3b 1b 69 e9 31 c3 09 90 3b 76 29 b0 bd
       0.0028380419 6.7931416e-09 0.004395695 -0.08601658
000080 c5 1d ee ad c9 e4 bb 3b 13 a7 c5 bc b5 c1 53 b3
       -2.7070688e-11 0.0057340604 -0.024127519 -4.930344e-08
000090 55 e2 d1 39 00 15 11 bd e0 ba fd 3a f0 90 96 bc
       0.00040032217 -0.035420418 0.0019358061 -0.018379658
0000a0 06 c5 26 3c 48 3e 36 39 c1 f4 0b b3 9f 6f c0 a8
       0.01017881 0.00017380074 -3.2586062e-08 -2.136469e-14
0000b0 19 4d db 3c 22 48 d8 b5 36 3c 0f 9a 08 1e de 3c
       0.026770161 -1.6114248e-06 -2.9620345e-23 0.02711393
0000c0 75 48 b5 3b 72 9b b1 b3 c9 85 6d 32 d1 ec 34 bc
       0.005532319 -8.27048e-08 1.3825635e-08 -0.01104279
0000d0 4a 26 90 98 e8 28 fc bc 7b 15 a3 3d ad 1c ec ae
       -3.726179e-24 -0.030781224 0.079630814 -1.0737131e-10
0000e0 a3 6d 76 bc 18 29 cd 3b b7 21 2f bc 35 35 2f 3c
       -0.015040788 0.0062610023 -0.010689191 0.010693838
0000f0 bc c8 c1 bb 88 e0 36 bc 85 d7 83 3d 3d 79 a8 3b
       -0.005913822 -0.011161931 0.064375915 0.005141406
000100 b1 99 e9 bd ef 03 bb 3d 47 3b 14 3d 2e 4f 11 3e
       -0.114062674 0.0913161 0.036189344 0.14190361
000110 05 b6 fd 3d 7b 60 83 b5 01 b8 5c bb cc ab d6 bc
       0.12388233 -9.78834e-07 -0.003367901 -0.026204966
000120 42 3a 07 bc 71 b0 9f bd 11 6b df 3c ef 70 e9 9c
       -0.008253636 -0.077973254 0.027272733 -1.5447839e-21
000130 76 4b 06 be c0 96 df bc df 51 b9 3d 5b 42 22 3a
       -0.13114724 -0.027293563 0.09048819 0.00061896973
000140 11 2c 4b bd f6 67 53 3d 1c 86 d1 3c 8f ee a4 3d
       -0.049602572 0.051612817 0.025576644 0.08053314
000150 e1 51 ab 3b 86 22 3c 3a ed 35 6b 3d 4a 79 fd 3d
       0.0052282666 0.0007176775 0.057424475 0.1237665
000160 84 2f fe 38 d0 29 a1 3a 62 92 55 3d 38 7b 8a bb
       0.00012120514 0.0012295786 0.052141555 -0.0042261146
000170 13 c0 82 3c b3 08 71 3d 56 0a 58 3d d1 b6 f3 3d
       0.015960729 0.058846187 0.052744232 0.11900104
000180 ef 5f 4b 3d 9f 35 47 3c 9f db 67 bc d3 d0 cc 3c
       0.049652036 0.01215878 -0.014151483 0.025001919
000190 2d 05 a7 3d 51 1d b7 3d ec b8 ef b2 ee 7b 47 bd
       0.08155284 0.089411385 -2.7907355e-08 -0.048702173
0001a0 7a 86 09 bd e5 36 19 bd 81 4f a0 bb e5 63 08 3e
       -0.033575512 -0.037405867 -0.00489229 0.13319357
0001b0 50 ab fa 3d 2a 42 1b 3e 1e 5b 9e 3d 36 bf 61 3d
       0.122397065 0.15161958 0.07732223 0.055113994
0001c0 ed a7 78 bb 73 07 f9 bc a1 4e 05 3d 5d 6c 3d bd
       -0.0037941888 -0.03039906 0.03254569 -0.04624592
0001d0 bd 4d 43 3b 9e 2b 39 2e 88 cf de bb 7b 3f 0d 3d
       0.0029800974 4.210287e-11 -0.006799642 0.034484368
0001e0 c7 4d 41 bd 90 77 9f 3c eb 1f 26 bd 51 6d ce bd
       -0.047193315 0.019466192 -0.040557783 -0.10079444
0001f0 7d 1a c0 bd dc fd 2a 3d 9f d5 d4 bd 56 03 13 3e
       -0.09380052 0.041746005 -0.103923075 0.14356741
000200 af bc a7 3d cf d9 d3 3d 84 f3 24 bd 27 15 3c bd
       0.081902854 0.10344278 -0.040271297 -0.04591861
000210 5b 8d 9f bd c7 a2 d5 3b 48 1b 9f bd fd 25 ca bd
       -0.07790633 0.0065196487 -0.07768875 -0.09870527
000220 56 3b c9 bc 8b 8c c8 3c dd 56 16 bd 4e bb f1 3c
       -0.024564426 0.024481079 -0.036703933 0.02950826
000230 48 b3 e6 3d c0 d0 9b bd 06 26 d2 bc 8f e9 9a 3d
       0.11264664 -0.07608175 -0.025652897 0.07564079
000240 dc 22 03 b9 87 b0 ca 3c 0d b6 b7 bc e6 60 86 bb
       -0.0001250612 0.024742378 -0.022425676 -0.0041009067
000250 57 8e 8f bb 65 81 c0 b9 9d 44 76 bd bd 5a 93 bb
       -0.004380982 -0.000367175 -0.06012403 -0.004496901
000260 87 26 4d ba 5a a8 a8 bd 22 53 d7 bc 82 cb 51 3c
       -0.00078258704 -0.082352355 -0.026284758 0.012804868
000270 76 1e d2 bc 1a 15 9f bd 81 7d ff 3d be dd 9e 3d
       -0.02564929 -0.07767697 0.1247511 0.07757138
000280 d8 29 43 bd d9 55 23 bd b2 01 23 bd 61 2d e7 bd
       -0.047647327 -0.039876793 -0.03979654 -0.11287952
000290 c9 90 7b bd 80 63 8b bd 7c 7c 62 bb 77 a4 80 3c
       -0.061417375 -0.068060875 -0.0034559062 0.015703423
0002a0 51 52 a6 3b 57 c7 85 3d 73 64 ff 3d 9b 1e 07 be
       0.005075731 0.06532162 0.12470331 -0.13195269
0002b0 e2 fa b2 bb 5d 7a a7 bd 5e 07 f5 3d 55 c6 31 bb
       -0.0054620365 -0.08177636 0.11964296 -0.0027126272
0002c0 c4 cb 9a bc 97 7d 3a bd 8c 6e 35 3d 53 e6 80 3d
       -0.018895991 -0.045529928 0.04429488 0.06293931
0002d0 79 2d ba bb 4e 9f 4a 3d 04 d9 bd 3d 59 77 2e bd
       -0.0056816903 0.04946833 0.09269908 -0.042594288
0002e0 2d 5b 2d bb 43 72 bd 3d 34 8f 8e 3d 82 82 ba 3d
       -0.002645205 0.09250309 0.069609076 0.09106924
0002f0 7d 04 37 3c 64 ae 3d 3d bf 8d a6 3c f2 b3 6c bc
       0.011170504 0.04630889 0.020331262 -0.014447199
000300 49 5a 7a bd 04 b4 b7 bd dc 43 0a 3e 16 09 aa bc
       -0.06112126 -0.08969882 0.13502449 -0.020756286
000310 e7 86 ec 3d 61 07 29 3a 0d cb 8f bd 37 d4 b1 bc
       0.11549168 0.0006447938 -0.07021151 -0.021707637
000320 72 cb a4 3c 20 18 4f 3d fc d6 14 3c d8 8b bc 3b
       0.020116542 0.050560117 0.009084459 0.0057539754
000330 cf 5d 09 3d 37 8c 95 3d 82 b0 9e 3c 90 9a 65 3d
       0.03353673 0.073021345 0.019371275 0.056055605
000340 f9 64 c4 bd d9 ba f5 bc e1 25 4c 3d 01 e2 e9 3d
       -0.095895715 -0.029996322 0.04984081 0.1142006
000350 23 35 a8 3b 59 d4 15 3a 0d 99 89 bd 5a 19 07 bd
       0.0051332875 0.0005715541 -0.06718645 -0.03298316
000360 c6 07 2d 22 60 27 e8 bc bd 3f b0 3d 12 5c 19 bd
       2.3449987e-18 -0.028339088 0.08605907 -0.03744132
000370 3e 24 a0 3d 83 36 cf ba 17 0d bc bc c5 59 d7 bc
       0.07819413 -0.0015809092 -0.02295546 -0.026287923
000380 ae fc 54 bd b7 6a 8b 3d 80 1f 4b bd 57 4d bd bc
       -0.051998787 0.068074636 -0.049590588 -0.023108168
000390 7e e4 60 bd 93 c6 51 bc e2 e7 7f 38 72 7c 4d bc
       -0.054905407 -0.012803691 6.1012695e-05 -0.012541877
0003a0 77 7c b1 3c 5e cd 95 bd 7b 32 1f 3d 79 d9 78 bd
       0.021665795 -0.07314561 0.0388665 -0.060754273
0003b0 e3 10 9f bd 20 b1 90 bd a2 ca bf bd a6 8c b3 3d
       -0.07766893 -0.07065034 -0.09364821 0.08767061
0003c0 ff fe 0b bc 00 ec 40 bd b0 fa 59 bc ec 09 6f 3c
       -0.0085446825 -0.047100067 -0.013304397 0.014589768
0003d0 72 67 d9 bb 4b 4d 45 3c e5 43 ea 3d d7 5c 16 bd
       -0.006634646 0.012042354 0.11438731 -0.036709633
0003e0 79 96 b5 3c 99 df c4 bb e0 1d 1e 3c f2 41 da 3d
       0.022166478 -0.0060081 0.009650677 0.10657109
0003f0 80 f6 78 bd 1c 47 11 bc 5b a0 ba 3d 37 49 94 bc
       -0.060781956 -0.008867051 0.09112617 -0.018101318

encoder.mlp.2.bias f4 [128]
000000 0a 0d cb bb fd 04 7e 3d 59 74 98 bd c5 d7 12 3d
       -0.0061966227 0.062016476 -0.074440666 0.035850305
000010 e7 fc 74 bb d9 c5 c3 bc 96 13 2a 3d f3 36 d5 3d
       -0.0037382187 -0.023898052 0.041522585 0.10410871
000020 73 c4 45 bd 11 80 e9 bb cc c2 87 3d 6c 1b cd 3c
       -0.04828305 -0.0071258624 0.066289514 0.02503749
000030 1f ab 9f bd d9 04 af 3d f5 da 77 3d 43 98 82 23
       -0.07796311 0.085458465 0.060511548 1.4159114e-17
000040 31 7c 8a 3d b3 53 10 bc f6 ba 64 3d 01 34 0f bd
       0.06761969 -0.008809018 0.055842362 -0.034961704
000050 b8 ef 70 b1 71 7d f5 19 4d 7e f7 bc 44 68 23 bd
       -3.506086e-09 2.5383072e-23 -0.030211592 -0.039894357
000060 3a 63 e3 bd 8b ba 3d 3c e0 7c af bd f3 54 00 3d
       -0.1110291 0.01158012 -0.0856874 0.031331014
000070 ab 32 23 bc 83 98 5d bd cc d7 15 3c 35 43 b7 3d
       -0.009960811 -0.054100525 0.009145688 0.089483656
000080 35 35 4f 3d 1c 74 8a 3d 8f 3d 89 bd e5 d8 91 bd
       0.05058785 0.06760427 -0.067011945 -0.071214475
000090 f3 e6 22 3d c0 d7 5a 3d 99 e7 dc 39 f0 06 8a 3c
       0.03977103 0.05342841 0.00042134224 0.016849011
0000a0 05 03 0c bd 60 7e 83 bd b7 b2 0e 19 5d 25 66 bd
       -0.034182567 -0.064205885 7.377319e-24 -0.056187976
0000b0 cd 47 8e bc 1f 06 aa 3d d5 9b 99 bc 2b bb 19 3d
       -0.017368222 0.08301949 -0.018751064 0.037532013
0000c0 42 3d 9f bd 09 f8 06 ba 56 0f 47 3d 4c 17 82 3d
       -0.07775356 -0.00051486545 0.04859861 0.063521
0000d0 55 90 39 3d 15 a3 1a 3c 1c f9 8a b0 9e a9 62 bd
       0.04530366 0.009438296 -1.0111623e-09 -0.05533754
0000e0 93 55 90 bc c9 4b a9 bb 9a a1 8e bb 3f 97 29 bd
       -0.01761893 -0.005166505 -0.0043527605 -0.041404005
0000f0 91 55 f5 3a ac c8 b0 b9 6f 26 95 bd e1 71 64 24
       0.0018717517 -0.00033718848 -0.07282721 4.9536078e-17
000100 15 b9 b1 bb f6 0a be 3c 09 7a 5d 3d c4 af 17 bc
       -0.005423675 0.023198586 0.05407146 -0.009258214
000110 b4 2f 61 bd 4a 8e 13 3d 25 54 fa 3c 11 ee 31 ad
       -0.054977134 0.03602437 0.030557701 -1.01141465e-11
000120 e0 ad 26 bd 06 95 e8 3c 25 d2 cb 3c fb 2d 33 bd
       -0.040693164 0.028391372 0.024880478 -0.043745022
000130 41 13 6d 2c 30 1e c4 bd 6e f8 a4 bd 02 48 53 bd
       3.3690414e-12 -0.0957607 -0.08055197 -0.051582344
000140 c3 c7 1e 3d e5 85 e4 3c c5 fa 54 a0 0f 63 22 ab
       0.038764726 0.027895877 -1.8040071e-19 -5.7691433e-13
000150 ec ee 7f 3d 97 b4 60 bd 9c 2f 9b 3d c6 a5 bd 3d
       0.062483713 -0.054859724 0.0757744 0.092601344
000160 a2 ea 79 bd c9 24 02 3d 0b 08 73 bd 5d e7 0d b4
       -0.06101478 0.031773362 -0.059333842 -1.3215818e-07
000170 6b 82 b3 3c c0 05 91 3d c5 ca 8c bd 8b 10 f0 bc
       0.021912774 0.07081175 -0.06874613 -0.029304763
000180 4d 39 4d bb bc f9 ad 3d 77 1b a6 bd be 06 1e 3d
       -0.0031314672 0.08494899 -0.08110707 0.03858065
000190 8b 28 a2 3b 0d fb 58 3d 3b 9c 4b 3d 64 c0 94 3d
       0.0049486808 0.052973796 0.04970954 0.07263258
0001a0 9e b0 09 3c 42 b9 9b bc c2 8f b5 bd 6a 11 ba 2d
       0.008403925 -0.019009236 -0.0886531 2.1153485e-11
0001b0 20 59 d4 bd ea 8c 4e 3d 85 4d 8c bb bd b5 62 3d
       -0.10368562 0.050427355 -0.004281702 0.0553491
0001c0 af 5c 98 bd 52 a6 1d 3d 54 f1 a8 bd 82 7c c0 3c
       -0.07439553 0.038488694 -0.08249155 0.02349687
0001d0 66 b8 fd 3b f3 f9 0c b0 db 97 96 3d 6c fb ed 3b
       0.0077429293 -5.12869e-10 0.07353183 0.007262638
0001e0 0b 4c b3 3d 99 4d 27 bd 38 14 b1 bd 65 31 58 bc
       0.087547384 -0.040845487 -0.086464345 -0.01319537
0001f0 24 98 8a bd e5 6e 16 bd 26 b4 51 bc 54 23 03 3c
       -0.067673 -0.03672685 -0.012799298 0.008004028

encoder.mlp.4.weight f4 [256, 128]
000000 3b c5 eb b7 46 f7 68 bb 8b 32 a5 3b 3d d4 9f 3b
       -2.8106026e-05 -0.0035547777 0.0050414256 0.0048775957
000010 cc 99 52 bc 46 cf 7d bd f1 79 a1 3c 69 6d 7a b9
       -0.012854051 -0.06196525 0.019711467 -0.00023882616
000020 59 0a 05 a4 a4 25 ec 38 e8 0a 4e bd 1f 28 42 bc
       -2.8848543e-17 0.00011260368 -0.05030337 -0.011850386
000030 33 db 4c 20 19 fd 94 21 d4 98 03 bd a5 c0 99 97
       1.7351999e-19 1.0095864e-18 -0.03212817 -9.936024e-25
000040 ac d5 fa bb 9b 0e 8d bb a4 2f 51 a4 2d 8e 97 3d
       -0.007654866 -0.0043047196 -4.5360004e-17 0.07400165
000050 7c 3a 82 a9 29 70 65 19 76 1a 45 bb aa 4a 39 3d
       -5.783305e-14 1.1861673e-23 -0.0030075586 0.04523722
000060 67 cd 38 bc 0d a5 85 bb 34 ac d1 3c bc 26 f4 ba
       -0.0112794405 -0.0040785135 0.025594808 -0.0018627266
000070 0a c3 89 bd 4b e3 b4 3c 13 c0 c5 3a 61 bd 09 bd
       -0.06726654 0.022081038 0.001508715 -0.03362787
000080 bc 43 22 bc c6 5b bc 3c 13 8f c9 bc 3c 88 41 bb
       -0.009903844 0.02299298 -0.024604356 -0.0029530665
000090 e4 39 d3 3c d0 74 0e bc 3b b2 00 9b 92 a9 66 bd
       0.02578444 -0.008694842 -1.0645501e-22 -0.05631406
0000a0 62 7d 04 bd 73 a3 4f bd 03 68 66 ac 5e e5 d1 19
       -0.032346137 -0.050692987 -3.2742704e-12 2.1702734e-23
0000b0 38 9c 52 3b 1f 72 35 bd f3 23 5c bc 58 a4 4a 1a
       0.003213657 -0.044298287 -0.013436305 4.1905377e-23
0000c0 33 e5 7f bb 5d d1 1d bc a0 ab f1 3a 90 00 b8 bb
       -0.0039046525 -0.009632436 0.0018437989 -0.0056153014
0000d0 f2 1d 4a bd 3a 51 39 3d 40 50 e0 a7 de a6 f6 3b
       -0.049344964 0.04524348 -6.2259497e-15 0.0075272163
0000e0 e7 b2 ca bb 93 0a b9 a3 4d 64 72 bc 6a 1e ef 3c
       -0.0061858776 -2.0062219e-17 -0.014794421 0.029189307
0000f0 de b4 c6 39 29 a4 9d bb 56 dc 56 3d ed a8 46 29
       0.0003790026 -0.004810829 0.052456222 4.411135e-14
000100 4f 40 49 3d f8 a1 97 bd 20 cf 3d 3d 18 37 ef 1d
       0.049133595 -0.0740394 0.046340108 6.331974e-21
000110 f8 74 06 ba 17 c9 4b bd 77 7c a7 3b 35 92 39 a8
       -0.0005129124 -0.04975232 0.005111273 -1.03012666e-14
000120 20 cc 03 bd 0d 17 df bb c4 f8 19 3b 36 bd 90 bd
       -0.03217709 -0.006808168 0.0023494223 -0.07067339
000130 e6 62 81 a8 13 09 25 bb 05 27 94 3b 46 bd e5 3c
       -1.4364767e-14 -0.002518241 0.004521253 0.028044354
000140 20 63 d4 19 bf 8c 84 3d c1 20 3c ac e6 86 72 98
       2.1960323e-23 0.06472158 -2.673459e-12 -3.1345873e-24
000150 4e 3c 87 bb 60 ca 95 b8 01 70 92 bc 21 c5 a8 bd
       -0.004127062 -7.142569e-05 -0.017875673 -0.08240724
000160 a1 e1 6b 3d 7c f9 9b bd a7 a1 46 bd e7 fe bf a7
       0.057588223 -0.07615945 -0.048494007 -5.3289515e-15
000170 6a 52 bc bc 4e 4b e4 b9 c0 5b 44 bd 89 77 0f aa
       -0.022988517 -0.00043543655 -0.047939062 -1.2742423e-13
000180 72 7d 6a bd 5f 73 cc b9 6b 53 cc b9 cb 8d 30 3d
       -0.05724854 -0.0003899587 -0.00038972063 0.043103974
000190 a9 dc a2 38 af d4 82 bb a4 15 d1 b9 68 69 20 3d
       7.765863e-05 -0.003992639 -0.0003987971 0.039163023
0001a0 bb e1 eb ba d3 44 84 3d fd ca 29 bb 47 0b a0 28
       -0.001799635 0.0645844 -0.0025908344 1.776846e-14
0001b0 a8 2c 87 3c b7 97 f2 3c 68 4d 65 bb 3f 49 61 bd
       0.016500786 0.029613359 -0.0034988765 -0.055001494
0001c0 5a 03 30 9e 25 d5 73 bc b7 47 2a 99 08 84 bc ba
       -9.3180555e-21 -0.014882361 -8.803277e-24 -0.001438261
0001d0 2d 98 ba ba 19 69 5b a9 0e e7 1f bb 0b 13 07 a4
       -0.0014236026 -4.8718926e-14 -0.0024399194 -2.928959e-17
0001e0 12 28 38 bd ba ea 5b 3d 63 64 89 bd 64 4b 10 bd
       -0.04496009 0.05369065 -0.067086 -0.035228148
0001f0 3e dc 7d 3d 83 59 ac bc 51 ac 5c b3 4d ec 31 bb
       0.061977617 -0.021038776 -5.1379462e-08 -0.0027148903
000200 31 bb d5 18 79 a5 dc 3c fe 10 a8 ba 8e 2b e8 a0
       5.5248225e-24 0.026934372 -0.0012822447 -3.933115e-19
000210 72 a9 88 bd 1e fd b4 b8 82 95 88 3c 53 d3 61 ba
       -0.06672944 -8.6302156e-05 0.016672853 -0.00086145586
000220 db e6 48 3d 4b 6e 29 1a a5 2b 5a bc 6d 38 9c bb
       0.049048286 3.5037475e-23 -0.01331607 -0.0047674687
000230 fb 50 45 b4 48 05 08 bc 64 84 d2 99 c8 32 41 9e
       -1.8376515e-07 -0.00830204 -2.1766963e-23 -1.0227836e-20
000240 e3 40 30 bc 05 84 6a 3d 5d d7 91 2b da 87 45 3d
       -0.010757658 0.05725481 1.0362645e-12 0.04822526
000250 07 ac ea 97 45 2c a8 19 b2 d1 0c 3d 7c c1 b8 bc
       -1.5165321e-24 1.7388673e-23 0.03437967 -0.022553198
000260 20 78 3c 3d e4 89 1e bb 5b 29 ac bd bf fa b8 a6
       0.046012998 -0.0024191076 -0.084063254 -1.283553e-15
000270 0e e0 a4 bd 74 73 e9 3b 5b 7c 67 26 e2 8c 81 29
       -0.080505475 0.007124359 8.031276e-16 5.75319e-14
000280 8a 9f 9f bc 6f 35 8c 3c da 74 cb bc c9 9e 37 bd
       -0.019485254 0.017115323 -0.024835993 -0.044829164
000290 f4 7c ec bc 34 09 df ba 4c 91 2a ab 42 a3 a1 bd
       -0.028868176 -0.0017016293 -6.059777e-13 -0.07892467
0002a0 23 92 ca 3c ce ed 22 3d 24 c8 ae 23 4a f2 88 3d
       0.024727887 0.03977757 1.894988e-17 0.06686838
0002b0 3c c4 f2 bc b9 35 8f 3d c0 88 9f bd 20 f7 a3 1a
       -0.029634587 0.06992669 -0.07789755 6.781447e-23
0002c0 37 02 a4 3d 86 0d 64 3d 4b e2 16 a9 2e a4 9d 3c
       0.08008235 0.05567696 -3.350297e-14 0.019243326
0002d0 65 78 9b 3c d1 4a 70 1a 7a 27 d0 23 ea 64 1d 3c
       0.018978307 4.9691273e-23 2.2568124e-17 0.009606579
0002e0 ea 15 0f 3d 19 e4 8c 1b 95 4b 62 19 64 ba f4 3b
       0.03493301 2.3308462e-22 1.169919e-23 0.0074685086
0002f0 d1 87 db 99 0b f1 91 bb 1b 7e 34 3d 61 c6 41 1b
       -2.2698925e-23 -0.0044537834 0.044065576 1.6028686e-22
000300 4d c8 3d bd 8c 63 a5 3c 65 a7 a3 bc c2 43 35 a9
       -0.0463336 0.02018907 -0.01997728 -4.0248844e-14
000310 00 cf aa 3a 8c ac b4 bc 85 8b 23 97 3e b1 ad a3
       0.0013031662 -0.022054933 -5.284424e-25 -1.8831763e-17
000320 f8 64 ad 3b 34 04 8a bc a8 c2 a0 9b 24 0a 9a 21
       0.0052915774 -0.016847707 -2.6595573e-22 1.043813e-18
000330 0f e0 14 ab 3c 4e 2c 3d c6 11 e9 3c 6b 2e 41 3a
       -5.2891106e-13 0.042066798 0.028450858 0.00073692825
000340 7f b3 12 9a 7b 8c a8 3c 4e ed 22 98 6e ef 26 19
       -3.0337088e-23 0.020574799 -2.1057818e-24 8.630351e-24
000350 09 ae 82 99 48 d4 9e 3c 21 4c e7 bb 76 c1 69 bd
       -1.3511977e-23 0.019388333 -0.007058636 -0.057069264
000360 c1 47 30 bd 4f da 48 bd ce c1 58 b9 1e 28 4a 2c
       -0.04303718 -0.04903632 -0.00020671563 2.8728196e-12
000370 fb 6b bd bb 27 6e 15 9f 8d 9e 73 3c 2a ec b8 bc
       -0.0057806945 -3.1643093e-20 0.014869344 -0.02257355
000380 17 17 6f bc b1 e9 04 bd 80 6b d6 39 85 bf ee 18
       -0.014592907 -0.032449428 0.00040897354 6.1714943e-24
000390 4b bf 07 a5 52 97 6e bd c5 95 d8 1c 28 7a d9 1a
       -1.1774196e-16 -0.05824978 1.4332396e-21 8.994645e-23
0003a0 16 44 a0 b3 37 e6 0e bd 57 b7 29 ba 25 ab 56 9b
       -7.4629654e-08 -0.03488752 -0.0006474158 -1.7756965e-22
0003b0 e8 65 b8 27 ec e4 b0 bb 53 c4 43 3d 10 b6 30 a9
       5.1180746e-15 -0.0053983834 0.04779465 -3.9237765e-14
0003c0 e9 9e 5b 3d 58 c2 8f 29 71 ea f1 bb 92 d3 a0 bb
       0.053618345 6.384189e-14 -0.007382684 -0.0049080336
0003d0 2b b1 14 1b de bc 0e 19 63 ef 86 bd 1d de 5e b9
       1.2299519e-22 7.379369e-24 -0.06588628 -0.00021254313
0003e0 57 e6 e4 bc 20 5d 29 bc 77 20 b0 bb 9a 53 e4 bc
       -0.027941866 -0.010337144 -0.005374964 -0.027871896
0003f0 c8 ae 32 3c 0b 6e 08 bd 10 0b 80 1f be 14 8e bd
       0.010905929 -0.03330807 5.422841e-20 -0.0693755

encoder.mlp.4.bias f4 [256]
000000 87 3c 7b bc 2e b4 2d 3d 78 a7 47 bd 23 b1 60 3d
       -0.015334255 0.04240816 -0.048743695 0.05485643
000010 0c 70 1d bc 16 50 66 bd 9d ae 46 bd aa d5 9d 3d
       -0.009609234 -0.05622872 -0.048506368 0.07706769
000020 3f 04 44 bd 7b cb cc bc f7 20 69 3d a1 50 51 bd
       -0.047855612 -0.02499937 0.056916203 -0.051102284
000030 4d 31 68 bd ab d9 b9 bc 99 10 a0 bc 10 c2 04 bb
       -0.056687642 -0.0226868 -0.019539164 -0.0020257272
000040 d8 ba df bb ff 4c a7 bc d4 c1 05 3d cf 8b ee 3c
       -0.0068276934 -0.020422457 0.032655552 0.0291194
000050 d2 09 53 3d 62 ef 2a 20 8a cf 2a 3d e2 c1 25 3d
       0.051523037 1.4478765e-19 0.04170183 0.040468104
000060 9b c3 6f a7 19 4f d6 bc 52 1b c6 bb 35 65 6d 3d
       -3.327395e-15 -0.026160764 -0.0060457373 0.057957847
000070 f9 fe db bc 3e 01 ac 99 ab 55 43 bc 53 b5 b8 2b
       -0.026854979 -1.7784885e-23 -0.01192228 1.3124314e-12
000080 2e ba ba 98 ac d3 57 bd 23 29 68 bc e3 f6 9e 3b
       -4.8267867e-24 -0.0526921 -0.014169964 0.0048512085
000090 b8 7d 2e 3c 59 e6 db 3c 9b db 71 bc 6b 18 50 bc
       0.010650091 0.026843237 -0.014761831 -0.012701134
0000a0 92 87 6c bd 14 2a 26 bd bc 6c 99 bc ef 50 c7 bb
       -0.057746477 -0.040567473 -0.018728606 -0.006082646
0000b0 d0 46 54 3d ce 42 1e 3c 5d ac 2c 3d b1 4e 5b bd
       0.051825345 0.009659482 0.042156566 -0.053541843
0000c0 4e b5 27 3c f5 8a e8 bc 79 c7 9a a9 22 33 98 bb
       0.0102360975 -0.028386572 -6.873577e-14 -0.0046447674
0000d0 4d cb 9d bd 68 50 87 3c ab 94 86 3c a0 38 4f bb
       -0.07704792 0.016517833 0.016428312 -0.0031619444
0000e0 54 64 cb 3b 55 a5 d9 b8 40 49 a6 3d 1f 57 60 3d
       0.0062070284 -0.00010378162 0.0811944 0.054770585
0000f0 c2 4b 3e 3d 11 0b 32 3d b2 73 0e bd f0 ec 00 3c
       0.046458967 0.043467585 -0.034778304 0.00786899
000100 5d f0 b4 3c ef cd 56 3d 37 ef 01 bd 60 30 14 bb
       0.02208727 0.052442487 -0.031722274 -0.0022611842
000110 30 fb 43 bd e9 31 ed bc 03 48 72 3b e8 fd 99 3c
       -0.047846973 -0.028954463 0.0036969192 0.01879783
000120 d3 9d 97 bd b0 9e dd bc 38 0d aa 3c 5e 40 f5 3c
       -0.074031495 -0.027053207 0.020758256 0.02993792
000130 7f b3 36 bd f9 9a 35 3d 63 b7 06 bd 4e 93 0b 3d
       -0.044604775 0.044337247 -0.032889735 0.034076028
000140 58 a5 54 bd d1 c7 76 ba ba a4 a0 3c b7 46 81 bc
       -0.051915497 -0.000941393 0.019609798 -0.01578079
000150 f6 d8 73 3d 1c 9b 60 bc c0 d9 0e bd 2f 6e 67 3c
       0.059533082 -0.013708856 -0.03487563 0.014125391
000160 8e b9 5f bd f6 2c 39 2b 9d ff 17 3d 5a 22 2e bd
       -0.054620318 6.57876e-13 0.037109006 -0.04251323
000170 f0 33 83 bd 65 f1 61 bd 02 d8 ef 3c 62 6d 7d a7
       -0.06406391 -0.055161852 0.029277805 -3.51701e-15
000180 12 dc 04 3d d2 5f 39 ac ba 76 c3 bc 91 11 f6 bb
       0.032436438 -2.6343272e-12 -0.023860324 -0.0075094183
000190 5d 6d d7 bc 2e 6d 02 3d 01 60 d6 3b c0 8b 2b bd
       -0.026297266 0.031842403 0.0065422063 -0.041881323
0001a0 26 92 41 3d ff 20 8d 3c f5 9e 20 bb ce c3 83 bd
       0.04725852 0.017227648 -0.0024508808 -0.06433831
0001b0 26 f9 d5 bb 80 eb 96 3c 2c 16 58 3d 04 7c 8f 3c
       -0.006529945 0.018422842 0.05275552 0.01751519
0001c0 14 31 19 3d d3 12 85 bc f7 ba 8d b6 df 8d 02 bd
       0.03740032 -0.016244328 -4.223893e-06 -0.03187358
0001d0 f3 77 bc bc bb 29 33 bc 2a 18 e8 bc dc a9 a0 bc
       -0.023006415 -0.010935242 -0.028331835 -0.019612245
0001e0 ce 76 ca bc bc 7b cc 28 dc e1 91 a7 c6 e7 78 bd
       -0.024714854 2.2702211e-14 -4.049046e-15 -0.06076791
0001f0 cf 24 0f 3d a8 dd 1f bc 8f 79 84 3c 0d a1 7e bd
       0.034947213 -0.009757437 0.016171245 -0.06216531
000200 1c e3 50 bd 95 52 01 bc 16 a7 45 bc 4e d6 7d 3d
       -0.05099784 -0.007893224 -0.012063762 0.061971955
000210 d0 02 bf 3c 25 34 8b bd ce c5 d1 3c 49 05 9d bd
       0.02331677 -0.06797055 0.025607016 -0.07667024
000220 83 8f 1d bd f8 d6 9d b4 58 e4 0e bd 36 76 28 bc
       -0.03846694 -2.939994e-07 -0.034885734 -0.01028209
000230 35 96 be 3c 35 5c df 3c 66 c7 72 bd 43 c0 dc 3c
       0.023264984 0.027265647 -0.059272192 0.026947146
000240 ca a9 58 bd ae a2 a5 bb 4e e1 ef bc 94 94 a3 3c
       -0.0528963 -0.0050547933 -0.029282238 0.019968309
000250 6d a4 d5 3b a4 d5 9a bc 13 b7 df 3c 68 d1 80 bc
       0.006519845 -0.0189007 0.027308976 -0.015724853
000260 37 93 3c bd f0 e4 09 bc 65 0f 2a 3d 30 23 d3 3c
       -0.046038833 -0.008416399 0.041518588 0.025773615
000270 1d 67 c8 bc b7 f9 3b bc 10 a0 3d 3c e2 b7 63 3d
       -0.02446323 -0.011473111 0.011573806 0.055595286
000280 d6 45 ba bd d7 10 5d bd 18 a8 c8 3c 9c bd 23 3d
       -0.090953514 -0.053971138 0.024494216 0.039975747
000290 06 1a db 3c 8a 6b 9b bc 38 2f 34 3d 17 0f 8c bd
       0.026745807 -0.018972177 0.043990344 -0.06838816
0002a0 22 0c 0e 3c fd c4 45 3d 24 3a 0c bc 6e f5 2b 2a
       0.008669885 0.048283566 -0.008558784 1.5273002e-13
0002b0 0a 23 04 3d 8a da 41 bd 79 7a b0 bc e3 cc 23 bd
       0.03225998 -0.047327556 -0.021542775 -0.039990317
0002c0 58 f8 d3 bc e5 07 a7 3b a8 66 3b 3d 16 c4 51 3d
       -0.025875255 0.0050973766 0.045752198 0.051212393
0002d0 17 82 90 bc 18 3d 2a 3d 2a 03 05 b4 56 32 96 bc
       -0.017640157 0.04156217 -1.2387741e-07 -0.018334549
0002e0 b4 75 4d 3d e3 77 8b 3c de d3 a0 3c 36 54 9e 3d
       0.05016108 0.01702494 0.019632276 0.07730906
0002f0 28 b6 9f bc 60 d3 75 9e ed 7b 25 1a 42 4f 4c bd
       -0.019496039 -1.3013903e-20 3.4221307e-23 -0.049880274
000300 11 c2 51 bd fc 1d 99 3c e2 35 1c 3d 5f 67 3e 3c
       -0.051210467 0.018691055 0.038137324 0.011621325
000310 32 ee ce 3c 09 88 6a bb a4 6d b2 b2 eb 26 92 bd
       0.025260065 -0.003578665 -2.0771786e-08 -0.07136329
000320 a7 b0 2d 3c f4 0d 0a 3d 9f d5 0d bd 9b c5 d9 bc
       0.010601199 0.033704713 -0.034627553 -0.026583483
000330 e6 0d 7c bd f7 c7 f6 bb 67 aa 48 3d 0e a0 41 3d
       -0.061536692 -0.007531162 0.048990633 0.04727178
000340 c2 17 5d bc 8e d3 80 3d f0 3a 1b bd 5c d7 ac bd
       -0.013494434 0.06290351 -0.037898004 -0.08439514
000350 67 88 5b 3d 90 82 39 3c 89 2d 3b bd 90 90 97 3c
       0.05359688 0.011322632 -0.045697723 0.01850155
000360 a8 eb 15 3d 23 b7 28 bd c3 5c d5 bc c2 5d 6e bd
       0.036601692 -0.041190278 -0.026045209 -0.058194883
000370 04 87 30 3b ad f5 42 bd df 16 df 3c 1b a3 90 bc
       0.0026935944 -0.047597576 0.027232585 -0.0176559
000380 2c 5d dd bc a5 2f 90 bd d3 3d 32 bd 91 6c 25 3d
       -0.027021967 -0.070403375 -0.04351599 0.04038674
000390 1a ca bc 39 1b 6b 69 3d 6e 6d 21 ba a1 e4 b2 ad
       0.00036008732 0.05698691 -0.0006157969 -2.0337789e-11
0003a0 69 b6 83 3c 30 6a 1f 3d b5 b1 b5 ac 44 c7 80 3d
       0.01607819 0.038919628 -5.164059e-12 0.06288007
0003b0 51 79 9c bd e7 2e b2 bc 44 85 bc bc 58 0e 18 3d
       -0.07640327 -0.02175088 -0.023012765 0.037123054
0003c0 56 cc c9 bc 67 eb 1c 3c ba a7 64 bb da 41 77 3d
       -0.024633568 0.009577609 -0.0034890012 0.060365535
0003d0 86 db 5b bd 5b e6 bf bb ea c6 83 bc 8e e4 d6 bc
       -0.05367615 -0.005856318 -0.01608606 -0.02623203
0003e0 83 0c 8d bd 48 ef bf bb 11 4c 6e bd de bb 61 bc
       -0.06887152 -0.005857382 -0.05817801 -0.013777701
0003f0 7f 28 45 bc 30 7b 16 ab fe 98 c2 3c aa 97 24 bd
       -0.012033581 -5.346166e-13 0.023754593 -0.0401837

pos_mlp.0.weight f4 [32, 1]
000000 01 2a f3 3e b6 6d 32 3c fc 0c 65 3f 41 c7 03 bf
       0.47492984 0.010890415 0.8947294 -0.5147591
000010 94 f5 4c 3f ea d0 89 3f 81 e0 58 3f ad de 81 bf
       0.8006222 1.076688 0.84717566 -1.014608
000020 11 58 a7 3e 92 2e 55 3f a5 e2 c2 a8 49 88 15 bf
       0.32684377 0.83274186 -2.1636618e-14 -0.5841108
000030 dc f4 a2 3e 1b 51 18 3f 3f e4 47 be c1 3a f6 3e
       0.31827438 0.5949876 -0.19520663 0.480917
000040 fe 22 98 be df 48 05 3d 8b 6e 3d 3f 7d 26 27 bf
       -0.29714197 0.0325402 0.739968 -0.65293103
000050 1d 48 59 3f 0a c8 be 3d 77 0f 66 3f 7c 32 40 3f
       0.8487566 0.09315498 0.8986735 0.75077033
000060 c6 ff ba be 67 75 37 3f 65 6a 8a 3f 3d 2f 4f 3f
       -0.36523265 0.71663517 1.0813719 0.80931455
000070 15 ee 6f 3e 7d f9 dc bd 44 bf de 3e cf 4f 5b 3c
       0.23430665 -0.107897736 0.435053 0.013385727

pos_mlp.0.bias f4 [32]
000000 e4 a0 c3 bb ef 19 1c be 7f 81 58 3f 94 92 58 3f
       -0.0059701074 -0.15244268 0.84572595 0.8459866
000010 37 23 63 3f 6e 68 9f be 05 98 0a 3f 95 cc 3a 3f
       0.8872561 -0.3113436 0.54138213 0.7296842
000020 7f 5f 18 3f b9 97 16 3d 26 46 f6 b8 ce 0a 60 3f
       0.59520715 0.036765788 -0.0001174326 0.87516487
000030 bf f4 44 3f a0 19 74 be 1b 63 69 b9 6a b7 44 3f
       0.7693595 -0.238379 -0.00022257531 0.7684237
000040 b9 ad a8 3e 94 ae 13 be 65 e3 3b 3f 02 5c c3 3e
       0.3294504 -0.14422065 0.7339385 0.38156134
000050 cd db cb bc 19 d2 41 be 65 ce c9 be b3 47 4a bc
       -0.024885083 -0.18927802 -0.3941528 -0.012346196
000060 b7 e7 46 3e 7a 4f 2f bc 12 f0 01 be c1 2d 15 bf
       0.1942433 -0.010700101 -0.12689236 -0.5827294
000070 07 26 24 3e d2 a6 cf bd 37 66 17 3f c5 75 fa bd
       0.16030131 -0.1013924 0.5914034 -0.12229494

pos_mlp.2.weight f4 [32, 32]
000000 6d f4 01 3e 53 e8 87 a9 1f 87 e6 3d 73 c6 f7 bd
       0.12690897 -6.035506e-14 0.11256241 -0.12098398
000010 75 f0 15 3e 17 21 05 3e 21 24 a4 3d 32 81 70 be
       0.14642508 0.13000904 0.080147035 -0.23486784
000020 4d 72 24 3d d3 76 2f 3e 32 5d 8e 35 f7 7d ec bd
       0.04014807 0.17135172 1.0606948e-06 -0.115474634
000030 7d 92 ff 3c 3d 7a 87 3d 7c 2f 18 28 04 75 45 3e
       0.03119778 0.06615112 8.4479915e-15 0.19282919
000040 5e 29 50 bd 21 a8 e6 27 d0 fb e6 3d 7a 16 f5 bd
       -0.0508207 6.402011e-15 0.11278498 -0.11967178
000050 68 13 20 3e 12 8c 36 b7 0a 29 cd 3d d9 99 5e 3e
       0.15632403 -1.0880658e-05 0.10017593 0.21738376
000060 a5 67 33 be 2a a3 90 3d 34 4e 16 3e 8a 53 61 3d
       -0.17520006 0.07062371 0.1467827 0.05501131
000070 02 94 fc 3d 0f 3b 82 b6 c6 8a 63 3d 35 66 a6 b2
       0.12332918 -3.8811772e-06 0.055552267 -1.9371422e-08
000080 11 e7 94 1d 52 d0 b3 b1 29 17 30 b7 d3 c3 46 a0
       3.941419e-21 -5.233269e-09 -1.049581e-05 -1.6836045e-19
000090 a6 94 fe 33 f9 b4 14 37 4e b4 7b a0 62 db 0c 22
       1.1854836e-07 8.863623e-06 -2.1320185e-19 1.9089678e-18
0000a0 f9 20 a3 af 50 9a 4e b3 82 17 9b 99 ec e3 db b2
       -2.9672956e-10 -4.810346e-08 -1.6036119e-23 -2.5598602e-08
0000b0 fa ed 13 9f 39 5e 86 29 f0 26 f9 9e ef 88 70 98
       -3.132531e-20 5.9671404e-14 -2.6380005e-20 -3.1088407e-24
0000c0 35 0b 09 31 04 95 b7 b5 b0 2f 13 ae 21 3c cd 1e
       1.9942494e-09 -1.3677932e-06 -3.3466285e-11 2.1730088e-20
0000d0 d9 01 99 32 bb ed 72 a3 a2 23 f0 b6 19 29 83 99
       1.7812384e-08 -1.3169188e-17 -7.1567056e-06 -1.3561682e-23
0000e0 ab 69 59 1b ea 45 72 b3 40 97 24 21 ad 40 e7 9b
       1.7983962e-22 -5.6408602e-08 5.576554e-19 -3.825754e-22
0000f0 fb 0e 6a 9b c4 2f 14 33 33 fd 06 b5 55 99 39 33
       -1.9360867e-22 3.4502378e-08 -5.0287343e-07 4.3213124e-08
000100 35 fc 13 3e 63 ad 4e ac cc db 77 3e 45 d2 8c be
       0.14451678 -2.937061e-12 0.2420494 -0.27504173
000110 fb ea fe 3d 7b 3f 53 3e 59 f9 4a 3d 7a ba 99 be
       0.12447163 0.20629685 0.049554203 -0.30025083
000120 23 8b 27 bd d1 e3 a5 3e eb ae 94 32 e4 90 83 bd
       -0.040904175 0.32400373 1.7309011e-08 -0.0642412
000130 4c 40 0e 3e 20 eb b2 3d 62 59 e4 35 d5 81 6c 3d
       0.13891715 0.08736253 1.7013338e-06 0.057741005
000140 19 15 9c be 38 c6 e4 1d de 01 80 3e 71 ed 41 be
       -0.30484846 6.055605e-21 0.25001425 -0.18938233
000150 51 cb 9a 3e f8 a1 e4 19 9f 09 53 bd bc c1 18 3e
       0.30233243 2.3640066e-23 -0.051522847 0.14917654
000160 14 e2 cb bd 5b 39 0a 3d a4 01 04 3e bb 15 34 bd
       -0.0995523 0.033746105 0.12891251 -0.043966036
000170 70 cd 44 3e ee 6d ce b4 58 f2 27 3b 1c 77 03 35
       0.19218993 -3.8450474e-07 0.0025626626 4.897463e-07
000180 0e 5e ae ae c4 68 46 b5 55 dc 67 b6 06 4f 1c 2e
       -7.9293114e-11 -7.39132e-07 -3.4549932e-06 3.554048e-11
000190 90 d7 c3 a1 6c 9e 1f 9a 69 5d 48 b3 ee 1b a7 26
       -1.3270773e-18 -3.30084e-23 -4.6651085e-08 1.1595523e-15
0001a0 00 79 0a b6 7f b5 eb 1d 2f c1 41 a0 6d 01 b9 b1
       -2.0634034e-06 6.2391645e-21 -1.6411655e-19 -5.3843707e-09
0001b0 52 05 a5 2f 01 b1 27 19 9b b6 a3 b1 89 71 5c 21
       3.0017105e-10 8.669443e-24 -4.764684e-09 7.468916e-19
0001c0 5f 0e 98 9a 03 5f 58 2a 9f 06 37 19 61 b4 d8 ae
       -6.2888944e-23 1.9217618e-13 9.462215e-24 -9.8545845e-11
0001d0 fe d0 b8 b1 d7 00 2a b4 cf 43 59 25 40 1d 34 9c
       -5.3788645e-09 -1.583279e-07 1.8844724e-16 -5.959481e-22
0001e0 40 b1 17 1b ac df db 2e 2e fb c1 b3 52 68 cd 32
       1.25477e-22 9.998699e-11 -9.032952e-08 2.391258e-08
0001f0 bd c7 2d 26 e9 b2 d6 9a 95 55 c4 18 82 9c 48 b2
       6.029213e-16 -8.879737e-23 5.075123e-24 -1.1677118e-08
000200 14 c3 b9 3d 4d 53 7c a0 93 3d 21 3e 29 8b bb bc
       0.09070411 -2.1372792e-19 0.15746145 -0.022893505
000210 8e b5 85 3e d1 d3 81 3e 72 fa 26 3e a1 8d b5 be
       0.26115078 0.25356916 0.16306475 -0.35459617
000220 d8 7d dc 3d b1 d6 60 3e 42 e0 cc 9b 9c fc 4a be
       0.1076619 0.21956898 -3.3893892e-22 -0.19822925
000230 d7 68 ca 3d 01 7f 8e 3d 52 93 9f 2c be 87 a9 3c
       0.09883278 0.06957818 4.5354076e-12 0.02069461
000240 9f d7 75 be a5 db 3f 1a 3f 27 43 3d 6b 12 28 be
       -0.24008034 3.9675302e-23 0.04764485 -0.16413276
000250 8d b5 9b 3e 81 e8 1b 18 2b 79 05 bc d1 62 11 3e
       0.3041195 2.0150665e-24 -0.0081465645 0.14197852
000260 c7 28 8a be 73 5a 7c 3e 2f db 05 3e af 2c 16 bd
       -0.26984236 0.24643879 0.13071893 -0.036663707
000270 6b 1a 84 3e 10 0c 32 29 9b cd a9 3d a8 92 84 34
       0.25801405 3.9534402e-14 0.08291169 2.4693622e-07
000280 b9 ba 92 3d 32 0d 00 a8 97 de 5b 3e 86 00 4d be
       0.07164521 -7.108289e-15 0.2147163 -0.20019731
000290 ba a3 32 3e 05 b9 86 bc dc 43 e4 3d 75 e8 b5 be
       0.17445269 -0.016445646 0.11145756 -0.35528913
0002a0 46 35 72 3e 85 9d d4 3c 87 35 35 a8 69 0a 45 bd
       0.23653135 0.025954017 -1.0059125e-14 -0.04810563
0002b0 66 a4 de 3d 7c a8 0e 3e b0 8c 36 1c 43 7f 22 bd
       0.108712 0.13931459 6.0400583e-22 -0.039672147
0002c0 82 30 5e bd 93 34 00 1a 42 e9 86 3e e8 dd b3 be
       -0.05424548 2.651225e-23 0.26349837 -0.3513024
0002d0 88 29 50 3e f0 f4 f4 34 8d a1 ff 3d 90 0b ac 3d
       0.20328343 4.5626757e-07 0.12481985 0.08400643
0002e0 1b 70 57 be f4 84 d4 3d 66 22 50 3d 54 15 e3 3d
       -0.21038859 0.10376921 0.050814055 0.110880524
0002f0 13 fe 76 3e b1 20 28 b2 72 91 11 3e a2 b6 79 9a
       0.24120359 -9.78632e-09 0.14215639 -5.1639523e-23
000300 74 d3 43 3e bf 35 4c a9 5f db 4b 3e 46 04 ea bc
       0.19123632 -4.5343717e-14 0.19907902 -0.02856649
000310 6a e3 8a 3e 21 ce 64 3e 7e b9 87 3e a3 f9 0a be
       0.27126628 0.22344257 0.26508707 -0.13571791
000320 c2 5f 7e bd 94 b4 2b 3d e6 39 22 99 12 db 83 be
       -0.06210304 0.04192026 -8.386896e-24 -0.25753075
000330 17 ca b6 bb 3b 9e d3 bc f6 0f 87 9a 43 8b 80 3e
       -0.00557829 -0.025832286 -5.586048e-23 0.25106248
000340 34 3c 98 be 12 40 20 37 11 70 20 3d d4 ff 6d be
       -0.2973343 9.551661e-06 0.039169375 -0.23242122
000350 d8 6b 99 3e ca 9e 19 33 3e 77 dc 3c 0e 3d 93 3e
       0.2996509 3.5767506e-08 0.026912328 0.2875752
000360 72 27 a7 be c9 37 71 3e c1 ff 73 3e 89 f2 11 3e
       -0.32647282 0.23556437 0.23828031 0.14252676
000370 bc 50 5a 3d 85 f0 f5 2f 53 b7 89 3d 0e 81 5a 99
       0.05329965 4.473614e-10 0.067244194 -1.1296398e-23
000380 d5 f3 44 19 6f 50 86 b7 ff 85 3a 9b 3d af 1e b7
       1.0182204e-23 -1.60115e-05 -1.5428856e-22 -9.458335e-06
000390 98 52 2c 17 88 b2 e4 19 03 5d e0 b4 db a3 02 b7
       5.5680445e-25 2.3646756e-23 -4.1790926e-07 -7.786754e-06
0003a0 82 20 0a 36 10 3b 00 b4 a0 c0 af 34 6a 2b 53 9a
       2.0582524e-06 -1.1942416e-07 3.2736443e-07 -4.3668847e-23
0003b0 ec 7a 20 b7 55 ba d0 97 cf d2 97 ad 0e 99 f6 ae
       -9.565363e-06 -1.3488722e-24 -1.726033e-11 -1.1213973e-10
0003c0 ff 5b c3 34 ad 88 a1 1a d3 0e 12 31 2f b3 43 ae
       3.6388516e-07 6.680885e-23 2.1254223e-09 -4.4497014e-11
0003d0 4f 28 81 28 b8 27 92 9a a6 a7 92 99 cf d2 d5 31
       1.4339358e-14 -6.0448354e-23 -1.5163759e-23 6.223082e-09
0003e0 94 7a ef 1a df e9 e9 34 1d 3b 08 22 a2 f3 56 b5
       9.904612e-23 4.3569796e-07 1.8462731e-18 -8.0075745e-07
0003f0 72 b7 05 18 d7 2d 7c 99 5f e5 25 9d 0b 78 b4 b0
       1.7282463e-24 -1.3037352e-23 -2.195615e-21 -1.3130842e-09

pos_mlp.2.bias f4 [32]
000000 f1 d3 ad bd 59 47 c6 98 c4 e9 9f 3d 8d 9e f2 b5
       -0.0848769 -5.1253843e-24 0.07808259 -1.8076549e-06
000010 b1 96 e3 3d a6 40 38 3d 41 f8 70 3c 74 97 05 99
       0.111127265 0.04498353 0.014707626 -6.9065246e-24
000020 0c c2 b7 3d b8 40 cd 3c 63 ed 16 3e 06 ce 9e 99
       0.089725584 0.025055274 0.14738993 -1.642003e-23
000030 f2 8e a9 bd bc 7c 03 3d 18 b1 0d 3e 2a a3 84 af
       -0.08279218 0.032101378 0.13837087 -2.4126595e-10
000040 98 35 0c b6 ed fc bb 3d 5d 4c 1b af fe bf 53 3e
       -2.0892821e-06 0.09179101 -1.4124298e-10 0.20678708
000050 8a 99 17 b7 3e 16 d5 bd b4 98 28 be fe 4e b4 bc
       -9.03605e-06 -0.10404633 -0.16464502 -0.022010323
000060 44 be ba b5 6c 68 48 20 10 72 5a 3d f9 6e 1a bc
       -1.3913454e-06 1.6975209e-19 0.053331435 -0.009425872
000070 06 1a 0b b6 9a 04 93 bd a2 7c b9 3d 02 87 bd 99
       -2.0727762e-06 -0.07178612 0.09056975 -1.9596671e-23
