pointnet/weights_per_bundle_ratio025/ST_POSTC_left_best.pth (torch, 359853 bytes, 17 tensors)

t_grid f4 [100]
00000000: 0000 0000 b57e 253c b57e a53c 103e f83c
00000010: b57e 253d 62de 4e3d 103e 783d dece 903d
00000020: b57e a53d 8c2e ba3d 62de ce3d 398e e33d
00000030: 103e f83d f376 063e dece 103e ca26 1b3e
00000040: b57e 253e a0d6 2f3e 8c2e 3a3e 7786 443e
00000050: 62de 4e3e 4e36 593e 398e 633e 24e6 6d3e
00000060: 103e 783e fd4a 813e f376 863e e9a2 8b3e
00000070: dece 903e d4fa 953e ca26 9b3e bf52 a03e
00000080: b57e a53e abaa aa3e a0d6 af3e 9602 b53e
00000090: 8c2e ba3e 815a bf3e 7786 c43e 6db2 c93e
000000a0: 62de ce3e 580a d43e 4e36 d93e 4362 de3e
000000b0: 398e e33e 2fba e83e 24e6 ed3e 1a12 f33e
000000c0: 103e f83e 056a fd3e fd4a 013f f8e0 033f
000000d0: f376 063f ee0c 093f e9a2 0b3f e438 0e3f
000000e0: dece 103f d964 133f d4fa 153f cf90 183f
000000f0: ca26 1b3f c5bc 1d3f bf52 203f bae8 223f
00000100: b57e 253f b014 283f abaa 2a3f a640 2d3f
00000110: a0d6 2f3f 9b6c 323f 9602 353f 9198 373f
00000120: 8c2e 3a3f 86c4 3c3f 815a 3f3f 7cf0 413f
00000130: 7786 443f 721c 473f 6db2 493f 6748 4c3f
00000140: 62de 4e3f 5d74 513f 580a 543f 53a0 563f
00000150: 4e36 593f 48cc 5b3f 4362 5e3f 3ef8 603f
00000160: 398e 633f 3424 663f 2fba 683f 2950 6b3f
00000170: 24e6 6d3f 1f7c 703f 1a12 733f 15a8 753f
00000180: 103e 783f 0ad4 7a3f 056a 7d3f 0000 803f
0.0 0.01010101 0.02020202 0.030303031 0.04040404 0.05050505 0.060606062 0.07070707
0.08080808 0.09090909 0.1010101 0.11111111 0.121212125 0.13131313 0.14141414 0.15151516
0.16161616 0.17171717 0.18181819 0.1919192 0.2020202 0.21212122 0.22222222 0.23232323
0.24242425 0.25252524 0.26262626 0.27272728 0.28282827 0.2929293 0.3030303 0.3131313
0.32323232 0.33333334 0.34343433 0.35353535 0.36363637 0.37373737 0.3838384 0.3939394
0.4040404 0.41414142 0.42424244 0.43434343 0.44444445 0.45454547 0.46464646 0.47474748
0.4848485 0.4949495 0.5050505 0.5151515 0.5252525 0.53535354 0.54545456 0.5555556
0.56565654 0.57575756 0.5858586 0.5959596 0.6060606 0.61616164 0.6262626 0.6363636
0.64646465 0.65656567 0.6666667 0.6767677 0.68686867 0.6969697 0.7070707 0.7171717
0.72727275 0.7373737 0.74747473 0.75757575 0.7676768 0.7777778 0.7878788 0.7979798
0.8080808 0.8181818 0.82828283 0.83838385 0.8484849 0.85858583 0.86868685 0.8787879
0.8888889 0.8989899 0.90909094 0.9191919 0.9292929 0.93939394 0.94949496 0.959596
0.969697 0.97979796 0.989899 1.0

encoder.mlp.0.weight f4 [64, 3]
00000000: 92e5 c8be aedc c8be 1c6f f9bd af7c b63d
00000010: 4134 e63d f7b2 6b36 4ba8 d7be 4b67 f1be
00000020: dea7 073f d2e6 fdbe 48a3 99be aeeb 483d
00000030: 428a 05bf ea3c 9d3e ace5 d03e 4ecd bfbd
00000040: eebd d0be 0462 50be 80d8 7bbe c5b0 6f3e
00000050: 47d6 ccbc 611e 04be e37e 2b3d e743 13be
00000060: c5cf 623e 70ee ff3d 44f2 863e aa3c a63e
00000070: 697a 35be 19e6 ab3e 519e c83e f448 05bf
00000080: 5c82 863e b384 f73e 41f5 5f3d 93df f23e
00000090: ed64 803e c1c4 e03e f2b6 a83d a0b1 8bbe
000000a0: 60ba e13c ccd6 1ebe e1c1 033e 134f 56ba
000000b0: 5335 a5bd 7607 023a ce1c 7339 83ee 69b9
000000c0: eb61 91be d6db 083d b9b0 89be 414c b5be
000000d0: 3529 833e 4887 3bbe 31c7 0abf a637 39be
000000e0: c580 d43e 5694 3cbe 400c bdbe c259 e7be
000000f0: 75e3 9c3e 61a2 c93e b319 c33e cec2 d53e
00000100: ff55 16bf 5b08 a6be edf0 f9bd 5a0f f8be
00000110: ab24 b53e 1ee6 0dbf c8ab 9abe ea65 f73e
00000120: fed2 8abe 846a e7bc 6dd0 afbe ccfe 053e
00000130: a938 ac3d f2c0 9fbd 7bea be3d ab95 203e
00000140: 3d84 9e3e 8cd1 b5be 607d 1a3e 8353 a3be
00000150: 2ee3 1d3d b4f4 223c 19a9 88bd f52b 453d
00000160: d2e4 f1be 504c 893e 3b43 023e af53 f13e
00000170: cb41 873e 5a8f 94be c286 dd3c ebd1 9ebd
00000180: e766 54be 8652 d23e f7da a63e c6be b0be
00000190: 1086 4f3d cfd6 173e 254d ffbd 46ee e4be
000001a0: beec cf3e d208 18be a4d7 f4be 6158 02bf
000001b0: 4a5b dabe 0c96 f5bd faf5 c8bd bd49 3fbd
000001c0: abd8 2e3e c2bf f1be 0746 06bf b566 97bc
000001d0: f2d0 8b3e a18c e9bc 1f75 de3e ace9 3b3e
000001e0: dbc1 3d3e 524a ca3e 1cdb c9bd 3e32 2a3e
000001f0: 5440 e93e 8d59 943e aeee 213e d25e a23c
00000200: 5419 8b35 bfe2 3a3e 769d 423e 6ec2 e1bb
00000210: 53e5 ed3e d956 4ebd 2e69 743e 44d1 b13e
00000220: 57d2 a13e abda cc3e e1c0 c93e a06d 04bf
00000230: cf8a f8bd 4c37 f7be a339 ec3e 781f 88be
00000240: d4c0 d5be 247b eabe 3a2f 0ebf 6b65 61bd
00000250: 8c3c 203d d090 843e 558f e0be e660 943e
00000260: 930e 173e 8e37 08bf ff65 c73e dc91 ca3d
00000270: 43b1 aebe e86e bdbe 1f87 0c3f 65ef 8abe
00000280: 1413 d83d 8436 ad3e 7fd6 323e 967f cd3a
00000290: 7405 8abb ea35 14be 98e0 063f af6a 363e
000002a0: 9ff7 14bf 4639 e23e 0309 583e ef95 0dbe
000002b0: eda8 bebe f863 663d ebb6 423e d5fb 023f
000002c0: 7f79 163f fe4b 1c3e f387 4cbe dd44 72bd
000002d0: be54 2a3d ff63 c0be 225c 8a3e 5b3e 783e
000002e0: 43c7 8fbe 26c2 d43e 21c1 313e ec3b 1dbb
000002f0: 4313 d2bd 15f5 8a3e 6768 4e3e 3d33 273e
-0.39237648 -0.39230865 -0.121793956 0.089105 0.112404354 3.51219e-06 -0.42120585 -0.4714912
0.5299052 -0.49590164 -0.30007386 0.049052887 -0.5216409 0.30710536 0.40800226 -0.09365331
-0.40769905 -0.2034989 -0.24594307 0.23407276 -0.02500452 -0.12902214 0.041869055 -0.14381371
0.2214957 0.1249665 0.2635671 0.32468158 -0.17722477 0.33573988 0.39183286 -0.5206444
0.2627133 0.4834343 0.05467725 0.474362 0.25077 0.4390011 0.08238019 -0.27283955
0.02755469 -0.15511626 0.12866928 -0.0008175235 -0.080668114 0.0004960218 0.00023185016 -0.00022309464
-0.28395018 0.033412777 -0.2689264 -0.3540974 0.25617376 -0.18313324 -0.5421019 -0.18087634
0.41504493 -0.1841596 -0.36923409 -0.45185667 0.30642286 0.39381698 0.38105544 0.41750187
-0.5872497 -0.3242825 -0.12204156 -0.48449212 0.35379538 -0.55429256 -0.30209184 0.48319942
-0.271141 -0.028249033 -0.34338704 0.13085479 0.084092446 -0.07800473 0.09322067 0.15682094
0.30960265 -0.35511434 0.1508689 -0.31899652 0.038546734 0.009946037 -0.06672878 0.048137624
-0.4724489 0.26816034 0.12720959 0.47134158 0.26417384 -0.2901562 0.027041797 -0.077548824
-0.20742379 0.41078585 0.32588932 -0.3452055 0.05066496 0.14828037 -0.12465886 -0.44713038
0.40610307 -0.14847115 -0.4782077 -0.50916106 -0.42647773 -0.1199151 -0.09812541 -0.04670118
0.1707484 -0.47216612 -0.52450603 -0.018481592 0.2730785 -0.02850944 0.4344873 0.18350857
0.18530981 0.39509827 -0.09856245 0.16620728 0.4555689 0.28974572 0.15813705 0.019820604
1.0363678e-06 0.1825056 0.19005379 -0.006889633 0.46464023 -0.050375793 0.23868248 0.3472997
0.3160579 0.4001058 0.39404967 -0.51729774 -0.12135851 -0.48284376 0.46137723 -0.2658651
-0.4174868 -0.45797074 -0.5554081 -0.05502836 0.039120242 0.25891733 -0.43859354 0.28980178
0.14751653 -0.5320977 0.38945004 0.09891102 -0.34119615 -0.36998677 0.5489368 -0.2713577
0.10550514 0.33830655 0.17464636 0.0015678282 -0.004212076 -0.14473692 0.5268645 0.17814134
-0.5819034 0.4418432 0.21097188 -0.13826726 -0.37238255 0.05624768 0.1901509 0.51165515
0.5877914 0.15263364 -0.19973736 -0.059147704 0.041584723 -0.3757629 0.27023417 0.24242537
-0.28081712 0.41554374 0.17358829 -0.0023992015 -0.1025758 0.27140108 0.20157014 0.1632814

encoder.mlp.0.bias f4 [64]
00000000: d62a f93e 5596 483b 1939 223d 34e1 00bd
00000010: ae3c 85be 9a3f 2cbe 0e08 9bbe 3c16 a93e
00000020: 53d7 c53e 79b0 bb3e 8da5 ad3b 2e52 e33e
00000030: 2339 8ebd fb92 6a3d 6d58 5d3c bff8 bdaa
00000040: 8ad3 c33e 5bad 35be c30e ba3e 470c bf3e
00000050: c8de 1cbd 1ac7 9f3d b5ee 30be 019a a83e
00000060: 66ef 713d 990d 6a29 ab60 35bd 9998 9e3e
00000070: 2d84 533c d84d 5f3e dc53 2d3e 4361 ac3e
00000080: 5329 7f3e 6290 cd3e 1457 fdbe 1531 9e3d
00000090: 181e 99bd 6af8 73bd 53af 573d 212a 813e
000000a0: 8007 903d 5c31 a73d d983 b03c 2559 1a3e
000000b0: d299 a43e 274c 1dbe 5455 1cbe 21d2 aabe
000000c0: aefa c4be 4ee1 57bd 3aff e43d 4c77 cebe
000000d0: 68ad b93c 8d82 7a3e 5b26 03be 4644 a03e
000000e0: eb28 813e 66f9 dcbe 7d31 f33d ea98 03be
000000f0: c9ce bfbe a3ce f13b bca1 cebd 2666 853e
0.48665494 0.0030607183 0.039605234 -0.03146477 -0.26022857 -0.16821137 -0.30279583 0.33024776
0.38640842 0.36658075 0.005299276 0.44398636 -0.06944492 0.057269078 0.013509852 -3.3745747e-13
0.3824733 -0.17741911 0.36339387 0.37314054 -0.0382984 0.078016475 -0.1727856 0.32929996
0.0590662 5.197023e-14 -0.044281643 0.30975798 0.012909931 0.21807039 0.16926521 0.33667955
0.24918108 0.40149218 -0.49480498 0.077242054 -0.07476443 -0.059563078 0.052657437 0.25227454
0.070326805 0.081637114 0.021547245 0.15073068 0.32148606 -0.15361081 -0.15266925 -0.3336344
-0.38472503 -0.0527051 0.11181493 -0.4032539 0.022665694 0.24463864 -0.128076 0.31302088
0.2522653 -0.43159026 0.118746735 -0.12851301 -0.37462452 0.0073793693 -0.10089442 0.26054496

encoder.mlp.2.weight f4 [128, 64]
00000000: 2420 043e a4ed 0637 cfde b9bd ffd5 80bd
00000010: 70e4 b73d 8b88 033e 604e 17bd 6bd5 7539
00000020: eadc 36bd 8b14 a83d 4871 d83a 9318 bf3d
00000030: 3f70 b9bb f2cb 153e c8f0 652a 6673 1db6
00000040: 7c7c 94bd 4650 ef3c f877 e23a f512 89bc
00000050: 429b d83d ef3a 19bd c446 d3bc 1313 053e
00000060: 7ea6 003d 59f3 eea8 d893 01be c7cd 343d
00000070: 28d0 bf36 1c4b c9bd 07a5 46bc 59dd 9f3d
00000080: 91b1 d6bd 12ed cebd 13aa 89bd 3734 b6bd
00000090: 67a2 1dbd de3d 08bd fc91 fd3d f380 993d
000000a0: 6ea5 93bb 46cf 89bd 786b fa2e 4f68 aaae
000000b0: 561f b5bc 7b1c e73c 804e 8abc e079 88bd
000000c0: 99f8 183e b0a1 c5bc e307 9a3d 0cec d33d
000000d0: 3cc6 5a3d 6e1f e63d 8213 2b28 fac4 29bd
000000e0: 0e67 2a3c ef2b 01bd 7033 d2bb 09b4 8bbc
000000f0: c5b3 933d bed6 fcbd 84d5 0fb9 14a0 a13d
00000100: b7e4 d2bd a470 fe37 ecdb 843d bdf5 a9bd
00000110: 7df2 3bbd fb44 a5bd 6c72 1c3c 32d5 e7bd
00000120: ea79 463d a3c7 55bd 60f9 babd 4f95 c53d
00000130: c255 ba3c 3cd8 9b3d 0f39 ecb6 100f 7938
00000140: 2a56 9dbd 0000 db3d 56d1 ae3d 9c15 c6bd
00000150: aa40 8abd facd fd3b 1199 7cbc b34f 84bd
00000160: b84e 86bd bbc9 9c39 81d7 28bc 449e a0bd
00000170: 5bf6 b2a9 9585 e7bd fc72 9c3d d246 213d
00000180: 6fa0 0a3e 3c4d 92bd 0d5f 07bc 245c cd3c
00000190: c646 ff3c 014e db3d 02b1 593d e655 4d3d
000001a0: c82c a63c e845 793d d858 b7ac 739b d028
000001b0: ad70 1a3d 1953 4d3d fb39 523c 446f 60bd
000001c0: 3fb0 03be 2d17 a1bd 8bc5 4dbd a685 203e
000001d0: 23fe 6d3d c7b6 043e c07a a528 3cd4 573d
000001e0: f83f 1d3e d7f1 84bd a716 313d a333 443d
000001f0: 0683 843b 36b0 bc3d 3541 fa29 a373 2dbd
00000200: 03da f93d d30c 2db7 55a5 45bd 4f05 f03c
00000210: 9fc0 883d b167 acbc 091c 3ebd 0950 efbc
00000220: 341a 67bc 402d d43b d056 58bd cd7e bbbd
00000230: adf2 99ba cdd4 e33d f515 48ae 139e aa37
00000240: 0c5e 8d3d e9aa 143d 30e9 41bc 49a1 b83d
00000250: 4b06 7a3b d7a3 c63c 1196 58bd 51f1 4c3d
00000260: 372e 0f3d 9130 752d 9730 5fbb 0327 4cbd
00000270: 4ee9 6f37 b447 6f3d 92f7 2b3d 1ab7 5ebd
00000280: ea5f a33d d8aa 52bd 451b c539 4eee f23d
00000290: f016 e1bb d776 e23d 0e3f 3dbd a309 5a3c
000002a0: 30f3 833c c083 c5bc f7c3 47b9 7e9d 03b7
000002b0: e60e 31bc 7789 d2bb 08b4 fd3c d69e 84bd
000002c0: e667 83bd d825 d9bd cde9 d4bd cd95 ff3d
000002d0: 2334 873d 3084 e1bd 535a 19b7 1373 e13d
000002e0: 3dba 813d 28ab f5bc 6ec5 86bd af26 733c
000002f0: c8fb 87bd ccc3 b73c 7bcd a335 ad84 ffb9
00000300: 277b d6bc af08 9138 ba9c cebc c609 c3bb
00000310: cd32 d13d 8656 62bd e452 223d e17b c7bd
00000320: 7f13 bc3d f610 5b3d 33da 2c3c f6e3 d1bd
00000330: 33d0 a23c 71f0 5dbd 3cb2 f236 0743 c9aa
00000340: 6219 b3bd bf07 cb3d 34af b33d fad1 ae3d
00000350: a790 bfbd f5c7 e33a c5dc 39bd 0775 013d
00000360: fdb3 f5bd c7f5 aab9 d66a d83d d9b7 25bd
00000370: c93f eab5 fc86 c33d 7e47 c73d 19b4 1ebd
00000380: 41d1 63bd 7340 e03d 0602 6ebd 87d0 e8bc
00000390: 0735 753d e07e 15bd d1c6 abbd 811e d63d
000003a0: b456 9f3b c1a0 993d 4b0e 2d39 6199 7b28
000003b0: 777f efbc f8ad d4bc 9766 25bb 0ac1 933d
000003c0: ae83 d2bc e518 383d 1969 14bd 4244 893d
000003d0: 83a1 c63d 7e95 ad3b ea33 aab9 12da 413c
000003e0: 92e6 46bd da48 c3bd f8bd 15bd 829e 943d
000003f0: 2960 1b3d 9bf2 ffbd a802 aea9 0786 07bc
0.12902886 8.042352e-06 -0.090757005 -0.062908165 0.08979118 0.12845056 -0.03693998 0.00023444525
-0.044644274 0.08207043 0.0016513253 0.09330859 -0.0056591327 0.1462858 2.0422824e-13 -2.3461994e-06
-0.07250306 0.029213082 0.0017278185 -0.016732672 0.10576488 -0.03740972 -0.02579058 0.12995557
0.03140878 -2.6528843e-14 -0.12654054 0.044141557 5.716476e-06 -0.09828779 -0.0121243065 0.078058906
-0.10483087 -0.10103811 -0.06721892 -0.08896678 -0.038484957 -0.033262126 0.1238136 0.07495298
-0.0045058047 -0.067289874 1.1387774e-10 -7.749234e-11 -0.022109669 0.028211823 -0.016883135 -0.06663871
0.14938582 -0.02412495 0.075210355 0.10347757 0.053411707 0.112364635 9.496637e-15 -0.041447617
0.010400547 -0.03153604 -0.0064148232 -0.01705362 0.07212023 -0.12345646 -0.00013717083 0.078918606
-0.1029753 3.0331612e-05 0.06487259 -0.08298824 -0.04588555 -0.080697976 0.009548765 -0.11319961
0.04845611 -0.05219234 -0.09129596 0.09647619 0.02274597 0.07609603 -7.0399906e-06 5.9380254e-05
-0.0768245 0.106933594 0.085360214 -0.096720904 -0.06750615 0.0077455016 -0.015417353 -0.06460514
-0.06557983 0.0002990494 -0.010305286 -0.07842687 -7.947524e-14 -0.113047756 0.07639119 0.03937418
0.13537763 -0.071436375 -0.008262408 0.02506835 0.031161677 0.107082374 0.053147323 0.050130747
0.020285025 0.060857683 -5.2110365e-12 2.3160054e-14 0.037705112 0.050128076 0.012831206 -0.05479361
-0.12860201 -0.078657486 -0.05023722 0.15675983 0.05810369 0.12960349 1.8371914e-14 0.052692637
0.15356433 -0.0649144 0.043234494 0.047900807 0.0040439395 0.09213297 1.1113542e-13 -0.042346608
0.121997856 -1.0314589e-05 -0.048253376 0.029299406 0.066773646 -0.021045538 -0.046413455 -0.029212968
-0.014105368 0.006475121 -0.052817166 -0.09155045 -0.0011745297 0.11124573 -4.5494237e-11 2.0339188e-05
0.06902704 0.036295805 -0.011835381 0.09015138 0.0038150724 0.024248047 -0.05287749 0.050034825
0.034956183 1.39374215e-11 -0.0034056061 -0.049841892 1.4299831e-05 0.05841799 0.04198415 -0.054373838
0.079772785 -0.05143246 0.00037595085 0.11861859 -0.0068691894 0.11057823 -0.04620271 0.013307962
0.016107172 -0.024110675 -0.00019051121 -7.8448775e-06 -0.010806775 -0.0064250785 0.030969635 -0.06475608
-0.064163014 -0.10602921 -0.103961565 0.12479744 0.06601741 -0.11011541 -9.140541e-06 0.11008277
0.0633435 -0.02998884 -0.065806255 0.014840766 -0.0663982 0.02243223 1.2204249e-06 -0.0004873624
-0.02618177 6.915756e-05 -0.025221217 -0.005952093 0.102147676 -0.055258296 0.039629832 -0.09740425
0.09183406 0.053482972 0.01055007 -0.10248558 0.019874668 -0.05418438 7.2329112e-06 -3.5751282e-13
-0.08745076 0.09913587 0.08773652 0.085361436 -0.09353762 0.0017378317 -0.045376558 0.031605747
-0.11997221 -0.00032608045 0.10567252 -0.040458534 -1.7452923e-06 0.095472306 0.09730433 -0.038745973
-0.055619482 0.10949793 -0.0581074 -0.028419746 0.059865024 -0.03649795 -0.083875306 0.10455037
0.0048626307 0.075013645 0.0001650389 1.3966558e-14 -0.029235585 -0.025961861 -0.002523815 0.07214554
-0.025697555 0.044945616 -0.03623304 0.06702472 0.09698775 0.005297362 -0.00032463606 0.011831777
-0.048559733 -0.0953538 -0.03655812 0.072567955 0.037933502 -0.12497445 -7.727613e-14 -0.008271701

encoder.mlp.2.bias f4 [128]
00000000: 7ddb 9a3c 3b14 bebc e9df aa3d 65ab c23d
00000010: 7cf4 a63d 4d8c 1b3c 5201 4c3d 4aad 70bc
00000020: f58d 72bd d9b6 9a3d 0c0a 053b e491 a03d
00000030: 9e37 acbc f835 473d 9d5f 78bd 0e2f f63a
00000040: f698 f53b 1aa7 bd3b 65a1 863a 6e99 6aba
00000050: 0945 20bd 3a43 b029 45fc c1bd 2e4f 85bc
00000060: 3b67 debc 13d9 86bd c350 85bc fba0 9a3d
00000070: 9cf8 c036 a93d 273c 0150 65bd d0de 463c
00000080: 1c07 9ebd 86d7 a7bc 2b48 563c 6424 7c3d
00000090: f1bc 55b5 b3af 003a 1b88 ae3d f378 95bd
000000a0: ce9b e03c c820 a126 df46 f33c 4d43 26bc
000000b0: e5f4 103c 7105 a73c 41bd ee35 09ab 923d
000000c0: b0a8 9ebd 6e4e 1b3d 1521 e53d 770f 2dbd
000000d0: b78c 5fbc ec44 1f3d 670a 91bc b858 593b
000000e0: 5aa1 853c 9d9f aa3b d199 6e3b 8551 b43d
000000f0: a624 b4bc 007e af3c 752a e5ba 0c1d 8dbc
00000100: 4044 7e3d caa2 c9bd 28f4 713d cf54 69bd
00000110: 361a 533d c909 5e3d ab53 5bbd 4a26 203c
00000120: f992 febc 5518 983d be7c 9c3b b4cc 3d3c
00000130: b2e0 6dbd 75d0 11bc 8b9b 953d 433e ac3d
00000140: b8fc 7cbd 91b0 383c e159 a33d eb2b bc3c
00000150: 1929 c63d 7339 ad3d 7753 99bd afd1 853d
00000160: 12e1 ca3c 347d e63c 4e9b d8bb f131 a13c
00000170: 3a28 44bc 6998 213d d341 a23d adb0 fdaf
00000180: ec86 40bc edf0 c93d ebac 1abd b8b5 873c
00000190: 2187 153c 71c6 2bb3 a866 75bd 8091 1cbb
000001a0: 59e0 222f 1eb2 9e3c 154b 3eb7 f75d c9bc
000001b0: 961e cf3d 77b0 6a3d 3518 6fbd 5d4e e9bc
000001c0: 3d1e 38bd 009b e5bb 66f0 1e3c aa66 f4bc
000001d0: 87f0 5fbd a32e 8b3c d2fb a6bd 77fa 8f3d
000001e0: 2fed 283c 0037 22bd 22da 2fba bd11 123d
000001f0: a360 6ebd 7298 74bd 7dd4 24bc f8b8 e639
0.018903488 -0.023203006 0.08343489 0.09505347 0.081521004 0.0094938995 0.049805947 -0.014689753
-0.059217412 0.07554407 0.0020300178 0.078403264 -0.021022614 0.048635453 -0.06063806 0.0018782334
0.007495041 0.0057877423 0.0010271488 -0.00089492544 -0.039128337 7.827632e-14 -0.09471945 -0.016273107
-0.027148833 -0.06584372 -0.016273862 0.07550236 5.750988e-06 0.010207572 -0.0559845 0.012138084
-0.077162 -0.020488512 0.01307873 0.061558142 -7.962363e-07 0.0004908994 0.08522054 -0.0729846
0.027418043 1.1180505e-15 0.02969688 -0.010147882 0.00884745 0.020388337 1.7787462e-06 0.071615286
-0.07747018 0.037916593 0.111879505 -0.042251077 -0.013644389 0.03888409 -0.017705156 0.0033164453
0.01631229 0.0052070157 0.00364076 0.08804611 -0.021990132 0.021422386 -0.0017483967 -0.017225765
0.062076807 -0.09845503 0.059070736 -0.056965645 0.05153867 0.05420855 -0.05354659 0.009774754
-0.031075941 0.07426516 0.0047756126 0.01158445 -0.058075614 -0.008899798 0.07305058 0.08410313
-0.06176445 0.011272565 0.079761274 0.02297016 0.096758075 0.08458223 -0.07486623 0.065341346
0.024765525 0.028135873 -0.0066103106 0.019677134 -0.011972481 0.03945199 0.07922711 -4.6145968e-10
-0.011750918 0.09860406 -0.037762564 0.016566142 0.0091264555 -3.999452e-08 -0.059912354 -0.0023890436
1.4813518e-10 0.019372042 -1.1342364e-05 -0.024580939 0.10113256 0.057297196 -0.058372695 -0.02847975
-0.044950712 -0.007007003 0.00970087 -0.02983411 -0.054672744 0.016990012 -0.081535 0.07030194
0.010310455 -0.039603233 -0.00067082245 0.035661448 -0.05819763 -0.059715696 -0.010060427 0.0004400683

encoder.mlp.4.weight f4 [256, 128]
00000000: 5e1c e3bc 1e69 433d 2820 2fbd 81d8 e0bb
00000010: e97f 213d 63a0 d43c 6a54 93bd 7f29 c73c
00000020: 4692 4f3c b0d0 1ebd af7f 583c 4690 483d
00000030: 8210 82bd 1bcc 05bd f5ef 2e3d 5bf1 903d
00000040: 76a2 a2bb aaae 1ebd 83f5 253c f0f0 013a
00000050: 55e6 143d 6214 c7b0 cab2 f9bc d37e d53b
00000060: 7452 bc3c 00a4 b4bb 4158 8bbd e92f 76bd
00000070: 5012 24af 9c69 793d 5824 d12a 8ce7 fdbb
00000080: c656 2cbc 60f7 8bbd fa0c b9ba 9c85 1ebc
00000090: c632 3128 3f46 80ab 81f4 583c 4196 5fba
000000a0: 32db 143c b7c2 13ad f179 9c3c eabe 32bc
000000b0: 8c93 653c e757 dd3b b223 5c27 af69 04bd
000000c0: f53e 943c a01c 343d 3801 263a 154c 413d
000000d0: 12bb 07bd 72c6 10bd 8c8e 823c f350 673b
000000e0: cc60 dca8 8c97 633b b2ac 60bc 31c0 7dbc
000000f0: 539f efbc e237 2c3d b0f2 023c 372d 2f3c
00000100: 63b2 723d 6406 5abc 362d af3c 5c63 8dbc
00000110: 1225 62bb 7606 a33b f77f eabc 73ca 1d3c
00000120: 019c 863c c773 7fbd 27af de3c 0e6d 283b
00000130: 4ae5 90bc 2bf4 7929 9b6f 383b 5872 00bd
00000140: 5125 2d3d f7cf 023c d2ac 173c dc62 813d
00000150: bb89 033d e88f 3b3c 39b9 a3b9 8a2a 3838
00000160: 7b3f 1bbd face c73b 9749 b03c 3b1f 1f2b
00000170: a2a6 3c3c 9050 13bd 5940 f63b 7e7c c8a6
00000180: 87b8 a73d c15a e3bc f73c 2dbc bf55 01bd
00000190: ab6d 1d3c 4b77 ab35 d097 353d 6ade 603b
000001a0: 6d14 1c37 baba a43d 3c55 dc2c 5aab 08bc
000001b0: bc2e 953c dd0a ae3d 4a58 443d 020a fe29
000001c0: debc 833d 0c07 3abd 6f24 ab3c 8e37 97bd
000001d0: d834 3634 2bdf 43bc 9db7 7e3b 22bc 4e3a
000001e0: 4abe 28aa e676 673d ef51 c3bc 90e3 70bd
000001f0: 2a1b f9bb f3ae a1bb b0eb 673c 0698 05b4
00000200: c72f 8e3d 2a18 08bc a501 73bd 673e b43c
00000210: f27c 063d a27a 433d cc50 1d3d f9fe a0bc
00000220: c88e 863c 6116 d9bc efd5 c63c 3e73 9d3d
00000230: 9cd5 2dbc 3c44 ad3d bdf8 923d 7752 a130
00000240: 2eba 063a 1199 4ebd 2594 40bd 8f2a f7b7
00000250: c886 94bd 8963 58a8 26eb 143c e2aa 533d
00000260: 5308 aabd 0445 15bd 685a 66bd 1b8c fcbb
00000270: 1d27 2e33 b793 66a9 c2fc 0428 417e b8bb
00000280: 3134 d1bc 2fde d93b ccb1 20bb fc04 32bb
00000290: f4ea 992e 374e 33a7 fb20 7d3d 315b 60bd
000002a0: 0edd ce3c 0142 7037 6190 37bd 47ab 113c
000002b0: a0e6 0cbc 4e97 a9bd ce44 2e34 134a c63c
000002c0: 0d89 32bc ec85 3cb7 19ce d83b 1404 933d
000002d0: bb3b 25bc a2f9 41bd c5e5 023c c9fa e8bb
000002e0: 4b5c 8837 7b4c 543d a1c5 9ebb 9769 0439
000002f0: 9a4f 40bd a341 893c 70e6 4b3d 5f91 333c
00000300: b2e7 a8bd f034 9a3d 1d38 8b3c f170 863d
00000310: 3563 2f2b 46e8 e7bc 2c96 9cbd b644 1526
00000320: 45b5 efa8 c7e3 bc3d 3abc 13b3 1cc1 90bd
00000330: a5d4 d33b 0050 9136 6913 99bd a63e 873c
00000340: dd8e 8aa8 473a 993c b8b9 b02a bf5d 423d
00000350: c68f b13c 9cb9 99bd 32af babc 5310 902a
00000360: 7758 f13b b342 bbbc da2f 922b 0d7f 97bd
00000370: 3d7f bb29 8bc3 843d 74c6 10bc 25d3 f328
00000380: d246 483c f771 8abd 640d f0bc 8120 18bc
00000390: b95c 86bb 4ba6 e9ac 60f4 a63d 974f 4b3d
000003a0: 4881 f1b6 ae88 1c36 4d63 50b7 0f31 903c
000003b0: 19ec bbbd 18ef 34bd b1ef dcb4 f72e 8bb7
000003c0: 9d6f 293d c14d 963d 6980 cb29 4d63 66bd
000003d0: cf4f 2fb9 4724 84bc 2989 2b3d fca5 afb3
000003e0: ed9a 17b5 edf6 2fbd 92ec a1bd 1c20 4cbd
000003f0: b943 b43c 6736 77b3 6e61 05bd 8260 1c37
-0.027723487 0.04770767 -0.042755276 -0.006861747 0.039428625 0.025955385 -0.07193835 0.024311779
0.012669152 -0.03877324 0.013214036 0.048965715 -0.06350805 -0.032665353 0.04270931 0.07077285
-0.0049632145 -0.03874079 0.010129335 0.0004956862 0.036352474 -1.4484949e-09 -0.030480761 0.0065153628
0.022988535 -0.0055127144 -0.068039425 -0.060104284 -1.4922219e-10 0.060891733 3.7151076e-13 -0.00774855
-0.010518735 -0.068342924 -0.0014118247 -0.00967541 9.8364835e-15 -9.114444e-13 0.013241888 -0.00085291645
0.009085463 -8.399218e-12 0.019101115 -0.010909775 0.014012229 0.0067548635 3.0550484e-15 -0.03232735
0.018096427 0.04397261 0.0006332579 0.047191698 -0.03313739 -0.035345502 0.015937112 0.0035296052
-2.4466885e-14 0.003472778 -0.013713049 -0.0154877165 -0.029250776 0.04204548 0.0079924315 0.010691932
0.059252154 -0.013307188 0.021383863 -0.017259292 -0.003450696 0.0049751354 -0.028625472 0.009630787
0.01643181 -0.062366273 0.027183129 0.0025699767 -0.017687459 5.550089e-14 0.0028142694 -0.031359047
0.042271916 0.007984153 0.009257512 0.06317684 0.032113772 0.011447884 -0.00031227784 4.3908636e-05
-0.037902337 0.0060976716 0.021519465 5.653149e-13 0.011514338 -0.035965502 0.007514995 -1.3911531e-15
0.08189493 -0.027753236 -0.010573617 -0.031575914 0.009608666 1.2775212e-06 0.044334233 0.0034312257
9.30308e-06 0.08043428 6.262239e-12 -0.008341635 0.018210761 0.08498166 0.04793576 1.1281602e-13
0.06432508 -0.045416877 0.020891396 -0.07383643 1.6969295e-07 -0.011955063 0.0038866766 0.00078863103
-1.4987417e-13 0.056509875 -0.02384278 -0.05881077 -0.007602115 -0.0049341857 0.014155313 -1.2441896e-07
0.069427066 -0.008306542 -0.05932774 0.022002412 0.032834 0.047724374 0.038407132 -0.01965283
0.016425505 -0.026499929 0.024271933 0.07687996 -0.0106100105 0.0846028 0.07176349 1.173773e-09
0.0005139437 -0.050438944 -0.04701628 -2.9464512e-05 -0.0725227 -1.2011992e-14 0.009089267 0.05167664
-0.08302369 -0.03644277 -0.056238562 -0.0077071316 4.0548105e-08 -5.119838e-14 7.38228e-15 -0.005630285
-0.025537582 0.006648801 -0.0024520038 -0.0027163615 6.9993705e-11 -2.488364e-15 0.06179903 -0.054774467
0.025251891 1.43204825e-05 -0.044815425 0.008890933 -0.008599907 -0.08280812 1.6230044e-07 0.024205243
-0.010896933 -1.1236854e-05 0.0066163656 0.07178512 -0.010085042 -0.04735721 0.007989352 -0.007109974
1.625544e-05 0.05183075 -0.0048453365 0.00012627836 -0.046950914 0.01675493 0.04978031 0.010959952
-0.082473174 0.07529628 0.01699453 0.065645106 6.2310167e-13 -0.028308999 -0.076458305 5.178788e-16
-2.6612943e-14 0.092231326 -3.4397296e-08 -0.07068083 0.006464558 4.33065e-06 -0.07474405 0.016509365
-1.5383035e-14 0.018704547 3.1392749e-13 0.047452684 0.021675002 -0.07506105 -0.022788618 2.5590866e-13
0.007365282 -0.022858953 1.0387205e-12 -0.0739728 8.3265405e-14 0.06482609 -0.008836377 2.7069989e-14
0.012223916 -0.06760018 -0.02930326 -0.009285093 -0.004100409 -6.6407205e-12 0.081520796 0.04963645
-7.19741e-06 2.332537e-06 -1.2420886e-05 0.017601518 -0.091758914 -0.04417333 -4.1152592e-07 -1.6591961e-05
0.04136621 0.07339049 9.0372866e-14 -0.056247044 -0.00016719032 -0.01613058 0.041878853 -8.179265e-08
-5.647733e-07 -0.042960096 -0.0790645 -0.04983531 0.022004949 -5.7558648e-08 -0.03256362 9.320795e-06

encoder.mlp.4.bias f4 [256]
00000000: b0f2 96bb 9c8b 193d 361f 643c 58f9 533d
00000010: ad12 233d 7f7b 6cbd 33ce 8fbd 2daf 93b6
00000020: b4cc 573c f9e9 033d 44fb 4dbc cb64 823d
00000030: 3231 9b3d b6a4 50bd 3c50 363c 4eee df3c
00000040: b073 d8bc d858 6fbc e3b7 38bd 1506 413d
00000050: cc99 cabc fa68 93bd ecbf 663d 5eef 353d
00000060: e25b 3e3c 08d0 4abd 2409 13bc d75f 773d
00000070: 7691 b93b 6231 bc3c c7ef 403d a64f e5bc
00000080: 720a f4ba a3c1 41aa a328 8e3c 540e 153c
00000090: 1b2f a43b 8137 603c a3c2 3e3b 1390 4635
000000a0: 2966 7ebc bdd2 78bd b212 193a 4300 39bd
000000b0: 653c 0a3d 58b8 543c c6bf 6b3d 0512 56bc
000000c0: 9ebb 213c ae16 023c 7768 1ebd 1ada 07b9
000000d0: 0bea 9a3c 8258 043d 27c4 29bd 29aa 91bd
000000e0: 04fe 9c3d f40f 6837 0283 78bd f8d6 50b5
000000f0: e523 973c 02ca 2e3c 0d57 47bd af6d 6a3c
00000100: 378c 12bd fbf5 8936 cab8 04b7 1b8a 0f3c
00000110: b859 8a3b 0b7d 463d 827b 4c3a b985 0abd
00000120: 1d2d 89bb 07d4 27bc d75a f1bc 472d b43c
00000130: 67e1 8ebc e711 813d 82c0 87a9 ee4c ab28
00000140: 3c5b 47bc f622 0ebd 3997 c6aa 48e5 62bd
00000150: df7a 493d 7cea 16bb e210 333c 5ad8 aebc
00000160: 2408 153b 56ec 9e3c ddc2 8f3d ba01 06bd
00000170: b950 173d 6ee7 de36 96a6 9b29 22b7 6c3d
00000180: 0804 70bc 01b5 0fbd f633 4d3c 6ce9 49bd
00000190: abfc 86bb 3835 523a 96ca 61bd 284c 00bc
000001a0: e268 22bd 0316 a83d f200 09bc 8933 23bd
000001b0: e467 8cbd 98a8 973d 406a 61bd a40e 5437
000001c0: 5e1a 32bd 5d34 013d 5d6c 2d3d 438c f03b
000001d0: fb60 86bd a787 a0bd b9c6 3f3d 0c76 31bd
000001e0: 155d 982e 3b6b 183d 9f6d 62ba 1437 13bc
000001f0: bfb9 823c f2ec 8e3d 49f1 b83c 948e 13b5
00000200: c402 8f33 8323 e73c 88fc 873c e01a 8e3d
00000210: 2789 23bd d6eb e3b5 6603 f9ba a481 913d
00000220: acaa 8cbc 2040 263d dc64 5baa 05c4 cc3c
00000230: c806 7bbd bbe5 783d fae7 1f3d 7334 00bc
00000240: 2a81 713c 1030 653d 4335 47b8 8f8b f6bc
00000250: 51ec 2938 cdb0 f63c 65d9 3c3d bcb5 6fbd
00000260: b838 893c ef92 b6bc d749 d1bb 7653 183c
00000270: 763c 44bd 29e4 e83c c14a 9c3d 2b5a 563d
00000280: 9eb0 ed3c ec33 0e3b b4bb 993d 5e19 39bd
00000290: 20b0 aa3d feea 84bc 1411 8337 8056 29bd
000002a0: 1b96 323d ee94 f4bb 521f d5bc c16a 0a3b
000002b0: 6e3d 36bc 9bb0 533c 7316 8a3c d918 8d3d
000002c0: cad7 39bc 0b47 cbb7 92ce 20ba e609 b0b2
000002d0: 25c6 e13c acb5 5ebd 163e 0abc ac95 56b4
000002e0: 7d99 f33c 916f 723c 1b4d 8bbd cefa 39bd
000002f0: 2fd5 293d ca46 03b9 fe22 a53d 74d1 0ebd
00000300: f3ae 8b3d 5cb7 62bd 1b67 c43c a6c2 0530
00000310: ba41 a23d 47aa fc3b 05ec 713d aad1 7f3d
00000320: 15ee f13c 612e 373d c71a 973d edf0 2d3b
00000330: 4ede 69bd e727 47bd b660 803d d693 70bd
00000340: b996 143c f36a 3ebd e081 053d abcc 9035
00000350: 8247 0bb4 ec6b d53c a6eb 8d3c 650b 3cbd
00000360: 8ed5 84bd 1961 bcba 76db 1bbc ad31 b8b8
00000370: 03b8 113d 0cd2 a23d 420b cb31 2961 aab6
00000380: 46d1 de3c c7a8 46bd 76c3 68bd c4f1 483d
00000390: 8f71 6eb0 4470 443d bbe6 88b7 6ff0 0e3d
000003a0: a96e 21bd cf49 95b7 c686 9ebb 49d0 373d
000003b0: 04fb 50bd b944 7c3d 0a8b 8a3d 8438 04bb
000003c0: ccdb 623b 839b 2aaa c58f 873c 903a e33c
000003d0: b00d f7ba 6bdd 8f3d 37d3 1eaf 57f1 42bd
000003e0: 23db ed3c bfef b5b4 4a24 3f3c 684b 97bd
000003f0: 0761 06bb 0786 76bd fbc4 73bd 7848 8bbc
-0.0046065673 0.037486658 0.013923457 0.051751465 0.039812732 -0.057734963 -0.07021751 -4.4013345e-06
0.013171364 0.032205556 -0.012572113 0.06366881 0.07577743 -0.05093833 0.011127528 0.027335312
-0.026422352 -0.014608584 -0.045097243 0.04712494 -0.02473154 -0.07197757 0.056335375 0.04441773
0.011618586 -0.0495148 -0.008974347 0.060394134 0.0056630922 0.022972766 0.04710367 -0.02799208
-0.0018618836 -1.7209025e-13 0.017353361 0.009097654 0.005010498 0.013685108 0.0029107712 7.3970403e-07
-0.015527287 -0.06074785 0.00058392726 -0.045166265 0.033749003 0.012983404 0.057555936 -0.01306582
0.009871392 0.007939978 -0.038673844 -0.00012955852 0.018910429 0.03231097 -0.04144683 -0.071125336
0.07665637 1.3831992e-05 -0.060671814 -7.779886e-07 0.018449733 0.01066828 -0.048667002 0.014308377
-0.03577825 4.111554e-06 -7.910838e-06 0.008760954 0.004222121 0.048459094 0.00078003865 -0.033818934
-0.004186286 -0.010243422 -0.029462261 0.021994246 -0.017441465 0.06302243 -6.028599e-14 1.9018177e-14
-0.012167748 -0.03470131 -3.5276797e-13 -0.05539444 0.049189445 -0.0023027947 0.010929318 -0.021343399
0.0022740448 0.019399803 0.07019589 -0.03271649 0.036942217 6.6430575e-06 6.912281e-14 0.057791837
-0.014649399 -0.03508473 0.0125245955 -0.049294874 -0.004119476 0.00080187945 -0.05512484 -0.007830657
-0.039650805 0.082073234 -0.008362042 -0.03984407 -0.06855753 0.074052036 -0.05503297 1.26395935e-05
-0.043482177 0.03154408 0.04233967 0.0073409392 -0.06561466 -0.07838374 0.046820376 -0.04332547
6.9286944e-11 0.037211638 -0.00086375506 -0.0089853 0.015957711 0.069787875 0.022575991 -5.4969246e-07
6.6594595e-08 0.028215175 0.016599908 0.0693872 -0.03992572 -1.6981455e-06 -0.0018998205 0.07104805
-0.017171226 0.040588498 -1.94861e-13 0.024995813 -0.061285764 0.060765963 0.03903959 -0.007825005
0.014740268 0.05595404 -4.74949e-05 -0.030095844 4.0512827e-05 0.030113602 0.04610576 -0.058522925
0.016750678 -0.02228686 -0.006386976 0.009297242 -0.047909223 0.028429108 0.07631446 0.052332085
0.029014882 0.0021698428 0.07506505 -0.045190208 0.083343744 -0.016225334 1.562437e-05 -0.04134226
0.043600183 -0.007464043 -0.026015911 0.002112076 -0.011123044 0.012920524 0.016856408 0.06889505
-0.011342952 -2.4232568e-05 -0.0006134297 -2.0493598e-08 0.027560303 -0.054372475 -0.008437654 -1.9984753e-07
0.029736275 0.014797107 -0.06801816 -0.0454052 0.041463073 -0.00012519505 0.08063315 -0.03486772
0.06820478 -0.055350646 0.023974946 4.866173e-10 0.079226926 0.0077107283 0.059062976 0.06245581
0.029532472 0.044721965 0.07378154 0.0026541308 -0.057096772 -0.04862204 0.06268446 -0.058734737
0.009069138 -0.046488713 0.03259456 1.0788402e-06 -1.2971398e-07 0.026052438 0.01732428 -0.045909304
-0.06486045 -0.0014372199 -0.009512773 -8.7830565e-05 0.035575878 0.079502195 5.9093574e-09 -5.0777057e-06
0.027199399 -0.048500802 -0.05682703 0.04905869 -8.674527e-10 0.047958627 -1.6319906e-05 0.034897264
-0.039412174 -1.7796554e-05 -0.0048378436 0.04487637 -0.051020637 0.061588977 0.06764801 -0.0020175288
0.0034615872 -1.5152987e-13 0.016548047 0.027737886 -0.0018848684 0.07024654 -1.4445055e-10 -0.04759344
0.029035157 -3.3888315e-07 0.011666367 -0.073874295 -0.002050461 -0.060186412 -0.059514027 -0.01700233

pos_mlp.0.weight f4 [32, 1]
00000000: 8787 9bbc b08e eb3e 73ae abbe 20df 843d
00000010: fd61 eebe d4f7 323f 836e b8be 3a27 3abe
00000020: e5b3 703e ff77 67be a69b 843a e5e0 833f
00000030: 1f05 debb 2a49 fc3c f18f 0f3d 2777 50bf
00000040: 1b68 75bf c0cf a33e 2ad9 00bf 027f a8be
00000050: 01a7 e6be ae20 b33d a854 8bbe 128d 8abd
00000060: 26c3 d3be e428 4d3f d284 2abf e0e6 fbbe
00000070: dbd9 fe3e 8ead af3e 5cd5 32b9 8544 34bf
-0.018985523 0.460073 -0.33531532 0.0648787 -0.46559134 0.69909406 -0.36021814 -0.18179026
0.23506124 -0.22604369 0.0010117188 1.0303007 -0.006775513 0.030796606 0.035049383 -0.8143181
-0.9586198 0.31994438 -0.50331366 -0.329094 -0.4504929 0.087464675 -0.27213025 -0.06765188
-0.41359824 0.8014052 -0.6660892 -0.4919958 0.49775586 0.343121 -0.00017054885 -0.7041705

pos_mlp.0.bias f4 [32]
00000000: a4f0 8fb9 266f b53e bb88 f6be da14 043f
00000010: 8fed f5bd 7610 673f c35d 1e3f 8a28 393d
00000020: 6fef e73e b9a1 4a3f 13d3 e0be 3da9 7abe
00000030: 7956 a3bd 5343 16be 68ed 313f 0424 4a3f
00000040: 8d8b 3a3f fcf4 a7be 8830 9b3e 6506 213f
00000050: 1341 ab3e a283 3b3f 569b 50ba 7e7b 6abd
00000060: 67ea b2be f82b 923e 5194 0b3f 6112 593f
00000070: 2a3e 373f 6955 ac3c d0ec 05be b135 8b3e
-0.00027454377 0.35436362 -0.48151192 0.51594317 -0.12008201 0.9025949 0.6186182 0.045204677
0.4529986 0.7915302 -0.43911037 -0.24478622 -0.07975478 -0.1467412 0.6950288 0.78961205
0.7286919 -0.32804096 0.30310464 0.6290038 0.33448085 0.7324773 -0.0007957717 -0.057246678
-0.3494446 0.2854917 0.5452319 0.8479367 0.7157923 0.02103682 -0.13078618 0.271894

pos_mlp.2.weight f4 [32, 32]
00000000: efa3 59a9 7ff9 5c3e 4466 7fb9 b5dc 7e3c
00000010: 8fdf 202a 180e 963e 5aa5 c7bc f01a dabc
00000020: 266a 6a3e 9199 72bd 99b8 212a 0dbd 8c3e
00000030: 4859 2a29 6f99 ba3a 68b2 b7bd 0942 4eba
00000040: 13d4 30be 93fe e639 f027 87be 12df 8abd
00000050: 5bb8 97be b6f1 20bd ff81 07a8 178d 5cb5
00000060: 8511 d5af f506 9d3e 6cb9 81bc 9164 46be
00000070: 6ad0 953e 6f2f 0d3e de0e 54ad 31ff 50be
00000080: 9717 322e 5d67 a03e 17f9 6030 c9c2 3bbd
00000090: af6e b72c c39d 0b3e b109 3d3d d7aa dabc
000000a0: 608c 7e3d 8333 053d 6d7d 05b6 ef33 a03e
000000b0: 17f9 23ab 6a52 082b 4b1e 933d 5057 24be
000000c0: ab8b 2abe a54b ab2a e97c d7bd a879 07be
000000d0: 32e0 26be ce88 873d 0dd9 40b2 1b21 0b39
000000e0: 76f7 05ad c847 603e 5245 a1bc 142b 33be
000000f0: 3ed6 8c3e 8512 e43d ec6f 983a 8aae 41be
00000100: 624c 993a 5102 7e3e 3cb6 0fbb 7251 303d
00000110: a004 c9b8 7ab5 3f3e add3 363d 6cfd b8bc
00000120: a96a ca3c 4f66 823b 83c7 1b3b e401 ab3e
00000130: 56df 2f29 d358 7737 3c0b a8bd 069a ebbd
00000140: 74a0 67be 5eb9 afb9 8cb1 1bbe c3b9 dbbb
00000150: bb8d 54be 242e b93d a9de 2533 4596 8632
00000160: 4c48 ae29 2423 b53e 744f 2dbe 671c 6ebe
00000170: a21c 1d3c 6737 c83d 3b6a fc39 a2f1 56be
00000180: c174 a838 45db e93d a70a 27b7 9fce 523e
00000190: 6678 8fb0 1993 523e c103 753d f707 e9bc
000001a0: 5b0f f63d ed35 d83c 36ba 3536 363c a93e
000001b0: bc17 9bb8 4300 64bb 6a58 4b3e b329 59be
000001c0: 1708 abbe cded ec39 60ed 82be 3e2e a8bd
000001d0: 6b20 abbd 4b18 69bc 0365 90aa 948c a2b5
000001e0: 6e4d 25bb 428f 883e a2b9 86be da90 cebc
000001f0: 9190 c23d 94d2 a43d dc20 c2b5 d556 ffbd
00000200: fa9f b427 95b0 4a3e a714 523b a05e 753d
00000210: 47c5 f635 7b05 8b3d 1efc 56be 293e 88bc
00000220: d050 303d 7fc5 a73c 3203 84b7 b626 af3e
00000230: 91a9 05bb a058 b838 9ef3 003d a6ec 44be
00000240: a748 35be 19d7 45b9 826f f7bd 5948 753d
00000250: 1679 87be 9e85 7e3e c4be 17a8 db45 d939
00000260: 4c88 e539 a001 713e 0568 7fbe 38dd 253b
00000270: fa68 dc3d 6d76 4e3d 130d 45a9 a7b9 58be
00000280: a2f2 f4a8 a55b d83c 771a 3139 3b94 80bd
00000290: f41a 57bb 4293 8c3e acb2 55be 6469 adbc
000002a0: abdf edb9 1858 e83d 8f90 212f 17b1 1c3e
000002b0: 2790 752a de0b 88b9 b71c c63d 05c8 17be
000002c0: b83f a3bd 9cfd 0a2d 67ea 2ebe 17d0 b6bd
000002d0: 9359 8ebe adec 803d d47e 5a28 553d dcaa
000002e0: b05d 713b 39c4 cd3d bde8 4fbe a6fd 05be
000002f0: a65b 113e 19b8 703e c857 123a 19e9 37be
00000300: c10e 322d db06 563e 123e 14ad c933 b0bd
00000310: f1aa 8029 65a5 993c a7cc d4bc 1326 03bd
00000320: 75ee 0b3e ad7c f5bb 0757 e434 c805 483c
00000330: e5c8 50b9 2baa 08bb e6e8 873d b5bc b2bb
00000340: 0b08 8bbe 3ede 80b9 64e6 bcbd 6fc2 233d
00000350: 4c38 c3bd bcb8 64bd 4aa3 df3a 0454 e439
00000360: 9bcf 3db5 d4ba 903e 06f0 03be 3fed 4a3d
00000370: 6dae 293d 7c65 de3c 750b df3a 4fdb 1cbe
00000380: f593 4bba 7786 403e 30ec 4ca8 296c b6bc
00000390: ded5 433a 4997 b03e 17aa 23be 3a39 e7bc
000003a0: 97b5 223e 500a 38bd 77d9 5cab 22bd a03e
000003b0: dc21 13bb 1c11 f4b8 b632 213e c442 97be
000003c0: ca48 abbe a4e3 1f3b c14c 92be f07f 1ebe
000003d0: dff6 2fbd 517a 0b3e d74f b3ac ca88 e539
000003e0: 51db cda5 d2f4 313e 7243 60be 074f 0fbe
000003f0: bcfe 823e bc08 4a3e 5ee0 053b f607 18be
-4.832587e-14 0.2157955 -0.00024356792 0.01555555 1.4288417e-13 0.29307628 -0.024370838 -0.026624173
0.22892055 -0.059228484 1.4363718e-13 0.27487984 3.7825022e-14 0.0014236401 -0.08969575 -0.00078681164
-0.172684 0.0004405869 -0.26397657 -0.067808285 -0.2963284 -0.039293014 -7.522194e-15 -8.21617e-07
-3.8756923e-10 0.3066937 -0.015835486 -0.193743 0.2926057 0.13787626 -1.2054106e-11 -0.20409848
4.0493466e-11 0.3132886 8.1844703e-10 -0.04584006 5.213461e-12 0.136344 0.04615182 -0.02669279
0.06214559 0.03251983 -1.9891552e-06 0.31289622 -5.8254915e-13 4.843128e-13 0.07183512 -0.16048932
-0.16654842 3.042819e-13 -0.105218716 -0.13230002 -0.16296461 0.0661789 -1.12252225e-08 0.00013268406
-7.615122e-12 0.21902382 -0.019686375 -0.17496902 0.27507204 0.11136345 0.0011630035 -0.18914238
0.0011695737 0.24805571 -0.0021928689 0.043046422 -9.585288e-05 0.18721572 0.044635464 -0.022581778
0.024709063 0.0039794813 0.0023770041 0.3339988 3.905152e-14 1.4743028e-05 -0.08205268 -0.11503987
-0.22619802 -0.0003351671 -0.15204448 -0.006705494 -0.20757191 0.09042004 3.8619564e-08 1.5667988e-08
7.739694e-14 0.35378373 -0.1692484 -0.23253022 0.009589346 0.09776192 0.00048144333 -0.20990613
8.0326114e-05 0.114187755 -9.956456e-06 0.20586632 -1.0438839e-09 0.20563926 0.059818033 -0.02844618
0.120146476 0.026392901 2.707949e-06 0.3305375 -7.395397e-05 -0.0034790195 0.19857946 -0.21207313
-0.3340461 0.00045190603 -0.25571728 -0.08211945 -0.083557926 -0.014226983 -2.564963e-13 -1.2110854e-06
-0.0025223154 0.26671797 -0.26313502 -0.025215555 0.0950023 0.08047977 -1.446369e-06 -0.12467734
5.0133483e-15 0.19793923 0.0032055767 0.059904695 1.8385844e-06 0.06788155 -0.20994613 -0.016631203
0.04304582 0.020479916 -1.5737114e-05 0.34209222 -0.002039526 8.7903114e-05 0.03148233 -0.19230899
-0.17703496 -0.00018867514 -0.12081815 0.05988345 -0.2645957 0.24855658 -8.4235495e-15 0.00041441512
0.00043779833 0.23535776 -0.24942024 0.0025308859 0.1076221 0.05040591 -4.3754127e-14 -0.21164571
-2.7194667e-14 0.026410887 0.00016889894 -0.06278273 -0.0032822462 0.274561 -0.20868939 -0.021168418
-0.00045370808 0.113449275 1.4694222e-10 0.1530193 2.1810384e-13 -0.00025948783 0.09673446 -0.14822395
-0.07971138 7.900704e-12 -0.17081605 -0.08926409 -0.27802715 0.06295142 1.21289324e-14 -3.9122408e-13
0.0036829524 0.10047192 -0.20303626 -0.1308504 0.14195117 0.23507728 0.00055825384 -0.17960013
1.0121405e-11 0.20901053 -8.426608e-12 -0.08603627 5.7139955e-14 0.018755624 -0.025976492 -0.032018732
0.13665183 -0.007491669 4.253163e-07 0.01220841 -0.00019911265 -0.002085338 0.06636219 -0.0054546245
-0.27154574 -0.00024579646 -0.09223631 0.03998035 -0.09532222 -0.05584024 0.0017062214 0.00043550145
-7.071009e-07 0.2826754 -0.1288453 0.04954266 0.04142611 0.027148 0.0017016964 -0.15318035
-0.0007765883 0.18801294 -1.137549e-14 -0.022268372 0.00074705284 0.3449042 -0.15982853 -0.02822553
0.15889584 -0.04493171 -7.8461494e-13 0.31394297 -0.0022450602 -0.000116380135 0.15742001 -0.29543126
-0.3345397 0.002439716 -0.28574184 -0.15478492 -0.042960044 0.13620879 -5.09635e-12 0.000437802
-3.5710446e-16 0.17378548 -0.21900728 -0.1399499 0.25584972 0.19729894 0.0020427923 -0.14846787

pos_mlp.2.bias f4 [32]
00000000: d1c2 2fbd a6df 1bbd bea6 853e 308c fd3c
00000010: 5692 013e 1916 4d3e abfd 063e 9443 323e
00000020: 98f1 2d3c 26d8 193e 2abf 682a e334 0f3e
00000030: d2df 4b3e 7f9f a63b feff dbbb 4a3a 653e
00000040: 7098 70ba 663d 80ba f299 acab c8e4 263e
00000050: b770 b23d 6b19 38ba 6d97 b03d 2e5a 52bd
00000060: 0e7e 5e3e 7ca6 293e 42cd 1eaa f343 a6bd
00000070: 933b 06b9 6b96 233a 6389 9d39 76b3 6e3e
-0.0429104 -0.038055085 0.26103777 0.030950636 0.12653479 0.20027961 0.13182704 0.17408592
0.0106166825 0.1502386 2.0672063e-13 0.13985018 0.199096 0.0050849314 -0.0067138663 0.22385517
-0.00091779884 -0.0009783923 -1.2264063e-12 0.1629821 0.08712905 -0.00070228305 0.08622632 -0.051355533
0.21727774 0.16567415 -1.4104432e-13 -0.08118429 -0.00012801429 0.00062403706 0.00030047735 0.23310646

dec_trunk.0.weight f4 [128, 288]
00000000: f5d8 bfb7 a886 89ba 2ac1 1cba d59d 3fba
00000010: 74ed 39ba aceb 19ba 5a69 7cba e89b 5eb2
00000020: fb81 22b9 c619 1c28 7cee 98ba 5264 ffb6
00000030: 8fe4 83ba e3e0 03b7 0661 17b8 ee78 60ba
00000040: adc7 4bbb 099d 8dba 6b9c 8cba 816d 8aba
00000050: cea2 36b9 2e86 f1b9 db87 302f f897 86ba
00000060: eb72 8aba 0566 3931 afe2 4ab9 4b52 dfb9
00000070: bece be39 22ca 2e3a 146e 922b 2e62 6d37
00000080: 2c81 8a2c 0a54 de29 1ccd dfb9 85f4 832a
00000090: 4c6c aea9 e8a2 80ba 0b0e d9ba 93c2 2ca5
000000a0: 4e10 d8ba 78ef b7ba 2c62 ffba afba 31ba
000000b0: 136b 7eba 822c b6ba b8ef ab2f 4885 01af
000000c0: eb9c 5bba f163 942e 6a00 d0a8 0da4 09aa
000000d0: e1e9 65ba 8ffb e8b0 6c06 74ba 25c5 40ba
000000e0: f1ed 91ba 1a0f 97a8 9572 d1a8 6ec1 94b0
000000f0: 3739 0abb 9017 3830 d060 4dba 64ce 9526
00000100: 7a81 66ba 8cb6 ca2b 9226 cd29 4563 bfba
00000110: 327e 66ba a9f2 0cba 6327 5c39 8ef1 91ba
00000120: d9d6 dd29 58e3 aba9 5d22 53ba d05e 85ba
00000130: d948 052e a7b2 77ba 910c 7d2a 3783 d227
00000140: c909 af2a d0cb 6cba d53e d4a9 4937 8dba
00000150: 4458 92ba 9d52 c5a9 4e55 eca9 7e4f 7fba
00000160: 88b5 a726 54f1 1030 2161 fcb9 df0f 63ba
00000170: e3ab 9039 a8ec ef2b 2670 eea9 3c89 b5ba
00000180: 5b8f a131 3a79 9aba c0f1 85ba 6de4 94b4
00000190: 6b03 3ba7 d258 ddaa 64a5 8aba 120b 84ba
000001a0: 5e7c 85ba 8a7e 96ba 7527 88b8 0e36 72ab
000001b0: b95a acba 280b 1638 9d38 16ba 1a6a 252a
000001c0: 6ba8 69ba 7d86 49b1 1f41 2ba9 e240 c02c
000001d0: 1baf 9e28 8a67 80ba 3c79 88ba a0a1 69ba
000001e0: 1fde 542a e15e 88ba daa2 82a8 7cff 9cb8
000001f0: 934b 8a27 98df 792b d35f 93ba 6c77 b9a6
00000200: c608 18aa 9df5 9da9 4013 2dac 271e 64ba
00000210: 7716 dfac b6a6 baab e8d5 94ba 7f03 07b8
00000220: d0dc 86b4 067a 5dba 0d43 d029 30e4 8f27
00000230: 2412 29ba 987b 96ba 3e12 86ba 7884 dd29
00000240: ed7a 99b9 6d86 78ba 634f bea9 74f7 a5b9
00000250: 0e37 0aaf f58e 43ba ddc9 86ba a76c 86ba
00000260: 76d6 f3b7 24c3 88ba 08b3 6bba 6cc4 042e
00000270: 47d4 73ba 02b4 95ba 1eb0 80ba c84b e7b9
00000280: 0004 e2b9 a470 82ba ecfb b5ba a34e 07ab
00000290: 7ccf caba 1252 2731 51e3 44b1 1fd4 96b8
000002a0: 8d8d 5eba 854d 6dae 5c3e 41aa 0698 ae2b
000002b0: bb94 2eba eebd 36bb 34f8 2cb2 f8c1 7eba
000002c0: 64c1 d0b7 7363 b52a af5d 60a8 c7ff 5a2a
000002d0: a839 a9b9 1d29 1b3a a149 d828 4670 3aa9
000002e0: 0d11 12ba a5eb d5b2 a1cc b131 576d d4ac
000002f0: 9bb2 d5a7 13c4 892f 226d 353a 4841 80aa
00000300: 9c6d ceb9 626c 83b9 94b4 30b4 dfda 002e
00000310: c1f3 57ba c888 58b6 0fa2 18ba aaa6 0eba
00000320: c4c2 87ba a72a 80ba 6237 89ba 8891 9aba
00000330: 3783 15af 8976 7f2b 79a5 b7a9 689e 10aa
00000340: 3291 522a 6034 89ba 5e35 b3b4 ceca 33a8
00000350: 1782 282a 406d e5b9 b689 85ba c958 3dba
00000360: 5398 3dba 7562 3cae c9cc 84ba ed3b 94a9
00000370: 417b 86ab e959 7cba 0a53 0e2a 25d3 ceaa
00000380: c1e8 9dba 8f3e f3b9 553d 31bb ffac 372a
00000390: 6150 962a af12 41a7 6dec 1ea9 3492 552a
000003a0: 8d8a 90ba 73bc 9629 cb23 092b b01a d22f
000003b0: ef64 69ba 0e51 89ba 50b7 8eba 47a9 5eba
000003c0: 4cf7 ecb7 f13a 6c31 a652 77ac b77f f7af
000003d0: e9f8 9f2c cc79 88ba ca3d 152d 12d0 2dba
000003e0: a0d3 78ba e436 b7a9 d502 a929 7c62 b928
000003f0: 529f 09ac bef5 85ba d799 79b9 4c5f 03bb
-2.2870003e-05 -0.0010492401 -0.00059797114 -0.00073095906 -0.0007092573 -0.00058716047 -0.0009628736 -1.295755e-08
-0.00015497945 8.665328e-15 -0.0011667754 -7.611271e-06 -0.0010062623 -7.860569e-06 -3.6091566e-05 -0.0008562942
-0.0031094358 -0.0010804246 -0.0010727769 -0.0010561199 -0.00017417522 -0.00046067074 1.6055372e-10 -0.0010268679
-0.0010562813 2.6979035e-09 -0.00019348667 -0.00042595188 0.0003639366 0.00066676934 1.0404477e-12 1.414916e-05
3.936537e-12 9.873359e-14 -0.00042686693 2.3439944e-13 -7.745939e-14 -0.0009814175 -0.0016559971 -1.4984546e-16
-0.0016484351 -0.0014033159 -0.0019484214 -0.0006779832 -0.00097052864 -0.0013898762 3.127505e-10 -1.1779833e-10
-0.00083775696 6.748014e-11 -2.3092818e-14 -1.2224961e-13 -0.00087705074 -1.6951719e-09 -0.0009308818 -0.00073535956
-0.0011133534 -1.6770917e-14 -2.3253353e-14 -1.0823393e-09 -0.0021091232 6.6972294e-10 -0.00078345556 1.0394894e-15
-0.0008793097 1.440363e-12 9.11052e-14 -0.0014601728 -0.0008792608 -0.00053767354 0.00020995508 -0.0011134611
9.851642e-14 -7.6333633e-14 -0.0008054132 -0.0010175351 3.03054e-11 -0.00094489235 2.2475274e-13 5.8428972e-15
3.1093035e-13 -0.0009033056 -9.425591e-14 -0.0010773923 -0.0011165221 -8.7628886e-14 -1.04953034e-13 -0.0009739323
1.1637157e-15 5.272984e-10 -0.00048137552 -0.0008661728 0.00027593886 1.7047657e-12 -1.0588778e-13 -0.0013850103
4.7020143e-09 -0.0011785396 -0.0010219142 -2.773335e-07 -2.5953316e-15 -3.9319118e-13 -0.0010577855 -0.00100741
-0.0010184159 -0.0011481803 -6.492335e-05 -8.6050687e-13 -0.0013149596 3.5773177e-05 -0.0005730482 1.4691755e-13
-0.0008913341 -2.9325797e-09 -3.802611e-14 5.4641716e-12 1.7617464e-14 -0.0009796482 -0.0010412107 -0.00089123286
1.8906446e-13 -0.0010404253 -1.4503525e-14 -7.486247e-05 3.838463e-15 8.877287e-13 -0.0011243768 -1.2869323e-15
-1.3503356e-13 -7.014808e-14 -2.4595465e-12 -0.0008702003 -6.3405353e-12 -1.3262366e-12 -0.0011355253 -3.2189764e-05
-2.5120107e-07 -0.0008448664 9.248687e-14 3.9937875e-15 -0.00064495415 -0.0011480926 -0.0010228825 9.837351e-14
-0.0002927402 -0.000948048 -8.4514664e-14 -0.0003165562 -1.2570586e-10 -0.0007459962 -0.0010283549 -0.001025577
-2.9067724e-05 -0.0010434133 -0.00089912163 3.0187783e-11 -0.0009301346 -0.0011421444 -0.0009818112 -0.00044116215
-0.0004310906 -0.0009951782 -0.0013884283 -4.8070765e-13 -0.0015473212 2.434835e-09 -2.8650968e-09 -7.192068e-05
-0.00084897206 -5.3956412e-11 -1.7163479e-13 1.2405639e-12 -0.0006659736 -0.0027884203 -1.00681525e-08 -0.00097182347
-2.4885587e-05 3.2221066e-13 -1.2454812e-14 1.945103e-13 -0.0003227715 0.0005918907 2.4012749e-14 -4.1397678e-14
-0.0005571999 -2.4903622e-08 5.1746416e-09 -6.0375416e-12 -5.931302e-15 2.5059474e-10 0.0006920864 -2.2782666e-13
-0.00039373047 -0.0002506702 -1.6456971e-07 2.9298227e-11 -0.0008237921 -3.2266125e-06 -0.00058224885 -0.0005441705
-0.0010357727 -0.0009778336 -0.0010468776 -0.0011792639 -1.3598088e-10 9.07587e-13 -8.1555375e-14 -1.2844727e-13
1.8702122e-13 -0.001046788 -3.3380178e-07 -9.980472e-15 1.4966531e-13 -0.0004375968 -0.0010188136 -0.0007223008
-0.0007232476 -4.28337e-11 -0.0010131832 -6.582916e-14 -9.555482e-13 -0.0009626435 1.2640944e-13 -3.6739462e-13
-0.0012047515 -0.00046395182 -0.0027044613 1.6313685e-13 2.6701127e-13 -2.6794259e-15 -3.5288114e-14 1.8968925e-13
-0.001102762 6.694029e-14 4.872185e-13 3.821774e-10 -0.0008903285 -0.0010476427 -0.0010888372 -0.0008493852
-2.8248549e-05 3.4376024e-09 -3.514669e-12 -4.5019785e-10 4.5466864e-12 -0.0010412275 8.483389e-12 -0.0006630431
-0.0009491984 -8.1363545e-14 7.505599e-14 2.0581837e-14 -1.9557311e-12 -0.0010220332 -0.000238038 -0.0020045815

dec_trunk.0.bias f4 [128]
00000000: fcba 1db8 33f5 0dbd 91ab 413d 17eb 31bd
00000010: 1b1b a83c 140c acbb febb 64b2 156a adbc
00000020: fc38 35bc bb9b bd39 6201 10b4 942a 8c2a
00000030: f766 39a9 5878 003c 3daf 0fbd 395a 252a
00000040: 069f c5b7 54a7 943c 8fd6 652a 6475 223c
00000050: 5ab4 2ebd d9de fdbb f205 0136 e129 edb3
00000060: e63b 34bc e3e6 23bd 2541 45bc 3823 8c3c
00000070: b986 d7bc 7797 8e29 4c1e 1e3d bd83 0daa
00000080: ae99 2dbd bbbf 5c2c 3617 28b5 8d2b 06b2
00000090: 17fe b13c b224 773b 592a b6b4 2b45 053c
000000a0: ec14 233d ee76 15ad 9bdb 5bbd 76dc 9f2f
000000b0: ce15 b82e 4d55 07b8 7734 7aa8 aa52 1e3c
000000c0: 705c 0e3c fa74 4abc c168 1fae eed6 943c
000000d0: 5ad2 02bd 1cc0 433d 4068 323c 8564 ab3c
000000e0: 2507 bd3b 4889 42bd eb70 4b34 d2c6 2bbd
000000f0: 7480 1c3b e8ba 40ab bc8b 3a39 7dc5 133d
00000100: 9d4b e53c 0a11 fab3 7d1f 8fad ab9b f8bc
00000110: 6225 aa3c 3071 0fab 4bd2 0cbd a9ef 2cbd
00000120: 7484 97bc 9dfb f33c b70b 563d 5205 cbbc
00000130: a287 bb26 0493 d33c 5ad8 f3bc 5bac 7fbc
00000140: 6300 2d35 f2a1 8faf 2238 28bd 801d f9bc
00000150: 3ec4 ba3a 2eda 673d bb38 d9bc 7627 b13b
00000160: 416c 3f28 2774 943b 3c20 abbc 2755 3e3d
00000170: de52 063d df6b ae2d abd0 bdb7 7485 c93c
00000180: 952f 613d 58f8 e0a6 94b5 893b 9212 223a
00000190: 66e1 3a3d 439d 20bd 936f 2c3d 3d06 24bb
000001a0: 8e07 ff36 71e9 2e3d 2e31 9dbc f774 ce30
000001b0: 3f1c be3b ba28 553d 849f a43b 252e 90ac
000001c0: 5895 573d 3daf dfbc d1a3 29bd aaeb ff3c
000001d0: 2176 0bbd e563 dbb2 519a 46bd 7e76 473c
000001e0: cb91 292b 345c 16b6 90d0 4abb 79f9 efbc
000001f0: cb49 b5bc 2e3a 13bd 961a 5a3d 64a8 ab3c
-3.760586e-05 -0.03465767 0.04728276 -0.04343709 0.020520737 -0.0052504633 -1.3314091e-08 -0.021168748
-0.011060949 0.00036164917 -1.3411548e-07 2.489854e-13 -4.116756e-14 0.007841192 -0.03507923 1.4686246e-13
-2.3558281e-05 0.018146195 2.0413726e-13 0.009915683 -0.042652465 -0.007747513 1.9225959e-06 -1.104379e-07
-0.011000609 -0.040015113 -0.012039457 0.017106637 -0.026309358 6.332342e-14 0.038603112 -1.2569022e-13
-0.04238289 3.1370312e-12 -6.2618653e-07 -7.809729e-09 0.021727605 0.003771108 -3.3930954e-07 0.008134167
0.039814875 -8.496077e-12 -0.05367623 2.9078578e-10 8.3712245e-11 -3.226595e-05 -1.3889164e-14 0.009663263
0.008689031 -0.012356991 -3.6245455e-11 0.018168893 -0.031938888 0.04779063 0.010889113 0.020921955
0.005768674 -0.047494203 1.8946928e-07 -0.041937657 0.0023880275 -6.8471487e-13 0.00017790397 0.03607701
0.027990157 -1.16446316e-07 -1.6271201e-11 -0.030347666 0.020769779 -5.0960885e-13 -0.03438024 -0.042220745
-0.018495776 0.029783064 0.052257266 -0.02478281 1.3012495e-15 0.025826938 -0.02976625 -0.015605058
6.4448085e-07 -2.6126618e-10 -0.041069157 -0.030409575 0.0014249159 0.056604557 -0.026516309 0.0054063154
1.0626104e-14 0.004530448 -0.020889394 0.046467926 0.032793872 1.9829414e-11 -2.2627724e-05 0.024599768
0.05497702 -1.5610436e-15 0.004202554 0.0006182577 0.045625113 -0.039212476 0.042098593 -0.0025028132
7.6004717e-06 0.042703096 -0.01918849 1.5021716e-09 0.005801707 0.052040793 0.0050238986 -4.0978492e-12
0.05263266 -0.02730524 -0.041415993 0.031240303 -0.034048203 -2.5540382e-08 -0.04848701 0.012174247
6.024319e-13 -2.240541e-06 -0.0030947067 -0.029293763 -0.022129914 -0.035944156 0.05324801 0.020954318
