pointnet/weights_per_bundle_ratio025/ST_PREC_left_best.pth (torch, 359830 bytes, 17 tensors)

t_grid f4 [100]
0.0 0.01010101 0.02020202 0.030303031 0.04040404 0.05050505 0.060606062 0.07070707
0.08080808 0.09090909 0.1010101 0.11111111 0.121212125 0.13131313 0.14141414 0.15151516
0.16161616 0.17171717 0.18181819 0.1919192 0.2020202 0.21212122 0.22222222 0.23232323
0.24242425 0.25252524 0.26262626 0.27272728 0.28282827 0.2929293 0.3030303 0.3131313
0.32323232 0.33333334 0.34343433 0.35353535 0.36363637 0.37373737 0.3838384 0.3939394
0.4040404 0.41414142 0.42424244 0.43434343 0.44444445 0.45454547 0.46464646 0.47474748
0.4848485 0.4949495 0.5050505 0.5151515 0.5252525 0.53535354 0.54545456 0.5555556
0.56565654 0.57575756 0.5858586 0.5959596 0.6060606 0.61616164 0.6262626 0.6363636
0.64646465 0.65656567 0.6666667 0.6767677 0.68686867 0.6969697 0.7070707 0.7171717
0.72727275 0.7373737 0.74747473 0.75757575 0.7676768 0.7777778 0.7878788 0.7979798
0.8080808 0.8181818 0.82828283 0.83838385 0.8484849 0.85858583 0.86868685 0.8787879
0.8888889 0.8989899 0.90909094 0.9191919 0.9292929 0.93939394 0.94949496 0.959596
0.969697 0.97979796 0.989899 1.0
00000000: 0000 0000 b57e 253c b57e a53c 103e f83c
00000010: b57e 253d 62de 4e3d 103e 783d dece 903d
00000020: b57e a53d 8c2e ba3d 62de ce3d 398e e33d
00000030: 103e f83d f376 063e dece 103e ca26 1b3e
00000040: b57e 253e a0d6 2f3e 8c2e 3a3e 7786 443e
00000050: 62de 4e3e 4e36 593e 398e 633e 24e6 6d3e
00000060: 103e 783e fd4a 813e f376 863e e9a2 8b3e
00000070: dece 903e d4fa 953e ca26 9b3e bf52 a03e
00000080: b57e a53e abaa aa3e a0d6 af3e 9602 b53e
00000090: 8c2e ba3e 815a bf3e 7786 c43e 6db2 c93e
000000a0: 62de ce3e 580a d43e 4e36 d93e 4362 de3e
000000b0: 398e e33e 2fba e83e 24e6 ed3e 1a12 f33e
000000c0: 103e f83e 056a fd3e fd4a 013f f8e0 033f
000000d0: f376 063f ee0c 093f e9a2 0b3f e438 0e3f
000000e0: dece 103f d964 133f d4fa 153f cf90 183f
000000f0: ca26 1b3f c5bc 1d3f bf52 203f bae8 223f
00000100: b57e 253f b014 283f abaa 2a3f a640 2d3f
00000110: a0d6 2f3f 9b6c 323f 9602 353f 9198 373f
00000120: 8c2e 3a3f 86c4 3c3f 815a 3f3f 7cf0 413f
00000130: 7786 443f 721c 473f 6db2 493f 6748 4c3f
00000140: 62de 4e3f 5d74 513f 580a 543f 53a0 563f
00000150: 4e36 593f 48cc 5b3f 4362 5e3f 3ef8 603f
00000160: 398e 633f 3424 663f 2fba 683f 2950 6b3f
00000170: 24e6 6d3f 1f7c 703f 1a12 733f 15a8 753f
00000180: 103e 783f 0ad4 7a3f 056a 7d3f 0000 803f

encoder.mlp.0.weight f4 [64, 3]
-0.4706093 -0.064248264 0.45015556 0.21747963 -0.015262091 0.33671847 -0.47612733 0.1518771
-0.33675393 0.10976471 -0.19201806 0.018789733 0.4480875 0.2105533 0.18703555 -0.21217664
0.24294524 -0.5098905 -0.44372 0.31655586 0.15652135 -0.4327451 0.15718065 0.0022371502
0.14635688 0.36659014 -0.15524243 0.10401564 -0.0002939322 -0.0012402546 -0.44780362 0.00016515436
0.11012044 -0.47916186 0.46705425 -0.5429071 -0.38106102 0.21839853 -0.49780902 0.118276045
-0.49813446 0.4541158 0.10579567 -0.041448213 -0.001454507 0.20238326 0.5823882 0.52895474
-0.34250513 -0.5010841 -0.44393274 0.44496775 0.111295514 0.35835186 -0.3704786 -0.392871
0.4452256 -0.31191137 -0.2822047 -0.021614214 0.43969315 0.09877463 0.08291305 -0.3747944
-0.4906746 0.4091378 0.1062723 0.0060373554 -0.08888835 -0.21097797 -0.101797104 -0.5519524
0.17091742 0.5329986 0.5259392 0.064819805 -0.044829234 0.52123857 -0.25582814 -0.09715088
0.31144395 0.036757294 -0.13124433 -0.19064566 -0.14761195 -0.43432868 0.530843 0.18482079
0.56249917 -0.10855781 -0.14742607 -0.103910945 0.16068132 -0.339493 -0.019481247 -0.49476323
0.45931774 -0.29280075 0.24201234 0.23479925 0.535578 -0.09424053 -0.2814799 -0.24719165
-0.045840245 -0.57486343 -0.020379897 0.43369973 -0.33379224 -0.5551907 0.16228008 0.10804175
-0.47555184 0.014460366 0.03557439 0.51651716 0.5055587 0.1398427 -0.40518564 -0.2095811
0.24110915 -0.40348205 -0.03316371 0.39202112 -0.3758859 0.22863744 -0.14794192 -0.034075104
-0.17471138 0.111598864 0.15607736 -0.029078864 -0.08544012 -0.02955751 -0.46625307 0.06085567
-0.39985156 0.1012569 -0.10245309 -0.08760305 0.18689017 -0.5256884 -0.3336984 -0.21547803
0.51606816 -0.2021624 0.4811395 0.13242835 -0.049172644 0.16004309 0.043237384 -0.5660497
-0.036246024 -0.3092342 0.50994134 -0.1404641 -0.37292817 -0.41167018 -0.16515732 0.4953388
0.0077048014 0.06823615 0.40094113 -0.39365858 -0.12876947 -0.045251846 0.16570978 0.07317149
-0.5366085 -0.5441082 0.19954294 -0.06548136 -0.24617702 -0.5163527 0.16624136 -0.57817787
0.0027382288 -0.12760523 0.23320946 -0.40517697 -0.20995827 0.4122034 -0.12260058 0.2506717
-0.22367585 0.3389271 0.48162395 0.28043312 0.2058004 0.30159736 -0.14687021 0.46493742
00000000: b4f3 f0be 9894 83bd ca7a e63e fbb2 5e3e
00000010: d90d 7abc 5d66 ac3e f6c6 f3be ac85 1b3e
00000020: 036b acbe 52cc e03d 62a0 44be edec 993c
00000030: ba6b e53e 499b 573e 3f86 3f3e d544 59be
00000040: a3c6 783e 2f88 02bf 452f e3be 9c13 a23e
00000050: 2247 203e c490 ddbe f7f3 203e 279d 123b
00000060: 94de 153e b4b1 bb3e dff7 1ebe 2706 d53d
00000070: e91a 9ab9 0a90 a2ba 8446 e5be 492d 2d39
00000080: d386 e13d b454 f5be bc21 ef3e f6fb 0abf
00000090: 6e1a c3be dda3 5f3e d3e0 febe b63a f23d
000000a0: 7b0b ffbe de81 e83e 66ab d83d 9ac5 29bd
000000b0: 28a5 beba 8f3d 4f3e 6517 153f 9469 073f
000000c0: d55c afbe 0c47 00bf 274b e3be d0d2 e33e
000000d0: e7ee e33d e579 b73e 5faf bdbe 6326 c9be
000000e0: 9cf4 e33e d9b2 9fbe 227d 90be 4b10 b1bc
000000f0: 761f e13e 5a4a ca3d 51ce a93d 0de5 bfbe
00000100: b339 fbbe 827a d13e 4ba5 d93d 02d5 c53b
00000110: 180b b6bd 9c0a 58be 007b d0bd c14c 0dbf
00000120: fa04 2f3e 9972 083f f4a3 063f 3fc0 843d
00000130: dc9e 37bd e46f 053f e8fb 82be 0af7 c6bd
00000140: 9575 9f3e d18e 163d ea64 06be 9e38 43be
00000150: 9627 17be 5460 debe 54e5 073f a941 3d3e
00000160: f2ff 0f3f 8f53 debd dcf6 16be 43cf d4bd
00000170: a589 243e 07d2 adbe 2397 9fbc 9b51 fdbe
00000180: b22b eb3e fbe9 95be 15d2 773e 376f 703e
00000190: a41b 093f 2e01 c1bd 221e 90be cf1f 7dbe
000001a0: fbc2 3bbd 402a 13bf bef3 a6bc e40d de3e
000001b0: d1e6 aabe fa20 0ebf c02c 263e fe44 dd3d
000001c0: 887b f3be 2ceb 6c3c 74b6 113d 783a 043f
000001d0: 4c6c 013f ed32 0f3e 7e74 cfbe 6e9c 56be
000001e0: 51e5 763e 3395 cebe acd6 07bd feb6 c83e
000001f0: 1e74 c0be ef1f 6a3e 167e 17be 5692 0bbd
00000200: 8ae7 32be f28d e43d bed2 1f3e cc36 eebc
00000210: 3bfb aebd 9722 f2bc b9b8 eebe cc43 793d
00000220: 58b9 ccbe c75f cf3d edd2 d1bd 3a69 b3bd
00000230: 2360 3f3e 8493 06bf 84da aabe 46a6 5cbe
00000240: 0b1d 043f a903 4fbe eb57 f63e 4c9b 073e
00000250: 4169 49bd 56e2 233e af19 313d a2e8 10bf
00000260: b676 14bd f253 9ebe 848b 023f d2d5 0fbe
00000270: 71f0 bebe 6fc6 d2be 001f 29be 0c9d fd3e
00000280: 8f78 fc3b 65bf 8b3d 2848 cd3e 9e8d c9be
00000290: 25dc 03be 005a 39bd d3af 293e efda 953d
000002a0: 2d5f 09bf ad4a 0bbf fc54 4c3e 171b 86bd
000002b0: d415 7cbe b12f 04bf 2d3b 2a3e 7703 14bf
000002c0: db73 333b f2aa 02be 76ce 6e3e 5b73 cfbe
000002d0: 4dff 56be 530c d33e 0316 fbbd 0b58 803e
000002e0: 480b 65be da87 ad3e 6a97 f63e ee94 8f3e
000002f0: 57bd 523e f86a 9a3e 2565 16be 470c ee3e

encoder.mlp.0.bias f4 [64]
0.03331526 0.33434305 0.48279837 -0.07088841 -0.2900879 -0.42601106 0.4547794 -0.09500738
-0.047316413 0.007762216 0.38894525 -0.28595105 -0.05792146 0.28135788 0.0059840125 0.2666995
0.37180793 -0.17083994 -0.17170021 -0.4180013 0.33792025 0.45127904 -0.09156906 -0.11726
0.13588534 -0.45809188 -0.026744852 0.0015910217 0.42852834 0.04366848 0.13857748 0.07144131
0.08933219 0.34122208 -0.13483135 0.12476536 -0.29061764 0.050456665 0.40344843 0.14054328
0.34720844 0.31433848 0.08488285 0.098394714 -0.40796596 -0.056409765 -0.090666376 0.23902227
-0.3231397 -0.09533059 -0.07625715 0.18003011 -0.054104682 -0.002956557 -0.09978428 -0.2512579
0.3584585 0.15562701 -0.23390377 0.36374614 -0.43883446 0.015600206 0.22580656 -0.16432382
00000000: 9575 083d 032f ab3e 5931 f73e f12d 91bd
00000010: 6786 94be 1f1e dabe d8d8 e83e 3b93 c2bd
00000020: dbce 41bd 305a fe3b d523 c73e 2d68 92be
00000030: 0e3f 6dbd 240e 903e 8915 c43b d68c 883e
00000040: 9c5d be3e aaf0 2ebe 2ed2 2fbe 4404 d6be
00000050: e203 ad3e 0c0e e73e 8f88 bbbd 0326 f0bd
00000060: 8725 0b3e 058b eabe 0518 dbbc d489 d03a
00000070: 1168 db3e b8dd 323d 41e7 0d3e d24f 923d
00000080: ccf3 b63d a9b4 ae3e 3b11 0abe fb84 ff3d
00000090: d6cb 94be a6ab 4e3d cb90 ce3e 94ea 0f3e
000000a0: 4ec5 b13e f9f0 a03e 0fd7 ad3d 2b83 c93d
000000b0: eae0 d0be ed0d 67bd 4baf b9bd 41c2 743e
000000c0: 9172 a5be af3c c3bd b52c 9cbd d059 383e
000000d0: df9c 5dbd ccc2 41bb b35b ccbd e0a4 80be
000000e0: df87 b73e b05c 1f3e 7884 6fbe ef3c ba3e
000000f0: e9ae e0be 0298 7f3c d639 673e 8144 28be

encoder.mlp.2.weight f4 [128, 64]
-0.11856324 -0.12148275 -0.061879896 0.07146687 0.100342825 -0.033803653 -0.020861758 0.08783472
-3.8580642e-06 3.08806e-05 -0.0068170177 -0.026157577 0.08056711 -0.030015575 0.01732436 0.04414713
-0.13162299 -0.12403184 0.041941527 -0.10340733 0.09460069 -0.07270489 -8.419815e-08 -0.057435375
0.06760577 -0.02410807 0.0620802 0.004172374 0.09001165 -0.00035165244 0.0283589 0.038081564
0.09230124 -0.00019829326 0.03209731 0.09903652 0.095857166 0.09057701 -0.070716776 -0.047367606
0.110515654 -0.028248396 0.021172406 -1.1821834e-06 0.0008009878 0.05699296 -0.04908525 -0.02247445
0.079567276 -0.002734387 -0.010049172 -0.08834117 -0.094527 -0.03809354 -0.107879296 -0.10827279
0.041730575 -0.07174713 -0.027795956 -0.030416053 -0.10952511 0.029622821 -0.017680248 0.01444726
-0.029924396 -0.08943412 -0.059957813 0.10330092 0.021834899 -0.05431632 -0.07449481 -0.015832048
5.0564132e-08 1.5659397e-08 -0.06550665 -0.022554237 -0.10216015 -0.042956404 0.023934405 0.10247771
-0.13718891 -0.0020248229 -0.07073044 0.0934018 0.120512776 0.07415004 -3.0356248e-17 -0.11716418
-0.12133537 0.08626663 0.12412465 -0.013364833 0.078495584 -0.020027548 -0.011812452 -0.06481027
0.10648731 -0.012190094 0.090200506 0.02965601 -0.053180557 0.08539608 -0.011465155 0.037459787
-0.04819817 0.058804642 0.04765669 1.9200106e-09 -0.027051272 -0.085480735 -0.096094735 0.046036858
-0.005797103 -0.06084137 -0.04144637 0.0828856 0.042610817 0.027465705 0.041337393 -0.032405023
0.06220805 0.00808157 -0.03072096 -0.015349453 -0.070303 0.0015633436 -0.0034526375 0.06586956
0.09184565 -0.015151265 0.098574094 -0.070165835 0.067341 0.037401415 0.05871365 -0.011703978
0.07863307 -6.3083785e-17 0.026161505 0.0064236918 0.13313487 -0.044614505 -0.01260762 0.11155398
-0.107424475 -0.07315478 -0.106369644 -0.008525712 -0.022312857 0.11929471 6.7129875e-08 0.013970738
0.10014521 0.099977635 -0.07471881 -0.040361088 -0.048720047 -0.07279501 -0.0052923462 0.07792457
-0.042611964 0.075362585 0.0999524 -0.07954024 -0.10686141 0.11686681 0.097095266 -0.063632816
-0.11298324 0.059353624 -0.10206924 0.029340189 0.07960353 0.11216506 0.044572666 0.12241318
0.099752955 0.043121535 -0.053097937 0.14918126 0.12486577 -0.0593165 -0.019704396 -0.0487852
-0.05766757 -0.002464154 0.110812224 -0.0761459 -0.0006965983 0.01567697 0.051592946 -0.049019653
0.008530783 0.07652429 -0.026394853 0.073688075 0.01870831 0.014281942 -0.10736639 -0.06729115
3.475075e-05 -2.1505864e-05 0.10642111 -0.056736477 0.092587285 -0.07748613 0.008921664 -0.09134447
0.002521088 -0.12031526 0.044495095 -0.09907628 0.008294228 -0.004216698 2.5855262e-09 0.015001253
-0.022483658 -0.040371746 -0.07138951 -0.020744981 0.069123276 -0.0022507359 -0.09838717 -0.113292426
-0.056982256 -1.150163e-14 0.1230827 0.12434389 0.071329504 0.09224435 -0.09184715 0.09608173
-0.10854559 -0.06269378 -0.018194225 3.414527e-17 0.111060776 0.00124539 0.023478754 0.067651734
-0.029386852 0.079406455 0.094208136 -0.11660593 -0.011281234 0.03756721 0.08358294 -0.033124737
0.08921021 0.037624124 0.10541113 0.032778993 0.016969789 -0.07320534 0.011748999 -0.0824488
00000000: 49d1 f2bd f3cb f8bd c675 7dbd 395d 923d
00000010: 8a80 cd3d b375 0abd 47e6 aabc b1e2 b33d
00000020: 8574 81b6 cb85 0138 4a61 dfbb 6a48 d6bc
00000030: 5e00 a53d 39e3 f5bc d1eb 8d3c 9fd3 343d
00000040: 2dc8 06be 6804 febd e1ca 2b3d 39c7 d3bd
00000050: 02be c13d 4de6 94bd 6cd0 b4b3 5b41 6bbd
00000060: e574 8a3d 4a7e c5bc cf47 7e3d 69b8 883b
00000070: 0758 b83d fe5d b8b9 ed50 e83c 6afb 1b3d
00000080: 6f08 bd3d f1ec 4fb9 7878 033d a9d3 ca3d
00000090: c350 c43d 7080 b93d f5d3 90bd 8904 42bd
000000a0: 0856 e23d 2e69 e7bc c171 ad3c 83ab 9eb5
000000b0: 62f9 513a 7371 693d 9d0d 49bd 561c b8bc
000000c0: 2bf4 a23d 6733 33bb 48a5 24bc 37ec b4bd
000000d0: 5f97 c1bd f907 1cbd d2ef dcbd 20be ddbd
000000e0: aeed 2a3d 29f0 92bd 58b4 e3bc 162b f9bc
000000f0: b34e e0bd 8fab f23c 2bd6 90bc 33b4 6c3c
00000100: 0224 f5bc 3c29 b7bd 5396 75bd 6f8f d33d
00000110: 1adf b23c ca7a 5ebd bc90 98bd 36b2 81bc
00000120: da2b 5933 6183 8632 5a28 86bd aac3 b8bc
00000130: 5739 d1bd 0ef3 2fbd 1612 c43c d5df d13d
00000140: 407b 0cbe e4b2 04bb 1fdb 90bd 7149 bf3d
00000150: 67cf f63d fadb 973d 55fe 0ba4 c6f3 efbd
00000160: ae7e f8bd 8fac b03d 1135 fe3d 2cf8 5abc
00000170: 4bc2 a03d d010 a4bc 0489 41bc 3fbb 84bd
00000180: 0516 da3d f6b8 47bc 0bbb b83d 29f1 f23c
00000190: dbd3 59bd 24e4 ae3d 58d8 3bbc 6f6f 193d
000001a0: 726b 45bd 23dd 703d a933 433d 2ff1 0331
000001b0: a19a ddbc 8610 afbd 51cd c4bd 2591 3c3d
000001c0: a0f5 bdbb cd34 79bd abc3 29bd edbf a93d
000001d0: ae88 2e3d c2ff e03c 6651 293d 21bb 04bd
000001e0: decd 7e3d 9068 043c 86aa fbbc 467c 7bbc
000001f0: 05fb 8fbd 1be9 cc3a a545 62bb 9fe6 863d
00000200: 9219 bc3d 033d 78bc 37e1 c93d 1bb3 8fbd
00000210: 14ea 893d 3a32 193d b97d 703d 0bc2 3fbc
00000220: 600a a13d 1876 91a4 a750 d63c d57d d23b
00000230: 8254 083e b3bd 36bd 3190 4ebc 6a76 e43d
00000240: 5d01 dcbd 2cd2 95bd 54d8 d9bd 6eaf 0bbc
00000250: 74c9 b6bc c950 f43d 0a29 9033 86e5 643c
00000260: ef18 cd3d 13c1 cc3d 2d06 99bd ab51 25bd
00000270: ac8e 47bd 8d15 95bd 6b6b adbb eb96 9f3d
00000280: e289 2ebd b357 9a3d d8b3 cc3d fee5 a2bd
00000290: 28da dabd de57 ef3d e2d9 c63d ec51 82bd
000002a0: c263 e7bd c91c 733d ad09 d1bd d65a f03c
000002b0: 2d07 a33d ccb6 e53d d491 363d c3b3 fa3d
000002c0: 474b cc3d 35a0 303d 397d 59bd f9c2 183e
000002d0: a0b9 ff3d dcf5 72bd 1d6b a1bc fdd2 47bd
000002e0: d434 6cbd a57d 21bb 85f1 e23d 62f2 9bbd
000002f0: ec9b 36ba fd6c 803c 2053 533d d5c8 48bd
00000300: b2c4 0b3c c4b8 9c3d 053a d8bc c6e9 963d
00000310: 2b42 993c cefe 693c e9e2 dbbd f1cf 89bd
00000320: 55c1 1138 7e67 b4b7 50f3 d93d 8264 68bd
00000330: 679e bd3d 0cb1 9ebd 2c2c 123c cf12 bbbd
00000340: d738 253b d967 f6bd 7d40 363d 81e8 cabd
00000350: 84e4 073c 3a2c 8abb 0fad 3131 d1c7 753c
00000360: a62f b8bc d85c 25bd aa34 92bd 61f1 a9bc
00000370: 8190 8d3d 1581 13bb 367f c9bd dc05 e8bd
00000380: 3a66 69bd e831 4fa8 c812 fc3d 02a8 fe3d
00000390: 3415 923d 9bea bc3d 5c1a bcbd 80c6 c43d
000003a0: 264d debd 9965 80bd 0e0c 95bc 9f77 1d24
000003b0: d573 e33d 5b3c a33a 8456 c03c fe8c 8a3d
000003c0: b2bc f0bc da9f a23d 32f0 c03d 17cf eebd
000003d0: edd4 38bc 13e0 193d 882d ab3d cead 07bd
000003e0: d8b3 b63d c11b 1a3d cae1 d73d 4443 063d
000003f0: 3a04 8b3c aeec 95bd e07e 403c ebda a8bd

encoder.mlp.2.bias f4 [128]
0.025215942 -0.0786548 -0.00087083527 -0.0824829 -0.09418829 0.005803746 -0.054619674 -0.0017920161
-1.4831345e-07 1.26586626e-17 -0.07715288 -3.9384968e-08 -0.047312662 0.016270045 0.07299002 0.028032083
-0.03687326 0.053041182 -1.4011015e-13 -0.079219565 0.07390403 0.006302577 0.01573612 0.061065704
0.040325787 0.07637548 0.015186534 -0.027578032 0.03818163 -0.015518449 0.060349446 0.04998316
0.0038151098 -0.07721659 0.02900279 -6.6684938e-09 0.08381005 -0.006784715 3.331497e-08 -0.08001554
-0.023557985 0.08691682 0.056600563 0.1098265 -0.058183286 -0.023821725 0.016273135 -0.0781121
0.007884234 0.016432121 0.029088624 -0.081129596 -4.10087e-08 0.027064977 -0.039115936 4.2003684e-12
-0.003929938 -1.4860958e-05 0.031876102 -0.023251975 0.056038756 -0.056267194 0.0025339476 0.045267742
0.07502477 0.04827908 0.04367561 0.007688157 -0.0050990437 0.06663535 0.06856315 0.001448692
-0.009284998 -0.06422373 0.06945943 0.0663068 -0.04459612 -0.016380163 0.06600718 -2.3217432e-09
0.032716583 -0.012178278 -0.037474692 0.07338487 0.0083018225 0.0018354749 -0.032940716 0.022684563
-0.07453193 -0.03263245 0.07943951 -0.0767376 0.026879853 -0.006007882 -0.07968338 -0.01876501
0.07056597 0.021108339 0.08571705 -0.10779857 0.100070275 0.03958109 0.029862745 -0.054260664
-0.07342537 -0.08401044 0.0152445035 0.09481084 -0.004133551 -0.012295646 0.05616026 -0.07481897
0.017667035 0.043856733 -0.032175142 -0.0767083 0.040728822 1.4138749e-06 0.05734703 -0.018913554
-0.04033764 0.048077833 -0.06546514 0.07419822 0.07351051 0.08934129 0.011689968 0.02942635
00000000: aa91 ce3c c515 a1bd c448 64ba cbec a8bd
00000010: cae5 c0bd 5a2d be3b e1b8 5fbd 15e2 eaba
00000020: 1740 1fb4 d882 6923 5402 9ebd 3b28 29b3
00000030: ecca 41bd c248 853c cb7b 953d 8aa3 e53c
00000040: 6a08 17bd b641 593d 00c0 1daa de3d a2bd
00000050: ff5a 973d d985 ce3b 09e9 803c 0820 7a3d
00000060: a72c 253d bf6a 9c3d f1d0 783c 53eb e1bc
00000070: 5764 1c3d 1841 7ebc fb30 773d 24bb 4c3d
00000080: ec06 7a3b bb23 9ebd 4297 ed3c b120 e5b1
00000090: 9aa4 ab3d 5152 debb 3216 0f33 30df a3bd
000000a0: adfc c0bc 7201 b23d fed5 673d b7ec e03d
000000b0: 9951 6ebd c725 c3bc 3d4f 853c 3df9 9fbd
000000c0: e02c 013c a89c 863c 444b ee3c 4627 a6bd
000000d0: 8b21 30b3 5fb7 dd3c 0838 20bd 8ec9 932c
000000e0: b6c6 80bb 5453 79b7 8490 023d ed7a bebc
000000f0: e588 653d 6e78 66bd 9610 263b ab6a 393d
00000100: 96a6 993d 49c0 453d 32e5 323d efec fb3b
00000110: e115 a7bb 1d78 883d d66a 8c3d 0ae2 bd3a
00000120: 1b20 18bc bb87 83bd bf40 8e3d dccb 873d
00000130: 6caa 36bd b12f 86bc c62e 873d 8a8c 1fb1
00000140: d301 063d 6687 47bc 107f 19bd cf4a 963d
00000150: 5e04 083c 5194 f03a d8ec 06bd fad4 b93c
00000160: 32a4 98bd 9ba9 05bd 2fb1 a23d 9a28 9dbd
00000170: 2333 dc3c c4dd c4bb 0a31 a3bd 14b9 99bc
00000180: e484 903d 65eb ac3c 6c8c af3d 7fc5 dcbd
00000190: a5f1 cc3d c81f 223d b7a2 f43c 6e40 5ebd
000001a0: 0a60 96bd aa0d acbd 15c4 793c 302c c23d
000001b0: bd72 87bb ad73 49bc 4d08 663d b03a 99bd
000001c0: 75ba 903c 1ea3 333d 15ca 03bd 3e19 9dbd
000001d0: 44d3 263d 5fc4 bd35 b8e4 6a3d 99f0 9abc
000001e0: 1539 25bd 43ed 443d 9612 86bd 3df5 973d
000001f0: ae8c 963d 91f8 b63d 4887 3f3c 870f f13c

encoder.mlp.4.weight f4 [256, 128]
0.022380725 0.062910825 -0.018500939 0.0014901059 0.07936156 -0.04337074 0.036927424 0.04454153
7.4581076e-05 -1.2710721e-15 -0.018497782 -1.8439998e-17 -0.06921634 -0.09402483 0.049315926 0.06467005
-6.2990072e-18 -1.42015e-07 7.7145445e-17 0.011453358 -6.0529208e-05 2.9515996e-07 -0.08755095 0.04761027
0.039321646 0.091559574 -0.0738694 -0.012316212 0.0008554113 0.062461298 0.024836026 0.01025358
-9.0916386e-09 -0.060299072 -3.186073e-08 8.438711e-08 -0.06484708 -0.06600212 -5.84769e-17 -0.041442655
0.05275661 -0.07927781 -0.061879218 -0.06875133 -0.088587366 -0.034955047 0.060203586 -0.08129606
4.30805e-17 -0.008495998 -0.0016263098 0.07867615 -4.931223e-09 0.03507138 0.055390928 1.5446662e-05
0.056543015 0.00021143461 -0.005873768 -0.034522545 -0.016073812 3.6730567e-16 7.600027e-14 0.041288204
-0.034461018 -0.02079415 -3.3466987e-09 -0.06279501 0.008301136 -0.014520438 0.08774073 -3.2704783e-17
-2.3412624e-05 0.04904064 5.5270873e-18 0.05568494 0.017857261 -0.01370829 -0.08739137 -0.000114631686
0.035981864 0.0016494349 -0.029687654 -0.06821725 -0.038273156 -8.871903e-17 -0.073284656 -1.05386255e-14
-0.04313927 -1.3305013e-13 0.047167975 -0.05701699 -7.908518e-18 0.043398686 0.02307063 0.08706444
0.08485203 -5.827474e-08 -3.431587e-16 0.049848612 -0.03496125 0.07903942 0.03644137 -0.015456184
0.007915372 0.078973785 -0.010576241 0.048668776 0.020378169 -0.015274663 0.03425711 -0.041848168
1.7431556e-17 -1.35105825e-17 -0.005302272 -0.06382294 1.6570675e-05 2.1982323e-09 -0.073456705 -0.03918758
-5.713646e-14 0.05136817 -0.049696937 -0.018619146 0.000514867 0.06800032 -1.1943898e-06 -0.036170006
8.524152e-17 -1.724476e-15 0.01170317 -0.026401406 -1.00757624e-08 0.0020018013 -0.0018786485 0.003236047
-5.0278907e-16 -6.437874e-18 0.02241993 4.0416812e-17 -0.012708014 -0.018102651 -0.00028558815 0.004467944
0.015063663 0.0020035051 -2.9537104e-17 3.4040325e-17 0.019061206 -0.0040691267 0.013887122 1.4096277e-15
0.052516617 1.8245754e-16 0.002393784 0.0085848635 0.012256357 -0.04414161 0.013892358 -0.027701322
0.008749369 0.03744815 -0.000674076 -2.329423e-19 0.01565415 0.018010871 -1.4742936e-10 -0.04408505
-0.025520077 -0.001916911 -0.019624854 -0.0016072103 2.8213523e-17 0.016277255 -5.1742204e-12 0.050210904
0.007865011 1.3337114e-18 0.0034191427 -0.016435942 -1.3777297e-09 0.013562659 5.7183978e-09 -2.291765e-13
-0.011614962 -3.2468917e-05 -0.0037643528 0.0010411178 0.00041752617 7.8785425e-16 -6.3657056e-16 0.0074262014
0.028950498 -0.020311797 0.006715596 -0.04326202 0.010279883 -0.020323 8.3364433e-17 -0.03422577
0.019506795 0.0001725208 0.0062832152 0.00022024346 0.0021502723 0.0059051164 -0.031651005 1.7897004e-17
0.005475617 0.005954714 0.0048269643 0.0027452034 -0.0115185315 -0.0008334105 -0.04817025 0.016748702
-0.010599295 0.0032645578 -0.04971398 -0.013202926 0.017590309 -0.0026449428 8.804786e-17 0.0092731705
-0.0007184113 0.016995378 0.008879488 -0.040143486 -0.010316853 -0.006114228 -7.352369e-17 0.04092628
1.060208e-09 -0.03677891 0.010970965 -0.04016121 0.0019597872 -0.013050501 -8.044899e-18 -0.012653806
-0.0098089855 -0.010953457 -0.012882224 -0.041854043 -5.744846e-07 1.1664734e-17 0.00022672804 4.3717582e-10
-0.019937653 0.020425558 -0.00894935 0.0024381562 0.019002214 -0.0027622674 -0.02626062 0.00051192794
00000000: c857 b73c 64d7 803d 488f 97bc a84f c33a
00000010: 5088 a23d 84a5 31bd 3641 173d 2e71 363d
00000020: 6968 9c38 492e b7a6 a988 97bc 3714 aaa3
00000030: 4cc1 8dbd 1790 c0bd 7fff 493d bb71 843d
00000040: 7164 e8a2 c97c 18b4 a2e2 b124 dea6 3b3c
00000050: bee0 7db8 7a76 9e34 ea4d b3bd fd02 433d
00000060: bc0f 213d 9683 bb3d d748 97bd f0c9 49bc
00000070: ae3d 603a 6bd7 7f3d ec74 cb3c a2fe 273c
00000080: 7331 1cb2 29fc 76bd 3ed7 08b3 4e38 b533
00000090: 8cce 84bd 1f2c 87bd abd6 86a4 c6bf 29bd
000000a0: 5117 583d 685c a2bd 1075 7dbd 7fcd 8cbd
000000b0: 4b6d b5bd 062d 0fbd 0998 763d 8c7e a6bd
000000c0: 7aac 4624 cc32 0bbc e729 d5ba f620 a13d
000000d0: 7f6f a9b1 02a7 0f3d 99e1 623d 7493 8137
000000e0: a699 673d 8cb4 5d39 bd78 c0bb 8367 0dbd
000000f0: 3aad 83bc c0bc d325 2c23 ab29 d21d 293d
00000100: ff26 0dbd 7e58 aabc bffb 65b1 ac9a 80bd
00000110: 7d01 083c 22e7 6dbc 69b1 b33d fed2 16a4
00000120: 3a66 c4b7 d7de 483d dde9 cb22 e415 643d
00000130: 6449 923c bc98 60bc 3ffa b2bd 6b66 f0b8
00000140: b861 133d da31 d83a 8633 f3bc 7cb5 8bbd
00000150: 50c4 1cbd 7992 cca4 4416 96bd d5d8 3da8
00000160: ceb2 30bd 17cd 15aa 3533 413d a68a 69bd
00000170: ece2 11a3 d2c2 313d 9efe bc3c d74e b23d
00000180: e7c6 ad3d c149 7ab3 49d1 c5a5 0f2e 4c3d
00000190: 8733 0fbd 6bdf a13d 8c43 153d ef3b 7dbc
000001a0: 7aaf 013c 02bd a13d f847 2dbc e958 473d
000001b0: 1ef0 a63c 9542 7abc 2f51 0c3d fc68 2bbd
000001c0: 19c7 a023 ec39 79a3 aebe adbb 9ab5 82bd
000001d0: 4101 8b37 b60f 1731 7870 96bd 2883 20bd
000001e0: eda8 80a9 6e67 523d 048f 4bbd 2e87 98bc
000001f0: 24f8 063a c043 8b3d ec4e a0b5 0027 14bd
00000200: b68d c424 ef85 f8a6 a7be 3f3c c347 d8bc
00000210: ac19 2db2 a730 033b fc3c f6ba dc13 543b
00000220: 49eb 10a6 0084 eda2 00aa b73c c063 3a24
00000230: 4635 50bc 034c 94bc feba 95b9 d567 923b
00000240: 95cd 763c 3d4d 033b 4237 08a4 b9fb 1c24
00000250: 3f26 9c3c 4f56 85bb d086 633c 1526 cb26
00000260: aa1b 573d f65b 5225 08e1 1c3b 87a7 0c3c
00000270: e3ce 483c d5cd 34bd c69c 633c e2ed e2bc
00000280: 8359 0f3c 3b63 193d 7ab4 30ba 3f81 89a0
00000290: 223d 803c 898b 933c ad19 22af 8692 34bd
000002a0: 7b0f d1bc dc40 fbba 4dc4 a0bc 07a9 d2ba
000002b0: a61c 0224 e157 853c 3c0d b6ac f3a9 4d3d
000002c0: 3fdc 003c 31d2 c421 b213 603b aba4 86bc
000002d0: 8e5a bdb0 ea35 5e3c 8f7b c431 d003 81aa
000002e0: ae4c 3ebc 3c2f 08b8 5cb3 76bb 1e76 883a
000002f0: 6ae7 da39 6215 6326 9e7a 37a6 7e57 f33b
00000300: 9829 ed3c ed64 a6bc 810e dc3b 8433 31bd
00000310: f46c 283c 6c7c a6bc ad39 c024 5230 0cbd
00000320: b7cc 9f3c b3e6 3439 6ee3 cd3b 27f1 6639
00000330: 95eb 0c3b b57f c13b 7ca4 01bd 1b12 a523
00000340: ce6c b33b c31f c33b 832b 9e3b dfe8 333b
00000350: 39b8 3cbc 3b79 5aba 2b4e 45bd 9334 893c
00000360: aaa8 2dbc 31f2 553b e3a0 4bbd 1651 58bc
00000370: 8d19 903c c756 2dbb 4806 cb24 7fee 173c
00000380: c453 3cba e439 8b3c 467b 113c 7f6d 24bd
00000390: 0508 29bc dd59 c8bb ba88 a9a4 51a2 273d
000003a0: c1b6 9130 7ba5 16bd 90bf 333c 1580 24bd
000003b0: c66f 003b c5d1 55bc f666 14a3 e951 4fbc
000003c0: deb5 20bc 2176 33bc f70f 53bc 256f 2bbd
000003d0: 4836 1ab5 262d 5723 d8bd 6d39 0757 f02f
000003e0: 4a54 a3bc 8053 a73c 4ba0 12bc 79c9 1f3b
000003f0: 88aa 9b3c 2807 35bb 8320 d7bc e732 063a

encoder.mlp.4.bias f4 [256]
-0.057264026 0.011309917 0.061799295 -0.002198885 -0.045416728 -0.022078207 0.050701883 0.011924493
0.005019343 -0.046981264 -0.053073954 0.035950918 0.034916006 9.42902e-09 -0.030986534 -0.04616798
0.0776023 -0.03915135 -9.2557666e-17 -1.0253838e-09 0.027677422 0.064009346 0.046045456 0.050348047
0.02608968 0.00035838233 -0.044219356 8.700445e-17 0.014376987 -0.035532653 -0.05377112 -0.025698079
0.010666831 -0.045448486 -0.05827922 0.056797188 0.008968274 0.006918251 0.021737196 0.062742926
-0.01207144 0.042632055 -0.029529706 -0.010744643 0.009978955 0.030369908 -1.6527771e-15 0.01080479
0.042253662 0.059427742 -5.9424033e-06 0.059809588 0.021043573 -0.024569621 -0.04920338 0.011493933
-0.0747288 0.0016918562 1.7147456e-17 -0.0012268728 0.059733074 1.2714528e-08 -1.5287335e-17 0.062117226
0.014105842 0.011384539 0.04839493 -0.010917859 -0.013113137 0.09207775 -2.5378202e-07 0.0013614867
0.011936357 0.054906555 -0.053201705 -0.014675633 -0.034140266 -8.210095e-13 0.0035608623 1.7359183e-17
-0.02807324 -0.04972561 -0.059302945 0.04265835 0.07125311 -0.03157247 0.055666484 0.029571073
-0.007735861 -0.07354893 -0.03832285 0.03510459 -0.0013393158 0.018929148 0.0045987116 -0.07086195
-0.014078547 -0.054025523 -0.06332081 -0.004453904 -0.022195112 -0.020777734 -0.054437693 -0.004625124
-0.020630844 0.0006966803 -0.019610792 -0.04356943 0.05072246 -0.00048633004 -0.05281321 0.019812956
-0.077883884 0.03629696 -0.029935228 -0.020323006 -6.8057084e-09 0.036060393 -0.016891591 -0.019897532
-0.012584291 0.04437336 -0.022209577 0.019966748 -0.03899723 0.0614155 0.056328904 0.01207793
-0.009052448 0.032057956 0.0054984787 -0.021066604 -0.00022404619 -0.0054550385 0.007825241 -5.534036e-11
-0.039702676 0.0061421506 0.0020253852 0.011145724 -0.0057637217 -0.015778333 0.016165704 -0.020512229
0.017450029 -0.051909458 -0.0026727496 0.033724386 0.005728436 0.0043853316 -0.0074710185 -0.011787755
0.040957086 -0.035114646 -0.014328994 -9.39703e-09 0.02296827 -0.05227058 -0.0015655839 0.0149261365
0.01196757 4.1664706e-16 0.016548978 0.019564424 0.0028960898 -0.035901494 -0.010887808 -0.0014676264
0.006550119 -0.04189836 -0.0727172 0.050051194 -0.06406691 -0.055809736 0.027671982 -0.053183258
0.01441636 -0.028938226 0.04671366 0.016311577 0.070368774 -0.041783135 -0.00028974918 0.055145077
0.034997612 0.025299747 0.02869586 0.041447315 0.051371075 0.066451915 -0.0002238971 0.063879624
-0.04206783 0.0046685324 -6.629492e-17 0.05697708 0.017300949 -0.03982657 0.033060405 0.012057512
-0.048105046 -0.029886298 0.018488236 0.027461419 -0.009586233 0.020419462 0.06118657 -0.015107006
6.525572e-11 0.035266552 0.0056589344 -0.01239517 2.159874e-12 0.06942161 -0.0046794396 -0.00068537076
0.052410066 0.008862579 -0.0545181 1.9717837e-18 4.6096828e-18 0.04569737 -0.044943724 -1.699108e-10
0.07137724 -0.048609745 -0.026546435 -0.0020756228 0.028449235 -0.04168748 -5.163769e-09 -3.53082e-17
0.031262334 0.029520307 0.0666716 -0.020596426 -0.011033825 -0.020309435 0.026592491 0.063349135
-0.046231035 0.059565336 0.029100668 -0.0006356677 0.031140625 -0.05523565 0.04291424 0.061135486
0.06451939 -0.021440243 0.012852865 0.027014397 0.037352107 0.06466927 -0.036672506 -0.043066837
00000000: af8d 6abd 3b4d 393c 4221 7d3d 2b1b 10bb
00000010: e406 3abd 5bdd b4bc c7ac 4f3d f35e 433c
00000020: 4d79 a43b 6d6f 40bd 1364 59bd 4541 133d
00000030: 1604 0f3d 45fd 2132 79d7 fdbc a31a 3dbd
00000040: f4ed 9e3d 2a5d 20bd 676c d5a4 7ced 8cb0
00000050: c3bb e23c 5517 833d 299a 3c3d c139 4e3d
00000060: 06ba d53c 43e5 bb39 5b1f 35bd 5d9e c824
00000070: 748d 6b3c b08a 11bd 1b3f 5cbd c784 d2bc
00000080: efc3 2e3c 3128 3abd 31b6 6ebd 2ba4 683d
00000090: abef 123c 7fb2 e23b 3412 b23c 5d7f 803d
000000a0: 4ac7 45bc f39e 2e3d 48e8 f1bc 4d0a 30bc
000000b0: c57e 233c 50ca f83c b630 eea6 9306 313c
000000c0: 2d12 2d3d 816a 733d db64 c7b6 e6fa 743d
000000d0: 9263 ac3c 3b46 c9bc 7c89 49bd 0d51 3c3c
000000e0: 6a0b 99bd 46c1 dd3a 4928 9e23 05cf a0ba
000000f0: abaa 743d 166f 5a32 3300 8da3 a26e 7e3d
00000100: 311c 673c 3886 3a3c c339 463d d2e0 32bc
00000110: 7cd8 56bc 4293 bc3d 893f 88b4 ea73 b23a
00000120: b690 433c b2e5 603d 08ea 59bd 1172 70bc
00000130: aad6 0bbd f817 67ab 5b5d 693b 361c a023
00000140: daf9 e5bc 15ad 4bbd a5e7 72bd 86ba 2e3d
00000150: 27ed 913d 2252 01bd 8a02 643d 093f f23c
00000160: 1b7d fdbb d2a0 96bd 6cf8 1cbd d5c9 0f3d
00000170: fb8b afba 4d11 9b3c cab0 963b 1220 91bd
00000180: b5a9 66bc de49 5dbd 57ae 81bd 0ef2 91bb
00000190: 86d2 b5bc 1136 aabc 0ffa 5ebd 5a8e 97bb
000001a0: 0402 a9bc 6ca1 363a d0a6 a0bc dc75 32bd
000001b0: 5bc2 4f3d 1dfa feb9 aa52 58bd c84e a23c
000001c0: 9681 9fbd 1fac 143d b93a f5bc 6f7c a6bc
000001d0: a5d7 e9b1 10b4 133d 3c60 8abc 2600 a3bc
000001e0: 582e 4ebc d7c0 353d dcf0 b5bc 4e91 a33c
000001f0: 8fbb 1fbd d28e 7b3d 23b9 663d 83e2 453c
00000200: b850 14bc 344f 033d 952c b43b df93 acbc
00000210: f1ed 6ab9 2ec0 b2bb 7135 003c b563 73ae
00000220: 469f 22bd 1844 c93b 53bc 043b 8e9c 363c
00000230: 9add bcbb 9041 81bc f06d 843c 4309 a8bc
00000240: 5df3 8e3c 039f 54bd 4c29 2fbb 9522 0a3d
00000250: 9bb5 bb3b d4b2 8f3b 72cf f4bb 6e21 41bc
00000260: 9ec2 273d 60d4 0fbd 28c4 6abc 9370 21b2
00000270: f427 bc3c ad19 56bd 4734 cdba c18c 743c
00000280: a013 443c 412e f025 b991 873c 9245 a03c
00000290: 53cc 3d3b 720d 13bd c762 32bc 5f5d c0ba
000002a0: 61a2 d63b 9d9d 2bbd c1ec 94bd 7b02 4d3d
000002b0: 8335 83bd c098 64bd 5ab0 e23c b0d6 59bd
000002c0: 9932 6c3c dc0f edbc d356 3f3d db9f 853c
000002d0: 811d 903d cb24 2bbd 7ae9 97b9 cedf 613d
000002e0: a859 0f3d 6a41 cf3c 9513 eb3c a9c4 293d
000002f0: 7a6a 523d f117 883d ecc5 6ab9 52d3 823d
00000300: 514f 2cbd 7dfa 983b 9ddd 98a4 cc60 693d
00000310: b8ba 8d3c 2f21 23bd 596a 073d df8c 453c
00000320: cc09 45bd 1cd4 f4bc a474 973c c5f6 e03c
00000330: 930f 1dbc b746 a73c c59e 7a3d 6083 77bc
00000340: b47f 8f2e a973 103d 956e b93b 1c15 4bbc
00000350: d5fc 172c eb2c 8e3d fc55 99bb 74aa 33ba
00000360: f0ab 563d 5a34 113c 5f4e 5fbd f17d 1122
00000370: 3911 aa22 2a2d 3b3d e916 38bd a3d1 3aaf
00000380: 3b2e 923d 031b 47bd e977 d9bc 2c07 08bb
00000390: 5f0e e93c 7ec0 2abd fe6c b1b1 91d4 22a4
000003a0: ef0c 003d 92d4 f13c 1f8b 883d d6b9 a8bc
000003b0: 37c7 34bc f95f a6bc 7fd8 d93c 31bd 813d
000003c0: c15c 3dbd c8fa 733d 8664 ee3c f0a2 26ba
000003d0: a01a ff3c c73e 62bd d8c6 2f3d 3469 7a3d
000003e0: be22 843d 73a3 afbc d394 523c 4c4d dd3c
000003f0: 86fe 183d 5271 843d e935 16bd da66 30bd

pos_mlp.0.weight f4 [32, 1]
0.00024027567 -0.36930057 0.9926966 -0.5939865 0.8344952 0.03496331 1.0713142 -0.8375728
-0.2878994 0.74422526 -0.20798658 0.7332428 -0.57241046 -0.09681057 -0.091445774 0.6259909
-0.07853474 -1.012456 0.83830935 7.676068e-10 0.12956509 -0.00019255538 0.028725911 0.5617794
-0.562906 -0.12819952 0.7887303 0.68941325 0.88691235 0.8025106 0.52212304 -0.40295386
00000000: 82f2 7b39 f714 bdbe 5d21 7e3f 800f 18bf
00000010: 7aa1 553f b035 0f3d d320 893f 2c6b 56bf
00000020: 8d67 93be 8c85 3e3f 6ffa 54be cdb5 3b3f
00000030: 7e89 12bf 9f44 c6bd ec47 bbbd f140 203f
00000040: d2d6 a0bd 2998 81bf 719b 563f 87ff 5230
00000050: b6ac 043e b1e8 49b9 9a52 eb3c c6d0 0f3f
00000060: 9c1a 10bf bc46 03be 3bea 493f 637d 303f
00000070: b00c 633f 5671 4d3f dba9 053f f84f cebe

pos_mlp.0.bias f4 [32]
-0.10675141 0.24469347 0.092672035 0.43157998 -0.014763483 -0.2637435 -0.42165208 0.9202708
-2.62093e-06 0.31618267 0.9465821 -0.41144392 0.6277742 -0.11915791 -0.019915262 0.56601006
-1.7440799e-11 0.8740241 0.07896985 -0.17564955 0.8863281 -0.0022463002 -0.2488658 0.09551259
0.63811374 -0.08062962 0.92316276 0.1581488 0.36576667 -0.48338947 0.011263292 -0.05049055
00000000: 7ca0 dabd ed90 7a3e d6ca bd3d 0df8 dc3e
00000010: 89e2 71bc 6309 87be c8e2 d7be de96 6b3f
00000020: 3ce3 2fb6 b2e2 a13e 3453 723f c7a8 d2be
00000030: cfb5 203f 1009 f4bd 5525 a3bc 09e6 103f
00000040: 3069 99ad 0bc0 5f3f f2ba a13d 7add 33be
00000050: 66e6 623f aa36 13bb add6 7ebe 1b9c c33d
00000060: 6c5b 233f 2421 a5bd 6554 6c3f c2f1 213e
00000070: c545 bb3e d37e f7be ac89 383c 2ecf 4ebd

pos_mlp.2.weight f4 [32, 32]
-1.7980898e-06 -0.000113915055 -0.0006003048 0.00021392484 -3.2990254e-08 1.0335037e-17 -3.3827877e-05 -1.519216e-16
0.00022283525 0.00034233075 -0.00062296644 0.00046809384 0.00038295847 1.2817954e-06 -0.00016412292 0.00024945854
0.00011704864 -6.348354e-16 -1.9349125e-05 4.4512702e-18 1.3109856e-10 -0.00018855499 4.6754666e-12 5.032562e-12
-6.3354345e-17 6.1177348e-06 -0.00016414019 -5.4715144e-14 -0.00066375954 -1.281097e-17 -0.00022229947 0.00034011112
-0.00040954637 -0.261936 0.065019816 -0.28948516 0.14198363 4.2189317e-18 0.023310142 -0.1487116
-9.109437e-18 0.28842455 -0.14107567 0.07950445 -0.10557906 5.595458e-05 -9.887102e-13 0.032299437
4.155947e-05 -0.14865145 0.24590789 -6.2478717e-13 0.196649 -0.000510671 -8.472737e-05 0.032491304
-0.11643502 1.571734e-08 0.08783466 0.25123382 0.26135567 0.075615846 -0.0018409664 -0.00039666108
7.104719e-06 -0.07013976 0.22449963 -0.22159466 0.2559511 -3.9701168e-05 0.19915424 0.014708652
5.884135e-06 0.13322996 0.063740164 0.051022265 -0.25072435 -1.0436435e-17 -2.349321e-06 0.08217524
-1.5714523e-17 -0.3113782 0.33035538 7.4303265e-05 0.13564387 -4.2154617e-18 1.0080001e-17 0.24387118
0.011139553 -6.644799e-05 0.09695102 0.28652582 0.030384835 0.1248593 0.019430859 -5.849011e-18
-1.7098953e-17 -0.2743885 0.20347579 -0.045413792 0.16510901 -0.00039395745 0.2733701 0.014719644
-4.956736e-10 0.26603168 -0.013730604 0.08740898 -0.24438238 -4.408463e-12 -9.616856e-06 0.03800644
-4.321873e-10 0.002233496 0.007869768 4.5590436e-18 0.11894137 -7.238161e-18 1.1938093e-06 0.30849925
-0.06283511 -1.8316226e-05 0.23562251 0.026819773 0.24446101 0.08659091 0.19623296 1.8084528e-15
1.6166034e-06 0.04865095 -0.09134847 0.06931283 -0.08171283 3.2134756e-10 -0.054232944 0.06459213
4.477296e-10 -0.037805308 0.045871675 -0.03356644 0.06356403 1.7498278e-18 -5.138871e-12 -0.013507379
2.9058106e-10 0.05953801 -0.06917705 -9.893218e-06 0.057590112 0.0003541665 -1.1173874e-05 -0.06303298
0.06370331 -4.224852e-17 0.004781838 -0.058006283 -0.03972808 -0.03351473 -0.09082821 1.9933004e-06
2.8192877e-14 -4.2022129e-13 -1.2374195e-06 -1.155692e-05 -3.7053364e-17 3.3934151e-19 -0.0003059463 1.795329e-07
-3.468398e-16 7.133834e-18 -1.6316947e-17 5.171005e-06 9.2141966e-07 -2.9991478e-17 1.7782717e-05 -0.0006646234
2.4517276e-06 -1.9972155e-13 -3.1345657e-15 2.8955267e-12 -5.7134152e-06 -6.6078006e-17 0.00014780495 5.1125094e-12
-4.342643e-12 -2.6211424e-06 1.07332485e-13 -6.3106665e-05 7.817874e-10 -6.07745e-17 5.139624e-08 6.594873e-17
9.636646e-08 0.10371098 -0.086083524 0.08582543 -0.0933463 -1.0350245e-06 -0.078288615 0.076528735
3.9137515e-09 -0.05128369 0.058103207 -0.05603072 0.07479002 1.7774204e-05 6.289886e-18 -0.0069400407
-1.5106368e-16 0.08318359 -0.07724506 6.52868e-17 0.030672679 -0.00065072736 -0.00011244459 -0.08046868
0.08705305 -0.000113396985 0.0019362746 -0.10920258 -0.04984937 -0.055804756 -0.089795016 4.5257842e-05
0.00028777766 0.14664672 -0.14044502 0.27189624 -0.30816683 -0.0004957446 -0.23892818 0.04537555
3.968564e-05 0.031092543 0.23237972 -0.07760497 0.25567943 -2.1245437e-18 -1.1788919e-07 0.11189936
-0.0001247829 0.30958107 -0.12194832 2.2840235e-16 0.021106089 -8.032544e-17 -3.2275533e-14 -0.18925457
0.18427208 -7.990448e-18 -0.050178554 -0.03177381 -0.22857755 -0.08878463 -0.13227509 2.2468092e-05
00000000: e555 f1b5 aee5 eeb8 c65d 1dba 0351 6039
00000010: 2bb1 0db3 d5a5 3e23 68e2 0db8 5827 2fa5
00000020: e2a8 6939 db7a b339 924e 23ba 7e6a f539
00000030: d1c7 c839 280a ac35 6918 2cb9 c2c9 8239
00000040: 0378 f538 96fa 36a6 ee4f a2b7 0f39 a422
00000050: f724 102f d8b6 45b9 dc80 a42c 4a11 b12c
00000060: ce15 92a4 f146 cd36 0c1d 2cb9 446a 76a9
00000070: 2600 2eba 1852 6ca3 0f19 69b9 f150 b239
00000080: 62b8 d6b9 7a1c 86be 1c29 853d 6637 94be
00000090: 2864 113e afa6 9b22 e9f4 be3c db47 18be
000000a0: 1a0a 28a3 62ac 933e 2476 10be 3bd3 a23d
000000b0: d639 d8bd c6b0 6a38 0a26 8bab 6a4c 043d
000000c0: 2450 2e38 1638 18be 47cf 7b3e a9dc 2fab
000000d0: 5b5e 493e 8dde 05ba a9af b1b8 9a15 053d
000000e0: 7c75 eebd cc02 8732 a9e2 b33d b8a1 803e
000000f0: 69d0 853e 7bdc 9a3d 954c f1ba f3f6 cfb9
00000100: 1265 ee36 6fa5 8fbd 3be3 653e b6e9 62be
00000110: 060c 833e ce84 26b8 17ef 4b3e 8ffc 703c
00000120: 5670 c536 6f6d 083e 348a 823d b9fc 503d
00000130: f15e 80be ac84 40a3 07a9 1db6 7e4b a83d
00000140: def0 90a3 f76c 9fbe 5724 a93e 43d3 9b38
00000150: 3ae6 0a3e e985 9ba2 75f1 3923 5eb9 793e
00000160: ac82 363c fe59 8bb8 428e c63d 83b3 923e
00000170: 9ee9 f83c 3cb6 ff3d 772d 9f3c 59ca d7a2
00000180: c3b5 9da3 a67c 8cbe f55b 503e d003 3abd
00000190: 5612 293e 138c ceb9 2af7 8b3e a92a 713c
000001a0: ee3f 08b0 4e35 883e 54f6 60bc 7b03 b33d
000001b0: 603f 7abe e81b 9bac 1558 21b7 a4ac 1b3d
000001c0: f598 edaf d85f 123b 33f0 003c f332 a822
000001d0: 8897 f33d 4085 05a3 fa3a a035 9df3 9d3e
000001e0: b2af 80bd cca5 99b7 0747 713e 24b5 db3c
000001f0: fd53 7a3e 9356 b13d 4bf1 483e 1150 0227
00000200: 12fa d835 3846 473d e814 bbbd e3f3 8d3d
00000210: 0e59 a7bd a6a9 b02f 5d23 5ebd e148 843d
00000220: 5724 f62f bdd9 1abd f0e3 3b3d f77c 09bd
00000230: dc2d 823d 501d 0122 d6ce b4ac 0e4e 5dbc
00000240: a6bf 9f2f 21de 733d b2ac 8dbd 0cfb 25b7
00000250: 9ce3 6b3d 6caf b939 6c77 3bb7 6f17 81bd
00000260: e276 823d 40d6 42a4 f7b0 9c3b ff97 6dbd
00000270: e9b9 22bd be46 09bd 2404 babd a4c4 0536
00000280: 59f0 fd28 4590 ecaa 6915 a6b5 98e4 41b7
00000290: e4e0 2aa4 d74f c820 6b67 a0b9 a1c5 4034
000002a0: 85f0 c7a5 9498 0323 4d7f 96a3 9882 ad36
000002b0: 7a57 7735 b04f 0aa4 182c 9537 1f3a 2eba
000002c0: 5c88 2436 d1dd 60aa 88de 61a7 2cc1 4b2c
000002d0: ddb5 bfb6 925d 98a4 17fc 1a39 64e1 b32c
000002e0: 0dcb 98ac e2e6 2fb6 f7b0 f129 2258 84b8
000002f0: 66e5 5630 ef22 8ca4 c3be 5c33 4211 9824
00000300: 06f2 ce33 6c66 d43d 8f4c b0bd 3ec5 af3d
00000310: 582c bfbd 2ceb 8ab5 c855 a0bd 19bb 9c3d
00000320: b979 8631 d90e 52bd a1fd 6d3d 7880 65bd
00000330: 832b 993d d019 9537 4b0e e822 4869 e3bb
00000340: 212a 2ea5 285c aa3d a832 9ebd 868a 9624
00000350: 4545 fb3c 9395 2aba 3bd0 ebb8 c3cc a4bd
00000360: df48 b23d 8bcf edb8 98ca fd3a 9aa5 dfbd
00000370: da2e 4cbd 8793 64bd 73e6 b7bd 3dd3 3d38
00000380: dde0 9639 8f2a 163e d2d0 0fbe fc35 8b3e
00000390: 0bc8 9dbe dbf4 01ba 97a9 74be b6db 393d
000003a0: 2274 2638 cab5 fe3c f3f4 6d3e 5bef 9ebd
000003b0: 6ae8 823e 7fc3 1ca2 452a fdb3 7e2b e53d
000003c0: 28d8 02b9 6981 9e3e 0ac0 f9bd 3daa 8325
000003d0: ade6 ac3c c537 b9a4 285b 11a9 f3cb 41be
000003e0: d2b1 3c3e d365 13a3 0788 4dbd 4125 02bd
000003f0: 3c10 6abe b7d4 b5bd 1f73 07be dc79 bc37

pos_mlp.2.bias f4 [32]
1.7372991e-16 0.18249303 0.017564785 0.16493852 0.038129285 -0.00064889755 0.07464155 0.09596526
1.2469023e-15 -0.089825846 -0.02216376 0.04781155 0.067303315 -0.03859237 0.020240912 0.18899037
9.138225e-17 0.034363087 -0.006408279 0.030772548 0.09509443 0.03432361 0.114577554 -0.0004782262
0.11686235 0.10825124 -0.06706338 0.097508244 -0.002313627 0.07360573 -0.06436653 0.03162962
00000000: 054c 4825 74df 3a3e 06e4 8f3c a5e5 283e
00000010: 742d 1c3d c71a 2aba abdd 983d 6f89 c43d
00000020: 93b2 b326 9df6 b7bd c690 b5bc 0bd6 433d
00000030: 52d6 893d 0813 1ebd 45d0 a53c b186 413e
00000040: 8fb6 d224 4fc0 0c3d 8afc d1bb b616 fc3c
00000050: dec0 c23d ea96 0c3d a3a7 ea3d 6fba fab9
00000060: 8755 ef3d d3b2 dd3d 8658 89bd 67b2 c73d
00000070: 38a0 17bb 9abe 963d 99d2 83bd 0f8e 013d

dec_trunk.0.weight f4 [128, 288]
0.011844901 -1.9830337e-17 -0.0075165536 -0.023617795 0.0015951296 -2.3727209e-18 2.0597439e-12 -0.039902344
-0.015278262 4.6664307e-18 -0.012763877 -0.034036066 0.008070116 -1.15546825e-17 0.019052291 -4.3436673e-17
0.031561065 0.02828035 1.106979e-16 -1.7264883e-16 5.589165e-17 -0.03229573 -0.0030095982 0.00015944621
-0.0021955369 -0.0018046144 -5.0394796e-05 1.4925983e-17 0.009390474 -0.0031146244 0.018619925 -0.006714837
5.0241088e-17 -0.010055996 -0.0008457825 -0.001362007 -0.0012756238 1.2843018e-06 -9.972848e-06 -1.262378e-16
2.626339e-12 -0.005311655 -0.015074446 -0.0034322366 0.02037203 -2.5369368e-17 3.2347622e-17 -4.1096437e-17
-0.001585872 -2.421596e-16 9.092747e-19 -0.0054025725 1.5322081e-16 -0.020131659 -0.0060944846 -0.022072116
-0.0012697324 -0.003178352 -4.3485494e-17 -0.0020175516 -2.0157612e-17 -2.3507719e-16 -1.8041279e-15 0.010056032
1.2888972e-13 2.8442355e-07 0.010006849 -3.4124817e-12 -0.029985975 -0.0022084813 3.7824053e-15 -0.0052261516
-1.1570266e-14 -0.00027684958 -0.0007935773 8.7329726e-18 -0.0019875886 -3.3972235e-18 -0.0016184034 -9.085281e-16
-0.006007226 0.011529284 -0.027101798 -1.4858979e-13 -0.0023248594 -0.0020958236 -7.312248e-17 0.017374696
-0.0004801751 9.8773306e-17 -0.035188727 -0.021084601 -0.020508362 -2.6063705e-17 -5.133841e-18 -0.0124093285
0.016515285 -0.03809666 -0.034158938 -0.012398187 -0.002528363 -1.4628058e-08 -0.011320325 0.00409914
-0.0035069468 -1.4541241e-13 3.5174736e-12 -0.021501297 -0.003267949 -0.0028406472 -0.0019675398 -0.00015863642
0.025779944 -7.776886e-16 0.019433502 -0.027566638 -2.7011302e-17 0.00557404 -0.0051276335 -0.0024738854
0.020572443 0.010822412 -0.0023976346 -0.02201271 0.028751377 1.6937835e-15 7.7987945e-17 -0.027311044
-8.179578e-05 -0.011857652 0.010868011 -0.00923213 -0.00039450228 -5.3871907e-05 -0.0010152506 -1.29409495e-17
-0.015884677 -0.014351851 -0.0026974634 -1.02957014e-16 -0.021790588 -0.0014104688 -0.026944319 0.01171862
-0.019408768 -2.3520183e-16 0.035498697 1.3705471e-13 -0.0076122787 -0.01908109 0.014072692 -0.012218477
0.009721725 -0.010397135 -1.5918308e-17 9.0279425e-17 -4.666409e-06 -0.005287148 -0.0032275014 -0.0006561927
0.0032133202 7.009711e-17 -0.03257415 -0.0022906284 5.905814e-18 0.022539742 -1.1848902e-05 9.411229e-19
3.951559e-05 -0.0061523435 -0.0012916899 1.9626667e-17 0.026514273 1.7065148e-17 -0.018993363 0.00019885565
-0.001995694 -0.01135083 -0.02846238 3.9275753e-17 0.018312765 0.006279546 -0.0021077741 -0.0023491757
-2.4811818e-06 0.010618479 9.2313204e-17 0.014612762 -0.0017519057 -0.008997243 1.4979378e-16 -0.0020194368
-0.0014447075 0.027177006 1.4407465e-13 1.0584419e-13 -0.010820602 -0.012383759 -0.0031782796 5.963289e-17
0.02044173 -6.1415633e-18 0.00089067494 0.03313637 0.0022855978 -1.2860185e-17 0.0046301214 4.299707e-18
-1.6408878e-18 -0.0021919217 -0.0018371976 0.0063666725 -1.4577533e-13 0.011700541 3.676151e-18 1.1481665e-18
1.0562512e-06 1.4570742e-15 0.031124827 -1.32653025e-14 1.5135689e-16 -9.839388e-19 -0.0039897547 4.9785842e-18
0.021560533 -0.00074607413 -9.733498e-18 -0.0026702313 -1.649593e-08 0.033741564 1.3947238e-13 -1.4072382e-17
1.4316993e-14 0.0014777462 0.021002665 1.2870581e-16 0.023456544 -0.00013110231 -0.028129993 -0.0026405228
-0.0011044287 0.012328014 -3.4168667e-17 9.693338e-19 -0.0017288773 -0.012094691 -0.0028492024 -1.0604367e-14
-0.018405646 -3.3236527e-17 -8.512549e-06 1.04875464e-16 6.126285e-05 -0.017976638 0.034009837 0.01874026
00000000: 1e11 423c 0fe7 b6a3 6c4d f6bb 1b7a c1bc
00000010: ab13 d13a 6e13 2fa2 0cf1 102c a470 23bd
00000020: ad51 7abc 3129 ac22 951f 51bc 6769 0bbd
00000030: 8538 043c 7225 55a3 8d13 9c3c f950 48a4
00000040: 2d46 013d 31ac e73c 8240 ff24 f10c 47a5
00000050: 9be0 8024 8748 04bd ae3c 45bb 0431 2739
00000060: ffe2 0fbb d088 ecba 005f 53b8 fbaa 8923
00000070: 81da 193c ba1e 4cbb d088 983c 2308 dcbb
00000080: 35b2 6724 e7c1 24bc 81b7 5dba 5f85 b2ba
00000090: d532 a7ba 4660 ac35 0e51 27b7 d28a 11a5
000000a0: ebcf 382c 640d aebb cffa 76bc 60ef 60bb
000000b0: 3ee3 a63c bafd e9a3 552d 1524 1c86 3da4
000000c0: 09dd cfba 7398 8ba5 6d2f 8621 1008 b1bb
000000d0: cda6 3025 26eb a4bc 3eb4 c7bb 95d0 b4bc
000000e0: 266d a6ba e64b 50bb 9c8a 48a4 e638 04bb
000000f0: d1eb b9a3 4583 87a5 4900 02a7 0ec2 243c
00000100: ef1d 112a e0b2 9834 c4f3 233c ce21 70ac
00000110: 26a5 f5bc 2bbc 10bb 8846 8827 2340 abbb
00000120: 6f6e 50a8 1f26 91b9 1208 50ba 4c18 2123
00000130: 3442 02bb bdab 7aa2 9b20 d4ba c5ee 82a6
00000140: 44d8 c4bb 52e5 3c3c 9704 debc 174c 27aa
00000150: ab5c 18bb 165a 09bb e59b a8a4 6155 8e3c
00000160: 03c0 fbb9 78c1 e324 0e22 10bd 9db9 acbc
00000170: 2701 a8bc 2f65 f0a3 c267 bda2 7f50 4bbc
00000180: 104b 873c 3e0b 1cbd 3eea 0bbd c421 4bbc
00000190: e4b2 25bb e14e 7bb2 e278 39bc 1452 863b
000001a0: ced4 65bb 46b8 23aa 2c85 772c 7d23 b0bc
000001b0: 162b 56bb 272a 3abb d7f1 00bb a457 26b9
000001c0: 7630 d33c 4a27 60a6 0233 9f3c 6ed3 e1bc
000001d0: a222 f9a3 70a6 b63b b505 a8bb e920 22bb
000001e0: 8a87 a83c 7c50 313c a221 1dbb 0054 b4bc
000001f0: 0288 eb3c 9519 f426 f5d3 b324 69bb dfbc
00000200: c689 abb8 9946 42bc be0f 323c 5c42 17bc
00000210: 33d5 ceb9 85f4 61b8 2812 85ba e8b7 6ea3
00000220: 9520 82bc 0724 6bbc edc7 30bb 1867 eda4
00000230: 2d82 b2bc 7bdf b8ba 55ba dcbc 74ff 3f3c
00000240: 23ff 9ebc aa95 87a5 1567 113d 554f 1a2a
00000250: 6c70 f9bb f24f 9cbc 2691 663c 0230 48bc
00000260: df47 1f3c bf58 2abc 0bd2 92a3 912b d024
00000270: 2694 9cb6 d03f adbb 7d84 53bb 5904 2cba
00000280: 9196 523b 08a2 a124 796c 05bd 5e1e 16bb
00000290: d6e2 d922 44a5 b83c a6ca 46b7 9ee2 8a21
000002a0: 8bbd 2538 9999 c9bb ec4d a9ba 2806 b523
000002b0: 7634 d93c f165 9d23 f897 9bbc e883 5039
000002c0: 30ca 02bb d5f8 39bc f029 e9bc a020 3524
000002d0: a704 963c a6c4 cd3b 9522 0abb a1f4 19bb
000002e0: 6182 26b6 21f9 2d3c 19dc d424 5e6a 6f3c
000002f0: 33a0 e5ba 2c69 13bc 52b3 2c25 8758 04bb
00000300: 575c bdba 50a2 de3c b136 222a 0557 ee29
00000310: e548 31bc 40e5 4abc af4a 50bb 0c81 8924
00000320: 6a75 a73c 6d95 e2a2 2f7c 693a 01ba 073d
00000330: f8c9 153b 823a 6da3 46b8 973b 96a1 9e22
00000340: fd26 f2a1 58a6 0fbb 1fce f0ba 859f d03b
00000350: e120 24aa a0b3 3f3c 44a0 8722 8170 a921
00000360: 84c4 8d35 8dfc d126 7ef9 fe3c 69f7 6ea8
00000370: ab80 2e25 2834 91a1 7dbc 82bb 66ad b722
00000380: b79f b03c 3094 43ba 258d 33a3 0cff 2ebb
00000390: efb2 8db2 9834 0a3d 2d08 1d2a 79cb 81a3
000003a0: bdf4 8028 efb0 c13a c80d ac3c 4063 1425
000003b0: f027 c03c 8278 09b9 df70 e6bc 9f0c 2dbb
000003c0: 7ac2 90ba 70fb 493c 3e93 1da4 650c 8f21
000003d0: 7f9b e2ba d028 46bc afb9 3abb 0308 3fa8
000003e0: 70c7 96bc c446 19a4 1fd1 0eb7 8cd3 f124
000003f0: 3e7a 8038 be43 93bc e64d 0b3d 2c85 993c

dec_trunk.0.bias f4 [128]
0.004613473 -1.2766535e-05 0.001901689 -0.05450958 0.0031728644 -0.04368632 -0.00022562705 -0.004011596
-0.02610195 -0.00038992328 2.4484792e-09 4.7710946e-06 -5.8290055e-07 -2.7424975e-13 -0.013828744 -0.026989846
0.022019198 -0.031217726 0.020821357 -0.0155506795 -0.04722669 2.7280853e-08 -0.029430656 0.0066897776
-0.02323906 1.7388388e-08 9.34424e-09 0.002559335 -9.508192e-16 0.01809691 0.060383596 5.003894e-07
-0.017317394 0.010876823 -0.0075475452 0.0063833604 -7.7385455e-05 0.048133437 -0.052764807 0.009508604
0.008426827 0.02596298 -0.05221796 0.05058934 -1.625047e-12 0.045089684 0.020870725 0.04203181
-0.0051166937 -0.05697454 0.044947222 -4.6296513e-09 -1.1375429e-06 -5.080952e-09 -9.586965e-12 -0.031922895
-0.025979739 -0.0011354971 0.004983891 5.2971932e-17 -1.502398e-06 8.6722675e-06 -0.00020020566 -0.031326532
0.02693483 1.2297772e-13 -2.9186147e-09 0.008685409 0.000898528 -0.0054815426 -0.04666103 0.008796052
-0.021264339 -0.018846963 -0.0199336 -3.6984432e-07 0.041872617 -0.000113988746 0.029194241 0.012859779
-0.0041637155 4.0653727e-08 -0.0018886033 -0.04278773 3.724874e-05 -0.05628724 0.0020189884 0.04332906
0.015685959 -0.022300554 0.020273985 -0.050515395 -1.2154375e-07 5.182964e-10 0.040868193 0.029870087
0.05767349 -4.7894673e-08 0.007532735 -0.00068518793 -2.4624386e-16 0.04792166 -0.04234697 0.013594127
0.0212197 -0.00034495958 -0.017905643 0.00041410985 0.0072338865 3.0797694e-11 0.020066813 4.1388477e-05
0.0030633435 -0.039092116 -0.02613592 -0.0035067657 -8.68892e-08 -3.9564664e-08 -4.3228074e-06 0.018815441
-0.0033937572 0.009856122 0.0005155556 -3.535504e-08 3.3125395e-12 -0.024231818 -0.018930314 1.0226513e-16
00000000: 9e2c 973b da2f 56b7 1842 f93a 7045 5fbd
00000010: d5ef 4f3b 6df0 32bd 4d96 6cb9 b573 83bb
00000020: c2d3 d5bc 9e6e ccb9 1a42 2831 6417 a036
00000030: 9f78 1cb5 8e63 9aaa f591 62bc cf19 ddbc
00000040: 9b61 b43c 51bc ffbc 8d91 aa3c 47c8 7ebc
00000050: c670 41bd 3b57 ea32 8f18 f1bc ec35 db3b
00000060: d75f bebc 785d 9532 6788 2032 84ba 273b
00000070: 0907 89a6 f93f 943c ca54 773d 7f52 0635
00000080: 35dd 8dbc b434 323c 6651 f7bb 822b d13b
00000090: 004a a2b8 9127 453d e91f 58bd fac9 1b3c
000000a0: ad10 0a3c 51b0 d43c 80e2 55bd c536 4f3d
000000b0: 7db4 e4ab f6af 383d 15f9 aa3c 8c29 2c3d
000000c0: f0a9 a7bb 235e 69bd 941a 383d d812 9fb1
000000d0: adad 98b5 8794 aeb1 daa7 28ad 95c1 02bd
000000e0: 76d3 d4bc f6d4 94ba e84f a33b 384a 7424
000000f0: 01a6 c9b5 1b7f 1137 4cee 51b9 4050 00bd
00000100: 6fa6 dc3c ea75 0a2a d090 48b1 3f4d 0e3c
00000110: 318b 6b3a 839e b3bb a31f 3fbd 511d 103c
00000120: 8d32 aebc f264 9abc ca4b a3bc 048f c6b4
00000130: 9f82 2b3d 3e0d efb8 c328 ef3c d3b1 523c
00000140: c76f 88bb 3f9b 2e33 038b f7ba 3042 2fbd
00000150: 883b 1c38 738d 66bd 0151 043b d079 313d
00000160: d77f 803c a7af b6bc a115 a63c 3be9 4ebd
00000170: b181 02b4 de77 0e30 6865 273d 1db2 f43c
00000180: 0a3b 6c3d c0b4 4db3 29d5 f63b 2f9e 33ba
00000190: 2ef3 8da5 8149 443d 0474 2dbd e7b9 5e3c
000001a0: f0d4 ad3c b1db b4b9 dbae 92bc e21c d939
000001b0: 3d0a ed3b 1f73 072e 2863 a43c 8a98 2d38
000001c0: 60c2 483b 0e1f 20bd ff1a d6bc c4d1 65bb
000001d0: d897 bab3 cfed 29b3 a20c 91b6 d722 9a3c
000001e0: cc69 5ebb 927b 213c 5a26 073a 47d9 17b3
000001f0: 6819 692c ce81 c6bc bf13 9bbc aece eb24
