pointnet/weights_per_bundle_ratio025/ST_PAR_left_best.pth (torch, 359807 bytes, 17 tensors)

t_grid f4 [100]
0	0x00000000	0.0
1	0x3c257eb5	0.01010101
2	0x3ca57eb5	0.02020202
3	0x3cf83e10	0.030303031
4	0x3d257eb5	0.04040404
5	0x3d4ede62	0.05050505
6	0x3d783e10	0.060606062
7	0x3d90cede	0.07070707
8	0x3da57eb5	0.08080808
9	0x3dba2e8c	0.09090909
10	0x3dcede62	0.1010101
11	0x3de38e39	0.11111111
12	0x3df83e10	0.121212125
13	0x3e0676f3	0.13131313
14	0x3e10cede	0.14141414
15	0x3e1b26ca	0.15151516
16	0x3e257eb5	0.16161616
17	0x3e2fd6a0	0.17171717
18	0x3e3a2e8c	0.18181819
19	0x3e448677	0.1919192
20	0x3e4ede62	0.2020202
21	0x3e59364e	0.21212122
22	0x3e638e39	0.22222222
23	0x3e6de624	0.23232323
24	0x3e783e10	0.24242425
25	0x3e814afd	0.25252524
26	0x3e8676f3	0.26262626
27	0x3e8ba2e9	0.27272728
28	0x3e90cede	0.28282827
29	0x3e95fad4	0.2929293
30	0x3e9b26ca	0.3030303
31	0x3ea052bf	0.3131313
32	0x3ea57eb5	0.32323232
33	0x3eaaaaab	0.33333334
34	0x3eafd6a0	0.34343433
35	0x3eb50296	0.35353535
36	0x3eba2e8c	0.36363637
37	0x3ebf5a81	0.37373737
38	0x3ec48677	0.3838384
39	0x3ec9b26d	0.3939394
40	0x3ecede62	0.4040404
41	0x3ed40a58	0.41414142
42	0x3ed9364e	0.42424244
43	0x3ede6243	0.43434343
44	0x3ee38e39	0.44444445
45	0x3ee8ba2f	0.45454547
46	0x3eede624	0.46464646
47	0x3ef3121a	0.47474748
48	0x3ef83e10	0.4848485
49	0x3efd6a05	0.4949495
50	0x3f014afd	0.5050505
51	0x3f03e0f8	0.5151515
52	0x3f0676f3	0.5252525
53	0x3f090cee	0.53535354
54	0x3f0ba2e9	0.54545456
55	0x3f0e38e4	0.5555556
56	0x3f10cede	0.56565654
57	0x3f1364d9	0.57575756
58	0x3f15fad4	0.5858586
59	0x3f1890cf	0.5959596
60	0x3f1b26ca	0.6060606
61	0x3f1dbcc5	0.61616164
62	0x3f2052bf	0.6262626
63	0x3f22e8ba	0.6363636
64	0x3f257eb5	0.64646465
65	0x3f2814b0	0.65656567
66	0x3f2aaaab	0.6666667
67	0x3f2d40a6	0.6767677
68	0x3f2fd6a0	0.68686867
69	0x3f326c9b	0.6969697
70	0x3f350296	0.7070707
71	0x3f379891	0.7171717
72	0x3f3a2e8c	0.72727275
73	0x3f3cc486	0.7373737
74	0x3f3f5a81	0.74747473
75	0x3f41f07c	0.75757575
76	0x3f448677	0.7676768
77	0x3f471c72	0.7777778
78	0x3f49b26d	0.7878788
79	0x3f4c4867	0.7979798
80	0x3f4ede62	0.8080808
81	0x3f51745d	0.8181818
82	0x3f540a58	0.82828283
83	0x3f56a053	0.83838385
84	0x3f59364e	0.8484849
85	0x3f5bcc48	0.85858583
86	0x3f5e6243	0.86868685
87	0x3f60f83e	0.8787879
88	0x3f638e39	0.8888889
89	0x3f662434	0.8989899
90	0x3f68ba2f	0.90909094
91	0x3f6b5029	0.9191919
92	0x3f6de624	0.9292929
93	0x3f707c1f	0.93939394
94	0x3f73121a	0.94949496
95	0x3f75a815	0.959596
96	0x3f783e10	0.969697
97	0x3f7ad40a	0.97979796
98	0x3f7d6a05	0.989899
99	0x3f800000	1.0

encoder.mlp.0.weight f4 [64, 3]
0	0xbed3f946	-0.41401118
1	0x3f0c65a7	0.5484261
2	0xbefb8f71	-0.49132875
3	0x3eb96fa4	0.36217988
4	0x3dfe2bc7	0.124106936
5	0x3f01d30b	0.5071265
6	0x3f0915a2	0.53548634
7	0xbea74b60	-0.32674694
8	0xbd124166	-0.0357069
9	0x3f0f899a	0.5606934
10	0x3d755166	0.05989208
11	0x3eedf431	0.46475366
12	0xbe3b8a0f	-0.18314384
13	0xbf0e5806	-0.55603063
14	0x3f10d7ff	0.56579584
15	0x3e65d13a	0.22443095
16	0x3ec281cc	0.37989652
17	0xbeacde9a	-0.33763582
18	0x3ec77aaf	0.38960788
19	0xbec50ea4	-0.38487732
20	0xbee9c993	-0.456616
21	0xbe9fbb93	-0.31197795
22	0x3e1ff29b	0.1561989
23	0x3e007f4d	0.12548561
24	0x3d7c5908	0.061608344
25	0xbcb986b2	-0.022647236
26	0xbe87e178	-0.26539207
27	0xbecb168f	-0.39665648
28	0xbe1fc2d4	-0.15601665
29	0x3eae2119	0.34009627
30	0xbeba96a4	-0.36443055
31	0x3f02aef4	0.5104821
32	0xbe925b07	-0.28585073
33	0xbeed474e	-0.46343464
34	0x3ce9e483	0.028551346
35	0xbe9780ef	-0.29590556
36	0xbe5d61bb	-0.21619312
37	0x3e6cfd38	0.2314347
38	0xbee1655c	-0.44022644
39	0x3cb53c5c	0.022123508
40	0xbdd64f85	-0.10464386
41	0x3f008d7f	0.50215906
42	0x3ed8ed83	0.42368707
43	0x3f03c355	0.5146993
44	0x3f01f78c	0.5076835
45	0x3e83737f	0.25674054
46	0xbee48e5c	-0.44639862
47	0x3e96a851	0.2942529
48	0xbe8e5e5c	-0.27806365
49	0x3e5cec57	0.21574531
50	0xbf012cbd	-0.5045889
51	0xbef13c15	-0.4711615
52	0x3f001b50	0.50041676
53	0x3d1f6f12	0.038924284
54	0xbe544453	-0.20729189
55	0xbccddfca	-0.025131125
56	0x3ec0f142	0.37684065
57	0x3f03201c	0.5122087
58	0x3e0e88cb	0.1391937
59	0xbe5688ec	-0.20950669
60	0x3e8f6945	0.28010002
61	0xbe10a5e3	-0.14125781
62	0x3ed77771	0.42083314
63	0xbe259936	-0.16171727
64	0xbe8dd791	-0.27703527
65	0x3f0eabb9	0.5573078
66	0xbeecf6a0	-0.4628191
67	0x3e87b25a	0.2650326
68	0x3ee00330	0.43752432
69	0xbe9dd4af	-0.30826327
70	0x3baf8cf3	0.0053573786
71	0xbd546d39	-0.051861975
72	0x3e3f5149	0.18683352
73	0xbdeac1e5	-0.11462764
74	0x3ea386c9	0.3193877
75	0xbe10a5e1	-0.14125778
76	0xbd8d0e7a	-0.06887527
77	0xbf0e3cdf	-0.5556163
78	0xbf048afe	-0.51774585
79	0xbeb240c5	-0.3481504
80	0xbe98ca91	-0.29842046
81	0x3e3baaa3	0.18326811
82	0xbdf43166	-0.119234845
83	0xbf021545	-0.50813705
84	0xbe74c848	-0.23904526
85	0x3c89bd07	0.016813768
86	0x3e78891b	0.24271052
87	0x3ea1f06e	0.31628746
88	0xbec8cb15	-0.3921744
89	0xbee8727f	-0.45399854
90	0x3e1001d8	0.14063203
91	0x3ee59425	0.44839588
92	0xbed68dff	-0.4190521
93	0xbeeed69e	-0.46648115
94	0xbe416334	-0.18885499
95	0x3ee5c3d3	0.44875965
96	0xbe58b8ac	-0.21164197
97	0x3ef613ed	0.48062077
98	0x3db36708	0.08759886
99	0xbefcf3f6	-0.49404877
100	0x3ec170ae	0.3778128
101	0x3e308487	0.17238055
102	0x3e5a0c34	0.21293718
103	0x3ea4d026	0.32190055
104	0xbef1d773	-0.47234687
105	0x3eff1703	0.49822244
106	0x3c6bce5a	0.01439246
107	0x3eeb7e09	0.45994595
108	0x3f06dcda	0.5268074
109	0xbe30b0d8	-0.1725496
110	0x3e878635	0.2646958
111	0xbf03db0c	-0.51506114
112	0x3f007d00	0.50190735
113	0x3ea4e762	0.3220778
114	0xbdd5c515	-0.10437981
115	0x3d7b6225	0.061372895
116	0xbeeafe34	-0.45897067
117	0xbee3389d	-0.4437913
118	0x3dbfb338	0.09360355
119	0x3e853849	0.26019505
120	0x3e154220	0.14576006
121	0xbf020128	-0.50783014
122	0xbead46b5	-0.33843008
123	0x3ee887d9	0.45416144
124	0x3d61fd3b	0.05517314
125	0xbc7eab0a	-0.015543709
126	0xbeb4093d	-0.35163298
127	0x3eea6d13	0.45786342
128	0x3f0fa9f6	0.56118715
129	0x3eb76e24	0.35826218
130	0xbed27e6c	-0.41112077
131	0x3e6ce0a5	0.2313257
132	0x3e4c1465	0.19929655
133	0x3e990ee4	0.29894173
134	0x3ee31156	0.44349164
135	0xbe0b5a6e	-0.13608715
136	0x3f040897	0.5157561
137	0x3e1b7a71	0.15183426
138	0xbea75610	-0.32682848
139	0x3f12cb92	0.57341874
140	0x3f0e22e2	0.55521977
141	0xbe2e4492	-0.17018345
142	0x3f070dc2	0.5275537
143	0xbe88c78d	-0.26714745
144	0xbec4493f	-0.38337132
145	0x3e0c11e3	0.13678698
146	0x3ea26113	0.31714687
147	0xbe069c1f	-0.13145493
148	0xbd797028	-0.060897976
149	0x3eb2397d	0.34809485
150	0x3d55655e	0.052098624
151	0x3e7cba36	0.24680409
152	0xbe5e707b	-0.21722595
153	0xbef7c287	-0.483906
154	0xbeee0e8d	-0.46495476
155	0xbe03d11f	-0.12872742
156	0x3f0f195a	0.5589806
157	0xbcab7d05	-0.020933637
158	0x3ebe2d18	0.3714378
159	0x3d8e493e	0.069475636
160	0xbd3d7e69	-0.046263132
161	0x3f0f26f2	0.559188
162	0x3e1026b0	0.14077258
163	0x3b48e0b7	0.0030651519
164	0xbd79e447	-0.061008718
165	0xbdcb17f3	-0.09916677
166	0xbee9aeaa	-0.4564107
167	0xbd4e304f	-0.05033904
168	0x3d95878a	0.07301243
169	0x3f0cec59	0.5504814
170	0x3e887383	0.26650628
171	0x3efcb223	0.49354658
172	0xbea43364	-0.32070458
173	0x3efe9554	0.49723303
174	0x3b9a6f7d	0.0047129975
175	0x3ec5ed55	0.38657632
176	0x3de933c8	0.113868296
177	0x3dabdaf2	0.0839137
178	0xbe3de989	-0.18546118
179	0xbecb8b45	-0.39754692
180	0xbf09382a	-0.53601325
181	0x3e7ef027	0.24896298
182	0xbec09fa2	-0.3762179
183	0x3e34dc5a	0.17662182
184	0x3eeeda12	0.4665075
185	0x3f069da9	0.5258432
186	0xbde773a3	-0.11301353
187	0x3ec45153	0.38343295
188	0x3dc10eca	0.09426649
189	0x3ec9ef9b	0.39440617
190	0xbe78e672	-0.24306658
191	0xbeab6381	-0.33474353

encoder.mlp.0.bias f4 [64]
0	0x3e34cc89	0.17656149
1	0xbef538bf	-0.47894856
2	0x3dd84d45	0.10561613
3	0x3e942045	0.2893087
4	0x3eb12a38	0.34602523
5	0x3bf5d611	0.0075023253
6	0xbe85f7b3	-0.26165542
7	0x3ee89c44	0.4543172
8	0xbee40ebe	-0.44542497
9	0xbed281be	-0.4111461
10	0x3e214cd6	0.15751967
11	0x3d444f7d	0.04792737
12	0x3f01aa7a	0.5065075
13	0x3f027e9e	0.5097445
14	0xbddbbea6	-0.10729723
15	0x3d918acd	0.07106552
16	0xbe013037	-0.12616049
17	0x3ed52194	0.4162718
18	0xbdda9e2f	-0.106747024
19	0xbde512d7	-0.11185234
20	0xbb95bfa7	-0.004569966
21	0x3ec968f3	0.39337882
22	0xbef6aa43	-0.48176774
23	0xbd0b61b1	-0.034028713
24	0xbe892ac0	-0.26790428
25	0x3ec56ea8	0.38560987
26	0xbe3f06c3	-0.18654923
27	0x3cd562e2	0.026048128
28	0xbef8ea7d	-0.486164
29	0x3d98183c	0.07426497
30	0x3e74a354	0.2389043
31	0xbec5e174	-0.3864857
32	0xbce430c6	-0.027855288
33	0x3ebbd2d6	0.36684293
34	0xbe1fb66a	-0.15596929
35	0x3e1f30d8	0.15545976
36	0xbe696f57	-0.22796379
37	0x3f07d853	0.5306446
38	0xbd9b7bd9	-0.075919814
39	0xbe376f72	-0.17913607
40	0xbe82d29c	-0.25551307
41	0xbed54938	-0.41657424
42	0xbde6ecc1	-0.11275626
43	0xbe1f1992	-0.15537098
44	0x3e80f699	0.2518814
45	0xbb63ef82	-0.003478021
46	0x3d1270a9	0.035751972
47	0xbd54f5dd	-0.051992286
48	0xbf07e0ef	-0.53077596
49	0xbde8a8e8	-0.11360341
50	0xbe887046	-0.26648158
51	0xbef9d6d8	-0.48796725
52	0xbf0225a8	-0.5083871
53	0x3ec373fc	0.38174427
54	0x3ebc85e8	0.36820912
55	0xbecc8923	-0.39948377
56	0x3e5b2ceb	0.21403854
57	0xbef7f559	-0.48429373
58	0x3e4f20b1	0.20227315
59	0x3dd1caac	0.10243735
60	0x3d67d4f2	0.056599565
61	0xbf03467a	-0.51279414
62	0xbef278ec	-0.4735788
63	0xbc0c278b	-0.00855435

encoder.mlp.2.weight f4 [128, 64]
0	0xbd031719	-0.03200445
1	0x3d80175b	0.06254455
2	0x3c91747d	0.017755741
3	0x3de2f422	0.11081721
4	0x3dece9a0	0.11567998
5	0xba6e1672	-0.0009082324
6	0xbd0a18de	-0.03371512
7	0xbc425031	-0.011859939
8	0x3c364379	0.011124485
9	0x3de0022e	0.10937916
10	0x3dc50bf2	0.09621419
11	0x3c309791	0.010778324
12	0xbd6925bc	-0.056920752
13	0x3df0fe2e	0.11767231
14	0xbd33ef69	-0.04392949
15	0x3db0a366	0.08624916
16	0xbd10927c	-0.03529595
17	0x3b9ee77a	0.0048493715
18	0x3ca57d6a	0.020201404
19	0xbd934fac	-0.071929306
20	0x3d86a64c	0.06574687
21	0xbc909613	-0.017649686
22	0x3d6f6d1a	0.058453657
23	0xbd27cb24	-0.040965214
24	0xbc3fbc8e	-0.01170267
25	0x3c280229	0.010254421
26	0x3cdc4a94	0.02689103
27	0x3c0b136f	0.00848852
28	0xbd3ad55f	-0.045613643
29	0xbcc0662d	-0.023486221
30	0xbd543aaa	-0.05181376
31	0xbdac44bc	-0.084115475
32	0xbdc07166	-0.09396629
33	0x3cd4dd19	0.025984334
34	0xbd322f12	-0.04350192
35	0x3dc88241	0.09790469
36	0xbdd81fe1	-0.105529554
37	0x3e071086	0.13189897
38	0xbd07d28a	-0.03315977
39	0xbda7031f	-0.08154892
40	0x3b36a69b	0.00278703
41	0x3b733d32	0.0037115333
42	0x3d8dfe02	0.06933214
43	0xbb2a99b3	-0.0026031553
44	0x3dee991f	0.11650299
45	0xbd97ba2c	-0.07408556
46	0xbd321fcd	-0.04348736
47	0xbe002f23	-0.12517981
48	0x3e0e192e	0.13876793
49	0xbc6b8402	-0.014374735
50	0x3b7e0230	0.0038758628
51	0xbb91b6be	-0.0044468334
52	0x3da47756	0.08030574
53	0x3d8c9841	0.06864978
54	0x3af176c8	0.001842224
55	0x3dd2306e	0.102631435
56	0x3cd5d896	0.026104253
57	0x3e0c14b8	0.13679779
58	0x3c3748af	0.011186763
59	0xbcc8e104	-0.024521358
60	0xbd8c1ba5	-0.0684121
61	0x3dd6e5fd	0.104930855
62	0x3d31c238	0.043398112
63	0x3d4bbcca	0.04974059
64	0xbdb73db4	-0.08947316
65	0x3d9c8db2	0.07644214
66	0x3d317207	0.043321636
67	0x3d89af8f	0.06722938
68	0xbd24d3e8	-0.040241152
69	0x3d8befa9	0.06832821
70	0x3d7b0e82	0.061293133
71	0xbdcf78cc	-0.10130462
72	0xbd29c95e	-0.041451804
73	0xbd101c1a	-0.03518305
74	0xbdc15c45	-0.09441427
75	0xbd09a430	-0.033603847
76	0x3bcf855a	0.0063330354
77	0x3d7e13ee	0.062030725
78	0x3d7c9206	0.061662696
79	0x3dc2b4d1	0.09507144
80	0xbdcc12a3	-0.09964492
81	0xbd480693	-0.048834395
82	0xbd495fb3	-0.04916353
83	0xbd9ea5fc	-0.07746503
84	0xbdcd447d	-0.10022829
85	0x3d02b051	0.03190643
86	0x3e0215d4	0.1270364
87	0xbd955d76	-0.07293217
88	0xbd9c736a	-0.07639201
89	0x3d7fef12	0.062483855
90	0x3deb2d40	0.1148324
91	0xbdb5e8c5	-0.08882288
92	0x3cadf51d	0.021235043
93	0xbd47319e	-0.048631303
94	0xbda43293	-0.08017459
95	0x3dfd04c1	0.12354422
96	0x3e014a60	0.12626028
97	0x3e018aaa	0.12650552
98	0x3d638181	0.055543426
99	0xbdf214a4	-0.11820343
100	0xbdf01e19	-0.11724491
101	0xbd0b7778	-0.03404948
102	0x3dbfe97d	0.09370706
103	0x3dc0828f	0.09399902
104	0x3d1f6ba2	0.038921006
105	0x3da6f20f	0.08151638
106	0xbdb77830	-0.08958471
107	0x3d599891	0.053124014
108	0xbd27d213	-0.040971827
109	0xbd8d87e9	-0.069106884
110	0x3d95d73f	0.073164456
111	0xbcc9a140	-0.024613023
112	0xbde35bc1	-0.11101485
113	0x3de860e4	0.113466054
114	0xbc7140d3	-0.014724928
115	0xbd822cfc	-0.06356236
116	0xbda3d305	-0.07999233
117	0xbdc96d9a	-0.09835358
118	0x398b571c	0.00026577048
119	0xbde90613	-0.11378112
120	0xbda7e372	-0.081976786
121	0x3cc47dc0	0.023985744
122	0x3d7f044a	0.06225995
123	0xbce5e27e	-0.028062101
124	0xbd5743bd	-0.052554835
125	0x3e075f48	0.1321994
126	0xbcf62584	-0.030047186
127	0x3c974368	0.018464759
128	0xbded13bc	-0.1157603
129	0xbdfe3d3a	-0.12414022
130	0x3da5f140	0.081026554
131	0x3bb2296b	0.0054370663
132	0x3ddffc8c	0.10936841
133	0x3bb1edd5	0.005429963
134	0x3c6e291c	0.014536168
135	0x3de1b417	0.110206775
136	0xbccabe65	-0.02474899
137	0x3c328b9c	0.010897543
138	0x3d5c461a	0.05377779
139	0x3da91482	0.08255865
140	0xbd73dabd	-0.059534777
141	0x3dad2c3d	0.084557034
142	0x3d4c8d33	0.049939346
143	0xbdb37e3b	-0.08764311
144	0xbd404cd0	-0.046948254
145	0x3d8240e0	0.0636003
146	0xbd712c9d	-0.058880437
147	0xbd1c4156	-0.038148247
148	0x3dc37500	0.095438
149	0x3d88bdee	0.06676851
150	0xbd3d60b0	-0.046234787
151	0xbdbc2d89	-0.09188373
152	0xbdc1a4d3	-0.09455266
153	0xbde9fd32	-0.11425246
154	0xbb21cc14	-0.002468829
155	0xbdb2a2d4	-0.08722463
156	0x3d7db9b2	0.06194467
157	0x3de3cbe0	0.111228704
158	0xbd8749d1	-0.06605876
159	0xbdd802db	-0.1054742
160	0xbd0a5204	-0.033769622
161	0x3d59846c	0.053104803
162	0xba0df172	-0.00054147013
163	0xbcb3e1e2	-0.021958295
164	0x3de068b2	0.10957469
165	0x3d029155	0.03187688
166	0x3cb39eb7	0.021926267
167	0x3d2f1773	0.042746972
168	0x3cf02ebf	0.029319165
169	0xbc9ab99a	-0.01888733
170	0xbd976607	-0.07392507
171	0x3dfa472e	0.12220608
172	0x3dbcc5f5	0.09217445
173	0x3d66ed9e	0.056378953
174	0x3dd98e1f	0.106228106
175	0xbd97651e	-0.073923334
176	0xbda341e5	-0.07971553
177	0xbd86b8ea	-0.06578238
178	0xbd9ec648	-0.07752663
179	0xbd34815d	-0.044068683
180	0xbd2ba470	-0.041904867
181	0x3df6b3ec	0.12046036
182	0xbcaeae24	-0.021323271
183	0xbcde4664	-0.027133174
184	0x3ccf5b56	0.025312107
185	0xbd746ef0	-0.05967611
186	0x3cf21fb9	0.029556142
187	0xbd5f9528	-0.054585606
188	0x3cd104ef	0.025515048
189	0xbd997fd4	-0.074950844
190	0xbd27486d	-0.040840555
191	0x3dbcd185	0.0921965
192	0xbc3c6797	-0.011499307
193	0xbe02bca9	-0.1276728
194	0xbcbe7aa3	-0.023251837
195	0x3c375235	0.011189033
196	0xbd6972c8	-0.05699423
197	0x3d9c6c80	0.07637882
198	0x3dc7d258	0.09756917
199	0xbce67aa4	-0.028134651
200	0xbbd91085	-0.0066242837
201	0x3d81e6ed	0.06342874
202	0x3d4acd22	0.049512036
203	0xbddaa878	-0.10676664
204	0xbd42052d	-0.047368217
205	0x3d15b1b0	0.03654641
206	0x3bfea8be	0.0077715805
207	0xbd312c6b	-0.04325525
208	0xbd5f2f99	-0.054488752
209	0x3d46b7a7	0.04851499
210	0x3dfd2a59	0.12361593
211	0x3bb979d2	0.005660274
212	0x3d2b18d9	0.041771743
213	0xbd623c96	-0.05523356
214	0x3d42d46b	0.04756586
215	0x3d8786f5	0.06617538
216	0x3d914d43	0.07094815
217	0xbd0ee7f7	-0.034889188
218	0x3dbd7ce3	0.09252336
219	0x3da1769a	0.078839496
220	0xbb626a87	-0.0034548359
221	0x3da3fa7e	0.08006762
222	0x38fca562	0.00012047101
223	0xbceb7d08	-0.028746143
224	0xbddc3030	-0.107513785
225	0xbd43c88d	-0.047798682
226	0xbd7159e5	-0.05892362
227	0xbcffb6d4	-0.031215109
228	0xbdb0c4e9	-0.08631308
229	0xbdbd4a7e	-0.09242724
230	0xbd2aa31f	-0.04165947
231	0xbd990709	-0.07472045
232	0x3d2311f4	0.039812043
233	0x3a544220	0.00080970116
234	0x3db3bf4f	0.087767236
235	0x3cb6a3cc	0.022294901
236	0x3c9b63d5	0.018968502
237	0x3de11de1	0.10992027
238	0x3c7fd7f1	0.015615449
239	0xbd442c77	-0.047893967
240	0xbd97481c	-0.07386801
241	0x3c9b63fc	0.018968575
242	0xbcddbd2e	-0.027067747
243	0x3df56c40	0.11983538
244	0x3e048022	0.12939504
245	0x3da3dacf	0.08000719
246	0xb92121eb	-0.00015366792
247	0x3cdcba6f	0.026944367
248	0xbda6ff05	-0.0815411
249	0x3e02b06a	0.12762609
250	0x3a87474f	0.0010320934
251	0xbce05f54	-0.027389206
252	0xbdea8420	-0.11450982
253	0xbc3a0c6f	-0.011355503
254	0xbde34bda	-0.11098452
255	0xbb65a906	-0.0035043373

encoder.mlp.2.bias f4 [128]
0	0x3bb8c7e9	0.0056390655
1	0x3d26b5c4	0.04070069
2	0x3d9aa442	0.07550861
3	0x3deedebf	0.11663579
4	0xbc209354	-0.009800751
5	0x3d1a88f7	0.037728276
6	0x3c8b2e3d	0.016989822
7	0x3dcfbaa2	0.10143019
8	0xbd8d003b	-0.068848096
9	0x3c61140b	0.013737689
10	0x3e07ff81	0.13281061
11	0xbde8dd37	-0.113703184
12	0x3d55737b	0.052112084
13	0xbda09ff2	-0.07843007
14	0x3d01ffcd	0.03173809
15	0x3cc79a5d	0.024365598
16	0x3cc0f9f2	0.023556683
17	0x3c8ce1c4	0.017197497
18	0x3d36bba2	0.044612534
19	0xbdd65019	-0.10464496
20	0xbd552d69	-0.05204526
21	0xbd422fe5	-0.047408957
22	0xbdb0184f	-0.085983865
23	0xbdcdc229	-0.10046799
24	0x3da11cb9	0.078668065
25	0xbc3e2616	-0.01160576
26	0x3e08bd22	0.13353398
27	0x3de01eb0	0.10943353
28	0xbd4410ab	-0.04786746
29	0x3cd13feb	0.025543174
30	0xbcf28504	-0.029604442
31	0x3c90e260	0.017686069
32	0xbcc6499e	-0.024205025
33	0xbd2b7449	-0.041858945
34	0xbc56cf65	-0.01311097
35	0x3d02966f	0.031881746
36	0xbcf8c261	-0.030366125
37	0x3dc42e7a	0.09579177
38	0x3b0614e1	0.0020459222
39	0x3dcdfe33	0.1005825
40	0xbdd801e5	-0.10547236
41	0x3c9af3cf	0.018915085
42	0xbd8ce22b	-0.068790756
43	0xbda0a879	-0.078446336
44	0xbd1271f5	-0.03575321
45	0x3d8f493e	0.06996392
46	0xbce37621	-0.02776629
47	0x3df8dc13	0.12151351
48	0x3cfab49e	0.030603703
49	0x3c66d5f3	0.014089095
50	0xbd7fa941	-0.062417272
51	0xbe01a35b	-0.12659971
52	0x3d9db884	0.07701209
53	0x3d60f3de	0.05492007
54	0xbda22bce	-0.07918511
55	0x3dbce7e6	0.092239186
56	0x3dcbd631	0.09952963
57	0xbd71b62d	-0.059011627
58	0x3df9278a	0.121657446
59	0xbda23aeb	-0.07921394
60	0x3d4e8d75	0.050427873
61	0xbd9b428b	-0.075810514
62	0x3d8f9df7	0.07012551
63	0xbdcf043c	-0.101082295
64	0x3d8c359f	0.06846165
65	0x3dd71704	0.10502437
66	0x3de388ee	0.11110102
67	0xbdb3bbad	-0.08776031
68	0x3de9480a	0.113906935
69	0x3dc4dbd4	0.096122414
70	0xbd956d20	-0.072962046
71	0x3d710f15	0.058852274
72	0xbdce6c2a	-0.100792244
73	0x3cb63f22	0.022246901
74	0xbdd50145	-0.10400633
75	0xbdceb0c9	-0.10092313
76	0x3d18d667	0.037313845
77	0xbcb942f0	-0.022614926
78	0x3dda24d1	0.106515534
79	0x3d918ca0	0.071069
80	0xbc598a21	-0.013277561
81	0xbdc7e4aa	-0.09760411
82	0xbcb5983a	-0.022167314
83	0xbcac2dd9	-0.021017956
84	0x3dfe4d09	0.12417037
85	0x3d8ac595	0.06775967
86	0x3de6fd32	0.11278762
87	0xbd5f4816	-0.054512106
88	0xbd8461a1	-0.06463934
89	0x3db537f3	0.08848562
90	0xbdd2008f	-0.10254013
91	0xbdf10b50	-0.11769736
92	0x3cb6a61d	0.022296006
93	0xbce2050a	-0.027590293
94	0x3de5c921	0.11220003
95	0x3daff635	0.08591882
96	0x3dacc3da	0.08435793
97	0x3df8589d	0.12126277
98	0x3da213ca	0.07913931
99	0x3db01578	0.08597845
100	0x3d772b14	0.060343817
101	0xbd0a28a3	-0.03373016
102	0xba5629ee	-0.00081697
103	0x3d80f98d	0.06297598
104	0xbb950d07	-0.004548672
105	0x39c450a2	0.0003744411
106	0xbdddd7d4	-0.108321816
107	0x3b953acc	0.0045541283
108	0xba8f06f4	-0.0010912106
109	0x3b27c409	0.0025599024
110	0xbdcfa20c	-0.1013833
111	0xbbe195a8	-0.0068842955
112	0xbd6b3d32	-0.057431407
113	0xbde0a76e	-0.10969435
114	0x3da9d052	0.08291687
115	0xbd2df9c4	-0.042474523
116	0xbd723d3d	-0.059140433
117	0xbcb6cfa2	-0.022315804
118	0x3ca0844e	0.019594338
119	0xbd9a0409	-0.07520301
120	0xbcdb52f7	-0.02677296
121	0xbc4c51b3	-0.0124706505
122	0xbceb67f3	-0.02873609
123	0x3d83484a	0.064102724
124	0x3de0b1ac	0.10971388
125	0x3d996402	0.07489778
126	0x3d8b63bd	0.06806133
127	0x3da3b0cf	0.07992708

encoder.mlp.4.weight f4 [256, 128]
0	0x3d5646d7	0.052313652
1	0xba6851cb	-0.0008862286
2	0x3cf00d36	0.029303174
3	0xba89a4bd	-0.0010501366
4	0x3cbe1537	0.023203475
5	0x3c7d6752	0.015466528
6	0x3cf61f17	0.030044122
7	0x38bad45d	8.908727e-05
8	0x3d4d7d89	0.050168548
9	0xbcff7f42	-0.031188611
10	0x3a81cdbe	0.0009903235
11	0x3a8a9e6a	0.0010575776
12	0x3d3bc1f6	0.045839272
13	0x3d546ca9	0.05186144
14	0xbd1a946e	-0.03773921
15	0xbd56afe1	-0.052413825
16	0x384ef84b	4.9345468e-05
17	0x39b7a0f7	0.00035024408
18	0xbd02a01b	-0.03189097
19	0xbcb38df8	-0.021918282
20	0x3c44a144	0.012001339
21	0xbccc3b37	-0.02493058
22	0xbbddf390	-0.0067734197
23	0x3d3e0648	0.04639271
24	0xbd064bcc	-0.03278713
25	0x3a040eee	0.0005037625
26	0xb8d6e09d	-0.00010246153
27	0xba80d212	-0.0009828231
28	0xbcf445ec	-0.029818498
29	0x3a92f2ed	0.0011211314
30	0xbd0280c2	-0.031861074
31	0xbc7d9ae1	-0.015478821
32	0xbd31fe61	-0.043455485
33	0xbd235c11	-0.039882723
34	0x3d269862	0.040672667
35	0xbcae5f94	-0.02128581
36	0xbc0c1b66	-0.008551454
37	0xbcf20b05	-0.02954627
38	0xbd4b9b1a	-0.049708463
39	0x3b1a5670	0.0023550056
40	0xba83e2e5	-0.0010062127
41	0x3c882c18	0.016622588
42	0xbc75d8b1	-0.015005277
43	0xbd218375	-0.039432008
44	0xbd1fa4c7	-0.038975503
45	0x3a713892	0.000920185
46	0x3cb9a4e7	0.02266164
47	0x3caabdb9	0.02084242
48	0xbc983055	-0.018577734
49	0x3d067aa4	0.032831803
50	0xbd12341f	-0.035694238
51	0xb7cbd9e2	-2.4300945e-05
52	0xbcb814d1	-0.022470864
53	0xbd4666a6	-0.048437737
54	0x3cebf6bc	0.028804176
55	0xbd59350a	-0.053029098
56	0x38560ffa	5.1036455e-05
57	0xbb2c3f4a	-0.002628284
58	0xbc15f14b	-0.009151767
59	0xba90f78c	-0.0011060103
60	0x3d15183a	0.036400057
61	0xbc0f1633	-0.00873332
62	0x3c8ef2a4	0.017449684
63	0xbc157f7b	-0.009124632
64	0x3874e2b5	5.838527e-05
65	0x383dfada	4.5294735e-05
66	0x3cc99202	0.024605755
67	0xbac84bc4	-0.0015281369
68	0xbccd1bd2	-0.02503768
69	0xbcb527bd	-0.022113675
70	0x388fcbd5	6.856738e-05
71	0x3d44c7ec	0.048042223
72	0xbc80eb52	-0.01573721
73	0xbcf3b7c8	-0.02975072
74	0xbc7c338c	-0.015393149
75	0xbc484a0b	-0.0122246845
76	0x3c1e003f	0.009643613
77	0xbc9cf813	-0.01916126
78	0x3bbf9507	0.005846623
79	0xbbddddbf	-0.006770819
80	0x3cb7d8ec	0.022442304
81	0xbc83d373	-0.016092038
82	0xbd459098	-0.0482336
83	0xba81a382	-0.0009890648
84	0xbbd30dbf	-0.0064408476
85	0xbc99dffa	-0.018783558
86	0x3d44470e	0.047919326
87	0xbb07d13d	-0.002072408
88	0xb997c6b1	-0.00028949
89	0xbd2d4e48	-0.042310983
90	0x3aa5a9c0	0.001263909
91	0xb9a84b7b	-0.00032099694
92	0x39ec108b	0.00045025753
93	0x3d1122e0	0.03543365
94	0xbcc1e996	-0.023670953
95	0xb9b5a7a8	-0.00034647924
96	0x3d345cd7	0.04403385
97	0x3c3c5457	0.011494718
98	0x3b6811e3	0.0035411052
99	0x3c06d3c1	0.008229197
100	0xbd18cd08	-0.037304908
101	0x3b9a903e	0.004716902
102	0x3c145723	0.009053978
103	0x3bde2cef	0.006780259
104	0x3d102b97	0.03519782
105	0xbd40a184	-0.047029033
106	0xb888de71	-6.526418e-05
107	0xbd177803	-0.036979686
108	0x3bcde4ca	0.0062833773
109	0x39c20098	0.00037003006
110	0x398afa07	0.00026507696
111	0x3cc12fd5	0.023582378
112	0x3d172c96	0.036907755
113	0xbc2e8dd9	-0.010653936
114	0xb922899c	-0.00015500787
115	0x3b80595c	0.0039169025
116	0x3c623393	0.013806242
117	0xb918f4a6	-0.00014586988
118	0xbc8c9f66	-0.01716585
119	0xba714ef9	-0.0009205188
120	0xbc6862da	-0.014183724
121	0xbd2138f5	-0.03936096
122	0x3be53972	0.0069953734
123	0xbccb4208	-0.02481176
124	0xbd3e2a26	-0.046426915
125	0x3aaeb458	0.0013328893
126	0xbc9ea3f6	-0.019365292
127	0x3c2a2d32	0.010386752
128	0xbc9024ca	-0.017595667
129	0x3ce63039	0.028099166
130	0xbce2ee94	-0.027701654
131	0xbd05ff92	-0.032714434
132	0x38b1d495	8.479614e-05
133	0xb95f5e36	-0.00021302034
134	0x3cd29c6b	0.025709352
135	0x3a9452d7	0.0011316192
136	0xbca45251	-0.020058783
137	0x39668295	0.00021983155
138	0x3ba660dd	0.005077465
139	0x370f57b2	8.543882e-06
140	0x3d239cef	0.039944585
141	0x38bebcbe	9.095062e-05
142	0x3d0d0eb4	0.03443785
143	0xbcae97f3	-0.02131269
144	0xbcdad000	-0.02671051
145	0xb748f446	-1.1977803e-05
146	0x3d4e24d7	0.050328102
147	0xbb91ae3b	-0.0044458187
148	0x3b95abf7	0.004567619
149	0xbd0caf3b	-0.0343468
150	0xbd5b29ff	-0.053506847
151	0x3a355127	0.00069166947
152	0xbc7d7669	-0.015470126
153	0xbc2321f0	-0.009956822
154	0xba87b507	-0.0010353633
155	0xba8ffdc4	-0.0010985662
156	0xbb6e59bf	-0.003636941
157	0x3a90dfa0	0.0011052974
158	0xba2513a0	-0.0006297175
159	0xbd4003ea	-0.046878733
160	0x3a7eca69	0.00097194925
161	0xbbb71ef6	-0.0055884076
162	0x3d41901b	0.04725657
163	0x3d513dff	0.051084515
164	0xb98b7adf	-0.00026603692
165	0x3bea179d	0.007143928
166	0x3a952fc4	0.0011382033
167	0xbd054471	-0.032535974
168	0x3b36adc4	0.0027874568
169	0x3d3bf312	0.045886107
170	0x382229a5	3.8662594e-05
171	0xbc9c5f70	-0.019088477
172	0x3d31777a	0.043326832
173	0xbd1a281c	-0.037635908
174	0xbc54d101	-0.012989284
175	0xbd281660	-0.041036963
176	0xbd416ffe	-0.047225945
177	0x3a4bac6a	0.0007769527
178	0x3d3e6cbd	0.04649042
179	0x3d3091b1	0.043107692
180	0xbd0d8d44	-0.03455855
181	0xbc35072a	-0.011049071
182	0xbcaa281d	-0.02077108
183	0x3996ceee	0.00028764404
184	0x3c83333b	0.01601564
185	0xbd09ce22	-0.03364385
186	0xbd416156	-0.047211967
187	0xbd1ac102	-0.037781723
188	0xb8baf13e	-8.914106e-05
189	0x3d4d5a6b	0.050135057
190	0xbc4bf352	-0.012448149
191	0xba91a3ba	-0.0011111416
192	0xbd1e7dec	-0.038694307
193	0xb7f01e44	-2.8624323e-05
194	0xbd28fb5f	-0.04125535
195	0xbb0b4a99	-0.002125418
196	0xbc35e9ba	-0.011103088
197	0x3d21ae55	0.039472897
198	0x3d43b98c	0.047784373
199	0x3cf34044	0.02969373
200	0xbcd54e33	-0.026038265
201	0x3cfbb7d0	0.030727297
202	0x3886f746	6.435676e-05
203	0x3d1a24a3	0.037632596
204	0x384b920f	4.8535e-05
205	0x3c8a31db	0.016869476
206	0x3caefb2b	0.02136
207	0xbd4b0642	-0.049566515
208	0xbc0e2204	-0.008675102
209	0x3b873383	0.0041260137
210	0xbd34611a	-0.044037916
211	0x3d3700f5	0.044678647
212	0x3c83c345	0.016084323
213	0x3ceaf9fc	0.028683655
214	0x3c32b7b8	0.01090806
215	0xba92022f	-0.0011139567
216	0x3d243c3b	0.040096503
217	0x38171b69	3.6026733e-05
218	0x386f0687	5.698812e-05
219	0xb8dfef0a	-0.00010677993
220	0xbbee172c	-0.007265946
221	0xbd31182d	-0.043235946
222	0xbd35611e	-0.04428207
223	0xbcf1e0ba	-0.029526103
224	0xbb0ebbd3	-0.0021779432
225	0x3c7dd5e4	0.01549289
226	0xbcb8446c	-0.022493564
227	0xba625337	-0.0008633616
228	0xbd3f8bbb	-0.046764117
229	0xb8777775	-5.9000642e-05
230	0x3c8537e2	0.016261999
231	0x3a86df0c	0.0010289862
232	0xbb4a4178	-0.0030861776
233	0xbd0a7c81	-0.033810142
234	0x3a76a045	0.00094080373
235	0xba952765	-0.0011379538
236	0x3b80c586	0.0039297966
237	0x3cc7bdb2	0.024382446
238	0xbc8f8568	-0.017519668
239	0xbcfc074f	-0.030765204
240	0xb9aee480	-0.00033358112
241	0x3a8079e8	0.0009801956
242	0x3c6a0be7	0.014285064
243	0xba4e7b33	-0.00078766345
244	0xb9a5d7de	-0.00031632086
245	0xb838c0a3	-4.4048425e-05
246	0xbd24ceee	-0.040236406
247	0x3a81f756	0.0009915631
248	0x3c686c90	0.01418604
249	0xba3363ae	-0.00068431615
250	0x3a77c752	0.0009452003
251	0xbd4cfa28	-0.050043255
252	0xbd48b7bb	-0.049003344
253	0x3ce105f1	0.027468653
254	0xbcbfc2db	-0.023408344
255	0xbcd9a804	-0.026569374

encoder.mlp.4.bias f4 [256]
0	0x3d173790	0.036918223
1	0x3cc680c6	0.024231326
2	0xbd8661c7	-0.06561618
3	0x3c603023	0.013683352
4	0x3cda2607	0.026629461
5	0x3d005e98	0.03134021
6	0x3cd61b07	0.026135935
7	0xbd245e3a	-0.040128924
8	0xbbec9171	-0.0072194864
9	0x3c7870ee	0.015163643
10	0x3d26515f	0.040604945
11	0x3d84a9e0	0.064777136
12	0x39249832	0.00015696956
13	0x3cddda99	0.027081775
14	0xbda67e97	-0.08129614
15	0x3be13344	0.0068725664
16	0xbd8eab5e	-0.069662794
17	0xbdaf7a85	-0.085682906
18	0xbd8cf2e8	-0.06882268
19	0xbd736234	-0.059419826
20	0x3da6ee41	0.08150912
21	0x3bb12893	0.005406448
22	0xbd76b209	-0.06022838
23	0x3b6f0961	0.0036474096
24	0x3923abff	0.00015608965
25	0xbd278649	-0.04089955
26	0xbd91e39c	-0.07123491
27	0x3d4ec910	0.050484717
28	0x3d6794b4	0.0565383
29	0xba019c7c	-0.00049442775
30	0x3d232dff	0.039838787
31	0xbc5807cb	-0.013185452
32	0xbc97890f	-0.018497972
33	0x3d15542a	0.03645722
34	0xbd219e04	-0.039457336
35	0x3da9528d	0.082676984
36	0xbd560e94	-0.052259997
37	0xbd7e55bf	-0.062093493
38	0x3cb086aa	0.021548588
39	0xbd7fe6a2	-0.062475808
40	0xbc45235d	-0.012032357
41	0x3c9f6e2b	0.019461712
42	0xbc2939b1	-0.010328696
43	0x3d66c06a	0.056335844
44	0x3c89c4c4	0.016817458
45	0x3d3108b4	0.04322119
46	0xbd7193ca	-0.058978833
47	0x3c9028fa	0.017597664
48	0x3db1f8cd	0.08690033
49	0x3d8d5a34	0.069019705
50	0xbcd0eb95	-0.02550296
51	0xbd4a7b31	-0.04943389
52	0x3d31cb11	0.04340655
53	0xbcfa6203	-0.030564314
54	0x3c30b125	0.010784422
55	0xbc93c44c	-0.018037938
56	0x3bdf1940	0.00680843
57	0xbc48f9a0	-0.0122665465
58	0xbb1af058	-0.0023641791
59	0xbcc386fb	-0.023868075
60	0xbd65447b	-0.05597351
61	0xbd74c06a	-0.059753813
62	0xbdb3a498	-0.08771628
63	0x3daf1acc	0.08550033
64	0xbcc19957	-0.023632688
65	0x39a6c049	0.0003180525
66	0xbcb91382	-0.02259231
67	0xbc8383bb	-0.016054025
68	0xbc7e0cdd	-0.0155059965
69	0x3d592d81	0.05302191
70	0xbca8edfe	-0.020621296
71	0xbd272be2	-0.040813334
72	0x3d148cb2	0.03626699
73	0xbd390f9b	-0.0451809
74	0xbc74178b	-0.014898191
75	0x3cddbb83	0.027066952
76	0x3d6994ee	0.057026796
77	0xbd842cf3	-0.06453886
78	0x3d93ea6c	0.07222447
79	0x3d3c6572	0.045995183
80	0x3db19e8f	0.08672821
81	0xbcb04b2a	-0.021520216
82	0xbcfc2f49	-0.030784266
83	0x3dc335b3	0.09531727
84	0x3d700363	0.05859698
85	0x3c8e8870	0.017399043
86	0xbcde9487	-0.027170433
87	0x3b2c5df6	0.0026301122
88	0x3d5b6c29	0.053569946
89	0x3c1f541c	0.009724643
90	0x3cd1eec8	0.025626555
91	0x3db04530	0.086069465
92	0x3da25f90	0.07928383
93	0x3d46cca6	0.04853501
94	0x3d8741ce	0.06604348
95	0x3d9a1921	0.07524324
96	0x3daec336	0.08533327
97	0xbd58d253	-0.052934956
98	0xbd7915ef	-0.060811933
99	0xbd95f6b1	-0.07322443
100	0x3bce6fe4	0.0062999595
101	0x3cfe08a4	0.03100998
102	0xbd8f25cf	-0.06989633
103	0xbca839e6	-0.02053542
104	0x3bb4ac90	0.005513735
105	0x3dc17289	0.09445674
106	0x3d226f1a	0.039656736
107	0xbd12b9e4	-0.03582181
108	0xba450a63	-0.00075165014
109	0x3bc7d56f	0.0060984413
110	0xbd6ba906	-0.05753424
111	0x3d264ea8	0.040602356
112	0xbaa31904	-0.0012443368
113	0x3d854e1b	0.06509038
114	0x3d3862e8	0.0450162
115	0x3d4f70df	0.05064475
116	0x3b6ae5ff	0.0035842655
117	0xbcce8742	-0.02521098
118	0x3cc2d961	0.023785295
119	0x3c5ce7f6	0.013483038
120	0xbcab2f1b	-0.020896485
121	0x3d84d8b3	0.064866446
122	0x3d9ebb5f	0.07750582
123	0x3d1be58a	0.038060702
124	0xbce2916c	-0.027657233
125	0x3c8fc440	0.017549634
126	0xbd07bf54	-0.03314145
127	0xbcac18d5	-0.021007935
128	0xbd042f79	-0.032271836
129	0xbd0a8dc8	-0.03382662
130	0x3c1d2eb3	0.0095936535
131	0x3cb49821	0.022045197
132	0x3a854e3a	0.0010170408
133	0xbd90cc9d	-0.07070277
134	0x3d69b36d	0.05705588
135	0xbd3cfe9b	-0.04614125
136	0x3daa9dbc	0.08330867
137	0xbd2b8f4a	-0.041884698
138	0x3d233072	0.039841123
139	0x3cd825a8	0.026385143
140	0x3d2841a8	0.04107824
141	0xbdc61afe	-0.09673117
142	0xbd19c70a	-0.037543334
143	0xbcf723aa	-0.030168373
144	0xbcfb1361	-0.030648889
145	0x3ca39c9f	0.019972144
146	0x3d529adc	0.051417217
147	0x3dd1af86	0.102385566
148	0xbcc4503d	-0.023964042
149	0x3dc6a7bc	0.096999615
150	0x3d86719b	0.06564637
151	0x3d8f8c64	0.07009199
152	0xbc8c0e08	-0.017096534
153	0x3ce369a6	0.027760338
154	0x3dc819f9	0.09770579
155	0xbd5ea078	-0.054352254
156	0xbd14e089	-0.036346946
157	0x3bc6d1cc	0.00606749
158	0xbb0521d1	-0.0020314346
159	0xb9317b7d	-0.00016926038
160	0xbcd6ab91	-0.026204856
161	0x3d36456e	0.044499807
162	0xbd3668b2	-0.04453344
163	0x3c22645c	0.009911623
164	0x3cbf4dad	0.023352468
165	0x3d119a8f	0.03554779
166	0xbd2d941b	-0.042377573
167	0x3d4c7d27	0.049924042
168	0xbc2b79c7	-0.010466046
169	0xbc3a58eb	-0.011373739
170	0x3d7ec35a	0.06219802
171	0x3a903207	0.0011001237
172	0x3cddc42d	0.027071083
173	0x3cf924fa	0.03041314
174	0x3d154c82	0.036449917
175	0xbcec538c	-0.028848432
176	0x3d537873	0.05162854
177	0xbd989a36	-0.074512884
178	0x3d508b56	0.05091413
179	0x3da9d74c	0.08293018
180	0xbc6c1b0c	-0.014410745
181	0x3cb126b9	0.02162491
182	0x3d9516b7	0.07279723
183	0xbd52bc83	-0.05144931
184	0x3d70907e	0.05873155
185	0xbdade666	-0.08491211
186	0xbccaed88	-0.024771467
187	0x3d9744f0	0.07386196
188	0x3d5f2a72	0.05448384
189	0xbc4b87de	-0.01242253
190	0xbd7a4d97	-0.06110915
191	0xbcb7ebd5	-0.02245132
192	0x3b0d21b8	0.002153499
193	0xbd1eec3b	-0.038799506
194	0xbd52dbd4	-0.051479176
195	0x3d9dc850	0.07704222
196	0x3cd996d0	0.02656117
197	0xbc613745	-0.013746087
198	0xbd5a0019	-0.05322275
199	0x3d00eb86	0.031474613
200	0x3ca9328a	0.020653982
201	0x3d999896	0.074998066
202	0xbd128fb5	-0.03578158
203	0xbd7b2a26	-0.061319493
204	0xbc6e8990	-0.014559165
205	0xbd80d146	-0.06289916
206	0x3d65c068	0.056091696
207	0xbd67799a	-0.056512453
208	0x3cf2ca26	0.029637408
209	0xbcf5a272	-0.029984687
210	0x3da2750a	0.0793248
211	0x3d93bc0b	0.07213601
212	0x3d39e6e4	0.04538621
213	0x3cb44389	0.02200486
214	0xbd863aba	-0.0655417
215	0xbc0c266b	-0.008554081
216	0xbd6a7cd8	-0.057247967
217	0x3d4c5c26	0.049892567
218	0x3cf89493	0.030344283
219	0xbc6485a1	-0.013947875
220	0xbd0c5802	-0.03426362
221	0xbc9f3069	-0.019432263
222	0xba8d5b74	-0.0010784701
223	0xbc7922f2	-0.0152060855
224	0x3cd665b8	0.02617155
225	0x3da03a80	0.07823658
226	0x3d40a10d	0.04702859
227	0x3bf8b2b3	0.007589662
228	0xbd40cc46	-0.04706981
229	0x3d6e5717	0.058188524
230	0x3d67cb80	0.056590557
231	0xbc974850	-0.018467098
232	0xbd33163e	-0.043722384
233	0x3c0e1ed1	0.008674339
234	0xbc551877	-0.013006321
235	0x3cd49732	0.025951002
236	0x3dba3fe8	0.090942204
237	0xbd9719a8	-0.073779404
238	0x3d9821de	0.07428335
239	0xbd909393	-0.070593975
240	0x3d2af64c	0.041738793
241	0xbd1f457d	-0.03888463
242	0xbcc8d135	-0.02451382
243	0x3d98db07	0.07463651
244	0x3cdc6545	0.026903758
245	0xbd834971	-0.06410492
246	0xbcd4cb07	-0.025975717
247	0x3d57c559	0.05267844
248	0x3d087974	0.03331895
249	0x3d8c7806	0.0685883
250	0x3cd2602d	0.025680626
251	0xbda8ca60	-0.08241725
252	0x3d1578cd	0.036492158
253	0x3d923017	0.07138079
254	0x3d9f0023	0.07763698
255	0xbdb86a20	-0.09004617

pos_mlp.0.weight f4 [32, 1]
0	0xbe9ec02f	-0.31006
1	0x3f3830dc	0.71949553
2	0xb8a5ef38	-7.912371e-05
3	0xbefaf230	-0.490129
4	0xbe934248	-0.28761506
5	0x3f56693b	0.8375432
6	0x3eef3cee	0.46726173
7	0x3f083488	0.53205156
8	0xbef06969	-0.46955422
9	0xbefbc0db	-0.49170575
10	0x3e157523	0.14595465
11	0xbf1e3ff7	-0.6181635
12	0xbf1371fe	-0.57595813
13	0xbcb724a6	-0.022356343
14	0xbd8908ed	-0.066911556
15	0x3ef47d3c	0.47751796
16	0xbeffc2fb	-0.49953446
17	0x3f4c889c	0.7989595
18	0xbe530ffe	-0.2061157
19	0x3f326f98	0.6970153
20	0x3e695a79	0.22788419
21	0xbee0a08f	-0.43872496
22	0x3ef486cd	0.47759095
23	0xbec0a2d9	-0.37624243
24	0x3e9bc039	0.30420092
25	0x3eed1c55	0.46310678
26	0xbe81de24	-0.25364792
27	0x3e06ee42	0.13176826
28	0x3e778293	0.24170904
29	0x3f1bb469	0.6082216
30	0xbdc154b0	-0.09439981
31	0xbea7505d	-0.326785

pos_mlp.0.bias f4 [32]
0	0xbf13cf48	-0.5773816
1	0x3d852e78	0.06503004
2	0xbe3df6f6	-0.1855124
3	0xbf4303f9	-0.76177937
4	0x3dd30f63	0.10305669
5	0x3eb95d92	0.362042
6	0x3d4d8615	0.0501767
7	0x3ee2b527	0.44278833
8	0x3f19aa94	0.60025907
9	0x3f2ae4a4	0.6675513
10	0xbdbcc054	-0.09216371
11	0xbf66af9f	-0.90111727
12	0x3ebc80e4	0.36817086
13	0x3f423fef	0.75878805
14	0xbf725867	-0.9466614
15	0x3f469c45	0.775822
16	0x3e30172e	0.17196342
17	0x3e3986ff	0.18117903
18	0x3edfbe24	0.43699753
19	0xbe164d21	-0.1467786
20	0x3ea748b8	0.32672668
21	0xbeb4d1c4	-0.35316288
22	0xbe983bc7	-0.29733106
23	0x3e036406	0.12831125
24	0xbe8ff550	-0.28116846
25	0xbf4fe180	-0.8120346
26	0xbf667ef6	-0.90037477
27	0x3ed9df59	0.42553213
28	0x3f6c7a29	0.923739
29	0xbec17dae	-0.37791198
30	0x3f25e152	0.64796937
31	0x3eb67cdf	0.35642144

pos_mlp.2.weight f4 [32, 32]
0	0x3de0e87b	0.10981842
1	0xbd0f2fb7	-0.034957614
2	0x3a935e1b	0.0011243256
3	0x3d1235c8	0.03569582
4	0xbd830a17	-0.06398409
5	0x3d1f1b07	0.038844135
6	0xbcab49c3	-0.020909196
7	0xbe06dd79	-0.13170423
8	0x3c8f3e77	0.01748584
9	0xbdafd02d	-0.08584628
10	0x3d4c7658	0.04991755
11	0x3d539ab4	0.05166121
12	0x3cbdbb6c	0.023160659
13	0xbcfb409d	-0.030670458
14	0x3ddadc34	0.10686532
15	0x3e1dede1	0.15422775
16	0x3dbdc6f5	0.09266464
17	0x3e057b11	0.13035227
18	0x3e222ee7	0.15838204
19	0x3de0e038	0.10980266
20	0xbe31771b	-0.17330591
21	0x3a9de786	0.0012047149
22	0xbde7e2b5	-0.11322538
23	0xbcd2fb2c	-0.025754534
24	0xbd360b2b	-0.044444244
25	0x39479fcf	0.00019037652
26	0x3db7aec1	0.089688785
27	0x3dda6675	0.106640734
28	0x3dbc34f9	0.09189791
29	0xbdbb7c9f	-0.09154629
30	0x3d27ba2c	0.04094903
31	0xbe18bd0f	-0.1491587
32	0xbcd18c58	-0.025579616
33	0xb9b07881	-0.00033659118
34	0x3d10585c	0.035240516
35	0xbd383002	-0.04496766
36	0x3dc2b609	0.09507377
37	0xbd865bff	-0.065605156
38	0xbbcb3ccf	-0.0062023173
39	0xb8d23dcf	-0.00010025093
40	0xbdd21c62	-0.1025932
41	0x3be6f0be	0.0070477417
42	0xbc85fac3	-0.016354924
43	0xbcae3a38	-0.021267995
44	0x3d7513ce	0.05983334
45	0xbd9cfbbf	-0.07665204
46	0x3c180831	0.009279297
47	0x3c0600a0	0.00817886
48	0x3cd24029	0.02566536
49	0xbdaab4a8	-0.08335239
50	0xbd55971c	-0.052146062
51	0x3d056c10	0.03257376
52	0xbe0125f5	-0.12612136
53	0x3d988f53	0.07449212
54	0xbd9a0e5e	-0.075222716
55	0xbdc63fce	-0.096801385
56	0x3e05775c	0.13033813
57	0xbc4f6850	-0.012659147
58	0x3c54c966	0.01298747
59	0x3da7e636	0.08198206
60	0xbd22b660	-0.039724708
61	0x3dadc085	0.08483986
62	0x3a7feb25	0.00097625173
63	0xbbc9e87c	-0.0061617475
64	0xbe0e131b	-0.13874476
65	0x3e226116	0.15857348
66	0x3ce35d11	0.027754338
67	0x3d860613	0.06544127
68	0xbe0e1be4	-0.13877827
69	0x3de09935	0.10966722
70	0x3c012411	0.007882134
71	0x3e17d11b	0.14825861
72	0x3d85ecd8	0.06539315
73	0x3d389001	0.045059208
74	0x3dc629e9	0.096759625
75	0x3d9ba2a9	0.07599384
76	0x3e1c11aa	0.15241113
77	0x3dd4b21e	0.10385536
78	0xbe0ce69f	-0.1375985
79	0xbe329bf2	-0.17442301
80	0xbd856fb6	-0.06515448
81	0xbd86a662	-0.06574704
82	0xbc1d1cb0	-0.009589359
83	0xbc8f559b	-0.017496875
84	0xbdad494a	-0.084612444
85	0x3c57f695	0.013181348
86	0xbdb76d36	-0.08956377
87	0x3d26237a	0.040561177
88	0xbd0de4fb	-0.0346422
89	0x3e008d24	0.12553841
90	0x3dd50255	0.104008354
91	0xbe2ff130	-0.1718185
92	0x3d8d0d1a	0.068872645
93	0x3dc7c6df	0.097547285
94	0xbd16cd57	-0.03681692
95	0x3e1cc27e	0.15308568
96	0xbbee817d	-0.00727862
97	0x3d3a18d6	0.04543384
98	0x3de5fa31	0.11229361
99	0xbd9b8a5f	-0.075947516
100	0x3d5cf882	0.053947933
101	0xbdbe9419	-0.09305591
102	0x3d07dd9a	0.03317032
103	0x3dd40b61	0.10353733
104	0xbdb757c4	-0.08952287
105	0x3e2b080e	0.16702291
106	0xbe0ee260	-0.13953543
107	0x3d489961	0.0489744
108	0xbe0d0745	-0.13772304
109	0x3d1f0319	0.038821314
110	0x3e01c9b7	0.12674604
111	0x3dce38a2	0.100693956
112	0xbe178575	-0.14797004
113	0x3db23c9b	0.08702966
114	0x3db781cc	0.08960304
115	0x3df5d991	0.12004388
116	0xbc8fcd01	-0.017553808
117	0xbcfb9b93	-0.030713832
118	0x3db88330	0.09009397
119	0x3d2a2267	0.041536715
120	0x3d5a14be	0.053242438
121	0x3cfc73f6	0.030817013
122	0xbdf54622	-0.119762674
123	0xbe180c9a	-0.14848557
124	0x3dc32753	0.09528985
125	0xbdcb8b30	-0.09938657
126	0xbce1e582	-0.027575258
127	0xbdfba7bd	-0.12287853
128	0xba9532d6	-0.0011382948
129	0x3d2ed314	0.04268177
130	0xb99053ce	-0.0002752826
131	0xbdefc5a5	-0.117076196
132	0xbd70e6cd	-0.05881386
133	0x3bcb481d	0.006203665
134	0x3cf2a134	0.029617883
135	0xbdf92b69	-0.12166483
136	0x3ba4d9d6	0.005030851
137	0x3dd0d3a6	0.10196619
138	0x3cf1d351	0.029519709
139	0x3e071f31	0.13195492
140	0xbdcd626e	-0.100285396
141	0xbcc3c0e8	-0.023895696
142	0xbda55a1c	-0.080738276
143	0xbe0755e9	-0.13216366
144	0x3c055c71	0.0081397155
145	0x3de64b55	0.11244837
146	0x3d951ca8	0.07280856
147	0xbdab3822	-0.08360316
148	0x3da139e2	0.078723684
149	0xbd329a6f	-0.04360431
150	0x3801b431	3.0923813e-05
151	0xbd7650aa	-0.06013552
152	0xbdf42a69	-0.119221516
153	0xbcc50686	-0.024050962
154	0x3d75d94b	0.06002168
155	0xb9bbedeb	-0.00035844682
156	0xbd96fb68	-0.07372171
157	0xbd7db206	-0.061937355
158	0xbd73f11d	-0.059556115
159	0x3dddfb31	0.108389266
160	0x3c01dccf	0.00792618
161	0x3e129864	0.14315945
162	0x3dc3e6e0	0.0956552
163	0xbd4ee04b	-0.05050687
164	0xbcbbd845	-0.022930274
165	0x3e091fc4	0.13391024
166	0x3de62dce	0.11239205
167	0x3de3bff5	0.11120597
168	0xbcd70b71	-0.026250573
169	0xbd92d375	-0.071692385
170	0xbd92e3b6	-0.07172339
171	0x3d457f7b	0.048217278
172	0x3c248270	0.010040864
173	0xbd8221c9	-0.063541
174	0x3d83ca1f	0.06435036
175	0xbd8a4447	-0.06751304
176	0xbdbd0b7c	-0.09230706
177	0xbdc4404e	-0.09582578
178	0xbd398208	-0.045290023
179	0xbe000614	-0.12502319
180	0x3d999e0e	0.0750085
181	0x392c63a6	0.0001644032
182	0x3de53f17	0.11193674
183	0xbc40d8e0	-0.011770457
184	0x3d95d950	0.0731684
185	0xbda0946f	-0.078408115
186	0xbd79dad1	-0.060999695
187	0x3db48d72	0.08816041
188	0x3e18e05f	0.14929341
189	0xbc26e928	-0.010187425
190	0xbdd9c68f	-0.10633575
191	0xbd837ea4	-0.06420639
192	0xbdbdc3cd	-0.09265862
193	0x3e0c971b	0.13729517
194	0xbda6d2f7	-0.08145707
195	0x3dd8447d	0.10559938
196	0x3ab53404	0.0013824706
197	0xbdf6aa49	-0.12044198
198	0x3d457e67	0.04821625
199	0xbdf5281b	-0.1197054
200	0x3d2d549f	0.04231703
201	0x3db807c9	0.0898586
202	0xbd530d81	-0.05152655
203	0xbe09fc70	-0.13475204
204	0xbdac93b9	-0.08426613
205	0x3a8d9573	0.0010801986
206	0xbda71b36	-0.08159487
207	0x3d134a62	0.03595961
208	0xbdef9614	-0.11698547
209	0xbcdb245b	-0.026750734
210	0x3b90f7c7	0.0044240686
211	0xbdc3b94d	-0.09556828
212	0x3de5affe	0.112152085
213	0x3d73e6d8	0.05954632
214	0xbc93543c	-0.017984502
215	0xbd3a0c29	-0.045421753
216	0xbdec4f5b	-0.11538573
217	0x3d82e2e1	0.0639093
218	0xbc9d2602	-0.019183163
219	0xbd8279d0	-0.0637089
220	0xbdc33b6f	-0.095328204
221	0x3db17d44	0.08666471
222	0x3d763021	0.060104493
223	0xbd8d036a	-0.06885417
224	0x3c93200c	0.017959617
225	0xbe0d19da	-0.13779393
226	0x3d94e8ce	0.072709665
227	0xba153273	-0.00056914164
228	0x3ce56a73	0.02800486
229	0xbc7339e4	-0.014845345
230	0xbd79b533	-0.06096382
231	0xbc65bc87	-0.014021999
232	0xbdf55e8f	-0.11980926
233	0xbded33e7	-0.11582165
234	0x3e0e718d	0.13910504
235	0xba3d6cf2	-0.0007226012
236	0x3c71ffa9	0.014770427
237	0xbe2f57d2	-0.17123345
238	0xbdba64ae	-0.091012344
239	0x3db18071	0.086670764
240	0x3d9a65d8	0.075389564
241	0x3b5b10cb	0.0033426757
242	0x3e15524b	0.14582174
243	0xbe10df46	-0.14147672
244	0xbe0fe5bd	-0.14052482
245	0x3babdcb6	0.0052448167
246	0xbcb8d7c1	-0.022563817
247	0x3dd916b2	0.10600032
248	0x3a6eabaf	0.00091045623
249	0xbe0c521d	-0.13703199
250	0xbdfb9460	-0.1228416
251	0xbc0603bc	-0.008179601
252	0x3dde2f75	0.108488955
253	0xbd1a48cc	-0.03766708
254	0x3d7c13ab	0.061542194
255	0xbdf9b9c5	-0.12193636

pos_mlp.2.bias f4 [32]
0	0xbdcb1206	-0.09915547
1	0xbd78c79a	-0.06073723
2	0xbdc23d7d	-0.09484384
3	0xbc07cb8b	-0.0082882745
4	0xbd0659d9	-0.03280053
5	0xbd33e0e7	-0.043915655
6	0xbae06eeb	-0.00171229
7	0x3e083a1c	0.13303417
8	0x3d6375e6	0.05553236
9	0xbd508f7a	-0.05091808
10	0xbdc2eb05	-0.09517483
11	0x3cd08c7e	0.025457617
12	0x3df1a927	0.117998414
13	0xbcdf40a2	-0.027252499
14	0xbca95682	-0.020671133
15	0xbd229eb5	-0.039702136
16	0xbdc66a3f	-0.096882336
17	0xbd52be6b	-0.051451128
18	0x3ba211a3	0.00494595
19	0x3d97ea5d	0.07417748
20	0xbcfc9360	-0.030831993
21	0xbc2b48db	-0.010454382
22	0x3cb86b0d	0.022511983
23	0xbc077005	-0.008266454
24	0x3e091d37	0.13390051
25	0xbdccd8ae	-0.10002266
26	0x3d0a86e8	0.033820063
27	0xbbcd26ad	-0.006260714
28	0xbd1854e8	-0.037190348
29	0x3c040671	0.008058176
30	0x3d2acd6c	0.04169981
31	0xbd86620e	-0.06561671

dec_trunk.0.weight f4 [128, 288]
0	0xb9b22085	-0.00033975035
1	0x3c909cf4	0.017652966
2	0xbb4166c1	-0.002951071
3	0x3c13ebd3	0.009028393
4	0xbb478997	-0.0030447
5	0x3abbdc4f	0.0014332625
6	0xbca1b724	-0.019740649
7	0xbb13ce4c	-0.0022553382
8	0xbb183dc7	-0.0023230182
9	0xbc4c86eb	-0.012483339
10	0xbc5461e4	-0.012962792
11	0xba903a41	-0.0011003689
12	0xbb9f0d51	-0.0048538824
13	0xbc8951bf	-0.016762612
14	0x3c4068e9	0.0117437625
15	0x3961d261	0.00021536044
16	0x3c6bd519	0.014394068
17	0xbc8a0e80	-0.016852617
18	0x3956939b	0.00020463618
19	0x3980e3ef	0.00024583886
20	0x3c7840cb	0.015152167
21	0x397a688a	0.00023880802
22	0xb98ba799	-0.00026637016
23	0xba8773e4	-0.0010334221
24	0xba1613a7	-0.00057249743
25	0xb88c70d8	-6.696739e-05
26	0x3a6192ef	0.00086049637
27	0xbca97fe9	-0.020690875
28	0xbc357db4	-0.011077333
29	0x3c2f09ca	0.010683486
30	0xbbe2c6ce	-0.006920672
31	0x3bb8d38d	0.005640453
32	0x3ccb9f92	0.024856362
33	0x360e2003	2.1178282e-06
34	0x3a91e23d	0.0011130046
35	0xbb3df046	-0.0028982325
36	0xb925bae1	-0.00015805244
37	0x3b4566fd	0.00301212
38	0xbc694de4	-0.014239762
39	0x38bbf5bb	8.962626e-05
40	0xbca8fd4a	-0.02062859
41	0x3b8d57ab	0.0043134294
42	0x3a935ac3	0.0011242259
43	0x38899c42	6.561774e-05
44	0x3c6f8152	0.014618235
45	0xbc4b6f2f	-0.012416645
46	0xbb1b143d	-0.0023663186
47	0x3c8cff01	0.01721144
48	0xba8ae165	-0.0010595737
49	0xbc3a2e7b	-0.011363621
50	0x39652023	0.00021851114
51	0x3c948e76	0.018134337
52	0x3a952d77	0.0011381347
53	0xbcbfc311	-0.023408445
54	0xbcd025a1	-0.025408568
55	0x3bd7d88a	0.0065870928
56	0xb92cec3a	-0.000164912
57	0x39d74aa5	0.0004106361
58	0xbc01ce9a	-0.007922793
59	0xbcc26fcf	-0.023734955
60	0x3cc3ff54	0.02392546
61	0x3b43c324	0.0029870952
62	0x3cbcc085	0.02304102
63	0x3c15163e	0.009099541
64	0x3a19227c	0.00058416254
65	0xbbd4e59b	-0.0064970977
66	0x3a6ad41c	0.00089579984
67	0x3bf3d673	0.007441336
68	0x3b3fe64e	0.002928156
69	0xba7b831a	-0.0009594426
70	0xbb9a098b	-0.0047008446
71	0xbcd0e9ed	-0.02550217
72	0x3b912262	0.0044291476
73	0xbb82fff7	-0.0039977985
74	0x3c3dfc1d	0.011595753
75	0xbc66e3c0	-0.014092386
76	0xbc876d6e	-0.016531672
77	0xbcb84ae1	-0.022496643
78	0xbc506725	-0.012719904
79	0xbc8b93b0	-0.017038196
80	0x3a945374	0.0011316375
81	0xbcd33f96	-0.025787156
82	0xb9581630	-0.0002060763
83	0xbae431a7	-0.0017409817
84	0x380fdb03	3.4297827e-05
85	0xb880bd53	-6.13878e-05
86	0x3cc69591	0.02424124
87	0x3cca9ded	0.024733508
88	0xb9a130bf	-0.00030744632
89	0xb816a444	-3.591577e-05
90	0x3b3d4d69	0.0028885251
91	0xb88e277c	-6.778442e-05
92	0x3c7ea3ea	0.01554201
93	0x3c38b29f	0.011273055
94	0xba94a4fd	-0.0011340674
95	0xbc83b126	-0.016075682
96	0xbc9124b5	-0.017717699
97	0x3a8f8771	0.0010950399
98	0x3ca8f121	0.020622792
99	0x39045a0b	0.00012622045
100	0x382a5843	4.061336e-05
101	0xbba13847	-0.004920039
102	0x3c2145fa	0.009843344
103	0xbbedd13b	-0.007257608
104	0xbbdb5996	-0.006694029
105	0xbc58e33a	-0.013237769
106	0xb8fc5629	-0.00012032345
107	0xbc46f1be	-0.012142597
108	0xbc301357	-0.0107467985
109	0x3a514906	0.00079835986
110	0x3c15cc5d	0.009142962
111	0xb82bbe9d	-4.09471e-05
112	0xbb6e35d6	-0.0036348007
113	0x388fdc0a	6.859757e-05
114	0x39fe210b	0.00048471274
115	0xba8dcd21	-0.001081858
116	0xb7a36d29	-1.9481946e-05
117	0x3b18d4da	0.0023320229
118	0x3c9fe27a	0.019517172
119	0xbcdad094	-0.026710786
120	0xbc198840	-0.009370863
121	0x3caaf686	0.020869505
122	0xba479be3	-0.00076144765
123	0x3cc02104	0.023453243
124	0xbc90997b	-0.01765131
125	0x3a8dc328	0.0010815607
126	0xbbed9f0c	-0.007251626
127	0x3a94ece5	0.0011362104
128	0xbcc6c9d2	-0.024266157
129	0xb9a289c3	-0.00031001688
130	0x3a93f56a	0.0011288349
131	0xb9ae33a8	-0.00033226353
132	0x3c37f3e0	0.011227578
133	0xbc3c6b16	-0.011500141
134	0x3aab8870	0.0013086926
135	0xbb095ee5	-0.0020961103
136	0xbb935fb2	-0.0044974918
137	0xb9b23dd8	-0.00033996883
138	0x3cd2af80	0.02571845
139	0x3c01ac3f	0.007914602
140	0x3c1dc943	0.009630504
141	0x3a0cd517	0.0005372329
142	0x3a8e47d9	0.0010855153
143	0xba75b1ea	-0.00093725196
144	0x3a197a81	0.00058547413
145	0x3c86e78f	0.016467838
146	0xba508a7c	-0.0007955206
147	0xba9775e7	-0.0011555523
148	0xb968ebde	-0.00022213112
149	0xbabe4714	-0.0014517033
150	0xbc2a4995	-0.01039352
151	0xbbbd72ac	-0.005781492
152	0x3b3ba978	0.0028634947
153	0xbca3eb5f	-0.020009695
154	0xbca04d09	-0.019567983
155	0x3c6c8b8d	0.014437568
156	0xb902fed5	-0.00012492698
157	0x3bdf4871	0.0068140556
158	0x38fad436	0.00011960456
159	0x3c31ad30	0.010844514
160	0xbbbad4f5	-0.005701656
161	0x3a98f338	0.0011669165
162	0xbc1fc0ab	-0.0097505255
163	0x3a7df637	0.0009687873
164	0x3c39cff2	0.011341082
165	0xb94a5176	-0.00019294568
166	0x3b9ba0b9	0.0047493842
167	0x3a91e304	0.0011130278
168	0xbcd7633f	-0.026292441
169	0xbbb7aacd	-0.005605078
170	0xbc9d8a48	-0.019230977
171	0x3ca01c73	0.019544816
172	0xbc4eb4d5	-0.012616356
173	0x3c916e0f	0.017752675
174	0x3c8a9600	0.016917229
175	0x3a2e56b8	0.00066504953
176	0x3a2f91f1	0.0006697467
177	0x3c8ac855	0.016941229
178	0x3c9c0915	0.0190473
179	0xbb8b54cb	-0.0042520515
180	0xbb53d699	-0.0032323955
181	0xba1249b2	-0.00055804395
182	0xbcba6ae1	-0.022756042
183	0x3cb7e0e2	0.0224461
184	0x38916b06	6.9340735e-05
185	0xbc1b719d	-0.009487537
186	0xba5a41b9	-0.00083258335
187	0xba952b58	-0.0011380715
188	0xbc015a58	-0.007895075
189	0x39163742	0.000143257
190	0x3cca4417	0.02469067
191	0xbc9bdc14	-0.01902584
192	0xba17a83b	-0.0005785261
193	0x3c2a42cd	0.010391903
194	0xbcbed561	-0.023295106
195	0xbbe8c12d	-0.0071031065
196	0x399fc3d1	0.00030472738
197	0xbc9a97ac	-0.01887115
198	0xb9850e29	-0.00025378287
199	0x3a682479	0.00088555325
200	0x3a8f075f	0.0010912231
201	0x3be09458	0.0068536215
202	0xbc739490	-0.014866963
203	0x3a957d5a	0.0011405156
204	0x3cd9442d	0.026521767
205	0x3a8eccb6	0.0010894749
206	0xb8592779	-5.1773593e-05
207	0xb8d5a557	-0.000101874284
208	0x3cae71c9	0.021294491
209	0xbab71760	-0.0013968758
210	0xb95c668e	-0.0002101904
211	0x3bb8dcd3	0.0056415587
212	0xb915935b	-0.00014264642
213	0xb88d1249	-6.72681e-05
214	0xbca50614	-0.0201445
215	0x3ca17a0d	0.019711519
216	0xbc9441a8	-0.018097714
217	0x3691be07	4.343459e-06
218	0x3ca980e0	0.020691335
219	0xbc34bc79	-0.0110312635
220	0xb9e5b70b	-0.0004381466
221	0x3bbc7989	0.005751793
222	0xba4352a4	-0.0007450974
223	0xbc8f4304	-0.01748801
224	0x3a931bed	0.0011223532
225	0x3c99dfca	0.018783469
226	0x3ccc877f	0.024966953
227	0x3cb1762d	0.021662796
228	0xbc84720f	-0.016167669
229	0x3c3d42eb	0.011551599
230	0xbacebf89	-0.0015773635
231	0xb8a0fd0f	-7.6765304e-05
232	0x3c344348	0.011002369
233	0x3c923cbb	0.017851224
234	0x3a3ed27c	0.00072792894
235	0xbbe2d516	-0.0069223745
236	0x3cc0244e	0.023454811
237	0x3a13f59c	0.00056442036
238	0x3bd7cd80	0.006585777
239	0xba19b199	-0.0005862951
240	0xba646816	-0.000871302
241	0x3c744766	0.014909601
242	0xbc6c0ba1	-0.014407069
243	0xbc47d3a1	-0.012196452
244	0x3a03c212	0.0005026172
245	0x3c35586e	0.011068447
246	0x3cd8f443	0.02648366
247	0xbc7ea53e	-0.0155423265
248	0x3cbb406b	0.022857865
249	0xbb432ee5	-0.002978259
250	0xb843ebc2	-4.671119e-05
251	0xbc488621	-0.01223901
252	0xba32f529	-0.0006826693
253	0x3c90bb2a	0.017667372
254	0x3b31988a	0.0027098977
255	0xbc969a1d	-0.018384034
