pointnet/weights_per_bundle_ratio025/ST_PREF_right_best.pth (torch, 359853 bytes, 17 tensors)

t_grid f4 [100]
00000000: 0000 0000 b57e 253c b57e a53c 103e f83c
00000010: b57e 253d 62de 4e3d 103e 783d dece 903d
00000020: b57e a53d 8c2e ba3d 62de ce3d 398e e33d
00000030: 103e f83d f376 063e dece 103e ca26 1b3e
00000040: b57e 253e a0d6 2f3e 8c2e 3a3e 7786 443e
00000050: 62de 4e3e 4e36 593e 398e 633e 24e6 6d3e
00000060: 103e 783e fd4a 813e f376 863e e9a2 8b3e
00000070: dece 903e d4fa 953e ca26 9b3e bf52 a03e
00000080: b57e a53e abaa aa3e a0d6 af3e 9602 b53e
00000090: 8c2e ba3e 815a bf3e 7786 c43e 6db2 c93e
000000a0: 62de ce3e 580a d43e 4e36 d93e 4362 de3e
000000b0: 398e e33e 2fba e83e 24e6 ed3e 1a12 f33e
000000c0: 103e f83e 056a fd3e fd4a 013f f8e0 033f
000000d0: f376 063f ee0c 093f e9a2 0b3f e438 0e3f
000000e0: dece 103f d964 133f d4fa 153f cf90 183f
000000f0: ca26 1b3f c5bc 1d3f bf52 203f bae8 223f
00000100: b57e 253f b014 283f abaa 2a3f a640 2d3f
00000110: a0d6 2f3f 9b6c 323f 9602 353f 9198 373f
00000120: 8c2e 3a3f 86c4 3c3f 815a 3f3f 7cf0 413f
00000130: 7786 443f 721c 473f 6db2 493f 6748 4c3f
00000140: 62de 4e3f 5d74 513f 580a 543f 53a0 563f
00000150: 4e36 593f 48cc 5b3f 4362 5e3f 3ef8 603f
00000160: 398e 633f 3424 663f 2fba 683f 2950 6b3f
00000170: 24e6 6d3f 1f7c 703f 1a12 733f 15a8 753f
00000180: 103e 783f 0ad4 7a3f 056a 7d3f 0000 803f
0.0 0.01010101 0.02020202 0.030303031 0.04040404 0.05050505 0.060606062 0.07070707
0.08080808 0.09090909 0.1010101 0.11111111 0.121212125 0.13131313 0.14141414 0.15151516
0.16161616 0.17171717 0.18181819 0.1919192 0.2020202 0.21212122 0.22222222 0.23232323
0.24242425 0.25252524 0.26262626 0.27272728 0.28282827 0.2929293 0.3030303 0.3131313
0.32323232 0.33333334 0.34343433 0.35353535 0.36363637 0.37373737 0.3838384 0.3939394
0.4040404 0.41414142 0.42424244 0.43434343 0.44444445 0.45454547 0.46464646 0.47474748
0.4848485 0.4949495 0.5050505 0.5151515 0.5252525 0.53535354 0.54545456 0.5555556
0.56565654 0.57575756 0.5858586 0.5959596 0.6060606 0.61616164 0.6262626 0.6363636
0.64646465 0.65656567 0.6666667 0.6767677 0.68686867 0.6969697 0.7070707 0.7171717
0.72727275 0.7373737 0.74747473 0.75757575 0.7676768 0.7777778 0.7878788 0.7979798
0.8080808 0.8181818 0.82828283 0.83838385 0.8484849 0.85858583 0.86868685 0.8787879
0.8888889 0.8989899 0.90909094 0.9191919 0.9292929 0.93939394 0.94949496 0.959596
0.969697 0.97979796 0.989899 1.0

encoder.mlp.0.weight f4 [64, 3]
00000000: c0f7 b0bd 19cc b4be 3a7b b4be 051e aebd
00000010: fa2d 61be 7de7 143f ac81 debe 01e1 59bc
00000020: ad8f fd3d 4b8c 0d3f 2ae2 4ebd 6b94 0c3f
00000030: f8af 973d 8cd4 743e 6a85 8abe c5a1 e93e
00000040: 622d f6be bfd5 b9be 9ccb 24be 935f b4be
00000050: 6e61 473e 7a02 48bd 0883 d2bd 986a 383e
00000060: 3285 8a3e 4b8d 88be 9852 da3d 9dfa 433e
00000070: 802e 883b 0dfc 9fbd 5786 c0be 2108 1dbe
00000080: 7c5d fc3d d30f b8be 6400 25be 696d f4bc
00000090: fb9a f23d 2412 47be 5dd0 06bf 7911 41be
000000a0: 3c58 95be e757 acbe adaf 0dbf 2205 05bf
000000b0: 35fe 063f c974 00bf 90a8 133f fe76 aa3e
000000c0: 5d57 f43e c7cf 0d3f 3680 b13e f2ce 8d3b
000000d0: 5e93 a53e c080 3f3e d1c7 ad3e a42e 7fbe
000000e0: 441c 863e d6b2 febe 75a8 013e f73f c63e
000000f0: 9b1f 093e 919d d7be 635a 3f3d e375 993e
00000100: 065e a93d 9065 9c3e 1623 873e aee2 b83d
00000110: f44a f0be b1d1 05bf 5b1d e63e d953 d7be
00000120: 7bb1 a53e b68b e13e a3d2 963e ca46 8ebd
00000130: 7a87 f33c 86cb debe 0b2c 0abe 7bf0 cd3e
00000140: 74f3 ca3e 80f7 ba3d 1b56 d73e bda9 ca3e
00000150: b5e2 a0bc ea9a d33e ef21 a1be cb38 5abc
00000160: b709 bfbe cb56 2fbe 9c0f 0a3f ce79 05bf
00000170: e9ca 03bf ce16 823e 456b 0a3f 5886 443e
00000180: 7742 fbbe 830b 9b3e 6e2d a4be db0d 9f3d
00000190: 9a43 f9bd 3a0b 753c f916 eb3e f2cf fabc
000001a0: 46d2 11bf 79af da3e db4e d03e e279 d13e
000001b0: 92ff d1be 63ea f53d b8fc 0e3e a9fd 0fbf
000001c0: f03c a53e d8fc 513d a671 153f 3a36 f73c
000001d0: 40dc 8bbd 0dde 6dbe 92e1 cc3e 6551 dc3e
000001e0: 4499 823c 78f3 adbe f85e 08bf 7ab9 ba3e
000001f0: 6e87 82be aa5b f03e f81b a73e 96c9 143f
00000200: aa8d b3be 207b a23d f47a a33e 905b 3b3e
00000210: f2dd aa3e b290 7abe 9851 09bd 71ea c23e
00000220: 6919 b0be d60b 80bd ae6b 7fbd 0f6e 68be
00000230: 552c cc3e 3492 953e 7e1c a33e 90f5 f2bd
00000240: ab97 a93a 9035 ed3d 6459 f23e 47fd eb3e
00000250: 6c48 0b3e 48ad 0ebf a306 2dbe 5a03 2c3d
00000260: dfa6 bcbe da70 b7be ed24 10bf 4278 d83d
00000270: 5576 f13c f500 ad3e 2546 0bbf bc21 bfbe
00000280: 0864 09bf 5d1b ebbe 11a7 f53c a56b cc3e
00000290: 9ab7 d53e 2e9d fb3e a2a7 9bbe 40f2 9bbe
000002a0: 4f27 6e3c 5a98 6ebe c600 03be f23a 0dbf
000002b0: 7ddd c0be af1c 853e 4ddd d6be b598 043e
000002c0: 3ef2 ba3e 2730 0c3f 3516 95be 698b d7be
000002d0: 6dd8 333c c970 9abe 60b0 02bf 4f02 8f3d
000002e0: 70af a9be 3ec5 533e 1b33 ab3e 7d0d 533e
000002f0: 680d 343e b44d 65be 98db c33e e22c 0fbf
-0.086410046 -0.35311964 -0.35250264 -0.085018195 -0.21990195 0.58165723 -0.43458307 -0.013298274
0.123809196 0.55292195 -0.050508656 0.5491397 0.0740661 0.23909205 -0.27054912 0.45631233
-0.480815 -0.36295888 -0.16093296 -0.35229167 0.1947076 -0.048830487 -0.102788985 0.18009412
0.27054745 -0.26670298 0.10660285 0.1913857 0.004155934 -0.07811747 -0.37602493 -0.15335132
0.12322518 -0.35949573 -0.1611343 -0.029837327 0.118459664 -0.19440514 -0.5266169 -0.18854322
-0.2916888 -0.33660814 -0.55346185 -0.5196096 0.5273164 -0.501782 0.5767908 0.3329391
0.47722903 0.5539517 0.3466813 0.0043276483 0.32338995 0.18701458 0.3394151 -0.24920136
0.2619344 -0.49745816 0.12661918 0.38720676 0.13390963 -0.421124 0.04671706 0.29972753
0.08269887 0.30546236 0.26393956 0.09027611 -0.46932185 -0.5227309 0.4494427 -0.42056158
0.3236197 0.44051903 0.29457578 -0.06947096 0.029727686 -0.4351465 -0.13493364 0.40222535
0.39638865 0.09129238 0.4205788 0.39582625 -0.019639352 0.41329128 -0.31471202 -0.013319205
-0.373121 -0.17122953 0.5393007 -0.52138984 -0.5148149 0.25408024 0.5406993 0.19191873
-0.49074146 0.3028222 -0.3206591 0.077663146 -0.12171097 0.01495629 0.45915964 -0.030616734
-0.56961477 0.42712 0.40685162 0.40913302 -0.41015297 0.12007596 0.13963592 -0.5624643
0.32273054 0.05126652 0.5837654 0.030177224 -0.06829119 -0.23229237 0.40015846 0.4303085
0.015942223 -0.33974814 -0.5326991 0.36469632 -0.2549395 0.46944934 0.32638526 0.58120096
-0.3506902 0.079336405 0.31929743 0.18296647 0.33372456 -0.2446926 -0.03352508 0.3806949
-0.34394386 -0.062522575 -0.06235855 -0.22698234 0.39877573 0.29213107 0.31857675 -0.118632436
0.0012938877 0.11582482 0.47333825 0.46091673 0.13601846 -0.55733156 -0.16897063 0.041995384
-0.36846063 -0.35828286 -0.56306344 0.10569812 0.02947537 0.33789793 -0.5440391 -0.37330425
-0.5366826 -0.45919314 0.02998689 0.39925876 0.4174164 0.49143356 -0.3040133 -0.3045826
0.014535739 -0.23300305 -0.12793264 -0.5516807 -0.37668982 0.25998446 -0.41965714 0.12948878
0.3651294 0.54760975 -0.29118505 -0.4209855 0.010976893 -0.30164173 -0.51050377 0.06982862
-0.3314166 0.2068071 0.33437428 0.20610614 0.17583239 -0.22392923 0.38253474 -0.5592786

encoder.mlp.0.bias f4 [64]
00000000: 5152 a03d 3e81 e3be 3523 c0bd 9f81 033e
00000010: 5e98 fbbe 30f9 26bd 8af6 e13e 5d2b e9be
00000020: cf0b 653e 4d28 c63d 01ae 01bf f235 9e3e
00000030: 8dce dfbd 31ba febe 1803 be3e ce7f 9e3d
00000040: ea05 0e3f b7d2 29be c26a 61be 0377 8fbe
00000050: c5dd 3fbe afe1 e0be a831 723e 9683 c03d
00000060: 07c8 07bf f382 0ebf 6368 e73e a084 96bc
00000070: 16f4 f13e dedd 51be c0dd 7cbe 66bc ab3e
00000080: 7ebe ea3e 6da0 b43c 9e66 a83e 95d1 03bf
00000090: 4d48 a33e ceff 8cbe 588a 8dbe 1e4f bfbe
000000a0: c2ff 83be 47fc f5be 18ec 8d3d 08b3 00bf
000000b0: 232e c13d 3198 56be 46b6 c6be fc23 17be
000000c0: 6b93 bdbe a1c1 98be b6d5 b0be dc2a 8f3d
000000d0: 5deb cfbe cf37 ac3e 3acc 723e 52f1 0f3f
000000e0: 3000 edbe 41fc e6be 831f 06bf 8aa2 2abd
000000f0: 2158 f7bc 5891 5bbe 5578 d43b fa57 003e
0.078282006 -0.4443454 -0.09381715 0.12842415 -0.49139684 -0.040764987 0.44133407 -0.45540896
0.22367786 0.096756555 -0.50656134 0.30900532 -0.10928068 -0.49751428 0.37111735 0.077392206
0.55477774 -0.16584288 -0.22013381 -0.28020486 -0.18736942 -0.43922183 0.23651755 0.09400098
-0.5303959 -0.5566856 0.45196828 -0.018373787 0.47256535 -0.20494792 -0.24693966 0.33542174
0.4584846 0.022049153 0.3289079 -0.5149167 0.318911 -0.27538913 -0.2764461 -0.3736505
-0.25781065 -0.48044035 0.06929797 -0.5027318 0.09432628 -0.20956494 -0.3881094 -0.1475982
-0.37026533 -0.29835227 -0.34538049 0.06990597 -0.40609255 0.3363633 0.23710719 0.562276
-0.46289206 -0.4511433 -0.52391833 -0.041658916 -0.03019339 -0.21442163 0.0064840713 0.1253356

encoder.mlp.2.weight f4 [128, 64]
00000000: 3fdf a2bd e17e 433d 5398 5f3d df28 cabd
00000010: 5823 2cbd c7de a5bd b2dd f03d b3bd fb3d
00000020: 6866 b13d f48c 993c 0e64 cebd 396a 503d
00000030: 98aa f23d 3dc2 c5bd 116b 643b 1197 e2bc
00000040: 36fa 923d 8d7c 9b3d 6ede 97bc 032b ee3d
00000050: a7cb b43b 3aec 99bd 3cde 963d cdf4 ccbd
00000060: 6ffd 23bc 5a89 4abc f9dd bd3d 24b1 bd3d
00000070: f521 bcbb a622 d4bc e1fd a33c 2db3 3e3d
00000080: 539e 3abc 0053 e83d 8ddb a7bd fcbe cfbb
00000090: 9df0 9c3d 63e5 133d 3069 7b3d f06c 213d
000000a0: 5097 9ebd 2d8f e43d accf d0bd 7666 dcbd
000000b0: b846 a73d d8e8 203d b8b3 3ebd fa65 ffbb
000000c0: 727f ae3d 1237 b43d ee2e 083a 9884 c93c
000000d0: 2df4 cd3d 8f65 a1bd 201c c83d 6642 ab3d
000000e0: 1405 e83d 2b20 bfbd 6039 b03d f06d d43d
000000f0: cdcd 323c 01ec 013e b21b a83b c59b 61bd
00000100: 0ec6 7e3d 1309 c7bd e1cf 88bd a940 cbbd
00000110: 5416 ac3d 357c d63d 01a4 96bd e2ee 623c
00000120: 6b19 143d 46bb 2a3d fdf5 313d af4b bfbc
00000130: de85 47bb efb4 183a de3f 953d b25a febd
00000140: 8e99 e53c 39b5 383d 2529 eabd 54aa 153d
00000150: 1480 04be 07f9 8ebd ee4a c1bd 54a8 03be
00000160: f959 10bc 7005 6d3d d937 523c faa5 00be
00000170: e4af 0bbd a50b 913d 0b1f b33c bca6 c93d
00000180: b0ac e73c 622c c1bd 9728 b7bd f61a aa3d
00000190: 99e3 0fbd add1 513c 10ce 833d 975c ab39
000001a0: e3de c5bc 0c04 d3bd e5b3 a63d ade3 e1bd
000001b0: ae55 3fbd 09cf 8abd 1d6a d93d 72a4 923d
000001c0: dcc4 7b3d 2909 f43c 0492 783c ba09 6bb8
000001d0: 26ab f8bd cb91 b2bc 568a 3dbd 0d1b 1b3c
000001e0: 274c 3c3c 397f 6fbc b6d7 de3b a6be af3d
000001f0: 82db fabd b131 c43d 5524 ba3d 2450 713c
00000200: f7b1 9937 82f6 613d 25d1 57bd 1ac0 e0bd
00000210: c4a7 ec3d c641 d1bd 3176 02bd 4c2a 253d
00000220: 44cb 7b3d 401f b4bd cc37 e23d f40d 30bd
00000230: ac75 f63b 3280 73bc 43bb 883d e27e 65bd
00000240: 30a8 9b3d 42cc 93bd 73f3 01be 8701 b6bd
00000250: e35e 1d3c f0ae fd3d c63c 023d ebb9 733c
00000260: 42a1 e13c 7a71 93bd 2510 163d ea87 1fbd
00000270: 7e29 afbc e72f c23c 7a42 23bd 1880 113d
00000280: 0db3 af3a 9bfa c83d 1329 be3d d254 eebd
00000290: c60b ec3d 4270 b9bd ba1f e8bd 6850 b63d
000002a0: e48c 3c3a ceac d63c e029 533d 2c85 d63d
000002b0: 2812 9fbd 22c6 c53d bf55 bbbc b43d b7bd
000002c0: c1d4 eb3d e94f 10bd 2406 c93d 6c3b e5bb
000002d0: 91d3 7dbc 30d6 21bb c8ff c03d c93f aabd
000002e0: b02a b83d c9f1 61bd f090 203d 87e3 103d
000002f0: 1f6e 583a 8dad ee3d b168 b93d 1023 73bc
00000300: 6a1c 293d d7f7 473d 23a3 dc3d f032 d73c
00000310: e264 8fbc ec4a 71bd ce21 91bc 6c93 f73d
00000320: 0c36 463d 86af 883d 2025 91bd da1e d73c
00000330: 4ea2 38bc aa97 35b9 e749 493c d662 e1bd
00000340: 10c3 113c 9f31 dabd b3e4 a53d 47f5 2a3d
00000350: cb9b 9b3d e359 5abd 6378 9e3c 059d 7fba
00000360: 87a7 9dbd fbbe b63d e2dc cbbd 3881 1d3d
00000370: 5086 a2bd 9453 87bc 225d 4bbb 72fe f0bc
00000380: c7ea 91bd 7555 57bd c04a 413b 874e ac3d
00000390: 4da8 fcbc 576c 983d 1663 e33d 8c15 1fbd
000003a0: 2df0 8a3d b42d d0bd c81c 813b b11f 11bd
000003b0: bd7a 82bd 2a45 623d e377 c3bc 6049 be3c
000003c0: b832 df3c a016 afbd 61d9 a33c 73a5 cabc
000003d0: 3ba7 8cbd 1507 83bd ecc9 d1bd 8bd2 ecbd
000003e0: 855c 3dbd 7f92 e3bc 0995 88bd 740d 003d
000003f0: 9f87 f0bc 244c d93d 345d 193d 0d0b 0bbd
-0.07952737 0.047728423 0.054588627 -0.09871077 -0.042025894 -0.08099132 0.11761035 0.12292042
0.086621106 0.01874397 -0.10077678 0.05088255 0.118489444 -0.09656189 0.0034853856 -0.027659925
0.0717663 0.075921156 -0.01853868 0.116292976 0.0055174413 -0.0751576 0.073666066 -0.100076295
-0.010009154 -0.012361849 0.092708535 0.092623025 -0.0057413527 -0.025895428 0.02001852 0.046557594
-0.0113902865 0.11343956 -0.08196173 -0.006339906 0.07663081 0.036107432 0.06137961 0.03941053
-0.07743704 0.11160121 -0.1019586 -0.107617304 0.081677854 0.039284557 -0.046558112 -0.007794139
0.08520402 0.08799566 0.00051949813 0.024599358 0.100563385 -0.07880699 0.097709894 0.08362274
0.113290936 -0.093323074 0.086046934 0.103725314 0.010913325 0.12687685 0.0051302547 -0.055080194
0.0622006 -0.09718528 -0.06680275 -0.09924442 0.08402696 0.10472909 -0.073555 0.013850899
0.036157053 0.041682504 0.043447483 -0.023351518 -0.0030444781 0.0005825301 0.07287572 -0.124196425
0.028027322 0.045094702 -0.11433629 0.03653939 -0.12939483 -0.06981092 -0.0943812 -0.12857181
-0.008810514 0.057866514 0.012830698 -0.12563315 -0.03410329 0.07082299 0.021865388 0.09846255
0.028280586 -0.094322935 -0.08943289 0.08305924 -0.035129163 0.012806338 0.06435788 0.00032684646
-0.024154132 -0.10303506 0.08139781 -0.11029754 -0.04671257 -0.0677777 0.106159426 0.07160272
0.061467037 0.029789524 0.015171532 -5.6037425e-05 -0.12142019 -0.021798035 -0.046274506 0.009466899
0.0114927655 -0.014617735 0.006800617 0.08581285 -0.12248899 0.095797904 0.09088961 0.01472858
1.8321893e-05 0.05516673 -0.05268969 -0.109741405 0.11555436 -0.102176234 -0.031850997 0.04032354
0.061473146 -0.08795023 0.11045799 -0.042982057 0.007521352 -0.014862107 0.06676342 -0.056029208
0.076004386 -0.072166935 -0.12690525 -0.0888701 0.009605142 0.12386882 0.03179624 0.014875869
0.027542714 -0.07199378 0.03663649 -0.038947977 -0.02138209 0.023704482 -0.03985832 0.03552255
0.0013404802 0.09813424 0.09285178 -0.11637272 0.11525683 -0.090546146 -0.11334176 0.08902055
0.0007192625 0.026205447 0.051553607 0.10474619 -0.07767135 0.096569315 -0.022868035 -0.08947316
0.11515189 -0.03523246 0.09815624 -0.006995609 -0.015492336 -0.0024694316 0.094237864 -0.08312947
0.08992517 -0.055162225 0.039200723 0.035373237 0.00082561554 0.11654196 0.090531714 -0.0148399025
0.041286863 0.048820343 0.10773303 0.026269406 -0.01750416 -0.05890934 -0.017716315 0.12088665
0.048391387 0.066741034 -0.07087159 0.026259828 -0.011269165 -0.00017318004 0.012285686 -0.110051796
0.008896604 -0.10653996 0.081002615 0.04173782 0.075980745 -0.05330838 0.019344514 -0.0009750876
-0.07697969 0.089231454 -0.099542394 0.03845331 -0.07935774 -0.016519345 -0.0031030853 -0.029418204
-0.07124858 -0.052571733 0.0029494017 0.084134154 -0.03084197 0.07442539 0.111028835 -0.038838908
0.06784091 -0.10164967 0.0039401986 -0.035430614 -0.06371067 0.05524174 -0.023860877 0.023228347
0.027245864 -0.08549237 0.020001115 -0.024737095 -0.06867834 -0.06397835 -0.10243592 -0.115635954
-0.04623081 -0.027779816 -0.06669051 0.03126283 -0.029361544 0.10610226 0.0374424 -0.033946086

encoder.mlp.2.bias f4 [128]
00000000: c7cd 48bd a5f7 93bd 0981 a6bd 8dbf 0f3d
00000010: 2d60 943c 3ae0 acba 8221 fe3c 64fe cf3d
00000020: e057 1abc 9c2b 92bc d3cf 8e3d b093 c1bd
00000030: fbfb 36bc 1eec a2bd 8178 ea3d 9d82 db3d
00000040: 75f0 d0bd fcd6 e5bd 46f7 39bd cb29 c33d
00000050: e8f1 f6bc f538 b03d fa43 8d3d 0490 383d
00000060: a857 7cbd 7b0a 153a 5a2b e93d b3a1 b9bd
00000070: bed5 b7bc 70ca 0d3d 4ac4 a23d 6630 a2bd
00000080: bc66 20bc 9e26 c8b9 0d00 603c 12f8 fdbb
00000090: abd3 0a3d fb55 e8bc 01c2 a83d 495e ba3c
000000a0: 3c0c 0d3b 74c4 bcbd a872 f4bc affd 1abd
000000b0: 4105 063e d313 78bb d90c 8e3b dc3d 6fbd
000000c0: fbb8 8bbd 895d a7bd 10a9 37bc 889d c13d
000000d0: c845 0cbd 7a43 df3c 508a 903c 829e 8d3d
000000e0: d9ac bb3d c629 67bc 2425 bb3d cec2 5bbd
000000f0: ec74 7f3b 333a ebbd ec8a 2f3d 4ab4 d7bd
00000100: 2a89 713d 5e7d ef3d 6b3a df3d c9e5 e7bd
00000110: b9c0 8e3d ec6b 233d be81 cebd 7e60 dd3d
00000120: 355a c93d 216f 5ebd 88d6 d43d 8605 c7bc
00000130: 23b2 93bc 2bb9 aebd a2f9 aabb 79ec b53d
00000140: 466d c4bd 181f c33d 58b4 6fbd 2655 9d3d
00000150: 9ac2 75bc 4ae8 93bd 5047 99bc 45b4 6d3c
00000160: 232c 9dbd be11 d8bb 5964 573d c70d 03bd
00000170: 6f25 f53d e32e 58bd cc9e 04bd 3e73 24bd
00000180: 5bf0 863d 5ec4 d53c 0dfc 23bd 3222 bb3c
00000190: 4cd5 d33d a021 173a 683f 9f3d 512a 383d
000001a0: 2396 8e3d 3ef1 dbbd d810 833d af8c 0ebd
000001b0: d5ec d73d 64a7 d83d 5a32 5f3d e205 d8bd
000001c0: f42d 703d 5997 4ebd 2560 db3d 503d 67bd
000001d0: 9588 47bc b754 96bd b4d7 96bd d346 80bd
000001e0: 7b56 c23b ab20 95bc 910d 65bd ba5f 85ba
000001f0: 6e05 ae3d 56bd c0bd 8997 99bd b384 02bc
-0.04902437 -0.07224969 -0.0813008 0.035094786 0.018112266 -0.0013189383 0.031021837 0.10155943
-0.009420365 -0.01784306 0.06973233 -0.09451997 -0.011168475 -0.07955192 0.114487655 0.10718272
-0.102021135 -0.11222646 -0.045401834 0.09529456 -0.030144647 0.08604614 0.06897731 0.04505922
-0.061607033 0.00056854606 0.11385222 -0.09064045 -0.022440787 0.034616888 0.079475954 -0.079193875
-0.009790119 -0.00038175745 0.013671887 -0.0077505196 0.03389327 -0.028361311 0.08240128 0.022750037
0.0021522185 -0.09217158 -0.029839829 -0.037839588 0.13087942 -0.0037853613 0.0043350277 -0.058408603
-0.068223916 -0.08172137 -0.011209741 0.09453875 -0.034246236 0.027253855 0.017644078 0.069149986
0.091638274 -0.014109081 0.091379434 -0.053652577 0.0038979603 -0.1148571 0.042857096 -0.10532434
0.0589687 0.11693834 0.10899814 -0.11323125 0.06970353 0.039897844 -0.1008334 0.1080942
0.09831659 -0.0543052 0.10392481 -0.024294626 -0.018029278 -0.08531412 -0.005217747 0.08882994
-0.09591155 0.09527415 -0.0585216 0.076822564 -0.01500001 -0.0722204 -0.018710762 0.014508312
-0.07674434 -0.006593912 0.052585933 -0.03199556 0.119700305 -0.05277909 -0.032378003 -0.040148966
0.06588813 0.026094612 -0.040035296 0.022843454 0.103434175 0.00057652034 0.07775766 0.04496223
0.0696223 -0.10739373 0.06399697 -0.034802135 0.10543219 0.10578802 0.05449138 -0.10547997
0.058637574 -0.050437305 0.107116975 -0.056454957 -0.01217856 -0.07340377 -0.07365361 -0.06263509
0.0059307194 -0.018204054 -0.05592114 -0.0010175623 0.084971294 -0.09411113 -0.07499606 -0.007966208

encoder.mlp.4.weight f4 [256, 128]
00000000: c917 923d 9c82 523a 3e8b 28bc e100 39bc
00000010: f6c5 0fb8 caa3 453d b5af 4d37 6c13 f53b
00000020: a40a ad3c 5f53 b5bc 6f5b 41bd 4038 163d
00000030: 0dac 4c3c a730 8abc d615 103a ee31 b0b7
00000040: d38b 24bd 3197 ad3c 66ef 9c3d 3cf5 9abc
00000050: 6972 96bc a851 85bd d9d6 dbba df68 7cbd
00000060: 68fb 5439 3e28 5639 9997 493d 26bb e73a
00000070: 2ac9 9a3c f446 bd3d a08a 4a3c be85 3abd
00000080: 773f 483b 0d44 423c e728 6dbd ffab b9bc
00000090: a97c 1fbd 3107 aabc ac1f 14bb a6eb b13d
000000a0: bbf2 833d 8192 80bc 1d8c 203c 3772 f93c
000000b0: 59be d23b 1e33 173d ec00 14bd b109 47bd
000000c0: 1b4b 8fbc 213c 003d 4f98 8dbc 97cc f1bc
000000d0: ceef 9cbd da26 e7bc d07f 9abd b63d 44bd
000000e0: d738 eebc 9436 73b9 0288 873c daa2 98bd
000000f0: 3b74 03bd bdca 503c ffa8 2dbc 7d2f 8ab9
00000100: bbb5 8f3d 5811 77bd b7a4 9dbb 434d 8e3c
00000110: 90b5 d93a 66df 48bd 15af 773c d1f6 2a3b
00000120: d897 09bd ad79 fdbb dd6e 333d 4a94 9d3b
00000130: 45f1 523d 4a7b 793d ae52 703d 99f3 a83d
00000140: aa0c 343c 7a17 953d b37b ac3c 90ff 9d3d
00000150: 7aa7 123d 857a f4bc df8e b33d 5bd1 39bd
00000160: 0325 01bd 7062 843d 7baf efbc b51a 9bbc
00000170: a2c3 adbc 77ef 4739 750c 543d c753 4aba
00000180: c473 03bd d121 fd3c 91c7 083d e63b 803c
00000190: af0d c13d 777a 813c 2d0e 613c ea63 f0ba
000001a0: 55a5 adbc 31d1 343c c118 f53c 6559 273a
000001b0: d01d 113d d0fd 5cbd 55bd 05bd 9282 7abd
000001c0: 8894 063b ea6d 70b9 c868 60bc ae14 2a3d
000001d0: d3ee a93a 7441 b73d 0076 a03d b2f5 98bb
000001e0: 0a8a c73c 8f55 77ba b134 993c 6c84 f83c
000001f0: 0f57 be3b 1043 643b e0c1 24bc c876 49b8
00000200: 723e 9b3c 0638 1d3d 79d2 5fbd ac16 59bb
00000210: ca42 943c 61d3 803c 80f8 5b3d 5739 ae3d
00000220: a380 8f3d df3e e63c 297e 40bd 6091 0bbd
00000230: 396e 83bb 4d2d 713a 4cab 273d cb90 a4bc
00000240: 6491 183d be67 8ebd 6b16 a63d 75c1 6ebd
00000250: e4f7 d5bc a370 943d 2610 893d 8897 b9bc
00000260: 0672 21bc a0d4 203d 3fac 7d3d ec7d 78bd
00000270: a77b 20bb 3e10 5b3d 000f 2a3d d420 803d
00000280: 23c4 1cbd 210d e538 9858 22bd 9d19 14bd
00000290: 6a6d f2bc fd3e 963d d194 46bd f21c 15bd
000002a0: 61dd 7cbc 4115 45bd a957 08bd 5c66 88bb
000002b0: a30a 153d 6168 453d 8374 493a ccca 77bd
000002c0: 5212 843d 85f2 bfbb fa43 5b3c 51d4 2ebd
000002d0: 3503 79bb a92b 3fbd 6299 92bc 67aa 963d
000002e0: 78de 79bd 7ce3 823b 4678 25bc efdb 853d
000002f0: ceff ca38 c14f 173c a5dc 563d 42e2 1a3b
00000300: fa50 393c 9581 28bb f9bb af3d 6f4e 033d
00000310: 372f 1cbd 391c 943d 013b 7abd 40a0 a73d
00000320: cef6 c3b9 9b6e 8a3b 2811 d4bc 0b98 96bc
00000330: 08bd b5bb a0d1 683d ef79 273d 01b0 c8bc
00000340: 4733 57bd 1750 f4bc a238 8d3d fc6b ad3d
00000350: 5459 573c 56ff 9b3d 3fff 693d c613 91bd
00000360: 7829 52bd 60f6 61bd 13e3 cebb c64d a2bd
00000370: 8d51 9ebd 0d9c 39ba b051 93bd 074c f33c
00000380: 027f b43d ac47 39bd 1eed 8c3d cbed a03d
00000390: 7ca7 54bd 1978 243d f291 5ebc 3218 75ba
000003a0: 01f2 5dbc 367f ed3c f722 bf3b 12b1 02bd
000003b0: 2213 94bb 2091 10bd 7f04 94bd 5f30 a73d
000003c0: bb62 2e3d aa80 05bd 8c9f a5bd 1945 39bc
000003d0: 991a 2e3d 92a2 573d 5625 7ebd 00a5 76bd
000003e0: 2e4e 94b9 f1c0 8dbc 0b68 933c 0e99 183d
000003f0: d39e b0b9 4f8d 86bd b17a 54ba 60be 97bc
0.07133443 0.00080303266 -0.010287104 -0.011291713 -3.4278222e-05 0.048251905 1.2259862e-05 0.007479122
0.021123238 -0.022134481 -0.04720634 0.036674738 0.012492192 -0.016868902 0.0005496418 -2.1004085e-05
-0.04017241 0.021190258 0.07662849 -0.018915765 -0.018365102 -0.06509715 -0.0016772404 -0.06162345
0.00020311552 0.00020423622 0.04921684 0.0017679676 0.01889475 0.09242049 0.012362152 -0.045537703
0.0030555406 0.011857045 -0.057900336 -0.022665022 -0.038937245 -0.020755382 -0.0022601886 0.086875245
0.064427815 -0.015694859 0.009799031 0.03044997 0.0064313826 0.036913984 -0.03613369 -0.048593227
-0.017491868 0.031307343 -0.01728454 -0.029516501 -0.076629266 -0.028216768 -0.075439095 -0.047910415
-0.029079838 -0.00023194618 0.016544346 -0.074529365 -0.032093268 0.012743649 -0.010599374 -0.00026356793
0.07017084 -0.060319275 -0.0048108953 0.017370826 0.0016609896 -0.049041174 0.015117426 0.0026087055
-0.033592075 -0.007735452 0.0438069 0.004808937 0.051499624 0.060908593 0.0586726 0.082495876
0.0109893475 0.072798684 0.021055078 0.0771476 0.03580425 -0.029843578 0.08767485 -0.045365673
-0.031529438 0.06464088 -0.02925848 -0.018933633 -0.021211449 0.00019067327 0.051769692 -0.0007718172
-0.032092825 0.030899914 0.033393446 0.015653562 0.09426438 0.015805466 0.01373629 -0.0018340324
-0.021197 0.011036203 0.02991903 0.0006383865 0.035428822 -0.053952992 -0.032651264 -0.061159678
0.002053531 -0.0002292913 -0.013696857 0.041523628 0.0012964852 0.08948031 0.07835007 -0.004667961
0.024357814 -0.00094350515 0.018701883 0.030336581 0.005808718 0.0034830011 -0.010055989 -4.8032758e-05
0.018950675 0.038383506 -0.05464408 -0.0033125086 0.018098254 0.015725793 0.053703785 0.085070305
0.070069574 0.028106151 -0.046995316 -0.034074187 -0.0040109423 0.0009200171 0.040934846 -0.020088574
0.03724803 -0.06953381 0.08109745 -0.058289964 -0.02611918 0.07248046 0.06692533 -0.022655264
-0.009853845 0.039265275 0.061931845 -0.060666963 -0.0024487765 0.053482287 0.04151821 0.062562615
-0.038272988 0.000109220164 -0.03963527 -0.03615724 -0.029593188 0.07336233 -0.048481766 -0.036404558
-0.01543364 -0.048115972 -0.033286724 -0.004162593 0.036387097 0.048195247 0.0007684903 -0.060496137
0.06448807 -0.005857768 0.013382906 -0.04268295 -0.0037996296 -0.046672497 -0.017895404 0.073567204
-0.06100318 0.0039944034 -0.010099476 0.0653609 9.679758e-05 0.009235323 0.052456517 0.0023633395
0.01131081 -0.0025712003 0.08580775 0.032057222 -0.038130965 0.072319455 -0.061091427 0.08184862
-0.00037377182 0.004224611 -0.025887087 -0.018383047 -0.005546216 0.05684054 0.04088777 -0.024497988
-0.052539136 -0.029823346 0.068955675 0.08467862 0.013143856 0.07617061 0.057128187 -0.070838496
-0.05130908 -0.055166602 -0.0063136905 -0.0792499 -0.07730398 -0.00070804433 -0.07193315 0.029699339
0.08813287 -0.045234367 0.06881164 0.078578554 -0.051917538 0.040153597 -0.013584601 -0.00093496137
-0.013546468 0.028991323 0.0058330256 -0.03190715 -0.0045188824 -0.035294652 -0.0722742 0.08163523
0.042574625 -0.032593407 -0.08087072 -0.011307978 0.042505834 0.052645274 -0.062047325 -0.06021595
-0.00028287008 -0.017303916 0.017993947 0.03725534 -0.0003368767 -0.06569921 -0.00081054406 -0.018523395

encoder.mlp.4.bias f4 [256]
00000000: f18a 8dbd 7728 8b3d a6b6 1a3d 1da1 9bbb
00000010: a59d 8cbb 4545 a9bb 1d7b 0bbd 999f 97bc
00000020: 22c3 563c dee6 9fbc f7e9 99bb 2d01 24ba
00000030: 7fee ddbc 3fdb c83c 7dac 8f3c 31d1 fb3c
00000040: aab9 573c 3346 7d3d 112e 41bd 7a0b d5bc
00000050: ab65 913d 9423 d0bc ed12 ce3c 1d76 4ebc
00000060: 17a9 b03d efe9 64bd 965a 41bc 8258 763a
00000070: 4e44 f83c 1273 b33d a736 063d 1558 31bd
00000080: bd2e 4dbd 328b 903d 871c b13d 5693 9cbc
00000090: d504 04bd 34f6 67bd 1276 973d 6c15 41bd
000000a0: ebac de3a ac8e 433c 6a4d 8a3c b917 943c
000000b0: 5db3 4b3b 88c8 74bc 502d 67bc 530e 93bd
000000c0: 6fa6 2d3d 1f1a 5cbd 942f 6bbb c9b4 c039
000000d0: bb62 97bd 5fe5 b33d 1f93 abbc 20d1 613d
000000e0: 9c25 d9b9 d611 9bbd 73f4 a03d 019d 0fbd
000000f0: d593 b33c 86af c2b9 935c 0abd c03b 08bd
00000100: 18b9 833d 7a97 9c3d 10c4 153d 1ff3 6b3c
00000110: 39d0 953d 4109 0b3d a656 9f3d 3026 603d
00000120: 8742 6cbd cc5a 513d 8aae bc3c c350 a9b8
00000130: 895c 163a fe96 b03d ed88 5fbc 16e0 3a3d
00000140: 4b82 9abd 5e54 6c3d e435 9d3d 3048 153d
00000150: 4278 383d 8d17 1f3c b195 5fbd 30b1 483d
00000160: 727a 1e3d 1013 86bd 3904 8cbd 12ed 593d
00000170: b612 4d3c 24fc 163d c8c5 553d c4a2 8abd
00000180: 171c 9b3d 7111 9b3c ffb3 f33b 73af 893d
00000190: 83c1 da3c ba47 7cbc a4a3 863c 65d1 a9bd
000001a0: 4582 cd3c aa3a 36bd cae7 80bd cca4 703c
000001b0: f661 03bd 3857 ba3d 26b1 3cbd 670e 813d
000001c0: 7b27 02bd fccf 44bd d29e 8e3d e8c0 633a
000001d0: d19b dfba ab3f 8cbd d955 43ba 9b0e 803d
000001e0: 77e0 84bd 3384 2dbd f8d7 e8bc 3e4f cfbc
000001f0: 2a3a 313d 263c 5a3d 0aac 0d3d 7eb6 18bd
00000200: ae3c 5fbd c2a9 133d 90cc 253d 2f3d 043c
00000210: 3370 a3bc 97a2 893c d688 9f3d c049 bcba
00000220: a13c ebbb 71a4 95bd d928 2bbd a875 35bd
00000230: 9f2a 6a3d e04b 403d 9389 7abc 47c2 a0bd
00000240: b140 3fbd 8d43 5abc 9339 93bd cec7 c63c
00000250: 5d7b b0bc 386f 113d 1294 4b3d da14 393c
00000260: ed26 7ebd 72ee 53bd 5721 d7ba 5218 9ebd
00000270: 982f 5cbd 7e5e 83bd 1f5a eb3c d54b c9bb
00000280: 4609 9c3d d70e c73c a373 063d f505 b5bc
00000290: ab46 883d b9e9 90bd 4a36 0cbd bd6b 063d
000002a0: 45e8 9abd fa40 1bbd c6e8 abbc 9533 0b3d
000002b0: 037a 093d 46e9 7cbc e7da 3dbd a476 65bd
000002c0: 23ab 863d 23a0 ba3d 7f30 a93d d5eb 0d3c
000002d0: 5abc 6e3d 5658 2dbd 280c 963d 89f7 843b
000002e0: 2ee0 3b3d 9d53 933d 672e 29bd 83bb 8cbc
000002f0: e0e6 60bd e576 ac3d 85a0 9a3d 5433 273a
00000300: df4c 84bd 6a62 81bd cf98 92bd a30b d73c
00000310: 5861 abbd dd0f 86bd e711 a3bd 8986 873c
00000320: a466 653c e280 9c3c 0a9c eb3b d7d4 603d
00000330: 7110 aabd 7a8e 9e3c c10c 26bb 4b40 73ba
00000340: 192b 7d3c ec3c 633d 5742 9ebd 5965 1dbd
00000350: 0303 7abd 5e26 89bd a926 0f3d 54f4 a5bc
00000360: bc94 1fbd 342c 5f3d 4396 6dbd 8290 4e3d
00000370: 484a f63b 386d e3b6 2c97 38bc 96b0 25bd
00000380: b376 103c 8e80 d83c 822f 6ebd dae8 3fbb
00000390: 45ef 853d 55d8 1c3c 3c68 3d3d a6ed 393d
000003a0: 8073 243d 6553 213c 2095 573d 2c7a 14bd
000003b0: 92f9 8cbc 6340 cbbb e20f aa3d e564 a73d
000003c0: 00a5 623d 8853 72bd 461a c0bd ef90 83bc
000003d0: 952c a93d 0ff8 033d 43d8 ad3d 1d06 913c
000003e0: cf06 a2bd 460c a53d 6db0 8bbc d5ae 18bd
000003f0: 0288 843b a602 d33c 3ac1 453d 96d1 ea3c
-0.069112666 0.067948274 0.037771843 -0.004749431 -0.0042912536 -0.0051657283 -0.034052957 -0.01850872
0.013108047 -0.019519266 -0.0046970802 -0.0006256279 -0.027091263 0.024518607 0.017538304 0.030739399
0.013166824 0.061834525 -0.047163073 -0.026006449 0.0709947 -0.02540759 0.025155509 -0.012601403
0.08626001 -0.05588716 -0.0118013825 0.0009397344 0.030306008 0.08762182 0.032766964 -0.043296892
-0.0500934 0.070577994 0.08648019 -0.019113224 -0.03223117 -0.056631282 0.07395567 -0.04713957
0.001698879 0.011935871 0.016882617 0.018077718 0.003108225 -0.0149403885 -0.014109924 -0.071804665
0.04239505 -0.05373585 -0.0035886513 0.0003675579 -0.07391878 0.087839834 -0.020944176 0.055131078
-0.00041417486 -0.07571761 0.07859125 -0.03506184 0.021921078 -0.0003713334 -0.033779692 -0.033260107
0.06431788 0.07646079 0.036563933 0.014401226 0.07315106 0.033944372 0.07780199 0.05472392
-0.057680633 0.05111198 0.023032445 -8.073591e-05 0.0005735835 0.086225495 -0.0136434855 0.04562386
-0.07544383 0.057697646 0.076762944 0.036445796 0.04503656 0.009710205 -0.054586116 0.048997104
0.03869099 -0.06546605 -0.06836743 0.053204603 0.012516668 0.036861554 0.052190572 -0.06769326
0.07573717 0.018929215 0.0074372287 0.067229174 0.026703602 -0.01539796 0.016435452 -0.08291892
0.025086531 -0.04448954 -0.0629421 0.014687728 -0.032075845 0.09098667 -0.04606738 0.06301575
-0.031775933 -0.04804991 0.06963886 0.0008688108 -0.0017059987 -0.06848081 -0.0007451452 0.06252786
-0.06488126 -0.042362403 -0.028423294 -0.02530634 0.04326836 0.05328002 0.034587897 -0.037283413
-0.054501228 0.036050566 0.04047829 0.008071228 -0.019950962 0.016801162 0.07789771 -0.0014365241
-0.0071788584 -0.07306755 -0.041787002 -0.04430166 0.057169553 0.04694736 -0.015291589 -0.078495555
-0.046692554 -0.013321769 -0.07188716 0.024265196 -0.0215432 0.035506457 0.049701758 0.011296475
-0.06204884 -0.05174107 -0.0016413134 -0.077194825 -0.053756326 -0.06414507 0.028729497 -0.006143073
0.07618956 0.024299068 0.032825124 -0.022097567 0.06654104 -0.07075829 -0.03423146 0.03281759
-0.07563833 -0.037903763 -0.020985018 0.03398474 0.033563625 -0.015436476 -0.04635134 -0.056021348
0.065756105 0.09112575 0.08261203 0.008662184 0.058285095 -0.04232057 0.07326537 0.004057829
0.04586809 0.07193682 -0.04130402 -0.017179256 -0.05490768 0.08421115 0.07550148 0.0006378193
-0.064599745 -0.06317599 -0.07158052 0.026250666 -0.08368176 -0.065459944 -0.07962399 0.016543644
0.014001522 0.019104425 0.007190232 0.05489048 -0.08303917 0.019355047 -0.0025337192 -0.0009279295
0.01545217 0.05547802 -0.07727497 -0.03842673 -0.06103803 -0.06696771 0.03494898 -0.020258106
-0.038960204 0.054485515 -0.05800463 0.050430782 0.0075161792 -6.777842e-06 -0.011266511 -0.04045161
0.008817363 0.026428487 -0.058150776 -0.0029283077 0.06539778 0.009573062 0.046241984 0.045392655
0.040149212 0.009846543 0.05263245 -0.036249325 -0.017208848 -0.006202744 0.08303811 0.08173541
0.055333138 -0.059161693 -0.09380011 -0.01606032 0.082604565 0.03221899 0.08488514 0.01770311
-0.07911455 0.080589816 -0.0170519 -0.037276108 0.0040445337 0.025758099 0.04827998 0.028664391

pos_mlp.0.weight f4 [32, 1]
00000000: 8a15 8b3d 83f3 3bbf 9a37 bfbe 82fe 4fbf
00000010: 9422 213e f75b 823e 78c0 683f 9b4f 2bbd
00000020: e56d 38bf d8ab bfbe 7ea6 583f 10bf 633d
00000030: f860 963e b1de 68be 7888 063e e109 67bf
00000040: 72d8 db3e b171 1d3f 97c3 6fbf 06f5 7b3e
00000050: fce2 46bf 5977 e93e e23f 53bf 9620 b5bd
00000060: 5752 753e 5682 16be f011 d0be 7378 2b3f
00000070: 3c01 dabd 3644 b23e 8d22 25bf ff64 01bf
0.067912176 -0.73418444 -0.37347108 -0.81247723 0.15735847 0.2546079 0.90918684 -0.041823965
-0.72042686 -0.37435794 0.84629047 0.055602133 0.29370856 -0.227412 0.13137996 -0.9024945
0.42938572 0.61501604 -0.9365782 0.24605188 -0.776901 0.45598868 -0.8251935 -0.08844106
0.23957191 -0.14698157 -0.40638685 0.66980666 -0.10644767 0.34817666 -0.64505845 -0.5054473

pos_mlp.0.bias f4 [32]
00000000: 18b8 ec3e 3274 a43e 5a4c 86bd 0df3 bb3d
00000010: e219 a63d 5dcb ccbe 8691 12bf d2da 2dbf
00000020: 69c9 49bf edd1 db3e 78a6 5c3f 45af 313f
00000030: 89ed 9e3c bac2 38bf 9aba 94bd 0e90 c2be
00000040: 2951 49bf 48d7 06bd a942 41bf 75e4 01be
00000050: 867d 16be 3630 40bf c0aa f5be dbe7 473f
00000060: 718a 863e 8ced 723c 04ce f23b 2c05 6bbe
00000070: 2ac5 fa3e f420 12bf e888 653f 02dc 7f3e
0.46234202 0.321199 -0.06557532 0.09177218 0.081104055 -0.39998904 -0.572533 -0.6791202
-0.7882295 0.42933598 0.8619151 0.69408065 0.019400375 -0.7217213 -0.07262154 -0.3800053
-0.78639466 -0.032920152 -0.7549234 -0.12684806 -0.14696321 -0.75073564 -0.47981834 0.7808816
0.26277497 0.014827143 0.007409813 -0.22951192 0.4897855 -0.5708153 0.8966203 0.2498627

pos_mlp.2.weight f4 [32, 32]
00000000: 2ac3 61bd d44c 8cbd 08b1 47bd b05c b43d
00000010: 5b56 db39 36eb 00bd c7cc 04bc 4d9c 303d
00000020: 8bdb a1bd 1a0e 96bd 379b bcbd 70d3 a6bc
00000030: 8cdc ae3d dce1 1739 2bdc 433d 1591 993c
00000040: 8ca0 08bb d6bd c03d f100 a13d 156f 033e
00000050: 465d e1bc 3f36 d9bd 8d3e 253d e2b5 38bd
00000060: c377 eaba 2765 babd 0ebb 0dbd 88d4 193d
00000070: 8d68 f8bd db45 e0ba 1b98 f938 ef35 06be
00000080: c1d1 a63d 8a8c 003e fd03 973d a461 08bc
00000090: f257 2c3c 6dd6 703a cca6 143e 94a5 d4bd
000000a0: a0dd 00be 587e 883d a47b 353e f8aa 193e
000000b0: f496 ffbd 1a66 ee3b f3fd 963d 053d 26bc
000000c0: cd48 f6bd 4387 c33d 86af 33ba f0eb 74bd
000000d0: c004 643c 9c31 f0bc 10fc 3dbd 08b3 b63d
000000e0: fc44 fcbd 63e9 843d 9922 223c a10f 283e
000000f0: 8010 eb3d 30d8 9a3a 2fff 963d 3f46 853c
00000100: 1ae4 19be f6b5 043e 3b16 da3d 0603 9fbd
00000110: ae5d e2bd 9ef8 fc3d 7ac7 9f3d 6003 03bd
00000120: 6696 973c 457c 11be ca1a 7f3d 6deb 0a3d
00000130: b372 133e d979 a03c 2224 bc3d aa54 87bc
00000140: 6390 d8bc 0250 373e cc02 82bc 84b0 983b
00000150: d2c2 7ebd 0d10 993d eb34 baba 5768 013e
00000160: 6ee5 afbd 053d 0ebc 20c1 a73d c1a7 e0bd
00000170: 8832 f1bc b594 963d 7127 efbd 6dbb 7dbd
00000180: fdfb ee3d 6506 7d3d cb71 4bba b210 b33d
00000190: 76ab 12bc 10a8 b03d 2f64 5e3d e108 92bc
000001a0: 0492 9539 f0fe 00bd 3f7f 5b3b 3b42 bfbd
000001b0: cea3 babd 43e4 cb3d 6ca9 2b3d 37ff d73d
000001c0: 4c83 013d e13c 5ebd 07f5 10ba cade fc3d
000001d0: 37f7 1dbd 6514 e9bd 3dab edbc 4477 1c3e
000001e0: c580 153e 8796 083c 3bd0 c8bd 8cf1 43bb
000001f0: 972d e3bd 0b35 ffbd c210 d03d 6f90 e23d
00000200: 068f dfbd c80a 2d3a 56ec 84bb ee23 ab3d
00000210: 2751 c63d 8f8a 0b3d 7f70 acbd b7b3 ee3d
00000220: 490b 9db8 84d8 c63d da45 ab3d f737 02be
00000230: 74e4 073b 4f65 acbd a3f7 c73c 84fa d8bd
00000240: ec2d 18bc a08d 93bd 39f1 59bd d5ac 4cbc
00000250: 7ccd b6bd e2e5 863d b4e9 febc 36c9 a33d
00000260: 950e c73d 5ad2 873c 5635 e13d fe81 e8bc
00000270: 039d cbbd daac 8e3d f1d6 a23b 0eed a93d
00000280: 8f84 82bd 704a b4bd 1c0c 67ba 0dbe be3d
00000290: 2828 3f3c f2d5 013e 62c3 b3bd f7dc 02bc
000002a0: 0fea 693d 2fcd 1a3d 7c7b c4bd c534 b7bd
000002b0: e45d f23c 24e1 02be 8791 f83d 2aa4 be3d
000002c0: beff 11b8 f87b f1bd 8929 f3bd 2931 cdbd
000002d0: 9e7f bcbb 2d1f 6fba 16db 393d 21f4 a5bd
000002e0: fb0f e3bd 2274 9a3d a9ee 4d3c 4f25 c83c
000002f0: 428a 2dbd e73e 073e 5800 4739 df82 fa3d
00000300: a9b3 cfbd 929c ce3d f45f d8bd 0a46 0ebd
00000310: 16e5 45bd 9c11 e53d 8ab1 9abc baa9 2c3b
00000320: 9acc a438 aeeb a03d f547 debc 8d8b b63d
00000330: 37f1 143e 19ae b439 7038 72bd 7dcd 2f3c
00000340: 87da bebd 1e01 973d d899 f7bd f913 413d
00000350: 056a 003e c671 043b 082f 8b3d 55e8 be3d
00000360: 7a0c cabd 7f16 df3d 7784 ed3d d310 a8bd
00000370: 5626 1cbe cf29 d7ba 1037 d9bc 8343 bcbc
00000380: ba63 c938 f78b f23c 2466 bb3c 3435 7dbd
00000390: 699b c5bc e981 40bd 6494 06be 4a04 dd3d
000003a0: a0c9 00bc b156 00be 74e1 d0bd c5a8 c8bd
000003b0: 02fb 1f3d 1dbc cb3c 5f8b b5bd 8b6d ce3d
000003c0: 6d67 243a 1051 c8bd bc4e 09bc 54a5 9e3d
000003d0: 5032 073e 42ab e63a f06c e23d e52d e43c
000003e0: 12bd ae3d 48f7 47b6 799d 563d 4538 a0b9
000003f0: 8618 64bb 97fd 653c ef22 47b8 1614 8fb9
-0.055117764 -0.06850591 -0.048752815 0.08806741 0.00041835275 -0.031474315 -0.008105463 0.04311781
-0.079032026 -0.073269084 -0.092092924 -0.020364493 0.0853816 0.00014484621 0.04781739 0.018745938
-0.0020847647 0.09411208 0.07861508 0.12835343 -0.027510297 -0.1060605 0.040342856 -0.045095332
-0.0017888475 -0.091013245 -0.034602217 0.0375562 -0.121293165 -0.0017110662 0.00011901577 -0.13106512
0.08145476 0.12553611 0.073738076 -0.008324061 0.010519015 0.00091872254 0.14516753 -0.10383144
-0.12584543 0.06664723 0.17722946 0.15006626 -0.12479964 0.007275355 0.07372656 -0.010146384
-0.120256044 0.095472835 -0.0006854463 -0.05979532 0.013917148 -0.02932053 -0.046382964 0.08920866
-0.12317845 0.064898275 0.009895944 0.16412212 0.114777565 0.0011813696 0.07372891 0.016268848
-0.1502842 0.12960038 0.106487714 -0.077642485 -0.11053024 0.123521075 0.07801719 -0.03198564
0.018504333 -0.14207561 0.062281407 0.033915926 0.14399223 0.019589351 0.09186579 -0.016519863
-0.026436036 0.17901614 -0.015870474 0.004659714 -0.062197514 0.074737646 -0.0014206445 0.12637459
-0.08588682 -0.00868154 0.081911325 -0.109694965 -0.02944304 0.07352582 -0.11677445 -0.06194632
0.11669157 0.061773676 -0.0007760792 0.08743419 -0.008952012 0.086258054 0.05429476 -0.0178265
0.00028528285 -0.031493127 0.0033492593 -0.09338804 -0.091132745 0.09955647 0.04190962 0.10546725
0.031619355 -0.054257277 -0.0005529676 0.12347181 -0.03856584 -0.11380843 -0.029012317 0.15279871
0.14599903 0.00833667 -0.09805342 -0.0029898612 -0.1109268 -0.12461289 0.10159446 0.11062705
-0.109159514 0.0006601033 -0.0040564938 0.083564624 0.09683447 0.034067687 -0.084198944 0.11655372
-7.4884454e-05 0.09709266 0.083629325 -0.12716661 0.0020735534 -0.084177606 0.024410075 -0.10594657
-0.009288292 -0.07204747 -0.053208563 -0.012492378 -0.08925912 0.065868154 -0.031117298 0.07997362
0.09719578 0.016579796 0.10996501 -0.028382298 -0.09942057 0.069665626 0.0049694707 0.08297168
-0.0637294 -0.0880326 -0.0008813755 0.09313593 0.011667289 0.1267927 -0.08777501 -0.007987252
0.05710798 0.037793335 -0.09593865 -0.08945612 0.029585786 -0.12781197 0.12137132 0.093086556
-3.4808872e-05 -0.11791223 -0.118731566 -0.10019142 -0.005752518 -0.0009121772 0.045374952 -0.081032045
-0.110870324 0.07541682 0.012569108 0.024431853 -0.04236818 0.13207589 0.00018978247 0.12231993
-0.10141689 0.10088457 -0.105651766 -0.034734763 -0.048314176 0.11184999 -0.018883485 0.0026346282
7.8582394e-05 0.07857452 -0.027133921 0.08913336 0.14545141 0.00034461988 -0.059135854 0.010730145
-0.093190245 0.0737326 -0.1208989 0.047138188 0.12540443 0.0020209416 0.0679608 0.093216576
-0.09865661 0.10892963 0.11597531 -0.08206334 -0.15248999 -0.0016415658 -0.026515514 -0.02298141
9.6030024e-05 0.029607756 0.022875853 -0.061818317 -0.024121957 -0.046998892 -0.13142544 0.10791834
-0.007860571 -0.1253307 -0.10199252 -0.09797815 0.03905774 0.024869973 -0.088644736 0.100794874
0.0006271515 -0.097810864 -0.008380588 0.077463776 0.13202786 0.0017598646 0.110559344 0.027853915
0.08532156 -2.9797247e-06 0.05239627 -0.00030559502 -0.0034804656 0.014037511 -4.747783e-05 -0.0002729005

pos_mlp.2.bias f4 [32]
00000000: 3f1f 3dbd 1cb5 26be 1a12 d13d 742b b2bc
00000010: e50d f8bd e821 97bc 3e3e 1a3e 94f4 cabd
00000020: 974e ce39 e6e1 fbbd 2a70 573d ab9d 2d3e
00000030: ab6d ae3d 699f 9dbd 22e4 a73b a5eb 0bbd
00000040: c265 8abd d659 0dbd 6fa9 c4bd 10eb cbbc
00000050: 5f01 323e fc97 013e c162 be3d 62d1 1e3c
00000060: 95e2 86bd 10fa 383d a927 0ebe b8f6 c7ba
00000070: 30b5 bfbd 515b 8f3d 103f 23bd 1fb0 983d
-0.046172377 -0.16280025 0.10208531 -0.021749236 -0.12112025 -0.018448785 0.15062806 -0.09909931
0.00039349936 -0.12298946 0.052597202 0.16954677 0.08517011 -0.07696421 0.005123631 -0.034160275
-0.0675769 -0.034509502 -0.096026294 -0.02489236 0.17383336 0.12655634 0.092961796 0.009693475
-0.06586186 0.045160353 -0.13882317 -0.0015256023 -0.09360731 0.06999839 -0.039855063 0.074554674

dec_trunk.0.weight f4 [128, 288]
00000000: 1abd 4a3d f18c c53c ba79 00bd 4a6c 3abc
00000010: 1893 a93c eaa8 963c 2721 82bb d539 d63c
00000020: b6f2 ef3c f35d bdbc 617e b1bc ba4d d03c
00000030: 8afc 25bd a767 483d 09e3 3a3d bb9b 1abd
00000040: 9223 363c a600 c43c f300 e0bc ad7f 2dbd
00000050: 60ef 1b3d 3512 9bbc 0d57 dd3c 977e 93bb
00000060: eea4 edbb d492 a03c 9df7 ac3c 8f6c 70ba
00000070: 9877 903d 1a3a dcba ba6f 213d 6bfe 123d
00000080: c961 3e3d 75ca 3bbd 67e7 9e3c 4ca6 723d
00000090: 1516 7b38 2208 0f3d d943 a53c a219 193b
000000a0: 076d 71bc 58b5 a9bb e0c4 0eba 5091 e03c
000000b0: 7a74 923c 914b cdb9 b188 b03c 2d3e 4e3d
000000c0: 6e4f 0fbd d451 24bd 85c2 98bc ac63 7b3d
000000d0: 7f6c d83c 91de 243d 0bee 21bb 0651 05ba
000000e0: 362d 59bc 21bc 14bd e61e 81bc 9306 d4ba
000000f0: b9bf 323d b950 733b 4858 3fbd 8830 3e3d
00000100: 2b0f 96bc 02d9 bebc 88dc e9bc 1aae 11bd
00000110: a1a1 7f3d eb96 0abb 653c 9fbc 3b4b 853d
00000120: 0435 903d e4f7 1b3d 4db5 7fbc fba9 293c
00000130: b1c3 85bc 1daa ad3c de5e fbbc 840f 693d
00000140: d82e 18bd 7f9a edbc 091a d4bc 8ba7 1139
00000150: 56ba 5b3d 6c7c 5bbc 827c 203d a14c cfbc
00000160: d37b 083d ce40 d33b be05 5e3d f9c4 593d
00000170: 9a1f a5bc 3f2f 3cbd b6da 04bd 0fc3 29bc
00000180: bf34 163b 843d 57bc 5df3 5a3c ba84 3abd
00000190: 617d 4c3d d970 19bd b0be 663c 584c 2fbc
000001a0: 2f06 133d bedd 5d3a 0d1b e5bb 4bae 71bb
000001b0: 59e0 0cbd b120 b7bb 2fbc 36bd 0ea0 8c3c
000001c0: 85cb 313d 39b9 a83c 1f0a aeba b3c4 663a
000001d0: bbdd 473c 1fcc 793d 6d0b 213d 4807 25bd
000001e0: 804e 4f3d 7303 0ebd 9458 603d 0325 a73c
000001f0: 53d9 9f3c 0b04 6ebc 628f 34bc 3f18 9dbc
00000200: e6c7 13bd 25c9 38bd 61b5 6aba f5e2 07ba
00000210: f582 9fbc 51c7 093d 0c22 493d 1c9b 613b
00000220: 0f69 38bc dece 853d 1905 0cbc 6d7c 3bb9
00000230: 53e2 08bd 0d40 b93b d352 1639 02c1 3abd
00000240: 80b7 2e3d be1c 093d a680 94bb dec7 363d
00000250: 3161 793d 8589 8fbc 3adf e43c e806 1e3d
00000260: 2259 a23c fdfb fb3c 421b 59bc 5d32 20bb
00000270: 86bb af3c 5830 f43c 7fc0 a038 718f c5ba
00000280: e4b5 bdbc 084e 543d 4f53 2abc a7ff 8d3d
00000290: 46aa 5c3d 76d0 a6ba d5fb 313d 0a64 77bb
000002a0: 4c4c 883c 6b99 fe3c 9c92 623d 1141 903c
000002b0: 8b6a 513d 2e03 883d 5978 013d fe8e 21bd
000002c0: 4f0e 6c3d bb3b a2bc c6b4 843d 737b 96b7
000002d0: 2379 62bb d0d4 31bd 0932 0dbd 55bd 953c
000002e0: 71bb 303d 4691 1cbd 1127 1a3c 4b8d 5f3d
000002f0: 06dc c93c 7624 003d 4475 683d f697 8fbc
00000300: b594 8f3c 74c0 363c 6eb6 9b3c b6f6 f4bc
00000310: d923 293b 3cb0 0e3d b508 30bd f028 083d
00000320: cd85 a7bc 0437 103d dee5 393b 0399 023d
00000330: 8afe a4bb 1201 a73b 89e7 783d f127 b6b7
00000340: 71e5 813b 5bab 413d 1ca5 53bc c8a4 6a3d
00000350: 0856 843d e74a 5a3d 8cbf 223b e430 15bc
00000360: 4075 49bd 9c2f 24bc fa34 f03b e932 76bc
00000370: e6f0 10bd 7bc7 2abc 6ff0 95bc 4ceb 1eba
00000380: 2f1d a23c 3064 00bd d250 913c c1cf 0c3d
00000390: eb55 ad3c 2f48 813d f1a7 43bc 12df 863c
000003a0: 50c1 c6bc 98a9 ef3c 377c ed3c 3816 773c
000003b0: 43fe d3bc 6dd9 803c acb9 fabc 5b99 8aba
000003c0: 6600 f03c 20e7 e8bc e6bf a7bc 8681 a1bc
000003d0: 5147 e7bb 71e5 073b 4b12 643d c26c 7d3c
000003e0: 9ae2 b1bb 8a91 08bc 53ba c53c 3836 083d
000003f0: 2212 d4bb b2ed 34bd fda8 ee3c 54c3 a63c
0.049496748 0.024115058 -0.031366087 -0.011378357 0.020700023 0.018391091 -0.003971237 0.026150623
0.029290538 -0.023116088 -0.021666707 0.025427688 -0.040524043 0.048926976 0.045626674 -0.037746172
0.011116879 0.02392609 -0.027344203 -0.04235809 0.038070083 -0.01892958 0.027019048 -0.0045011747
-0.007252327 0.019601263 0.021114165 -0.000917145 0.07054061 -0.0016801984 0.03941319 0.035887163
0.046479974 -0.045847375 0.01939745 0.059240624 5.986363e-05 0.034919865 0.020173954 0.0023361226
-0.014735467 -0.0051790886 -0.0005446207 0.02741304 0.017877806 -0.00039156948 0.021549555 0.050352264
-0.03498786 -0.0401171 -0.018647442 0.06137435 0.026418922 0.04025132 -0.0024708535 -0.0005085621
-0.013255408 -0.036312226 -0.015761804 -0.0016176276 0.043639872 0.0037126972 -0.04671505 0.046433
-0.01831778 -0.023296837 -0.02854754 -0.035566427 0.06241 -0.0021147083 -0.019437978 0.0650849
0.07041362 0.038078204 -0.01560719 0.010355468 -0.016328664 0.02119928 -0.030684885 0.056899562
-0.03715405 -0.029004334 -0.02589132 0.00013890692 0.0536445 -0.013396364 0.03918124 -0.025305094
0.033321213 0.0064469343 0.054204695 0.053166363 -0.02015667 -0.045943495 -0.03243514 -0.010361447
0.0022919623 -0.013137225 0.013363686 -0.045536734 0.04992426 -0.037461136 0.014083549 -0.010699354
0.03589457 0.0008463523 -0.00699175 -0.0036877568 -0.034393642 -0.005588614 -0.04461306 0.017166164
0.043406982 0.020596134 -0.0013278163 0.0008803114 0.012198861 0.06098568 0.039317537 -0.040290147
0.050611973 -0.03467126 0.054771975 0.02040339 0.019512808 -0.014527331 -0.011020513 -0.0191766
-0.03607931 -0.0451137 -0.0008953419 -0.00051836605 -0.019471625 0.03363735 0.049104735 0.0034424728
-0.011255517 0.065335974 -0.008546137 -0.00017880062 -0.033418965 0.0056533874 0.00014335969 -0.045594223
0.042655468 0.033474676 -0.0045319377 0.044624202 0.060883705 -0.01752163 0.027938474 0.038580805
0.019817892 0.030759806 -0.013251128 -0.0024444081 0.021451723 0.029808208 7.66525e-05 -0.0015072656
-0.023158021 0.05183223 -0.010395839 0.069335274 0.053873323 -0.0012726921 0.043453056 -0.0037748837
0.016637944 0.031079015 0.0553156 0.017609151 0.051126998 0.066412315 0.031608913 -0.03944301
0.057630833 -0.019803872 0.06479792 -1.7938879e-05 -0.0034557066 -0.043415844 -0.034471545 0.018278757
0.043147508 -0.03822448 0.009408728 0.054578107 0.024641048 0.03128477 0.05675246 -0.017528515
0.017526964 0.011154283 0.019007888 -0.029902797 0.002580872 0.03483604 -0.042977054 0.033242166
-0.020449543 0.035208717 0.0028365771 0.031884205 -0.0050352262 0.005096563 0.060767684 -2.171469e-05
0.003964119 0.047282558 -0.012917783 0.057286054 0.06461722 0.05329409 0.002483341 -0.009105895
-0.049184084 -0.010021117 0.007330534 -0.015026786 -0.03538599 -0.010423536 -0.018303124 -0.00060622836
0.019789306 -0.031345546 0.017738733 0.034377817 0.021159133 0.06312596 -0.011941896 0.01646379
-0.0242621 0.029255673 0.028989894 0.015080981 -0.025878077 0.015728677 -0.030606113 -0.0010574268
0.029297065 -0.028430521 -0.020477246 -0.019715082 -0.007058062 0.0020736123 0.055681508 0.015467824
-0.0054286243 -0.0083354805 0.024136698 0.033254832 -0.006471888 -0.044171996 0.029133314 0.020356812

dec_trunk.0.bias f4 [128]
00000000: 5077 0a3d 7944 a6bc 3e0a fbba 7476 783c
00000010: 1950 f53c 9047 fabc 5917 43bc 02aa 6d3c
00000020: 2309 0bbd cc0b 4ebb 9b6c 57bd 3a0b bebc
00000030: 298d bfbc 600a 833c a4fc 143a 0fc0 20bc
00000040: 29c1 323d 96e8 243d 7097 643a d539 8ebb
00000050: be0c 063c 7a54 56bc db02 1238 2848 c8ba
00000060: 017f 1c3a 9a6d ccbb ba77 f13c 33a7 0a3d
00000070: 5f3e 21bd b66c f538 5927 f1bc b47c 9f3c
00000080: ac8b 0abd 28e3 4ebc c1fa 403c f3ac 743b
00000090: df4e 323d d591 b43c 8ef3 673d e4a5 dfbb
000000a0: e45f 27bd 505e 9bbc 7e55 76bc c7eb 38bb
000000b0: 0d8c ecbc 0cef 693d 30b9 cabc 83a1 5a3c
000000c0: 3f0e 7d3c 1ffc e0bc a450 0c3c 6fbc 7d3d
000000d0: e698 5b3b 5424 74b9 739c 3dbc 48d0 4cbd
000000e0: dbdd 1ebd 06b1 a539 14cd 633c 8b38 0a3d
000000f0: c328 443d a81b e5bb fe7f 6abb f742 9d3c
00000100: c5ea c03c 52d7 003a 9e38 5d3d 37c8 1f3d
00000110: 7a46 873d f90a 29bd d77e 89bc 6764 65bc
00000120: f172 2238 b031 e2bb 9eca ee3b 3402 4f3d
00000130: 87f4 263d 90a0 8b3d dd3a 273c 2553 0a3d
00000140: 8ae8 82bc e03f 6aba e9cb 613c cd59 9d3b
00000150: 0653 65bd 718b 693b bb96 cdbc b5de 0aba
00000160: 236d e43b 3f64 c1bb 4270 403c b143 653b
00000170: 8d6f 5cb8 895f cebc 9bbd 4ebd de4f 1bbd
00000180: 5247 9a3b 08cd db3c 80d3 ffb8 253e 013d
00000190: ef18 b7bc ffb0 33ba 2b73 75bb b655 443d
000001a0: 1323 7d3c 4c95 7039 0880 76ba f56a 733b
000001b0: 8af2 d73b eab4 1fb9 f3ec 543c c174 7a3c
000001c0: dd9a d4bc 835e abb8 5fa8 80bb 7dd6 debc
000001d0: c1c6 853c 3b8d 913c 341f 35bd a47e 56bd
000001e0: ee50 cdbc b2d6 4e3c 74d0 163d fa4d f9b8
000001f0: e7c0 0d3c 6d75 21bd 9d73 fb3c 5ac6 013b
0.03380519 -0.020296322 -0.0019152833 0.01516496 0.02994542 -0.030551702 -0.011907422 0.014505865
-0.03394426 -0.0031440137 -0.05259381 -0.023198713 -0.02338274 0.015996158 0.00056833983 -0.009811415
0.043641243 0.040260874 0.0008720076 -0.00434039 0.008181749 -0.013081664 3.4811772e-05 -0.0015280293
0.0005969853 -0.0062386515 0.029476035 0.03385086 -0.039366122 0.000117027594 -0.029437708 0.019468643
-0.033824608 -0.0126274 0.011778534 0.003733453 0.04353225 0.022042194 0.056628756 -0.0068251956
-0.040862933 -0.01896587 -0.015035031 -0.0028216706 -0.028875375 0.05711274 -0.024746507 0.013344171
0.015445291 -0.02746397 0.008564148 0.061947282 0.0033507883 -0.00023283187 -0.011572945 -0.05000332
-0.038785797 0.00031603145 0.013903875 0.03374533 0.047890436 -0.0069918223 -0.0035781856 0.01919697
0.023549447 0.0004914898 0.054009072 0.0390093 0.06605239 -0.04127023 -0.016784115 -0.014000989
3.8730857e-05 -0.006902896 0.0072873374 0.05053921 0.040760543 0.06817734 0.010206905 0.0337707
-0.015980024 -0.000893591 0.013781526 0.004801965 -0.05598738 0.0035636092 -0.025096288 -0.0005297468
0.006971018 -0.005901843 0.011745514 0.0034982974 -5.2555977e-05 -0.02519204 -0.05047379 -0.037917964
0.004708209 0.026831165 -0.000121987425 0.031553406 -0.022350756 -0.00068546826 -0.0037452679 0.047933303
0.015450257 0.00022943801 -0.00094032334 0.0037142609 0.006590192 -0.00015230817 0.012995946 0.015286625
-0.02595275 -8.1715196e-05 -0.0039263214 -0.027201885 0.016330125 0.01776754 -0.04421921 -0.052366868
-0.025063004 0.01262443 0.03681989 -0.000118877695 0.0086519485 -0.039418627 0.030694777 0.0019802065
