pointnet/weights_per_bundle_ratio025/ST_PREM_right_best.pth (torch, 359853 bytes, 17 tensors)

t_grid f4 [100]
000000 00 00 00 00 b5 7e 25 3c b5 7e a5 3c 10 3e f8 3c
       0.0 0.01010101 0.02020202 0.030303031
000010 b5 7e 25 3d 62 de 4e 3d 10 3e 78 3d de ce 90 3d
       0.04040404 0.05050505 0.060606062 0.07070707
000020 b5 7e a5 3d 8c 2e ba 3d 62 de ce 3d 39 8e e3 3d
       0.08080808 0.09090909 0.1010101 0.11111111
000030 10 3e f8 3d f3 76 06 3e de ce 10 3e ca 26 1b 3e
       0.121212125 0.13131313 0.14141414 0.15151516
000040 b5 7e 25 3e a0 d6 2f 3e 8c 2e 3a 3e 77 86 44 3e
       0.16161616 0.17171717 0.18181819 0.1919192
000050 62 de 4e 3e 4e 36 59 3e 39 8e 63 3e 24 e6 6d 3e
       0.2020202 0.21212122 0.22222222 0.23232323
000060 10 3e 78 3e fd 4a 81 3e f3 76 86 3e e9 a2 8b 3e
       0.24242425 0.25252524 0.26262626 0.27272728
000070 de ce 90 3e d4 fa 95 3e ca 26 9b 3e bf 52 a0 3e
       0.28282827 0.2929293 0.3030303 0.3131313
000080 b5 7e a5 3e ab aa aa 3e a0 d6 af 3e 96 02 b5 3e
       0.32323232 0.33333334 0.34343433 0.35353535
000090 8c 2e ba 3e 81 5a bf 3e 77 86 c4 3e 6d b2 c9 3e
       0.36363637 0.37373737 0.3838384 0.3939394
0000a0 62 de ce 3e 58 0a d4 3e 4e 36 d9 3e 43 62 de 3e
       0.4040404 0.41414142 0.42424244 0.43434343
0000b0 39 8e e3 3e 2f ba e8 3e 24 e6 ed 3e 1a 12 f3 3e
       0.44444445 0.45454547 0.46464646 0.47474748
0000c0 10 3e f8 3e 05 6a fd 3e fd 4a 01 3f f8 e0 03 3f
       0.4848485 0.4949495 0.5050505 0.5151515
0000d0 f3 76 06 3f ee 0c 09 3f e9 a2 0b 3f e4 38 0e 3f
       0.5252525 0.53535354 0.54545456 0.5555556
0000e0 de ce 10 3f d9 64 13 3f d4 fa 15 3f cf 90 18 3f
       0.56565654 0.57575756 0.5858586 0.5959596
0000f0 ca 26 1b 3f c5 bc 1d 3f bf 52 20 3f ba e8 22 3f
       0.6060606 0.61616164 0.6262626 0.6363636
000100 b5 7e 25 3f b0 14 28 3f ab aa 2a 3f a6 40 2d 3f
       0.64646465 0.65656567 0.6666667 0.6767677
000110 a0 d6 2f 3f 9b 6c 32 3f 96 02 35 3f 91 98 37 3f
       0.68686867 0.6969697 0.7070707 0.7171717
000120 8c 2e 3a 3f 86 c4 3c 3f 81 5a 3f 3f 7c f0 41 3f
       0.72727275 0.7373737 0.74747473 0.75757575
000130 77 86 44 3f 72 1c 47 3f 6d b2 49 3f 67 48 4c 3f
       0.7676768 0.7777778 0.7878788 0.7979798
000140 62 de 4e 3f 5d 74 51 3f 58 0a 54 3f 53 a0 56 3f
       0.8080808 0.8181818 0.82828283 0.83838385
000150 4e 36 59 3f 48 cc 5b 3f 43 62 5e 3f 3e f8 60 3f
       0.8484849 0.85858583 0.86868685 0.8787879
000160 39 8e 63 3f 34 24 66 3f 2f ba 68 3f 29 50 6b 3f
       0.8888889 0.8989899 0.90909094 0.9191919
000170 24 e6 6d 3f 1f 7c 70 3f 1a 12 73 3f 15 a8 75 3f
       0.9292929 0.93939394 0.94949496 0.959596
000180 10 3e 78 3f 0a d4 7a 3f 05 6a 7d 3f 00 00 80 3f
       0.969697 0.97979796 0.989899 1.0

encoder.mlp.0.weight f4 [64, 3]
000000 3f 47 12 3e af b7 78 3d f1 f0 8b be ae e7 03 bf
       0.1428499 0.06072205 -0.2733226 -0.5152539
000010 1c 23 9e 3e 3c 67 f1 3e 2e 5d ad 3e 9f 26 af 3e
       0.3088616 0.47149074 0.33860153 0.34209153
000020 2b 0f e5 3e f3 2f d0 3e 77 56 d5 be cb 9d 55 be
       0.44738135 0.40661582 -0.4166753 -0.20860974
000030 4d 7f 15 bc 52 65 87 3e c3 b2 b1 3d 90 7b eb 3e
       -0.009124589 0.2644449 0.08676674 0.45992708
000040 0a c1 b1 3e 3d be 59 be 6c 15 29 be e3 ce 5a 3e
       0.3471759 -0.21263976 -0.16512078 0.21367984
000050 ae e3 d2 3e 8e 72 9a be 24 74 d5 3e 02 82 65 bd
       0.4118933 -0.30165523 0.4169017 -0.05603219
000060 58 c0 e5 3e b8 e6 c3 3e b8 ed 73 be 59 c5 28 be
       0.4487331 0.38261962 -0.23821151 -0.16481532
000070 9c df 93 3e b1 64 f3 3d 4c 2f cb be 0f 08 d1 3e
       0.28881538 0.1188444 -0.39684522 0.4082646
000080 90 8d b2 bd ad 46 28 3d 46 5e b1 3e 24 87 02 bf
       -0.08718407 0.041083027 0.34642237 -0.5098746
000090 ee 0d 95 be 86 1e 93 3d a4 39 f7 3e bf db 23 3e
       -0.2911219 0.07183556 0.48286164 0.16001795
0000a0 f9 e9 ff be 67 b6 d6 3d 77 8a 24 3d a8 10 c4 3d
       -0.49983194 0.10484009 0.040171113 0.095734894
0000b0 c1 56 99 be 7a 3b ac bd 18 ff 10 3f 12 5a 03 bf
       -0.29949 -0.08409782 0.5663924 -0.5130931
0000c0 36 df 11 3f bf be f9 3e 85 ed c4 be 78 91 f0 3e
       0.5698122 0.4877834 -0.38462463 0.46985984
0000d0 f1 9f 4a 3e 2d 22 0e be 68 35 c9 bd 96 93 db be
       0.19787575 -0.13880225 -0.098246396 -0.42886037
0000e0 d7 19 88 3e 8b ee 97 be 3a 3d dd 3e 2b f8 80 be
       0.26582214 -0.2967418 0.43210775 -0.25189337
0000f0 c6 fb f0 bd 4d ae 92 3e 9c ca 06 3f 05 b4 40 3d
       -0.11766772 0.28648606 0.5265291 0.04704668
000100 f6 c2 d9 3e 56 c8 b0 3e 15 3a 3f 3e 0d a3 dc bd
       0.42531556 0.34527844 0.186745 -0.10773287
000110 e6 64 e8 be f5 82 82 3e 6b dc 31 3e 7b 4a ef be
       -0.4538948 0.25490537 0.17369239 -0.46736512
000120 a3 cb 95 be 76 f8 ff be 77 0e 12 3e df b4 0f 3e
       -0.29256925 -0.49994248 0.1426333 0.1403384
000130 fa 91 2a be d3 21 cd bb 1f 2d 8d 3e 4f 0a 10 bf
       -0.16657248 -0.0062601357 0.27573487 -0.5626573
000140 e1 34 c3 3b 12 96 80 be d8 73 1b 3e ee b4 bf 3d
       0.0059572314 -0.25114495 0.1518091 0.093606815
000150 3f cb 54 3d ca f3 6b 3e ed 97 78 be e3 b0 32 bd
       0.051951643 0.23042217 -0.24276705 -0.043625724
000160 d9 ef e5 3e 6a 15 59 3e f3 f0 7f bc f6 e8 58 3b
       0.44909552 0.21199575 -0.015621412 0.003309784
000170 52 a4 79 b8 1e ab 99 3e 5c 45 21 3e 57 4e 10 be
       -5.951926e-05 0.30013365 0.15749115 -0.14092384
000180 16 31 63 3e 2e 09 49 3e ed 21 c3 3e 54 30 9d 3e
       0.22186694 0.19632408 0.3811182 0.30700934
000190 fb 84 11 3d 01 fe b7 bd 08 24 2b 3d 29 b1 6e be
       0.03552721 -0.08983994 0.04178241 -0.23309769
0001a0 80 c0 a7 3b c7 86 c0 be 25 ee f4 3e 7e 07 c0 3e
       0.0051193833 -0.37602827 0.4783794 0.37505716
0001b0 fa 6b c7 3e d5 5a 01 bf fc c6 2c 3d c5 51 61 3e
       0.38949567 -0.50529224 0.042181954 0.22003849
0001c0 80 21 99 be 26 fa 1d bf 5e af e2 3c dd ae 14 3f
       -0.2990837 -0.6170982 0.027671512 0.5807932
0001d0 a4 99 91 3e 58 d0 99 be ec fc cd be 8c df 16 3e
       0.2843753 -0.30041766 -0.40232027 0.14733714
0001e0 8d 38 93 3d e7 15 6b be 1c 1b c9 3e ee 85 99 3e
       0.071885206 -0.22957574 0.39278495 0.29984993
0001f0 de 73 f8 3e f9 31 81 be 8c 87 46 be de 93 e3 be
       0.485259 -0.2523344 -0.19387645 -0.4444875
000200 5a c9 49 3e 18 15 10 3f 33 3a c6 be b7 02 b6 be
       0.19705716 0.56282187 -0.38716277 -0.35548946
000210 2e 3d d1 be 79 00 18 3c be 97 50 3e 26 5b cf be
       -0.4086699 0.009277456 0.20370385 -0.40499228
000220 5f 6e f1 3e 7b f9 a1 3b a6 ee 53 be ed d1 e5 3c
       0.4715452 0.0049430705 -0.20696506 0.028054202
000230 37 0a da 3d 85 d2 c4 bb 37 86 b8 a7 df 1e 9c b8
       0.106464796 -0.006006541 -5.1215775e-15 -7.44441e-05
000240 01 e0 95 bb de 77 51 32 eb 38 37 ba 61 c3 ef bd
       -0.0045738225 1.2192656e-08 -0.00069893774 -0.117071874
000250 22 9b 46 bd 6b 9e 8d bd 8e 5f d9 bd 32 77 b1 be
       -0.04848779 -0.069149815 -0.10613929 -0.3466125
000260 bd 01 a7 3d 9a 57 4e 3e 96 49 19 3e 3a ce 8a bd
       0.081546284 0.20150605 0.14969477 -0.06777616
000270 c9 14 83 bd 1f c6 35 be 99 79 0c 3c 29 6f 83 3e
       -0.06400449 -0.17751358 0.008573913 0.25670746
000280 cb 8a ed be dc ed 14 3f 5b 2f e1 bd 74 2e 01 be
       -0.46394953 0.58175445 -0.109953605 -0.12615377
000290 8c c6 29 bd a4 85 fe 3e 61 46 6f be 90 7f ef be
       -0.041449115 0.49711335 -0.23366691 -0.4677701
0002a0 0e 0b 81 3e e1 6e 91 bc 9f d2 85 be 05 6f 10 bb
       0.25203747 -0.017753066 -0.26137254 -0.002203883
0002b0 6a c8 61 3e 2c 0a d5 bd 13 cd 11 3f 08 63 71 be
       0.22049108 -0.10402331 0.56953543 -0.23572934
0002c0 dd 3a ae be e3 f2 b0 bd 52 0b d9 b7 a3 96 38 bd
       -0.34029284 -0.08640077 -2.5873687e-05 -0.045065533
0002d0 44 c5 d2 3e 3f 11 0a bf 6a 1e 20 3e 12 9d 4c 3e
       0.41166127 -0.53932565 0.15636602 0.19981793
0002e0 c2 c2 dc be 2c eb 01 3f d2 4c 0e 3f 36 2c e2 3e
       -0.43117338 0.5074947 0.5558597 0.44174355
0002f0 1d 4b 06 3f 1c 37 0b 3f 18 09 86 3e 2a 30 c0 3d
       0.52458364 0.54380965 0.26178813 0.093841866

encoder.mlp.0.bias f4 [64]
000000 76 35 ee 3c 07 07 bf be f0 8b 5f 3e 39 5a f5 3e
       0.029078227 -0.3731005 0.21830726 0.47920397
000010 50 c8 07 3e 7e 7a f6 3e e6 26 9f 3c 62 10 0c be
       0.13260007 0.4814033 0.019427728 -0.13678125
000020 6e 25 db be d6 13 6f 3e 4d 3c dc 3b 2f 36 a7 bd
       -0.42801994 0.2334741 0.0067210556 -0.081646316
000030 93 63 02 bf 5e 29 87 be 65 4e a2 be 9b e2 07 3e
       -0.5093319 -0.26398748 -0.31700435 0.13270037
000040 4c f6 d7 3e a4 29 c1 3e 87 d4 e0 be 44 58 13 3e
       0.42180097 0.37727082 -0.43912145 0.1438914
000050 43 06 9e be 68 a1 34 3e 4e 27 75 be 21 0a b8 3e
       -0.30864152 0.17639697 -0.23940775 0.35945228
000060 a2 8c 31 be 1a 47 70 3e 16 21 49 3e a0 bc 0f 3e
       -0.17338803 0.23464623 0.19641528 0.14036798
000070 28 57 d5 be 2c ea f8 be e5 d7 49 bd 6a 49 87 be
       -0.41668057 -0.4861616 -0.04927816 -0.26423198
000080 44 6d ab 3e 28 f6 b9 3e 6a 99 b1 be c5 c4 67 be
       0.334818 0.36320615 -0.34687358 -0.22633655
000090 c8 4a 99 be fa 54 26 3d 44 0e 1c 3e 72 90 07 be
       -0.29939866 0.040608384 0.15239817 -0.13238695
0000a0 98 85 21 bc 44 7a ea be 65 70 b1 be 23 19 a6 be
       -0.009858511 -0.45796406 -0.34656063 -0.32441053
0000b0 b9 e1 ca 3d e9 40 20 3e 2f b1 12 3c fa 71 66 39
       0.099063344 0.15649761 0.008953377 0.00021976969
0000c0 bf a3 d4 a4 fc 23 03 3d 76 22 da 3e 1a c4 6a be
       -9.221774e-17 0.03201674 0.42604417 -0.2292637
0000d0 a3 a3 11 be 01 b1 97 3e 56 3e 0b bb a4 d3 91 be
       -0.14222579 0.2962723 -0.0021246872 -0.2848178
0000e0 47 58 32 be 30 4a c4 be 3a cf 07 3d 6e 7c e6 3c
       -0.17416488 -0.3833785 0.03315661 0.028135505
0000f0 f5 8b b1 be 22 52 cd 3e 32 6a be be d9 be be be
       -0.3467709 0.40101725 -0.37190396 -0.3725498

encoder.mlp.2.weight f4 [128, 64]
000000 d1 ac 48 bd 6d f4 49 bd f6 db 34 3c 64 ce e6 3d
       -0.048992936 -0.04930537 0.011038771 0.11269835
000010 7e b5 d3 bd 20 19 df 3d 8b 83 fe 3d 14 f8 a3 3b
       -0.10337351 0.10893464 0.124274336 0.0050039385
000020 57 60 96 bd 26 bd d0 3d 86 68 8a 3c 70 88 a2 bd
       -0.07342594 0.10192327 0.016895544 -0.0793618
000030 fa bc 49 3d 94 e2 77 bd e1 a1 d1 bc 80 65 e6 3d
       0.049252488 -0.060518816 -0.025589885 0.11249828
000040 df ca 8f 3b 59 3f 4b bd bd 84 1b bc 5e 1b 2d bc
       0.004388198 -0.04962096 -0.0094920965 -0.010565607
000050 69 c3 4c bd 86 04 50 bd 2a 0c 2a bd 2e 9e d7 3d
       -0.049991045 -0.050785564 -0.041515507 0.10528217
000060 eb 20 4a 3d 57 2a b0 3d a0 46 91 3d e0 54 0c bd
       0.0493478 0.08601826 0.07093549 -0.03426063
000070 21 89 61 3c 72 89 d0 bd d9 4b 37 b7 92 1f 05 3e
       0.013765604 -0.101824656 -1.092531e-05 0.13000324
000080 86 22 d0 3b 91 78 04 3e 2d 64 3f 3c b5 0a 59 bd
       0.0063517718 0.12936617 0.011681599 -0.052988727
000090 b7 fb 14 3e bd 93 16 3e 17 49 e7 3d 82 61 c7 3b
       0.14549147 0.14704795 0.11293238 0.006084622
0000a0 37 2e a5 3d 35 7d 5c 3d a7 9d 90 3d 07 cd 0f 3d
       0.080654554 0.053830344 0.0706132 0.03510764
0000b0 f1 09 d0 3c d0 f7 e9 3c a1 fd 97 3c af 3e f1 24
       0.025395365 0.028560549 0.018553557 1.0462328e-16
0000c0 50 1d 27 24 85 eb 3d 37 da 4f d1 3d 39 8d 03 bd
       3.623718e-17 1.1320114e-05 0.102203086 -0.032117102
0000d0 e7 be c0 3c a5 98 cc bd c8 45 7c 38 83 03 a0 bd
       0.02352853 -0.09990052 6.014647e-05 -0.0781317
0000e0 31 1d e0 3d d4 4d c6 3d fe 01 b8 bd c9 7e ad 31
       0.10943068 0.09682813 -0.08984755 5.0493765e-09
0000f0 23 14 7f 3c cc fc 84 bb 2f a5 88 3d 53 bf 56 bd
       0.015568766 -0.004058456 0.06672131 -0.052428555
000100 f5 fe 84 3b bd fc 22 bc b1 a3 b2 bd 18 4e 5a bc
       0.0040587136 -0.009947953 -0.08722628 -0.013324283
000110 24 16 c2 3d 44 92 07 bd fd 94 d7 bd fc 27 a5 bc
       0.09476879 -0.033098474 -0.10526464 -0.020160668
000120 a4 3d 89 3c 62 bc 01 3d d4 89 ae bc cc 68 db bd
       0.016753025 0.031673796 -0.021305956 -0.10713348
000130 ee b4 81 3b e3 aa 1a 3d 0f f1 66 b8 33 f2 bd bd
       0.003958336 0.037760627 -5.5060777e-05 -0.092747115
000140 61 a6 bc bc 7b 8a ea bd 06 34 c6 bc e7 ac 12 bd
       -0.023028554 -0.11452194 -0.024194729 -0.035809424
000150 fd ab a5 3d f7 87 d0 3d 54 d2 d2 b6 f3 15 94 3c
       0.08089445 0.10182183 -6.282973e-06 0.018076872
000160 03 77 5e bd b8 e0 80 3c 06 c8 d9 bc d9 e3 18 3c
       -0.054312717 0.015732154 -0.026584636 0.009331667
000170 1a b2 01 3c 57 8a ba 3d a2 49 12 a9 fd 08 55 bb
       0.007915998 0.091084175 -3.248238e-14 -0.0032506578
000180 7f 92 b4 3d 2c d1 58 bd 81 21 dc bd 5f 87 ab 3d
       0.088170044 -0.052933857 -0.10748578 0.08375429
000190 ff 95 d5 bd 45 31 fb af 0a ab c0 bc c7 57 dd bc
       -0.10429 -4.5691642e-10 -0.023519058 -0.027019395
0001a0 53 0d cf ba ad a6 97 3d f4 fc 61 3d 7b 71 20 be
       -0.0015796818 0.07404838 0.055172876 -0.1566829
0001b0 ac 13 85 3c 6b 63 11 bd a2 29 db 3b 0b 88 58 25
       0.016244732 -0.035495203 0.0066883126 1.8781107e-16
0001c0 85 a8 a5 29 bb 62 28 b7 a7 5b 10 3d c0 ab d8 bd
       7.3567054e-14 -1.0036568e-05 0.035243656 -0.10579634
0001d0 55 92 20 3b 8c 12 d6 3d a8 42 21 b8 3e 10 be bc
       0.0024501283 0.10452756 -3.844747e-05 -0.023201104
0001e0 cb 69 f4 bd fa 19 2a 3d d9 ea fe bd 08 54 cc 35
       -0.11934241 0.04152868 -0.124471374 1.5223641e-06
0001f0 7f 3b ee 3c 44 81 e2 3d 80 cd d9 3d 05 37 ca bd
       0.029081104 0.11059812 0.10634899 -0.098737754
000200 e8 3c 6b 3c 8e e5 c9 3c 9f 9e 58 bd 15 ee 55 3d
       0.014357783 0.024645593 -0.052885648 0.052229006
000210 b1 e4 d4 bd b9 18 44 bd 55 e3 02 3e 16 6c 81 bb
       -0.10395182 -0.04787514 0.12782033 -0.0039496524
000220 6b 82 db bd ef 4b 79 3d db c8 b5 b7 b9 70 b0 3b
       -0.10718235 0.06086343 -2.1670412e-05 0.0053845313
000230 a5 f3 d3 3d 2c 61 21 3d d8 aa 45 3c 8b 1f 39 b7
       0.10349206 0.03939931 0.012064658 -1.1034203e-05
000240 56 32 1f 3d 33 ed 76 bd 78 b1 c4 3d cf 5c b3 b4
       0.038866363 -0.060284805 0.09604162 -3.3408875e-07
000250 f7 d9 68 bd 45 bb 22 3c 52 4f 2a 3c 3c 4f c8 3c
       -0.056848492 0.009932344 0.010394888 0.024451844
000260 0b d8 76 3c 32 03 bb 3c f1 6a 1b 3d 2d 1f 74 bc
       0.015066157 0.022828672 0.037943784 -0.014900011
000270 05 09 4a ba 1a 63 9c bd c1 42 0f a7 4f a2 1d 3d
       -0.00077070325 -0.076360896 -1.9881424e-15 0.038484868
000280 cd 21 77 bd e9 c9 56 bd 17 6f cc 3d bb 51 77 3d
       -0.06033497 -0.05243865 0.09982126 0.06038068
000290 af e0 46 bd 3b 59 a1 bc 89 c4 8d bd 1b 50 4f bd
       -0.04855412 -0.019695869 -0.06922252 -0.050613504
0002a0 f9 4d 8f 3d 6c 96 b2 bd c2 38 8c bd 6b fb a6 bd
       0.06997294 -0.08720097 -0.06846763 -0.08153423
0002b0 34 17 2d 3d 7f e5 87 bc 50 69 8d 3c d8 fb cf ab
       0.042258456 -0.016588924 0.017262131 -1.4778135e-12
0002c0 36 63 bf 24 7a 62 51 b6 38 c0 11 3e f4 84 a8 3b
       8.3001116e-17 -3.1200748e-06 0.14233482 0.0051428024
0002d0 6e fc 82 3c 56 47 c1 3d 84 ec 2e 33 aa d9 82 bc
       0.015989508 0.094374344 4.072764e-08 -0.015972931
0002e0 22 9d ca 3b f0 7a ab bb f1 f1 73 3d 74 7f b6 a4
       0.0061832825 -0.005233161 0.059556905 -7.914583e-17
0002f0 d0 0a d2 3d f3 67 d9 3d 41 fa 97 bc 2b ec 6d 3d
       0.102559686 0.1061553 -0.018551948 0.058086555
000300 25 9e 7f bd d5 90 cf bd ba e4 57 3d 54 5d 00 be
       -0.062406678 -0.101350464 0.052708365 -0.12535602
000310 bf cf 51 bd 6d b5 74 bb c5 d3 25 bd d2 96 95 3d
       -0.051223513 -0.0037339584 -0.040485162 0.07304157
000320 ed 27 73 3d 26 57 9f 3c 6b dd 5d 3d ff 9d ba 3d
       0.059364248 0.019450735 0.05416624 0.091121666
000330 fe c4 96 3d 3b 50 69 3d 17 2c c7 3d 7b 4d 02 3c
       0.07361792 0.05696128 0.09725206 0.007953043
000340 43 15 89 3c a0 a9 17 3d eb 14 5f 3d 30 c6 a7 3d
       0.016733771 0.037027 0.05446331 0.08192098
000350 3e 8c 88 3c 89 09 8f 3d 39 06 06 bd de 87 9a bb
       0.016668435 0.069842406 -0.03272078 -0.0047159037
000360 f1 a5 b8 b9 e6 1b 37 3d 3e 18 d7 3d 47 83 60 bd
       -0.0003521885 0.04470434 0.10502671 -0.054812696
000370 4a 7b 93 3d 7a 61 a6 bc 5a 30 c9 29 0e 95 8d 3d
       0.0720125 -0.020310152 8.934581e-14 0.069131956
000380 74 fe 2c bd 6f 6a b5 bd 7a 8d 6b bb d9 80 77 bd
       -0.042234853 -0.08858191 -0.003594248 -0.060425613
000390 a5 64 c9 bd 05 2d 1e 3d 24 89 58 3d 40 31 2d b7
       -0.098336495 0.038617153 0.052865162 -1.03230705e-05
0003a0 c1 c5 68 bd 23 96 55 3d a1 5d c5 bc e5 a7 e7 3b
       -0.056829218 0.052145135 -0.024092497 0.007069575
0003b0 20 67 a8 bc 84 be 15 3d a9 e5 5d bc 0c 3d 16 37
       -0.020556986 0.036558643 -0.013543525 8.95491e-06
0003c0 65 03 81 23 0d 87 ac 31 4e 67 42 3d 10 50 8d bd
       1.3987646e-17 5.0212123e-09 0.0474618 -0.06900036
0003d0 04 24 f7 33 ae fd 31 bd c8 55 63 b7 e6 3a a6 bd
       1.1508385e-07 -0.04345482 -1.3550227e-05 -0.08116703
0003e0 ba c5 6b 3d 77 bc 4a 3d 30 4d 13 3d 14 40 ee 22
       0.057561614 0.04949614 0.035962284 6.4577875e-18
0003f0 32 28 d6 bd 28 86 62 bd 0a cd 65 3d 3b d1 d7 3d
       -0.104568854 -0.055303723 0.056103744 0.105379544

encoder.mlp.2.bias f4 [128]
000000 8c b6 5c bd 67 b2 9c 3d 9c e6 7a 3c 66 53 43 bd
       -0.053885028 0.07651215 0.015313771 -0.047686957
000010 42 f7 22 3d a6 fd 27 bd 17 0b 4b b0 0e e6 27 bd
       0.039786585 -0.041013382 -7.386673e-10 -0.04099088
000020 11 cd a7 3c 3d 3b 8b bd 5f d4 82 3b f2 0a 5d bd
       0.020483525 -0.06798408 0.0039926018 -0.053965516
000030 ca 31 c3 3b 2f f3 59 3c eb 29 86 bd a0 2a 52 3c
       0.005956863 0.013302608 -0.06550964 0.012827545
000040 65 c3 87 bc 9d 2a bb b2 eb ea ca 3c 74 74 87 ba
       -0.016572664 -2.1789043e-08 0.02477022 -0.0010334388
000050 96 bc 6e 3d 5b f3 5b bd 6a f6 aa 3d d2 ee e9 3c
       0.05828532 -0.05369888 0.08347781 0.028556261
000060 15 40 df 3c d7 30 2a 3b 27 7b 05 3c de 34 5c bd
       0.027252236 0.0025969052 0.008147038 -0.053761356
000070 d3 54 42 3c 31 a2 03 3d ab 46 9c 3d 6a f8 82 bc
       0.011861044 0.0321371 0.07630666 -0.015987594
000080 c8 24 96 3b 1c ad b7 3d 3b bd 7d 3d 8a bb b7 bd
       0.0045820214 0.08968565 0.061948042 -0.08971317
000090 5b 62 10 3b 53 fe 8c 3d 71 61 57 bd 8b 12 15 3a
       0.002203128 0.06884446 -0.05258316 0.0005686662
0000a0 f2 ce 51 39 78 ea cd bd de 30 8b 3d b4 a8 0e 3d
       0.00020008886 -0.10054487 0.0679643 0.034828857
0000b0 91 b6 37 3c b9 f8 b2 bc 63 b6 b2 bc 96 4d 4f 3c
       0.011212961 -0.021847116 -0.021815484 0.012652775
0000c0 c9 53 1b 3d 20 d7 7e 3d 86 0c 95 3c 37 66 ea 3c
       0.0379217 0.062216878 0.018194448 0.028613193
0000d0 67 71 ec b8 7e f8 4d 3d 53 66 ad bd 2d 2f 15 bd
       -0.0001127448 0.05028581 -0.084667824 -0.036421943
0000e0 f3 13 75 3d 59 6c dd 3b 5a df a7 bd 79 e7 e1 3c
       0.05983348 0.006757301 -0.08196898 0.027576195
0000f0 a2 09 07 bb bf 44 58 bc 16 55 eb bd 84 f3 ae 3d
       -0.0020605107 -0.013199984 -0.11490838 0.08542541
000100 9d a6 a8 3c fc 2d 6e 3d 8e fb 9e bd c8 da eb bb
       0.02058726 0.058149323 -0.07762824 -0.0071977116
000110 ac fd 80 bc 3a 92 a5 bd 4c c7 74 3d f4 63 df 3c
       -0.01574596 -0.08084531 0.059760377 0.027269341
000120 de 81 5a bd a1 7b 2b 3c e2 6b 1c 3d ae 4a 1e 3d
       -0.053346507 0.010466487 0.038188823 0.03864544
000130 e3 75 87 bc 37 fb 45 3c ab dd 7f 3c 5d 35 8e 3d
       -0.016535705 0.01208382 0.015616815 0.06943772
000140 cc d9 03 3d b7 18 9c 3d 16 21 71 bd de d2 c5 bc
       0.03219013 0.076219015 -0.058869444 -0.0241484
000150 47 99 02 bd ca 3c a4 bd f9 7c bf 3d 7b 04 bc 3d
       -0.031884458 -0.08019407 0.093500085 0.09180542
000160 2b 73 aa 3d 91 25 3d bd a8 7e bc 3c 3f a3 c9 3d
       0.08322748 -0.046178404 0.023009613 0.0984559
000170 2e 9f 2c bd e6 a2 89 3d 12 8c 62 bd 4b bc 86 bd
       -0.042143993 0.067205235 -0.055309363 -0.06578883
000180 f3 b4 77 3d 7e 38 7a 3d 6d 29 82 3d 30 84 fd 3c
       0.0604753 0.06108903 0.063555576 0.030946821
000190 a6 83 04 bc c8 f2 5f bd 94 30 cb bc 06 b3 6f 3c
       -0.008088028 -0.054674894 -0.024803437 0.014630085
0001a0 74 2a b7 bd f1 99 47 b1 19 f6 68 bd 9f 6b b0 39
       -0.08943644 -2.9045817e-09 -0.056875322 0.0003364952
0001b0 f3 e0 3c bc a4 4f c1 3d 34 e1 f8 3c 3c 4c a2 3d
       -0.011528241 0.09439018 0.030380823 0.07924697
0001c0 c8 45 95 3d 96 3f 67 3d de 73 05 bd c7 98 16 3c
       0.072887 0.056457125 -0.032581203 0.009191698
0001d0 33 36 b2 3d 27 b8 90 bd 1b 9a 88 3d 56 ab 92 22
       0.08701744 -0.07066374 0.06670018 3.975479e-18
0001e0 c2 9c 28 bc 17 c5 3f bd 35 1d 24 bc 22 d3 8b 3d
       -0.01029128 -0.04681882 -0.010016729 0.0682738
0001f0 15 a6 1c 3d 9f e7 08 bd 6a 09 a4 3d 7d 1d 2c 3d
       0.038244326 -0.033424016 0.08009608 0.04202031

encoder.mlp.4.weight f4 [256, 128]
000000 67 34 82 bd 80 11 86 bd 23 09 d1 bc 87 7d e5 bc
       -0.06357651 -0.065463066 -0.025517052 -0.028013958
000010 49 b9 07 bc 26 34 5f bd a3 b9 46 b4 22 a9 6b 3c
       -0.0082839215 -0.054493092 -1.8507721e-07 0.014383586
000020 12 4b 34 3d 15 fb 7f bd 5e c9 b6 bb 7c 29 98 3b
       0.044016905 -0.06249531 -0.005578204 0.004643617
000030 cd 11 8b ba c4 59 af 3d 1f dd 9e 3d 98 12 61 bc
       -0.0010610163 0.08562043 0.07757019 -0.013737343
000040 67 a8 ab 3b 79 51 ad ad 9e d7 68 b9 f3 6a 9c 3d
       0.005238581 -1.9704004e-11 -0.00022205568 0.076375864
000050 2c dd a1 bc c3 90 36 bd 87 08 45 bd c7 b2 92 3d
       -0.019758783 -0.04457165 -0.048103835 0.07163005
000060 9d f3 d3 bc af 02 16 3d 86 b5 87 24 ac ed 44 bc
       -0.025873 0.036623653 5.885443e-17 -0.012019556
000070 af df b2 3b 8a 7b a1 3d a2 40 0e bc 58 89 24 bd
       0.005458794 0.07884891 -0.008682402 -0.040170044
000080 90 27 c9 3d 0d 05 f3 bc 22 72 a7 3c da c1 b2 bd
       0.09821999 -0.029665494 0.020440165 -0.087283805
000090 d3 be 13 bb 61 e4 28 bd af 3f 22 bc 8e 33 f0 2c
       -0.002254416 -0.041233424 -0.009902879 6.826934e-12
0000a0 ab 54 be b2 81 ba 97 3c f2 83 b2 3d b4 23 7f 3c
       -2.2157414e-08 0.01852155 0.08716573 0.015572477
0000b0 b1 79 1d bc 05 87 1d 3d 5f 9a 74 3d 60 79 0e 3c
       -0.009611533 0.038458843 0.059717532 0.00869593
0000c0 d5 13 24 bd f6 80 b5 bc b0 d2 c2 bd 00 db 49 3b
       -0.040057976 -0.02215622 -0.09512842 0.00308007
0000d0 51 aa a9 b9 e9 c4 7a 3c 59 20 db bc 1f e2 44 3d
       -0.00032361088 0.015305736 -0.026748823 0.04806721
0000e0 e0 1b f5 ad e6 ba fe b1 ac 5b af bc 7e 5d 31 3c
       -2.7865654e-11 -7.413621e-09 -0.021406017 0.010825513
0000f0 d5 6b c6 3c 9b be f6 3b 9f b1 78 bd 84 f2 94 3d
       0.02422134 0.007530046 -0.060716268 0.07272819
000100 b5 d2 fd 23 06 b2 ad 3b 84 9c 48 bd 30 1d 39 bc
       2.7519553e-17 0.005300763 -0.04897739 -0.011298463
000110 a1 07 18 3d a3 69 85 3d e0 26 e9 3c 47 9d 98 bc
       0.03711665 0.06514289 0.02846092 -0.018629683
000120 8a a6 5e bc 64 02 a3 3c 8a 4f 84 3d 8a 09 8a 3c
       -0.013589511 0.0198986 0.06460483 0.016850252
000130 cb ad d5 3a dc 37 13 28 af 3f 36 bd c0 17 08 3c
       0.0016302405 8.172252e-15 -0.044494327 0.008306444
000140 82 9e 67 bb 0c 77 1c 3b fd da a1 bc 7a b4 b4 3d
       -0.003534228 0.0023874668 -0.019757742 0.08823486
000150 71 e5 82 3d 31 68 b7 3b 31 05 3f 3b f1 d1 8e 3d
       0.06391419 0.0055971374 0.0029147381 0.06973637
000160 82 6b fc 39 69 58 1d 3d 70 87 29 bc 1f d7 27 bd
       0.00048145285 0.038414393 -0.010347232 -0.04097664
000170 d5 f8 26 3c be 86 63 3c ba 76 be 3b 12 37 15 bc
       0.010191162 0.0138871055 0.005812493 -0.009107368
000180 a9 26 89 3d 16 ef 7f 3d 22 3d b3 3d 69 f0 17 3c
       0.06696827 0.06248387 0.087518945 0.009273627
000190 26 1c e9 bc a0 fc 5d 3c ed 1b 0d bd f3 d1 28 bc
       -0.028455805 0.013549 -0.03445046 -0.010303962
0001a0 a6 af c5 bc 1a 00 ad 25 59 da 30 bd ee 7d 18 bc
       -0.024131607 3.0010785e-16 -0.043176983 -0.009307368
0001b0 d3 40 6d 3d 11 f2 a7 3b 04 7b d5 3c ff 18 62 3c
       0.05792315 0.005125292 0.026059635 0.013799905
0001c0 71 a5 58 bd e4 66 1f bd eb 08 60 bd 01 e3 32 3c
       -0.052892152 -0.038916484 -0.054696005 0.01091838
0001d0 14 7b 9c bd 4a ac ba 3d 3f f8 bc bc c5 2b 22 24
       -0.07640663 0.09114893 -0.023067592 3.5165225e-17
0001e0 2c 7d 37 bb 4e aa d9 39 00 e1 fa bc a2 b7 03 3d
       -0.0027998192 0.00041516352 -0.030624866 0.032157548
0001f0 f3 2c 8b bc a9 1e 78 3c 54 43 c4 bb 5d 63 5e bd
       -0.016989207 0.015144029 -0.0059894715 -0.05429398
000200 d2 f5 89 3d 9c 86 6c 3c 88 91 40 bd 3e 50 d8 bc
       0.0673634 0.01443639 -0.04701379 -0.02640545
000210 93 e0 a7 ba 8b ff b4 a9 cf a2 d9 30 0e c2 dd bc
       -0.0012808017 -8.0379354e-14 1.5835101e-09 -0.027070072
000220 fd 2c 7b a8 08 97 88 bd 25 aa ea bc 6f 02 17 3c
       -1.3943054e-14 -0.06669432 -0.028645584 0.009216889
000230 e2 cd 53 bd f1 88 f1 3c 26 2c 99 bb f4 94 18 bd
       -0.051710017 0.029484244 -0.0046744524 -0.037251428
000240 74 2a ad 3c 60 3c a0 33 96 80 91 3d 33 ff f0 3c
       0.021138407 7.461563e-08 0.07104604 0.029418563
000250 5b fb a7 bd 6d ea 38 3d a8 2a 13 bd 6a 63 2b 3c
       -0.08202239 0.04514544 -0.035929352 0.010460714
000260 33 15 6a bd 87 98 d2 bb ef 53 d6 ba 5e 7c 43 3d
       -0.057149123 -0.006426874 -0.0016351918 0.047726028
000270 f3 d7 46 24 b4 2c 93 3c 7c 95 a3 bc 9c 72 37 b9
       4.3117322e-17 0.017965652 -0.01996874 -0.00017494935
000280 34 73 e6 3c 6c e6 70 bd 47 24 c8 bc be 15 74 bd
       0.028131105 -0.058813497 -0.02443136 -0.059591047
000290 47 77 b0 24 b7 24 42 3d 33 5d 69 bd 74 f1 b9 3c
       7.6529897e-17 0.047398295 -0.056973647 0.022698142
0002a0 13 c1 70 3d cd 76 02 bd f6 7f ca bd c9 0d 38 3b
       0.05877788 -0.03185158 -0.09887688 0.0028084388
0002b0 45 24 98 bb d7 5e 7f bc 2e f6 fe 3a 78 d7 ac b6
       -0.0046429955 -0.015586576 0.0019452029 -5.1510833e-06
0002c0 4f 29 a1 bd 2f b0 b7 3c 72 b3 2f bc 8d 6e d5 3b
       -0.07869207 0.022422878 -0.010723935 0.006513423
0002d0 9d a4 c1 39 83 b5 50 bd b1 09 7b 3b 12 11 af 3d
       0.00036934475 -0.050954353 0.0038305337 0.08548178
0002e0 a0 11 4a 3c 43 8b 08 3a 57 16 25 bd 34 9e 0b 3d
       0.012333304 0.000520874 -0.040304508 0.03408642
0002f0 e8 ab a9 3c 12 0c a2 bd 90 18 99 3d 5b 06 bd 3d
       0.020711854 -0.079124585 0.07475388 0.09229728
000300 8c d0 fc 27 59 2f 50 bd e1 aa 16 3d 5a 9b e3 3c
       7.0170158e-15 -0.050826404 0.036784057 0.027784038
000310 13 60 80 3d 82 1d 93 bd d3 20 98 bd 7b 76 cc 3b
       0.06268325 -0.071833625 -0.07428136 0.00623971
000320 92 e7 4d 3b ca 87 a4 3c 7d 93 f2 bc 0c 5a e2 29
       0.0031418544 0.02008428 -0.029611344 1.0052037e-13
000330 ae 0e 0f 3d 3d 60 9e bb 92 08 ab bd e9 14 a1 ba
       0.03492611 -0.00483325 -0.08351244 -0.0012289557
000340 8f 20 06 bb a1 35 a3 3d a2 92 1e 3d 52 28 23 3d
       -0.0020466184 0.07969213 0.03871406 0.039833374
000350 63 a2 8f bc bc ba 92 bc 6f 33 bd bc 04 88 32 bd
       -0.017533487 -0.017911308 -0.023095815 -0.043586746
000360 f2 31 0f bd b5 fb 3c 3c 90 01 7d bc 22 ae b7 bc
       -0.03495974 0.011534621 -0.015442267 -0.0224219
000370 5e af 1b 3d b0 9e 9f 3d ea 10 73 3d bb 40 90 bb
       0.03800904 0.07793939 0.059342302 -0.0044022477
000380 75 ee 84 3c 79 a2 b0 bc a5 c3 a5 3d a9 24 2e 3d
       0.016226986 -0.021561848 0.08093957 0.04251543
000390 24 10 31 bd 00 30 20 bd 76 d1 74 bc b5 9a be bc
       -0.043228284 -0.039108276 -0.0149425175 -0.02326713
0003a0 6d 14 a8 3d 4f a9 f7 a3 c7 a9 52 3c e4 70 13 bc
       0.08207021 -2.6851499e-17 0.012857861 -0.008999083
0003b0 f2 5e 03 b2 8e c0 0e 3c 35 c3 ee 3b fe 96 3e bd
       -7.646792e-09 0.008712901 0.007286454 -0.046530716
0003c0 10 4e 3d bd e9 35 64 bd a1 74 6c 3d 9c f3 9a b3
       -0.046217024 -0.055715475 0.057728413 -7.215496e-08
0003d0 26 ad ed 3b 75 88 f5 3c 95 be a9 3d 32 9e 3b a5
       0.007253307 0.029972294 0.08288304 -1.6273263e-16
0003e0 f8 83 63 bd 96 c2 4e 3c d6 e8 7b a3 50 da 39 bd
       -0.055545777 0.012619635 -1.3656042e-17 -0.045374215
0003f0 fe 84 f4 bc ce ef c4 3c bd 4d 4b 3c e0 22 4f bd
       -0.029848572 0.024040129 0.012408671 -0.05057037

encoder.mlp.4.bias f4 [256]
000000 d6 eb 86 3d ce d4 66 bd 4c b2 3c bd bc 66 e4 3b
       0.06587951 -0.05635529 -0.046068475 0.0069702547
000010 37 e7 c5 bc 4c c4 20 bd ac 21 1a bd f7 25 85 bc
       -0.024158103 -0.039249703 -0.03762977 -0.016253455
000020 f9 4e 25 3d c1 c9 f1 bc 3e 19 d0 b0 77 99 62 3c
       0.040358517 -0.02951515 -1.5141166e-09 0.013830534
000030 36 f2 60 b0 9d d7 a6 3c 54 24 28 3c e2 49 96 bd
       -8.183493e-10 0.020366484 0.010262568 -0.07338311
000040 3e 64 08 3d 44 31 35 bd 2c 56 82 bd 65 83 3d 3d
       0.033298723 -0.044236436 -0.06364092 0.046267886
000050 4b be 3e 3c 29 d9 86 3d 76 22 9a ac c6 f4 85 bd
       0.011642049 0.06584389 -4.380769e-12 -0.065408275
000060 1e b1 82 3c 8c 2f 36 3d 42 82 41 bc af fb 3f bd
       0.015953597 0.044478938 -0.011810841 -0.046870884
000070 68 9f 3f a4 26 a2 36 3d b6 39 0d 3d 6b 28 37 3d
       -4.1551545e-17 0.04458823 0.034478866 0.04471628
000080 69 82 16 bd 17 ef 37 bd 55 c7 06 bb e7 09 75 bd
       -0.036745463 -0.04490575 -0.0020565588 -0.059823897
000090 1b af 91 bb be 82 24 bd c8 62 ed bc 60 1b 09 3d
       -0.004445923 -0.040163748 -0.028977767 0.033473372
0000a0 7d c6 fd 3c fe db a3 3c c4 ae 3b 3d ed 56 b3 3c
       0.030978436 0.020002361 0.045820966 0.021892035
0000b0 c0 b9 fe bc ee 03 9b 3b 1a b9 30 3d ed 4f 2c 3d
       -0.031094432 0.004730693 0.043145277 0.04206841
0000c0 a8 a1 b8 3c da cb 71 bd b0 51 7e 3d e7 f5 6f bd
       0.022538021 -0.0590323 0.062089622 -0.05858412
0000d0 c7 74 3c 3d ea 10 0b 3d 4f b0 8a bd f4 cc a8 3d
       0.046009805 0.033951677 -0.067719094 0.08242217
0000e0 48 26 ee 33 a1 07 3d 30 46 ed 30 bd 9a 1a 2d 3d
       1.1089702e-07 6.876864e-10 -0.04319503 0.042261697
0000f0 e8 86 1f 3d 26 b8 f4 ba a1 a6 76 bd 8d 16 a0 3c
       0.038947016 -0.0018670603 -0.060217503 0.019542003
000100 4b 48 25 3d 86 25 19 bd a8 19 b3 b2 d0 d8 98 bc
       0.040352147 -0.0373893 -2.085001e-08 -0.018658072
000110 9f fc a4 bd 49 26 5e bd ee f1 02 3c 5c de 9e bd
       -0.08055996 -0.05423573 0.007992251 -0.077572554
000120 58 8b 56 bc 59 2a 37 bd 47 0a 4d 3d 95 0b 3e bd
       -0.013094746 -0.04471812 0.05005863 -0.046397764
000130 4e 4c 3d bd 78 b8 05 3d 25 d3 f4 3c dc ca 4e 3c
       -0.046215348 0.032646626 0.029885838 0.012621608
000140 9e 71 25 3d 10 09 17 b5 6b 7f bb 3a 8c 3b d0 3b
       0.040391557 -5.626507e-07 0.0014304941 0.006354755
000150 97 d0 2e 3d d0 c5 91 3c a1 1e 8f b6 0a 26 84 3d
       0.042679396 0.01779452 -4.265298e-06 0.06452568
000160 da f9 2f bc 10 ca 75 3d bf 9c 4f 3d d5 ec cc 3b
       -0.010740722 0.060007155 0.050686594 0.0062538185
000170 eb da 88 ac 18 f9 46 3d 75 23 1f bc ad 57 e4 bc
       -3.8896573e-12 0.048577398 -0.009713043 -0.027873838
000180 37 43 ad 3b c3 fe 8b bc 33 71 30 3c 29 89 37 b5
       0.0052875536 -0.017089253 0.010769176 -6.8372407e-07
000190 29 e0 26 3c 8e 1c 76 bc 7f 90 ff bb 58 ce 05 3c
       0.01018528 -0.015021456 -0.0077992077 0.008166872
0001a0 e9 ad 80 bc db 69 76 bc 45 cb a6 3b 9b 10 6b bb
       -0.015707927 -0.015039886 0.0050901496 -0.0035868052
0001b0 a6 a7 57 3d 2e 4d 21 bd 95 06 46 b2 53 3f c2 bc
       0.052650116 -0.039380245 -1.1526613e-08 -0.023711836
0001c0 a9 e6 57 bd 23 19 b1 39 f7 1b 99 3d 3a 86 14 bd
       -0.05271021 0.000337788 0.07476037 -0.03626082
0001d0 df 11 9f bd fa 40 ba b3 18 2b 21 3c 91 f9 3d 3d
       -0.077670805 -8.673119e-08 0.0098369345 0.046380583
0001e0 75 6a 4b 3d bd 4c 76 a8 c1 59 65 bd a5 b3 cb a4
       0.049662072 -1.3672383e-14 -0.0559938 -8.8341546e-17
0001f0 ed 6a a2 bd 32 dc a9 b2 6f 88 39 bd 1d 72 29 3c
       -0.07930551 -1.9774323e-08 -0.04529613 0.010342148
000200 69 b4 bb 3b af d0 32 3d 89 9d 15 3d ae e5 48 3d
       0.0057282937 0.043656047 0.03652719 0.049047165
000210 5a 32 9c ba b9 7e 9a bd f2 e7 1a 3d 72 1c 58 3c
       -0.0011916861 -0.07543702 0.037818857 0.013190376
000220 0e e1 1c 3d fc 16 3c bd 04 a7 08 ac ae 20 f6 3c
       0.038300566 -0.045920357 -1.9419475e-12 0.03004488
000230 dc 58 7c 3a 3d bb b5 ae ac 22 52 3c 94 aa 34 3d
       0.0009626278 -8.264187e-11 0.012825649 0.04410799
000240 a4 e8 6d 3d 2e 61 03 bd 8a e9 33 bd 86 df c0 3d
       0.05808319 -0.0320751 -0.043923892 0.09417634
000250 6a 60 82 bd e2 5a b4 bc 1c d7 64 bd e4 aa 90 3c
       -0.06366046 -0.022015993 -0.055869207 0.017659612
000260 90 66 53 3d 6b 7c 0a 3d ee fd 26 bd f8 bb 7d 3d
       0.051611483 0.03381006 -0.04076951 0.06194684
000270 76 c6 8b 3d c7 54 81 3d 08 2e dd 3a cb 1b a6 ba
       0.06824963 0.06314998 0.001687468 -0.0012673078
000280 a9 53 5b 3d 2d e5 bf 3c d4 79 b0 3c 65 21 ae 3c
       0.05354658 0.02342471 0.021542467 0.021256158
000290 e4 2f 18 bd f7 40 77 3d cc 82 98 3c 8a 7f b9 3c
       -0.037155047 0.06036469 0.018617056 0.022643823
0002a0 a5 f0 a4 3c c9 92 23 3d 67 7b 81 bd 77 6e 40 bd
       0.02013428 0.039934907 -0.06322365 -0.046980347
0002b0 20 92 f1 bc 4d 69 83 3d bc ce b5 bc e8 65 9d 25
       -0.029488623 0.06416569 -0.022193305 2.7304213e-16
0002c0 49 5c 2d 3d b6 b5 87 3a 7f 2f 83 bd 79 37 a5 3c
       0.042324338 0.0010353837 -0.064055435 0.020168053
0002d0 3e be 8e bd d0 5a 44 3c eb a4 ae 3c 9f f5 fb 3b
       -0.069698796 0.011984542 0.021318873 0.0076891924
0002e0 44 4d 74 3d ed 0d f8 3c 82 e6 49 3d f0 ca b5 bc
       0.059644 0.030280078 0.049292095 -0.022191495
0002f0 29 c0 45 bd dc 9e b0 bb 2a 2c 8c bb 29 7c 30 3d
       -0.04827896 -0.0053900313 -0.0042777257 0.04308716
000300 47 da dd 3c b3 9f 3a bc 42 97 ac 3d 79 30 42 bd
       0.027081622 -0.011390614 0.08427288 -0.04740951
000310 92 b3 6e 3c 68 92 cf aa d1 fc 1d 3b 42 36 7a 3b
       0.01456918 -3.6872176e-13 0.002410699 0.0038179313
000320 c0 08 2c 3c 8c 81 95 bc ca 25 6b 3d 09 40 50 bd
       0.010500133 -0.01825025 0.057409085 -0.05084232
000330 49 29 eb 3c 5b 6e 21 3d 78 2f ee 3c 31 5f 40 bd
       0.02870621 0.039411884 0.02907537 -0.04696578
000340 a4 97 10 3d 85 c8 47 3c 43 db 06 23 86 c1 0b 3d
       0.035300866 0.012193804 7.310585e-18 0.034120105
000350 82 0f 04 bd 02 d0 75 23 f9 93 7d 3b 9b 79 40 bd
       -0.032241352 1.3325524e-17 0.0038692935 -0.046990972
000360 fe b9 1f 3d 8f 7f 98 bd 6a 77 22 b2 7e fb 84 bd
       0.038995735 -0.07446205 -9.456793e-09 -0.06493281
000370 3a 8c 16 bc 5f b3 26 3c 69 90 92 bd fd 40 c1 bc
       -0.009188706 0.010174601 -0.0715645 -0.02359056
000380 70 26 36 3d 5f 47 a6 3d 13 88 58 bb c1 73 07 3d
       0.04447025 0.08119082 -0.003304009 0.033069376
000390 4b 6a 4a bd 13 49 4e 3c a5 a8 86 bc 8c 5e 4d 3c
       -0.049417775 0.012590664 -0.016437838 0.012534749
0003a0 21 33 02 3d 18 81 22 ac 2b fc 01 bb 59 b1 a4 3a
       0.03178704 -2.3093246e-12 -0.0019834142 0.0012565061
0003b0 8d 14 09 3a 6c cb 87 3d b8 96 9f 3d 5f 37 c6 3c
       0.00052291976 0.066305965 0.07792419 0.024196325
0003c0 fb 26 89 24 d3 90 8f 31 03 5e 35 3d a0 b3 46 bd
       5.9480315e-17 4.1783124e-09 0.04427911 -0.048511147
0003d0 32 e9 81 b9 73 1d 16 bd b1 55 e5 3c ab 09 4b 3d
       -0.0002477854 -0.03664918 0.027994962 0.049569767
0003e0 57 37 9c 3d c5 ec 44 bd 0c 91 96 3d 61 4f 47 bd
       0.07627743 -0.048077364 0.07351884 -0.048659686
0003f0 42 55 7d 3d 8c 8d 95 3c a8 26 2d bd bc 9c 5f b9
       0.061848886 0.018255971 -0.042273194 -0.00021325325

pos_mlp.0.weight f4 [32, 1]
000000 47 03 04 3f a2 17 72 be 72 56 1b bb 8e 4a ab 3d
       0.515675 -0.23641828 -0.0023702648 0.083638296
000010 3d be 1b 3e 88 1d 2c 35 b6 05 ca be 96 97 ee 3d
       0.15209289 6.4117967e-07 -0.39457482 0.116500065
000020 4a 67 cd 3e d8 a0 70 3f 5e fa 59 3e da 0a b4 ba
       0.40117866 0.9399543 0.21286914 -0.0013736144
000030 61 6a d6 3e fc 56 ad be 08 1c 87 3f 0f b2 bd 3e
       0.41878036 -0.33855426 1.055543 0.3704991
000040 92 7a 60 3f a7 cf 88 bd eb f5 d1 be 10 d5 9e be
       0.8768703 -0.066802315 -0.41007933 -0.3102193
000050 b7 0a 09 bf b7 66 41 bf 2f af c6 3e 0d 0a 1b 3f
       -0.53531975 -0.75547355 0.3880553 0.6056221
000060 45 cb b1 3e 59 40 02 bc 6b 29 65 3f 05 f9 87 3e
       0.34725395 -0.007949912 0.89516324 0.26557174
000070 62 4c 05 3f 4d d6 94 3e 11 7e 80 3e a9 33 6f bf
       0.52069676 0.2906975 0.2509618 -0.934382

pos_mlp.0.bias f4 [32]
000000 43 b7 04 be 57 c9 93 b9 50 65 7d bd 07 38 bd bd
       -0.12960534 -0.00028188035 -0.061864197 -0.09239202
000010 dc 92 a7 be f5 b7 86 bd a3 7e 27 bb 4a 97 5e be
       -0.32729232 -0.06578056 -0.002555766 -0.217374
000020 e4 0e 8e 3e 90 3b 47 be 95 51 61 3f de d8 e8 bb
       0.27745736 -0.19456315 0.8801511 -0.0071059307
000030 89 f3 75 3f fb 16 89 bc e3 0e 00 bd fa 81 3f 3f
       0.9607473 -0.01673459 -0.031264197 0.74807703
000040 4e 66 4a bd 3e 21 ae bd ca d8 2f 3f ac 79 31 be
       -0.04941397 -0.08502434 0.6869017 -0.1733157
000050 46 c5 63 3f 1c d4 6b 3f 0a 89 ec 3e 14 af e4 bc
       0.8897289 0.9212053 0.46198303 -0.027915515
000060 20 1c 26 3e c8 c0 55 be 36 b7 08 3e 17 00 a1 be
       0.16221666 -0.20874321 0.1335114 -0.3144538
000070 79 55 b8 3e 29 d4 db 3e 56 d3 b2 3d b5 8e 6d 3f
       0.3600271 0.42935303 0.087317154 0.9279588

pos_mlp.2.weight f4 [32, 32]
000000 cd 74 2d 3e 0c 0d 90 ae 15 af b0 b7 66 df 78 b8
       0.16939087 -6.5506794e-11 -2.1062364e-05 -5.9335864e-05
000010 c4 da 30 ba 2e ce 4f 35 32 74 d6 29 72 65 04 36
       -0.0006746466 7.741354e-07 9.523666e-14 1.9728582e-06
000020 76 6f 91 3e c0 b9 88 3e 0e 07 83 3c 7d dc 07 32
       0.2840535 0.26704216 0.015994575 7.9081675e-09
000030 fc ed cb 3d 13 54 04 3a e6 c1 75 3e 4b 9f 30 3a
       0.09957501 0.00050479284 0.23999748 0.00067376037
000040 72 69 97 3e db 0d 92 b1 f0 60 23 be ac 46 24 3a
       0.29572636 -4.2507344e-09 -0.15954947 0.00062666344
000050 e6 94 77 be 5b 4d 68 be ac d2 93 3e 46 be c8 3e
       -0.24177894 -0.22685759 0.28871667 0.39207667
000060 e8 29 89 3e c3 58 e4 b9 06 23 d1 3d e3 29 ad 38
       0.26789784 -0.00043553681 0.10211758 8.257085e-05
000070 53 b2 73 3e cc d6 82 3e 40 11 07 3d 6b 0b c9 bd
       0.23798494 0.25554502 0.032975435 -0.09816631
000080 7f 32 da 39 24 fc 4f 25 60 14 0a 3a 32 b9 bc a3
       0.00041617823 1.8039817e-16 0.00052673183 -2.0461434e-17
000090 77 a5 91 b8 c5 9b 1d 35 18 f2 03 b9 46 40 d9 b3
       -6.944959e-05 5.871373e-07 -0.0001258332 -1.0116541e-07
0000a0 61 eb 3c b3 40 ca 01 b0 90 20 72 a4 fb 61 ab b9
       -4.3986237e-08 -4.721734e-10 -5.2502967e-17 -0.00032688663
0000b0 f3 e1 11 ba a9 95 f0 b8 31 47 9b b6 86 b6 48 b8
       -0.000556498 -0.00011471968 -4.6276477e-06 -4.7853704e-05
0000c0 2a bd 82 37 cd 68 a5 b2 63 ea cd b7 8a cb 6b 29
       1.5585294e-05 -1.9256186e-08 -2.454705e-05 5.2357024e-14
0000d0 bd 8f ee b9 c8 a0 3d a4 32 d2 02 b5 b3 22 7e 34
       -0.0004550199 -4.111903e-17 -4.873465e-07 2.3668217e-07
0000e0 a9 72 03 3a 5c 25 ac b9 38 f1 cf a6 5c bc 81 ab
       0.0005014339 -0.0003283423 -1.4428893e-15 -9.218282e-13
0000f0 31 91 40 32 fa 2e c3 b8 c2 43 c3 20 98 f7 73 b0
       1.1208884e-08 -9.307075e-05 3.3079123e-19 -8.8754737e-10
000100 bf dc 82 3e b3 7b f7 32 47 c1 12 34 ab 52 bc ac
       0.2555904 2.8810836e-08 1.3667623e-07 -5.3524594e-12
000110 77 f5 60 39 cd cf c2 a4 b4 bc 8a a9 74 17 dc 38
       0.00021453747 -8.448612e-17 -6.161166e-14 0.00010494786
000120 5d 76 9d 3d 74 d2 92 3e 27 27 12 3e dc 6a a8 b7
       0.07688592 0.28676188 0.14272748 -2.0076921e-05
000130 24 d3 6c 3d 7c f4 db 23 a0 2a 80 3d 06 f7 a5 3d
       0.057818547 2.384757e-17 0.0625813 0.081037566
000140 c2 9f c1 3d ab 0a 94 39 0f 36 08 be 33 ea 0d 24
       0.094542995 0.00028236708 -0.13301872 3.0772876e-17
000150 98 0e f1 bd c5 5d 22 bd b5 3f 17 3b 98 1c a5 3e
       -0.11770362 -0.039640207 0.0023078744 0.32248378
000160 86 37 89 3e cc 2a ec 24 b1 1b be 3e cb ec 8b 38
       0.26800174 1.02421186e-16 0.37130502 6.6721426e-05
000170 ef 84 3a 3e 38 15 c2 3d 3d 02 80 3e 3b 18 dc bd
       0.18214773 0.094767034 0.25001708 -0.10746809
000180 cc 08 63 bd 4c 1c 56 38 f1 80 4d 31 2c 75 a6 22
       -0.05542831 5.104793e-05 2.990472e-09 4.511845e-18
000190 4d ae d7 b2 ce a6 ea 38 71 6a a8 b9 ef 81 ad 39
       -2.5108557e-08 0.00011189059 -0.00032122762 0.0003309394
0001a0 9a 73 b4 bd 8b e1 9c be 62 53 5a 3e 92 3c b6 b9
       -0.08811112 -0.30640826 0.2132087 -0.00034758874
0001b0 e9 38 7a 3e 92 c0 8a b9 1e 74 80 be a5 9b 62 3e
       0.24435772 -0.00026464887 -0.2508859 0.22129686
0001c0 1d b2 bb be 6a 0b 2f 36 62 4d ab 3d 4e 13 db b7
       -0.36659327 2.6083676e-06 0.08364369 -2.6115824e-05
0001d0 72 c1 84 3e 6b 4c 37 3e a1 f5 96 bd b3 35 b0 be
       0.25928837 0.17900245 -0.07371069 -0.3441597
0001e0 b4 f2 14 3b 87 88 32 a4 dd ba 97 bd 47 24 03 37
       0.002272767 -3.871324e-17 -0.07408688 7.816655e-06
0001f0 3c 49 07 be e6 93 62 bd 43 ae a1 bc 49 c4 78 3e
       -0.1321153 -0.05531683 -0.019736415 0.24293627
000200 1d 26 a1 b1 d4 f2 2d 26 c5 4a a5 b2 7b db 1d 39
       -4.6900497e-09 6.0350526e-16 -1.924253e-08 0.0001505445
000210 15 0f 42 a3 45 22 73 39 ca 51 3c a4 19 04 9e b9
       -1.0519955e-17 0.00023187052 -4.083528e-17 -0.0003013916
000220 58 84 49 35 d7 c1 a4 b7 77 60 36 39 0a c4 e7 39
       7.507092e-07 -1.9640587e-05 0.00017392809 0.00044205814
000230 e1 18 cb b4 d7 f2 71 22 09 8a 96 b9 e1 93 b0 34
       -3.7829798e-07 3.2790149e-18 -0.00028713074 3.289015e-07
000240 4c 08 d3 39 ab 81 0c 33 b4 94 b3 b9 5f 39 4f 37
       0.00040251238 3.2714222e-08 -0.00034252333 1.2351519e-05
000250 00 6a 04 ba 42 6d 02 27 f7 36 a5 a3 18 9f 39 37
       -0.00050511956 1.8100353e-15 -1.7912614e-17 1.1063901e-05
000260 ec f5 c6 39 21 8c 22 39 31 7c b5 2a 5c 9b 16 27
       0.0003794873 0.00015501726 3.2238234e-13 2.0900902e-15
000270 7a 49 0c 30 22 9f 35 36 2d 9f 1d a7 4a 68 e5 a3
       5.103612e-10 2.706373e-06 -2.1874416e-15 -2.4872398e-17
000280 bc 84 12 3e 48 b3 04 a8 d8 03 2d a4 f3 f5 9d a3
       0.14308447 -7.366347e-15 -3.751665e-17 -1.7126138e-17
000290 95 a8 9d 29 3d 4b bf 37 04 f6 d1 b6 03 d5 83 26
       7.001445e-14 2.280401e-05 -6.2573254e-06 9.147688e-16
0002a0 07 5a a1 3b d7 21 5c 3e 9a f3 eb 3d 7e e5 10 38
       0.004924062 0.21497284 0.11521073 3.4546007e-05
0002b0 5d c0 5f 3e 08 5f 98 a5 f9 31 8f 3e 6b 18 67 3e
       0.21850725 -2.6432193e-16 0.27967814 0.22567908
0002c0 55 f7 ac 3e d9 f7 6f 36 56 78 40 be 0d 41 c0 24
       0.3378245 3.5758042e-06 -0.18795905 8.337693e-17
0002d0 32 e5 77 be d9 f2 95 bd 08 d1 84 3e dd 8f 9f 3d
       -0.24208525 -0.0732171 0.25940728 0.077911116
0002e0 6f d9 85 3c 90 41 f8 ab ab 13 ac 3e 17 be 80 b6
       0.016339032 -1.7639657e-12 0.33608755 -3.8368266e-06
0002f0 1d 36 53 3e f5 e3 5c 3e 77 e7 03 3d de b5 9b be
       0.20626111 0.21571334 0.032203164 -0.3041219
000300 ed 8e cc 37 1c 2f 17 38 90 1a 37 3a 8c c5 8d 39
       2.438525e-05 3.604508e-05 0.0006984854 0.000270408
000310 84 89 2d a5 cd 9e 75 23 ad 71 4d b8 91 86 6a b0
       -1.505195e-16 1.3315104e-17 -4.8981678e-05 -8.5319934e-10
000320 4a bd a0 24 00 17 ce a1 7c f9 23 b8 42 3d 3e b8
       6.970961e-17 -1.3965191e-18 -3.909458e-05 -4.535658e-05
000330 4b ca e4 b8 e0 9c 52 38 5e 0a 68 b1 85 cc b2 24
       -0.00010909567 5.0214003e-05 -3.3766336e-09 7.7541664e-17
000340 ab 17 03 ba 9f d1 7e 24 b6 94 27 a4 69 ed 1e 3a
       -0.000500078 5.5255026e-17 -3.6338316e-17 0.00060625985
000350 3b 5d 28 ae 90 a9 85 b4 7b b2 60 b9 60 06 6d b2
       -3.8281583e-11 -2.4896553e-07 -0.00021428794 -1.3796665e-08
000360 17 22 45 a0 ee a4 50 a4 11 59 0f 36 b7 f6 98 b3
       -1.6697828e-19 -4.524251e-17 2.1360504e-06 -7.122929e-08
000370 c1 fe 91 a8 9f 07 67 36 25 52 1d b8 d6 99 39 a5
       -1.6208716e-14 3.4426118e-06 -3.750822e-05 -1.6098314e-16
000380 d1 62 e9 3d 32 86 c6 b8 57 2d 2e 3a 07 fd 95 b7
       0.11395801 -9.4663716e-05 0.00066443294 -1.788001e-05
000390 ce fb d7 20 ee 5e a6 a5 97 ce 15 27 4a 3d 4b b8
       3.6589047e-19 -2.8860737e-16 2.0789896e-15 -4.845605e-05
0003a0 8c bf 8d 3e 19 5d 1c 3e 0e 53 15 bd ce d8 ae b8
       0.276852 0.15269889 -0.03645616 -8.3373496e-05
0003b0 c8 7b 5a 3e d7 b8 99 39 d9 03 59 3e aa 34 e6 3d
       0.21336281 0.0002932015 0.21192874 0.112405136
0003c0 a7 dc b2 3e 5c e5 e3 b0 67 08 80 be 1c 28 05 b3
       0.3493397 -1.6581612e-09 -0.2500641 -3.1002955e-08
0003d0 d5 46 a7 be 6f 3b 83 be 2a 27 09 3e 9e 09 a2 3d
       -0.32671228 -0.25631282 0.13393846 0.079119906
0003e0 12 e0 82 3e 78 6f 6e 25 eb d3 64 3e 58 70 2e b7
       0.25561577 2.0680976e-16 0.22346465 -1.0397365e-05
0003f0 d9 3d 36 3e 33 b4 c2 3d fd 3e 9f 3e b1 99 8f bd
       0.1779703 0.095070265 0.31102744 -0.07011736

pos_mlp.2.bias f4 [32]
000000 9f a3 7e 3c 6d 57 c1 35 a0 fd 6c 3d b7 15 8b 3e
       0.01554194 1.4405065e-06 0.057859063 0.27165005
000010 d7 77 3b ba 34 4e 20 be 22 5f ae b3 36 87 02 3e
       -0.00071513414 -0.15654832 -8.119811e-08 0.12746891
000020 f4 8a d8 b9 07 b6 0c 3b 08 f5 7a b2 4f 92 fa 3d
       -0.0004130226 0.0021470801 -1.4607629e-08 0.122349374
000030 da ba 6d 3c e7 cd 49 ba 9d d2 c7 bd 3d 5d 86 3c
       0.014509881 -0.00076982233 -0.09756968 0.016401881
000040 ef 62 18 3c a2 32 58 bd 45 07 22 3e d2 7f d2 b5
       0.009300931 -0.052782662 0.15823086 -1.568342e-06
000050 9f 71 ef 3b 6a 28 46 3e 3d f1 03 3e 71 e6 0c b7
       0.007307246 0.19351354 0.12884994 -8.398304e-06
000060 a4 f2 a0 3c d9 69 27 3e 05 d6 e2 34 0a f6 55 b8
       0.01964695 0.16348971 4.22515e-07 -5.10123e-05
000070 d2 5c 39 ba 80 21 04 a3 b2 e1 79 b9 a4 8b d4 bd
       -0.0007071021 -7.162828e-18 -0.00023830569 -0.10378197
