pointnet/weights_per_bundle_ratio025/T_OCC_right_best.pth (torch, 359807 bytes, 17 tensors)

t_grid f4 [100]
0	0x00000000	0.0
1	0x3c257eb5	0.01010101
2	0x3ca57eb5	0.02020202
3	0x3cf83e10	0.030303031
4	0x3d257eb5	0.04040404
5	0x3d4ede62	0.05050505
6	0x3d783e10	0.060606062
7	0x3d90cede	0.07070707
8	0x3da57eb5	0.08080808
9	0x3dba2e8c	0.09090909
10	0x3dcede62	0.1010101
11	0x3de38e39	0.11111111
12	0x3df83e10	0.121212125
13	0x3e0676f3	0.13131313
14	0x3e10cede	0.14141414
15	0x3e1b26ca	0.15151516
16	0x3e257eb5	0.16161616
17	0x3e2fd6a0	0.17171717
18	0x3e3a2e8c	0.18181819
19	0x3e448677	0.1919192
20	0x3e4ede62	0.2020202
21	0x3e59364e	0.21212122
22	0x3e638e39	0.22222222
23	0x3e6de624	0.23232323
24	0x3e783e10	0.24242425
25	0x3e814afd	0.25252524
26	0x3e8676f3	0.26262626
27	0x3e8ba2e9	0.27272728
28	0x3e90cede	0.28282827
29	0x3e95fad4	0.2929293
30	0x3e9b26ca	0.3030303
31	0x3ea052bf	0.3131313
32	0x3ea57eb5	0.32323232
33	0x3eaaaaab	0.33333334
34	0x3eafd6a0	0.34343433
35	0x3eb50296	0.35353535
36	0x3eba2e8c	0.36363637
37	0x3ebf5a81	0.37373737
38	0x3ec48677	0.3838384
39	0x3ec9b26d	0.3939394
40	0x3ecede62	0.4040404
41	0x3ed40a58	0.41414142
42	0x3ed9364e	0.42424244
43	0x3ede6243	0.43434343
44	0x3ee38e39	0.44444445
45	0x3ee8ba2f	0.45454547
46	0x3eede624	0.46464646
47	0x3ef3121a	0.47474748
48	0x3ef83e10	0.4848485
49	0x3efd6a05	0.4949495
50	0x3f014afd	0.5050505
51	0x3f03e0f8	0.5151515
52	0x3f0676f3	0.5252525
53	0x3f090cee	0.53535354
54	0x3f0ba2e9	0.54545456
55	0x3f0e38e4	0.5555556
56	0x3f10cede	0.56565654
57	0x3f1364d9	0.57575756
58	0x3f15fad4	0.5858586
59	0x3f1890cf	0.5959596
60	0x3f1b26ca	0.6060606
61	0x3f1dbcc5	0.61616164
62	0x3f2052bf	0.6262626
63	0x3f22e8ba	0.6363636
64	0x3f257eb5	0.64646465
65	0x3f2814b0	0.65656567
66	0x3f2aaaab	0.6666667
67	0x3f2d40a6	0.6767677
68	0x3f2fd6a0	0.68686867
69	0x3f326c9b	0.6969697
70	0x3f350296	0.7070707
71	0x3f379891	0.7171717
72	0x3f3a2e8c	0.72727275
73	0x3f3cc486	0.7373737
74	0x3f3f5a81	0.74747473
75	0x3f41f07c	0.75757575
76	0x3f448677	0.7676768
77	0x3f471c72	0.7777778
78	0x3f49b26d	0.7878788
79	0x3f4c4867	0.7979798
80	0x3f4ede62	0.8080808
81	0x3f51745d	0.8181818
82	0x3f540a58	0.82828283
83	0x3f56a053	0.83838385
84	0x3f59364e	0.8484849
85	0x3f5bcc48	0.85858583
86	0x3f5e6243	0.86868685
87	0x3f60f83e	0.8787879
88	0x3f638e39	0.8888889
89	0x3f662434	0.8989899
90	0x3f68ba2f	0.90909094
91	0x3f6b5029	0.9191919
92	0x3f6de624	0.9292929
93	0x3f707c1f	0.93939394
94	0x3f73121a	0.94949496
95	0x3f75a815	0.959596
96	0x3f783e10	0.969697
97	0x3f7ad40a	0.97979796
98	0x3f7d6a05	0.989899
99	0x3f800000	1.0

encoder.mlp.0.weight f4 [64, 3]
0	0x3e1d52d3	0.15363626
1	0xbeccebf1	-0.4002376
2	0x3ef5d710	0.48015642
3	0x3ead4df8	0.33848548
4	0xbe1d0b19	-0.15336265
5	0xbed31085	-0.4122354
6	0x2da2525f	1.8453848e-11
7	0x3e24d5cd	0.16097184
8	0x2e937c34	6.706849e-11
9	0x3ea09d6a	0.31370097
10	0xbe98e35e	-0.29860967
11	0x3d59fa4f	0.05321723
12	0x3e884ede	0.2662267
13	0xbf11aac9	-0.5690122
14	0xbf0fd379	-0.56182057
15	0x3e96d670	0.29460478
16	0xbec30e10	-0.38096666
17	0x3eec3cb9	0.46140078
18	0xbea5a411	-0.32351735
19	0x3ebc6a94	0.36800063
20	0x3f07e80e	0.5308846
21	0x3eeeafa2	0.46618372
22	0xbe520771	-0.20510651
23	0xbed85ecb	-0.4225982
24	0xbf0b3ed9	-0.5439277
25	0xbdf53e5e	-0.11974786
26	0x3e00474c	0.12527198
27	0xbe0fa4ef	-0.14027761
28	0x3c04ebc4	0.0081128515
29	0xb1e6b082	-6.7139476e-09
30	0x3eb863a3	0.36013517
31	0xbe2baec2	-0.16765884
32	0xbcd5df2c	-0.026107393
33	0xbdab2fdb	-0.08358737
34	0xbea97a2d	-0.33101025
35	0x3bc9aa44	0.0061543304
36	0xbde46c18	-0.1115343
37	0x3ddbdca9	0.10735447
38	0xbd354c52	-0.044262238
39	0xbe9093df	-0.28237817
40	0x3d843da1	0.06457067
41	0x3f0ef49d	0.55842
42	0x3dbb89c9	0.0915714
43	0xbe54a71b	-0.2076687
44	0xbd70ae4c	-0.058759972
45	0x3eaf5b02	0.3424912
46	0x3e4e360e	0.20137808
47	0xbd9b5e94	-0.07586399
48	0x3f106d68	0.5641694
49	0x3e8806fe	0.26567835
50	0xbeb4859b	-0.35258183
51	0xbe68ace6	-0.22722206
52	0x3d75385d	0.059868205
53	0xb9e4e92e	-0.0004366128
54	0x3ef00c05	0.4688417
55	0x3d2d64cc	0.042332456
56	0xbf084a58	-0.5323844
57	0xbccf697f	-0.02531886
58	0x3ded18f8	0.11577028
59	0x35c291d3	1.4496567e-06
60	0xbe6753d4	-0.22590572
61	0x3d6dfda4	0.05810322
62	0x3f09fd4b	0.5390212
63	0xbe4a23a4	-0.19740158
64	0x3e5fb42c	0.21846074
65	0x3f0bbf99	0.5458923
66	0x3e9e11f5	0.30873075
67	0xbdf1494e	-0.1178156
68	0xbee5e072	-0.448978
69	0xbe79e96f	-0.24405454
70	0xbceb97cb	-0.028758904
71	0xbd97910c	-0.07400712
72	0xbe969841	-0.29413036
73	0xbdb367b0	-0.08760011
74	0x3e837733	0.2567688
75	0xbe9daf7f	-0.30797955
76	0x3e7287d6	0.2368463
77	0x3f052bbf	0.52019876
78	0x3b02f7cb	0.0019984122
79	0xbed4f415	-0.4159247
80	0x3e39ddbe	0.18150994
81	0xbe32675b	-0.1742224
82	0x3e5895a0	0.21150827
83	0xbcedd3ad	-0.029031599
84	0x3de452c8	0.11148602
85	0x3dad9ae1	0.084768064
86	0x3ec3a80f	0.38214156
87	0xbcc21999	-0.023693847
88	0x3e2bffe2	0.1679683
89	0xbc92bb03	-0.01791144
90	0x3d17089f	0.036873456
91	0xbedafad5	-0.42769495
92	0xbe1b7a9d	-0.15183492
93	0x3ef9ca65	0.48787227
94	0x3d0a3a83	0.033747207
95	0xbee40ba0	-0.4454012
96	0x3d402d09	0.04691795
97	0xbe71d61f	-0.23616837
98	0xbce84543	-0.028353339
99	0x3f0ea7ac	0.55724597
100	0xbf0aa52e	-0.54158294
101	0x3e357a29	0.17722382
102	0xbd2fd0cf	-0.042923745
103	0x3e70e49b	0.23524706
104	0x3eac2a43	0.33625993
105	0xbd9c4c35	-0.07631723
106	0x3c9aa297	0.018876357
107	0xbcff4fe8	-0.031166032
108	0xbe7835db	-0.24239294
109	0xbdb71f91	-0.08941568
110	0x3efd97fb	0.49530014
111	0x3e9f3c8d	0.31100884
112	0x3ebfb0b8	0.37439513
113	0xbcb713f6	-0.022348385
114	0x3f064568	0.52449656
115	0xbed3d442	-0.41372877
116	0x3e929520	0.28629398
117	0xbe861715	-0.26189485
118	0xbec422d5	-0.38307825
119	0xbe29080c	-0.16506976
120	0xbedb2f8d	-0.42809716
121	0xbe409c01	-0.18809511
122	0xbcb4ecee	-0.022085633
123	0xbeea15b5	-0.45719686
124	0xbeec00da	-0.460944
125	0x3ebdceba	0.37071782
126	0x3b9d4d12	0.0048004473
127	0x3ea7dfb3	0.32787856
128	0x3eaffa9d	0.3437089
129	0x3ecda5fb	0.40165696
130	0x3e66bfed	0.22534151
131	0xbebbbeba	-0.3666895
132	0xbf0d7ca7	-0.5526833
133	0xbe8361be	-0.2566051
134	0xbe72bf18	-0.23705709
135	0x3ee89fad	0.45434323
136	0x3e712ff5	0.2355345
137	0xbe846f41	-0.2586613
138	0xbf084a19	-0.53238064
139	0xbed3d24b	-0.41371378
140	0xbe4207b9	-0.18948258
141	0xbdfc079a	-0.123061374
142	0x3e8eb5b8	0.27873015
143	0x3eaf2013	0.34204158
144	0xbe3ba230	-0.18323588
145	0x3d885a49	0.066578455
146	0x3c3f8843	0.011690202
147	0xaffc1ea7	-4.5860313e-10
148	0x3d8101ff	0.06299209
149	0xbae304c1	-0.0017320142
150	0xb77f7ad5	-1.52277835e-05
151	0x3e01dc8f	0.12681793
152	0xbb62a732	-0.003458452
153	0x3e08e514	0.13368636
154	0xbe27a358	-0.16370904
155	0xbf000ffa	-0.5002438
156	0xbf16a5d9	-0.58846813
157	0xbed39b63	-0.41329488
158	0x3eaeef10	0.34166765
159	0x3f0b175c	0.5433252
160	0x3ea619f2	0.3244167
161	0x3e8ea98d	0.27863732
162	0x3f0c8768	0.54894114
163	0xbf04c377	-0.51860756
164	0x3e066874	0.13125783
165	0xbe6b0a51	-0.22953154
166	0xbd9c8197	-0.07641905
167	0xbedfce1a	-0.4371193
168	0xbc29a7ba	-0.010354931
169	0x3e336f05	0.1752282
170	0x3e8382b1	0.25685647
171	0xbe94fb67	-0.29098055
172	0xbf0d3121	-0.5515309
173	0x3e9d0bb9	0.30673006
174	0xbe663a29	-0.22483124
175	0xbf06ef64	-0.5270903
176	0xbed708ed	-0.41998997
177	0x3e946ec5	0.2899076
178	0xbeeafb0a	-0.45894653
179	0xbe35c558	-0.17751062
180	0x3f0f20c9	0.559094
181	0x3ef18544	0.47171986
182	0xbe934ecb	-0.28771052
183	0xbd8bd4b2	-0.06827678
184	0xbec24112	-0.3794027
185	0x3dbbfb6c	0.09178814
186	0xbf083c42	-0.53216946
187	0xbebf2ac3	-0.37337312
188	0x3ee35e57	0.44407913
189	0xbea1c3ef	-0.31594798
190	0x3e7ca0a1	0.2467065
191	0x3f017483	0.5056841

encoder.mlp.0.bias f4 [64]
0	0x3ed78420	0.4209299
1	0x3e15f63c	0.14644712
2	0xbddc2b1c	-0.1075041
3	0xbe31f8ca	-0.17380062
4	0x3e9a7142	0.30164534
5	0xbd34d995	-0.044152815
6	0x3ea2910a	0.3175128
7	0x3e617ea8	0.22020972
8	0xbec5312b	-0.38514075
9	0xadfd8e13	-2.8825864e-11
10	0x3e9aef8e	0.3026089
11	0x3df305ef	0.11866366
12	0xbd6253c7	-0.055255678
13	0xbe8b78a1	-0.2724047
14	0x3e026f65	0.12737806
15	0xbdf15e69	-0.117855854
16	0x3d29143c	0.041279063
17	0x3a8a522e	0.0010553056
18	0xbe8065da	-0.25077707
19	0x3e3fad8d	0.18718548
20	0xbe0b5dda	-0.1361002
21	0xbeac27c2	-0.33624083
22	0x3e974983	0.29548272
23	0x3e6db290	0.23212647
24	0xbe83712b	-0.25672278
25	0xbe22a252	-0.15882233
26	0xbe1d8e40	-0.15386295
27	0xbe629a33	-0.22129135
28	0x3ea08b64	0.31356347
29	0x2fcea13f	3.7585754e-10
30	0xbdb800f6	-0.08984558
31	0xbe5f8e08	-0.21831524
32	0x3e69249e	0.22767875
33	0x3ec68c6e	0.38779014
34	0xbc03606c	-0.008018594
35	0xbce67e89	-0.028136509
36	0xbe52578c	-0.20541209
37	0xbe68fe18	-0.22753179
38	0xbd9a106c	-0.075226635
39	0x3ed8c84d	0.42340317
40	0xbe34ab74	-0.17643529
41	0xbc4b24b0	-0.012398884
42	0x3da9515e	0.08267473
43	0xbdb9e2b2	-0.09076442
44	0x3ecd1347	0.4005377
45	0xbe6f80ff	-0.23389052
46	0x3cb0a411	0.021562608
47	0x3de28120	0.11059785
48	0xb7fc20b8	-3.0055977e-05
49	0xbd29d712	-0.041464873
50	0x3e3c3e1d	0.1838307
51	0xbea605fb	-0.32426438
52	0x3e2c1484	0.16804701
53	0x3e1f1c6b	0.15538184
54	0xbead3084	-0.33826077
55	0x3d2ad30e	0.041705184
56	0xbbf8437b	-0.0075764037
57	0xbd6220f1	-0.055207197
58	0x3ee91674	0.45524943
59	0xbd2b3336	-0.041796885
60	0xbccc3217	-0.024926228
61	0x3e8b85d6	0.27250546
62	0x3d8fe982	0.0702696
63	0x3e20532f	0.15656732

encoder.mlp.2.weight f4 [128, 64]
0	0xbbd95b7a	-0.0066332193
1	0xbdffcc54	-0.12490144
2	0x2d0b234c	7.909073e-12
3	0xbdb16896	-0.08662526
4	0x3dedc047	0.116089396
5	0xbce411fc	-0.027840607
6	0x3d3cee2f	0.046125587
7	0xbdfcd6da	-0.12345667
8	0xbd940592	-0.07227625
9	0xaf041794	-1.2013707e-10
10	0x3c190d8d	0.00934161
11	0x3d3caa3b	0.046060782
12	0x37b88047	2.1994243e-05
13	0x3d0c4691	0.034246985
14	0xbe0119d5	-0.1260751
15	0xbd498e69	-0.04920808
16	0x3d25aee9	0.04045001
17	0xac84c1bc	-3.7731745e-12
18	0x3d7bbfe6	0.061462305
19	0xb702bfbf	-7.793248e-06
20	0xbca3808d	-0.019958759
21	0x3d9f175c	0.07768127
22	0x3dba946b	0.0911034
23	0x350fc4d2	5.355806e-07
24	0x3dace8c2	0.084428325
25	0x3d78e14e	0.060761742
26	0x3c2a2799	0.010385417
27	0x36e1483e	6.7139326e-06
28	0x3df4a5d1	0.119456895
29	0xba798bc7	-0.00095194246
30	0x3d87021a	0.06592198
31	0xbbebc92d	-0.007195613
32	0xbd2f289a	-0.04276333
33	0x3dd7f935	0.10545579
34	0x3db36bcc	0.08760795
35	0xbafa9a74	-0.0019119517
36	0x3cf4759c	0.029841237
37	0xbcff67c9	-0.031177418
38	0x3df25fdf	0.11834692
39	0x3dcd93fe	0.10037993
40	0xbdd5f6bb	-0.10447451
41	0x3db68b2e	0.08913265
42	0x3cf14728	0.029452875
43	0xbcad5d8a	-0.021162767
44	0xbd5859a6	-0.05281987
45	0x3d962e3e	0.07333039
46	0xbd3c5d02	-0.045987137
47	0x3d1b16e6	0.037863635
48	0xb7e6bb1b	-2.7505264e-05
49	0x3a6d1862	0.0009044466
50	0x37922efa	1.7426431e-05
51	0x3c81e82d	0.01585778
52	0xbd92e5ad	-0.071727134
53	0x3dc56c2c	0.09639773
54	0xbd9c2571	-0.07624329
55	0x3c986ccb	0.018606564
56	0x3d7427f8	0.05960843
57	0xbd30fb2b	-0.043208282
58	0xbd6844b9	-0.056706164
59	0xbde27ee0	-0.11059356
60	0x3d60d293	0.05488832
61	0x3d728f3c	0.05921863
62	0xbddf0ff5	-0.108917154
63	0x3d7fdeb7	0.062468257
64	0xbd00b052	-0.031418152
65	0x3dc0347f	0.09385013
66	0xadf3d255	-2.7719308e-11
67	0xbd5961ec	-0.0530719
68	0xbdb5004a	-0.08837946
69	0x3dbc5b67	0.09197121
70	0xbd980e76	-0.07424633
71	0xbb1e519c	-0.002415753
72	0xbce858ef	-0.02836272
73	0xb8f4b74f	-0.000116689705
74	0x3d585fa8	0.0528256
75	0xbde52e86	-0.11190514
76	0xae15bfc3	-3.4048996e-11
77	0x3d3a902d	0.045547653
78	0x3d24b347	0.040210035
79	0xbd1be373	-0.03805871
80	0xbddacee3	-0.10683992
81	0x2c8f4ea9	4.0730375e-12
82	0xbda4dddf	-0.08050131
83	0xba8a4c68	-0.0010551335
84	0xbdd38faf	-0.1033014
85	0xbe0f41f8	-0.13990009
86	0x3d9c843d	0.0764241
87	0xbc86124d	-0.016366148
88	0xbd8f6ea9	-0.070035286
89	0xbe02b22d	-0.12763281
90	0xbcb86778	-0.022510275
91	0x3a7a26e3	0.0009542538
92	0xbd243efb	-0.040099125
93	0xb11a8584	-2.2485844e-09
94	0x3daaaf1f	0.08334183
95	0xbddb0d64	-0.106959134
96	0x3d79f06b	0.061020296
97	0x3ca51b35	0.020154575
98	0xbdb005f1	-0.08594883
99	0x373118bb	1.055578e-05
100	0x3de570aa	0.112031296
101	0xbd0e48f7	-0.034737553
102	0x3daabf5b	0.083372794
103	0xbddc6a0e	-0.10762416
104	0x3cb5cd47	0.02219261
105	0xbda12c08	-0.078697264
106	0xbc9b71b4	-0.018975116
107	0xbe0418f9	-0.12900151
108	0xbdf4f454	-0.119606644
109	0xbdb9c30f	-0.090704076
110	0xbd4787cc	-0.04871349
111	0xbd69056f	-0.056889948
112	0x38cc116a	9.730722e-05
113	0x389212b1	6.965304e-05
114	0xb7ccfc43	-2.4436164e-05
115	0x3ce730fe	0.028221603
116	0x3baa2d39	0.0051933792
117	0x3d0f64a2	0.03500808
118	0x3dedf3fc	0.11618802
119	0x3d050bbb	0.03248189
120	0xbda300ef	-0.079591624
121	0x3d9bb60d	0.07603083
122	0x3d3d372c	0.046195194
123	0x3bc85cb9	0.006114569
124	0xbc3d9465	-0.011571025
125	0x3c8ceb31	0.017201992
126	0xbdc6ac09	-0.09700782
127	0xbd7b2461	-0.06131399
128	0x3cb39174	0.021919943
129	0x3c9b8179	0.018982636
130	0xaa0cdead	-1.2511754e-13
131	0x3dd322fa	0.103094056
132	0x3de2b7ab	0.11070188
133	0x3dd41a6f	0.10356604
134	0xbc01b014	-0.007915515
135	0xbdfdc273	-0.12390604
136	0x3c137d37	0.0090020215
137	0x32ce8784	2.4043182e-08
138	0xbdf3acac	-0.11898169
139	0xbde23865	-0.11045913
140	0xba0fb9c6	-0.00054826995
141	0xbdde3026	-0.10849027
142	0x3d64d033	0.055862617
143	0xbdbeb54e	-0.09311925
144	0x3d35a774	0.04434915
145	0xba34f146	-0.00069024076
146	0xbdf8356e	-0.12119566
147	0x386d2804	5.654247e-05
148	0xbd1b6ffd	-0.037948597
149	0xbaf2f9b7	-0.0018537556
150	0xbe0103c4	-0.12599093
151	0x3bb4414c	0.005500948
152	0x3de12b41	0.10994578
153	0x3c9553ec	0.018228494
154	0x3d72ed66	0.059308432
155	0x2fa94a0f	3.0793543e-10
156	0x3e08afe2	0.13348344
157	0x3943fdf1	0.0001869125
158	0xbda1ab29	-0.07893974
159	0xbd1100b5	-0.035401065
160	0xbd3a090a	-0.045418777
161	0x3dddffbb	0.10839792
162	0x3d11db9e	0.035609834
163	0xae1cd72b	-3.56614e-11
164	0x3d378f89	0.04481462
165	0x3d9a198a	0.075244024
166	0xbb89ef31	-0.004209422
167	0xbe08d34b	-0.13361852
168	0x3db1933b	0.0867066
169	0xbda56bf5	-0.08077232
170	0xbc11d000	-0.008899689
171	0x3de2a2e2	0.11066224
172	0x3a738e08	0.00092908787
173	0x3c5dbf9e	0.013534455
174	0xbcff7364	-0.031182952
175	0xbc3413c1	-0.010991038
176	0x3a0ffef3	0.00054930075
177	0x33174bf1	3.5226495e-08
178	0xb7664622	-1.3725397e-05
179	0xbd6ea2ec	-0.058260843
180	0x3d74ad00	0.0597353
181	0x3e1d031f	0.15333222
182	0xbcaccc33	-0.021093464
183	0x3d381f23	0.04495157
184	0xbceb11f6	-0.028695088
185	0x3ce508a1	0.027958216
186	0xbdc50979	-0.096209474
187	0x3d8d8fa6	0.069121644
188	0x3ccca8fc	0.024982922
189	0xbc97416a	-0.018463809
190	0xbd752984	-0.059854046
191	0xbd252553	-0.0403188
192	0xb8cd3e9b	-9.786823e-05
193	0xbacdab81	-0.0015691371
194	0xb9c2ba1c	-0.00037141226
195	0xacae1311	-4.9474942e-12
196	0xb4afd978	-3.275452e-07
197	0x2cb0390c	5.0085543e-12
198	0xb9fe6376	-0.0004852076
199	0x33ea3924	1.0906868e-07
200	0x311f322a	2.316606e-09
201	0x3a678ca5	0.00088329084
202	0xae033d0f	-2.9840182e-11
203	0xb7e7edfc	-2.7648166e-05
204	0x2d5d1aef	1.2568376e-11
205	0x2e5137af	4.7570555e-11
206	0xb7e94de6	-2.7812039e-05
207	0xba144bee	-0.00056570664
208	0x3ae70eac	0.0017628274
209	0x2e8745a0	6.151457e-11
210	0xba8219d6	-0.0009925913
211	0xba8d573e	-0.0010783446
212	0xae431392	-4.435525e-11
213	0x3a551b7f	0.00081294024
214	0xba3a8eec	-0.0007116634
215	0xb98b5d4f	-0.00026581666
216	0xb44ba25b	-1.8964913e-07
217	0x3558ebac	8.080922e-07
218	0x2f975f27	2.753435e-10
219	0x2f140955	1.3463837e-10
220	0xacb476e9	-5.1291094e-12
221	0xb920db32	-0.00015340446
222	0x3a452485	0.00075203954
223	0x34947792	2.7654147e-07
224	0x2da2fd6d	1.8529811e-11
225	0x374823cc	1.1929264e-05
226	0xae5c20b0	-5.005124e-11
227	0x3a0bdaee	0.0005335052
228	0x2e43e288	4.4539067e-11
229	0x397853ea	0.00023682383
230	0x2fdd9c74	4.0310832e-10
231	0xae81144b	-5.8698456e-11
232	0x3647682e	2.9713951e-06
233	0x36fe99d1	7.5876965e-06
234	0xb7325e40	-1.0631571e-05
235	0x2de7d4f0	2.6356223e-11
236	0xae2b1c2a	-3.8905913e-11
237	0xae5b735f	-4.9897305e-11
238	0xae96b73c	-6.853759e-11
239	0x2dfcd24e	2.8742477e-11
240	0x3a794f13	0.0009510379
241	0x2bc6ccd9	1.4125603e-12
242	0xb660ac65	-3.3478948e-06
243	0xb2b6db83	-2.1287411e-08
244	0xb988f792	-0.00026124396
245	0xb7c4cdbc	-2.3460823e-05
246	0xbb09c901	-0.0021024349
247	0xb719d16d	-9.168271e-06
248	0x3a3f26f8	0.00072918786
249	0x38808da2	6.129897e-05
250	0xb6295719	-2.523366e-06
251	0x2c015bc3	1.838294e-12
252	0x3a2c0f07	0.00065635185
253	0x3830b45e	4.212965e-05
254	0x2d74e66c	1.3920958e-11
255	0x2c0feaef	2.0451937e-12

encoder.mlp.2.bias f4 [128]
0	0xbde100d2	-0.109864846
1	0x3c64a94b	0.013956378
2	0xbdc8b6a3	-0.0980046
3	0xb9dd91be	-0.0004226099
4	0xbad33f6c	-0.0016116924
5	0x3bc33013	0.0059566586
6	0xbd582dfc	-0.05277823
7	0x3dac4638	0.08411831
8	0x3cdad16f	0.026711194
9	0x3cfa0cca	0.030523676
10	0xbcbdb8a9	-0.023159342
11	0x3c91b6e2	0.0177874
12	0xbb90e291	-0.00442154
13	0xbd91fb11	-0.07127965
14	0x3c3ab4de	0.011395661
15	0x3c1a1552	0.009404497
16	0x3dadd7ea	0.08488448
17	0xbd8ba4eb	-0.06818565
18	0x3d4b00b4	0.049561217
19	0xbd754049	-0.05987576
20	0xbdd6d361	-0.10489536
21	0xbd906b7b	-0.0705175
22	0xba63d783	-0.00086914765
23	0x3c5517f8	0.013006203
24	0x3ba19161	0.0049306606
25	0x3d565b3c	0.0523331
26	0x3d2091e4	0.039201632
27	0xbbef0282	-0.007294
28	0x3cebb6dc	0.028773718
29	0xbce3d4dd	-0.027811462
30	0xbd48717b	-0.04893635
31	0x3dc6cc51	0.09706939
32	0xbcc46017	-0.0239716
33	0xbdb21468	-0.086952984
34	0x3d0be599	0.03415451
35	0x3c821328	0.015878275
36	0x3d6aba26	0.05730643
37	0x3db39381	0.087683685
38	0xbda49e7f	-0.08038043
39	0xbd8fbbfb	-0.07018276
40	0x3d16fc5e	0.03686177
41	0x3d960c17	0.07326525
42	0xb6b39647	-5.3521103e-06
43	0x2c1a387d	2.1916074e-12
44	0xb96a6f61	-0.00022357471
45	0xbdb65219	-0.08902378
46	0xbcc0708a	-0.023491163
47	0xbd85f4e5	-0.065408505
48	0xbdd89282	-0.10574819
49	0xbd6fdafe	-0.058558457
50	0xbd901d44	-0.07036832
51	0x3d305fd4	0.04306014
52	0x3ca1fbdf	0.019773422
53	0xbdccf8b5	-0.100083746
54	0x3c338198	0.0109561905
55	0xbd7889a7	-0.06067815
56	0xbc85d6b7	-0.016337736
57	0x2dda2fbf	2.4804934e-11
58	0xb9f4b4cd	-0.00046674014
59	0xbcd96a33	-0.026539898
60	0x3cc56a46	0.024098527
61	0x393b79db	0.00017879104
62	0xbc5d9399	-0.01352396
63	0x3c738e8c	0.014865529
64	0xbcf33926	-0.029690336
65	0x3cb00ca2	0.021490399
66	0x3a65d004	0.00087666535
67	0xab8abd3b	-9.858012e-13
68	0x3dbc95c5	0.09208254
69	0x3ba8c48d	0.005150384
70	0xbda53520	-0.080667734
71	0xbd9cb28e	-0.07651244
72	0xbd2cd412	-0.042194434
73	0xbbd51def	-0.0065038125
74	0x37a6fc34	1.9906183e-05
75	0x3da9a67f	0.0828371
76	0xbdb3a969	-0.08772547
77	0xbdafcfc2	-0.085845485
78	0x3bc96a00	0.0061466694
79	0xbd40a930	-0.04703635
80	0x3c0e88bb	0.008699591
81	0x3cca27dc	0.02467721
82	0xb3e4b41c	-1.0649839e-07
83	0xbd2cbf72	-0.042174764
84	0x3c19ac61	0.009379477
85	0xbda1953d	-0.07889793
86	0xbc088d25	-0.008334433
87	0x39a94c2d	0.00032290947
88	0x3dc8b100	0.09799385
89	0xbd8dbc00	-0.06920624
90	0xbc2dd69f	-0.010610252
91	0x3cf5a1b0	0.029984325
92	0xb51df7ca	-5.884764e-07
93	0x3cce7c38	0.025205716
94	0xbbd95ced	-0.006633392
95	0x3dcf42d8	0.10120171
96	0x3b5652ce	0.0032703164
97	0xb30f07bf	-3.3301827e-08
98	0x3d49057b	0.049077492
99	0x3d23038d	0.03979831
100	0xbc6f9977	-0.014623991
101	0x3c170876	0.009218326
102	0x3db70545	0.08936552
103	0xbdbeacf5	-0.09310333
104	0x392ff594	0.00016780786
105	0xbdc0a57e	-0.09406565
106	0xbd505831	-0.050865356
107	0xbd7b7e27	-0.061399605
108	0x3c844f77	0.016151173
109	0x3c3481ad	0.011017245
110	0xbd912750	-0.070875764
111	0x3db2a0f4	0.087221056
112	0xbd9e8846	-0.07740836
113	0xbbad08dd	-0.0052805976
114	0x3be33f58	0.0069350414
115	0x3c46ec58	0.01214131
116	0x3cdaf9e9	0.026730495
117	0x3d1dcbdb	0.03852449
118	0x3a975646	0.0011546097
119	0xbb2bc3ea	-0.0026209303
120	0x3cb4f12b	0.022087654
121	0xbcc9e8dc	-0.024647169
122	0xb552265c	-7.8286917e-07
123	0x3c7aa6df	0.015298574
124	0xbda8192d	-0.08207927
125	0x3db18a08	0.086689055
126	0x3ac0e6b9	0.0014717198
127	0xbbed5759	-0.0072430787

encoder.mlp.4.weight f4 [256, 128]
0	0xb882fcbf	-6.245961e-05
1	0x391ae140	0.00014770497
2	0xb810949c	-3.447068e-05
3	0x2e1cf9d0	3.569217e-11
4	0x2c2db3d2	2.46846e-12
5	0x339039b5	6.7160194e-08
6	0x39137146	0.0001406121
7	0xb12e2f32	-2.534716e-09
8	0xb70afa71	-8.283751e-06
9	0xae7ada19	-5.703713e-11
10	0xae4af39f	-4.614586e-11
11	0x2e35bfee	4.1325103e-11
12	0x2e178af8	3.4456854e-11
13	0xb5ac16d5	-1.2821644e-06
14	0x34a4f020	3.0722094e-07
15	0xb79fc295	-1.9044886e-05
16	0x2e1cdd45	3.566682e-11
17	0xb8b4fa71	-8.629717e-05
18	0x2ea4e27d	7.498089e-11
19	0x2c405942	2.733439e-12
20	0xae041ef6	-3.0040824e-11
21	0xb42b9412	-1.5979484e-07
22	0x2cf02d2a	6.8262245e-12
23	0x2d4c3355	1.16074554e-11
24	0x2e29756e	3.853045e-11
25	0x38b2479b	8.501039e-05
26	0xaead3ce9	-7.877949e-11
27	0xad87f95f	-1.5458466e-11
28	0xb88f8f4f	-6.845465e-05
29	0x381faa75	3.8067305e-05
30	0xb4f0a812	-4.482577e-07
31	0x2e60b31f	5.1090795e-11
32	0x2dd50353	2.4216773e-11
33	0xb6b5a7a2	-5.4137354e-06
34	0xb44218da	-1.8076699e-07
35	0xae2be787	-3.9086536e-11
36	0xac327bd3	-2.5364058e-12
37	0x2e940682	6.731417e-11
38	0x37e79cc0	2.7610338e-05
39	0xad0fd913	-8.176809e-12
40	0x2f88d80c	2.4891766e-10
41	0xb056c33a	-7.813018e-10
42	0x2d4d35e6	1.1664869e-11
43	0x2d5e64a1	1.2641583e-11
44	0x2dd0bb70	2.3730101e-11
45	0x354907af	7.4889516e-07
46	0xaf2a4f29	-1.5489533e-10
47	0xb7ecb710	-2.8218637e-05
48	0xb9340602	-0.00017168376
49	0xac8bb7bf	-3.9710175e-12
50	0x36a075c0	4.7820795e-06
51	0xb0d8ad82	-1.5765382e-09
52	0xae19bcad	-3.495575e-11
53	0xad3b3dd1	-1.0643445e-11
54	0xb683987a	-3.921855e-06
55	0x36bcbe6f	5.625006e-06
56	0xaea12704	-7.328363e-11
57	0xaea04d03	-7.2896376e-11
58	0x3884f59a	6.339997e-05
59	0xb6763cf7	-3.6692343e-06
60	0xb8baa176	-8.8992456e-05
61	0xb914910e	-0.00014168417
62	0x35b1084d	1.3189944e-06
63	0xb92927d0	-0.00016131927
64	0x2d9c0edc	1.7741746e-11
65	0xae05f5f6	-3.0459156e-11
66	0xaed10219	-9.504592e-11
67	0x36c3065f	5.8121946e-06
68	0x313b7952	2.7281044e-09
69	0xab286cd7	-5.9836635e-13
70	0xb87813f2	-5.9146383e-05
71	0xb8827b77	-6.22188e-05
72	0x2e04a2ea	3.0158022e-11
73	0x2cf8186e	7.051296e-12
74	0x2e331b00	4.072387e-11
75	0xb677c0f7	-3.6918188e-06
76	0x2fbcd201	3.4346218e-10
77	0x2d134667	8.371615e-12
78	0xb77b24ad	-1.4969305e-05
79	0x2fa3e134	2.9809544e-10
80	0xadb51769	-2.0587714e-11
81	0xb632fa4e	-2.6669763e-06
82	0xb8861004	-6.392601e-05
83	0x2ce63fb8	6.5440674e-12
84	0xad58bd00	-1.2320145e-11
85	0x2dba39d0	2.1171426e-11
86	0x2e09db7d	3.134514e-11
87	0xac798e12	-3.5463893e-12
88	0x2cc4b691	5.590924e-12
89	0x362642bc	2.4774772e-06
90	0x2f909275	2.6297511e-10
91	0xae88b42b	-6.216568e-11
92	0x390e60b3	0.00013578199
93	0xae19d5a5	-3.4977927e-11
94	0x3888dd8d	6.5262524e-05
95	0xac8ea8d5	-4.054627e-12
96	0x38382b0c	4.390911e-05
97	0xac641d15	-3.2416893e-12
98	0x3008d100	4.977352e-10
99	0x374a621d	1.2062982e-05
100	0xac410b27	-2.743314e-12
101	0xad922589	-1.6614947e-11
102	0xaf53f243	-1.9276407e-10
103	0x3523f827	6.108334e-07
104	0xb791cae4	-1.7379825e-05
105	0xae502ab8	-4.7331666e-11
106	0x2e83d487	5.994943e-11
107	0x382316ae	3.888335e-05
108	0xaddd4f02	-2.5159878e-11
109	0xb73e39b6	-1.1338319e-05
110	0xafd7a727	-3.922704e-10
111	0x2ddc71dc	2.5061668e-11
112	0xad7e2a6e	-1.444765e-11
113	0x38686d63	5.5414985e-05
114	0xada66580	-1.891709e-11
115	0x35904670	1.0749336e-06
116	0x2b80c15c	9.148615e-13
117	0x2d249a06	9.356521e-12
118	0xb88e1233	-6.7744775e-05
119	0x3107868e	1.972157e-09
120	0x3941423d	0.0001843059
121	0x2bad0282	1.2293085e-12
122	0x38404de1	4.5848898e-05
123	0x2d155da4	8.490462e-12
124	0x382356a3	3.8942915e-05
125	0x2d29df27	9.6560876e-12
126	0xae9a66eb	-7.021391e-11
127	0xae487195	-4.5575616e-11
128	0xbc2f5a7f	-0.010702728
129	0x38229d6f	3.877043e-05
130	0x3d5d8c3d	0.05408882
131	0xad0a5ab9	-7.864536e-12
132	0x345feab5	2.085388e-07
133	0xbd63e417	-0.055637445
134	0x3a1ab8e2	0.00059021835
135	0xb2a20b87	-1.8864524e-08
136	0xbd90361e	-0.07041572
137	0x2cb8d463	5.253174e-12
138	0xbd651e15	-0.05593689
139	0x3934e1f4	0.00017250312
140	0x2feb9b55	4.285662e-10
141	0x3d031f02	0.032011993
142	0xb76d0183	-1.4126653e-05
143	0x3c195279	0.009358042
144	0xbd80b0a1	-0.06283689
145	0xbd3c135c	-0.0459169
146	0xbd12d044	-0.03584315
147	0xbd0561be	-0.032563917
148	0x3c1c96b9	0.009557419
149	0xbd0e5a37	-0.034754004
150	0x37f6ebd3	2.94353e-05
151	0xb628909e	-2.511813e-06
152	0x2c81cd68	3.689205e-12
153	0x3c063de9	0.0081934715
154	0x3ce2e7cf	0.027698426
155	0x3d7e9589	0.062154327
156	0xb7d055b5	-2.4835443e-05
157	0xbcd8a7f0	-0.026447266
158	0x38ee97f8	0.00011377031
159	0x3d569967	0.05239239
160	0xbd1f7172	-0.03892655
161	0x3da05c55	0.07830111
162	0xbc94e787	-0.018176807
163	0xbcc6745d	-0.024225408
164	0xbd96ea14	-0.073688656
165	0xbca61a35	-0.020276168
166	0x3ae9a046	0.0017824254
167	0x3d0092dc	0.031390056
168	0xbb01d7d9	-0.0019812493
169	0xbcc0dc9b	-0.023542693
170	0x2dffaef4	2.9067838e-11
171	0x2dfbc918	2.86247e-11
172	0xae23e8be	-3.7268626e-11
173	0x3966501a	0.0002196435
174	0x2d5dd7d6	1.2610321e-11
175	0x3cd32036	0.025772195
176	0x3d246a17	0.040140238
177	0xbb99f6c7	-0.0046986076
178	0x3cef6d85	0.029227028
179	0x3d72cd2a	0.05927769
180	0xb8e49930	-0.000109004206
181	0xbc3b1589	-0.011418709
182	0xae73dd3a	-5.5448292e-11
183	0xbd1f4602	-0.038885124
184	0x3937e576	0.00017537721
185	0x2d8d9435	1.6095661e-11
186	0x2d04da44	7.551796e-12
187	0x3d808c7f	0.062767975
188	0xbd66c1af	-0.056337055
189	0xb50704c4	-5.0298354e-07
190	0xb704e2dc	-7.920633e-06
191	0x3c948f27	0.018134667
192	0xbdb1dddc	-0.086848944
193	0xbd187f91	-0.03723103
194	0xafa8f85b	-3.073549e-10
195	0xb90ee993	-0.00013629188
196	0xbd5054dd	-0.050862182
197	0xbdb49b49	-0.08818681
198	0xbdba37c3	-0.09092667
199	0x3d4c0af5	0.049815137
200	0xbda04d9b	-0.07827302
201	0xbd449910	-0.047997534
202	0x38038d07	3.1364176e-05
203	0xbd8254ab	-0.063638054
204	0xbd0a5092	-0.033768244
205	0xbd3e9ec7	-0.04653814
206	0x3bb68157	0.0055696177
207	0xb12ff069	-2.560251e-09
208	0x3a4fc29b	0.0007925422
209	0xb4a508c4	-3.0740023e-07
210	0x36838840	3.919966e-06
211	0xad989407	-1.7346137e-11
212	0xb781b3f1	-1.546179e-05
213	0x3d963d24	0.073358804
214	0xbd80291d	-0.06257842
215	0xadbe00b2	-2.1600808e-11
216	0x3d5d96aa	0.054098763
217	0x39d3ebc3	0.00040420712
218	0x2ca2a28a	4.6223624e-12
219	0x361c0701	2.3249888e-06
220	0x2b65af4e	8.160043e-13
221	0x2d480782	1.1370351e-11
222	0x3d100ace	0.035166554
223	0xbd26899d	-0.040658582
224	0xb908890d	-0.00013021026
225	0x37a56b3b	1.9719466e-05
226	0xbd2740dd	-0.040833343
227	0xbce16059	-0.027511762
228	0xb68603ed	-3.993968e-06
229	0xb349499f	-4.6865917e-08
230	0x3d4cadcf	0.049970444
231	0xbdb0a45a	-0.086250976
232	0x2f30e6da	1.6089122e-10
233	0x3d8f326d	0.0699204
234	0xbccbb3b4	-0.024865963
235	0x2ebb0e60	8.506329e-11
236	0x3d59dccf	0.053189095
237	0x2e0af850	3.1598113e-11
238	0x3d316ebf	0.043318506
239	0x3b320b82	0.0027167504
240	0xbc6dc048	-0.014511175
241	0x37cbd4e0	2.4298613e-05
242	0xb739982a	-1.1062288e-05
243	0xbd77529f	-0.060381528
244	0x3d109302	0.035296448
245	0x3ca8dbb6	0.020612579
246	0xae4cdf02	-4.65823e-11
247	0x3bb5b8aa	0.0055456953
248	0xbc77b14b	-0.0151179535
249	0x3d8e4af1	0.06947888
250	0xb6f6be62	-7.353535e-06
251	0xbd5ab231	-0.053392593
252	0xbda5f05a	-0.08102484
253	0x3da10cdf	0.07863783
254	0xb2306caa	-1.0269256e-08
255	0xb8e82c7b	-0.00011070907

encoder.mlp.4.bias f4 [256]
0	0x37f06b8a	2.8660306e-05
1	0xbc343fed	-0.011001569
2	0xbb8afb86	-0.0042414097
3	0xbd73e1de	-0.059541576
4	0x3d849c53	0.06475129
5	0xbc971cfb	-0.018446436
6	0x2c71bca9	3.4352887e-12
7	0xbcac00ad	-0.020996416
8	0xbc9a9548	-0.018870011
9	0x2ee11f7e	1.02374095e-10
10	0xba16c7f9	-0.0005751844
11	0xbbaf84fa	-0.005356428
12	0x3d4ba66f	0.04971927
13	0xba6416c3	-0.00087009015
14	0x3c26fe62	0.0101924855
15	0x3d6cac82	0.057781704
16	0x3c2cc485	0.010544901
17	0x3c464ce1	0.01210329
18	0x3da30cd6	0.07961433
19	0xbb284aba	-0.0025679306
20	0x3cb8758c	0.022516988
21	0xbb9c1229	-0.004762907
22	0xaf90dae7	-2.6348987e-10
23	0xbbf7c71b	-0.007561577
24	0xbbe66bf9	-0.0070319143
25	0xbd45278f	-0.04813343
26	0x3d1cba1e	0.038263433
27	0xba25a927	-0.0006319456
28	0x3d17bee5	0.037047286
29	0xbd8bc11a	-0.068239406
30	0xbd3f85ee	-0.046758585
31	0xbd0e325e	-0.034716003
32	0x3cea1047	0.028572215
33	0xbc98a75d	-0.018634493
34	0xbb369bc0	-0.002786383
35	0xbc342f45	-0.010997598
36	0xbd381146	-0.04493835
37	0x3d7e0c1d	0.06202327
38	0x3c906f05	0.017631063
39	0x38c1927b	9.230241e-05
40	0xbd97ac4e	-0.074059114
41	0xbd3f1a37	-0.04665586
42	0xbce5aacc	-0.028035544
43	0xbcbb868b	-0.022891304
44	0xbd6676bd	-0.05626558
45	0xbd5d3fd1	-0.05401594
46	0xbd0a5220	-0.033769727
47	0x3d51a9dd	0.051187385
48	0xbd8a7b8d	-0.06761847
49	0xbc9fb105	-0.01949359
50	0x3a86ace0	0.001027491
51	0x3caa3107	0.020775331
52	0xb8241e0f	-3.912864e-05
53	0x3d95075c	0.07276794
54	0xbd2840f8	-0.041077584
55	0x32c07ecf	2.2409408e-08
56	0x3d2718b5	0.040795047
57	0xbc5c6a16	-0.013453027
58	0x3d207894	0.039177492
59	0x3cfd4306	0.030915748
60	0x3d57ee74	0.05271764
61	0xbcb5cc23	-0.022192067
62	0x2e8bf78b	6.3649606e-11
63	0xbd082386	-0.033237003
64	0xbd78b71f	-0.060721513
65	0xbcaa658a	-0.02080037
66	0xbcbde723	-0.023181504
67	0xbd00bd5a	-0.03143058
68	0xbd6deb29	-0.058085594
69	0x3cb76aee	0.022389855
70	0x3921362d	0.00015374339
71	0xbd82afb0	-0.06381166
72	0x3c48c151	0.0122531215
73	0x3cb54e5a	0.022132087
74	0xbd3292c4	-0.043596998
75	0xbd22e4b3	-0.039768886
76	0xb60c1dde	-2.087901e-06
77	0xbcfe16ba	-0.031016696
78	0xba996511	-0.0011703094
79	0x3bed3d13	0.0072399466
80	0x3d8677e3	0.06565835
81	0x3cfdfddb	0.031004837
82	0x3bf89019	0.007585537
83	0xbd614302	-0.054995544
84	0x3d427bd3	0.04748137
85	0x3c3593ee	0.0110826325
86	0xbc91fc2f	-0.017820446
87	0x381aff58	3.695427e-05
88	0x37110ba5	8.645385e-06
89	0xbc8c46ab	-0.01712354
90	0x3d369975	0.04457994
91	0xbc9ded8d	-0.019278312
92	0x3cf44b42	0.029821042
93	0xbd53fa80	-0.051752567
94	0x3d5d6dc0	0.054059744
95	0xb8e41295	-0.000108753484
96	0xbcaccbad	-0.021093214
97	0x3b98f002	0.004667283
98	0x3d2a6128	0.04159656
99	0x3a470c90	0.00075931195
100	0xbd05d8ff	-0.032677647
101	0x3d783679	0.060598824
102	0xbcc4b24c	-0.0240108
103	0x3ccc6b4a	0.024953503
104	0x3d765fda	0.060150005
105	0x3c186da9	0.009303489
106	0xba0c26cc	-0.00053463574
107	0x3bf10527	0.0073553505
108	0x3c9aeeca	0.018912692
109	0xbd8f34ce	-0.069924936
110	0x3c84e9db	0.016224792
111	0x3cddc42b	0.02707108
112	0xb98e353a	-0.00027124007
113	0x3cd42501	0.025896551
114	0xbcfebbd7	-0.031095428
115	0x3b5a5f5f	0.0033321006
116	0x3834cadc	4.310427e-05
117	0x3c91cd78	0.01779817
118	0x2d975300	1.7203572e-11
119	0x3bd4129a	0.006471944
120	0xb4abd996	-3.2009547e-07
121	0xbd87d0f2	-0.0663165
122	0x3da21c88	0.07915598
123	0xbd079673	-0.033102464
124	0x3d0e758c	0.03478007
125	0xafb7f4f2	-3.346155e-10
126	0xbd24a402	-0.040195473
127	0xbd29bb77	-0.041438546
128	0xbd4364cd	-0.047703553
129	0x2dcc1464	2.320117e-11
130	0xbd28c692	-0.041204996
131	0x3cc4676a	0.023975093
132	0xbd16568a	-0.036703624
133	0x2db0c1eb	2.0095e-11
134	0x3bbaef65	0.0057048076
135	0x3d40993d	0.04702114
136	0x37d278af	2.5090148e-05
137	0xbc8d2e7e	-0.017234083
138	0xbd6766b8	-0.056494445
139	0xbcc0e2c4	-0.02354563
140	0xbd2112bb	-0.039324503
141	0x3c573c62	0.013136955
142	0x3d07e689	0.03317884
143	0xbcb310e6	-0.021858644
144	0x3c3496cc	0.011022281
145	0x3d0dd2bc	0.0346248
146	0xbc5abc0a	-0.013350496
147	0xbaa0a87e	-0.0012257246
148	0x2e3ef193	4.341556e-11
149	0x3dacfe40	0.08446932
150	0xbd812116	-0.06305139
151	0xbd58cf24	-0.05293192
152	0x3d5cfedf	0.053954
153	0xbb59245d	-0.0033133246
154	0xbd1a1962	-0.037621863
155	0x35c2e319	1.452022e-06
156	0x3c210481	0.009827734
157	0xbcd11496	-0.025522511
158	0x3d97f71e	0.07420181
159	0xbd8fb7dc	-0.0701749
160	0xbd30d254	-0.043169335
161	0xbd90f5e9	-0.07078154
162	0x3c41bbc3	0.011824551
163	0x3d46dcab	0.04855029
164	0x35dc585c	1.6416993e-06
165	0x3d6e42ac	0.058169052
166	0x3d85a037	0.06524699
167	0xbd6c44d7	-0.05768284
168	0x3d995408	0.07486731
169	0x3d59fecb	0.053221505
170	0x3d423240	0.047411203
171	0x3c729b7f	0.014807581
172	0x3bf43368	0.007452417
173	0x3d5b07cd	0.053474236
174	0x3a1c2cf2	0.0005957625
175	0xbca40d4d	-0.020025874
176	0x3c2803d8	0.010254823
177	0x3a6b0586	0.00089653616
178	0x384dd395	4.907286e-05
179	0xbd820f07	-0.063505225
180	0xbcd71e5f	-0.0262596
181	0x2f249e43	1.4971939e-10
182	0xb4561967	-1.9939544e-07
183	0x3d68f559	0.056874607
184	0x3d6c1c9e	0.05764448
185	0xbd4867ed	-0.048927236
186	0x3d52ac6b	0.05143396
187	0xbd19560a	-0.03743557
188	0xbd0b7358	-0.034045547
189	0xb83316be	-4.2698106e-05
190	0x3bec2116	0.0072060926
191	0x3d8cba2b	0.06871446
192	0xbb3a1079	-0.0028391166
193	0xbc084200	-0.008316517
194	0x3c89d44f	0.01682487
195	0x3cd8571f	0.02640873
196	0x39155099	0.00014239772
197	0xae73b5d5	-5.5413302e-11
198	0xbd4540c8	-0.048157483
199	0xbb8e347e	-0.0043397537
200	0x3ca52557	0.020159407
201	0x3d7b8006	0.06140139
202	0x3d823267	0.0635727
203	0xbd40f784	-0.04711105
204	0xbc29b619	-0.010358357
205	0x3c502138	0.0127032325
206	0x3dadeedb	0.08492824
207	0x3d3da05c	0.04629551
208	0xbd0fea2e	-0.03513544
209	0xb7aea2b8	-2.0818188e-05
210	0x3d8466c9	0.06464917
211	0x3d2a1019	0.04151926
212	0x3d3dca3f	0.046335455
213	0xb637ac7d	-2.7369526e-06
214	0xb902d155	-0.00012475748
215	0xbcbd4827	-0.023105694
216	0xb84863ae	-4.777655e-05
217	0xb878825f	-5.9249225e-05
218	0x3ab29ec1	0.0013627635
219	0x3d107d0b	0.0352755
220	0xb3fb3bde	-1.1698988e-07
221	0x3da2ea2a	0.079548195
222	0x3d1aba02	0.037775047
223	0x3da00cda	0.07814951
224	0x3d74b37f	0.059741493
225	0x3ba94469	0.005165626
226	0xbb339093	-0.0027399405
227	0x3d475a91	0.048670355
228	0x2df46b2f	2.7787187e-11
229	0x3d42b7ce	0.04753857
230	0xb73e9d0a	-1.1361446e-05
231	0x3cc743f6	0.024324398
232	0xbdafad3a	-0.08577962
233	0xbc652a91	-0.013987199
234	0x3c84b42d	0.016199196
235	0xbd5afbf0	-0.053462923
236	0xbcdaf3ac	-0.02672752
237	0x3d8d1c89	0.06890208
238	0x3be4b204	0.006979229
239	0x3c078ce2	0.008273335
240	0x3c02be53	0.007979947
241	0x3d439c17	0.04775628
242	0x3b6715e9	0.0035260862
243	0x3acf11d2	0.0015798158
244	0xbae89cbc	-0.0017746906
245	0xbcfb9c25	-0.030714104
246	0x3a56a8fb	0.0008188632
247	0x34849ed4	2.470248e-07
248	0x3d83502e	0.064117774
249	0xac87a1bc	-3.854887e-12
250	0xaf6dd349	-2.1630088e-10
251	0xbd570bed	-0.052501608
252	0xbd827504	-0.06369975
253	0x3d0fd6b7	0.035116877
254	0x3d8d944e	0.069130525
255	0xbc54e3aa	-0.0129937325

pos_mlp.0.weight f4 [32, 1]
0	0xbe8f56b8	-0.2799585
1	0x3f5e373e	0.8680304
2	0x3f76afb4	0.9636185
3	0x3f184753	0.5948383
4	0xbe1f758d	-0.15572186
5	0xbecff819	-0.4061897
6	0x3f1d695f	0.6148891
7	0x2e839127	5.9829745e-11
8	0xbf358ff6	-0.7092279
9	0x3ef37fbe	0.47558397
10	0xbf4389a4	-0.763819
11	0x3f5eada8	0.8698373
12	0xbed68f9a	-0.41906434
13	0xbe280f79	-0.16412152
14	0xb9189f53	-0.00014555203
15	0x3c5647f8	0.013078682
16	0x3eb10626	0.34575003
17	0xbc3eb822	-0.01164058
18	0x3f780ee9	0.9689775
19	0xbefd4a85	-0.49470916
20	0x2e323f03	4.052848e-11
21	0xbd77d44a	-0.06050519
22	0xbf116f03	-0.56810015
23	0x3c8d2dba	0.017233718
24	0x3ef8a7a1	0.4856539
25	0xbb265128	-0.0025377963
26	0xbe384592	-0.17995289
27	0x3bb816d5	0.005617956
28	0x3d32d4b7	0.043659892
29	0xb6526bb9	-3.1355141e-06
30	0x3f3b4567	0.73152775
31	0x3e83fcd2	0.25778824

pos_mlp.0.bias f4 [32]
0	0xbd354621	-0.044256333
1	0xbdd73f25	-0.10510091
2	0x3f4c25fa	0.7974545
3	0x3d7bd463	0.061481845
4	0x3ede45f7	0.43412754
5	0x3f137dae	0.57613647
6	0xbd029c0d	-0.031887103
7	0xbea538a4	-0.32269776
8	0x3f1cff26	0.61326826
9	0xbd32ca00	-0.043649673
10	0x3f325be2	0.6967145
11	0xbedaf88d	-0.42767754
12	0xbab0c6a1	-0.001348693
13	0x3f400372	0.7500526
14	0xb8908f26	-6.8931186e-05
15	0xbe6d704f	-0.23187374
16	0xbce92afc	-0.02846288
17	0xbcc6cf71	-0.024268838
18	0x3e29dbbb	0.16587727
19	0x3f0ad691	0.5423365
20	0xbedc0eb7	-0.42979977
21	0xbe976414	-0.2956854
22	0x3f3f97e2	0.7484113
23	0xbed2d0a2	-0.411748
24	0xbd085f40	-0.033293962
25	0xbe622144	-0.22083002
26	0x3f6e802f	0.9316434
27	0xbef29bf4	-0.47384608
28	0xbd79591b	-0.060875993
29	0xbadb5541	-0.0016733782
30	0x3f615d45	0.88032943
31	0x3e8a704a	0.27038795

pos_mlp.2.weight f4 [32, 32]
0	0xbab41928	-0.0013740407
1	0xbec133bb	-0.3773478
2	0x3d3a8e2e	0.04554575
3	0xbe8de7e7	-0.2771599
4	0x3d0bf5a7	0.03416982
5	0x3e8a2ec8	0.26988816
6	0xbe3bfed3	-0.18358926
7	0x3b0f743e	0.0021889354
8	0x3e9be92a	0.30451328
9	0xbdf07818	-0.11741656
10	0x3e8c34d5	0.27384058
11	0xbe516091	-0.20446993
12	0xbb2bb1e6	-0.0026198565
13	0x3e72cb40	0.23710346
14	0x398ba76b	0.00026636882
15	0x2e1b2172	3.5272625e-11
16	0xbea2defe	-0.31810755
17	0xb589fb18	-1.0280373e-06
18	0xbe968cf4	-0.29404414
19	0x3eb904bb	0.36136422
20	0x38dabda1	0.00010430371
21	0x395b3f35	0.00020909014
22	0x3ec63c55	0.38717905
23	0xba692664	-0.0008893965
24	0xbe85ba6b	-0.26118788
25	0xab2867ff	-5.9829913e-13
26	0x3dd49118	0.10379237
27	0xaeab49e2	-7.789304e-11
28	0x39170da9	0.00014405571
29	0xbabc7b9c	-0.00143801
30	0x3e343945	0.17599972
31	0x3e27d41d	0.16389509
32	0x34ba9dc1	3.475998e-07
33	0xbdb77326	-0.0895751
34	0xbd3ad21d	-0.045610536
35	0xbdf89db0	-0.121394515
36	0x3ddbf734	0.1074051
37	0x3dc8ff99	0.098143764
38	0xbddbdff0	-0.10736072
39	0x2ea4e19c	7.497933e-11
40	0x3e220366	0.15821609
41	0xbdc0791f	-0.09398102
42	0x3e13eed8	0.1444658
43	0xbdc2d530	-0.095133185
44	0x3bc3321f	0.0059569026
45	0x3dd4b64c	0.10386333
46	0xb37dfc04	-5.913536e-08
47	0xb7c4ed61	-2.3475559e-05
48	0xbd646c9d	-0.055767644
49	0xbbb6b219	-0.00557543
50	0xbdbf1dbe	-0.09331845
51	0x3dd87740	0.1056962
52	0x2e59e260	4.954115e-11
53	0xbb9d7607	-0.0048053297
54	0x3e0356b7	0.12826048
55	0x375db616	1.3215022e-05
56	0xbdf43cf4	-0.119256884
57	0x39aefd3d	0.00033376543
58	0x3dcb03ec	0.099128574
59	0xb8134bab	-3.5118002e-05
60	0xbacea0be	-0.0015764458
61	0xbb8af399	-0.004240465
62	0x3d03312c	0.032029316
63	0xbc9f135d	-0.019418413
64	0xbb0ecd94	-0.0021790015
65	0x3dc46d53	0.095911644
66	0x3dc663d5	0.0968701
67	0x3e0fa716	0.14028582
68	0xbcb857a5	-0.02250273
69	0xbdf15c35	-0.11785165
70	0x3dcce26d	0.10004125
71	0xbb824e94	-0.0039766524
72	0xbdccdd30	-0.10003126
73	0x3daa8bf2	0.08327474
74	0xbdcbb929	-0.09947426
75	0x3dd61fab	0.10455259
76	0x3a14a948	0.0005670977
77	0x3c7d7dd3	0.015471893
78	0xae778b7b	-5.628518e-11
79	0xbb5b5264	-0.0033465857
80	0x3e0f3ce6	0.13988075
81	0xae135108	-3.34959e-11
82	0x3dc923de	0.09821294
83	0xbdc29ef3	-0.095029734
84	0xbafc46e7	-0.0019247205
85	0x37e06011	2.6747615e-05
86	0xbdb0c4f2	-0.08631314
87	0xafaafc11	-3.1101924e-10
88	0x3d862e59	0.06551809
89	0x2e6d6050	5.3973104e-11
90	0x3c687d7c	0.014190074
91	0xbc152250	-0.009102419
92	0xae9f2ee6	-7.238814e-11
93	0xb8353a39	-4.3207987e-05
94	0x3daa2678	0.083081186
95	0x3dfbce8e	0.122952566
96	0x3884becb	6.3297884e-05
97	0x3e6d12bc	0.23151678
98	0x3e55ced0	0.20879674
99	0x3eb096f5	0.3449017
100	0x3ca7102c	0.020393454
101	0xbe9db97d	-0.3080558
102	0x3e48072b	0.19533984
103	0xb3ac11d4	-8.012617e-08
104	0xbd8aab58	-0.067709625
105	0x3e0646ad	0.13112898
106	0xbeaf3ca1	-0.34225944
107	0x3e2c0afd	0.16801067
108	0x3c2ddf15	0.010612269
109	0xbdc4aa97	-0.0960285
110	0x2d582fe2	1.2288811e-11
111	0xbb783539	-0.003787352
112	0x3e402005	0.18762214
113	0x3b124d21	0.0022323804
114	0x3d25116d	0.04029982
115	0xbeb60681	-0.35551837
116	0x3b887cc7	0.0041652652
117	0xad94d4a5	-1.6920085e-11
118	0xbe8f5c3a	-0.2800005
119	0x399d3153	0.00029982123
120	0x3e6e6be2	0.23283342
121	0x3a20cfa3	0.0006134456
122	0x3e20b233	0.15692978
123	0x2fa0a1af	2.9218714e-10
124	0xae01b498	-2.9491604e-11
125	0x38e3f875	0.00010870482
126	0x3e875844	0.2643453
127	0x3e7e4884	0.2483235
128	0x3b051d5a	0.0020311684
129	0x3e8e8253	0.27833804
130	0x3e8e1263	0.27748403
131	0x3ea03f45	0.3129827
132	0x3d09fcda	0.033688404
133	0xbe42268d	-0.18960018
134	0x3d83fefd	0.064451195
135	0xb91ef9e8	-0.00015161152
136	0xbdf2870d	-0.11842165
137	0x3d82ddc6	0.06389956
138	0xbeafa9d8	-0.34309268
139	0x3e4b2220	0.19837236
140	0xba790940	-0.00094999745
141	0x3d8ef84d	0.06980953
142	0x3b20b160	0.0024519786
143	0xaece06e1	-9.3690174e-11
144	0x3e9c4e1c	0.30528343
145	0x3b8e427e	0.0043414226
146	0x3eb23d9a	0.34812623
147	0xbe9baf0c	-0.30406988
148	0xbc1a3de3	-0.009414169
149	0xbc240da9	-0.010013022
150	0xbe6ecf8f	-0.23321365
151	0x3a121a50	0.0005573379
152	0x3e9c9cc2	0.30588347
153	0xba977cb9	-0.0011557556
154	0xbc91f7e5	-0.0178184
155	0x39bbdc83	0.00035831713
156	0x3bcfd545	0.0063425624
157	0xaee47f8a	-1.0390895e-10
158	0x3eaa357c	0.3324393
159	0x3e8ff260	0.28114605
160	0x2aa328f4	2.8983033e-13
161	0xbe8be44c	-0.27322614
162	0x3dbe1125	0.09280614
163	0xbe17b9ba	-0.14816943
164	0x3e8a6d90	0.27036715
165	0x3e56bef5	0.20971282
166	0xbea2b63f	-0.31779668
167	0xb5e0e931	-1.6757168e-06
168	0x3e02ac1a	0.12760964
169	0xbd7d2cb5	-0.061810214
170	0x3e6a42bd	0.22877021
171	0xbe344c8e	-0.17607328
172	0xbc2938e7	-0.010328508
173	0x3e26ece1	0.163013
174	0x3bddb192	0.006765553
175	0xbb3df934	-0.0028987648
176	0xbe422174	-0.18958074
177	0x2d84b566	1.508722e-11
178	0xbe52e8e4	-0.20596653
179	0x3d7fa379	0.06241176
180	0x3b6587c8	0.003502356
181	0xb6ced6bf	-6.164278e-06
182	0x3de03b0f	0.109487645
183	0xb8467ff2	-4.7326037e-05
184	0xbe9085c1	-0.28227046
185	0xb5f2c2b2	-1.8087069e-06
186	0x3e951f1c	0.29125297
187	0xbab6368c	-0.0013901754
188	0x37eca5a2	2.8210521e-05
189	0xaea41066	-7.4607695e-11
190	0x3de67f01	0.11254693
191	0xbc9764d2	-0.018480692
192	0x3ab233d4	0.0013595768
193	0xbb826b6d	-0.0039800913
194	0x2c230c31	2.317046e-12
195	0x3197b553	4.4152926e-09
196	0x2eefff1e	1.09137796e-10
197	0xbbf42766	-0.0074509857
198	0xbc203ba6	-0.009779846
199	0xae7acbc1	-5.702439e-11
200	0x39e722f2	0.0004408579
201	0x3bb95a07	0.005656484
202	0x35d9bfa4	1.6223535e-06
203	0x3901d331	0.00012381074
204	0xb3c06848	-8.9596654e-08
205	0xbb0bfa21	-0.0021358805
206	0x3bccdba2	0.006251768
207	0xbc306f11	-0.010768668
208	0x35d95e49	1.61952e-06
209	0x3c07d5dc	0.008290734
210	0x2eb6de92	8.315938e-11
211	0xb8e3893f	-0.000108497676
212	0xba469f09	-0.00075767987
213	0xbbb280df	-0.0054474915
214	0x2b8e2d4b	1.0102278e-12
215	0xb01c2dbd	-5.681747e-10
216	0xbb2645ee	-0.0025371271
217	0xbb263d1d	-0.0025366016
218	0xbb4f736e	-0.0031654495
219	0x3c1e5741	0.009664358
220	0x3a728b01	0.00092522806
221	0xb837d327	-4.382725e-05
222	0xb933a20d	-0.00017131139
223	0xb6bde538	-5.6593235e-06
224	0xb7ba1650	-2.2183318e-05
225	0xbdc3c3ec	-0.095588535
226	0xbda72510	-0.08161366
227	0xbea9340e	-0.33047527
228	0x3e36d421	0.17854358
229	0x3e15d0f1	0.14630486
230	0xbe4d87d6	-0.20071349
231	0xbbb65b54	-0.0055650864
232	0x3ea66f6d	0.32506886
233	0xbe4fbd1d	-0.20286985
234	0x3e2e668d	0.17031308
235	0xbe41de60	-0.18932486
236	0xbbd25a5e	-0.006419464
237	0xbc86c84b	-0.016452929
238	0x39191076	0.00014597349
239	0xbc1fc81c	-0.0097523
240	0xbe83c8cb	-0.2573913
241	0x3ae71a8f	0.0017631816
242	0xbe0a0df5	-0.13481887
243	0x3daeeb0b	0.08540925
244	0x3b134dc6	0.0022476777
245	0x370d93b1	8.438642e-06
246	0x3e43faae	0.19138595
247	0x3ab675fd	0.0013920661
248	0xbeb2ade5	-0.34898296
249	0x387b101c	5.9858066e-05
250	0x3e8b24af	0.27176425
251	0xb141e61b	-2.8215996e-09
252	0xb9d520de	-0.00040651014
253	0x3855d52c	5.098169e-05
254	0x3e13a6a4	0.14419037
255	0x3e18cff3	0.14923076

pos_mlp.2.bias f4 [32]
0	0x3e1d1f00	0.15343857
1	0x3e0c8162	0.1372123
2	0x3d42531e	0.047442548
3	0x3e3d7e7f	0.18505286
4	0xbd88c24a	-0.06677683
5	0xbbe2853c	-0.0069128554
6	0xbc225973	-0.009909022
7	0x3e80b27b	0.2513617
8	0xba11ae80	-0.00055573136
9	0x3d38fd2d	0.045163322
10	0x3e01d2fa	0.12678137
11	0xbc2121a7	-0.0098346835
12	0x3e61a6d8	0.22036302
13	0x3dfb3ad1	0.12267078
14	0xbbe7d0e7	-0.0070744636
15	0xbc77766a	-0.015103916
16	0x3e62154e	0.2207844
17	0x3e347480	0.17622566
18	0x3e3dc87e	0.18533513
19	0xbbc27566	-0.005934405
20	0xba817504	-0.0009876792
21	0x3ba4cbe9	0.005029191
22	0x3e15126d	0.1455781
23	0x2e303b53	4.0070457e-11
24	0xbc12d1aa	-0.008961121
25	0x3e192eed	0.14959307
26	0x3e6a4a43	0.22879891
27	0x3137ae00	2.6728912e-09
28	0xb97bffd4	-0.00024032529
29	0xbd8883d8	-0.06665772
30	0xbbd3035e	-0.0064396104
31	0x3e67d16a	0.22638479
