pointnet/weights_per_bundle_ratio025/T_PAR_right_best.pth (torch, 359807 bytes, 17 tensors)

t_grid f4 [100]
0.0 0.01010101 0.02020202 0.030303031 0.04040404 0.05050505 0.060606062 0.07070707
0.08080808 0.09090909 0.1010101 0.11111111 0.121212125 0.13131313 0.14141414 0.15151516
0.16161616 0.17171717 0.18181819 0.1919192 0.2020202 0.21212122 0.22222222 0.23232323
0.24242425 0.25252524 0.26262626 0.27272728 0.28282827 0.2929293 0.3030303 0.3131313
0.32323232 0.33333334 0.34343433 0.35353535 0.36363637 0.37373737 0.3838384 0.3939394
0.4040404 0.41414142 0.42424244 0.43434343 0.44444445 0.45454547 0.46464646 0.47474748
0.4848485 0.4949495 0.5050505 0.5151515 0.5252525 0.53535354 0.54545456 0.5555556
0.56565654 0.57575756 0.5858586 0.5959596 0.6060606 0.61616164 0.6262626 0.6363636
0.64646465 0.65656567 0.6666667 0.6767677 0.68686867 0.6969697 0.7070707 0.7171717
0.72727275 0.7373737 0.74747473 0.75757575 0.7676768 0.7777778 0.7878788 0.7979798
0.8080808 0.8181818 0.82828283 0.83838385 0.8484849 0.85858583 0.86868685 0.8787879
0.8888889 0.8989899 0.90909094 0.9191919 0.9292929 0.93939394 0.94949496 0.959596
0.969697 0.97979796 0.989899 1.0
00000000: 0000 0000 b57e 253c b57e a53c 103e f83c
00000010: b57e 253d 62de 4e3d 103e 783d dece 903d
00000020: b57e a53d 8c2e ba3d 62de ce3d 398e e33d
00000030: 103e f83d f376 063e dece 103e ca26 1b3e
00000040: b57e 253e a0d6 2f3e 8c2e 3a3e 7786 443e
00000050: 62de 4e3e 4e36 593e 398e 633e 24e6 6d3e
00000060: 103e 783e fd4a 813e f376 863e e9a2 8b3e
00000070: dece 903e d4fa 953e ca26 9b3e bf52 a03e
00000080: b57e a53e abaa aa3e a0d6 af3e 9602 b53e
00000090: 8c2e ba3e 815a bf3e 7786 c43e 6db2 c93e
000000a0: 62de ce3e 580a d43e 4e36 d93e 4362 de3e
000000b0: 398e e33e 2fba e83e 24e6 ed3e 1a12 f33e
000000c0: 103e f83e 056a fd3e fd4a 013f f8e0 033f
000000d0: f376 063f ee0c 093f e9a2 0b3f e438 0e3f
000000e0: dece 103f d964 133f d4fa 153f cf90 183f
000000f0: ca26 1b3f c5bc 1d3f bf52 203f bae8 223f
00000100: b57e 253f b014 283f abaa 2a3f a640 2d3f
00000110: a0d6 2f3f 9b6c 323f 9602 353f 9198 373f
00000120: 8c2e 3a3f 86c4 3c3f 815a 3f3f 7cf0 413f
00000130: 7786 443f 721c 473f 6db2 493f 6748 4c3f
00000140: 62de 4e3f 5d74 513f 580a 543f 53a0 563f
00000150: 4e36 593f 48cc 5b3f 4362 5e3f 3ef8 603f
00000160: 398e 633f 3424 663f 2fba 683f 2950 6b3f
00000170: 24e6 6d3f 1f7c 703f 1a12 733f 15a8 753f
00000180: 103e 783f 0ad4 7a3f 056a 7d3f 0000 803f

encoder.mlp.0.weight f4 [64, 3]
-0.0073716347 -0.32316518 0.44580185 -0.3591261 -0.5678412 -0.4311574 -0.21864356 -0.097644866
0.17598292 -0.33575112 0.2581388 0.553327 0.261682 -0.5781061 -0.20674789 0.57468253
0.12512533 0.353904 -0.54703337 0.33628297 0.56436026 0.2168622 -0.36859027 -0.4515148
0.015321035 0.16923718 -0.42727688 -0.07026442 0.33527842 0.42669535 -0.25534958 0.041221574
-0.45290738 0.1137542 0.4963293 -0.14125755 -0.46371657 -0.56426644 0.29819956 0.1531061
0.067052335 0.26193234 -0.5222492 0.15564778 -0.15409926 0.30962566 0.32431152 -0.24037926
0.4061734 -0.1102415 0.4026703 0.2788062 0.35435504 0.16984087 -0.022821331 0.42780465
-0.287208 0.5389504 -0.065712124 -0.24069677 -0.5228921 0.1417902 0.14438488 0.44879174
0.5070974 0.12904897 -0.15418218 0.01753568 0.074154966 -0.2643661 -0.07824406 -0.08365457
-0.37659872 0.51631576 -0.40649632 0.15526272 0.12446953 -0.55473024 0.15208283 -0.02174465
-0.26447213 -0.37927744 -0.44342908 -0.5397593 0.51222634 0.1766088 0.3576872 -0.33337516
-0.14061046 -0.09312573 0.08993595 -0.06419297 -0.12770289 -0.46262562 -0.07147675 0.02467857
0.19120978 0.5269632 0.19927675 -0.51791763 0.47342274 -0.060750905 -0.45335466 -0.1840883
0.36161324 0.53157675 -0.26022735 0.082804605 0.11053792 -0.45421565 0.3397512 -0.1956861
0.17041437 -0.30469683 0.5198779 -0.45146617 -0.14246383 -0.47425717 -0.037987106 0.5400075
-0.5702493 -0.13843481 -0.15916894 -0.20235723 -0.15362902 -0.2373925 0.24434261 -0.21915121
0.46231255 0.22932664 -0.38629267 0.33584496 -0.0015761765 0.06762237 0.2973968 -0.4711883
-0.35381714 0.31378794 -0.032186836 -0.38229007 0.18568468 -0.52716154 0.025447171 -0.20141393
0.5428998 -0.16461393 0.50477856 0.5736379 0.13317145 -0.0035469544 0.27869835 -0.18252754
-0.51981986 0.0043414226 -0.30572385 0.21343562 0.04208489 -0.3883307 0.07041918 0.21028492
0.23647423 0.13323848 -0.30517602 0.26765937 0.5488245 -0.22729339 -0.20520315 0.05047589
0.13403596 0.57173455 0.57667994 -0.3402587 -0.17672634 -0.1812043 -0.122512236 -0.48821643
-0.09094772 -0.04709259 -0.30755827 -0.33414954 0.11405637 -0.11451873 -0.4910897 0.3315063
0.21593407 0.33399302 0.438657 0.24270935 0.3758847 0.17590472 0.4866422 0.58760583
00000000: c18d f1bb e875 a5be 2440 e43e 60df b7be
00000010: 0a5e 11bf aac0 dcbe 19e4 5fbe 08fa c7bd
00000020: de34 343e 92e7 abbe c52a 843e d7a6 0d3f
00000030: 2ffb 853e c3fe 13bf b8b5 53be 651e 133f
00000040: db20 003e e832 b53e 610a 0cbf 482d ac3e
00000050: ea79 103f 2011 5e3e ddb7 bcbe f32c e7be
00000060: 1405 7b3c 834c 2d3e 09c4 dabe cbe6 8fbd
00000070: 9da9 ab3e d077 da3e 2ebd 82be f4d7 283d
00000080: 7ae3 e7be f6f7 e83d e01e fe3e d2a5 10be
00000090: 426c edbe c473 10bf 9dad 983e d8c7 1c3e
000000a0: bc52 893d ff1b 863e 20b2 05bf 2262 1f3e
000000b0: 32cc 1dbe 4187 9e3e 290c a63e fb25 76be
000000c0: f6f5 cf3e 4cc6 e1bd cd2a ce3e b0bf 8e3e
000000d0: 066e b53e c4ea 2d3e cdf3 babc 3609 db3e
000000e0: ed0c 93be a7f8 093f 1494 86bd 3779 76be
000000f0: 42dc 05bf 7331 113e a1d9 133e 08c8 e53e
00000100: 23d1 013f 6a25 043e efe1 1dbe fda6 8f3c
00000110: 8fde 973d fe5a 87be 6c3e a0bd 1653 abbd
00000120: 8cd1 c0be 452d 043f 4920 d0be 31fd 1e3e
00000130: e2e9 fe3d cd02 0ebf 9abb 1b3e d621 b2bc
00000140: e468 87be a730 c2be 2309 e3be aa2d 0abf
00000150: 4421 033f f0d8 343e c722 b73e 26b0 aabe
00000160: 30fc 0fbe b4b8 bebd 5730 b83d 9b77 83bd
00000170: 8cc4 02be 44dd ecbe 6762 92bd b62a ca3c
00000180: 7fcc 433e 0fe7 063f 340f 4c3e 4096 04bf
00000190: 7764 f23e f1d5 78bd 1a1e e8be a581 3cbe
000001a0: 5f25 b93e 6a15 083f 853c 85be 7695 a93d
000001b0: b461 e23d f48e e8be dff3 ad3e f061 48be
000001c0: 1b81 2e3e 3901 9cbe b816 053f 9326 e7be
000001d0: 0ae2 11be d6d1 f2be 5e98 1bbd ee3d 0a3f
000001e0: dcfb 11bf dbc1 0dbe 2ffd 22be bc36 4fbe
000001f0: ed50 1dbe 0517 73be f334 7a3e 2d69 60be
00000200: 3bb4 ec3e 9ad4 6a3e 27c8 c5be dff3 ab3e
00000210: b597 ceba 997d 8a3d 6544 983e 983f f1be
00000220: 8527 b5be d0a8 a03e 58d6 03bd 86bb c3be
00000230: 2024 3e3e 0ff4 06bf 9676 d03c 743f 4ebe
00000240: 7bfb 0a3f 8e90 28be 2b39 013f efd9 123f
00000250: 195e 083e 0574 68bb 8db1 8e3e 80e8 3abe
00000260: ea12 05bf 7e42 8e3b d687 9cbe de8e 5a3e
00000270: 3561 2c3d 48d3 c6be ee37 903d ee54 573e
00000280: 4d26 723e ab6f 083e 0840 9cbe a60a 893e
00000290: c37f 0c3f 99bf 68be c620 52be cfbf 4e3d
000002a0: b940 093e 325d 123f 4ca1 133f 6336 aebe
000002b0: c0f7 34be 9f8d 39be b2e7 fabd 81f7 f9be
000002c0: cc42 babd 29e4 40bd 4778 9dbe a615 abbe
000002d0: 6396 e93d cc88 eabd 1c70 fbbe 32bb a93e
000002e0: d21d 5d3e 2201 ab3e a697 e03e cd88 783e
000002f0: f673 c03e 5e20 343e 2b29 f93e 566d 163f

encoder.mlp.0.bias f4 [64]
0.037015382 -0.1381095 -0.15462203 -0.0064734113 0.4340513 -0.5544179 -0.37617135 -0.23018815
0.21668755 0.12208499 -0.4608903 -0.31128764 -0.16242464 -0.5543555 -0.40942752 -0.4067082
0.06121572 0.20869435 -0.13155614 0.089614704 -0.26763624 0.18045156 0.19563337 -0.4705304
-0.17836641 0.48615617 0.18593931 0.01710246 0.38295734 0.03831756 -0.22201933 0.16160835
0.13061056 -0.4780358 -0.43537688 -0.5067635 0.02336333 0.33412975 -0.34039682 -0.25829157
-0.46411365 -0.059250817 0.5342946 -0.39799026 0.2821937 -0.15826295 0.41039658 0.36067948
-0.13162407 -0.14022133 -0.23236544 0.44569102 -0.13116285 0.24346283 -0.2235439 -0.14596829
0.0632243 -0.1391442 0.50876296 -0.5231797 -0.25160027 0.26857948 0.162909 0.2852461
00000000: 719d 173d 946c 0dbe 3d55 1ebe e91e d4bb
00000010: f93b de3e 55ee 0dbf 8899 c0be 71b6 6bbe
00000020: 57e3 5d3e b207 fa3d d0f9 ebbe 1861 9fbe
00000030: a552 26be 3eea 0dbf 7ca0 d1be 0f3c d0be
00000040: 56bd 7a3d f9b3 553e a7b6 06be ea87 b73d
00000050: 9e07 89be 4bc8 383e 1d54 483e 5ce9 f0be
00000060: afa5 36be 76e9 f83e e066 3e3e 751a 8c3c
00000070: fc12 c43e e0f2 1c3d 0959 63be a97c 253e
00000080: c6be 053e 1cc1 f4be b8e9 debe 41bb 01bf
00000090: 7464 bf3c 0e13 ab3e 7e48 aebe cb3e 84be
000000a0: 4ea0 edbe fcb0 72bd 88c7 083f 61c5 cbbe
000000b0: b17b 903e af0f 22be 801f d23e fbaa b83e
000000c0: 76c8 06be 2e96 0fbe 35f1 6dbe 9d31 e43e
000000d0: 8e4f 06be 524e 793e b1e8 64be b678 15be
000000e0: be7b 813d d17b 0ebe 4a3e 023f 1bef 05bf
000000f0: c0d1 80be 4083 893e 9ed1 263e c70b 923e

encoder.mlp.2.weight f4 [128, 64]
0.0946801 0.11409573 -0.11707222 0.069504455 0.031702243 -0.12418104 0.07109365 -0.10174604
-0.02599944 -0.079851784 0.036944646 0.043566093 -0.11874008 -0.014256956 -0.037490886 -0.119755164
0.0059271757 0.0825683 0.008729971 -0.011321959 -0.001707596 0.10384906 -0.075128414 -0.003362555
0.018547812 -0.10447688 0.12551138 -0.0049010552 0.06351611 0.0034611435 -0.0152291795 -0.014890438
0.038594786 0.012961139 -0.112422064 0.051548675 -0.113440126 0.07799723 0.03409528 0.11056929
-0.08489793 0.04493197 -0.118373536 0.044722788 -0.080770575 -0.10194856 0.07013384 -0.035037953
0.027291741 0.036859967 -0.0027211746 0.047983058 0.10747696 0.10285137 0.06511593 0.0031272923
0.0436992 -0.06903812 -0.09772523 -0.020311188 0.063567005 -0.0048648478 -0.09187154 -0.005486678
0.10639874 -0.095009245 -0.015298992 0.09777088 -0.08852161 0.13240246 -0.044556987 -0.083042204
-0.021753335 -0.05080066 0.060819197 0.085572466 -0.09188137 -0.102834426 -0.015481729 -0.083561555
0.018189073 -0.03709088 0.020310448 0.110648975 0.13241288 0.022975031 -0.07859509 0.06646102
-0.07748529 0.09530458 -0.04177022 0.0005192381 -0.050575435 0.08026394 0.00046326732 0.10883803
-0.00077418744 0.070161246 -0.03412104 0.018402299 0.0020383638 -7.667013e-05 0.051652875 -0.0038361545
-0.10526063 -0.07356959 0.07236647 0.087012835 -0.07295544 0.0014002664 0.09745037 0.045724362
0.12407366 0.013928901 0.017671328 -0.07804461 -0.03985883 -0.05791482 -0.06044813 -0.07623772
0.098831534 0.09498492 0.018422963 0.085539445 0.017761825 -0.04826716 0.11296742 -0.022494445
-0.002701109 -0.051048387 0.11039977 0.10539425 0.021503171 -0.060348734 -0.027459191 0.101065144
-0.05516777 0.090203896 0.000100924015 -0.07860019 -0.08147448 0.114383556 -0.055536926 0.06886306
0.11318594 0.09382086 -0.0006832668 -0.05384676 -0.11419383 -0.022373613 0.015258798 -0.07676266
0.009329081 0.022954049 -0.0033570924 -0.092551015 0.024849836 -0.107290514 0.096616 -0.06004319
-0.025323333 0.03664487 -0.021061683 -0.08460881 -0.07182754 -0.06076794 -0.044750728 0.11785079
0.008564311 -0.043910634 -0.043911677 0.11157834 0.12790704 0.10144533 0.011532876 0.08298698
0.07881028 0.09188019 -0.04795401 -0.030494904 -0.07520062 -0.016792458 -0.08196296 -0.0880994
-0.06460106 -0.07978467 0.002714959 -0.062517494 0.0070353514 -0.00028084771 -0.04769415 -0.10885698
-0.016138092 0.10379208 0.035383783 0.08626695 0.053059578 -0.09434579 -0.13129224 0.02552954
-0.009178492 0.07597778 -0.06554412 -0.04561797 0.005648237 -0.038338542 0.0006121329 0.016675461
0.053745788 -0.039907385 0.04488464 -0.04350679 -0.023213794 0.0017154503 0.069830984 0.07717349
-0.059071973 0.07475387 0.0722361 -0.066113345 0.04879173 0.049074534 0.095280126 -0.014466695
-0.08533172 7.118091e-05 -0.079350315 0.054793812 0.0823857 0.0847101 -0.07470841 0.10381833
-0.10823999 -0.10527083 0.017566636 0.08503608 0.07326569 0.06833684 -0.10056499 0.082434446
-0.106450126 -0.09636732 0.03011439 -0.07900804 0.01057764 0.041889206 0.0954321 -0.04336514
-0.025071744 -0.026654957 0.10997987 -0.0070952456 0.037713807 0.023211109 -0.056536667 -0.07334343
00000000: a4e7 c13d 06ab e93d 8fc3 efbd 5a58 8e3d
00000010: 36da 013d a152 febd 8c99 913d 3a60 d0bd
00000020: c7fc d4bc 5589 a3bd 4553 173d 5c72 323d
00000030: 002e f3bd 0296 69bc 0b90 19bd 3242 f5bd
00000040: c138 c23b 9219 a93d 2708 0f3c bd7f 39bc
00000050: 6ad1 dfba d1ae d43d eddc 99bd 505e 5cbb
00000060: 95f1 973c f9f7 d5bd 0e86 003e 0899 a0bb
00000070: bc14 823d 5ad4 623b cf83 79bc 06f7 73bc
00000080: 9115 1e3d f55a 543c 8a3d e6bd b424 533d
00000090: 4c53 e8bd 03bd 9f3d 7ea7 0b3d 2772 e23d
000000a0: f7de adbd 960a 383d d36d f2bd 3e2f 373d
000000b0: 0b6b a5bd 68ca d0bd 55a2 8f3d f583 0fbd
000000c0: ee92 df3c 7afa 163d bc55 32bb e289 443d
000000d0: e11c dc3d bda3 d23d 805b 853d 42f3 4c3b
000000e0: effd 323d dc63 8dbd 2a24 c8bd a663 a6bc
000000f0: 6b2f 823d 4d69 9fbb 2527 bcbd 97c9 b3bb
00000100: 95e7 d93d 3594 c2bd a0a8 7abc 193c c83d
00000110: d14a b5bd 8394 073e 6381 36bd 0812 aabd
00000120: 0d34 b2bc 5a14 50bd 8d1d 793d 9e40 af3d
00000130: 4d2c bcbd db9a d2bd 14a7 7dbc 5222 abbd
00000140: 4001 953c 9bec 17bd 1962 a63c ee9b e23d
00000150: 3e97 073e 2236 bc3c 76f6 a0bd b71c 883d
00000160: 9cb0 9ebd 0c2f c33d 4017 2bbd 7b1d 083a
00000170: 3028 4fbd 6c61 a43d b0e2 f239 79e6 de3d
00000180: d7f2 4aba b3b0 8f3d 81c2 0bbd 6bc0 963c
00000190: 1296 053b f6c9 a0b8 f791 533d fe67 7bbb
000001a0: e392 d7bd a7ab 96bd df34 943d c933 b23d
000001b0: a969 95bd 2589 b73a 0f94 c73d 7849 3b3d
000001c0: 551a fe3d 0c36 643c 76c3 903c dad5 9fbd
000001d0: 0343 23bd 1738 6dbd 7598 77bd 8622 9cbd
000001e0: 3068 ca3d 7487 c23d c1eb 963c 4e2f af3d
000001f0: 3f81 913c c9b3 45bd 765b e73d 4546 b8bc
00000200: 1705 31bb 1d18 51bd 4619 e23d f1d8 d73d
00000210: 6b27 b03c 3c30 77bd 19f2 e0bc 3efb ce3d
00000220: 99f7 61bd d2bc b83d 2ba7 d338 23f9 a0bd
00000230: 18dc a6bd ed41 ea3d b07a 63bd 1308 8d3d
00000240: 08ce e73d 2725 c03d 421d 33ba 6c8e 5cbd
00000250: 74de e9bd de48 b7bc 0a00 7a3c be35 9dbd
00000260: 00d9 183c 210a bc3c aa02 5cbb 638b bdbd
00000270: e291 cb3c 21bb dbbd 9cde c53d d9ef 75bd
00000280: e172 cfbc ee18 163d 8d89 acbc 6247 adbd
00000290: 511a 93bd cee7 78bd 8a4c 37bd c15b f13d
000002a0: 5351 0c3c a3db 33bd bbdc 33bd 2f83 e43d
000002b0: 10fa 023e 92c2 cf3d 63f4 3c3c 14f5 a93d
000002c0: 4967 a13d ae2b bc3d 6d6b 44bd 73d0 f9bc
000002d0: c802 9abd 5690 89bc 32dc a7bd 756d b4bd
000002e0: 8f4d 84bd 2566 a3bd 74ed 313b 2c09 80bd
000002f0: ce88 e63b be3e 93b9 f15a 43bd 69f0 debd
00000300: 0834 84bc f190 d43d 96ee 103d baac b03d
00000310: 0055 593d 5e38 c1bd 7971 06be 5323 d13c
00000320: 6361 16bc 3d9a 9b3d ff3b 86bd e9d9 3abd
00000330: d914 b93b e008 1dbd 8b77 203a fa9a 883c
00000340: 8b24 5c3d ed75 23bd f5d8 373d 2d34 32bd
00000350: db2a bebc f6d8 e03a 8c03 8f3d 220d 9e3d
00000360: 74f5 71bd 8f18 993d 85f0 933d 6f66 87bd
00000370: d6d9 473d 6102 493d 3a22 c33d b705 6dbc
00000380: 66c2 aebd f646 9538 6b82 a2bd 7a6f 603d
00000390: d5b9 a83d 7d7c ad3d b900 99bd b49e d43d
000003a0: eeac ddbd 3c98 d7bd e8e7 8f3c 6527 ae3d
000003b0: 520c 963d 2ff4 8b3d 04f5 cdbd 64d3 a83d
000003c0: 8602 dabd 3b5c c5bd 74b2 f63c f8ce a1bd
000003d0: d64d 2d3c 0494 2b3d e871 c33d a59f 31bd
000003e0: 4263 cdbc 7f5b dabc 203d e13d 3c7f e8bb
000003f0: cb79 1a3d 3925 be3c fe92 67bd 1535 96bd

encoder.mlp.2.bias f4 [128]
0.027312575 0.0882882 0.01751588 0.107854754 0.051635094 0.03937469 0.0024305803 0.047050178
0.058397766 -4.7598252e-05 0.0036401046 0.07714557 -0.09530008 -0.014541648 -0.077924006 0.12228168
0.064067475 -0.045543265 0.09831 0.10455449 -0.021132607 -0.110599145 -0.07216551 0.12787874
0.016593061 0.1264418 0.027716102 -0.0016543984 -0.060736094 0.07581744 0.075053595 0.047507305
-0.06948078 -0.048944414 0.09610042 0.059587274 0.08878471 0.1032574 -0.0068526543 0.10938675
-0.028775757 0.0474133 -0.006337704 -0.0138354115 -0.03784406 -0.044883255 0.087253414 -0.027428307
-0.049246218 0.016710985 -0.073641494 -0.102881245 0.072507694 0.08379226 -0.028789906 0.086246714
0.00014594501 0.10035656 -0.062030602 -0.027232066 0.08834976 0.005216595 0.10518057 0.06374266
0.05985539 0.10090119 0.105291754 -0.057659514 0.06512242 0.067011856 0.00053956517 -0.0030429796
-0.094263546 0.041801736 0.00032521677 -0.044526227 -0.033805132 0.12103639 -0.077790305 -0.042646002
-0.023728285 0.024264246 0.014161257 -0.026602969 -0.020229671 0.05343058 0.004078563 0.105989985
0.018634554 0.039213404 -0.009829168 1.3871752e-06 0.003550665 0.035118446 -0.058657326 -0.024965847
0.00075130846 0.066590406 -0.06507879 0.12489901 -0.020453477 0.06242854 -0.10120112 -0.06401419
-0.10896474 0.047985032 0.097808555 0.10102995 -0.02207968 0.0057016225 0.13137926 0.0787897
0.038623862 -0.0246396 0.077781275 -0.049138386 0.054315813 0.037028763 0.03556744 0.012155793
0.108662486 0.09141542 -0.09221374 0.00882381 -0.05567708 -0.05712685 0.11788299 0.0143670235
00000000: 9fbe df3c 72d0 b43d 767d 8f3c f4e2 dc3d
00000010: 527f 533d 5b47 213d 5f4a 1f3b b0b7 403d
00000020: 7f32 6f3d 3ca4 47b8 d28e 6e3b 7ffe 9d3d
00000030: b02c c3bd 1840 6ebc 9f96 9fbd d16e fa3d
00000040: cf35 833d 938b 3abd c156 c93d aa20 d63d
00000050: 4a1e adbc ce81 e2bd 83cb 93bd a5f2 023e
00000060: 2cee 873c f679 013e e10c e33c 66d8 d8ba
00000070: 69c6 78bd 2d46 9b3d b3b5 993d 0597 423d
00000080: f04b 8ebd f079 48bd 4cd0 c43d c911 743d
00000090: c2d4 b53d 9e78 d33d 3b8c e0bb 2906 e03d
000000a0: 23bb ebbc 7334 423d 84ac cfbb ecad 62bc
000000b0: 6002 1bbd 81d7 37bd ebb1 b23d 54b1 e0bc
000000c0: 67b6 49bd 7ae5 883c 5ad1 96bd 67b3 d2bd
000000d0: ea7e 943d 479b ab3d cfd8 ebbc 1ea2 b03d
000000e0: d108 1939 bd87 cd3d cd13 7ebd c815 dfbc
000000f0: b8f0 b43d f8ef aa3b e968 d73d 838b 823d
00000100: ed2a 753d 48a5 ce3d 34a3 d73d 622c 6cbd
00000110: e75e 853d 833d 893d 9b71 0d3a ba6c 47bb
00000120: 3f0d c1bd 4c38 2b3d db81 aa39 2261 36bd
00000130: 4077 0abd ede1 f73d 8650 9fbd 93ad 2ebd
00000140: d261 c2bc d0c5 c63c 9e04 683c 78ee d9bc
00000150: b2b8 a5bc 06da 5a3d 77a5 853b 4711 d93d
00000160: 7ea7 983c 3c9e 203d 850a 21bc fa2e ba35
00000170: 46b2 683b 5cd8 0f3d aa42 70bd 2d85 ccbc
00000180: 75f3 443a 8d60 883d 0748 85bd 0dcb ff3d
00000190: 0d8e a7bc 12b5 7f3d 8842 cfbd df19 83bd
000001a0: e828 dfbd f48b 443d da4f c83d cae8 ce3d
000001b0: 72e0 b4bc add4 ba3b 4988 063e 7f5c a13d
000001c0: 0e34 1e3d fdd8 c9bc ca4b 9f3d 5545 49bd
000001d0: 427a 5e3d 79ab 173d 2aaf 113d 1729 473c
000001e0: 708a de3d 0238 bb3d 8fda bcbd be91 103c
000001f0: a60d 64bd d8fd 69bd a36c f13d aa63 6b3c

encoder.mlp.4.weight f4 [256, 128]
0.007551526 0.07160349 -0.058639742 0.049673446 -6.0588885e-05 0.0017127979 -0.080684185 0.023707557
0.06264573 -0.008651326 0.0033346058 -0.019346457 -0.034618676 0.006772027 -0.014186048 0.005667629
0.014427024 0.03932882 0.044923548 0.08494682 0.01391362 0.036688488 0.0008880705 -0.05010959
-0.00072313944 -0.052647714 0.082508 0.036137395 -0.061650977 0.004003777 0.07572027 0.08036376
0.030330205 -0.06321849 -0.035969727 0.07662017 -0.060717158 0.049692225 -0.004632792 -0.015816938
-0.05767936 -0.046387743 0.027743634 -0.022361096 -0.035761405 0.058837276 -0.0048930324 -0.021468664
0.06680157 -0.052589912 -0.00070127624 -0.004492565 0.07402383 -0.015449103 -0.01054334 0.016294133
-0.024010373 0.0775807 0.02142544 0.012629874 0.053591575 -0.0012835884 -0.033416394 -0.04027777
0.034553874 -0.068132274 0.0038724667 -0.042090382 0.0533139 0.055120517 0.0009162755 -0.066659756
-0.04329152 0.053313494 -0.00041955302 0.076097645 0.084976226 0.009652449 -0.05990095 -0.019963685
-0.016332073 0.061746433 0.00092714577 -0.0010355816 5.0799707e-05 -0.08361461 -0.061745808 -0.071765006
0.06803178 -0.07553314 0.00024263651 -0.016120818 0.0111990925 0.023984078 0.044064913 0.047914535
-0.0051191864 -0.038456075 -0.04643178 -0.048917316 0.009609677 -0.008555491 0.013674838 0.070737906
0.044640902 0.005808066 -0.06472815 -0.0385821 0.060465172 0.06006668 -0.050296236 -0.0008964674
-0.016640102 0.05476246 -0.022266988 0.065245196 -0.0041336985 0.07954023 0.023475247 -0.010536422
-0.029120715 -0.06103774 -0.076562375 -0.07252282 -0.016508073 0.049313832 0.007497682 0.04584725
0.08226846 -0.005035711 -0.02358142 0.09138017 0.022162987 -0.00014143641 0.07634004 -0.016207818
0.02093395 -0.015405663 0.045726262 0.061465487 0.050787408 -0.03169553 -0.02836579 -0.03630113
0.06214659 0.09038313 0.054102756 0.042105857 0.036396835 0.00051980244 0.049319696 -0.041815728
4.1700936e-05 -0.0067849075 0.07908608 -0.018844679 0.034472663 0.020783076 0.06618255 -0.026013395
0.06998737 -0.07710445 0.027534053 -0.02222208 0.021741906 -0.010354935 0.05730591 -0.050683666
-0.021390807 -0.03348984 -0.0012909125 0.06697085 -9.053841e-06 -0.04589729 0.00060050155 0.06802658
-0.063815914 0.015953021 0.06367332 -0.045921195 0.052003074 0.022206431 0.021548362 -0.019022854
-0.019892314 0.0017540769 0.028451674 0.06042965 -0.008770265 -0.010775757 -0.004966392 0.057970185
-0.045608044 0.0023438009 0.054358795 -0.010960292 0.01015795 -0.059961192 -0.019079795 -0.016819641
0.043481737 -0.073027864 -0.004768088 -0.061502505 -0.04609369 0.018774014 0.048685238 -0.004549333
0.0035906225 0.016885588 -0.005160586 -0.031076156 0.020173462 -0.03221393 0.085076615 -0.0031822955
-0.017395686 0.02446493 0.029068688 0.00044947915 0.01267031 -0.01686401 -0.0015370914 0.053120047
-0.04762941 0.024821518 -0.0024639505 0.05936575 -0.0061813584 0.029779423 -0.0057064877 -0.052279565
-0.009660971 -0.0009665091 -0.024200533 0.05984933 0.017126363 0.0040712142 0.040434565 -0.029190572
-0.0042890855 0.019942842 -0.0036340451 0.0817501 -0.06522668 0.022185124 0.006316274 -0.00044423188
-0.073913306 -0.036376853 -0.05690628 0.0907048 -0.0010173232 0.07055573 0.091845855 -0.029965144
00000000: cb72 f73b daa4 923d 3a30 70bd 6276 4b3d
00000010: d220 7eb8 f67f e03a c03d a5bd 5a36 c23c
00000020: 684c 803d 4bbe 0dbc 6789 5a3b 767c 9ebc
00000030: 50cc 0dbd e1e7 dd3b 996c 68bc 85b7 b93b
00000040: 535f 6c3c 4217 213d c101 383d 99f8 ad3d
00000050: f4f5 633c ab46 163d 67cd 683a b73f 4dbd
00000060: 1191 3dba 21a5 57bd f4f9 a83d ce04 143d
00000070: bc85 7cbd 1e32 833b 3b13 9b3d c195 a43d
00000080: 0d77 f83c b278 81bd fe54 13bd 09eb 9c3d
00000090: 8eb2 78bd 138a 4b3d adce 97bb 8692 81bc
000000a0: 3141 6cbd 1301 3ebd 9e46 e33c 9e2e b7bc
000000b0: 8d7a 12bd 5bff 703d bb55 a0bb 0ddf afbc
000000c0: 43cf 883d 8568 57bd dad5 37ba 5e36 93bb
000000d0: ce99 973d 3c1e 7dbc f9bd 2cbc 467b 853c
000000e0: 67b1 c4bc a1e2 9e3d 6884 af3c 88ed 4e3c
000000f0: d782 5b3d 143e a8ba a1df 08bd 4efa 24bd
00000100: 5d88 0d3d ef88 8bbd 36c9 7d3b f766 2cbd
00000110: ad5f 5a3d 0dc6 613d 3532 703a e984 88bd
00000120: 7352 31bd 405f 5a3d 74f7 dbb9 15d9 9b3d
00000130: 0408 ae3d 4e25 1e3c b35a 75bd e28a a3bc
00000140: d7ca 85bc d4e9 7c3d b30b 733a 5abc 87ba
00000150: c511 5538 233e abbd 2ce9 7cbd 88f9 92bd
00000160: 3f54 8b3d 1eb1 9abd 3e6c 7e39 ce0f 84bc
00000170: 667c 373c 427a c43c 697d 343d 0842 443d
00000180: d9be a7bb 1e84 1dbd 402f 3ebd 865d 48bd
00000190: e871 1d3c 552c 0cbc 6d0c 603c 09df 903d
000001a0: 61d9 363d 9751 be3b 3190 84bd 4408 1ebd
000001b0: 54aa 773d 7b08 763d 6d03 4ebd e900 6bba
000001c0: d350 88bc 9a4e 603d 4269 b6bc 469f 853d
000001d0: fa73 87bb fde5 a23d 294f c03c f5a0 2cbc
000001e0: 918e eebc b602 7abd bccc 9cbd d886 94bd
000001f0: f03b 87bc 4dfd 493d 1daf f53b 53ca 3b3d
00000200: 5e7c a83d 9b02 a5bb d22d c1bc 8725 bb3d
00000210: 278f b53c 8c4e 14b9 2b58 9c3d 42c6 84bc
00000220: ad7d ab3c 0968 7cbc 764b 3b3d 3cc3 7b3d
00000230: 7506 503d 2cd3 01bd 605f e8bc 7eb0 14bd
00000240: 6c8d 7e3d ca1a b93d da9a 5d3d 3177 2c3d
00000250: d914 153d 5a43 083a 7303 4a3d f846 2bbd
00000260: 0ae8 2e38 ee53 debb e2f7 a13d 2860 9abc
00000270: 3533 0d3d 4541 aa3c b78a 873d 0b1a d5bc
00000280: 8a55 8f3d f0e8 9dbd 188f e13c 140b b6bc
00000290: 151c b23c bfa7 29bc 9ab9 6a3d ad99 4fbd
000002a0: c63b afbc a42c 09bd d633 a9ba 0328 893d
000002b0: f3e5 17b7 ccfe 3bbd fa6a 1d3a 8551 8b3d
000002c0: ebb1 82bd e9af 823c 2867 823d dd17 3cbd
000002d0: 2d01 553d 43ea b53c 3186 b03c d1d5 9bbc
000002e0: 35f5 a2bc 0ee9 e53a 7c13 e93c 1585 773d
000002f0: 28b1 0fbc cd8c 30bc 1ebd a2bb 2572 6d3d
00000300: 80cf 3abd 749a 193b 54a7 5e3d cc92 33bc
00000310: 886d 263c de99 75bd 3b4d 9cbc 58c9 89bc
00000320: e819 323d a28f 95bd 9f3d 9cbb 0dea 7bbd
00000330: bdcc 3cbd f6cb 993c 2c6a 473d 9212 95bb
00000340: a650 6b3b a553 8a3c 221a a9bb 6c93 febc
00000350: d142 a53c c1f2 03bd a63c ae3d 0f8e 50bb
00000360: 6681 8ebc ad6a c83c 7521 ee3c 12a8 eb39
00000370: 2297 4f3c 6426 8abc 3b78 c9ba 6894 593d
00000380: 0e17 43bd 7f56 cb3c 3b7a 21bb 8029 733d
00000390: fe8c cabb faf3 f33c 7dfd babb 1923 56bd
000003a0: 0d49 1ebc 545d 7dba 3240 c6bc 9224 753d
000003b0: 964c 8c3c d267 853b b79e 253d 1121 efbc
000003c0: 758b 8cbb 2c5f a33c 2929 6ebb 996c a73d
000003d0: 9195 85bd 94bd b53c bff8 ce3b cbe7 e8b9
000003e0: dc5f 97bd e5ff 14bd 8f16 69bd 70c3 b93d
000003f0: b457 85ba 867f 903d ae19 bc3d 7679 f5bc

encoder.mlp.4.bias f4 [256]
0.045479886 -0.0692822 -0.06997605 0.03902557 0.017171245 -0.03512658 0.05223957 0.04909131
0.007111747 0.02222219 -0.04236147 -0.043953236 0.021153241 -0.06506201 -0.017619489 0.00072612223
-0.036429055 0.015124426 0.07392822 0.036260646 0.017068986 -0.009740337 -0.0026677712 0.045798812
0.0093921935 -0.028550174 -0.0008388352 -0.0679176 0.023308944 -0.07188822 0.077201635 -0.0026202165
0.03980945 -0.062143724 -0.006223463 -0.06695102 0.07991969 -0.013265145 0.0051104454 -0.041478783
0.0006279498 -0.013882936 -0.055281233 -0.01837179 0.0126914345 0.05142193 -0.01341302 0.06798184
-0.04767501 -0.024344422 -7.8265395e-05 -0.06946732 -0.040378287 0.055354126 -0.073056675 0.082539745
0.011255704 -0.03132214 0.049459293 -0.072130546 0.03293263 -0.06904512 -0.06437844 0.0781529
-0.024025487 -0.09260612 0.036494438 -0.045891102 -0.059253495 -0.053053077 0.08334783 -0.041033726
-0.05779713 0.018462598 -0.027945047 -0.002223297 -0.00018099014 -0.07722007 -0.03576658 -0.058721114
-0.03321357 -0.0054812185 -0.07475024 -0.0010327665 0.06530895 -0.062383138 -0.012010777 -0.00945259
-0.05010953 -0.07347105 0.024421005 -0.029020816 -0.023465462 7.489107e-05 -0.028290717 -0.07835463
-0.020775434 -0.07630834 0.062493198 0.09331053 0.0011807805 0.080750585 0.0005735159 0.0004559872
0.0663294 0.044840816 -0.040947314 -0.031157324 0.032607563 -0.012093765 -0.031862214 -0.07799429
-0.055766713 0.05619269 0.07112522 0.030386193 0.0375556 0.0491673 0.00064721354 0.07767552
0.023210434 -0.009259911 0.07946691 0.05122425 -3.54282e-05 -0.048606288 0.00088517484 -0.0027970371
-0.028234625 0.046678167 -0.028856767 -0.025430636 -0.0072095883 0.053980634 -0.058693845 -0.06314613
0.060233727 0.068663195 -0.083701976 -0.03986832 -0.00033424245 -0.0002536238 0.06483995 -0.022176135
0.05094479 0.09426334 -0.06019623 -0.089053325 -0.011261879 0.0024157078 0.061832964 -0.009901092
-0.008683128 0.010865007 0.0184205 0.021180823 -0.021536011 -0.0031318306 0.014223902 -0.046482034
-0.005689031 -0.050014082 0.058006167 -0.0008914988 -0.005660528 0.0009346829 0.03702991 0.036949597
-0.055186924 0.07321884 -0.0033746525 0.046332642 0.010121443 -0.065293215 0.01906229 -0.0061324947
0.087534055 -0.0068138638 -0.05535422 -0.038768914 -0.008646958 -0.0021579314 -0.08368386 0.04182547
0.08598735 -2.4776566e-05 -0.0014356764 0.06681805 0.039213717 -0.07750663 -0.014535068 0.07221089
-2.984105e-05 0.086208545 -0.024582097 -0.037619635 -0.03616851 -0.05533115 0.0261516 0.057002433
-0.0017890799 -0.024440592 -0.028236294 -0.023411458 -0.034690533 -0.03376587 0.062482085 -0.06946823
-0.00078652106 0.0066214963 -0.037281897 0.016219571 -0.00041645783 0.0744721 -0.034634992 -0.00851903
0.08175001 0.020110216 0.039369106 -0.01709653 0.022139069 0.015513589 0.042544078 0.05151773
-0.04811872 0.062155087 0.048024915 0.025695346 -0.044654734 0.00152561 0.0580882 0.015360636
0.019760923 -0.043511897 0.082222894 0.039950848 0.022135768 0.071094565 -0.034044318 0.010766938
0.06557484 -0.025463203 -0.083319575 -0.014361467 -0.014181074 0.029257722 0.024330745 0.032825816
0.03814935 -0.0329156 -0.018865585 -0.073254965 0.01550474 0.094627924 -0.042802036 -0.029548228
00000000: 1e49 3a3d d3e3 8dbd 9a4f 8fbd 47d9 1f3d
00000010: b6aa 8c3c e4e0 0fbd 29f9 553d f813 493d
00000020: a809 e93b 4f0b b63c 3983 2dbd 4f08 34bd
00000030: 9049 ad3c 3b3f 85bd bf56 90bc 3d59 3e3a
00000040: a236 15bd 71cc 773c ae67 973d 0b86 143d
00000050: 42d4 8b3c ef95 1fbc c6d5 2ebb 8997 3b3d
00000060: b7e1 193c 0ee2 e9bc 47e5 5bba 6218 8bbd
00000070: 66f2 be3c 223a 93bd e41b 9e3d f0b7 2bbb
00000080: 3c0f 233d 6b8a 7ebd 31ee cbbb 9e1d 89bd
00000090: efac a33d 0d56 59bc 8675 a73b a8e5 29bd
000000a0: ff9c 243a 4175 63bc 936e 62bd 7080 96bc
000000b0: bcef 4f3c cd9f 523d 49c2 5bbc 103a 8b3d
000000c0: df46 43bd f46d c7bc 6a22 a4b8 e244 8ebd
000000d0: b463 25bd 02bb 623d bd9e 95bd 990a a93d
000000e0: d869 383c a54b 00bd d495 4a3d 2eb9 93bd
000000f0: 5ee4 063d 8767 8dbd d8d8 83bd a10e a03d
00000100: 19d1 c4bc 47a8 bdbd 317b 153d 4ff8 3bbd
00000110: cbb3 72bd 2f4e 59bd 44b2 aa3d fb12 28bd
00000120: afbc 6cbd e03e 973c 03ed e4bc bcb4 11bb
00000130: 2cc8 3db9 8e25 9ebd fa7f 12bd 8d85 70bd
00000140: f40a 08bd cb9b b3bb a716 99bd e55d 87ba
00000150: b3c0 853d 7685 7fbd dac8 44bc 09df 1abc
00000160: a73f 4dbd fd77 96bd 8f0e c83c 10bd edbc
00000170: a43a c0bc d60e 9d38 efc1 e7bc 6478 a0bd
00000180: 3e31 aabc 8c47 9cbd def8 7f3d 9719 bf3d
00000190: 6bc4 9a3a 9060 a53d 0058 163a 9111 ef39
000001a0: b5d7 873d 01ab 373d 5fb8 27bd a53d ffbc
000001b0: 828f 053d ed24 46bc f481 02bd 78bb 9fbd
000001c0: a36b 64bd 4e2a 663d 19aa 913d 77ec f83c
000001d0: e7d3 193d a763 493d c4a9 293a 5814 9f3d
000001e0: cf23 be3c e2b6 17bc 8cbf a23d 85d0 513d
000001f0: bd98 14b8 6317 47bd 140b 683a 7f4e 37bb
00000200: 4d4c e7bc 9b31 3f3d 0765 ecbc e953 d0bc
00000210: 693e ecbb cc1a 5d3d f568 70bd c252 81bd
00000220: a4b7 763d 4a9f 8c3d f16b abbd f74c 23bd
00000230: 433d afb9 cff8 84b9 cfca 843d baaa b5bc
00000240: 7cab 503d 230d c13d 5290 76bd 9761 b6bd
00000250: be83 38bc da50 1e3b 9044 7d3d 3138 22bc
00000260: ae43 0ebc 2403 323c 97e6 963c 6883 ad3c
00000270: 4a6c b0bc 663f 4dbb 5e0b 693c f263 3ebd
00000280: 0d6b babb 91db 4cbd e097 6d3d 79b3 69ba
00000290: f37b b9bb 8205 753a adac 173d 7658 173d
000002a0: af0b 62bd c2f3 953d 4629 5dbb 4cc7 3d3d
000002b0: 69d4 253c 73b8 85bd 8528 9c3c 18f3 c8bb
000002c0: 0e45 b33d d546 dfbb 1bbb 62bd 27cc 1ebd
000002d0: f8ab 0dbc 156c 0dbb 7262 abbd 2f51 2b3d
000002e0: 231a b03d 45d7 cfb7 4e2d bcba e7d7 883d
000002f0: 909e 203d ccbb 9ebd 7e24 6ebc 4ee3 933d
00000300: 2b53 fab7 1b8e b03d 6560 c9bc 0c17 1abd
00000310: 6e25 14bd eaa2 62bd e13b d63c 627b 693d
00000320: 8f7f eaba a337 c8bc cd4f e7bc 63c9 bfbc
00000330: a917 0ebd 154e 0abd 37ed 7f3d 5c45 8ebd
00000340: 892e 4eba 23f9 d83b e7b4 18bd e8de 843c
00000350: 0658 dab9 d484 983d 6cdd 0dbd 6793 0bbc
00000360: 8d6c a73d 2ebe a43c 8041 213d 060e 8cbc
00000370: fe5c b53c b52c 7e3c b342 2e3d 4104 533d
00000380: 2318 45bd 5596 7e3d c6b5 443d 0c7f d23c
00000390: e2e7 36bd faf6 c73a e4ed 6d3d 2dab 7b3c
000003a0: a9e1 a13c 8839 32bd 7a64 a83d 80a3 233d
000003b0: 1256 b53c 079a 913d 0e72 0bbd d067 303c
000003c0: 1a4c 863d 3598 d0bc 74a3 aabd 5c4c 6bbc
000003d0: bc57 68bc e4ad ef3c 4551 c73c 5d74 063d
000003e0: 7e42 1c3d 82d2 06bd 008c 9abc b306 96bd
000003f0: 9807 7e3c 49cc c13d 3051 2fbd 200f f2bc

pos_mlp.0.weight f4 [32, 1]
0.2149357 -0.7685156 0.14554825 0.35133058 0.45041883 -0.026460227 0.55816 0.760126
0.051288415 -0.18952055 -0.23678507 -0.6479451 0.86461157 0.881316 0.43478352 -0.31369448
0.78812414 0.38995317 0.113907866 0.36632502 -0.01701287 0.46238524 0.20616771 0.008956193
-0.870811 0.3373661 0.81449443 -0.7738401 -0.8788537 -0.7058598 -0.4048393 -0.3824528
00000000: 1b18 5c3e 70bd 44bf 9a0a 153e 9ae1 b33e
00000010: 4c9d e63e 1ec3 d8bc 93e3 0e3f 9e97 423f
00000020: cd13 523d ad11 42be c977 72be bbdf 25bf
00000030: 2f57 5d3f ed9d 613f f29b de3e 909c a0be
00000040: 81c2 493f f1a7 c73e 8748 e93d f48e bb3e
00000050: 935e 8bbc c2bd ec3e a11d 533e ffbc 123c
00000060: 78ed 5ebf 40bb ac3e b582 503f 631a 46bf
00000070: 8efc 60bf 3ab3 34bf 1947 cfbe dad0 c3be

pos_mlp.0.bias f4 [32]
-0.86336225 -0.16430858 -0.0023157313 0.95862067 0.6337902 -0.8564093 -0.3917272 0.34011066
-0.10306019 -0.1908384 -0.79078513 -0.8885822 -0.8787847 -0.6064809 0.04452995 -0.7845399
-0.23386222 -0.68184227 -0.20586781 0.64663976 -0.63197845 -0.8671918 0.009587739 -0.40159
-0.5774543 -0.9169293 0.83190835 -0.5789581 0.87264407 -0.92084837 0.51846087 -0.7715952
00000000: 4f05 5dbf 8240 28be 86c3 17bb 2a68 753f
00000010: 1340 223f a43d 5bbf 7890 c8be fc22 ae3e
00000020: 3911 d3bd 246b 43be e570 4abf 207a 63bf
00000030: 09f8 60bf 5542 1bbf 0965 363d 9bd7 48bf
00000040: 9479 6fbe 378d 2ebf 03cf 52be 2f8a 253f
00000050: 57c9 21bf 4800 5ebf e415 1d3c 349d cdbe
00000060: 0cd4 13bf e1bb 6abf f2f7 543f 9936 14bf
00000070: 9a65 5f3f b8bc 6bbf dab9 043f 4387 45bf

pos_mlp.2.weight f4 [32, 32]
0.13313937 0.053886075 0.07709429 0.03747861 0.07175482 -0.026459016 6.259408e-05 0.043173455
0.056768216 -0.03265279 0.118112214 -0.11432889 -0.081254214 -0.011237202 0.0017143277 -0.056927066
-0.11167575 -0.021610092 0.00016302321 -0.13188277 -0.0008135807 0.0010099126 -0.0002803723 0.11746485
-0.014994483 0.0005521846 -0.131991 0.004525993 -0.062124774 0.0010074328 -0.12995912 0.010869549
0.024714923 -0.021608278 0.10091367 -0.00029083926 0.05740314 0.0365143 0.018791415 0.037081335
-0.00082485226 -0.07146126 -0.05298511 -0.04839034 -0.13166793 0.11746008 -0.029337896 -0.036863383
0.05446279 0.017403962 0.050081108 -0.028202388 0.0045644864 -0.0005735822 -0.0660683 0.05837667
0.091554314 -0.120277196 -0.12987283 -0.12269859 0.07656473 -0.12149953 -0.00046951845 -0.0643696
-0.09261566 0.017329093 0.08406413 -0.023570532 0.00027287556 -0.052887037 -0.087348625 -0.11226178
-0.00021685136 -0.04051568 -0.0414252 0.12514101 0.03667239 -0.08467199 0.12354202 -0.04690525
0.1329678 0.117374994 0.043189898 -0.075536 -0.1321825 -0.12829843 -0.1290274 -0.006625803
0.11742337 0.050441228 0.07110195 -0.00015201572 5.567424e-05 0.108778715 0.03255046 -0.03308412
0.0022946454 0.062185664 0.09084376 -0.05404854 0.07923412 -0.1060573 -0.032201022 -0.09755735
0.111808434 -0.02743075 -0.10165253 0.00013734259 -0.10336866 -0.018545682 0.15604351 -0.045438588
0.12978612 0.08540684 -0.017299939 0.005437924 0.050686833 0.035698455 0.05723945 0.0036477358
0.00032861522 0.0010340189 0.08317259 -0.08127588 -0.15237637 0.067497104 0.1445764 -0.035215642
0.13563104 -0.04462649 0.024967793 0.053253353 -0.08392097 0.09665678 -0.012584714 0.0882118
0.07076092 0.0059865946 0.082490504 0.09047038 -0.03298823 -0.13009708 0.058841877 -0.093376055
0.14233305 -0.10893878 -0.00033392312 0.14751333 0.017601578 0.000567101 -0.16556518 -0.0024563652
8.040659e-05 0.087149076 0.04590121 0.041861344 -0.15630801 0.06079391 0.10977974 0.122126736
-0.002766232 -0.00029901616 0.011100874 0.028678762 -0.09630235 -0.014744493 -0.08948457 -0.0017972271
-0.11266971 0.0009996322 -0.050867643 -0.05828509 0.10500484 0.09692951 -0.068257324 -0.13070552
0.014427448 -0.0010261411 -0.0233549 -0.061598912 -0.07431287 0.113111034 0.078112625 0.065233365
-0.047748704 0.09859722 0.17271939 -0.071677245 0.10870383 0.00029067716 -0.019935017 -4.8944272e-05
0.08391727 0.113911234 0.066196494 0.10812339 0.098331004 -0.02774028 0.100389905 0.071712516
-0.057399247 0.04994472 0.08241345 -0.107169025 -0.022419393 -0.1108545 0.06162298 -0.030947752
-0.14138375 0.041088652 0.047488637 -0.0076416377 -0.01619048 0.049290366 -0.021045847 -0.084699966
-0.0059334543 -0.11994131 0.031724844 0.00015469284 0.14097394 -0.024361897 0.1806276 -0.048745487
0.07100185 0.00026458479 0.10215323 0.13291416 0.03537602 0.13160676 0.13497496 0.033325016
-0.123419054 -0.11286605 -6.0333114e-05 0.022090917 0.00021780175 -0.097310096 0.017384551 0.06322407
-0.029294284 0.0010148487 0.046821244 -0.12414656 0.040701807 -0.098219685 -0.084797636 -0.12196945
0.025061231 -0.044359397 0.068940654 -0.0068589505 -0.0870312 0.011152375 -0.047770705 0.011368125
00000000: b055 083e a5b7 5c3d 9ce3 9d3d 2c83 193d
00000010: 31f4 923d 94c0 d8bc f144 8338 a6d6 303d
00000020: ca85 683d efbe 05bd d1e4 f13d 4425 eabd
00000030: 9c68 a6bd 3e1c 38bc 4bb3 e03a 5b2c 69bd
00000040: 41b6 e4bd a607 b1bc 36f1 2a39 470c 07be
00000050: 7a46 55ba 0b5f 843a effe 92b9 6991 f03d
00000060: 6cab 75bc 7bc0 103a a628 07be c84e 943b
00000070: 8c76 7ebd d60b 843a 0114 05be 3116 323c
00000080: f376 ca3c d803 b1bc d4ab ce3d c97b 98b9
00000090: 8e1f 6b3d 0590 153d 74f0 993c 99e2 173d
000000a0: e63a 58ba 485a 92bd ea06 59bd f334 46bd
000000b0: f5d3 06be e98e f03d 0756 f0bc 0ffe 16bd
000000c0: 6014 5f3d c192 8e3c d921 4d3d b208 e7bc
000000d0: b091 953b 735c 16ba d14e 87bd 601c 6f3d
000000e0: d480 bb3d e453 f6bd 62fd 04be 6649 fbbd
000000f0: f8cd 9c3d bfd4 f8bd b329 f6b9 35d4 83bd
00000100: 47ad bdbd bef5 8d3c d129 ac3d fd16 c1bc
00000110: bd10 8f39 14a0 58bd d6e3 b2bd 81e9 e5bd
00000120: 9862 63b9 c5f3 25bd 78ad 29bd f724 003e
00000130: ca35 163d 8268 adbd 9903 fd3d b81f 40bd
00000140: b628 083e 4d62 f03d e4e7 303d 9eb2 9abd
00000150: d95a 07be aa60 03be c21f 04be 441d d9bb
00000160: aa7b f03d 769b 4e3d e69d 913d 6966 1fb9
00000170: c383 6938 60c7 de3d a253 053d 3783 07bd
00000180: c361 163b 65b6 7e3d 4b0c ba3d 0062 5dbd
00000190: 8045 a23d 9234 d9bd 38e5 03bd 26cc c7bd
000001a0: d2fb e43d 74b6 e0bc 342f d0bd 9f03 1039
000001b0: f3b2 d3bd 1ded 97bc dfc9 1f3e d01d 3abd
000001c0: a7e6 043e c8e9 ae3d 9ab8 8dbc 9d30 b23b
000001d0: ff9c 4f3d 8b38 123d ea73 6a3d da0e 6f3b
000001e0: fd49 ac39 eb87 873a 6456 aa3d f873 a6bd
000001f0: 8d08 1cbe ec3b 8a3d d60b 143e 473e 10bd
00000200: dde2 0a3e 44ca 36bd 4289 cc3c 3020 5a3d
00000210: c2de abbd fdf3 c53d 1e30 4ebc 63a8 b43d
00000220: 1aeb 903d 322b c43b c8f0 a83d 8948 b93d
00000230: ab1e 07bd 2b38 05be 2e04 713d f23b bfbd
00000240: c1bf 113e 4c1b dfbd 6712 afb9 bc0d 173e
00000250: 2f31 903c 81a9 143a eb89 29be f8fa 20bb
00000260: f69f a838 377b b23d e802 3c3d cd76 2b3d
00000270: 350f 20be 0903 793d 33d4 e03d 951d fa3d
00000280: ac49 35bb 45c5 9cb9 71e0 353c b9ef ea3c
00000290: 2b3a c5bd e392 71bc b043 b7bd ef90 ebba
000002a0: 60bf e6bd 1706 833a 975a 50bd 59bc 6ebd
000002b0: c70c d73d fb82 c63d 7fca 8bbd abd7 05be
000002c0: 1a61 6c3c 957f 86ba c652 bfbc 244f 7cbd
000002d0: 5931 98bd c2a6 e73d 83f9 9f3d 1299 853d
000002e0: 2594 43bd 57ed c93d 5add 303e 85cb 92bd
000002f0: 1da0 de3d 0766 9839 c34e a3bc 8349 4db8
00000300: d1dc ab3d 4b4a e93d 0792 873d cc6f dd3d
00000310: c461 c93d 953f e3bc 3999 cd3d 03de 923d
00000320: 791b 6bbd d692 4c3d 62c8 a83d 6f7b dbbd
00000330: e0a8 b7bc af07 e3bd 6168 7c3d 2486 fdbc
00000340: e7c6 10be 934c 283d 7283 423d b466 fabb
00000350: e6a1 84bc b2e4 493d 5768 acbc 2d77 adbd
00000360: 6c6d c2bb caa3 f5bd e9f1 013d 0b35 2239
00000370: 795b 103e 9a92 c7bc 71f6 383e 59a9 47bd
00000380: 6b69 913d f8b7 8a39 b635 d13d a61a 083e
00000390: 72e6 103d ecc3 063e e036 0a3e d07f 083d
000003a0: 21c3 fcbd 5126 e7bd 300e 7db8 03f8 b43c
000003b0: b661 6439 844a c7bd 0c6a 8e3c 9f7b 813d
000003c0: 91fa efbc ac04 853a a2c7 3f3d 8d40 febd
000003d0: f0b6 263d 6727 c9bd 62aa adbd 1ecb f9bd
000003e0: 364d cd3c 33b2 35bd c230 8d3d 0cc1 e0bb
000003f0: 6a3d b2bd 73b8 363c 37ab 43bd 5f41 3a3c

pos_mlp.2.bias f4 [32]
0.0001805746 7.292332e-05 7.118559e-05 -0.03279018 -0.12857023 0.018000675 -0.16368094 0.06807327
0.12781401 -0.011429706 0.09996406 0.04723294 -0.10419881 0.052077457 0.032613136 0.13428824
0.028399743 -0.103447996 0.05503485 0.06354874 -0.08152865 0.12995408 0.024815856 0.040614177
-0.0012025 0.1383947 -0.12618719 -0.0006072225 0.112444036 -0.16535953 0.016982902 -0.099230744
00000000: a058 3d39 69ee 9838 7949 9538 ff4e 06bd
00000010: eaa7 03be 2776 933c fa9b 27be 006a 8b3d
00000020: ade1 023e a943 3bbc f5b9 cc3d 5477 413d
00000030: 3066 d5bd 2c4f 553d 5a95 053d db82 093e
00000040: 94a6 e83c 8bdc d3bd 396c 613d d825 823d
00000050: 7ef8 a6bd af12 053e 9f4a cb3c 0d5b 263d
00000060: 349d 9dba 57b7 0d3e 3737 01be 032e 1fba
00000070: 0f49 e63d 0254 29be ba1f 8b3c 7d39 cbbd

dec_trunk.0.weight f4 [128, 288]
0.0023723424 0.037276372 -0.032021217 -0.0063725244 -0.04703549 0.0010352771 0.029550286 -0.048854474
0.029770242 -0.0096499575 0.008744939 -0.035420597 -0.03550341 0.039152965 -0.00098489 -0.020058561
-0.0356099 0.045301776 -0.030850925 0.03542257 -0.043603566 0.0016854706 -0.019101804 0.0036496944
0.0033239094 0.025411852 -0.019648077 -0.013883235 -0.019252377 0.0456075 -0.042290118 0.050180905
-0.048601788 0.032005776 0.05344035 0.015957575 0.024421344 -0.024775326 -0.023119416 -0.007239802
-5.4407592e-05 0.0084756445 -0.04683308 0.0003977756 0.0011590337 0.0574903 -0.04238079 0.037589516
-0.056702368 -0.0010401994 -0.0037207238 -0.055601243 0.0044764224 -0.012211777 -0.020906517 -0.034428846
0.014293257 0.03480797 0.020927178 0.0052574263 0.007904214 -0.024322292 0.034980595 0.020738328
-0.051162608 -0.016218554 0.045777004 0.018424131 0.008438923 -0.01613505 0.021601558 -0.038272962
0.036356874 -0.02833443 0.015711334 -0.025212185 -0.00051465165 -0.054465443 -0.02680002 0.02188184
0.024444666 0.015227765 0.05580266 -8.39512e-05 0.041915298 0.036022257 0.033650436 -0.008043589
0.013339389 0.052377127 0.009527604 -0.04243303 0.05159089 0.0002830446 0.010675262 -0.014794999
0.000117106494 0.017646618 0.013695369 0.02593005 0.033418164 -0.05463073 -0.004523103 -0.007943093
0.053796776 0.025908962 -0.021552078 0.0006249125 -0.011909573 0.012282786 0.032346025 -0.0029792245
0.032273207 -0.023116048 0.0459121 -0.038999643 -0.0063482504 -0.03663996 0.011197573 0.0069955955
0.003059559 0.006208695 -0.029069617 0.04172613 -0.00015416589 0.0012828293 2.1579957e-05 -0.043594833
-0.013496742 0.045057982 0.015097541 0.054798383 0.016734334 0.050336283 0.033512957 -0.0017450878
-0.053799722 -0.036956962 -0.03415562 0.022214666 0.0050714966 0.009929644 -0.002433697 -0.03747264
0.017653566 -0.049003597 -0.056779508 -0.036706194 0.01453852 -0.049085997 0.0055610994 0.034853682
-0.009781666 0.022535179 0.022210864 0.00052092486 -0.022774866 -0.01667631 0.055894222 -0.007575922
-0.04019746 0.031941462 0.041601 -0.0006957497 0.04503896 -0.045558587 -0.015011991 0.007276511
0.020798849 -0.028516324 -0.011377395 0.00061311194 0.04517569 0.04518123 0.02386451 -0.050032824
0.03276143 0.014087962 0.05230065 -2.0851729e-05 0.028444398 0.005662981 -0.021523863 -0.00015394064
0.0017510282 0.00888865 0.0011158002 0.058496233 -0.0043356335 -0.015802257 -0.049710624 -0.032623373
0.0021343005 0.057289567 -0.04760247 -0.0028172687 0.021664457 0.03768488 0.015742263 0.03259268
0.020529412 0.03117764 0.053240325 0.026519028 -0.05957463 0.05734642 0.003844667 -0.01909582
-0.019888686 -0.050426792 -0.013616159 0.013314494 -0.00012557911 0.04355382 -0.00050534063 0.03842261
-0.031508856 0.042323142 0.027076703 0.037065595 0.019847449 0.015397587 -0.014844355 0.031266175
0.023002831 0.004380353 -0.0023476777 0.02282498 -0.055385973 -0.002669605 -0.013433803 -0.04915527
-0.005465435 0.008060112 0.0017997745 -0.0031945768 -0.0009339627 -0.047499437 0.023811866 0.049410116
0.050998032 0.016413223 0.022544986 -3.126414e-05 0.0017460043 -0.058454234 -0.049974278 0.042347062
-0.005489631 0.03673116 -0.009953816 -0.0547053 0.024387095 0.016317667 -0.016212853 -0.056026977
00000000: 4d79 1b3b 1caf 183d ae28 03bd 9cd0 d0bb
00000010: 49a8 40bd 23b2 873a 7113 f23c a11b 48bd
00000020: b9e0 f33c db1a 1ebc ef46 0f3c 3015 11bd
00000030: 066c 11bd dc5e 203d 6d17 81ba da51 a4bc
00000040: b0db 11bd 5b8e 393d 14bb fcbc 4217 113d
00000050: a799 32bd 02eb dc3a 637b 9cbc b62f 6f3b
00000060: f2d5 593b 842c d03c 01f5 a0bc 8276 63bc
00000070: 29b7 9dbc eece 3a3d 6738 2dbd 7e8a 4d3d
00000080: ab12 47bd 7d18 033d 45e4 5a3d 76b9 823c
00000090: 450f c83c a0f5 cabc ee64 bdbc dc3b edbb
000000a0: b533 64b8 6edd 0a3c 0bd4 3fbd 8a8c d039
000000b0: b8ea 973a f37a 6b3d 7b97 2dbd 77f7 193d
000000c0: be40 68bd 4d57 88ba 63d7 73bb 21be 63bd
000000d0: f4ae 923b e813 48bc 2544 abbc 4305 0dbd
000000e0: 442e 6a3c cd92 0e3d 796f ab3c 7d46 ac3b
000000f0: ad80 013c 8b3f c7bc d047 0f3d 6de3 a93c
00000100: e28f 51bd c6dc 84bc ab80 3b3d 34ee 963c
00000110: 6943 0a3c a72d 84bc c0f5 b03c 1cc4 1cbd
00000120: f2ea 143d 9b1d e8bc 0eb5 803c c989 cebc
00000130: b0e9 06ba 2817 5fbd b78b dbbc 8b41 b33c
00000140: 2e40 c83c e07d 793c 5491 643d f50e b0b8
00000150: 60af 2b3d 138c 133d 0ad5 093d 42c9 03bc
00000160: 748d 5a3c 6689 563d ab19 1c3c 42ce 2dbd
00000170: f850 533d 9a65 9439 4be7 2e3c b966 72bc
00000180: 1297 f538 a48f 903c 8a62 603c 426b d43c
00000190: 7ce1 083d 79c4 5fbd 8a36 94bb bf23 02bc
000001a0: 025a 5c3d 083f d43c fc8d b0bc 2bd1 233a
000001b0: 5f20 43bc bd3d 493c 447d 043d 183f 43bb
000001c0: e930 043d de5d bdbc 530e 3c3d 17be 1fbd
000001d0: fc04 d0bb c813 16bd 0676 373c 4f3b e53b
000001e0: e282 483b 4f72 cb3b 6823 eebc 05e9 2a3d
000001f0: 97a7 21b9 9c24 a83a 9b06 b537 7f90 32bd
00000200: 7021 5dbc b88e 383d ad5b 773c 4574 603d
00000210: 7116 893c 6b2d 4e3d e244 093d 6ebb e4ba
00000220: 195d 5cbd 2f60 17bd c3e6 0bbd 88fb b53c
00000230: cc2e a63b f2af 223c a97e 1fbb e97c 19bd
00000240: 369e 903c ffb7 48bd a191 68bd 3c59 16bd
00000250: f932 6e3c 660e 49bd e239 b63b bcc2 0e3d
00000260: 4843 20bc b29b b83c 8ff3 b53c ad8e 083a
00000270: 5b92 babc c29c 88bc 57f1 643d 713f f8bb
00000280: 18a6 24bd 0dd5 023d cf65 2a3d f962 36ba
00000290: c67a 383d a49b 3abd dbf4 75bc cc6f ee3b
000002a0: 5962 aa3c 119b e9bc 4168 3abc 3fb9 203a
000002b0: 250a 393d f40f 393d 817f c33c 38ef 4cbd
000002c0: d930 063d 32d1 663c 3539 563d bfea aeb7
000002d0: 3a04 e93c 8790 b93b d052 b0bc 206b 21b9
000002e0: c282 e53a b3a1 113c 0b40 923a bf99 6f3d
000002f0: ee11 8ebb bc73 81bc 5e9d 4bbd 16a0 05bd
00000300: 9fdf 0b3b 77a8 6a3d cffa 42bd eda1 38bb
00000310: a979 b13c 765b 1a3d ebf5 803c e77f 053d
00000320: 4c2d a83c 4068 ff3c 8712 5a3d 6f3e d93c
00000330: 8704 74bd 14e4 6a3d cff6 7b3b d66e 9cbc
00000340: 99ed a2bc 538c 4ebd 4f16 5fbc 0925 5a3c
00000350: e3ad 03b9 7e65 323d d678 04ba 0761 1d3d
00000360: 6e0f 01bd 085b 2d3d f6cf dd3c 18d2 173d
00000370: 1e97 a23c 2946 7c3c bd35 73bc f610 003d
00000380: 6f70 bc3c 1089 8f3b 7fdb 19bb 74fb ba3c
00000390: 67dc 62bd 8af4 2ebb 7419 5cbc 0957 49bd
000003a0: 6417 b3bb 8f0e 043c 69e6 eb3a 1b5c 51bb
000003b0: 2dd5 74ba c58e 42bd 1a11 c33c 4362 4a3d
000003c0: 50e3 503d 0675 863c 43b0 b83c 9d21 03b8
000003d0: 2fda e43a b56d 6fbd d4b1 4cbd 1d74 2d3d
000003e0: 5de2 b3bb 6a73 163d 5515 23bc aa12 60bd
000003f0: 72c7 c73c a1ac 853c d1d0 84bc 8b7c 65bd

dec_trunk.0.bias f4 [128]
-0.035482068 0.01689837 -0.042742908 0.00024478714 0.037670273 -0.008261063 -0.04154764 -0.0024157905
0.049975555 -0.018151267 -0.029748004 0.0058732093 0.0418466 0.017470373 -0.00049779244 -0.010117135
0.019022763 0.0047345953 -0.004059655 -0.0029842032 0.009246864 0.018604672 -0.05106065 -0.014688077
0.013538052 0.008816559 -0.017388538 -0.03464755 -0.0036947208 -0.006119186 -0.050039396 -0.018024158
0.0006382738 0.06928353 -0.011398458 0.06666095 -0.021993048 -0.043929234 0.014727511 0.034980163
0.020270223 0.031804 0.0003868877 0.024649074 -0.011588854 0.052884266 -0.0009993641 0.016281221
0.018395692 -0.031092914 0.040025406 0.016314544 0.03746437 0.00041663562 -0.00020265805 0.03164986
0.015846927 -0.040947907 0.029450884 0.0056513795 0.0050065177 0.021443484 -0.010627679 0.00015497938
0.04510342 0.0034753233 0.053255197 0.020296048 0.0030095768 -0.005972497 0.0001557917 0.018421678
0.05262336 -0.009202143 -0.0229624 -0.031622022 -0.056442473 0.04033751 0.020403564 0.031877216
0.01619756 -0.03816489 0.019020963 -0.019582134 -0.05021706 0.0035984968 0.023207415 0.051231552
0.015930574 -0.052935433 0.00059922616 -0.03424906 0.054729003 0.01692075 0.037737984 0.011682374
-0.007477224 -0.019848665 0.0015300245 -0.00506918 -0.0048862393 0.01940609 -0.00017815668 -0.027356941
-0.047619056 -0.025113955 -0.009310437 0.007894836 0.04862305 -0.009084651 -7.659584e-05 -0.055414226
0.041069034 -0.0097582 -3.333246e-06 -0.0006486006 0.02425671 -0.052667655 0.00086576387 0.046202123
-0.03520629 -0.015862392 0.05055456 0.00081358047 0.040153112 0.014582673 0.00049245404 0.018763715
00000000: a555 11bd 736e 8a3c 3013 2fbd c656 8039
00000010: 254c 1a3d 6959 07bc dc2d 2abd 3d52 1ebb
00000020: 2bb3 4c3d f7b1 94bc 16b2 f3bc 0d74 c03b
00000030: 5767 2b3d 071e 8f3c 497e 02ba 57c2 25bc
00000040: a0d5 9b3c aa24 9b3b db06 85bb 9f92 43bb
00000050: 2980 173c d368 983c f924 51bd 43a6 70bc
00000060: b5ce 5d3c 5473 103c 6872 8ebc 97ea 0dbd
00000070: 2123 72bb 7483 c8bb 1cf6 4cbd 66a7 93bc
00000080: d451 273a 86e4 8d3d 99c0 3abc 8985 883d
00000090: c42a b4bc 24ef 33bd a94b 713c 5c47 0f3d
000000a0: bd0d a63c e944 023d 30d7 ca39 dbec c93c
000000b0: 2ddf 3dbc 2c9d 583d 18fd 82ba 3260 853c
000000c0: 90b2 963c 91b6 febc aef1 233d 14a6 853c
000000d0: 3d74 193d e36f da39 9b80 54b9 49a3 013d
000000e0: 6ad1 813c feb8 27bd fb42 f13c 352f b93b
000000f0: b70d a43b 3faa af3c b71f 2ebc f681 2239
00000100: 5dbe 383d 40c2 633b 1f22 5a3d e643 a63c
00000110: 523c 453b f0b4 c3bb 045c 2339 0fe9 963c
00000120: 988b 573d 96c4 16bc a51b bcbc 1886 01bd
00000130: 3930 67bd f238 253d 6025 a73c af91 023d
00000140: bfb0 843c ca52 1cbd dad1 9b3c b66a a0bc
00000150: 67b0 4dbd c2d4 6b3b 7a1d be3c 2dd8 513d
00000160: d680 823c d3d2 58bd 6315 1d3a be48 0cbd
00000170: 852b 603d 629d 8a3c 2593 1a3d 6e67 3f3c
00000180: 8003 f5bb ab99 a2bc 1a8b c83a 5d1b a6bb
00000190: bf1c a0bb 85f9 9e3c 92cf 3ab9 aa1b e0bc
000001a0: 330c 43bd c8bb cdbc ce8a 18bc 5859 013c
000001b0: f728 473d cad7 14bc 14a2 a0b8 07fa 62bd
000001c0: 0138 283d dbe0 1fbc bbb0 5fb6 d906 2aba
000001d0: 02b6 c63c 0aba 57bd 6ef4 623a 703e 3d3d
000001e0: 7934 10bd d9f1 81bc 4c12 4f3d 7646 553a
000001f0: 9777 243d 2aec 6e3c 0818 013a 5db6 993c
