pointnet/weights_per_bundle_ratio025/T_PREM_left_best.pth (torch, 359807 bytes, 17 tensors)

t_grid f4 [100]
0	0x00000000	0.0
1	0x3c257eb5	0.01010101
2	0x3ca57eb5	0.02020202
3	0x3cf83e10	0.030303031
4	0x3d257eb5	0.04040404
5	0x3d4ede62	0.05050505
6	0x3d783e10	0.060606062
7	0x3d90cede	0.07070707
8	0x3da57eb5	0.08080808
9	0x3dba2e8c	0.09090909
10	0x3dcede62	0.1010101
11	0x3de38e39	0.11111111
12	0x3df83e10	0.121212125
13	0x3e0676f3	0.13131313
14	0x3e10cede	0.14141414
15	0x3e1b26ca	0.15151516
16	0x3e257eb5	0.16161616
17	0x3e2fd6a0	0.17171717
18	0x3e3a2e8c	0.18181819
19	0x3e448677	0.1919192
20	0x3e4ede62	0.2020202
21	0x3e59364e	0.21212122
22	0x3e638e39	0.22222222
23	0x3e6de624	0.23232323
24	0x3e783e10	0.24242425
25	0x3e814afd	0.25252524
26	0x3e8676f3	0.26262626
27	0x3e8ba2e9	0.27272728
28	0x3e90cede	0.28282827
29	0x3e95fad4	0.2929293
30	0x3e9b26ca	0.3030303
31	0x3ea052bf	0.3131313
32	0x3ea57eb5	0.32323232
33	0x3eaaaaab	0.33333334
34	0x3eafd6a0	0.34343433
35	0x3eb50296	0.35353535
36	0x3eba2e8c	0.36363637
37	0x3ebf5a81	0.37373737
38	0x3ec48677	0.3838384
39	0x3ec9b26d	0.3939394
40	0x3ecede62	0.4040404
41	0x3ed40a58	0.41414142
42	0x3ed9364e	0.42424244
43	0x3ede6243	0.43434343
44	0x3ee38e39	0.44444445
45	0x3ee8ba2f	0.45454547
46	0x3eede624	0.46464646
47	0x3ef3121a	0.47474748
48	0x3ef83e10	0.4848485
49	0x3efd6a05	0.4949495
50	0x3f014afd	0.5050505
51	0x3f03e0f8	0.5151515
52	0x3f0676f3	0.5252525
53	0x3f090cee	0.53535354
54	0x3f0ba2e9	0.54545456
55	0x3f0e38e4	0.5555556
56	0x3f10cede	0.56565654
57	0x3f1364d9	0.57575756
58	0x3f15fad4	0.5858586
59	0x3f1890cf	0.5959596
60	0x3f1b26ca	0.6060606
61	0x3f1dbcc5	0.61616164
62	0x3f2052bf	0.6262626
63	0x3f22e8ba	0.6363636
64	0x3f257eb5	0.64646465
65	0x3f2814b0	0.65656567
66	0x3f2aaaab	0.6666667
67	0x3f2d40a6	0.6767677
68	0x3f2fd6a0	0.68686867
69	0x3f326c9b	0.6969697
70	0x3f350296	0.7070707
71	0x3f379891	0.7171717
72	0x3f3a2e8c	0.72727275
73	0x3f3cc486	0.7373737
74	0x3f3f5a81	0.74747473
75	0x3f41f07c	0.75757575
76	0x3f448677	0.7676768
77	0x3f471c72	0.7777778
78	0x3f49b26d	0.7878788
79	0x3f4c4867	0.7979798
80	0x3f4ede62	0.8080808
81	0x3f51745d	0.8181818
82	0x3f540a58	0.82828283
83	0x3f56a053	0.83838385
84	0x3f59364e	0.8484849
85	0x3f5bcc48	0.85858583
86	0x3f5e6243	0.86868685
87	0x3f60f83e	0.8787879
88	0x3f638e39	0.8888889
89	0x3f662434	0.8989899
90	0x3f68ba2f	0.90909094
91	0x3f6b5029	0.9191919
92	0x3f6de624	0.9292929
93	0x3f707c1f	0.93939394
94	0x3f73121a	0.94949496
95	0x3f75a815	0.959596
96	0x3f783e10	0.969697
97	0x3f7ad40a	0.97979796
98	0x3f7d6a05	0.989899
99	0x3f800000	1.0

encoder.mlp.0.weight f4 [64, 3]
0	0x3eb00f83	0.34386835
1	0x3d9425e8	0.072337925
2	0x3ecce5cc	0.4001907
3	0xbea785a2	-0.3271914
4	0xbe6903a3	-0.22755294
5	0x3e236e51	0.15960051
6	0x3ebf555e	0.37369817
7	0x3ec86d63	0.39145955
8	0x3d97fec8	0.074216425
9	0x3f002bc9	0.5006681
10	0xbe9836c5	-0.29729286
11	0xbea6b173	-0.32557258
12	0x3edf3e7b	0.43602356
13	0x3dee07c4	0.11622575
14	0x3ed2e19b	0.41187748
15	0xbf0b4527	-0.54402393
16	0x3ef4c214	0.4780432
17	0x3ed7f2d8	0.42177463
18	0x3e129b22	0.14316991
19	0xbce57f38	-0.028014764
20	0x3de19af6	0.110158846
21	0xbd15aa39	-0.03653929
22	0x3f007392	0.50176346
23	0x3d9666c6	0.07343821
24	0x39f0f912	0.0004596194
25	0xbeaa0550	-0.33207178
26	0x3ec93926	0.39301413
27	0xbe8b9930	-0.2726531
28	0x3ede9a03	0.43476877
29	0xbee16c32	-0.4402786
30	0xbf0ee070	-0.55811214
31	0x3e623d41	0.22093679
32	0xbe5f2f33	-0.21795349
33	0x3a4d5422	0.0007832666
34	0x9393158c	-3.7129264e-27
35	0x2a7154aa	2.1434474e-13
36	0xbe87b6c1	-0.26506618
37	0xbf03696d	-0.5133274
38	0x3d279b58	0.04091963
39	0xbcc92db3	-0.024557924
40	0x3e845ad2	0.2585054
41	0xbeec72f5	-0.46181455
42	0xbe9295d1	-0.28629926
43	0x3f167df4	0.5878594
44	0x3d2836c7	0.041067865
45	0xbe9b5f08	-0.3034594
46	0x3ee646ed	0.44975987
47	0xbe82c179	-0.25538233
48	0x3bdab080	0.0066738725
49	0x3dcd86d2	0.100354806
50	0xbea5c412	-0.32376152
51	0x3f111ed3	0.5668766
52	0x3edf7c2c	0.43649423
53	0x3eb919fb	0.36152634
54	0xbe8992b1	-0.2686973
55	0x3e90015c	0.28126037
56	0x3ee30355	0.4433848
57	0x3ef34172	0.47510868
58	0xbee50564	-0.44730675
59	0x3e9ab5cd	0.30216828
60	0x3e66d1f5	0.2254103
61	0x3f0a830d	0.5410622
62	0xbe81e648	-0.25371003
63	0xbe6ba58b	-0.23012368
64	0xbe03049f	-0.12794732
65	0xbeb0d859	-0.3454006
66	0xbf016953	-0.50551337
67	0xbeabebc7	-0.3357832
68	0x3ecc74ea	0.39932948
69	0xbeff1023	-0.49817
70	0xbc7962a8	-0.015221275
71	0x3ecce9e2	0.40022188
72	0xbe0d791d	-0.13815732
73	0x3c57e675	0.013177504
74	0x3ec70f27	0.38878748
75	0x3e5e9a24	0.21738487
76	0x3db6fc2d	0.089348175
77	0x3e714559	0.2356161
78	0xbd2008a5	-0.039070744
79	0x3ebbe49b	0.3669785
80	0xbde66445	-0.11249594
81	0xbed584ac	-0.41702783
82	0xbe5fd463	-0.21858363
83	0x3edc3fba	0.4301737
84	0x3db52bf9	0.08846278
85	0x3ee8582a	0.45379764
86	0xbdab501e	-0.083648905
87	0xbea4399b	-0.320752
88	0xbee0b6f7	-0.4388959
89	0xbc0a8cbf	-0.008456408
90	0xbe9cb9dc	-0.3061055
91	0x3ea2da14	0.31807005
92	0x3eee7f25	0.4658138
93	0xbe39dfb5	-0.18151744
94	0xbe592f24	-0.21209389
95	0xbe458974	-0.19290715
96	0xbdf3d16d	-0.11905179
97	0xbf0dd647	-0.55405086
98	0x3ecdcaf3	0.401939
99	0xbf0d6339	-0.55229527
100	0xbe875d20	-0.26438236
101	0xbf150f96	-0.5822691
102	0xbe833293	-0.25624523
103	0xbf108d12	-0.56465256
104	0x3f05acb7	0.52216667
105	0xbec58b5b	-0.38582882
106	0xbdff9d79	-0.124812074
107	0xbde96588	-0.11396319
108	0x3eaab718	0.33342814
109	0xbe83642d	-0.25662366
110	0xbf019043	-0.5061075
111	0x3ef833c2	0.48476988
112	0xbf09c8b0	-0.5382185
113	0x3cba51eb	0.02274414
114	0xbed276c4	-0.41106236
115	0x3dfa026d	0.12207494
116	0xbe1d2261	-0.15345146
117	0xbf14b09c	-0.58081985
118	0xbe8ca20c	-0.27467382
119	0xbebeea19	-0.37287977
120	0xbeacc40a	-0.33743316
121	0xbedaa7a0	-0.42706013
122	0xbe60bde7	-0.21947442
123	0x3ee819e4	0.45332253
124	0x3e8d51d9	0.27601507
125	0x3ed2d253	0.4117609
126	0xbde56b58	-0.11202115
127	0xbd9cea33	-0.076618575
128	0xbefb0142	-0.49024397
129	0xbe4df6bf	-0.20113657
130	0xbe07d986	-0.13266572
131	0xbf235b0b	-0.63810796
132	0xbeb8cf9f	-0.36095902
133	0x3ec9e88a	0.39435226
134	0xbf0c15bf	-0.5472068
135	0xbe7ac89f	-0.24490593
136	0x3ed50594	0.41605818
137	0xbe935713	-0.2877737
138	0x3e8861a9	0.2663701
139	0x3e5d4bad	0.216109
140	0x3e07d732	0.13265684
141	0x3e7c7e03	0.24657445
142	0xbf00e438	-0.50348234
143	0xbf099c27	-0.53753895
144	0xbca5b9d6	-0.020230215
145	0x3f0b89f1	0.54507357
146	0xbdbd2192	-0.09234919
147	0x3b80988b	0.0039244345
148	0x37856812	1.5903297e-05
149	0xb6f1dfa3	-7.2083944e-06
150	0x3d095e0b	0.033536952
151	0xbebb28c0	-0.36554527
152	0xbd0375e9	-0.03209487
153	0xbe876dd9	-0.26450995
154	0x3f016ad9	0.5055366
155	0x3edc4cbf	0.43027303
156	0x3f01d6ac	0.5071819
157	0xbe946ec7	-0.28990766
158	0xbec932b1	-0.39296487
159	0x3db4dd23	0.08831241
160	0xbed0edab	-0.40806326
161	0xbde4579f	-0.11149525
162	0xbe7a1417	-0.24421726
163	0x3e95bc6a	0.2924531
164	0x3ed43103	0.41443643
165	0xbe512807	-0.20425425
166	0xbd75b499	-0.059986684
167	0xbb4cc317	-0.0031244212
168	0xbea49397	-0.32143852
169	0x3e6fd621	0.23421527
170	0xbe458d7e	-0.19292256
171	0xba78d1af	-0.00094916945
172	0xbf075cd0	-0.52875996
173	0x3e39ccd0	0.18144536
174	0x3cf4e24a	0.02989306
175	0xbbba11d3	-0.0056783943
176	0xbe146e09	-0.144951
177	0xbe8297bd	-0.25506392
178	0x3ceef695	0.029170314
179	0x3d55598e	0.05208736
180	0x3df9942f	0.12186467
181	0x3f15f5ff	0.58578485
182	0xbd2393a0	-0.039935708
183	0xbe0bdd0f	-0.13658546
184	0x3e89b73f	0.26897618
185	0x3e906b85	0.2820703
186	0x3f071454	0.52765393
187	0xbefe1a13	-0.49629268
188	0xbdecc6e8	-0.11561376
189	0xbe651391	-0.22370745
190	0xbea89e51	-0.32933286
191	0x3e4ca28f	0.19983886

encoder.mlp.0.bias f4 [64]
0	0x3e66d742	0.22543052
1	0x3d9eba7c	0.07750413
2	0x3e57a707	0.2105981
3	0xbc5aa32f	-0.01334457
4	0x3e31c6c1	0.17360975
5	0x3ec354ef	0.38150737
6	0x3e25b58c	0.16182536
7	0xbe0f737a	-0.14008895
8	0xbea0ff6b	-0.31444868
9	0x3e871312	0.26381737
10	0xbe0a91b9	-0.13532151
11	0xb8b32f91	-8.544245e-05
12	0x3e42ab0f	0.19010566
13	0xbe28c704	-0.16482168
14	0x3dbc4352	0.09192528
15	0x3ebe339e	0.37148756
16	0x3c8bb55a	0.017054249
17	0xbd848e6e	-0.06472479
18	0x3da1450c	0.07874498
19	0xbe2044fa	-0.15651312
20	0x3d244fe5	0.040115256
21	0x3d64f5f0	0.055898607
22	0xbe55232d	-0.208142
23	0x3ec5bfe4	0.38622963
24	0xbda502ec	-0.08057198
25	0xba6b939c	-0.0008986534
26	0x3c2e8451	0.010651664
27	0x3e2f67af	0.17129396
28	0xbde8b38e	-0.11362372
29	0xbe9cb6f7	-0.3060834
30	0x3e2a00c6	0.16601858
31	0xbe8ebd9e	-0.2787904
32	0x3e8e4b2a	0.2779172
33	0x3eb45e24	0.35228074
34	0xbecdabab	-0.40170035
35	0xbeb40f0a	-0.35167724
36	0xbdaac58d	-0.08338461
37	0x3e6e0dbc	0.23247427
38	0x3e11e1c9	0.14246286
39	0x3e7bc6ad	0.24587508
40	0x3dcdaa1b	0.10042211
41	0x3b61d3a3	0.003445842
42	0xbe939621	-0.28825477
43	0x3d9a2871	0.07527245
44	0x3dba9f52	0.09112419
45	0x3e5803fc	0.2109527
46	0x3e0cdf12	0.1375697
47	0xbe828078	-0.2548864
48	0x3e91969a	0.28435212
49	0x3c2845ea	0.010270575
50	0x3d899a8f	0.06718933
51	0x3ebc5da0	0.3679018
52	0x3d3f0a59	0.046640728
53	0x3e2af7df	0.16696118
54	0x3e87efb0	0.26550055
55	0x3d9b3e38	0.07580227
56	0x3e8d49df	0.27595422
57	0xbe0e7c9e	-0.13914725
58	0x3d2b0172	0.041749425
59	0x3da83e94	0.08215061
60	0xbe78b455	-0.24287541
61	0xbe73bbc6	-0.23802099
62	0x3d2c03ac	0.04199569
63	0x3d9aa78a	0.07551487

encoder.mlp.2.weight f4 [128, 64]
0	0x3d4b16e7	0.04958239
1	0x3dc69c3c	0.09697768
2	0x3dbe5bef	0.09294879
3	0xbb338cc2	-0.002739713
4	0x3cbfff4c	0.023437165
5	0x3d7ea10a	0.062165298
6	0x3cea403c	0.028595082
7	0x3b80c031	0.003929161
8	0xbde6d7b1	-0.112716086
9	0xbde3ad36	-0.11117022
10	0xbd76d454	-0.060261086
11	0x2c882643	3.8696004e-12
12	0xbdbe1564	-0.09281424
13	0x3d5a5f48	0.053313524
14	0xbde0e616	-0.109813854
15	0x3dcd6e81	0.100308426
16	0xbd37ed2a	-0.04490391
17	0x3d0ac9d9	0.033883903
18	0x3c7afe5a	0.015319431
19	0xbcbd5ac4	-0.02311457
20	0x3ccc7194	0.024956502
21	0x3cf9c001	0.030487062
22	0x3ded9de7	0.11602383
23	0x3cb9f0dc	0.022697859
24	0xbdb2a661	-0.087231405
25	0x3c7f00be	0.015564142
26	0x3db3f0f6	0.08786194
27	0x3de4c4c8	0.111703455
28	0x3dac53ca	0.08414419
29	0xbc165211	-0.00917484
30	0x3d666d99	0.056256864
31	0xbdd348c3	-0.103166126
32	0x3d4328c4	0.0476463
33	0x3cf80b09	0.0302787
34	0x3d08d6f0	0.033408105
35	0xbde1133f	-0.10989999
36	0xa1c40c96	-1.3284808e-18
37	0xbc322a48	-0.010874338
38	0x3d463493	0.048389982
39	0xbd2408bc	-0.040047392
40	0xbdaba06b	-0.08380207
41	0x3dd05ffb	0.10174557
42	0xbd30516b	-0.043046396
43	0xbdba5b78	-0.090994775
44	0xbdf59de4	-0.11993006
45	0x3d5d44b1	0.054020587
46	0x3df98552	0.12183632
47	0xbde4f00f	-0.111786
48	0x3d7f3577	0.062306847
49	0xb2e98eb0	-2.7189657e-08
50	0xbde3b54f	-0.11118566
51	0xbd0b0ce6	-0.033947848
52	0xb6682162	-3.4590125e-06
53	0x3d21dcbc	0.03951715
54	0x3d37d302	0.044878967
55	0x3dd4481e	0.10365318
56	0xbe09d40c	-0.13459796
57	0xbd6de22b	-0.05807702
58	0xa1340ba0	-6.100176e-19
59	0x3dd52702	0.10407831
60	0xbdeaad87	-0.11458879
61	0xbdae8483	-0.08521368
62	0xbb02f3a4	-0.0019981647
63	0x3d8699ca	0.06572302
64	0xbd914e85	-0.070950545
65	0x3d785c08	0.060634643
66	0xbca629f1	-0.020283671
67	0x3d5ca1c8	0.053865224
68	0x3ceaec19	0.028677033
69	0x3d0b5437	0.03401586
70	0x3c1e2524	0.00965241
71	0xbc62a170	-0.013832435
72	0x3d3ef592	0.046620913
73	0xbc8bc791	-0.017062934
74	0x3c8088ac	0.01569017
75	0x92e0e75c	-1.4193422e-27
76	0xbd1450fa	-0.036210038
77	0x3d907349	0.07053239
78	0x3da28878	0.079361856
79	0xbc913ab8	-0.017728195
80	0xbd8a5acc	-0.067555994
81	0xbd92162c	-0.07133135
82	0xbd4272e5	-0.047472853
83	0x3d243990	0.04009396
84	0x3d287058	0.041122764
85	0x3d06fbb6	0.032954894
86	0xbdc5c904	-0.09657481
87	0xbd79e77b	-0.061011773
88	0x3cefab58	0.029256508
89	0x3d8420d1	0.06451572
90	0x3da130aa	0.0787061
91	0x3da8ea06	0.082477614
92	0xbbe089ab	-0.006852349
93	0xbd0c0d99	-0.034192655
94	0x3d650229	0.055910263
95	0x3dccb073	0.099945925
96	0x3dd3f133	0.103487395
97	0x3d4038f9	0.046929333
98	0x3dc451a8	0.09585887
99	0x3da85b34	0.082205206
100	0x3cb6876e	0.022281375
101	0x3e0a951f	0.13533448
102	0x3c8dc507	0.017305864
103	0xbd8eaba4	-0.069663316
104	0xbd896c22	-0.06710078
105	0x3cca92df	0.024728237
106	0x3d270242	0.040773638
107	0xbdccb77f	-0.099959366
108	0x3d101bc2	0.035182722
109	0x3d07a43e	0.033115618
110	0xbd8df1de	-0.06930898
111	0x3db0f82f	0.08641087
112	0x3da3207c	0.0796518
113	0x3812497f	3.487756e-05
114	0x3b84da77	0.0040543634
115	0x3dd19f2e	0.10235439
116	0x3d5b1228	0.053484112
117	0x3d6c3b6c	0.057673857
118	0xbcf58627	-0.029971195
119	0xbdce57bc	-0.10075328
120	0xbd483646	-0.048879884
121	0xbd7571f0	-0.059923112
122	0xbc58979b	-0.013219739
123	0x3d6dbee9	0.058043394
124	0x3d4d3766	0.05010166
125	0x3d683b44	0.056697145
126	0x3dd17813	0.102279805
127	0x3d589082	0.05287219
128	0x3cf33998	0.029690549
129	0xbd96ed6f	-0.073695056
130	0xbc1eaa91	-0.009684221
131	0x3b8ec4a1	0.004356936
132	0x3d57cfb9	0.052688334
133	0x3bae1e35	0.0053136596
134	0x3d7206e6	0.05908861
135	0xbb20bd91	-0.0024527053
136	0x3daa1012	0.083038464
137	0x3a228257	0.0006199232
138	0xbd556161	-0.05209482
139	0x2bc44d42	1.3948081e-12
140	0xbda2593f	-0.079271786
141	0xb949aae5	-0.00019232517
142	0xbc4069e9	-0.011744001
143	0xbc18d2de	-0.009327618
144	0xb8ec12b4	-0.00011256841
145	0x3cacffc3	0.02111805
146	0xbbb82fdb	-0.005620939
147	0x3e035ed7	0.12829147
148	0x3ce27624	0.027644224
149	0xbd64bb29	-0.055842552
150	0x3d54bf88	0.05194047
151	0x3c7d5ba3	0.015463742
152	0x3d968709	0.07349975
153	0x3d373bcb	0.044734757
154	0xbc0952db	-0.008381571
155	0xbd8c1774	-0.06840411
156	0xbc796ebb	-0.015224154
157	0xbda727f2	-0.08161916
158	0x3c38012f	0.011230751
159	0xbd7fd859	-0.062462185
160	0x3dff6d9e	0.1247208
161	0x3c3fc171	0.011703835
162	0xbd5a436c	-0.053286955
163	0xbc62bd64	-0.0138391
164	0x3c013016	0.007885
165	0x3def6cb1	0.11690653
166	0xbd80ec54	-0.06295076
167	0xbdacd5e8	-0.08439237
168	0xbccacfa6	-0.024757218
169	0x3cf59adc	0.02998107
170	0x3c30325a	0.010754192
171	0xb9523cc1	-0.00020049793
172	0x3bb47eb3	0.005508268
173	0xbc849166	-0.016182613
174	0x3cbae67e	0.022814985
175	0xbced103f	-0.02893841
176	0x394848b5	0.00019100572
177	0x341463ed	1.3819927e-07
178	0x3d58e9ec	0.05295746
179	0x3c40a6bc	0.011758503
180	0x3d03fb41	0.032222036
181	0xbca767e0	-0.020435274
182	0x3c419bf0	0.011816964
183	0xbccfe8d6	-0.02537958
184	0xbce89dba	-0.028395522
185	0x3d571e08	0.052518874
186	0x3b3857b5	0.002812845
187	0xbbe91844	-0.0071134884
188	0x3a9651b7	0.0011468445
189	0x3ca13cfd	0.019682402
190	0x3d182cb3	0.037152003
191	0x3d3d31e0	0.046190143
192	0xbd19bafe	-0.037531845
193	0x3d499721	0.049216393
194	0x13cec0ad	5.2191704e-27
195	0xbd9f7959	-0.07786817
196	0xbd0e42ab	-0.03473155
197	0xbdb98cc3	-0.09060051
198	0xbd01677b	-0.031592827
199	0x3d45a9a3	0.04825748
200	0xbcfb638a	-0.030687112
201	0x3966888f	0.00021985381
202	0xbb460cc1	-0.0030220004
203	0x2b98157a	1.080621e-12
204	0x3c89bd2b	0.016813835
205	0xbd11ddc9	-0.0356119
206	0xbdc9cba6	-0.09853296
207	0x3de6c0e8	0.11267263
208	0x3daed463	0.08536603
209	0xbcc7332f	-0.024316398
210	0x3dd10d2a	0.10207589
211	0xbe008143	-0.1254931
212	0x3c32ddf5	0.0109171765
213	0xbd20e1c0	-0.039277792
214	0x3db7da91	0.08977235
215	0x3dbe8ff0	0.09304798
216	0xbdbca771	-0.092116244
217	0xbd002804	-0.031288162
218	0x3d9c32c0	0.07626867
219	0x3c864e9f	0.016394911
220	0x3d3aa568	0.0455679
221	0x3db7e7e1	0.08979774
222	0xbd95a7e8	-0.07307416
223	0xbd05edd2	-0.032697506
224	0xbd931ebb	-0.07183596
225	0x3df58451	0.11988128
226	0x3e123be1	0.14280654
227	0xbbca7135	-0.006178046
228	0x3d6433c5	0.055713434
229	0x3d8aa225	0.06769208
230	0xbd4b67d2	-0.049659558
231	0x3e0ac98e	0.1355345
232	0x3e0d432b	0.13795154
233	0xbd38f90d	-0.04515939
234	0x3e0aa0e0	0.13537931
235	0x3d2c9013	0.042129587
236	0x3ca8e9a1	0.020619215
237	0x3caedc0d	0.021345163
238	0x2d3c6c84	1.0710658e-11
239	0x3d6cf787	0.057853248
240	0xbcaf362a	-0.021388132
241	0x36464202	2.954272e-06
242	0xbddef6a5	-0.108868875
243	0xbde49f9a	-0.11163254
244	0x3dae1856	0.085007355
245	0xbd39f801	-0.04540253
246	0xbd4ca8c9	-0.049965654
247	0xbd37d90b	-0.044884723
248	0xba3fabfc	-0.00073116994
249	0xbbf33faf	-0.007423363
250	0x3c924b05	0.017858038
251	0x3da2348d	0.079201795
252	0xbe0787fb	-0.13235466
253	0xbce77608	-0.028254524
254	0xbde958ff	-0.11393928
255	0xbb8c4ce4	-0.004281627

encoder.mlp.2.bias f4 [128]
0	0xbc8be5cc	-0.01707735
1	0xbd781768	-0.060569197
2	0x3b8af0f2	0.0042401487
3	0x3d29b958	0.041436523
4	0x3cc5b11a	0.0241323
5	0x2ccca813	5.8166887e-12
6	0x3d170877	0.036873307
7	0x3d0c4f1d	0.034255136
8	0xbdbe2f10	-0.0928632
9	0xbdb18931	-0.08668745
10	0xbc2f9a0b	-0.010717879
11	0x3ca8f1e3	0.020623153
12	0xbd1c2448	-0.038120538
13	0xbda8d138	-0.0824303
14	0xbd0b8ef0	-0.034071863
15	0x3d0f85a3	0.035039555
16	0x3cf24cba	0.029577602
17	0x3d8e8d47	0.0696054
18	0xbc9877ac	-0.018611751
19	0xaccdca80	-5.8489324e-12
20	0xbd2e3b8b	-0.042537253
21	0x3c77e1f0	0.015129551
22	0xace4cbfc	-6.5027966e-12
23	0x3d2f2acb	0.04276542
24	0x3d5e992c	0.054345295
25	0xbd2cae9a	-0.0421587
26	0xbb9ba7e3	-0.0047502383
27	0x3d5061a2	0.05087436
28	0x3b25ddff	0.0025309322
29	0x3b57f495	0.0032952179
30	0xbdaf0eca	-0.08547743
31	0x9e0c0d66	-7.414309e-21
32	0xbd63634d	-0.055514622
33	0xbda61f62	-0.081114545
34	0x93bb4ee9	-4.7283248e-27
35	0x3cb2efde	0.021842893
36	0x3cef60ea	0.029221017
37	0x3d824a27	0.063618
38	0xbd0bcea6	-0.034132622
39	0x3d8435ca	0.06455572
40	0xbd1fce05	-0.039014835
41	0x3c830248	0.015992299
42	0x3d9858a5	0.074387826
43	0xbc911a7e	-0.017712828
44	0x3dad030e	0.08447848
45	0x3cce5647	0.025187625
46	0x3ba2969b	0.004961801
47	0xbc8354e6	-0.016031694
48	0xbca7722d	-0.020440185
49	0xbd18b7bc	-0.037284598
50	0x3c12ba47	0.008955545
51	0xbcdb28ba	-0.026752818
52	0xbc34a462	-0.01102552
53	0xa4806a80	-5.569157e-17
54	0xbdcbf6d2	-0.099591866
55	0xb7d58358	-2.545274e-05
56	0x3d652ec0	0.055952787
57	0x3c5f59c5	0.013632243
58	0x3d790266	0.060793303
59	0x2ad7496b	3.8242616e-13
60	0xbbe4141e	-0.006960406
61	0x3d83abb5	0.06429235
62	0xbb6c0565	-0.0036013958
63	0x3d6c88b9	0.057747576
64	0xbc011ced	-0.007880432
65	0x3cbe4474	0.023226
66	0x3d5ff4c8	0.0546768
67	0x3d071392	0.032977648
68	0x3d8ebc1f	0.06969475
69	0x3b350b18	0.002762502
70	0xbd25c7ed	-0.040473867
71	0x3d41f7ed	0.04735558
72	0xbd1439c8	-0.036187917
73	0x3cebd9cc	0.028790377
74	0x2ade0ace	3.944262e-13
75	0x3da01a78	0.078175485
76	0x3cdfb535	0.027308086
77	0x3dbd1c8f	0.09233963
78	0xaf940831	-2.6926864e-10
79	0x3bc96563	0.0061461194
80	0x3ca20ff9	0.019783007
81	0x3d019889	0.03163961
82	0x3c557cf0	0.013030276
83	0x301efe30	5.784129e-10
84	0x3c253384	0.010083083
85	0xbc97ca81	-0.018529179
86	0x3bd29dbf	0.006427496
87	0x3da1e9da	0.07905932
88	0xbda5bba9	-0.08092434
89	0x3ccb77a2	0.024837319
90	0x3c1f4754	0.009721596
91	0xbd92b5e2	-0.07163598
92	0xbcb919f4	-0.022595383
93	0x3d5a1a06	0.053247474
94	0xbd8fb991	-0.07017816
95	0x3c5c7e01	0.013457776
96	0x3dabba70	0.083851695
97	0x3d827936	0.063707754
98	0x3cbcc6be	0.023043986
99	0xbc924e21	-0.01785952
100	0x3ced9c17	0.029005094
101	0x3c9bcbd3	0.01901809
102	0xa9a08db5	-7.1300096e-14
103	0x3be1b400	0.0068879128
104	0x3d28c730	0.041205585
105	0x3be1c0a1	0.0068894182
106	0x3cf10a38	0.029423818
107	0xbd4be08c	-0.04977469
108	0x3d1a12f0	0.037615716
109	0x145bb8e6	1.1093139e-26
110	0xbd57923f	-0.052629706
111	0xbdac1913	-0.0840322
112	0xbdc0575a	-0.09391661
113	0xbdbacb7b	-0.09120842
114	0x91a1d449	-2.5532152e-28
115	0xbd221b38	-0.03957674
116	0x3c9691a5	0.018379996
117	0x3d271555	0.04079183
118	0x3cb3d5f9	0.021952616
119	0x3d21a986	0.03946831
120	0xbaca0d9e	-0.0015415435
121	0xbd7e8b9e	-0.062144868
122	0x3ce4ebcc	0.027944468
123	0x3d24c20e	0.040224127
124	0x25c16684	3.354963e-16
125	0x3b7163a3	0.003683307
126	0xbdac2559	-0.08405561
127	0xbcd2227c	-0.025651209

encoder.mlp.4.weight f4 [256, 128]
0	0xbd0c7133	-0.034287643
1	0xbccaf561	-0.024775209
2	0x3c8076e1	0.015681686
3	0x3d96288b	0.07331952
4	0x1a0c6462	2.903241e-23
5	0x178e914f	9.213216e-25
6	0xbc32e167	-0.010917998
7	0x2aa3e58d	2.91139e-13
8	0x3d12258e	0.035680346
9	0xbca71a6f	-0.020398347
10	0xbb589fb0	-0.0033054166
11	0x3c63f4cd	0.0139133455
12	0xbbc3c6e5	-0.005974638
13	0xbd096460	-0.03354299
14	0x3be982cb	0.0071261874
15	0xa4851577	-5.771592e-17
16	0x3c0681aa	0.008209625
17	0xb9546fe5	-0.0002025958
18	0xbd2fbd17	-0.04290494
19	0xa126aea2	-5.647411e-19
20	0xbc2d02f3	-0.010559785
21	0xbc904877	-0.017612679
22	0x16194217	1.2380096e-25
23	0xbcf3e56d	-0.029772485
24	0x3b234ad1	0.002491642
25	0xbd457552	-0.04820759
26	0xbcdd7a9a	-0.027036
27	0xbb9b44cc	-0.004738426
28	0x3ad464f2	0.00162044
29	0x3d39d762	0.04537142
30	0x3d8212ab	0.06351217
31	0x930c84eb	-1.7736018e-27
32	0xbc54bfa0	-0.01298514
33	0xba76f633	-0.0009420842
34	0xa1e9a91c	-1.5833457e-18
35	0x3d0206b2	0.031744666
36	0xbce510a7	-0.027962042
37	0xbc14ffaa	-0.009094158
38	0xb9f54c6e	-0.00046786986
39	0xbb7402ee	-0.0037233192
40	0x3c92d6d2	0.0179247
41	0x3d008c23	0.031383645
42	0xbccaa432	-0.024736498
43	0x3da68894	0.08131519
44	0xbc9212e3	-0.017831272
45	0xbc6e4e48	-0.014545031
46	0x972ae966	-5.5224553e-25
47	0xbd002c1f	-0.031292077
48	0xbc08a63f	-0.008340417
49	0xbdaa242b	-0.0830768
50	0xbd08f646	-0.03343799
51	0x3c783181	0.015148521
52	0xbbcf5741	-0.00632754
53	0x2009d613	1.1675183e-19
54	0xbc0840e7	-0.008316255
55	0x1eb58f70	1.9223445e-20
56	0xbcb03dc4	-0.021513827
57	0xbb76e0a5	-0.003767052
58	0xbc07c674	-0.008287061
59	0x2746493e	2.7517725e-15
60	0x3da1ed91	0.0790664
61	0xb81769dd	-3.60998e-05
62	0x3c1ed1c8	0.00969357
63	0xbc886098	-0.016647622
64	0xbd1dc711	-0.038519923
65	0x3d37907c	0.044815525
66	0x3cbc1796	0.022960465
67	0x3d8b60e6	0.06805591
68	0xbc03d109	-0.008045443
69	0xbce23e22	-0.027617518
70	0xbd65545c	-0.055988654
71	0x3c3dc52a	0.011582652
72	0x3c926bb8	0.01787363
73	0x3da3cd03	0.07998087
74	0x21274ca2	5.6683224e-19
75	0x3cef59d7	0.029217644
76	0xb11e9fe7	-2.308292e-09
77	0xbd7c740d	-0.061634112
78	0x195ca723	1.14074864e-23
79	0xbcf31352	-0.029672299
80	0xaf347fa4	-1.6416252e-10
81	0x2496949f	6.5303904e-17
82	0xa0991db1	-2.5938856e-19
83	0x1549d472	4.0759217e-26
84	0x3d2220f2	0.0395822
85	0x3c2be531	0.010491655
86	0xb83490c1	-4.3050157e-05
87	0xbce5d55c	-0.02805584
88	0xba14d377	-0.00056772627
89	0x3c848804	0.016178139
90	0xbbfe3443	-0.007757695
91	0xbd31900f	-0.043350276
92	0xbcf6023b	-0.03003036
93	0x3c3e4555	0.01161321
94	0xbc25da90	-0.01012291
95	0xbaaf656a	-0.0013381664
96	0xbc1c317c	-0.009533282
97	0xbd0054b4	-0.03133078
98	0x3c01fa13	0.0079331575
99	0xbd33c7a1	-0.043891553
100	0xb3fb5adf	-1.1704628e-07
101	0x15854896	5.383279e-26
102	0x13dc5247	5.561694e-27
103	0xbd030604	-0.03198816
104	0xbd178b8b	-0.036998313
105	0xbc0610c9	-0.008182713
106	0xb8dde33b	-0.00010580426
107	0x3b9a88c9	0.004716013
108	0xbc9dbece	-0.019256022
109	0x24483f37	4.3421632e-17
110	0xbd72785e	-0.059196822
111	0x3ccb8fe4	0.024848886
112	0xbbd3014e	-0.0064393645
113	0x3c010920	0.007875711
114	0x1f7775c6	5.2401704e-20
115	0xbb0b761d	-0.0021280118
116	0xbd4b9b72	-0.04970879
117	0x3d1557b8	0.03646061
118	0x3a78073e	0.00094615284
119	0xbb97cf59	-0.004632872
120	0x97cd5165	-1.3268361e-24
121	0x3d0f14fb	0.034932118
122	0xb585eb9a	-9.977841e-07
123	0x9dc8e688	-5.3177923e-21
124	0x269b47da	1.0774761e-15
125	0x15ce67ec	8.33667e-26
126	0x3d2d3e7c	0.042295918
127	0x3cc395b3	0.023875093
128	0x3d0e93ec	0.034809038
129	0x3d01b429	0.031665955
130	0x3b162aec	0.0022913767
131	0xbcbc146f	-0.022958962
132	0xbd00723a	-0.031358935
133	0x14dcb5fb	2.2286102e-26
134	0x3b89cfb0	0.0042056665
135	0xbd6b84b4	-0.057499602
136	0xbd2f03a5	-0.042728085
137	0x3d33dcc7	0.04391172
138	0x3b9e2f45	0.0048274123
139	0xbd55fcec	-0.05224316
140	0xbd15b549	-0.03654984
141	0xbd2fe1b2	-0.04293985
142	0x3dbb9169	0.09158594
143	0x940aceb2	-7.007983e-27
144	0x3c9eb20e	0.019372012
145	0xbd0e5ed3	-0.0347584
146	0xbd04d8da	-0.03243337
147	0x2c05b792	1.9002339e-12
148	0x3d8d726c	0.0690659
149	0x3c19c969	0.009386399
150	0x160e0b92	1.147432e-25
151	0x3bcd3afb	0.0062631345
152	0xbd62b33a	-0.055346705
153	0xbd0ba712	-0.034094878
154	0x3d0a265b	0.033727985
155	0x3b4e5732	0.0031485078
156	0xbd92c2d4	-0.07166067
157	0xbd0be085	-0.034149665
158	0x3d941e7b	0.07232376
159	0x18678c5d	2.9926916e-24
160	0xbd856a46	-0.06514411
161	0xbc62521d	-0.013813523
162	0x1c4afe1b	6.7164617e-22
163	0x3d9aa073	0.075501345
164	0xbd2d9c42	-0.042385347
165	0xbd7002c6	-0.058596395
166	0xbcfc4f3a	-0.030799497
167	0x3d33a2ca	0.04385642
168	0x3da97682	0.08274557
169	0x3d345da8	0.04403463
170	0x3b32c77f	0.0027279553
171	0x3ba7499b	0.00510521
172	0x3a50f173	0.0007970549
173	0x3aaa13a8	0.0012975829
174	0xbd0136d0	-0.031546414
175	0x3d3f6c20	0.046733975
176	0x3c414a3b	0.011797483
177	0x3db98836	0.09059183
178	0x3dc7ec10	0.09761822
179	0x3d67f23b	0.056627493
180	0xbd58d838	-0.052940577
181	0x926c3add	-7.4541024e-28
182	0xbb2b95a0	-0.0026181713
183	0x1f2f2391	3.708711e-20
184	0x3d1cf6e5	0.038321394
185	0x3bce38d1	0.006293394
186	0xbd8279c2	-0.0637088
187	0xa07cb92f	-2.1406502e-19
188	0xbc4a742a	-0.012356797
189	0x3cb152c5	0.021645913
190	0x3cf685c4	0.030093081
191	0x3cd77586	0.026301157
192	0xbcbbecc5	-0.022940049
193	0x3cd1ae63	0.02559585
194	0x3c06ed16	0.008235237
195	0x3c02321d	0.007946518
196	0x3d3a3d2f	0.045468505
197	0xbd224c3b	-0.03962348
198	0x3b0e556c	0.0021718396
199	0x3d7c2733	0.06156082
200	0x19632984	1.1744009e-23
201	0xbc77a3fd	-0.015114781
202	0xaa55efb1	-1.900136e-13
203	0x3dbbe82f	0.09175145
204	0x94034e73	-6.629281e-27
205	0x3c22a883	0.009927872
206	0x16f10202	3.8936917e-25
207	0xbcf1538f	-0.02945879
208	0xbcb891f8	-0.02253054
209	0x1c955e05	9.884296e-22
210	0xbd086860	-0.033302665
211	0x14454ed3	9.961504e-27
212	0x3d4a0ae8	0.049326807
213	0x3d994b78	0.07485098
214	0xa6d5fd7c	-1.4848551e-15
215	0xbd4c34a7	-0.0498549
216	0x3d393ff0	0.04522699
217	0xbd2181e5	-0.039430518
218	0xbc0b863e	-0.008515893
219	0x3d7d78ab	0.061882656
220	0xbcd671bd	-0.026177282
221	0xbccae83a	-0.024768937
222	0xbcc95877	-0.024578316
223	0x3d98df0b	0.07464417
224	0xbcc78127	-0.024353577
225	0xbc243faf	-0.010024949
226	0x3c0a3387	0.008435137
227	0xbd9d41b2	-0.07678546
228	0xbd6fe939	-0.058572028
229	0xbcde5f75	-0.027145127
230	0x113cf8f7	1.4907303e-28
231	0x3dae839b	0.085211955
232	0x3d2384e1	0.039921645
233	0x3aa8893c	0.0012858282
234	0xbc54478d	-0.012956512
235	0x3d5a60ba	0.053314902
236	0x3db34313	0.08753028
237	0x98186e6b	-1.9701286e-24
238	0x3dbd35bd	0.092387654
239	0x3cda2433	0.02662859
240	0xbc87362f	-0.016505329
241	0x3d0c4dae	0.03425377
242	0x1258447d	6.8242e-28
243	0xbdb093b0	-0.08621919
244	0x3daa7a3c	0.083240956
245	0xbc5c165e	-0.013433067
246	0xbce6b747	-0.028163565
247	0x3da823ab	0.08209928
248	0xbdac389f	-0.08409237
249	0x3acb01a1	0.0015488156
250	0x3d0c9b4f	0.0343278
251	0x24e795e9	1.0043424e-16
252	0x24b5cae1	7.883993e-17
253	0x2736c9e9	2.536703e-15
254	0x3cc8b34b	0.024499556
255	0xbcb3f46e	-0.02196714

encoder.mlp.4.bias f4 [256]
0	0xbce3a671	-0.027789326
1	0x3cc75828	0.024334028
2	0x3d208ece	0.03919869
3	0x3d0db46d	0.034595896
4	0x3bf8cc0f	0.007592685
5	0x3ceb4f86	0.028724443
6	0x3cd5c29c	0.026093774
7	0x3d722083	0.059113037
8	0x3d72b56f	0.05925506
9	0xbc2a5a74	-0.010397542
10	0x3cef0bf0	0.029180497
11	0xbd0cd67f	-0.034384247
12	0xbbb0a5b3	-0.0053908466
13	0xbcc4f6e9	-0.024043517
14	0xbcdc8156	-0.02691714
15	0xbcb289ff	-0.021794317
16	0xbadc644a	-0.0016814556
17	0x3c520f16	0.01282098
18	0xbc8d1e8a	-0.017226476
19	0x3d1bc21c	0.038026914
20	0xbd5f549e	-0.054524057
21	0xbc47c79a	-0.012193585
22	0xbccc09bb	-0.024906984
23	0x3cc65731	0.024211498
24	0xbd01bf3e	-0.031676523
25	0xbd0f5261	-0.034990672
26	0xbd067374	-0.03282495
27	0xbd01b32e	-0.03166502
28	0xbd6f9596	-0.058492266
29	0x3cbf60a7	0.023361517
30	0x3caceb0d	0.021108175
31	0x3d0e7c78	0.03478667
32	0x3cacb603	0.021082884
33	0x3ce291c9	0.027657406
34	0xbd39a236	-0.045320712
35	0x3d0f7b28	0.03502956
36	0x3d05f293	0.03270204
37	0xbc604464	-0.013688181
38	0x3c1d1a4a	0.009588787
39	0xbccdf6ee	-0.02514216
40	0x3c89dd27	0.016829086
41	0x3d0d23a5	0.03445782
42	0xbbf8ea00	-0.0075962543
43	0x3cc87746	0.024470937
44	0xbd911c64	-0.07085493
45	0xb892904a	-6.9886984e-05
46	0x3bb439e6	0.005500066
47	0x3d6286a2	0.055304177
48	0x3b98c305	0.00466192
49	0xae3bdc7f	-4.2714717e-11
50	0x3d38d2c8	0.04512289
51	0x3c251a36	0.01007705
52	0xb39479f5	-6.913971e-08
53	0xbc88799f	-0.016659556
54	0xbcbe659e	-0.023241814
55	0xbd86dfa4	-0.06585625
56	0xbd0a34b6	-0.033741675
57	0x3d4d0a90	0.0500589
58	0x2f074293	1.230183e-10
59	0xbd4ff16e	-0.050767355
60	0x3c4ccb6f	0.012499674
61	0xbd91efd9	-0.071258254
62	0x3d571e88	0.05251935
63	0x3d13f6a5	0.03612389
64	0xbd361304	-0.04445173
65	0xbc5a6c3d	-0.01333147
66	0x3d814668	0.06312257
67	0xbd4c1277	-0.049822297
68	0x3d4131e0	0.047166705
69	0x3c4fa52d	0.012673658
70	0x3d34f5cf	0.044179734
71	0x3bfe8ee9	0.007768501
72	0xbc5fba8c	-0.013655316
73	0xbd4c6e68	-0.04990998
74	0x3d8b32b6	0.06796782
75	0x3d1a338f	0.037646826
76	0xbd124a6e	-0.035715513
77	0xbc437cfe	-0.011931656
78	0x3c3bd4ae	0.011464281
79	0xbd110a24	-0.03541006
80	0xbd402d86	-0.046918415
81	0xbb4de646	-0.0031417771
82	0x3d41f520	0.04735291
83	0xbd388b73	-0.045054864
84	0xbcdc1a82	-0.026868109
85	0xbcf9b638	-0.030482396
86	0x3d333f7c	0.043761715
87	0x3c0f72e5	0.00875542
88	0xbd353155	-0.0442365
89	0xbb5099ed	-0.0031830028
90	0x3d8082d6	0.06274955
91	0x3c986d0d	0.018606687
92	0xbd5ca27f	-0.053865906
93	0xbd1b651c	-0.037938222
94	0xbc02a608	-0.007974155
95	0x3d18596c	0.037194654
96	0x3d28058c	0.041020915
97	0xbc9f66a2	-0.019458119
98	0x3d1ee42b	0.038791817
99	0x3d5628e2	0.052285083
100	0x3c475c87	0.012168056
101	0x3c6163b1	0.013756678
102	0xbd102c4a	-0.035198487
103	0xbd1096aa	-0.035299934
104	0xbd565190	-0.052323878
105	0x3d54618a	0.051850833
106	0x3d439562	0.047749884
107	0x3d03ad7a	0.032147862
108	0xbc942266	-0.018082809
109	0xbc1e505a	-0.009662712
110	0xbbf3f400	-0.0074448586
111	0x3ca12e34	0.019675352
112	0x3ccb358a	0.024805803
113	0x3ca48816	0.020084422
114	0xa5ff61a7	-4.430162e-16
115	0x3d49d8a6	0.049278878
116	0xbbea003a	-0.0071411403
117	0xbafe4546	-0.0019399307
118	0xbc41469f	-0.011796623
119	0x3d73496f	0.059396204
120	0xbbd20cc1	-0.006410212
121	0x3d8f787d	0.07005403
122	0xbd1c4b28	-0.038157612
123	0xbc3c6315	-0.011498232
124	0xbcce6c3d	-0.025198096
125	0xbd070300	-0.032961845
126	0xbcce5a4a	-0.025189538
127	0x3c342197	0.010994337
128	0x2bb479be	1.282356e-12
129	0xbb911424	-0.00442745
130	0xbb6c784a	-0.003608244
131	0x3d63bc5f	0.055599567
132	0x3bf7e4ea	0.0075651305
133	0x3c96c54f	0.018404631
134	0xbd798a44	-0.060922876
135	0xab39124f	-6.575061e-13
136	0x39f126a4	0.00045995892
137	0x3c8ac211	0.016938241
138	0x3cc41768	0.023936942
139	0xbd643848	-0.055717736
140	0xbcf876a5	-0.030330012
141	0xbd8dbce5	-0.069207944
142	0xbc898f29	-0.016791897
143	0x3ca006ba	0.019534457
144	0xbd3fd7f6	-0.046836816
145	0x3d6527d7	0.055946197
146	0xb68bef4d	-4.170381e-06
147	0x3c43ae8f	0.0119434735
148	0x3d039a57	0.03212961
149	0x3cb6bee5	0.022307822
150	0x3cce8e21	0.025214257
151	0x3d092cf6	0.033490144
152	0xbc0adac3	-0.008475008
153	0x3ca95c69	0.020673947
154	0x3c57357a	0.013135308
155	0x3bef053c	0.007294325
156	0x3d423245	0.047411222
157	0x3ae141f8	0.0017185798
158	0x3d08beaa	0.033384956
159	0xbce16a42	-0.027516488
160	0x3c1aea44	0.009455267
161	0xbd291b67	-0.0412859
162	0xbcea06a2	-0.028567616
163	0x3c5a2431	0.013314293
164	0x3d1f8954	0.038949326
165	0x3c995f60	0.018722236
166	0x1f99a0ce	6.506405e-20
167	0x3d7ffa86	0.062494777
168	0xbcbfccfb	-0.023413172
169	0x3c9ab0cb	0.01888313
170	0xbc0556f6	-0.008138409
171	0xbc29963c	-0.01035076
172	0x3b8401b5	0.004028524
173	0xbcdc6209	-0.026902216
174	0x3c7bedf8	0.01537656
175	0xbcd81444	-0.02637685
176	0xbc0087b2	-0.007844852
177	0xbb2f2a06	-0.0026727929
178	0x3d613b89	0.054988418
179	0xbd39de8e	-0.04537826
180	0x3d19a9b4	0.037515357
181	0xbc03db63	-0.008047911
182	0x3c339af0	0.010962233
183	0xbd6ca862	-0.05777777
184	0x3d268fcf	0.04066449
185	0xbd0c6990	-0.03428036
186	0x3cdc1df7	0.026869757
187	0xbc55ceab	-0.013049762
188	0x22fcba34	6.8501887e-18
189	0x3d5c51a8	0.05378881
190	0x3b40ca11	0.0029417316
191	0xbd702a41	-0.058634046
192	0x3c9c2adf	0.019063411
193	0xbd6ed6ce	-0.058310322
194	0x3d254f52	0.04035885
195	0x3a5da0e8	0.0008454458
196	0x3cb59365	0.02216501
197	0xbcc7dbc5	-0.024396786
198	0xbd2978b6	-0.041374885
199	0x3d606b0e	0.054789595
200	0xba49ee5f	-0.00077030616
201	0xbccccc1b	-0.024999669
202	0xbd441043	-0.04786707
203	0xad8ff601	-1.6366465e-11
204	0xbd406490	-0.046970904
205	0xbd0cef92	-0.03440816
206	0x3d440495	0.047855932
207	0xbd0c02ca	-0.034182347
208	0x3d0e619e	0.034761064
209	0x3d4b980f	0.04970556
210	0x3c294e96	0.010333678
211	0xbc906cff	-0.017630098
212	0x3ccbc422	0.024873797
213	0xbcf25b51	-0.029584559
214	0x3d5a3e6e	0.053282194
215	0x3b9baa40	0.00475052
216	0x3d348708	0.04407409
217	0xbcf26f31	-0.029594036
218	0x3d248a6b	0.04017107
219	0xbd043357	-0.032275524
220	0xbd5cd57d	-0.053914536
221	0xbcc963ac	-0.02458366
222	0xbd5b37a3	-0.053519856
223	0xbc80b4ea	-0.015711267
224	0xbc5d050a	-0.013489971
225	0x3c24fda2	0.010070236
226	0xbca78916	-0.02045111
227	0xb834780f	-4.3027158e-05
228	0xb45d5e87	-2.0616618e-07
229	0xbd808026	-0.062744424
230	0x3c4e3c36	0.012587598
231	0x3cd20287	0.02563597
232	0x3c688dc8	0.0141939595
233	0x3c342a59	0.010996425
234	0xbc1f1754	-0.009710152
235	0xbc5798e7	-0.013159013
236	0x3d522cd6	0.05131229
237	0x3d66a8ba	0.056313254
238	0xbced7b91	-0.028989585
239	0x3d699167	0.057023432
240	0x3c9ccf13	0.01914171
241	0x3d831679	0.06400771
242	0x3b2b2f2b	0.0026120644
243	0x3c98a6bc	0.018634193
244	0xbd6b8155	-0.057496388
245	0xbce6841d	-0.028139168
246	0x3c9cb265	0.019128034
247	0xbd1b618d	-0.03793483
248	0xbc5ae691	-0.013360635
249	0xbc880c60	-0.016607463
250	0xbc2b67dc	-0.010461774
251	0xaf180083	-1.3824501e-10
252	0x3cd71b7d	0.026258225
253	0xbd023d21	-0.03179658
254	0xbd4b5b01	-0.049647335
255	0xbd4a9cbd	-0.049465884

pos_mlp.0.weight f4 [32, 1]
0	0xbabcbad9	-0.0014398947
1	0x3f45194c	0.76991725
2	0x3e8c2a77	0.27376148
3	0xbe9cf0c6	-0.30652446
4	0xbd3590c5	-0.044327516
5	0xbed49754	-0.41521704
6	0xbe90a969	-0.2825425
7	0x3e77d3b6	0.24201855
8	0xbc97e5b9	-0.018542157
9	0xbebc8c99	-0.36826017
10	0x38177dea	3.6118472e-05
11	0x3f07a442	0.5298501
12	0x379c6a4c	1.8646148e-05
13	0x3f3985e9	0.72469956
14	0x16522b13	1.6977257e-25
15	0xbf28943d	-0.65851194
16	0x3b60b07c	0.003428488
17	0xbe9c3fe3	-0.30517492
18	0x3f897dd2	1.0741522
19	0x3ad4ebda	0.0016244606
20	0xbf03efcc	-0.51537776
21	0xbf40610b	-0.75148076
22	0x3f523d94	0.8212521
23	0xbb2c7003	-0.0026311881
24	0xbb1029e5	-0.0021997627
25	0x3f086d44	0.53291726
26	0xbf083032	-0.5319854
27	0xbed47196	-0.4149291
28	0x3f2ff53b	0.68733567
29	0xbf0c6291	-0.548379
30	0x3b9af520	0.004728928
31	0xbd664f85	-0.05622818

pos_mlp.0.bias f4 [32]
0	0xb9e2a9b4	-0.00043232518
1	0x3e83a420	0.25711155
2	0xbb8fe907	-0.0043917927
3	0x3f1833ef	0.59454244
4	0xb2456398	-1.1489554e-08
5	0x3f7f594f	0.9974565
6	0x3e8c749f	0.27432725
7	0xbd3ac1b4	-0.045594886
8	0xbdaad7d8	-0.0834195
9	0x3f648e9f	0.8928012
10	0xbccca44a	-0.024980683
11	0x3e0e0088	0.1386739
12	0xbd11cff4	-0.03559871
13	0x3f82642a	1.0186818
14	0xbd193c86	-0.037411235
15	0x3e301e83	0.1719914
16	0xbe0649b5	-0.13114055
17	0x3e97f3b2	0.29678112
18	0xbd796e2f	-0.060896095
19	0xbc9c5e07	-0.019087804
20	0x3f2ca9e1	0.67446715
21	0x3f6ffc2c	0.9374416
22	0x3e9c1f70	0.30492735
23	0xbe0c12e0	-0.13679075
24	0xbbae5068	-0.0053196438
25	0xbd583f12	-0.052794524
26	0x3f067a52	0.52530396
27	0x3f75859e	0.9590701
28	0x3dae8d8b	0.08523091
29	0x3efdd149	0.49573734
30	0xbcd1cce8	-0.025610402
31	0xb1f1296f	-7.0187336e-09

pos_mlp.2.weight f4 [32, 32]
0	0x31dd5d28	6.442537e-09
1	0xbe1a43bf	-0.15064906
2	0xbc07fd2d	-0.008300108
3	0x3e70f9f4	0.2353285
4	0xb1e2bd1e	-6.598966e-09
5	0x3e89b5b2	0.26896435
6	0x3e1fb049	0.15594591
7	0xbdf277af	-0.11839234
8	0xb1610438	-3.2744207e-09
9	0x3e251539	0.16121377
10	0x9286d323	-8.508638e-28
11	0xbe7a1e06	-0.24425516
12	0xaeb7f88c	-8.366027e-11
13	0x3dc57b7a	0.09642692
14	0x34214a23	1.5021264e-07
15	0x3e2b9ce2	0.16759065
16	0x979111ad	-9.374867e-25
17	0x3ea7ee44	0.3279897
18	0xbe7ee86a	-0.24893346
19	0xb56343b7	-8.466263e-07
20	0x3e2771a4	0.16351944
21	0x3e601313	0.21882276
22	0xbe65dad9	-0.22446765
23	0xa6863d58	-9.314745e-16
24	0x3101d4a8	1.8892852e-09
25	0xbe888305	-0.2666246
26	0x3e55a884	0.20865065
27	0x3eb78856	0.35846204
28	0xbe4b8728	-0.19875777
29	0x3ea3aa0f	0.31965682
30	0xb32c8a7a	-4.0172814e-08
31	0xac51213e	-2.971914e-12
32	0x94ecd273	-2.3912918e-26
33	0xb54888ac	-7.470469e-07
34	0x310ca9f3	2.0469286e-09
35	0x34af8160	3.2690423e-07
36	0x304c5bec	7.4345397e-10
37	0x280cf132	7.823862e-15
38	0xa01587c5	-1.2665713e-19
39	0xa11a9ced	-5.238492e-19
40	0x98f0abcb	-6.2212013e-24
41	0x9207e54e	-4.288113e-28
42	0x15534042	4.26618e-26
43	0x21fbe6bc	1.7069496e-18
44	0x98aa7bc3	-4.4068937e-24
45	0x1d39a770	2.457111e-21
46	0x12a46b20	1.0376263e-27
47	0xb51c3908	-5.819752e-07
48	0x982405bd	-2.11994e-24
49	0x981d0773	-2.0295535e-24
50	0x941cf07f	-7.923417e-27
51	0xa4871799	-5.858689e-17
52	0x9fc9a146	-8.5393616e-20
53	0x9ca065be	-1.0614212e-21
54	0x9f89a0ef	-5.8288e-20
55	0x1d7128c0	3.1917152e-21
56	0xaa2773f0	-1.4872804e-13
57	0xb2cfe8b7	-2.4203798e-08
58	0xb1ac05c4	-5.0065143e-09
59	0x12b5ad54	1.1465435e-27
60	0xb317202e	-3.5186694e-08
61	0xb1997878	-4.4665818e-09
62	0x9dc04c9e	-5.0901197e-21
63	0xb4112026	-1.3515873e-07
64	0x91afab2f	-2.7715632e-28
65	0x3de68543	0.112558864
66	0x3d097507	0.03355887
67	0xbdfea1eb	-0.12433227
68	0x358969d1	1.0238092e-06
69	0xbd2de84e	-0.04245787
70	0xbe02dc3f	-0.1277933
71	0x3dce7c6a	0.10082324
72	0x3463b516	2.1206901e-07
73	0xbd3101ff	-0.043214794
74	0x94b0b587	-1.7843058e-26
75	0x3e172e63	0.14763789
76	0x3457e3ab	2.010626e-07
77	0x3d916617	0.0709955
78	0x96db1df5	-3.5400264e-25
79	0xbd3ec610	-0.046575606
80	0x32644312	1.3286597e-08
81	0xbe0b868f	-0.13625549
82	0x3dbe17f6	0.09281914
83	0xb240055a	-1.1177088e-08
84	0xbe564455	-0.20924504
85	0xbdd2ff75	-0.10302631
86	0x3dfd70fe	0.12375067
87	0xb55ea946	-8.294777e-07
88	0xa178f9e2	-8.4356386e-19
89	0x3e1a0b3d	0.1504335
90	0xbe136fd8	-0.14398134
91	0xbd7e3142	-0.062058695
92	0x3dcb2fc5	0.09921221
93	0xbe048c12	-0.12944058
94	0x3324d940	3.8381813e-08
95	0x94107d1d	-7.294816e-27
96	0x13b6c3e8	4.6136438e-27
97	0x16f0f9e2	3.893179e-25
98	0x1ca1919c	1.0691725e-21
99	0x144fb401	1.0486329e-26
100	0xad077d17	-7.701637e-12
101	0xb390fab1	-6.751123e-08
102	0x9a052b98	-2.753897e-23
103	0x92195231	-4.8379596e-28
104	0xa78f015d	-3.969195e-15
105	0x1ba7ceef	2.776156e-22
106	0x15038732	2.656189e-26
107	0xaf0cdddd	-1.2811747e-10
108	0xa6f1fc32	-1.6791092e-15
109	0xa7f7c31c	-6.876781e-15
110	0x14e5074f	2.3125974e-26
111	0x9c148273	-4.9137694e-22
112	0xae4049e9	-4.372139e-11
113	0x15c745f8	8.048585e-26
114	0x96272823	-1.3502817e-25
115	0x1ee08629	2.377241e-20
116	0x9e403ef6	-1.0177415e-20
117	0x33e26675	1.0542582e-07
118	0xadf4a967	-2.7814818e-11
119	0x30d25556	1.5303765e-09
120	0x13a8566e	4.249439e-27
121	0xaf43f219	-1.7821157e-10
122	0xb3cfa9cf	-9.670077e-08
123	0xa5ee73c6	-4.136487e-16
124	0x95aba762	-6.9330433e-26
125	0x9ca24274	-1.0737438e-21
126	0x1e0d7008	7.487645e-21
127	0xadbc5764	-2.1411935e-11
128	0x92a878d7	-1.063208e-27
129	0xb5373e42	-6.826341e-07
130	0x9e398e40	-9.823235e-21
131	0x94940128	-1.4944637e-26
132	0xb173f1ec	-3.549867e-09
133	0xb1b282d7	-5.1953566e-09
134	0x14175fe1	7.6424606e-27
135	0x14ff97de	2.5808321e-26
136	0x21d03af3	1.4110232e-18
137	0x28186d90	8.4614526e-15
138	0x2881646c	1.4365428e-14
139	0x253a53b1	1.6161284e-16
140	0x9391c1d2	-3.6794268e-27
141	0xa7004164	-1.7799017e-15
142	0x153a258f	3.759203e-26
143	0xb0e8b56e	-1.6931787e-09
144	0xb2fcfd9e	-2.9451993e-08
145	0xb3d305c8	-9.826505e-08
146	0x140fd020	7.2607004e-27
147	0x95acca63	-6.9789557e-26
148	0x34536b61	1.968997e-07
149	0x1cc7284c	1.3179132e-21
150	0x934a506d	-2.5535637e-27
151	0x18004a03	1.6580979e-24
152	0xb2843ae2	-1.53936e-08
153	0xa8ff5803	-2.8348856e-14
154	0xaf85fa75	-2.437052e-10
155	0xb01a4561	-5.6123467e-10
156	0x2f4ef1de	1.882152e-10
157	0x2f14dc3c	1.3538765e-10
158	0x94d36b49	-2.1347872e-26
159	0x34ba7bc4	3.473525e-07
160	0x956c1407	-4.767562e-26
161	0xbdb6e0ad	-0.08929572
162	0xbc79901a	-0.01523211
163	0x3e3eef03	0.18645863
164	0x13e76ec1	5.842181e-27
165	0x3cf24c4a	0.029577393
166	0x3e84424c	0.2583183
167	0xbe8ca461	-0.2746916
168	0x34605311	2.0891845e-07
169	0x3e54f248	0.20795548
170	0x9437182a	-9.2439044e-27
171	0xbe8b0ca1	-0.27158073
172	0x32309ada	1.02797575e-08
173	0x3d967d30	0.07348096
174	0xac2c9c15	-2.4529313e-12
175	0x3e2c4593	0.16823415
176	0xb3cd457c	-9.5586955e-08
177	0x3e32c23e	0.1745691
178	0xbd63c44b	-0.05560712
179	0x1c4e59bf	6.8275677e-22
180	0x3e5b8e55	0.21441014
181	0x3e5d51d9	0.21613254
182	0xbdc53dfc	-0.09630963
183	0x98bc021e	-4.8599e-24
184	0xa527558b	-1.4513924e-16
185	0xbd5e5162	-0.05427683
186	0x3e8ae0e3	0.271247
187	0x3e8caca5	0.27475467
188	0xbe99c3e0	-0.30032253
189	0x3e71b662	0.2360473
190	0x311799d0	2.2060824e-09
191	0xb3683818	-5.4067726e-08
192	0xadf4cc3a	-2.7830283e-11
193	0x3e101d14	0.14073592
194	0x3e9cbcbd	0.30612746
195	0xbe31c967	-0.17361985
196	0x341c8daf	1.4580176e-07
197	0x3c591c48	0.013251372
198	0xbe2ccb91	-0.1687453
199	0x3e67b8f3	0.22629146
200	0x3391c692	6.7882084e-08
201	0x3d95f6b4	0.073224455
202	0x13f5f98c	6.2092767e-27
203	0x3e6ba00c	0.23010272
204	0xa62baec2	-5.9564384e-16
205	0x3e43cdd2	0.19121483
206	0xaa72fa34	-2.1580724e-13
207	0xbd8bd749	-0.06828172
208	0x281e7026	8.79508e-15
209	0xbe845d15	-0.25852266
210	0x3ebb3629	0.36564758
211	0x14b009aa	1.777527e-26
212	0xbdd56956	-0.10420482
213	0xbe915e59	-0.28392294
214	0x3d00c724	0.031439915
215	0x93c45b00	-4.956709e-27
216	0x91d47ee6	-3.352591e-28
217	0x3e81ce9d	0.25352946
218	0xbe943af3	-0.28951225
219	0x3d5cf1be	0.05394148
220	0x3e896232	0.2683273
221	0xbe9115e3	-0.2833701
222	0x940782ab	-6.841528e-27
223	0x2dc4be0c	2.2367018e-11
224	0x282880ed	9.35383e-15
225	0xbb63e654	-0.0034774737
226	0xbd82dd38	-0.063898504
227	0x3dbcb96d	0.09215055
228	0xb044186f	-7.1339107e-10
229	0x3e774272	0.2414644
230	0x3e4e1ad5	0.20127423
231	0xbd74aaf7	-0.059733357
232	0x1c98230a	1.0067574e-21
233	0x3e280f6d	0.16412134
234	0x9463bb33	-1.149749e-26
235	0xbdc91aa0	-0.098195314
236	0x330b85d1	3.2485165e-08
237	0x3d188c61	0.03724325
238	0x19f48c8f	2.528578e-23
239	0x3dcd9727	0.10038596
240	0x28129ed1	8.139066e-15
241	0x3db537d2	0.088485375
242	0xbd8e8afe	-0.069601044
243	0x99f756c5	-2.5574247e-23
244	0x3ea0dc0b	0.3141788
245	0x3e62ef31	0.22161557
246	0xbe18f031	-0.14935376
247	0x14271d80	8.437163e-27
248	0x93a00446	-4.0393892e-27
249	0xbe8e3a4d	-0.27778855
250	0x3e219354	0.15778857
251	0x3e884bd7	0.2662036
252	0xbe56640d	-0.20936604
253	0x3e97de34	0.29661715
254	0x14441066	9.898705e-27
255	0x2a1016c9	1.2797674e-13

pos_mlp.2.bias f4 [32]
0	0x3eb5eb8a	0.35531265
1	0xb58e29c9	-1.0591986e-06
2	0xbb90815e	-0.004409953
3	0xb54c71f8	-7.616177e-07
4	0x22028384	1.768791e-18
5	0x3e525e50	0.2054379
6	0x3e5aca77	0.21366297
7	0x3d7697fc	0.060203537
8	0x3cac0d36	0.021002393
9	0x200f02c9	1.2113493e-19
10	0x3d728066	0.05920448
11	0x3ea20ab1	0.31648782
12	0xb514a49a	-5.5373823e-07
13	0x32896da2	1.5998754e-08
14	0x3d48d931	0.049035255
15	0x3e8b9702	0.27263647
16	0x3b83101b	0.0039997227
17	0x3e6b091c	0.22952694
18	0x3e2ff978	0.17185009
19	0x3dcd2cd1	0.10018314
20	0x3dc9faed	0.098623134
21	0x3d9a5f9b	0.075377665
22	0xbcdefd7c	-0.02722048
23	0x3d742e42	0.059614427
24	0xb400d3e4	-1.1998014e-07
25	0x3dd973b5	0.106177725
26	0x3e0e8f4f	0.13921855
27	0x3e928e2e	0.286241
28	0x3e7d80aa	0.24756113
29	0x9fe73348	-9.791714e-20
30	0x3dcb03ef	0.0991286
31	0x3e324feb	0.17413299

dec_trunk.0.weight f4 [128, 288]
0	0xbaf8cf72	-0.0018982722
1	0x3abb6da8	0.0014299648
2	0xbcbe8254	-0.023255505
3	0x3d09bef0	0.033629358
4	0x3c8c5529	0.017130451
5	0x3c898550	0.016787201
6	0x3c756ee6	0.0149800535
7	0xb9e34504	-0.00043348235
8	0xbbef2612	-0.0072982395
9	0x3d74c7a2	0.059760697
10	0xbcbd1c2f	-0.023084728
11	0x3d203a18	0.039117903
12	0x3ccb98cd	0.024853135
13	0x3c518eae	0.012790365
14	0x3d83c29b	0.064336024
15	0x3c736c8b	0.014857422
16	0x3c23c134	0.009994794
17	0x3d2f67b4	0.04282351
18	0xbd43fef3	-0.04785056
19	0xbb81cd5b	-0.003961248
20	0x3d6be1c7	0.057588365
21	0xbbe1b1c9	-0.0068876487
22	0x3cf79400	0.03022194
23	0xb91ab0e5	-0.00014752483
24	0xbccb8d22	-0.02484757
25	0x3c0f4202	0.008743765
26	0x3bfd1c63	0.007724331
27	0xbc637a0b	-0.013884078
28	0x3d21f435	0.039539535
29	0x3d2ffa5f	0.04296338
30	0x3cb5e9ab	0.022206148
31	0x3d03e2ab	0.03219859
32	0x3d399475	0.045307595
33	0xbd392c90	-0.045208514
34	0xbc2304e9	-0.009949901
35	0xbcb555ee	-0.022135701
36	0xbc51837c	-0.012787696
37	0x3b636133	0.0034695386
38	0xbc864706	-0.016391288
39	0xbc2aa4fa	-0.01041531
40	0xbc9cc0a5	-0.019134829
41	0xbd2288d9	-0.03968129
42	0xbc68bf4f	-0.014205768
43	0x3d2819e3	0.041040312
44	0x3d111148	0.03541687
45	0x3a392b4d	0.0007063642
46	0xbacd5315	-0.0015665019
47	0x3ab9daec	0.0014179624
48	0x3d16dd4c	0.03683214
49	0xaf9e9d95	-2.8852e-10
50	0x3c881fd0	0.016616732
51	0xb9a76db2	-0.00031934452
52	0xb508c292	-5.0947085e-07
53	0x3cb8263f	0.022479175
54	0xbd0fc280	-0.0350976
55	0x3d0c8c70	0.03431362
56	0x3bd55d45	0.0065113627
57	0xbbbb0afa	-0.0057080956
58	0x3031bb09	6.465802e-10
59	0x3ca8bbdf	0.020597396
60	0xbbd4c1b6	-0.0064928187
61	0x3c3a3033	0.011364031
62	0xbac8d68a	-0.0015322727
63	0x3d5e78dc	0.05431448
64	0x3cd13e77	0.02554248
65	0x3d2ddf08	0.042449027
66	0xbd0c6fa6	-0.034286164
67	0x3a73c23e	0.00092986587
68	0x3d093af8	0.033503503
69	0xbd1e0106	-0.038575195
70	0x3d4728b2	0.048622794
71	0x3d0845c2	0.03326965
72	0x3cf61d82	0.030043367
73	0xbd351725	-0.044211525
74	0x3ccefab0	0.025266021
75	0x3c424192	0.0118564535
76	0x3b890725	0.00418176
77	0x3b16a86a	0.0022988566
78	0x3d0fab1a	0.035075285
79	0x3b8ce73b	0.0043000258
80	0xbcacb7f1	-0.021083804
81	0xbcc2059d	-0.023684317
82	0x3c81cb38	0.015843973
83	0x3c9a66f8	0.018847927
84	0xbd277ec0	-0.040892363
85	0x3c8d2a5e	0.017232116
86	0x3c58bce4	0.013228629
87	0xbd08986c	-0.033348486
88	0x3cbebe67	0.02328415
89	0xba833009	-0.0010008822
90	0xbc81d769	-0.015849786
91	0x3ccd0fd3	0.02503196
92	0xbcd3e011	-0.02586368
93	0x3d09e2e2	0.033663638
94	0x3b0296bd	0.0019926273
95	0xbd61040b	-0.054935496
96	0xbccd1aff	-0.025037287
97	0x3c666216	0.014061471
98	0xbc8e8f71	-0.017402383
99	0x3d52929e	0.051409356
100	0xbda86f8d	-0.082244016
101	0x3d373d34	0.044736102
102	0x3cb2380c	0.02175524
103	0x3d7238fd	0.05913638
104	0xbd1184e7	-0.035527136
105	0xbcb1474b	-0.02164044
106	0x3d0b51f8	0.03401372
107	0x3c0f1e07	0.008735186
108	0x3cfc8603	0.03082562
109	0x3d130f46	0.035903238
110	0x3cb439b2	0.022000168
111	0xbd0e6cf4	-0.034771875
112	0x3cc1e29f	0.023667632
113	0x38ca86a6	9.657191e-05
114	0x261d4fe3	5.4578584e-16
115	0x3d02fa3a	0.031976916
116	0xbc8fdce2	-0.01756138
117	0xbce5cde8	-0.028052285
118	0x3d2eba2b	0.042658012
119	0xbc39404f	-0.011306836
120	0x3c2f1749	0.010686704
121	0xbbc98641	-0.0061500375
122	0xba87872f	-0.001033997
123	0x3917f075	0.0001449006
124	0xbb941d3c	-0.0045200866
125	0xbb75a82c	-0.0037484271
126	0xb9939c5d	-0.00028154525
127	0xbd7e79d7	-0.062127914
128	0x2b0b874b	4.9570477e-13
129	0xbd3ea251	-0.046541516
130	0xbc5dc47d	-0.013535616
131	0xbd4ab80c	-0.049491927
132	0xbd7cda54	-0.06173165
133	0xbd619300	-0.05507183
134	0x3c8f6c3b	0.017507663
135	0xaac56dff	-3.5070555e-13
136	0xbd277fa7	-0.040893223
137	0x3cda0a07	0.02661611
138	0xbd1be9ad	-0.038064647
139	0x3cc6e977	0.024281247
140	0x3cf8c757	0.03036849
141	0xbcfc710a	-0.03081562
142	0x3d0fbb95	0.035091
143	0x3bdf0b69	0.00680678
144	0xbc2e06f9	-0.01062178
145	0x3cd1d2aa	0.025613148
146	0x367235d8	3.6092151e-06
147	0xbd64a7e6	-0.055824183
148	0xbcd308f9	-0.025761114
149	0xbd168da0	-0.036756158
150	0x3ca197c1	0.019725682
151	0x3c666f08	0.014064558
152	0xbce03f4e	-0.027373936
153	0xbcebdecc	-0.028792761
154	0x3d758e6c	0.059950277
155	0x3d0aa1c1	0.033845667
156	0xbd40c633	-0.047064018
157	0x3d392aac	0.04520671
158	0xbc969e01	-0.018385889
159	0xbbb219bf	-0.005435198
160	0xbc9d5713	-0.01920656
161	0x3c3758bf	0.011190592
162	0xbbf4a34d	-0.007465756
163	0xbcf3b8d3	-0.029751217
164	0x3a7ec9f3	0.0009719424
165	0xbcade9a3	-0.02122957
166	0xa785f531	-3.7180753e-15
167	0xbbaccad3	-0.005273202
168	0xbd6aa6a6	-0.057287835
169	0xbd0be662	-0.034155257
170	0xbd09fb34	-0.03368683
171	0x3d5f231d	0.054476846
172	0x3d3d9656	0.04628595
173	0xbd53d516	-0.051716886
174	0x3cb9cd7a	0.022680987
175	0xbd44cebf	-0.04804873
176	0x3cd4a7cf	0.025958924
177	0x3cdb5460	0.026773632
178	0xbd1c17f8	-0.038108796
179	0xbd05651f	-0.03256714
180	0x3c9b7217	0.0189753
181	0xbc584dfe	-0.013202189
182	0x3ce86707	0.02836944
183	0x3ce8aeae	0.028403606
184	0x3c885fda	0.016647268
185	0x3d039470	0.032123983
186	0x3d164128	0.03668323
187	0x3bfe4cac	0.007760605
188	0xb78b6c9d	-1.6620668e-05
189	0xbb362fc9	-0.0027799478
190	0xbd15c570	-0.036565244
191	0xbbe3d2e4	-0.0069526304
192	0x3c866a2e	0.016408052
193	0xbd006024	-0.031341687
194	0x3ceea501	0.029131414
195	0xbc7001ae	-0.014648838
196	0xbc6279de	-0.013823001
197	0xbbccf072	-0.0062542493
198	0xbc030326	-0.007996356
199	0x3ccfff3c	0.02539026
200	0x3a38db17	0.000705169
201	0xbd3b27b4	-0.04569216
202	0x3c1edefa	0.009696716
203	0xad8d0092	-1.6030097e-11
204	0xbc0fdb7e	-0.008780358
205	0x3d14c83c	0.03632377
206	0xbcd8aae5	-0.026448676
207	0x3c448c6c	0.01199637
208	0x3c28edab	0.010310571
209	0x3b683a5b	0.0035435173
210	0x3cd267f8	0.025684342
211	0x3d5bec17	0.05369195
212	0xbcb9ac6f	-0.02266523
213	0xbcba81c5	-0.022766957
214	0x3c467597	0.012112997
215	0xbb28a3b1	-0.0025732333
216	0x3d55ba6c	0.05217974
217	0xbd43ae26	-0.047773503
218	0xbce60457	-0.028078241
219	0x3d411309	0.047137294
220	0xbd093bb5	-0.033504207
221	0x3d67e6b1	0.05661649
222	0x3cb8e001	0.02256775
223	0xbcd0dace	-0.02549496
224	0xbd2379fc	-0.039911255
225	0xbc962cf9	-0.018331992
226	0x3c9f94d4	0.019480146
227	0xb958b956	-0.00020668408
228	0x338304b9	6.101022e-08
229	0xbc55a344	-0.013039414
230	0x3d4dd593	0.05025251
231	0xbb3363c9	-0.002737271
232	0x3d4423fb	0.047885876
233	0xbc18f998	-0.009336852
234	0x3d240615	0.040044863
235	0x3b4e70f8	0.003150044
236	0x3d113665	0.035452265
237	0xbcf183b7	-0.029481752
238	0x3ce19da4	0.02754099
239	0x3d322819	0.04349527
240	0x3c2c19f4	0.010504235
241	0xbcda889e	-0.026676472
242	0x3cfc34c6	0.030786883
243	0x3d11b732	0.0355751
244	0xbd3658ef	-0.044518407
245	0x3ccd9643	0.025096064
246	0x3cc9001c	0.024536185
247	0x3d3bfd1a	0.045895673
248	0xbc311a60	-0.010809511
249	0xbd91b068	-0.07113725
250	0xbd24d413	-0.040241312
251	0x3021b4b7	5.882827e-10
252	0xbce30d30	-0.02771625
253	0xbce659b3	-0.028118944
254	0x3d25f153	0.040513348
255	0xbcc4fa89	-0.024045246
