pointnet/weights_per_bundle_ratio025/T_PREF_right_best.pth (torch, 359830 bytes, 17 tensors)

t_grid f4 [100]
0	0x00000000	0.0
1	0x3c257eb5	0.01010101
2	0x3ca57eb5	0.02020202
3	0x3cf83e10	0.030303031
4	0x3d257eb5	0.04040404
5	0x3d4ede62	0.05050505
6	0x3d783e10	0.060606062
7	0x3d90cede	0.07070707
8	0x3da57eb5	0.08080808
9	0x3dba2e8c	0.09090909
10	0x3dcede62	0.1010101
11	0x3de38e39	0.11111111
12	0x3df83e10	0.121212125
13	0x3e0676f3	0.13131313
14	0x3e10cede	0.14141414
15	0x3e1b26ca	0.15151516
16	0x3e257eb5	0.16161616
17	0x3e2fd6a0	0.17171717
18	0x3e3a2e8c	0.18181819
19	0x3e448677	0.1919192
20	0x3e4ede62	0.2020202
21	0x3e59364e	0.21212122
22	0x3e638e39	0.22222222
23	0x3e6de624	0.23232323
24	0x3e783e10	0.24242425
25	0x3e814afd	0.25252524
26	0x3e8676f3	0.26262626
27	0x3e8ba2e9	0.27272728
28	0x3e90cede	0.28282827
29	0x3e95fad4	0.2929293
30	0x3e9b26ca	0.3030303
31	0x3ea052bf	0.3131313
32	0x3ea57eb5	0.32323232
33	0x3eaaaaab	0.33333334
34	0x3eafd6a0	0.34343433
35	0x3eb50296	0.35353535
36	0x3eba2e8c	0.36363637
37	0x3ebf5a81	0.37373737
38	0x3ec48677	0.3838384
39	0x3ec9b26d	0.3939394
40	0x3ecede62	0.4040404
41	0x3ed40a58	0.41414142
42	0x3ed9364e	0.42424244
43	0x3ede6243	0.43434343
44	0x3ee38e39	0.44444445
45	0x3ee8ba2f	0.45454547
46	0x3eede624	0.46464646
47	0x3ef3121a	0.47474748
48	0x3ef83e10	0.4848485
49	0x3efd6a05	0.4949495
50	0x3f014afd	0.5050505
51	0x3f03e0f8	0.5151515
52	0x3f0676f3	0.5252525
53	0x3f090cee	0.53535354
54	0x3f0ba2e9	0.54545456
55	0x3f0e38e4	0.5555556
56	0x3f10cede	0.56565654
57	0x3f1364d9	0.57575756
58	0x3f15fad4	0.5858586
59	0x3f1890cf	0.5959596
60	0x3f1b26ca	0.6060606
61	0x3f1dbcc5	0.61616164
62	0x3f2052bf	0.6262626
63	0x3f22e8ba	0.6363636
64	0x3f257eb5	0.64646465
65	0x3f2814b0	0.65656567
66	0x3f2aaaab	0.6666667
67	0x3f2d40a6	0.6767677
68	0x3f2fd6a0	0.68686867
69	0x3f326c9b	0.6969697
70	0x3f350296	0.7070707
71	0x3f379891	0.7171717
72	0x3f3a2e8c	0.72727275
73	0x3f3cc486	0.7373737
74	0x3f3f5a81	0.74747473
75	0x3f41f07c	0.75757575
76	0x3f448677	0.7676768
77	0x3f471c72	0.7777778
78	0x3f49b26d	0.7878788
79	0x3f4c4867	0.7979798
80	0x3f4ede62	0.8080808
81	0x3f51745d	0.8181818
82	0x3f540a58	0.82828283
83	0x3f56a053	0.83838385
84	0x3f59364e	0.8484849
85	0x3f5bcc48	0.85858583
86	0x3f5e6243	0.86868685
87	0x3f60f83e	0.8787879
88	0x3f638e39	0.8888889
89	0x3f662434	0.8989899
90	0x3f68ba2f	0.90909094
91	0x3f6b5029	0.9191919
92	0x3f6de624	0.9292929
93	0x3f707c1f	0.93939394
94	0x3f73121a	0.94949496
95	0x3f75a815	0.959596
96	0x3f783e10	0.969697
97	0x3f7ad40a	0.97979796
98	0x3f7d6a05	0.989899
99	0x3f800000	1.0

encoder.mlp.0.weight f4 [64, 3]
0	0xbebbbdca	-0.36668235
1	0x3d587cde	0.052853458
2	0xbde90f74	-0.113799006
3	0xbce7b734	-0.0282856
4	0xbeed0e2f	-0.46299884
5	0x3d64aee0	0.055830836
6	0xbec1fccc	-0.3788818
7	0x3eb52375	0.35378614
8	0x3e11a0a2	0.14221433
9	0x3d3140f7	0.043274846
10	0xbe9e7a57	-0.30952713
11	0xbefa280f	-0.48858687
12	0x3ef9c2d7	0.48781464
13	0xbdb9e14d	-0.09076176
14	0xbefa6e83	-0.4891244
15	0xbe44754f	-0.19185375
16	0xbf011c93	-0.50434226
17	0x3ea925ba	0.33036596
18	0xbebddb13	-0.37081203
19	0x3f10a1eb	0.5649707
20	0x3e95ce74	0.29259074
21	0xbea51b41	-0.32247356
22	0x3efa865e	0.4893064
23	0x3f0fe966	0.5621551
24	0x3ee587d8	0.44830203
25	0xbea59523	-0.32340345
26	0x3eb18165	0.34669033
27	0xbe114551	-0.14186598
28	0xbc0cd922	-0.00859669
29	0x3e3a7cfd	0.18211742
30	0x3f12915f	0.5725307
31	0xbdd8fe68	-0.10595399
32	0x3ddde4a8	0.10834628
33	0x3eedda0a	0.46455413
34	0xbed7080b	-0.41998324
35	0xbef8f534	-0.48624575
36	0x3e46ecf9	0.19426335
37	0xbe89982a	-0.26873904
38	0x3ccfdbe9	0.025373416
39	0xbecf1a07	-0.40449545
40	0xbeda1cce	-0.426001
41	0xbedd8c7f	-0.43271253
42	0x3e2c0b5d	0.1680121
43	0x3f0065ab	0.50155133
44	0x3da8659a	0.08222504
45	0x3f0572e4	0.52128434
46	0xbebfaceb	-0.37436613
47	0x3ec4951a	0.38395005
48	0x3e8f9393	0.28042278
49	0xbd593f88	-0.053039104
50	0xbe90fafe	-0.28316492
51	0xbdb760fb	-0.089540444
52	0xbb30741c	-0.0026924675
53	0xbe39da69	-0.18149723
54	0x3e3ec7b7	0.18630873
55	0xbb9c41c8	-0.004768584
56	0xbd8099b4	-0.062793165
57	0x3f0ac9df	0.5421428
58	0xbf079618	-0.529634
59	0x3f120b40	0.57048416
60	0xbf00add9	-0.5026527
61	0xbe7d402f	-0.24731515
62	0xbebac7fc	-0.364807
63	0x3e4af7bb	0.19821064
64	0x3e9e75c1	0.30949214
65	0xbdc93c57	-0.09825962
66	0xbef76aeb	-0.4832376
67	0xbd11b011	-0.0355683
68	0x3e69a529	0.2281691
69	0xbe300d10	-0.17192483
70	0xbed1cb65	-0.4097549
71	0x3d3e4451	0.04645187
72	0xbdd183fe	-0.10230254
73	0xbebc820d	-0.3681797
74	0x3eee16f8	0.465019
75	0x3e4b1795	0.19833215
76	0xbe5a3bf5	-0.21311934
77	0x3e111bb3	0.14170723
78	0x3d2f73b9	0.04283497
79	0xbe673b2c	-0.22581166
80	0x3e366066	0.1781021
81	0xbe6a8e73	-0.22905903
82	0x3e7048bf	0.2346525
83	0x3efd8947	0.49518797
84	0xbe086ef0	-0.1332357
85	0x3ecb8c7c	0.3975562
86	0x3edcd94e	0.4313454
87	0xbe8d6580	-0.276165
88	0x3e68a89c	0.2272057
89	0x3f085f3a	0.53270304
90	0x3f07264e	0.52792823
91	0xbbc2d824	-0.005946176
92	0xbd730145	-0.059327383
93	0x3f0052d4	0.50126386
94	0xbecbac0d	-0.39779702
95	0xbdb03886	-0.08604531
96	0x3ee4ecde	0.44711965
97	0xbcb36591	-0.021899017
98	0xbf151f5e	-0.5825099
99	0xbf041f97	-0.516107
100	0x3e97b705	0.2963182
101	0x3e9dfb95	0.30856004
102	0xbe8e8b02	-0.2784043
103	0x3df5018e	0.11963187
104	0xbda9b67f	-0.082867615
105	0xbc2d07e6	-0.010560965
106	0x3e02d890	0.12777925
107	0x3d9be80c	0.07612619
108	0x3dfaf3f6	0.12253563
109	0x3f04d83a	0.51892436
110	0xbe60099c	-0.21878666
111	0x3edfa25c	0.43678558
112	0xbf00773c	-0.5018194
113	0x3edf1e42	0.43577772
114	0xbe052027	-0.13000546
115	0xbeac7eca	-0.33690482
116	0xbe05c78a	-0.130644
117	0xbc8200ca	-0.015869517
118	0xbdc144e0	-0.09436965
119	0x3eff4f1b	0.4986504
120	0x3ea2bff4	0.31787074
121	0xbd4f82db	-0.050661903
122	0x3ed1c191	0.40967992
123	0xbec706f4	-0.38872492
124	0xbe080440	-0.13282871
125	0x3edd478f	0.43218657
126	0xbe345336	-0.17609867
127	0xbd684228	-0.056703717
128	0xbd4fe4bc	-0.050755247
129	0xbe324c32	-0.17411879
130	0x3f131d0c	0.57466197
131	0xbd8e1331	-0.06937254
132	0x3dfb033b	0.122564755
133	0xbe852b8c	-0.26009786
134	0xbea5a742	-0.3235417
135	0x3d392992	0.04520566
136	0x3e86d8b9	0.2633722
137	0xbe282082	-0.16418651
138	0x3deae494	0.11469379
139	0x3d54b242	0.051927812
140	0xbd2e8932	-0.04261131
141	0x3aa889d2	0.0012858456
142	0xbe2c09bf	-0.16800593
143	0x3d80336b	0.06259807
144	0x3ed0011b	0.40625843
145	0x3f00f8e7	0.50379795
146	0xbd03e466	-0.03220024
147	0xbc2fb745	-0.010724847
148	0xbe046cb9	-0.129321
149	0xbf168f90	-0.5881281
150	0x3e4db4b2	0.20088461
151	0x3ef528f7	0.47882816
152	0x3eaa8cbc	0.33310497
153	0x3ea69f30	0.32543325
154	0x3d41ae93	0.047285628
155	0x3ec81f69	0.39086464
156	0xbe2b0325	-0.16700418
157	0xbed06129	-0.40699127
158	0xbed14d48	-0.40879273
159	0x3c58098a	0.013185868
160	0xbe25aee1	-0.16179992
161	0x3ef2271c	0.47295463
162	0xbe977179	-0.2957876
163	0xbee974a2	-0.45596796
164	0x3f0bf75e	0.5467433
165	0xbe769c31	-0.2408302
166	0xbbde0dbe	-0.0067765405
167	0x3ced3ac9	0.028958695
168	0x3d7f6065	0.06234779
169	0xbebfa179	-0.3742788
170	0xbe573392	-0.21015766
171	0xbd7cb3c8	-0.06169489
172	0xbe104d9c	-0.14092106
173	0x3f0b1361	0.54326445
174	0x3dd23d6d	0.10265622
175	0xbde02a65	-0.10945586
176	0x3c054cfb	0.008136029
177	0x3eb09cf7	0.34494755
178	0x3f12bec9	0.57322365
179	0xbe51bc47	-0.20481978
180	0xbebd615c	-0.36988342
181	0x3d102871	0.035194818
182	0xbeec3f53	-0.46142063
183	0xbed1a96e	-0.40949577
184	0xbe52220b	-0.20520799
185	0xbea7cc8f	-0.32773253
186	0xbe561cd3	-0.20909433
187	0xbebc6348	-0.36794496
188	0x3e5f489f	0.21805046
189	0xbdb3c1fa	-0.087772325
190	0xbc61e4b1	-0.013787434
191	0x3dc680e2	0.09692551

encoder.mlp.0.bias f4 [64]
0	0x3df019af	0.11723649
1	0x3eef2482	0.4670754
2	0xbeb1105e	-0.345828
3	0x3e915dd5	0.283919
4	0x3e4d69ac	0.20059842
5	0xbeba35f3	-0.36369285
6	0x3de83f47	0.11340194
7	0xbcc9ef0e	-0.024650123
8	0x3c0a3770	0.008436069
9	0xbe41f6b7	-0.1894177
10	0x3ee943cc	0.45559537
11	0x3ec5490f	0.38532302
12	0x3daff7be	0.08592175
13	0x3e4a5682	0.19759563
14	0x3e67a5ab	0.22621791
15	0xbd8e119f	-0.06936955
16	0x3e470c66	0.19438323
17	0x3e5416ae	0.20711777
18	0xbe8631ec	-0.26209962
19	0xbd1ceede	-0.03831374
20	0x3e282211	0.16419245
21	0xbe9970b1	-0.2996879
22	0x3e744622	0.23854879
23	0xbe9ccae6	-0.3062355
24	0xbe192b09	-0.14957823
25	0xbc127dc5	-0.008941119
26	0x3cd791b2	0.02631459
27	0xbee09b8d	-0.43868676
28	0x3ec7a4a8	0.3899281
29	0xbe262b5e	-0.16227481
30	0xbebd19fd	-0.3693389
31	0xbdf53612	-0.11973204
32	0x3ee0129d	0.437642
33	0x3d79ff1b	0.061034303
34	0xbe0a8c1e	-0.13530013
35	0x3eb7dd7d	0.3591117
36	0x3ed2bcae	0.41159576
37	0x3eb0bacc	0.34517515
38	0xbe12a9f0	-0.14322639
39	0xbe9f8edd	-0.31163684
40	0xbea0ed2b	-0.31430945
41	0x3d85f97a	0.065417245
42	0xbdf2ca95	-0.11855046
43	0x3e490c89	0.19633688
44	0x3ec647fd	0.38726798
45	0xbd04c3e0	-0.032413363
46	0x3e3e5532	0.18587187
47	0x3ee40ea5	0.44542423
48	0xbecba869	-0.39776924
49	0xbb6f85fb	-0.0036548364
50	0xbddbdb58	-0.10735196
51	0xbe4ca1d9	-0.19983615
52	0x3c71cf35	0.014758875
53	0x3eab97d0	0.3351426
54	0xbed23762	-0.4105788
55	0xbd10310b	-0.03520302
56	0x3dc42cf1	0.095788844
57	0x3ead8e26	0.33897513
58	0xbe90b782	-0.28265005
59	0xbcd046f1	-0.025424452
60	0x3d3e7311	0.046496455
61	0xbe9f7deb	-0.31150755
62	0x3d97b20c	0.074070066
63	0xbe8d8f95	-0.27648607

encoder.mlp.2.weight f4 [128, 64]
0	0x368254d3	3.8841767e-06
1	0xbe031e4a	-0.12804523
2	0x3c1b421b	0.00947621
3	0x3d498dbe	0.04920744
4	0xbda113cb	-0.07865103
5	0x3d8e6316	0.06952493
6	0x3dac2110	0.08404744
7	0xbdbeb3a8	-0.093116105
8	0xbd399fc8	-0.045318395
9	0x3d4c576f	0.04988807
10	0xbd517d48	-0.051144868
11	0xbdf6bfee	-0.120483264
12	0xbde62c59	-0.112389274
13	0xbc61c3af	-0.013779565
14	0x3d82d8e5	0.063890256
15	0x3dc254c7	0.09488826
16	0x3d00506a	0.03132669
17	0xb7963119	-1.7904256e-05
18	0x3d5fc5de	0.05463206
19	0x3de2ff8e	0.110838994
20	0x299adf44	6.877704e-14
21	0x3cc861d9	0.02446072
22	0xbd8cc218	-0.06872958
23	0xbdb8f116	-0.090303585
24	0xbdf4453e	-0.119272694
25	0x3c172bea	0.0092267785
26	0x3ddc444d	0.10755215
27	0x3cbb91ac	0.02289661
28	0x3df47ee5	0.11938266
29	0xbc032ca7	-0.008006251
30	0x3da90ce6	0.08254413
31	0x3d3c79dc	0.04601465
32	0x3dc572c8	0.096410334
33	0x3be6348b	0.0070253066
34	0x3c71195f	0.014715522
35	0x3dbbe9d6	0.0917546
36	0x3d896d94	0.067103535
37	0xbdc2e8e6	-0.09517078
38	0xbd504887	-0.050850417
39	0x3dc21a27	0.094776444
40	0x3d01a96e	0.03165572
41	0xbdb446bd	-0.08802555
42	0xa9075d91	-3.0057178e-14
43	0xbdc67af4	-0.0969142
44	0xbd973046	-0.07382254
45	0xbde943e2	-0.11389901
46	0x3d0003dc	0.03125368
47	0xbd8e32b8	-0.069432676
48	0xbdf552ba	-0.119786695
49	0xbaefe11e	-0.0018301343
50	0xbdebc49d	-0.115121104
51	0x3d899fbe	0.067199215
52	0xbcb685ab	-0.022280535
53	0xbb921a89	-0.0044587296
54	0xbc9722b2	-0.018449161
55	0xbc418362	-0.011811109
56	0xbdc3ae0d	-0.09554682
57	0x3dae3583	0.085063
58	0x3d20f81f	0.039299127
59	0xbdd31fe7	-0.10308819
60	0xa8d4003f	-2.3536835e-14
61	0x2b1e4d88	5.624047e-13
62	0x3cbe0fa6	0.023200821
63	0x3c9c7a08	0.019101158
64	0x39fbe46b	0.00048044635
65	0xbbb173ba	-0.005415407
66	0xbd79fa61	-0.061029796
67	0xbd8be90d	-0.0683156
68	0x3de56bd7	0.112022094
69	0x3da424ca	0.080148295
70	0x3cd4f281	0.025994541
71	0x3dce2c04	0.10066989
72	0xbcd2c8fd	-0.025730604
73	0x3de2074b	0.11036547
74	0x3d1bbe01	0.038023
75	0x3d5d75e5	0.05406751
76	0x3de955e3	0.11393335
77	0x3c173465	0.0092288
78	0x3df991bd	0.121860005
79	0xbd2502ec	-0.04028599
80	0x3e01112a	0.12604204
81	0x3d0c8de8	0.03431502
82	0x3d0b954c	0.034077927
83	0x3c444772	0.0119799245
84	0x3c062e69	0.008189776
85	0xbd5b14f4	-0.05348678
86	0xbd1d4a3e	-0.03840088
87	0xbc5aba61	-0.0133501
88	0x3c12a157	0.008949599
89	0x3dcafb5b	0.099112235
90	0x3cd12232	0.025529
91	0x3d2dda58	0.042444557
92	0x3da90b3d	0.08254097
93	0x3d916a77	0.07100385
94	0xbdc31f43	-0.09527447
95	0xbd3dde1b	-0.046354394
96	0xbc051b36	-0.008124163
97	0x3d696ee9	0.056990538
98	0xbdb0d099	-0.08633537
99	0x3ddc30e3	0.10751512
100	0x3da1a6a1	0.0789311
101	0xbbd11936	-0.006381179
102	0x3da6cf63	0.081450246
103	0xbdcbefdc	-0.09957859
104	0xbdc3a56f	-0.09553038
105	0xbcf45c57	-0.029829187
106	0x3ca2a6e9	0.01985498
107	0xbd2420bb	-0.040070277
108	0xbc4aceb7	-0.012378386
109	0xbcd7e115	-0.026352445
110	0xbba16c8d	-0.0049262703
111	0xbdbd1053	-0.09231629
112	0xbdf4ef0e	-0.119596586
113	0x3dd92961	0.106035955
114	0xbd8771a4	-0.06613472
115	0x3dfd2be1	0.12361885
116	0x3b05d311	0.0020419995
117	0xbde0a6b8	-0.10969299
118	0xbda088a7	-0.07838564
119	0xbc7f1bd2	-0.015570598
120	0x3cfe00e3	0.031006282
121	0xbc6ace61	-0.014331431
122	0xbd70daf6	-0.058802567
123	0x3b60de3f	0.0034312156
124	0x3da07aff	0.0783596
125	0x3d394473	0.045231294
126	0xbd982987	-0.07429796
127	0x3d3b4e85	0.04572918
128	0xb6c2cb0d	-5.8052888e-06
129	0x3dc83d65	0.09777335
130	0x3b1e80a8	0.0024185572
131	0x3dd1fe97	0.10253637
132	0x3ca4967d	0.02009129
133	0x3d9e0ac0	0.07716894
134	0x3b25a6ef	0.0025276502
135	0x3a1d0999	0.0005990505
136	0xbdc33018	-0.095306575
137	0x3a8f966d	0.0010954865
138	0x3dc753d3	0.09732785
139	0x3c9f18f1	0.019421073
140	0xbd370088	-0.04467824
141	0x3c0bc113	0.008529919
142	0x3b6ac5b2	0.0035823402
143	0xbb83888a	-0.0040140795
144	0x3c87ef73	0.01659367
145	0x3da65487	0.08121591
146	0x3bfec99d	0.007775499
147	0xbda4114a	-0.0801111
148	0x3cc9d13e	0.024635907
149	0x3b51413e	0.0031929757
150	0xb8988bc1	-7.273956e-05
151	0x3d99f9e4	0.07518366
152	0xbd9346b3	-0.07191219
153	0xbb64ed48	-0.003493147
154	0x3c5672e8	0.013088919
155	0xb9438586	-0.0001864639
156	0x397ec5fc	0.00024297083
157	0x392b6b45	0.00016347792
158	0x3cf88a8e	0.030339506
159	0xbbce4b5f	-0.006295606
160	0xbcb8026b	-0.02246209
161	0xb7fda30b	-3.0235873e-05
162	0xb4a62129	-3.0944037e-07
163	0x3bd67b60	0.006545469
164	0x3ce2ea8d	0.027699733
165	0x3dc47c86	0.095940635
166	0x3d4d63ec	0.05014412
167	0xbcc65edb	-0.024215152
168	0xbd0da261	-0.034578685
169	0xbcdb7124	-0.026787348
170	0x3c0195f0	0.007909283
171	0x3ba2599a	0.004954529
172	0xbd2f941f	-0.04286587
173	0x3bde96ff	0.0067929025
174	0x3ce16ccd	0.0275177
175	0x3beb5cd8	0.0071826987
176	0xbd16688b	-0.036720794
177	0x3dfe2013	0.124084614
178	0x38d545a0	0.000101696
179	0xbd752252	-0.059847184
180	0xbdb577a5	-0.08860711
181	0xbd20e7f2	-0.0392837
182	0x3d65090a	0.055916823
183	0xaeff24cb	-1.1602593e-10
184	0xbcbdd6fa	-0.023173798
185	0x3b3f6270	0.002920296
186	0xbd968916	-0.07350366
187	0xbd46d652	-0.048544236
188	0x3d818a61	0.06325222
189	0xbd322346	-0.04349067
190	0xbdc97392	-0.098364964
191	0x3a7d8970	0.0009671664
192	0x3c9b83ba	0.01898371
193	0x3d8b96b2	0.06815852
194	0xbcac0c85	-0.021002064
195	0xbccaec47	-0.024770869
196	0xbdc38ae6	-0.09547977
197	0xbdf5819d	-0.119876124
198	0x3dabc0ed	0.08386407
199	0x3d881207	0.066440634
200	0xbdf109df	-0.11769461
201	0x3d8ccb4c	0.06874713
202	0x3deaf1fe	0.114719376
203	0x3d7f055a	0.062260963
204	0xbd38f7fb	-0.045158368
205	0x3bea37f1	0.007147782
206	0x3bfb1ba8	0.007663209
207	0xbc911093	-0.017708099
208	0x3da7c54e	0.0819193
209	0x3c983a83	0.018582588
210	0xbd324b1d	-0.043528665
211	0xbdc4f7d2	-0.096175805
212	0x3ba0dffd	0.004909514
213	0xbcd49694	-0.025950707
214	0xbd70913a	-0.05873225
215	0xbd13f870	-0.0361256
216	0x3d9791c9	0.07400853
217	0xbd029223	-0.031877648
218	0x3da4c695	0.08045689
219	0x3c2234a0	0.009900242
220	0x3d01a7e8	0.03165427
221	0x3dbfd50b	0.093668066
222	0x3d579e5e	0.052641265
223	0x3c61167e	0.013738273
224	0xbdaa1b88	-0.083060324
225	0x3da6e187	0.08148485
226	0x3dbf81d2	0.09350933
227	0x3cae415f	0.021271406
228	0x3d40b8d3	0.047051262
229	0xbd8f980b	-0.07011422
230	0x3b330e1d	0.0027321645
231	0xbdac465b	-0.08411857
232	0x3d86a4cd	0.06574402
233	0x3ddbe6cf	0.107373826
234	0x3985db34	0.00025531056
235	0xbbe16d07	-0.006879452
236	0x3d311790	0.04323536
237	0x3d5b3335	0.05351563
238	0x3d4025de	0.046911113
239	0xbdc75a6b	-0.09734043
240	0x3de561fa	0.11200328
241	0x3c24234a	0.010018179
242	0x3d4bdbb2	0.049770065
243	0xbdc13854	-0.09434572
244	0x3ba3552e	0.0049845194
245	0x3dcc0ae7	0.09963017
246	0x3d97ceda	0.07412501
247	0x3bd433e9	0.0064759147
248	0x3abf809e	0.0014610474
249	0xbdc04441	-0.093880184
250	0xbd49c0e0	-0.049256206
251	0xbd4a18d2	-0.049340077
252	0x3d989002	0.07449342
253	0x3b63ab5e	0.0034739594
254	0x3da9bf04	0.082883865
255	0xbb3c8409	-0.0028765223

encoder.mlp.2.bias f4 [128]
0	0x3d132e21	0.035932664
1	0x3dad253f	0.0845437
2	0x3d2f9e20	0.04287541
3	0xbd7133b3	-0.058887195
4	0xbd5a5664	-0.053305045
5	0xbdb19589	-0.086711
6	0xbbf82e4b	-0.007573878
7	0x3c334bc7	0.01094336
8	0x3c88bc4c	0.01669135
9	0xbd1bce6a	-0.03803865
10	0xbd80c682	-0.06287862
11	0x3dc9c11a	0.09851284
12	0x3d8ece45	0.069729365
13	0x3c08aa03	0.008341315
14	0x3be4274d	0.006962693
15	0x3dabde17	0.0839197
16	0xbc270fb5	-0.010196616
17	0xbdbc6646	-0.091991946
18	0x3c8c5a60	0.017132938
19	0x3d89e40f	0.06732952
20	0xbdb09c9b	-0.0862362
21	0x3da9c691	0.08289827
22	0x3ce4a2c0	0.027909636
23	0x3dad6d23	0.08468082
24	0xbd9b8e21	-0.07595468
25	0xbdb44ea2	-0.088040605
26	0x36d911a3	6.469157e-06
27	0x3cb4b4ef	0.022058932
28	0x3d8aea6e	0.06782995
29	0xbd897192	-0.06711115
30	0x3d795b73	0.06087823
31	0xbdd2cd04	-0.1029301
32	0xbd404e5f	-0.04694974
33	0xbd9e8f0d	-0.077421285
34	0xbdbc9b3a	-0.092092946
35	0xbd68897d	-0.056771744
36	0xaf675188	-2.1038293e-10
37	0xbb3f9bfc	-0.002923726
38	0xbcda2aa7	-0.026631666
39	0x3cc1ee77	0.02367328
40	0xbc0fec83	-0.008784416
41	0xbd20fee6	-0.03930559
42	0x3dac98d2	0.08427586
43	0x3d215c6c	0.03939478
44	0x3d56e7b2	0.052467056
45	0xbcd7c15b	-0.026337316
46	0xbd945fcc	-0.07244834
47	0xbdcd4b92	-0.100241795
48	0xbcf2bf3c	-0.029632203
49	0x3d5f3a6a	0.054499067
50	0xbc985301	-0.018594267
51	0x3d266feb	0.040634077
52	0x3d45dced	0.048306394
53	0x3dc112c5	0.09427408
54	0xbc9b25b8	-0.018938884
55	0x3d4c1626	0.04982581
56	0x3dbbd76d	0.091719486
57	0xb72dae74	-1.0352222e-05
58	0xbcd4180e	-0.025890376
59	0xbd38eaf5	-0.045145947
60	0x3bfa31df	0.0076353396
61	0x3b7269ab	0.0036989253
62	0x3d8b8486	0.06812386
63	0xbb60ac18	-0.0034282263
64	0x3dc55464	0.09635237
65	0xbd0ddeb9	-0.034636233
66	0x3d90d0de	0.07071088
67	0x3d5d3f33	0.05401535
68	0xbcb8d00e	-0.022560146
69	0x3dccada2	0.09994055
70	0x3c2f7bbe	0.010710655
71	0x3a82f477	0.0009991069
72	0xbd1a249b	-0.037632566
73	0xbdaf708e	-0.0856639
74	0xbd8ddf03	-0.06927302
75	0x3d93bb08	0.07213408
76	0x3d4a29cd	0.04935627
77	0xbd9ea4d6	-0.07746284
78	0x3d29f3bb	0.041492205
79	0x3dc02301	0.093816765
80	0x3ccc7ec1	0.024962785
81	0x3da7a7a0	0.08186269
82	0x3dc5a0cb	0.096498094
83	0xbce42ac2	-0.02785242
84	0x3d3b72e7	0.045763876
85	0xbd002e17	-0.031293955
86	0x3d8ce396	0.06879346
87	0x3d5e2b20	0.054240346
88	0x3d061619	0.032735918
89	0x3de3f6ef	0.11131083
90	0xbd8a610a	-0.0675679
91	0x3dc818f6	0.09770386
92	0xbce6e9ff	-0.02818775
93	0x3ce9671f	0.028491555
94	0x3ce6bd1a	0.028166343
95	0xaf15cb72	-1.362375e-10
96	0xbc6bb219	-0.0143857235
97	0x3cf1ceeb	0.029517611
98	0xbd24ee33	-0.040266227
99	0x3d08e0c7	0.03341749
100	0x3cb631d0	0.02224055
101	0x3c525d95	0.0128396945
102	0x3dd7eb87	0.1054297
103	0xbd97d0dd	-0.074128844
104	0x3d5af625	0.053457398
105	0xbd180d6c	-0.037122175
106	0x3da4f10e	0.0805379
107	0x3ce64c8a	0.028112669
108	0x3d595b38	0.05306551
109	0x3dc65047	0.096832804
110	0x3d34ef1b	0.04417334
111	0xbd444f50	-0.0479272
112	0xbd98c4f3	-0.0745944
113	0xbda55a4b	-0.08073863
114	0x3c91463f	0.017733691
115	0xbd2bf485	-0.04198124
116	0xb1d97aaa	-6.3294765e-09
117	0xbdc76e69	-0.09737856
118	0xbc7442bf	-0.014908492
119	0xbc561c39	-0.013068252
120	0xbcfcdeb1	-0.030867906
121	0x3d1b24d8	0.037876934
122	0x3d809bd3	0.06279721
123	0xbd554647	-0.052068975
124	0xba21f3d2	-0.00061779947
125	0x3d7f49cf	0.06232625
126	0x3d9142b8	0.07092804
127	0x3d2aef74	0.041732267

encoder.mlp.4.weight f4 [256, 128]
0	0x3da20fb9	0.07913155
1	0x3c8786a7	0.0165437
2	0x298e34a3	6.315198e-14
3	0xbda35d15	-0.07976738
4	0xbc61dd2f	-0.013785644
5	0xbcb29c13	-0.021802938
6	0x3a9082d7	0.0011025321
7	0x3d4e2b6c	0.05033438
8	0xbd92eecd	-0.07174454
9	0x3c328b23	0.010897431
10	0x3d93f561	0.07224537
11	0x3d3889c2	0.04505325
12	0xbd1f7864	-0.038933173
13	0x3d13f2df	0.03612029
14	0x282b0bc8	9.4949615e-15
15	0xae92c719	-6.674678e-11
16	0x3c88fc12	0.016721759
17	0xbd926088	-0.07147318
18	0x28562bf3	1.1888916e-14
19	0xbd59aba9	-0.053142224
20	0xbd6f548b	-0.058430236
21	0xbd15916f	-0.03651565
22	0xb5835689	-9.785446e-07
23	0xbd013343	-0.031543028
24	0xa89534da	-1.6565244e-14
25	0xb6051549	-1.9830934e-06
26	0xb0aecc8c	-1.2718302e-09
27	0x2766f3ae	3.205101e-15
28	0xa8dae574	-2.4302371e-14
29	0xbc4dcdd9	-0.012561285
30	0x3d009de8	0.03140059
31	0xbd01f864	-0.031731024
32	0xbcb9fc41	-0.022703292
33	0xbb50dbf4	-0.0031869384
34	0xbcd8f468	-0.02648373
35	0xbd54404b	-0.051819127
36	0x39b83bf5	0.00035139886
37	0x3a8ae288	0.0010596076
38	0x3cb0f507	0.021601213
39	0x3d834a88	0.064107
40	0xac017376	-1.8396096e-12
41	0xb5b42651	-1.3422197e-06
42	0x3d574f3b	0.052565794
43	0x3d8b2d79	0.067957826
44	0xb1daf05b	-6.3719603e-09
45	0xa8bfacdf	-2.128023e-14
46	0x3bde893c	0.006791262
47	0xbd9681d3	-0.07348981
48	0x3d152817	0.036415186
49	0xa86aaa5e	-1.3026552e-14
50	0x3bfc981a	0.0077085616
51	0x3dad4689	0.08460719
52	0x3c07747d	0.008267519
53	0x3c996ab1	0.018727632
54	0xa80b59fa	-7.735561e-15
55	0xbc67cafd	-0.014147517
56	0x3399749a	7.1458274e-08
57	0x32accf9f	2.011785e-08
58	0x3b8f0182	0.0043641934
59	0xbca4accf	-0.020101933
60	0xbd5897f0	-0.052879274
61	0x28e3e54d	2.5301506e-14
62	0xbc8af568	-0.016962722
63	0x3d05255b	0.032506328
64	0x3da5301d	0.080658175
65	0x3da2c536	0.07947771
66	0xbbae40b9	-0.005317774
67	0x3d10182b	0.0351793
68	0xbd781ca2	-0.06057418
69	0xa6329fbd	-6.197264e-16
70	0x3d0f67eb	0.035011213
71	0x3d281ee2	0.041045077
72	0xb58c1f73	-1.0439966e-06
73	0xbd6eaed3	-0.058272194
74	0x3d261991	0.040551726
75	0xbcbd1b4a	-0.023084302
76	0x3d2e5cf4	0.042569116
77	0x3d947d6b	0.07250484
78	0xb0e75dc6	-1.6834114e-09
79	0x3bfeebb9	0.007779565
80	0x3d95b00e	0.073089704
81	0x34328353	1.6625317e-07
82	0xbd314783	-0.04328109
83	0x3d50ffdf	0.051025268
84	0x362a74a9	2.539988e-06
85	0xa73b45d8	-2.5989326e-15
86	0x38794fc4	5.9440514e-05
87	0x3cacefc3	0.021110421
88	0xa8605e18	-1.2454901e-14
89	0x3dab420a	0.08362205
90	0x2c81f856	3.6939713e-12
91	0xbd8d5274	-0.06900492
92	0xb65cabe5	-3.288261e-06
93	0xbd35f84b	-0.044426244
94	0x3883f261	6.291713e-05
95	0x29ebc63e	1.0470486e-13
96	0x26f9ef6d	1.7342742e-15
97	0xa8a4f92e	-1.8315722e-14
98	0xa905f101	-2.974097e-14
99	0xbdb071f8	-0.08615488
100	0x3b5385c9	0.0032275787
101	0x3d64ea1b	0.055887323
102	0xbb9571bd	-0.004560678
103	0xae03265f	-2.9820032e-11
104	0xbd25b49c	-0.040455446
105	0xbdaf7480	-0.085671425
106	0xa90fefc8	-3.1960356e-14
107	0x2eed7f11	1.0800084e-10
108	0x3d876e56	0.06612842
109	0x3c2f949d	0.0107165845
110	0x36625dd0	3.373123e-06
111	0xbc1820b0	-0.009285137
112	0x3c9bccee	0.019018617
113	0x27194563	2.127063e-15
114	0x3d4cc07b	0.04998825
115	0x3d0dd57d	0.034627426
116	0x285c01d5	1.22128505e-14
117	0xbc6b1a74	-0.014349569
118	0x3d664b62	0.056224234
119	0xbbf1020b	-0.00735498
120	0x30eec2c1	1.7372132e-09
121	0xbcd4fb3a	-0.0259987
122	0x3d263483	0.040577423
123	0x3cd18699	0.025576876
124	0xbc8d99da	-0.017285276
125	0xbccad44d	-0.024759436
126	0x3d517d9c	0.05114518
127	0xbbfdf776	-0.007750447
128	0xbdaf5ede	-0.08563016
129	0xbb230a8e	-0.0024878117
130	0xb69b2a84	-4.6243094e-06
131	0x3d8c6838	0.06855816
132	0xbd6714f7	-0.056416478
133	0x3d18244b	0.037143987
134	0x3cafa5e1	0.021441402
135	0x3d44daf4	0.048060372
136	0xbd3600c5	-0.044434328
137	0x3d016bbb	0.03159688
138	0xbd0209d9	-0.031747673
139	0x3d4a13cc	0.049335286
140	0xbd9ca9e3	-0.07649591
141	0x3cae1916	0.021252196
142	0x2707415e	1.877045e-15
143	0xb5f72f49	-1.8416696e-06
144	0x3ca467c9	0.02006902
145	0xbda5e47f	-0.08100223
146	0xa80412cd	-7.331549e-15
147	0xbc98cd24	-0.018652506
148	0xbd5cd5c4	-0.0539148
149	0xbca62f1c	-0.020286135
150	0xb4bf6fe1	-3.5657925e-07
151	0xbcb437ce	-0.021999266
152	0x2989af84	6.114469e-14
153	0x2887db15	1.5083023e-14
154	0x2e048df8	3.013942e-11
155	0x2a1f8dbc	1.4171211e-13
156	0x2e1ad32d	3.5203108e-11
157	0x3cac22ea	0.021012742
158	0xbc235842	-0.009969773
159	0xbceea285	-0.02913023
160	0xbc19cdf2	-0.00938748
161	0x3ccd77d4	0.025081553
162	0x3d9d5a11	0.076831944
163	0x3d65d477	0.056110825
164	0x398bc90d	0.0002666194
165	0x3afd80f7	0.0019340803
166	0xbda7c6a2	-0.08192183
167	0x3c6bd70d	0.014394534
168	0x2781d5a6	3.603633e-15
169	0x2b1d0a7d	5.579216e-13
170	0xbd49e897	-0.04929408
171	0x3ccbde89	0.024886386
172	0xb3968d48	-7.010618e-08
173	0xba14895f	-0.0005666222
174	0x3c2e62c1	0.010643662
175	0xbd5f11e2	-0.054460414
176	0x3c0be28f	0.0085379025
177	0xa495d22b	-6.497449e-17
178	0xbd4bbd8f	-0.049741324
179	0x3c3b4c62	0.011431785
180	0x3bf227ca	0.007389997
181	0x3d02793e	0.031853907
182	0xa9612c46	-4.9998437e-14
183	0xbd4af155	-0.04954656
184	0xb4ac75b3	-3.2123134e-07
185	0x3385ec3d	6.2362666e-08
186	0x3d3295be	0.043599837
187	0xbc9a55a0	-0.018839657
188	0x3d84cce9	0.06484396
189	0x36963560	4.476562e-06
190	0xbcef53a2	-0.029214684
191	0xbd49b488	-0.049244434
192	0xbcca0199	-0.024658965
193	0x3d21f3f7	0.039539304
194	0xbca8bc07	-0.02059747
195	0x3d9ebb0b	0.07750519
196	0xba552679	-0.0008131038
197	0xab2c9be4	-6.1323017e-13
198	0x3c1cf826	0.009580648
199	0xbd081e12	-0.033231802
200	0x2885d4de	1.4858283e-14
201	0x3d9db014	0.076996
202	0x3d1b3bc8	0.03789881
203	0xbbc86ae4	-0.006116258
204	0x3d9fa2cd	0.07794724
205	0x3da1eca9	0.079064675
206	0xa821d494	-8.983391e-15
207	0xbd178ebe	-0.037001364
208	0x3bdb7f06	0.006698492
209	0x2a173fd0	1.3433634e-13
210	0x3d81885d	0.06324837
211	0x3d3869c0	0.045022726
212	0xbc5e2bb0	-0.013560221
213	0xa9683210	-5.155777e-14
214	0x3c7c3cb5	0.015395333
215	0x3da778a3	0.081773065
216	0x39b1ea0b	0.00033934446
217	0x3cbbc509	0.022921102
218	0x29dd1ae1	9.819034e-14
219	0x3da77cb6	0.081780836
220	0xb7a269ed	-1.936123e-05
221	0xbb7d2374	-0.0038625868
222	0xbb48711f	-0.0030585004
223	0x284bf803	1.1322543e-14
224	0xbc331cec	-0.0109321885
225	0xb610d486	-2.1581377e-06
226	0x26ce746f	1.4325681e-15
227	0xbda1a5fd	-0.07892988
228	0xbca0cd1f	-0.01962906
229	0xbc0248ad	-0.007951898
230	0x3cf8c603	0.030367857
231	0x3283543c	1.5288713e-08
232	0xbc95959c	-0.018259816
233	0xbcca3595	-0.024683753
234	0xb82f63b4	-4.1816107e-05
235	0xa7f62502	-6.831884e-15
236	0xbd866de8	-0.06563932
237	0x3c928245	0.017884383
238	0x3a9a6993	0.0011780731
239	0xbc45e033	-0.012077379
240	0x3d79cd2e	0.06098669
241	0xb9219d98	-0.00015412865
242	0xbcb07d4c	-0.021544121
243	0xbc9215a7	-0.01783259
244	0xb5b0cf64	-1.317338e-06
245	0x3d54a92c	0.051919147
246	0x3cb9f79e	0.02270108
247	0xbd5e60f8	-0.054291695
248	0xb7f7461d	-2.9477344e-05
249	0xbbad1680	-0.005282223
250	0x3d0c12b3	0.03419752
251	0x3cb20ff9	0.021736132
252	0x3c03432d	0.008011621
253	0xbcb9ebc8	-0.022695437
254	0x3bb7a8c6	0.005604836
255	0xbc4603b0	-0.01208584

encoder.mlp.4.bias f4 [256]
0	0xbd973262	-0.07382657
1	0x3b07f0fa	0.0020742998
2	0xbd87e790	-0.06635964
3	0xbcb2eec6	-0.021842372
4	0x3d70fb14	0.058833197
5	0xbb672d1a	-0.0035274685
6	0x3d531943	0.051537763
7	0x3d483ebd	0.048887957
8	0xbd5a832a	-0.053347744
9	0xaf518278	-1.9054791e-10
10	0xbc1e5817	-0.009664557
11	0xbd90d5a8	-0.07072002
12	0xbc2d2c40	-0.010569632
13	0x3d137fee	0.036010675
14	0x2e14caf6	3.383157e-11
15	0xbd5259e0	-0.051355243
16	0x3d31ffdd	0.0434569
17	0xbd2a46ae	-0.04157131
18	0xbd313623	-0.04326452
19	0xbda0126d	-0.078160144
20	0x3d3bffc5	0.045898218
21	0x3d81acbe	0.06331776
22	0x3c976b1e	0.018483695
23	0xba3ac3b5	-0.00071244995
24	0x3c993e4f	0.018706469
25	0x3d8eddd7	0.06975906
26	0x3d37828d	0.044802237
27	0xbd48d65b	-0.04903255
28	0xbd514844	-0.05109431
29	0xbd98b79a	-0.07456894
30	0x3c3d9d71	0.0115731815
31	0xbd637c34	-0.05553837
32	0xbd38c48e	-0.045109324
33	0xbd677a14	-0.056512907
34	0x3bf48c0a	0.007462983
35	0xbd91cb25	-0.07118825
36	0x3d32578c	0.043540522
37	0x3d4bbe2a	0.0497419
38	0xbc594502	-0.013261082
39	0x3cedfdb4	0.02905164
40	0x3c3c29f7	0.011484615
41	0x3c0c96fe	0.008580921
42	0xbd1b87c7	-0.037971284
43	0x3d26ee8d	0.040754844
44	0xbd7b2abd	-0.061320055
45	0x3c7eaaaf	0.015543624
46	0xbd77a8db	-0.060463767
47	0x3d9c0933	0.07618942
48	0x3c12b24c	0.008953642
49	0x3d5a58a5	0.053307194
50	0xbd882f41	-0.06649638
51	0x3d55b6e4	0.05217637
52	0x2ab548ed	3.220266e-13
53	0xbd6879f9	-0.056756947
54	0xbc57b1d5	-0.013164957
55	0x3c42e5be	0.011895595
56	0x3d51f0e7	0.051255133
57	0xbc3318c0	-0.010931194
58	0xbd60b09a	-0.05485592
59	0x3d436506	0.047703765
60	0xbd8c7e5b	-0.06860038
61	0x3d947159	0.07248182
62	0x3d2e94a8	0.04262224
63	0xbd5bbe33	-0.053648185
64	0xbcfd27e2	-0.030902807
65	0xbce356e1	-0.027751388
66	0xbbcbe99f	-0.006222918
67	0xbd442a2a	-0.047891773
68	0xbc40e0cb	-0.011772345
69	0x3c9e5899	0.019329356
70	0x3d4a1ed1	0.049345795
71	0xbd8eef58	-0.06979245
72	0x3c8b7ef8	0.017028317
73	0xbd062443	-0.032749426
74	0x3b8f8026	0.00437929
75	0x3d07a7ee	0.033119135
76	0x3d6c1d4f	0.05764514
77	0xbd87cf38	-0.06631321
78	0xbb4fcf85	-0.0031709385
79	0x3d02f5a1	0.03197253
80	0x3d362d60	0.044476867
81	0xbd92d5ac	-0.07169661
82	0x3d9cd483	0.07657721
83	0x3d390d74	0.045178846
84	0xbd8f4a94	-0.069966465
85	0xbd805a08	-0.06267172
86	0x3d02e3bc	0.031955466
87	0x3c36d187	0.011158354
88	0xb3ff4e02	-1.18885524e-07
89	0x3d8150fd	0.063142754
90	0x3d8491c0	0.06473112
91	0x3d3135b3	0.043264102
92	0xbd983613	-0.07432189
93	0xbad31c9a	-0.0016106546
94	0x3d5b058f	0.053472098
95	0xbc5caaef	-0.013468488
96	0x3c73a386	0.01487053
97	0xbd9e6735	-0.07734529
98	0xbb75b0cb	-0.003748941
99	0xbd2e82ab	-0.042605083
100	0xbd03cb2f	-0.032176193
101	0x3b920ebd	0.0044573233
102	0xbd945146	-0.07242064
103	0x3d0a9c6d	0.033840586
104	0xbd5b13f8	-0.05348584
105	0xbd07bc00	-0.033138275
106	0xbc84035d	-0.016114885
107	0x3d7dfeda	0.062010624
108	0xbcfd0ab4	-0.030888893
109	0x3d2ec2de	0.04266631
110	0xbd7ef5dc	-0.06224619
111	0xb66ba3d0	-3.511308e-06
112	0x3d763475	0.06010862
113	0x3cb1d8f1	0.021709891
114	0x3caa8a01	0.020817759
115	0xbd59f1a6	-0.05320897
116	0xbb607fda	-0.0034255893
117	0xbd45b37d	-0.048266876
118	0xbd553e5f	-0.052061435
119	0x3b8a3be9	0.0042185676
120	0x3d5b24da	0.05350194
121	0x3d8de63a	0.06928678
122	0x3d0ac72d	0.033881355
123	0x3d826a57	0.06367939
124	0x3d6035a2	0.05473865
125	0x3d4db30f	0.05021959
126	0xbd875048	-0.06607109
127	0x3d6be8b7	0.05759498
128	0x3d8260f1	0.06366146
129	0xbd796831	-0.06089038
130	0xbd6b522d	-0.057451416
131	0x3d7c9756	0.061667763
132	0x3d6ffe59	0.058592174
133	0x3d05e3e4	0.032688037
134	0xbbb95047	-0.0056553218
135	0xbd96b3ad	-0.07358489
136	0xbceb566b	-0.02872773
137	0xbc829907	-0.01594211
138	0x3d233709	0.039847407
139	0x3cb77c52	0.022398148
140	0xbccafdc0	-0.0247792
141	0xbd6730cb	-0.056443017
142	0xbca8c707	-0.020602716
143	0xbd72d7be	-0.05928778
144	0xbd2de534	-0.042454913
145	0x3c905add	0.017621452
146	0x3d165271	0.036699716
147	0x3ce3bf83	0.02780128
148	0xa90a4097	-3.0698178e-14
149	0xbd49c81e	-0.049263112
150	0xbd1ff8aa	-0.039055504
151	0x3cbb431a	0.022859145
152	0xb4cacf55	-3.7776286e-07
153	0x3cb48fbb	0.022041192
154	0x3c25b260	0.010113329
155	0x3d0fca0f	0.035104807
156	0x3d85bc3e	0.06530045
157	0x3d9ba048	0.075989306
158	0x3c180187	0.009277708
159	0xbd7b20ea	-0.061310686
160	0xbc37b786	-0.011213189
161	0x3d76197f	0.06008291
162	0x3d5f3ef3	0.054503392
163	0x39f3ec9e	0.00046524865
164	0xbd81ff3e	-0.06347512
165	0xbd259328	-0.040423542
166	0x3c5a84e9	0.013337352
167	0xbd195d6d	-0.037442613
168	0xbd1af07c	-0.037827
169	0xbd87baad	-0.066274025
170	0xbbb0d653	-0.005396643
171	0xbca58379	-0.020204293
172	0x3d700868	0.058601767
173	0x3d6da475	0.058018167
174	0xbccb62fe	-0.024827477
175	0x3cb2791e	0.021786269
176	0xbd89f5c7	-0.067363314
177	0x3d81147e	0.06302737
178	0xbd9164ea	-0.07099326
179	0x322b374d	9.966084e-09
180	0xbd3f687a	-0.046730496
181	0x3cfa7c0b	0.030576726
182	0xbd1d4411	-0.03839499
183	0x3d844336	0.06458132
184	0x3d974a7d	0.073872544
185	0xbd93d04d	-0.072174646
186	0xbd0f2687	-0.034948852
187	0x3d11da6c	0.035608694
188	0xbce774f5	-0.028254012
189	0xbd117106	-0.03550818
190	0x3c8f8893	0.017521178
191	0x3b9d154a	0.0047937976
192	0xbca1179b	-0.019664576
193	0xbd77abc9	-0.06046656
194	0xbceca5c3	-0.028887635
195	0x3d7f084a	0.062263764
196	0xbcbc28fe	-0.022968765
197	0x3d77ef11	0.060530726
198	0xbc16607f	-0.00917828
199	0x3d052741	0.03250814
200	0xbd1198b3	-0.035546016
201	0xbd90556f	-0.07047545
202	0x3c91b4cf	0.017786412
203	0x3d8ff333	0.070288084
204	0x3d84c2ba	0.06482454
205	0x3d0d0206	0.034425758
206	0xbd9cc33e	-0.07654427
207	0x3d60b3c7	0.05485895
208	0xbd85e200	-0.06537247
209	0xbcb8430b	-0.022492906
210	0x3d8cbe2a	0.068722084
211	0xbcc69758	-0.024242088
212	0x3d280556	0.041020714
213	0x3d1943f2	0.037418313
214	0xbd7849d5	-0.060617287
215	0x3cc1d8be	0.023662921
216	0xbcef9581	-0.029246094
217	0xbcd36020	-0.025802672
218	0xbd66bda5	-0.056333203
219	0x3cfdf355	0.030999819
220	0x3d501a64	0.050806418
221	0x3c6c9039	0.014438682
222	0x3d10f571	0.03539032
223	0x3d677f1a	0.056517698
224	0xba13a2bb	-0.0005631854
225	0x3cfd2456	0.030901115
226	0x3d824ab3	0.06361904
227	0x3ce64d84	0.028113134
228	0x3c125df9	0.008933538
229	0x3d94b7e8	0.0726164
230	0x3d6ccd6d	0.057813097
231	0x3d417cc7	0.047238138
232	0x3d4a4189	0.049378905
233	0xbd4fe910	-0.050759375
234	0x3d529f3b	0.051421385
235	0xbd158c8f	-0.036511
236	0xbd902ea2	-0.070401445
237	0xbda38789	-0.07984836
238	0x3d63e11d	0.055634607
239	0xbc9a7bc9	-0.018857853
240	0xbd8d6019	-0.06903095
241	0xbceb8b17	-0.028752847
242	0xbd4ccf36	-0.0500023
243	0xbd8b0e2e	-0.06789814
244	0xbd6fe8ab	-0.0585715
245	0x3d6f57ef	0.05843347
246	0xbd9aaece	-0.075528726
247	0x3d6eb7bf	0.058280703
248	0xbc85deb0	-0.016341537
249	0xbcc0860b	-0.023501417
250	0xbca56a6b	-0.020192346
251	0x3c1e1d37	0.00965052
252	0xbd088579	-0.033330414
253	0x3d7c0783	0.0615306
254	0x3d213466	0.03935661
255	0x3d84965a	0.0647399

pos_mlp.0.weight f4 [32, 1]
0	0x3c61b041	0.013774932
1	0x3f7acb77	0.9796671
2	0x28fa21e0	2.7770267e-14
3	0x3f27371a	0.65318453
4	0xaedb202e	-9.964683e-11
5	0x3ee26705	0.44219223
6	0x3f6d6614	0.92733884
7	0x3e160d48	0.14653504
8	0xbeae8bfd	-0.34091178
9	0xbe56dc5d	-0.209825
10	0x3f570dac	0.84005237
11	0xbe7a7bec	-0.24461335
12	0xbe2dafe1	-0.16961624
13	0xbe65d452	-0.22444275
14	0x3ed9b32d	0.42519513
15	0xbf2e7fbc	-0.6816366
16	0xbf419d30	-0.75630474
17	0xbf142756	-0.5787252
18	0x3de37e6b	0.11108097
19	0x3f36d468	0.71417856
20	0x393a8b9c	0.00017790351
21	0xbde87e80	-0.11352253
22	0xbe605f2a	-0.21911302
23	0xbefc6724	-0.4929744
24	0xbde270fe	-0.11056708
25	0xbd7f16d7	-0.06227764
26	0x3f8b5b43	1.0887226
27	0x3ca41ba7	0.020032717
28	0xbf43c3f2	-0.76470864
29	0x3e4c3ea3	0.19945769
30	0x3d90af8b	0.07064732
31	0xbc966513	-0.018358743

pos_mlp.0.bias f4 [32]
0	0xbe07bce1	-0.13255645
1	0xbdc9be36	-0.09850733
2	0xbefb7a59	-0.4911678
3	0xbe4b403c	-0.19848722
4	0xbde7678b	-0.11299046
5	0x3f6071f4	0.8767388
6	0xbdea86b8	-0.11451477
7	0x3f3f8029	0.7480493
8	0xbe51b310	-0.20478463
9	0xbe9b40a0	-0.30322742
10	0xbea3ad0c	-0.31967962
11	0xbef499f4	-0.47773707
12	0x3f18bf85	0.59667236
13	0xbb3910df	-0.0028238816
14	0xbd72aa75	-0.05924459
15	0x3e8cd00d	0.2750248
16	0x3f337767	0.7010407
17	0x3f8aca27	1.0842942
18	0xbe83a106	-0.2570879
19	0x3f0e53b1	0.5559645
20	0xbea0eed3	-0.31432208
21	0xbeb156c2	-0.34636503
22	0xbed1c42e	-0.40969986
23	0xbee26960	-0.4422102
24	0xbd151504	-0.036396995
25	0x3f1142e5	0.567427
26	0xbc9b296f	-0.018940656
27	0xbec03f50	-0.37548304
28	0x3f88ef57	1.0698041
29	0x3f04a96d	0.51821023
30	0xbe487221	-0.19574787
31	0xbee4afcb	-0.4466537

pos_mlp.2.weight f4 [32, 32]
0	0xaacc9805	-3.6343164e-13
1	0x3e1704e5	0.14747961
2	0x3b3e909e	0.0029077898
3	0x3e3f60fe	0.18689343
4	0xba1ef14b	-0.0006063177
5	0x3e336f84	0.17523009
6	0x3dc0935b	0.09403106
7	0x3e87b833	0.2650772
8	0xb9f12243	-0.0004599263
9	0x2726ea39	2.31641e-15
10	0x3e7b3069	0.24530186
11	0x29564dda	4.758507e-14
12	0xbddd297c	-0.10798928
13	0x396fce43	0.00022869655
14	0x3e8227be	0.25420946
15	0xbe6d139f	-0.23152016
16	0xbe951db9	-0.2912424
17	0xbe0212ef	-0.12702535
18	0x3942dbaf	0.0001858312
19	0x3e461cb3	0.19346885
20	0x3ad988cb	0.0016596554
21	0x284331ce	1.0835474e-14
22	0xbb337dfc	-0.0027388325
23	0xba5b788b	-0.00083721493
24	0xb90c85e3	-0.00013401317
25	0x3cc1f26c	0.023675166
26	0x3e9a0c11	0.3008733
27	0x3a25349b	0.00063020893
28	0xbe202557	-0.15639244
29	0xbd001d2a	-0.031277813
30	0x28820939	1.4436899e-14
31	0x3985f90b	0.00025553288
32	0x2990e979	6.435386e-14
33	0x3ea9ba2a	0.33149844
34	0xa98d539b	-6.276161e-14
35	0x3e5747b9	0.21023454
36	0xb9638955	-0.00021699567
37	0x3e577bfd	0.21043392
38	0x3e39ac4c	0.18132132
39	0x3e3fb3e0	0.1872096
40	0x2819b00a	8.5313785e-15
41	0x34ab3f13	3.1897125e-07
42	0x3ea96e6e	0.33092064
43	0xb6963115	-4.4760623e-06
44	0xbe4d8e8a	-0.20073906
45	0x37c58953	2.3548177e-05
46	0x3e511bc2	0.20420745
47	0xbe75eea1	-0.24016811
48	0xbea34524	-0.31888688
49	0xbdddc88d	-0.10829268
50	0x3727f160	1.0010175e-05
51	0x3e1ba6b1	0.15200306
52	0x392bce02	0.00016384575
53	0xb73a4973	-1.1103565e-05
54	0xb8f7e50b	-0.000118205404
55	0xb85338c7	-5.03592e-05
56	0xba7cf71a	-0.0009649858
57	0x3e4a9062	0.1978164
58	0x3d0f1663	0.03493346
59	0xb67d4bfa	-3.7744162e-06
60	0xbe7b3234	-0.2453087
61	0x3e37a73f	0.17934893
62	0x3953c03f	0.00020194145
63	0xb9a72640	-0.0003188122
64	0x3a05e241	0.0005107262
65	0x3e35e5d5	0.17763455
66	0xbb3892e2	-0.002816372
67	0x3e6a4fe3	0.22882037
68	0x393cef77	0.00018018285
69	0x3dac589a	0.08415337
70	0x3e81d92c	0.25361001
71	0x3dc6faae	0.09715782
72	0xb701115f	-7.693044e-06
73	0xa717d222	-2.1069373e-15
74	0x3e8c0c4a	0.27353126
75	0xb8c4ca5f	-9.383703e-05
76	0x3d0cb3fa	0.034351327
77	0xa6c166ca	-1.3419926e-15
78	0x3e6f8acb	0.23392789
79	0xbe300671	-0.17189957
80	0xbd91dead	-0.0712255
81	0xbe5cc0db	-0.21557944
82	0x2837b081	1.0196814e-14
83	0x3e255bca	0.16148296
84	0xa997dc84	-6.7440004e-14
85	0x3197c57e	4.4171307e-09
86	0x29309d5e	3.9216345e-14
87	0x39bfe038	0.00036597415
88	0x39be9bff	0.0003635585
89	0x3e34653b	0.17616741
90	0x3deb4a9e	0.114888415
91	0x285c7f0d	1.2240003e-14
92	0xbe5c732f	-0.21528314
93	0x3e574571	0.21022584
94	0xb8829156	-6.225954e-05
95	0x2fb48154	3.2833702e-10
96	0x380bd402	3.333763e-05
97	0xbbd6d6ea	-0.0065563815
98	0x3991a42d	0.00027778876
99	0xbc9626bc	-0.018329017
100	0xba58652d	-0.00082548225
101	0x3b90b3ae	0.0044159507
102	0xbbee34f9	-0.0072694984
103	0x3bbab9e0	0.0056984276
104	0xb65ab4bf	-3.258974e-06
105	0xaf93ad7a	-2.6862407e-10
106	0xbcbaf3e9	-0.022821384
107	0x39618a31	0.00021509152
108	0x3be27c5f	0.006911799
109	0xba0210a5	-0.00049615867
110	0xbbe2ea7e	-0.0069249263
111	0xbc8f6c77	-0.017507775
112	0x3c4cf4a2	0.012509497
113	0x3c26f8de	0.0101911705
114	0x389687dc	7.177863e-05
115	0x3ad1cf5f	0.0016007236
116	0x386f3bc6	5.703771e-05
117	0x27f23acb	6.7232236e-15
118	0xa6bac142	-1.2958725e-15
119	0xbab386d3	-0.0013696797
120	0xa95ba69a	-4.8772272e-14
121	0x3b57c98d	0.003292653
122	0xbc344ebc	-0.0110051
123	0x28354b30	1.0063822e-14
124	0x3c466e28	0.012111224
125	0x3c68b29f	0.014202743
126	0xaa12f849	-1.3053546e-13
127	0x38135094	3.5122575e-05
128	0xba6b17b4	-0.00089680706
129	0xba85408b	-0.001016633
130	0x3a840db4	0.0010074885
131	0xac8b6542	-3.9618595e-12
132	0xbb066a1d	-0.0020510026
133	0x2e8723c0	6.14544e-11
134	0x3532c300	6.659393e-07
135	0x2b326663	6.3380394e-13
136	0x36b8bf81	5.5059213e-06
137	0xa9dff07e	-9.944908e-14
138	0xbb047d38	-0.0020216238
139	0x292888a2	3.7422004e-14
140	0xb3730ccc	-5.6589485e-08
141	0xb93eba50	-0.00018189219
142	0xa695417c	-1.0356701e-15
143	0xa96c974c	-5.2533756e-14
144	0x28dd4062	2.456385e-14
145	0x29a7ba88	7.448648e-14
146	0x398c89bd	0.00026805504
147	0xaebd9288	-8.620754e-11
148	0x36926b44	4.3636264e-06
149	0x289a3793	1.7121536e-14
150	0xbaec0056	-0.0018005471
151	0xb9871537	-0.00025765013
152	0xac5467c4	-3.0184613e-12
153	0xb9136fb0	-0.0001406062
154	0x382764a3	3.9909628e-05
155	0x2f403bc1	1.7483527e-10
156	0xbb39f472	-0.002837446
157	0xafad594f	-3.1531974e-10
158	0xaa155c94	-1.3265978e-13
159	0x391a2d41	0.00014703443
160	0xb4cc7bf7	-3.8088157e-07
161	0x358f5e90	1.0681852e-06
162	0xbb1f467c	-0.0024303487
163	0xb615987e	-2.2291492e-06
164	0x3804d9ab	3.167397e-05
165	0x340d0085	1.3131837e-07
166	0x29439ec9	4.3436422e-14
167	0xbabe793e	-0.0014531983
168	0x3b1f6bea	0.0024325796
169	0x3ab81b01	0.0014046134
170	0xb9bbb17d	-0.00035799659
171	0xb97a9db0	-0.00023900601
172	0x3a06505c	0.0005123669
173	0xb56b4fcd	-8.766045e-07
174	0xb685bf12	-3.9859524e-06
175	0xb1a60ccf	-4.832692e-09
176	0xbaca9830	-0.0015456732
177	0xbb441dd7	-0.0029925012
178	0xa807dc42	-7.541766e-15
179	0x2e8dea6b	6.4535786e-11
180	0x3a871bdc	0.0010307985
181	0xa950b957	-4.6346035e-14
182	0xb921ab6d	-0.00015418018
183	0x2582df97	2.2702916e-16
184	0xba4fa077	-0.00079203345
185	0xa9c08b99	-8.550729e-14
186	0x2e90c5cd	6.583498e-11
187	0x3b21b014	0.00246716
188	0xba8948e2	-0.0010473991
189	0x396a3125	0.00022334287
190	0xa604b68b	-4.604409e-16
191	0x3b3f4886	0.0029187514
192	0xa85dbcb3	-1.2308882e-14
193	0xbea5453f	-0.32279393
194	0xb4a3e21b	-3.052563e-07
195	0xbe22ca76	-0.15897545
196	0xb81116cf	-3.4591936e-05
197	0x3e5ba112	0.21448162
198	0xbdb718df	-0.08940291
199	0x3e535c98	0.2064079
200	0x386e7a68	5.685762e-05
201	0xba911181	-0.0011067839
202	0xbe32789e	-0.17428824
203	0xb0c52fc8	-1.4347217e-09
204	0x3e27e9de	0.16397807
205	0xb5b2d8bc	-1.3325111e-06
206	0xbea7f24a	-0.3280204
207	0x3e6f072e	0.23342583
208	0x3ea2aa8f	0.3177075
209	0x3e33f359	0.17573299
210	0x333a5497	4.3383434e-08
211	0xbe2066a8	-0.1566416
212	0xb8e3468f	-0.00010837346
213	0x39ff07cf	0.00048643208
214	0xa8f537bf	-2.722464e-14
215	0x32a20a72	1.8864032e-08
216	0xa84effad	-1.1490738e-14
217	0x3e4e227f	0.20130347
218	0xbe0a0627	-0.1347891
219	0xa98df4fb	-6.304155e-14
220	0x3e88917a	0.2667349
221	0x3c436ab5	0.011927296
222	0xaa4c5c20	-1.8150802e-13
223	0xb980dc18	-0.00024578045
224	0xa8b640df	-2.0234192e-14
225	0x3e94f011	0.29089406
226	0xa9d711d5	-9.5510114e-14
227	0x3e614188	0.21997654
228	0xaa173d06	-1.3432666e-13
229	0x3e7b0a15	0.24515565
230	0x3df32bdd	0.11873601
231	0x3e2c96f1	0.16854455
232	0xb919e20b	-0.00014675425
233	0x390266d0	0.00012436067
234	0x3e82a9d8	0.25520205
235	0x29b13d49	7.87101e-14
236	0xbda2ac5b	-0.079430304
237	0x32127f10	8.527209e-09
238	0x3d46587e	0.048424236
239	0xbdf913a5	-0.1216195
240	0xbe83d260	-0.2574644
241	0xbe319338	-0.17341316
242	0x396e4829	0.0002272433
243	0xbcd131c4	-0.025536425
244	0xb0ced4ef	-1.5048992e-09
245	0x28d3a306	2.3496406e-14
246	0x270682d4	1.8667158e-15
247	0xb83c9139	-4.4957942e-05
248	0x2e7fc401	5.8154374e-11
249	0x3e20d450	0.15705991
250	0x3d2fda8f	0.042933043
251	0x26f065d2	1.6680944e-15
252	0xbde6c4ca	-0.11268003
253	0x3e44a950	0.19205213
254	0xb98684d7	-0.00025657445
255	0x390bdba7	0.000133379

pos_mlp.2.bias f4 [32]
0	0x3dc9a649	0.098461695
1	0x3e06147c	0.13093752
2	0x3d85fb7f	0.0654211
3	0x3bdbfcef	0.0067135016
4	0x39ea4913	0.00044686403
5	0x34bf7fa1	3.5669385e-07
6	0x3e11f9a8	0.14255393
7	0x3d26b89e	0.04070341
8	0x3e6bfd5e	0.2304587
9	0xb5eb59a8	-1.7534958e-06
10	0xb6964886	-4.478791e-06
11	0x3c459d11	0.012061373
12	0x397d8121	0.00024176064
13	0x27fad5d5	6.9620776e-15
14	0x3e459a1f	0.19297074
15	0x3db01789	0.08598239
16	0x3e9845dd	0.297408
17	0x3df750b6	0.12075941
18	0x3e0b21a4	0.13587052
19	0x3e83baa4	0.25728333
20	0xbb30b2af	-0.0026961972
21	0x3e8db49f	0.27676865
22	0x3e3b7bb1	0.18308903
23	0xba8c4210	-0.001070084
24	0x3e56067a	0.20900908
25	0x3da970cf	0.0827347
26	0x3ea1e813	0.3162237
27	0x358d6884	1.0535737e-06
28	0x3e983e3f	0.2973499
29	0x346bd915	2.1965054e-07
30	0x3d871337	0.06595462
31	0x3e9cdfe9	0.3063958

dec_trunk.0.weight f4 [128, 288]
0	0x3c9acc21	0.018896164
1	0x3d392899	0.045204733
2	0x3d3a06fd	0.04541682
3	0x3d68f7a4	0.056876794
4	0xbd36290e	-0.044472747
5	0xbceb7138	-0.02874051
6	0x3cb57f6f	0.022155492
7	0x3d67a2a6	0.056551598
8	0xbc864a93	-0.016392982
9	0x316ac14f	3.4161365e-09
10	0xbd64ecda	-0.05588994
11	0xbbd4f09d	-0.00649841
12	0x3d112493	0.03543527
13	0x3d1a401a	0.03765879
14	0xab061768	-4.7638846e-13
15	0x3cfd5936	0.030926328
16	0x3d221435	0.039570052
17	0xba9f9fb9	-0.0012178338
18	0xbc9850c6	-0.018593203
19	0xbd1bbe6b	-0.038023394
20	0x3bce9311	0.006304153
21	0x3d4411e2	0.047868617
22	0xbd2f39d3	-0.042779755
23	0xbcbfdcce	-0.023420718
24	0x3d43838b	0.04773287
25	0x3d56f233	0.052477073
26	0x3d2040c5	0.03912427
27	0x3ccad08d	0.024757648
28	0x3cad4f23	0.0211559
29	0x3d068e8c	0.032850787
30	0x3bb235f7	0.005438562
31	0x3d7b1a8c	0.061304614
32	0x3cac0157	0.020996733
33	0x3b11ef4a	0.0022267872
34	0xbd10dd19	-0.035367105
35	0xbd01d848	-0.031700402
36	0x3a96c52b	0.0011502852
37	0xbc28cc08	-0.010302551
38	0xbd07148d	-0.032978583
39	0xbc8d1df6	-0.0172262
40	0x3abc92d7	0.0014387023
41	0xbcb75616	-0.022379916
42	0xbd17761a	-0.036977865
43	0x3c03dfb0	0.008048937
44	0xbd2dd806	-0.042442344
45	0x3ceb4c73	0.028722977
46	0x3cf26992	0.029591355
47	0x3d37f202	0.04490853
48	0xbb171967	-0.0023055912
49	0x3cbc6559	0.022997545
50	0x3d90f72c	0.07078394
51	0xbd26ee83	-0.040754806
52	0xa82d70a0	-9.627851e-15
53	0x3c40dfcd	0.011772108
54	0xbd06d285	-0.03291561
55	0x3cfbcba4	0.030736752
56	0x3d5ee51c	0.054417714
57	0xbc1c15af	-0.009526654
58	0x3ce8ff61	0.028442087
59	0xbc8d0e56	-0.01721875
60	0xbc700595	-0.014649768
61	0x3c61bf4e	0.013778521
62	0xbd727692	-0.05919511
63	0xbd23f5e5	-0.040029425
64	0xbcec371b	-0.02883487
65	0x3b3bfa1f	0.002868302
66	0xbd06e5c8	-0.03293398
67	0x3ce22ffd	0.027610773
68	0x3d237de0	0.039914966
69	0x37587461	1.29017e-05
70	0xbccef958	-0.02526538
71	0xbc89d016	-0.016822856
72	0x3d2ee512	0.042698927
73	0x3d4d9b6b	0.050197046
74	0xbcfe4ed7	-0.031043453
75	0xbd06b5bb	-0.032888155
76	0x3cbb5f93	0.022872722
77	0x3d1cc2da	0.038271762
78	0x3d3b75b0	0.045766532
79	0x3c613ea9	0.0137478495
80	0xbcd011e8	-0.025399163
81	0xbd3cccf7	-0.046093907
82	0xbd1d087c	-0.03833817
83	0x3c9ae425	0.018907616
84	0x3d8390cf	0.064241044
85	0x3c315b00	0.010824919
86	0x3bfbfdfc	0.0076901894
87	0x3afd341e	0.00193179
88	0xb2b7a2e2	-2.1378074e-08
89	0xbb4eb472	-0.003154066
90	0x3d047849	0.032341275
91	0x3d033258	0.032030433
92	0xbcc98a40	-0.024602056
93	0xbb04c33b	-0.0020257968
94	0xbc60d094	-0.013721604
95	0x381a3499	3.6765447e-05
96	0x3ca8dffa	0.020614613
97	0x3d5de363	0.05417193
98	0x3c67369a	0.014112139
99	0xbcda7cb2	-0.026670787
100	0x3ae95cd8	0.0017804159
101	0xbd385d84	-0.04501106
102	0x3c4d2ff1	0.012523637
103	0xbca75462	-0.020425979
104	0xbbf3323f	-0.0074217613
105	0xbc728345	-0.014801805
106	0xbcb18283	-0.021668678
107	0x3c8bcc69	0.017065244
108	0x3c555756	0.013021311
109	0x3bc6a8e8	0.0060626157
110	0xbca7ad0f	-0.020468263
111	0x37c3270c	2.3263994e-05
112	0xbc569fcf	-0.013099625
113	0x3c10d084	0.0088387765
114	0x3c688fec	0.01419447
115	0xbd4e00bc	-0.05029367
116	0x3d3cf890	0.046135485
117	0xbd2ee9d0	-0.04270345
118	0xbd72733f	-0.05919194
119	0xbbc31137	-0.00595298
120	0xbbc98590	-0.006149955
121	0x3d00c0b7	0.031433787
122	0x3d6ae776	0.057349645
123	0xbb23deef	-0.0025004705
124	0x3b76e906	0.0037675514
125	0xbd569bee	-0.0523948
126	0x3ccf97bd	0.02534091
127	0x3c7469ac	0.014917772
128	0xbcd3d6b2	-0.02585921
129	0xbd30f13a	-0.0431988
130	0xbc4876b1	-0.0122353295
131	0xbd6cd226	-0.0578176
132	0xbd59da8e	-0.053186946
133	0xba588c8f	-0.0008260691
134	0x3d89fbba	0.06737466
135	0xbbb43963	-0.005500005
136	0x3c8a6ad7	0.016896648
137	0xbc89605e	-0.016769584
138	0xbcf0eb26	-0.029409003
139	0x3c434ded	0.011920434
140	0x39303d72	0.00016807558
141	0xbd0e57a2	-0.034751542
142	0xbd403555	-0.04692586
143	0xbc05387e	-0.008131145
144	0xbd680c42	-0.056652315
145	0xbd661f3c	-0.05618213
146	0xbcd0f3dd	-0.025506908
147	0xbd500b04	-0.050791755
148	0xa5af971f	-3.0460064e-16
149	0x3d027167	0.03184643
150	0xbd7476b9	-0.059683535
151	0xbcd86f00	-0.026420116
152	0xb47b0b89	-2.3380393e-07
153	0x3c1718be	0.009222208
154	0xbb9927c6	-0.004673931
155	0xbc966fb0	-0.018363804
156	0x3d5e3c4e	0.05425673
157	0xbd1ea732	-0.03873367
158	0x3d316dfa	0.043317772
159	0xbd015941	-0.03157926
160	0x3c784637	0.015153459
161	0x3d3b996a	0.045800604
162	0xbd1f1367	-0.038836863
163	0x3d2cf76d	0.04222815
164	0xbc4adedd	-0.012382236
165	0x3d06af2c	0.0328819
166	0x3bc6b300	0.006063819
167	0xbcb8aa23	-0.022542065
168	0x3cc650df	0.024208484
169	0x3c20a1cc	0.0098042
170	0xbd03cf6f	-0.032180246
171	0x3d14aeca	0.036299504
172	0x3c6dabe0	0.01450631
173	0x3b81255b	0.0039412207
174	0x3cd97b05	0.026547918
175	0xbb9444e6	-0.004524815
176	0xbd3d4976	-0.046212636
177	0x3d4a95a7	0.049459126
178	0x3d554b5f	0.052073833
179	0x39439514	0.00018652185
180	0x3d3bb0f4	0.045823053
181	0xbd3aca4a	-0.045603074
182	0xbd09d890	-0.033653796
183	0xbd01ad00	-0.031659126
184	0x3b4e508f	0.0031481122
185	0x3d27b5a1	0.0409447
186	0xbd651fa8	-0.055938393
187	0xbbe328cc	-0.0069323536
188	0xbc987937	-0.018612487
189	0x3d3a1d32	0.045438
190	0x3d3a8a5b	0.045542102
191	0x3cb1820a	0.021668453
192	0xbd578d7c	-0.052625164
193	0xbca1c2fe	-0.0197463
194	0x3d1d46ff	0.038397785
195	0xbc302364	-0.010750625
196	0x3c821d26	0.01588304
197	0xbd2c8d80	-0.042127132
198	0xba7dbe4c	-0.00096795405
199	0xbc185f09	-0.009300002
200	0xbc071e01	-0.0082469
201	0xbc0d633b	-0.008629615
202	0x3c006041	0.007835449
203	0x3bfe765e	0.0077655753
204	0x3d572169	0.052522097
205	0xbd18ddc8	-0.037320882
206	0xbc5c1ff3	-0.013435352
207	0xbce70611	-0.028201135
208	0xbd4b74dc	-0.049671993
209	0x3d3ffd83	0.046872627
210	0x3cb21712	0.021739516
211	0xbcb34b6a	-0.021886546
212	0x3cdd4867	0.027012063
213	0xbcd497be	-0.025951263
214	0x3d3d8e68	0.046278387
215	0x3cd919a1	0.026501479
216	0xbd047fe6	-0.032348536
217	0xbc3ca52c	-0.011513989
218	0x3d6a495b	0.057198863
219	0xbbd3246f	-0.006443552
220	0x3bbf0447	0.0058293673
221	0x3c50ef1a	0.012752319
222	0x3cb15965	0.021649072
223	0x3d57e98c	0.052712962
224	0xbc564d2f	-0.013079925
225	0x3d72903a	0.059219576
226	0x3d346d3c	0.044049487
227	0x3cf52ba6	0.02992804
228	0x3c81773d	0.015803928
229	0x3d2d294d	0.042275716
230	0xbb35be3f	-0.0027731804
231	0x3d09524b	0.033525746
232	0x3d525d0f	0.05135828
233	0x3cad3b02	0.021146301
234	0x3b473186	0.0030394509
235	0x3d6f76ab	0.05846278
236	0x3d3d957b	0.046285134
237	0x3d56cd87	0.0524421
238	0xbcdf0c8a	-0.027227659
239	0xbc26185b	-0.010137643
240	0x3ced6cc8	0.028982535
241	0x3d0d7cdb	0.0345429
242	0xbca3a1c1	-0.019974591
243	0x3d0df99d	0.034661878
244	0x3b589df9	0.0033053143
245	0x3d44f55a	0.048085548
246	0x3d1d844b	0.038456243
247	0x3d49d400	0.049274445
248	0xbd2d1054	-0.0422519
249	0x3d1425df	0.03616893
250	0xbc07afad	-0.00828163
251	0xbbb2b03c	-0.0054531377
252	0xbd1591df	-0.036516067
253	0x3d57c47f	0.052677628
254	0xbc963035	-0.018333534
255	0xbb4f7258	-0.0031653848
