pointnet/weights_per_bundle_ratio025/T_PREC_left_best.pth (torch, 359807 bytes, 17 tensors)

t_grid f4 [100]
0	0x00000000	0.0
1	0x3c257eb5	0.01010101
2	0x3ca57eb5	0.02020202
3	0x3cf83e10	0.030303031
4	0x3d257eb5	0.04040404
5	0x3d4ede62	0.05050505
6	0x3d783e10	0.060606062
7	0x3d90cede	0.07070707
8	0x3da57eb5	0.08080808
9	0x3dba2e8c	0.09090909
10	0x3dcede62	0.1010101
11	0x3de38e39	0.11111111
12	0x3df83e10	0.121212125
13	0x3e0676f3	0.13131313
14	0x3e10cede	0.14141414
15	0x3e1b26ca	0.15151516
16	0x3e257eb5	0.16161616
17	0x3e2fd6a0	0.17171717
18	0x3e3a2e8c	0.18181819
19	0x3e448677	0.1919192
20	0x3e4ede62	0.2020202
21	0x3e59364e	0.21212122
22	0x3e638e39	0.22222222
23	0x3e6de624	0.23232323
24	0x3e783e10	0.24242425
25	0x3e814afd	0.25252524
26	0x3e8676f3	0.26262626
27	0x3e8ba2e9	0.27272728
28	0x3e90cede	0.28282827
29	0x3e95fad4	0.2929293
30	0x3e9b26ca	0.3030303
31	0x3ea052bf	0.3131313
32	0x3ea57eb5	0.32323232
33	0x3eaaaaab	0.33333334
34	0x3eafd6a0	0.34343433
35	0x3eb50296	0.35353535
36	0x3eba2e8c	0.36363637
37	0x3ebf5a81	0.37373737
38	0x3ec48677	0.3838384
39	0x3ec9b26d	0.3939394
40	0x3ecede62	0.4040404
41	0x3ed40a58	0.41414142
42	0x3ed9364e	0.42424244
43	0x3ede6243	0.43434343
44	0x3ee38e39	0.44444445
45	0x3ee8ba2f	0.45454547
46	0x3eede624	0.46464646
47	0x3ef3121a	0.47474748
48	0x3ef83e10	0.4848485
49	0x3efd6a05	0.4949495
50	0x3f014afd	0.5050505
51	0x3f03e0f8	0.5151515
52	0x3f0676f3	0.5252525
53	0x3f090cee	0.53535354
54	0x3f0ba2e9	0.54545456
55	0x3f0e38e4	0.5555556
56	0x3f10cede	0.56565654
57	0x3f1364d9	0.57575756
58	0x3f15fad4	0.5858586
59	0x3f1890cf	0.5959596
60	0x3f1b26ca	0.6060606
61	0x3f1dbcc5	0.61616164
62	0x3f2052bf	0.6262626
63	0x3f22e8ba	0.6363636
64	0x3f257eb5	0.64646465
65	0x3f2814b0	0.65656567
66	0x3f2aaaab	0.6666667
67	0x3f2d40a6	0.6767677
68	0x3f2fd6a0	0.68686867
69	0x3f326c9b	0.6969697
70	0x3f350296	0.7070707
71	0x3f379891	0.7171717
72	0x3f3a2e8c	0.72727275
73	0x3f3cc486	0.7373737
74	0x3f3f5a81	0.74747473
75	0x3f41f07c	0.75757575
76	0x3f448677	0.7676768
77	0x3f471c72	0.7777778
78	0x3f49b26d	0.7878788
79	0x3f4c4867	0.7979798
80	0x3f4ede62	0.8080808
81	0x3f51745d	0.8181818
82	0x3f540a58	0.82828283
83	0x3f56a053	0.83838385
84	0x3f59364e	0.8484849
85	0x3f5bcc48	0.85858583
86	0x3f5e6243	0.86868685
87	0x3f60f83e	0.8787879
88	0x3f638e39	0.8888889
89	0x3f662434	0.8989899
90	0x3f68ba2f	0.90909094
91	0x3f6b5029	0.9191919
92	0x3f6de624	0.9292929
93	0x3f707c1f	0.93939394
94	0x3f73121a	0.94949496
95	0x3f75a815	0.959596
96	0x3f783e10	0.969697
97	0x3f7ad40a	0.97979796
98	0x3f7d6a05	0.989899
99	0x3f800000	1.0

encoder.mlp.0.weight f4 [64, 3]
0	0x3e5b8e4b	0.21440999
1	0xbe51ea66	-0.20499572
2	0x3dacfbca	0.084464625
3	0x3e096d75	0.13420661
4	0x3d0fb2d4	0.035082653
5	0x3e927501	0.28604892
6	0xbe509901	-0.20370866
7	0xbd5d76fc	-0.05406855
8	0xbf08a922	-0.53383076
9	0xbf1040c5	-0.5634883
10	0xbe4560cc	-0.19275206
11	0xbe751bac	-0.23936337
12	0xbf0fd892	-0.56189835
13	0x3d231acb	0.039820474
14	0x3f053d7a	0.5204693
15	0x3de8a9fb	0.11360546
16	0x3f052b51	0.5201922
17	0xbf033a62	-0.5126096
18	0x3e710cbf	0.23540018
19	0xbd4abc11	-0.04949576
20	0xbd6eb9c5	-0.058282632
21	0x3ef6de69	0.4821656
22	0x3e8465de	0.25858968
23	0x3db9f8ce	0.09080659
24	0x3eb67235	0.35634008
25	0xbe8e3005	-0.2777101
26	0xbec56dbc	-0.38560283
27	0x3ea989e1	0.33113006
28	0xbed073d0	-0.40713358
29	0xbea03826	-0.31292838
30	0x3efec52a	0.497598
31	0x3dd3994e	0.10331975
32	0x3eba6fbe	0.36413378
33	0x3e8571c4	0.2606336
34	0xbea01ad2	-0.31270462
35	0xbea0cf1a	-0.31408006
36	0xbebfbc31	-0.37448266
37	0x3f11e4a2	0.5698949
38	0xbce80c0d	-0.028326059
39	0x3e734bd9	0.23759402
40	0xbec181bc	-0.37794292
41	0xbd268a5d	-0.040659297
42	0xbf124b95	-0.5714658
43	0xbed3b464	-0.41348565
44	0xbd30f822	-0.043205388
45	0xbefd4474	-0.49466288
46	0xbe9e90ff	-0.30969998
47	0xbecdbe47	-0.40184233
48	0x3eb7ebce	0.35922092
49	0x3e93a5b4	0.2883736
50	0x3e81852e	0.2529692
51	0xbd885cdd	-0.06658337
52	0x3dc10638	0.09425014
53	0x3f04c115	0.5185712
54	0xbe4465dc	-0.19179481
55	0x3ed97e95	0.42479387
56	0x3e6eb0bc	0.23309606
57	0xbf093d7e	-0.53609455
58	0xbef1056d	-0.47074452
59	0xbf0f1922	-0.55897725
60	0x3eb24d66	0.34824675
61	0xbe2d76ee	-0.169399
62	0xbf0b563c	-0.5442846
63	0x3f0fece3	0.56220835
64	0xbea23df0	-0.3168788
65	0xbd31eb2d	-0.04343717
66	0x3e73546a	0.2376267
67	0xbcd28e42	-0.0257026
68	0x3df77a01	0.12083817
69	0x3eea5e0f	0.45774886
70	0x3e04eb32	0.12980345
71	0xbed836be	-0.42229265
72	0x3e63d297	0.22248302
73	0x3e775ec7	0.24157248
74	0xbe298284	-0.16553694
75	0x3e2d27dc	0.16909736
76	0x3eb7017f	0.3574333
77	0x3e0d56b0	0.138026
78	0x3f10b803	0.5653078
79	0xbb76558c	-0.003758761
80	0x3edb861e	0.4287576
81	0x3ebedfa0	0.37279987
82	0x3ec8a95c	0.3919171
83	0x3eea6b29	0.45784882
84	0x3efd6884	0.49493802
85	0x3d85e275	0.06537334
86	0x3eb9b794	0.36272871
87	0xbf07ddf3	-0.5307304
88	0xbe0d11af	-0.13776277
89	0x3ec921a6	0.39283484
90	0x3eeb7a8a	0.45991927
91	0xbeb6e6dd	-0.3572301
92	0x3f154853	0.58313483
93	0x3d8e7751	0.069563515
94	0xbe79cf41	-0.24395467
95	0x3f149974	0.5804665
96	0x3e62643c	0.22108549
97	0xbcc4aa46	-0.024006974
98	0x3e6976cc	0.22799224
99	0x3d3fab9c	0.04679452
100	0xbc78cf9e	-0.015186219
101	0x3e6d7499	0.2318901
102	0xbe910b90	-0.28329134
103	0xbc18072f	-0.009279056
104	0xbec3dd42	-0.38254744
105	0x3d83da79	0.06438155
106	0xbf08995b	-0.53359
107	0xbede6e49	-0.43443516
108	0xbf07a49d	-0.52985555
109	0x3e9fabd1	0.31185773
110	0x3ea01185	0.31263366
111	0xbef67ade	-0.48140615
112	0x3df28b2c	0.11842951
113	0x3ed797b4	0.42107928
114	0x3ee97a5d	0.45601168
115	0x3ee9a787	0.45635626
116	0x3c900077	0.017578347
117	0xbddb2596	-0.10700528
118	0x3e0f4dc4	0.13994509
119	0xbec4685b	-0.38360867
120	0xbefe4c28	-0.49667478
121	0x3c45b301	0.012066604
122	0x3f02f1fd	0.51150495
123	0xbe680879	-0.22659482
124	0xbea57d95	-0.32322374
125	0x3f04212c	0.51613116
126	0x3ee034dc	0.43790329
127	0x3f00d057	0.503179
128	0xbe8a92c0	-0.27065086
129	0xbedf3d88	-0.43601632
130	0xbee51355	-0.44741312
131	0xbe18763d	-0.14888854
132	0xbf09679a	-0.5367371
133	0x3ed9edfa	0.42564374
134	0x3e9381b0	0.2880988
135	0xbee8f3d7	-0.45498535
136	0xbea94796	-0.33062428
137	0x3e98ffbe	0.29882616
138	0xbcf14922	-0.029453818
139	0x3df4eecd	0.1195961
140	0x3ece4f43	0.40294847
141	0x3da7c8fa	0.0819263
142	0x3eade57a	0.3396414
143	0xbf037c18	-0.5136123
144	0x3e940a9c	0.28914344
145	0xb98e0081	-0.00027084726
146	0xbc849fb6	-0.016189437
147	0x3eed1b2d	0.46309796
148	0xbf079f61	-0.5297757
149	0x3ed9bac3	0.425253
150	0x3e79f7b2	0.24410895
151	0xbd515438	-0.051105708
152	0xbda0ec16	-0.0785753
153	0x3e7cd3a2	0.24690107
154	0xbea9d495	-0.3317
155	0x3ed61c10	0.41818285
156	0xbee4b16b	-0.4466661
157	0x3e243fbc	0.16039938
158	0x3d9ec94c	0.07753238
159	0x3ed5a12f	0.41724536
160	0x3eff75c1	0.49894527
161	0xbeec9f0a	-0.46215087
162	0xbe22b777	-0.15890299
163	0x3db889ca	0.09010656
164	0xbecb1eea	-0.39672023
165	0x3cb35b3f	0.021894095
166	0xbec1eec8	-0.37877488
167	0xbec08c0d	-0.3760685
168	0xbd78c1e7	-0.060731795
169	0xbec5494f	-0.38532493
170	0x3dc6443f	0.09680986
171	0x3e33220e	0.1749346
172	0x3ef16e8d	0.47154656
173	0xbeeee64e	-0.46660084
174	0x3e9dec54	0.30844367
175	0x3eb64852	0.3560205
176	0x3e994d0a	0.2994159
177	0xbe8e0e32	-0.27745205
178	0x3e8514b1	0.2599235
179	0xbd2ba8f2	-0.041909166
180	0x3e820795	0.2539641
181	0x3e413a6c	0.18869942
182	0xbba1eb6d	-0.004941395
183	0x3c835d92	0.016035829
184	0xbe0f87f8	-0.14016712
185	0x3e62ba82	0.2214146
186	0xbbc4d644	-0.0060069878
187	0xbf011d7c	-0.50435615
188	0x3e9d458c	0.30717123
189	0x3ebefeac	0.37303674
190	0xbf05b337	-0.52226585
191	0xbe8a1ac2	-0.2697354

encoder.mlp.0.bias f4 [64]
0	0x3ee8d23a	0.4547289
1	0x3e1c6f0f	0.1527674
2	0xbe927c36	-0.2861039
3	0x3ed1afaf	0.40954348
4	0x3d4667c1	0.04843879
5	0x3e508272	0.20362261
6	0xbe4327e3	-0.19058184
7	0x3ee9ecb2	0.45688397
8	0xbd5fc216	-0.054628454
9	0x3f0a72ad	0.5408123
10	0xbd75cd2a	-0.060010113
11	0x3e11346f	0.14180158
12	0xbf0c0012	-0.5468761
13	0xbef2edec	-0.47447145
14	0x3d4e7831	0.050407592
15	0x3e71dc22	0.2361913
16	0xbeb8eefb	-0.36119828
17	0xbe99b98c	-0.30024374
18	0xbe17ef91	-0.14837481
19	0xbf0e0e29	-0.55490357
20	0xbf010cef	-0.5041036
21	0xbe4aeb5d	-0.19816346
22	0xbef14f23	-0.4713069
23	0x3da7c97f	0.08192729
24	0x3ba88eb1	0.0051439633
25	0xbdf96577	-0.12177556
26	0xbe80c58b	-0.25150713
27	0xbee3a9c3	-0.44465455
28	0x3ea0e080	0.3142128
29	0xbe99b03d	-0.30017272
30	0x3d624a4d	0.05524664
31	0xbee10bee	-0.43954414
32	0xbe042f84	-0.12908751
33	0xbcdcfaed	-0.02697512
34	0xbe8becd1	-0.27329114
35	0xbecf72d5	-0.40517297
36	0x3e07586a	0.13217321
37	0xbed5d78b	-0.4176601
38	0xbe87d72c	-0.2653135
39	0xbd82ffb4	-0.06396428
40	0x3e27db8f	0.16392349
41	0xbcc516a6	-0.024058651
42	0xbef685b2	-0.48148876
43	0xbcd1ea2a	-0.025624353
44	0x3ec01619	0.3751686
45	0xbe1f5e44	-0.15563303
46	0x3eec8a01	0.4619904
47	0x3eebba14	0.46040404
48	0x3e54f013	0.20794706
49	0xbeda05c8	-0.42582536
50	0xbd2234a7	-0.039600994
51	0x3c29527b	0.010334606
52	0xbf05df5c	-0.52293944
53	0xbebe9450	-0.37222528
54	0xbdc836af	-0.09776055
55	0x3d1e7d54	0.03869374
56	0x3e9b9b33	0.30391845
57	0x3cac0b72	0.021001551
58	0xbea1a478	-0.31570792
59	0xbd839a7e	-0.064259514
60	0xbef397f4	-0.4757687
61	0x3e66dd10	0.22545266
62	0x3e59111a	0.2119793
63	0xbe5c2b4a	-0.21500888

encoder.mlp.2.weight f4 [128, 64]
0	0xbd0928af	-0.033486065
1	0xb9822b34	-0.0002482772
2	0x3d4983f4	0.049198106
3	0x3d52a18e	0.0514236
4	0xbdba6df8	-0.09103006
5	0x3d57b52f	0.052663025
6	0xbc68e569	-0.014214852
7	0x3c92d8ac	0.017925583
8	0x3d56eaad	0.052469898
9	0xbd83cdf0	-0.06435764
10	0x3a51f1f0	0.0008008769
11	0xbddc041f	-0.107429735
12	0xbcadf551	-0.02123514
13	0xbdea4a11	-0.11439908
14	0x3c84cf85	0.016212234
15	0xbdf18d7c	-0.11794564
16	0x3d1b5657	0.037924137
17	0xbd43e873	-0.047829103
18	0x3d82f6ff	0.06394767
19	0x3db0e12e	0.086366996
20	0xbd94dac2	-0.07268287
21	0xbd3510b2	-0.044205375
22	0xba1d98be	-0.0006011835
23	0xbd0be468	-0.034153372
24	0xbcc55373	-0.024087643
25	0x3d7dbe92	0.06194932
26	0xbcd332bc	-0.025781028
27	0xb9e0ed6d	-0.00042901505
28	0x3c6e6077	0.014549366
29	0xbc3d715d	-0.011562672
30	0x3ca0c40d	0.019624734
31	0xbd86c42c	-0.065803856
32	0x3d887537	0.06662982
33	0xbbef67ba	-0.0073060663
34	0x3ce95990	0.02848509
35	0x3d856bfe	0.065147385
36	0xbdbe5902	-0.09294321
37	0xbdb67d14	-0.089105755
38	0xb9842f1e	-0.00025212107
39	0x3da1c121	0.078981645
40	0x3cb13933	0.02163372
41	0xbde1385d	-0.109970786
42	0xb735fe64	-1.0847671e-05
43	0x3da91dcf	0.08257639
44	0xbc8615d1	-0.016367825
45	0x3dedba97	0.11607855
46	0xbd4bd0d9	-0.04975972
47	0x3d27fc05	0.04101183
48	0x3cd3c7bb	0.025852075
49	0x3d9d5b14	0.076833874
50	0xba665ef9	-0.0008787956
51	0xbcf03458	-0.029321834
52	0x3d691241	0.056902174
53	0x3a0fb978	0.0005482654
54	0xbc84349a	-0.016138364
55	0xbdb2cebc	-0.08730838
56	0x3c6a6945	0.014307325
57	0x3bf7f3c8	0.007566903
58	0x398520a7	0.00025392065
59	0x3c550102	0.013000729
60	0xba298346	-0.00064663996
61	0xbd32afcb	-0.04362468
62	0xbd41b1c5	-0.047288675
63	0x3d2c70af	0.04209965
64	0xbd6acc1e	-0.057323568
65	0x3da719e3	0.081592344
66	0x3d2da96a	0.042397894
67	0x3de8b5ec	0.11362824
68	0x3d29b781	0.04143477
69	0xbd663947	-0.056206968
70	0xbd6616cb	-0.05617408
71	0xbc9d1b8d	-0.019178176
72	0xbbca8522	-0.0061804214
73	0xbd4b49a2	-0.04963077
74	0x3da9afa5	0.08285455
75	0xbd30974c	-0.043113038
76	0xbd983e56	-0.07433765
77	0x3c1b44b2	0.009476827
78	0x3d772d2d	0.060345817
79	0x3d09a28e	0.03360229
80	0xbd06d185	-0.032914657
81	0x3cbe9b06	0.02326728
82	0xbda34051	-0.07971252
83	0xbd87efd1	-0.06637538
84	0x3dcfc6fe	0.101453766
85	0x3de77ffb	0.11303707
86	0xbbe0ef09	-0.0068644327
87	0xbd90e174	-0.07074252
88	0x3d92e434	0.071724325
89	0xbda9d936	-0.08293383
90	0xbaf94bc8	-0.0019019777
91	0xbde35ddf	-0.11101889
92	0x3dba5186	0.090975806
93	0xbc119f87	-0.008888132
94	0x3d99e340	0.075140476
95	0xbd0faba7	-0.03507581
96	0xbdd8bf12	-0.10583319
97	0x3d93b722	0.07212664
98	0x3ddd6b84	0.108115226
99	0x3d182d69	0.03715268
100	0xbdc4b4f1	-0.09604824
101	0x3dd267bc	0.10273692
102	0xbc4f3abc	-0.012648281
103	0xbdcb3bd2	-0.09923519
104	0x3db79e7e	0.08965777
105	0xbb65ebb0	-0.0035083108
106	0x3d93e541	0.07221461
107	0xbd8dfdb9	-0.069331594
108	0x3d9e80c9	0.077394076
109	0x3e0418d7	0.129001
110	0xbc52e9af	-0.012873097
111	0xbd3d09c9	-0.04615191
112	0xbd5dd4f4	-0.054158166
113	0x3e07c956	0.13260397
114	0xbc7466b2	-0.014917063
115	0x3d220016	0.039550863
116	0x3d7f9106	0.062394165
117	0xbccbe1d7	-0.024887962
118	0xbdf08a83	-0.11745169
119	0xbd082c9d	-0.03324567
120	0x3d66bfe9	0.056335364
121	0x3a530bb9	0.0008050758
122	0x3dc49fe2	0.09600808
123	0x3d336e4f	0.04380637
124	0xbd2942a0	-0.041323304
125	0x3d8cd717	0.06876963
126	0xbbf6a3e2	-0.0075268606
127	0xbd8dc1bc	-0.069217175
128	0xbb3898e7	-0.0028167309
129	0x3d9aee91	0.07565034
130	0xbd6fbeb4	-0.058531478
131	0x37306ef9	1.0516255e-05
132	0xbdb512b4	-0.08841458
133	0xba323588	-0.0006798138
134	0xbd869714	-0.065717846
135	0x3d0962bd	0.03354143
136	0xb9a2b3e3	-0.00031033074
137	0xbd771fa0	-0.060332894
138	0x3d8794ef	0.06620204
139	0x3d31ce4b	0.043409627
140	0x3b666d92	0.0035160524
141	0x3c1bc2a6	0.009506857
142	0x3a61bc23	0.00086111034
143	0xbd20902d	-0.039199997
144	0x3d03252b	0.032017868
145	0xbd86d599	-0.06583709
146	0xbdae3df7	-0.085079126
147	0x3abf2356	0.0014582674
148	0x3d769e4b	0.060209554
149	0xbcca28aa	-0.024677593
150	0xbd89ca3d	-0.06728027
151	0xbd5b186f	-0.0534901
152	0x3a3f64d9	0.0007301099
153	0xbd5bf322	-0.053698666
154	0xbc8c6a2c	-0.01714047
155	0x3db13901	0.08653451
156	0xbd618cd3	-0.05506594
157	0x3d061571	0.032735292
158	0xbd0111ef	-0.031511243
159	0x3d89bb73	0.06725206
160	0x3d25c39b	0.040469747
161	0xbdb12422	-0.0864947
162	0xbce7a6ce	-0.02827778
163	0xbc1fa7b2	-0.0097445715
164	0xbd37dce8	-0.044888407
165	0x3d82736b	0.063696705
166	0xbc902262	-0.01759452
167	0x3d73d2b2	0.059527107
168	0xbaba0840	-0.0014193133
169	0xbc18ab37	-0.009318165
170	0xbc975ce3	-0.018476909
171	0xbda1083a	-0.07862897
172	0x3d9c8e49	0.07644326
173	0x3da3f322	0.08005358
174	0xbd579340	-0.052630663
175	0x3d639de8	0.055570513
176	0xba14a4fa	-0.00056703354
177	0xbd92b3e3	-0.07163217
178	0x38f91fa4	0.00011879139
179	0xbb325f4e	-0.002721745
180	0x3d846189	0.06463916
181	0x3c743e67	0.014907456
182	0xbc907c7f	-0.01763749
183	0xbd4f4d08	-0.050610572
184	0xbc43b8f5	-0.011945953
185	0xb7d68d36	-2.5576544e-05
186	0xbd09d87a	-0.033653714
187	0x3d10dcb9	0.035366748
188	0x3cabf43a	0.02099048
189	0xbb27e218	-0.002561694
190	0x3b55c677	0.0032619515
191	0x3d4a6519	0.04941282
192	0xbd887896	-0.06663625
193	0xbd379246	-0.04481723
194	0x3da7c832	0.08192481
195	0x3d823e9e	0.063595995
196	0xbb4a0de4	-0.0030831033
197	0xbb75a67b	-0.0037483263
198	0xbcae6f67	-0.021293355
199	0x3cbd79d5	0.023129383
200	0x3db1d90a	0.08683975
201	0x3d894133	0.06701889
202	0xbd9a2686	-0.07526879
203	0xbd2848cd	-0.041085053
204	0xbc42cde5	-0.011889909
205	0xbd9ec2a4	-0.077519685
206	0xbde78494	-0.11304584
207	0x3d5092ec	0.050921366
208	0x3c626b94	0.013819594
209	0xbdbf4270	-0.09338844
210	0xbd7d5eb4	-0.061857894
211	0xbd3e3dbc	-0.046445593
212	0x3da5deb4	0.08099118
213	0xbd274b0b	-0.04084305
214	0x381cbd1c	3.736942e-05
215	0x3b4a95f8	0.0030912142
216	0x38a16fca	7.6979006e-05
217	0xbc8c0bde	-0.017095502
218	0x3ca346e3	0.019931262
219	0xbd660279	-0.0561547
220	0x390ba692	0.00013318125
221	0xbd3b35d8	-0.045705646
222	0x3c7882d5	0.015167912
223	0x3dd24127	0.10266333
224	0x3c3395eb	0.010961036
225	0xbcb66372	-0.022264216
226	0x3dc1dad8	0.09465569
227	0x3c2d7a2c	0.01058821
228	0xbd4d72cd	-0.05015831
229	0xbdca1f9c	-0.0986931
230	0xbd8a2e16	-0.067470714
231	0x3d8ccd1c	0.06875059
232	0x3c00737f	0.007840036
233	0x3dee5e7b	0.116391145
234	0x3d96decc	0.07366714
235	0xbc049476	-0.0080920365
236	0x3cb9e0c8	0.022690192
237	0xbdb50c34	-0.08840218
238	0xbdc46b3a	-0.09590764
239	0x3d6e5918	0.058190435
240	0xbd639856	-0.0555652
241	0xbd496c5b	-0.0491756
242	0x3c8510a4	0.016243286
243	0x3d42621b	0.047456842
244	0x3da6554d	0.081217386
245	0x3d7ae392	0.061252184
246	0x3d0ab193	0.033860754
247	0xbcb3aa30	-0.021931738
248	0xbbd5bcc9	-0.006522749
249	0xbd4ea078	-0.050446004
250	0xb98db9de	-0.00027032098
251	0x3d3de77d	0.046363343
252	0x3d9c19f8	0.07622141
253	0x3de9a362	0.11408116
254	0x3d988a2a	0.07448228
255	0x3d0b349a	0.03398571

encoder.mlp.2.bias f4 [128]
0	0x3d965847	0.07341056
1	0x3ce5a0f1	0.028030844
2	0xbd984ab8	-0.074361265
3	0x3da0ca89	0.078511305
4	0xba495c49	-0.0007681293
5	0xbd0d4139	-0.03448603
6	0x3cd58e54	0.026068844
7	0x3d450a6c	0.048105642
8	0x3cab29b9	0.020893918
9	0x3d8fe28c	0.07025632
10	0xbd52f86c	-0.051506445
11	0xbd45e74a	-0.048316278
12	0x3d4cee63	0.05003203
13	0xbc5594e4	-0.013035987
14	0x3d12190a	0.03566841
15	0x3dfaeb3d	0.122518994
16	0xbd9ac921	-0.075578935
17	0xbdaff6d8	-0.085920036
18	0x3de723ed	0.11286149
19	0xbdb3883a	-0.087662175
20	0x3d144503	0.036198627
21	0xbd5beda2	-0.05369342
22	0xbcc434fe	-0.02395105
23	0xbe0188ce	-0.12649843
24	0xbc400afa	-0.011721367
25	0x3d52be41	0.05145097
26	0x3da0f534	0.07859269
27	0x3c4a81a3	0.012360009
28	0x3d7061aa	0.05868689
29	0x3dc06111	0.09393514
30	0xbb87f386	-0.0041489033
31	0x3c2b14a1	0.01044193
32	0x3dbc51d8	0.09195298
33	0x3d842bef	0.06453692
34	0xbdcadc65	-0.09905318
35	0xbd2c9dd6	-0.04214271
36	0xbd035834	-0.03206654
37	0xbd5d72d5	-0.05406459
38	0xbde9268d	-0.11384306
39	0x3d92d0cb	0.0716873
40	0x3ca40882	0.020023588
41	0x3c6d4a78	0.014483087
42	0xbdcead78	-0.1009168
43	0xbd67d5ae	-0.056600265
44	0xbd5eff02	-0.054442413
45	0xbcc8a4e9	-0.024492698
46	0xbdc2dedf	-0.095151655
47	0xbc3f2bf7	-0.011668197
48	0xbdc9ef27	-0.09860068
49	0xbd12a732	-0.03580398
50	0x3d076702	0.03305722
51	0x3dc3196b	0.095263325
52	0xbda33044	-0.0796819
53	0x3d1e01e0	0.038576007
54	0xbdb33181	-0.087496765
55	0xbd8c20f2	-0.06842221
56	0x3cc455c6	0.023966681
57	0xbda8d9eb	-0.082446896
58	0x3dfa849b	0.12232324
59	0xbd06faf0	-0.032954156
60	0xba2e29df	-0.00066438125
61	0x3de9f964	0.114245206
62	0xbdbda0ea	-0.092592075
63	0xbd5a5fca	-0.053314008
64	0xbd7a432c	-0.061099216
65	0xbde200b4	-0.1103529
66	0xbdcedd10	-0.10100758
67	0xbd918482	-0.07105352
68	0x3d4e087f	0.05030107
69	0x3c867158	0.016411468
70	0xbca700ca	-0.020386118
71	0xbd54be39	-0.051939223
72	0x3e0923e3	0.13392596
73	0xbda32536	-0.07966082
74	0xbdb8257d	-0.08991525
75	0xbd5027cd	-0.050819207
76	0x3de494f2	0.111612216
77	0x3ddc6ddc	0.107631415
78	0xbdc4f50e	-0.09617053
79	0xbd5b008f	-0.05346733
80	0x3ca9cc00	0.020727158
81	0xbabd01c3	-0.0014420081
82	0xbdddac2b	-0.10823854
83	0xbd7da8cc	-0.061928555
84	0xbda535b1	-0.080668814
85	0x3dadc57b	0.08484932
86	0xbd55e404	-0.052219406
87	0x3dc55753	0.096357964
88	0xbdd6ec10	-0.10494244
89	0x3d4ebeaa	0.0504748
90	0xbc242ea3	-0.010020885
91	0xbd12070b	-0.035651248
92	0xbdc986ae	-0.09840141
93	0x3bd7b09b	0.0065823323
94	0x3d992e73	0.074795626
95	0xbd1207f6	-0.035652123
96	0xbc6b21fc	-0.014351364
97	0xbd53eada	-0.051737644
98	0xbd2be3cb	-0.041965287
99	0x3dbf6a8c	0.09346494
100	0x3d42534f	0.04744273
101	0xbca56971	-0.02019188
102	0xbd224da8	-0.03962484
103	0xbd6346e6	-0.055487536
104	0xbd00021e	-0.03125202
105	0xbd6023d2	-0.05472166
106	0x3d20d2df	0.039263602
107	0xbdad487a	-0.084610894
108	0xbb8f8fe1	-0.0043811654
109	0x3d3aff8d	0.04565387
110	0x3d1057fc	0.03524016
111	0xbdc82334	-0.097723395
112	0xbb229500	-0.002480805
113	0x3ce516f0	0.027965039
114	0x3d448bc4	0.047984853
115	0x3d894400	0.06702423
116	0xbdbb5576	-0.0914716
117	0xbd8d0b3c	-0.068869084
118	0x3ba6aa54	0.0050862227
119	0xbd161d41	-0.036648992
120	0xbd4e786d	-0.050407816
121	0x3da69243	0.08133366
122	0x3d6f314d	0.058396626
123	0x3a5bfded	0.0008392025
124	0xbcb51801	-0.022106173
125	0x3b59aed5	0.003321578
126	0x3dd315f8	0.103069246
127	0x3d1378a9	0.036003742

encoder.mlp.4.weight f4 [256, 128]
0	0xb9a1f55b	-0.00030891117
1	0xbd030de9	-0.031995688
2	0xbd0ae046	-0.03390529
3	0xba4a8299	-0.0007725149
4	0x39eb966d	0.0004493477
5	0x3c21d93b	0.009878452
6	0xbb9e0355	-0.0048221746
7	0xbc8e6294	-0.01738099
8	0x3cf1b195	0.029503623
9	0xbc11d011	-0.008899705
10	0xbd28051c	-0.041020498
11	0xbd2743d0	-0.040836155
12	0x3db60129	0.0888694
13	0x3cca64a0	0.024706185
14	0x3c69e44c	0.014275622
15	0xbd062cd8	-0.03275761
16	0x3d1afcfc	0.03783892
17	0xbcb00225	-0.021485398
18	0xbd8ee314	-0.069769055
19	0x3dd2f932	0.103014365
20	0xbc78ddbe	-0.015189586
21	0xbd2034ea	-0.039112963
22	0x3cc6052e	0.024172392
23	0x3c9e8cfd	0.019354338
24	0x390680a1	0.00012827154
25	0xbd8712d4	-0.06595388
26	0x3a13ae4f	0.0005633579
27	0x3d8e26bc	0.06940982
28	0x3ccd599e	0.025067147
29	0xbdaa485a	-0.08314581
30	0xbcb9f7c3	-0.02270115
31	0xbd146518	-0.036229223
32	0x3ce9c7ae	0.028537598
33	0xbcb26cd1	-0.021780403
34	0xbd855577	-0.06510442
35	0x3cbe730d	0.02324822
36	0x3d7b73bd	0.061389674
37	0xb9f469fc	-0.0004661827
38	0x3c7a4167	0.015274382
39	0xb94af9d6	-0.00019357292
40	0xb98d7dae	-0.00026987254
41	0xbd158889	-0.036507163
42	0xbd17e9ff	-0.03708839
43	0x3dc3c866	0.09559707
44	0xbc979665	-0.01850433
45	0xbbe12a3d	-0.0068714903
46	0xbc1a66c7	-0.009423918
47	0x3d38b173	0.045091104
48	0xbbdd59cb	-0.006755089
49	0x39c15086	0.00036871823
50	0x3dd0d75a	0.10197325
51	0xbd2c9423	-0.04213346
52	0xbce9ac38	-0.028524503
53	0xbd32050b	-0.04346184
54	0xbbcfc9fa	-0.006341216
55	0xbbb4a904	-0.0055133123
56	0xbd73b850	-0.059501946
57	0xbccc983c	-0.024974935
58	0x3d810f8a	0.06301792
59	0x3d4ebecd	0.05047493
60	0xbd16c0ae	-0.036804847
61	0x3dc6294f	0.09675848
62	0x3d05daf4	0.032679513
63	0xbcf08b42	-0.029363278
64	0xbbc8e9de	-0.0061313948
65	0xbce7a4b7	-0.028276784
66	0x3c2f8e4f	0.010715081
67	0x3d6527dc	0.055946216
68	0x3b0acbc8	0.0021178592
69	0x380a5335	3.2979257e-05
70	0x3c821bde	0.015882429
71	0xbd8953d6	-0.067054436
72	0x3d6c396b	0.057671946
73	0x3a2e4e64	0.00066492544
74	0x3da8691a	0.082231715
75	0x3cffe8cb	0.031238934
76	0xbbd5b5af	-0.0065219025
77	0x3c9062c4	0.01762522
78	0x3dca9257	0.09891193
79	0x3d097a52	0.03356392
80	0x3bb1c50e	0.005425102
81	0xba5e17ef	-0.00084721943
82	0xb98a9c9d	-0.00026438097
83	0x39228f57	0.00015502922
84	0xbd881f84	-0.06646636
85	0xbcdc5e55	-0.02690045
86	0xbc835107	-0.016029848
87	0x3db65485	0.089028396
88	0x3d26397d	0.04058217
89	0xbc83f0a3	-0.016105955
90	0xb94c28be	-0.00019470134
91	0x3db5e2ec	0.088811725
92	0x3dc7aaab	0.09749349
93	0x3c9a8356	0.018861454
94	0x3d9077aa	0.07054074
95	0xba38c766	-0.00070487557
96	0xb997a980	-0.00028927252
97	0xb9ebba83	-0.00044961655
98	0x38c0eb2f	9.19908e-05
99	0xbb82d350	-0.0039924756
100	0x3ccd5938	0.025066957
101	0xbd84da52	-0.06486954
102	0x3bb96880	0.0056582093
103	0xbd895e11	-0.06707395
104	0xbd13f229	-0.036119614
105	0x3d6995ff	0.057027813
106	0x3c7b120b	0.015324126
107	0x3d8c4ba8	0.06850368
108	0x3d9ff175	0.07809726
109	0x3a2af9df	0.0006522219
110	0x3bba57b6	0.0056867255
111	0xbcbbb882	-0.022915129
112	0xbc5ac752	-0.013353186
113	0x3d15d1b3	0.036576938
114	0x3d46a452	0.04849655
115	0xbd8c898b	-0.06862172
116	0xbd5ca5dc	-0.053869113
117	0xbcff145c	-0.031137638
118	0x3a2c83f5	0.00065809424
119	0xbce6931c	-0.02814632
120	0xbd0fd324	-0.03511347
121	0x3d2d420b	0.04229931
122	0x3db6a52d	0.089182235
123	0x3d19ab6d	0.037517
124	0x3d88b2be	0.06674717
125	0x39e518b3	0.00043696686
126	0x3dd55dc5	0.10418276
127	0xbcdca087	-0.026932014
128	0xbb3b78c3	-0.0028605915
129	0xbcfb3ca8	-0.030668572
130	0xba04a863	-0.0005060492
131	0x3c0f677a	0.008752698
132	0x3a2f908d	0.000669726
133	0xbd3190d2	-0.043351002
134	0xbd1e0cbf	-0.038586374
135	0x3be699ce	0.007037378
136	0xbc873e8c	-0.016509317
137	0x3d6c9dd0	0.05776769
138	0x3cbb447a	0.0228598
139	0xba3e3cc5	-0.000725698
140	0xbd62f9f3	-0.05541415
141	0xbae4c83b	-0.0017454693
142	0x3d5af3cf	0.05345517
143	0x39dfc493	0.00042680334
144	0x3d4b3627	0.04961219
145	0x3d8992e7	0.067174725
146	0xbc5d02c6	-0.013489431
147	0xbbb06152	-0.0053826952
148	0xbb905a52	-0.0044052983
149	0xbc8330a0	-0.016014397
150	0x3d207251	0.03917152
151	0xbc924f2c	-0.017860018
152	0x3907d6fe	0.00012954694
153	0x3c759b8a	0.014990697
154	0xbaef1a09	-0.0018242012
155	0x3d7914a4	0.0608107
156	0xbc6aea7f	-0.014338135
157	0xbd97acf7	-0.07406037
158	0x3c4d830a	0.012543449
159	0x3da29b16	0.079397365
160	0x3d0e52af	0.034746822
161	0xbd8e9ad5	-0.069631256
162	0x3d862747	0.0655046
163	0xb7f23204	-2.8871938e-05
164	0xbcc3f394	-0.023919858
165	0x3d14f711	0.036368433
166	0x3d944913	0.072405
167	0xb94d536c	-0.000195814
168	0xbd1c9942	-0.038232096
169	0xbc1f9824	-0.009740863
170	0x3db13837	0.086533
171	0xbd1f5d1f	-0.038907167
172	0x3d46c16e	0.048524313
173	0x3d20c9f5	0.0392551
174	0x3d272d37	0.040814605
175	0xbd2513ba	-0.040302016
176	0xbd8dd5fa	-0.069255784
177	0xbd1149b5	-0.035470683
178	0x3cea5ea7	0.028609587
179	0xbd0d33c5	-0.0344732
180	0xbd80d22d	-0.06290088
181	0xbcbcbfa9	-0.02304061
182	0xb98536d9	-0.00025408602
183	0xbd3efd02	-0.046628006
184	0xbd970676	-0.07374279
185	0x3d8fdb56	0.07024257
186	0x3d2d1a27	0.04226127
187	0xbd2df1b0	-0.04246682
188	0x3b9e7995	0.004836271
189	0xbcc126d7	-0.02357809
190	0xbd2adfe0	-0.04171741
191	0x3c3206a7	0.010865844
192	0xbba2a45b	-0.0049634404
193	0x3c8979e5	0.016781757
194	0xbae002c5	-0.0017090669
195	0x3dae33e9	0.08505995
196	0x3da83fb2	0.08215274
197	0xba01043f	-0.0004921592
198	0x3c8ba0a2	0.01704437
199	0x3dc220b7	0.09478896
200	0x3d783960	0.060601592
201	0xbc4ddcf1	-0.012564884
202	0x3da0ab63	0.078451894
203	0x3d15a69a	0.036535837
204	0xbc604309	-0.013687857
205	0xbd176f85	-0.036971588
206	0x3bc22b33	0.00592556
207	0xbccaa52e	-0.024736967
208	0x3d0c4768	0.034247786
209	0xba5137ed	-0.0007981051
210	0x3a524328	0.00080208713
211	0x387a5944	5.968778e-05
212	0x3d1fe8ae	0.03904026
213	0x3dbab555	0.091166176
214	0x3d2dfd05	0.042477626
215	0x3ca2f5f3	0.019892668
216	0xbcfbd0f2	-0.030739281
217	0xbbbac97a	-0.0057002874
218	0xbc45129b	-0.012028362
219	0x3b4a1327	0.003083417
220	0xbd387d90	-0.04504162
221	0x3d4673b0	0.048450172
222	0x3d8ff1d7	0.07028549
223	0xbbbe49a3	-0.005807118
224	0x3c363527	0.011121071
225	0x3c910af4	0.017705418
226	0x3d2fbf84	0.042907253
227	0xbd6d75a6	-0.057973526
228	0x3d3f06a1	0.04663718
229	0x3d1fa0e4	0.038971797
230	0x3d9fbdd7	0.07799881
231	0x3c927bd5	0.017881313
232	0xbd9bd3aa	-0.07608731
233	0x3da2a815	0.07942215
234	0xba72399e	-0.0009240153
235	0xbd9230ca	-0.07138212
236	0x3d0d131b	0.03444205
237	0x3d802498	0.0625698
238	0xbd2e8300	-0.0426054
239	0xbd93b8fa	-0.07213016
240	0x3c451c1d	0.0120306285
241	0x3b385c50	0.0028131194
242	0xbd906408	-0.070503294
243	0x3d3eed17	0.046612825
244	0xbd97f611	-0.0741998
245	0x3c818b55	0.015813509
246	0xb75391d6	-1.2610535e-05
247	0x3bf53848	0.007483516
248	0x3c29c918	0.010362886
249	0x3c83cfeb	0.016090354
250	0xbc7d46bf	-0.015458762
251	0xbbcd1ed0	-0.0062597767
252	0x3d1bc564	0.038030043
253	0x3c3c3da7	0.011489308
254	0xbd7e9457	-0.062153187
255	0x3d349772	0.044089742

encoder.mlp.4.bias f4 [256]
0	0x3d8bd3c0	0.068274975
1	0x3d21faf8	0.039545983
2	0xbd7563c9	-0.059909616
3	0xb89e9076	-7.560935e-05
4	0xbcc1469c	-0.02359324
5	0xbd8aa8e6	-0.06770496
6	0xbd772333	-0.060336303
7	0x3d299182	0.041398533
8	0x3d3b37b8	0.045707434
9	0x3d37f74d	0.04491358
10	0xbbcb7e31	-0.0062101115
11	0xbc0333f1	-0.008007989
12	0x3d3793ed	0.044818807
13	0xbcae576d	-0.021281922
14	0x3d946354	0.07245508
15	0x3d0f8ad6	0.035044514
16	0xbd2f5a6b	-0.04281084
17	0x3d448c04	0.04798509
18	0xbcda2cbf	-0.026632665
19	0xbc8c65e8	-0.017138436
20	0x3dbaae36	0.09115259
21	0x3b0c3711	0.0021395127
22	0xbdc01d53	-0.09380593
23	0xbd24c492	-0.040226527
24	0xbce5f177	-0.028069241
25	0x3c388985	0.011263256
26	0x3c8a5b7c	0.016889326
27	0x3d8e45ff	0.069469444
28	0xbd6506da	-0.055914737
29	0xbd8a168f	-0.06742584
30	0xbccad290	-0.024758607
31	0x3cdf79d8	0.02727978
32	0x3a026ca0	0.0004975293
33	0x3b4299ae	0.002969365
34	0x3c0645d8	0.008195363
35	0x3d19e699	0.03757343
36	0xbd66ee91	-0.05637986
37	0xbd5899a8	-0.052880913
38	0x3d0a77cc	0.033805653
39	0xba2573b5	-0.0006311492
40	0xbd42ef8c	-0.04759173
41	0x3d8ba019	0.068176456
42	0xbd260c5a	-0.040539123
43	0x3c947392	0.018121514
44	0xbd3a0d88	-0.04542306
45	0x3ce87c93	0.028379714
46	0x3d93fdc7	0.072261386
47	0xbba3adcb	-0.004995083
48	0xbcbe41ed	-0.023224795
49	0x3cf5254d	0.029925013
50	0x3caa9b52	0.020826016
51	0xbce76f90	-0.02825144
52	0x3d4aaa3f	0.049478766
53	0x3da28871	0.079361804
54	0xbd0f78d5	-0.035027344
55	0x3adce108	0.0016851733
56	0xbceb5418	-0.028726622
57	0xbd284273	-0.041078996
58	0x3d08f6d1	0.033438507
59	0x3d1396a6	0.03603234
60	0xbba23ac7	-0.0049508545
61	0x3c1be32d	0.009514612
62	0x3d1c8a12	0.03821761
63	0xbcece7fc	-0.028919213
64	0x3d0d0c22	0.0344354
65	0xbc7982a9	-0.015228906
66	0x3d1b9579	0.037984345
67	0xbd0a44aa	-0.03375689
68	0xbcf00d3c	-0.029303186
69	0xbc93af26	-0.018027853
70	0xbca4d471	-0.020120831
71	0xba3fd6e9	-0.0007318096
72	0x3baa9fb8	0.0052070282
73	0x3ccd2da7	0.025046183
74	0x3d2b336b	0.041797083
75	0xbd7434c5	-0.059620637
76	0x3d14021b	0.03613482
77	0xbc2b09c0	-0.010439336
78	0xbd7b8480	-0.06140566
79	0xbc936421	-0.017992081
80	0x3da7d36f	0.08194625
81	0xbcd75bf2	-0.02628896
82	0xbd8c4e2e	-0.06850849
83	0xbd1def25	-0.038558144
84	0x3d10fa29	0.03539482
85	0xbd68b36c	-0.056811735
86	0xbd21a84f	-0.039467152
87	0x3d55aed0	0.052168667
88	0x3d3bc59a	0.045842744
89	0x3d7bd0eb	0.061478537
90	0xbc7eef2a	-0.015559951
91	0x3d2b72cb	0.041857522
92	0xbd55d7be	-0.0522077
93	0x3c4e5758	0.012594067
94	0x3d08bdde	0.033384196
95	0xbcce42f6	-0.025178414
96	0xbd9148bb	-0.0709395
97	0x3c50a74d	0.0127352
98	0xbcda6f71	-0.026664468
99	0xbd857315	-0.06516091
100	0xb6bb1484	-5.5754226e-06
101	0xbc92fd27	-0.017942978
102	0x3d9c9124	0.07644871
103	0xbd2f1198	-0.042741388
104	0xbcd23857	-0.02566163
105	0xbd1ff753	-0.039054226
106	0x3da60366	0.08106117
107	0x3ce6e168	0.028183654
108	0xbd8650dd	-0.06558392
109	0xbd3672d9	-0.04454312
110	0xbd548c51	-0.05189163
111	0xbb36cd40	-0.0027893335
112	0xbcc91e84	-0.024550684
113	0xbbceebf5	-0.0063147494
114	0x3d44976e	0.047995977
115	0xbc979fb3	-0.018508768
116	0x3d99b1f2	0.075046435
117	0x3d83da78	0.06438154
118	0x3d94a4b7	0.07257979
119	0xbd938212	-0.07202543
120	0x3d96bb93	0.07359996
121	0xbcde2410	-0.027116805
122	0xbca2bf58	-0.01986663
123	0xbc376aa4	-0.011194859
124	0xbd203e8c	-0.03912215
125	0x3c46ec47	0.012141294
126	0x3da6e99b	0.081500255
127	0xbd126490	-0.035740435
128	0xbcc5f77a	-0.024165858
129	0x3c8cdf62	0.017196361
130	0x3d748f87	0.05970719
131	0xbcfc6df4	-0.030814148
132	0x3d95f4e2	0.07322098
133	0x3d6a23ec	0.057163164
134	0x3c393671	0.011304484
135	0xbc3281df	-0.0108952215
136	0xbd3f8cfb	-0.04676531
137	0xbcdf36f1	-0.027247878
138	0xbd0424e4	-0.032261744
139	0x3d76e23b	0.060274344
140	0x3d8406ec	0.06446633
141	0xbd73a70f	-0.05948549
142	0xbccb7bef	-0.02483937
143	0x3ae8163a	0.0017706819
144	0x3b1055a9	0.0022023714
145	0x3d6e6c88	0.058208972
146	0x3d31c72d	0.04340284
147	0xbd23001d	-0.03979503
148	0x3dbab3a6	0.091162965
149	0x3c903bab	0.017606577
150	0x3c3131f9	0.010815137
151	0x3c880d83	0.016608005
152	0xbd3936ec	-0.045218393
153	0x3ca2c8f8	0.01987122
154	0xbcbdf682	-0.023188833
155	0x3dbfe694	0.09370151
156	0xbda7ba83	-0.08189871
157	0x3ca6765d	0.020320112
158	0xbd9007a3	-0.070327066
159	0xbd23a69a	-0.039953806
160	0xbd363c34	-0.044491008
161	0x3d873ef6	0.06603806
162	0x3d9912a3	0.07474258
163	0xbd54596a	-0.051843084
164	0xbce5558d	-0.027994895
165	0x36fc3f35	7.5175435e-06
166	0x3d0b08ce	0.033943944
167	0x3d6d9b7a	0.058009602
168	0xbd7099e5	-0.058740515
169	0xbc1015aa	-0.008794228
170	0x3dbef7be	0.09324597
171	0x3dc0e360	0.09418368
172	0xbbe5729b	-0.0070021874
173	0x3caa6ec2	0.020804767
174	0xbda83d57	-0.08214825
175	0x39de61c5	0.00042415984
176	0xbc39d018	-0.011341117
177	0x3d6038f9	0.054741833
178	0x3d1f3740	0.03887105
179	0x3d8a3f7d	0.06750391
180	0x3d5e988b	0.054344695
181	0xbd8bffff	-0.06835937
182	0x3cd2fe2a	0.02575596
183	0x3d55b837	0.052177634
184	0x3a662c2c	0.0008780386
185	0xbd865f7d	-0.06561182
186	0x3c721c76	0.014777293
187	0xbd04d9d9	-0.03243432
188	0xbc649d9d	-0.013953594
189	0x3cbd0893	0.023075378
190	0x3d5b33be	0.053516142
191	0x3c04c60c	0.008103859
192	0x3d45b614	0.048269346
193	0x3d896720	0.06709123
194	0xbc4822db	-0.012215341
195	0xbbc52038	-0.0060158037
196	0x3da24b2b	0.079244934
197	0xbccc020e	-0.024903324
198	0x3d2952f1	0.041338865
199	0xbb7d802f	-0.003868114
200	0x3d092a4a	0.033487596
201	0x3bf203a1	0.0073856865
202	0xbd0c1df0	-0.034208238
203	0xbd5a4980	-0.05329275
204	0xbd8ab279	-0.06772322
205	0xbb7f5408	-0.0038959999
206	0x3d88227c	0.066472024
207	0xba1487a5	-0.00056659646
208	0x3d6e8b0f	0.058238085
209	0x3d7c7f87	0.061645057
210	0xbc59b8aa	-0.013288656
211	0x3c84fc32	0.016233537
212	0x3d72a50e	0.05923944
213	0x3bf35187	0.0074254903
214	0xbd8b57e7	-0.068038754
215	0xbd57f711	-0.052725855
216	0x3bc4dbd1	0.0060076495
217	0x3d29b73a	0.041434504
218	0x3c74bfac	0.014938276
219	0x3d07fd11	0.033200327
220	0x3cf99a00	0.03046894
221	0x3d3aa818	0.045570463
222	0x3cfb31b4	0.030663349
223	0xbd017743	-0.031607877
224	0xbd4d2f89	-0.05009416
225	0x3d88e220	0.06683755
226	0xbd1f42fe	-0.038882248
227	0x3b001d62	0.0019548764
228	0x3cd3e48a	0.025865812
229	0xbda305d2	-0.079600945
230	0xbc3113f2	-0.010807978
231	0xbc9d1c85	-0.019178638
232	0x3da4267f	0.08015155
233	0xbb833d58	-0.0040051155
234	0x3d8e0f75	0.06936542
235	0xb95d24bf	-0.00021089891
236	0xbd905a9f	-0.070485346
237	0xbd24af0b	-0.040205996
238	0xbd7d8a95	-0.06189974
239	0xbac1110c	-0.0014729812
240	0x3d1d0bb7	0.03834125
241	0xbcb61840	-0.02222836
242	0xbc4d461d	-0.012528923
243	0xbda7ae77	-0.081875734
244	0xbd93e389	-0.07221133
245	0x3c604816	0.013689062
246	0xbc84ce2b	-0.01621159
247	0xbd4e7869	-0.0504078
248	0xbd08154a	-0.033223428
249	0x3ca8f62e	0.0206252
250	0x3d1a3b1c	0.037654027
251	0xbd755a4d	-0.05990057
252	0x3d4b6435	0.04965611
253	0xbdad54b5	-0.08463422
254	0x3c4411eb	0.011967163
255	0x3dc0c80a	0.094131544

pos_mlp.0.weight f4 [32, 1]
0	0x3ea570a9	0.32312515
1	0x39ed51bf	0.00045265068
2	0xbf54c596	-0.8311399
3	0x3f4dfd6f	0.80464834
4	0xbd1959cb	-0.03743915
5	0x3ef4edd2	0.47837692
6	0x3f35f109	0.71070915
7	0x3f16198d	0.5863274
8	0x3eba7d99	0.36423948
9	0xbf26c1af	-0.6513929
10	0xbd0ab3de	-0.03386294
11	0x3f59d251	0.8508654
12	0xbd7d2a4c	-0.061807916
13	0xbee0140a	-0.4376529
14	0xbf5a1420	-0.8518696
15	0x3f5b0865	0.85559684
16	0x3e9c2adc	0.3050145
17	0x3d1d502a	0.03840653
18	0xbf2500af	-0.6445417
19	0xbf51e75b	-0.81993645
20	0xbec76d92	-0.38950783
21	0x3e993d8c	0.2992977
22	0xbf61913c	-0.88112235
23	0xbc3f0282	-0.011658313
24	0x3ed60cbb	0.41806588
25	0xbeec6aef	-0.46175334
26	0x3eddee7a	0.43346006
27	0xbf49c29c	-0.78812575
28	0x3f48744e	0.78302467
29	0x3f2c0838	0.6720004
30	0xbefa16f3	-0.48845634
31	0x3f6b8d4c	0.92012477

pos_mlp.0.bias f4 [32]
0	0x3d00242d	0.0312845
1	0xbf0fdd3e	-0.56196964
2	0xbed0895b	-0.40729794
3	0x3e174f64	0.14776379
4	0x3f06aa37	0.5260348
5	0xbf445ab9	-0.7670093
6	0xbebc1a67	-0.36738893
7	0x3eef826d	0.46779194
8	0x3f4ea3a4	0.80718446
9	0x3f235dc0	0.63814926
10	0x3f70be29	0.9404016
11	0x3f3c77b1	0.73620135
12	0xbf1d30a1	-0.61402327
13	0x3f452858	0.77014685
14	0xbf1bcbcf	-0.6085786
15	0xbe92926e	-0.28627342
16	0xbe9b3170	-0.30311155
17	0xbf020ae2	-0.50797856
18	0x3eaf03ad	0.34182492
19	0xbe3c50ca	-0.18390194
20	0xbf4746d5	-0.77842456
21	0x3e5caeb1	0.21551014
22	0x3f59fa76	0.851478
23	0xbf562487	-0.83649486
24	0xbe8d5447	-0.2760336
25	0xbeb0f357	-0.34560654
26	0xbeb18a81	-0.34675983
27	0xbf563a1a	-0.83682406
28	0x3f7b760f	0.9822702
29	0xbd8c52d9	-0.068517394
30	0xbf46a845	-0.7760051
31	0x3f34c23d	0.70608884

pos_mlp.2.weight f4 [32, 32]
0	0x3deb0270	0.11475074
1	0x3deb073a	0.11475988
2	0x3a46d238	0.00075844256
3	0x3d8a3ac8	0.06749493
4	0xbdfefbf4	-0.124504
5	0xbda17db1	-0.07885302
6	0x3e02ac5d	0.12761064
7	0x3a42f5d8	0.0007437146
8	0xbbe4c5d7	-0.006981592
9	0x3df5c6ef	0.12000834
10	0x3d9e25ab	0.07722028
11	0xba507f9c	-0.00079535856
12	0x3d6846a9	0.05670801
13	0x3d482d21	0.048871163
14	0xb841796f	-4.612788e-05
15	0xbd74e3d4	-0.059787586
16	0x3debea94	0.115193516
17	0xb81e6c6e	-3.777112e-05
18	0xbc405543	-0.011739078
19	0xbd74bcbe	-0.05975031
20	0x3c9676e2	0.018367235
21	0xba5a3fc2	-0.00083255407
22	0xb8c0cc74	-9.193356e-05
23	0xbdc5b830	-0.096542716
24	0x3dc27f4e	0.09496938
25	0x3d77d09e	0.060501687
26	0xbd43a725	-0.047766823
27	0x3da590c7	0.08084255
28	0xbcc0360b	-0.02346327
29	0xbb90ec8e	-0.0044227308
30	0x3a886f67	0.0010409177
31	0xba46064e	-0.000755404
32	0x3dcc645f	0.09980082
33	0xbcd4f55e	-0.025995906
34	0x3d83135d	0.06400178
35	0x3e0df1f3	0.13861828
36	0x3bbaa06e	0.0056953942
37	0x3dc1293d	0.09431694
38	0x3b50cd5c	0.0031860685
39	0xbdd28330	-0.10278928
40	0x3ace3329	0.00157318
41	0xbe158978	-0.14603221
42	0x3b684be6	0.003544563
43	0x3dc9e21d	0.09857581
44	0xbaa63084	-0.0012679254
45	0xbc319833	-0.01083951
46	0xbda80a80	-0.08205128
47	0xbd566bca	-0.05234889
48	0xbd6f4683	-0.058416855
49	0x3da2aeca	0.079434946
50	0x3dee4637	0.11634486
51	0xbd3b7df0	-0.0457744
52	0xbd99ca54	-0.07509294
53	0xbd968dde	-0.07351278
54	0x3b13b1ce	0.00225364
55	0x3ce511d7	0.027962608
56	0x3dc9d570	0.09855163
57	0x3dd614bd	0.10453174
58	0x3d9412c0	0.07230139
59	0xbd8247cc	-0.063613504
60	0xbdd9264b	-0.10603007
61	0xbd4188fc	-0.04724978
62	0xbcaae259	-0.020859884
63	0x3dfc7d69	0.123286076
64	0x3de369e5	0.11104182
65	0x38b8bab6	8.808581e-05
66	0x3c564ad9	0.0130793685
67	0xbc8433d8	-0.016138002
68	0x3e3090b1	0.17242695
69	0x3debb63b	0.11509367
70	0xbcaada9e	-0.020856198
71	0xbe1cf209	-0.15326704
72	0x3dd4938b	0.10379704
73	0xbdfb4904	-0.12269786
74	0xbde124b7	-0.10993331
75	0xbe0d0e28	-0.13774931
76	0x3a42e339	0.00074343715
77	0xbdc6b7f7	-0.09703057
78	0xbc99af8a	-0.018760461
79	0xbe0cf978	-0.1376704
80	0xbc316cb4	-0.0108291395
81	0x3b75a2ca	0.0037481063
82	0x3d3c3aa8	0.045954376
83	0x3db834ac	0.08994421
84	0xba3753bb	-0.0006993373
85	0x3d896488	0.06708628
86	0x3e23d3c3	0.1599875
87	0x3df903c5	0.12158922
88	0xbcd4ecb0	-0.025991768
89	0xb8ea74cd	-0.00011179745
90	0x3dad7733	0.08470001
91	0xbcac0e17	-0.021002812
92	0x3e08a160	0.1334281
93	0x3cdb8eeb	0.026801547
94	0x3db4898d	0.08815298
95	0x3defb98f	0.11705314
96	0xba2ff630	-0.0006712405
97	0xbc7cac1d	-0.015421894
98	0xbd6180e1	-0.05505455
99	0xbd3ead0e	-0.046551757
100	0x3cb4f7ca	0.022090811
101	0x3b12d090	0.0022402145
102	0xbdc8c084	-0.098023444
103	0x3a391c88	0.00070614414
104	0x3da2ea51	0.079548486
105	0xbc808edc	-0.01569312
106	0xbd80586a	-0.06266864
107	0xbb8d9c41	-0.0043216054
108	0xbb8d7231	-0.004316591
109	0xba4e1be4	-0.00078624324
110	0x3d7f9673	0.06239934
111	0xbd33ca7b	-0.043894272
112	0x3d7211a4	0.059098855
113	0xbcec15c4	-0.028818972
114	0xbd1e16b9	-0.03859589
115	0x3da0e144	0.07855466
116	0xba313bdc	-0.0006760934
117	0x3ddc7b08	0.10765654
118	0xbd210362	-0.039309867
119	0xb8476773	-4.7541642e-05
120	0xb963e0fa	-0.00021732217
121	0xba132d2a	-0.0005614335
122	0x3d7167fa	0.05893705
123	0xbd148282	-0.036257274
124	0xbc35cb3b	-0.011095817
125	0xb6bd1b07	-5.6357853e-06
126	0x3cd04807	0.02542497
127	0xbcb77ab7	-0.022397382
128	0x3d6123d2	0.0549658
129	0x3d2d2340	0.042269945
130	0xbd6b0dcf	-0.057386216
131	0x3df2a507	0.11847883
132	0xbdbe52c1	-0.09293128
133	0xbc89d657	-0.016825838
134	0xb97df6ae	-0.00024219856
135	0xbd304ae1	-0.04304016
136	0xbde3dc21	-0.11125971
137	0x3b982e69	0.0046442044
138	0x3d14214a	0.03616456
139	0xbda6dd10	-0.08147633
140	0x3d6751e9	0.0564746
141	0xbd8c2c8f	-0.068444364
142	0xbc9232b7	-0.017846448
143	0xbd9e87ce	-0.077407464
144	0xbdef9c7e	-0.116997704
145	0x3df0635c	0.11737701
146	0xbb952508	-0.0045515336
147	0xbc795a94	-0.015219349
148	0x3be82072	0.007083946
149	0x3d352680	0.04422617
150	0x3d3fae4a	0.046797074
151	0x3d1496b4	0.036276534
152	0xba546797	-0.00081025943
153	0x3de2c893	0.11073413
154	0xbd7bbe1b	-0.061460596
155	0xbdaf1cc2	-0.08550407
156	0xbcbce853	-0.02306
157	0xbcbef8d9	-0.02331202
158	0xbb595bf3	-0.0033166378
159	0x3d8cde9d	0.068783976
160	0x3dd1e5d0	0.102489114
161	0xbc8f3221	-0.017479958
162	0xbdd2fd40	-0.1030221
163	0x39f2c14d	0.00046301857
164	0x3d718c47	0.05897167
165	0xbccf328e	-0.025292661
166	0xbcbb4a68	-0.022862628
167	0xbe039435	-0.12849505
168	0x39964abf	0.0002866592
169	0x3623c886	2.4405613e-06
170	0xbbfbd6f7	-0.007685538
171	0x3dc804b7	0.09766524
172	0xbd467244	-0.048448816
173	0x3d7bf100	0.061509132
174	0xbdc31712	-0.09525885
175	0xbdde11d1	-0.10843242
176	0x3dd9f3af	0.10642182
177	0xbdb5fd8d	-0.088862516
178	0xbda31597	-0.07963102
179	0x3d96c75b	0.07362243
180	0x3d8227bf	0.06355237
181	0xb8f11027	-0.00011494784
182	0xbddeee9a	-0.108853534
183	0x3a550833	0.0008126527
184	0xbdfa2f8c	-0.122161
185	0xbd93e00c	-0.07220468
186	0xbdf4e86c	-0.119583935
187	0x3ae3b123	0.0017371516
188	0x3c843f30	0.016143411
189	0xbe018ce1	-0.12651397
190	0xbd57a26c	-0.052645132
191	0xbcf95a61	-0.030438604
192	0xbd28add4	-0.0411814
193	0x3d0f5b92	0.034999438
194	0x3a0971a5	0.00052430696
195	0x3dab8c33	0.0837635
196	0xb99a6e47	-0.00029455332
197	0xbd6bbdf6	-0.057554208
198	0xbbc90d80	-0.0061356425
199	0x3c57e12e	0.013176246
200	0xbdbc43f1	-0.09192646
201	0xbda7dfcd	-0.081969835
202	0x3d25165d	0.04030453
203	0x3dab50c9	0.08365018
204	0x3daedd23	0.08538272
205	0x3c2d0722	0.010560783
206	0x3dd586ce	0.104261026
207	0x3c9bc29a	0.019013692
208	0xbe0141a3	-0.12622695
209	0x3909531a	0.00013096296
210	0xbd90ac13	-0.070640706
211	0xbd92fe11	-0.071773656
212	0xb9f9acab	-0.0004762163
213	0x3b050c88	0.0020301659
214	0x3dd75168	0.10513574
215	0x3dbe6542	0.09296657
216	0xbd5dd714	-0.054160193
217	0x3df9168c	0.121625036
218	0xbd6fc1f7	-0.05853459
219	0xbaeec33c	-0.0018216143
220	0xbd96a5ba	-0.073558286
221	0x3a1fd07f	0.0006096437
222	0x3d07e671	0.03317875
223	0xbd1cd834	-0.038292125
224	0xbcd5b4b2	-0.026087139
225	0x3dd8c0a5	0.10583619
226	0x3debf6b6	0.11521666
227	0x3e030d7f	0.12798117
228	0x3e03e1bc	0.1287908
229	0xbdbef629	-0.09324295
230	0xbe03a3cd	-0.12855454
231	0x3db3f068	0.08786088
232	0x3e2287f7	0.15872179
233	0xbcd7322f	-0.026269047
234	0xbe0b6749	-0.13613619
235	0x3e0e0368	0.13868487
236	0x3dad6863	0.08467176
237	0x3dec1497	0.11527365
238	0xbdf35ac4	-0.118825465
239	0xbc580b28	-0.013186254
240	0x3dc7039a	0.09717484
241	0x3d75539e	0.059894197
242	0x3ded48b9	0.11586136
243	0xbd801336	-0.06253664
244	0x3c2dbef7	0.010604612
245	0xbd29ab00	-0.041422844
246	0x3e3c0b3c	0.1836366
247	0xbd030038	-0.03198263
248	0x3ccb462d	0.024813736
249	0x3bbfed44	0.0058571417
250	0x3d9b5029	0.07583649
251	0x3c93f197	0.018059535
252	0x3da721bd	0.08160732
253	0xbdcf8b88	-0.10134035
254	0xba4e568a	-0.00078711717
255	0x3b88ce3d	0.004174976

pos_mlp.2.bias f4 [32]
0	0xbddabcd3	-0.106805466
1	0xbc99aca1	-0.018759074
2	0x3e3a8188	0.18213475
3	0xbc47ed98	-0.012202643
4	0x3de57e4c	0.1120573
5	0xbd3820da	-0.044953205
6	0xbdd044fd	-0.101694085
7	0x3d79c5aa	0.060979523
8	0xbdc88dd1	-0.09792674
9	0xbd8ef905	-0.069810905
10	0xbe21851d	-0.15773435
11	0x3d8f38ce	0.069932565
12	0xbda26a01	-0.07930375
13	0x3d969641	0.073528774
14	0x3dd1fb31	0.10252989
15	0xbbc7c656	-0.0060966415
16	0x3a6e58ff	0.0009092241
17	0x3e06d6d7	0.13167892
18	0x3d88147d	0.06644533
19	0x3e213d14	0.15745956
20	0x3df5d931	0.120043166
21	0x3d497a4f	0.04918891
22	0xbcdf627a	-0.027268637
23	0x3de82f8f	0.11337196
24	0xbda8b1bd	-0.08237026
25	0x3d644a9a	0.055735208
26	0xbe033a12	-0.12815121
27	0xbd65f583	-0.05614234
28	0x3e09be27	0.13451444
29	0xbcda0720	-0.026614726
30	0xbceb2a24	-0.028706618
31	0xbda32b03	-0.07967188

dec_trunk.0.weight f4 [128, 288]
0	0x3d2271d2	0.03965933
1	0xbc8eaeb0	-0.017417282
2	0x3c09c555	0.008408864
3	0xba422332	-0.0007405757
4	0xbd02fee7	-0.031981375
5	0x3d0a82b1	0.033816043
6	0xbd2337b1	-0.039848033
7	0xba93e548	-0.0011283541
8	0xbca46ebc	-0.020072334
9	0x3c9278cc	0.017879866
10	0x3c5a9c04	0.013342861
11	0x3d3cf84b	0.046135228
12	0x3c2a7c72	0.010405647
13	0xbc2321c5	-0.009956782
14	0x3d43ee77	0.04783484
15	0x3d44372d	0.047904182
16	0xbd5acced	-0.05341809
17	0xbd718675	-0.05896612
18	0xbc856a2c	-0.016285978
19	0x3a28cd43	0.0006439278
20	0x3d4a6443	0.049412023
21	0x3c1c8046	0.009552067
22	0xbc8183ce	-0.01580992
23	0x3d407c02	0.046993263
24	0x39938562	0.00028137403
25	0x3c65c205	0.014023309
26	0x3d26b60f	0.04070097
27	0x3cf8ce20	0.030371726
28	0x3d12ffab	0.035888355
29	0x3c495f36	0.012290766
30	0xbd49a3a0	-0.04922831
31	0xbb6eac0b	-0.0036418464
32	0xbc9d68a3	-0.019214934
33	0x390d6d19	0.0001348745
34	0x3b568623	0.003273376
35	0xbd2b326b	-0.04179613
36	0xbca97c91	-0.02068928
37	0x3c8f8e68	0.01752396
38	0xbd2d7509	-0.04234794
39	0x3c9e5e89	0.019332187
40	0xbd12e26b	-0.03586046
41	0x3ced811f	0.028992234
42	0xbd27899a	-0.04090271
43	0x3c3ea0f9	0.011635059
44	0x3d2d6be8	0.042339236
45	0xbcf5e34f	-0.030015616
46	0xba651469	-0.0008738698
47	0xba529699	-0.0008033305
48	0x3c92e042	0.0179292
49	0xbd08b30c	-0.033373877
50	0xbd025d19	-0.031827066
51	0xbd81f811	-0.06346143
52	0xbd0e29e0	-0.034707904
53	0x3ca11b58	0.019666359
54	0xbd378ab5	-0.044810016
55	0x38e92081	0.0001111636
56	0xbc4efea9	-0.012633958
57	0xbd328794	-0.04358633
58	0x3d3accec	0.045605585
59	0x3bb448cd	0.0055018426
60	0x3c1054e9	0.008809307
61	0x3d2d2b59	0.042277668
62	0xbd3d2a74	-0.046183065
63	0xbd00303b	-0.031295996
64	0x3d3856a7	0.045004513
65	0x3b22c402	0.0024836068
66	0x3c8f7144	0.017510064
67	0x3c1cd7fd	0.00957298
68	0x3bddc84a	0.006768261
69	0x3d48c380	0.04901457
70	0xbd4ef2c9	-0.050524507
71	0xbc501cdf	-0.012702196
72	0xbc44ca57	-0.012011132
73	0xbca8985f	-0.020580469
74	0x3d341669	0.043966684
75	0xbcf55613	-0.02994827
76	0xbd09b242	-0.033617266
77	0x3b766a6e	0.0037600058
78	0x3c575ca0	0.013144642
79	0xbc803b9a	-0.01565342
80	0xbd079e54	-0.033109978
81	0x3cb8b18d	0.0225456
82	0xbd796c06	-0.060894035
83	0xb9cd1d84	-0.00039122638
84	0x3bea6d54	0.007154146
85	0xbbb50381	-0.0055240993
86	0xbd713a4c	-0.058893487
87	0x3cac5a51	0.02103916
88	0x3d0e40f1	0.0347299
89	0xbd621e25	-0.05520453
90	0xbbd58a52	-0.006516733
91	0xbd1d2c4a	-0.038372315
92	0x3c938bab	0.018010935
93	0xb8525cdd	-5.0154387e-05
94	0xbd35e0b9	-0.044403765
95	0xbc71418f	-0.014725103
96	0xbd44e8f8	-0.04807374
97	0x3d1a4018	0.03765878
98	0xbca6ec5b	-0.020376375
99	0x3d4b95e7	0.049703505
100	0xbb17770c	-0.002311173
101	0x3c40d945	0.011770551
102	0xbcdbea19	-0.026845025
103	0x3ca1c080	0.019745111
104	0xbc238b40	-0.00998193
105	0xbb7242e8	-0.0036966149
106	0xbd582bb0	-0.05277604
107	0xbd4042e8	-0.046938807
108	0xbd42a218	-0.047517866
109	0xbc6e216b	-0.014534335
110	0xbc9f35b3	-0.019434785
111	0x3d44a6d2	0.048010655
112	0xbbd97210	-0.0066359118
113	0xbd84ffad	-0.06494079
114	0x3d2b55dd	0.041829932
115	0x3d1fa6f0	0.038977563
116	0x3d3683a1	0.044559125
117	0x3bf4d39b	0.0074715144
118	0xbcbde0b9	-0.023178445
119	0xbc977b16	-0.01849131
120	0x3d0ab119	0.0338603
121	0x3caed57b	0.02134203
122	0x3d1f423c	0.038881525
123	0xbd226f63	-0.039657008
124	0xbadf4847	-0.001703509
125	0xb98a439b	-0.0002637178
126	0xbd4652f6	-0.04841896
127	0x3d039a37	0.032129493
128	0xbd09a321	-0.033602837
129	0x3bf967bb	0.0076112426
130	0xbd3b086b	-0.045662325
131	0xbd40026c	-0.04687731
132	0xbc4f8c77	-0.012667767
133	0x3d09d60e	0.033651404
134	0x3c324b42	0.010882201
135	0xbc82e57e	-0.015978571
136	0x3d03c272	0.03216786
137	0xbc9a125b	-0.01880758
138	0xbcda852b	-0.026674828
139	0xbd3f7ef0	-0.046751916
140	0xbd3bd925	-0.045861382
141	0xbca90425	-0.02063186
142	0xbb8316da	-0.004000527
143	0x3d4bae1d	0.049726594
144	0xbca37b5b	-0.019956281
145	0xbd19ed47	-0.0375798
146	0xbd34cd68	-0.044141203
147	0xbb72ec06	-0.003706695
148	0x3d1d99ff	0.03847694
149	0xbd22f915	-0.039788324
150	0x3cdf0cb0	0.02722773
151	0x3d02dbba	0.03194783
152	0xbd85f858	-0.065415084
153	0x3b766856	0.003759881
154	0xbbaf5c62	-0.005351589
155	0xbbbf54ba	-0.0058389576
156	0x3d3730d0	0.044724286
157	0x3b25e687	0.0025314407
158	0xbd4ea8e5	-0.05045404
159	0xbd49c660	-0.04926145
160	0x3c5c04dc	0.013428893
161	0x3b9e2ab2	0.004826867
162	0x3cab036e	0.020875659
163	0xbd7e4f1f	-0.062087175
164	0x3d256024	0.04037489
165	0xba001f16	-0.00048874447
166	0x3ca9b721	0.020717205
167	0xbbef94a0	-0.0073114187
168	0xbc7f149e	-0.01556888
169	0x3c822753	0.015887892
170	0x3b44d62c	0.0030034883
171	0x3bb30d85	0.005464258
172	0x3b559759	0.003259143
173	0x3d1da742	0.038489588
174	0xbd07e292	-0.03317506
175	0x3c7dbd12	0.015486972
176	0x3a8084a7	0.0009805158
177	0xbcde45c2	-0.027132872
178	0xbd3a96c0	-0.045553923
179	0xbac92706	-0.0015346713
180	0x3d1e76e0	0.038687587
181	0x3cced520	0.02524811
182	0xbc5eec0c	-0.013606083
183	0x3c8a1952	0.016857777
184	0x3c7d97d7	0.015478096
185	0xbcb6da90	-0.022321016
186	0x37da6b34	2.6037545e-05
187	0xbd633e11	-0.055479113
188	0xbd2be7f4	-0.041969255
189	0xbcd2bf9f	-0.025726138
190	0x3c2c8950	0.010530785
191	0x3c9a6321	0.018846096
192	0xbd13c8db	-0.036080223
193	0xbd2ea914	-0.042641714
194	0x3cc4ebb6	0.024038177
195	0xbce91543	-0.028452521
196	0x3cd82084	0.026382692
197	0xbd27ef34	-0.040999606
198	0xb892d6c4	-7.001826e-05
199	0x3c8f7a1d	0.017514283
200	0xbd22148d	-0.03957038
201	0xbaedd227	-0.0018144295
202	0xbca3cb9b	-0.019994548
203	0x3d143660	0.03618467
204	0xbbb1ab3a	-0.005422023
205	0xbd56bf8f	-0.05242878
206	0x3d18a3e3	0.03726567
207	0x3a3b3eec	0.000714286
208	0xbcae92a9	-0.021310167
209	0xbcab30b2	-0.020897243
210	0xb81ccb2a	-3.738251e-05
211	0xbc3e2b2a	-0.011606971
212	0xbd83d0d6	-0.06436317
213	0xbd5a24f8	-0.053257912
214	0xbcc4786a	-0.0239832
215	0x3d01953d	0.031636465
216	0xbd658737	-0.056037154
217	0x3d0a0b8b	0.033702414
218	0x3c1a9ce0	0.009436816
219	0xbc11d29c	-0.008900311
220	0xbd1fd083	-0.03901721
221	0xba6155a8	-0.00085958326
222	0x3b94d9a3	0.004542546
223	0x3cfe68d3	0.031055843
224	0xbb9cfb7e	-0.0047907224
225	0xbc80b5d3	-0.0157117
226	0x3c510a66	0.012758827
227	0xb9a10ec9	-0.0003071933
228	0xbc43ed29	-0.011958399
229	0x3ce94538	0.028475389
230	0x3cad9b3c	0.021192186
231	0x3d0f772d	0.035025764
232	0x3d1a3a24	0.037653103
233	0x3d1b920e	0.037981085
234	0x3ca4b28d	0.02010467
235	0x3c13c4d6	0.009019097
236	0x3c91e556	0.017809551
237	0xbc6fb695	-0.014630933
238	0x3d54e600	0.051977158
239	0xbd0a30f6	-0.0337381
240	0xbd737a84	-0.059443012
241	0x3d062285	0.032747764
242	0xbb13bc62	-0.0022542705
243	0xbc85fde6	-0.01635642
244	0x3bc983cb	0.006149744
245	0x3d00ea6d	0.031473566
246	0x3c92450f	0.017855195
247	0xbcb84934	-0.022495843
248	0xbc313fe0	-0.010818452
249	0xbceeb493	-0.029138839
250	0x3cd04955	0.025425592
251	0xbc61e9b7	-0.013788632
252	0xbce732a5	-0.028222391
253	0x3c1e624a	0.009666989
254	0x3ca927e3	0.020648902
255	0x3d10ff19	0.03539953
